time_LossPrune_ClassifyFixed/model1_tickets.pth (torch, 166734 bytes, 12 tensors)

weight f4 [13, 8]
0	0xbf07d2b7	-0.530559
1	0xbf90a2e0	-1.1299706
2	0xbf2c62dc	-0.6733835
3	0xbf4454d1	-0.7669192
4	0xbf33ee5f	-0.702856
5	0x3f7d598f	0.9896478
6	0xbee580cc	-0.44824827
7	0x3f648780	0.89269257
8	0x3f4abe6c	0.7919681
9	0xbf3e5ac2	-0.74357235
10	0x3f775333	0.96611327
11	0x3e4aef3e	0.19817826
12	0x3f011640	0.50424576
13	0x3fa66155	1.2998453
14	0xbf8b737e	-1.089462
15	0x3e977d48	0.2958777
16	0xbfa8a230	-1.3174496
17	0xbec66a7d	-0.3875312
18	0xbf31b6c8	-0.6941953
19	0xbe3c8ac2	-0.18412307
20	0xbe225e69	-0.15856327
21	0xbf59c61d	-0.8506792
22	0x3df37820	0.118881464
23	0x3d0e7a59	0.03478465
24	0x3f768124	0.962908
25	0x3d8b997f	0.068163864
26	0xbf819395	-1.0123163
27	0x3d6aecf1	0.05735487
28	0x3dd7a8c2	0.10530235
29	0xbfcc0600	-1.5939331
30	0xbec91916	-0.39276952
31	0x3f08fb4b	0.5350844
32	0xbfa94820	-1.3225136
33	0x402e7944	2.7261515
34	0xbfdb375a	-1.7126267
35	0x404a63bd	3.1623375
36	0x3f608704	0.8770602
37	0xbf77d232	-0.9680511
38	0x3f5024be	0.81306064
39	0x3fb5085c	1.4143176
40	0x3f760c50	0.9611254
41	0x3ea14d5d	0.31504336
42	0x3fbc9fb0	1.4736233
43	0xbeacea2d	-0.33772412
44	0xbd60a0db	-0.054840904
45	0xbf4c1561	-0.7972012
46	0xbf2ec202	-0.6826478
47	0x3dafeb59	0.08589811
48	0x3faa88c5	1.3322989
49	0xbf221570	-0.6331396
50	0x3fcbb71f	1.5915259
51	0x3faabfb2	1.3339751
52	0xbff5f4c7	-1.9215325
53	0xbf140dc1	-0.57833487
54	0xbf330fd4	-0.69946027
55	0x3f2c2361	0.67241484
56	0x3ca28761	0.019839944
57	0xbf6e1694	-0.930032
58	0xc02278bd	-2.5386193
59	0xbfaea98c	-1.3645492
60	0xbf9633df	-1.173458
61	0x3fc7bc33	1.5604309
62	0x3e605171	0.21906067
63	0x3e59a3dd	0.21253915
64	0xbf454e39	-0.77072483
65	0xbfa44ba9	-1.283559
66	0x3eb690e7	0.35657427
67	0x3ebdf6a5	0.37102237
68	0x3f98bb28	1.1932116
69	0xbf6306e1	-0.8868237
70	0xbe4ed1b3	-0.20197181
71	0xbf1a4dbb	-0.6027486
72	0xbf99d3d5	-1.2017771
73	0xbe43902c	-0.19097966
74	0xbc81b51c	-0.01583343
75	0xbf6fa909	-0.936173
76	0x3f4f88b1	0.8106795
77	0xbf2f0b0d	-0.6837624
78	0x3eb32874	0.349918
79	0xbf8406b3	-1.0314544
80	0x3f2efa08	0.6835027
81	0xbf1677a8	-0.5877633
82	0x3f170268	0.58988047
83	0x3fe56a47	1.7923058
84	0x3df20b29	0.11818535
85	0xbf25f42b	-0.64825696
86	0xbe113c3a	-0.14183131
87	0x3ff2aaeb	1.895841
88	0x3fab5e9d	1.3388249
89	0x3f110d16	0.5666059
90	0x3ea6b573	0.3256031
91	0xbf634f0d	-0.88792497
92	0xbd5db2f7	-0.054125752
93	0xbd1c548d	-0.03816657
94	0x3fb21ccf	1.3915042
95	0xbf953074	-1.1655412
96	0xbf17260c	-0.5904243
97	0xbfb0bb57	-1.3807172
98	0x3f861b74	1.0477128
99	0xbf3b27fb	-0.7310788
100	0xbe8d89a2	-0.27644068
101	0xbf9a9ace	-1.2078493
102	0x3fe13c28	1.7596483
103	0x3f513ecf	0.81736463

weight_ih_l0 f4 [192, 9]
0	0x3e286f12	0.1644862
1	0xbcf32d27	-0.029684616
2	0x3a691e66	0.00088927743
3	0xbe13894c	-0.14407843
4	0xbd5d503f	-0.054031607
5	0xbda807d9	-0.08204622
6	0xbdb70da9	-0.08938152
7	0xbdc40c2f	-0.09572636
8	0x3d80cf7a	0.06289573
9	0x3d5b6ff8	0.05357358
10	0x3d771f91	0.06033284
11	0xbdac7af1	-0.08421887
12	0x3d9ae6c6	0.07563548
13	0x3dba9a28	0.09111434
14	0x3db10669	0.08643801
15	0xbd2988ee	-0.041390352
16	0x3b6383c6	0.0034715994
17	0x3c6dd00b	0.014514933
18	0x3d5be7d9	0.053687904
19	0x3da30282	0.07959463
20	0x3d2e226c	0.042513296
21	0xbe52d6c2	-0.20589736
22	0x3e76bfd0	0.24096608
23	0xbd7942b2	-0.06085462
24	0x3dc54d33	0.09633865
25	0xbc818337	-0.015809638
26	0x3e5e46c8	0.21706688
27	0x3bc9360f	0.0061404775
28	0xbe0e11d8	-0.13873994
29	0xbcf84231	-0.030305
30	0x3ddf8afe	0.109151825
31	0x3e39a39e	0.18128821
32	0x3e812f1e	0.2523126
33	0x3dbff1aa	0.09372266
34	0xbc8a429f	-0.01687747
35	0x3e106c5d	0.14103837
36	0x3c68aae1	0.014200897
37	0x3e12c2b0	0.1433208
38	0x3e432281	0.19056131
39	0xbd19cec3	-0.0375507
40	0x3b72c5e8	0.003704423
41	0xbdb0d8f0	-0.086351275
42	0xbe2f5ad3	-0.1712449
43	0xbd46986b	-0.0484852
44	0x3dd472b3	0.1037344
45	0x3dac6e76	0.08419506
46	0x3d380071	0.044922296
47	0xbd795f1e	-0.060881726
48	0xbb3f7ce8	-0.0029218737
49	0xbc645492	-0.013936179
50	0xbdb53daa	-0.08849652
51	0x3e5aee56	0.2137998
52	0xbd78ac28	-0.060711056
53	0x3dd8de56	0.10589282
54	0x3e6bf3ae	0.23042175
55	0xbdc1d7f0	-0.09465015
56	0x3e47681f	0.19473313
57	0xbdc6c69f	-0.09705853
58	0xbb80cde7	-0.0039307955
59	0xbdbe5a08	-0.09294516
60	0xbe87d4e9	-0.26529625
61	0x3e75219c	0.23938602
62	0x3ce1b7b0	0.02755341
63	0x3e1bbdea	0.15209165
64	0xbe1a4103	-0.15063863
65	0x3d806668	0.062695324
66	0x3c6afec5	0.014342968
67	0xbd1944cc	-0.037419125
68	0x3d722f70	0.05912727
69	0xbe191fdf	-0.14953564
70	0xbddf77ed	-0.10911546
71	0x3e781604	0.24227148
72	0xbd73b5f8	-0.05949971
73	0xbdbfc781	-0.09364224
74	0x3ddbdeed	0.10735879
75	0x3e122cad	0.14274855
76	0x3e6962c4	0.22791582
77	0x3dd97e39	0.10619778
78	0xbbc16028	-0.0059013553
79	0xbe13b538	-0.14424598
80	0xbc9e6e7f	-0.019339798
81	0x3e3a4d44	0.18193537
82	0x3dbfcea3	0.09365585
83	0x3d924b78	0.07143301
84	0x3cf4eead	0.029898966
85	0xbdf6ed87	-0.120570235
86	0x3e284162	0.16431192
87	0x3b199530	0.002343487
88	0x3da304ea	0.07959922
89	0xbda10526	-0.0786231
90	0xbe059b20	-0.13047457
91	0xbdacc42d	-0.08435855
92	0xbd8f940c	-0.070106596
93	0xbe75efd2	-0.24017265
94	0x3ca93292	0.020653997
95	0xbda02223	-0.07819011
96	0xbd80e079	-0.06292815
97	0xbcbcbcf4	-0.023039319
98	0x3e6d5e26	0.23180446
99	0x3dd39f96	0.10333173
100	0x3daf5d30	0.08562696
101	0xbea12ab8	-0.31477904
102	0xbe096d62	-0.13420632
103	0xbe4c60dc	-0.19958824
104	0xbe02decf	-0.12780307
105	0x3bc7efa7	0.006101567
106	0xbddd6ce7	-0.10811787
107	0x3e0372c5	0.1283675
108	0x3e50fb99	0.20408477
109	0xbccbdaa2	-0.024884526
110	0x3d87b319	0.06625957
111	0xbd4fa2f7	-0.050692525
112	0xbcea88cb	-0.028629681
113	0x3d386727	0.04502025
114	0x3ddbd8f9	0.107347436
115	0x3ce2389f	0.02761489
116	0xbde4fd62	-0.111811414
117	0x3dca3c74	0.09874812
118	0xbdbf0b05	-0.09328274
119	0xbe1926f3	-0.14956264
120	0x3d79bcd1	0.060971085
121	0x3ba2bb66	0.0049661873
122	0x3e0340b2	0.12817648
123	0xbd70fd0e	-0.05883508
124	0xbe6a80d1	-0.22900702
125	0xbd84a5d8	-0.06476945
126	0x3e1228a1	0.14273311
127	0x3e172394	0.14759666
128	0x3e0b45fc	0.13600916
129	0x39bb1b3e	0.00035687716
130	0xbc8abd9e	-0.01693612
131	0xbc577bf5	-0.013152112
132	0xbe16f0e0	-0.14740324
133	0xbd2c9438	-0.04213354
134	0xbd67e014	-0.056610182
135	0x3deea819	0.11653156
136	0xbc1d8fc7	-0.009616799
137	0x3dc31ea2	0.09527327
138	0xbd854f07	-0.06509214
139	0xbbaade5d	-0.005214496
140	0xbe038fe8	-0.12847865
141	0x3d269d9d	0.040677655
142	0x3d9bdb1b	0.076101504
143	0xbe46fc85	-0.19432266
144	0x3e955ce5	0.29172435
145	0xbdc3f92b	-0.095690094
146	0x3e3bd81e	0.18344161
147	0xbe53eb5c	-0.20695251
148	0x3e365d9c	0.17809147
149	0xbd148672	-0.03626103
150	0xbd08b338	-0.03337404
151	0xbd01d361	-0.031695727
152	0x3e08bda1	0.13353588
153	0x3e6a0e60	0.22857046
154	0x3d4e21e7	0.0503253
155	0x3e4a987b	0.19784729
156	0xbd8b9f63	-0.0681751
157	0xbd286dc8	-0.04112032
158	0x3e1f71e7	0.15570794
159	0x3d80d8fa	0.06291385
160	0x3d3bb750	0.045829117
161	0xbe16993f	-0.14706896
162	0x3dbec938	0.09315723
163	0xbd5534cd	-0.052052308
164	0x3da16f50	0.07882559
165	0x3e60c46f	0.21949933
166	0x3c890182	0.016724352
167	0x3e5d662c	0.21621007
168	0x3dc0e774	0.09419146
169	0x3d683a05	0.056695957
170	0xbe7b5f20	-0.24548006
171	0x3e484446	0.19557294
172	0x3e425419	0.18977393
173	0x3b6f5c5e	0.003652356
174	0x3e5f80ec	0.21826524
175	0x3c60c4d8	0.013718806
176	0x3e478aa4	0.19486481
177	0xbdd3fe14	-0.10351196
178	0xbdc27d01	-0.09496499
179	0xbd88f74e	-0.066877946
180	0x3cbd97db	0.0231437
181	0x3d582e11	0.052778307
182	0x3d79d247	0.06099155
183	0xbd27b409	-0.04094318
184	0xbdb062d7	-0.08612602
185	0x3e085ac4	0.13315874
186	0xbe742e6c	-0.23845834
187	0xbc9bb689	-0.019007938
188	0xbb7b15ac	-0.0038312478
189	0xbd8f17f2	-0.06986989
190	0x3d74eb54	0.05979474
191	0xbe041d7c	-0.12901872
192	0x3e97159f	0.29508683
193	0xbd416f6a	-0.047225393
194	0x3e24ce77	0.16094385
195	0x3df6dc88	0.12053782
196	0xbe1c8c30	-0.15287852
197	0xbe0300af	-0.1279323
198	0x3e38e1d0	0.1805489
199	0xbd2f0de5	-0.04273786
200	0x3ebf1615	0.37321535
201	0x3cc88e8b	0.024482032
202	0xba385205	-0.0007031265
203	0x3e4ddbe8	0.20103419
204	0xbe150ae5	-0.14554937
205	0xbdcbf9ae	-0.09959732
206	0xbdbe72ac	-0.09299216
207	0x3da83a15	0.08214203
208	0x3e06114b	0.13092534
209	0x3de3b360	0.111181974
210	0x3cf8f836	0.030391794
211	0x3e2163cf	0.1576073
212	0x3e0ea7b1	0.13931157
213	0xbd45734f	-0.04820567
214	0xbe20b147	-0.15692626
215	0x3dbcbfcb	0.09216269
216	0x3dd68300	0.10474205
217	0x3df50f8f	0.11965858
218	0x3d1be02d	0.038055588
219	0x3e618975	0.22025092
220	0xbda591ff	-0.08084487
221	0x3de22912	0.1104299
222	0x3e23dece	0.16002962
223	0xbd68a95c	-0.05680214
224	0xbd2b59b1	-0.041833583
225	0xbc5e4dbe	-0.01356834
226	0xbd59ff30	-0.05322188
227	0x3e0f8857	0.14016853
228	0x3bee1f6b	0.007266929
229	0x3e0393ec	0.12849396
230	0x3ddec7d8	0.10877961
231	0xbe7a088e	-0.24417326
232	0xbd89f0d7	-0.0673539
233	0x3dfe076d	0.1240376
234	0x3e16de0e	0.14733145
235	0x3cd6626b	0.026169976
236	0x3e71d894	0.23617774
237	0xbcdcc9df	-0.026951728
238	0x3dafc6bc	0.085828274
239	0x3e3303c1	0.17481901
240	0x3db99b1a	0.090627864
241	0x3d51ed3a	0.051251628
242	0xbd5f8427	-0.05456939
243	0x3db022e8	0.08600408
244	0x3bbb06ce	0.0057075983
245	0xbcfc6e9c	-0.030814461
246	0xbe62711f	-0.22113465
247	0x3e0e0ba2	0.13871625
248	0xbd4d77e2	-0.050163157
249	0xbe019a7e	-0.1265659
250	0x3d9f0181	0.07763959
251	0x3d1b2bb2	0.037883468
252	0x3e2bf9c3	0.16794495
253	0xbdfae4f2	-0.12250699
254	0x3e9974ab	0.29971823
255	0x3cce3b21	0.02517468

weight_hh_l0 f4 [192, 64]
0	0x3d08d938	0.03341028
1	0xbe00a0ee	-0.1256139
2	0xbe8fea39	-0.28108385
3	0xbe7cccbc	-0.24687475
4	0xbd70fc46	-0.058834337
5	0xbe21baba	-0.15793887
6	0xbe04f779	-0.12985028
7	0x3d1c2d3e	0.038129084
8	0x3e17c180	0.14819908
9	0xbcd42d9b	-0.025900653
10	0x3ded9df6	0.11602394
11	0xbe627f8e	-0.22118971
12	0x3b60873e	0.0034260298
13	0xbe0c680e	-0.13711569
14	0x3e761bf1	0.24034096
15	0xbe9ed105	-0.31018844
16	0x3d3a8f18	0.04554662
17	0x3e8385fa	0.25688154
18	0x3dd9baaf	0.1063131
19	0xbd338a5b	-0.043833118
20	0x3d3f8431	0.046756927
21	0xbe99aed9	-0.3001621
22	0x3e38378f	0.17989944
23	0xbe14c081	-0.1452656
24	0x3e5d1449	0.2158977
25	0x3e6ebf0b	0.23315065
26	0xbe15772f	-0.14596246
27	0xbe1cdf6d	-0.15319605
28	0x3e32dbe0	0.17466688
29	0xbccae42a	-0.024767
30	0x3e5c3570	0.2150476
31	0xbdca853a	-0.09888692
32	0x3ea044df	0.31302544
33	0xbe43b451	-0.19111754
34	0xbe0da2ae	-0.13831589
35	0xbe25ce2f	-0.16191934
36	0x3e81d97f	0.2536125
37	0xbea0d691	-0.314137
38	0xbe4262b1	-0.1898296
39	0x3e4537a2	0.19259503
40	0x3d8bc779	0.06825156
41	0xbe05d29b	-0.13068621
42	0xbe6500cb	-0.22363584
43	0xbe0213d6	-0.1270288
44	0xbddf3c9c	-0.10900232
45	0xbdd0cd08	-0.101953566
46	0x3e205d2d	0.15660544
47	0x3e832e8c	0.2562145
48	0x3e9087c7	0.2822859
49	0xbde16f9d	-0.11007617
50	0x3e5eb7f0	0.21749854
51	0x3da87d93	0.082270764
52	0x3e5b8c75	0.21440299
53	0x3c1c6638	0.009545855
54	0x3e2d420a	0.16919723
55	0x3d1bdede	0.03805434
56	0x3e8ff80d	0.28118935
57	0x3e4759c5	0.19467838
58	0xbc7ba13d	-0.015358266
59	0xbe6d7be2	-0.23191789
60	0xbe13cc3a	-0.14433375
61	0xbe48b28a	-0.19599357
62	0xbdfaa7da	-0.122390464
63	0x3e1727e1	0.14761306
64	0xbc8023c6	-0.015642058
65	0xbdb0457b	-0.08607002
66	0xbdb2ddde	-0.08733724
67	0xbdb886bf	-0.09010076
68	0xbd9a89ac	-0.0754579
69	0xbbb09ccb	-0.005389785
70	0xbdf0460e	-0.11732112
71	0x3c5e8f8f	0.013584032
72	0xbd54aa7a	-0.05192039
73	0xbd9cb9a3	-0.07652595
74	0xbc530ba1	-0.0128811905
75	0xbe0d98c9	-0.13827814
76	0x3d407b51	0.046992604
77	0xbd2ae026	-0.04171767
78	0x3c199d8a	0.009375939
79	0xbe266ef4	-0.16253263
80	0x3d2c6a34	0.04209347
81	0x3d7ba663	0.061437976
82	0x3dfd217b	0.123599015
83	0xbd81cbfd	-0.06337736
84	0x3d39a4ca	0.04532317
85	0xbd1f030d	-0.03882127
86	0x3d571e78	0.05251929
87	0xbe447104	-0.19183737
88	0x3deb6be7	0.1149519
89	0x3d0b27db	0.033973556
90	0xbe18bff4	-0.14916974
91	0xbe63f66f	-0.22261976
92	0xbd86147d	-0.065468766
93	0x3cb86bfd	0.02251243
94	0x3ca80fcc	0.020515345
95	0x3bcda737	0.006276037
96	0x3df179ba	0.117907956
97	0xbd9150b9	-0.07095475
98	0xbcc3aac6	-0.023885142
99	0xbd24a95a	-0.04020057
100	0x3e5bd8ff	0.21469496
101	0xbe06e791	-0.13174273
102	0xbe119af7	-0.1421927
103	0x3e2f9824	0.17147881
104	0x3e16bd5d	0.14720674
105	0x3c97882e	0.018497553
106	0xbe15fc9a	-0.14647141
107	0xbc863c38	-0.016386136
108	0xbe36b18c	-0.17841166
109	0xbd8d189f	-0.06889462
110	0x3e183261	0.14862968
111	0x3e098db2	0.13432959
112	0x3e91feff	0.2851486
113	0xbe465d9b	-0.19371645
114	0x3dd8e8a3	0.10591247
115	0x3e061c1b	0.13096659
116	0x3e2d08ee	0.16897938
117	0x3df7acd1	0.12093509
118	0x3df993b5	0.12186376
119	0xbe85f1f1	-0.2616115
120	0x3e446a6c	0.19181222
121	0x3e1cb803	0.1530457
122	0xbd8287ee	-0.06373583
123	0xbe2bddc9	-0.16783823
124	0xbc9841b8	-0.018586025
125	0xbe3b70e5	-0.18304785
126	0xbe13624d	-0.14392968
127	0x3e462ad1	0.1935227
128	0xbde68c7f	-0.11257266
129	0x3ba6ecad	0.005094132
130	0xbd8e8125	-0.06958226
131	0x3d8e60bc	0.06952044
132	0xbe34890f	-0.17630409
133	0xbc0a4225	-0.008438622
134	0xbdf7e152	-0.12103523
135	0x3dc5cfcf	0.09658777
136	0xbd6e5402	-0.058185585
137	0x3e068bb6	0.13139233
138	0x3d97ebb2	0.07418002
139	0x3dc3e69e	0.09565471
140	0x3d374e6c	0.044752523
141	0xbdb8ff1f	-0.090330355
142	0x3ded03d8	0.11572999
143	0x3e003e2d	0.12523718
144	0xbd3717b1	-0.04470033
145	0xbbf54202	-0.0074846754
146	0x3bcb54f6	0.0062051965
147	0xbd77709c	-0.060410127
148	0x3d92e476	0.07172482
149	0x3d0b17e2	0.033958323
150	0x3c8413d0	0.016122729
151	0x3e07b745	0.13253506
152	0xbdce087b	-0.10060211
153	0xbe3b325b	-0.18280928
154	0xbd0de8e6	-0.034645937
155	0x3d216f1e	0.03941261
156	0xbdd229f8	-0.10261911
157	0xbba32e75	-0.0049799033
158	0xbc50c623	-0.012742552
159	0x3dd34701	0.10316277
160	0xbd698e1e	-0.0570203
161	0x3d8ea438	0.06964916
162	0x3c3a9ba1	0.011389644
163	0x3d599fd3	0.053130936
164	0x3dca0d3a	0.09865804
165	0xbe265079	-0.16241635
166	0xbdc832ec	-0.097753376
167	0x3c0a3563	0.00843558
168	0xbd016036	-0.031585895
169	0xbd02ce7a	-0.031935193
170	0x3db8bb7b	0.09020134
171	0x3c980636	0.01855765
172	0x3df88523	0.12134769
173	0xbdf5d73b	-0.120039426
174	0x3d0cac84	0.03434421
175	0x3e1107d1	0.14163138
176	0x3cd4dcde	0.025984224
177	0xbca37b1e	-0.019956168
178	0x3bb16f62	0.005414889
179	0xbe096b05	-0.13419731
180	0xbd0e00ac	-0.03466861
181	0x3e124869	0.14285435
182	0x3dcb639a	0.09931107
183	0xbd94864f	-0.0725218
184	0x3d7ba253	0.0614341
185	0xbb998aed	-0.0046857507
186	0xbdb02ce7	-0.086023144
187	0xbd8aceff	-0.067777626
188	0x3da09423	0.07840755
189	0x3dc67b9b	0.096915446
190	0xbde80f6b	-0.11331066
191	0xbc6c158c	-0.014409434
192	0xbe0302d7	-0.12794052
193	0x3d55a62b	0.052160423
194	0x3d4744af	0.048649486
195	0xbcd881fd	-0.02642917
196	0xbc97ebd5	-0.01854507
197	0x3beed0b4	0.007288063
198	0x3d272c79	0.040813897
199	0xbdec5bdb	-0.115409575
200	0x3dd60902	0.10450937
201	0xbe1d9f7b	-0.15392868
202	0xbdeecc41	-0.11660052
203	0x3e0d7fc0	0.13818264
204	0xbda29e11	-0.07940305
205	0xbdf6ea35	-0.1205639
206	0x3d34c2f9	0.044131253
207	0x3e217afc	0.15769571
208	0xbda62e65	-0.08114318
209	0x3e0f18b0	0.13974261
210	0xbb495b1b	-0.003072447
211	0xbdab40af	-0.08361947
212	0xbc576bd1	-0.013148264
213	0xbda77993	-0.08177485
214	0xbe017296	-0.12641367
215	0xbd7f3377	-0.06230494
216	0xbd9de305	-0.07709316
217	0x3da3fb90	0.08006966
218	0x3e0a3d99	0.1350006
219	0xbd0ad428	-0.033893734
220	0xbe1e7a20	-0.15476274
221	0x3db8e5c9	0.09028203
222	0xbd034ebe	-0.032057516
223	0xbcfb9d7e	-0.030714747
224	0xbdfcabc2	-0.12337448
225	0x3de01045	0.10940603
226	0xbdf9a4b9	-0.121896215
227	0xbd92034a	-0.071295336
228	0x3d81a963	0.06331136
229	0x3d91dc92	0.071221486
230	0x3dfbd60a	0.12296684
231	0xbcb9c86b	-0.022678575
232	0xbdf7d72e	-0.12101589
233	0x3e0680cb	0.13135068
234	0xbc354247	-0.011063165
235	0x3dc2d197	0.09512632
236	0xbd9cf8b3	-0.07664623
237	0x3d37997c	0.04482411
238	0xbe18e178	-0.1492976
239	0x3d4fde96	0.050749384
240	0xbdec5009	-0.11538703
241	0xbddfad1a	-0.109216884
242	0x3da4b74a	0.08042772
243	0x3d88e710	0.06684697
244	0xbd89497f	-0.067034714
245	0xbd79c3f8	-0.060977906
246	0xbd5fd74d	-0.054648686
247	0x3c4c96fb	0.012487168
248	0xbe188adf	-0.14896725
249	0xbe02532f	-0.12727045
250	0x3df65e7c	0.1202974
251	0xbbf1be7a	-0.007377443
252	0x3c21e547	0.009881324
253	0x3e33838e	0.17530653
254	0x3e4fc7c8	0.20291054
255	0xbe800144	-0.25000966

bias_ih_l0 f4 [192]
0	0x3e09d746	0.13461027
1	0x3e08958c	0.13338298
2	0xbc82e91f	-0.015980301
3	0xbd941471	-0.072304614
4	0x3d5eb933	0.05437584
5	0x3d36dd98	0.044644922
6	0xbc9e3132	-0.019310568
7	0x3cb69923	0.022289818
8	0xbbcc49d2	-0.006234386
9	0x3da652e0	0.08121276
10	0x3e40f5c1	0.18843748
11	0x3d472b57	0.048625316
12	0x3c593aea	0.013258675
13	0x3d8ca914	0.068681866
14	0xbd4caea0	-0.049971223
15	0xbdd66f4a	-0.104704455
16	0x3df98d2d	0.1218513
17	0xbdedb8a6	-0.116074845
18	0xbdcea5a3	-0.100901864
19	0xbdcb0684	-0.09913352
20	0x3cef0e2f	0.029181568
21	0xbe7ced90	-0.24699998
22	0xbda8556b	-0.08219417
23	0xbb2c88c0	-0.0026326627
24	0x3d631234	0.05543728
25	0x3cee3eac	0.029082619
26	0xbe000dbc	-0.12505239
27	0x3da2290f	0.079179876
28	0x3aa873d0	0.0012851898
29	0x3e08da8d	0.1336462
30	0xbca7204e	-0.020401146
31	0xbd91168a	-0.07084377
32	0x3e0ac11d	0.1355023
33	0xbcf7af60	-0.030234993
34	0x3d3a0bff	0.045421597
35	0xbda3c862	-0.07997204
36	0x3dcfbb8e	0.10143195
37	0x3c2606d3	0.010133463
38	0xbcef4445	-0.029207358
39	0x3dac312d	0.08407817
40	0xbded093e	-0.115740284
41	0xbdbabbd2	-0.09117855
42	0x3d1e021f	0.03857624
43	0xbc684489	-0.014176496
44	0x3d572ad9	0.052531097
45	0xbc817bfb	-0.015806189
46	0x3e106018	0.14099157
47	0xbd04efe0	-0.032455325
48	0x3e0f6a6c	0.1400544
49	0x3dde98e1	0.10869003
50	0x3c015706	0.007894283
51	0x3e03e262	0.12879327
52	0x3d7ab10c	0.061204
53	0xbd3a13a3	-0.045428883
54	0x3d4e51c3	0.050370943
55	0x3e46bfdb	0.19409125
56	0xbd68228d	-0.056673575
57	0x3d0c4cc5	0.0342529
58	0xbd2ef880	-0.042717457
59	0xbd740fec	-0.059585497
60	0x3d070845	0.03296687
61	0x3e3aa239	0.18225946
62	0x3c24736d	0.010037285
63	0x3c4caa89	0.012491831
64	0xbe367157	-0.17816673
65	0xbd76ff12	-0.060301848
66	0xbb455f82	-0.0030116742
67	0xbe1ceb8b	-0.15324228
68	0xbe09bd3c	-0.13451093
69	0x3d5b2843	0.053505193
70	0x3d541995	0.05178221
71	0xbe79743f	-0.2436075
72	0xbda0e11e	-0.07855438
73	0xbe3d142f	-0.1846473
74	0xbdc8213f	-0.09771966
75	0xbd26ddec	-0.040738985
76	0xbd73c46c	-0.059513494
77	0x3d0d91ff	0.03456306
78	0xbdd98f09	-0.10622985
79	0xbde28bdf	-0.110618345
80	0x3df483e9	0.11939222
81	0xbd3fd3c8	-0.04683283
82	0xbdfc8ec2	-0.123319164
83	0xbe84969f	-0.25896165
84	0x3db7d0f7	0.08975404
85	0xbde4909e	-0.11160396
86	0xbd344f65	-0.04402103
87	0x3d53107b	0.05152939
88	0xbd426864	-0.047462836
89	0xbbd68865	-0.006547021
90	0xbe1ce126	-0.15320262
91	0x3cf0053a	0.029299367
92	0xbe2e304d	-0.17010613
93	0xbdabec4a	-0.08394678
94	0xbdc69580	-0.096964836
95	0xbb98d8de	-0.0046645245
96	0xbcc57e54	-0.02410809
97	0xbd5fc84c	-0.054634377
98	0x3c519c41	0.0127936015
99	0xbd2bfd2a	-0.041989483
100	0xbdb9401f	-0.09045433
101	0xbd181fd0	-0.037139714
102	0xbda4308f	-0.08017074
103	0x3d445cde	0.047940128
104	0xbdfe726a	-0.124241665
105	0xbd4551fa	-0.048173882
106	0xbd9d3b4f	-0.07677328
107	0x3cfaa73f	0.030597327
108	0xbcefd2ed	-0.029275382
109	0xbdb3688a	-0.087601736
110	0xbe1b4bd7	-0.1516565
111	0x3cba981b	0.022777608
112	0xbe4c5e8a	-0.19957939
113	0xbd9ddb8b	-0.0770789
114	0xbe9b6c3f	-0.30356023
115	0xbe4c47c2	-0.19949248
116	0xbd9efc1c	-0.0776293
117	0xbdf0f57c	-0.117655724
118	0x3d5a24fa	0.05325792
119	0xbda9ceee	-0.08291422
120	0xbd7e3cdd	-0.062069762
121	0xbd8c2121	-0.06842256
122	0xbdb7e7f0	-0.089797854
123	0xbcf22792	-0.029559884
124	0xbddf98ef	-0.10917842
125	0xbb8ea7d2	-0.004353502
126	0xbdd426fd	-0.10358999
127	0xbe42e89b	-0.19034044
128	0xbdb1851c	-0.08667967
129	0xbdf98862	-0.12184216
130	0xbe0021c9	-0.12512888
131	0xbe335b45	-0.17515285
132	0xbd28fd62	-0.04125727
133	0xbd2951fa	-0.041337945
134	0xbb3790fe	-0.0028010006
135	0x3e222a00	0.15836334
136	0x3d7b5ae0	0.061365962
137	0x3dd82436	0.10553782
138	0xbd848138	-0.06469959
139	0xbcc6e22a	-0.024277765
140	0x3e13a326	0.14417705
141	0xbd65bb3c	-0.056086764
142	0x3db15e6a	0.08660586
143	0xbdfa6eca	-0.122281626
144	0x3cc601f4	0.024170853
145	0x3e062682	0.13100627
146	0xbd49188b	-0.04909567
147	0x3e2974a6	0.16548404
148	0x3dfdf3fd	0.12400053
149	0x3c7790e9	0.015110233
150	0x3deabe2c	0.11462054
151	0xbd9a0317	-0.075201206
152	0x3de62efc	0.1123943
153	0x3d98f183	0.0746794
154	0xbdac70e4	-0.0841997
155	0xbe37b5b7	-0.17940412
156	0x3e122ffd	0.14276119
157	0x3db02d50	0.08602393
158	0x3df324cd	0.118722536
159	0xbbadb314	-0.005300889
160	0x3d5fa416	0.054599844
161	0x3daa349b	0.08310815
162	0xbe17e908	-0.14834988
163	0xbbf4a254	-0.00746564
164	0x3e0eeff1	0.13958718
165	0xbd671e86	-0.056425594
166	0x3dac2d27	0.084070496
167	0x3e20b37c	0.15693468
168	0x3d258f7f	0.04042005
169	0xbca42c42	-0.020040635
170	0x3d087ba1	0.033321027
171	0xbda2ff5b	-0.079588614
172	0x3d50f8fc	0.0510187
173	0xbd7eceb4	-0.062208846
174	0x3e518f22	0.20464757
175	0x3d9b5aa7	0.0758565
176	0x3e243049	0.16034044
177	0xbdd3afd5	-0.10336272
178	0xbd291c95	-0.041287024
179	0xbb37ba69	-0.0028034693
180	0xbd81d6e7	-0.063398175
181	0xbc1d28ac	-0.009592216
182	0x3d6537af	0.055961307
183	0xbb897cd7	-0.0041957903
184	0x3e1274b2	0.14302328
185	0x3d9b7879	0.07591338
186	0xbde33544	-0.11094144
187	0xbd56fd38	-0.052487582
188	0xbc86d425	-0.01645858
189	0x3d2dec0d	0.042461444
190	0xbd56749a	-0.052357294
191	0x3db41fd2	0.08795132

bias_hh_l0 f4 [192]
0	0x3e84a8a1	0.25909904
1	0x3db0f5c2	0.086406246
2	0x3dcfcc4b	0.10146388
3	0x3bb98d64	0.005662607
4	0x3def38dc	0.11680767
5	0x3e1a2c5c	0.15055984
6	0x3e3ca8b5	0.18423732
7	0xbd764881	-0.06012774
8	0x3cf39a7a	0.029736746
9	0x3de56d87	0.11202531
10	0xbc2836cd	-0.010266972
11	0x3d093c90	0.033505023
12	0xbd97ed9c	-0.07418367
13	0xbd59df6d	-0.05319159
14	0xbd57afd2	-0.05265791
15	0x3d5d73ac	0.05406539
16	0x3d54eb49	0.051982198
17	0xbd82a115	-0.0637838
18	0xbc981983	-0.018566852
19	0xbd0f2f37	-0.034957137
20	0x3e092362	0.13392404
21	0xbe74090d	-0.23831578
22	0x3dc2620e	0.09491359
23	0x3ceb4942	0.028721455
24	0xbccc9dbd	-0.02497756
25	0x3d637e13	0.055540156
26	0xbde863ae	-0.113471374
27	0x3dfb1cf3	0.12261381
28	0x3d1e8790	0.0387035
29	0x3e518557	0.20461021
30	0x3c2030a0	0.009777218
31	0x3c194f34	0.009357262
32	0x3e0504fe	0.12990186
33	0x3dcf178c	0.10111913
34	0x3de1199f	0.10991215
35	0xbccb0de7	-0.024786903
36	0x3d8df65d	0.06931756
37	0x3dae1a7d	0.08501146
38	0x3da1c52e	0.07898937
39	0x3e164c7e	0.14677617
40	0xbc765341	-0.015034498
41	0x3dde95c9	0.10868413
42	0xbd383735	-0.044974525
43	0xbd353f6e	-0.044249944
44	0x3d7802c2	0.060549505
45	0x3cfe92d5	0.031075874
46	0x3b513b7f	0.0031926332
47	0x3d72e986	0.059304737
48	0x3e2fed78	0.17180431
49	0x3d3ab2ae	0.04558056
50	0x3b326a4d	0.0027224005
51	0xbd67a73c	-0.05655597
52	0x3d12bed3	0.035826515
53	0xbd643bb3	-0.055720996
54	0x3de0459c	0.10950777
55	0x3d5ccc29	0.05390564
56	0x3dd1c1c8	0.10242039
57	0x3c87f9c0	0.016598582
58	0x3d2483bd	0.040164698
59	0xbd439723	-0.047751557
60	0x3e47d12e	0.1951339
61	0xba347fab	-0.0006885479
62	0x3c61dcf0	0.013785586
63	0xbd6b4b9c	-0.057445154
64	0xbdf82589	-0.12116534
65	0xbe1638c1	-0.14670087
66	0xbe627ec2	-0.22118667
67	0xbe84f426	-0.2596752
68	0xbd75e270	-0.0600304
69	0x3db4e0b7	0.088319235
70	0x3dc235d0	0.0948292
71	0xbdc2e3bc	-0.09516093
72	0xbe4ae33e	-0.19813249
73	0xbdc175a4	-0.09446266
74	0xbe5ed4b6	-0.2176083
75	0xbd6910ee	-0.05690091
76	0xbd024eb8	-0.031813353
77	0x3d3a9979	0.04555652
78	0xbe0b03ab	-0.13575618
79	0x3dd5ffb0	0.10449159
80	0x3d6c5932	0.05770225
81	0x3d24e42f	0.040256675
82	0xbe59d209	-0.21271528
83	0xbd3ca8ce	-0.046059422
84	0xbccaaa99	-0.02473955
85	0xbdd2ae4f	-0.10287153
86	0xbdf4cbab	-0.11952909
87	0x3bea2e7a	0.0071466537
88	0xbe25cbce	-0.16191027
89	0x3c758876	0.014986148
90	0xbd80bc0f	-0.06285869
91	0x3e09bc4c	0.13450736
92	0xbe27e2f2	-0.16395167
93	0xbdbe6551	-0.09296668
94	0x3cfcd541	0.030863406
95	0xbd40619d	-0.04696809
96	0xbceea2c4	-0.029130347
97	0xbbec1307	-0.0072044167
98	0xbe16981b	-0.14706461
99	0x3d08a554	0.033360794
100	0x3dba31a0	0.090914965
101	0xbd419fe7	-0.047271635
102	0xbdd25626	-0.10270338
103	0xbdf1f340	-0.118139744
104	0xbd8c1fd8	-0.06842011
105	0x3d164ada	0.036692478
106	0xbe2ac5aa	-0.16676965
107	0xbe2841fb	-0.1643142
108	0xbd547a59	-0.051874492
109	0x3c8a7b95	0.016904632
110	0xbd85338d	-0.06503973
111	0x3df4740e	0.11936198
112	0xbdff5e1f	-0.12469124
113	0xbd9da9f1	-0.076984294
114	0xbe4e42b9	-0.2014264
115	0xbe7a287e	-0.24429509
116	0xbca73e57	-0.020415468
117	0xbdaf77d9	-0.08567781
118	0xbe249303	-0.16071706
119	0xbe7033dc	-0.23457283
120	0x3d8b5e96	0.0680515
121	0xba5f6dbe	-0.0008523128
122	0x3d76250a	0.060093917
123	0xbb229c8f	-0.0024812554
124	0x3d95db0e	0.07317172
125	0xbceb9d1e	-0.028761443
126	0x3cb2db06	0.021832954
127	0x3c87405c	0.016510181
128	0xbdbe9414	-0.093055874
129	0x3d5879ed	0.052850652
130	0x39282c2e	0.00016038187
131	0xbd873dfe	-0.06603621
132	0x3d9ddf1b	0.077085696
133	0x3c9b0950	0.018925339
134	0xbe1ed78c	-0.15511912
135	0x3e52bbc4	0.2057944
136	0x3c04a85c	0.008096781
137	0xbc9a86f5	-0.01886318
138	0xbde67096	-0.11251943
139	0xbc1a4596	-0.009416005
140	0x3d829430	0.06375921
141	0x3d2c6e12	0.04209716
142	0xbcbbd677	-0.022929413
143	0xbdaa39ff	-0.08311843
144	0x3db7b2d3	0.08969655
145	0x3c1e0dcd	0.009646845
146	0xbd4db3d3	-0.050220322
147	0x3db47c23	0.0881274
148	0x3dd6fdcf	0.10497629
149	0xbd17bb1a	-0.03704367
150	0xb9c78cfe	-0.00038061285
151	0xbe13c8d3	-0.14432077
152	0xbcf023f4	-0.029314019
153	0x3e160c71	0.14653184
154	0xbd6ec05d	-0.05828892
155	0xbe644454	-0.2229169
156	0x3d2cc77b	0.042182427
157	0xbe13768a	-0.14400688
158	0xbd7793f5	-0.060443837
159	0x3db5fe45	0.08886389
160	0x3d194336	0.037417613
161	0x3df53a93	0.11974063
162	0xbd564fd6	-0.05232223
163	0xbd99ef03	-0.07516291
164	0x3e08b993	0.13352041
165	0xbc00936d	-0.007847649
166	0xbd1c8e31	-0.03822154
167	0x3e2e3e8c	0.17016047
168	0xbde5b8e3	-0.11216905
169	0xbd30148a	-0.042988338
170	0xbe083a3f	-0.13303469
171	0xbe1ce14b	-0.15320317
172	0x3e011c31	0.1260841
173	0xbe0037dd	-0.1252131
174	0x3e124747	0.14285003
175	0x3de8335f	0.11337923
176	0x3e104a03	0.14090733
177	0x3d9e036f	0.07715499
178	0xbe2d16cc	-0.16903228
179	0x3da42324	0.08014515
180	0xbcdef162	-0.02721471
181	0xbe1b9220	-0.15192461
182	0x3deea8e7	0.11653309
183	0x3db1aa49	0.086750574
184	0x3e0ecfcc	0.13946456
185	0xbd3681c9	-0.044557367
186	0xbe199e50	-0.15001798
187	0x3d0f10b9	0.034928057
188	0xbdf227bb	-0.11823984
189	0xbde687ae	-0.112563476
190	0xbdbfe8c2	-0.09370567
191	0x3e05708d	0.13031216

weight_ih_l1 f4 [192, 64]
0	0xbe4147a0	-0.18874979
1	0x3c691170	0.014225349
2	0xbd76d6fd	-0.060263623
3	0x3c99ce70	0.018775195
4	0xbe2cb44e	-0.16865656
5	0xbd4560e0	-0.04818809
6	0xbd06e458	-0.03293261
7	0xbd904f51	-0.070463784
8	0x3d3c069d	0.045904744
9	0x3d90a7eb	0.07063278
10	0x3e8b1f64	0.27172387
11	0xbded7f73	-0.11596575
12	0x3e670370	0.22559905
13	0x3d75f41b	0.06004725
14	0x3b21a853	0.002466698
15	0x3c2e2710	0.01062943
16	0xbb43cb38	-0.0029875766
17	0xbd3d21f1	-0.046174947
18	0x3e76bdb4	0.24095803
19	0x3e522942	0.20523551
20	0x3dbf16a0	0.09330487
21	0xbe11f7e7	-0.14254723
22	0x3db762c4	0.08954385
23	0xbcab4db5	-0.020911077
24	0x3e04d0c4	0.12970263
25	0xbcc37d3b	-0.023863425
26	0xbe900284	-0.2812692
27	0x3ce737b7	0.02822481
28	0x3e63b810	0.22238183
29	0xbe90dc57	-0.28293106
30	0x3c697c19	0.014250779
31	0xbe412b2e	-0.18864128
32	0x3e8233fe	0.25430292
33	0xbd943e7f	-0.07238483
34	0xbcb4b3e7	-0.02205844
35	0xbd9236a0	-0.07139325
36	0x3e1d7ded	0.15380068
37	0xbd09a206	-0.033601783
38	0xbdd36ba4	-0.10323265
39	0x3c0545a5	0.00813428
40	0x3dd6e7bc	0.104934186
41	0xbe85c243	-0.26124772
42	0xbe988eae	-0.29796356
43	0xbe2f5431	-0.1712196
44	0x3dcd86b7	0.100354604
45	0xbdf5f7e1	-0.1201017
46	0x3e803b06	0.2504503
47	0x3dbf33c6	0.09336047
48	0xbd416320	-0.047213674
49	0xbd79e3bd	-0.061008204
50	0x3d6255d8	0.05525765
51	0x3e1cda67	0.15317689
52	0x3d4b8425	0.04968657
53	0x3e08343d	0.13301177
54	0x3d9470ab	0.07248052
55	0xbd144a40	-0.036203623
56	0xbd790598	-0.06079635
57	0x3e39530e	0.18098089
58	0xbd9d40d8	-0.076783836
59	0x3c946f1d	0.01811939
60	0xbdccf388	-0.100073874
61	0xbe6d753a	-0.2318925
62	0x3d5608e7	0.052254584
63	0x3e0b1f2b	0.13586108
64	0xbe145daf	-0.14488862
65	0xbe5d5166	-0.21613082
66	0xbe1665a0	-0.14687204
67	0xbe38112d	-0.17975302
68	0xbe48e958	-0.19620264
69	0xbdf29552	-0.11844887
70	0xbbb16f96	-0.0054149134
71	0xbcb3c206	-0.021943104
72	0x3d3547dc	0.044257984
73	0xbdccfa5a	-0.10008688
74	0x3de84a74	0.11342326
75	0x3d510def	0.05103868
76	0xbdf77456	-0.12082736
77	0x3e38b2d0	0.18036962
78	0x3b046a4c	0.002020496
79	0xbcf7bfff	-0.030242918
80	0x3ce7809f	0.028259574
81	0xbe4b8a28	-0.19876921
82	0x3de71172	0.11282624
83	0xbe16c3ca	-0.14723125
84	0x3ceb2f51	0.028709086
85	0x3c274f93	0.010211843
86	0xbd1e9d89	-0.038724456
87	0xbc1a8232	-0.009430455
88	0xbdce7245	-0.10080389
89	0xbd89eb8e	-0.067343816
90	0xbd80da0b	-0.062915884
91	0xbe00dfab	-0.12585323
92	0xbdf55224	-0.11978558
93	0x3e21fc89	0.15818991
94	0x3d0b7bc1	0.034053568
95	0xbe2f34f1	-0.1711004
96	0x3e461571	0.19344117
97	0xbe069433	-0.13142471
98	0x3c8eb2c4	0.017419226
99	0xbe2f097a	-0.17093459
100	0x3d8afaf1	0.067861445
101	0xbca12234	-0.01966963
102	0xbe217a02	-0.15769199
103	0xbdc8da16	-0.098072216
104	0xbd0b45e1	-0.03400219
105	0xbe1609c5	-0.14652164
106	0xbd939ffc	-0.07208249
107	0x3d6b8fa2	0.057510026
108	0x3d8fa433	0.070137404
109	0x3e064995	0.13114007
110	0xbc733077	-0.014843098
111	0x3db85a88	0.090016425
112	0x3d5ad500	0.05342579
113	0xbe430c78	-0.19047725
114	0x3ec2de17	0.38060066
115	0x3e873af2	0.2641216
116	0xbd363692	-0.044485636
117	0x3dfc2f97	0.123137645
118	0xbbe5800b	-0.0070037893
119	0x3dd0f3c6	0.10202746
120	0x3beea7cf	0.007283188
121	0x3cfb13b7	0.03064905
122	0xbceccb31	-0.028905483
123	0xbdf40e14	-0.11916748
124	0xbd9d444c	-0.07679042
125	0xbd890b88	-0.066916525
126	0x3c736633	0.014855909
127	0xbe50dd49	-0.20396914
128	0xbe5b848d	-0.21437283
129	0xbe619040	-0.22027683
130	0x3de6a660	0.11262202
131	0x3c9cac44	0.019125111
132	0xbbd24263	-0.0064166053
133	0x3d499ead	0.04922359
134	0xbd2a9429	-0.041645203
135	0xbe9d931e	-0.30776304
136	0x3e2b394b	0.16721074
137	0xbe68334a	-0.22675815
138	0x3e047899	0.1293663
139	0xbc829cbf	-0.015943883
140	0xbccb1931	-0.024792286
141	0xbde66bbe	-0.11251019
142	0x3bf0b184	0.0073453803
143	0x3cea2264	0.028580852
144	0xbdf4c8a5	-0.119523324
145	0xbe05c48f	-0.13063262
146	0xbb8d66d9	-0.004315239
147	0xbe0420f4	-0.12903196
148	0x3d1538c5	0.036431093
149	0xbd97a493	-0.07404437
150	0xbc36a450	-0.011147574
151	0x3c4f27a2	0.012643727
152	0xbe701c02	-0.23448184
153	0xbdbd45f5	-0.09241859
154	0xbc074922	-0.008257182
155	0x3cbd086c	0.023075305
156	0xbe8cc147	-0.2749121
157	0xbc5c7c45	-0.013457363
158	0x3dd956c6	0.10612254
159	0xbcb0f175	-0.02159951
160	0x3be83d23	0.007087366
161	0xbce51ef3	-0.02796886
162	0x3d700213	0.058595728
163	0xbca02a63	-0.019551462
164	0xbc55dd10	-0.013053194
165	0xbdc0f3c8	-0.094214976
166	0xbe37042b	-0.17872684
167	0xbe11f548	-0.14253724
168	0x3d8c66b9	0.0685553
169	0xbd9524e1	-0.07282425
170	0x3d885deb	0.066585384
171	0x3e3ae53e	0.18251511
172	0x3db18609	0.08668143
173	0x3ea22f6d	0.31676808
174	0xbcfca087	-0.030838264
175	0x3dc08c47	0.09401756
176	0xbdaf808c	-0.0856944
177	0xbcad7227	-0.021172596
178	0x3e8509f9	0.2598417
179	0x3e40b844	0.18820292
180	0xbdd38051	-0.10327209
181	0xbe1078a0	-0.14108515
182	0x3dbaf99e	0.09129642
183	0x3bdb063c	0.006684093
184	0x3b286376	0.002569405
185	0xbdc9fc31	-0.09862555
186	0x3e2f9a24	0.17148644
187	0x3d548387	0.051883247
188	0x3cd3797d	0.025814766
189	0xbd91f9df	-0.07127737
190	0xbdf02d9a	-0.11727448
191	0x3b3deb91	0.002897952
192	0x3d813965	0.06309775
193	0xbe62c546	-0.22145566
194	0xbe225706	-0.1585351
195	0x3d1d47bc	0.03839849
196	0x3db21b54	0.08696619
197	0xbdeb0693	-0.11475863
198	0x3c9db0fa	0.019249428
199	0x3d5ee128	0.054413944
200	0x3d7bf012	0.061508246
201	0xbcff75ce	-0.031184103
202	0x3e04f5e8	0.12984431
203	0xbd885928	-0.0665763
204	0xbddaa5d7	-0.10676163
205	0x3d9b93e6	0.07596569
206	0x3d9127d0	0.07087672
207	0xbdcf1376	-0.10111134
208	0xbd6b63ed	-0.057468344
209	0xbd55e596	-0.052220903
210	0x3d930bf3	0.071800135
211	0xbca9c40b	-0.020723363
212	0x3d93aa13	0.072101735
213	0xbd48d66d	-0.049032617
214	0x3d8d760c	0.06907281
215	0xbd4ea518	-0.050450414
216	0xbd7c67b1	-0.061622325
217	0xbce6e14f	-0.028183607
218	0xbe0dc0f9	-0.13843144
219	0xbe11aab8	-0.1422528
220	0xbd5068b0	-0.050881088
221	0xbbc066b9	-0.0058716205
222	0x3e5fc661	0.2185302
223	0xbe438f97	-0.19097744
224	0x3de180f2	0.110109225
225	0x3d134b82	0.03596068
226	0xbe265141	-0.16241933
227	0x3d6e7815	0.058219988
228	0x3e4e1cf4	0.20128232
229	0xbe507f4e	-0.20361063
230	0xbd954dcb	-0.072902285
231	0x3d3b3c2a	0.045711674
232	0x3d9cc2b3	0.076543234
233	0xbe5b4766	-0.21413955
234	0xbe47f9f6	-0.19528946
235	0x3d5dc07c	0.054138646
236	0x3db39a4c	0.08769664
237	0xbdd64cbc	-0.10463855
238	0xbc8d94bd	-0.017282838
239	0x3cec943e	0.028879281
240	0x3ccfa0ac	0.025345169
241	0xbde02926	-0.109453484
242	0xbdcf5d06	-0.10125165
243	0xbc7ff502	-0.015622379
244	0x3e1a2870	0.15054488
245	0x3e104456	0.14088568
246	0x3e0971d3	0.13422327
247	0x3d1a1c95	0.037624914
248	0x3d9d9e0f	0.07696163
249	0x3d748d71	0.0597052
250	0x3cced85f	0.025249658
251	0xbe4ff35e	-0.20307681
252	0xbe5ad492	-0.21370152
253	0xbda81931	-0.0820793
254	0xbe1f1387	-0.15534793
255	0x3e1ac901	0.1511574

weight_hh_l1 f4 [192, 64]
0	0xbddb80e3	-0.107179426
1	0xbd29b8d4	-0.04143603
2	0x3cb568d0	0.022144705
3	0xbbec23d1	-0.007206418
4	0xbd82c87a	-0.06385894
5	0xbc33f1ee	-0.0109829735
6	0xbc80a0fa	-0.01570176
7	0x3dd6e565	0.10492972
8	0x3c8a79ad	0.016903723
9	0x3ca866d0	0.020556837
10	0x3ca7e059	0.02049272
11	0x3d4d64c7	0.050144937
12	0xbe05b53f	-0.13057421
13	0xbc541bce	-0.012946082
14	0x3d0631b3	0.03276224
15	0xbd481219	-0.048845384
16	0xbb1b908e	-0.0023737284
17	0x3c79f84c	0.0152569525
18	0x3d9d7bd6	0.076896355
19	0x3cb0aa86	0.021565687
20	0x3cdf55a4	0.027262516
21	0xbbc8029d	-0.006103827
22	0xbd2f6126	-0.042817257
23	0x3e2a5019	0.16632117
24	0x3d8f7696	0.0700504
25	0xbdd9e973	-0.1064023
26	0x3c2f6361	0.010704846
27	0x3c6c8416	0.014435789
28	0xbdc964ce	-0.0983368
29	0x3c468fda	0.012119258
30	0x3e1e659e	0.15468451
31	0xbdc5b233	-0.096531294
32	0xbccc5e9d	-0.024947459
33	0xbdcfb6c3	-0.10142281
34	0xbd8cf56d	-0.06882749
35	0x3d413946	0.04717376
36	0x3cba97e9	0.022777515
37	0xbd6f7088	-0.058456928
38	0x3c8008d4	0.01562921
39	0xbdc0f0ce	-0.0942093
40	0xbdd5376b	-0.10410961
41	0x3d36312d	0.04448049
42	0x3e03aed9	0.12859668
43	0xbdd15028	-0.10220367
44	0x3de4854c	0.11158237
45	0xbd29f2fe	-0.0414915
46	0x3e5c117b	0.21491043
47	0x3d39ea48	0.045389444
48	0xbdaaa9e1	-0.08333183
49	0x3ca0275d	0.01955002
50	0xbc9e0c01	-0.019292833
51	0xbc45e3c2	-0.0120782275
52	0xbc58a3c3	-0.013222638
53	0x3d594fc9	0.053054605
54	0x3e0db81c	0.13839763
55	0xbd5fa69c	-0.05460225
56	0xbe0c789e	-0.13717887
57	0xbbf64c7d	-0.0075164423
58	0x3e1e3f9c	0.15453953
59	0xbd694eef	-0.056960043
60	0x3e00cc2a	0.12577882
61	0xbd988115	-0.074464954
62	0xbde0e94e	-0.10981999
63	0x3c8adfc5	0.016952405
64	0xbc573638	-0.013135485
65	0xbca6a27d	-0.020341152
66	0xbc0364cf	-0.00801964
67	0xbc654426	-0.013993299
68	0x3d2adaf9	0.041712735
69	0xbe4555c6	-0.19271001
70	0xbbfd0296	-0.0077212555
71	0xbdc2e050	-0.095154405
72	0x3e07f8c3	0.13278489
73	0xbd8bb135	-0.06820909
74	0x3dca8f8c	0.09890661
75	0xbd81a985	-0.063311614
76	0xbcbfb2d7	-0.023400707
77	0x3e3c423d	0.18384643
78	0xbcf6e373	-0.030137753
79	0xbe81baa1	-0.253377
80	0xbc920b60	-0.01782769
81	0x3c17add6	0.009257754
82	0x3c88877e	0.01666617
83	0xbd81062b	-0.063000046
84	0x3e1d329f	0.15351342
85	0x3d7d3eff	0.061827656
86	0x3d718d37	0.058972564
87	0x3d555587	0.05208352
88	0x3d82feae	0.063962325
89	0xbc10473a	-0.008806044
90	0x3e0b1101	0.13580705
91	0xbc816c7b	-0.015798798
92	0x3dcf55ef	0.101238124
93	0xbdecf278	-0.11569685
94	0x3ad2f00a	0.0016093266
95	0xbde4ec14	-0.11177841
96	0x3c7f108e	0.015567912
97	0x3e507aa7	0.20359288
98	0x3e8154ef	0.25260112
99	0x3d1a479e	0.037665956
100	0x3e02c827	0.12771665
101	0xbde9d800	-0.11418152
102	0x3ddcd524	0.10782841
103	0xbd128e67	-0.035780337
104	0xbd7f83e5	-0.062381644
105	0xbddc0524	-0.10743168
106	0xbd4279b1	-0.047479335
107	0x3c33b9af	0.010969563
108	0xbc9399ce	-0.018017676
109	0xbddc06a7	-0.10743456
110	0x3df150bd	0.11782978
111	0x3c0238b3	0.007948088
112	0x3d6a36a1	0.057181004
113	0x3cbb4057	0.022857828
114	0xbd8261fb	-0.063663445
115	0xbe2045b8	-0.15651596
116	0x3d97848f	0.073983304
117	0xbba65ec7	-0.0050772163
118	0xbd950d7a	-0.07277961
119	0x3e2bc23f	0.16773318
120	0xbdc9ec29	-0.09859497
121	0x3d0fe2b0	0.035128295
122	0xbd42c4ec	-0.04755108
123	0x3e2fa978	0.17154491
124	0xbdc2ca98	-0.09511298
125	0xbdd39b3a	-0.103323415
126	0x3e3370f0	0.17523551
127	0xbd486c5e	-0.048931472
128	0xbd234898	-0.039864153
129	0xba193339	-0.00058441196
130	0xbe17e1ae	-0.14832184
131	0xbc0ec62f	-0.008714243
132	0xbe01e5e3	-0.12685351
133	0xbc3a6508	-0.011376627
134	0x3ccf3c59	0.02529733
135	0xbdd7cab0	-0.105367064
136	0x3d19db1e	0.037562482
137	0xbdbb9f23	-0.09161212
138	0xbdbcfce3	-0.09227922
139	0x3ac62193	0.0015116207
140	0x3d7ef4e7	0.062245276
141	0x3db359d7	0.0875737
142	0x3e615206	0.22003946
143	0xbe77480c	-0.24148577
144	0xbd5af9bf	-0.053460833
145	0x3c6ee4eb	0.0145809455
146	0x3d17bcda	0.037045337
147	0xbe286d73	-0.16448002
148	0x3d73f4f0	0.059559762
149	0xbd9ccd43	-0.07656338
150	0x3e167f50	0.14697003
151	0xbc402f3e	-0.011730013
152	0xbde25c62	-0.11052777
153	0x3d701ebc	0.05862306
154	0xbc14efb4	-0.009090353
155	0x3d9fd26d	0.078038074
156	0xbd3c936a	-0.046039023
157	0xbc8f8dfb	-0.017523756
158	0xbe3c673e	-0.18398759
159	0xbdf57b4c	-0.11986408
160	0xbc50feab	-0.01275603
161	0x3e069b0e	0.13145086
162	0x3e49d5a9	0.19710411
163	0xbd88f459	-0.066872306
164	0xbc81455e	-0.015780147
165	0xbaefa1d8	-0.0018282486
166	0x3ddfe5f7	0.10932534
167	0x3dfb051d	0.12256835
168	0x3cadc766	0.021213245
169	0x3cfe5f52	0.031051312
170	0xbcaf9369	-0.021432595
171	0x3bdcb526	0.0067354618
172	0x3e0c1ee0	0.13683653
173	0xbc3a5793	-0.011373418
174	0x3e52b4ce	0.20576784
175	0xbdefc1e3	-0.11706903
176	0x3db7b4ff	0.08970069
177	0xbe07026a	-0.13184515
178	0xbdd92d55	-0.106043495
179	0xbd0595e6	-0.032613657
180	0x3d1c1561	0.038106326
181	0xbdab96d2	-0.08378376
182	0xbd479732	-0.048728175
183	0xbd84a929	-0.06477577
184	0x3ba77d4d	0.0051113726
185	0x3d08c991	0.033395354
186	0xbe25445a	-0.16139355
187	0x3e0f6dee	0.14006779
188	0x3d0e0fb5	0.03468295
189	0xbd75b937	-0.059991088
190	0x3d624972	0.055245824
191	0x3e384352	0.1799443
192	0x3c637e6b	0.013885121
193	0xbdd174ff	-0.10227393
194	0x3d51d573	0.05122895
195	0x3d5ee099	0.05441341
196	0x3c4da053	0.012550431
197	0xbd8a70ca	-0.06759794
198	0xbdb3d06d	-0.087799884
199	0x3d4ef739	0.05052874
200	0xbd36f04b	-0.044662755
201	0xbb9e6ecf	-0.0048349868
202	0xbdeebde0	-0.116573095
203	0x3d2698d3	0.04067309
204	0x3c09f38f	0.008419885
205	0xbdf32688	-0.11872584
206	0xbdafb0f1	-0.08578671
207	0x3d93edd2	0.07223095
208	0xbc5d085d	-0.0134907635
209	0xbbb1927d	-0.005419074
210	0xbe6208c4	-0.22073656
211	0x3c0a66c4	0.008447353
212	0x3d3988e2	0.045296557
213	0xbd5f1510	-0.054463446
214	0xbdd3f97d	-0.103503205
215	0x3cb8a8b2	0.022541378
216	0xbca2c454	-0.019869007
217	0x3d826b06	0.06368069
218	0x3d20021c	0.03906451
219	0x3cd5676c	0.026050292
220	0x3ce47749	0.02788891
221	0xbdee8931	-0.11647261
222	0xbdff0eb3	-0.124539755
223	0x3d9fbee4	0.07800081
224	0xbbc5964a	-0.0060298787
225	0xbce04e3e	-0.027381059
226	0x3d0a7e7c	0.03381203
227	0x3d0ef7b6	0.034904204
228	0xbd677ca7	-0.056515362
229	0x3dee1e54	0.116268784
230	0xbdd40b43	-0.103537105
231	0xbd0bedf3	-0.034162473
232	0x3c48c5a7	0.012254155
233	0x3df290f8	0.11844057
234	0x3c18d071	0.00932704
235	0x3b95abbb	0.004567591
236	0x3d90ef61	0.07076908
237	0xbe3f2c3a	-0.18669215
238	0x3d123717	0.03569707
239	0x3d383a01	0.04497719
240	0xbd1ec146	-0.03875854
241	0xbd294e28	-0.0413343
242	0xbe1a85ce	-0.15090105
243	0xbbc31d67	-0.0059544328
244	0x3de0268b	0.109448515
245	0x3ce2b97f	0.027676342
246	0x3e04dbfd	0.12974544
247	0xbde36355	-0.111029305
248	0x3d4c2b73	0.049846124
249	0xbd8b14cb	-0.06791075
250	0x3e03307e	0.12811467
251	0xbcc1319b	-0.023583224
252	0x3e235943	0.1595202
253	0xbd78cf70	-0.060744703
254	0x3d2062a1	0.03915656
255	0xbe36d9c9	-0.17856516

bias_ih_l1 f4 [192]
0	0x3dd9335b	0.106054984
1	0x3d0daebd	0.03459047
2	0x3cf1fb99	0.029538916
3	0x3e24a2c0	0.16077709
4	0xbda7e205	-0.08197407
5	0x3e274167	0.16333543
6	0x3de593be	0.1120982
7	0xbcf6b2d8	-0.030114576
8	0x3dff2e9d	0.12460063
9	0x3da933d4	0.082618386
10	0x3dbbb489	0.09165294
11	0x3d9058cd	0.070481874
12	0x3d22baa0	0.03972876
13	0xbdd7136d	-0.10501752
14	0xbdd904b8	-0.10596603
15	0x3a9e8717	0.0012094703
16	0xbdc59ec1	-0.096494205
17	0xbcffc2e8	-0.031220868
18	0xbcb8d21d	-0.022561127
19	0x3c874d97	0.01651649
20	0x3d33e8df	0.043923255
21	0xbdfadd77	-0.12249272
22	0xbd2f0034	-0.042724803
23	0x3e30c16f	0.17261289
24	0xbd4ea77c	-0.050452694
25	0xbd08ee8d	-0.033430625
26	0x3e205954	0.15659076
27	0xbcce759e	-0.025202569
28	0x3d8083e3	0.062751554
29	0xbd225313	-0.039630007
30	0xbdb84855	-0.08998171
31	0x3ce765d7	0.028246803
32	0xbd99bd5d	-0.07506821
33	0x3d839b29	0.06426079
34	0xbc986b4f	-0.018605856
35	0xbd0b4f4e	-0.034011178
36	0xbd1748da	-0.03693471
37	0x3daf278a	0.08552463
38	0xbd8501f7	-0.064945154
39	0x3d6fdb56	0.058558784
40	0x3e23e229	0.16004242
41	0xbd23671f	-0.039893266
42	0x3d92d3b0	0.071692824
43	0xbe07fbf4	-0.13279706
44	0xbd2f042a	-0.04272858
45	0xbd2c7c90	-0.04211098
46	0x3da189ad	0.07887588
47	0xbcf7d0c5	-0.030250916
48	0xbde5dc80	-0.11223698
49	0x3e08902e	0.1333625
50	0x3c3d181b	0.011541392
51	0x3c0c1f3d	0.00855237
52	0x3d92a995	0.071612515
53	0x3dd215cd	0.102580644
54	0xbd1e3e6f	-0.03863376
55	0xbd4d212e	-0.05008047
56	0xbce9a872	-0.028522704
57	0x3c5b926d	0.01340161
58	0x3ccb2032	0.024795625
59	0xbc461314	-0.0120895095
60	0x3daca6f2	0.0843028
61	0x3e3cbad6	0.18430647
62	0x3e26990a	0.16269317
63	0x3db918dd	0.090379454
64	0xbdd0c1dd	-0.101932265
65	0x3d77303a	0.060348727
66	0xbd6e9fbc	-0.058257803
67	0xbdbd04a8	-0.09229404
68	0x3c514503	0.012772801
69	0xbd756543	-0.059911024
70	0xbe25912c	-0.1616866
71	0x3d050e3b	0.032484274
72	0x3e05d720	0.13070345
73	0x3dcc0771	0.09962357
74	0x3dafd5a7	0.08585673
75	0xbe2efb6e	-0.170881
76	0xbd9631fa	-0.07333751
77	0x3b822d38	0.0039726757
78	0xbe34b746	-0.17648038
79	0x3d36c9e8	0.044626147
80	0x3c3d0cab	0.011538665
81	0x3d9d7ebd	0.07690189
82	0xbe3c8168	-0.1840874
83	0x3dc7f7b8	0.097640455
84	0x3e02dd31	0.1277969
85	0xbdc18134	-0.09448472
86	0x3d9f6141	0.077822216
87	0xbdada0ec	-0.08477959
88	0xbd37d6e8	-0.044882685
89	0x3dd90c56	0.10598056
90	0xbe825bbf	-0.25460622
91	0xbd68c4b5	-0.05682822
92	0x3cd7e093	0.026352203
93	0x3ceb5574	0.02872727
94	0xbd01a6c3	-0.031653177
95	0xbdf2ec5b	-0.118614875
96	0x3c090f16	0.008365413
97	0xbc538b89	-0.012911686
98	0xbd1dd234	-0.038530543
99	0xbdec984c	-0.11552486
100	0x3c836981	0.01604152
101	0xbdf047ea	-0.117324665
102	0xbe253be6	-0.1613613
103	0x3e099d21	0.13438846
104	0xbe138583	-0.144064
105	0x3d91dd1d	0.07122252
106	0xbdb0d223	-0.086338304
107	0x3dbce05b	0.0922248
108	0x3d20025c	0.03906475
109	0xbda8d57e	-0.082438454
110	0xbe0a360f	-0.13497184
111	0xbdc6725c	-0.09689781
112	0x3b48f6cf	0.0030664688
113	0xbd802a27	-0.0625804
114	0xbce2668e	-0.027636793
115	0xbc85efb5	-0.016349653
116	0x3c552e21	0.013011486
117	0xbdd02b26	-0.1016448
118	0x3d2df82f	0.042473014
119	0xbd813fa1	-0.063109644
120	0xbd7adeab	-0.06124751
121	0x3dd9bd03	0.10631754
122	0xbdb97051	-0.09054626
123	0xbcf8da08	-0.030377403
124	0x3c7fc042	0.015609803
125	0xbd105e31	-0.035246078
126	0xbcbebbe4	-0.023282953
127	0x3c6498ce	0.013952447
128	0xbc831fe4	-0.016006418
129	0xbbf53bd8	-0.0074839406
130	0x3d6b6e21	0.057478074
131	0x3d21148b	0.039326232
132	0xbd88515f	-0.06656145
133	0x3d0470f5	0.032334287
134	0x3d8ca089	0.06866557
135	0xbb9fed17	-0.0048805582
136	0xbe01c928	-0.12674391
137	0xbd2338fb	-0.039849263
138	0xbd672221	-0.056429032
139	0x3e13bcd1	0.14427496
140	0xbd1053e4	-0.035236254
141	0xbd91014d	-0.07080326
142	0xbcbe4e14	-0.02323059
143	0x3dc39442	0.09549762
144	0xbc3dd85e	-0.0115872305
145	0x3cc845b1	0.024447294
146	0xbdfac8ae	-0.12245308
147	0xbcd0512b	-0.025429329
148	0xbe28fdeb	-0.16503112
149	0x3c2f259f	0.010690122
150	0xbd65597e	-0.05599355
151	0x3e42ac22	0.19010976
152	0x3d9df3f8	0.07712549
153	0x3bcda115	0.006275306
154	0xbd81a568	-0.06330377
155	0xbd3f4561	-0.046697024
156	0xbe1abbed	-0.1511075
157	0x3ba76049	0.0051079136
158	0x3d913fad	0.07092223
159	0xbe0cb89d	-0.137423
160	0xbdb99905	-0.09062389
161	0xbe617eea	-0.2202107
162	0xbe2e72d0	-0.17035985
163	0xbdddfc84	-0.10839179
164	0xbd886a3f	-0.0666089
165	0xbddef9f8	-0.108875215
166	0xbdfec4f1	-0.12439907
167	0x3d9d159d	0.07670138
168	0xbdddfba3	-0.108390115
169	0x3d9f180e	0.0776826
170	0x3e170c02	0.14750674
171	0xbdb1055f	-0.086436026
172	0xbd158a53	-0.03650887
173	0x3dc5f41a	0.09665699
174	0x395c799a	0.00021026135
175	0x3d97235f	0.073797934
176	0x3d1ccf72	0.038283773
177	0x3d9d9fe6	0.07696514
178	0xbd0b5e09	-0.034025226
179	0x3dc9363f	0.098248
180	0xbc8a6e74	-0.016898371
181	0x3b695911	0.0035606066
182	0x3e105b2b	0.14097278
183	0x3d2f1d2e	0.042752437
184	0xbd9d1cf8	-0.07671541
185	0xbdf23f09	-0.11828429
186	0xbd5960f8	-0.053070992
187	0x3d3e7cec	0.046505854
188	0x3e1042ee	0.14088032
189	0xbdf0f0c1	-0.1176467
190	0x3d9c3088	0.07626444
191	0xbcd4a1b1	-0.025956007

bias_hh_l1 f4 [192]
0	0xbcdf7890	-0.027279168
1	0x3dbc5151	0.091951974
2	0x3d61c6c7	0.05512121
3	0x3e596e03	0.21233372
4	0xbcd76fa4	-0.026298352
5	0x3d4470aa	0.047959007
6	0x3d9a22f4	0.07526198
7	0x3dfacad2	0.12245716
8	0xbd21a353	-0.0394624
9	0xbce832e8	-0.028344586
10	0x3d479ea7	0.048735287
11	0xbca3dabb	-0.02000176
12	0x3e2ec2da	0.17066517
13	0xbdb1f7ef	-0.08689868
14	0xbd3b15c9	-0.045675073
15	0xbceca2fc	-0.02888631
16	0xbd8c2f9e	-0.0684502
17	0xbd98b43b	-0.07456251
18	0x3deb1cb8	0.11480087
19	0xbd0c1ef7	-0.034209218
20	0x3d9b7ee6	0.07592563
21	0x3cc11952	0.023571644
22	0xbc29cc37	-0.01036363
23	0x3e240393	0.16016988
24	0x3c0a3ebf	0.008437811
25	0x3d7127a7	0.058875706
26	0x3e188237	0.14893423
27	0x3c163b21	0.009169371
28	0xbd90a50a	-0.07062729
29	0x3c78b172	0.015179025
30	0x3db4acfc	0.08822057
31	0x3da8a3c6	0.08234362
32	0x3d89f28c	0.06735715
33	0x3d0505b4	0.032476142
34	0x3a3e36be	0.0007256082
35	0x3dd94960	0.10609698
36	0x3cac5809	0.021038072
37	0xbdaa5fd1	-0.08319057
38	0xbdd57fe5	-0.104247846
39	0x3e12fe53	0.1435483
40	0x3e1c5a11	0.15268733
41	0xbd5d82c4	-0.054079786
42	0xbbe7d5b6	-0.007075037
43	0xbd878a77	-0.06618207
44	0x3ddc8122	0.10766818
45	0x3d0a43e0	0.033756137
46	0x3d9ae4d9	0.075631805
47	0xbd1385d5	-0.036016304
48	0x3c479248	0.012180872
49	0x3e02e72a	0.12783495
50	0x3d97c8f9	0.07411379
51	0x3e129de2	0.1431804
52	0x3d577c04	0.052608505
53	0x3dc6d7be	0.09709118
54	0x3dd0cd50	0.1019541
55	0x3c35458f	0.011063947
56	0xbda85dd5	-0.08221022
57	0xbb8dcfc5	-0.0043277466
58	0x3daf4a0b	0.085590445
59	0x3d932eb0	0.07186639
60	0x3d9531d0	0.072848916
61	0x3e19759f	0.14986275
62	0xbd3cf568	-0.046132475
63	0x3cd00a25	0.025395462
64	0x3d2b3193	0.041795325
65	0x3d580bb4	0.052745536
66	0x3cbb53d1	0.022867115
67	0xbaf64057	-0.0018787485
68	0xbc32af46	-0.010906046
69	0x3dd52a32	0.10408439
70	0xbca0e514	-0.019640483
71	0x3d5e44f3	0.054264974
72	0x3e1c3f7a	0.1525859
73	0xbcd9fc4f	-0.026609568
74	0x3da5816b	0.08081325
75	0x3cb8cab6	0.022557598
76	0xbd996af8	-0.07491106
77	0xbd176b94	-0.03696783
78	0xbe03be46	-0.12865552
79	0x3ddb7032	0.10714759
80	0xbc7e501b	-0.015522028
81	0xbe08f477	-0.13374506
82	0x3cddb424	0.027063437
83	0xbd10ecd2	-0.0353821
84	0x3dc8bee2	0.09802033
85	0xbd9df8da	-0.0771348
86	0xbd93d860	-0.07219005
87	0xbe2c0802	-0.1679993
88	0x3d90316b	0.07040676
89	0xbd783356	-0.060595833
90	0xbe3f721c	-0.18695873
91	0xbdb50a95	-0.08839909
92	0xbd26ab91	-0.040690962
93	0xbe251525	-0.16121347
94	0x3d563335	0.05229493
95	0x3d5ede45	0.05441119
96	0x3da39a8a	0.0798846
97	0xbdf801ab	-0.12109693
98	0x3ccbdd84	0.0248859
99	0xbdafca22	-0.08583476
100	0x3bdcd588	0.006739322
101	0xbda319a2	-0.079638734
102	0xbe008b0a	-0.12553039
103	0x3da788f1	0.081804164
104	0xbd144fc8	-0.036208898
105	0xbd9f263b	-0.07770964
106	0xbde939db	-0.11387988
107	0xbc05e456	-0.008172115
108	0xbdf2785e	-0.118393645
109	0xbd95d70d	-0.07316408
110	0xbc44d2f0	-0.012013182
111	0xbe0d501b	-0.13800089
112	0xbd89c826	-0.067276284
113	0xbdceca84	-0.100972205
114	0xbde0489b	-0.109513484
115	0x3da25244	0.07925847
116	0x3dc74f53	0.09731927
117	0xbd3a5bad	-0.045497585
118	0x3d4555cd	0.04817753
119	0x3db9307b	0.0904245
120	0xbd8035c3	-0.06260254
121	0xbdd6320a	-0.10458763
122	0xbcb551e1	-0.02213377
123	0x3dc04393	0.09387889
124	0xbcc52d2c	-0.024069391
125	0xbd517d44	-0.051144853
126	0x3ca6ddd6	0.020369451
127	0x3d33ac79	0.043865655
128	0xbdd2552e	-0.10270153
129	0x3d6ac3d2	0.057315655
130	0xbdefcfb1	-0.11709536
131	0x3dc421c0	0.0957675
132	0x3de8f94b	0.11375674
133	0x3da29c0c	0.0793992
134	0xbcfb317c	-0.030663244
135	0xbdc37b74	-0.09545031
136	0xbd7d9699	-0.0619112
137	0xbca8b072	-0.020591948
138	0x3adaa004	0.0016679768
139	0xbdc380c6	-0.09546046
140	0x3d89cf26	0.067289636
141	0x3c5ed2e7	0.013600088
142	0x3db4cb29	0.08827812
143	0xbd925de3	-0.07146814
144	0xbbc54b6b	-0.0060209534
145	0xbd2fde16	-0.042936407
146	0xbe0698d3	-0.13144235
147	0x3d227964	0.03966655
148	0xbe264c3f	-0.16240023
149	0x3e038e19	0.12847175
150	0x3c64758d	0.013944042
151	0x3e065f04	0.13122183
152	0x3dab9c7f	0.08379459
153	0xbdadc5d6	-0.08485
154	0xbd810342	-0.062994495
155	0x3d7c773b	0.061637145
156	0x3d4a06ab	0.049322765
157	0x3d544163	0.05182017
158	0xbd584ff3	-0.05281062
159	0x3ddb8f4e	0.107206926
160	0x3d99cb1e	0.07509445
161	0xbe63cacd	-0.22245331
162	0xbd9d6ad2	-0.0768639
163	0xbb80685c	-0.0039186906
164	0xbce0156a	-0.027353961
165	0xbc3d556c	-0.011556011
166	0xbdba2fb7	-0.09091132
167	0xbd1cbd80	-0.03826666
168	0x3c8a9693	0.016917503
169	0x3b95f310	0.0045760944
170	0xbdeadfbb	-0.114684545
171	0x3d8406e2	0.06446625
172	0x3cac71e2	0.021050397
173	0x3d0cdf40	0.034392595
174	0xbe0acdc7	-0.1355506
175	0x3dc9553d	0.09830711
176	0x3da06694	0.07832065
177	0xbc7e907e	-0.015537379
178	0x3d54b2ed	0.05192845
179	0x3dc0f91a	0.09422512
180	0x3d9c1f9f	0.07623219
181	0xbe007398	-0.12544096
182	0x3e0bb51b	0.13643305
183	0xbc0f19f0	-0.008734211
184	0x3d31df7c	0.043426022
185	0x3d66a5bd	0.056310404
186	0xbb3d1088	-0.0028848965
187	0x3ce64d09	0.028112905
188	0x3de980e2	0.114015356
189	0x3d8ae015	0.067810215
190	0xbe056efa	-0.13030615
191	0x3da84a71	0.082173236
