time_LossPrune_ClassifyFixed/TotalModel_ticket.pth (torch, 166764 bytes, 12 tensors)

weight f4 [13, 8]
000000 1a ae 9a 3e 59 91 57 be c2 2f dc be 7e d9 46 be
       0.30210954 -0.2105154 -0.43005186 -0.19418904
000010 91 67 e2 bf ae 06 cb bf f6 83 24 3e 54 4a a4 3f
       -1.7687856 -1.5861413 0.16065964 1.2835183
000020 c2 28 0c 3f c5 5a af bf 09 aa 37 3f cb b4 7a 3f
       0.5474969 -1.3699576 0.7174383 0.9793212
000030 e1 84 ea be 90 e2 ef 3c cd 42 28 c0 df 48 9d be
       -0.45804504 0.029282838 -2.6290772 -0.3071966
000040 94 2e 0f be b0 ed bb be 2f fd 0c be d7 fa 1a bf
       -0.13982612 -0.3670478 -0.13768457 -0.60539
000050 28 ab cc bf b0 b9 b0 3f 64 5d ad 3f 6a a7 93 3f
       -1.5989733 1.3806667 1.3544126 1.1535466
000060 01 ed cd 3f 17 32 db 3f cd 61 cb 3e ac 04 c5 be
       1.6087953 1.7124661 0.39723054 -0.38480127
000070 c4 fe 80 3f ac a6 99 be f3 ba dd bb 2e 59 8c bf
       1.0077748 -0.30009973 -0.006766671 -1.0964715
000080 94 8f 2a 3e d9 ca fb 3d 31 20 d2 3d 65 ba a1 bf
       0.16656333 0.122945495 0.10260046 -1.2635008
000090 3a e5 4e be fb 28 26 bf 1d 33 bb bf ea c2 1b 3f
       -0.2020463 -0.6490628 -1.4624974 0.6084429
0000a0 84 b2 37 40 72 35 22 3f ce eb 3b 3f 8b 31 7c 3f
       2.8702707 0.633628 0.73406684 0.98513097
0000b0 2d 81 22 bf 61 f5 be bd ae 30 4d bc 6e 7b 22 40
       -0.63478357 -0.09324146 -0.012523813 2.5387836
0000c0 34 a6 bb 3f 19 a4 32 c0 9c 7c 71 3d 8e 22 77 bf
       1.4660096 -2.7912657 0.058956727 -0.965371
0000d0 e0 ff 2b 3f ca 91 04 3f b4 7e 09 be 27 97 c6 bf
       0.6718731 0.51784956 -0.1342724 -1.5514878
0000e0 5c d5 ec 3e 2f 3a 42 bf c7 c8 22 40 32 f9 88 bf
       0.4625653 -0.7587003 2.5435045 -1.0701048
0000f0 d0 a2 82 3f 29 30 ed bf 61 f1 9b bd 5a 1a 14 3f
       1.0205936 -1.8530322 -0.07614399 0.5785271
000100 42 c4 20 be 8e 64 82 bf 8d 0c af 3e f5 90 51 bf
       -0.15699866 -1.0186937 0.34189263 -0.8186181
000110 8d 24 b8 bf f9 d2 82 3e be 11 30 3e 1e 6e b6 3c
       -1.4386154 0.25551584 0.17194268 0.022269305
000120 33 a3 d9 bf 01 b6 0a bf 89 c2 9c 3f f9 d2 1c 3e
       -1.700293 -0.54183966 1.2246867 0.15314855
000130 73 36 95 3f 2b 22 09 bf ae d2 7e 3e 20 cb 92 3f
       1.1657242 -0.5356776 0.24885055 1.1468239
000140 50 b0 ef be 1b 00 99 3f 41 25 d3 bf 57 d7 cf bf
       -0.46814203 1.1953157 -1.6495744 -1.6237592
000150 14 4d b1 bf 97 42 b3 bf fe bd 53 bf 23 f5 c6 bf
       -1.3851647 -1.4004697 -0.8271178 -1.554356
000160 c4 65 88 3f 35 50 11 40 02 24 d3 3d 4d f2 6e 3e
       1.0656056 2.2705204 0.10309602 0.23334618
000170 75 38 0a 40 2b f8 8b 3d 6b ba 5c 3f f6 6c 18 40
       2.1596959 0.06834444 0.8622195 2.3816504
000180 b1 0f 44 bf ad 3f c0 3e 08 92 57 3f 01 ba e7 3e
       -0.76586443 0.3754858 0.842072 0.45259097
000190 99 9e 1f bf 75 f0 aa 3e a9 83 3f 3f 97 92 b8 be
       -0.62351376 0.3338658 0.7481027 -0.3604934

weight_ih_l0 f4 [192, 9]
000000 bc 48 7a bd 66 83 e7 3b 46 d8 af 3e 46 5a d5 be
       -0.06110452 0.0070652245 0.3434469 -0.41670436
000010 3a de 4e 3e da d7 0a be 45 58 b8 3e ca b1 98 3e
       0.2020196 -0.13558903 0.36004844 0.29823142
000020 9e a9 8a 3d 48 48 6e be 2a 18 94 bd 95 51 df 3d
       0.06770633 -0.2326976 -0.072311714 0.109042324
000030 bd 20 e9 bd df d2 88 be 5a 16 7f bd ab 22 bd 3c
       -0.113831975 -0.26723382 -0.062277175 0.02308782
000040 90 50 2e 3e 48 43 fe be 99 9b 9a 3e f5 d0 a0 3c
       0.1702292 -0.49660707 0.30196837 0.019630888
000050 35 15 2c bd 01 a1 b9 bd 61 a8 5f be a9 98 88 be
       -0.042012412 -0.09063912 -0.21841575 -0.2667897
000060 d4 a7 11 be a5 d7 7a 3e 32 38 5d 3e 0d 1b 31 3c
       -0.14224178 0.24496324 0.21603468 0.010809672
000070 db b5 ca bd 56 74 93 3e f4 27 85 bd e4 d6 03 bf
       -0.098979674 0.28799695 -0.06501761 -0.5149977
000080 42 3d 4e 3e 17 64 35 be 73 15 bf 3e 27 c7 3e be
       0.20140556 -0.17713962 0.37321052 -0.18630658
000090 f1 75 b9 ba 2d dc e6 3e e1 9c c6 3e 88 5f 9c be
       -0.0014149529 0.45089856 0.38791564 -0.30541635
0000a0 a9 e1 1b 3f 7d eb 5f be 3d f4 f4 3e 27 dd 87 bd
       0.60891205 -0.21867175 0.4784259 -0.06633978
0000b0 04 15 88 3d be 79 e8 bd 2c b8 92 3e ed f9 5c 3d
       0.066446334 -0.113513455 0.28656137 0.053949285
0000c0 f1 16 ec 3e cf 7f b1 3e 99 4d 3c 3e f2 25 7a 3e
       0.46111253 0.34667823 0.18388976 0.24428537
0000d0 4c 87 ef 3d 25 28 4f 3e 96 02 e5 bd 65 03 72 be
       0.11695728 0.20230158 -0.11182134 -0.23634107
0000e0 69 79 c8 be 0c 54 76 3e e6 d1 51 3e 27 5d 9a 3c
       -0.3915513 0.24055499 0.20490226 0.018843247
0000f0 31 7d 0b 3e 15 82 f8 bc a4 87 6b bd e9 5e cb bd
       0.13621975 -0.030335465 -0.057502404 -0.09930212
000100 99 a5 06 3d a7 92 9a 3e d9 a2 39 3e 34 37 00 3f
       0.03287277 0.30190012 0.18128528 0.50084233
000110 cd cb 59 3e c6 7b 05 bf 4a 72 1b bf 13 05 23 be
       0.2126915 -0.5214199 -0.60721266 -0.15919904
000120 e6 ca d1 be 51 89 3b 3e 9f 23 70 3f c7 42 2c 3e
       -0.40975112 0.18314101 0.93804353 0.16822349
000130 bc 3c a4 3d 40 ee 49 be ee 8e 8a 3e 9c 9c 95 3e
       0.08019397 -0.19719791 0.27062172 0.29221046
000140 5e d3 62 3e 59 3f 24 be d8 58 62 3e 9b e9 94 3e
       0.22150943 -0.1603979 0.22104204 0.29084477
000150 48 96 ae 3e d0 7b ea 3e bd 16 12 3f e7 44 b5 be
       0.3409903 0.45797586 0.57065946 -0.3540413
000160 7d 28 2a be 8f 69 b6 3e 9b 2d 84 be c6 81 d8 bc
       -0.16617008 0.3562741 -0.25816044 -0.026429068
000170 22 8c c8 be a6 98 96 3e ea 2a 21 bd b0 a7 79 3d
       -0.39169413 0.29413337 -0.039347567 0.060950935
000180 1c 08 4f 3e f6 f3 61 3e b4 2f a4 3e d3 89 0c bf
       0.20217937 0.2206572 0.32067645 -0.54897803
000190 cc ae 23 bd 52 67 55 bd b1 82 b2 bc c2 2f ab 3e
       -0.03996162 -0.052100487 -0.021790834 0.33434874
0001a0 cf 4b 82 be a2 99 9e 3e d3 06 63 be 1a 5f 24 bd
       -0.25448462 0.30976588 -0.22170572 -0.04012976
0001b0 df ce 3f 3e 76 ce 07 bd 1d 85 77 be 74 a7 ae 3e
       0.18731259 -0.03315588 -0.24171872 0.34112132
0001c0 8f f2 2d 3e c0 e6 da bd 8a 72 2c be 92 35 0b bf
       0.1698706 -0.10688543 -0.16840568 -0.54378617
0001d0 62 96 65 3d 29 8c 45 3e d3 c2 1d be 80 ce b8 bd
       0.05605162 0.19291748 -0.15406351 -0.09023762
0001e0 62 e9 76 3e 2c 7f bc be 48 cd 7d be 20 44 6c be
       0.24112466 -0.36815774 -0.2478534 -0.23072863
0001f0 b5 fc 84 3e ad 1c 72 be d9 cd ac 3d cf 81 e8 bb
       0.2597405 -0.23643751 0.084377 -0.0070955525
000200 54 fc 84 bd 8d ca 3b 3b ff d4 2c 3e e9 a3 1a bd
       -0.0649344 0.0028654665 0.16878127 -0.037753973
000210 a1 ef 2d 3f 32 43 ba 3e db 0e 02 3e 2a 61 a3 be
       0.6794377 0.3637939 0.1270098 -0.31910068
000220 f4 90 80 3c 1f eb 77 be cc af c0 3d 36 37 98 3e
       0.015694119 -0.24210785 0.094085306 0.29729623
000230 8e dd 67 be b4 52 5c bc 92 a4 19 bf 42 3b ff bd
       -0.2264311 -0.013447452 -0.6001674 -0.124624744
000240 af 01 5e 3c ee 4a f6 3d e3 07 23 bf 1e c7 fc 3e
       0.013550206 0.120260105 -0.6368391 0.49370664
000250 c7 c0 6e 3e ab 94 b4 bd 4c 57 be bd da 9c a6 be
       0.23315726 -0.08817419 -0.09293994 -0.32541543
000260 08 86 57 3d c5 e8 ea be e5 3d 97 3e b2 0e a3 3e
       0.052618057 -0.45880714 0.2953941 0.3184715
000270 fb e4 89 3d ca ef 5d bd e3 e1 6a 3e 29 d8 7b 3d
       0.06733128 -0.05418376 0.22937731 0.061485443
000280 2c 84 cf 3e 6b 42 c0 3e aa 48 8b be 10 0b 9f 3e
       0.40530527 0.37550673 -0.27203876 0.31063128
000290 35 be 4c 3b f3 03 d8 3d a3 30 51 be 40 8e d8 bd
       0.0031241302 0.10547628 -0.2042871 -0.10574007
0002a0 8b bc 19 be 51 57 57 bd da f7 61 bc a0 9a 15 3e
       -0.1501333 -0.052573506 -0.013792003 0.14609766
0002b0 5f eb c5 3e d5 5c c0 3c 38 77 6e 3d e6 00 ba 3c
       0.38656136 0.023481766 0.058219165 0.022705507
0002c0 bb 80 ed 3b df 72 b2 3c 69 bb 8e bd 4f 56 e3 3c
       0.007248012 0.02178329 -0.069693394 0.027751116
0002d0 23 4c ec 3d 57 28 71 bd 46 cb 36 3f bc 5a 55 3e
       0.115379594 -0.05887636 0.7140392 0.20835394
0002e0 4c ad df be 85 c1 ab 3c c4 7b e9 be b2 dd a2 3e
       -0.43686903 0.0209663 -0.45602238 0.31809765
0002f0 1d 05 88 3e 7a 84 15 be 1e e5 cf 3d 30 58 c4 be
       0.265664 -0.14601317 0.101511225 -0.38348532
000300 b5 b5 8b 3e 83 00 36 be 29 aa 89 bd c6 65 c5 3d
       0.2728707 -0.17773633 -0.067219086 0.09638552
000310 03 4d d1 3c f4 34 da 3d f5 c1 36 be f4 8a be 3e
       0.025549417 0.10654631 -0.17847426 0.37215388
000320 f2 84 18 3e 68 59 d8 3d eb e4 67 3c 1a 6f b5 3e
       0.14894465 0.10563928 0.014153699 0.35436326
000330 f4 07 9b bd 0e d0 87 bd 01 e3 13 3e f8 73 f9 be
       -0.07569876 -0.0663148 0.14442064 -0.4872129
000340 6d 7d 8b be a9 b5 90 3e 3a 12 0d 3f 02 45 9b be
       -0.2724413 0.28263596 0.55105937 -0.30326086
000350 ba 9b 2b 3f fd cb 1a be 23 88 e4 3e a8 49 a5 3e
       0.67034495 -0.15116878 0.44635114 0.32282758
000360 c1 1f a1 3d 26 dc c8 bd 2e c1 1a 3e 2a 68 7e 3e
       0.07867385 -0.09807615 0.15112755 0.24844423
000370 65 73 9c 3e 79 32 b6 3e 92 1d 36 be bb b3 b0 be
       0.3055679 0.35585383 -0.17784718 -0.34512123
000380 d6 72 6f 3d 3f 53 a2 3d e8 f4 1e 3e ca 81 17 3e
       0.058459125 0.07926034 0.15523112 0.14795604
000390 78 8e ee bd 72 24 02 3f 27 de ff bd d3 e0 24 3f
       -0.116482675 0.5083686 -0.12493544 0.64405555
0003a0 2e ef ac be f4 f2 13 3f b6 f0 ef bd 25 39 de be
       -0.3377623 0.5779259 -0.11715834 -0.43402973
0003b0 48 3a bd 3e ed 76 ec 3c eb 3d 60 be e1 0e b6 bd
       0.36958528 0.028865302 -0.2189862 -0.08889557
0003c0 21 21 8f 3e 78 30 53 3f 44 43 07 be 7c a6 81 be
       0.27954963 0.8249583 -0.13209254 -0.2532233
0003d0 ca d8 95 bd 2b 59 96 3e 1a 5c 8c 3e b7 ff 68 be
       -0.0731674 0.29364905 0.27414018 -0.22753797
0003e0 6f 01 a1 be bc ee b1 be ab 52 31 3e 4f ab 94 3e
       -0.31446406 -0.34752452 0.17316692 0.29036948
0003f0 4a 5a 23 be cc 04 74 3e 7f 35 07 be d9 03 01 3e
       -0.15952411 0.23829955 -0.13204001 0.12599124

weight_hh_l0 f4 [192, 64]
000000 b8 5b cc bd c8 13 d7 bd fd e9 83 be eb 2d 9f 3e
       -0.099784315 -0.1050182 -0.25764456 0.3108972
000010 7c 8d fd 3d de e4 8b bd 4f 28 94 bd 72 45 8a be
       0.12380502 -0.06830762 -0.07234251 -0.27006108
000020 fc 0f 82 be ff bb 11 3f ff e4 ef bd cc 22 c9 3d
       -0.2540282 0.56927484 -0.117135994 0.0982109
000030 1b 5a 64 3e 1c 2a fe bd b5 99 db be cd ca ad bd
       0.22299998 -0.124103755 -0.42890707 -0.08485947
000040 ee 3c 95 be 07 50 61 3e 1b e5 28 3e 86 40 57 bb
       -0.29148048 0.22003184 0.16493647 -0.0032844855
000050 41 16 2e 3e 70 7f 6b 3d bf db ea bd 8d 7e e1 3e
       0.17000677 0.05749458 -0.114676945 0.44041863
000060 78 d0 c8 bd ba 77 93 3d 98 ed 2d be 22 c4 50 3d
       -0.09805387 0.072005704 -0.16985166 0.050968297
000070 e1 44 9b be f0 6d c8 bd 85 bf 50 bd a6 09 81 bd
       -0.30325988 -0.09786594 -0.050963897 -0.063006684
000080 71 99 d8 bc 6d f2 1d be f9 11 ec 3b 1b 70 34 bd
       -0.026440354 -0.1542451 0.007204291 -0.044052225
000090 f8 c7 af be f7 00 6c 3e 34 ae db be 55 61 f6 bd
       -0.34332252 0.23047243 -0.42906344 -0.12030283
0000a0 6f 53 ba 3e 7d e1 8e bd dc 0f b1 3e 41 c2 2f 3d
       0.3639178 -0.06976602 0.34582412 0.042909864
0000b0 e0 c8 94 3e f7 ef 42 be 33 37 93 bd 6b 60 1d be
       0.29059505 -0.19036852 -0.07188263 -0.15368812
0000c0 aa 31 e8 3d 98 4d 88 bc ba 50 d9 3b 68 08 7a be
       0.11337598 -0.016638562 0.006631938 -0.24417269
0000d0 b5 ec 77 3d d5 ed e1 bd f6 01 2a 3e 1d fd 01 be
       0.060528476 -0.11031691 0.1660231 -0.12694211
0000e0 d7 b6 a9 bd 0a fd 61 be 27 77 5d bd 2e c9 21 bd
       -0.08286827 -0.22069183 -0.05406871 -0.0394985
0000f0 5f f8 28 3d 6a 30 f8 3d b1 69 de be 90 54 d1 be
       0.04125249 0.12118609 -0.4344001 -0.4088483
000100 fb 7e 61 3d 39 e4 84 bd 6c 20 b3 3e 56 50 69 be
       0.05505274 -0.064888425 0.34985673 -0.22784552
000110 c5 f3 a8 3e 0c 88 b7 bd de 87 7c be 8a 3c f3 bd
       0.3299848 -0.08961496 -0.24661204 -0.11876781
000120 72 f2 d2 3d 86 df 87 3c 05 17 d1 3a a5 5c 01 bd
       0.10300149 0.016586076 0.0015952295 -0.031582493
000130 ad f8 58 3d 67 8f 67 be 03 4d b8 bd 6f c4 13 be
       0.05297153 -0.22613297 -0.08999064 -0.14430402
000140 3e c7 45 3e 5c 08 1a be 1a df 3b be 40 1d f2 3d
       0.19314286 -0.15042251 -0.18346825 0.11821985
000150 04 a2 f1 3c c0 a6 c1 bd a4 c1 fe bd bd 2d c6 bd
       0.0294962 -0.09455633 -0.12439278 -0.09676693
000160 d8 cb e6 bd ad f4 31 3e 9a d0 62 3d a1 7e f5 3c
       -0.11269349 0.17378493 0.05537472 0.029967608
000170 81 8b 25 3e b1 c0 35 be da 0e aa 3d 60 c2 a4 3e
       0.16166498 -0.17749287 0.08303614 0.32179546
000180 fe ff 46 3d 77 e5 e7 bd 5d 11 47 bd 28 39 24 3d
       0.048583977 -0.11323064 -0.048600543 0.04009357
000190 29 04 32 3e da b0 c7 bd d8 b8 16 3e 06 9f 09 bc
       0.173844 -0.09750529 0.1471895 -0.008399731
0001a0 4f 7b 34 3e e2 a9 cd bd 07 bd 90 be a0 f6 06 3c
       0.17625163 -0.10042168 -0.28269216 0.008237511
0001b0 34 ec 46 bd de 2b f4 bd 69 85 73 bc b9 e2 99 be
       -0.048565105 -0.119224295 -0.01486335 -0.30055788
0001c0 e5 7c 62 3e f6 1b 82 3d c0 89 6a bc 2f 69 8e bc
       0.22117956 0.063529894 -0.014315069 -0.01738414
0001d0 66 d8 bb 3c 78 74 0a be 39 cd 50 3e 20 e4 85 3d
       0.022930335 -0.13520992 0.20390786 0.06537652
0001e0 8a 6c d4 3d ee a0 fc 3b 91 94 cb bc 60 33 42 bd
       0.10372265 0.007709614 -0.024851115 -0.047412276
0001f0 43 f0 b0 be e1 e8 b8 3d 2a 7b 70 3e 94 84 25 3d
       -0.34558305 0.09028793 0.23484483 0.04040964
000200 b4 bf d2 3d cb f7 a0 3d dc 1d 5d 3e 4c be 77 be
       0.10290471 0.07859763 0.21593422 -0.24193686
000210 f2 a5 a3 3d 66 00 f1 bd 77 bf 39 3e be 9b 35 3e
       0.07990636 -0.11767654 0.18139444 0.17735192
000220 21 9a 62 3e 1f a0 6c be 34 7c b9 3e 7e 76 4f bd
       0.22129108 -0.23107956 0.36227572 -0.050650112
000230 6c ea e7 3d cc 9e 9d be 0e 1f c6 3e f3 88 3e 3e
       0.11324009 -0.30785215 0.38695568 0.1860693
000240 56 4b 9b 3c f8 84 88 3e 1c c8 1b be 97 fa 56 3d
       0.018956821 0.26663947 -0.15213054 0.052485075
000250 eb 0f 92 bd 05 00 2e be d0 80 2e be fa f3 bf 3d
       -0.07131942 -0.16992195 -0.17041326 0.09372707
000260 29 73 0b bd 1c f6 70 be 59 b6 e8 3c f3 c5 50 be
       -0.034045372 -0.23531383 0.028407263 -0.20388012
000270 1e 28 7d 3c dc 50 0c be 53 95 3f be f1 20 b5 bd
       0.015451459 -0.1370272 -0.18709306 -0.08844174
000280 d3 a1 d5 bc 57 14 4c be 3f 8d eb 3d cc d1 ec bd
       -0.02607814 -0.19929634 0.1150155 -0.11563453
000290 3c 55 f5 3d 93 ab ca be 5d 2d 09 3e cd 6f be bd
       0.11979148 -0.39584026 0.13396211 -0.09298668
0002a0 c3 3f c4 3d 39 52 dc 3b f4 eb 6d 3e 2b ea 7e 3e
       0.09582474 0.006723669 0.2323454 0.24894015
0002b0 5a 39 ed bc d1 8c 8b bc a1 79 32 be af 57 7b be
       -0.028958011 -0.01703492 -0.1742921 -0.24545167
0002c0 39 1a e8 3c f2 8a 96 3e 68 e1 2e be cb ab 1c be
       0.028332816 0.29402882 -0.17078173 -0.15299909
0002d0 df 79 c8 3d 20 a3 79 bd 55 0e 45 3e 7f 48 fe bd
       0.0978887 -0.060946584 0.19243748 -0.12416171
0002e0 c0 2a c0 bc b6 18 87 be 9f d2 5b be 4b f3 06 bc
       -0.023457885 -0.2638604 -0.21467064 -0.0082367165
0002f0 69 e5 54 bc 03 23 c5 bd 42 56 65 3e 12 26 da 3c
       -0.012994149 -0.096258186 0.22396186 0.026629481
000300 a6 3a 91 3e bc be a6 be 55 d3 03 3e 95 0d a1 3d
       0.28365058 -0.32567394 0.12873586 0.07863919
000310 18 27 eb 3e 13 a1 b7 3e 01 0e 59 3e 40 31 aa 3d
       0.45928264 0.35865077 0.21196748 0.08310175
000320 b4 5f 9c 3e a0 62 13 3c ea 9f a4 be bc 9b bb 3d
       0.30541766 0.008995682 -0.32153255 0.09160563
000330 a6 78 56 be cd 24 12 3d 9c 24 b0 3d ab 90 89 be
       -0.20944461 0.035679627 0.08600733 -0.26868185
000340 ae f1 06 be c4 80 12 3e 49 a2 c7 be 85 da cb 3e
       -0.13178131 0.14306933 -0.38991 0.39815155
000350 51 33 c9 3d d2 a0 c5 3d 3f 8b ec be f5 56 4a 3e
       0.09824241 0.09649815 -0.46199986 0.19759734
000360 f6 ea 70 bc b9 a0 6c be d7 90 08 be b5 0a aa bd
       -0.014704457 -0.23108186 -0.13336502 -0.083028235
000370 1e e5 06 bd 17 3d e8 3c 8d b6 93 be dd 3a 0d 3d
       -0.032933347 0.028349442 -0.28850213 0.034479965
000380 1e 4b 85 bd 4e 03 f3 be d0 95 9b be 1e 7d 96 be
       -0.06508468 -0.4746346 -0.30387735 -0.29392332
000390 74 ff 7e 3d c2 4f 7b 3e 4e a2 09 3f ba 7d 0d be
       0.062255338 0.24542144 0.5376328 -0.13817492
0003a0 4e 1a 18 3e 60 88 1d 3e e1 1c c9 3e 7d 78 fa bd
       0.14853784 0.15384054 0.39279845 -0.122300126
0003b0 a2 d8 f7 bd a6 c7 c7 3d fe f4 26 be 6d 0b 14 bc
       -0.12101866 0.09754877 -0.16304395 -0.009035927
0003c0 d5 3e 2b 3e 55 21 57 be fc 22 84 3d a9 a5 a3 3e
       0.16723187 -0.21008809 0.06451985 0.31962326
0003d0 c3 a8 78 be a6 f2 ea bc 0d 02 f7 be dc 2a 0a 3e
       -0.24283127 -0.028680157 -0.48243752 0.13492912
0003e0 a8 43 c3 be 42 0e f0 bd 27 ff 9b bc 31 e1 cb 3e
       -0.38137555 -0.117214695 -0.019042565 0.39820245
0003f0 74 52 7f be 6d 8a 01 3f 85 4f 33 3e 94 8a 68 be
       -0.24933797 0.50601846 0.17510803 -0.22709113

bias_ih_l0 f4 [192]
000000 f1 06 ef 3c d5 33 2a 3e 1f 6b 76 3e cb 08 03 be
       0.029178115 0.16621335 0.24064301 -0.12796323
000010 87 26 ed bb c7 41 76 3c ef f1 0a 3d 59 6b b8 bd
       -0.007237259 0.015030331 0.033922132 -0.0900485
000020 95 21 8f 3e 10 cd b0 3d cc c3 45 3d 70 56 2e 3e
       0.2795531 0.086328626 0.04828243 0.17025161
000030 d3 4b 56 3e 63 85 06 3e 6a c9 f1 bc b7 d4 48 bd
       0.20927362 0.1313682 -0.029514987 -0.049030986
000040 6d c3 81 3d 0e 2d 21 bd 14 5d 95 3d 91 8b 5c 3d
       0.06336103 -0.039349608 0.07293144 0.05384404
000050 8b 10 d9 3c 7c 8b c4 3d ac d3 44 bc 61 ec 3a bd
       0.026497146 0.09596917 -0.012013357 -0.045635585
000060 e0 4e 76 bb 62 08 7e 3c cf 3f f0 3d 92 cb fa bd
       -0.0037583634 0.015504928 0.117309205 -0.12245859
000070 3d f8 25 3d b2 8b ad bc 30 15 85 bc bc 01 34 3e
       0.04051994 -0.021184776 -0.016245455 0.17578787
000080 5d f9 39 bc 85 d2 14 bd 2b e4 7d 3e c8 15 01 bd
       -0.011350957 -0.03633358 0.2479407 -0.031514913
000090 3d 62 27 bd f3 a5 8c bd e3 02 bf bd 1f c2 10 3e
       -0.04086517 -0.0686759 -0.093267225 0.14136551
0000a0 a0 6f 71 bd 24 18 34 bd fc b6 f7 3d 16 13 09 3d
       -0.058944345 -0.043968335 0.120954484 0.033465467
0000b0 44 a7 f3 3c b2 41 81 3e 2d f5 05 bd 88 ec 94 3c
       0.029742844 0.25245434 -0.03270452 0.018179193
0000c0 bc 0c c8 bd b5 be fb 3d 3d 0e 31 3e 93 9f 35 3e
       -0.09768054 0.12292234 0.17290588 0.17736654
0000d0 83 6e 0b 3e e8 7f af 3d 27 98 6a bc 25 7b f1 3d
       0.13616376 0.08569318 -0.0143185025 0.11791066
0000e0 b7 77 a0 bd 02 b6 dd 3d 7f ad 74 bd 51 ce c3 3d
       -0.07835334 0.10825731 -0.05973577 0.09560836
0000f0 13 91 ab 3d 27 31 94 3e 57 7b e2 3d cc 6e 6e 3d
       0.0837728 0.2894375 0.110586815 0.058211133
000100 67 00 c9 3c d4 70 b0 bd 14 ea 17 3e 07 f4 16 3e
       0.024536325 -0.0861527 0.14835387 0.14741527
000110 16 22 56 3d 8f c8 c8 3d 2a 7c 4f be 77 06 96 3d
       0.0522786 0.098038785 -0.20262209 0.07325452
000120 6a b0 bf bd 4e 05 c7 3d 23 2f 26 be 06 40 d9 3d
       -0.0935982 0.09717809 -0.16228919 0.106079146
000130 c5 c8 80 3d 95 34 81 3b d9 cb f0 bd 38 f3 9c 3d
       0.06288294 0.003943036 -0.11757631 0.07663578
000140 b3 bf 78 be 8e 7a 00 be a0 f6 5c bb 63 66 86 3d
       -0.24291877 -0.12546751 -0.0033716336 0.065624975
000150 7c e4 4f be d0 81 69 bb 8f 4d 6a 3c 42 fc c7 bd
       -0.20302004 -0.0035630353 0.014300718 -0.09764911
000160 c5 02 9c bd ab 85 c3 3d 00 33 a5 3d ae 29 b5 bd
       -0.07617716 0.095469795 0.08066368 -0.088458404
000170 b9 95 b7 3c 2a 52 9c 3d f9 3e 8a 3c ca d2 7c bd
       0.02241026 0.07632859 0.01687573 -0.06172446
000180 cf 71 8e bc 44 0b a0 3d 29 82 0e 3d da cb 84 3d
       -0.017388253 0.07814649 0.0347921 0.06484194
000190 57 27 3b be ab 0a bc bd a6 49 03 3d a0 c2 58 3e
       -0.18276726 -0.09181722 0.03205266 0.21167994
0001a0 c0 02 ce bd 13 29 bb be 1f e0 a4 bd b4 07 fc bd
       -0.10059118 -0.36554775 -0.0805056 -0.12306157
0001b0 c3 c8 21 3d 47 e4 09 3d f4 9a 6f bd 84 96 58 be
       0.039498102 0.033664968 -0.058497384 -0.21151167
0001c0 fc d7 00 3d 7a 1c 02 be b9 60 a9 bd 94 7d 99 3d
       0.03145598 -0.12706175 -0.082704015 0.07494655
0001d0 55 a5 ef bd 4c d4 e6 bd 61 1f 84 bd be f2 73 bc
       -0.117014565 -0.11270961 -0.064512976 -0.014889417
0001e0 af cd 47 3e bc 6a 34 be 3a 07 e1 bd cf 75 e1 bd
       0.19512056 -0.17618841 -0.109877065 -0.11008798
0001f0 1a 99 38 be 04 53 11 3e 85 fc 27 bb 6f 43 cc bd
       -0.18027154 0.14191824 -0.002563269 -0.099737994
000200 e1 67 84 3c a5 31 88 3e 73 5c b7 3d f0 91 9e 3d
       0.016162815 0.26600376 0.0895318 0.07742679
000210 b4 31 49 3e c6 fa 08 bd c0 f7 a3 bc e0 6d 68 3e
       0.19647866 -0.03344228 -0.020015597 0.22698164
000220 5d 9c 9b bd 80 e9 08 bc aa b9 21 3e 34 25 16 3d
       -0.07598183 -0.008356452 0.15793481 0.036656573
000230 48 9b 0d 3e 6f 3d e8 3d ea 45 a9 3e ee 81 08 3d
       0.13828766 0.113398425 0.33061153 0.033327036
000240 ee e7 00 3d 74 08 46 bc 2b 74 e2 b9 50 11 e8 3c
       0.031471185 -0.012086976 -0.0004319263 0.028328568
000250 b2 56 cf bd 3a 58 34 bd e5 7b f5 3d 8f 86 07 3d
       -0.10123958 -0.044029452 0.11986522 0.03308731
000260 7c 8c 51 bc b8 a8 33 be 6c 24 13 3d de af 10 3e
       -0.012789842 -0.1754483 0.035923406 0.14129588
000270 91 8b 7f 3e ff b4 c2 bd 6f 29 a0 3e c9 9d 2e 3e
       0.24955584 -0.095071785 0.3128161 0.17052378
000280 1d 6c 8f 3d 15 f7 5f 3e 14 d8 b9 3d 88 bf dd 3d
       0.07003043 0.21871598 0.09074417 0.10827547
000290 36 12 f5 bd 35 65 be bd 22 c3 b3 3c e7 f8 7e 3d
       -0.11966364 -0.092966475 0.021943633 0.06224909
0002a0 4d 6a cd 3d 2c ed b2 3e af e6 ec bd f0 39 83 bd
       0.10030041 0.34946573 -0.11567437 -0.06407535
0002b0 5a d6 c2 3c ac c8 0c be 89 be 07 bd 67 08 d2 3d
       0.023783851 -0.13748425 -0.033140693 0.10255509
0002c0 98 06 c3 bd 5b bd 8d bd 2b 5f 80 be cc b9 46 be
       -0.09522742 -0.06920882 -0.25072607 -0.19406813
0002d0 c4 1c 74 bd 4b 2b 94 3d 83 09 07 be b0 03 d1 bd
       -0.059597746 0.0723482 -0.13187222 -0.102057815
0002e0 d7 4e 0d 3e e4 37 26 3e 9e 73 cb bd 39 c2 b7 3e
       0.13799606 0.16232258 -0.099341616 0.35890368
0002f0 6b 2f 1d 3e 68 ac 0a be 33 20 50 bd 1f 93 80 bd
       0.1535012 -0.1354233 -0.050811958 -0.06278061

bias_hh_l0 f4 [192]
000000 0c e6 17 be ea 23 70 3e 16 00 e7 3d 3d f1 d0 bd
       -0.1483385 0.234512 0.11279313 -0.102022626
000010 a8 ce e8 bd 5c da 13 3e 26 f9 6e 3d d7 b5 29 be
       -0.113675416 0.14438766 0.058343075 -0.16573273
000020 40 c4 d0 3e 73 96 82 3d 61 0e a2 3c 0a 52 f4 3d
       0.40774727 0.06376352 0.019782247 0.1192971
000030 11 65 50 3e cc 22 e5 3d 30 4b 07 3d 12 9c d7 bd
       0.20351054 0.111882776 0.03303069 -0.10527815
000040 c5 f8 6a 3d 88 01 9b bd df 02 4c 3d cb 9d a6 3d
       0.05736615 -0.075686514 0.049807426 0.08135565
000050 3e 99 bf 3d 5f f5 6a 3e 98 a1 96 bd 79 07 84 bd
       0.093554005 0.22945164 -0.0735504 -0.06446738
000060 66 cb 4a 3e 63 07 a7 3d 80 b7 45 3e 5d c1 e6 bd
       0.19804153 0.08155706 0.19308281 -0.1126735
000070 59 57 54 3d 65 04 b2 bd f3 46 46 be a9 06 29 3d
       0.051841114 -0.086922444 -0.19363002 0.041266117
000080 ac b4 97 b9 e6 a8 8b bd b9 33 2b 3d 31 8e 1a be
       -0.00028935575 -0.06819324 0.041797373 -0.15093304
000090 d5 b2 40 3d e9 a2 11 3c d4 81 0c bd 85 78 fe 3d
       0.047045548 0.008888938 -0.0343035 0.12425331
0000a0 ce 2d bb 3d 70 f8 90 3d 92 c7 83 bd 3e 5e 11 bd
       0.09139596 0.07078636 -0.064345494 -0.035490267
0000b0 64 d2 10 3e b3 ef 2e 3d 2f df 3c 3d 9e 0a ac 3d
       0.14142758 0.042709064 0.046111282 0.084004626
0000c0 0a 78 e4 bd 32 a9 2c 3d 6c 00 72 3e 10 8c 18 3e
       -0.11155708 0.042153545 0.23632973 0.1489718
0000d0 8e 23 2b 3e fe e1 76 bd bd 9c c1 3d ac c8 30 bc
       0.16712782 -0.060274117 0.094537236 -0.010790031
0000e0 d2 10 3c bb 29 62 89 bd 56 16 71 bc 2c 26 53 3d
       -0.002869655 -0.06708176 -0.014714798 0.051550075
0000f0 20 ab a3 3d 2d b5 8d 3e b3 cb 8e 3d a5 db e4 3c
       0.07991624 0.2767729 0.06972446 0.027936766
000100 14 d7 c8 bd 86 93 8b be 4c 74 d4 3d 59 9d 02 3e
       -0.09806648 -0.2726099 0.10373744 0.12755336
000110 cf 44 00 3e e4 2e 8d bd de 16 1d be 87 bb c5 3d
       0.12526248 -0.06893709 -0.15340754 0.096549086
000120 ff 6e fc bd 22 43 dd bd 29 e5 64 be 33 13 22 3e
       -0.12325858 -0.1080382 -0.22353043 0.15827636
000130 fe 22 ac 3d b6 4c d2 3c cc c3 51 be dd c3 b9 3d
       0.08405112 0.025671344 -0.20484847 0.09070561
000140 82 83 c5 bc c4 5c 27 be 82 0f f4 3d 44 6c 96 3d
       -0.02411056 -0.16343981 0.119170204 0.07344869
000150 e6 4b e1 bd 9b fa d0 3d 7e 2c 3c bd d0 4a dd bd
       -0.110008046 0.10204049 -0.04594087 -0.10805285
000160 03 e4 af 3d a7 4a b7 3d 10 2f f8 3d c2 d2 bc bd
       0.08588412 0.08949786 0.121183515 -0.09219886
000170 ae 6d a7 bd 03 c0 0e 3d 4e 89 a5 bd 62 70 12 be
       -0.081752166 0.034851085 -0.080828294 -0.14300683
000180 79 4b 45 3d c2 c4 b4 3d 3c b5 f0 3d 49 86 e3 3d
       0.04816768 0.08826591 0.11753318 0.11109597
000190 e5 bc 7e bd a0 77 c6 bd 4f d2 a6 3d 33 d0 5e 3e
       -0.062191863 -0.096907854 0.08145582 0.21759109
0001a0 26 c8 26 be 63 76 7c be 45 f0 a9 3d 2c 37 02 bd
       -0.16287288 -0.24654536 0.08297781 -0.031790897
0001b0 ac 37 cb bb ac 38 8d 3c 8b ba 80 bd c4 d0 ef bd
       -0.006201705 0.017238937 -0.0628558 -0.11709741
0001c0 f1 e9 5c 3e 65 ec 07 bd 0e 60 12 bd 41 45 16 3e
       0.21573617 -0.033184428 -0.035736136 0.14674856
0001d0 7e a1 d7 bd 53 ed 8e 3d 81 27 ca bc d0 c6 6e 3d
       -0.10528849 0.0697886 -0.02467704 0.05829507
0001e0 16 ae 3c 3e 43 30 32 be aa 1d fd 3d 76 3d 08 be
       0.18425784 -0.17401223 0.123591736 -0.13304695
0001f0 f2 d3 3e be 29 9f 12 3d 1d dc 0d be f2 ad da bd
       -0.18635538 0.03579632 -0.13853498 -0.10677709
000200 f4 d9 b0 bd 32 08 37 3e 74 60 0a bd 27 2f 91 bd
       -0.08635321 0.1787422 -0.03378339 -0.07089072
000210 34 27 f0 bc 8f 2a 8b bb 52 43 cc 3d ac 38 13 3d
       -0.029315569 -0.0042470167 0.09973778 0.03594272
000220 7d 18 86 bd de 01 2b 3e 4c f2 da 3c 96 45 8a 3e
       -0.065476395 0.16699931 0.026726864 0.27006215
000230 d9 cf ba bc d2 6b 0c 3e 3c e9 c2 3d 36 57 61 3e
       -0.022804188 0.13713005 0.09517142 0.22005925
000240 05 59 32 3d 58 72 f3 bd c1 4f f2 bd e2 d4 23 3d
       0.043541927 -0.11887044 -0.11831618 0.039997943
000250 e8 7c 9d be 77 ca d1 bd 4f a6 09 bd ca 69 0a 3e
       -0.30759358 -0.10243695 -0.03360587 0.13516918
000260 e5 20 9b 3d 3e 87 1e be 4d 60 0d 3e d6 8a 5b 3c
       0.075746335 -0.15481278 0.13806267 0.0133998
000270 64 24 9c 3e 7e 6a 42 3d d3 a6 11 be 1d 90 3d 3e
       0.30496514 0.04746484 -0.14223795 0.18512006
000280 9f 62 be bb 7b 77 9c 39 c2 87 55 3e 07 04 e3 3d
       -0.0058100964 0.0002984366 0.20852569 0.110847525
000290 cb ef c8 3b b4 cd 71 bc dc 95 ce 3d dc 8b 87 bb
       0.006132101 -0.014758516 0.10087177 -0.0041365456
0002a0 c5 00 be 3d 54 d3 b7 3d 7c f0 fd bd 11 64 77 3d
       0.092774905 0.089758545 -0.123993844 0.060398165
0002b0 0f 75 f4 3d 4c 9e cd 3c df 9b f4 bd 84 0b 4a 3e
       0.1193639 0.025099896 -0.119437926 0.19730955
0002c0 e3 63 29 be ae 03 25 be 6b bf 3f 3d 84 54 8a be
       -0.1654201 -0.16114685 0.04681341 -0.27017605
0002d0 16 5b 4c bd 9a a0 45 3e c8 81 36 be b7 ba a4 bc
       -0.049891554 0.19299546 -0.17822945 -0.020108564
0002e0 9d e3 3d 3d ad a1 19 3e 21 44 0b be 7e fd 5e 3e
       0.046359647 0.1500308 -0.13600208 0.21776387
0002f0 09 37 81 3e a7 83 b2 3c 97 5f 59 bd eb 4c b5 3d
       0.252373 0.021791292 -0.053069677 0.088525616

weight_ih_l1 f4 [192, 64]
000000 50 52 0f 3e 82 93 c1 be 44 5e 51 3e 90 33 27 bc
       0.13996243 -0.37807852 0.20446116 -0.010205165
000010 8a b7 5b be 22 59 67 be a4 01 57 be 7d 91 0d 3e
       -0.21456733 -0.22592595 -0.2099672 0.1382503
000020 52 99 84 bd cf 70 ee bd 1a c5 e0 3e 7e 70 cb 3c
       -0.06474556 -0.1164261 0.43900377 0.024833914
000030 d4 33 4d bd 90 35 9b be 36 d0 a0 be 27 21 60 3e
       -0.050098255 -0.30314302 -0.31408852 0.21887647
000040 08 36 97 3e 6e f7 78 3e 70 ba 64 3d fe 34 2a 3e
       0.2953341 0.24313137 0.055841863 0.16621777
000050 06 17 1a 3e c3 22 92 bd e6 a4 3b 3d 6f b3 b2 bd
       0.15047845 -0.071355365 0.045811556 -0.087256305
000060 a9 09 1a 3e 42 72 b9 3d 7a 2b bf be c1 49 75 bd
       0.15042748 0.09054996 -0.37337857 -0.05988479
000070 ca a5 23 be ae 22 5e 3c b9 72 60 3d cb 76 19 bf
       -0.15981212 0.013558073 0.054796908 -0.5994689
000080 3c 69 ec ba 54 7b 4d be c2 f2 27 be 48 80 da 3c
       -0.0018036733 -0.20066577 -0.16401199 0.026672497
000090 5f ed e6 bc 65 fa 49 3e fc 15 d8 bb 85 79 c3 3d
       -0.02818936 0.19724424 -0.0065944176 0.095446624
0000a0 17 0e a9 be 41 7c af bc 82 12 82 be 4f 03 3e be
       -0.33018562 -0.021421554 -0.25404745 -0.1855595
0000b0 72 1a 0d 3d 57 bd c0 3e ea cb cf be 49 18 7c 3d
       0.03444905 0.37644455 -0.40585262 0.061546598
0000c0 5c dc 84 be f0 a2 04 3f 98 57 99 3e 57 ad 01 3e
       -0.2594937 0.5181112 0.2994964 0.1266378
0000d0 d5 f3 59 bd 24 54 2e bc 9e 27 12 bd 78 79 61 3c
       -0.053211052 -0.010640178 -0.035682313 0.013761871
0000e0 1f 9a 48 3e 84 65 cd be 6c 5a a1 bd 26 23 66 be
       0.19590043 -0.40116513 -0.07878575 -0.22474346
0000f0 74 be 91 3c d0 a7 bb bd d2 97 96 3d 14 0d 07 bf
       0.01779101 -0.09162867 0.07353176 -0.5275433
000100 7d ff 36 3e df 93 6b bd 97 9e 7b bd bb fa 9b 3d
       0.17870899 -0.057514068 -0.06143054 0.076161824
000110 c5 85 0e bd 65 ae a9 bd 62 99 78 be 6f 3f 4f 38
       -0.03479554 -0.08285216 -0.24277261 4.9411723e-05
000120 f4 63 7f be aa f3 38 be 9e 4b 14 3e 34 9e b0 3e
       -0.24940473 -0.180617 0.1448197 0.344957
000130 b3 ad 33 be 85 49 aa 3d db f7 a0 be c8 50 b2 be
       -0.1754673 0.08314804 -0.314391 -0.34827256
000140 69 61 77 be 79 c9 bd bd 54 67 38 bd d8 a4 ff bc
       -0.24158253 -0.092669435 -0.045020416 -0.031206533
000150 8b 94 4c be ec d7 9c 3d 45 4e 2e be eb bf ee bd
       -0.1997854 0.07658371 -0.17022045 -0.11657699
000160 46 50 b3 3e 52 08 92 3e c2 6a ed 3d 9e d6 5f be
       0.3502218 0.28521973 0.11592628 -0.21859214
000170 87 77 85 bd 55 08 6e 3d a1 c0 d6 3d c1 54 0f bd
       -0.06516939 0.058113415 0.1048596 -0.034992937
000180 22 f2 20 3e 58 9c 40 3e 90 70 28 3e 06 9a 8f bd
       0.15717366 0.1880964 0.16449189 -0.070117995
000190 a3 22 b2 3d 60 69 14 3b 47 3a 3d be a5 17 e8 3d
       0.08698013 0.0022645816 -0.18479262 0.11332635
0001a0 d2 8e 79 3e ea 46 9d bd cb ed 35 3e 26 40 4e be
       0.24370888 -0.076795414 0.17766492 -0.20141658
0001b0 aa 69 a9 be 0b af 32 be 62 00 50 3e 5a 40 0e bd
       -0.33088428 -0.17449586 0.20312646 -0.03472934
0001c0 5e e4 51 3d 7a 8d 1a bd 78 31 e0 bd 20 f8 26 3e
       0.05124318 -0.03773258 -0.109469354 0.1630559
0001d0 ac 48 4b 3e 64 9a 9a 3e d2 91 6a be 7d be 06 be
       0.19851941 0.30195916 -0.22907189 -0.13158603
0001e0 fa a6 ed bd 43 19 ad 3d 0b 7c 2b bd 1b 2a f3 3c
       -0.11604114 0.08452084 -0.041866343 0.029683163
0001f0 57 d4 d8 3d a6 58 ca 39 4d 12 be bd 95 d7 b9 be
       0.105873756 0.0003859449 -0.09280834 -0.3629729
000200 57 1e 1c bd 05 2a d1 be 41 af 88 3e 94 5c 52 be
       -0.03811487 -0.4085237 0.26696208 -0.20543128
000210 1f 3e 5f 3d 59 ae 0a be 87 15 e4 bd 27 9c 7e 3e
       0.054502603 -0.13543071 -0.111369185 0.24864255
000220 6b f8 dc bc 7b f5 dd 3d 7c f2 aa bd 4d 3b 81 3e
       -0.026973924 0.10837837 -0.083470315 0.25240555
000230 5b 9f 56 be 91 48 9f be 37 65 af be df eb 90 3e
       -0.20959227 -0.3111005 -0.34256908 0.28304955
000240 7e c6 3f 3d b9 ee 7f 3e ee 06 ed bd 67 16 bf be
       0.046820156 0.24993409 -0.11573587 -0.3732178
000250 96 93 fa bd 87 6a 3b be 5f 66 81 3e 49 1f de 3d
       -0.12235181 -0.18302356 0.25273415 0.10845811
000260 c3 8b d2 3d a2 ed 81 3d 18 19 cd bd d6 09 13 be
       0.10280564 0.06344153 -0.10014552 -0.14359221
000270 47 04 23 3d 8c ff a0 be 6b ce eb bd cd 8b 43 be
       0.039799 -0.31444967 -0.115139805 -0.19096299
000280 43 a9 28 3e dd 15 87 be 43 6e 57 be 15 cf b4 bd
       0.16470818 -0.26383868 -0.21038155 -0.0882856
000290 4e 61 93 3e db 1f f1 be 7d 07 4a bd 50 17 30 3d
       0.28785175 -0.47094616 -0.049323548 0.042990983
0002a0 22 42 1c bc c1 d4 d9 3d c2 e8 9f bc 3e c9 31 3d
       -0.009537252 0.10636283 -0.019520167 0.04340481
0002b0 8f 7b 05 3e 4d 1e 66 bd 90 9a e9 bd 34 41 67 3e
       0.13035415 -0.05618124 -0.114064336 0.22583467
0002c0 1d c5 58 3d 95 4c 02 bd 80 15 e8 3e 82 56 28 be
       0.052922357 -0.031811316 0.45328903 -0.1643925
0002d0 4e 51 28 bd e3 bd 7a 3e 19 e8 29 3e 94 5d d5 3d
       -0.041093163 0.24486499 0.16592444 0.10418239
0002e0 f9 59 73 be 7b c1 a8 3d f1 d5 b7 bd 87 0b 3e be
       -0.2376479 0.082400285 -0.08976353 -0.18559085
0002f0 c4 ef cd 3d e7 91 10 be fa ea 83 bd d1 8c c8 bc
       0.10055497 -0.14118157 -0.064413026 -0.024481209
000300 b6 c2 3a be 10 06 df bd a7 08 6e 3e e6 6e 17 bd
       -0.18238339 -0.10889828 0.23245488 -0.036970995
000310 e5 59 7c 3d ae a7 00 3f ca 02 a8 3e 12 89 7e 3e
       0.061609168 0.5025586 0.32814628 0.24856976
000320 58 2b b8 3e db 47 2a ba b1 c0 2f be fe b9 97 be
       0.3597057 -0.00064956927 -0.1716335 -0.29634088
000330 98 73 48 3e bb 75 a0 bd a6 bf a9 3d 3b 9b 88 3e
       0.19575346 -0.07834955 0.08288507 0.2668093
000340 bd 33 6e 3c 19 7c 2f be e6 ae 81 be 6d 2e 80 3e
       0.014538703 -0.17137183 -0.2532875 0.2503542
000350 7a e5 f0 3d 52 f6 3a be a8 64 9b be 09 49 17 be
       0.11762519 -0.18258026 -0.30350232 -0.14773954
000360 70 79 a6 bd bd 7e 5a be ea a8 f6 3c 6a 61 dc 3e
       -0.08128631 -0.2133741 0.030109841 0.4304307
000370 aa 59 dc 3c 5c a8 06 3e c6 41 68 3e c8 3e a8 3e
       0.026898224 0.13150162 0.2268134 0.32860398
000380 c4 28 4b bd ab 66 ec 3d 90 97 98 3e 8f f9 99 3e
       -0.049599424 0.1154302 0.29803133 0.3007321
000390 04 f7 1a be fd d1 3d 3e fe 56 7a bd 97 f9 d9 3e
       -0.15133291 0.18537135 -0.06111812 0.42573234
0003a0 3d a3 ed 3d 5a d2 ab bc 85 f2 80 ba cb eb b6 3e
       0.11603401 -0.020974327 -0.0009837901 0.3572677
0003b0 09 ef 2f 3e 89 ea 72 3c fd 05 45 3e 77 b7 3f 3f
       0.17181028 0.014826425 0.19240566 0.7488932
0003c0 d5 93 9a be fa 44 0d bf f3 71 61 be 5a e1 37 be
       -0.30190912 -0.55183375 -0.22016124 -0.17957059
0003d0 2d 03 1d bf 30 5f 95 3c fb 63 31 bf d6 fa 3a be
       -0.6133297 0.018233865 -0.69293183 -0.18259749
0003e0 28 b7 ee 3e 69 d0 d3 3e f5 b9 ab bd 55 2c ea bc
       0.46624112 0.41369942 -0.08385078 -0.028585592
0003f0 00 a7 d3 be c2 67 1e 3e c3 fa 8c 3d f8 88 bb 3e
       -0.41338348 0.15469268 0.068837665 0.36627936

weight_hh_l1 f4 [192, 64]
000000 77 5e df bb 74 c2 7c 3d 34 42 23 3e 42 42 04 3e
       -0.006816681 0.061708882 0.15943223 0.129159
000010 e3 cb 47 3e 00 63 6e be 0e 67 35 be 07 03 c5 bc
       0.1951137 -0.23279953 -0.17715093 -0.024049295
000020 42 dd f9 bd 26 8e fb 39 12 06 22 3b 6b f9 30 3e
       -0.12200405 0.0004798036 0.0024722856 0.17282645
000030 d0 2a 20 3e 74 e0 3e 3d 4f 4c 38 3e 20 cc e6 3d
       0.15641332 0.046600774 0.1799786 0.112694025
000040 4a 87 13 be 49 3c 27 bd 21 0c 1e bf 77 d6 83 bd
       -0.14407077 -0.040828977 -0.6173726 -0.0643739
000050 72 2d c6 3d 2d 23 64 bd d1 77 c0 3e df 90 88 3d
       0.09676637 -0.05569761 0.37591413 0.06668257
000060 6f c1 10 3d 05 ec 86 bc a8 a1 38 be 0d 04 8d 3e
       0.035340723 -0.016469965 -0.18030417 0.27542153
000070 1c 0e 00 3d 6e de 67 3b 3d fd 1f 3c de 9b 1f be
       0.031263456 0.003538038 0.009764967 -0.15586802
000080 56 64 75 bd a6 8c 30 be 92 49 64 3d e7 c2 f3 3b
       -0.05991014 -0.17241153 0.055734225 0.0074390057
000090 62 94 2a bc cc da f4 3a 9a 70 6e 3d 58 64 ad 3c
       -0.010411354 0.0018680929 0.058212854 0.021166012
0000a0 aa 22 9c bd c6 48 7e bd d3 19 bd bc 79 1d db bd
       -0.07623799 -0.06208112 -0.023083603 -0.10698981
0000b0 b5 37 a0 bc a4 7a af bc 9a f4 89 3d 62 78 21 3d
       -0.019557813 -0.021420784 0.06736107 0.039421447
0000c0 33 43 54 3e e3 1b 4a 3e 39 a3 7a 3e b6 a1 90 bd
       0.2072876 0.197372 0.24476327 -0.07062094
0000d0 d2 79 ab bd 0d b8 85 be 1b 35 48 bd 5b 8a 4a 3e
       -0.08372845 -0.26116982 -0.04887877 0.19779341
0000e0 e6 29 a5 3d 90 41 06 bc dc eb 67 3c 64 c0 56 3e
       0.08064632 -0.008194342 0.014155354 0.20971829
0000f0 c6 f7 39 3e cd 38 82 bb bb 68 d5 bc 2c b4 e0 3c
       0.18160924 -0.0039740563 -0.026050916 0.027429663
000100 76 be 0a be e9 ef a3 bd 8a 50 c3 3c 05 dc 68 be
       -0.13549218 -0.080047436 0.023842115 -0.22740181
000110 a3 15 2d 3e 9e de a0 bd de 67 70 3d b9 04 86 be
       0.16902785 -0.07854961 0.058692805 -0.26175478
000120 72 45 8d be 3a ac 1a be c1 ca 2b bd 2b f7 f7 3d
       -0.27592045 -0.15104762 -0.041941408 0.121076904
000130 39 8b f4 3c 9a ab ce 3d e9 b7 ba 3e d6 9e 91 bd
       0.029851543 0.10091324 0.36468437 -0.07110374
000140 99 c9 bb bd 48 ee 40 3e 14 4b 83 be 8e e8 f4 bd
       -0.09169311 0.18840897 -0.25643218 -0.11958419
000150 d8 df f8 3c 64 88 9c bd ec 33 75 3e e6 0c a7 be
       0.030380175 -0.07643202 0.23945588 -0.32627028
000160 3f ac 09 be 34 9b d6 bd 90 9d 47 be 02 60 09 3f
       -0.13444613 -0.104788214 -0.19493699 0.5366212
000170 1a c3 38 be 62 ae 4b 3d 4d 78 2b 3e 23 a5 0e be
       -0.18043175 0.04972685 0.1674511 -0.13930182
000180 c8 7f d7 bc 5b a9 a6 be ba 36 8b be 41 77 c6 bd
       -0.026306048 -0.32551083 -0.2719019 -0.09690715
000190 80 ba 06 3e f4 21 53 3e 12 11 04 be 33 1f 7a 3c
       0.13157082 0.20618421 -0.12897137 0.015266228
0001a0 33 1b 02 3d 89 02 e1 be 5e c1 a1 be ac 0e 0b be
       0.03176422 -0.43947247 -0.3159284 -0.13579816
0001b0 00 4c 71 be 7f bc 63 be 01 d5 4f 3e 47 1e 07 bd
       -0.23564148 -0.22239874 0.20296098 -0.03298786
0001c0 21 35 39 3e 7d be 23 bc fa bf 38 3e a8 81 87 3e
       0.18086673 -0.009994146 0.18041983 0.26466107
0001d0 a1 57 8d bd 58 4b 77 be c3 a3 6c 3d 0e cd a3 3e
       -0.069014795 -0.24149835 0.057773363 0.31992382
0001e0 94 6f 02 3c 20 5c 2b 3e af cb e5 3c bc a2 2b 3e
       0.007961173 0.16734362 0.028051225 0.16761297
0001f0 f8 5e f7 3d 54 41 86 3d 71 96 ee bd a2 68 4d bd
       0.12078661 0.06555429 -0.11649788 -0.050148614
000200 4d a8 19 bd 90 ce e2 3d 0f 81 bf bd 85 c9 5d 3a
       -0.03751402 0.11074555 -0.09350788 0.00084605097
000210 40 1c e8 3c 65 2b 1c be e8 b6 e0 3d c7 e8 1e be
       0.028333783 -0.15250929 0.109723866 -0.15518485
000220 00 8a 28 3e da b4 1e 3e 5f d9 f3 3c b8 d8 66 be
       0.16458893 0.15498677 0.029766737 -0.22543609
000230 be 74 c1 3d 9b 2d 19 3e d0 be 80 3e 81 18 d8 3d
       0.09446095 0.14958803 0.25145578 0.10551549
000240 3f 62 23 3d 91 80 0a 3e d5 d5 9e be 37 a2 ac 3d
       0.039888617 0.13525607 -0.31022516 0.084293775
000250 47 6e a2 3c 52 77 c5 3d 8b ec 23 3e d8 c9 07 be
       0.019827975 0.09641899 0.16008203 -0.13260591
000260 33 f3 49 bd de c0 90 bd 67 79 d9 bd f6 49 02 be
       -0.0493042 -0.070680365 -0.10618859 -0.12723526
000270 f0 a3 b7 bd 1c 4d 5a bd 3e 8e f0 3d f1 47 9b bd
       -0.089668155 -0.053296193 0.117458805 -0.07582081
000280 86 5a ef 3c af 94 97 ba 0a c3 95 3c 07 ff 91 bd
       0.02921797 -0.0011564697 0.018281478 -0.07128721
000290 36 85 84 3d 75 ff 7a 3d fe 0f 2a 3e d9 49 eb 3c
       0.064707205 0.06127878 0.16607663 0.028721737
0002a0 3c dc 45 3e f5 09 75 bc 96 f6 2e 3e fd fa e0 3d
       0.19322294 -0.014955987 0.17086253 0.10985372
0002b0 fa 37 7b 3d 90 d3 32 be d7 45 c3 bd a9 7e f8 bc
       0.06133268 -0.17463517 -0.09534805 -0.030333834
0002c0 22 4f 31 3e 26 80 6e bc f5 4d 32 3e f7 e9 d2 bb
       0.17315343 -0.01455692 0.17412551 -0.006436582
0002d0 dd f8 7c bd 99 91 7d bb 96 25 0a 3d ea be 09 3e
       -0.061760772 -0.003869152 0.03372725 0.13451734
0002e0 06 14 06 3e 01 93 5f bd 28 fb 1b be b8 3c 87 bb
       0.13093576 -0.054583553 -0.15232527 -0.0041271113
0002f0 0e 8d 47 bd 87 f4 0c 3c b4 f3 10 bd bf f1 26 3d
       -0.048718505 0.008603222 -0.035388663 0.04075789
000300 1d cb 13 3d 68 03 d0 3d fe da e4 3d ce 41 b2 be
       0.036082376 0.101569 0.11174582 -0.3481583
000310 26 ae 9a 3d 58 10 84 bd 4f 38 f3 3e b0 a6 2d 3e
       0.075527474 -0.0644843 0.47503898 0.16958117
000320 74 2e fa bd b4 18 3a be 46 a3 b8 bc 13 9b 6e bd
       -0.122158915 -0.18173486 -0.022538792 -0.05825336
000330 98 df e2 3d a8 4a c7 3e a1 f8 52 3e 82 8e f4 be
       0.110778034 0.38924146 0.20602657 -0.47764975
000340 e7 1c 90 be ed a9 15 3e 72 86 32 be fe 90 2d 3e
       -0.2814705 0.14615603 -0.174341 0.16949841
000350 61 ca 0e bd e5 b8 65 be 47 bf bb 3d bb 0d 88 bd
       -0.034860972 -0.22433813 0.09167343 -0.06643244
000360 60 83 48 be c4 18 fa bd d4 48 05 bd 33 fa a5 bd
       -0.19581366 -0.12211755 -0.032540157 -0.08104362
000370 5e 95 73 be 95 6c d4 3d 7b 9b ec 3d f2 b6 d3 be
       -0.23787448 0.10372273 0.11553093 -0.41350514
000380 87 bf c2 be f3 11 8c 3d 4d fe 86 3e 51 8f a6 bd
       -0.3803675 0.06839361 0.2636589 -0.08132804
000390 f8 b2 27 3e e0 15 5c 3e b9 2e 51 be 1e e8 bc 3d
       0.16376865 0.2149272 -0.2042798 0.0922396
0003a0 05 a7 7c be a0 f7 4a 3e fc 7e fa bd e4 7b 5a be
       -0.24673088 0.19821024 -0.122312516 -0.21336323
0003b0 b5 37 32 3e d2 87 35 be cd 50 a0 3e f6 11 0a bd
       0.17404063 -0.17727593 0.31311646 -0.033708535
0003c0 19 b7 8f bc cb ae 1e 3e 86 09 1a bd 15 da 27 3e
       -0.017543362 0.15496366 -0.03760674 0.16391785
0003d0 a1 18 0e 3e 6b 8b 09 be ca 15 61 bd ab 9c 13 be
       0.13876583 -0.1343209 -0.05495242 -0.14415233
0003e0 b8 04 a1 bd c2 39 27 bd 8a c4 42 3e a3 17 a2 3c
       -0.07862228 -0.040826567 0.19020286 0.019786661
0003f0 3a 88 16 3e b7 a6 26 be bf 5b 0b bf 93 dd 2d be
       0.14700404 -0.16274534 -0.5443687 -0.16979055

bias_ih_l1 f4 [192]
000000 48 9f c5 bb 84 eb 33 be f6 29 69 3e 6b 83 8b bd
       -0.0060309507 -0.17570311 0.22769913 -0.06812175
000010 4b b9 41 3e ee f0 19 3e e1 9d 0f be a2 45 35 bd
       0.1891834 0.15033314 -0.1402507 -0.04425586
000020 32 cb af be 4f 89 b0 3b 03 fc bf 3b 12 9c 6e be
       -0.34334713 0.005387462 0.0058588996 -0.23301724
000030 e3 0f 46 3e a2 75 0f bc 9c 53 2e 3e 68 be 00 be
       0.19341998 -0.008756073 0.17024082 -0.12572634
000040 6d e2 98 3d f7 69 cb 3d ac 39 62 3d 5d ef ce 3d
       0.07465062 0.099323206 0.05523078 0.10104249
000050 84 75 43 3d 27 5f 0b 3e 6d e4 84 3e e3 a8 86 3e
       0.047719494 0.13610516 0.25955525 0.26300725
000060 e5 3c ce 3d 36 07 58 bb 23 00 b8 3d cd 21 c1 bc
       0.100702085 -0.0032963282 0.08984401 -0.023575688
000070 44 c5 86 3b 34 25 0a 3f c9 76 25 bd 83 d0 9d bd
       0.0041128714 0.5396302 -0.040396485 -0.07705786
000080 61 7c 2c be d6 ea 2e 3e 16 76 ad 3d 38 69 62 3e
       -0.16844322 0.1708177 0.08469789 0.2211045
000090 19 ed 65 3c cb a2 29 3e e1 0c 8b 3d c7 f3 f1 3d
       0.014033579 0.16566007 0.06789566 0.11814075
0000a0 d2 e7 9d 3e 50 25 28 bd d2 80 61 3c da 9c 2a 3f
       0.30840927 -0.04105121 0.013763623 0.66645586
0000b0 56 71 2d 3e fb 1c f9 bd 6c dc 95 bc c7 0c 8d 3e
       0.16937765 -0.12163731 -0.018293582 0.2754881
0000c0 16 df 8e 3e a7 90 fa 3e 00 44 27 3e 1b 79 d7 3d
       0.27904576 0.48938486 0.16334534 0.10521146
0000d0 da ff f2 3d 88 1b 99 3b b2 fb c3 3e 79 35 4d 3d
       0.11865206 0.0046724714 0.38277966 0.050099824
0000e0 80 e2 5a 3d c1 c7 2e 3e e2 41 0b bd cf 36 31 3d
       0.053438663 0.17068388 -0.033998378 0.04326516
0000f0 40 15 11 be 7e 66 ca 3e 5c a9 c1 3d 3d 5f ca bc
       -0.14168262 0.3953132 0.09456131 -0.024703616
000100 a5 31 d6 3d c6 3a 15 3d dc af a6 be ea c3 79 bd
       0.10458688 0.036433004 -0.32556045 -0.060977854
000110 dc fd ad be ac 8f f4 3c 7d f5 e0 bb 17 16 27 3e
       -0.33982742 0.029853664 -0.006865202 0.1631702
000120 0f 96 92 3e 1b e6 9e bb c3 b8 a7 3d aa 19 81 be
       0.2863011 -0.004849208 0.081895374 -0.25214893
000130 47 8a 12 be 07 17 4b be 6f be a4 3c 2e 2b 2a 3c
       -0.14310561 -0.19833003 0.020110337 0.010386271
000140 57 44 6b be c6 93 71 3d 6f cf df bc 57 86 a7 3e
       -0.22975288 0.05897882 -0.027320592 0.3271968
000150 9a af 86 3d a4 5a 6e be 67 a1 91 3d f0 ba 0e be
       0.06576462 -0.23276764 0.07110863 -0.13938498
000160 b4 28 c4 bd 63 4f ea bb c2 7d 94 bc 50 db ac 3c
       -0.09578076 -0.007150577 -0.018126372 0.02110067
000170 09 61 f6 3d 4b 60 d2 be c3 80 81 3d e2 6a ba bd
       0.12030227 -0.4108909 0.063233875 -0.091024175
000180 bf 7b b0 bd ab db 10 be df 10 90 3c 2b f5 8d be
       -0.08617353 -0.14146297 0.01758617 -0.2772611
000190 dc bb f3 3d 8d 55 af be 86 d8 a3 bd 24 49 08 bd
       0.11901066 -0.34244958 -0.08000283 -0.033272877
0001a0 9d d1 45 be 29 9d 33 3e 3e b1 cc bd 20 a4 cf be
       -0.19318242 0.1754042 -0.09994744 -0.40554905
0001b0 e7 ed 09 be d9 df 3e be 60 ef e3 bd 9d d2 e0 be
       -0.13469659 -0.18640079 -0.111296415 -0.43910685
0001c0 d0 2b f6 bd f3 7b f7 be 40 bf 33 3d 53 1b a0 bd
       -0.12020075 -0.48336753 0.043883562 -0.07817712
0001d0 b3 e5 96 bd a3 c5 61 3e e6 4c ab be 2e 48 51 3d
       -0.073680304 0.22048049 -0.33457106 0.051094227
0001e0 7d aa f5 bd d8 cb 89 3c cc be 1e be 98 b8 c5 bd
       -0.11995409 0.016820833 -0.1550247 -0.09654349
0001f0 29 f4 1d 3d 48 ca 3c 3d 07 9d 25 3d d8 d1 78 be
       0.038562927 0.046091348 0.040432956 -0.24298799
000200 8e bd 0f be 68 f5 3f bd 2a e4 06 bf d3 6c 72 3e
       -0.14037153 -0.046864897 -0.526919 0.23674326
000210 1e 83 c8 be 39 b5 9c bd 3e 23 f7 bd 64 63 3e be
       -0.39162534 -0.07651753 -0.12067269 -0.18592602
000220 a1 99 b9 bd d2 dd 07 3e 01 49 1b be 27 70 09 be
       -0.090625055 0.13268211 -0.15164568 -0.13421689
000230 94 38 b9 be b8 37 aa be c1 63 89 be 48 91 2b 3e
       -0.36175978 -0.33245635 -0.2683392 0.16754639
000240 f9 53 5b 3e 09 a7 27 be 4b c8 68 3d ce 44 2c bd
       0.21418752 -0.16372313 0.05683164 -0.042057805
000250 c7 46 06 be fb cd 6b 3e f5 4f 03 be fa e7 b9 bd
       -0.13112937 0.23027794 -0.1282347 -0.09077449
000260 d9 bb 02 3e 7f 8a 46 bd 35 75 06 3d e3 ba d3 bd
       0.1276697 -0.048471924 0.03282662 -0.1033838
000270 08 e4 6d 3d 1c cf ec be 62 5a 2d 3b 9c 5a 16 3e
       0.058078796 -0.46251762 0.0026451577 0.14683002
000280 23 02 45 3e 65 e3 d1 bc 8d fa 7a bc 83 90 0c 3f
       0.19239096 -0.025621125 -0.015318525 0.5490801
000290 33 30 78 3b 2b f8 f4 be bc fd c8 3e 93 88 35 be
       0.0037870526 -0.47845587 0.39256084 -0.1772788
0002a0 b1 1c d6 3e 80 9a e4 bc 68 34 06 3e 0c ee 2f 3f
       0.41818765 -0.027905703 0.13105929 0.68722606
0002b0 7f 88 36 3e 6f 04 39 3e 77 d5 01 bd 38 88 1d 3f
       0.17825507 0.18068098 -0.031697717 0.6153598
0002c0 eb 5a e0 bd bf 66 07 bf 02 a2 01 be 4f d5 e2 bb
       -0.10954841 -0.52891153 -0.12659457 -0.006922401
0002d0 35 6f 00 be c9 b7 df bc be 9c 03 3f 2d 04 8d 3b
       -0.12542422 -0.027309315 0.51411045 0.0043034763
0002e0 7b ad 00 3f 30 7d 04 bc 2c 22 73 be 99 e5 95 be
       0.5026471 -0.008086488 -0.23743504 -0.29276732
0002f0 ed 80 3e be f7 ab 81 3e 06 00 99 bc b7 86 c2 3e
       -0.18603869 0.2532651 -0.018676769 0.37993404
