time_LossPrune_ClassifyFixed/TotalModel_Traffic.pth (torch, 169718 bytes, 12 tensors)

weight f4 [23, 8]
00000000: cb8e 7a3e 2aad b5be 0651 ffbe 612e 263f
00000010: b3bf d73f 6b34 393c 1406 153f b3f3 a3bf
00000020: 9ed6 8f3f 7510 8a3e 678d 32bf 7502 43bf
00000030: c7c3 ce3e 8c6e 7ebe fb22 50be 892a 803c
00000040: f3c5 82bf 6d82 dcbf 3c18 c1bf bdeb 91bd
00000050: 9095 183c 7248 8f3f f8b5 193f 49ca 95bd
00000060: dc6d 94be 6b65 cbbf 7696 3540 b9db bdbe
00000070: 9812 20c0 8570 b83f fa34 cd3e ba0a 9cbf
00000080: 9bad 963e 5eaa 8a3f e14f c03f de1d 3b3f
00000090: 350d aebf 4b25 f33f d7df c2bf a8f4 86be
000000a0: e692 89bd bb2c 983e 46fb fabf 7624 d7bf
000000b0: ef72 8dbf 39e5 e63f 4d97 a63f 4b91 0f3f
000000c0: 6a16 ae3d c621 283f 2fc2 f1bf 8bee 87be
000000d0: f31a 91bf e943 50bf 710d 373f 919d 063f
000000e0: 7257 333f 8c50 88bf e48b 94bf 3a0e 98bf
000000f0: d4c9 393f 6538 92bf 9361 d9bf 473e 32bf
00000100: 8ffe 843f b70e 053f 328c 8fbd 7eff 1c40
00000110: c89f bc3f d987 7c3e eeab e5be c284 a3bf
00000120: 8b93 cdbf 06c0 e8bf c5a6 1640 c32e 853e
00000130: 109f 4f3c b453 05c0 5805 9f3e 6716 1b3f
00000140: 541e 94bf 2baf 0b3f ed2c 323f a5d3 d43f
00000150: d3e0 f53e d7dd a83f 151b 743e 96ad 813e
00000160: 0ad4 0c40 fdd4 13bf f987 cfbb 489a bfbf
00000170: 9f5b 033f 0c73 40bf 3dfd 803f 0dd4 ccbe
00000180: 7f9e c9bf 02bb 073f 9bbd df3f 45f5 d3bf
00000190: b4bb a4bf 1eab f7be b6a5 1140 5560 6cbf
000001a0: c151 ad3f ab56 a73f 8252 c03f 286e 563e
000001b0: f9b8 e73e 3420 773e eeb6 27c0 322b 33bd
000001c0: 09dc f3bf 331d e53f 89b4 9a3e 629c cc3f
000001d0: 5c8e 5ebf 7b66 8c3f 6747 fbbe ff4a 98bf
000001e0: d972 67be b84d 833f ed04 2bc0 1503 483f
000001f0: 8191 39bf 0bb9 e73e 5ce8 1840 4de5 693e
00000200: 3535 f5be 2199 1b3e 9922 493f e35f 77bf
00000210: b976 b73f f724 8bbf 96e0 ef3f 554f c7be
00000220: b2fb 5c3d 74bb 313e 3949 9e3f 4691 59bf
00000230: af45 5d3e 05d9 0b40 2927 863f 7444 febf
00000240: c970 d53d f8b8 2140 1221 873e a10f 14bf
00000250: 1fa5 d23f 41da fdbe 09d9 c4bf 635a 95bf
00000260: 1463 e73e d860 ae3f aeb6 383e 5518 24c0
00000270: ebd3 1c40 bde7 2340 22a0 5bbe d2b9 86bf
00000280: 0ef4 c3bf ca8a 3ebf 11b6 1a3f c5ba 79bf
00000290: a32f 0b40 910f 973f 0f03 a2bd 036d 0fbf
000002a0: 1182 3a3f 294f db3f 7192 babd fe81 b7bf
000002b0: cacb 543f d52e a63f 0c0a 273f ec5c cc3f
000002c0: d0da b63f 242d ac3f 6b08 62bf 3ccd 213f
000002d0: de51 48be fe20 dbbf 8c75 1b3e 7db4 89bd
0.24468534 -0.35483676 -0.49866503 0.6491452 1.6855377 0.011304001 0.582124 -1.2808746
1.1237371 0.2696568 -0.6974701 -0.76175624 0.4038374 -0.24846858 -0.20325844 0.015645282
-1.0216659 -1.7227303 -1.5085521 -0.07125042 0.009313002 1.1193984 0.6004329 -0.073139735
-0.28990066 -1.5890325 2.8373084 -0.37081698 -2.5011349 1.4409338 0.4007948 -1.2190773
0.29429325 1.0833242 1.5024377 0.7309245 -1.359778 1.8995756 -1.522456 -0.26358533
-0.06717472 0.29721627 -1.9607933 -1.6808002 -1.10507 1.8038703 1.3014923 0.56081074
0.08500369 0.65676534 -1.8887385 -0.2654918 -1.1336349 -0.8135362 0.71504885 0.5258418
0.70055306 -1.0649581 -1.1605191 -1.1879342 0.7257359 -1.142346 -1.6982902 -0.6962628
1.0390185 0.5197558 -0.07009162 2.453094 1.4736261 0.24661197 -0.44857734 -1.277489
-1.6060652 -1.8183601 2.3539288 0.2601224 0.012672201 -2.0832338 0.31058764 0.6058106
-1.1571755 0.5456416 0.695998 1.6627089 0.4802309 1.31927 0.23838456 0.25327748
2.2004418 -0.5774687 -0.006333348 -1.4968958 0.5131168 -0.7517555 1.0077282 -0.40005532
-1.5751494 0.53019726 1.7479738 -1.6559225 -1.2869782 -0.4837274 2.2757392 -0.9233449
1.3540574 1.3073324 1.5025179 0.20940459 0.4525831 0.24133378 -2.6205401 -0.043742366
-1.9051524 1.7899536 0.30215862 1.5985224 -0.86935973 1.0968775 -0.49077913 -1.1897887
-0.22602405 1.0258093 -2.6721756 0.781297 -0.72487646 0.45258364 2.389182 0.22841378
-0.47892156 0.15195133 0.78568417 -0.96630687 1.4333106 -1.0870656 1.8740413 -0.38927713
0.053950973 0.17356664 1.2366096 -0.84987295 0.21608613 2.1851208 1.0480701 -1.986464
0.10421903 2.5269146 0.26392418 -0.5783635 1.6456641 -0.49580577 -1.5378734 -1.1668209
0.45192778 1.3623304 0.18038437 -2.563985 2.4504344 2.5610192 -0.21447805 -1.0525458
-1.5308855 -0.74430525 0.6043406 -0.9755061 2.1747825 1.1801625 -0.0791074 -0.56025714
0.72854716 1.7133533 -0.09109963 -1.4336545 0.8312346 1.2983042 0.65249705 1.5965858
1.4285526 1.3451276 -0.88294095 0.6320379 -0.1956248 -1.7119443 0.1518156 -0.067238785

weight_ih_l0 f4 [192, 9]
00000000: afab af3e be46 a13e d3f1 d13a a4c1 c5be
00000010: 2fb2 c7be e6f5 7fbe a5b2 433e 1ffa ad3e
00000020: ab5f 273e 4f3f c4bb cce6 333d 0190 103e
00000030: 3e5b ec3d ab4d f83d 2039 92be 41c6 5c3e
00000040: 4a37 6e3e fcf0 53be 8ec1 ff3c 775b a7bd
00000050: d212 d63e 4fea 093f 52a7 44bd 79d2 d5be
00000060: 8b95 723e 5edf 803e 9d46 a2be 877c a2bd
00000070: 21ae 393e 53e3 ad3d 8081 8e3e f4d1 de3d
00000080: 86d7 313c fb95 1fbc 4398 9bbd 4400 0cbf
00000090: 4c98 893e 5d05 ccbe ab3c 803d cce0 abbc
000000a0: 0874 f6ba 8fa3 b73e 6b21 033f 14ac ed3d
000000b0: a002 ba3e 8f62 89bd 54d8 f63e b235 903e
000000c0: 3c1b e6be cdd7 94bd 900f 0fbc d4a1 ea3d
000000d0: 24d5 773e 060e 19bf 3897 5b3e 4043 1c3f
000000e0: 739b 09bf cf6c f93d a6cb dcbe fb16 03be
000000f0: 108f 023f 2091 24bd 4915 04be 25ac 183e
00000100: da6e eebe 145a a0bd fa86 ad3a 25b5 603e
00000110: e7cc 403d b082 9dbd a14d c03e 888a 2dbd
00000120: 68e7 0e3e 4aeb 45be 0736 23bf 6227 f83e
00000130: 66c0 733c 30ab e7be 76b9 2cbe 8333 963e
00000140: 9b45 d7bc 0d1f 4f3e 2f47 1abf 5c5d 923e
00000150: 46fb 7dbd 57a8 ca3b ae2f 493e d73c afbd
00000160: 3d78 e33e 9087 9e3e 874a efbe 103a 52be
00000170: 26a0 033a cb54 2a3e 9a19 8bbe f4e4 86bd
00000180: 3625 1bbe d058 ab3e 9321 023e 153f 47be
00000190: 401c 95be cfcf 5dbf 6132 123e 43ba 96be
000001a0: 788e 633d c4fe f5be 39f7 40be 75f1 513e
000001b0: 273a a63e c1da e1be bcb2 bf3e 14aa ad3e
000001c0: 6225 473e 6ae2 1e3e f530 e13e 530a f43e
000001d0: 2ad5 92be 5191 883e a511 29bd c4be d43e
000001e0: 9515 c63d 46cb 47be 7cdf 793e 22a7 98bd
000001f0: 7b04 f93e c0fe 27bf e047 043e 03ef 513e
00000200: 1c15 863e 5bfe 9dbe ff85 563e 3b0c c2be
00000210: 49ea 0d3f c8b9 2bbd 9dcf 213f 2349 c2be
00000220: 36f4 0a3e a99f 9d3e cd59 8fbe b9de 96bc
00000230: 941c f9bd 2172 113f ffd7 f23e 8dbd 85be
00000240: c934 a7be 14b0 cd3d 666e 16ba f113 29bf
00000250: e6d9 80be 2747 8bbe 672d 96bd dd9b b73d
00000260: ede3 f3bb a939 b63d ae68 3bbe e2a2 ce3d
00000270: 7416 dbbd f748 c2bd f836 913d 70bb 083f
00000280: 4b78 1d3b 65b9 ddbd 969d 443e 5465 563a
00000290: 1a28 7e3e 715e dcbe 3c06 b33e 2383 f5bb
000002a0: 1534 94be 5606 ea3e 0569 c3bd 8e67 04be
000002b0: 56f4 4cbe 9019 2cbe 8e06 fd3d 1ae1 733e
000002c0: 4b9c da3e 8904 8ebd a27a 02be a1a5 74be
000002d0: e284 98bd 80c1 8a3c aba4 d03e 630d 4ebe
000002e0: 88c7 2ebe 4c42 e03e 1092 ae3e 7f86 883e
000002f0: 039f 07be 02a9 f1bd d1a7 7c3e 91a3 173f
00000300: 1513 083e 2154 c03e f0a8 f4bd b0b9 033c
00000310: 06c0 81be 3bd1 903e 517c 3bbe 1786 c6bd
00000320: 413b b13e 4a37 583e 0d80 9cbe 054e d8be
00000330: b78a 673e 03ff 203f a607 163e 560e 83bb
00000340: d3c3 933e 76e6 b4be 2f79 1fbe 74cc 6d3e
00000350: d53b 12bf 2525 44ba 2b02 0c3e 2ae2 76be
00000360: f900 00be 0f73 183e 5634 4bbd e6e2 5d3e
00000370: a401 003f 5dc7 1dbe d68f aebe 304d 053e
00000380: 8ece 21be e533 13be 98bf 82be b64d 3dbe
00000390: 73e9 6d3d 3d07 82bd 7597 c3bd e5eb a23e
000003a0: 339b ce3e 9820 c0bd 9e5f 883c cb38 eabc
000003b0: 4016 0c3e 103a 513d 4b44 bdbe edba a93e
000003c0: bd19 b03e 773b c33e d9cd 953e 4042 f83d
000003d0: 38df 763e e339 1bbd d7a9 e0bc 9ade 383e
000003e0: 4262 46be 1089 10bc fb6e 1a3e b656 1abf
000003f0: 4c65 94be eda4 a3be 9913 edbd c07d a8bd
0.34310672 0.31499285 0.0016017504 -0.386243 -0.3900313 -0.24996147 0.19111116 0.3397989
0.16345088 -0.0059889923 0.043921277 0.14117433 0.115408406 0.12124189 -0.28559208 0.21560003
0.23263279 -0.20697397 0.031220224 -0.081717424 0.41811234 0.5387315 -0.04801113 -0.4176214
0.23689859 0.25170416 -0.316945 -0.07933908 0.18132831 0.08490624 0.27833176 0.10879889
0.010854607 -0.009740348 -0.07597401 -0.54687905 0.26874006 -0.39847842 0.062615715 -0.020981215
-0.001880289 0.35866973 0.51222867 0.11605087 0.36330128 -0.06708252 0.4821192 0.28165966
-0.44942653 -0.07267723 -0.008731738 0.114566475 0.242024 -0.59787023 0.21444404 0.61040115
-0.5375282 0.12178957 -0.4312412 -0.12801735 0.50999546 -0.040177464 -0.12898745 0.14909418
-0.46568948 -0.07829681 0.0013239079 0.21944101 0.04707041 -0.07690942 0.37559226 -0.04236844
0.13955462 -0.19328037 -0.63754314 0.48467547 0.014877414 -0.45247793 -0.16867623 0.29336175
-0.026278308 0.20226689 -0.6026487 0.28586853 -0.06200721 0.0061846185 0.19647095 -0.08556526
0.44427672 0.309628 -0.46736547 -0.20529962 0.00050211174 0.16633908 -0.2716797 -0.06586638
-0.15150914 0.33466196 0.1270812 -0.19457658 -0.29123116 -0.86645216 0.1427703 -0.2943898
0.05555579 -0.48045933 -0.18844308 0.20502265 0.32466242 -0.44112208 0.3744105 0.33918822
0.19447854 0.15516058 0.43982664 0.47664127 -0.28678256 0.26673368 -0.041276593 0.41551793
0.09672085 -0.19511136 0.24401659 -0.07453753 0.4863623 -0.6562309 0.12918043 0.20501332
0.2618798 -0.3085812 0.20949553 -0.37899956 0.55435616 -0.04192522 0.6320742 -0.37946424
0.13569722 0.30785874 -0.279982 -0.01841675 -0.12163654 0.5681477 0.47430417 -0.26121178
-0.3265746 0.1004335 -0.00057384965 -0.66046053 -0.25166243 -0.27202722 -0.073328786 0.089652754
-0.0074429424 0.088977166 -0.18301651 0.10089661 -0.10697642 -0.09486573 0.070905626 0.53411007
0.0024028 -0.10826377 0.1920074 0.0008178551 0.24819985 -0.43040803 0.34965694 -0.0074924394
-0.28945985 0.4570796 -0.09541515 -0.12930128 -0.20015082 -0.16806626 0.12354766 0.23816338
0.42697367 -0.06934459 -0.12742093 -0.23891307 -0.074472204 0.016937971 0.40750632 -0.20122294
-0.17068303 0.4380058 0.34095812 0.26665112 -0.13244252 -0.11799814 0.24673392 0.5923396
0.13288529 0.37564185 -0.11946285 0.008039877 -0.25341815 0.2828463 -0.18309142 -0.09693544
0.3461552 0.21114841 -0.30566445 -0.42247024 0.2261151 0.62889117 0.14651355 -0.0039995117
0.2886034 -0.35332078 -0.15573572 0.23222524 -0.57122546 -0.00074823416 0.13672702 -0.24109712
-0.12500371 0.14887641 -0.04961046 0.21668586 0.50002503 -0.15408082 -0.34094113 0.13017726
-0.1580145 -0.14375265 -0.255368 -0.18486676 0.058083963 -0.06349037 -0.095503725 0.31820598
0.40352783 -0.09381217 0.016647156 -0.028591534 0.13680363 0.051080763 -0.36966166 0.33150426
0.34394637 0.38131306 0.29258612 0.12122011 0.24108589 -0.037897002 -0.027424736 0.18053666
-0.1937342 -0.008821741 0.15081398 -0.6028856 -0.28983533 -0.31961766 -0.115760036 -0.0822711

weight_hh_l0 f4 [192, 64]
00000000: 10a5 1ebd 0a7d 0c3e 6742 22be 6aa4 103e
00000010: 22dc 2a3c 3835 49be d47b d9be 8e65 8e3e
00000020: 0bb7 c7bd a170 b3bd abdc d5bd 058f 1ebe
00000030: 3ca3 a8be 3851 cbbe c067 ff3c 84b8 a0bd
00000040: 28f2 23bc f594 07bd 133e a73e 2fe2 a1bc
00000050: 5b12 63be 7989 8fbe c709 22be 2824 abbd
00000060: f99b bdbd e7d5 f03d b967 8dbe eccf 37be
00000070: cbbe d5be 397d 6b3e d2ac 80bd e958 46bf
00000080: bcbd 72be ebe9 333e fad5 863d df48 d5be
00000090: e0d6 913e 9e65 04bd f1d5 893d 39a8 64be
000000a0: c980 6e3e 2469 5b3e cb6c a33e da63 493e
000000b0: 63f1 40be 5cd3 b7bd 1250 4bbc 480f 283e
000000c0: ac08 533e 6078 e93e 96cd 193e 8b7f 21be
000000d0: 50c2 9d3e 22e1 0c3e c937 4dbe 3cab c2be
000000e0: f10b 27be 813b 3dbe 83e1 92be 4675 373d
000000f0: 9584 7dbd 52c3 873e 867d 813d 89be b23e
00000100: 06fa 81be 1ee5 2dbe 1e68 85bc 5f1f 463e
00000110: e614 743e ea68 6d3e 064c 1e3e b76e 98be
00000120: 220c b5be fd72 f43e 6ff0 57be ac5b 343c
00000130: 31c9 9e3e b09b 98bd fd34 97bd 564e dfbd
00000140: aeff aabd 743c ee3c d06e f0bd 2f92 223c
00000150: 8e12 6bbe 9c87 32be da5e c13c e88e d8be
00000160: fdc7 743e 83cc 613e aa5e 9dbe d8d2 1abe
00000170: 1f3e 5d3e 4193 803e 2d25 bdbd d214 463e
00000180: 3911 203d 04c5 313e cc18 b33b 6706 52be
00000190: 9581 a8be 05e5 ea3e 9256 37be d0f2 8bbe
000001a0: 8039 5c3e 502d f13d d2d7 ddbd e58c 513d
000001b0: eb57 f8bd 84dd c8bd 9d4a 2fbe 507c b93d
000001c0: 77f3 043d c865 2ebd 8744 3d3d 91a3 f6be
000001d0: 1874 893e 7be2 0a3f 15e8 793b 9a6c a5be
000001e0: 52fd 1dbe 5b26 3b3f 800b f0bd bf25 2f3e
000001f0: 9fa7 81be d0e5 e53d 091a 223e 08b8 99bc
00000200: c013 5ebd a164 b93e 87c7 c63e 8aed e63d
00000210: e028 f1bd 1d95 81be f32b 01bf c487 b7be
00000220: 2f61 283e e4da c3bd fc43 563e ebce 77bd
00000230: f2fd 8cbd c878 6e3e d651 3ebe a37f 253e
00000240: 6bb2 32bc 2e66 903e dbc8 813e 11a4 ce3e
00000250: 5e0f 9fbc 93e5 72bc 9df2 f0be cc9f 463e
00000260: 2b24 b2be fc87 8bbe 1cf0 30be 2a93 85bd
00000270: f0bc 73bc c916 afbe 5ab8 3c3e e93a 02be
00000280: c4c5 45be dfd1 923d 5bdd aebd 7cda 10be
00000290: 50f0 7abe d04d bcbd 0661 77bd b0af 713c
000002a0: 272b 313f 2f66 9fbd 4894 81bc f684 47be
000002b0: 8f20 39bf c0ee 06bf b673 e53d 6c3f 4ebe
000002c0: 5ac3 3b3e dc91 183f ad23 d5bd a3c2 4a3e
000002d0: 9a56 ccbe fbc2 063e fbcc afbe 0c98 26be
000002e0: d3e7 593d 6114 acbd 94b4 173e 1d29 9abe
000002f0: b6a2 bd3e 8584 3ebe aa07 ca3d 2b7b d3be
00000300: 740e 85bd 981c c63c 702a bdbd 9817 80be
00000310: 1ba0 d13d 0220 803d c371 8dbe 0c1b a33d
00000320: f090 afbe f7b0 03be 28bb b93d 6aee 8dbc
00000330: aae7 c03e 25fa c73d a762 d43e a4a8 163e
00000340: 9a65 043e 6b60 82be 82ab a8be a27a a83e
00000350: 8f36 0b3e c5e7 1abe 794f 813e 90a6 c23e
00000360: a767 0ebb 7f22 953e 73b6 1e3c db6b 98bd
00000370: 00f1 83be 8298 763e 3d3c 15be 4db4 283e
00000380: 049e ea3d d234 933c d659 cf3e 4197 8b3e
00000390: a95e 773c 19b2 5a3e a1a7 5b3e 3bea 8a3e
000003a0: 6613 a0bc 36c4 ad3d 9f1a 16be 460e 6abe
000003b0: fb6b aabd 991c 8abe e12d 273d ec4e 15be
000003c0: e4c6 d23c 062f b9be 7669 8abd fc95 12be
000003d0: d40b 3cbe ea0d 5ebe e2f2 433e bbd5 9c3e
000003e0: 46cc d1bd 6374 c2be c23c 3bbe da66 51bd
000003f0: a308 4b3e 6a36 7ebe 6f33 c5be 41e5 de3c
-0.038731635 0.13719574 -0.15845643 0.14125219 0.01042846 -0.19649208 -0.42477286 0.27811855
-0.097517096 -0.08761717 -0.1044248 -0.15484245 -0.32937038 -0.39710402 0.031177402 -0.078476936
-0.010006465 -0.03310104 0.32664546 -0.019761173 -0.22174971 -0.2803457 -0.15824042 -0.08356506
-0.09258265 0.11759549 -0.27618197 -0.1795041 -0.41747126 0.22996987 -0.06282963 -0.77479416
-0.2370519 0.17569701 0.065837815 -0.4165716 0.2848425 -0.032323472 0.06730259 -0.22329797
0.23291315 0.21426827 0.3191894 0.19666997 -0.18842082 -0.089758605 -0.012409227 0.1641208
0.20608777 0.4559965 0.15019831 -0.1577131 0.3081231 0.13757756 -0.20040812 -0.38021266
-0.16313149 -0.1847973 -0.28687677 0.044789575 -0.06189402 0.26516205 0.0632277 0.34910992
-0.25386065 -0.16981933 -0.016284999 0.19347905 0.23836097 0.23184553 0.15458688 -0.2977197
-0.3536082 0.4774398 -0.21087812 0.011008184 0.31012872 -0.0745157 -0.073831536 -0.10903613
-0.08349548 0.02908156 -0.11739886 0.009922548 -0.22956297 -0.17434543 0.023604799 -0.4229653
0.23904414 0.22050671 -0.30736285 -0.15119493 0.21605729 0.25112346 -0.09235606 0.1934388
0.039078925 0.17360312 0.0054656025 -0.20510255 -0.32911363 0.45877853 -0.17904118 -0.2733369
0.2150631 0.11776221 -0.1083218 0.051159758 -0.12126144 -0.09807876 -0.17118306 0.09056914
0.03245875 -0.042577535 0.04620793 -0.48171666 0.26846385 0.5425183 0.0038132716 -0.3230942
-0.15428665 0.731054 -0.117209435 0.17104243 -0.25323197 0.11225474 0.15830244 -0.01876451
-0.054218054 0.36209586 0.38824102 0.11275776 -0.117753744 -0.25309077 -0.50457686 -0.35845768
0.16443323 -0.095632344 0.20924371 -0.060500067 -0.06884374 0.23288262 -0.18585905 0.16161971
-0.010906796 0.28202957 0.25348553 0.40359548 -0.019416507 -0.014825243 -0.470601 0.19396895
-0.3479322 -0.27252185 -0.17279094 -0.0652221 -0.014876589 -0.3419707 0.184297 -0.12717785
-0.19313723 0.07168936 -0.08538314 -0.14145845 -0.24505734 -0.09194529 -0.060395263 0.01475136
0.6920647 -0.07783162 -0.015817776 -0.19484314 -0.72315305 -0.52708054 0.11203711 -0.20141381
0.1833624 0.59597564 -0.10407195 0.1980081 -0.39909822 0.13160317 -0.34336075 -0.16268939
0.0531996 -0.084023245 0.14814979 -0.30109492 0.370382 -0.1860524 0.09864743 -0.41304907
-0.06496897 0.024183556 -0.0923661 -0.25018 0.10235616 0.06256105 -0.27625856 0.07964143
-0.34290266 -0.12860475 0.090689 -0.017325599 0.37676746 0.09764508 0.41481516 0.14712769
0.12929383 -0.25464186 -0.3294335 0.3290606 0.13595031 -0.15127476 0.25255945 0.38017702
-0.0021729262 0.2912788 0.009687054 -0.07442447 -0.25769806 0.24081615 -0.1457376 0.1647503
0.1145592 0.017969523 0.40498227 0.27263835 0.015098252 0.21357001 0.21450664 0.2713183
-0.0195405 0.0848469 -0.14658593 -0.22857007 -0.08321377 -0.26974943 0.040815238 -0.14580888
0.025729604 -0.3616869 -0.06758396 -0.14315027 -0.18363887 -0.21684995 0.19135621 0.30631813
-0.1024404 -0.3797942 -0.18284896 -0.051123478 0.19827513 -0.24825445 -0.38515803 0.027208926

bias_ih_l0 f4 [192]
00000000: c66e 9c3e cc30 d73e 6ec5 2fbe 61fa f53d
00000010: eaeb 163e 6c22 c03c 03cb 403e 4a33 803c
00000020: a5b4 d23d da53 823e 9bad d8b9 cdd5 02be
00000030: 280a aa3e 3308 d83d e86b c8bc 04d0 813e
00000040: b97d e53d 671b bebc 2eaf c63d 4539 a4bb
00000050: 4d81 863e ce0c f93c a90e 2c3e b70d 4b3d
00000060: 480a 84bd 16de ad3d 4825 c63c 2d9c 5e3d
00000070: c144 883c a7d9 ed3d 5eb1 463e 39d0 053e
00000080: 7dc9 ff3d 5d7f 983e 7a0e 90bc 6a8a 3bbc
00000090: 08b2 163e 03db aa3e 9659 f6bc 52cc 4f3e
000000a0: a60c 2f3e e9ba f33c 6fcf 663c 762d 073c
000000b0: 1be3 56bd 2231 493e 87fa 0c3d 6571 433e
000000c0: ab5d b5bd 6eef 03be 540a 1a3e 45f3 033e
000000d0: ff68 e73d 714d 49bd a0ca fa3d 03fb 153e
000000e0: 357b 093e 0643 df3d b43f 273e 879c 1a3e
000000f0: c6dd 11bd bd50 d53c a092 133d b3b6 193e
00000100: a259 75be 1f2e 4fbd 6610 7ebe f66b b5be
00000110: 519c a13c c37b 41be c9c5 c3be 1b53 0a3d
00000120: 75d4 8dbe 5208 8abd b0e5 04be ebac d8be
00000130: 56a0 64be d691 c7be 83af 24be 611e 1ebf
00000140: 4fb2 28be 18a7 3d3d 3e48 cbbe 417d ae3d
00000150: 0ad7 b23d 3771 3d3e 6662 5a3e d363 7e3d
00000160: 0681 03be 6d12 80bd 2150 503e 388f 9abe
00000170: 31cc 7abe defb 70bc 6ed1 a6be 59d4 0cbe
00000180: ef67 babe cf8f 133e 831d d73d 87c7 b43d
00000190: 2ad6 3f3d 61d8 55be f2ff 7b3d bfff ab3d
000001a0: 91c6 f2bd c8fa 823d c162 253d da64 1abf
000001b0: 5869 7ebd dbb8 d8be 9734 74be b349 1abf
000001c0: d859 e4bc 4d17 903d 078e 37be eeae 35be
000001d0: 8af7 1a3e df97 1a3d d9a2 88be c5a3 90be
000001e0: b4ab 7ebe 903b ccbb 45ad 85bd 8292 9fbd
000001f0: 556b c3bb 0905 443d c174 51be 0551 cebd
00000200: ccfb 293e f6cb 91be 8163 0f3e c574 493e
00000210: d325 703e 9166 8dbd 3629 b93d 52f4 a0bc
00000220: 53fc 7cbc fa11 aebd 4b54 2bbd c0eb 813c
00000230: d417 e2bc 1605 8cbe 599b b7bd 3d7e 213e
00000240: b76a 3d3e 2539 78be 8c0f 693c da22 923d
00000250: c301 c0bd a82f f73d ee28 403e 1764 16be
00000260: d6de afbc c204 7b3e 6e51 4cbe c06f 9d3d
00000270: cb8b 5bbe c642 a2bc 137d 88be dd88 f3bd
00000280: da0c 89be f529 23bd e49a 5fbe da96 0abe
00000290: 5b4e c73d ad22 773e 2da9 01bd bf02 82be
000002a0: b1a9 b6bd 04f1 213e 235d 403e 5bca cb3e
000002b0: 0386 293d 64cd dc3b f507 8a3e 403d 323e
000002c0: 47e2 003e ad91 47ba 407a 3b3d f4dc 033d
000002d0: fde3 6f3e c638 cc3d 82ea 043e 7615 aabc
000002e0: dc56 50be c58e 92bb 450b 0dbe 710b d73d
000002f0: 8325 34be 06b9 8e3d 9c80 cabd 0e3b bd3d
0.30553263 0.42029417 -0.17165157 0.120106466 0.14738432 0.023453914 0.18827443 0.015649457
0.102883615 0.254546 -0.00041328077 -0.12776871 0.33210874 0.10548439 -0.024465516 0.25354016
0.1120562 -0.023206426 0.097013816 -0.00501171 0.26270524 0.030401614 0.16802467 0.049573626
-0.064472735 0.08489625 0.024187699 0.05434816 0.016634347 0.116137795 0.19403598 0.13067712
0.12489603 0.2978467 -0.017585028 -0.011446575 0.14716351 0.33370218 -0.030072015 0.20292786
0.17094669 0.029752212 0.014087542 0.008250585 -0.05246268 0.19647649 0.03441861 0.19086225
-0.08855756 -0.12884304 0.15043002 0.12885769 0.11299323 -0.04914612 0.12245679 0.14646535
0.13425906 0.109014556 0.16332895 0.15098773 -0.03561189 0.026039476 0.036028504 0.150111
-0.23959973 -0.050581094 -0.24810943 -0.3543393 0.019727858 -0.18894868 -0.38236836 0.03377066
-0.27701154 -0.06739868 -0.12978244 -0.42319426 -0.22326788 -0.38978451 -0.16082577 -0.61765105
-0.1647427 0.04630193 -0.39703554 0.08519984 0.08732422 0.1850022 0.21326599 0.06210692
-0.12842187 -0.062535144 0.20343067 -0.30187392 -0.24491955 -0.014708487 -0.32581657 -0.13752879
-0.3640742 0.14410327 0.10503676 0.08827119 0.046835102 -0.20883323 0.061523385 0.08398389
-0.1185428 0.06395489 0.040377382 -0.6031014 -0.062112182 -0.42328534 -0.23848186 -0.60268706
-0.027874872 0.07035694 -0.17925273 -0.17742512 0.15133491 0.03774249 -0.26686743 -0.28249946
-0.24870187 -0.0062326863 -0.06527189 -0.07791616 -0.0059637227 0.047856364 -0.20454694 -0.10074047
0.16599959 -0.28475922 0.14002801 0.1967345 0.23451929 -0.069043286 0.090410635 -0.019647751
-0.015441018 -0.084995225 -0.041828435 0.015859485 -0.027599253 -0.2734763 -0.08965177 0.15770812
0.1849774 -0.24240549 0.014224898 0.07135554 -0.09375336 0.120696366 0.18765613 -0.14686619
-0.021468561 0.24513534 -0.19952938 0.0768733 -0.21440046 -0.01980723 -0.26657924 -0.11891339
-0.26767617 -0.039834935 -0.2183643 -0.13534108 0.09731742 0.24134322 -0.03165548 -0.2539272
-0.08919085 0.15814596 0.18785529 0.39802822 0.04138757 0.0067383517 0.26959196 0.17406178
0.12586318 -0.0007612955 0.045770884 0.03219314 0.23426814 0.09971766 0.12980083 -0.020762186
-0.20345634 -0.004472586 -0.1377383 0.10500229 -0.17592435 0.06968884 -0.098878115 0.092397794

bias_hh_l0 f4 [192]
00000000: 7358 c73e 5ca0 f43e 1492 94bc b18d dc3d
00000010: a793 bf3d 6422 4d3e 74ba 6b3e 42b1 e93d
00000020: 818e 163e 5b02 993d ff57 763d 018f 81bd
00000030: 7f3e c13e 688e d03d c4c5 47be 6248 973e
00000040: 5eba 353d 9d0b 433e 4f10 f2bd f00a 9e3d
00000050: 7f57 983e 2868 c6bc 163e 99ba f783 59bd
00000060: e08b 5f3b ca94 b93d 7728 8cbd f4aa 313e
00000070: b088 c4bd 6bac 493d 4e91 953e b0ee 273d
00000080: 5f0c 283d 8312 733e fe06 49bd 6535 9c3a
00000090: 4014 273e 15ee 483e d0fd b73c fb62 d53d
000000a0: 7fe4 8c3d 925d b6bc 6c28 043e 6eaf 553d
000000b0: ed30 883c 74b8 a13e 33c1 913d 443c 973e
000000c0: 2a57 c73b 9bf7 34bd 89d5 983d 6dd4 ab3d
000000d0: 48dd 013e e231 043d 4f40 393e f60c d43d
000000e0: ff2e b33d 3749 3f3e 1912 8f3e e1e9 353e
000000f0: f569 253e 0c63 18be d5e1 2f3e c377 163e
00000100: 785d 87be a000 ed3c 67ea 73be 372f 90be
00000110: ea7c 2e3e 28f2 52bd 6492 aabe 30ed 19bd
00000120: 4f92 c1be f6d3 85bd baf0 90be 828e 85be
00000130: d42e 5fbe b23c 90be 887c 4cbe f3ea fdbe
00000140: a56c d1bb 42f5 9e3c 55ce 7fbe 3584 173e
00000150: 23a5 383d f079 9f3d 00d8 af3d c798 fc3d
00000160: ef03 81bd e923 063e 0f69 973c e70d 6abe
00000170: dfb4 8abe ce14 91bd bc94 d7be 6c0b 9fbd
00000180: 000d 3abe d1c3 ea3d 11a7 b53d e52b b73d
00000190: 0004 f2bd c5ed 54be ab96 b4bd 4335 e9bd
000001a0: 668d 78bd d322 5e3e e9c6 35be f329 14bf
000001b0: 9d7f 33be 5ac8 c4be a5d9 42be c2df 16bf
000001c0: 2cfa 02bc 1631 013e 58e4 843d a900 4ebe
000001d0: a10a 3a3e 21e7 d4bd 22e0 80be ee27 01be
000001e0: 825c d0be fc7d ee3d f5c8 4fbe 65c2 48bd
000001f0: 184c 86bc e3f0 6e3d 1afd f9bd 75d8 623d
00000200: 1943 9a3d 0d5a a5be 6b32 3c3d 3f39 b13e
00000210: 8b5a cbbc a155 e2bd 7f8f cc3d 683b 1c3d
00000220: 7bdd d43d fde6 0dbc 86dc 793c 8542 c6bb
00000230: b876 00be 61c9 40be d225 27be dd68 2d3d
00000240: 689b 5c3e 19f9 f8bb 5405 ce3c 125b 8dbd
00000250: 9ca4 863d f316 233e 4546 a63e eebf 61be
00000260: 4c6a ea3d 8471 023e 8955 41bd 61d0 09be
00000270: 400f 5bbd 8dcb d83d e3d3 7f3d 40e8 443b
00000280: e7fe 69be cc4a b23d faa0 353d 48e8 08be
00000290: 44fc 8f3e 7acb dc3e 2854 803e ec27 d8bd
000002a0: 8825 24bd 47f0 2a3d d2e6 653e 425d b03e
000002b0: bb00 eebc 2579 113d af51 243e 24c0 433e
000002c0: 7f69 bc3c fcd1 0abe 70a0 e63d fa96 7a3d
000002d0: 5871 0c3d d260 253e cd8d 093e 80dc 5bbe
000002e0: 34b7 3bbe e00a f43d edef 85bd 4c58 263d
000002f0: 9920 ef3d 1476 afbb c57b 9f3d 1e73 173d
0.3893467 0.47778594 -0.018136062 0.10769213 0.09354334 0.2003265 0.23020345 0.11410762
0.14702798 0.074711524 0.060142513 -0.06326104 0.37742993 0.10183412 -0.19509035 0.2954741
0.044367187 0.19047399 -0.11819517 0.0771693 0.29754254 -0.024219587 -0.0011691477 -0.053104367
0.0034110472 0.090615824 -0.068436556 0.1735037 -0.095963836 0.049236696 0.2921242 0.040999115
0.041027423 0.2373753 -0.049078934 0.0011917768 0.16316319 0.19622071 0.022459894 0.1041927
0.0687952 -0.022261415 0.12906045 0.052169256 0.016624892 0.3158604 0.07116928 0.29538167
0.006083389 -0.044181447 0.074626036 0.083901264 0.12682068 0.032274134 0.18090938 0.103540346
0.08749198 0.18680273 0.27943495 0.17764999 0.161537 -0.14881533 0.17175992 0.14694123
-0.26438498 0.028930962 -0.23819886 -0.28161022 0.17039838 -0.05150047 -0.33314812 -0.037579715
-0.37806937 -0.06534569 -0.2830866 -0.26085287 -0.21795207 -0.28171307 -0.1996938 -0.49593315
-0.0063911253 0.019404057 -0.24981053 0.14796527 0.04507936 0.077869296 0.085861206 0.123338275
-0.062995784 0.13099636 0.018482713 -0.22856866 -0.2709112 -0.07084046 -0.42105663 -0.077658504
-0.18169022 0.1146313 0.08869756 0.08943919 -0.11817169 -0.20793827 -0.088178 -0.11387112
-0.060681723 0.21692972 -0.1775166 -0.5787651 -0.1752915 -0.38434106 -0.19028337 -0.5893518
-0.007994216 0.12616381 0.064888656 -0.2011744 0.18168117 -0.10395647 -0.25171 -0.12612888
-0.40695578 0.11645123 -0.20291503 -0.049013514 -0.016393706 0.058335196 -0.122064784 0.05538221
0.07532329 -0.32295266 0.04594652 0.34613988 -0.024823448 -0.11051489 0.09988307 0.03814259
0.103938065 -0.008661029 0.015250331 -0.00605041 -0.12545288 -0.1882682 -0.16323021 0.042336334
0.21543658 -0.007598054 0.025149025 -0.06902136 0.065743655 0.15926723 0.32475486 -0.22045872
0.11446056 0.12738615 -0.047200713 -0.13458396 -0.05348134 0.10585699 0.06245793 0.0030045658
-0.22851144 0.087056726 0.044342972 -0.13369858 0.2812215 0.4312399 0.25064206 -0.105544895
-0.040074855 0.041733053 0.22451332 0.3444615 -0.029053083 0.035515923 0.16046785 0.19116265
0.022999523 -0.13556665 0.1126107 0.06117914 0.03428778 0.16150215 0.13432999 -0.21470833
-0.18331605 0.11916137 -0.06539903 0.04061155 0.116761394 -0.005354652 0.07787279 0.03697502

weight_ih_l1 f4 [192, 64]
00000000: 1e12 ffbd 60eb 7f3d 1931 ba3e 779a 15be
00000010: f128 6d3d 708b 653e 253c 0a3d 4f42 023e
00000020: bd1f 603e d243 8abe 52ae 123d 7d0a 20be
00000030: 3830 153e 2ea8 80be 34ab 943e e589 69be
00000040: ebab c13e 1407 02be be13 81be 9d78 bdbe
00000050: 413b 60be f521 16be 48c9 1d3d fe72 05bd
00000060: b4c3 3e3e 8b74 893e 9f6d 973c 2c40 bcbd
00000070: 4f3e aebe 7f9e 563d ed55 65bd 7f53 273d
00000080: 0846 523e 9485 a6be ba96 60be 56c9 bebd
00000090: bb70 17bd 0d08 bdbd d660 843e 4949 46be
000000a0: 6413 fb3d 9c5c 27bd b35d 153e 7906 b7bd
000000b0: 605e 11be 92c5 66be 20a0 9fbe 59ad a0bc
000000c0: 0dc5 6ebe a9c8 6e3e 8484 683d f501 fdbd
000000d0: 7672 2e3e 1f22 c0bd ad37 773d 67dd f33d
000000e0: a38c 7abe b196 f5bd 28ea 41bd 5907 1e3d
000000f0: 556b 3a3e 19c9 d13d e951 8bbe f83d 513e
00000100: 6ad0 763d a215 233c 17ac 023d 49d1 833e
00000110: b00d 673e c0af c43d 776a 143f 7243 133e
00000120: 0340 1cbd a8f5 8f3d cf19 bfbe ffc3 b43e
00000130: 7c6a 81be f01c 803e 8c41 4abe ca6d 6b3d
00000140: 91e8 c7bd c987 013e 5c6d 23be d8ed 233d
00000150: 71e8 93be 7aa3 2cbd 167c 15be 045d ddbd
00000160: 9acb e2bd b864 e83c 9d34 903e d0d9 043f
00000170: 19dc 1bbe 1dfb 8dbe 3c9a 6a3e 6ddc 1e3e
00000180: 756a 71bd c60b e4bd 908d afbe c80a ac3e
00000190: 0364 c73d cc0d d63c cc23 d0bd 7164 043e
000001a0: d286 4abd cffc bbbb f9a0 513e 3888 2abc
000001b0: a8a2 3ebe 1e4e 22be 5211 923e f970 6cbe
000001c0: 57fa 2fbe dd60 8abc c09d b2be fba0 6a3c
000001d0: 9409 8f3d 889a 25bd 1a9a 91bd d293 dc3e
000001e0: 6ee8 06be a428 b7be 5bc1 38be 5e59 dfbe
000001f0: 3c9e 363e 4729 083e 7759 1ebe 4b3c 443e
00000200: 691d f9bc f552 a1be 7a2c 363e aede 183e
00000210: c770 a13c 6e88 143d 20c2 ae3e 8cbd c4bd
00000220: 1236 0d3e 784d 3b3e add7 88be ba9d b8be
00000230: 771a 303e 6825 bcbc e666 de3c f72b 16be
00000240: c866 923d 7506 e1bd b818 9b3d ac67 ef3c
00000250: 424f 07bf 1ca2 253e c3b0 9f3e dd2a ed3b
00000260: 4ef6 11bd c82b 343e d5fb b3be 655a d3bc
00000270: d2d6 0fbe 678d 8cbd bcbe 16bd 4c67 583e
00000280: 3b75 3fbe 3002 3fbe 7ae8 a23d 6b6c 55be
00000290: f5f9 053e 58de 9a3d a075 043e 0f54 a4be
000002a0: ece1 2bbe de4c 913e 0ec7 263a 09a4 473e
000002b0: fdd2 77bd 93b5 05be a35b 8f3e 769f c73d
000002c0: 75ef 35be ad56 b53d 7bc0 923e 67e8 2bbe
000002d0: e5d4 333d 60fa 263e 1ce8 143e 934f 87be
000002e0: 9ce2 1d3e 8b33 123e 9426 c1bd 724d 2bbc
000002f0: b0e5 ae3c 8150 1d3e 6094 0abe 845d af3b
00000300: 208e 6abe 1e7b 5abc bfc3 5b3d 58b7 8cbd
00000310: 976e bd3e 8dfc 903e 6abb 0a3e b693 49be
00000320: aee4 69bc bdcc 173f 5aee 91be eec7 efbe
00000330: 2d43 07bf 2174 ebbd 4794 70be 4ff3 023e
00000340: 3166 983d 8647 703e ac9f f63e c3b8 c7be
00000350: 2a57 5f3e 3b07 2d3e eeb9 75be 00fc d43d
00000360: 6a4d c8bd 184c 1bbe 99dd d0bd 5a72 dd3e
00000370: 3929 683e 8ca9 8ebe 1817 8abd 9c00 bdbe
00000380: 7aa1 c0be 57de 6c3d 3e6e b4be 150f cabe
00000390: 943b 35be 327e 28bd b0ab 20be b606 12be
000003a0: 36ff b23e 05cb 883e 3aff b03e 325f 993d
000003b0: 2039 52bd 755a 2d3e 729c 9b3e a846 2cbe
000003c0: 9a9d 89bd 3710 893e 31ff 9bbe 28ff 75be
000003d0: da26 e83d 6e0c 143e 4175 69be a9a3 d2be
000003e0: 5ece 143e bb9a 2c3e 40ee 24be e015 53be
000003f0: 50de 4abe a211 ac3e 91ec f8be b415 b93d
-0.124546275 0.06248033 0.36365584 -0.14609705 0.057900373 0.22416472 0.033748765 0.12720607
0.21887107 -0.27004868 0.035810776 -0.15629001 0.14569175 -0.2512831 0.29036868 -0.22806509
0.37826476 -0.12698013 -0.25210375 -0.37006083 -0.21897604 -0.14661391 0.038522035 -0.03258037
0.18629342 0.26846728 0.018484889 -0.09191927 -0.34031913 0.052397247 -0.05599015 0.040851112
0.20534527 -0.32523787 -0.21932498 -0.093157455 -0.036972743 -0.09230051 0.2585513 -0.19363894
0.12259558 -0.040859804 0.14586525 -0.089367814 -0.14196157 -0.22536305 -0.31176853 -0.019613909
-0.23317356 0.23318733 0.056767 -0.12353889 0.17035851 -0.09381508 0.06035583 0.119074635
-0.24467711 -0.11991633 -0.04734245 0.038581226 0.18205006 0.102434345 -0.2721093 0.20433795
0.060257353 0.009953888 0.0319024 0.2574561 0.22563815 0.09603834 0.5797495 0.14381197
-0.038146984 0.07029277 -0.37324378 0.35305783 -0.25276554 0.25022078 -0.19751567 0.05747775
-0.097611554 0.12649454 -0.15959686 0.040021747 -0.28888276 -0.04214809 -0.14598116 -0.10808757
-0.1107399 0.028368339 0.2816514 0.51894855 -0.1522068 -0.27730647 0.22910398 0.15513773
-0.058939416 -0.11135058 -0.3428769 0.33601975 0.097358726 0.026129626 -0.10163078 0.1292894
-0.04944498 -0.0057369242 0.20471562 -0.010408454 -0.18616736 -0.15850112 0.2852884 -0.2308997
-0.17185341 -0.016891891 -0.3488598 0.014320607 0.06984249 -0.040430576 -0.07109471 0.43081528
-0.13174602 -0.35773194 -0.1804251 -0.4362287 0.17833799 0.13296996 -0.15463816 0.19163625
-0.030409532 -0.31508604 0.17790404 0.14928696 0.019707097 0.036262922 0.3413248 -0.09606466
0.13790157 0.1829127 -0.26727048 -0.36057836 0.17197596 -0.022967055 0.027148675 -0.14665209
0.0714851 -0.1098756 0.07573074 0.02922424 -0.5285531 0.16175121 0.31189546 0.0072377757
-0.035635285 0.17594826 -0.3515307 -0.02579994 -0.14046791 -0.06862908 -0.036802992 0.21133155
-0.18697064 -0.18653178 0.07954498 -0.2084214 0.13083632 0.0756194 0.12935495 -0.32095382
-0.16785401 0.28378958 0.0006362059 0.19496168 -0.06050395 -0.13057546 0.279996 0.09747212
-0.17767127 0.08854423 0.28662476 -0.16787873 0.043904204 0.16306448 0.14541668 -0.26427898
0.15418476 0.14277475 -0.09431186 -0.010455476 0.021349758 0.15362741 -0.13533163 0.005351724
-0.22905779 -0.0133350175 0.053653475 -0.068709075 0.36998436 0.2831768 0.13548055 -0.19685254
-0.014275713 0.5929678 -0.2850216 -0.46832222 -0.5283688 -0.11496759 -0.23494063 0.12788127
0.074413665 0.23464784 0.48168695 -0.3900815 0.21810594 0.1689729 -0.23996708 0.10399628
-0.097803906 -0.15165746 -0.101985164 0.43251306 0.22671975 -0.2786373 -0.06742686 -0.36914527
-0.37623197 0.057829227 -0.35240358 -0.39464632 -0.17698509 -0.041135974 -0.15690494 -0.14260373
0.34960335 0.26717392 0.34569722 0.0748886 -0.05132401 0.16929038 0.30392796 -0.16823828
-0.06719513 0.26770183 -0.30468133 -0.24023116 0.11335535 0.14457867 -0.22798635 -0.41140488
0.14531848 0.168559 -0.1610651 -0.20613813 -0.19811368 0.33607203 -0.48617986 0.09037343

weight_hh_l1 f4 [192, 64]
00000000: 56ca ae3c ecd8 83be 0bad 323e 6e27 e03b
00000010: 93d3 98bd 2d1a 2bbe c974 34be f703 82bd
00000020: b9f0 633e 09d1 5dbe d68e 02be 261a 47be
00000030: 0368 b33c 516f b93d f640 303d d6fe 073f
00000040: 45e3 fdbd 0006 e93a f135 7f3d a021 ff3d
00000050: 14ac c43c 7517 973d e39b bd3d 837c 813d
00000060: f3b3 b03d c601 b7ba a35b d63d 07b1 1dbd
00000070: b8c1 45be 0cc2 513e 674c 8a3d 1ef3 a03e
00000080: e78d 42be 0e34 2e3e 1ef4 cc3d 97f5 3e3d
00000090: 80a5 503d c2fb 21be 12ff 0abd e10a 97be
000000a0: eacd 693e 80ac 8ebd 3e70 35be 884f c6bd
000000b0: 1055 5fbe 76e5 0f3e dc7f 013d 6811 963c
000000c0: 091d f6bc 5f71 883e bcb3 7ebb 678c cd3d
000000d0: d79e 06be 0cb5 80be 14bf ad3b e38c 83bd
000000e0: b1f3 163e c676 51be 90f2 73bd ed1b f63d
000000f0: bdd3 083d a61b e9bd 0868 d2bd e64b 4d3e
00000100: cbf2 263e de42 363e de94 733e 7951 7fbe
00000110: e259 333e 2605 133e 24f2 883d 95b2 d8bb
00000120: ea64 ef3d 1101 c7bd e12e 9bbe b870 a3be
00000130: ad6d 363e 6121 d53b d86a 793c 6ae4 f73e
00000140: fddb 583e 8ab1 443d 0b24 09be 886d 413e
00000150: 722f 9f3e 8163 5b3e 52ee f9be 99a5 903d
00000160: 05f9 0f3d 9edf 603b 0ca3 c3bd 8891 11be
00000170: 4dcb 02bf a855 473e d5d0 1abe 26f9 253e
00000180: d844 09bc 9d4c 98bd efa2 543e d23f ecbc
00000190: ebc4 bebc 406d 01be b269 c7be bb6b a7be
000001a0: 9ab9 d4be 9126 11be 83b3 4abc d363 42bd
000001b0: 5eb1 6cbc 6985 63bd c870 393e 2d06 763e
000001c0: 03fd fb3d abd8 553e 0f37 2fbd f844 ae3d
000001d0: ad0b 9dbe df84 243e fac3 f33c 330c 183e
000001e0: 6d5c d9bd 37c5 30be b9aa 04be 7c58 e33c
000001f0: ecc3 d63e 3e66 26be b172 10be 33c9 fe3d
00000200: f9c8 d93d 651c 43bd 1cea 29be 71d3 3c3e
00000210: 984d f1bd a258 e83d 86b8 643e b353 3a3e
00000220: e396 2dbd c74b 373e a489 693d d3b9 093e
00000230: cc4e 26bf b775 79be b79b 833d b93c e9bd
00000240: e0cf 03be 7237 95bc fa77 8a3e 043b 5cbe
00000250: d7b6 ccbd 49e8 05be f1c1 1d3e 26e7 71be
00000260: d815 6bbe e071 d23c f17f 3fbe 0942 90be
00000270: 02a8 8a3e ae02 c1bd b103 32be 4edd 403e
00000280: 8952 033e 0abb f53c a3d0 b73d 7da2 623d
00000290: a34f 573d 5540 343e 54c1 343e 3b2a 803e
000002a0: 6f7e e43c ed08 a83d 8122 26be 327d 203d
000002b0: 3fc5 1b3e 3ed4 953d 2f09 47be c199 173d
000002c0: b1f1 f3bd 8d97 d6bd fbd9 0f3e d002 8bbe
000002d0: 7836 773e a083 d6bc 6d88 6fbe 10ce 62bd
000002e0: 0b66 a0be 82ca 123c 809d 5c3e 8d0e edbd
000002f0: 5a99 903a 8307 4ebe 2e96 243d 72a7 42be
00000300: 3a97 a63e f8cd 973e e1b6 8b3d 5e15 8abd
00000310: 794f 7dbd 9d28 bbbd 577b ae3d 3424 00bd
00000320: cf97 f13d 28b0 a1be de6d a2bc 512b 9bbe
00000330: 3f12 ed3d 4f70 123e ee44 d4bd e95b c53d
00000340: 3676 373e 2e8e 353d 662c bf3d e283 623e
00000350: e1bd ebbd f0e1 a03e c42b 12be f556 c23d
00000360: ca62 403d 3d32 48be e499 6c3e 8507 333e
00000370: 3e34 6dbe 0977 123d 2eb6 0e3e 5f5f 7a3d
00000380: 3cf5 48be 8c06 3e3e 1918 283d 6e35 35bd
00000390: 11f5 12be d4f8 1e3d 2a5f b9be fbba 513d
000003a0: 4911 b4bc b9b9 70bd 60f4 c1bd 8511 26bf
000003b0: f862 86bc 35ef a6be 0d4d 8abd aeb7 fb3e
000003c0: 03c0 073f fb64 10be d5cd d7bd fbcc b43c
000003d0: 0cdd ea3b 6881 633e 5c86 cc3c bf58 f03e
000003e0: 6bf6 32bd 1ec0 4d3d 5ce1 c3bc d140 3e3d
000003f0: 9bf0 6c3e 3c18 75be c87a 1ebd 480b 08bd
0.021336716 -0.25751436 0.17448823 0.006840638 -0.074622296 -0.16709204 -0.17622675 -0.063484125
0.22259797 -0.21661772 -0.127498 -0.19443569 0.021900183 0.09054435 0.0430307 0.53123224
-0.12396864 0.0017778277 0.062307302 0.12457585 0.024007834 0.07377521 0.09258249 0.06322577
0.086280726 -0.001396232 0.10466697 -0.038498905 -0.19312179 0.2048418 0.06752854 0.31435484
-0.18999444 0.17012045 0.10007499 0.04662093 0.050939083 -0.15818694 -0.03393466 -0.29500487
0.22832456 -0.069664955 -0.17718598 -0.09683138 -0.21809793 0.14052376 0.031616077 0.018318847
-0.030043142 0.26648995 -0.0038864454 0.10036545 -0.1314653 -0.25138128 0.0053023193 -0.064233564
0.14741398 -0.20455465 -0.059557498 0.12017045 0.033405054 -0.11382227 -0.10273749 0.20048484
0.16303556 0.17798945 0.23787257 -0.24933423 0.17514756 0.14357433 0.0668681 -0.0066130855
0.1168917 -0.09717 -0.30309203 -0.31921935 0.17815275 0.006504223 0.015223227 0.48416454
0.21177669 0.048020877 -0.13392656 0.18889439 0.31090885 0.21424676 -0.48814636 0.07062835
0.035149593 0.0034312974 -0.09552583 -0.14215672 -0.5109146 0.19466269 -0.15118726 0.16208324
-0.00837823 -0.07436488 0.20765279 -0.028839026 -0.023287257 -0.12639332 -0.38947827 -0.3269938
-0.41547853 -0.14174868 -0.0123719005 -0.04745848 -0.0144465845 -0.05554715 0.18109429 0.24025793
0.123041175 0.20883434 -0.042777117 0.085092485 -0.3067297 0.16066311 0.029756535 0.14848404
-0.10613332 -0.17262731 -0.1295575 0.027752154 0.41946352 -0.1624994 -0.14106251 0.124407195
0.106340356 -0.0476345 -0.16593212 0.18440033 -0.11782378 0.1134503 0.22336015 0.18195991
-0.042380225 0.179 0.05701603 0.13449793 -0.64963984 -0.24361311 0.064261846 -0.11388535
-0.12872267 -0.018214915 0.2704466 -0.21506888 -0.099958114 -0.13076891 0.15406014 -0.23623332
-0.22957551 0.025689065 -0.1870115 -0.2817538 0.27081305 -0.09424339 -0.1738422 0.18834421
0.12824453 0.029996414 0.08975341 0.055330742 0.052566182 0.17602666 0.17651874 0.2503222
0.02789232 0.082048275 -0.162241 0.039181896 0.15211962 0.073158726 -0.19437097 0.037011866
-0.11911333 -0.10478125 0.14047997 -0.27150583 0.24141872 -0.02618581 -0.23391886 -0.055372298
-0.31327853 0.008959414 0.21544456 -0.11575041 0.001103203 -0.20120053 0.040182285 -0.19009188
0.32537252 0.2964933 0.06821991 -0.06742357 -0.06184337 -0.09138606 0.08519619 -0.031284526
0.11796533 -0.3157971 -0.01982778 -0.30306485 0.11575746 0.14300655 -0.1036471 0.09636671
0.17916188 0.044325046 0.0933464 0.22120622 -0.11510826 0.31422377 -0.14274508 0.09489242
0.046969213 -0.19550414 0.2310558 0.17483337 -0.2316446 0.035758052 0.13936684 0.06112611
-0.196248 0.18557185 0.041038606 -0.044240408 -0.14351298 0.03881152 -0.36205417 0.05120371
-0.021980898 -0.05877087 -0.09470439 -0.6487048 -0.016404614 -0.32604375 -0.067529775 0.49163574
0.5302736 -0.14101021 -0.10537306 0.022070399 0.007167464 0.22217333 0.024966411 0.46942708
-0.043692034 0.050232045 -0.02391117 0.046448532 0.23138659 -0.23935026 -0.038691312 -0.033213884

bias_ih_l1 f4 [192]
00000000: b407 213d 5258 94bc 92fc 6f3e 2ee5 30bd
00000010: a8db 81bc 4f98 843d 2631 393e 813e 403e
00000020: 6225 743e 0942 b1bd 2a19 293e d294 fabc
00000030: 837e 453d 5e48 023e 1e33 783e c657 71bd
00000040: 48e7 453d 6541 833e d420 4fbc 4a30 523d
00000050: fb32 163d 9283 c9bd b0b9 843d 56b6 c6bd
00000060: 808c ab3e e8bc e8bd f410 503b f249 0fbe
00000070: 7ba7 f7bc 25f6 b33c 78ef 863d 3b20 363e
00000080: 7e66 543d 1539 e73d 31ef 2bbd 817a 2a3e
00000090: c49e 193e 7816 37be d9c2 edbd 6289 1f3e
000000a0: 6b0d 81bd a8f0 343c 03af 01bd ddec 383d
000000b0: dd94 0ebd 265f 4d3d 94f1 65bd 6c45 e5bd
000000c0: 4b14 f0bc 8793 3cbc 2fc2 8d3e 9f76 2a3e
000000d0: b1ea e03d 563d 0e3d 56d6 3a3e 666d 8f3d
000000e0: 8f2b b8bc fcd2 c53c 118c 2d3e 0e72 9c3c
000000f0: d1e1 82bd 06b4 533d 5046 7dbc 0f40 99bc
00000100: 6e6c 72bd ba27 f4bd 03c8 77bb f8bc 96be
00000110: bbee 96be 50cd 333c cbc6 c9bc 807d d23d
00000120: 40af ccbc b241 c43d 813f c7be 47aa 513d
00000130: 7012 7fbe b20a 98be b716 113e 9e9f 373e
00000140: c3d8 913d 40b3 fdbd 77af fe3d b35a adbc
00000150: 903c 79bd f38d 6abd b60b e2bd e22a c9bd
00000160: ee37 5fbe 1e4b f73d 0aaa b2bd 9636 f53d
00000170: e42d 093e 768e 49be cff8 6dbe b23c 2bbd
00000180: f6fc d03d 1907 eabd 366d d0bd 1b46 84bd
00000190: 20e1 2ebe 7066 55be acb2 3bbe b9a7 46be
000001a0: 706a 42be c9d8 64be 2648 44be 23d8 873e
000001b0: 7c02 c83d 1ae7 19be 0e4e 53be 4a50 863d
000001c0: 8a7a 83be 6893 b33d c857 a3bd a2a7 79be
000001d0: 60ca b9bd 481d d4bd 9ce7 90be 02a7 a5bd
000001e0: 8353 0ebf 5f1c d1bc 767d 5ebd 7116 6e3c
000001f0: eb9b 513e 8466 873e 9a9b 71be 1f74 c5bd
00000200: c6ee d43d 1a8f fbbc a3f7 9fbe 6c95 333e
00000210: 0367 46bd 9172 543e 64dc 333e ec25 283d
00000220: fd75 dfbd 9248 d73d 851c c1bd e3b1 8cbd
00000230: 115c d5bd 5f76 c3be f822 aebc 233f c83d
00000240: 2363 44bd 2f79 57be 23a3 2a3c 9ccb 85be
00000250: 6c6f 1b3e c432 33bd c9ca 82bd f340 9fbd
00000260: a4fe 2bbc 36ec 9bbd b5c6 78be c886 51bc
00000270: d7e7 b1bd b4ed b6bd 35e1 48be d1cd 0b3e
00000280: d54a 6ebd ecac 433e 65db cebd 858a 393e
00000290: 8657 b0bd 1cf7 b43e 5ed2 93bc 4f16 4dbe
000002a0: 300a b43d 0ae6 98bd 538b 86be 1690 803c
000002b0: 899d 0f3e 8de6 8e3c 6aa8 c23d 972b 0ebe
000002c0: a258 8bbe 9512 633d b946 5c3e dcdf 3cbc
000002d0: 7891 193e 84ed 63be d4e7 943d 363d 22bd
000002e0: 045a 82be 52a1 9dbd 0e3e be3d cde6 4ebd
000002f0: 91b7 06be aa2d 19bd 0206 9b3e fb35 453e
0.039313987 -0.01810852 0.23436192 -0.043187313 -0.01585181 0.06474363 0.18085155 0.18773843
0.23842385 -0.08655173 0.16513506 -0.030588541 0.048216354 0.12722918 0.2423825 -0.058921598
0.04831627 0.2563583 -0.012642104 0.051315583 0.036669713 -0.09839548 0.064807296 -0.097027466
0.3350563 -0.11364156 0.0031748386 -0.13993052 -0.030231228 0.021967957 0.06588644 0.17785732
0.051855557 0.112901844 -0.041976158 0.16648294 0.1500197 -0.17879665 -0.1160943 0.15579751
-0.063013874 0.011043705 -0.031661045 0.045147765 -0.034809936 0.05013957 -0.05613859 -0.11194882
-0.029306551 -0.011509783 0.27687213 0.16646813 0.10982264 0.034726463 0.18245825 0.07003288
-0.022481708 0.024148457 0.16947962 0.019097354 -0.06390727 0.051685356 -0.015458658 -0.018707303
-0.059185438 -0.1192164 -0.0037808425 -0.29441047 -0.29479012 0.010974243 -0.024630925 0.102778435
-0.02498591 0.09582843 -0.38915637 0.05118778 -0.24909377 -0.2969566 0.14168821 0.17931983
0.07121422 -0.12387705 0.12435811 -0.021161413 -0.060848773 -0.05726428 -0.1103739 -0.09822632
-0.21798679 0.12074874 -0.087238386 0.11973302 0.13396412 -0.19683251 -0.23239444 -0.04180593
0.102044985 -0.11427135 -0.1017708 -0.06458684 -0.17078066 -0.20839858 -0.18329877 -0.19399919
-0.18985915 -0.22348322 -0.19168147 0.26532087 0.09766099 -0.15029564 -0.20635244 0.06558283
-0.25679427 0.0876835 -0.07975727 -0.24380353 -0.09071803 -0.103571475 -0.28301704 -0.08088495
-0.5559618 -0.025526224 -0.054318868 0.014531718 0.20469634 0.264454 -0.23594514 -0.09641289
0.10397105 -0.030707885 -0.3124362 0.17537469 -0.048438083 0.20746829 0.17564541 0.04105179
-0.10911176 0.105118886 -0.09429268 -0.06869867 -0.10417951 -0.38176247 -0.021256909 0.097776674
-0.047946107 -0.21042322 0.010414871 -0.26131904 0.15179223 -0.043749586 -0.063863344 -0.0777606
-0.010497723 -0.07613413 -0.2429455 -0.012788482 -0.08686798 -0.08932057 -0.1961716 0.13652731
-0.058176834 0.19108933 -0.1010044 0.18119247 -0.08610444 0.3534478 -0.018044647 -0.20028041
0.087910056 -0.074657515 -0.2627817 0.015693706 0.14024939 0.01744392 0.09504779 -0.13883816
-0.2721606 0.055437643 0.21511354 -0.011527982 0.14996898 -0.22258574 0.0727078 -0.039609157
-0.254593 -0.07696785 0.0928918 -0.050513078 -0.13155963 -0.037397064 0.3027802 0.19258873

bias_hh_l1 f4 [192]
00000000: 21d8 2cbe 1254 b93d 1a56 6e3e a728 1bbd
00000010: a22e b93d f5bb 4a3e 500c 583e 20f9 593e
00000020: 4fe4 8d3e d3d7 8d3d a9ff 113e c6db edbc
00000030: 3a5f c63d 8e03 013e b80f 993e 85fe 5b3d
00000040: 6371 e3bd d64c d33d e0ed 0a3d a7c9 933d
00000050: 874a f4bd 09d9 293c fcd7 ce3d 85e8 dcbd
00000060: 6531 7d3e 45cb 283d aadf 88bd cc0d a0bd
00000070: d81c 083d 644c 453e 6dc3 c73d 22db 4f3d
00000080: 8d04 e0bd 2442 e8bc 2aab b23d c715 0b3e
00000090: 3334 583e 3c90 63bd b1e6 babd 0581 d8bc
000000a0: 249b c53d b176 28bd 98e1 91bd 0eb6 eebd
000000b0: 8f09 babd abca ef3b 350b 283e c276 9c3b
000000c0: e6f7 cd3d 4d00 b13d 8dea 983e ee7c 293e
000000d0: 667c 483c 8017 b03d e789 b93c 5951 7dbd
000000e0: c335 48bd 9eef 13bc eba7 053e 5f39 8f3b
000000f0: cf5d b23d dbcc 833d 7e2e 20bd b76a 9c3c
00000100: 69e1 ae3d fd59 40be 6cbc 17be 4e53 d9be
00000110: ab98 aebe ef12 a63c 1597 adbc e792 63bd
00000120: 9598 0abe fd4d 133e 80db 65be e900 eabd
00000130: fda6 a0be 81df 4ebe a539 163e 86c7 983c
00000140: 4976 22bd 1a9a f6bd 2344 9d3d 1b16 803d
00000150: 67ec 73bd 755f b4bd b4a7 58be 8df9 adbd
00000160: 8f5a 5dbd e960 483d a041 00be 4f63 4c3e
00000170: 118e ad3b 7633 39bd a27a acbe 49c2 8dbe
00000180: c1ed c43d d423 6b3b feaf 34be 654c 813d
00000190: 5ef8 4dbe bdc1 08be dae1 4ebe 96ed 64be
000001a0: 31db 3fbe 9ee8 1bbe 2bad 40bb 2bc8 313e
000001b0: dbe2 2e3e 7764 d5bd d505 33be 9bba 2a3d
000001c0: 0339 c9bd ae4c 463e 9dba dbbd 20a2 c1bd
000001d0: 2d29 6fbd 4f64 32bd 8184 88be 7ef2 1dbe
000001e0: e81f 06bf fcc7 5fbd 2205 9b3d 9e5e 973b
000001f0: 2d2d 1c3e 71fb 8f3d 57f9 1fbe 86d2 90bd
00000200: f285 f6bc 11fe 8cbd 60c8 6bbe e905 983e
00000210: 336f 31be 7785 8a3e 233d e53d 121b bc3d
00000220: 7d49 72be 67d8 8e3d d9f2 2d3e fa1b d53d
00000230: dd5b 58be e4b2 2cbf d99c 0abe 5d6a 8e3c
00000240: 350b 193e 9bba d8be b47f 0f3e d020 c8bd
00000250: b440 de3d b899 f63b 925f 44bb ecfb 45bd
00000260: 7b72 91be c2f9 d23d fa28 4abe a1c3 c9bd
00000270: 39c8 ee3d b389 2ebd 21fd 2cbe e617 733e
00000280: bec3 0abd a45a 3b3e 09f3 f63d 77e4 c0bd
00000290: 1efa 2a3d 7120 97bc 29f7 073e b348 1ebc
000002a0: c1d8 f6bb 1919 f9bd 13ea 52be 93e8 79be
000002b0: ebc0 7dbd e71e 983e d8fc b73c d2f2 953b
000002c0: 6fa7 a2bd bc85 d83c bdef 633e 0470 e23d
000002d0: 6611 453e d79c 4dbe af0f ee3d 7056 303c
000002e0: bfd9 c7be d304 47bd ffaf 873e f54e 1c3b
000002f0: 550c 9cbe 5715 18be 6df4 583e 3cf2 4f3e
-0.16879322 0.09049238 0.23275033 -0.037880566 0.09042098 0.19798262 0.21098447 0.2128644
0.27713248 0.06925931 0.14257683 -0.02903546 0.09686132 0.12599012 0.29894805 0.053709526
-0.11105611 0.1031739 0.03391826 0.072161965 -0.119282775 0.010366687 0.100997895 -0.10786537
0.24725874 0.041209478 -0.066832855 -0.078151315 0.033230633 0.19267422 0.097540714 0.05074609
-0.10938368 -0.02835185 0.08724053 0.13582526 0.21113662 -0.055557474 -0.09126032 -0.026428709
0.09648731 -0.041128818 -0.07123107 -0.11655818 -0.090838544 0.007317861 0.16410525 0.004774899
0.100570485 0.086426355 0.29866448 0.16551563 0.01223669 0.08598232 0.022648765 -0.061845157
-0.048879396 -0.009029297 0.13052337 0.004370853 0.08709299 0.064355575 -0.03910684 0.019093854
0.08539087 -0.18784328 -0.14817971 -0.4244637 -0.3410085 0.0202727 -0.021190206 -0.05556002
-0.13534768 0.14385219 -0.22447014 -0.11425955 -0.31377402 -0.20202447 0.14670427 0.018649828
-0.039663587 -0.12041111 0.07679012 0.06254216 -0.059551623 -0.088072695 -0.21157724 -0.08494864
-0.05404144 0.048920546 -0.12525034 0.19959758 0.0052964767 -0.045215093 -0.3368731 -0.2768729
0.096156605 0.003587951 -0.1764526 0.06313399 -0.20114276 -0.13355155 -0.20203343 -0.22356257
-0.18735959 -0.15225455 -0.002940009 0.17361514 0.17078726 -0.10419553 -0.17482693 0.041681867
-0.09825327 0.19365188 -0.10728953 -0.09454751 -0.058388878 -0.043552693 -0.26663592 -0.15424535
-0.52392435 -0.05463408 0.075693384 0.0046194335 0.15251608 0.070303805 -0.1562246 -0.07071404
-0.030093167 -0.06884397 -0.23025656 0.2969201 -0.17327575 0.2705495 0.111933015 0.09184851
-0.23660846 0.06974869 0.1698717 0.10405727 -0.21128793 -0.67460465 -0.13536395 0.017384702
0.14945681 -0.4232987 0.14013559 -0.097718835 0.10852185 0.007525649 -0.002996419 -0.048335955
-0.28407654 0.10301544 -0.19742194 -0.098517664 0.11659283 -0.04261179 -0.16893436 0.23739585
-0.03387808 0.18296295 0.12058074 -0.09418576 0.041742437 -0.018448086 0.13277878 -0.0096608875
-0.0075331633 -0.1216299 -0.20597105 -0.24405126 -0.06195156 0.29711077 0.022459432 0.0045760656
-0.07942092 0.026430957 0.22259422 0.110565215 0.19244918 -0.20079361 0.11624085 0.010762796
-0.39033315 -0.048588585 0.26501462 0.0023850773 -0.3047816 -0.1485189 0.21186991 0.20307249

weight f4 [1, 64]
00000000: 25d1 88be c3a4 e1be 6edc 8dbe a6a1 623e
00000010: 4222 a1be 3a51 40bf efa6 f9be deb1 c13d
00000020: f63f 5cbe 62b7 ee3d 629e 08bf 462d 923e
00000030: cc64 99be 8c65 9bbe 9fc7 383f 0964 87bd
00000040: 9ab6 03bf 8238 22be ad5d 50bd 64e4 59be
00000050: 917a 653e 5d0d 3cbe 5626 febe d805 c1be
00000060: 86a9 943c 7d95 743e 658f 9bbe 41a1 483d
00000070: add8 1d3d 0664 9ebe 84e3 18be 14db 3b3e
00000080: a7dd 3ebe d492 773e dd68 98be 6699 093f
00000090: c482 913e f77a 8e3e e3a9 593e 899c b83e
000000a0: f74d c43e f153 a73e 9664 aebe da7d 973e
000000b0: 7b09 823e 6840 c13e 0f75 b7be e4de 3ebe
000000c0: b1f2 4cbe 4ae4 f73e ac7f 803e bcf9 cdbe
000000d0: e0cd 323e add3 41be 47c2 a63e 900f b0be
000000e0: 3f33 94be 095e 05bf 319c 7f3e 4055 613e
000000f0: 43be 7cbe 0f5f 273e 054f 4b3e 1cb9 7c3e
-0.26722065 -0.44071016 -0.27707237 0.22131976 -0.3147145 -0.7512394 -0.48760173 0.094577536
-0.21508774 0.11656071 -0.53366673 0.28550166 -0.29959714 -0.30350912 0.721796 -0.06610877
-0.514505 -0.15841869 -0.050870586 -0.2127853 0.22410037 -0.18364473 -0.49638623 -0.3769977
0.018147241 0.2388515 -0.3038284 0.04898191 0.038536716 -0.30935687 -0.1493054 0.1834529
-0.18639241 0.24177104 -0.29767504 0.5374969 0.2842008 0.2782819 0.21256213 0.36056927
0.38340732 0.3268123 -0.34061116 0.29588205 0.25397858 0.3774445 -0.35831496 -0.18639714
-0.20014454 0.48416358 0.25097406 -0.40229595 0.17461348 -0.18928404 0.32570097 -0.34386873
-0.28945348 -0.5209661 0.24961926 0.22005177 -0.24681954 0.16344856 0.19854362 0.24679989
