time_LossPrune_ClassifyFixed/TotalModel_Climate.pth (torch, 209654 bytes, 12 tensors)

weight f4 [125, 16]
00000000: b1db 193f 388d 83be f145 8cbf bde2 62bf
00000010: 8bfc 87bf b484 9bbf 879c 37bf d7df 9fbe
00000020: f440 4a3f ea9b 5640 9d25 b53f ff82 e1bf
00000030: 4870 383f f181 04bf 50f7 94be 3724 a03f
00000040: f6f8 b6be dd28 273f 5a0d 20c0 4e8f 7c3f
00000050: 87eb 9bbf f1d6 8f3e ab25 9ebe 8af4 bebf
00000060: 4100 c4bf 7fdc 0e40 88c6 fcbf 4d07 dd3f
00000070: 2f01 8abf 3b4d 34bf ac06 7d3f 6d74 ac3e
00000080: e42b 99bf 178c 1ebf 1141 b03f 6b21 6f3f
00000090: c69f a8bf effb bb3e b3c0 1ebf bdce 08bf
000000a0: 3797 0dbf 8734 9cbf 0b29 83bf cdee bcbf
000000b0: 7d6d 1d40 bc06 8f3d 2f3d b8be bc80 1b3f
000000c0: 6bd3 e23f 0270 273f 796e 553f 5511 ebbe
000000d0: 0d16 a93f b710 ecbd cd5e 70be 3e14 823d
000000e0: 2fa1 3bbf 79a1 f13e fb79 4bbf ff7d 06c0
000000f0: 9f87 43be ffb7 cfbf f95b b7bf dda4 d6be
00000100: b703 0a3e 4337 52c0 1c25 ec3d 653a a13f
00000110: da2a 5d3f c20f bcbe 0ea8 07c0 52d7 5a3f
00000120: 7e4b 7b3f 5422 17bf f16b 6ebf 45ce 973f
00000130: 36d2 89bf abd3 473f fda4 6dbf 8023 16c0
00000140: 017c a73d 8ee8 80bf 60fe 1440 9d6b efbf
00000150: dac5 c4bf 556d a1bf 917a 003f 80bd 96bf
00000160: 82cf da3f cbaa 023f d1e2 0e3e b325 a7be
00000170: b82a b7bf fa08 523f 1b57 0ebf 711d aa3e
00000180: 5342 04bc 95ce 80bf b9d1 a83f ca96 cc3f
00000190: 04b8 9e3f eb76 15be 975e b5bf 7e28 21c0
000001a0: c583 ab3e 0896 893e 994a e03f 600a 713f
000001b0: 8a2d 623d 1fb2 8d3f 91fc a4bf 1593 b93f
000001c0: 03dd adbf 4d0e 4fbd 412e 94bf c64a 5bbf
000001d0: fb49 94bf a8e5 bf3f dbc8 ab3e 450e 273f
000001e0: d12d 06bf 83b7 8e3e 7e5e 67bf 2971 0140
000001f0: 6fbd c73e 6752 b0bf 1ac0 edbe fd4b bd3f
00000200: fa7f 313d 9fbd e53f 0991 7bbe 4ba7 3abe
00000210: c22d a9bd d15f bf3e 7f9e 813f a8a8 babd
00000220: 9575 cdbf e76f 463f c938 853f e08a 633e
00000230: 3ded e53e 3136 8f3f 2d12 0a40 374c acbf
00000240: 6063 c1bf 6884 cbbb 31e2 c53c 3037 87bd
00000250: c6fa a83e 989b 6c3f e326 f0be e3fe 99bf
00000260: 0be4 823f 3ec6 5dc0 df0f fdbf fd0b e5bf
00000270: f3d7 033f 6fea 823e da43 c3be c7eb e2bf
00000280: f34a 6fbe b9dc d3be 032b 42be bf45 4abe
00000290: 1f2d 65be 57e9 92bf 5a8d 2fbf 2e24 623d
000002a0: 4d4e 303f 41e4 433f fb1f ce3e 415a 813f
000002b0: d0aa 0abe c7ca d43f bf1d 3bbf 62d2 87bf
000002c0: 9e1f 28be f794 4a3f c319 1d3f df44 eb3e
000002d0: 92a5 fbbe 36f0 f63f 9b69 0e40 7312 75bf
000002e0: 03d1 6a3f cd32 803f 6be3 bd3f 7a09 503f
000002f0: 0cbb 753f a9e3 ddbe 5018 803f 5bb3 02bf
00000300: ad12 06c0 a8f1 12bf f2c6 33c0 8366 fdbe
00000310: 0573 b63f 58ed a23f 6cdd 4f3f a026 c4be
00000320: d48e 663f 2c41 87be f334 6bbe 84ca 2f3f
00000330: f2c7 f7bf 0e0b c83f bbe0 cdbd e0df bdbf
00000340: edd4 ec3f 3995 90bf 2b68 36bd 65c5 9f3d
00000350: 0173 77be 93b4 893e 6e1f 773f 64fe 09be
00000360: 01be 2cbf 10e9 9a3d 0107 e1bf fa19 89bf
00000370: 4eda 30bf 2a71 1d40 1427 34bf 80fd 6dbf
00000380: afcf fbbc 78fb 82bf bfd6 9a3e d0f4 26c0
00000390: e76a 0d40 1536 743e aa7d b1be 8597 a7bf
000003a0: 5f52 b6bf a7ae f53e a218 9d3e 97d9 3bbf
000003b0: d91d 06be 3c3f 253f ca26 2b3f c55e 2b3e
000003c0: b4a3 7d3e 096b 23bf d83f 92be 84d7 973f
000003d0: fed2 02bf 171a a13f 35d8 ccbd b8bf 1440
000003e0: f88c 1abf 684d 05be a591 76bf 9872 9dbf
000003f0: 49d8 ffbe a6fe fabe 7871 a23f ec0c 08bf
0.6010085 -0.2569368 -1.0958844 -0.88627225 -1.0623945 -1.2149873 -0.71723217 -0.31225464
0.7900536 3.3532662 1.4152104 -1.7618102 0.7204633 -0.51760775 -0.29094934 1.2511052
-0.35736817 0.6529673 -2.500815 0.98656166 -1.2181252 0.28093675 -0.30888113 -1.4918377
-1.5312577 2.232208 -1.9748087 1.7267853 -1.0781611 -0.70430344 0.98838305 0.33682576
-1.1966519 -0.6193251 1.3769857 0.93410367 -1.3173759 0.36715648 -0.62012786 -0.5344046
-0.5530886 -1.220353 -1.02469 -1.4760376 2.4598076 0.06983706 -0.3598418 0.6074331
1.772077 0.65405285 0.8337169 -0.4591166 1.3209854 -0.115266256 -0.23473664 0.06351517
-0.7329282 0.47193506 -0.79483 -2.1014402 -0.19094704 -1.6228026 -1.4324943 -0.41922656
0.1347798 -3.284623 0.115305156 1.2595946 0.8639351 -0.36730772 -2.1196322 0.854848
0.98162067 -0.59036756 -0.93133456 1.1859823 -1.0767276 0.78057355 -0.9282988 -2.3459167
0.08177949 -1.007097 2.3280258 -1.8704716 -1.537288 -1.261149 0.5018702 -1.1776581
1.7094576 0.5104186 0.13953711 -0.3264595 -1.4309912 0.8204495 -0.5560166 0.33225587
-0.008072454 -1.0063044 1.3189002 1.5983517 1.2399907 -0.14596145 -1.4169492 -2.5180964
0.3349897 0.26872277 1.7522765 0.94156456 0.05521921 1.1069983 -1.2889577 1.4498011
-1.3583072 -0.050550748 -1.1576616 -0.8566097 -1.1585077 1.499196 0.33551678 0.6525615
-0.5241366 0.27874383 -0.9037856 2.0225317 0.39011714 -1.3775147 -0.46435624 1.4788815
0.04333494 1.7948493 -0.24567045 -0.1822788 -0.08260681 0.3737779 1.0126494 -0.091142
-1.6051508 0.775145 1.0407954 0.22220945 0.4490756 1.1188413 2.1573594 -1.3460759
-1.5108452 -0.0062108524 0.024155708 -0.06602323 0.33003825 0.9242492 -0.46904668 -1.203091
1.0225843 -3.4652247 -1.9770468 -1.7894284 0.5150139 0.25569484 -0.38137704 -1.7728204
-0.23368435 -0.41379336 -0.1896172 -0.19753169 -0.22380494 -1.147746 -0.6857506 0.055210285
0.6886948 0.7652016 0.40258774 1.0105668 -0.13541722 1.6624383 -0.73092264 -1.0611079
-0.16418311 0.7913355 0.61367434 0.45950982 -0.49149758 1.9292057 2.2251956 -0.95731276
0.91725177 1.0015503 1.4835027 0.8126446 0.95988536 -0.43337753 1.000742 -0.51054925
-2.0948899 -0.5739999 -2.8090177 -0.49492273 1.4253851 1.2728682 0.8119724 -0.3831072
0.9006169 -0.2641691 -0.22969417 0.6866839 -1.9357893 1.5628374 -0.100526296 -1.4833946
1.850248 -1.1295539 -0.044532936 0.07801322 -0.24164964 0.2689558 0.9653233 -0.13475949
-0.6747742 0.075639844 -1.7580262 -1.0711052 -0.69083107 2.460032 -0.7037213 -0.92964935
-0.03073868 -1.0232992 0.30241963 -2.6086922 2.2096498 0.23848756 -0.34666187 -1.3093115
-1.4243888 0.47984812 0.30682856 -0.7337889 -0.13097323 0.64549613 0.6685606 0.1673537
0.24769479 -0.638352 -0.28564334 1.1862645 -0.511032 1.2586087 -0.10002176 2.3242016
-0.6037135 -0.1301781 -0.96315986 -1.2300596 -0.499697 -0.49022406 1.2690878 -0.5314472

weight_ih_l0 f4 [192, 17]
00000000: df53 0a3d e5f2 07bf 8c4b e4bd aa77 033e
00000010: 9458 363d 5c94 3ebc a83f 42be 0f8d b93e
00000020: 2a8f 823d 8d8b 93bd 9bcd 67be 19f6 85be
00000030: efc2 19bc 1b4d d0be f859 c4bd c280 d63c
00000040: f4f2 4fbd 37c4 273e 202d 833d de17 41be
00000050: 27a7 b5be 8f61 923e c05c 81be 56e9 b13e
00000060: 1a55 793e 8be3 a5bd cb92 cebd e2e9 21be
00000070: c0f5 883e cba4 50be 0fc3 1ebd 022d 9fbd
00000080: fdbd 2f3c bfaf 803d 2f15 94be 0899 e9be
00000090: 9573 4d3e 427d 8d3e b5c8 18be 661e 983d
000000a0: ce07 17bd e8a2 49bd e4a2 4fbe 3d40 733e
000000b0: 95ab 443d 6af2 2c3d e14a d9bc ba7c 123e
000000c0: aca2 a8bd 3424 8dbe 49ce 003c 3097 373d
000000d0: 8788 cb3e 6ee4 36be ece8 ccbc ddb1 a7bd
000000e0: c556 453e 5a34 a6be 4db5 53be 54de 923e
000000f0: b96d 84be a229 cbbc 3a8b 07be c23d 5ebe
00000100: 9367 863e bb42 8dbe f692 703e 7ad8 a1bd
00000110: 011f e43d 902c 22bd a78b b8be cb57 babd
00000120: 1c1c bdbd 1e23 f53e 645c 2ebe 841e d03d
00000130: 9c8f 063f fb3c 2f3d 7d45 43be 34a0 e63e
00000140: a493 b73c d7da 7cbe d3f4 b8bd 1a7b 483f
00000150: 82d8 cbbe 0b71 30be 9348 e1be e619 533e
00000160: 6658 60be ae59 01bd 5e24 d2bd 5a4e e63e
00000170: 496f 7bbe 2f8f 3dbe a0fa 7c3e 343a 913e
00000180: b6a4 a5be 43f6 cdbe 5a30 bd3d c508 c0be
00000190: 608d e3be 79b8 95ba 5849 1bbd eb0e 1cbe
000001a0: 9100 953d 9635 0c3e c763 62be 3555 eb3e
000001b0: 3065 37be b31f b6be fa04 5dbe bcf2 553e
000001c0: 29c4 473b f106 d3bd 4f6a 853d 2d94 a4bd
000001d0: a72d a93d f576 813d c47d bdbe 7b34 a43d
000001e0: 6710 cf3d 87a3 d43e 59a6 91bd 480e 10be
000001f0: 13e8 8ebe f18a 373e c7cc 06be 503d 213e
00000200: c276 fd3d 768c e8bd 6b99 8dbe 79ed 7abe
00000210: 1673 573f 1cdd 663e 8d8e 77be a1bd ad3e
00000220: 7460 c8bd 0d1f c8bc 333b 173d 8cdb dfbd
00000230: 653e 43be f087 85bc ed7d 1f3e 4393 97be
00000240: efca 1ebf ee34 1dbd f806 99be e984 f63e
00000250: 5bfe e1bd 68c6 27be b1ba dabe 2078 9d3c
00000260: 5466 203e ebc3 3ebe 1449 b13e 6f98 9a3e
00000270: 81dc 50be c34c c93e 88a1 64bd 802f 43bc
00000280: d9bd 09be f6d4 84be bf02 5fbe 00e4 de3e
00000290: 2b5b 843e 6250 07bd c1b2 2cbd a9b4 dfbd
000002a0: 4f15 5bbd d2bd 0ebc e220 94ba 8b3c 6f3e
000002b0: 25a3 14be 25f7 bc3e 3a88 dd3d a3a1 d4be
000002c0: 5fdd 023e a69b 27bf fffe babd 730a f9bd
000002d0: f73b 3fbd a47d fb3d d092 423e 64ef 823b
000002e0: 8b8d 56be b53d 443e 7985 7ebe 44bb 28be
000002f0: d9de 82be 5f3b 983e 72c4 a9be 2a06 b73e
00000300: cd1f 613e c7dd 933c 8460 0d3e bf0e dabe
00000310: 90bb 43bd 2b17 403c 14ef dfbd 9c9c 423c
00000320: 3042 17be 2a59 ac3e ce7e 27bb 17a5 0fbe
00000330: 2de5 dcbd 249b 68bd e2dc 8cbc aafb a73d
00000340: b50c 0abe a8ae 62be 5fa4 493e 16f0 6bbe
00000350: 1853 b63c 340d 1dbd 42b5 90be 66ef a83e
00000360: 7f5b 303e 73ee 8e3e 1874 a8bb b8aa e63e
00000370: 77a0 04bf 1ceb 73bd 8c8d 7f3e 27b3 8c3d
00000380: da25 94be e98f 213f cefe 283d 0c0e f33e
00000390: f2df 39be bfed 11bf 7f63 fbbc a182 19bf
000003a0: ace5 84be dd9f 993e 0ace 1a3e 9db9 d13e
000003b0: 7f3d a23d 3878 17be 4d92 4abd f42f 0ebf
000003c0: a933 ca3d 74e6 c83d 7e35 473e eeec cdbe
000003d0: 6640 94bd ada7 89be ff4e 64be 425f 353e
000003e0: e71f 973e 43c4 47be dae2 15bf 8bbc b6be
000003f0: ca46 1ebf 2829 dfbe a81c e8be 5a55 1f3e
0.033771392 -0.53105 -0.11147222 0.12838617 0.04451807 -0.011632051 -0.18969595 0.36240432
0.06374963 -0.072043516 -0.22637026 -0.2616432 -0.009384855 -0.40683827 -0.09587473 0.026184443
-0.050768808 0.16383444 0.06405091 -0.18856761 -0.3547909 0.28590056 -0.25266075 0.34748334
0.2434887 -0.08100041 -0.10086592 -0.15811875 0.26749992 -0.20375364 -0.03876024 -0.077722564
0.010726449 0.06283521 -0.28922412 -0.45624566 0.20063622 0.27634627 -0.14920314 0.07427673
-0.036872678 -0.049227625 -0.20276982 0.23754974 0.048015196 0.04222337 -0.026524963 0.14305392
-0.08234152 -0.27566683 0.007861682 0.044821918 0.397526 -0.17860577 -0.02501341 -0.081882216
0.19271381 -0.32461816 -0.2067463 0.28685248 -0.25864962 -0.024800126 -0.13236704 -0.21703246
0.26250896 -0.27589974 0.23493561 -0.07902618 0.11138726 -0.03959328 -0.36044046 -0.090987764
-0.09233877 0.47878355 -0.17027432 0.101620704 0.5256288 0.042782765 -0.19069476 0.450441
0.022409268 -0.24692856 -0.090310715 0.7831284 -0.3981362 -0.17230622 -0.44000682 0.20615348
-0.21908721 -0.031579666 -0.10260843 0.44981652 -0.2455417 -0.18511651 0.24704981 0.28364718
-0.32352227 -0.40226945 0.09237738 -0.3750669 -0.44443798 -0.0011422775 -0.037911743 -0.15240066
0.07275499 0.13692316 -0.22108375 0.45963445 -0.17909694 -0.3557106 -0.2158393 0.20893377
0.003048191 -0.10304058 0.065144174 -0.08036075 0.082606606 0.063215174 -0.37010014 0.08017822
0.101105504 0.4153101 -0.071118064 -0.14067948 -0.27911434 0.17924096 -0.13164054 0.15746045
0.12376167 -0.11354916 -0.2765611 -0.24504651 0.8415998 0.22545284 -0.24175473 0.33933738
-0.09784022 -0.024428869 0.03692169 -0.10930547 -0.1906677 -0.016300172 0.1557538 -0.2960454
-0.620284 -0.038380556 -0.2988813 0.48148277 -0.110348426 -0.1638428 -0.4272056 0.01922232
0.15664035 -0.18629424 0.34626067 0.30194423 -0.20396616 0.39316377 -0.05581811 -0.01191318
-0.13451327 -0.25943726 -0.21778391 0.43533325 0.25850806 -0.033035643 -0.04216266 -0.1092313
-0.05348712 -0.008712249 -0.0011301304 0.23362939 -0.1451536 0.36907306 0.10816999 -0.4152957
0.12779759 -0.65471876 -0.09130668 -0.12160196 -0.046688046 0.122798234 0.19001317 0.0039958227
-0.20952432 0.19164164 -0.24855603 -0.16477686 -0.25560644 0.29732797 -0.33157688 0.3574689
0.21984787 0.018050088 0.13806349 -0.42589375 -0.047786295 0.011724274 -0.109342724 0.011878159
-0.14771342 0.33661777 -0.002555776 -0.1402782 -0.10785899 -0.05678858 -0.017195169 0.08202298
-0.1348141 -0.22136939 0.19691609 -0.23040804 0.022256419 -0.03834267 -0.2826329 0.32995147
0.17222403 0.27916297 -0.0051407926 0.45052123 -0.5180735 -0.05955039 0.2495634 0.06870108
-0.28935128 0.63110214 0.041258626 0.47471654 -0.18151835 -0.57003397 -0.030687092 -0.5996495
-0.25956476 0.30004779 0.1511766 0.40961924 0.07921886 -0.14791954 -0.04945593 -0.5554192
0.09873135 0.098095804 0.19454 -0.40219826 -0.072388455 -0.2688574 -0.2229576 0.17712119
0.29516527 -0.19508462 -0.58549273 -0.35690722 -0.61826766 -0.43586087 -0.45334363 0.15559903

weight_hh_l0 f4 [192, 64]
00000000: 3b12 c33c 8ca2 ed3e 7f13 a23e 44af ae3d
00000010: 0ee3 0d3a de4d c7bd 2ddd 9c3d 0977 8a3d
00000020: 9fce 823e 02da 9fbd 8db0 53bd 9790 e6be
00000030: 2a55 85be cebd 6f3e 2840 993c b314 6abe
00000040: 325d 803e 3201 bbbd 935b d03e 3efe 403e
00000050: a5e0 c439 549a 8a3e 0a35 a9be 62a5 9f3d
00000060: 9ef5 d3bd 8a0c eabe 6107 45bd 5da6 e8bd
00000070: c4d6 7b3e a1a3 483e 3267 a5bd e9ab bcbb
00000080: 51b3 66bd ee15 453d 884b 0d3f c125 16be
00000090: 8fcc 8f3e 59ce 3f3f d24a ea3d 7288 033e
000000a0: 50f6 39bd 4adc 243e 4efe 7b3d 5a02 f1bd
000000b0: 526c 353e 9d7a 563d 4b4f 0e3d 63ba 07bf
000000c0: 6c00 aebe 1f7e 83be f325 733d c32b 563e
000000d0: f4a2 44be fc13 953c 604c a7be a753 053f
000000e0: cc5c 7a3e a770 853d 0a63 503c f698 24be
000000f0: 1321 b3be 1ad9 8eb9 a181 043f be89 6cbd
00000100: 96f4 80bd 0f64 51bc 34b3 2c3e 0ccf 38be
00000110: 5562 13bd f427 a8bd 838d 543e 4a1e 8fbd
00000120: f412 7abc 0258 25bf 6b25 e93e 1a0d 003e
00000130: fe8d e7be 4f82 a73d cec9 983e 0e6b da3e
00000140: 66cc 8a3d 13d1 0cbf 776e 703e 6082 d43e
00000150: aa67 51be edee 693e b4e6 4abe 1d3e 70be
00000160: fb93 afbe 834e b7be 978d abbe 31bd d93e
00000170: 0974 8d3e 3cb8 f63e a851 183e 7021 53be
00000180: d40c 893e e52b 2f3e 0e65 343e ca26 16be
00000190: 4c4f 4dbe b71e abbe 5ca0 df3e 91c9 29be
000001a0: e1bd 10bf fd6a 153e 8eef 5ebe ede5 8fbd
000001b0: 8559 0fbd 8a0d d13c eba2 a3be f204 653e
000001c0: 57c4 d6bd f284 96be 7ce5 91bd 90b5 ed3e
000001d0: ad99 7cbd 29f6 a03e 4968 b5be 31fc 8c3e
000001e0: 2ccf 283e 5715 033f 9399 ae3e 0eb1 c4bd
000001f0: e94e aabc e81b 623e 1372 cb3e 7504 30be
00000200: 4c29 b83d c963 1fbe 7c92 b73d 9e36 0dbe
00000210: 0049 133e 2a6d 81be caf2 8a3d 53b8 18be
00000220: cb97 45be 1d0b 623d 0230 8d3d 7bfc fabc
00000230: 0fff 16be 3649 273d 6a9f 453e 7035 28bd
00000240: 88d6 73bb 2732 073c be72 89bc d415 8bbd
00000250: 2e07 babe 4026 a1bd 0694 61be f563 3e3d
00000260: beee e8bd bb9d 143e cccd d0bd c37c 343d
00000270: 00cb f23d 9ba5 883d e103 bcbd 8473 d7bd
00000280: 5b34 aebe 8b69 c2bd 2b3d fc3d 4998 8e3d
00000290: 5bce 3bbe fd7a 9ebe 9c52 a03b e197 673e
000002a0: 6a65 aabe 1b8e 323d 0be3 0cbe 749a ee3e
000002b0: 6608 ca3d 1ef2 48be b92f 59bd 95ff 21be
000002c0: dd46 863e 053a e6bc 6f52 16bd 3e4b 66bd
000002d0: 74ca 643c 5762 b4bd 61d0 98bd 2e48 f43d
000002e0: bd87 023e c6f3 c23d eba5 7cbe e129 543d
000002f0: 599f 6fbe fbc6 7c3e b936 2d3e dcc1 83bc
00000300: 8ddc 4cbe be3b 32be bf29 5d3e b632 71be
00000310: 7487 0b3e 6dd0 8d3e 5686 093d f817 8b3c
00000320: b49d 723d 107f 513d 73e4 27be fb3a b13e
00000330: 3539 89bc 58fd 51be 2103 d53b 0d13 113e
00000340: ad3e 8d3d 95ec 68be d471 92be 32c2 4e3d
00000350: 63ec 9abd 9cf9 1ebe d6f7 de3d 22b1 70be
00000360: 52e9 d83d 4caa babd 4e24 9b3e 4119 db3c
00000370: c423 b63d 6a7f 24bd 0ac6 44be b032 b4bd
00000380: bc9a d43e 9430 09bd dce3 3dbe e60f a4bd
00000390: a6b3 363e f2ea 163e d42f 323e 6d73 52bd
000003a0: 5de0 71be 5ebc b23d 82b9 23bd 8680 1a3d
000003b0: 3cc1 27be 3cb1 873d af01 dfbd a337 e0bd
000003c0: ee74 913d d3b5 01bd 12a3 0a3e 656b 393e
000003d0: 01f0 883e eee6 9cbd 61dc f43c 8c68 863d
000003e0: 5bc6 f2bc e6f2 3abe 3618 413e caaa 0f3e
000003f0: edbb 993d 1d8e 483d b2ce 093f 9e29 57bb
0.023812404 0.46413076 0.316555 0.08529523 0.0005412557 -0.09731649 0.076593734 0.067609854
0.25548264 -0.078052536 -0.051682044 -0.45032188 -0.26041538 0.23412248 0.01870735 -0.22859459
0.25071102 -0.09131087 0.40694866 0.18846986 0.00037551406 0.27070868 -0.33048278 0.07795216
-0.10349582 -0.45712692 -0.04810274 -0.11359856 0.24593645 0.1959367 -0.080763236 -0.005757798
-0.056323353 0.048116617 0.55193377 -0.1466284 0.28085753 0.74924237 0.11440052 0.12845019
-0.045400918 0.16099659 0.06152182 -0.11768027 0.17717102 0.052363027 0.03474359 -0.5301878
-0.33984697 -0.2568216 0.059362363 0.20915131 -0.19202787 0.018198006 -0.32675457 0.5208077
0.24449462 0.06515627 0.012718925 -0.16073975 -0.3498617 -0.00027246104 0.517603 -0.05774855
-0.06296651 -0.0127802035 0.16865236 -0.18047732 -0.03598245 -0.082107455 0.20757107 -0.06988199
-0.015263308 -0.64587414 0.4553636 0.12504998 -0.4522552 0.08179151 0.29841465 0.426598
0.06777267 -0.5500652 0.23479639 0.41505718 -0.20449701 0.22845049 -0.19814569 -0.23461194
-0.34292588 -0.35802087 -0.33506462 0.42527154 0.2762759 0.48187435 0.148749 -0.20618224
0.267676 0.17106588 0.17616674 -0.14663234 -0.2004978 -0.3342187 0.43677032 -0.16580798
-0.5653973 0.14591594 -0.2177107 -0.07026277 -0.03499748 0.025519151 -0.31960234 0.22365168
-0.104866676 -0.29398304 -0.07123849 0.46427584 -0.061669994 0.31437805 -0.35431126 0.27536157
0.1648528 0.51204437 0.34101543 -0.09604083 -0.02078958 0.22080958 0.3973547 -0.171892
0.08992252 -0.15565409 0.089634866 -0.13790366 0.14383316 -0.25278598 0.067845896 -0.14914064
-0.19296186 0.05518638 0.068939224 -0.03063797 -0.14745735 0.040841304 0.19299093 -0.041066587
-0.0037206728 0.008251703 -0.016778346 -0.06791273 -0.36333603 -0.07868624 -0.22029123 0.046482045
-0.113736615 0.14513294 -0.10195503 0.044064295 0.118551254 0.06672212 -0.09180427 -0.1052008
-0.3402432 -0.09492787 0.12316354 0.0696264 -0.18340437 -0.30953208 0.0048926603 0.22616531
-0.33280498 0.043592554 -0.13758485 0.46602213 0.09864883 -0.1962361 -0.053024027 -0.15820153
0.2622594 -0.028103838 -0.03669971 -0.0562241 0.013964284 -0.08807819 -0.0746162 0.1192783
0.12747093 0.09519152 -0.24672668 0.05179775 -0.2340063 0.2468528 0.16915406 -0.01608365
-0.20006008 -0.17405602 0.21597956 -0.23554501 0.1362589 0.2769808 0.03357538 0.016979203
0.05923243 0.051146567 -0.1639574 0.3461531 -0.016750911 -0.20506799 0.006500617 0.14167424
0.0689672 -0.22746499 -0.2860247 0.050478168 -0.075646184 -0.15524906 0.10887115 -0.23505071
0.10591377 -0.09114513 0.30301136 0.02674544 0.088935405 -0.040160574 -0.19216171 -0.087987304
0.41524303 -0.033493593 -0.18543953 -0.08010845 0.17841968 0.14738062 0.17401057 -0.05137961
-0.23620744 0.087273344 -0.039971836 0.037720226 -0.16382307 0.06625602 -0.10888993 -0.10948112
0.07102381 -0.03166754 0.13538769 0.18107374 0.26745608 -0.07661234 0.029890241 0.065629095
-0.029635599 -0.18256721 0.18856892 0.14029995 0.07506547 0.048963655 0.53831017 -0.0032831202

bias_ih_l0 f4 [192]
00000000: 2cef ad3d 391a da3d 619d 143e f587 d53d
00000010: 5e75 b2bd b966 263d cee2 df3c 7efe 4cbc
00000020: e095 883c bfce 59ba 97cf 7f3e 5e9c 833d
00000030: 8f7e 3b3e 91b8 77bd 8d95 753e 064b 0cbe
00000040: 29f3 f93d 8151 323e f3ff a83d 0b11 193c
00000050: b86c d03e ab53 ca3e e418 5bbe 25a1 5839
00000060: e705 6f3e a1dc 6a3d caee 6c3e 1ce7 833e
00000070: ae8f ed3d be53 b13e 028c b0bd 8ba7 de3e
00000080: 79fa 3e3e 2ad1 d03e 2ada 2bbd 344a c6bb
00000090: 3685 80bc 32fd 273b 858f bc3b d922 be3c
000000a0: 4371 ea3c 4953 1d3d e3a4 82bd 1d2b 4abe
000000b0: e487 223d ec31 3e3e c99b 93bd 693a 503c
000000c0: af8c 363e 8282 3ebc dce5 8dbc 7f5c 493c
000000d0: a2f5 393e 1e27 a1bc 719e 3a3d bbec 073e
000000e0: a926 b03d 5739 e83c e11c 903c 3ad7 a73e
000000f0: 322e 77be cd18 f83d b6f6 933d 598f 6a3d
00000100: f977 0ebe 1cae e63d 7731 463c 8b02 9abb
00000110: a561 103e 0b3f a8bd ae52 4b3d 18e2 c0bd
00000120: e5ee 9bbd 02de a6bb a7da 7bbe fbd5 0dbe
00000130: 761d f6bd e050 9abb ea1b 83be c623 9e3c
00000140: 39dc 44bd 52ce f33d 7399 0bbd f8e2 f6bd
00000150: 5355 e8be 7c00 dabe 66d6 aebe 5b85 7f3d
00000160: 1421 a8be be34 4f3c 38e1 fe3d e2b4 debc
00000170: 2524 d93c d0f3 d4bd d1a1 0ebe a704 30bf
00000180: 977d f6bd 1521 a8be 5b6d 923d dfaf b1bc
00000190: 3be3 c13d 2a0f 0bbe 72fe 5bbe b827 4a3d
000001a0: 5cc9 2dbe 0a12 f9bd 48a1 393e 64e9 a83c
000001b0: 50c0 aabd 1d66 063b df57 f13d fca7 febd
000001c0: 559a 20be ef3f 8a3b cbdf 843d cbea e73a
000001d0: 209b 37be 9b3f 3ebe e0f0 f5bd 19b3 a43d
000001e0: 56c9 3ebe d224 49be 1713 1bbe 2777 04bf
000001f0: 751a 2fbd c444 c13d 391c 523e f43c 50bd
00000200: d7e4 d03d a5e2 3e3e e9bb 19bd 3b26 3abd
00000210: 1604 983d 7754 003e f451 1bbe 08dc a13e
00000220: e835 eebd cecd 443e 7eee 393e e724 1bbd
00000230: 91d0 013e e8f2 a03c 0f10 8a3e 5fea cdbb
00000240: 5e2d 64be 36f9 f6bd 2ec8 243d 0fdf 583e
00000250: 7317 b7be 34bc 9d3e 0b03 e93e 2ef8 e23d
00000260: 431c 65bd cd04 6bbd a65a 81be 5167 0f3e
00000270: a79a 1fbd b3c5 ae3e 137f 093c b3db f5be
00000280: 763d 933d 88b1 d33e 4297 86bc 6405 4a3e
00000290: c4f0 603b 2ea1 acbc 88e0 88bd 054f 603e
000002a0: 3945 f63d 9790 08bd b89c aebb 7809 9d3e
000002b0: fc33 42bd 7bcf 7dbe 8740 d73d 68f2 b23d
000002c0: f2c1 a0be c3b6 e23d 6519 b2bd 93ec 37be
000002d0: 219c 65bc ac91 6a3d a07c 773e 2ff4 8bbd
000002e0: 6abf 363d e53f 0a3e edcc 393e d8d0 bebd
000002f0: 0a0a 483d 7d5d 34be 50ae c9bc 0db0 23be
0.08492884 0.10649533 0.1451316 0.10426322 -0.08713792 0.040625308 0.027329829 -0.012511848
0.016673028 -0.00083087006 0.24981533 0.06426309 0.18309997 -0.06047875 0.2398283 -0.13700494
0.12204582 0.17413904 0.082519434 0.009342442 0.40707946 0.3951696 -0.21396214 0.00020659396
0.23342095 0.057339314 0.23137966 0.2576226 0.1159967 0.34634203 -0.08620454 0.434872
0.18650235 0.4078458 -0.041956104 -0.006051326 -0.01568852 0.0025633094 0.0057544135 0.023209976
0.02861846 0.038409505 -0.06379106 -0.19743009 0.039680377 0.18573731 -0.07207448 0.012709239
0.17827104 -0.011627795 -0.01732152 0.012290119 0.18160108 -0.019671973 0.045561258 0.132739
0.08601124 0.028347654 0.017591896 0.32781392 -0.24138716 0.121141054 0.07224791 0.057265613
-0.13912953 0.112636775 0.012096754 -0.00470001 0.14099748 -0.082151495 0.049639396 -0.09418124
-0.07613925 -0.0050923834 -0.24595128 -0.13851158 -0.12017338 -0.004709348 -0.25607234 0.019304167
-0.048061583 0.11904587 -0.034081887 -0.120550096 -0.45377597 -0.42578495 -0.34147948 0.062383037
-0.32837737 0.012646852 0.12445301 -0.027185861 0.026506493 -0.10398066 -0.13928916 -0.687571
-0.12035673 -0.3283774 0.07149764 -0.021690307 0.09467169 -0.13580003 -0.21483782 0.049354285
-0.16971344 -0.12161644 0.1812793 0.020619102 -0.08337462 0.0020507642 0.11784338 -0.12434384
-0.15683873 0.0042190473 0.064879976 0.0017693875 -0.17930269 -0.18578951 -0.12008834 0.08041973
-0.18631491 -0.19642952 -0.15144001 -0.5174431 -0.04274984 0.09436944 0.20518579 -0.05083938
0.10199898 0.18641146 -0.03753272 -0.045446616 0.07422654 0.12532221 -0.15167981 0.31613183
-0.116313756 0.19219133 0.18157384 -0.03787699 0.12677218 0.019647077 0.26965377 -0.0062840427
-0.22282931 -0.12059252 0.04022997 0.2117884 -0.35760078 0.3080765 0.45510134 0.11082493
-0.055935156 -0.057377625 -0.25264472 0.14004256 -0.038965847 0.34135208 0.008392113 -0.4801918
0.07189457 0.41346383 -0.016429547 0.19728619 0.0034323195 -0.02107295 -0.06683451 0.21905144
0.12024922 -0.033341017 -0.005328741 0.30671287 -0.047412857 -0.24786179 0.105103545 0.087376416
-0.3139797 0.11070015 -0.0869625 -0.1796134 -0.014014275 0.05726783 0.24168634 -0.06833684
0.04461614 0.13500936 0.18144579 -0.093171775 0.0488377 -0.17613788 -0.024619251 -0.15985127

bias_hh_l0 f4 [192]
00000000: 6b46 3d3e 3689 eb3d 37fa 4c3d c8cb 42bd
00000010: 10a1 21bd af0b 10be 82e7 0b3e a7df 733d
00000020: 6093 253d 5d47 813b 53d9 913e 7060 7d3d
00000030: d318 233e 70d2 28bd 03db 8c3e ec04 9cbd
00000040: 4688 153e 6bda 1f3d 6cca dcbc 5453 dc3d
00000050: 35a2 f93e 40d8 cf3e 0bb0 04be 605e 173d
00000060: 9272 303e 4e75 80bd aebf 59bc 0f2c 093e
00000070: 3097 9e3d a75d 833e 3638 fcbd ad7f c33e
00000080: c35a 373e 519b 9e3e 924d 983c c726 6f3c
00000090: 14cc 29be 7886 833d 1711 bbbd 8950 0f3e
000000a0: 9157 fb39 3214 1e3e 25c2 b1bd 71f0 51be
000000b0: 8ebb be3d df4a 8b3e 8877 c43c 5985 933d
000000c0: 6bf3 9b3e 451c 26bd e3a0 c6bd 5b16 a3bc
000000d0: 3606 bf3d 37ac 81ba abec d13d 5252 2c3e
000000e0: 1526 953d efa8 d2bc 4b2c 20bd 1270 2f3e
000000f0: 218d 36be 35fb 683e e47a 24be 422f 3f3c
00000100: 810e b9bd c75d 9fbc a3fe 72bd d61e 073e
00000110: e63d 683e a546 4abd 7b35 9dbd 409d acbd
00000120: 8d43 883c 7618 d23d d46f 93be 2570 d6bd
00000130: 1005 b5bc acba 3e3d eb90 9ebe dc72 f0bc
00000140: 7f1a 0d3e 82c9 553c 330b c93d 2646 66be
00000150: 30e7 b3be 6644 babe 640c 8bbe a773 b7bd
00000160: d249 25be 0b09 ab3d c4e1 f03d 3974 713d
00000170: c356 edbd b923 6fbe 7608 d23d 1c32 1abf
00000180: 7c64 81bc ad2b 95be 7b3e 2f3e 5cc2 1ebe
00000190: 5d1c 8f3d c5ea 973d 1088 c1ba d570 21ba
000001a0: 898d b6bd 864f 33bd 6d42 873e 2ea1 18bd
000001b0: 3ee9 27be 4cec c53d 09d9 093e 0dd5 9ebd
000001c0: 25b7 aabe 9fa2 77bd 0739 d9bb e360 bf3a
000001d0: e574 eabd d371 70be c93e dfbc 59b3 813b
000001e0: 8907 88be 697b 98bd 833d a8bb cd2b 0abf
000001f0: 62e6 ec3d 2e2f 2d3e c297 813d 045e d9bc
00000200: eb79 3c3e fa29 563e c6d0 efbc a43e e43c
00000210: 83de 163d 2b07 6a3d cc02 a1be 7d96 db3e
00000220: 3d93 08bc efec d23e c223 9b3d ac4d f5bd
00000230: 7f66 6fbc 1354 d5bc 3786 f13d d7e1 783e
00000240: acf3 4abe acc4 5abd 71f8 773e 39e5 ce3d
00000250: cc91 b6be e450 073f 832a 0dbe 577f 223e
00000260: 342a 36be f488 e4bc d5c9 21be 362a 813e
00000270: 4253 463e 258e 443e 3659 ba3d 4b12 fdbe
00000280: 8ef1 13bd 8e85 393f a3c3 33be 6f35 e73d
00000290: 8bc2 163d 3260 96bd fe27 26be 7fd5 923e
000002a0: 91b1 a43e e92a 763d 4a4a 0c3e a1f2 ddbd
000002b0: 5499 643e b01d 55be 905f e53e 4b26 bebd
000002c0: 3246 51be bc00 563e ad32 34be e35a 8cbe
000002d0: 0626 0bbc afda e4bc c763 da3e fc85 0bbe
000002e0: 3da6 2dbd 3b40 243c cf7e bbbd 1484 88be
000002f0: 3ba2 2e3e dccd 40bc ccce a0be bbf1 2a3e
0.18483894 0.1150078 0.05004331 -0.047557622 -0.03946024 -0.14066957 0.13662532 0.059539463
0.04042375 0.0039452747 0.28486118 0.061859548 0.15927438 -0.041216314 0.27510843 -0.07618126
0.14602765 0.03902666 -0.026951991 0.10758081 0.48756567 0.40594673 -0.1295778 0.036955237
0.17231205 -0.06272374 -0.013290329 0.13395713 0.077436805 0.2565739 -0.12315409 0.38183346
0.17905717 0.30977872 0.018591676 0.014596648 -0.16581756 0.06422132 -0.09134119 0.13995565
0.00047939693 0.15437391 -0.08679608 -0.20501877 0.09313117 0.2720556 0.023982778 0.072031684
0.3045915 -0.040554304 -0.096986555 -0.01990812 0.093273565 -0.0009893243 0.10250219 0.16828278
0.07282654 -0.02571532 -0.03910474 0.17132595 -0.17827274 0.22752078 -0.16062504 0.011668982
-0.090359695 -0.019453896 -0.05932487 0.13195357 0.22679862 -0.049383778 -0.07676216 -0.084284306
0.016633773 0.10258572 -0.28796256 -0.104706086 -0.02209714 0.046564743 -0.3096994 -0.029351644
0.13779639 0.0130485315 0.09816589 -0.22487697 -0.3513732 -0.3638031 -0.2715789 -0.08957606
-0.16141441 0.08351334 0.117618114 0.05894873 -0.11588814 -0.23353471 0.1025552 -0.6023271
-0.015794985 -0.29134884 0.17113678 -0.1550383 0.06987832 0.074178256 -0.0014765281 -0.0006158476
-0.089137144 -0.04377701 0.26417866 -0.037263088 -0.16397569 0.09664211 0.13461699 -0.0775548
-0.33342853 -0.060457822 -0.0066291126 0.0014601018 -0.11448077 -0.2348092 -0.027251618 0.0039581475
-0.2656825 -0.074454136 -0.005134286 -0.53973085 0.115673795 0.16912529 0.06327774 -0.026534088
0.18405883 0.2091445 -0.029274356 0.0278619 0.036833297 0.057135742 -0.31447446 0.4288825
-0.008335886 0.4119639 0.0757518 -0.11977705 -0.014611839 -0.026041066 0.117931776 0.24304901
-0.19819516 -0.053410217 0.24215867 0.101023145 -0.3565811 0.52857804 -0.13785748 0.15868889
-0.17789537 -0.027897336 -0.15799649 0.25227517 0.19367698 0.19194849 0.09099047 -0.4942802
-0.036119036 0.72469413 -0.17555098 0.112894885 0.036806624 -0.073425665 -0.16226193 0.2867851
0.32166722 0.060099516 0.13700214 -0.108372934 0.22324115 -0.20812106 0.4479947 -0.092846476
-0.20436934 0.20898718 -0.17597456 -0.2741309 -0.008492952 -0.027936308 0.4265425 -0.1362533
-0.042394865 0.010025079 -0.09155046 -0.26663268 0.17054074 -0.011767831 -0.31407773 0.16693775

weight_ih_l1 f4 [192, 64]
00000000: 367f c7bc a28b 6cbc 9884 083d e695 eb3d
00000010: 5afb 2e3e f6e2 b0bd cc69 713d cfd5 743e
00000020: 97d9 5ebd 9e32 4c3c 4652 f83d 24e0 a0bc
00000030: 3eb9 863e 95a5 0cbd 2389 083e 15b3 26bd
00000040: a84d c0bd 1a6a dc3d 28b2 863d 1299 863d
00000050: e579 04be 79df 94bc 75e9 a3bc 28a8 afbd
00000060: e56c 33be e2dd 643d aefc 853e 4c13 383e
00000070: 6844 c3bc 28ad ccbd 7fb2 833e 6ea9 603d
00000080: 48ae 253d 1e25 c0ba db55 713d 18fb 16be
00000090: bc2f 34be 92cd 9cbc e9d2 48be 0d13 afbd
000000a0: c56f 6a3e 733c 21bd bb23 30bd 2a20 213e
000000b0: 203c 1ebe bb15 94bd 7220 a03b 88aa d6bd
000000c0: b701 78be a069 6abe adeb be3c c27d 303e
000000d0: 3139 b9bb f379 14bd 38e5 193d 7ebf 963c
000000e0: 4c7f bd3d 6aa1 ff3b 4173 2f3e 740c 8e3d
000000f0: 97ea 5b3e 87ea 5dbc e888 56be 9583 72bd
00000100: 77b0 353f b3ef 493e e1f6 87be fd29 cd3d
00000110: a376 e53d 60ff b3be ee8a a53d 127f b8be
00000120: f77c fdbd c8a7 083e 9a93 133e 1fcf a0bd
00000130: f59e 92bb 93ff 8abc 52a7 3a3e 6984 893d
00000140: 92b1 18be c847 6ebe f969 dbbd 4096 473d
00000150: 201a cabe d545 233e a1f3 c0be bd1d 9c3e
00000160: 67ec 1ebe a053 d63d d461 6e3d 3117 6abc
00000170: 737c 633c f6f1 8a3e a988 f1bc 6b8f 79be
00000180: 834e 313e b147 22be fc6d 8f3c 4365 82bc
00000190: 2320 e8bd ee65 8cbd b2ed 7cbd ca03 0b3e
000001a0: b53c dfbc 33c7 d23e 38ba dbbc ba1a b6bd
000001b0: 55cc d73c 1180 10bd 0910 9b3e 761f 06be
000001c0: 642b d63e 86a3 c23e c84b 113d d350 21be
000001d0: b661 523d 7d17 493e 7ab0 06be e758 81be
000001e0: 2fe5 0a3e 5d42 9fbe 8e3b efbc 98b8 90be
000001f0: 504a 3fbd 09f2 62be a600 d93c f529 533e
00000200: 8371 15be c7d0 6b3d 04b8 2dbd d10f f2bc
00000210: d7e7 5abe a2d2 e13d ff90 1e3e 5d38 b2bb
00000220: 8e1b d7bb 01bf 9ebd 13b1 36be d9ab 033e
00000230: 8936 473e 6148 223c d744 0c3d effc 4cbe
00000240: a14d 3fbe 765b 94bd 511b 09be d2b1 5bbe
00000250: eed2 203e 48c7 05be 81ac a83d 45c9 0cbe
00000260: dee7 e73c 0023 c03c 5a8a 263e e546 9abd
00000270: 15e0 533d 6633 51be 4f66 58be 6a77 893e
00000280: 8076 883c 700f 82be f020 b43d fab9 aebd
00000290: e220 82bd 1672 c9bd c00c 1f3d ad6d b1bd
000002a0: e261 07be d7f6 c8bb fd4c 28be 5b8b 72bd
000002b0: b0e5 453c b9d7 a43e 74f9 453d 48a0 c5bd
000002c0: 25e2 f43d 9906 e4bc 7724 6a3d 40af cf3d
000002d0: 858c 9c3e 842b 393d 540d 9cbd 9c26 8f3d
000002e0: 5744 44be 5d4c 49be 194e d4bd ac26 213e
000002f0: cfb5 f3bd d74b 073d 5b80 973d 83a8 99bd
00000300: 17a3 38be ff78 2c3c f991 013d 39e7 5cbd
00000310: 1aa7 00bd adf9 4a3e 430c 0abd 39f8 6f3e
00000320: 4c89 55be 3103 0a3c 9a7e 5cbe 3fde 37be
00000330: c162 0e3d 7f0c bdbe 5268 5dbe 546e 1fbd
00000340: 365a 7e3e 0fdc cd3d 3ebe 84be 738d e23c
00000350: 01c2 b63d 5e96 48be 3600 abbd b920 d5bd
00000360: 2408 f83d 20ad 0d3e 2302 293e 61f8 15be
00000370: 295c 963c bce5 a1be 4271 acbd 6fe9 9e3e
00000380: 12cb 023e d65f a0bc a0c7 763d e457 633e
00000390: 7842 55be b5fe 3cbd c154 bbbc c94d 373e
000003a0: 18f8 9e3d ac4b a3bd caa5 af3d 4590 233d
000003b0: 1f6e 103e c2b9 8cbd 648a 10bd f1af 31be
000003c0: efcb 09be a791 443e 209d f6bc e48c 5bbe
000003d0: 7d81 453d 11bb d53d 3ec0 693e ffb8 5a3c
000003e0: 859c 353c 5ec5 e8bd 9da1 a7bd cfdc 263e
000003f0: 01d1 9e3d 57f1 4ebc da6d 01be 1cd5 cfbd
-0.024352651 -0.014437588 0.033329576 0.115032 0.1708807 -0.08637039 0.058938786 0.23909687
-0.05440673 0.01246324 0.121250674 -0.019638129 0.26313204 -0.0343376 0.13333564 -0.04069813
-0.09389812 0.10762425 0.06576949 0.065721646 -0.12937124 -0.018172966 -0.020008782 -0.08576995
-0.17522009 0.055875666 0.26169342 0.17976111 -0.02383633 -0.099939644 0.2572212 0.05484908
0.04044941 -0.0014659499 0.05891977 -0.14744222 -0.17596334 -0.019140992 -0.19611706 -0.085485555
0.22894199 -0.03936429 -0.043002825 0.15734926 -0.15452623 -0.07230707 0.0048866803 -0.10481745
-0.24219404 -0.22891855 0.023305738 0.17235473 -0.0056525697 -0.036249112 0.037572116 0.018401857
0.092527956 0.0078012245 0.1713381 0.06935969 0.21476208 -0.013544685 -0.20950663 -0.059207518
0.7097239 0.19720344 -0.2655554 0.10017774 0.11204269 -0.35155773 0.08083139 -0.36034447
-0.12377351 0.13345253 0.14411774 -0.07852005 -0.0044745156 -0.01696757 0.1822789 0.06714708
-0.14911488 -0.2326957 -0.10713572 0.048727274 -0.39473057 0.15944608 -0.37685874 0.30491439
-0.15519868 0.10465169 0.058198765 -0.014287756 0.0138846515 0.27137727 -0.02948411 -0.24371116
0.17315106 -0.1584766 0.0175085 -0.015917426 -0.113342546 -0.06855379 -0.06175012 0.13575664
-0.027250627 0.41167602 -0.026822194 -0.088918164 0.02634255 -0.035278384 0.3028567 -0.13097939
0.4182998 0.38015383 0.03547266 -0.15753488 0.051362716 0.19637866 -0.13153258 -0.2526314
0.13563989 -0.3110532 -0.029203203 -0.28265834 -0.04670173 -0.22162642 0.026489567 0.20621474
-0.14594083 0.057572152 -0.04241182 -0.029548557 -0.21377502 0.11026503 0.15484999 -0.005438848
-0.006564564 -0.07751275 -0.17840986 0.12858523 0.19454397 0.009904952 0.03424534 -0.20018362
-0.18681957 -0.07244007 -0.13389327 -0.21454552 0.15705463 -0.13064301 0.082360275 -0.13748653
0.028308805 0.02345419 0.16263714 -0.07533053 0.051727373 -0.20429763 -0.21132778 0.26848918
0.016658068 -0.25402403 0.08795345 -0.08531566 -0.06353928 -0.09836213 0.03883052 -0.08663497
-0.13220933 -0.006132941 -0.16435619 -0.05921493 0.012078688 0.32195833 0.0483336 -0.09649712
0.11957196 -0.027835177 0.05716368 0.10140848 0.30575958 0.045207515 -0.0761973 0.06989786
-0.19166695 -0.19658037 -0.103664584 0.15737408 -0.118999116 0.03303131 0.07397529 -0.07502844
-0.18030964 0.010526895 0.03163335 -0.05393145 -0.03140936 0.19821806 -0.0337031 0.23434533
-0.20853156 0.008423612 -0.2153267 -0.17955874 0.034762148 -0.36923596 -0.21621826 -0.038923576
0.248391 0.100517385 -0.25926393 0.027655339 0.08923722 -0.1958861 -0.083496496 -0.10406632
0.12110928 0.13835573 0.16504721 -0.1464553 0.018354492 -0.31620586 -0.0842004 0.3103747
0.12772778 -0.019576948 0.06024897 0.22201496 -0.20826137 -0.046141345 -0.022867562 0.17900766
0.07762164 -0.07973418 0.08576544 0.039932508 0.14104508 -0.06871368 -0.03528823 -0.17352273
-0.134567 0.19196187 -0.03010422 -0.21440464 0.048219193 0.10436071 0.22827241 0.013349771
0.01108468 -0.1136577 -0.08185122 0.1629517 0.07754708 -0.012630782 -0.12639561 -0.10148069

weight_hh_l1 f4 [192, 64]
00000000: 6a49 2dbe f684 0fbe d615 8fbe 99f3 0bbd
00000010: 25d1 143e 6b49 3b3e 56e4 923d 45db 903e
00000020: aafd 783d 8594 493b 5c51 123e 7be9 103c
00000030: c7b4 dbbd 2d06 25be 3023 3abe 7a5b 083d
00000040: 8b94 903d 51f1 eebc b024 61bd a554 683e
00000050: 9f9d cebc e986 993c c559 b83d 5867 82be
00000060: 1f74 eb3d 27b5 773d d600 7a3c 2abe 91bd
00000070: ba58 14be 9260 53be 7fab 9ebd 0dcb 82bb
00000080: bc7c 51bd f773 f93d 085d d4bd 4f7a c83d
00000090: 2505 0ebe 90a1 7c3d ce51 09be 1788 7cbb
000000a0: 78e1 08be 59be 09be 5701 aabd 85eb 48be
000000b0: 8cc2 68bd 0f79 53be 77a5 8abe db32 5ebe
000000c0: c1e1 4abb bfdd e0bd 94e6 4f3e c47b 71be
000000d0: 48a0 fa3c f16b c83c 59ee 263e 58b2 803d
000000e0: 8e43 9b3d 27b9 0b3e af87 48be 22dd 74be
000000f0: 1475 d23d ac93 e1bd 0b36 ab3e b80f 91be
00000100: 62a5 3cbe 96cc 98bc e8b8 b8bc e150 cdbd
00000110: 2ec4 edbb 2b96 abbd 5918 31be 5e44 183e
00000120: bf2d 7f3e bb23 d23d 590b 0ebe 556a 433e
00000130: b76d a43c 52da cdbd 6311 29bd fec0 4ebd
00000140: a55e 4bbe cb95 20bc 9adf a03e f798 e93d
00000150: e4c1 553e dc76 993c 848b 95bd 8026 8e3c
00000160: 1164 a7bd d8f7 6ebd 0d01 db3d d5dd c5bd
00000170: 5b09 e83d 6b11 b2bc c25e 893d a967 ba3d
00000180: d030 edbb 9f3f d13d cab5 88bd 3d0f 393e
00000190: 0817 6bbe 0bdf fe3d a5ce 8dbd a6da b23e
000001a0: 61f0 fd3c 379a 02bd 2f4b b63d a4a4 3bbe
000001b0: d84e 713d bf5b 5d3d 331a 003c 5e26 4b3e
000001c0: 8af8 053e e5cc 72bc 205d 7b3e 18ea abbd
000001d0: f9ef 26bd 1321 013e 7fe6 9bbc db5d a93d
000001e0: 1855 bfbd e04d aabd d376 6f3e 9c6d fabd
000001f0: 7112 d2bb ae32 f6bd c205 2cbd c9a5 02be
00000200: a944 abbe 9762 95bd 4632 01be 3288 93bd
00000210: 338c a23d 39b6 043d bb99 483d 66d1 d33e
00000220: 8871 7e3d 632d 4c3e 023f 023e d159 c83d
00000230: a66e d5bd 91ae a0bd 4e08 63bd 3fb6 2ebd
00000240: 231b 0e3e 12d5 193e 3295 febc 389f bd3d
00000250: 62cc 713e 16e8 b5bd 69c0 ce3d 4c79 09bd
00000260: b20d 2a3e d8f5 e03d 2afc 24bc 4ce3 c8bc
00000270: 21c6 43bd 3097 89be 6eb3 35be bafc 14be
00000280: f1fa f3bc 9c10 8f3e 65da c9bd c3ab 803e
00000290: 52b4 fbbe 810c a9bc ec01 bcbe d956 13be
000002a0: 2115 183e 5bbf 14be 059f 1fbd b2bb 71be
000002b0: c4ec 38bd 0c5a b2bd 1643 bfbe 05c6 23be
000002c0: f084 1c3d 2ace a63d 7a91 7d3e 3e0c 7cbe
000002d0: 4d59 da3d 86bb 25be 8969 063e 693b ba3d
000002e0: 185e ee3d 0bec 243e 6c9c c53c 245e c2bd
000002f0: 5abc 78bd bcb4 053d 349d b63e f1fe 7dbe
00000300: 7699 a93b 6ab3 2ebd 368e 1cbe 7365 553e
00000310: 5b6c b2bc 3670 653d d80b 133e 10b2 813e
00000320: 9823 99be 8dbe 573e 7b11 203d 0c95 1c3e
00000330: 3f5f 663c f6aa 09be 7464 2dbe 6357 6f3e
00000340: cdac 023e 87ac 703e fd75 0fbe 8e78 d53d
00000350: abef b83d c802 3f3b d3c3 453e 7229 61bc
00000360: 98ba 9f3d 8e10 483e 27c0 173e 8d7b 11be
00000370: dd8f 71be b558 323d 55a4 98bd 2d1a 12be
00000380: bf78 9c3d 58a7 1d3e d762 72be 78b8 2a3e
00000390: 1f5e 49be f273 76be 191f 0bbe 3aa7 40be
000003a0: 63a4 a9be dab9 50bd 00fe 40be 00c9 75bd
000003b0: eb3a 4bbd a8bf 66be d9ac 0cbd 769f 84bd
000003c0: 4679 1c3e cc5a 5ebc 1292 9b3b 76f6 6fbe
000003d0: 1ef5 123d ba86 adbd 8891 4a3e 2434 3e3e
000003e0: 1016 273e b95f 55bd 611c 353e 4867 40bd
000003f0: c8e1 4f3e 72ee 613c 5857 0e3e 411f bcbd
-0.16922536 -0.14015564 -0.27946347 -0.03416786 0.14532907 0.18289725 0.07172458 0.2829229
0.060788788 0.003075869 0.14288849 0.008844729 -0.1072784 -0.16115637 -0.18177485 0.033290364
0.07059582 -0.029167803 -0.05496663 0.2268854 -0.025221644 0.018741088 0.09001497 -0.2546947
0.11496758 0.060475495 0.015258988 -0.07116349 -0.14486971 -0.20642307 -0.07747554 -0.0039914907
-0.051144347 0.12180322 -0.10369307 0.097889535 -0.1386915 0.061677516 -0.13410112 -0.0038533264
-0.1336726 -0.13451518 -0.08301037 -0.19621094 -0.05682616 -0.20651649 -0.27079365 -0.21699087
-0.0030957314 -0.10979795 0.20302802 -0.23582369 0.030594006 0.024465533 0.1630186 0.06284016
0.075812444 0.13644849 -0.19583009 -0.2391248 0.10276237 -0.11014494 0.3343967 -0.28332305
-0.18422464 -0.018652242 -0.022549108 -0.10025192 -0.0072560525 -0.08378252 -0.17294444 0.1486983
0.24919794 0.10260721 -0.13871516 0.19083531 0.020071847 -0.10051407 -0.041276347 -0.05047702
-0.19860323 -0.009801338 0.31420594 0.11406129 0.20874745 0.018733434 -0.07302001 0.017352343
-0.08173383 -0.05834183 0.1069356 -0.09661452 0.113299094 -0.021736821 0.06707527 0.09101803
-0.007238485 0.10217213 -0.066752985 0.18072219 -0.22958004 0.12444886 -0.0692418 0.3493244
0.03099841 -0.031885352 0.08901059 -0.18324524 0.058913082 0.054042574 0.007818746 0.19838855
0.13083091 -0.0148193585 0.24547243 -0.08394259 -0.0407562 0.12610273 -0.019030808 0.08269855
-0.09342402 -0.08315635 0.23385172 -0.122279376 -0.00641089 -0.12021385 -0.04199768 -0.12758555
-0.3345082 -0.07294195 -0.12616834 -0.072037116 0.07936897 0.032400344 0.048974734 0.41370696
0.06211999 0.19939189 0.12719348 0.09782756 -0.10421495 -0.07845796 -0.05542784 -0.042654272
0.1387754 0.15022686 -0.031077001 0.09258884 0.23613122 -0.088821575 0.10095293 -0.033562943
0.16606787 0.10984391 -0.010069886 -0.024522446 -0.047796372 -0.2687316 -0.17744228 -0.14549533
-0.029782744 0.2794236 -0.098561086 0.25131044 -0.4916101 -0.020635845 -0.36720216 -0.14388599
0.1485181 -0.14526121 -0.038970012 -0.23606756 -0.045147672 -0.08708581 -0.3735587 -0.15993507
0.038212717 0.081447914 0.24762526 -0.24614045 0.10661564 -0.16184816 0.13126196 0.09093363
0.11639041 0.16105668 0.02412244 -0.09490612 -0.0607265 0.032643065 0.3566681 -0.24804284
0.0051757647 -0.04265157 -0.15288624 0.20839481 -0.021780184 0.056015216 0.14359987 0.25331163
-0.29909968 0.21068783 0.03907917 0.15291232 0.014060794 -0.13444123 -0.16932851 0.23373179
0.12761231 0.23503314 -0.14009853 0.104233846 0.09030088 0.0029145945 0.19312982 -0.0137427915
0.07799262 0.19537565 0.14819394 -0.14207287 -0.23590036 0.04354163 -0.07453219 -0.14267798
0.07640218 0.15395868 -0.23670517 0.16671932 -0.1966481 -0.24067667 -0.13586082 -0.18813792
-0.3313323 -0.05095849 -0.18846893 -0.06000614 -0.049616735 -0.22534049 -0.034344528 -0.06475727
0.15280637 -0.013571452 0.0047476375 -0.23433861 0.035878293 -0.08472963 0.19782078 0.18574578
0.1631701 -0.05209324 0.17686607 -0.046973497 0.20300972 0.01378976 0.13900506 -0.09185649

bias_ih_l1 f4 [192]
00000000: 3c49 633e eef6 2d3e 3c53 26be 414f 43be
00000010: b9e2 3b3e 5227 9c3e ac1b 25bc 4d0d e33c
00000020: 7fc0 db3c 8180 5e3e 0f7d 363e 6773 523d
00000030: 6d9b f4bd 18bd bc3e 9c59 d23e b28d 59bd
00000040: 1d82 573e 36b5 193e 2371 22be 5bc2 703b
00000050: 2c86 9f3c 7342 083c 4e4c 143d 1761 eabd
00000060: af9d b83d ffbd 983d 4e47 6f3e 41d5 063d
00000070: c2f0 ea3d 1512 95bc 59e6 6e3e eb88 8bbd
00000080: a740 1c3e cbbf ce3d ba3b 933e c7a2 263d
00000090: cbeb 963d ecec 393e 78ce d83d 6d17 853e
000000a0: 3b8f 25be 5a0a 163e d968 21bc 825e 0bbe
000000b0: 3390 7b3e 0cff c3bd c8c0 b5bd b0a0 13be
000000c0: 0add 7b3e fa80 363d 7b70 013c dd97 96bd
000000d0: da29 2c3e cc75 22be e458 673e fe0f 983c
000000e0: 99c3 343e ed8d b23d 8b1d c83c 5168 b0bc
000000f0: c590 af3e 4931 0b3e b46f c7bd 4e72 0fbe
00000100: a6f5 313d f705 d03b d08c 993d 234f 8b3d
00000110: e7fd 15be e727 67be 1051 96bd 9a4a af3a
00000120: 548a c9bc 3c27 16be d367 1fbd 343b a1bd
00000130: 1035 213e 79ed 57be 252a 92be 48ac 13be
00000140: 0826 3b3d 6087 7ebe e10b 5c3d 3870 c8bd
00000150: 49c3 25be 0731 4e3c eb26 1cbd 20ce 9d3d
00000160: 7536 0b3e 9cb0 f1bd 185f efbd ddf0 8fbd
00000170: 83bc 32be 2d33 92bd 15df 83be 01d7 463e
00000180: 46e4 773d ea71 1dbd 03d3 873c e0e5 3abe
00000190: 4b1e fbbd 4c87 d6be 2680 a5be 446d 4d3d
000001a0: dacd c13d 12b8 533d c4dd 383e f35c 10bd
000001b0: b9a5 34bd b607 ff3b f9de d0bd 95b7 11bd
000001c0: 8219 87be 3da1 42be 9b69 53bb 2fec 53be
000001d0: ce14 abbe 48c9 89bd 4048 fabd 6e0c 26be
000001e0: 2ff0 debd a153 72bc a6f0 dabd 99d7 c5bd
000001f0: 2d91 b5bd 91c3 28bd f1d5 23be 8a36 1cbe
00000200: a35f d53c 5d8a 793e c8eb 403e f61a 073e
00000210: a11d b8be 0811 94be 420e 033e 3978 b6bc
00000220: 100a 40be 5653 2abe 3ec0 2abe 5312 9bbd
00000230: 9dc0 993d e85e 9f3e a526 ca3e 56f5 30be
00000240: b825 0dbd a250 8bbe f225 0bbe 5085 0f3d
00000250: f5f3 f5bd dc30 da3d 09aa c4bd cbe0 073c
00000260: 5d75 973c 3103 e4bd 68ba 85be 61d5 793e
00000270: 5173 a43e 8a42 ed3d cb56 5d3e fe66 043e
00000280: d257 1c3c a784 34be d542 d73d 27b3 e23c
00000290: 4f48 9c3d b827 8a3e 68ab 763e 3ca0 c5bd
000002a0: d643 063d aac7 a33e 4a71 ba3d e4e3 e23d
000002b0: a1de 343e 5d4d d43d f38e 89bd be69 bf3d
000002c0: de6c 4ebe d5f7 863e 0972 b53b 3434 b83b
000002d0: f61f a3be 901c 8c3d a436 acbe 3b8b f7bd
000002e0: 2764 5fbe e56e 04bd 5328 773d 2aa0 b63d
000002f0: faba 3abe 80a6 623e 8751 13be d8ee 813e
0.22195905 0.16988727 -0.16242689 -0.19073202 0.18348207 0.3049875 -0.010077398 0.027716303
0.026825188 0.21728708 0.17821144 0.051379588 -0.119437076 0.36863017 0.41083992 -0.053113647
0.21045728 0.15010533 -0.1586347 0.0036736939 0.019473158 0.008316624 0.036205582 -0.114443
0.09014451 0.07458114 0.23367044 0.03291822 0.11471702 -0.018197099 0.23330058 -0.068132244
0.15259038 0.10095175 0.28756505 0.04068258 0.07369193 0.18156785 0.10586256 0.25994435
-0.1616792 0.14652386 -0.009851658 -0.1361027 0.24566726 -0.09570131 -0.08874661 -0.14416766
0.24596038 0.044556595 0.007900353 -0.07353184 0.1681284 -0.15865248 0.22592503 0.018562313
0.1765274 0.087184764 0.02442815 -0.021534117 0.34290138 0.1359302 -0.097381026 -0.14008448
0.04344716 0.0063483673 0.07497561 0.068022035 -0.14647637 -0.22573815 -0.0733968 0.0013373673
-0.024602093 -0.14663404 -0.038917374 -0.0787262 0.15742898 -0.21086682 -0.2854778 -0.14421189
0.045690566 -0.24856329 0.053722266 -0.09787029 -0.16187777 0.012584931 -0.038123053 0.07705331
0.13594992 -0.11801264 -0.116880596 -0.07028363 -0.17454724 -0.07138667 -0.25756136 0.19417955
0.060520433 -0.038438715 0.01658011 -0.18251753 -0.12261637 -0.41900098 -0.32324332 0.050153032
0.09463091 0.051689215 0.18053347 -0.035244893 -0.044103358 0.0077829016 -0.10198779 -0.035575468
-0.26386648 -0.1900682 -0.003225899 -0.20695566 -0.3341431 -0.067278445 -0.12220812 -0.16215679
-0.10885655 -0.0147904465 -0.10690431 -0.096602626 -0.08865581 -0.04120213 -0.15999581 -0.1525518
0.02604658 0.24369188 0.18839943 0.13193879 -0.35960105 -0.28919244 0.12798408 -0.022274124
-0.18753839 -0.16633353 -0.16674897 -0.075718544 0.07507441 0.31127095 0.39482608 -0.17281088
-0.0344598 -0.27209955 -0.13588694 0.035039246 -0.12009422 0.106538504 -0.09602744 0.008293341
0.01848858 -0.11133421 -0.2611878 0.24397804 0.3211923 0.11584957 0.2161514 0.12929913
0.009542422 -0.17628728 0.10510794 0.027673317 0.07630979 0.26983428 0.24088824 -0.09649703
0.032779537 0.3198827 0.091036394 0.11078623 0.17663051 0.103663184 -0.067167185 0.093463406
-0.20158717 0.26360956 0.0055372757 0.0056214575 -0.31860322 0.06841385 -0.33635437 -0.12087103
-0.21815549 -0.03233232 0.06034119 0.089172676 -0.18235388 0.22133827 -0.14386569 0.25377536

bias_hh_l1 f4 [192]
00000000: 29a7 1a3e bd0f e93d ce90 10be e7dc 36be
00000010: 6bcd a23d 93fb 983e 0b6e a43d 91ad 3dbd
00000020: 51a5 9abd 7c02 c73d 4a84 253e 5aa6 febd
00000030: 670a c3bd 474f d13e d3ab d43e 7807 84bd
00000040: 69fc 5b3d 1e59 4f3e 1ed1 3ebe a204 143e
00000050: 8ca3 be3d 8730 283e 1428 fcbd d67d 7b3d
00000060: 37da 893d 91c5 003c f106 003e 924f d13d
00000070: 92ad 303c b7c9 2c3e 9261 613e 85e8 0abe
00000080: 4a33 6fbd 1a89 f5bc e5bc 3f3e a08a edbc
00000090: 0a82 6fbd bdab dc3d 2a5b 4bbd a59f 7e3e
000000a0: b254 7cbe 8f79 893e d6a5 04be ae1a dfbc
000000b0: 0ad4 603e cea1 ccbd 14dd d0bd 958f 39bd
000000c0: 8e63 003e b128 af3d 2248 ae3d baa8 09be
000000d0: d732 503e cdca 09be 4d2c 4a3e 6986 0f3d
000000e0: c1d2 783e 017e b4bd 793a 8d3c ee6c 1a3c
000000f0: 35c8 873e bda8 043d 4904 543c 630c cdbd
00000100: ca9b 10be bad8 01be 9499 903d a8c5 ee3d
00000110: be1f 8dbe cbab 60be a795 1d3e 4cdc 333d
00000120: fa1d 15be 714e 18be e98e 63bd d716 5abd
00000130: 63d3 053e 5509 68be 0593 24be 2287 47bd
00000140: 3611 0cbd 0ed4 97be f61b 68bd 7e06 5abe
00000150: c762 a2bd 6d48 073e 9713 ce3d 2aca a63d
00000160: b442 143c fe42 33be 1ee7 efbd c7f3 5bbe
00000170: 88c2 85be 4f2b 13be 3478 c5be 98c4 063e
00000180: c3f3 223d f22e a43d 3468 d23c ab6b f4bd
00000190: 3f4f d0bd 40f8 cabe 9c02 ccbd 41dd ac3d
000001a0: c712 683d 79a5 c1bd 7cb8 f23d 2b4e 1cbe
000001b0: 5b49 93bd 02fb 32bd bc37 c8bd dc85 59bd
000001c0: d11c 3dbe f42d 4bbe a823 233d 6872 a7bd
000001d0: 21e3 75be 6b18 cd3d 396f 3dbe cb6b 64be
000001e0: 29c8 483d f1a8 cbbd 8cd4 513c b9a9 48be
000001f0: 80bf 323d f204 8e3d 78d1 29be d246 abbe
00000200: 5843 8c3e 7ef7 473e fb00 ab3d 929a 753d
00000210: 1f62 9fbe 6eee ccbe b2e5 28bd 8f78 58be
00000220: 5cf7 08bd 5933 b8be 6efe 52be 43fe d43c
00000230: fbe1 81bd 0717 9e3e e465 ad3e d676 e8bd
00000240: 4ca1 28be 630f cabe d614 1a3c 2609 9cbe
00000250: a5e8 b4be c08d ce3d ffc5 debd 52e0 a63d
00000260: 7036 91bb 793a 3fbd 6c54 61be a44b 5b3e
00000270: 7c8c 5a3e 476c a43d 3dfd b03e d5d8 973d
00000280: 27b9 c43d ea64 1cbe c6c9 a83e e9a0 d1be
00000290: 55e3 063e 2a46 913e 05a3 583e 95de 82bd
000002a0: be42 3f3a 2799 113e 5505 c63d edb2 163e
000002b0: b949 7d3e 97fd a5bc 523f fd3d b2fd 893d
000002c0: a649 91be c54a 1f3e 1f5e 38be 4dcd 383e
000002d0: 75ed cfbe 0928 863c dae6 a1be e6f1 a3bc
000002e0: 8413 08be 64d4 6ebc 41fe 75bc 143b 3b3e
000002f0: 453e 91be 18df 3e3e a8cb 3bbe 8aac fe3d
0.15102829 0.11379955 -0.14117739 -0.17857705 0.079493366 0.29879436 0.080288015 -0.046308104
-0.07551063 0.09717271 0.16163746 -0.12434073 -0.095234685 0.40880796 0.4153734 -0.06446737
0.053707514 0.2024884 -0.1863446 0.14454892 0.09308538 0.16424762 -0.12312332 0.061399303
0.06731074 0.0078596035 0.12502648 0.10220255 0.01078357 0.16873823 0.22009876 -0.13565262
-0.058398522 -0.029972602 0.18724401 -0.028996766 -0.058473624 0.10774944 -0.049647488 0.24865587
-0.24641684 0.26850554 -0.12953886 -0.027234402 0.21955886 -0.09991799 -0.10198417 -0.045302946
0.12537977 0.08552683 0.08509852 -0.1344327 0.20331894 -0.13456269 0.19743462 0.035040293
0.24299146 -0.08813096 0.017239796 0.009425385 0.26519933 0.032387484 0.012940475 -0.10012128
-0.14121929 -0.12680331 0.07060543 0.11658794 -0.2756328 -0.21940534 0.15389119 0.043911263
-0.14562216 -0.14873673 -0.05555621 -0.053244438 0.13068919 -0.2265981 -0.16071709 -0.048712857
-0.0341961 -0.29653972 -0.05666729 -0.21291539 -0.079289965 0.13211222 0.1006233 0.081440285
0.009049106 -0.17506024 -0.11714004 -0.21479712 -0.26124978 -0.1437199 -0.3856827 0.13160932
0.03978325 0.080167666 0.025684454 -0.119345985 -0.10171365 -0.39642525 -0.09961435 0.08440638
0.056658532 -0.094553895 0.11851594 -0.15264194 -0.07191726 -0.04369641 -0.097762555 -0.053106174
-0.18468024 -0.19841748 0.039828926 -0.08176118 -0.24012424 0.10014423 -0.1849946 -0.22306745
0.049019013 -0.099443324 0.012807023 -0.19595994 0.04363966 0.06934537 -0.16583812 -0.3345247
0.2739513 0.19528005 0.083497964 0.059961863 -0.31129548 -0.40025657 -0.04123468 -0.2113974
-0.033439025 -0.35976675 -0.2060487 0.026000148 -0.063419305 0.30876943 0.338668 -0.11350791
-0.1646778 -0.39464864 0.009404382 -0.3047573 -0.35333744 0.100856304 -0.108776085 0.081482545
-0.0044315383 -0.046686623 -0.2200486 0.21415573 0.21342653 0.08028465 0.34568205 0.07414404
0.096056275 -0.1527287 0.3296644 -0.40943077 0.13172658 0.28373843 0.21155937 -0.063901104
0.0007296017 0.14218579 0.09668986 0.14716692 0.24735154 -0.020262523 0.12365593 0.06737842
-0.28376502 0.15555866 -0.18004654 0.18047066 -0.40610853 0.016376512 -0.31621438 -0.020012807
-0.13288695 -0.014577005 -0.015014232 0.18284255 -0.2836782 0.18639791 -0.18339407 0.12435253
