model2.pth (torch, 209406 bytes, 12 tensors)

weight f4 [125, 16]
-0.57275575 1.0714558 -0.28301865 -0.67073333 -0.80676395 0.6057395 -2.1738706 1.3718408
-2.3500795 -0.057761136 -2.2666795 0.5624041 0.3378069 -0.16042109 1.4763528 -0.54771173
0.3957599 -0.4958017 -0.93324256 0.3853539 0.2638032 0.49453342 -1.3712103 0.5152169
-0.4264749 -1.3477558 0.83423036 1.4851125 1.0041727 1.4758499 -0.2491195 0.46001053
-1.818318 -0.07158024 -1.4235425 1.3965683 -1.2836231 1.3759642 2.1925004 1.021823
0.31213692 1.0329562 1.287915 -0.69888 0.55741954 -0.774709 0.93117356 0.063022226
1.3737149 0.12957236 0.9153925 -0.19250879 -0.6092682 -0.83501595 -1.4210662 0.7746299
0.3450258 -0.005137314 1.7434015 -2.281056 0.045832004 0.75183135 1.4889294 0.42331135
1.4241993 1.4773273 -0.18095061 -1.0024853 0.01013148 -0.06150348 -1.1365272 -1.6851057
0.4594597 1.3139889 -0.9396173 1.2446845 0.13678463 -1.2358599 0.07029167 0.25407737
1.765552 0.7136287 -0.8995368 -0.16742703 -0.45837024 -0.12473771 -1.8164136 -0.22547142
0.3940108 -1.7328056 -0.86471665 -0.8631605 -0.6152623 -1.275838 0.031155284 0.5147392
1.0824915 0.16084398 -2.8441682 0.20517565 0.18426055 1.2684405 0.86248267 -0.19235434
-2.9428277 -0.32238826 1.4395516 -0.8827145 0.25656 -0.10229179 -0.34317568 -0.3647393
-0.15553017 -0.5662972 0.44230512 -0.726588 0.859591 0.9404605 2.1016476 0.4680027
1.1761842 0.5949492 -0.73713404 -1.2338351 0.93515015 -0.14258595 1.241084 0.59520596
1.0134394 0.18308292 -1.1544156 -1.0246594 -1.8278759 1.4644451 1.0464675 -0.34533736
0.022315687 -2.3665767 0.44452 -0.35455468 0.85869265 0.10746198 -0.0631308 0.4429096
0.47187966 1.429566 1.6415907 0.2746348 1.4471878 -1.0260851 0.79684466 1.9049416
0.054417424 -0.21168964 0.5206153 -0.36866385 1.5351255 1.1147528 1.6010609 -0.3862459
0.8317641 0.038131617 -1.5222663 0.557622 -1.1084388 0.2786713 -1.19173 -0.29342684
0.97467136 -0.24862282 1.0786839 0.7731847 0.5882255 0.07463915 -1.0659189 0.12413847
0.92860997 2.0271835 -0.59787023 -1.8491863 -1.672064 0.09760037 1.9238609 0.99524134
1.5107158 0.14652921 0.8340528 -0.1591801 1.0314902 0.027736908 2.4933555 -0.9873612
2.087058 -0.59271944 1.0585309 1.601372 -1.186004 -0.9558081 -0.4069157 1.1721177
-0.50019675 -0.15486638 -0.84963065 -0.4876122 1.2674927 -1.0114262 0.46280733 0.78283036
1.2119553 2.525092 -1.4641947 -0.71676904 -0.086535744 0.18134509 0.52343804 -0.41167504
0.58636886 1.5012878 0.5195987 1.4709264 0.7442545 0.082629815 0.14754315 0.96488893
-0.40917474 -0.8721141 -0.19510622 -0.08301939 0.8228816 0.006899927 0.8553338 0.07141391
0.6427377 0.78433955 0.01726331 -2.1150196 1.2040068 -1.1863806 0.34232977 0.0022060126
-1.4106715 0.45803106 -0.18133995 0.45572156 0.8334912 0.5962204 -1.6156027 0.6061141
0.08833661 1.237243 1.0325131 -1.3488512 -0.13842562 -0.09050142 -0.35730523 -0.021266935
00000000: 1fa0 12bf 7725 893f d2e7 90be 2eb5 2bbf
00000010: 1588 4ebf be11 1b3f b220 0bc0 7b98 af3f
00000020: b467 16c0 f196 6cbd 4711 11c0 b7f9 0f3f
00000030: 07f5 ac3e 6d45 24be 21f9 bc3f d636 0cbf
00000040: 0ba1 ca3e b8d9 fdbe fce8 6ebf 1b4d c53e
00000050: 3711 873e 7c33 fd3e d283 afbf 41e5 033f
00000060: eb5a dabe 4383 acbf 1f90 553f 2b18 be3f
00000070: bb88 803f a6e8 bc3f 2f19 7fbe 8086 eb3e
00000080: a5be e8bf a998 92bd a436 b6bf c0c2 b23f
00000090: c34d a4bf 981f b03f ed51 0c40 19cb 823f
000000a0: 69d0 9f3e e937 843f 66da a43f cde9 32bf
000000b0: 0cb3 0e3f 5453 46bf 6461 6e3f cc11 813d
000000c0: e4d5 af3f 9eae 043e 2a57 6a3f 0621 45be
000000d0: 00f9 1bbf 9bc3 55bf 7fe5 b5bf 254e 463f
000000e0: 39a7 b03e ea56 a8bb c827 df3f d2fc 11c0
000000f0: 57ba 3b3d 0578 403f 3d95 be3f 44bc d83e
00000100: 2a4c b63f 1019 bd3f 1e4b 39be 7051 80bf
00000110: 82fe 253c 13eb 7bbd b979 91bf 8bb1 d7bf
00000120: 4d3e eb3e ca30 a83f c28a 70bf d251 9f3f
00000130: 4511 0c3e a830 9ebf 14f5 8f3d 6e16 823e
00000140: 9cfd e13f 5fb0 363f 0b48 66bf fe71 2bbe
00000150: 81af eabe 7c76 ffbd 3e80 e8bf fbe1 66be
00000160: c9bb c93e 93cc ddbf 125e 5dbf 16f8 5cbf
00000170: d581 1dbf a94e a3bf 5e39 ff3c f3c5 033f
00000180: 158f 8a3f 49b4 243e da06 36c0 9119 523e
00000190: ccae 3c3e 425c a23f aacb 5c3f 89f8 44be
000001a0: 4a57 3cc0 1310 a5be 3a43 b83f 94f9 61bf
000001b0: d55b 833e 5c7e d1bd b9b4 afbe 1cbf babe
000001c0: 4d43 1fbe daf8 10bf d175 e23e ac01 3abf
000001d0: 280e 5c3f 05c2 703f 6581 0640 0d9e ef3e
000001e0: 348d 963f 974e 183f d1b4 3cbf 4fee 9dbf
000001f0: 0066 6f3f 0d02 12be d7db 9e3f 6b5f 183f
00000200: 62b8 813f 177a 3b3e e4c3 93bf 0a28 83bf
00000210: d6f7 e9bf f072 bb3f a6f2 853f 0fd0 b0be
00000220: 63cf b63c fe75 17c0 2098 e33e 3188 b5be
00000230: 48d3 5b3f 0715 dc3d b94a 81bd 0cc5 e23e
00000240: 369a f13e 05fc b63f a51f d23f ef9c 8c3e
00000250: 733d b93f c256 83bf 03fe 4b3f 20d5 f33f
00000260: cee4 5e3d 2bc5 58be 0b47 053f 82c1 bcbe
00000270: fe7e c43f 38b0 8e3f 90ef cc3f 06c2 c5be
00000280: 7eee 543f e62f 1c3d 9fd9 c2bf 51c0 0e3f
00000290: 53e1 8dbf 01ae 8e3e 9c8a 98bf 0b3c 96be
000002a0: 1084 793f fb96 7ebe 5012 8a3f 6fef 453f
000002b0: f295 163f 69dc 983d 0870 88bf 4f3c fe3d
000002c0: 62b9 6d3f 60bd 0140 060e 19bf 23b2 ecbf
000002d0: 3106 d6bf b4e2 c73d 1341 f63f 23c8 7e3f
000002e0: 235f c13f c10b 163e 7c84 553f 1c00 23be
000002f0: df07 843f 8338 e33c 2393 1f40 b4c3 7cbf
00000300: 5c92 0540 76bc 17bf f17d 873f c2f9 cc3f
00000310: fbce 97bf d7af 74bf 4157 d0be f407 963f
00000320: e50c 00bf 4b95 1ebe 6581 59bf 4ea8 f9be
00000330: 333d a23f 6a76 81bf 15f5 ec3e 9267 483f
00000340: 5a21 9b3f 1b9b 2140 bb6a bbbf 2d7e 37bf
00000350: a739 b1bd 87b2 393e 0900 063f 12c7 d2be
00000360: 451c 163f 332a c03f 6c04 053f 5147 bc3f
00000370: 7787 3e3f d239 a93d 8d15 173e f602 773f
00000380: 5a7f d1be df42 5fbf edc9 47be 1206 aabd
00000390: 5ea8 523f c818 e23b 28f7 5a3f 7541 923d
000003a0: 758a 243f 7aca 483f c96b 8d3c 7b5c 07c0
000003b0: e51c 9a3f 52db 97bf d945 af3e c092 103b
000003c0: e290 b4bf 0c83 ea3e 2eb1 39be 5654 e93e
000003d0: ae5f 553f e6a1 183f 12cc cebf 4b2a 1b3f
000003e0: d3e9 b43d fb5d 9e3f 6429 843f 28a7 acbf
000003f0: 72bf 0dbe cf58 b9bd b6f0 b6be ff37 aebc

weight_ih_l0 f4 [192, 17]
0.1700265 0.017426642 0.04896669 -0.042405516 0.0067361714 -0.091750845 -0.09131235 0.042515174
-0.12656562 -0.021786967 -0.1920886 -0.10506075 0.1336249 0.09402075 0.03307848 0.19506457
0.047304455 0.026588935 0.14644265 -0.118417345 0.07855384 0.010088251 0.061671298 -0.0011369699
0.09711107 0.002403199 0.042411346 -0.04708269 0.14845127 0.03088086 -0.13912447 0.09608132
0.18444854 0.13011017 0.03924759 0.08376941 -0.20458417 0.04306711 -0.027637964 -0.05628036
0.15976258 -0.17699996 -0.04292479 -0.02699991 -0.16787285 0.07330802 0.047523867 -0.03567076
0.14161693 -0.092144854 -0.018172354 0.29480287 -0.26387966 -0.083377495 0.100796 0.14877653
0.20598802 -0.03129614 0.0133925425 -0.06675501 0.056617633 -0.087375686 -0.11961451 -0.049918693
-0.1819911 -0.08662732 -0.033104736 -0.022861095 -0.13067394 -0.13325518 0.16942763 0.1167065
0.12082832 -0.044996325 0.18389492 -0.12382115 0.039062556 -0.08919046 0.017921362 -0.020013956
-0.050296776 0.1218222 0.1303988 -0.1705023 -0.11800909 0.16007426 -0.18151693 -0.035111118
0.07024438 0.14978634 0.1188129 0.03685121 -0.03603164 -0.16051444 0.04629277 -0.094458126
-0.024423655 -0.013620577 -0.1890372 -0.037093163 -0.12821965 -0.037828185 -0.09494598 -0.17430776
0.10481439 0.005337432 0.11038899 -0.17100441 0.13039893 -0.19601367 -0.05766527 -0.07964558
0.09874813 -0.038844813 0.07486623 -0.12942728 0.12815353 -0.10851951 0.14864016 -0.14276767
0.013986088 -0.078247614 0.1443349 0.16431306 0.14263615 -0.0645726 -0.09798523 -0.025106661
-0.117727764 0.08844354 -0.01680669 -0.016586665 -0.01885115 0.012333417 0.13335666 -0.027064255
0.2140589 -0.16526178 -0.2302483 0.18351208 0.24579175 0.030624194 -0.008620931 -0.054142255
-0.029844338 -0.024853565 -0.045184236 -0.007384031 -0.2379759 0.08509403 0.18734644 -0.15124044
-0.016739925 0.1876027 -0.12086988 0.04935279 0.114093505 0.116544716 0.20183922 -0.20851305
0.10389649 -0.0036964486 -0.13423936 -0.067278504 -0.1133161 0.12916693 0.018095242 -0.11224932
-0.15632477 -0.10810753 0.06861512 0.069608055 0.030006062 0.06515845 0.023797149 -0.048463058
0.10685189 0.008188822 -0.04116088 -0.14254302 -0.046135917 -0.043889802 0.07746476 0.046264347
0.13420601 -0.08283535 -0.16941619 -0.15201092 -0.057964373 -0.1386917 0.01903243 0.18557057
0.11250594 0.074904695 0.025723442 -0.10400266 0.07819102 -0.18549308 -0.08933012 -0.18101302
0.08368151 0.020430677 -0.12516922 0.058843676 -0.15912825 -0.08651936 -0.0068651577 0.050094496
0.081153005 0.2627024 -0.2214958 0.16912591 -0.1155987 0.1901251 0.078283414 -0.023917124
-0.02493937 0.11629419 -0.12877044 -0.06443661 -0.23150463 -0.13331158 -0.12058256 -0.037700895
0.0077020954 0.029411895 0.07977874 -0.18541855 -0.13602284 -0.1274455 0.028362615 -0.15369636
0.050608475 0.06887059 0.16208404 -0.050168563 -0.04924324 -0.10254799 -0.14413661 0.059001856
-0.10834816 0.10909688 -0.08984166 -0.0008551334 0.08361964 0.08178211 -0.14313217 -0.000101614
-0.020492747 -0.22045754 -0.048152037 0.041698456 0.029180346 -0.14358391 0.014909184 0.15269865
00000000: 6d1b 2e3e 51c2 8e3c 4c91 483d 68b1 2dbd
00000010: 1abb dc3b dee7 bbbd f801 bbbd 6424 2e3d
00000020: 6b9a 01be 957a b2bc e0b2 44be 172a d7bd
00000030: f7d4 083e f38d c03d 4d7d 073d 02bf 473e
00000040: 51c2 413d 0ad1 d93c 10f5 153e cb84 f2bd
00000050: d6e0 a03d 3149 253c 0b9b 7c3d 6106 95ba
00000060: 2be2 c63d fd7e 1d3b 85b7 2d3d c7d9 40bd
00000070: 9c03 183e dbf9 fc3c a576 0ebe 48c6 c43d
00000080: 14e0 3c3e 9a3b 053e 15c2 203d 4c8f ab3d
00000090: 837e 51be 2367 303d 0369 e2bc 3c86 66bd
000000a0: cd98 233e 7a3f 35be e8d1 2fbd ea2e ddbc
000000b0: dce6 2bbe 8422 963d 63a8 423d 811b 12bd
000000c0: 0704 113e 71b6 bcbd 30de 94bc 67f0 963e
000000d0: 3c1b 87be d2c1 aabd 226e ce3d e058 183e
000000e0: 86ee 523e 6230 00bd 656c 5b3c dab6 88bd
000000f0: e4e7 673d 06f2 b2bd 74f8 f4bd 8b77 4cbd
00000100: e05b 3abe aa69 b1bd d598 07bd 3147 bbbc
00000110: 64cf 05be 0c74 08be 707e 2d3e d103 ef3d
00000120: d774 f73d 114e 38bd f34e 3c3e f195 fdbd
00000130: 0f00 203d 7da9 b6bd d2cf 923c 4ff4 a3bc
00000140: fe03 4ebd eb7d f93d 4387 053e 2898 2ebe
00000150: c0ae f1bd 82ea 233e 93df 39be add0 0fbd
00000160: 49dc 8f3d 9761 193e 2d54 f33d 4bf1 163d
00000170: ea95 13bd e65d 24be 7d9d 3d3d 4373 c1bd
00000180: 1e14 c8bc d728 5fbc f892 41be 00ef 17bd
00000190: 034c 03be baf1 1abd 0a73 c2bd bc7d 32be
000001a0: eda8 d63d a0e5 ae3b 9f13 e23d c81b 2fbe
000001b0: 4c87 053e cfb7 48be 6b32 6cbd 391d a3bd
000001c0: 763c ca3d bd1b 1fbd 7753 993d 9688 04be
000001d0: ae3a 033e 7a3f debd 2035 183e b031 12be
000001e0: e825 653c 4940 a0bd 87cc 133e af41 283e
000001f0: 360f 123e a43e 84bd 7bac c8bd 7cac cdbc
00000200: 411b f1bd e321 b53d 2fae 89bc c2e0 87bc
00000210: ba6d 9abc 1a12 4a3c a68e 083e dbb5 ddbc
00000220: 4232 5b3e 623a 29be 36c6 6bbe 97ea 3b3e
00000230: d5b0 7b3e 97df fa3c ce3e 0dbc 45c4 5dbd
00000240: 1d7c f4bc b499 cbbc 1b13 39bd bef5 f1bb
00000250: f4af 73be c745 ae3d bfd7 3f3e c6de 1abe
00000260: 2b22 89bc ec1a 403e a18a f7bd 2726 4a3d
00000270: dba9 e93d ffae ee3d f1ae 4e3e 7284 55be
00000280: afc7 d43d 1e40 72bb 0b76 09be 50c9 89bd
00000290: 4512 e8bd 5644 043e 793c 943c f9e2 e5bd
000002a0: 9a13 20be 7b67 ddbd 1686 8c3d ab8e 8e3d
000002b0: 46cf f53c cb71 853d 3df2 c23c 3381 46bd
000002c0: 2ad5 da3d 692a 063c 5098 28bd ccf6 11be
000002d0: 04f9 3cbd cbc5 33bd d8a5 9e3d af7f 3d3d
000002e0: 4d6d 093e 94a5 a9bd 707b 2dbe c0a8 1bbe
000002f0: 0d6c 6dbd 3205 0ebe e6e9 9b3c 3606 3e3e
00000300: 8469 e63d a267 993d f8b9 d23c 59ff d4bd
00000310: 9d22 a03d e6f1 3dbe b6f2 b6bd 7a5b 39be
00000320: 3661 ab3d 3c5e a73c 5c2c 00be 1106 713d
00000330: 84f2 22be 1031 b1bd 1ef5 e0bb e32f 4d3d
00000340: 8c33 a63d ee80 863e cccf 62be 582f 2d3e
00000350: 03bf ecbd 27b0 423e 0e53 a03d d8ed c3bc
00000360: a64d ccbc a62b ee3d 66dc 03be 57f7 83bd
00000370: 8d0f 6dbe d582 08be fdf3 f6bd 416c 1abd
00000380: dc61 fc3b 37f1 f03c 0963 a33d 5cde 3dbe
00000390: 9249 0bbe 1381 02be b758 e83c 9462 1dbe
000003a0: d54a 4f3d 060c 8d3d 5cf9 253e 8d7d 4dbd
000003b0: 48b3 49bd ae04 d2bd 8c98 13be eeab 713d
000003c0: a4e5 ddbd 2f6e df3d e7fe b7bd 082b 60ba
000003d0: c640 ab3d 617d a73d 3d91 12be 9a19 d5b8
000003e0: 68e0 a7bc 9fbf 61be 123b 45bd 00cc 2a3d
000003f0: 9f0b ef3c a907 13be a645 743c 095d 1c3e

weight_hh_l0 f4 [192, 64]
-0.09230093 0.102195874 -0.057415847 0.053083885 0.090581484 -0.052525897 -0.12699772 -0.11701822
0.10736403 -0.02358384 -0.028174121 0.0384985 0.19044155 0.06619957 -0.08455355 0.045817725
0.08419662 -0.060755994 -0.053220157 0.1399793 -0.07666418 0.14862704 -0.06793223 -0.028851742
-0.021845626 -0.13533469 0.06259672 0.015379487 -0.19149923 -0.13328362 0.16654876 -0.11433975
-0.013632892 0.061359912 -0.11969086 0.0797837 -0.056665026 -0.013050905 0.15047747 -0.08485132
0.036926936 -0.0392868 -0.25463316 0.1223854 -0.07927575 -0.07653843 -0.0019668653 0.026828187
-0.16212049 -0.11566675 0.13528802 0.014448927 -0.047036465 -0.030544572 0.016180951 0.15376532
-0.0012504542 -0.11312919 0.15281424 0.0017176145 -0.0027097017 0.013435928 -0.048527278 -0.07269088
-0.037198585 0.1203323 0.055583034 -0.10032675 -0.0869982 0.14149803 -0.012404356 0.11235092
-0.13070956 0.026967712 0.109090805 0.09157897 0.08906707 -0.16246627 0.09549826 0.005495762
-0.0048752306 -0.09250337 0.119106635 0.12622143 -0.18067023 0.108029574 0.12298975 -0.1482547
0.09346893 -0.1298877 0.14231828 0.038440168 -0.13124186 -0.17411144 0.06417599 0.03939662
-0.12668532 0.08741005 -0.1388481 -0.027197063 0.062413577 -0.21891516 0.055107694 -0.072448656
0.10698843 0.018369759 -0.018651461 0.06636272 -0.12983356 0.16828515 -0.03788875 0.04595629
-0.19892272 -0.06578475 -0.07035861 0.0075055487 -0.1447416 -0.22472419 0.020367427 0.01766977
0.10919306 -0.009590991 0.10045072 -0.16169482 0.13165493 -0.12133106 -0.096652225 0.08935107
-0.014667311 0.040837027 -0.1432896 0.16768071 -0.03398703 -0.13607612 -0.035643227 -0.29374996
-0.15483902 -0.058066823 -0.173449 0.08818735 0.15650205 0.027074195 -0.21403493 0.11518196
0.22405612 -0.0520391 0.06239867 -0.068856716 -0.18265732 -0.06360369 0.06865171 0.031650845
0.08197827 -0.1535239 0.03743078 0.07940943 -0.012966239 0.023562951 0.13911243 0.11383928
-0.21843247 0.012005293 -0.12736125 -0.07331377 -0.028737614 -0.060669463 -0.069978446 -0.0286174
0.06442976 -0.09445544 -0.11443099 0.13896413 0.030368472 -0.059365455 0.063685425 -0.035267383
0.097368136 0.024323823 0.24552946 0.068889014 -0.044719357 -0.15676557 0.10931677 0.1437628
0.06480934 0.06038448 -0.13721761 0.0916315 -0.087116584 -0.09705369 0.013858119 0.12027346
0.31719396 -0.22200511 -0.09506101 -0.0017011253 0.07573358 0.10538085 -0.0586321 0.057497088
0.06664737 -0.0645745 0.026311964 0.24779442 -0.23431696 0.08781986 0.022687718 0.043898158
0.14284024 -0.04068078 -0.119378336 -0.12292177 0.06919838 0.06275038 0.08593143 -0.004846321
-0.12078597 0.10291126 -0.03470775 -0.040416073 -0.031036027 -0.035378795 -0.17346883 -0.13186623
-0.083843 -0.085904725 0.06466669 0.0013586793 -0.047174472 0.059527777 -0.23644164 -0.07675688
0.0136562195 0.01662681 -0.033643305 -0.080143824 0.06470407 0.10423138 -0.20399244 -0.121838115
-0.0062663513 -0.12052666 0.06610655 -0.048546538 0.112064295 0.12833121 -0.102992475 0.035981808
-0.12777637 0.19723657 0.010001232 0.034939088 -0.23711799 0.10706343 0.012889766 -0.028849166
00000000: 4508 bdbd 124c d13d e12c 6bbd 7d6e 593d
00000010: c982 b93d 6525 57bd b10b 02be 40a7 efbd
00000020: ace1 db3d e632 c1bc 6acd e6bc 9ab0 1d3d
00000030: 1c03 433e a493 873d 692a adbd 5eab 3b3d
00000040: 476f ac3d 47db 78bd 61fd 59bd bc56 0f3e
00000050: 1c02 9dbd b031 183e 0e20 8bbd 7d5a ecbc
00000060: 99f5 b2bc 2d95 0abe b632 803d 3efa 7b3c
00000070: 6018 44be 807b 08be c28b 2a3e f52a eabd
00000080: 7e5c 5fbc 8854 7b3d 7b20 f5bd a365 a33d
00000090: 9619 68bd 77d3 55bc c416 1a3e 87c6 adbd
000000a0: b340 173d 32eb 20bd 475f 82be 32a5 fa3d
000000b0: 535b a2bd 2ec0 9cbd 86e6 00bb c9c6 db3c
000000c0: ea02 26be b0e2 ecbd f188 0a3e 31bb 6c3c
000000d0: 4fa9 40bd 9c38 fabc ea8d 843c a874 1d3e
000000e0: 48e6 a3ba 47b0 e7bd 567b 1c3e 9421 e13a
000000f0: 4095 31bb 5e22 5c3c 8ac4 46bd f5de 94bd
00000100: 8b5d 18bd c870 f63d 09ab 633d 1c78 cdbd
00000110: 1d2c b2bd dce4 103e a43b 4bbc 3d18 e63d
00000120: bad8 05be 64eb dc3c 006b df3d c18d bb3d
00000130: cc68 b63d 8f5d 26be 9794 c33d cb15 b43b
00000140: 66c0 9fbb 6872 bdbd 2eee f33d 3140 013e
00000150: 9e01 39be 9c3e dd3d 0de2 fb3d 14d0 17be
00000160: a36c bf3d 4801 05be e2bb 113e 7073 1d3d
00000170: 4464 06be 454a 32be b46e 833d 5a5e 213d
00000180: ccb9 01be 0a04 b33d 322e 0ebe 60cc debc
00000190: 61a5 7f3d 4c2b 60be 9bb8 613d f65f 94bd
000001a0: c01c db3d 2d7c 963c f3ca 98bc 2ee9 873d
000001b0: 17f3 04be f152 2c3e 3c31 1bbd aa3c 3c3d
000001c0: 66b2 4bbe 28ba 86bd 2d18 90bd 1bf1 f53b
000001d0: 2437 14be 191e 66be 97d9 a63c 32c0 903c
000001e0: 9ca0 df3d 8823 1dbc 1bb9 cd3d 5493 25be
000001f0: 8dd0 063e 6b7c f8bd 9af1 c5bd b2fd b63d
00000200: 294f 70bc ba44 273d 82ba 12be 7eb4 2b3e
00000210: fc35 0bbd 8a57 0bbe a2fe 11bd 6566 96be
00000220: 1f8e 1ebe 7ad7 6dbd 9d9c 31be 929b b43d
00000230: 1342 203e b4ca dd3c f92b 5bbe 85e4 eb3d
00000240: f86e 653e f426 55bd bf95 7f3d c004 8dbd
00000250: 850a 3bbe a742 82bd 4599 8c3d 51a4 013d
00000260: 39e4 a73d 5f35 1dbe 0451 193d 69a1 a23d
00000270: 5970 54bc 1707 c13c 7d73 0e3e 9224 e93d
00000280: c3ac 5fbe d9b1 443c fd6a 02be 8825 96bd
00000290: 256b ebbc 8b80 78bd dc50 8fbd 0a6f eabc
000002a0: c0f3 833d db71 c1bd cb5a eabd 9d4c 0e3e
000002b0: 4dc7 f83c 3129 73bd 816d 823d 8874 10bd
000002c0: f268 c73d c142 c73c 136c 7b3e af15 8d3d
000002d0: a52b 37bd 2787 20be 79e1 df3d 8e36 133e
000002e0: c2ba 843d b755 773d c682 0cbe 4ca9 bb3d
000002f0: 2e6a b2bd 16c4 c6bd 2a0d 633c ef51 f63d
00000300: 3f67 a23e 4f55 63be 59af c2bd 4bf8 deba
00000310: 351a 9b3d ead1 d73d 3628 70bd 1182 6b3d
00000320: 6b7e 883d a33f 84bd 308c d73c d2bd 7d3e
00000330: c9f0 6fbe e6da b33d 98db b93c 8ece 333d
00000340: b644 123e e4a0 26bd a17c f4bd 69be fbbd
00000350: e1b7 8d3d 4583 803d d1fc af3d e3cd 9ebb
00000360: a25e f7bd 24c3 d23d b729 0ebd 538b 25bd
00000370: 443f febc 5be9 10bd d0a1 31be f107 07be
00000380: e1b5 abbd d1ee afbd f86f 843d b615 b23a
00000390: 053a 41bd 66d3 733d c21d 72be b632 9dbd
000003a0: 56be 5f3c f334 883c 90cd 09bd 7222 a4bd
000003b0: 9183 843d 4377 d53d 65e3 50be 4386 f9bd
000003c0: f755 cdbb aed6 f6bd df62 873d bcd8 46bd
000003d0: f781 e53d 4269 033e b8ed d2bd a961 133d
000003e0: cfd7 02be 62f8 493e 35dc 233c 4a1c 0f3d
000003f0: 0fcf 72be 1244 db3d 992f 533c 1655 ecbc

bias_ih_l0 f4 [192]
0.18770649 0.22450884 0.18680193 -0.02600787 0.09643603 -0.018630031 -0.09066421 0.057938322
0.14086935 0.039031155 0.16311425 -0.11254342 -0.071383774 0.011169079 0.18656282 -0.15587026
0.09515807 -0.025020093 2.4517622e-06 0.068664104 0.13738847 0.04286674 -0.091535464 -0.060374904
0.045947716 0.09190093 0.09719922 0.004961435 0.15866463 -0.086832605 0.045574553 0.12880886
0.05984056 -0.0945285 -0.07861141 0.0686732 -0.053721085 0.040629312 0.061995953 0.056351803
-0.0370234 0.11281392 -0.006889999 -0.0089289015 0.028807921 -0.020436784 -0.06660075 -0.065648355
-0.0033714096 -0.003664029 0.12587178 0.011832025 -0.0018962749 0.07699278 0.06479167 0.012820432
-0.13368896 -0.14073539 -0.0149845835 0.035150673 -0.043699913 0.039431833 -0.006897043 -0.11751157
0.26389688 0.17539567 0.1927862 -0.0030592787 -0.24060528 -0.09754501 -0.11509068 0.040443256
-0.034940995 -0.14485964 -0.15904664 0.039186202 0.13836677 0.018213695 -0.02826523 0.00071999035
0.056263596 -0.13475277 -0.38193238 -0.116642736 0.06940012 0.03482086 0.107959636 0.05771665
-0.0667124 0.07052287 -0.30655506 -0.16401184 -0.03248699 0.023194013 0.121728 -0.055689797
-0.008296888 -0.06951099 0.017975202 0.06739583 -0.118868575 -0.010193856 0.12386225 0.07055179
-0.034371838 0.05308792 -0.07184665 -0.1629612 0.0128865605 -0.08651958 0.10348151 -0.12083759
-0.23513283 -0.11836324 0.0270548 -0.35936674 0.024468934 0.13257162 -0.35861158 0.0022020894
-0.07994881 0.04663172 -0.08912313 0.0022271858 -0.06369128 0.086361706 -0.008802321 -0.1413206
-0.108336285 0.043668475 0.009938832 0.00033086666 -0.0945201 -0.06605457 -0.13539158 -0.0071863
-0.022084238 0.07243202 0.0010262481 0.16421549 -0.06345253 -0.103517495 0.049723204 -0.074362256
0.16926359 0.10262287 -0.09719116 0.027166707 0.06988281 -0.08867318 -0.11954525 0.018831281
0.03620404 -0.1790511 -0.15787575 0.0024601726 0.04366569 0.05701499 0.027877353 0.10434231
-0.16381747 -0.044472396 -0.04477317 0.050261762 0.0011090502 -0.059116933 0.037848577 -0.034672264
-0.08606891 -0.11685677 0.09798756 0.075366266 -0.0011924435 -0.022196783 -0.08588004 0.0051145577
-0.04755261 -0.091140166 0.10214232 0.109873965 -0.07602868 0.104172304 0.0804899 -0.043790955
0.07514734 -0.068113565 -0.17125018 0.0211529 0.044736937 0.04499419 0.083599806 0.07846623
00000000: 2136 403e a5e5 653e 0149 3f3e 750e d5bc
00000010: 4180 c53d 029e 98bc 28ae b9bd bc50 6d3d
00000020: 0e40 103e 22df 1f3d 6c07 273e 2a7d e6bd
00000030: a831 92bd 83fe 363c 530a 3f3e 749c 1fbe
00000040: 3ce2 c23d f0f6 ccbc f488 2436 c49f 8c3d
00000050: 90af 0c3e 0995 2f3d f276 bbbd ad4b 77bd
00000060: ac33 3c3d 8e36 bc3d 6210 c73d 8993 a23b
00000070: fb78 223e 4bd5 b1bd 62ac 3a3d 78e6 033e
00000080: 601b 753d 2998 c1bd 05ff a0bd 89a4 8c3d
00000090: a40a 5cbd ec6a 263d 78ef 7d3d 26d1 663d
000000a0: d9a5 17bd fc0a e73d 80c5 e1bb 874a 12bc
000000b0: 97fe eb3c 0b6b a7bc f965 88bd a572 86bd
000000c0: def2 5cbb 3520 70bb 88e4 003e 1cdb 413c
000000d0: 6d8c f8ba 64ae 9d3d 7fb1 843d ca0c 523c
000000e0: c2e5 08be f01c 10be e681 75bc 27fa 0f3d
000000f0: aefe 32bd 4683 213d 9700 e2bb e8a9 f0bd
00000100: 7e1d 873e ec9a 333e bf69 453e 2e7e 48bb
00000110: 3b61 76be aec5 c7bd aab4 ebbd d4a7 253d
00000120: 4a1e 0fbd 1656 14be 1fdd 22be b681 203d
00000130: 05b0 0d3e e334 953c 7c8c e7bc bcbd 3c3a
00000140: a874 663d a1fc 09be a48c c3be 63e2 eebd
00000150: a621 8e3d 51a0 0e3d f119 dd3d 4b68 6c3d
00000160: 83a0 88bd 4b6e 903d c9f4 9cbe b8f2 27be
00000170: 1411 05bd 5f01 be3c 884c f93d fc1a 64bd
00000180: acef 07bc c75b 8ebd bb40 933c d306 8a3d
00000190: 5e71 f3bd 2204 27bc 7eab fd3d 757d 903d
000001a0: 7cc9 0cbd b872 593d 5624 93bd 4ddf 26be
000001b0: 2722 533c 2d31 b1bd 1dee d33d b379 f7bd
000001c0: a9c6 70be 6d68 f2bd 07a2 dd3c ebfe b7be
000001d0: 1373 c83c dbc0 073e f09b b7be ee50 103b
000001e0: 34bc a3bd e700 3f3d 3086 b6bd faf5 113b
000001f0: 9370 82bd 68de b03d 9c37 10bc 59b6 10be
00000200: 6adf ddbd b7dd 323d 7cd6 223c 2c78 ad39
00000210: c193 c1bd 9e47 87bd 17a4 0abe 0e7b ebbb
00000220: 01ea b4bc 3d57 943d 2c83 863a 1b28 283e
00000230: 66f3 81bd fb00 d4bd 8faa 4b3d 3d4b 98bd
00000240: 6f53 2d3e f02b d23d 290c c7bd b78c de3c
00000250: b81e 8f3d 499a b5bd 24d4 f4bd 0f44 9a3c
00000260: b04a 143d 2c59 37be 2eaa 21be d93a 213b
00000270: cbda 323d 8d88 693d 0c5f e43c 6cb1 d53d
00000280: c4bf 27be b028 36bd 1264 37bd 47df 4d3d
00000290: 8d5d 913a 9924 72bd 1c07 1b3d 8104 0ebd
000002a0: e644 b0bd 9a52 efbd b4ad c83d a159 9a3d
000002b0: c44b 9cba 07d6 b5bc e0e1 afbd 0598 a73b
000002c0: 87c6 42bd b2a7 babd fe2f d13d 9a05 e13d
000002d0: edb4 9bbd 4a58 d53d e4d7 a43d 255e 33bd
000002e0: d9e6 993d 207f 8bbd 355c 2fbe d948 ad3c
000002f0: 143e 373d d44b 383d 6036 ab3d e7b2 a03d

bias_hh_l0 f4 [192]
0.09640567 0.028497443 0.14362614 0.13330536 0.07438479 -0.05598751 -0.073649295 0.06519784
0.14188634 -0.035542917 0.11003476 -0.055118047 0.12854224 -0.005875224 0.15241173 0.020927506
0.0119261 -0.05030904 -0.022454761 0.14957252 0.018055774 -0.054337807 -0.097830735 0.13589174
0.19647299 0.08969988 -0.088818714 -0.10580725 0.045060534 -0.047715798 0.123243235 0.06804088
-0.11534805 0.107385375 -0.00063288794 -0.119145885 -0.0117641045 0.018912338 -0.07627492 0.10189297
-0.060898777 0.14197247 0.06451523 -0.008252049 0.041132055 0.097385444 0.09378902 0.08901558
0.118879415 0.030976048 0.13782087 -0.17951714 0.09351097 0.050029933 0.17163414 0.0043067485
0.006216458 -0.008242439 -0.093897 0.03872794 -0.051362462 0.11038797 -0.06969745 -0.09008623
0.22846898 0.17023176 0.17452095 -0.05690437 -0.17000955 0.07489088 -0.0065740673 0.005357681
0.013741667 -0.13440187 0.038508553 -0.11967974 0.14910294 -0.014921824 -0.0715419 -0.062047925
-0.044342417 -0.08345605 -0.34793583 -0.25564164 -0.006793039 -0.018513722 0.108622536 -0.10769127
0.03311229 -0.052491374 -0.4050796 -0.03777839 -0.16695265 0.11097132 0.021573333 -0.058722477
-0.13893555 -0.12102874 0.13007571 0.10077933 -0.16364051 -0.12386716 0.0345716 -0.009208338
-0.07563597 0.0040357225 0.061500043 -0.108245894 0.07043181 -0.09337429 0.25475535 -0.29019615
-0.041275907 -0.11895596 0.0953891 -0.23422772 -0.052472733 0.24739078 -0.2829369 -0.2286208
-0.27552792 0.015798235 -0.03180049 -0.10348379 -0.014599276 0.04041642 -0.08372535 -0.05771705
0.052406058 0.071246766 -0.08226501 0.1549054 0.08087628 -0.10651311 0.05052557 -0.06510164
-0.040079754 -0.025084963 -0.004473281 0.10138714 0.136835 -0.049999148 -0.04706677 -0.012136575
0.07489987 -0.032126214 0.07741263 0.21145877 -0.11780918 0.0099763535 0.04001117 0.123913504
0.09086354 -0.09851095 -0.18083681 0.16729493 0.033918586 0.03770583 -0.030382393 0.13086757
-0.12784985 0.017017584 -0.11539922 -0.09779488 0.013471874 0.120108284 0.0527666 -0.0057643736
0.019574553 -0.11222426 0.085800916 0.116818026 0.116755106 0.13409252 0.03574143 0.15322964
-0.038860805 0.10535598 -0.023488455 -0.095249675 0.0986776 -0.13591959 -0.036929645 -0.088627696
-0.054583322 -0.035339825 -0.040270586 -0.09666307 0.117303774 -0.07377975 0.053416107 -0.06531164
00000000: 5670 c53d 7873 e93c bb12 133e 3381 083e
00000010: 0e57 983d 2953 65bd 71d5 96bd 7286 853d
00000020: a74a 113e 7395 11bd e759 e13d 76c3 61bd
00000030: 94a0 033e f384 c0bb d211 1c3e 2970 ab3c
00000040: b065 433c da10 4ebd 0cf3 b7bc 8a29 193e
00000050: b4e9 933c 5291 5ebd 7b5b c8bd 3427 0b3e
00000060: 3730 493e 92b4 b73d 96e6 b5bd 79b1 d8bd
00000070: 6591 383d a471 43bd f366 fc3d 0459 8b3d
00000080: 993b ecbd ddec db3d 64e8 25ba c202 f4bd
00000090: 3bbe 40bc 0cee 9a3c 0636 9cbd 43ad d03d
000000a0: ff70 79bd 3b61 113e 9020 843d 9a33 07bc
000000b0: 167a 283d 0572 c73d 7514 c03d cd4d b63d
000000c0: 0d77 f33d 7bc1 fd3c ea20 0d3e 57d3 37be
000000d0: ae82 bf3d 30ec 4c3d dcc0 2f3e a01f 8d3b
000000e0: 6eb3 cb3b 4b0b 07bc 124d c0bd 30a1 1e3d
000000f0: 7261 52bd 1713 e23d 89bd 8ebd 217f b8bd
00000100: c6f3 693e 3c51 2e3e 9fb5 323e 8f14 69bd
00000110: fc16 2ebe 6460 993d 466b d7bb 7c8f af3b
00000120: bb24 613c a5a0 09be 25bb 1d3d a71a f5bd
00000130: 71ae 183e ab7a 74bc 8f84 92bd f725 7ebd
00000140: 65a0 35bd 01eb aabd a524 b2be 76e3 82be
00000150: 2498 debb 17aa 97bc 7e75 de3d 3e8d dcbd
00000160: c1a0 073d 3201 57bd 9866 cfbe 83bd 1abd
00000170: a3f5 2abe ee44 e33d 8fba b03c fb86 70bd
00000180: 1f45 0ebe ebdd f7bd 9132 053e 6565 ce3d
00000190: 6191 27be 11ae fdbd f39a 0d3d 92de 16bc
000001a0: 08e7 9abd 183e 843b 78e7 7b3d 06b0 ddbd
000001b0: 8e3e 903d 053b bfbd 4b6f 823e 9794 94be
000001c0: ed10 29bd 2f9f f3bd 5c5b c33d 64d9 6fbe
000001d0: a6ed 56bd 0254 7d3e 1bdd 90be 921b 6abe
000001e0: ff11 8dbe 4d6b 813c 3b41 02bd 4fef d3bd
000001f0: cd31 6fbc b08b 253d 3278 abbd b768 6cbd
00000200: bca7 563d d3e9 913d 8f7a a8bd 859f 1e3e
00000210: 77a2 a53d 8c23 dabd e6f3 4e3d 0254 85bd
00000220: ab2a 24bd fb7e cdbc 9a94 92bb 10a4 cf3d
00000230: 791e 0c3e e8cb 4cbd 16c9 40bd 7cd8 46bc
00000240: 1a65 993d c796 03bd 838a 9e3d a688 583e
00000250: f045 f1bd dc73 233c c1e2 233d 5dc6 fd3d
00000260: aa16 ba3d 1cc0 c9bd 492d 39be 5d4f 2b3e
00000270: 37ee 0a3d 6e71 1a3d 7fe4 f8bc 2602 063e
00000280: 12eb 02be 7668 8b3c 6d56 ecbd af48 c8bd
00000290: 23b9 5c3c 55fb f53d ca21 583d 12e3 bcbb
000002a0: d05a a03c d5d5 e5bd 64b8 af3d 4a3e ef3d
000002b0: 4d1d ef3d 8d4f 093e 9b65 123d 3be8 1c3e
000002c0: 822c 1fbd e0c4 d73d dc6a c0bc 4312 c3bd
000002d0: 7b17 ca3d 812e 0bbe 8a43 17bd 7082 b5bd
000002e0: c392 5fbd 7ec0 10bd c5f2 24bd 4af7 c5bd
000002f0: f63c f03d d619 97bd d9ca 5a3d 1cc2 85bd

weight_ih_l1 f4 [192, 64]
-0.070677064 0.14634277 -0.015379683 -0.21002711 0.07847574 -0.0054964838 -0.027497498 -0.15480894
0.11462235 -0.0019362966 0.22937123 0.16501385 0.019451058 -0.15391026 -0.04852921 0.041503724
0.11868511 0.047362406 -0.0031726197 0.26256254 -0.0008411473 -0.13754912 0.10476362 -0.26107487
0.20047857 0.19552998 0.0022421672 0.00260475 0.04441186 0.17889917 0.23381342 -0.1112414
-0.08893461 0.00038848654 0.044067845 -0.08555044 -0.16590779 0.034696136 0.013009616 -0.2577838
0.042916838 -0.13826236 0.009798101 0.013211151 -0.011921853 0.0032346738 0.27333626 -0.03068675
-0.1406067 0.02885806 -0.009585944 -0.14433652 0.3864598 -0.02381341 -0.13529696 0.05985406
-0.09539706 -0.007849189 0.043644812 0.05237101 -0.11895161 0.13203721 0.08464913 0.014494796
-0.035473127 -0.10391432 0.0948044 -0.10110691 0.23744793 0.05787609 -0.03667834 -0.030071683
-0.01621123 -0.17337872 -0.042365074 -0.042959828 -0.029268472 -0.046572093 -0.001978151 0.097732104
-0.06959339 0.037844375 -0.014622657 -0.11011221 0.13702193 -0.041816343 -0.11145952 -0.08164608
0.08850086 -0.095723435 -0.123331316 -0.07097911 0.059040725 -0.0060697068 0.018680837 -0.050564148
-0.08573351 0.013969855 -0.14820583 -0.07479187 0.05822226 0.018594524 0.14196531 -0.10112711
0.038200464 -0.062427886 0.059643574 -0.14211403 -0.0015148842 -0.01166248 0.009569088 0.036464587
-0.0945281 -0.013709317 0.05572371 0.112967834 0.09608735 0.004872174 0.09517451 -0.09359169
0.13569614 -0.09697388 -0.011311269 -0.06227761 -0.091984876 0.09502983 0.116335034 -0.07790648
-0.08146746 0.075103745 -0.09759309 -0.04181547 0.10337202 0.00041893878 -0.009070004 -0.11842013
0.06319821 -0.13234937 0.014621877 -0.09207559 0.26299778 -0.03146076 -0.12825166 -0.12923788
0.11874023 0.22890957 -0.20945814 -0.036914222 -0.008021316 -0.26555583 -0.055428874 -0.20111544
0.25741878 -0.114330165 -0.013960619 0.2300162 -0.088741176 0.060028806 0.045981847 -0.051957123
-0.14662418 -0.24950813 0.0952987 0.037610374 -0.008033933 0.12674989 0.24388434 -0.24551664
0.18107875 -0.23658921 -0.11855287 -0.17659195 -0.021356601 -0.09528166 0.029831203 -0.100169234
-0.1628393 -0.12731983 0.02327313 -0.057960518 0.21874653 -0.048027497 0.050958645 -0.11468294
-0.16152702 0.021840325 -0.21097702 0.098261 -0.23024596 -0.11570793 0.017846277 0.09037746
0.0114635555 -0.068132624 0.03656475 0.14148372 -0.08289873 0.054036085 -0.15200293 0.12239713
-0.10719009 0.18889214 0.2117075 0.23485363 -0.048089933 -0.17993654 0.14925659 0.23561135
-0.069237284 -0.29307765 0.06511218 0.2052589 0.1106977 -0.14426382 0.23943526 0.22515714
-0.17444186 0.13705423 0.3562497 0.09423047 0.15182567 -0.06551984 -0.10829622 0.016017213
0.1718681 0.16429967 -0.075128585 0.20666786 -0.25179946 -0.16193306 -0.11557672 0.11409454
-0.19504513 -0.027527569 -0.084024064 0.11088528 0.13635184 0.12681514 -0.08393492 0.24639234
0.2829239 -0.049038753 -0.18359964 0.24900071 0.00018282043 0.042981565 -0.3028497 0.25944993
0.21858537 -0.13084328 0.09982085 0.060441446 0.08775399 0.28330794 -0.08457511 -0.16489455
00000000: 23bf 90bd e1da 153e 11fb 7bbc 5911 57be
00000010: e4b7 a03d d91b b4bb 6f42 e1bc 3c86 1ebe
00000020: 1fbf ea3d 55cb fdba 4be0 6a3e 64f9 283e
00000030: d357 9f3c a79a 1dbe 91c6 46bd cfff 293d
00000040: 2e11 f33d 15ff 413d baeb 4fbb 996e 863e
00000050: 7180 5cba add9 0cbe 4f8e d63d 9bab 85be
00000060: 414a 4d3e 0339 483e 53f1 123b 74b4 2a3b
00000070: 36e9 353d 5831 373e c96c 6f3e 88d2 e3bd
00000080: 5923 b6bd c8ad cb39 7c80 343d 1235 afbd
00000090: bbe3 29be 891d 0e3d 4926 553c 3dfc 83be
000000a0: 91c9 2f3d a694 0dbe 3788 203c 9573 583c
000000b0: e053 43bc d2fc 533b bbf2 8b3e c762 fbbc
000000c0: 34fb 0fbe bd67 ec3c 5d0e 1dbc f4cc 13be
000000d0: 0fde c53e 5714 c3bc 498b 0abe 8829 753d
000000e0: 895f c3bd e399 00bc e7c4 323d fc82 563d
000000f0: e79c f3bd c334 073e 865c ad3d 957b 6d3c
00000100: 454c 11bd 08d1 d4bd cf28 c23d 2411 cfbd
00000110: 8d25 733e 7b0f 6d3d 073c 16bd e458 f6bc
00000120: 6acd 84bc 318a 31be 0087 2dbd a5f6 2fbd
00000130: 6fc4 efbc 61c2 3ebd dea3 01bb c527 c83d
00000140: fb86 8ebd b402 1b3d de93 6fbc 8382 e1bd
00000150: 7a4f 0c3e 9d47 2bbd e444 e4bd 0f36 a7bd
00000160: f03f b53d a60a c4bd 2195 fcbd 7f5d 91bd
00000170: b0d4 713d 64e4 c6bb 8e08 993c 5a1c 4fbd
00000180: 0d95 afbd d2e1 643c 45c3 17be 7b2c 99bd
00000190: 777a 6e3d 8b53 983c 5b5f 113e bb1b cfbd
000001a0: 1778 1c3d 62b4 7fbd d24c 743d 5786 11be
000001b0: 148f c6ba fd13 3fbc aac7 1c3c e45b 153d
000001c0: f397 c1bd 0b9d 60bc 8c3e 643d ae5b e73d
000001d0: 72c9 c43d c2a6 9f3b daea c23d 00ad bfbd
000001e0: eef3 0a3e 3e9a c6bd e752 39bc cf16 7fbd
000001f0: 9162 bcbd 009f c23d 1041 ee3d 6f8d 9fbd
00000200: 69d8 a6bd fecf 993d e3de c7bd b346 2bbd
00000210: b6b4 d33d 03a5 db39 5b9a 14bc 4186 f2bd
00000220: 106e 813d 9886 07be 9990 6f3c 2092 bcbd
00000230: a5a7 863e ffdc 00bd 6754 03be ef56 04be
00000240: 142e f33d 4567 6a3e 327c 56be 5e33 17bd
00000250: d66b 03bc eff6 87be 6309 63bd 35f1 4dbe
00000260: 65cc 833e ef25 eabd 15bb 64bc 5e89 6b3e
00000270: efbd b5bd c4e0 753d 7657 3c3d fed0 54bd
00000280: a624 16be 0f7f 7fbe f72b c33d 560d 1a3d
00000290: c2a0 03bc b9ca 013e d1bc 793e b768 7bbe
000002a0: b56c 393e 7144 72be d9cb f2bd 85d4 34be
000002b0: 0af4 aebc 0823 c3bd 9160 f43c 8725 cdbd
000002c0: 58bf 26be 2160 02be 4ba7 be3c 0268 6dbd
000002d0: 17ff 5f3e 7bb8 44bd 03ba 503d e4de eabd
000002e0: 5767 25be 7bea b23c 5c0a 58be 103d c93d
000002f0: 99c5 6bbe 47f8 ecbd 5b32 923c d117 b93d
00000300: a3d1 3b3c 1e89 8bbd ebc4 153d 1ce1 103e
00000310: cfc6 a9bd f154 5d3d a8a6 1bbe 59ab fa3d
00000320: 7a86 dbbd f16c 413e dac9 583e 787d 703e
00000330: f3f9 44bd 4941 38be b8d6 183e 1a44 713e
00000340: 47cc 8dbd 460e 96be 8959 853d 642f 523e
00000350: 7ab5 e23d e5b9 13be 842e 753e 988f 663e
00000360: e3a0 32be f257 0c3e 5c66 b63e e8fb c03d
00000370: 3078 1b3e 442f 86bd 69ca ddbd 8836 833c
00000380: 31fe 2f3e 2c3e 283e 04dd 99bd bda0 533e
00000390: dceb 80be c8d1 25be 7db3 ecbd 66aa e93d
000003a0: e9b9 47be 7f81 e1bc cf14 acbd d217 e33d
000003b0: d19f 0b3e d4db 013e 12e6 abbd 464e 7c3e
000003c0: 67db 903e dcdc 48bd 8b01 3cbe 0bfa 7e3e
000003d0: 7cb3 3f39 700d 303d 1e0f 9bbe 9fd6 843e
000003e0: d8d4 5f3e c8fb 05be e06e cc3d 7391 773d
000003f0: 5db8 b33d bd0d 913e b735 adbd 1eda 28be

weight_hh_l1 f4 [192, 64]
0.06789447 0.031435 -0.09853286 0.14435902 -0.047532354 0.11623889 0.02073792 0.0116732605
0.17565309 0.130941 0.023368727 -0.12594701 -0.065196894 -0.1715123 -0.13995585 -0.10266455
-0.035007797 -0.045967694 -0.16924608 0.11280624 -0.23983026 0.01690986 -0.021891467 0.12637329
-0.13552581 0.0025333303 -0.061174896 0.03303222 0.06446695 0.16345517 -0.032117926 -0.13388708
-0.06578977 0.04661083 -0.08669426 0.0067442893 0.07144295 0.04437591 0.13044688 -0.22459486
-0.04802744 0.14401208 0.03789695 -0.13022159 -0.11394895 -0.039879292 0.07712193 -0.02375895
-0.118099764 -0.042463 0.11177534 0.09982758 -0.12849681 0.13452433 0.12916106 0.14181787
-0.055593632 -0.048983358 -0.16234298 0.04380346 0.044743616 0.16957599 0.012046141 -0.10210944
0.11842268 0.059326515 0.117248036 0.031380042 -0.009515516 -0.12542309 0.10890131 0.10958844
0.05500078 0.015526136 -0.036705293 -0.08986088 0.10750739 -0.069989234 -0.21741548 -0.17369877
-0.10319329 0.05992478 -0.010019881 0.0048642512 0.00011044885 0.11765956 0.009241916 0.22427796
-0.12283369 -0.016451377 0.020216327 0.17655559 0.010456104 0.21665806 0.013242287 0.028116912
0.08257267 -0.08116743 -0.13565436 -0.13540809 0.07376442 0.032458894 0.25918955 0.061747827
0.022956913 0.012188231 0.049079783 -0.021583455 -0.21299344 0.024104957 0.01959803 0.0015280651
0.0031399005 -0.0011913595 0.069764875 0.036223926 -0.117791764 -0.042530846 -0.05747388 0.22734281
-0.018147286 0.10904948 -0.0008328219 -0.030823136 0.1453492 0.010609107 0.08056254 0.04451613
0.008709038 0.009789861 0.00540433 -0.0922236 -0.030743228 0.046608537 0.11418919 -0.056963272
0.03631595 0.019109663 -0.009138094 -0.100401275 0.11684055 -0.18751709 0.09055207 -0.005195787
-0.15793076 0.057547953 0.013651875 -0.061511707 -0.017735766 0.14694433 0.050073147 0.034831963
-0.055672202 0.25163487 -0.028100679 -0.14195114 -0.24033765 -0.061127704 -0.07180474 -0.081047565
0.12725872 -0.012168394 -0.11353042 -0.07992568 -0.056458365 -0.077202976 0.11045039 0.005134508
-0.1407653 -0.059405036 -0.11685735 -0.03937461 0.027055515 0.006283273 0.16838335 0.1320293
-0.15257274 -0.029838922 0.011450336 0.012372552 0.037691753 0.09247291 -0.06992787 0.041563276
-0.0079634385 0.17465842 -0.22027251 0.1246483 -0.07596253 -0.02992918 -0.107142575 -0.104433544
-0.008981499 -0.17567572 0.101056784 -0.120223604 -0.1209837 -0.10136374 0.018869957 0.06391055
-0.11393956 -0.0089201145 0.14017409 0.0486945 -0.04872466 -0.011778777 0.114764646 0.2645144
0.13842984 0.099454805 0.032218207 -0.05908528 -0.051999714 -0.01534125 0.113665454 -0.13348413
0.023986336 -0.055549555 -0.0052903714 0.08951344 0.029270463 -0.31947455 0.05416939 0.092509024
-0.13108027 -0.06637067 0.22186504 0.13599482 0.08212861 0.05039953 -0.07445012 0.0029344384
-0.0263782 0.056796722 -0.055552207 0.09194634 0.045888923 0.026576377 -0.20500778 0.03910209
0.122562535 0.013228361 -0.035995405 0.01527569 -0.029338403 -0.08638576 0.18286002 -0.1658123
0.077449515 -0.19377619 0.10653072 -0.043553013 -0.0010537908 -0.07112605 0.14411224 0.16934803
00000000: 420c 8b3d fdc1 003d 99cb c9bd dad2 133e
00000010: 49b1 42bd a80e ee3d 92e2 a93c 3441 3f3c
00000020: 67de 333e 6615 063e c66f bf3c 41f8 00be
00000030: f385 85bd eca0 2fbe 9650 0fbe cb41 d2bd
00000040: 5664 0fbd 9f48 3cbd d84e 2dbe f506 e73d
00000050: 1096 75be 8c86 8a3c bc55 b3bc 0068 013e
00000060: 47c7 0abe 3b06 263b 8792 7abd cb4c 073d
00000070: 4007 843d cb60 273e 168e 03bd b219 09be
00000080: c9bc 86bd ffea 3e3d c38c b1bd 33ff dc3b
00000090: ae50 923d 84c3 353d de93 053e 32fc 65be
000000a0: 6cb8 44bd e777 133e d539 1b3d cf58 05be
000000b0: 115e e9bd 7858 23bd 1af2 9d3d 21a2 c2bc
000000c0: 4ade f1bd afed 2dbd 78ea e43d 6772 cc3d
000000d0: ab94 03be bfc0 093e cc42 043e b438 113e
000000e0: 26b6 63bd c6a2 48bd 3d3d 26be 426b 333d
000000f0: 1545 373d 54a5 2d3e 2d5d 453c c11e d1bd
00000100: 9787 f23d 5c00 733d bd1f f03d 5c88 003d
00000110: f8e6 1bbc e96e 00be a607 df3d e76f e03d
00000120: 7f48 613d 5661 7e3c 4a58 16bd fb08 b8bd
00000130: d62c dc3d 8456 8fbd 2aa2 5ebe 17de 31be
00000140: 0157 d3bd b073 753d 6d2a 24bc 4c64 9f3b
00000150: c6a0 e738 7ff7 f03d 686b 173c 1fa9 653e
00000160: 3b90 fbbd 0ac5 86bc b69c a53c fdca 343e
00000170: 1450 2b3c 9cdb 5d3e 2df6 583c 7055 e63c
00000180: dc1b a93d 1c3b a6bd fae8 0abe 6ba8 0abe
00000190: cd11 973d 9ef3 043d 7eb4 843e 4aeb 7c3d
000001a0: 2310 bc3c 25b1 473c e207 493d c9cf b0bc
000001b0: f41a 5abe c277 c53c 0c8c a03c 5b49 c83a
000001c0: cac6 4d3b 6427 9cba e3e0 8e3d 8a5f 143d
000001d0: cf3c f1bd d334 2ebd bb69 6bbd 8ecc 683e
000001e0: 9ea9 94bc 5555 df3d bb51 5aba cd80 fcbc
000001f0: 6cd6 143e d2d1 2d3c f9fd a43d 8c56 363d
00000200: 5ab0 0e3c a765 203c ce16 b13b badf bcbd
00000210: 39d9 fbbc 98e8 3e3d 06dc e93d 5252 69bd
00000220: 09c0 143d de8b 9c3c f2b7 15bc 2f9f cdbd
00000230: 194a ef3d 7b04 40be 5d73 b93d 6c41 aabb
00000240: 9ab8 21be 67b7 6b3d 1dac 5f3c b3f3 7bbd
00000250: 994a 91bc 9378 163e 8019 4d3d f6ab 0e3d
00000260: 8908 64bd 49d6 803e 6533 e6bc a45b 11be
00000270: 131b 76be 0b61 7abd 5d0e 93bd 44fc a5bd
00000280: 1c50 023e f25d 47bc a382 e8bd 13b0 a3bd
00000290: e340 67bd 981c 9ebd d033 e23d 603f a83b
000002a0: c724 10be b252 73bd e852 efbd 4547 21bd
000002b0: 87a3 dd3c eae3 cd3b af6c 2c3e b032 073e
000002c0: 073c 1cbe c170 f4bc 319a 3b3c 3fb6 4a3c
000002d0: ab62 1a3d 7062 bd3d 5836 8fbd 413e 2a3d
000002e0: 1579 02bc a8d9 323e 1e8f 61be 9c47 ff3d
000002f0: 3e92 9bbd 0a2e f5bc 916d dbbd 41e1 d5bd
00000300: 2327 13bc 56e4 33be dcf6 ce3d cb37 f6bd
00000310: 4dc6 f7bd cb97 cfbd 2b95 9a3c 89e3 823d
00000320: 2559 e9bd ac25 12bc cc89 0f3e e273 473d
00000330: 8293 47bd c6fb 40bc ba09 eb3d 6e6e 873e
00000340: 8dc0 0d3e f6ae cb3d 3df7 033d 6803 72bd
00000350: a7fd 54bd de59 7bbc 6fc9 e83d 10b0 08be
00000360: fe7e c43c ee87 63bd da5a adbb d352 b73d
00000370: 9cc8 ef3c 2b92 a3be b9e0 5d3d 5f75 bd3d
00000380: e839 06be 59ed 87bd 9730 633e 3a42 0b3e
00000390: 0b33 a83d bd6f 4e3d 4e79 98bd b54f 403b
000003a0: 1817 d8bc aea3 683d b68a 63bd 5d4e bc3d
000003b0: 06f6 3b3d b4b6 d93c 8fed 51be 8329 203d
000003c0: 1102 fb3d c4bb 583c eb6f 13bd e346 7a3c
000003d0: 1757 f0bc 04eb b0bd a83f 3b3e b3ca 29be
000003e0: da9d 9e3d 446d 46be c72c da3d a564 32bd
000003f0: 5a1f 8aba 89aa 91bd 2992 133e 9269 2d3e

bias_ih_l1 f4 [192]
0.15694557 -0.094732545 0.05666124 -0.102482185 -0.023887353 -0.13766609 0.16225995 -0.1401979
0.041700397 -0.0012677097 0.029539106 0.13022552 0.08547017 -0.14105123 -0.06276939 -0.13427857
-0.0025320116 0.04505446 -0.08410293 -0.081941806 0.12004011 0.0046173967 0.1500163 0.027237386
-0.090037465 0.065081924 -0.12274248 -0.079183504 -0.14168042 0.024985783 0.08150851 0.082156
-0.18149363 -0.03313894 0.101523116 0.058782376 0.09366661 -0.13124464 0.11781431 0.13529818
0.030048015 0.13661712 0.22779147 0.062672354 0.20847584 0.032043383 0.056756034 0.03134493
-0.031859387 0.08403536 -0.040266767 0.11237787 0.17227226 -0.15755841 0.06167475 -0.0777096
0.16869378 0.065763466 -0.15542965 0.047841728 -0.0076934802 -0.1932011 0.019640718 0.046402425
-0.26769817 -0.228908 -0.08451067 -0.0672735 0.23678115 0.089326605 0.007565588 -0.013940369
0.15673374 -0.21638879 0.11428159 -0.12176577 -0.020907728 -0.17626439 0.082059465 0.067320906
0.13895044 -0.0811038 0.04111379 -0.010231693 -0.004579374 0.11521646 -0.05434641 -0.12634468
-0.023104617 0.06796465 0.09413306 -0.051447578 -0.0131402975 0.06918702 -0.11193156 -0.013202928
-0.0012243715 -0.18631661 -0.4204268 -0.30079153 0.11462448 0.022611262 -0.13112251 0.011671687
0.12574552 0.017744014 -0.27654755 0.075786814 -0.22203994 -0.008147417 -0.21455473 -0.06441977
0.050701518 -0.24278788 0.05766629 -0.46718603 -0.24838594 0.25302044 0.030869404 0.04673614
-0.029289672 -0.04330879 0.010312913 -0.11561546 -0.20219044 -0.18602054 0.09435447 -0.26219347
-0.12927382 0.17527227 0.014258566 -0.19323635 -0.12364581 -0.16959637 0.10087451 0.11813344
0.08041265 -0.023512864 -0.04783216 -0.10967739 -0.102477945 0.00018601413 -0.052382983 0.17776763
-0.07166068 0.13792083 0.14279024 -0.037496816 -0.020938547 0.1344995 -0.033539392 -0.016762549
0.10177567 0.037097074 -0.13084376 -0.068502106 0.018174611 0.071078345 0.05456183 0.071946315
0.11182063 0.04719579 -0.15612401 0.014572041 0.11855481 -0.11523761 0.1467772 -0.06351009
-0.01792917 0.03598094 0.018519556 0.062179174 -0.1146839 -0.06964323 0.005097286 -0.14965644
-0.07519675 0.2174527 -0.01864836 -0.05826418 0.044344906 -0.1256497 0.08779707 -0.22855997
-0.12713407 0.11774538 0.008993526 0.082805924 0.14149903 -0.15409255 0.10143242 0.032915592
00000000: 57b6 203e 2303 c2bd 9e15 683d 2ee2 d1bd
00000010: 69af c3bc 57f8 0cbe 7927 263e 0a90 0fbe
00000020: 09ce 2a3d 4729 a6ba fffb f13c d759 053e
00000030: fc0a af3d bc6f 10be 3d8d 80bd 5280 09be
00000040: 1bf0 25bb 078b 383d 283e acbd 1bd1 a7bd
00000050: 97d7 f53d 884d 973b df9d 193e f020 df3c
00000060: 9065 b8bd ac49 853d 6960 fbbd f62a a2bd
00000070: ac14 11be fcae cc3c efed a63d 6841 a83d
00000080: 77d9 39be b2bc 07bd 5aeb cf3d cac5 703d
00000090: 48d4 bf3d ff64 06be a148 f13d 9b8b 0a3e
000000a0: 4127 f63c 5ce5 0b3e 2b42 693e 5d5a 803d
000000b0: b17a 553e ec3f 033d 0479 683d 8b63 003d
000000c0: fd7e 02bd bb1a ac3d c4ee 24bd 5e26 e63d
000000d0: 2468 303e fe56 21be aa9e 7c3d 3626 9fbd
000000e0: 10be 2c3e ffae 863d f328 1fbe b0f5 433d
000000f0: 9719 fcbb 82d6 45be 92e5 a03c 7810 3e3d
00000100: bc0f 89be dc66 6abe ee13 adbd b0c6 89bd
00000110: c276 723e def0 b63d c1e8 f73b 2566 64bc
00000120: cf7e 203e 0695 5dbe 770c ea3d 5560 f9bd
00000130: af46 abbc a77e 34be cb0e a83d 8bdf 893d
00000140: 0649 0e3e c019 a6bd ef66 283d d5a2 27bc
00000150: 930e 96bb 9bf6 eb3d 579a 5ebd 8060 01be
00000160: e545 bdbc 0d31 8b3d d5c8 c03d b2ba 52bd
00000170: 674a 57bc edb1 8d3d 603c e5bd 1851 58bc
00000180: 177b a0ba c8c9 3ebe 2e42 d7be 5901 9abe
00000190: 3dc0 ea3d 413b b93c fb44 06be 9a3a 3f3c
000001a0: 6fc3 003e e55b 913c a497 8dbe 1e36 9b3d
000001b0: 705e 63be be7c 05bc 3cb4 5bbe 83ee 83bd
000001c0: 65ac 4f3d 639d 78be 7d33 6c3d 0233 efbe
000001d0: e258 7ebe e58b 813e d5e1 fc3c 656e 3f3d
000001e0: e5f0 efbc 8f64 31bd 7ef7 283c ccc7 ecbd
000001f0: 030b 4fbe 2b7c 3ebe eb3c c13d 393e 86be
00000200: 5b60 04be 937a 333e c39c 693c c0df 45be
00000210: 043a fdbd acaa 2dbe 4c97 ce3d f2ef f13d
00000220: 63af a43d 0d9e c0bc a8eb 43bd 8a9e e0bd
00000230: f5df d1bd ca0c 4339 8a8f 56bd b808 363e
00000240: d6c2 92bd 1e3b 0d3e 9b37 123e 4396 19bd
00000250: 5187 abbc 3dba 093e 9a60 09bd 9d51 89bc
00000260: c36f d03d 1af3 173d e8fb 05be d54a 8cbd
00000270: ece2 943c 8691 913d 3a7c 5f3d 9758 933d
00000280: 3702 e53d 5f50 413d f9de 1fbe 92bf 6e3c
00000290: ddcc f23d b201 ecbd c34c 163e 9411 82bd
000002a0: 32e0 92bc c060 133d 53b6 973c 97af 7e3d
000002b0: 64df eabd 1ca1 8ebd 2207 a73b 8a3f 19be
000002c0: c100 9abd ecab 5e3e 72c4 98bc 6ca6 6ebd
000002d0: 01a3 353d 51aa 00be f3ce b33d a00b 6abe
000002e0: 6f2f 02be 7d24 f13d 9559 133c 2796 a93d
000002f0: 1fe5 103e 70ca 1dbe cdbb cf3d 80d2 063d

bias_hh_l1 f4 [192]
0.06736276 0.13139914 0.052870624 -0.062364694 0.047496516 -0.00783115 -0.014655674 0.036051508
0.04792505 0.1451823 0.019889876 -0.00657177 0.050495706 0.024506371 -0.094377436 0.09504762
-0.104160726 0.21606512 0.051992126 0.11885714 0.124443926 -0.08638102 -0.052257735 -0.016151182
-0.113447756 0.13541074 -0.045597207 -0.21734494 -0.10176074 0.07345234 0.18907744 0.11699586
-0.11448586 0.08576305 0.06913265 0.10948261 0.00066299614 -0.014003549 0.10574997 0.1265542
-0.09984164 0.06618944 0.16212943 -0.02809739 0.16975732 0.054367263 -0.0050496776 0.057690334
0.12309288 3.420076e-05 -0.18137482 0.043561596 0.20148288 0.037802517 -0.06841175 0.020085221
0.024835167 -0.08763303 -0.14299087 0.12610602 -0.026704434 -0.12824589 -0.0597725 0.10431861
-0.16279629 -0.30749395 -0.1682461 0.011847527 0.06540813 0.18671283 -0.10513322 0.1601331
-0.04025783 -0.32621682 0.061487973 -0.048899394 -0.009931812 -0.193594 -0.117255546 0.036009934
-0.024682593 -0.046107356 0.12873664 0.10213038 -0.051637605 0.16079454 0.14385563 -0.107528456
0.09964414 0.22107978 0.04403299 0.075850084 0.090010196 0.09346269 -0.014701011 0.06269889
-0.024554253 -0.1871909 -0.4038422 -0.3313573 0.081985705 0.18055919 -0.17278662 0.029520938
0.16215082 0.08317977 -0.1099708 0.09338607 -0.1445744 0.11399357 -0.21502203 0.022504691
0.048489567 -0.2931381 0.04572623 -0.48111135 -0.27172396 0.19565526 0.14254645 -0.070458815
-0.10497024 -0.0035912846 -0.038399328 -0.11011777 -0.03755042 0.038592324 0.10532801 -0.24031366
-0.10091596 0.038326655 -0.030356528 -0.14841735 -0.105768666 -0.065235704 0.16594462 -0.06433155
-0.02206833 -0.11639378 0.09349997 -0.037012175 -0.040020153 -0.053629175 0.12437544 -0.026433613
-0.054476682 0.1945319 0.094049364 0.016863182 0.07188103 0.093137555 -0.069527015 0.24580328
-0.05754942 -0.09966538 0.01061889 -0.10145208 -0.102864265 -0.01801048 -0.08113104 -0.16102143
-0.07002673 0.018879091 -0.23805524 -0.08284422 0.18307345 0.030446721 0.12328636 -0.048408013
-0.12715998 -0.017317835 0.13130482 -0.039215524 0.049879204 -0.009683966 -0.033273526 -0.062272374
-0.04972724 0.2070567 0.11946872 0.013073688 -0.16519842 -0.03287622 -0.09944971 -0.13935596
0.010009163 -0.016850416 0.015454087 0.032020755 0.091920204 0.035336982 0.124615446 -0.25075787
00000000: 7df5 893d 7f8d 063e de8e 583d 1f72 7fbd
00000010: b58b 423d 394e 00bc 5a1e 70bc bfaa 133d
00000020: 0f4d 443d abaa 143e 18f0 a23c 0158 d7bb
00000030: 96d4 4e3d 96c1 c83c f548 c1bd 54a8 c23d
00000040: 3852 d5bd 2d40 5d3e b2f5 543d 5f6b f33d
00000050: 75dc fe3d 88e8 b0bd 350c 56bd 7c4f 84bc
00000060: 4c57 e8bd 1da9 0a3e 23c4 3abd ac8f 5ebe
00000070: ef67 d0bd 2e6e 963d 849d 413e 879b ef3d
00000080: 9077 eabd 8aa4 af3d 6b95 8d3d 6b38 e03d
00000090: ebcc 2d3a 246f 65bc 7193 d83d 6d97 013e
000000a0: c679 ccbd 548e 873d 4205 263e 7f2c e6bc
000000b0: ddd4 2d3e 35b0 5e3d c477 a5bb b34c 6c3d
000000c0: 1f18 fc3d c972 0f38 52ba 39be a56d 323d
000000d0: 8751 4e3e d0d6 1a3d 761b 8cbd c389 a43c
000000e0: 1f73 cb3c f278 b3bd 336c 12be f021 013e
000000f0: 42c3 dabc e452 03be 02d4 74bd ffa4 d53d
00000100: 12b4 26be d96f 9dbe b548 2cbe 211c 423c
00000110: b3f4 853d a631 3f3e 1650 d7bd eef9 233e
00000120: 65e5 24bd e405 a7be d0da 7b3d bb4a 48bd
00000130: 0ab9 22bc 813d 46be ad23 f0bd 277f 133d
00000140: 2633 cabc 11db 3cbd 8ad3 033e bc29 d13d
00000150: f481 53bd 53a7 243e e44e 133e e137 dcbd
00000160: 3a12 cc3d bd62 623e f05b 343d 4a57 9b3d
00000170: 4457 b83d 5e69 bf3d 82dc 70bc 4768 803d
00000180: 0026 c9bc f9ae 3fbe 68c4 cebe aaa7 a9be
00000190: 1fe8 a73d 82e4 383e faee 30be e5d5 f13c
000001a0: dd0a 263e 285a aa3d 5f38 e1bd 3241 bf3d
000001b0: 500b 14be 7675 e93d bc2e 5cbe c25b b83c
000001c0: ff9c 463d 3216 96be 6d4b 3b3d 3a54 f6be
000001d0: 671f 8bbe da59 483e b2f7 113e b64c 90bd
000001e0: a3fa d6bd c25b 6bbb 9d48 1dbd 6d85 e1bd
000001f0: 78ce 19bd fc12 1e3d 36b6 d73d c914 76be
00000200: 07ad cebd 69fc 1c3d 41ae f8bc b8fa 17be
00000210: 3e9d d8bd 4c9a 85bd 63ed 293e 42c0 83bd
00000220: a4c8 b4bc dd5f eebd ea7c bf3d 149a 17bd
00000230: 2cec 23bd 44aa 5bbd 8db8 fe3d 4e8b d8bc
00000240: f122 5fbd 5f33 473e f49c c03d a824 8a3c
00000250: 5d36 933d e7be be3d 2e64 8ebd dbb3 7b3e
00000260: f1b8 6bbd 5d1d ccbd dafa 2d3c 1cc6 cfbd
00000270: 80aa d2bd b78a 93bc 0828 a6bd cde2 24be
00000280: 2d6a 8fbd 53a8 9a3c c1c4 73be 3baa a9bd
00000290: 9b77 3b3e 676b f93c 8f7d fc3d 7b47 46bd
000002a0: 3a36 02be 22de 8dbc c574 063e 75a0 20bd
000002b0: 234e 4c3d 7fa9 1ebc d249 08bd 5111 7fbd
000002c0: caae 4bbd ac06 543e 04ac f43d 0633 563c
000002d0: c629 29be 37a9 06bd 4aac cbbd 54b3 0ebe
000002e0: 79fd 233c e209 8abc 2433 7d3c 3228 033d
000002f0: a940 bc3d 83bd 103d 6236 ff3d 5663 80be
