model1_traffic.pth (torch, 169678 bytes, 12 tensors)

weight f4 [23, 8]
00000000: c3ea e6be 1a44 93bf d0fb 20bf 859d 41bf
00000010: 458d 15bf 1ffd 5d3f b454 cbbe 6940 523f
00000020: 1112 323f 516c 42bf 6271 4e3f f7b4 f63d
00000030: b086 c13e 8485 753f 0f42 71bf 4fec b03e
00000040: 12b3 6dbf be9a 00bf 613f e6be 6858 83bd
00000050: 1a77 fc3d c532 72bf 1e0a c53e 74ff 3cbe
00000060: 5152 813f 91f2 15bc baa3 8ebf f642 793e
00000070: b648 7d3e 46a4 c4bf ccbe babe ce15 bf3e
00000080: 2c13 a8bf 04ac 3640 f513 d8bf 480f 4e40
00000090: 3ac8 693f 8a0d 78bf c2e7 5b3f d3db a73f
000000a0: 7f57 303f 11cf fd3d 32e4 aa3f ea9b dfbe
000000b0: 86c8 aabe 2f52 84bf f17b c0be d5d8 b43e
000000c0: 75d3 b13f d4c3 f8be 9d53 d13f 48c5 a93f
000000d0: 838f eebf 9188 0fbf 7d33 34bf a96a 1c3f
000000e0: d241 763c d126 38bf 2245 20c0 558a a6bf
000000f0: bfac 98bf bd40 ce3f 6947 533d ca70 283e
00000100: 98f3 65bf 12a9 82bf cb05 423e 4686 9e3e
00000110: f296 8a3f de33 31bf c947 e6be 9ba5 fcbe
00000120: 5e06 9fbf 4a95 babe 4359 95bd d2a7 5dbf
00000130: 5004 483f 330d 83bf cfc4 163f 3740 82bf
00000140: 1580 3e3f 004b 0bbf e6fe 213f 381c e23f
00000150: 3924 fa3d 9cce 3fbf 0fdb 82bd 73c6 f73f
00000160: 1f76 b5bf 9bae 273d 00ef 993f ea4f c83d
00000170: ea95 963d 094a 1b3f 25a6 35bf 9a1a f83d
00000180: e39b adbf 3cd6 b1bf 0dda 62bf ee3e 06c0
00000190: 8964 9d3e f9c3 0fc0 43ab 433f 188f b9bf
000001a0: 23e3 27bf 0a72 6dbf 059c 4fbe 2764 e83f
000001b0: 0ff8 e2bc 733e 563e 0ec1 34bf b359 12bf
000001c0: 6002 13c0 ea3b 83bf 5941 223f 82d9 b33f
000001d0: 9df2 b43f fd76 ccbf 45ae 063f 9244 20bf
000001e0: 5486 94bd ed06 c23f de04 bbbe 23e4 cd3e
000001f0: dc7e bd3e 37f9 033f 3bb7 6dbe 97f3 5c3f
00000200: 3c2c 033f b59f afbe c37d 59bf 9e1f 933e
00000210: a73e 443f 6aa6 823f e355 0e3f 0342 bdbe
00000220: 374f febe 1d39 aa3f edd8 4abf 4df2 4dbf
00000230: 6f94 75be 5e3a 043f 21ef 9fbf 93bd 41bf
00000240: a527 15c0 1fab 2bbf 4347 863f 7c5a 1abe
00000250: 6418 5cbf fbf2 983f 298b 253f e3ba f43f
00000260: 8001 2f3e 3c21 0b40 41b1 aebf 8879 91bf
00000270: 5482 5e3e 6639 bc3c 5ec1 a4bf df71 283f
00000280: 12ba eb3e d07c 1bbf a71b 2ebe 5098 3a3e
00000290: 9901 1440 e6d7 cbbf 4a77 b1be 5651 dcbe
000002a0: c167 f1bd d213 5bbf 43d5 3f3e 1530 2a3f
000002b0: c44a af3f 9d6f cb3e 0a72 a4bf 363c 6e3f
000002c0: 26fe 083f 4971 963f 7cc7 94bf 70ff c5be
000002d0: be14 97bf 001c 45bf 9605 75be 9f4c 0f40
-0.45100984 -1.1505158 -0.62884235 -0.7563098 -0.58418685 0.8671436 -0.3971306 0.8212953
0.6955882 -0.7594653 0.8064176 0.12046235 0.3779807 0.95906854 -0.9424142 0.3455529
-0.92851365 -0.5023612 -0.4497023 -0.064133465 0.12327404 -0.9460872 0.3848428 -0.18456823
1.0103246 -0.009152071 -1.1143715 0.2434195 0.24734768 -1.5362632 -0.3647369 0.37321323
-1.3130851 2.854249 -1.688109 3.2196827 0.91321146 -0.9689566 0.8590051 1.311396
0.6888351 0.123930104 1.335089 -0.4367364 -0.33356112 -1.033758 -0.3759456 0.3532168
1.3892657 -0.48586905 1.6353642 1.326333 -1.8637546 -0.5606776 -0.70391065 0.6110025
0.015030341 -0.7193423 -2.5042195 -1.3010966 -1.1927718 1.6113507 0.051581774 0.16449276
-0.8982482 -1.0207846 0.18947522 0.30961818 1.0827315 -0.6921977 -0.44976643 -0.49345097
-1.2423818 -0.36442024 -0.07292416 -0.865842 0.7813158 -1.0238403 0.58894056 -1.0175847
0.7441419 -0.54411316 0.6327957 1.7664862 0.1221394 -0.74924636 -0.06389438 1.9357437
-1.4176673 0.040938 1.2026062 0.097808674 0.073528126 0.60659844 -0.7095664 0.12114449
-1.3563198 -1.3893504 -0.8861397 -2.097591 0.30740765 -2.2463362 0.764332 -1.4496794
-0.6558096 -0.92752135 -0.2027436 1.8155564 -0.027706174 0.2092226 -0.7060708 -0.5716812
-2.29702 -1.0252659 0.6338096 1.4050753 1.413654 -1.5973812 0.52609664 -0.6260463
-0.072521836 1.5158364 -0.3652715 0.40213117 0.3701085 0.51552147 -0.23214428 0.8630919
0.5123937 -0.34301534 -0.8495752 0.2873506 0.766581 1.0207036 0.555998 -0.36964425
-0.4966981 1.329868 -0.7923725 -0.80447847 -0.23982404 0.5165156 -1.2494851 -0.7567989
-2.3305447 -0.67057985 1.0490497 -0.1507358 -0.8597472 1.1949152 0.64665467 1.9119533
0.17090416 2.1739035 -1.3647844 -1.1365213 0.21729404 0.022976588 -1.2871511 0.65798753
0.46040398 -0.60737324 -0.17002736 0.18222165 2.3125975 -1.5925262 -0.34661323 -0.43030804
-0.117873676 -0.8557712 0.18733697 0.6647962 1.3694692 0.39733592 -1.2847302 0.93060625
0.535128 1.1753322 -1.1623378 -0.38671446 -1.1803205 -0.7699585 -0.23927912 2.2390516

weight_ih_l0 f4 [192, 9]
00000000: a544 cebd 15a1 c63c e000 d63d 2d2d 36be
00000010: 8369 d73c 9847 2abd 6698 043e 58f0 73bd
00000020: 35d1 8f3d 6b48 0dbc e369 8c3b 2f7f bcbd
00000030: 50ff bfbb 15c7 11bd 7c51 bdbd 1dbb 373e
00000040: d26b 41be 43b9 aa3d 3de5 f8bc 4006 3dbd
00000050: 9f71 7c3d 9052 13be b3b2 6b3d c723 a63c
00000060: 1c62 1c3e 5226 c93d 72a2 c0bd 4b7e b83c
00000070: 0abd 303e 691a 6fbc 77cd a5bd aece a8bd
00000080: e961 9c3d a9c6 1abd 1b97 fd3c b0cf c4bd
00000090: 75d6 06bd fb1c 98bd 952b 17be 5bd7 d1bd
000000a0: 17d1 7d3c 51be 7cbd cf11 053e 3360 34bd
000000b0: 4f51 13be a901 753c a312 433b 8f7e 453d
000000c0: ab74 81bd 3e6a 68bd fc54 07be c634 983d
000000d0: aa15 21be 8983 26bd 8e73 003c 4dea 573d
000000e0: 4bc9 d1bc cb11 e63c 58ea 423e b875 ea3c
000000f0: e62c cb3d 270c ca3d d20d f2bc 80ff 9bbd
00000100: 112d 3b3d 8481 c0bd 9a2d 003e dedd 29be
00000110: 74ba 51b8 fcbc 5b3d 041f 4a3d ab57 afbc
00000120: ad49 8c3d be41 093e 8394 d2bd 03db b03d
00000130: 3c29 a2bd 6d34 523d 2fe4 273e b9fb 2dbd
00000140: 70fc 733c 3da3 70bd ddf7 433d 9cec d1bd
00000150: 15d8 7ebd 25c6 8ebd 5e17 c23d c92a 343e
00000160: 10dd 50be e954 f8bc b69d 1fbe 926c 813b
00000170: 0ebf 953d 6594 f1bc ab79 823d 51b7 7ebc
00000180: aeb4 463e 1588 f5bc f52f 1c3d 3296 92bd
00000190: 0924 81be d839 16bc 2418 eabd 21f7 af3d
000001a0: b45b 02be e68b 5e3e 4e15 c3bd dc95 123d
000001b0: 8d82 ac3c e5b4 02bd f025 dabc 8f2b 52be
000001c0: efbb 113d dba6 0c3c d052 82bd e995 afbc
000001d0: 547d b2bd d5df 893d 39b6 683d 5a9c 13bd
000001e0: dd5e 08bd 9680 d5bd b9c3 703d e169 983d
000001f0: 6d08 4dbd c38a 60be 8433 3bbd ee59 a7bd
00000200: 7baa 31bc c4c4 8e3c 4246 40bc 1d0d eb3d
00000210: 5df2 2e3e 860a 003d 116d f9bc edb3 193e
00000220: 5f2f a5bd cbb5 103e cfb0 85be 51a7 62bc
00000230: 86a5 87bb b695 58bd 27ae d3bd 6988 a9bd
00000240: 70e5 7d3e 8ec1 57bd b2ca ebbd f8fc 4a3d
00000250: 3587 723d 17ba 143d d519 403e 5bcf acbe
00000260: 766d 843d 1e07 643d 3722 f93c 41b9 183e
00000270: 26c7 9a3d b980 dbbd 16d8 a03b 04bb e13b
00000280: 986c 083e 5744 ac3d 2552 003e c11b 633d
00000290: 8483 f73d 89e9 6d3c c6bf 1cbe 4af4 053e
000002a0: d0ee 593d 2646 81be a961 bf3d 1fbe bfbc
000002b0: 4a34 023e 798c d73c 6895 373e 6da5 443d
000002c0: b983 8e3e 62fd 0abe 7d86 aebb f2bf f33d
000002d0: 4125 f7bd 2823 6abe d6ee cdbc 113d 0bbc
000002e0: 1181 3abc 357a c8bd 4d7c cb3d ad8f c1bb
000002f0: 556d d63c 9e16 353e 522d 01be 6de2 543d
00000300: 342b 503d 1ab3 893d a438 9c3a 2b34 2abe
00000310: bbcc bbbd b002 a33d be59 243e b323 33be
00000320: 12da 9c3d d38a 96bd f1c1 41bd d020 23bd
00000330: da74 bfbd 3f88 18be d68e 213d 7bbe c93c
00000340: 97af 0abd 7763 d53d c363 15bd 4bbf b0bd
00000350: 13f9 91bd 1192 d6bd befd a0bd e7aa e83c
00000360: e3fc dcbd 817e 82bd 19bc 9d3d 3146 debc
00000370: ec92 a8bd c22b 01be 118a 523e ab65 f93d
00000380: e3cd 25bd a875 c8bc 09df 823d cf68 3d3e
00000390: e3f1 7abe c7aa 9d3d a045 aa3d 6ea0 78bd
000003a0: 3701 a5bd 0184 a23c 1fc4 06bd 58f1 1c3c
000003b0: 3579 d3bd e6ff 3abe 62ee 8f3c ee6e 77bc
000003c0: 16ba abbd f313 63bd 5d71 45be 6bc6 fdbd
000003d0: a932 cd3d de44 043e 6838 3bbe ba25 efbc
000003e0: a5f6 343d 1dfa 9ebd ffc7 37bd 314b 33bd
000003f0: 7528 99bd 38dd b8bd def7 1b3c 53a9 033e
-0.10071687 0.024246732 0.10449386 -0.1779067 0.02629543 -0.041572183 0.1294876 -0.05955538
0.07022325 -0.008623223 0.0042850836 -0.09203946 -0.005859293 -0.03559025 -0.092440575 0.17942472
-0.18888786 0.08336117 -0.030382747 -0.04614854 0.061631795 -0.14386964 0.057543468 0.020280732
0.15271801 0.09821762 -0.09405984 0.022521159 0.17259613 -0.014593699 -0.0809583 -0.08242546
0.076358624 -0.037787113 0.030955842 -0.09609926 -0.032919366 -0.074274026 -0.14762719 -0.10246154
0.015491745 -0.061704937 0.12995075 -0.044037055 -0.14386486 0.014954009 0.0029765747 0.0482164
-0.06321081 -0.056741945 -0.13216013 0.07431941 -0.1573092 -0.040652785 0.00784005 0.05271368
-0.02560868 0.028084656 0.19034708 0.028620586 0.09920673 0.09865599 -0.029547606 -0.07617092
0.045697276 -0.09399703 0.12517396 -0.16588542 -5.000313e-05 0.053647026 0.049345985 -0.021404108
0.0684999 0.13403985 -0.102822326 0.08635523 -0.07918021 0.05131953 0.16395639 -0.04247639
0.014891729 -0.058749426 0.047843803 -0.10250208 -0.06221779 -0.06971387 0.09477113 0.17594446
-0.20396829 -0.030313926 -0.15587506 0.00394971 0.073118314 -0.029489705 0.063708626 -0.015546636
0.19404861 -0.029972116 0.038131673 -0.07157554 -0.25222805 -0.009169064 -0.11430386 0.08592058
-0.12730294 0.21733055 -0.09525548 0.03578745 0.021058345 -0.031910796 -0.026629418 -0.20524429
0.035579618 0.008584703 -0.063634515 -0.021433787 -0.08715311 0.06732146 0.056814406 -0.03603778
-0.033293594 -0.104249164 0.058780406 0.0744207 -0.050056864 -0.21927933 -0.045703426 -0.081714496
-0.010843868 0.01742781 -0.011735501 0.114771105 0.17084642 0.031260036 -0.030447515 0.15010042
-0.08065676 0.14131849 -0.26111457 -0.013833837 -0.004139605 -0.05287715 -0.10335951 -0.08277971
0.24794555 -0.052674823 -0.115132704 0.049557656 0.059210975 0.03631028 0.18759854 -0.3375195
0.064661905 0.05567085 0.030411823 0.14914419 0.07557516 -0.10717911 0.004908572 0.006888749
0.13322675 0.08411472 0.12531336 0.05544639 0.120856315 0.014521011 -0.15307531 0.1308147
0.053206265 -0.25248832 0.09344799 -0.023406086 0.12715259 0.0263121 0.17928088 0.048009325
0.2783487 -0.1357322 -0.005326091 0.11901845 -0.120676525 -0.22864974 -0.0251383 -0.008498446
-0.011383311 -0.09788934 0.09935818 -0.00590702 0.02617518 0.17684409 -0.12614945 0.05197375
0.05082245 0.06723614 0.0011918736 -0.16621463 -0.091699086 0.07959497 0.16049859 -0.17494087
0.07658781 -0.07350697 -0.047304098 -0.039826214 -0.093484595 -0.14895724 0.03944286 0.024626961
-0.03385886 0.10419362 -0.036472093 -0.08630236 -0.07127585 -0.10477079 -0.078608975 0.028401805
-0.10790422 -0.06371785 0.077018924 -0.02713308 -0.08231148 -0.12614349 0.2056048 0.12177595
-0.040479552 -0.024470165 0.06390197 0.18497013 -0.24506335 0.07698589 0.08314061 -0.060699873
-0.08056872 0.019838335 -0.03290188 0.009579025 -0.10325853 -0.1826168 0.017569724 -0.015102131
-0.083851025 -0.055438947 -0.19281526 -0.12391361 0.10019428 0.12916896 -0.18283236 -0.029192794
0.04418053 -0.07762549 -0.044868466 -0.04377288 -0.0747842 -0.09026569 0.009519545 0.12857561

weight_hh_l0 f4 [192, 64]
00000000: 54ac 5f3d 9e86 69bd 32f7 d33d 569b b73d
00000010: b57e 6c3d ff4b 1f3d 7d82 373d 0248 c8bd
00000020: e0f3 0fbc a2df 30bd defc c4bd bdb8 cbbd
00000030: 6874 e3bd 7e1d ea3c fbaf 88bd 1e50 3b3d
00000040: ab39 e13d 2406 c0bd dd27 fb3c 3896 3cbc
00000050: 328e 123e 018e 023d 2db3 8bbd 6df0 3f3d
00000060: 0ea8 bd3d f78f 323d 9b0e 13be fe6b c73d
00000070: 29c5 79bd e624 afb7 d996 083e e325 a73d
00000080: 76cd 353e f180 1ebe c547 4c3e 9392 403e
00000090: d673 183e 9761 ce3d 7ef6 94bd 29e1 ccbd
000000a0: 1540 ad3d 3a23 093d 91c0 32bd bc9f 9ebd
000000b0: f88c e33d 0d34 b9bd eba9 b0bc 2b68 8d3d
000000c0: a4d4 a6bc 19f7 f6bc fd57 2abe 84e8 d83c
000000d0: fe3d 18be f597 b63a 92e3 10be 9f13 a63d
000000e0: 0cbc dbbd 99ac 183e 7398 493c d5a0 c63d
000000f0: c112 2abc 4603 0ebe 3235 a03d 62be d03d
00000100: c9d6 16be cbe6 d5bd 0971 863d 1a85 28bd
00000110: 1f9a 973d 50ab 663d c8d2 333d 84b4 e03d
00000120: 2a83 e5bd 2784 debd 6da5 fcbc 6eed 373e
00000130: dcce 88bd b522 da3d 1014 fdbd 3afb 983d
00000140: 099b 83bd 985e e33d 7938 80bd 9c74 ee3d
00000150: b684 933d 4bc1 16be f186 16be d9df c43c
00000160: 6af1 3dbd d278 40bd 9d51 543d 3a40 89bc
00000170: a14e 3a3e ddcc f4bd 708a 21bd 1673 df3d
00000180: f233 993d e2e1 4e3d 8c49 e1bd 0ece f1bd
00000190: 6153 27bd 6e47 f23b 63e6 7f3d 4c17 6cbd
000001a0: 17ef d63d 84b3 033a 931b 4ebd 19fd 22bd
000001b0: b5bb 123e d374 873c 528d 06be dc46 6abd
000001c0: 1e8f edbd 96b0 763d 3ba6 d0bc 6126 3c3b
000001d0: 8bfa 4fbc c6ed 8b3c 978c 1e3d 0a4c debc
000001e0: b4f5 883d f212 abbd 26cb 27bd 617a 6d3e
000001f0: b32e e3bb 1193 87bd f38d 55bc d405 c03d
00000200: b68c 14be c880 fd3d 2b0a ec3d 3542 3bbd
00000210: 1d6b 693d 2991 90bd 68db 1dbd 1740 5dbc
00000220: 6629 573d 2f69 463c 0f01 48bd 2e76 87bd
00000230: 885a 1ebd 8c04 293e 3139 81bd 05e8 aabd
00000240: fbcf b7bd 7b0b 0a3e 0145 0bbd f45f 98bd
00000250: 4867 8e3d b913 3abd 92ba 1a3d 4ad7 f03d
00000260: f77f eebd 9661 2f3d ac48 4dbe 7d77 0f3e
00000270: 9600 08bd de8d 46bd 0daf bd3d 432e 9e3c
00000280: fbe4 eabd d994 e3bd 72a3 163d 16f5 343d
00000290: 6948 dabc fca2 dfbd e2dc a3bd 016a adbd
000002a0: 0b0c 28be 1980 19be 54c2 febc 2246 2ebc
000002b0: 83c5 24bd a925 853d 533d 5d3d c80e ebbd
000002c0: 15a5 d9bd a3d1 a2bd 2851 8cbd 6e51 033d
000002d0: 79dc 88bd 3c3f c13d 9f35 90bc a669 6c3d
000002e0: 4c64 523d 8101 663d 8f04 1c3e 85b3 1c3d
000002f0: f04b 0d3e 64a1 343c eeb6 17be 208a 4e3d
00000300: 2104 863d 8143 2f3c 1d11 cebc 6f96 aebc
00000310: 1e90 903d 3b7b 453d f211 773d f2fb 24be
00000320: 91d7 c83d e250 a9bd 17a6 69bd 7043 9e3c
00000330: 2e26 2bbe 61f9 d03a 501c a03d d276 68bd
00000340: 5d29 f83d 3981 11bd f83d d0bd b64e 5b3c
00000350: a984 b4bd 8e77 94bc b85e 3a3e 578e b9bb
00000360: 3072 213d 57a5 8f3d a382 8f3b 1d06 373e
00000370: 301a 3abc 2c2a 56bd 9bfa bc3d bced 0a3e
00000380: 227e 47bc 3fb1 9cbd ce8f 4e3e 108a f2bc
00000390: b345 a5bc 5548 d73c d65b 07be 71ca 26bd
000003a0: 521f 56bd 28f6 e3bd a9f1 f03d 3fd5 20bd
000003b0: 9c19 0f3d 1fee 193e c508 363c 7a8d 7a3d
000003c0: 7bc8 e93b 7367 c73c b0ef 8e3d 964e 163b
000003d0: ea16 d73c 31bd da3c fe08 813d 24d9 2fbe
000003e0: 30ca b93d 9935 8b3d 9562 0ebe 0efe e6bd
000003f0: 5348 563c 9506 8bbc 0d96 603c c772 b93d
0.054607704 -0.057013147 0.10349883 0.08965175 0.057738025 0.038890835 0.044802178 -0.097793594
-0.008786172 -0.043182023 -0.09618543 -0.099473454 -0.11106187 0.028578516 -0.066741906 0.045730703
0.109973274 -0.09376171 0.030658657 -0.011510424 0.14312056 0.031873707 -0.068212844 0.046860147
0.092605695 0.043594327 -0.1436104 0.09737395 -0.060979042 -2.0878808e-05 0.13338794 0.08161523
0.17754158 -0.15478875 0.19949253 0.18805914 0.14887938 0.100772075 -0.07273577 -0.100038834
0.08459488 0.03348086 -0.043640677 -0.07745311 0.11110872 -0.09043131 -0.021565398 0.06904634
-0.020365067 -0.030147122 -0.16635127 0.02647806 -0.14867398 0.0013930785 -0.14149311 0.08109211
-0.107292265 0.14909591 0.012304413 0.09698645 -0.010380448 -0.13868436 0.07822646 0.10192563
-0.14730372 -0.10444411 0.065645285 -0.04114256 0.07402443 0.05631572 0.04390219 0.109719306
-0.11206658 -0.1086505 -0.0308406 0.17961666 -0.0668008 0.10651151 -0.12357342 0.07469793
-0.06426055 0.11102027 -0.06260771 0.11643335 0.07203047 -0.14722173 -0.14699914 0.02403252
-0.04637281 -0.046990223 0.051835645 -0.016754258 0.18194057 -0.11953137 -0.039438665 0.10910623
0.07480611 0.050508387 -0.11000356 -0.1180688 -0.040851 0.007393769 0.062475573 -0.057639405
0.104948215 0.00050240033 -0.050319266 -0.039792154 0.14329417 0.016535198 -0.13139847 -0.057196483
-0.11599563 0.060227 -0.02546989 0.00287094 -0.012694011 0.017081153 0.038708296 -0.027135868
0.06687489 -0.08353223 -0.04096522 0.23191215 -0.006933057 -0.066198476 -0.013034332 0.093761116
-0.14506802 0.12378079 0.11525377 -0.045717437 0.056986917 -0.07058937 -0.03853932 -0.01350405
0.052529715 0.012110039 -0.048829135 -0.06614338 -0.038660556 0.16505641 -0.063097365 -0.083450355
-0.08975216 0.13480942 -0.034001354 -0.074401766 0.06953293 -0.045428965 0.037775584 0.11759813
-0.11645501 0.042817675 -0.20047253 0.14010425 -0.033203684 -0.04847514 0.09261904 0.019309169
-0.11469456 -0.11112375 0.036776967 0.044179045 -0.026645856 -0.10919759 -0.080011144 -0.08467484
-0.16410844 -0.14990272 -0.031098522 -0.010636838 -0.040227424 0.06501324 0.05401356 -0.11477429
-0.1062719 -0.07950141 -0.06851417 0.03206008 -0.06682677 0.09435889 -0.017603694 0.05771794
0.05136518 0.056153778 0.15236114 0.03825714 0.13798499 0.011024807 -0.14815876 0.050424695
0.06543756 0.0106972465 -0.025154645 -0.021311967 0.07058738 0.048213225 0.06031985 -0.16111735
0.09806741 -0.0826738 -0.05704316 0.019319266 -0.16713783 0.0015943461 0.078179 -0.05675394
0.121172644 -0.035523627 -0.101680696 0.013385465 -0.088143654 -0.018123414 0.18200195 -0.00566272
0.03941554 0.07013958 0.004379587 0.17873426 -0.011358783 -0.052286312 0.09227487 0.13567251
-0.0121760685 -0.076509945 0.20172045 -0.029606849 -0.020174837 0.026279608 -0.13218626 -0.040720407
-0.052275963 -0.11130935 0.11764843 -0.039265867 0.034936532 0.15032242 0.011110489 0.06117008
0.007134495 0.02434132 0.069793105 0.0022935024 0.026256043 0.026701542 0.06300543 -0.17172676
0.09071767 0.06797332 -0.13904794 -0.11278926 0.013078767 -0.016970912 0.01370765 0.09055095

bias_ih_l0 f4 [192]
00000000: 77cc 2a3e 941e 83bd b227 9dbc 0959 b4bd
00000010: 074f f03d c0a0 ba3d 14dd 363d ad02 1e3e
00000020: a9e8 063e 7049 a23c 4d9e 0abe 2136 b83d
00000030: 7390 873c 70d0 9d3d d41b 59bc b723 0b3e
00000040: ef0a d53d 8fe8 4cbd 6b6b 5c3e a1cb 583d
00000050: 27f7 c3bc 8237 1e3e 913c 6f3e f055 4a3e
00000060: 5215 a6bd 0ad2 ae3c 0944 293d 7a78 033e
00000070: f9e4 503d 94cd b9bc f47d 88bc 5d99 953d
00000080: 0a08 2fbd 0446 3e3d 255b 4fbc b8b2 c53d
00000090: b93e 1f3d 10f2 21bd 0d45 f33d 8e5d 1c3d
000000a0: 2782 1c3d 1ac8 313d b363 c23c 5b31 793d
000000b0: eda4 febc e74b 983d 9239 04be 0d43 8abd
000000c0: 7c08 10bd a80f 0b3d c420 1cbd d90d d03c
000000d0: 2c23 043d 9f8c 9dbb 2417 f93c c137 053e
000000e0: a5cc c13d 5be5 073e 5f93 f2bd 7a17 b23c
000000f0: 9045 9c3e ff49 8dbd 0c98 0f3e 52d4 7cbc
00000100: 6e0e 81bd 25d0 3cbe c8b1 43be 0889 92bd
00000110: 52b0 243c 55e3 a5be ef23 37be a94c 66bd
00000120: 1f91 53bd dcab 4dbe 2cd4 f4bd 9369 8cbe
00000130: 9cb2 24bd edd5 0a3e 77be 82bd 9c61 2cbe
00000140: cb50 8cbe 12b5 e0bc 9f6f 7ebe a665 2bbe
00000150: 386a 3fbd 6e57 7fbe aaaf 5fba 6dce 54be
00000160: 0200 093d d2d6 31be 0417 6dbc 23da b5bd
00000170: 16c9 fbbd d10b 03be 0fe5 193d 4ed7 cfbd
00000180: 8aeb 633d 01aa bebe c5e9 da3d 6428 b33a
00000190: 5488 31be 9431 48be a827 e5bd bfa6 edbd
000001a0: 3e6a b1bd 8abd 27be 4f33 3ebe d5c3 2ebe
000001b0: ca5b 07be 744a f3bd ffdc 9dbe d543 983c
000001c0: fe2d f8bd 2164 6ebe 9c15 ffbd 6ec3 14be
000001d0: 24f1 d13b 6448 06be badf c7bc 845f 9ebe
000001e0: 5619 59be d2ea 73bc 1a4f 5bbe f681 89be
000001f0: 3d5e 35be ac28 94be 56b3 0cbe 9a4c a1bb
00000200: a288 c93c 9364 cabd 2b4c 523d 28ef 9fbd
00000210: 31f9 233d 5781 87be 67a7 363e f083 e0bc
00000220: 7859 17bd 2ad3 cf3c 7b6c 1dbd 8f3a 533e
00000230: 5134 233e ef7e 253e 55b0 cebd 6557 dabd
00000240: 9a63 653e 7973 2a3e fb54 ad3c 0594 38be
00000250: 44b8 a53d 6510 0f3e 2a7d 7c3d b041 b7bc
00000260: 1c4f 53bc 04be 6c3c 318e 16be be6f d3bd
00000270: 9dfc ae3d 4150 d03d 4579 5dbd 29db c23d
00000280: c3cb e93d f66f a7bd 6026 69bd 9f66 d0bc
00000290: 5c29 d53c b1e0 8c3b 3a4d 4abd d17b e3ba
000002a0: 1958 833d 9e6e 3a3d c65f eb3d 74e8 40be
000002b0: fe94 073e 4ad0 f6bd 8edb 9b3c 9c79 18be
000002c0: 6292 103e ad9d 63be 0cc3 37be ebc4 7cbe
000002d0: 2f34 aabd 68fb 383e d1ef ae3d d188 0a3e
000002e0: c87e 083b 38df 083e 9f61 1bbe fb4f cb3c
000002f0: dc27 48bd 503f 01bd d072 07be c26c a93d
0.1667956 -0.06402317 -0.019183967 -0.088060446 0.11733823 0.09112692 0.04464443 0.15430708
0.1317469 0.019810408 -0.1353695 0.08994699 0.016548371 0.07705772 -0.013251264 0.13587843
0.10402476 -0.050026473 0.21525352 0.05292857 -0.023921562 0.15450862 0.23362948 0.19759345
-0.08109535 0.021340389 0.04132465 0.12838927 0.050999615 -0.022681035 -0.016661622 0.07304642
-0.042732276 0.04645349 -0.012656008 0.096532285 0.038878176 -0.03953749 0.11878405 0.03817516
0.03821006 0.043403722 0.02372918 0.060838085 -0.031084502 0.07436352 -0.12912586 -0.0675107
-0.03516434 0.033950478 -0.038117185 0.025397228 0.032260105 -0.004808023 0.030406542 0.1300955
0.09462861 0.13271086 -0.11844515 0.02173971 0.30521822 -0.06898879 0.14022845 -0.0154314805
-0.0630158 -0.18438776 -0.19110787 -0.07155043 0.010051804 -0.32400003 -0.17884801 -0.056225453
-0.05165207 -0.2008509 -0.11954531 -0.27424297 -0.040209398 0.13558169 -0.063839845 -0.1683411
-0.2740539 -0.027430091 -0.24847268 -0.16737995 -0.046732157 -0.24935696 -0.0008532951 -0.2078187
0.033447273 -0.17367104 -0.014470819 -0.08879497 -0.122942135 -0.12797476 0.037571963 -0.10148488
0.05564455 -0.37239078 0.10689119 0.0013668654 -0.17337161 -0.19550163 -0.111892045 -0.1160407
-0.08662842 -0.16380897 -0.1857426 -0.17066891 -0.13218608 -0.11879435 -0.3083267 0.018587032
-0.12118147 -0.23280384 -0.124552935 -0.14527676 0.00640692 -0.13113552 -0.024398673 -0.30932248
-0.21201071 -0.0148875285 -0.21416894 -0.26856965 -0.1771173 -0.2893728 -0.13740286 -0.0049224617
0.024601284 -0.09882464 0.05134217 -0.07809287 0.04003257 -0.26465866 0.17837296 -0.027406663
-0.03695056 0.025369246 -0.038433533 0.20627807 0.15937926 0.16161703 -0.100922264 -0.106612004
0.22401276 0.16645612 0.021158686 -0.18025215 0.080917865 0.13971098 0.061642803 -0.02237019
-0.012897279 0.0144496 -0.14702679 -0.103240475 0.08544276 0.10171557 -0.05407073 0.09514458
0.114158176 -0.08175652 -0.056921363 -0.025439559 0.026020698 0.0042992462 -0.049390055 -0.0017355626
0.06413288 0.04551565 0.11492877 -0.18838674 0.1324043 -0.12051447 0.01902559 -0.1489014
0.1411834 -0.22228117 -0.17945498 -0.24684493 -0.083107345 0.18064654 0.08541835 0.13528754
0.002082752 0.13366401 -0.15173958 0.024818411 -0.048866138 -0.03155452 -0.13227391 0.08272697

bias_hh_l0 f4 [192]
00000000: 9f41 d73d 70f5 bc3c 0b5f debd f9ac ff3d
00000010: 0b6d 3a3b 1b83 cc3d 8ad5 fcbc 2320 e13d
00000020: 10b7 8d3c ec57 293d 956c 38bd abd6 473e
00000030: 4bfb b93c 6357 8b3d 4ca7 ea3d 3ca4 bf3d
00000040: c9c1 ca3d af2b 2abb eae5 623d 8d5b 033e
00000050: f539 213e 7cd7 133e ba29 583e 5814 013d
00000060: 5d0b cfbc f882 d93d 2a5c 47bd c63c 88bd
00000070: 4da8 e83c 0794 a73d af44 8f3d b0b3 2d3e
00000080: fab5 033d 38a9 3e3d 1740 b73d 6ae2 533d
00000090: dbcb c43d 07b7 f7bb 75f3 c2bd 106a e8bd
000000a0: 095f 2c3e 5746 e33d dec9 313e b00d b43d
000000b0: 5be5 1a3e 2d9e 4c3d 19b2 72bb 22af 0e3e
000000c0: 01b1 15bd 32db 513e 5d22 b83d 45b3 013e
000000d0: 9a55 163e 94a1 593d 4aea 07be 2a72 363e
000000e0: 888c 363d 8da5 5c3d 8141 10be 558e 5c3d
000000f0: 660f 963e 7c66 f83c 2110 6d3d 3ae3 4c3c
00000100: 9df4 a23b 8ab3 97be c89a bcbd 3cc9 bbbd
00000110: ff2e 133c 3b1a c3be 8728 77be bc46 fabd
00000120: 0117 2dbe bae5 08be d048 17be 397b a3be
00000130: 80f9 70bd b3f7 b0bd 9665 73be 44b6 bebd
00000140: 729b 93be 3465 93bc 4ebb 20be f779 74be
00000150: 0e7f 8bbd bf6c 4fbe 9efb debd 3a25 4abe
00000160: 4b1c 08be c27c 3dbe 3274 3ebe 60d1 41be
00000170: 85ff 21bd f584 80be 1bbc 54bc 9090 91bd
00000180: a4c9 623c a8e9 41be 6a30 48bc 2509 c53d
00000190: 8736 08be 9ed3 a5be fe81 50bd 5c13 18bd
000001a0: ff93 b2bd 1551 89be e351 8cbe 0d72 8ebd
000001b0: 9923 60be 7ddd 87be 7979 adbe 8e6a 143d
000001c0: 6a18 84be de96 f5bd 6dde fbbd 6a57 a9bd
000001d0: 4f1b 3ebe 7222 5abe 71bc 18be 1077 99be
000001e0: 7a9a a9be 53c1 5abe 9697 dabc 0f66 36be
000001f0: 670e c0bd 5801 3cbe 1da2 20be 757e e6bc
00000200: 2bdf 6c3c 5551 afbd 519b a63d b5ab 06bd
00000210: 84bc 03bd dd08 89be ef7d 04bc acb5 03be
00000220: 2b10 5bbd 3274 003e 09a1 a2bd 39c3 8f3e
00000230: 64f7 123e 6288 f9bc d16b 0fbe 88bc 33be
00000240: b340 893e 263d 4d3d 2762 e6bd e4fd 10be
00000250: b42b 0e3e 631d 8a3d cdd6 c63d 91b9 2bbe
00000260: 271b c1bd 1215 31be 4185 fcbd 8d81 babc
00000270: f92c 873c 21e1 f33c 29ef 85bc acdf 8a3d
00000280: bff6 a8bc 368a 12bd 1d4a 0c3d df64 1a3e
00000290: a799 c4bd 521c b03d 41f2 d1bd dfb2 54bd
000002a0: 061b 60bd 6215 073e f5a9 1b3e 1703 b43c
000002b0: ab6c 443e 9828 01be da3b ce3d c0bc 923c
000002c0: d30d 6d3e 6be2 20be bb9a 34be 3fb0 7abe
000002d0: 05b6 fabd dd3c e8bc b8c1 d83c dd3e 103e
000002e0: 9971 703c 4335 d23c e821 03bc 7342 0a3e
000002f0: bf6b 4dbe d25c b73c f0cb 55be a112 8ebb
0.10510563 0.023066252 -0.10857972 0.12484164 0.0028446342 0.09985944 -0.030863542 0.10992458
0.017299205 0.041343614 -0.045025427 0.19515483 0.022702834 0.06803777 0.114576906 0.09357497
0.09900243 -0.002596598 0.055395044 0.12827893 0.15744765 0.1443767 0.21109667 0.031513542
-0.025273973 0.106206834 -0.04867188 -0.066522166 0.028400565 0.08182531 0.06995522 0.16963077
0.03215597 0.0465481 0.08947771 0.051729597 0.09609195 -0.0075596604 -0.09519092 -0.11348355
0.16833128 0.11097401 0.17362162 0.08791673 0.15126555 0.049955536 -0.0037032424 0.13933995
-0.036545757 0.20493773 0.08990929 0.12666042 0.14681092 0.05313261 -0.13272968 0.17816988
0.044567615 0.05386882 -0.14087488 0.053846676 0.29308623 0.030322306 0.05787671 0.012505347
0.004973008 -0.29629165 -0.0920921 -0.09169242 0.008983373 -0.3810595 -0.24136554 -0.12220523
-0.16903307 -0.13368884 -0.1477387 -0.3192995 -0.05883169 -0.08640995 -0.2376922 -0.09312108
-0.28829533 -0.017992593 -0.15696451 -0.23874651 -0.06811343 -0.20256327 -0.10887836 -0.19740763
-0.13292043 -0.18504623 -0.18599012 -0.18927526 -0.039550323 -0.25101438 -0.012984301 -0.07107651
0.01384202 -0.18936789 -0.012218574 0.09620885 -0.1330205 -0.32388014 -0.05090522 -0.037127838
-0.08719634 -0.26819673 -0.27406225 -0.06955347 -0.2188858 -0.2653617 -0.3388174 0.03623443
-0.25799876 -0.11991666 -0.12298284 -0.08268626 -0.18565105 -0.21302202 -0.14915635 -0.2997365
-0.3312567 -0.2136281 -0.02668361 -0.1781237 -0.09377747 -0.18359888 -0.15686841 -0.028136471
0.014457504 -0.08560435 0.08135093 -0.032878596 -0.032162204 -0.26764575 -0.0080866655 -0.12862271
-0.053482216 0.12544325 -0.07940871 0.2807863 0.14352185 -0.03046054 -0.14005972 -0.17552388
0.26807174 0.050107144 -0.1124919 -0.14159352 0.13883859 0.06743886 0.09708939 -0.16770007
-0.09429007 -0.17293194 -0.12330104 -0.022766853 0.016500937 0.029770436 -0.016349392 0.06780943
-0.02062547 -0.03577634 0.034250367 0.15077542 -0.09599619 0.08599152 -0.102512844 -0.051928397
-0.05471327 0.1319175 0.15201552 0.02197413 0.19182079 -0.12613142 0.100700095 0.017912269
0.23149805 -0.15711372 -0.1763715 -0.24481295 -0.12241749 -0.028349334 0.02645956 0.1408648
0.014675521 0.025660163 -0.008003689 0.13501911 -0.20060633 0.022383127 -0.20878577 -0.004335717

weight_ih_l1 f4 [192, 64]
00000000: c1fa 123e 1efe 09be 0526 323a 31f1 cdbd
00000010: 2636 aa3c b3f2 a63d a55e c7bd 5aa9 adbd
00000020: f75b c7bd aaff 10ba 47fe 08be 1217 7bbe
00000030: 027c 3cbe 2bf1 75bd 902e 373e 8d89 e03c
00000040: bbc4 563d 0f58 14be b22d 9bbd f820 d7bd
00000050: 0444 8f3d 4282 5d3e 496b 783d fee2 31be
00000060: 3aaf 023d e38c 14be 26c1 6a3b 240b 003d
00000070: 22e1 18be 8978 9c3d 1fc0 1b3e e518 463d
00000080: 5afd d93d cf17 4cbe 78db 583e 16ac d03c
00000090: 5b85 89bd 7a0d ce3d 0091 80bc 3ee1 9dbc
000000a0: 5c79 a2bc 9d83 45bc 5894 aebd 6cc9 b3bd
000000b0: 0f2c 4fbe 871a 0c3e c6c1 133e ab45 23bd
000000c0: 4409 8bbd abb2 12be 64ec 963d d7ba 883d
000000d0: 6ade e93c 2348 17bd ec04 bbbd 5de5 65bd
000000e0: cf84 013e ec2a cabd 514e bc3d 45c8 2ebe
000000f0: 937d 4cbc 905d cbbd ab2c 9b3d b87b 2fbb
00000100: d0db 0d3d 22e3 97bd 096e 263e 0481 3c3d
00000110: 794e 013e 27b5 44bd 388c 613d 2c10 89ba
00000120: d979 e6bd e428 41bd 0098 93bd 3d70 633d
00000130: a709 b33d 8a26 a7bd cc65 0c3e 2b1e 073e
00000140: 13ff 91bd 6e7e 6abd a38f dd3d 3ebc 063d
00000150: b130 a83c d3c9 be3c a4df 9bbd cbf6 10be
00000160: 45f6 dd3d 1703 18be 5e55 fb3d bdbc 443d
00000170: 1f20 833d bc34 613d a3d5 b03d 9b9e db3d
00000180: 571a fabc 9241 e2bb 225f 0c3e b8e0 c53d
00000190: 2b07 fdbd 53bd a2bd 5f61 723c 21ec 81bc
000001a0: 690b da3c c0e3 92bd 0dfb 8e3b d5d4 cd3d
000001b0: e84f 6c3d 874b 80bd 9b04 ec3c cff1 853d
000001c0: a4e0 d43d d3fb 0fbe 6a01 ebbd cf93 ae3d
000001d0: 0acf 7c3d a407 983d b5a9 0bbb d6b7 923d
000001e0: f8e4 9a3d b21e 6b3c b72d 33bd f2e5 fa3d
000001f0: fc9d fbbd 2d2a 913d af17 973c 2fdf 33bd
00000200: fc4c 39bc f883 ac3d c8c8 433d 51ab 00be
00000210: 5050 d33d 211a b33d 511a c3bb 37f5 0a3d
00000220: b8b5 75bd c5d5 88be a50a 55be ac61 3d3d
00000230: be48 1dbd 1ef0 163d 24a8 32be e9d8 31be
00000240: 51b0 8ebc 2198 883c 288c 6fbd 9081 c43d
00000250: 677a 983d f685 0bbe 02e0 0fbe dd14 78bd
00000260: fe23 8cbd 2878 92bd c310 81bd 80c8 5e3d
00000270: a3ac 213e 6c8a a2bd 3096 5fbd 94d8 03be
00000280: d4f3 99bd fd0f eb3d 2c9a 29be b3f4 e7bd
00000290: e1af 133e 0ca0 03bb acf5 f5bd 3d07 cb3d
000002a0: 603c 1cbc 93bd 60bc 2cd5 6b3b 7060 9dbd
000002b0: b460 e2bb 569c 01bd 16b7 6bbe 5bda b63d
000002c0: 656c 1bbe d8ea e43d a8cf 093e 8aa6 e03d
000002d0: f781 fe3c fe91 2f3d a3b0 92bd 9228 6ebd
000002e0: d29f f8bd 771b 3d3d 1962 b73d 9a1f 37bd
000002f0: d71e 7fbd a200 f5bb 14dd 92bd 56f7 f7bd
00000300: d60a f1bd c143 cd3d 473e bdbc 66d5 0e3d
00000310: 480e a23b e447 103d 4bac a73d b0a9 ffbc
00000320: 36f6 283d aca8 13bb 2ec1 c93d 4f6e bf3c
00000330: d2ef bbbc c671 403e 5e2f 40bd d9c6 aebc
00000340: 27bc 023e e5f0 3b3e 947a b5bd 02dd d53d
00000350: 4add 753d 4cd5 b23b 8abc 20be 97c2 1dbe
00000360: 0761 30be fa42 8bbd d565 d5ba dcd1 13be
00000370: 2608 9d3d 3305 883d 6df4 a6bd 2e68 123d
00000380: da97 8ebd e38d 5bbe e5be 50bd af38 c1bd
00000390: 9371 89be ca0e 3d3d 4cb9 763d 86f0 3cbd
000003a0: 7c3d 09be 2f91 0abc 993f 123e a362 6cbd
000003b0: 4d59 8abc 910e 1abd fc99 24be 1719 5cbd
000003c0: c57b f3bb 679e d0bd 99e4 9f3d a78f e5bd
000003d0: b6e3 a13a 739b 62bd 9c54 d43d 2ea9 693e
000003e0: d2f1 3f3e eec7 7fbd 3bb0 1d3e c351 893d
000003f0: 409f 39bd 72b4 75bd 3317 08bc c14b 713d
0.14353468 -0.13475844 0.00067958265 -0.10055769 0.020777773 0.0815176 -0.09734849 -0.08479567
-0.09734338 -0.0005531261 -0.13378249 -0.2452052 -0.1840668 -0.06004445 0.17888856 0.02740934
0.05243371 -0.14486717 -0.07577075 -0.10504335 0.06995395 0.2163172 0.06064919 -0.17371747
0.03190539 -0.14506869 0.0035820692 0.031260625 -0.14929631 0.07640178 0.15210007 0.048363585
0.10644026 -0.19930957 0.2117747 0.025472682 -0.06714889 0.10061164 -0.015694141 -0.019272443
-0.01983326 -0.012055305 -0.08524388 -0.087786525 -0.20231651 0.13681994 0.14429387 -0.039861362
-0.06788877 -0.14325969 0.07369307 0.06676262 0.028548438 -0.03693403 -0.09131798 -0.05612694
0.12648319 -0.09871468 0.09194625 -0.17068584 -0.012481111 -0.09929955 0.07576879 -0.0026776623
0.034633458 -0.07416369 0.16252913 0.046021476 0.12627591 -0.048024323 0.055065364 -0.001045709
-0.11253709 -0.047158137 -0.07206726 0.05552696 0.087420754 -0.081616476 0.13710707 0.13195102
-0.0712873 -0.05724948 0.10818412 0.032894365 0.02053103 0.023289597 -0.076110154 -0.14156644
0.10837988 -0.14844929 0.12272142 0.048031557 0.06402611 0.054981932 0.08634498 0.10723611
-0.030530138 -0.0069047892 0.13708165 0.09662002 -0.12354883 -0.07946267 0.014793723 -0.015859665
0.026616769 -0.07172346 0.0043634237 0.1005036 0.057693392 -0.06264406 0.02881079 0.06540262
0.10394409 -0.14060907 -0.11474879 0.08524286 0.061720885 0.07423332 -0.002131087 0.0716397
0.075632036 0.01435058 -0.04374477 0.1225089 -0.122859925 0.070881225 0.01844391 -0.043914016
-0.011309858 0.084236085 0.0477989 -0.12565352 0.10318053 0.08745218 -0.005954065 0.03392526
-0.059987754 -0.26725593 -0.20804842 0.046235725 -0.03839945 0.036850087 -0.17446953 -0.17367901
-0.017418059 0.016674103 -0.058483273 0.095950246 0.074452214 -0.13625321 -0.14050296 -0.06056677
-0.068428025 -0.07151824 -0.06302025 0.05439043 0.15788512 -0.07936558 -0.05458659 -0.12875587
-0.0751721 0.11477659 -0.16562718 -0.113259695 0.14422561 -0.002008441 -0.12009749 0.0991349
-0.009535879 -0.013717073 0.0035985215 -0.076844096 -0.0069085006 -0.031643234 -0.2301906 0.08928367
-0.15178068 0.111776054 0.13458121 0.10969265 0.031067831 0.04286384 -0.07162597 -0.05814416
-0.12139858 0.04616877 0.089542575 -0.044707872 -0.06228527 -0.007476882 -0.071710736 -0.121077225
-0.11769645 0.10022689 -0.023100985 0.03487148 0.00494555 0.03522481 0.08187159 -0.031208843
0.04125043 -0.0022530956 0.09851299 0.023368029 -0.022941504 0.18793401 -0.046920173 -0.021335052
0.12767087 0.18353613 -0.088612705 0.104425445 0.06002549 0.005457556 -0.15696922 -0.15406261
-0.17224513 -0.06799884 -0.0016280959 -0.14435524 0.0766757 0.06641617 -0.08152089 0.035743885
-0.06962557 -0.21440844 -0.0509633 -0.0943464 -0.26844463 0.046156682 0.060235307 -0.04612782
-0.1340236 -0.008457466 0.14282073 -0.057711255 -0.016888285 -0.037611548 -0.16074365 -0.053734865
-0.007430526 -0.10186463 0.078072734 -0.1120904 0.0012351188 -0.05532403 0.103677005 0.22818443
0.18744591 -0.062446527 0.15399258 0.06705048 -0.04531789 -0.05998654 -0.008306312 0.058910135

weight_hh_l1 f4 [192, 64]
00000000: df6e 9b3d d21c 04bd 81b7 393c d927 14bd
00000010: 0b56 ae3d a87d 78bb 5eea 44bd f5f8 903d
00000020: 9e0b cd3d 21fe aebd 308b d43d 995d 1cbb
00000030: 1180 b63d edb5 e7bd 2961 2e3d f6a8 13be
00000040: cdf4 203d dcbd 503d 4ca6 013e 749d 633c
00000050: b345 bc3d 1451 d6bd bebf 063e 4a4c a2bd
00000060: 1e37 a8bd 0a0c 80bd 67cb a03c de91 123e
00000070: f39e 9ebb 982b bebd 1b6b 743c 8f86 3c3d
00000080: 2de9 173d a683 283c e313 3dbd a033 1fbe
00000090: a1bf 833d 519e 863c 6a29 663d 662b 023e
000000a0: e213 e6bd a7d8 bd3c a67f 6e3d 9e14 0e3e
000000b0: 706b 113c f17d d6bd 4649 473d 102f a5bd
000000c0: f734 a9b9 ac2a 093e 0e9e 08be 4e77 e23d
000000d0: d704 52bd 431e 073c c3ad 423c cb10 acbd
000000e0: 471a c6bd b0b2 3dbe 1947 03be 7230 98bc
000000f0: 7006 4d3d 4229 77bd dd9d 913d c94a d6bd
00000100: 55de 48bd 8ffb da3b 3c73 e83c 475c 30be
00000110: f54c d33d f5c1 06be 1b21 d03d 6a8e d6bc
00000120: 9dfd 55bc 5b62 5bbc bfff 58bd cc41 853d
00000130: 0e8a 37bd bd91 b3bd 2633 f7bd ea31 06be
00000140: 2a1b 77bd 9472 b43d ae5e 5c3d 113f 6bbd
00000150: 3e7f 843c 31f1 06bd 6d64 b23d 2dda 9c3d
00000160: 5609 723d 7d40 6d3d ba78 423d 1905 01bb
00000170: 1a6f dd3d 8a7a 9e3c 9dae e63d b9a4 8abd
00000180: 83c1 dbbc 4d10 45bd bf94 62be 11c6 b73c
00000190: 0a02 ab3d 2578 30bd 6697 953d 4c54 67bd
000001a0: 86f6 57bc 1382 fb3c 0d13 c3bd 9a26 d73d
000001b0: 1d1f 633d a2de 1cbd 0bcc 52bd 79d9 963d
000001c0: 0ba4 3dbc 24fb 1ebd 9fd2 0a3d 1b30 5b3d
000001d0: aa0b 2cbd 228b b1bd e943 98bd 791d 083c
000001e0: 49de 133d 3ff3 4bbd 850d 39bd 69af 0ebb
000001f0: d7ba ccbc 4da2 09be 17f8 19be 8ee5 843d
00000200: 2584 263d 0d72 e6bd 7518 fabd cef2 03be
00000210: b010 5f3d 0da2 09bd cab9 47bd 83ca 80bd
00000220: 8ebc 84bd a4d0 673d f5c0 973c 3cf4 023e
00000230: dae3 1dbd 24d2 0cbe 2d1c 0abe 07c6 b83d
00000240: c9fb 723d 380f b0bc c206 8d3d db3e 6c3c
00000250: 90ca bdbd 7a15 c13d ec69 4e3c 4781 85bd
00000260: 8e85 42bd 79a1 d4bc b671 25bb 2fc0 db3d
00000270: 2d34 063e b7d7 55bd 52c1 d7bb 94ce 66bc
00000280: 5be8 a9bd 78fd ae3d 6b2d babd aa6c 17bc
00000290: 3614 2c3d 4681 c3bc 7c54 bf3d 8b82 88bd
000002a0: 2062 1c3d ee4c 7539 ed72 b83d 231a 38bd
000002b0: 2513 e73d ad05 f3bd e04d 753d 8faf 3bbd
000002c0: cddc 953c b329 cebd cb36 7b3c b747 103c
000002d0: a8db 3e3d 0dad f3bd 8378 48bb 66f8 c53c
000002e0: b246 06be 0bc0 653b 6a77 91bd 27d9 8abd
000002f0: 3502 e93c 8c09 0f3d f862 1fbe 6c4d f8bc
00000300: 200f ed3d 6117 13bd 9c6a 883d ca16 e4bd
00000310: 1849 853b d87e c23c e4e7 a33d 8dfe 353d
00000320: ce37 98bd a9fb 4e3d 43f0 efbd 2cdf 023d
00000330: 7e02 9d3c b770 24be b048 febd 21da 8e3d
00000340: 0d57 8a3c 5824 92bb e309 983c 1e09 33be
00000350: 4b7f 3dbc 3a94 f8bd 4b8c 153d bde5 d6bd
00000360: 1a92 0b3d c481 fe3d 17db 283d a534 89bd
00000370: 756b 883d 5629 8a3d 498a 87bd 3129 213e
00000380: bdd2 3fbd dd99 f8bd eb8c 933d e81a 5b3b
00000390: 0437 27be d821 59bd b00f 35bd fee8 af3d
000003a0: e992 153d 72f2 b6bd 7ca1 e3bc 424f 2f3c
000003b0: 1837 243e 18f9 c2bd b2cf d7bd dcbf 83bd
000003c0: 452f 403e bbdd ebbc bf7c 20be 4bc5 a6bb
000003d0: a6b9 c5bd 3ed3 04be 3845 1a3e 938e 03be
000003e0: 1c45 b6bd 7d51 b5bc c1b7 06be c47e 743d
000003f0: 7451 23bd 0523 1f3d 3d18 f7bd 1175 833d
0.07589506 -0.032254048 0.011335255 -0.036170814 0.08512505 -0.0037916694 -0.048075072 0.07078735
0.100119814 -0.08544565 0.103781104 -0.00238595 0.089111455 -0.113139965 0.042573128 -0.14419922
0.03929596 0.050962314 0.12661093 0.01389252 0.091929816 -0.10464683 0.13159081 -0.07924707
-0.08213638 -0.06252296 0.01962824 0.14313456 -0.0048407256 -0.092856586 0.014918114 0.046026763
0.037087608 0.010285294 -0.046161544 -0.15547037 0.06433035 0.016432913 0.05619184 0.12711868
-0.11234261 0.023174597 0.058227204 0.13875052 0.008875713 -0.1047324 0.048653863 -0.08065617
-0.00032273654 0.13395184 -0.13341543 0.11057912 -0.051274147 0.008246961 0.011882248 -0.084016405
-0.09672981 -0.18525195 -0.1282009 -0.018577788 0.050054967 -0.06034208 0.07110188 -0.10463483
-0.049040157 0.00668282 0.02837526 -0.17222701 0.10317413 -0.13159926 0.10162564 -0.026190955
-0.013060954 -0.013390149 -0.052978273 0.065066904 -0.044809394 -0.08768032 -0.12070303 -0.13104978
-0.06032864 0.088109165 0.05380123 -0.05743319 0.016173955 -0.03294486 0.08710561 0.07658801
0.059090935 0.05792283 0.047478415 -0.0019686876 0.108122066 0.01934554 0.112637736 -0.067696996
-0.026825672 -0.04811125 -0.22127055 0.022433313 0.08349998 -0.04308333 0.073042676 -0.056476876
-0.013181334 0.030701673 -0.09525118 0.105054095 0.055449594 -0.038298257 -0.05146412 0.07365698
-0.011574755 -0.038813725 0.03389227 0.053512674 -0.04200331 -0.086691156 -0.07434828 0.008307808
0.03610066 -0.049792524 -0.04517891 -0.0021772033 -0.024991436 -0.13440819 -0.15036045 0.064890966
0.040653367 -0.11252222 -0.12211696 -0.12885591 0.054459274 -0.03360181 -0.048761167 -0.06288626
-0.064812765 0.05659546 0.018524626 0.1278848 -0.038547374 -0.13752037 -0.1348731 0.09022146
0.059322152 -0.021491632 0.068860546 0.014419283 -0.09267151 0.094279245 0.012598496 -0.06518798
-0.04749065 -0.025955902 -0.002524478 0.107300155 0.13105841 -0.052207675 -0.006584325 -0.014087338
-0.082962714 0.08544439 -0.09090694 -0.009242216 0.042011462 -0.023865353 0.09342286 -0.06665524
0.038179517 0.0002339368 0.09006295 -0.0449468 0.112829484 -0.11866317 0.05988872 -0.045821723
0.018293763 -0.10066547 0.015332888 0.008806161 0.0465962 -0.11898241 -0.0030589409 0.024166297
-0.13112906 0.0035057093 -0.071028545 -0.067797 0.028443435 0.034921214 -0.15565097 -0.030310355
0.115751505 -0.035910968 0.06660959 -0.11137159 0.0040675513 0.023742124 0.08003214 0.04443221
-0.07432519 0.05053297 -0.11715748 0.031951115 0.019166227 -0.16058622 -0.12416208 0.069751985
0.016887212 -0.004459899 0.018559402 -0.17483947 -0.011565994 -0.12137647 0.036510747 -0.10493038
0.03407488 0.124270946 0.041224565 -0.06699494 0.06661121 0.067461655 -0.06618173 0.1573837
-0.046831835 -0.12138722 0.07204612 0.0033432785 -0.1632958 -0.05301079 -0.044204414 0.085893616
0.036517058 -0.089329615 -0.027786963 0.010700049 0.16036642 -0.09520167 -0.105376616 -0.06433079
0.18768032 -0.028792253 -0.15672587 -0.005089437 -0.0965455 -0.12971207 0.15065467 -0.12847356
-0.088999 -0.022133583 -0.13156034 0.059691206 -0.0398726 0.038851757 -0.1206517 0.06418813

bias_ih_l1 f4 [192]
00000000: ef73 313d 4878 013e 7540 11be d0e1 0c3e
00000010: a647 073e 1f92 d2bd 714d d73d 8927 303e
00000020: d252 91bd 94cd 3e3e 4e27 cdbc 691a 7d3b
00000030: 2cd9 163e 9eaf f03d 0c5f 9d3d 00be bcbd
00000040: 834a 9e3d 6620 a53d f02c 99bd 4e9c f83c
00000050: f152 763c 6b0b a3bd 3e27 8dbd 78ab f03d
00000060: 8ae2 a3bc 291a a53d 32bf a6bc f412 013e
00000070: 0aaf 493e ce83 883d f5e1 523d 66ab 98bd
00000080: 9336 913c 1a8d 3d3d 9ac1 35bd 09b5 96bc
00000090: 19a4 bb3d af2f b53b b4a3 453d bb78 783d
000000a0: 8040 683c 85eb 053e 0cf1 03be d5dc 7b3d
000000b0: 5342 543d 5982 223e 1a7b 60bd e2c7 393c
000000c0: 3831 703d 6e55 c93d a8c7 2a3a 3c8e 8c3d
000000d0: 82cc a2bd 67dd 433c a209 183e 7472 ba3c
000000e0: 9ec0 8dbd c99d 09bd 6a99 d13c 6763 073e
000000f0: 603b abbd b787 44bc f170 023c 68ee 983d
00000100: 14fb 91bd 1456 67be 8f24 84be fda3 bdbe
00000110: f4ce 97be 2d71 a1be 801b 05be 6e66 1fbe
00000120: 02b4 5bbe 9404 1fbe feeb f9bd 6ca6 b1be
00000130: b668 b8be 734e 87be 9651 52be b231 91be
00000140: 50d8 95be 86f7 ccbe b348 c7be b668 a2be
00000150: 6d27 a2be abad bdbe ac6c 93be 37c7 36bd
00000160: 24fc 8fbe 69b0 3ebe 03eb 06be 2b7a 13be
00000170: dc2f 9ebe 52c5 12be 0347 81be 3fe0 c5bd
00000180: 7862 2fbe 3dc9 32be 60bb 89be 552f 7a3d
00000190: 18a8 52be 8463 35be 9ac0 37be c812 70be
000001a0: d72a 62be b904 a1be 1946 88be a851 9bbd
000001b0: d80b 1ebe cdc7 95be 366e f4bd 5d7b e3be
000001c0: f732 b3be a8eb 47be 1e69 08be bf73 51bd
000001d0: e657 90be 955c 3ebe bb76 07be f9f4 e0bd
000001e0: cc98 dfbe a867 eabb 5bec 06be 4672 09be
000001f0: b30d 41bd 9f5b a8be 6845 85be 0777 c2be
00000200: aaaa 36be 370e 923c 9ea3 1b3e 8261 003e
00000210: bf76 4b3d 0363 dc39 2a05 ac3d d37a 7b3e
00000220: daf7 bdbd 3bdf 8fbd dbe1 813d e03f c6bd
00000230: 576d c23b 94d0 9f3d 572a 523e 7051 273e
00000240: edd3 aebd 5393 1abe 53d0 da3d aacd 133e
00000250: 8483 19bd f00f 94bc 75c6 10be 843e 333d
00000260: c460 4e3e e8eb 08be 7fd7 cd3d 4987 b5bd
00000270: e668 69bd 4dcd ffbc 95d7 703e bab3 f5bd
00000280: 2c77 9b3d ed17 2ebc be96 5b3e 2e03 b93d
00000290: 072f 3a3e 5ee7 ab3d a148 90bd d3be 29be
000002a0: 6f39 29bd 4fb3 b8bd bb4c 8cbc 5cc8 fabc
000002b0: 0a30 39be 850b 433e 4e68 7dbd e0fe 7bbd
000002c0: 966c f6bd 95ce f6bd 6f8c c63d 1b54 83bd
000002d0: 2479 343e 6800 5d3e 0892 acbb eafa 4a3e
000002e0: d39b 743e a75b 49bd c141 0b3e fe96 39bd
000002f0: 003c 083d da4f ec3c 2ff3 6e3d 631e 69bd
0.043323454 0.1264354 -0.14184745 0.13758016 0.13210925 -0.10281777 0.10512818 0.17202581
-0.07095875 0.1863311 -0.025043156 0.0038620478 0.14731282 0.11752246 0.076841444 -0.09215927
0.07729056 0.0806282 -0.07479274 0.03034797 0.015034423 -0.07961162 -0.068922505 0.11751455
-0.020005483 0.0806163 -0.02035484 0.12604886 0.19695678 0.06665765 0.05148502 -0.07454567
0.017726218 0.046277143 -0.044374086 -0.018396871 0.091621585 0.005529366 0.048251823 0.060662013
0.014175534 0.13078125 -0.12884921 0.0614899 0.051821064 0.15870036 -0.0548049 0.01133916
0.05864069 0.098307475 0.00065147365 0.068630666 -0.07949163 0.011954642 0.14847425 0.022759654
-0.069215044 -0.03359774 0.025585849 0.13221513 -0.08360934 -0.011995248 0.007961498 0.074673474
-0.071279675 -0.2259143 -0.25809142 -0.37039176 -0.2965008 -0.3153166 -0.12998772 -0.15566418
-0.21455386 -0.1552909 -0.12203215 -0.34697282 -0.36017388 -0.2642704 -0.20538935 -0.28358227
-0.29266596 -0.40032595 -0.38922653 -0.31720513 -0.31670704 -0.3704656 -0.28793848 -0.04462358
-0.28122056 -0.18621983 -0.13175587 -0.14402072 -0.3089589 -0.14333084 -0.2524949 -0.09661912
-0.17127407 -0.17459579 -0.26900768 0.061080296 -0.20571935 -0.17713743 -0.17944565 -0.23444664
-0.22086655 -0.31448916 -0.2661598 -0.07583934 -0.15434206 -0.29253998 -0.119350836 -0.44430056
-0.3499982 -0.1952349 -0.13321349 -0.051135775 -0.2819206 -0.18590005 -0.13228886 -0.10984225
-0.43671262 -0.00715347 -0.131761 -0.13422498 -0.047132205 -0.328824 -0.26029515 -0.37981436
-0.1783854 0.017829044 0.15199134 0.12537196 0.049673792 0.0004203544 0.083994225 0.24558572
-0.092757896 -0.07025 0.06341907 -0.09680152 0.0059334445 0.07803455 0.20523964 0.1633966
-0.085365154 -0.15095262 0.10684266 0.14433923 -0.03747894 -0.018074006 -0.14138205 0.04376079
0.201541 -0.13371241 0.10050868 -0.08863694 -0.056984805 -0.031225825 0.23519738 -0.11997171
0.075910896 -0.010625822 0.21444222 0.090338096 0.18182002 0.08393739 -0.07045103 -0.165767
-0.04131454 -0.090185754 -0.017126432 -0.030613117 -0.18084732 0.19047363 -0.06186705 -0.061522365
-0.1203243 -0.12051121 0.09694754 -0.06412526 0.17624336 0.21582186 -0.0052664317 0.19822279
0.23887567 -0.049159672 0.13599302 -0.045310013 0.033260345 0.02884667 0.058337387 -0.056913745

bias_hh_l1 f4 [192]
00000000: 6239 853c e676 acbd d8ee 8d3d 5c56 953b
00000010: ce93 d13d c309 afbd 4ed8 37bd fbdf b53d
00000020: 2194 353d efd4 a13c f081 2e3d 8bfd e2bc
00000030: 5b64 a43d 1850 94bd 05a6 243e 789d a53d
00000040: a661 183e 41bf e1bc 3164 3abc 72ea 753d
00000050: ced5 bb3b 5aba 2bbd 428b 07bd 1efa 843d
00000060: 61ea b33d 42e9 8bbd 0d2f 44bd 8d23 d23c
00000070: f7c8 213d 3b82 9b3d 67a1 323e 46d9 ecbd
00000080: 8a84 57bd 2e32 013c e247 01be da20 9e3d
00000090: d226 343e 86a0 7c3d 5501 5d3d 3456 5b3e
000000a0: e20c 523c 0218 a4bd 428c 77bd 4134 3e3e
000000b0: c6ee 463c 913a 123e 66b8 36bc 34f8 283d
000000c0: e089 9e3b cd23 333e 5692 b7bd 478d 133e
000000d0: 3461 b73d c3a8 af3d 77b0 4f3d f012 4ebd
000000e0: ee54 c6bc 74e1 38bd 83e4 523d 2da7 d63b
000000f0: adf8 be3c 1e3c 883d 9364 193d ae90 c1bd
00000100: 3d23 ddbd b644 84be d527 9bbe 9130 82be
00000110: 226e a0be d5b9 90be dfa9 d0bd 133a 20be
00000120: eb0f 2ebe fc7e 9bbe 8ac5 0bbe 7fd5 6dbe
00000130: cda6 0ebe 0912 5bbe c6e8 a2be 7a34 90bd
00000140: 6823 0bbe 506f d3be a9af a9be dfc7 0dbe
00000150: 93cd 89be c0a3 9cbe d530 6bbe e492 66be
00000160: 1299 3bbe ecb0 8bbe 34cd abbe 1b5b 9f3b
00000170: 93bb 8dbe d723 63be 97b6 d0be 286e 47bc
00000180: b3df 33be 3ae5 88be 6d3b 66be 6e2f ce3d
00000190: 7af8 ebbd 9346 87be e899 2fbe 75d6 8ebe
000001a0: f404 e2bd 7b74 5abe 7e50 3dbe c28c c4bd
000001b0: c6a9 43be b246 d5bd 5aae 9dbe 2ea2 b1be
000001c0: 1c84 1fbe 9aae 9ebe abe5 3fbe 8186 1ebe
000001d0: 197f 8cbe 5500 1cbe da70 88be 78db 3ebe
000001e0: 198b ccbe e6be 00bc f635 9ebe 8736 efbd
000001f0: e197 3cbc 22fd 82be ec5e 86be 2e9f acbe
00000200: a589 81bd b8e9 933d 0730 de3d c941 b33e
00000210: c607 2abe 716d a4be 617f 1c3d c60b 543e
00000220: 6113 60be ea5d 45be 8db4 e53b 3cdb 49be
00000230: c437 cd3d 4130 b93d c4bc 6c3e b3f5 1e3c
00000240: 3a1f 62be c9e3 3ebd fe5f be3d dd8f 55bd
00000250: 7d9e 413d 1518 143e c96d d3bd 89ec 94bd
00000260: daea 473e 2d56 3dbe 4ad5 db3d 6b21 42be
00000270: f5c7 83be 52ff 5bbe 6130 013e 1cdf 5e3d
00000280: 1e4c f9bc e477 3ebe 8b91 c5bc 895c d83d
00000290: 3eb5 833e c72b 573e db3a c8bd 351f 78be
000002a0: 98b7 16bd f920 83bd d74c 0dbd d4a1 09be
000002b0: 6fb3 0abe 827c 463e f59d a63c b276 46bd
000002c0: 329d 44be 5709 93be 4057 1cbd a19a 2abe
000002d0: cb53 c23d e584 7f3d e910 41be 6987 3cbc
000002e0: 6a5b 9fbb 140e b9bc 0387 6d3d fa13 3dbe
000002f0: 4352 1abd 453f 633e 96e2 75bd 0fcf 1a3d
0.016262714 -0.084211156 0.069303215 0.004557414 0.1023327 -0.08546784 -0.04488402 0.088806115
0.04433072 0.019754855 0.042604387 -0.02770879 0.08026954 -0.07241839 0.16078956 0.080866754
0.14881 -0.027557017 -0.011376427 0.060038038 0.0057322746 -0.041925766 -0.03309179 0.064930186
0.087849386 -0.068316 -0.047896434 0.025651718 0.039498296 0.07593199 0.17444383 -0.11564879
-0.052616633 0.007885499 -0.12625077 0.0772111 0.17592934 0.061676525 0.05395635 0.21419603
0.012820454 -0.080123916 -0.060436495 0.18574621 0.012141889 0.14280154 -0.011152362 0.04125233
0.0048382133 0.17494126 -0.08963458 0.14409362 0.08954087 0.085771106 0.0507054 -0.05031103
-0.02421042 -0.045136884 0.051487457 0.0065506906 0.023311937 0.066520914 0.03744943 -0.094514236
-0.10797737 -0.25833672 -0.30303827 -0.25427678 -0.31334025 -0.2826678 -0.1018865 -0.15647154
-0.1699826 -0.3037032 -0.13649574 -0.23225974 -0.13930817 -0.21393599 -0.31818217 -0.07041259
-0.13587725 -0.41295862 -0.3314183 -0.13845776 -0.26914653 -0.3059368 -0.22967847 -0.22516972
-0.1832011 -0.27283418 -0.33554995 0.0048631555 -0.2768217 -0.2218164 -0.40764305 -0.012172259
-0.17565803 -0.26737386 -0.22483607 0.1006764 -0.115220025 -0.2642103 -0.17148554 -0.27897993
-0.11036101 -0.21333496 -0.18487737 -0.0959716 -0.19107732 -0.10413875 -0.30797082 -0.34694046
-0.1557774 -0.30992585 -0.18739955 -0.15480997 -0.27440718 -0.15234502 -0.266486 -0.18638408
-0.39949873 -0.007858014 -0.30900544 -0.11680322 -0.01151082 -0.2558375 -0.26244295 -0.33715194
-0.06325082 0.07222313 0.10849004 0.35011128 -0.16604528 -0.32114747 0.038207415 0.20707616
-0.21882392 -0.19274107 0.0070100487 -0.19712538 0.10020402 0.09042407 0.23118883 0.009702134
-0.22082224 -0.04660395 0.09295653 -0.05213915 0.047270287 0.14462312 -0.10323674 -0.07271678
0.19523183 -0.18489905 0.10734041 -0.1895806 -0.25738493 -0.21484116 0.12616111 0.054411992
-0.030431803 -0.18600422 -0.024117252 0.10564525 0.25724214 0.21012793 -0.09776851 -0.24230655
-0.036796182 -0.064027734 -0.03449711 -0.13440639 -0.13545011 0.19383433 0.020338992 -0.04845304
-0.1920059 -0.28718063 -0.038169146 -0.16660549 0.094886385 0.062382597 -0.18854107 -0.011506894
-0.0048631923 -0.02258972 0.057990085 -0.18464652 -0.037676107 0.22192104 -0.060030542 0.037795123

weight f4 [1, 64]
00000000: 2326 a2be 85a1 6b3e 0fa7 833e 7a2d 453e
00000010: 3948 abbd 9113 0dbd 53c5 823e 422e 493e
00000020: 18fd 6abe 08a9 79be f2e8 003e 34a7 66be
00000030: 662f 963e a85a 2c3e bcce 533e d1a9 683e
00000040: 348b 1ebe b227 eabd 5abc 403e b55f 4a3e
00000050: 569f 46be 3133 6b3e 4012 b9be 75cb 5ebe
00000060: 356b 8a3e efcc 86be d518 333e f88a 97be
00000070: 5452 78be bcd9 86be e834 3d3e f7c9 23be
00000080: 48ee 483e cb31 84be ac16 5b3e 6b64 313d
00000090: 299a eb3d 00e4 133e fe26 5abe 03dc 52be
000000a0: e638 513e 19b9 91be ca61 6ebe 37d3 6bbe
000000b0: f8f5 16be baae 743e 0606 673e bd8f f03c
000000c0: dccd 1cbe b5f5 36be 70fa 5a3e 5020 a6be
000000d0: 079e 7e3e 69da 823e 3c3c 66be cf77 4b3e
000000e0: 9811 bb3d 0289 2f3e 42be bb3e b56b e0bd
000000f0: 886a 813e 5a51 513e 8e58 8e3e a299 c4bd
-0.3166972 0.23010834 0.25713393 0.19255629 -0.08363385 -0.034442488 0.2554117 0.19646552
-0.2294811 -0.24380887 0.12588862 -0.2252472 0.29333037 0.16831458 0.20684332 0.2272103
-0.1548279 -0.114333525 0.1882185 0.19763072 -0.1939672 0.22968747 -0.36146736 -0.217573
0.27034917 -0.26328227 0.17489941 -0.29598212 -0.24250156 -0.26337993 0.18477213 -0.15995012
0.19622147 -0.2581924 0.21395367 0.043308657 0.11504013 0.14442444 -0.21303937 -0.2059174
0.20431861 -0.2846153 -0.23279491 -0.23029791 -0.14742267 0.23894778 0.22560892 0.029365415
-0.15312904 -0.17867167 0.21384597 -0.32446527 0.2486497 0.2555726 -0.22483915 0.19869922
0.09134215 0.17142108 0.36668593 -0.109580435 0.2527659 0.2044119 0.27801937 -0.09599616
