model3_tickets.pth (torch, 166862 bytes, 12 tensors)

weight f4 [13, 8]
-0.8017386 0.17931284 -0.13314341 -0.15256211 -0.53126746 -0.721124 0.11286122 -0.39874753
1.0541673 0.08185144 -1.01535 0.51333964 -0.78259325 0.16667463 0.14629477 1.0640472
1.4615287 -0.8515391 0.124669746 1.7533958 -0.05444188 -1.0597161 1.0542134 -1.1825204
1.554917 1.0801885 0.34843102 -0.8461749 1.3194069 1.3474603 1.54928 -0.3648929
0.7963426 -1.0092132 0.3887655 -1.2008549 0.07548966 0.044870425 1.0389023 0.0057740584
-0.38122445 -0.113524154 -0.82810026 -1.9002297 -0.5046541 -2.265897 -1.878252 0.02711799
-0.46177602 0.8761257 0.80998415 1.7994745 0.31486523 0.045910954 -0.37904844 0.46453717
-1.0343407 0.8127142 0.20405233 -3.263628 1.0479755 0.22456951 -0.3982388 -1.2964562
1.7698263 0.53613937 -0.021565093 -2.0483341 0.6546763 0.069444664 -1.5751263 -0.5205867
-0.04944481 1.4595418 1.3936723 -0.038644932 -0.9385424 -2.2113926 -1.3770045 -0.6134881
2.1594129 -0.026416054 0.7202619 -1.7669394 0.4466928 0.3213912 0.65899634 -0.093434155
0.04740958 0.15380609 -1.8573066 -0.3616582 -0.62767524 0.6423493 0.50002265 -0.6655706
-1.243194 1.7418401 0.5325402 0.002417072 -0.16246182 0.36160284 0.71839195 0.4760022
00000000: be3e 4dbf c99d 373e bf56 08be 3e39 1cbe
00000010: 2501 08bf 959b 38bf c923 e73d a328 ccbe
00000020: f4ee 863f baa1 a73d fdf6 81bf 3a6a 033f
00000030: 0858 48bf c1ac 2a3e 4cce 153e b332 883f
00000040: 5f13 bb3f 77fe 59bf da52 ff3d 466f e03f
00000050: 73fe 5ebd c7a4 87bf 77f0 863f d45c 97bf
00000060: 8507 c73f 9e43 8a3f 8d65 b23e eb9e 58bf
00000070: 53e2 a83f 9479 ac3f cf4e c63f 3ed3 babe
00000080: 1cdd 4b3f e62d 81bf 460c c73e 9db5 99bf
00000090: 539a 9a3d 0dca 373d c0fa 843f 5034 bd3b
000000a0: da2f c3be 5a7f e8bd 61fe 53bf ba3a f3bf
000000b0: 0331 01bf 7504 11c0 906a f0bf 8c26 de3c
000000c0: e86d ecbe c649 603f 1f5b 4f3f 2e55 e63f
000000d0: 0436 a13e 200d 3c3d a312 c2be d1d7 ed3e
000000e0: 4765 84bf 0a0e 503f 18f3 503e 48df 50c0
000000f0: 1024 863f 8df5 653e f5e5 cbbe 47f2 a5bf
00000100: ab89 e23f 6e40 093f 47a9 b0bc e817 03c0
00000110: de98 273f 0139 8e3d bd9d c9bf 2c45 05bf
00000120: a486 4abd 44d2 ba3f db63 b23f 264a 1ebd
00000130: 5144 70bf 7587 0dc0 af41 b0bf 8e0d 1dbf
00000140: d233 0a40 7b66 d8bc 1563 383f 122b e2bf
00000150: ebb4 e43e 638d a43e fcb3 283f 685a bfbd
00000160: 8c30 423d 587f 1d3e 39bc edbf 432b b9be
00000170: 53af 20bf 0171 243f 7c01 003f d662 2abf
00000180: fb20 9fbf 9ef4 de3f 8e54 083f bd67 1e3b
00000190: 645c 26be 0224 b93e 89e8 373f 8fb6 f33e

weight_ih_l0 f4 [192, 9]
0.11623152 -0.021270974 0.058204837 -0.09592549 -0.18575782 0.011015685 -0.12679815 -0.12199549
0.06267105 -0.06359033 -0.04887896 0.17099385 0.047585018 0.040283553 0.19296427 0.12037724
0.1236402 -0.15247674 0.13648672 0.06506037 -0.27001846 -0.23615004 0.18001102 -0.2327181
-0.29905447 0.16243337 -0.007469884 0.16061488 0.0804069 -0.12692508 0.14024666 -0.026852991
0.14403363 0.08872661 0.015495046 0.11853727 0.11885354 -0.026031964 -0.18943575 -0.016639715
0.16137162 -0.015907045 0.011865022 0.08885811 0.08899487 -0.057505824 0.089569055 0.18432514
0.11305485 -0.13456324 0.11054906 0.07259446 0.104751185 -0.2317743 0.07661326 0.06361029
-0.082642846 -0.09359207 0.0029613622 -0.25024897 -0.20629929 -0.030876016 0.03878142 0.08895759
-0.08207341 -0.15460517 -0.3006841 -0.014566887 -0.1512722 -0.014551772 -0.203454 -0.064538114
0.2107823 0.06644109 -0.032812826 0.011974099 -0.08564756 -0.023083821 -0.16073193 0.06528137
-0.098296344 0.22968128 0.09117289 -0.13632841 -0.34133798 -0.040946428 -0.1797973 -0.05027163
-0.16428001 0.29921648 -0.0025804432 -0.018469635 -0.34079313 0.00046687687 0.20520264 0.03401126
-0.080046706 0.013411468 -0.12823738 0.0032088573 -0.017085541 0.27610117 0.16893247 0.10197221
0.1635148 0.2148599 0.0818229 -0.14532946 -0.14966847 -0.0878822 -0.090723604 0.020618185
-0.028224694 -0.11902065 -0.05745188 -0.13349776 -0.16132617 0.036942735 -0.01697806 0.17613621
0.10689621 -0.2036414 0.06236658 0.21421415 -0.0010413247 -0.09615406 0.20530002 -0.019288624
0.08429314 -0.0009910885 0.048871636 0.12476077 0.028679673 -0.005219165 0.02476889 0.3143878
0.37438804 0.028866468 -0.24416204 -0.032482795 -0.004957961 0.0069398475 0.29504058 0.0245492
-0.03131384 0.122104526 -0.057068795 -0.011653166 -0.013221422 0.16816916 -0.120503426 -0.006547985
-0.1063454 -0.13706589 0.13565108 -0.032486457 -0.02731594 -0.059764538 0.01692648 -0.18260401
0.008160736 0.05621822 -0.10261283 0.056086734 0.14702524 -0.02051182 -0.14581715 0.14534922
0.2898098 -0.059251547 -0.010624299 -0.2026318 0.19275057 0.28403836 0.21264282 -0.013482987
0.063479014 0.21449335 0.103176095 0.22624777 -0.059479505 0.015272604 -0.116360776 -0.30881128
0.31723914 -0.1857387 0.10166027 0.26053175 0.06289948 -0.08669348 0.10292922 0.0048595546
-0.23870414 0.27257496 -0.14755717 -0.21217628 -0.01923254 -0.068268515 -0.03543093 0.28338006
0.08310845 -0.11092925 0.06546328 0.0061977445 -0.01925361 0.20089316 -0.14592232 -0.11498525
-0.05763497 -0.016526738 -0.12848859 0.021789301 -0.028870005 -0.14764741 -0.09910721 -0.024754416
0.29335153 0.16027045 -0.047622114 -0.18868113 -0.07013297 0.074672475 0.11565887 0.023892522
0.24214143 0.12589502 0.015780479 0.26651517 -0.009197839 -0.039498266 -0.030925442 0.054671574
0.07078305 -0.19896358 0.09137714 0.12782544 -0.03277176 -0.04234945 0.1514585 0.118056856
0.04372235 0.18236268 -0.06773718 -0.20293237 -0.08545758 0.23138432 0.15357272 0.10203713
0.22946574 0.16501954 0.12666762 0.022350557 0.09485079 -0.025273083 -0.07072491 -0.15701579
00000000: cb0a ee3d 7740 aebc 3268 6e3d 9574 c4bd
00000010: 4c37 3ebe 227b 343c 60d7 01be c5d8 f9bd
00000020: ae59 803d a63b 82bd 4e35 48bd 0319 2f3e
00000030: 82e8 423d 5e00 253d 6d98 453e 5888 f63d
00000040: 1337 fd3d dd22 1cbe 2dc3 0b3e 5f3e 853d
00000050: dc3f 8abe 51d1 71be cf54 383e a74d 6ebe
00000060: ab1d 99be ef54 263e eec5 f4bb 3a78 243e
00000070: 5fac a43d a6f8 01be d29c 0f3e cefa dbbc
00000080: 8d7d 133e 4cb6 b53d efde 7d3c abc3 f23d
00000090: 7c69 f33d fc40 d5bc 72fb 41be 0350 88bc
000000a0: 9a3e 253e 7e4f 82bc 8265 423c 3efb b53d
000000b0: f142 b63d 3a8b 6bbd fb6f b73d bbbf 3c3e
000000c0: 4d89 e73d f2ca 09be 8c67 e23d 67ac 943d
000000d0: ca87 d63d 3e56 6dbe 6ae7 9c3d 1d46 823d
000000e0: a740 a9bd 33ad bfbd 6a13 423b a220 80be
000000f0: 1f40 53be b3ef fcbc 44d9 1e3d 662f b63d
00000100: 1b16 a8bd d150 1ebe 44f3 99be f4a9 6ebc
00000110: 19e7 1abe 8e6a 6ebc 3f56 50be 8f2c 84bd
00000120: 51d7 573e 4412 883d be66 06bd 032f 443c
00000130: fd67 afbd 481a bdbc e996 24be 3db2 853d
00000140: 984f c9bd 9231 6b3e dab8 ba3d ad99 0bbe
00000150: dac3 aebe 71b7 27bd c91c 38be a0e9 4dbd
00000160: 0539 28be e732 993e a71c 29bb a24d 97bc
00000170: 707c aebe 27c7 f439 a420 523e 644f 0b3d
00000180: 87ef a3bd c6bb 5b3c a950 03be b14b 523b
00000190: faf6 8bbc 225d 8d3e a2fc 2c3e ced6 d03d
000001a0: 6c70 273e 3c04 5c3e c492 a73d 3fd1 14be
000001b0: b142 19be 95fb b3bd 4ccd b9bd 78e7 a83c
000001c0: 7937 e7bc 19c1 f3bd aa52 6bbd a3b3 08be
000001d0: b032 25be 4451 173d 9315 8bbc 0d5d 343e
000001e0: 66ec da3d 5f87 50be 1974 7f3d f45a 5b3e
000001f0: 0f7d 88ba 6bec c4bd 2b3a 523e 2d03 9ebc
00000200: e2a1 ac3d 69e7 81ba a02d 483d 9382 ff3d
00000210: a2f1 ea3c 8705 abbb 21e8 ca3c 70f7 a03e
00000220: caaf bf3e 5f79 ec3c 9d05 7abe ae0c 05bd
00000230: 6476 a2bb a967 e33b 8f0f 973e 671b c93c
00000240: f142 00bd f011 fa3d f8c0 69bd ecec 3ebc
00000250: aa9e 58bc 8934 2c3e 80ca f6bd 7b90 d6bb
00000260: 9ecb d9bd 005b 0cbe 1ee8 0a3e 8510 05bd
00000270: aec5 dfbc a9cb 74bd 67a9 8a3c 8cfc 3abe
00000280: 9cb4 053c 1445 663d ad26 d2bd 34bb 653d
00000290: c98d 163e 6808 a8bc 1751 15be 6dd6 143e
000002a0: f361 943e c0b1 72bd 8a11 2ebc b67e 4fbe
000002b0: 6860 453e 7a6d 913e 0abf 593e bfe7 5cbc
000002c0: 4901 823d 25a4 5b3e fd4d d33d 7fad 673e
000002d0: c8a0 73bd f239 7a3c 8f4e eebd 831c 9ebe
000002e0: 2b6d a23e 4932 3ebe 4233 d03d 6b64 853e
000002f0: 71d1 803d 5a8c b1bd 8ecc d23d e63c 9f3b
00000300: dc6e 74be f28e 8b3e 3a19 17be bd44 59be
00000310: 8f8d 9dbc 5dd0 8bbd 0620 11bd 3117 913e
00000320: c334 aa3d e02e e3bd 9d11 863d 7316 cb3b
00000330: bfb9 9dbc f0b6 4d3e a96c 15be 637d ebbd
00000340: a512 6cbd 1563 87bc 8392 03be 7a7f b23c
00000350: ca80 ecbc e230 17be b9f8 cabd c6c9 cabc
00000360: 2c32 963e f01d 243e 680f 43bd a035 41be
00000370: e0a1 8fbd e2ed 983d 8fde ec3d 40ba c33c
00000380: ecf3 773e a0ea 003e 1046 813c ad74 883e
00000390: 88b2 16bc efc8 21bd 5a57 fdbc 4def 5f3d
000003a0: b4f6 903d 1cbd 4bbe f023 bb3d ace4 023e
000003b0: ae3b 06bd 9e76 2dbd f017 1b3e cbc7 f13d
000003c0: 3516 333d 48bd 3a3e cab9 8abd 81cd 4fbe
000003d0: 6204 afbd 03f0 6c3e 2b42 1d3e d8f8 d03d
000003e0: 11f9 6a3e e2fa 283e 28b5 013e 8418 b73c
000003f0: 2241 c23d 7f09 cfbc 39d8 90bd bfc8 20be

weight_hh_l0 f4 [192, 64]
0.0068981936 -0.019214751 0.0100457 -0.2783145 0.11022905 0.094798036 0.007695394 0.14056996
-0.057736307 0.19396341 -0.038448602 0.113946825 -0.043717854 0.11010747 0.25375956 0.018162787
0.07132996 -0.1661728 0.111532755 0.18208286 0.1281763 -0.116802186 -0.07722699 0.05918798
-0.04480482 0.03775633 -0.13971733 -0.029756242 0.14193743 0.09277481 -0.09297331 0.06053778
-0.070901185 0.1526195 0.020704871 -0.16677362 -0.14463039 -0.13433845 -0.015475614 0.086268
-0.16134973 -0.022721253 -0.037566774 0.13263209 -0.16000302 -0.003296258 -0.10613679 -0.11183746
-0.015522475 -0.1487033 -0.21833873 -0.11846683 0.0008987631 0.021432845 -0.016801402 -0.0605276
-0.06869583 0.06543408 0.13434146 -0.14870441 0.21550986 -0.16334808 0.08564317 -0.10717464
0.12012616 -0.04647552 0.20649932 -0.0136019895 0.18431422 0.016671048 0.066743724 0.06413684
-0.08064211 0.18731423 0.044354577 -0.09977928 -0.070529014 0.020756556 0.19028889 0.13651052
-0.023772929 -0.24516727 0.019217324 0.107309364 0.030664012 0.015015075 -0.06359228 0.12527667
0.11750678 0.13414063 0.1176118 0.059984434 0.0015417321 -0.058533523 -0.0033018545 0.24750003
0.124596015 0.14795505 -0.058531437 0.14558586 0.15041736 0.004465305 -0.004705174 -0.07020947
-0.07766895 0.07518517 0.12700018 0.17230377 0.05184563 0.06994923 -0.053879987 -0.09162759
-0.09346108 0.03474769 -0.025132243 -0.10465319 0.025943212 0.006899876 -0.122354604 -0.014116838
0.05409998 0.0089493655 -0.1192819 -0.12104374 0.07917151 -0.107316285 0.08854751 -0.09555089
-0.098854095 -0.06980952 -0.07348843 -0.050138112 -0.22410712 -0.10278237 0.11294796 0.07023244
-0.019411104 -0.106827036 -0.0414992 -0.0018334779 0.09813641 -0.015660204 -0.12394613 0.14107859
-0.11119892 0.1130841 -0.0019675086 -0.085328445 -0.011333153 0.011480977 0.054869287 -0.1631906
0.037381984 0.06834702 -0.04601594 -0.11535923 0.044983786 0.116658024 -0.055677503 0.055532455
0.09344708 -0.013912852 0.001718162 0.06630964 -0.05133951 -0.09428049 0.046866354 0.019849855
-0.102145076 -0.099896654 -0.014257499 0.13680945 0.04101561 -0.049233515 0.027950654 -0.0568025
0.06673792 -0.02109499 0.09552275 0.10058467 0.08808499 -0.015255891 0.06154696 -0.09775477
0.06605237 0.10289693 -0.022703066 0.043736815 -0.1413638 0.060057938 0.08658727 -0.060208987
0.18120435 0.004003129 0.085854575 -0.2147327 0.09415576 -0.022175005 0.08958212 -0.046992432
0.06751936 -0.12681276 0.031322602 0.07068106 -0.044471413 -0.05304056 0.20921266 0.004350715
0.1505648 -0.09203746 0.048512578 0.2097255 0.19625384 0.09661878 0.075751744 0.049951013
0.053915046 0.06729987 0.010196648 -0.0941732 0.07354357 -0.04745805 0.020742558 -0.004585032
0.12888819 0.10489978 0.1453844 -0.00844338 0.0047601173 0.07518804 0.12819856 -0.09557231
-0.08085266 -0.3152404 0.17154413 -0.07729458 0.041528046 0.07094167 -0.0030065551 0.0035619463
-0.0864429 -0.09621378 -0.118293725 -0.08653523 0.04664243 0.06197754 0.043366432 -0.12505819
-0.01666791 0.004672469 0.07144919 0.018317066 0.2344112 -0.21082482 0.15228173 0.022188902
00000000: 3e0a e23b 4168 9dbc b896 243c 3d7f 8ebe
00000010: c5bf e13d 7925 c23d a529 fc3b 92f1 0f3e
00000020: e87c 6cbd 589e 463e 487c 1dbd f45c e93d
00000030: 7e11 33bd 0680 e13d c6ec 813e 20ca 943c
00000040: 7115 923d 3429 2abe 496b e43d ee73 3a3e
00000050: a640 033e fc35 efbd 2f29 9ebd 186f 723d
00000060: 4285 37bd 62a6 1a3d 0f12 0fbe 5dc3 f3bc
00000070: 0c58 113e b800 be3d ca68 bebd 77f6 773d
00000080: a434 91bd 4948 1c3e 439d a93c b4c6 2abe
00000090: fd19 14be 0590 09be 6e8d 7dbc 47ad b03d
000000a0: dd38 25be ec21 babc 9edf 19bd b5d0 073e
000000b0: d5d7 23be 0806 58bb 3f5e d9bd 0a0b e5bd
000000c0: fb51 7ebc ae45 18be 3094 5fbe bd9e f2bd
000000d0: f89a 6b3a ef93 af3c 18a3 89bc caeb 77bd
000000e0: 66b0 8cbd 4e02 863d cf90 093e f845 18be
000000f0: 9eae 5c3e b844 27be b065 af3d 617e dbbd
00000100: b404 f63d 1d5d 3ebd 8f74 533e e1da 5ebc
00000110: debc 3c3e b991 883c efb0 883d 2d5a 833d
00000120: b127 a5bd 4dcf 3f3e 25ad 353d 1459 ccbd
00000130: 8471 90bd a709 aa3c 17db 423e 6ac9 0b3e
00000140: 72bf c2bc 210d 7bbe a66d 9d3c 03c5 db3d
00000150: 1833 fb3c ca01 763c ab3c 82bd 8748 003e
00000160: 65a7 f03d 295c 093e 75de f03d 3db2 753d
00000170: f213 ca3a d9c0 6fbd ed63 58bb a670 7d3e
00000180: 322c ff3d 8781 173e a9be 6fbd 7614 153e
00000190: 0207 1a3e b151 923b dc2d 9abb fcc9 8fbd
000001a0: e610 9fbd affa 993d 560c 023e 6670 303e
000001b0: 155c 543d 8b41 8f3d 43b1 5cbd 3fa7 bbbd
000001c0: 8668 bfbd 9853 0e3d 22e2 cdbc 6954 d6bd
000001d0: dc86 d43c 5b18 e23b 0d95 fabd 4f4a 67bc
000001e0: f197 5d3d 5ca0 123c 124a f4bd c8e5 f7bd
000001f0: ac24 a23d a4c8 dbbd 6658 b53d 2fb0 c3bd
00000200: 0474 cabd 4bf8 8ebd 1a81 96bd 9f5d 4dbd
00000210: 567c 65be 907f d2bd 4351 e73d 07d6 8f3d
00000220: 0904 9fbc 22c8 dabd 11fb 29bd 4f51 f0ba
00000230: befb c83d d449 80bc 78d7 fdbd e876 103e
00000240: 42bc e3bd a398 e73d 51f1 00bb aec0 aebd
00000250: b0ae 39bc b51a 3c3c 9ebe 603d 701b 27be
00000260: da1d 193d 86f9 8b3d 367b 3cbd 7641 ecbd
00000270: eb40 383d 67ea ee3d 180e 64bd 0076 633d
00000280: 2f61 bf3d bbf2 63bc f333 e13a 59cd 873d
00000290: 6149 52bd 2116 c1bd eff6 3f3d 2a9c a23c
000002a0: 7031 d1bd 9e96 ccbd 4998 69bc c717 0c3e
000002b0: fcff 273d 15a9 49bd c5f8 e43c bda9 68bd
000002c0: e4ad 883d 67cf acbc 6ea1 c33d 56ff cd3d
000002d0: e765 b43d d8f3 79bc aa18 7c3d a733 c8bd
000002e0: 7746 873d a0bb d23d c8fb b9bc 6025 333d
000002f0: acc1 10be 50ff 753d ab54 b13d b39d 76bd
00000300: a28d 393e ae2c 833b 86d4 af3d e4e2 5bbe
00000310: bcd4 c03d 5ba8 b5bc d576 b73d 237b 40bd
00000320: 9747 8a3d 34db 01be 214c 003d 3bc1 903d
00000330: a827 36bd 0f41 59bd d83b 563e 7190 8e3b
00000340: a92d 1a3e 237e bcbd 20b5 463d 48c2 563e
00000350: c4f6 483e 11e0 c53d bb23 9b3d 6f99 4c3d
00000360: 06d6 5c3d 84d4 893d d70f 273c e1dd c0bd
00000370: 039e 963d 5f63 42bd 4cec a93c 093e 96bb
00000380: 44fb 033e b2d5 d63d a6df 143e 1a56 0abc
00000390: c2fa 9b3b 30fc 993d 7c46 033e 6abb c3bd
000003a0: 1496 a5bd 3167 a1be 44a9 2f3e 9f4c 9ebd
000003b0: 5019 2a3d de49 913d a009 45bb 8b6f 693b
000003c0: fa08 b1bd bb0b c5bd fb43 f2bd 6239 b1bd
000003d0: 220c 3f3d 29dc 7d3d 00a1 313d 410f 00be
000003e0: 248b 88bc 831b 993b f453 923d ac0d 963c
000003f0: 7d09 703e 76e2 57be beef 1b3e 80c5 b53c

bias_ih_l0 f4 [192]
0.05131271 0.15267104 0.10999607 -0.08786675 0.05992236 -0.040138055 0.03185246 -0.022192894
0.12204925 0.11055803 -0.08003714 0.096194014 0.13033755 0.03149507 -0.04759963 0.14027551
0.0061410367 0.124428295 0.10491467 -0.07473884 -0.08460715 0.13521521 0.2217554 0.082224384
0.00942841 0.071518585 -0.03036478 0.11900228 0.12418813 0.06069263 0.13473207 -0.058577675
0.014097847 -0.055627257 -0.026425874 -0.106464386 -0.041299656 0.09356655 0.05054982 0.031195588
0.09512908 0.05871241 0.015480924 -0.03905766 -0.2069767 0.13943382 -0.016639387 -0.1021417
-0.09554452 0.104828104 0.0013212995 0.1151167 0.06715717 0.09921726 -0.1468978 0.04727933
-0.026432116 0.12136568 -0.028026642 0.077781655 -0.052274458 0.070359595 0.03468789 0.055951327
-0.17874354 -0.16688688 -0.055751134 -0.12904334 -0.22663811 -0.053490266 -0.17823733 -0.00050147076
0.002751621 -0.38004175 -0.06590958 -0.14618057 -0.12335015 -0.02544528 0.039200388 -0.016524576
-0.17949611 0.0025325846 -0.028700247 -0.45178768 -0.07864225 -0.2162134 -0.17138642 -0.0964431
-0.22473456 -0.1598575 -0.1513762 -0.074809924 -0.21565826 -0.050851736 -0.19638258 -0.27001166
-0.12794049 -0.035005976 0.05790029 -0.107977755 -0.03632933 -0.13187647 -0.15402497 -0.14917873
-0.085605785 -0.09338792 0.05735662 -0.14845204 -0.031476345 -0.12964107 -0.19141847 -0.1624902
-0.02519897 0.005638424 -0.2584024 -0.10084721 -0.13150392 -0.07705392 -0.1519902 -0.038093615
-0.34481034 0.017430713 -0.21185988 -0.28507808 0.051517688 -0.13561688 -0.2386485 -0.22646537
0.18015242 -0.04057129 -0.2101049 -0.049876098 0.10977726 0.10573671 0.13807741 -0.16374908
0.054159883 -0.09724677 -0.1299165 -0.2522567 -0.16661252 0.0016972093 -0.097484455 0.15777045
0.08072445 -0.1526114 0.10031082 0.030178776 -0.06708035 0.07340477 0.03220058 -0.01754383
0.17796534 0.022778986 -0.001843875 0.1663982 0.03581768 -0.033900667 -0.0790856 -0.04408656
-0.14103013 -0.10405457 0.06672918 0.120933495 -0.14327484 0.122915804 -0.02717335 -0.060085766
0.024094349 -0.10908685 -0.03646412 -0.23206522 -0.19700128 -0.05809356 -0.08854289 -0.06305722
-0.06526851 0.06872516 -0.07849357 -0.13279286 0.06989843 -0.056231294 0.14622235 0.01076249
0.014141086 -0.023058048 -0.21138999 -0.013970549 -0.06509506 0.06689007 -0.1577643 -0.09195267
00000000: 472d 523d cc55 1c3e 9f45 e13d 7cf3 b3bd
00000010: 2671 753d cd67 24bd ba77 023d dfcd b5bc
00000020: f5f4 f93d 406c e23d 83ea a3bd 5e01 c53d
00000030: 3577 053e f900 013d d4f7 42bd 62a4 0f3e
00000040: c03a c93b 43d4 fe3d 81dd d63d ad10 99bd
00000050: 8346 adbd db75 0a3e d913 633e 4265 a83d
00000060: 9e79 1a3c 5678 923d 8fbf f8bc 78b7 f33d
00000070: 5956 fe3d d698 783d 34f7 093e 25ef 6fbd
00000080: a8fa 663c 68d9 63bd 137b d8bc 000a dabd
00000090: d429 29bd d29f bf3d 540d 4f3d e48d ff3c
000000a0: 09d3 c23d 6d7c 703d b4a3 7d3c edfa 1fbd
000000b0: b3f1 53be bdc7 0e3e 534f 88bc ab2f d1bd
000000c0: d8ac c3bd 1eb0 d63d 742f ad3a 4ec2 eb3d
000000d0: b389 893d 6b32 cb3d 606c 16be f9a7 413d
000000e0: 2a88 d8bc 928e f83d 2198 e5bc fd4b 9f3d
000000f0: be1d 56bd b118 903d e414 0e3d 382d 653d
00000100: 8c08 37be 65e4 2abe 4d5b 64bd f023 04be
00000110: d213 68be 9c18 5bbd d983 36be 2275 03ba
00000120: 8a54 343b d594 c2be 9afb 86bd 5cb0 15be
00000130: 019f fcbd 9f72 d0bc 9690 203d 8c5e 87bc
00000140: d4cd 37be b8f9 253b c81c ebbc b750 e7be
00000150: 300f a1bd 0c67 5dbe ec7f 2fbe f683 c5bd
00000160: d120 66be afb1 23be 5d02 1bbe f235 99bd
00000170: 85d5 5cbe e949 50bd 8418 49be f83e 8abe
00000180: d502 03be 6d62 0fbd db28 6d3d 7123 ddbd
00000190: 10ce 14bd a00a 07be b9b8 1dbe 4fc2 18be
000001a0: 1652 afbd 2a42 bfbd c6ee 6a3d d003 18be
000001b0: 57ed 00bd a1c0 04be 3403 44be d563 26be
000001c0: 126e cebc 87c2 b83b 524d 84be fb88 cebd
000001d0: f7a8 06be 72ce 9dbd 52a3 1bbe 0d08 1cbd
000001e0: fb8a b0be dbca 8e3c ccf1 58be c1f5 91be
000001f0: 3604 533d 27df 0abe 4660 74be 8ae6 67be
00000200: e079 383e 152e 26bd bd25 57be e14a 4cbd
00000210: e6d2 e03d 7d8c d83d 2a64 0d3e d7ad 27be
00000220: c1d6 5d3d 5129 c7bd d508 05be ca27 81be
00000230: 799c 2abe e574 de3a eea5 c7bd 948e 213e
00000240: dc52 a53d 2a46 1cbe c26f cd3d 7b39 f73c
00000250: 6c61 89bd 3d55 963d c1e4 033d 14b8 8fbc
00000260: 8c3c 363e ff9a ba3c 2eae f1ba 4a64 2a3e
00000270: 8fb5 123d 6ddb 0abd a2f7 a1bd 1c94 34bd
00000280: 346a 10be 901a d5bd 4fa9 883d fbab f73d
00000290: a4b6 12be 48bb fb3d a59a debc 7e1c 76bd
000002a0: 8361 c53c ed68 dfbd 675b 15bd 81a2 6dbe
000002b0: b4ba 49be 83f3 6dbd fa55 b5bd 2524 81bd
000002c0: 7fab 85bd c7bf 8c3d 3dc1 a0bd dafa 07be
000002d0: e826 8f3d c952 66bd 50bb 153e 2855 303c
000002e0: 03b0 673c 3be4 bcbc 9e76 58be bbe4 64bc
000002f0: 8f50 85bd a9fd 883d f78c 21be ae51 bcbd

bias_hh_l0 f4 [192]
-0.06885095 0.038078688 0.05061548 0.11758979 -0.018842548 0.10417685 0.022836817 -0.106166124
-0.031091463 -0.03886719 0.07318978 -0.061318863 0.17294884 -0.016461002 0.061957162 0.3245677
0.07621232 0.10099999 0.08944802 -0.02701349 0.013908755 0.18128444 0.025458304 0.110442415
0.0649526 -0.08086269 0.017306827 -0.035699803 0.049742375 -0.029841132 0.031925607 -0.05754607
-0.056530643 0.05650107 -0.004117551 -0.027476262 0.07890691 0.005433912 0.030680358 0.038741425
0.09438789 0.09743649 0.12363579 0.025670921 -0.18962958 -0.015647428 0.044293407 0.04618567
0.056183163 0.14374505 0.08531778 -0.0755694 -0.11039431 0.070809044 -0.1416886 0.0022693481
0.14932415 0.08417113 -0.06300337 -0.08371536 -0.074327745 -0.023338709 0.15560272 0.083981514
-0.17644776 -0.13593273 -0.27549592 -0.04690947 -0.090465225 -0.17117167 -0.045838516 -0.22549641
-0.16451755 -0.14068983 0.031204876 -0.12219652 -0.09531103 0.06758973 -0.04602899 -0.18462542
-0.05335077 -0.0013378348 -0.08581082 -0.5769946 -0.12042747 -0.19939744 -0.16497779 -0.3063899
-0.1688822 -0.04058552 0.0035250236 -0.07641933 -0.21021 -0.123548284 -0.33447853 -0.06700693
-0.10416526 -0.16676237 -0.09935666 -0.0014828447 -0.22424757 -0.10112988 -0.06894157 0.0830398
0.05240339 -0.071626864 -0.08337599 -0.2143445 -0.27284455 -0.078323945 -0.05747741 -0.22367723
-0.029330922 -0.111602366 -0.24244915 -0.051710047 -0.23711684 -0.13271971 -0.22550337 -0.16049013
-0.26401317 -0.016426085 -0.18762104 -0.18396342 -0.0030803839 -0.22276838 -0.28984243 -0.122560225
0.0032366049 -0.19334781 -0.21283716 -0.10080159 0.09932504 0.15745857 0.14760372 0.03411254
0.100419365 0.12124647 -0.13728966 -0.09180876 -0.06470639 -0.07201077 -0.044589575 0.095556304
0.14354113 -0.03770442 0.18867742 0.10334522 0.016714841 0.087940946 -0.15715687 0.07985297
0.028314635 -0.1718667 -0.0059889774 0.16762407 -0.061307818 0.17068526 0.03977001 -0.07077278
-0.011601186 -0.13522182 0.006617851 -0.07379518 -0.15091158 -0.055462603 -0.14447264 0.024519702
0.14650863 0.083737575 0.084876366 -0.049005292 0.025110802 -0.044125896 -0.11899537 -0.029356146
0.04461004 0.14227226 -0.18525878 -0.053392764 -0.035829823 -0.085810624 -0.08179643 -0.09193481
0.012238038 -0.09471089 0.02080405 -0.002413538 0.031378694 -0.02244999 -0.10551864 -0.05307903
00000000: ba01 8dbd 66f8 1b3d 2d52 4f3d ead2 f03d
00000010: b05b 9abc ac5a d53d 4714 bb3c a06d d9bd
00000020: 86b3 febc 3433 1fbd 86e4 953d 7d29 7bbd
00000030: 8019 313e 39d9 86bc cbc6 7d3d bd2d a63e
00000040: 3415 9c3d 15d9 ce3d 8630 b73d 654b ddbc
00000050: 8ce1 633c a1a2 393e ef8d d03c a22f e23d
00000060: de05 853d 579b a5bd 0cc7 8d3c f539 12bd
00000070: a9be 4b3d 6475 f4bc 6dc4 023d 6eb5 6bbd
00000080: ad8c 67bd aa6d 673d 85ec 86bb e615 e1bc
00000090: f299 a13d f50e b23b 6055 fb3c 54af 1e3d
000000a0: 704e c13d c88c c73d c334 fd3d d34b d23c
000000b0: 422e 42be 092f 80bc 016d 353d 2f2d 3d3d
000000c0: 5120 663d e731 133e 17bb ae3d 21c4 9abd
000000d0: 6916 e2bd 5504 913d d116 11be 58b9 143b
000000e0: 6ee8 183e ea61 ac3d e907 81bd f572 abbd
000000f0: 2539 98bd d230 bfbc 5256 1f3e 80fe ab3d
00000100: b9ae 34be f331 0bbe cd0d 8dbe 2524 40bd
00000110: d545 b9bd a047 2fbe 2bc1 3bbd 88e8 66be
00000120: 4a77 28be ff10 10be 5ea1 ff3c 2b42 fabd
00000130: 6e32 c3bd 7c6c 8a3d e588 3cbd 720e 3dbe
00000140: 5686 5abd 495a afba 95bd afbd ebb5 13bf
00000150: ada2 f6bd d82e 4cbe f0ef 28be 23df 9cbe
00000160: 75ef 2cbe 013d 26bd 1504 673b bd81 9cbd
00000170: 4a41 57be e206 fdbd c540 abbe ee3a 89bd
00000180: 9954 d5bd c1c3 2abe 817b cbbd 035c c2ba
00000190: 28a1 65be 2f1d cfbd 3d31 8dbd c510 aa3d
000001a0: f0a4 563d 1bb1 92bd 08c1 aabd 207d 5bbe
000001b0: 48b2 8bbe 4e68 a0bd 6f6d 6bbd a50b 65be
000001c0: 6747 f0bc c88f e4bd 9744 78be eacd 53bd
000001d0: c2ce 72be ade7 07be 5bea 66be 8657 24be
000001e0: bc2c 87be ff8f 86bc bb1f 40be e860 3cbe
000001f0: 44e0 49bb 651d 64be 3a66 94be db00 fbbd
00000200: 381d 543b f8fc 45be fcf1 59be 1071 cebd
00000210: ed6a cb3d d23c 213e 6e25 173e 97b9 0b3d
00000220: aba8 cd3d 1250 f83d a995 0cbe 3b06 bcbd
00000230: c984 84bd 627a 93bd 8fa3 36bd 06b3 c33d
00000240: 72fc 123e f36f 1abd a734 413e a9a6 d33d
00000250: 90ed 883c 621a b43d bbed 20be f489 a33d
00000260: 18f4 e73c d3fd 2fbe 2f3f c4bb a5a5 2b3e
00000270: e81d 7bbd 1ec8 2e3e e1e5 223d 52f1 90bd
00000280: e712 3ebc 9777 0abe 8fda d83b ed21 97bd
00000290: 9188 1abe c12c 63bd a3f0 13be 8bdd c83c
000002a0: 5c06 163e 9b7e ab3d a9d3 ad3d c6b9 48bd
000002b0: 2bb5 cd3c 5bbd 34bd d8b3 f3bd 4d7c f0bc
000002c0: 04b9 363d d2af 113e 7ab4 3dbe 5fb2 5abd
000002d0: 4bc2 12bd 7bbd afbd e384 a7bd 5148 bcbd
000002e0: 0d82 483c c8f7 c1bd 416d aa3c 732c 1ebb
000002f0: f286 003d 0be9 b7bc 281a d8bd 6669 59bd

weight_ih_l1 f4 [192, 64]
-0.21289937 -0.018137803 0.13806663 -0.20991044 -0.055766504 0.04002451 0.17267802 -0.065169685
0.18735354 0.09511791 -0.1845916 0.038969785 0.1121481 0.017391045 0.14080897 0.030060612
0.021393511 0.13505657 0.15201586 -0.17839105 0.03408897 -0.014303511 -0.14740002 -0.07826049
-0.00053632114 -0.1684769 0.029717892 -0.10480964 -0.08375191 0.13349639 -0.31997028 0.0049932916
0.0023401727 0.13493903 0.090380736 0.16809623 -0.059603967 0.07068779 0.102222875 -0.052440107
0.055394117 -0.3760432 -0.013968387 0.06752083 -0.030404335 0.06771792 -0.036865093 -0.13765004
0.074246205 0.12625806 0.11483018 -0.07347094 0.19221583 0.08151973 -0.18096481 -0.0019266962
0.091562994 0.048718315 -0.08261665 0.0063753277 0.02810999 0.033996884 0.3209149 0.0023230568
0.12459999 -0.028687539 0.031097846 -0.18559375 0.19978297 -0.049373053 0.10729853 0.056162942
0.09919893 0.17676176 0.0017468814 0.034365445 -0.091883644 -0.11948408 0.22321902 0.020303246
-0.0738495 -0.049346246 -0.06366803 0.22869188 0.13257842 -0.105354525 -0.12886405 0.13546105
0.06072477 -0.0716567 0.123311676 -0.08626805 0.08045185 0.036127873 -0.11579879 -0.055839345
-0.0128062945 0.032174993 -0.036294244 -0.04249178 0.011472176 -0.16722961 0.068273425 0.024834285
-0.031593166 0.15758908 0.00031203966 -0.068610266 9.543058e-05 0.09185161 -0.09292205 -0.076120734
-0.07194997 -0.13676988 -0.26565278 0.08065513 -0.17083257 0.2730784 -0.11279312 -0.00011484927
-0.13021591 0.18604447 -0.060765892 0.06761584 0.2455058 -0.11739147 0.058753017 -0.1548351
-0.055407505 0.009437079 -0.058713336 -0.09286772 -0.17341053 -0.040523265 0.03935949 -0.16224244
0.18431576 -0.11228084 -0.04083275 0.019960718 0.3332439 -0.13973472 0.1302783 0.26315492
0.26433748 -0.094598435 -0.016586972 -0.4094592 -0.19330972 0.1725539 -0.095781825 -0.25121838
0.07738837 -0.07057236 0.11028613 -0.05750973 -0.14647046 0.08657247 -0.4106489 -0.049897134
-0.25193435 -0.12491963 -0.08534024 0.089094706 -0.07136195 -0.17391711 0.06990539 -0.12634929
0.049347505 -0.40677193 0.15807289 -0.04725229 -0.14090407 -0.11473224 -0.005872998 -0.0039131236
0.025137968 -0.056829598 0.13030018 -0.22480462 0.21413942 0.010538176 -0.1641409 -0.046067327
-0.0103850085 0.03323674 0.009880901 0.06823432 0.024000224 0.14881481 0.17922199 0.058580264
0.2983131 -0.0019061842 -0.044399384 0.05971544 0.07320905 0.0603248 -0.11417521 -0.03544693
-3.8260663e-05 0.051916078 0.08731808 0.039133836 -0.4238905 0.10381319 -0.024112325 -0.15361223
-0.16152483 0.04818404 -0.14242542 0.1937193 0.14884982 -0.15420528 0.0861947 0.16872565
-0.0053935903 0.14100836 -0.07708432 -0.12864892 0.16615435 -0.13041511 0.25485674 -0.0076476755
0.12375218 0.33580667 0.14804606 -0.1317838 -0.07638257 -0.035088006 0.26098177 0.12532158
-0.10294147 0.3847216 0.046097428 0.0068075927 -0.118832774 0.095018156 -0.09168206 0.020474808
-0.05064243 -0.07608436 -0.09798436 -0.08566407 -0.087738104 0.0050561945 -0.066567585 0.23230259
0.029983755 0.036535703 0.19142666 -0.07190371 0.13266481 -0.25895673 -0.058955207 0.0413011
00000000: 4b02 5abe bb95 94bc 5761 0d3e c3f2 56be
00000010: 6b6b 64bd bef0 233d 82d2 303e af77 85bd
00000020: 9bd9 3f3e 2ecd c23d 9505 3dbe c89e 1f3d
00000030: e7ad e53d aa77 8e3c 3a30 103e ac41 f63c
00000040: 7241 af3c 454c 0a3e 0caa 1b3e 25ac 36be
00000050: e0a0 0b3d 4659 6abc 08f0 16be 0947 a0bd
00000060: e797 0cba 3585 2cbe f072 f33c 70a6 d6bd
00000070: 1f86 abbd 47b3 083e 25d3 a3be c49e a33b
00000080: 955d 193b 752d 0a3e 8919 b93d 6b21 2c3e
00000090: 4a23 74bd c3c4 903d 3a5a d13d 70cb 56bd
000000a0: f1e4 623d bc88 c0be a9db 64bc 5c48 8a3d
000000b0: 8312 f9bc b1af 8a3d daff 16bd 22f4 0cbe
000000c0: 650e 983d cb49 013e 162c eb3d ef77 96bd
000000d0: 3ad4 443e d1f3 a63d d74e 39be 3289 fcba
000000e0: 6185 bb3d db8c 473d eb32 a9bd 20e8 d03b
000000f0: ec46 e63c 5140 0b3d f54e a43e 6d3e 183b
00000100: 482e ff3d 2102 ebbc e9c0 fe3c 4a0c 3ebe
00000110: e893 4c3e 663b 4abd 55bf db3d 1d0b 663d
00000120: cf28 cb3d 0901 353e 9df7 e43a c8c2 0c3d
00000130: 7e2d bcbd 12b4 f4bd 8793 643e fe52 a63c
00000140: 683e 97bd 4a1f 4abd 6264 82bd 342e 6a3e
00000150: a3c2 073e 1dc4 d7bd f0f4 03be 4db6 0a3e
00000160: 89ba 783d bfc0 92bd d58a fc3d 4ead b0bd
00000170: f1c3 a43d d2fa 133d ea27 edbd ccb7 64bd
00000180: 7ed1 51bc edc9 033d 46a9 14bd dc0b 2ebd
00000190: cbf5 3b3c 3d3e 2bbe f0d2 8b3d 4571 cb3c
000001a0: d667 01bd 085f 213e 4199 a339 8a83 8cbd
000001b0: e721 c838 b21c bc3d ea4d bebd 30e5 9bbd
000001c0: 825a 93bd 670d 0cbe a403 88be 842e a53d
000001d0: bcee 2ebe efd0 8b3e 1400 e7bd 3bdb f0b8
000001e0: 5257 05be 7182 3e3e a8e5 78bd 2c7a 8a3d
000001f0: df65 7b3e f06a f0bd 01a7 703d 188d 1ebe
00000200: fbf2 62bd fa9d 1a3c 657d 70bd 6e31 bebd
00000210: 8892 31be b9fb 25bd 6b37 213d e222 26be
00000220: 45bd 3c3e 7ff3 e5bd 3e40 27bd a984 a33c
00000230: f29e aa3e 9e16 0fbe ad67 053e 3ebc 863e
00000240: 3e57 873e d3bc c1bd 67e1 87bc a3a4 d1be
00000250: fcf2 45be f8b1 303e 4329 c4bd b29f 80be
00000260: cb7d 9e3d 3e88 90bd b2dd e13d 538f 6bbd
00000270: 5afc 15be e84c b13d 9340 d2be f060 4cbd
00000280: 8afd 80be ddd5 ffbd ddc6 aebd 4977 b63d
00000290: 3726 92bd 5417 32be 8f2a 8f3d b561 01be
000002a0: 9c20 4a3d 6944 d0be dcdd 213e 9e8b 41bd
000002b0: 2849 10be bdf8 eabd 4772 c0bb a939 80bb
000002c0: 24ee cd3c 27c6 68bd 696d 053e 2f33 66be
000002d0: 5d47 5b3e 50a8 2c3c 8d14 28be 18b1 3cbd
000002e0: e225 2abc 3f23 083d 81e3 213c 6fbe 8b3d
000002f0: 1e9c c43c e962 183e f885 373e dcf1 6f3d
00000300: 7fbc 983e eed8 f9ba 21dc 35bd 2d98 743d
00000310: a0ee 953d 2317 773d b1d4 e9bd cd30 11bd
00000320: 137a 20b8 f4a5 543d d2d3 b23d cd4a 203d
00000330: 2d08 d9be 029c d43d 3687 c5bc 864c 1dbe
00000340: c466 25be a15c 453d f8d7 11be 5a5e 463e
00000350: 166c 183e fde7 1dbe d986 b03d 6bc6 2c3e
00000360: b7bc b0bb 7f64 103e 62de 9dbd 8bbc 03be
00000370: 5e24 2a3e 8a8b 05be 957c 823e 5a99 fabb
00000380: c871 fd3d daee ab3e 6399 173e 55f2 06be
00000390: 776e 9cbd 71b8 0fbd 679f 853e 4d54 003e
000003a0: fad2 d2bd 3bfa c43e a8d0 3c3d 3a12 df3b
000003b0: 995e f3bd e198 c23d cec3 bbbd c9ba a73c
000003c0: 706e 4fbd 1ed2 9bbd 06ac c8bd a570 afbd
000003d0: 09b0 b3bd 6fae a53b 9654 88bd bbe0 6d3e
000003e0: 7ea0 f53c 76a6 153d 5a05 443e 4142 93bd
000003f0: 49d9 073e fa95 84be 047b 71bd 582b 293d

weight_hh_l1 f4 [192, 64]
-0.026875356 0.009981104 -0.073477596 0.10809628 -0.07315083 0.020164724 0.06638973 -0.03276027
-0.06576656 -0.07766705 0.06978858 0.025795814 0.091501854 -0.03913911 0.06737439 -0.20188837
0.10260136 0.04140603 0.12967665 -0.05203488 -0.10087326 -0.19002761 0.068907194 -0.117383786
0.013167789 0.030669246 0.059531216 -0.09735719 -0.039192397 0.012048643 0.16445199 -0.034405798
-0.107687816 0.1258081 0.028325455 0.003770618 -0.12369714 0.10796117 0.016892066 -0.012228952
-0.010210555 -0.0030833962 0.12203165 -0.056199007 -0.016996661 0.12012638 -0.059088282 0.059109066
0.13099855 0.15407509 0.13978465 -0.07472731 -0.047411807 -0.11689596 -0.11473959 -0.0004504255
0.0030698946 0.08747281 -0.031282365 0.10164061 0.024779556 -0.052102584 -0.12564336 0.088968314
-0.020574292 -0.09981279 -0.08725809 -0.16763446 -0.19105007 -0.10821043 0.10435617 -0.13930099
-0.14188524 -0.0066840914 0.06729724 -0.15679953 -0.018382778 0.12627721 -0.10105547 0.070817694
-0.08781583 -0.07111397 -0.06548526 -0.03763662 0.18471411 -0.12124183 -0.075689726 -0.07890004
0.066519134 -0.09846836 -0.15896168 0.09511795 0.026889596 -0.025862455 -0.11395056 -0.06446522
-0.094086386 0.0067708422 0.01239659 0.13094866 0.10284703 0.22932485 0.11981327 0.12111672
-0.19836546 -0.22790922 -0.09258386 0.11935083 -0.015697744 -0.22105671 -0.096038945 0.07692709
-0.11342481 0.11195555 -0.036726955 0.024039976 0.18881738 0.111855775 -0.026411373 0.18539427
0.08320409 -0.022883257 -0.15401423 -0.16453473 0.10667643 -0.042028584 -0.04652723 0.19097985
-0.092285864 -0.052191027 -0.062360063 -0.040302966 0.020711187 -0.0398543 0.019454077 -0.04406814
-0.058710795 0.09956116 0.066745184 0.09899784 0.17948627 -0.043848425 0.11072718 -0.13175054
0.15440261 0.083378136 0.0071458025 0.07268049 -0.046180386 -0.19371462 -0.049539845 -0.01954181
0.14970247 -0.10370844 0.12512255 0.006145472 0.17002793 -0.03256789 0.03043185 -0.12961195
-0.20754944 -0.12163676 0.044866674 -0.08111254 -0.14894627 -0.01529734 -0.06615989 -0.055539973
-0.002288903 -0.006321361 -0.09493182 -0.17229822 -0.06685866 0.12359023 0.087658174 0.0033449903
-0.012985071 0.22232696 0.18497722 0.08599061 -0.029182175 -0.0551104 0.09905023 0.075763166
-0.14581254 0.038162682 -0.008115374 -0.066598475 0.06527825 0.031855214 0.02787598 -0.09819894
0.07942445 0.026869234 -0.0009801135 -0.025992237 -0.08992459 -0.11826925 -0.037214454 0.0039705043
0.04239537 0.03230927 0.18491292 0.017145956 -0.07324264 0.070824124 0.14915384 -0.22533533
0.016500225 -0.075765945 0.10241402 -0.07354708 0.12049332 -0.12996587 0.0538797 0.049693506
-0.0072848285 -0.122984864 -0.028897747 0.03246452 -0.06111432 0.0911549 0.16671339 -0.047909357
0.101169385 0.012089909 0.12760377 0.024591414 0.004962944 -0.030100338 -0.068236046 0.030792234
-0.08875327 -0.013371977 0.026189229 -0.12662165 -0.14425255 -0.044962697 -0.06601234 0.03953677
-0.11207791 0.16893934 -0.021910127 -0.13277197 0.064668655 0.043120474 0.032951098 -0.04541856
0.17423725 -0.07761885 -0.114673324 -0.1905922 -0.07680977 0.02155713 -0.04292279 0.06928603
00000000: b529 dcbc c987 233c 6c7b 96bd 9561 dd3d
00000010: 1ad0 95bd 7e30 a53c 57f7 873d a22f 06bd
00000020: 9eb0 86bd e70f 9fbd 51ed 8e3d be51 d33c
00000030: 5365 bb3d 5550 20bd 96fb 893d d3bb 4ebe
00000040: a920 d23d 5f99 293d f5c9 043e 8722 55bd
00000050: a496 cebd 9996 42be 371f 8d3d e966 f0bd
00000060: b6bd 573c 123e fb3c 01d7 733d 3563 c7bd
00000070: 3588 20bd ac67 453c 1a66 283e 18ed 0cbd
00000080: 6e8b dcbd d7d3 003e c90a e83c 791c 773b
00000090: ed54 fdbd bf1a dd3d 3b61 8a3c f15b 48bc
000000a0: 2c4a 27bc ce12 4abb bbeb f93d ee30 66bd
000000b0: 953c 8bbc d204 f63d 8e06 72bd 591c 723d
000000c0: 7c24 063e dcc5 1d3e b523 0f3e a20a 99bd
000000d0: e232 42bd 2667 efbd 97fc eabd 1627 ecb9
000000e0: 4930 493b f224 b33d f021 00bd f428 d03d
000000f0: 7ffe ca3c 8569 55bd a7a8 00be 0535 b63d
00000100: 6b8b a8bc a66a ccbd 5fb4 b2bd 5ea8 2bbe
00000110: a1a2 43be 6e9d ddbd b0b8 d53d eba4 0ebe
00000120: 5d4a 11be 3906 dbbb 23d3 893d 0e90 20be
00000130: 7b97 96bc d04e 013e 2cf6 cebd de08 913d
00000140: c9d8 b3bd 33a4 91bd 231d 86bd db28 1abd
00000150: b225 3d3e a34d f8bd 3703 9bbd 5896 a1bd
00000160: 2f3b 883d c8a9 c9bd dac6 22be 33cd c23d
00000170: 9247 dc3c 80dd d3bc e95e e9bd 5706 84bd
00000180: 5db0 c0bd f1dd dd3b 111b 4b3c 6817 063e
00000190: 77a1 d23d 22d4 6a3e a960 f53d 0b0c f83d
000001a0: 5120 4bbe 0961 69be 9b9c bdbd 356e f43d
000001b0: 8e98 80bc b15c 62be 11b0 c4bd f38b 9d3d
000001c0: 444b e8bd f448 e53d 016f 16bd 7cef c43c
000001d0: 5859 413e a414 e53d aa5c d8bc ffd7 3d3e
000001e0: e866 aa3d ab75 bbbc e8b5 1dbe cb7b 28be
000001f0: 2c79 da3d 2a26 2cbd 5693 3ebd 3990 433e
00000200: 5f00 bdbd 42c6 55bd 446d 7fbd b914 25bd
00000210: 82aa a93c 433e 23bd 285e 9f3c cb80 34bd
00000220: bb7a 70bd b9e6 cb3d b3b1 883d 61bf ca3d
00000230: 40cb 373e 689a 33bd efc4 e23d 9de9 06be
00000240: b81b 1e3e 28c2 aa3d 5627 ea3b 82d9 943d
00000250: a527 3dbd 205d 46be 4bea 4abd 2516 a0bc
00000260: 9b4b 193e 1765 d4bd 2020 003e f55f c93b
00000270: cd1b 2e3e e865 05bd 374c f93c ffb8 04be
00000280: d787 54be b21c f9bd 1ec6 373d 551e a6bd
00000290: 5f85 18be b2a1 7abc d67e 87bd e27d 63bd
000002a0: 6c01 16bb 6b23 cfbb 9d6b c2bd f26e 30be
000002b0: 31ed 88bd e01c fd3d 2186 b33d a037 5b3b
000002c0: 56bf 54bc aea9 633e ab6a 3d3e d81b b03d
000002d0: 750f efbc 71bb 61bd d9da ca3d b829 9b3d
000002e0: e24f 15be 7950 1c3d 58f6 04bc c864 88bd
000002f0: 9ab0 853d 9d7a 023d 2b5c e43c 871c c9bd
00000300: 49a9 a23d de1c dc3c 2777 80ba aced d4bc
00000310: 622a b8bd 2637 f2bd 2f6e 18bd 011b 823b
00000320: c4a6 2d3d ba56 043d d059 3d3e ad75 8c3c
00000330: 3d00 96bd 3d0c 913d c9bb 183e 4ebe 66be
00000340: 7b2b 873c 2d2b 9bbd 71be d13d da9f 96bd
00000350: 34c5 f63d c615 05be f6b0 5c3d 6b8b 4b3d
00000360: 92b5 eebb 7ddf fbbd f8ba ecbc 84f9 043d
00000370: 0253 7abd 6caf ba3d eab6 2a3e 9a3c 44bd
00000380: e531 cf3d c114 463c 90aa 023e ef73 c93c
00000390: 31a0 a23b fc94 f6bc 57bf 8bbd ff3f fc3c
000003a0: 46c4 b5bd 2316 5bbc cb8a d63c 1ba9 01be
000003b0: f1b6 13be ce2a 38bd 7a31 87bd 4ff1 213d
000003c0: 1a89 e5bd 6ffe 2c3e de7c b3bc 60f5 07be
000003d0: 0071 843d 189f 303d bbf7 063d d008 3abd
000003e0: 406b 323e a2f6 9ebd d9d9 eabd 9a2a 43be
000003f0: 714e 9dbd 9498 b03c cfcf 2fbd d6e5 8d3d

bias_ih_l1 f4 [192]
-0.014679429 0.18038708 0.06310934 -0.11020631 -0.038646985 0.024138743 -0.09349633 -0.05581617
0.020589393 0.2060267 0.008882999 -0.0034014455 -0.090306625 0.11820779 0.21744902 0.0067663565
-0.059275046 -0.013025076 0.0047043455 0.024838498 0.09475397 -0.065856874 0.018481158 0.10703588
0.014916405 0.03999911 0.0974314 0.06061148 0.18162122 0.140247 0.0760526 0.034044966
-0.06921883 0.053639602 0.19369145 0.1974319 0.028545586 0.12162853 -0.12117201 0.093520544
0.09258964 0.19060619 -0.032528397 -0.092826724 0.068830155 0.026240634 0.1075492 -0.0803455
0.105199926 -0.0009656301 0.01965435 0.07397934 -0.044449653 0.121518485 -0.026811581 0.07725752
-0.022458661 0.08840167 0.010909212 0.07905357 0.043028142 -0.11061437 -0.04960122 0.17697076
-0.015830787 -0.071064636 -0.13131528 -0.20920706 0.022196341 0.10839908 0.15949081 -0.1464817
-0.090686955 -0.19274157 -0.12786521 -0.076455 -0.057258412 -0.03704561 -0.025142891 -0.097977825
-0.25056404 -0.18005936 -0.030373659 -0.059840623 -0.21738431 0.11470834 -0.0010418815 -0.03033237
0.015707366 -0.17994186 -0.14473589 -0.2443315 -0.37978598 -0.16149831 -0.022125613 -0.0454422
-0.12547055 -0.13944392 -0.109249614 -0.122780584 0.028412655 -0.027526392 -0.010759241 -0.09542267
-0.20945121 -0.003103124 -0.121301904 0.08332346 0.095409565 -0.0961753 0.010973881 -0.07575607
-0.26424462 -0.025744274 -0.05131781 -0.048161857 -0.067467846 -0.19129318 -0.17588155 -0.0621371
-0.18545401 -0.13418417 -0.13857104 0.015660567 -0.058560472 -0.11297518 -0.13779762 -0.14991884
0.05573938 -0.28830096 0.17252398 0.04019311 -0.07473979 -0.09819249 -0.015030321 -0.22436525
0.01710144 -0.12532264 0.18978636 -0.16500306 0.10642619 0.16938832 -0.082783245 0.039950438
-0.15680903 0.018969553 -0.11969567 0.03892211 0.12644911 -0.0020250161 0.14446886 -0.01799488
-0.02768242 -0.004470287 -0.19587857 0.059685454 0.13254572 0.008307293 -0.19510399 0.0047199544
0.08357434 0.08280669 -0.10680588 0.27012092 -0.0049255216 0.20350428 0.07697847 0.2924956
-0.122686505 -0.08460069 -0.11913738 0.032859437 -0.013477772 -0.11228536 -0.12708427 0.13771074
-0.17888933 0.03013016 -0.120622285 -0.2371585 0.14373977 -0.11053798 -0.080318496 0.1430134
-0.037655007 -0.042289276 -0.1732945 0.0019218992 -0.045379046 -0.06907285 -0.016382737 0.14853892
00000000: fd81 70bc 64b7 383e 783f 813d d9b3 e1bd
00000010: 4d4c 1ebd 9dbe c53c 017b bfbd 7f9f 64bd
00000020: 16ab a83c aaf8 523e 008a 113c c9ea 5ebb
00000030: aef2 b8bd ed16 f23d f5aa 5e3e 50b8 dd3b
00000040: 64ca 72bd 2167 55bc e926 9a3b 1b7a cb3c
00000050: 5f0e c23d f8df 86bd cc65 973c a135 db3d
00000060: f063 743c 1bd6 233d 1d8a c73d be43 783d
00000070: eafa 393e e99c 0f3e 77c1 9b3d bc72 0b3d
00000080: 9ac2 8dbd 33b5 5b3d 0d57 463e 972b 4a3e
00000090: 6fd8 e93c 6118 f93d 0829 f8bd b387 bf3d
000000a0: a39f bd3d 452e 433e 7f3c 05bd f01b bebd
000000b0: d3f6 8c3d 99f6 d63c c142 dc3d 2e8c a4bd
000000c0: 0f73 d73d 5722 7dba 2902 a13c 7b82 973d
000000d0: d710 36bd afde f83d f6a3 dbbc 3139 9e3d
000000e0: 3afb b7bc ef0b b53d 8dbc 323c d7e6 a13d
000000f0: 473e 303d c989 e2bd a62a 4bbd d337 353e
00000100: 91af 81bc 568a 91bd 8377 06be 603a 56be
00000110: 1ad5 b53c 5600 de3d 8f51 233e 4cff 15be
00000120: 15ba b9bd 0c5e 45be 19ef 02be 7094 9cbd
00000130: cc87 6abd 23bd 17bd 77f8 cdbc 99a8 c8bd
00000140: ee49 80be 7b61 38be 2ed2 f8bc 711b 75bd
00000150: fe99 5ebe 35ec ea3d be8f 88ba 977b f8bc
00000160: bcac 803c ae42 38be a535 14be 0932 7abe
00000170: 4f73 c2be d05f 25be c640 b5bc 9a21 3abd
00000180: 5a7b 00be 63ca 0ebe 43be dfbd 6374 fbbd
00000190: a8c1 e83c 077f e1bc 8747 30bc f66c c3bd
000001a0: 617a 56be c85d 4bbb 226d f8bd 7da5 aa3d
000001b0: 1766 c33d 8ef7 c4bd cbcb 333c 0026 9bbd
000001c0: 124b 87be a8e5 d2bc a032 52bd 5e45 45bd
000001d0: 952c 8abd 5ce2 43be 4b1a 34be 7983 7ebd
000001e0: a8e7 3dbe 9367 09be 91e5 0dbe 974a 803c
000001f0: 1bdd 6fbd 885f e7bd d21a 0dbe 5384 19be
00000200: fa4e 643d 2f9c 93be 20aa 303e 88a1 243d
00000210: 2d11 99bd 2519 c9bd bc41 76bc 01c0 65be
00000220: 5218 8c3c 9454 00be 5b57 423e 90f6 28be
00000230: f9f5 d93d 2274 2d3e 438a a9bd 12a3 233d
00000240: 8c92 20be 0966 9b3c 0123 f5bd ca6c 1f3d
00000250: e07b 013e 22b6 04bb a5ef 133e 006a 93bc
00000260: 3ec6 e2bc 7c7b 92bb 6494 48be bc78 743d
00000270: 11ba 073e 501b 083c 57c9 47be d9a9 9a3b
00000280: 0629 ab3d 8e96 a93d 0bbd dabd 4a4d 8a3e
00000290: 4566 a1bb 6d63 503e e3a6 9d3d fcc1 953e
000002a0: 1043 fbbd 2043 adbd 4cfe f3bd 9e97 063d
000002b0: dfd1 5cbc def5 e5bd 6122 02be 0b04 0d3e
000002c0: c42e 37be 86d3 f63c d108 f7bd aed9 72be
000002d0: 8530 133e bd61 e2bd 067e a4bd 1b72 123e
000002e0: 233c 1abd 8537 2dbd 1d74 31be 3ce8 fb3a
000002f0: 61df 39bd 1176 8dbd 1735 86bc 961a 183e

bias_hh_l1 f4 [192]
0.032590915 0.18298422 -0.016373808 0.031063708 -0.00012041779 -0.0594388 -0.05025316 0.086181715
0.11167123 0.21813846 -0.083519995 0.048157707 0.09843532 0.11655888 0.0953075 0.05734612
0.018535705 0.1361241 0.0733777 -0.12657215 0.041418638 0.07278552 0.0070730853 0.10522247
0.045107443 0.08341368 0.18695895 0.08559223 0.08700585 0.12557358 -0.08826373 0.07817328
-0.040106617 0.0074838316 0.10792872 0.1833529 0.084554605 0.1488602 0.019357422 0.066793874
0.24834833 0.08411555 0.14611518 0.10151608 -0.07494619 -0.14359109 -0.06199933 -0.11087171
0.17500134 -0.05452932 0.02656896 0.009140087 -0.060706135 0.02220544 0.097044125 -0.043801412
0.092290536 0.103067435 0.12653843 -0.08706527 0.08034509 0.12669653 -0.074788086 0.034569237
-0.11111675 -0.12545298 -0.12624846 -0.038539242 -0.030511862 -0.03916151 0.008908617 -0.18363085
0.053304445 -0.1557731 -0.1878966 -0.2336787 -0.009071562 -0.2450122 0.0723713 -0.076594226
-0.16053995 -0.14538844 0.013712843 0.07300161 -0.102217875 -0.07027345 -0.011817962 -0.050325938
0.058339324 -0.0341869 -0.23074305 -0.021873996 -0.36682257 0.011194579 0.082753144 -0.008582373
-0.080408745 -0.12912712 -0.008185828 -0.1451961 -0.11250653 -0.19393672 -0.14546381 -0.051841054
-0.23892951 0.017161457 -0.18410257 -0.031027168 0.10298266 -0.045394327 -0.12230035 -0.23826689
-0.12294676 -0.045379635 -0.007259467 -0.1035068 0.034279615 -0.29251546 0.04168371 0.016765067
-0.08664077 0.031681344 -0.11618035 -0.101707086 -0.09167417 -0.12116541 0.0037265483 -0.12005093
0.0034274394 -0.09673717 0.19412483 -0.05605244 -0.09785399 -0.06533332 0.08903186 -0.1836368
-0.040010393 -0.32519263 0.14089467 -0.09868 -0.04486284 0.12976122 -0.115603164 0.12793152
-0.10109792 -0.010615542 0.048745982 0.033630736 0.14661449 -0.0022885145 0.04666064 -0.18191965
-0.10296558 0.01778345 -0.19948499 0.0748065 0.04631952 0.17139935 -0.023112804 0.030946841
0.016477183 0.108111806 -0.13149919 0.13277528 0.14034349 0.102315255 -0.14433092 0.14865914
-0.16502608 -0.13354404 -0.06253502 0.06560684 -0.02730399 0.055301826 -0.13827118 0.03815453
-0.17824525 -0.14310893 -0.18944788 -0.17332216 0.10431803 -0.1497407 -0.100451075 -0.064914934
0.11615279 0.029722039 -0.06449143 -0.0653762 -0.053710125 -0.062131163 -0.06409455 5.389114e-05
00000000: 0d7e 053d 3760 3b3e 5d22 86bc 5179 fe3c
00000010: cf88 fcb8 1976 73bd 42d6 4dbd 0a80 b03d
00000020: e3b3 e43d b05f 5f3e 880c abbd 0441 453d
00000030: 7598 c93d 6cb6 ee3d 9430 c33d c4e3 6a3d
00000040: 31d8 973c 1e64 0b3e 0c47 963d 219c 01be
00000050: 97a6 293d 9310 953d 57c5 e73b e17e d73d
00000060: 95c2 383d cbd4 aa3d 2b72 3f3e fb4a af3d
00000070: 2030 b23d 5c96 003e 9dc3 b4bd 5019 a03d
00000080: d646 24bd ee3a f53b bc09 dd3d ddc0 3b3e
00000090: f72a ad3d cf6e 183e 7593 9e3c 3acb 883d
000000a0: 064f 7e3e c644 ac3d 389f 153e aae7 cf3d
000000b0: 637d 99bd 8b09 13be 02f3 7dbd b510 e3bd
000000c0: 8d33 333e 235a 5fbd 26a7 d93c 4ec0 153c
000000d0: ffa6 78bd 2fe8 b53c 12bf c63d 1c69 33bd
000000e0: d202 bd3d 0515 d33d 4a93 013e 474f b2bd
000000f0: f78b a43d bcbc 013e 7f2a 99bd 7998 0d3d
00000100: 2e91 e3bd bf76 00be 4747 01be 53db 1dbd
00000110: 03f4 f9bc d267 20bd 73f5 113c ba09 3cbe
00000120: c355 5a3d fc82 1fbe f767 40be 7849 6fbe
00000130: e4a0 14bc 7ae4 7abe 6737 943d 6fdd 9cbd
00000140: 9664 24be b5e0 14be d5ab 603c de81 953d
00000150: 9b57 d1bd 87eb 8fbd 20a0 41bc 9222 4ebd
00000160: 37f5 6e3d 9007 0cbd e847 6cbe 1831 b3bc
00000170: 2bd0 bbbe 7869 373c 7b7a a93d 159d 0cbc
00000180: 57ad a4bd e639 04be da1d 06bc 49ae 14be
00000190: d369 e6bd 5997 46be 77f4 14be 4957 54bd
000001a0: f0a9 74be 2f96 8c3c 6285 3cbe b02c febc
000001b0: 93e8 d23d 67ef 39bd 9b78 fabd 3cfc 73be
000001c0: 83cb fbbd ffdf 39bd d3e0 edbb 60fb d3bd
000001d0: c868 0c3d 96c4 95be 8abc 2a3d e556 893c
000001e0: b770 b1bd 4cc4 013d f7ef edbd ce4b d0bd
000001f0: abbf bbbd 9225 f8bd 1b39 743b 43dd f5bd
00000200: e49e 603b 231e c6bd a9c8 463e 3e97 65bd
00000210: ac67 c8bd 7acd 85bd 5656 b63d 490b 3cbe
00000220: f0e1 23bd a67f a6be b146 103e bd18 cabd
00000230: 19c2 37bd 20e0 043e 5ac1 ecbd 7b00 033e
00000240: 6d0c cfbd cfec 2dbc dea9 473d 62c0 093d
00000250: 1c22 163e e7fa 15bb 3a1f 3f3d 2549 3abe
00000260: 9edf d2bd 99ae 913c cb45 4cbe 2634 993d
00000270: 89b9 3d3d 5083 2f3e 1057 bdbc 3b84 fd3c
00000280: 28fb 863c b969 dd3d b9a7 06be 3ef6 073e
00000290: 34b6 0f3e a98a d13d 7ccb 13be 1a3a 183e
000002a0: 99fc 28be c5bf 08be 5c12 80bd e15c 863d
000002b0: 9eac dfbc 2b84 623d f696 0dbe ed47 1c3d
000002c0: ec85 36be 268b 12be a0fe 41be 5d7b 31be
000002d0: b1a4 d53d a055 19be 4bb9 cdbd 1ff2 84bd
000002e0: 84e1 ed3d a27b f33c 1514 84bd f5e3 85bd
000002f0: 26ff 5bbd 3f7d 7ebd 0144 83bd 2c09 6238

weight f4 [1, 64]
-0.46827403 -0.40706128 0.47514725 -0.37688085 -0.45665437 -0.4557022 -0.292883 -0.4568294
-0.4418267 -0.38258234 0.40563273 -0.41013777 -0.4445048 0.44513625 -0.4114255 0.41777986
-0.43060577 -0.39183515 -0.49118444 -0.4134302 0.44494563 0.48996267 0.46516198 -0.5058018
-0.4816817 0.50854516 -0.40086487 0.50530666 0.44527236 0.42168418 -0.4980331 -0.52093554
0.4439785 0.4836194 -0.35745028 0.42145008 0.51561373 0.4842101 0.47663772 0.40005836
-0.27844024 -0.34468654 -0.49191058 0.3292653 0.51616305 -0.4766233 -0.4339075 0.4540597
-0.38075456 -0.52580625 -0.5303259 -0.46953923 0.52213097 -0.35496008 -0.49259195 0.4910602
0.50225574 -0.3234361 -0.40235212 -0.4554946 0.3459213 0.47719985 0.5321931 0.4055735
00000000: 9dc1 efbe 566a d0be 8046 f33e 87f6 c0be
00000010: 9ace e9be cc51 e9be c3f4 95be 8be5 e9be
00000020: 1c37 e2be d5e1 c3be 18af cf3e 94fd d1be
00000030: 2296 e3be e6e8 e33e 5da6 d2be 3ee7 d53e
00000040: 5c78 dcbe 9e9e c8be 877c fbbe 20ad d3be
00000050: eacf e33e 63dc fa3e b629 ee3e 3a7c 01bf
00000060: fc9e f6be 0430 023f 293e cdbe c75b 013f
00000070: bdfa e33e fde6 d73e 32fe febe 085c 05bf
00000080: 2651 e33e f69c f73e b903 b7be 4ec8 d73e
00000090: 43ff 033f 63ea f73e dc09 f43e 73d4 cc3e
000000a0: b88f 8ebe c17a b0be b4db fbbe 7695 a83e
000000b0: 4323 043f f807 f4be 2029 debe 837a e83e
000000c0: 43f2 c2be 3d9b 06bf 70c3 07bf 7267 f0be
000000d0: 60aa 053f 54bd b5be 0335 fcbe 3e6c fb3e
000000e0: d593 003f 6b99 a5be 1901 cebe 9736 e9be
000000f0: 991c b13e 8a53 f43e cf3d 083f 54a7 cf3e
