model2_traffic.pth (torch, 169806 bytes, 12 tensors)

weight f4 [23, 8]
00000000: e7c7 0fbf b789 b93f ad19 40bd fe06 403f
00000010: d0f6 5e3f a584 3b3f cc2f 2b3f 3168 e03f
00000020: 60db 09bf 690d 283b 0950 09bf 5a21 b43f
00000030: b041 973f 2f64 9f3d 3baf 22bf 087e dd3d
00000040: a643 0f3f 9519 dcbf 6f02 a83d 2cef 373f
00000050: 5c8c 4c3f 54cc c7bf 7d47 0c40 84da 933f
00000060: acbd ad3e 3cb0 52bf c8e5 e33e f1a6 b1be
00000070: 0894 a93f 3fe2 803f 2c94 34be ecbc 6c3f
00000080: 81ba ab3f 13f2 64bf ba32 f73e 7544 ae3d
00000090: a331 1140 8ec4 e4be f17c 0b3f 1f1e 94be
000000a0: db47 68bf 3329 5d3f f2ad 023f 51c3 71bf
000000b0: e095 92bf 81d9 43bc c8ce d53e 6728 0140
000000c0: 5415 9a3e cf6b 833f f2fc 45bf be7f 9bbd
000000d0: 3cb5 e1bf f2b6 3b3f 2275 97be c518 9abe
000000e0: 0eae dbbe 0765 2dc0 da84 46bf aa0b c53e
000000f0: f851 c93f ff60 ba3d 1fbf 033f b553 79bf
00000100: 2987 453f 5a20 0140 06b8 cbbf e85b 4e3f
00000110: 0bb2 05be 1d5d 01bf 0164 853f 7fd5 92bf
00000120: caef 59bf c0fc 9fbe 9121 0cc0 e55d 24bf
00000130: ecf6 25bd 9088 b03f 3719 3a3e da6d 77bf
00000140: a747 f13d 06df 05bf 80a5 bb3f afd8 99bd
00000150: f643 b8bf 1dbf ae3d 0c7c c33f 170f 473e
00000160: 60a2 253f da86 ca3e 3aba e13f 4dd4 1ebd
00000170: 7ec5 213f 5c46 b73f ee01 29bf 329b e53f
00000180: 801f 89be aec1 fabf 38e5 03bf a846 7b3a
00000190: b289 f13f 5eca c73f e50c b5bf 9340 41bf
000001a0: 6d22 6abd 5467 d4bf 092b 5f3f 1f53 5bbf
000001b0: b165 0a3f 9502 5e3e 4d3c dc3e dc62 f63e
000001c0: d471 ee3e fe53 b23f ab5f 1840 4833 963f
000001d0: d531 f8be 020e 893f bfe1 9bbe da60 56bf
000001e0: 36de c2bf cfb0 f0be 4fcb 283d b0d5 d2bf
000001f0: 9cd0 00c0 68ea ca3e 1620 213f 0a08 d23e
00000200: cb8d aabf 7f0f acbf 6b41 2ebf 5dfe 853f
00000210: fe86 dfbe 4860 b03f 207e 6e3f 4df1 b33e
00000220: 09ce e0be c63e 033f 2db5 14bf 25a4 68bd
00000230: e58a 563f f400 09c0 b46a 323e 6894 0d3e
00000240: fc58 b2bf 4399 3240 9564 21be 6752 883f
00000250: b449 82bf c0b1 b73f 51a6 913c 569c b73f
00000260: d754 07c0 32df 74bf ba15 b8be a656 b73e
00000270: 793d e5be 10c3 43be ba90 98be e1a0 d3bc
00000280: 593a 61bf edea a53d 1d80 583f 132d c23f
00000290: 44b8 b63f 4731 59bf 9d9b a5bf 475c ce3e
000002a0: fa90 0340 775b 323e e19a c0be 14e9 393f
000002b0: dc1d 7dbf ccac 96bf 1e0b 44bf e346 0ebf
000002c0: b811 5fbd 4062 02be fc4b 9abe 89b3 fabe
000002d0: 63e5 dabe 4c59 75bc c15f 81bf 2416 c93d
-0.561644 1.4495152 -0.046899486 0.7501067 0.87095356 0.73249274 0.6686981 1.7531797
-0.53850365 0.0025642759 -0.5363775 1.4072678 1.1816921 0.077827804 -0.6354863 0.10815054
0.559626 -1.7195307 0.08203589 0.7184932 0.7990167 -1.5609231 2.1918633 1.1551061
0.3393377 -0.8230016 0.44511247 -0.3469768 1.32483 1.0069045 -0.17634648 0.9247577
1.3416291 -0.89431876 0.4828089 0.08509151 2.2686546 -0.4468121 0.5448752 -0.2892923
-0.9073464 0.8639099 0.5104667 -0.94438654 -1.1451988 -0.011953712 0.41759324 2.018091
0.30094397 1.0267276 -0.7733909 -0.07592724 -1.7633433 0.7332603 -0.29581553 -0.30097023
-0.4290623 -2.7092912 -0.77546465 0.3848546 1.572814 0.09100532 0.514635 -0.9739335
0.77159363 2.0175996 -1.5915534 0.8060899 -0.13056199 -0.50532705 1.0421144 -1.1471404
-0.85131514 -0.3124752 -2.1895487 -0.6420577 -0.040518686 1.3791676 0.18173681 -0.96651995
0.11781245 -0.5229343 1.4659882 -0.07512032 -1.439574 0.08532546 1.5272231 0.1943935
0.6470089 0.3955601 1.7634957 -0.038776685 0.63191974 1.4318347 -0.6601857 1.7937987
-0.26781845 -1.9590356 -0.51521635 0.0009585419 1.8870146 1.5608633 -1.414456 -0.7548916
-0.057161737 -1.6594033 0.8717504 -0.8567371 0.5406142 0.21680672 0.43014756 0.481223
0.4657122 1.3931882 2.380839 1.17344 -0.4847552 1.07074 -0.30445668 -0.83741534
-1.5224063 -0.47009894 0.041209515 -1.6471462 -2.0127325 0.39631963 0.62939584 0.41021758
-1.3324522 -1.3442229 -0.6806857 1.046825 -0.43657678 1.3779383 0.931612 0.35145035
-0.43907192 0.5126766 -0.5808895 -0.056797165 0.83805686 -2.1406832 0.17423517 0.13826144
-1.3933406 2.7906044 -0.15761025 1.0650147 -1.0178742 1.435112 0.017779501 1.4344585
-2.1145532 -0.9565307 -0.35954076 0.35808295 -0.44773462 -0.19117379 -0.29797918 -0.025833549
-0.87979656 0.08101449 0.84570485 1.5170006 1.4274983 -0.84840816 -1.2938114 0.40304777
2.0557237 0.17417704 -0.37618163 0.72621274 -0.98873687 -1.1771483 -0.76579463 -0.55576915
-0.054460257 -0.12732792 -0.30136096 -0.489651 -0.42753133 -0.014974903 -1.0107347 0.09818676

weight_ih_l0 f4 [192, 9]
00000000: 2b02 6b3d b804 043d a687 74be 9d03 6c3e
00000010: 21ed e33d 6857 7d3e eaab cd3d 22a0 113e
00000020: 9c08 033d e489 7abd 3f54 113d 3ded 0abe
00000030: 9a3d c3bd 7943 623e 5bea 723e daaf 4a3e
00000040: 7b9b 15be 573f aebd 97d7 2b3e 59ec cbbd
00000050: 1c82 11be 504c 66bd 73b5 41be 9ab0 de3d
00000060: f768 6f3e 0d23 24be eda9 f93c 1234 8439
00000070: b8a1 003e 504d 1fbe 50d9 213c 8981 253e
00000080: df45 223e 9e48 a0bd de75 443c e081 353e
00000090: c275 863c c54d 913e b8eb 73be e7a1 a23d
000000a0: 388f 22be bb3d 013e 7750 07be 5679 10be
000000b0: a7d4 6a3e 4ebc c83d cb5b 273e 134e f63c
000000c0: 8bd6 8dbe 53de 733e 9bee a83d b98f 04bc
000000d0: a00b a73d 2ade 1abe f2c1 4b3e 32bf 093d
000000e0: 8fdb 4dbe b8e9 9a3d bc21 6f3d 689c ce3d
000000f0: a0ca c1bc 210b 333e 8ca0 073d d1fd 4a3e
00000100: ab95 d83d b70c a63c 6028 95be 0eeb 1f3e
00000110: da22 353e 12ca 543e ec01 863c 62a2 44be
00000120: 27fb b7bd e8f8 83bd da10 763b 1bcc 08be
00000130: 6807 453e 42a6 52bd 005b 0dbe ee2f 41bd
00000140: f103 a4bd 02ab f4bd 301d aabd 6bfc 01be
00000150: 10d6 b9bd da6f 493e 0916 b6bb 1348 00be
00000160: 669b 11be 347b 4ebd c88c 853d 098c 333b
00000170: 799d bebd c1ea 9fbd f525 c6bb 8bad 1d3e
00000180: 883f 9abd 8303 7d3d 0f80 3abe 0eaa ac3d
00000190: b04d fa3d 53c9 ebbd 5884 ce3d 5454 4f3e
000001a0: 9986 e6bd 118c 3cbe 2e4f be3d c49f 02be
000001b0: cefe c93c 33aa cb3d b71c d0bd 9b7b 323e
000001c0: d548 933d 1edd 823e 8aa6 6d3e 8939 5dbe
000001d0: 87db 143d 4a76 2fbd c0b4 d83d 5fd3 0fbe
000001e0: ec66 11be b456 1e3e ddee 823e 442b d4bd
000001f0: 3063 aabd 1075 15be 9c9a 39bd 36c7 4abe
00000200: 1fb7 07bd cc55 25be 46dd 983e 4fa3 dbbd
00000210: c8e2 2dbe 17d0 a23e f734 6abe f2f9 823d
00000220: d711 34bc a5ea 39bd b1b7 4dbe f8e9 c73e
00000230: 8a70 5f3e 9e5c f9bd bbe7 94bd fe4f 8bbc
00000240: 95c1 c93b 18e2 e13d 6b6f fe3d a939 9e3d
00000250: b429 263e 655a 48bc a780 1f3e 21f3 c3bd
00000260: ecf6 ea3d 03d8 e93d 013e c03b 7371 b9be
00000270: 71fe e63d fefb b0be 4937 b83d 672b 133e
00000280: bd5a adbd db14 313e 9789 9f3e 1e37 2abe
00000290: 5fb3 403d 4b3f 5bbd 5b8c 49be 3183 953e
000002a0: 7a6f 4c3e 4f21 803d e826 66bd d436 2abe
000002b0: 0bbb e53d 5f30 003e 476c a5bd ef92 343d
000002c0: a258 223e 028f 523d 69c0 913d 7287 16be
000002d0: f3d0 c43c e9cb ea3d 9e9f 4dbe b939 23be
000002e0: 9336 993e 8f10 b43e 6399 52be 6e2b 66bd
000002f0: 70bd b5be 30f6 81be 4848 d63d 54c1 c1bd
00000300: 17e2 0e3e 4992 cbbc f6e2 003e 82ad 2c3e
00000310: 1f38 21be 1d23 473c 2664 553d 21bf 01be
00000320: 97b0 d1bd 8cea 583d 37e7 38be 0f57 9c3e
00000330: 58d8 d3bd 8c17 923e b253 503d de4e 1a3e
00000340: c85e 6d3e c91d 4ebe 1631 c83e 77d8 d7bd
00000350: 57a9 8c3e ef83 433d 2e69 adbe 6f1e 8ebd
00000360: 35e8 2c3e 1002 a4be 36ce 6dbe d76d 3fbd
00000370: c3dd 5ebc af14 08be b523 8d3d 194a 86bd
00000380: cf2f 693e 4037 41be 4e21 e83e 7a90 af3c
00000390: 1fda d13b c297 2fbe b4b5 1c3d 0f01 92ba
000003a0: 778f 0dbe a331 f9bd 8d5c 04be f3c3 943e
000003b0: 576d b53d a775 dfbd 0cff 32be 31fe e23b
000003c0: 7ba9 10be a39c c1bd 708f 9d3e 1fd1 2c3e
000003d0: d1a2 74bd 4d2d 7b3d 132d 0bbd 2f79 c73d
000003e0: 49ab 513e 38c1 63bd 300a 2abe 808e 9dbe
000003f0: 90bb f53d 4545 25bd 2c19 05bd 4d51 5d3d
0.057375114 0.032231063 -0.23879871 0.23048253 0.11129213 0.24740374 0.10042556 0.14221242
0.031990632 -0.06116666 0.035480734 -0.13567062 -0.09533234 0.22096051 0.23722212 0.19793645
-0.14610092 -0.08508175 0.1678146 -0.09957189 -0.14209789 -0.05622512 -0.18916874 0.10873528
0.23379885 -0.16028996 0.030476535 0.00025215797 0.12561691 -0.15556836 0.0098784715 0.16162695
0.15846966 -0.07826351 0.011990992 0.17725325 0.016413573 0.28379646 -0.23820388 0.07941037
-0.15874946 0.12621205 -0.13214289 -0.14108786 0.22932683 0.09801541 0.1634361 0.030066526
-0.27702746 0.23815279 0.082486354 -0.008090907 0.08156514 -0.15123811 0.19898203 0.033629604
-0.20103286 0.075641096 0.05838178 0.10088426 -0.02365619 0.17484714 0.033112094 0.19823386
0.10575422 0.020269735 -0.29132366 0.1561701 0.17689076 0.20780209 0.016358338 -0.19202569
-0.089834504 -0.064439595 0.0037546665 -0.1335911 0.19241107 -0.051428087 -0.13804245 -0.04716485
-0.08008564 -0.1194668 -0.08306348 -0.12693946 -0.09074032 0.19671574 -0.005556826 -0.12527494
-0.14219436 -0.050410464 0.065209925 0.00273967 -0.09307379 -0.07808448 -0.0060470053 0.15398233
-0.07531649 0.061770927 -0.18212913 0.08430873 0.12221849 -0.11513009 0.10083836 0.20247012
-0.11256141 -0.18412806 0.09292446 -0.12756258 0.024657633 0.09944572 -0.10161727 0.17429964
0.07191626 0.25559324 0.23208061 -0.21603979 0.03634217 -0.04283742 0.1058135 -0.14045475
-0.14199418 0.15462762 0.25572863 -0.10359815 -0.083197 -0.14595437 -0.045313463 -0.19802555
-0.033133622 -0.1614601 0.29856318 -0.10724508 -0.16981041 0.31799385 -0.22871767 0.063953295
-0.0109905815 -0.04538979 -0.20089604 0.39045691 0.21820274 -0.121758685 -0.072707616 -0.017005917
0.00615711 0.11029452 0.12423595 0.077258416 0.16226846 -0.012228583 0.1557642 -0.095678575
0.11472878 0.11418154 0.0058667664 -0.36219367 0.112789996 -0.34567255 0.0899492 0.14372025
-0.084645726 0.17293112 0.3115966 -0.16622588 0.04704606 -0.053527158 -0.19682448 0.29201654
0.199644 0.06256353 -0.056189448 -0.16622478 0.11217316 0.12518452 -0.08077293 0.04408544
0.15854123 0.051405914 0.071167774 -0.14700106 0.024025416 0.11464674 -0.2008042 -0.15939988
0.2992445 0.35168883 -0.20566325 -0.05619376 -0.35496092 -0.2538314 0.10463005 -0.094607025
0.13953434 -0.024850028 0.12586579 0.16863063 -0.15744065 0.012154368 0.052097462 -0.12670566
-0.1023876 0.052958056 -0.18056951 0.3053517 -0.10343999 0.2853359 0.050861068 0.15069148
0.23180687 -0.2012855 0.3909995 -0.10539334 0.27472946 0.047733244 -0.33869308 -0.069393985
0.16885455 -0.32032824 -0.23223194 -0.04673561 -0.013602677 -0.1328914 0.06891576 -0.06557102
0.22772144 -0.18868732 0.4533791 0.021431196 0.006404176 -0.17147735 0.038259223 -0.0011139232
-0.13824259 -0.121676706 -0.1292593 0.29055747 0.088587455 -0.10911112 -0.17480105 0.0069272746
-0.14127152 -0.09453704 0.30773497 0.16876648 -0.059725586 0.0613225 -0.033978533 0.09739911
0.20475496 -0.05560419 -0.16605449 -0.3077278 0.11998665 -0.040349264 -0.03249471 0.054032613

weight_hh_l0 f4 [192, 64]
00000000: 0dc9 f0bc 2247 09bd 061d b1bd 0492 e63c
00000010: 0c3f ed3d a413 de3d f412 db3d 3372 783d
00000020: 4602 633c 197b 31be f713 4a3d 7c12 47be
00000030: bf27 b73d c359 68bc 7555 8bba 7173 9b3d
00000040: 4c25 abbd 3285 2d3d 2074 4b3d c5db 87bc
00000050: adc9 133e e544 803d 0d63 c8bd fa86 a9bd
00000060: d767 8a3d 7cf6 4f3b 5745 df3d 1bf4 2cbb
00000070: d0d7 bdbd c072 fd3d f521 0c3d af3c a03d
00000080: ed00 f73d 3c5b 1ebd 9323 283d 7fc0 1b3e
00000090: da25 8f3c 2954 58bd 45a1 b0bc cc72 183d
000000a0: 61e2 b9bc fbc0 39bd 0043 783d ac94 dcbd
000000b0: 3b0b 0ebd 807e b63c d19e 843d 886e be3d
000000c0: cd2a ea3c d7d3 a53c c549 41bc 6c6c 1ebd
000000d0: 5d21 253d ffd5 463d c045 49bd 2921 53bd
000000e0: b856 bfbd 97ab 34be e277 b2bc 1194 123e
000000f0: 0caf 843d a9bc bd3d 08a6 183e f4e4 6fbc
00000100: fe95 fc3d e2e2 093e 0107 233e d3ac 5abd
00000110: 2dfa 543e 882e f53d dd25 d9bd f763 32bd
00000120: 5174 4d3c 1b0d 1bbe bb41 953d 4747 0dbe
00000130: bcbd f5bd bec7 a93c 9a27 503d 99c9 abbd
00000140: 2a54 24bd efcf 96bc 1db5 a1bd 3a5e cabc
00000150: 115a 79bd d7db ae3d 12b0 163d 1382 dd3d
00000160: cc98 413c bb84 ffbc 4d26 e73d 65d3 0fbe
00000170: f270 abbd 3ff2 64bd 3641 7dba 4edd 443d
00000180: 6e8c bf3c 2ddc 7fbd 31a9 633d 505e 4c3c
00000190: c141 acbb 69ea bbbd aa45 173d 1300 05be
000001a0: 6d5a 9ebd 2e1c 95bd 53b3 b33b fee2 3dbe
000001b0: bd23 133d 4ec2 87bd c632 30be 743e d73d
000001c0: 3697 403b ccec 323d 0f97 d2bc 1fcc 4b3a
000001d0: 554c 2b3e a6e7 fabc eb2f 17be 6724 313d
000001e0: f4ce 08bd 0c34 98bd 38c2 20bb 8764 073e
000001f0: 6cca c9bd 431c a0bd 1fd9 1abe a56b d7bd
00000200: 6296 a73c 34e7 9ebc 067c eebd 10c8 20be
00000210: c2d3 a7bd f154 01be 6d1d acbb b106 413e
00000220: 9469 cc3d 36ef 80bd ca06 873d 9aec d73d
00000230: 4018 893d cf59 99bd b186 0dbe ccda 95bd
00000240: bca3 103e 6e75 3abc 0b63 153c 5cb4 8dbd
00000250: 9c38 2a3e 0bf6 8c3d 4b76 1b3e c455 c03d
00000260: db45 95bd 322c b7bd a13b 17bd a4cc 403e
00000270: e1a0 b33d e153 cb3c 45bc 873d 94f5 e93c
00000280: 7fce d83b 02e2 2ebe 07c3 63be b466 7e3c
00000290: fb13 86bd daf2 b23d 5fe6 1abd 9c77 8f3d
000002a0: 0167 de3d 5f6d 293e 41aa 19be 5e77 573e
000002b0: 7c65 03be 7117 36be e511 1cbd 9185 a63d
000002c0: 17c7 853d d1e6 843d 306e d93b 6ae1 003e
000002d0: 85b4 2abe 2610 93bd 29a0 683d 1a01 4a3e
000002e0: 762c 043d d45d 9e3d 0b7c 443e 71d6 d4bd
000002f0: 8df5 45bd f123 963d efe8 c2bd d17b acbd
00000300: 287e 3c3e e92f 8f3d 72d2 cdbd f03e 8bbc
00000310: a723 533e 3262 09bd d8b7 acbd 7982 9d3d
00000320: 2c26 133e 1695 103e 2a88 b43c a644 a93d
00000330: 241b f43d 735a 833d 38b7 273d 4c89 c6bc
00000340: 8fd7 db3c 773e b6bd 2800 0e3e 725e 893d
00000350: fb89 723d 89f1 bcbd 596b 19bb 8295 133e
00000360: fa04 15bc 63c0 4fbd b76d ee3d e8a7 d23d
00000370: 9788 433e 7bbd 5ebd 2b85 6dbd 7a04 433d
00000380: 8951 c93d b6d3 70bd b357 48be ccba 42bc
00000390: 94f9 05be 39db 24bd 2e4c 4e3d b06a a83d
000003a0: 3944 883d 6d15 6cbd a641 4b3d de3b 173e
000003b0: 46a6 0cbd 97f6 9dbd 14dd f7bd 3acf 25be
000003c0: 3405 343b 44c8 c8bd c6c4 013e f804 3f3e
000003d0: 2bb8 d5bb 5fa7 8fbc 2e53 02bd 37cf 863d
000003e0: 2b9b f83d 7a03 36bd f86d a63c a3b1 923d
000003f0: acd0 8f3d 9fdd 203e 4f5c 6ebd c7a9 d33d
-0.029392743 -0.033515103 -0.08648114 0.028145798 0.11584291 0.1084359 0.106969744 0.060655784
0.0138555225 -0.17332114 0.049335446 -0.19440645 0.08943128 -0.014181557 -0.0010630327 0.07590378
-0.08356723 0.042363353 0.049671292 -0.016584286 0.14432402 0.062631406 -0.097845174 -0.08277698
0.06758087 0.003173261 0.109018974 -0.0026390615 -0.092696786 0.123754025 0.03421207 0.078240745
0.120607235 -0.038661227 0.04104955 0.1521015 0.017474104 -0.052814636 -0.021561274 0.037218854
-0.022690954 -0.045350056 0.06061077 -0.107705444 -0.03467868 0.022277117 0.06475604 0.09298426
0.028584862 0.020242615 -0.011797373 -0.038677618 0.04031502 0.048543926 -0.049138784 -0.051545296
-0.09342712 -0.17643581 -0.02178568 0.14314295 0.064787 0.092645 0.14907086 -0.014641989
0.12333296 0.13465455 0.1592064 -0.053387474 0.2079856 0.11971766 -0.10602925 -0.043552365
0.012539939 -0.15141718 0.07287928 -0.13796721 -0.119990796 0.020725127 0.050819017 -0.08388061
-0.040119328 -0.018409697 -0.07895873 -0.024703134 -0.06087691 0.08538025 0.036789007 0.10815825
0.011816215 -0.03119122 0.11286602 -0.14045484 -0.08371152 -0.055895086 -0.0009660901 0.048062615
0.023382392 -0.062465835 0.055581275 0.012473658 -0.005256862 -0.091755696 0.03693167 -0.1298831
-0.07732091 -0.072807655 0.0054840236 -0.18543622 0.035922755 -0.066288576 -0.17206869 0.10509959
0.0029387004 0.04368286 -0.025706796 0.0007774252 0.16728337 -0.030628037 -0.14764373 0.043247607
-0.03340049 -0.07431802 -0.0024529826 0.13221942 -0.09853062 -0.078178905 -0.15121888 -0.105185784
0.02045745 -0.019397356 -0.11644749 -0.15701318 -0.081946865 -0.12630059 -0.0052525313 0.18850209
0.09981075 -0.06295626 0.06593092 0.10543175 0.066940784 -0.07487833 -0.13820912 -0.07317123
0.1412496 -0.0113805365 0.009117852 -0.069191664 0.16623157 0.068828665 0.15181844 0.093913585
-0.072887145 -0.089439765 -0.0369221 0.18828064 0.087709196 0.02482027 0.066277064 0.028559484
0.006616413 -0.17078403 -0.22242366 0.015527416 -0.0654678 0.087377265 -0.037817355 0.070052356
0.1085949 0.16545628 -0.15006353 0.21041629 -0.12831682 -0.1778238 -0.038103003 0.081309445
0.06532114 0.06489337 0.00663545 0.12585989 -0.16670425 -0.071808144 0.056793366 0.19726983
0.032268964 0.0773274 0.19187944 -0.10392464 -0.04832988 0.07331074 -0.09517085 -0.084220536
0.184075 0.0699156 -0.10049905 -0.016997784 0.20619069 -0.033540912 -0.08433503 0.07690901
0.1437003 0.14119372 0.022037584 0.08265047 0.11919239 0.06413736 0.040946215 -0.02423539
0.026836185 -0.08898633 0.13867247 0.06707467 0.05921362 -0.09225757 -0.0023409931 0.14412501
-0.009095425 -0.050720584 0.1164202 0.10285932 0.19095074 -0.05437992 -0.057988327 0.04761169
0.09830005 -0.058795653 -0.19564705 -0.011885356 -0.13083488 -0.04024813 0.05036562 0.08223474
0.066536374 -0.05763762 0.049623154 0.14768931 -0.03433826 -0.07713049 -0.12102714 -0.16192332
0.0027468922 -0.09803823 0.1267272 0.18654239 -0.0065221987 -0.017535863 -0.031817608 0.06582492
0.12138971 -0.04443691 0.020316109 0.07162788 0.07022223 0.15709542 -0.0581935 0.10335117

bias_ih_l0 f4 [192]
00000000: b3c3 543c f445 42bd a0f6 dc3d fded 43bd
00000010: 2e14 953d 4925 b03d c21e 853e 461d 1b3d
00000020: f593 c03c ce95 acbd a1b3 9e3d 6bb8 373d
00000030: 65e6 eb3c 11fe 123d 25ae 87bc 9bf6 f53c
00000040: a90a 07be 1511 2b3e 44fd 713c 4eca 423c
00000050: 754a 103d cb46 a7bd c8e0 003e 71b8 813d
00000060: 49c5 a73c b333 7ebd 1546 d23c a1db a9bd
00000070: a3e8 29bd 3e68 97bd 8e9e 413e bb17 b2bd
00000080: 75e8 c23d 7fd8 183e 8586 2f3d b465 853d
00000090: 9103 2e3d bbc2 4e3e ea91 1fbd 95e1 bd3d
000000a0: 9198 fa3c f8b1 143e 16dd 683d f7f7 133e
000000b0: 92ee 833d c021 1b3d c165 2f3d e8cc c73d
000000c0: e3bb 543d 9349 dbbc a011 413d 5913 b53d
000000d0: 4936 953d 60c3 813b ed61 8a3c ae35 ec3c
000000e0: 0417 7f3d ea16 743d 6e37 983d a90e bdbd
000000f0: 33e4 363d 836c d23d 1b12 b83c 2d3f bebd
00000100: c028 32be ba17 54bd 7207 57be 45c4 4dbc
00000110: 6da1 b5be 68a2 7fbe e971 3abe 1b13 a3be
00000120: 386c 17be 2623 49be ffd9 113c 7054 b33d
00000130: 54e8 d1bd 6fe0 e8bd 2f5b 81be e7bc 16be
00000140: a5ca 55be cf23 d7be fff1 1bbe 33a9 a2be
00000150: e91d 07be 4676 4ebd 84c6 52be 74f0 70be
00000160: 6684 26be d13e 64be d64e aabe cd76 50be
00000170: 8d7b e7be 17bd 99be 4782 8cbe 58f0 093e
00000180: 2b1a a3be 1dbe 83be 4c6e 11be ff18 6ebe
00000190: e6fd 9cbe 845d 73be 7e25 b4bd 8a10 69bd
000001a0: 4f54 1f3c 81ef 2abe 3037 03be 89d0 75be
000001b0: edce 16be bf95 51be c5ca babd 347b a2bd
000001c0: 09ef a0be 31a3 5fbe d482 23be 9fa4 4fbe
000001d0: e117 97bd 22ce 9ebe 8010 e4bd 4375 d4bc
000001e0: 544f 88bd 8fcc afbe a80d f7bd c332 b2be
000001f0: a639 b6be 6f7f 4abd 61e5 6bbe 8b5b 25be
00000200: 537a 36bd 631e 1abc a0ad 2abe 60b0 14be
00000210: 2c13 263e b186 193e c115 273e 59f0 5c3d
00000220: 2acc 203d 91a6 5a3d 0ae2 e6bb 9a13 913d
00000230: 1ce1 283d 7966 9bbd 1891 963d 0ba1 153e
00000240: 2222 f13d 8b2c 16be a330 343e cabe 6cbe
00000250: c6e1 433c 753d 203e 253c 663e c317 483e
00000260: 66bb 8a3c db37 96bc a79a c0bc da5f 34bd
00000270: 4c90 b53d fcc2 c3bc ec78 f0bc 293a d13d
00000280: 9de6 753d abbc 53be 5e1c 5fbc 17f2 833e
00000290: c7aa 3c3e e28e 133e 617d fbbc 76d5 4d3d
000002a0: 8acc d9bc 1819 fcbd 2509 223e 067a 723d
000002b0: 44c9 2ebe 78db 1d3e 9a81 8b3c 00d2 ea3d
000002c0: 4653 243e a571 08be 3bec 35be 95db 9d3d
000002d0: d830 3c3e 9177 563e f358 0f3d 0ccb 0c3c
000002e0: 2111 343e 3d13 3a3e ec4c 383d 2ab5 b8bd
000002f0: 5231 a9bd 804c 96bd e157 f63d 4161 56bd
0.012986111 -0.047429994 0.107892275 -0.047834385 0.072792396 0.086008616 0.2600003 0.037869714
0.023508051 -0.084270105 0.07749105 0.04485361 0.028796384 0.035886828 -0.01656253 0.030024817
-0.1318766 0.16705735 0.014769856 0.0118890535 0.035227258 -0.081677996 0.12585747 0.063340075
0.020479815 -0.062061023 0.025668183 -0.08293844 -0.041481625 -0.073929295 0.1890814 -0.086959325
0.09516994 0.14926337 0.042852897 0.06513539 0.04248387 0.20191471 -0.038957514 0.09271542
0.030590327 0.14521015 0.05685147 0.1445006 0.06441988 0.037873983 0.04282165 0.0975588
0.051936995 -0.026768481 0.04713595 0.08841581 0.07285745 0.003960058 0.016892398 0.02883419
0.06227781 0.059592165 0.074324474 -0.09231312 0.04465122 0.10274603 0.02246957 -0.092893936
-0.17398357 -0.05178044 -0.20998934 -0.012559001 -0.3547472 -0.24964297 -0.18207516 -0.31850514
-0.14787376 -0.19642314 0.008902072 0.087563396 -0.10249391 -0.11370932 -0.2526488 -0.14720498
-0.20878084 -0.42019507 -0.15229033 -0.31769714 -0.13195004 -0.050405763 -0.2058354 -0.23529226
-0.16261443 -0.22289588 -0.33263272 -0.20357819 -0.4521145 -0.30027077 -0.27443144 0.1347059
-0.31855902 -0.25730982 -0.14202231 -0.23251723 -0.3066246 -0.23766142 -0.087962136 -0.05690054
0.009724691 -0.16692926 -0.12814021 -0.24005331 -0.14727373 -0.2046728 -0.091207065 -0.079336554
-0.3143237 -0.21839596 -0.15967876 -0.20277642 -0.073776014 -0.31016642 -0.111359596 -0.025934821
-0.06655756 -0.34335753 -0.120631516 -0.34804353 -0.35590857 -0.049437936 -0.2303672 -0.16148202
-0.04455025 -0.009406659 -0.16667795 -0.14520407 0.16218251 0.14992787 0.16316892 0.05394015
0.039257206 0.053381506 -0.007045989 0.07083817 0.041230306 -0.075879045 0.07351893 0.14612214
0.117740884 -0.1466543 0.17596678 -0.23119655 0.011955684 0.15648444 0.22483881 0.19540314
0.016935062 -0.01833718 -0.023511244 -0.044036724 0.08865413 -0.023896687 -0.029354535 0.10216171
0.060034383 -0.2067744 -0.013617603 0.25770637 0.18424521 0.14409974 -0.030699434 0.0502524
-0.02658679 -0.12309474 0.15823801 0.059198402 -0.17068964 0.15415752 0.017029572 0.114658356
0.16047391 -0.13324602 -0.17765896 0.077078976 0.18378007 0.20944048 0.034996938 0.008593332
0.17584659 0.18171401 0.044995233 -0.09018929 -0.0826136 -0.0733881 0.1202848 -0.052338842

bias_hh_l0 f4 [192]
00000000: 1841 2f3e 6319 723d 6bfe 85bc 23cd 1a3d
00000010: 90ed 84bd 2f08 5f3c 89b7 d23d f677 34bd
00000020: 0dc4 80bd 63a5 903d 1884 223e 1c8b a2bb
00000030: 705f 133d c358 133e b4a6 55ba f64d 97bd
00000040: 6b18 d4bd 7008 e63d f350 113e 3581 29bd
00000050: 6dde 153d 9ea4 7a3d fd28 fabc a0ca 21bc
00000060: 3ff8 413c e41a e03d 1953 abbb a94a 75bd
00000070: 49b1 313e 1af9 553b 3ff2 cb3d 725f cbbc
00000080: 9707 b43d 40e8 f4bc 8a51 013e 7645 5a3e
00000090: f45a 54bd 7929 6bbb 807e a63d 7a40 963d
000000a0: 78a0 fe3d 5dee 4cbd 744a a03d 3a2a 8dbb
000000b0: 481d 1b3d a105 c6bd 0280 d4bd 18d3 bbbd
000000c0: 33db dd3d 19f9 283e 3da5 c0bc 1a50 ee3d
000000d0: 5b35 1dbc 9cf9 003e b142 c13d fb51 833d
000000e0: 56e0 c33c 239e 803d 86c3 993d 432b 94bd
000000f0: b3f8 ed3d 2bf5 1e3e 6b3f e93d 9a25 5b3d
00000100: 51ab f8bd 53cb 04bd 4604 54be 6419 77be
00000110: 7c86 99be 4b10 a3be 9439 51be 5eb7 38be
00000120: b332 51be fd3e aabd d019 c63d b0c5 ddbc
00000130: 1289 e7bd dcd8 67bd dea2 73be 63d4 d6bd
00000140: 2a14 79be 6234 c2be c96e 7fbe b46d adbe
00000150: f9df a7bd c8c1 39be 5f4a 1ebe a8b9 cfbe
00000160: fdb7 e8bd 5352 bfbe be0f 26be 0b77 a5bd
00000170: e015 b5be 5c78 a4be 54b9 1abe d79e e53d
00000180: 3299 a1be 7424 7ebe e4e5 38be 3aef adbe
00000190: 7fd3 82be 59de 5fbd a186 10be d7e6 8abd
000001a0: 5fd9 23be 0a52 01be 1de0 89be 8e75 bdbe
000001b0: 0adf 17be 4c7c 2abe 9609 81be 0315 11be
000001c0: dba0 f9bd abaf 63be b715 76bd d22b 97be
000001d0: 17c8 87be c7be 93be f157 e8bd 4322 d2bd
000001e0: 89e5 98be 523d a8be 7e2e 0fbe bdfe ecbe
000001f0: b83b b1be 8873 e13d e1d1 91be 00a7 0bbd
00000200: f286 163e 5ce2 cd3c bea1 3ebe 54a1 0fbe
00000210: 8619 8d3e 3b6d be3d c43e 143e 99f8 083e
00000220: c5c0 853d 7f8a 76bd acb1 57bd 009a 413d
00000230: 4422 d63c b2bc 60be 0b41 b9bd ab26 26bc
00000240: e7de 1a3c 01ff 46be 5288 963e 4bfa 73bd
00000250: b877 ea3d 8eab 273e c9ee 843e c865 273e
00000260: ed59 343e d318 19be 8405 0bbc 43df 9d3d
00000270: 7bba 293e d264 1f3e 767b 15be 3f4d 333d
00000280: 6f35 993d f0b9 57be 6244 7f3d ab9f 563e
00000290: 0b1e ec3d 7bda 803e 7bdb 63bd 7dcc 253e
000002a0: 1276 b53d 460b cebd 6efe cb3d 04be 343e
000002b0: 70fb 09be 98b9 c9bd 4cc5 88bd 65c9 7b3d
000002c0: e87e fc3d faa6 b6bc 8ecb 84be 4f8a fa3d
000002d0: 5a60 093e 5e86 693e 3da7 a1bd 5229 b03c
000002e0: 1e84 af3d e330 8e3e 4a5d 823d 4fa7 193d
000002f0: d243 aebd 0bb5 d53d 1396 0a3e d12d 24bd
0.17114675 0.059106242 -0.016356668 0.03779329 -0.06490624 0.013612791 0.10288913 -0.044059716
-0.06287394 0.07062795 0.15870702 -0.004960431 0.03597969 0.14389329 -0.0008150146 -0.07387917
-0.1035622 0.11232078 0.14191036 -0.041382987 0.036589075 0.061192147 -0.030537123 -0.00987497
0.011838972 0.10942629 -0.005228412 -0.059885655 0.17352785 0.0032649697 0.09958314 -0.024825785
0.0879051 -0.029895902 0.12628761 0.2131556 -0.051844552 -0.0035882874 0.08129597 0.07336517
0.12432951 -0.05003201 0.07826701 -0.0043080123 0.03786972 -0.096690424 -0.10375978 -0.09171122
0.108328246 0.16501273 -0.023516292 0.11636372 -0.0095952405 0.12595218 0.094365485 0.06412121
0.023910683 0.06280162 0.07507996 -0.07234814 0.11619701 0.15523212 0.11389049 0.053502657
-0.12142051 -0.032420468 -0.20704755 -0.2413078 -0.29985416 -0.31848368 -0.2043212 -0.18038699
-0.20429496 -0.08312795 0.09672892 -0.027071804 -0.11305441 -0.056603298 -0.23792598 -0.10489728
-0.24324098 -0.3793059 -0.24944605 -0.3387276 -0.08197016 -0.18140328 -0.15458058 -0.40571332
-0.11363218 -0.37367496 -0.16216943 -0.08079346 -0.35368252 -0.32123077 -0.1510976 0.11211937
-0.3156219 -0.24818593 -0.18056446 -0.33971578 -0.25551984 -0.054655407 -0.14113857 -0.067823105
-0.16000889 -0.12628952 -0.26928797 -0.3700375 -0.14831176 -0.16648978 -0.25202626 -0.14168172
-0.12188884 -0.22234981 -0.060079303 -0.2952562 -0.26519844 -0.2885649 -0.113448985 -0.10260441
-0.2986262 -0.32859284 -0.13982579 -0.462881 -0.34615874 0.11008364 -0.28480437 -0.03409481
0.14699915 0.02513235 -0.18616387 -0.14026386 0.27558535 0.09298178 0.14477068 0.13376082
0.065309085 -0.060190674 -0.052659675 0.047266006 0.026139386 -0.21946982 -0.09045609 -0.010141055
0.009452558 -0.19433214 0.2940088 -0.05956487 0.11448616 0.16374037 0.2596343 0.1634742
0.17612429 -0.14950876 -0.008485202 0.077085994 0.16575043 0.15565804 -0.14597878 0.04377484
0.07480895 -0.21067023 0.062321074 0.20959346 0.11529168 0.25166687 -0.055629235 0.16191287
0.08860411 -0.10060744 0.09960638 0.1765061 -0.13474822 -0.09849852 -0.066782564 0.06147136
0.12328893 -0.022296418 -0.2593655 0.122334115 0.13415661 0.22805163 -0.07893226 0.021504078
0.08570121 0.27771673 0.0636545 0.037513074 -0.085090294 0.10434922 0.13533811 -0.040082756

weight_ih_l1 f4 [192, 64]
00000000: 884c 0bbe 36e5 dabc 96bf 2bbd a7d9 1fbe
00000010: 25ca 2cbe 3e6b c7bd 8431 113e 5ff6 fd3d
00000020: 7eb4 44be 311c b93d 6178 273b d290 d4bd
00000030: 3475 acbd 0c8b 333d 1922 5abe f02d 6f3c
00000040: 599b 293e 3736 383e 7419 2b3e 3d96 1cbe
00000050: 5e9c 3f3e 3a0e 7cbe 836e 133e 2317 17bd
00000060: aa90 a4bd bdbc 113e 420c 03be 5598 633e
00000070: 8aad c1bd a759 373d 1a90 d5bd ae3b fc3d
00000080: 16dd b3bd 5cf3 9abc 348e 3cbe c587 733c
00000090: 4d6b 4cbe ebea e63d 600f 2e3d 5db1 04be
000000a0: 5c35 c7bd 0943 e43d d97e c93c cf94 203e
000000b0: b6a9 14be 334b 443a 2cb1 c9bd fa54 a2bd
000000c0: f4c4 89bd 0ed3 ee3c 3f51 d63b 4584 b5bd
000000d0: d512 863a 14b8 e43d e71a b13d 8350 f73c
000000e0: 584b cf3d f169 c53c 1da2 31bb ec5c 33bd
000000f0: 8332 2d3e 013f b3bb 37f8 fbbd 21f4 a43d
00000100: d009 0abc a3ef 9c3d 6511 1f3d 06bb f3bd
00000110: 6915 0abe a49f d93d 302a 383e 7ea4 eebc
00000120: d91c 14ba e39b a6bd 9a5f 07be 4643 1f3e
00000130: 388d 563d 2e22 853a 0d3e 26be 6338 013d
00000140: 3c4b bd3d 7cd1 c7bd 6e2b 123d eb69 5abe
00000150: 8172 00bc ea6c 05be 655f af3d 90c5 fa3c
00000160: 0f6d ca3d e6fc 36be 5e9e acba 4cf6 ce3b
00000170: a8a7 3f3d e877 5f3a 350f 2f3e c7ba 193e
00000180: 0f3c 883d 3124 e7bc 4e3d 65bc ddde 3a3e
00000190: 7dcf cb3d 9a84 443d ee62 2e3c 5d24 fc3d
000001a0: e24e 9b3c a82c 44be 0fb6 21bd d7e0 56bd
000001b0: 4213 a8bd 9348 0abc 0424 963d acec f23d
000001c0: f851 de3d e46a 5c3d a25c 68bd 8781 0cbd
000001d0: e7bd 30bd acda 1cbd e284 78bb fa0e 0dbd
000001e0: 099a 383c 3657 c23d 4d4e 5b3d 2d97 3bbd
000001f0: 3fa1 1abc fdb4 0ebe aac7 90bd 2dcc e93c
00000200: 54fb 48bd 9cd0 053e 3fad e93b a834 04be
00000210: 36df a9bd 4b6d 353d a8b6 283d 8202 5bbd
00000220: af9b 76bd 5187 273e ba31 033e 3798 35be
00000230: aa98 453d 0680 4e3c 2022 a93b 8c22 913e
00000240: bf50 ae3d 8a10 bdbc 3a23 4f3d 98e1 773d
00000250: b960 243d c3d6 063c b4b8 04be abdb 923d
00000260: e2f7 2f3d 5220 cabd cc6a f3bd f695 91bc
00000270: 3444 3dbd 6114 b7bd 4be3 d1bd 7508 41bc
00000280: 975d cc3d fd66 8d3c 23a2 5f3e 12d6 13bd
00000290: b4e8 e2bd 3da0 b83d 018a 0a3d c72c 29be
000002a0: 1ac1 14be 2118 90bd 7150 d63d b6da 65bc
000002b0: 921e a4bd 2764 6b3e cc7e 90bd 7d5f 303e
000002c0: 25f3 fe3c 0b9a 43be 156c 46bd 93f7 bd3d
000002d0: 9d00 3b3e 81ec e13d 12be 78bd 1037 18be
000002e0: a8e1 e1bc c213 003e af45 e3bd f4db 2c3e
000002f0: 3625 31bd 8154 b33d b372 003e 3de5 393d
00000300: 6544 9f3c 8e8d fc3d 70e4 513b 6f3e 13be
00000310: 306a b03d b457 20bd bd5f c23d d5a8 b53d
00000320: 7de4 9abc 9c8b 5e3d 6e12 b13c 702a c4bc
00000330: 98ac ba3d 2216 c23d e47f 703c f987 54ba
00000340: e846 52bd e26b 613d 1298 3abd 19f3 c1bd
00000350: 1247 b43d 0569 86be fb2d 743d f034 61bd
00000360: c57e 8b3c b0df a13d a5b7 3dbe 759d b2bd
00000370: e98b 9a3d 2c77 a03d cffc b8bd 9e31 0a3e
00000380: 1f62 193d 0e1c bf3d 07e6 88be 0ff8 013e
00000390: 3a1c 0ebd 85b1 a6bc 8f40 6bbe dfb4 86bd
000003a0: c321 eb3d bb5a b9bd 7e22 c5bd c41f 243e
000003b0: bf37 14bd 7567 6b3c 6659 133e a38b b9bc
000003c0: ae4b 21bd c2c0 e8bd 8472 5d3e 917d 613d
000003d0: a2cc 0ebd 30cc 42bd 4adb 14bd a689 493d
000003e0: ccbb 933d 5da4 f33d 5505 743c 03d0 39bd
000003f0: 5146 88bb ee8c 9f3d ae5c 2bbe 9e5a 503e
-0.13603413 -0.026720624 -0.041930757 -0.15610372 -0.16873987 -0.09737252 0.14179045 0.12400507
-0.19209477 0.0903858 0.002555393 -0.10379185 -0.08420792 0.043833777 -0.2130207 0.014598355
0.16563167 0.17989431 0.16708928 -0.15291686 0.18711993 -0.24614802 0.14397626 -0.0368873
-0.08035405 0.14232154 -0.12797645 0.22226079 -0.09456928 0.044763234 -0.10427876 0.123160705
-0.08782403 -0.01891487 -0.18413621 0.014863913 -0.19962807 0.11275276 0.04249513 -0.12958284
-0.09726974 0.111455984 0.024596618 0.15681766 -0.14517865 0.0007488012 -0.09848246 -0.07926364
-0.06727019 0.029153373 0.006540447 -0.08863119 0.0010229001 0.111679226 0.08647709 0.030189758
0.101217926 0.024098368 -0.0027104684 -0.04378979 0.169138 -0.005470157 -0.123032026 0.080543764
-0.008425191 0.076628946 0.038834948 -0.11900906 -0.1348473 0.10626152 0.17984843 -0.02913117
-0.00056500506 -0.08135202 -0.13220063 0.15553007 0.05238077 0.0010157281 -0.16234608 0.031547915
0.092428654 -0.09756753 0.03568595 -0.21329467 -0.0078398 -0.13029829 0.08563117 0.030611783
0.098840825 -0.1786991 -0.0013169756 0.006315982 0.04679075 0.00085246423 0.17095645 0.15012656
0.0665208 -0.0282155 -0.013991667 0.18249078 0.099516846 0.04797802 0.010643704 0.12311623
0.018958513 -0.1915766 -0.039480265 -0.052460518 -0.08206798 -0.008440155 0.07331088 0.11861548
0.10855478 0.053812876 -0.056728967 -0.034303214 -0.043149855 -0.03829448 -0.0037921001 -0.03443811
0.011267194 0.094892904 0.05354147 -0.04579847 -0.009437858 -0.13936229 -0.07069333 0.028539741
-0.04906781 0.1306786 0.0071312482 -0.12910712 -0.08294527 0.044293683 0.04118982 -0.05346919
-0.060207065 0.16360213 0.12811938 -0.17733847 0.048241295 0.012603765 0.0051615387 0.2834667
0.08511495 -0.023079176 0.050570704 0.060517877 0.040131304 0.008229914 -0.12961084 0.071708046
0.04296101 -0.09869446 -0.11885604 -0.017771702 -0.04620762 -0.08939434 -0.10248431 -0.0117818015
0.09978788 0.017261023 0.21839194 -0.036092825 -0.11079541 0.09014938 0.033823017 -0.16520987
-0.14526787 -0.07035852 0.10464562 -0.0140291955 -0.08013643 0.22987424 -0.070554346 0.17223926
0.0311218 -0.19101731 -0.04844292 0.09275737 0.18261953 0.11031438 -0.06072814 -0.14864755
-0.027573422 0.12507537 -0.110972755 0.1688078 -0.043248378 0.08756352 0.12543754 0.045384634
0.019441793 0.12331687 0.0032027029 -0.14379285 0.08614004 -0.03914614 0.09490917 0.08870093
-0.01890778 0.05433236 0.021615233 -0.023946017 0.09114951 0.09476878 0.014678929 -0.00081074197
-0.051337153 0.055034526 -0.04555518 -0.09470195 0.08802618 -0.26252 0.059614163 -0.054982126
0.017028222 0.07903993 -0.18527086 -0.08721439 0.07546217 0.0783523 -0.090325944 0.1349549
0.03744709 0.09331523 -0.26737997 0.12692283 -0.034694888 -0.02034832 -0.22973846 -0.06577467
0.11481049 -0.090505086 -0.096257195 0.16027743 -0.036185976 0.014367928 0.14389572 -0.022649592
-0.039378814 -0.11364891 0.21625715 0.05505139 -0.03486312 -0.04755801 -0.036341943 0.049203537
0.07213554 0.11896584 0.014893849 -0.04536439 -0.004158773 0.07790552 -0.16734573 0.20347068

weight_hh_l1 f4 [192, 64]
00000000: 59f4 fdbc a4ae f43c 4fee b93d 8a94 06bd
00000010: 02b8 863d 79ae db3d 96d8 8239 3837 56bd
00000020: 0da7 573d daf0 a73d 9103 1d3e 4ee7 7cbd
00000030: 7865 c5bd c018 cf3d 14af 28be 01aa e03c
00000040: 1bd1 8dbd 40d4 6c3e c585 b9bd 982a bf3d
00000050: 227b 013e bc97 48bb 2832 a3bc df08 04bd
00000060: 9226 6c3d e94d 0f3d 58ef 6cbc 0c5f b8bd
00000070: fbb6 8b3d 4cd8 4b3d 77a4 023e aa9c 2a3e
00000080: bc78 803e b444 8b3d 3570 d8bd b1a7 7c3d
00000090: d208 c33c a20e 6fbd a6b2 58ba e6c6 9f3c
000000a0: 0d75 4dbc 3e11 3d3e c96a d43d da2f 0d3d
000000b0: 93b5 96bd c62a 1abe 9e1f 45bd 0ffb 7abc
000000c0: 14db 563d 9c54 f7bd fe2e 03bd dcc3 1f3d
000000d0: 1401 c7bd fed2 353d ada8 013b e891 1b3e
000000e0: 45e4 5d3d dd63 4fbe 7432 023e 081c b53d
000000f0: 9d3c b1bd 9a64 c63d 7086 cdbd 0021 9bbd
00000100: e89f 8b3c cfb3 64bd 858d 8ebc a85a dcbd
00000110: 2420 d53d 0e9f 4cbd 1926 05be 54b0 9b3c
00000120: fb87 163e bf97 b33d 0770 a0bc 8625 d33d
00000130: f516 4dbd 85c2 0bbd 3634 bd3d 95e6 22bb
00000140: 5092 fa3d 86c7 9b3c 7b92 b5bd b745 2fbc
00000150: 3686 0e3d 7e0b 2e3c 23ab f53d 1a94 abbd
00000160: dc95 92bd ccef c43c ee59 eb3d cade 173d
00000170: 5612 49bc af29 f43c 749e cfba a0af bf3d
00000180: 1d3d 45bc 2300 53bd f1aa 5fbe 9f53 fb3d
00000190: cbd8 8ebd 0d1c dbba 6db8 123e 072e 3a3d
000001a0: 1a86 1ebe 91f1 b23d fb5a 193d 40c3 95bd
000001b0: 3708 423c 77af cf3c 49e9 9ebc 41a2 86bb
000001c0: 22d2 41bc 102a 053d e36f d7bd 6afc bf3c
000001d0: 56ec b63b fae6 ccbc b2ef 03bd b205 f23d
000001e0: 733f 90bd 53d3 ae3b 61cc b2bb 1f5d d4bd
000001f0: bb44 103d ef9d 4c3b 7c7a 33be 29eb 80bd
00000200: 1794 3abd 21b3 b7bd 6b43 193d 3577 da3d
00000210: d6e0 3e3e 984e e73d 0721 dc3d 3d22 bc3d
00000220: 834f 463b 023f 0fbd 2144 db3d 7c79 e13d
00000230: 8850 143e d620 0c3d a875 ffbc d1d6 30bc
00000240: 438e 183e 6c28 21bd 4e71 253e 83d9 843c
00000250: b3e6 1fbe 31db 72bd 3a94 03be a4a9 aebb
00000260: 6564 163d 4be9 ddbd f81e 00be ad6c 993c
00000270: ace7 cc39 b639 9fbd f003 a43d 3ab3 f2bd
00000280: 0355 0c3e 1bde 0e3e 7751 8bbd 03ff 103c
00000290: 0f83 bd3d 67a2 77bc b3af 393e 2221 173d
000002a0: a0f2 153e fe1b c1bc 15aa f0bd ce74 ee3d
000002b0: 0b52 2ebe fad7 9ebd 3f30 e93d edab 1f3d
000002c0: b2a6 4ebd df0a 2fbe 3be3 d0bd 4f32 6e3d
000002d0: 73c7 453c b691 12be 08c9 9b3c e047 a9bd
000002e0: d52a 21be e591 3f3d a3c5 41be f8d7 cf3c
000002f0: 5b74 c73b 4318 7ebd fa9c fdbd 1d35 ec3c
00000300: e32d febc eaae 54bd 9261 b9bd 2f1d 8c3e
00000310: 0849 48bd 78be 7a3c cc3d 72bd ca89 90bd
00000320: c462 c0bd add2 a83d a7ba a03d aa7f 0d3c
00000330: 13e2 eebd 8e77 433d d35e 8d3c 5f9a b2bd
00000340: 47cb c4bd 57cc 943e 9c16 c83d b9b2 21bd
00000350: 67da b13d 99ce 65bd 0194 ccbd 5878 833d
00000360: 58b0 d13c 3606 a63d 7782 36bd 0295 68bd
00000370: 0c00 913c 4874 1a3d 95ba 453e 5c50 963d
00000380: c440 923e d616 7a3d 7989 43be 27b1 013e
00000390: cc05 76bd d425 9e3d bb1e 083e aea2 023e
000003a0: 5445 08be db75 d63d 72f7 43bd 0aa9 993d
000003b0: 247b 4d3d 2f36 8f3d 2494 bbbd 5398 3bbd
000003c0: 8ee6 3cbc fdfe c13b 1b3c e8bd f0a0 7fbd
000003d0: 94e7 b5bc c742 123e 0fec c7bd 7625 b03d
000003e0: 4249 c7bd 04e2 98bd 4b78 01bc 587b a93d
000003f0: 278f 9c3d 4168 f6bb 9f43 1d3e f7ac e13c
-0.031000303 0.029868431 0.09078657 -0.0328565 0.065780655 0.107266374 0.000249569 -0.052298754
0.052649546 0.08200236 0.15333392 -0.061744027 -0.09638494 0.101121426 -0.16473037 0.027424814
-0.06924649 0.23127842 -0.09058718 0.09334296 0.12644628 -0.003060802 -0.019921377 -0.032235023
0.05765397 0.03498641 -0.014461361 -0.09002504 0.0682201 0.049766824 0.12758051 0.16661325
0.25092113 0.068002135 -0.10568277 0.06168336 0.023807917 -0.058363564 -0.0008266367 0.019504022
-0.012540114 0.18463609 0.1037193 0.034469463 -0.07358851 -0.1505538 -0.048125856 -0.015318646
0.052455023 -0.12076685 -0.032027237 0.039005145 -0.097170025 0.04439067 0.0019784376 0.15192378
0.054172773 -0.20252939 0.12714559 0.08843237 -0.08654139 0.09687157 -0.100354075 -0.075746536
0.017044023 -0.05583554 -0.017401466 -0.10759479 0.10406521 -0.049956374 -0.13002814 0.019004978
0.1470031 0.08769178 -0.019584669 0.103098914 -0.05007072 -0.034121055 0.09238474 -0.0024856676
0.12234938 0.019016039 -0.088658296 -0.010697774 0.034795962 0.010622857 0.11995532 -0.083778575
-0.0715749 0.024040125 0.11491762 0.037077703 -0.012272438 0.029805033 -0.0015840069 0.0935967
-0.012038496 -0.051513802 -0.21842553 0.12271809 -0.06974944 -0.0016716734 0.14328165 0.04545405
-0.15480843 0.087374814 0.03744028 -0.073126316 0.011842779 0.025352223 -0.019398348 -0.0041086976
-0.011829885 0.032510817 -0.105193876 0.02343579 0.0055823727 -0.025012482 -0.032211013 0.118174925
-0.07043352 0.0053352504 -0.005456493 -0.10369324 0.035221796 0.0031222065 -0.17527193 -0.06294853
-0.045551386 -0.08969713 0.03741781 0.10667268 0.18640456 0.112942874 0.10748487 0.09186218
0.0030259795 -0.0349722 0.10706354 0.110094994 0.14483845 0.034211002 -0.031184033 -0.010793404
0.14898019 -0.03934519 0.16156504 0.016216999 -0.15615349 -0.05929107 -0.12849513 -0.0053302813
0.036716837 -0.10835513 -0.12511814 0.018728578 0.0003908252 -0.07774679 0.080085635 -0.11850591
0.13704304 0.13951914 -0.068026476 0.008849862 0.09253513 -0.015114403 0.1813343 0.036896832
0.14643335 -0.023572918 -0.117511906 0.116433725 -0.17023484 -0.07756038 0.11386155 0.03898232
-0.05045194 -0.1709399 -0.10199591 0.058153447 0.012071478 -0.14313397 0.019016758 -0.08265662
-0.15738995 0.046769995 -0.18923049 0.025371537 0.0060868687 -0.062034857 -0.123834565 0.02883392
-0.03102774 -0.051924624 -0.09051813 0.27366015 -0.048897773 0.0153042 -0.059140965 -0.07057531
-0.09393838 0.08243308 0.07848101 0.0086363945 -0.11664214 0.047721438 0.01725713 -0.0872085
-0.096090846 0.2906215 0.097699374 -0.039477084 0.08684235 -0.05610523 -0.09989167 0.06419438
0.025596783 0.081066534 -0.044558015 -0.05678273 0.017700218 0.03770855 0.19309457 0.07339546
0.28565037 0.061056934 -0.1909541 0.12665235 -0.060064122 0.07722059 0.13292973 0.1275737
-0.13307697 0.10471698 -0.047843404 0.07502945 0.050166264 0.069927566 -0.09159115 -0.045799565
-0.011529578 0.0059202895 -0.11339589 -0.06240934 -0.022205152 0.14283286 -0.097618215 0.08600895
-0.0973077 -0.07464984 -0.007902215 0.08275479 0.07644492 -0.0075197523 0.15357827 0.027548296

bias_ih_l1 f4 [192]
00000000: 088e 8ebc 48d8 0e3e 2df6 3a3e bcc2 b73d
00000010: a841 e23c ea9b cd3d 1e8d 083e bddb e03c
00000020: ab1e 313d 0a01 13bd fc66 8e3d 3096 90bd
00000030: d3e4 0d3d a249 0d3e 235b 5dbd 10fa 8a3d
00000040: 745e 9e3d 2242 05bd b38a 473e c1b0 403d
00000050: fa23 a2bc 89ee 893d 65bf 07bc cdf4 6c3d
00000060: a7e4 60bd 3969 163d be38 64bd 5f5f 11be
00000070: 209f 203e 3ccf b53d 385c b7bd 4573 173e
00000080: 2736 403d b605 51bd 876c 923d 7651 adbd
00000090: f3ab ae3d 5129 9f3d 18bb 193e 51c5 9f39
000000a0: b74e a23d 6239 7bbd b06d 6b3d 1605 e63d
000000b0: 3b13 0c3d 2467 c43d 5c2f 213d 6375 0b3e
000000c0: a159 883d 1758 9a3d 91a6 a8bc 4ce0 b83c
000000d0: 6b2f 883d 4a2e b7bc b4b9 84bd c174 c03d
000000e0: fde2 883c 36fa 153e 8382 c0bc 12a3 b3bd
000000f0: d7f4 a33c 66db 74bb 07f2 ce3d 3c32 063b
00000100: 1d92 43be cffb 85be c5f8 29bd 6834 07be
00000110: 52f9 2abe 4ca1 ffbd a0cd 15be 1eb6 94be
00000120: afdb 1abe 4d82 12be 8315 9ebe 19d6 85bc
00000130: 9d60 23be 543d 42bd 837f 71be 2a14 33be
00000140: f51d 11bb e7f0 2ebe fcd3 0ebe 48e9 82be
00000150: 1067 3ebe 4700 8abe 9e1e f9bd 7d33 60be
00000160: c668 76be f645 8bbe c740 eebd 9d5b 47be
00000170: 7846 98be 2b35 fbbe d438 1fbe 188d 04be
00000180: 429a b1bc 262c 7ebe ee36 09be 4c9e 30be
00000190: 62a8 08be 484c d3be 8834 1dbb 206e b3bd
000001a0: 4322 f7bd 53a1 1cbd 03c2 18be fb7e b0be
000001b0: 29af 1dbe 208c eebd 9688 2cbe 998d 8cbe
000001c0: 988e 3ebe f8ae a2bd f47d 18be d545 a6be
000001d0: f92e d0be c2fe 513d 7207 a8be 267b b4be
000001e0: 6e62 85be 4267 9cbd 2850 94be e7f0 83be
000001f0: 9f3e 9dbe d46c 43be 9950 60be f9ab 04be
00000200: a6eb 683b 9121 a9be 4a92 c63d d0af 8ebd
00000210: 4fed 3dbd 2d9d 3bbe b816 c9bd c1e2 3abe
00000220: cc13 6f3e 8f29 b73c 26d6 bbbc 76e4 633d
00000230: 8b5a 20be fbd9 a6bd af82 113e aa43 bf3c
00000240: e742 3bbd 19fd 3bbe 6e24 c13d 0807 e3bb
00000250: 033f fb3d d316 913c 4f09 9abd e2a6 28bd
00000260: c2eb ee3c 2a96 183d 6257 173d eb85 ad3d
00000270: 16d4 443b 1726 143b b82c 033e cf43 22be
00000280: ed32 4bbc 4d79 163e 9eff 913d b338 edbd
00000290: 6844 153d 6cd0 9e3e edbd a63d a7d0 b73d
000002a0: cad5 463e 9715 1bbd 9d7a 363e a860 76bd
000002b0: ba2d 833d 9276 8ebe 0ca1 ac3c 89f0 55be
000002c0: 8578 38bd 3492 603d 727a f1bd 1d20 fd3d
000002d0: e6ee 8cbd dd93 0ebe 54dc 81be af7c 433e
000002e0: c354 103d 19a0 23bd d9ea ddbd 5522 75bd
000002f0: 457b 58be c6e3 193e 3f68 bf3d 08bf 233d
-0.01740171 0.13949692 0.18257971 0.089726895 0.027619198 0.10039504 0.13335082 0.02744853
0.043242138 -0.035889663 0.069532365 -0.07059896 0.034642052 0.1379762 -0.054041993 0.06785977
0.07732859 -0.032533772 0.19486503 0.047043566 -0.019792546 0.0673495 -0.008285378 0.057850648
-0.05490556 0.036721442 -0.055718176 -0.14196537 0.15685701 0.088774174 -0.08953136 0.14790066
0.046926644 -0.051030837 0.07149606 -0.08462803 0.085288905 0.07771552 0.15012777 0.00030473855
0.0792517 -0.06133402 0.057477653 0.11231439 0.034198027 0.09589985 0.039351806 0.13618998
0.0665772 0.07536333 -0.020587238 0.02256789 0.06649669 -0.02236094 -0.064807326 0.09397269
0.016709799 0.14646229 -0.023499733 -0.087713376 0.02001421 -0.0037362217 0.10104757 0.002047672
-0.19098707 -0.26168677 -0.04149701 -0.13203585 -0.1669667 -0.12481937 -0.14629221 -0.29045194
-0.15122865 -0.14307518 -0.30875787 -0.016337441 -0.15954824 -0.04742177 -0.23583798 -0.1748816
-0.00221431 -0.17084084 -0.13948053 -0.25568604 -0.18594003 -0.26953337 -0.12164043 -0.21894641
-0.24063405 -0.27201813 -0.11633449 -0.19468541 -0.29741263 -0.49064 -0.15549022 -0.12944448
-0.021680001 -0.24821529 -0.1339986 -0.17247885 -0.13345483 -0.41269135 -0.002398761 -0.08761239
-0.12067082 -0.03823979 -0.1491776 -0.34471878 -0.1539885 -0.116478205 -0.16848978 -0.2745178
-0.18609083 -0.07943529 -0.14891797 -0.32475153 -0.40660837 0.051268347 -0.3281818 -0.35250205
-0.26051658 -0.07636882 -0.28967404 -0.2576973 -0.3071184 -0.19084483 -0.21905746 -0.12956227
0.0035540848 -0.33033422 0.09695871 -0.06967127 -0.046368893 -0.18321677 -0.098187864 -0.18250562
0.23347396 0.022358684 -0.022929262 0.0556378 -0.1565954 -0.08147045 0.14210008 0.023347694
-0.0457181 -0.18358268 0.094307765 -0.0069283284 0.12267878 0.017711079 -0.07521307 -0.041174777
0.029165152 0.037252583 0.03694857 0.084728085 0.003003364 0.002260571 0.12810028 -0.1584618
-0.012402278 0.1469471 0.07128833 -0.1158308 0.03644219 0.31018388 0.08141694 0.08975344
0.19417492 -0.037862387 0.17820211 -0.060150772 0.06405206 -0.27824837 0.021072887 -0.20892538
-0.04503681 0.05482693 -0.11790933 0.12359641 -0.06881504 -0.13923593 -0.2536341 0.19090532
0.035237085 -0.039947603 -0.10835809 -0.059847195 -0.21140774 0.15028295 0.09346055 0.039977103

bias_hh_l1 f4 [192]
00000000: aadd d9bd 7de5 b23d 84b9 f23d d90e ec3d
00000010: 5c4b b53d 0063 2d3d 9553 10bc 2229 f23d
00000020: 1b9c 2f3e 0d9f 7fbd 089a f03b 5f3e afbd
00000030: bbfa 1dbd 6ae1 95bc ea4d c8bc 22ae 0a3d
00000040: 58b2 233e 4bd3 5e3d b6dd bbbc e396 123e
00000050: 81e8 47bd 3a2a cb3d efcf 2d3e b555 293e
00000060: 63d5 d93d 28cd 5dba 2525 303e 63ba bebd
00000070: c937 cc3d 3f24 73bb cc65 02be be8c 823d
00000080: e338 2f3c 9b4d 2cbd 7702 cdbd cf56 1e3d
00000090: b665 fc3c 8fd0 153e c1a1 a33d f718 86bd
000000a0: 976e c5bb 65aa 023e 3484 563d 7e6b 20bd
000000b0: f1f0 4abd 203c e93d a011 f9bb 249a 053e
000000c0: e131 733d cee9 a43d b380 8a3d 9b3e b0bc
000000d0: 17af 003d 7460 a1bb 62a9 453d 0a19 f43d
000000e0: 17db 113d 0203 623b 946c dd3d f04f 1d3d
000000f0: 2f81 003e 6406 313e a02a 18bd 011a 213d
00000100: 41d2 18be 642d aabe ad82 54be 284f 10be
00000110: fd4a 3bbe f087 f5bd 00f2 10be 79e4 92be
00000120: dd30 4bbe 9f36 4ebd 0689 86be 3c35 f4bc
00000130: 8bf7 b4bd 8d88 0abe 118e 65be 152b 2839
00000140: 153e e0bd 5f2c 15bd 1cef babd c29e e3bd
00000150: 41b2 54be 1773 1abe db20 7ebe fb00 7cbe
00000160: ebbe e1be 9684 93be a252 edbd 8a4b 06be
00000170: ca73 82be e2d3 84be 58d3 2fbe d523 3abe
00000180: 3312 8d3d f085 81be 258d cbbd ff19 8fbe
00000190: 3571 fbbd 1e7f 9bbe 0d43 36be 2088 c4bc
000001a0: fbcf 44be a044 91bd 40d2 f3bd 147d d5be
000001b0: fd0c 99be d196 a2be 3c86 f6bd 9978 86be
000001c0: e6ce 61be ffeb 1bbe 0652 28be 2384 9fbe
000001d0: fffb cbbe e33d d93b 356e 7cbe afc6 a3be
000001e0: 3152 2dbe bc9c 22be 2eb8 f9bd 101c 9ebe
000001f0: 32db 11be e6ca 58be 4cc5 59be c624 82bd
00000200: 8112 a13d 7c0e 82be 3928 e33d 4f82 33bd
00000210: d1b4 01bc 8550 e9bd 37e9 80be f307 10be
00000220: d741 223e 7b14 00be 97eb bdbd 7e21 d73d
00000230: 8bd7 fcbd a6e7 07be bc1b 9f3d 5725 a43e
00000240: 94b4 fdbb 8c17 8abd 9d96 773d 3676 09be
00000250: a9b5 803c 24be 453e d436 c5bd 6e5a a4bd
00000260: 64fb 51be 84c5 2a3d 4d0b 023e 164c c63c
00000270: a672 2f3e 25cc 193e 2954 c43d 0312 01be
00000280: 7a72 483d 2084 023e 46c8 113d 0991 893d
00000290: 772e 1ebe 8492 5c3e 1804 5bbd e6ce 183c
000002a0: 49ff da3d ba9b 163b fa29 733e f346 85be
000002b0: 3f09 0bbc 86de 94be b801 9cbc 8360 bdbc
000002c0: 91a3 093e 8b5b b3bd 47a3 24bd 33fa 403e
000002d0: f47f 6fbd b962 553d 5d9f 32bd 0807 8a3e
000002e0: ee51 3e3e 4d74 703d b9d4 87bd 2d3d e9bd
000002f0: c35d 68bd 7031 903e 9c6c 86bc 8ee1 17bd
-0.10637982 0.08735178 0.118517905 0.115262695 0.08852264 0.042330742 -0.00880899 0.11824252
0.17149393 -0.062407542 0.0073425807 -0.08556818 -0.038569193 -0.018295962 -0.024451215 0.033857472
0.15986001 0.054400723 -0.022932868 0.14315371 -0.048805717 0.099201635 0.16973852 0.16536601
0.106364034 -0.00084610516 0.1720167 -0.09312894 0.09971578 -0.0037100462 -0.12734145 0.06374501
0.010694715 -0.042066198 -0.10010236 0.038657006 0.030810218 0.1463034 0.079898365 -0.065477304
-0.006025146 0.12760313 0.052372172 -0.039165013 -0.049546186 0.11388421 -0.007600978 0.13047081
0.05937374 0.08052407 0.06762829 -0.021514228 0.03141698 -0.004924828 0.04825724 0.11918838
0.03560933 0.0034486656 0.10811725 0.038406312 0.1254928 0.17287594 -0.037150025 0.03933144
-0.14923956 -0.33237755 -0.20752974 -0.14092696 -0.18290325 -0.11988819 -0.14154816 -0.28689936
-0.19842859 -0.05034506 -0.26276416 -0.02981054 -0.088362776 -0.13528652 -0.22417475 0.00016037778
-0.10949341 -0.03641927 -0.09127638 -0.11114265 -0.20771123 -0.15082966 -0.24817221 -0.24609749
-0.4409097 -0.28812093 -0.115880266 -0.13114753 -0.25478965 -0.25942904 -0.17170465 -0.18177731
0.06888237 -0.252975 -0.099390306 -0.2794952 -0.12277452 -0.3037042 -0.17799015 -0.02399069
-0.19219963 -0.07093167 -0.119053364 -0.4169699 -0.29892722 -0.3175569 -0.12037322 -0.26263884
-0.22051582 -0.15226744 -0.1643754 -0.311555 -0.39840695 0.006629692 -0.24651416 -0.3198752
-0.16925885 -0.15880102 -0.121933326 -0.30880785 -0.14243773 -0.2117115 -0.21266669 -0.0635467
0.078648575 -0.25401676 0.11091656 -0.043825444 -0.007916645 -0.11392311 -0.2517793 -0.14065532
0.15845428 -0.12507813 -0.09273451 0.10504435 -0.12345799 -0.1327196 0.07768962 0.32059738
-0.007742474 -0.067427725 0.06044637 -0.13424 0.015711622 0.19310814 -0.09629598 -0.080250606
-0.20506054 0.04169227 0.12699623 0.024206202 0.17133579 0.15019281 0.09586365 -0.12604527
0.0489373 0.12745714 0.035591386 0.067171164 -0.15447412 0.21540266 -0.0534707 0.009326672
0.10693223 0.0022981004 0.23746482 -0.26030692 -0.008486091 -0.29076022 -0.019043788 -0.02311731
0.13441302 -0.08757695 -0.040194776 0.18845443 -0.058471635 0.052096102 -0.043609012 0.2695849
0.18585941 0.058704663 -0.066323705 -0.113886215 -0.056730043 0.28162718 -0.01640921 -0.03708034

weight f4 [1, 64]
00000000: 91d8 aabe f079 5fbe 7e21 a63e a2ed ffbd
00000010: c998 37be 2703 71be 295a a0be 9b33 92be
00000020: 49c3 8c3e b72f e2be 102a 3fbe 6286 b63e
00000030: 4c54 83be 4924 a8be 8ca6 49bd a881 b13e
00000040: 9ee1 87be d314 aebe d4e1 e03e 4fee afbe
00000050: fc24 a43e 6171 b73e abda 9bbe 540f 4fbe
00000060: 5478 b13d 225f 863e 7752 8d3e c4a6 8e3e
00000070: 8a9b 933e d8f4 fdbd b488 773e 0f00 dbbe
00000080: 506f 59be 664a e33e f93f ae3e 0867 ccbe
00000090: d709 0ebe 5b51 943e 8957 a1be 5f55 2b3c
000000a0: 0020 a23d 5cd9 9f3e ff6c 883e 99aa febd
000000b0: 8f0b 85bd ba20 50be cfa4 c23e e9ca 92be
000000c0: c362 573e 1360 55bd 0aa9 b0be 850e 943e
000000d0: c426 53be e108 e5be cd30 89be c295 9e3e
000000e0: 37bd 8f3e 6158 ee3e e637 47be fa73 023d
000000f0: c2e6 77be 7a1f 3e3e be80 fa3d 8025 a7be
-0.33368352 -0.21823859 0.32447428 -0.12496497 -0.17929377 -0.23536359 -0.31318787 -0.28554997
0.2749274 -0.4417703 -0.1866839 0.356494 -0.2565025 -0.32840183 -0.049231097 0.34669232
-0.2653932 -0.34000263 0.43922293 -0.34361503 0.32059467 0.3582869 -0.30440268 -0.20220691
0.08665529 0.26244456 0.27601978 0.27861607 0.28829604 -0.12400216 0.24173242 -0.42773482
-0.21233869 0.443927 0.34033182 -0.39922357 -0.13870941 0.2896832 -0.31512097 0.010457366
0.0791626 0.3122052 0.26645657 -0.12434883 -0.06496345 -0.20324984 0.38016364 -0.28670433
0.21033768 -0.052093577 -0.34503967 0.28917328 -0.20620257 -0.44733337 -0.26795045 0.3097363
0.28074047 0.46551803 -0.19454917 0.031848885 -0.24209121 0.18566695 0.12231587 -0.32645798
