TotalModel.pth (torch, 209702 bytes, 12 tensors)

weight f4 [125, 16]
00000000: 0c40 90bf afd7 b83e e49f 9bbf 5473 87bf
00000010: 0e62 dd3d 32cd b53e 4a2a 08bf 6f9d b93e
00000020: 24ab 38bf 7328 ad3f dce7 d13f 5cb0 61bf
00000030: e0d9 dcbf 04b0 3c3f 4306 b0bf 99d8 893f
00000040: f0c1 863c 332e 6c3f 1bed 6f3d 39f0 32bf
00000050: 0efa 953e d713 2cbf 536a d03f a88e c5be
00000060: 3e99 e63e bcf3 d83e 5cb1 b43f 10f3 8f3f
00000070: 8f27 b43f 3b87 76bd b133 083f 92fc 17be
00000080: 1f6a d6be 92c0 cbbf 732e 50be c2d4 633e
00000090: 06c3 833f 0f0c 8dbe 159e f0bf e4f9 053e
000000a0: c7d4 87bf 12a8 94bf 75e7 1cc0 5411 9b3f
000000b0: 9ca1 53bf a8a2 823f 65e0 a4bd 29b0 afbe
000000c0: ccd4 7d3f 2a2b 0fbf 2599 e5bf 3fce a93f
000000d0: 33a7 823e a6b7 e73e a6d2 ac3f f56f 653f
000000e0: 0062 bebe 50d0 61be 1f38 223e 2d1b 3a3e
000000f0: fbbc a4be 2a53 5f3f d930 a33f e481 c83e
00000100: 0630 04c0 c95a d7bd f6e9 6abe a99c 3540
00000110: 9160 003f afc2 bb3e 8533 c0bf 3f4c 193f
00000120: 1cb0 9fbf e6ce a6be afe1 18c0 c0b5 a03f
00000130: d686 8ebf c5b7 ddbf 87db c6be 3d70 99bd
00000140: 7f43 78bf 7fbb 0bbf bbe6 02bf 404f 86bf
00000150: fd7c 98bd 8509 503e 2e6d aabe e933 513f
00000160: 4a30 10c0 f2d3 613f 3e88 8cbf 451f a13f
00000170: 6e76 b2bf 3ad5 a03f 2d22 f5bf eae4 2f3f
00000180: b34d eb3e 91fb 8cbf 909e d4be bcba a93f
00000190: a40a 853f b06d cabe 7100 0340 d9c1 ab3f
000001a0: 5019 113f cc08 493f dd71 69be 4245 b8bf
000001b0: 38d4 563f 3c85 53bf 0947 3a3f cd4b 29bf
000001c0: 2df3 183f de34 233f 0a1d b23e 387e 423f
000001d0: 7fc6 263f 5cae d7bf 0eeb 4dbf 7b96 56bf
000001e0: 228b 85bd a820 06c0 3138 11bf d3a9 01bf
000001f0: 52ac e33f 33f9 e1be 8f23 313f 2d83 2cbf
00000200: 354c 37bf 5c00 7cbf 5ab7 0bc0 067f 6bbf
00000210: 937c 463e f8aa c4bf b102 25bf e3ed d63e
00000220: e61d 683d 1380 d3bf b77a a03e 946d 3cbe
00000230: e727 40bf 7d77 8cbe bfb1 333f c78a 223e
00000240: 54d7 10c0 69a1 afbf 62b7 f93e c339 afbe
00000250: 3863 743f 9820 fb3e a61c 383e 8350 89bf
00000260: a8a9 a1bf e806 bcbf 01f4 b23f 4413 4f3e
00000270: e45e c53c d366 2a3f c003 f2bf 8b92 e43f
00000280: b888 adbe 4f68 533e 3c6a af3f 87a6 aabf
00000290: 0dd8 adbd e938 3d3f 7d99 943f f928 5c3f
000002a0: bc23 be3e 8c51 903f ae1f a0bf f1d2 c23e
000002b0: 7e46 8b3f 69ad bcbf 7428 45bf db9e 193e
000002c0: 4e7a 27bf 5f74 4f3f e9e9 3d3d 00ac c8bf
000002d0: 0275 a6be c229 acbf 5d0d b3bd a0ad 86bf
000002e0: a667 163f e8c3 fa3e 5d8d 353f f7cc 28bf
000002f0: e76a e4be 0a2e b73e 8fa3 fc3d ccee 423f
00000300: c7d0 dfbf 838a 883f 3328 2740 c425 ff3f
00000310: dade e9be a7b8 23c0 06a7 2dbf 185b 5f3e
00000320: 3c1b c63e b11e 37bf 34d1 01c0 d67b 313f
00000330: f8e4 08c0 0a5d b33f 8c78 c2bf c21f 983f
00000340: a9b7 3ebe 33bf 9e3f ff6b 9a3f 34f0 a63f
00000350: 4f1c 33bf 4265 dbbe 234d 123f 7872 0c40
00000360: efaa 5fbf 93ca b53f ec69 063f c483 d23e
00000370: 7b0e bd3f 5084 e03f 97c0 2f3f 821e 653d
00000380: 234d a2bf 88e3 91bf a013 3bbf 68e2 3cbd
00000390: 4276 efbd ed4d 89bf 1aa2 cb3e 5540 2dc0
000003a0: e63b 17bf 2b9e 3bc0 fdd4 bebd 0c61 0cbe
000003b0: 64d3 a4bd 2bb9 d23e 5715 60bf 7a04 e13c
000003c0: cf42 2e3c 11bb 993f 779f f2bf 433a 463e
000003d0: cf47 503e f50f 3cbe 4237 0940 4501 7dbf
000003e0: 4f4c 0940 8382 38bf 18b2 a7bf 8c30 c23c
000003f0: 8d1b cf3d a4f4 debe 70c3 04bf 70dd 5abb
-1.1269546 0.36102054 -1.215817 -1.058207 0.10809718 0.35508114 -0.5318953 0.36252925
-0.7213614 1.3527969 1.6398883 -0.8815973 -1.725399 0.7370608 -1.3751911 1.0769225
0.016449898 0.92257994 0.05857573 -0.698978 0.2929234 -0.67217773 1.6282448 -0.385854
0.4503879 0.42373455 1.4116626 1.1246052 1.4074572 -0.06018756 0.53203875 -0.14842442
-0.4187784 -1.5918143 -0.20330219 0.2224913 1.0293891 -0.27548262 -1.8798243 0.13083607
-1.061181 -1.1613791 -2.451627 1.2114663 -0.8266847 1.0205889 -0.08050612 -0.34314087
0.9915283 -0.5592524 -1.7937361 1.3266066 0.25518188 0.452573 1.3501785 0.8962396
-0.37184143 -0.22052121 0.15841721 0.18174429 -0.3217543 0.87236273 1.2749282 0.391616
-2.065431 -0.10515363 -0.22940812 2.8376868 0.5014735 0.3667197 -1.5015723 0.5988197
-1.2475619 -0.32579726 -2.3887746 1.2555466 -1.1134899 -1.7321707 -0.3883936 -0.07492111
-0.9697799 -0.5458297 -0.51133317 -1.0492935 -0.074457146 0.20316131 -0.33286422 0.81719834
-2.2529473 0.8821403 -1.0979078 1.2587668 -1.3942392 1.2565072 -1.9151055 0.6870867
0.45957717 -1.1014272 -0.41527224 1.3260112 1.0393872 -0.3953681 2.046902 1.3418533
0.5667925 0.7852905 -0.22797342 -1.4396136 0.8391757 -0.82625175 0.7276464 -0.6613129
0.59746057 0.63752544 0.3478778 0.75973845 0.6514663 -1.6850085 -0.8043679 -0.83823365
-0.06520678 -2.0957432 -0.56726366 -0.50649756 1.7786963 -0.44135436 0.69194883 -0.6738766
-0.7160066 -0.9843805 -2.183066 -0.919907 0.19383459 -1.5364676 -0.6445723 0.41978368
0.05666914 -1.652346 0.31343624 -0.18401176 -0.75060886 -0.27434912 0.70193094 0.15873252
-2.2631426 -1.3721133 0.48772722 -0.34223756 0.95463896 0.49048305 0.17979679 -1.0727695
-1.26299 -1.4689608 1.3980714 0.20222193 0.024093099 0.6656315 -1.8907394 1.7857221
-0.3389337 0.2064526 1.3704295 -1.333207 -0.08488474 0.73914963 1.1609341 0.8600002
0.37136638 1.1274886 -1.2509668 0.3805156 1.0880888 -1.474042 -0.7701485 0.15002005
-0.65421 0.81036943 0.046365652 -1.567749 -0.32511145 -1.3450243 -0.08742783 -1.0521736
0.58751905 0.4897759 0.7091883 -0.6593775 -0.4461281 0.35777313 0.12335884 0.76145625
-1.7485589 1.066727 2.6118286 1.99334 -0.45677835 -2.5581453 -0.6783298 0.21812093
0.38692653 -0.71531206 -2.0283937 0.69329584 -2.1389751 1.4012768 -1.5193038 1.1884692
-0.18624748 1.2402099 1.2064208 1.3042054 -0.6996507 -0.4285069 0.5714895 2.1944866
-0.873702 1.4202446 0.52505374 0.41116154 1.4770044 1.7540379 0.68653244 0.055937298
-1.267979 -1.1397562 -0.7307682 -0.046114355 -0.11692478 -1.0726906 0.3977211 -2.7070515
-0.5907577 -2.9315288 -0.09317968 -0.13708895 -0.08048132 0.41156897 -0.8753256 0.027467955
0.010636046 1.2010213 -1.8954915 0.19358163 0.20339893 -0.18365462 2.1439977 -0.9883006
2.1452825 -0.72074145 -1.3101225 0.02370479 0.10112677 -0.4354602 -0.51860714 -0.0033396147

weight_ih_l0 f4 [192, 17]
00000000: 046b f7bc e69a 873d 0341 6ebe f262 a93e
00000010: 5d5c a33e 1c89 18be f08e a6be 0181 a5be
00000020: 993f 97bc 201d c3be 6802 933b 75ec f63d
00000030: 1a8d 07be c0e4 dcbe 6d62 23be c44e 93bd
00000040: 1a78 f6be d06b 143e 71a1 e93d a92a afbe
00000050: 2dba b7be 3c00 14bd 93c0 bfbe 5f4b 3abe
00000060: 0f4d 20be a1f6 af3d 6ccd 693e 4206 33be
00000070: 2b12 9fbe 7365 c93d d0ce 973e 47eb 893d
00000080: 4243 66bb 97b5 cdbd 7dc3 3a3e 4b01 ba3e
00000090: fc78 0fbf aafb 703e d910 1e3e 1b9d 2e3e
000000a0: e318 363d f432 303f a898 8c3d 070f 953d
000000b0: 6abb 8f3e c168 57bd 052f 3ebe 999c e2bd
000000c0: eaf3 773c b5c7 d1bc 85df 8ebd 7b00 573d
000000d0: 6562 f0be c80e 36be 915e 4c3e e21b c63d
000000e0: 5465 2f3d f9ac 05bf 063f 44be 8fcb d43b
000000f0: 8a4e e4bc d5a4 a7be 7f6e 06bf 6768 82be
00000100: a2d0 c3bd 7206 97bd 365b c6be 3333 5b3d
00000110: 12ad 09be 7e98 e83d 8ccc 84be e2c3 e3be
00000120: ca7e 2dbe 3dad 77be 5bd3 083d 2a15 45be
00000130: 4a45 59be 05b3 22bd 7cff 29bd 8e62 56be
00000140: 49d6 c93d 3561 be3e 2c69 95bc 326a e33e
00000150: ebf3 6b3e b2ce c43d c1d8 bbbc 46c2 35be
00000160: 1f88 533d df16 263d 8111 6b3d 5909 c8bd
00000170: 2f48 9f3e a326 afbe 5aaa 87be 387b 5d3d
00000180: 7823 0e3e 500b 13be 98c2 cb3c 1c0d debd
00000190: 06b5 833d 9bf2 e6be 4f2b 8a3d ebf8 743d
000001a0: 3860 0b3e e12d 8bbe 79ed 88be 51fd 7f3e
000001b0: a207 e33d aaf5 e33d c843 44be 956e 0abf
000001c0: 2998 aa3e 8cd8 523e 9f1c c7be af7a 373d
000001d0: da76 f8bd dda5 4a3e 4086 923e 3f56 98bd
000001e0: 0b11 053e 1942 0f3d 88d9 8d3e a543 093d
000001f0: e66e 403e dc6a 5bbe e450 753e cb6c 21be
00000200: 830f b5be 195d dabe 94e3 8d3e bca5 d03d
00000210: b844 0bbe 5905 a5be fb1d f63e 0806 0bbe
00000220: 5ee2 a13e 216a 60be 4f65 ae3e 091c 57bd
00000230: 9d6b debe 179a 60be 4364 cabd 3574 023e
00000240: 6440 233d 5067 e2bc 6089 fabe 7433 babd
00000250: 62d2 fa3e 2147 06bf 3d80 353e 24df 2bbe
00000260: 446b 4d3e fa6f 973e d5ed 45be 7cc2 5a3e
00000270: fc3d 04be 3311 a3bd e554 1a3e ebc8 b83d
00000280: 833a 9dbe 2148 be3e 10a0 eebd b622 6a3e
00000290: cb2a 92be 3be8 0abe a8cc 2a3e 2b5d 923e
000002a0: a3d0 1d3e d9bd b23e 4178 39be 99d4 a73e
000002b0: ef2f 76be b10d 8a3e 3ad7 73be 3ffe 383d
000002c0: 8b4c b0be 2674 d2be ddd6 9abe b2cf 7fbd
000002d0: 6a63 d6bd 4a3c ee3d f918 f23e bcb8 40bd
000002e0: da94 563d 9a81 c2be ff10 923e ce39 3f3e
000002f0: ce18 84be 49e7 67bd 12e0 62bd e2c9 4dbd
00000300: 2f71 5c3e 4bf1 03be 595a ad3c cca1 33be
00000310: fef1 2b3e 9547 d7bb 3e25 c0be 7838 5dbd
00000320: 1326 b6be 3f02 7bbe ac05 a03e 5cb3 83be
00000330: 3528 e03e ff13 713e 94fa bc3e 7bff f33d
00000340: 6b46 d3be 9458 d83d ae1e f1bc c2ed ccbc
00000350: bc6a a2be 5114 363e 087a 4ebe 1607 4a3d
00000360: 1155 12be 3b20 0d3e 80eb 133e f36e 933d
00000370: 4b75 983d 0bf5 103e 6702 14be 683d adbe
00000380: 3c1c 423d 52f4 6fbe 6630 df3c b040 e0bd
00000390: d9ad 8bbe cc09 a73e f09e 3bbe a4ae d5be
000003a0: ab5f 84bd c4a7 29be d401 b4bd a3cd c53d
000003b0: 9f2c bdbe ee96 c23d f1c3 d63c 3b5b 0f3e
000003c0: a0c6 1b3e fafc 2abe 47b4 49be 86c4 1d3f
000003d0: ec79 a2be 82cb 4b3e 120f ee3e ef47 30be
000003e0: d012 d9be 20d2 0abf c500 81bc 095a 99ba
000003f0: 5b98 50be 2594 203e f531 9cbd 7ffe 963d
-0.030202396 0.066213414 -0.23266988 0.33083302 0.31906405 -0.14896053 -0.32530928 -0.32324985
-0.018462943 -0.38108158 0.004486371 0.12056819 -0.1323742 -0.43143272 -0.15955515 -0.07192758
-0.48138505 0.14494252 0.11407746 -0.34212235 -0.35884228 -0.036133036 -0.3745161 -0.18192814
-0.15654396 0.085919626 0.22832268 -0.17482856 -0.3106855 0.09833803 0.29649973 0.06734329
-0.0035135304 -0.10044401 0.18238635 0.3632911 -0.5604398 0.23533502 0.15436114 0.17052118
0.044457328 0.6882775 0.06865054 0.07278257 0.28072673 -0.052590135 -0.18572624 -0.11065025
0.015133837 -0.025607923 -0.06976227 0.052490693 -0.4695007 -0.17779076 0.19957949 0.09673287
0.042821243 -0.5221706 -0.19164667 0.0064939926 -0.027869482 -0.32742944 -0.52512354 -0.25470278
-0.09561278 -0.07374276 -0.38741463 0.053515624 -0.13444927 0.113572106 -0.25937307 -0.44485384
-0.16942897 -0.24187179 0.03340469 -0.19246355 -0.21217838 -0.039721508 -0.041503415 -0.20936033
0.09855325 0.37183538 -0.018238626 0.44416958 0.23042266 0.096097365 -0.022930505 -0.1774989
0.051643487 0.040549155 0.05738974 -0.09767408 0.3110976 -0.34209165 -0.26497155 0.05407259
0.13880718 -0.14359784 0.024873063 -0.10842344 0.06431012 -0.45106968 0.06746542 0.0598077
0.13610923 -0.2718344 -0.26743677 0.24998976 0.1108544 0.11130841 -0.19166481 -0.54074985
0.33319214 0.20590419 -0.38889024 0.044794735 -0.12132044 0.19789834 0.2861805 -0.07438325
0.12994783 0.034975145 0.27705026 0.033511776 0.18792304 -0.21427482 0.23956639 -0.15764157
-0.35363397 -0.42649153 0.2771269 0.10187861 -0.13600433 -0.32230642 0.48069748 -0.1357652
0.31618017 -0.21915485 0.34061667 -0.05251697 -0.43441477 -0.2193378 -0.09882405 0.12739642
0.03985633 -0.027637154 -0.48932934 -0.09091845 0.48988634 -0.52452284 0.177247 -0.1678434
0.2006045 0.2957762 -0.19329007 0.21363252 -0.1291427 -0.07962265 0.15071447 0.09022697
-0.30708703 0.37164405 -0.11651623 0.22864804 -0.28548273 -0.13565151 0.16679633 0.28586707
0.1541162 0.34910467 -0.1811228 0.32779387 -0.24041723 0.2696357 -0.23812571 0.045164343
-0.34433398 -0.4110424 -0.30242053 -0.062453933 -0.104681805 0.11632593 0.47284678 -0.047051176
0.05238805 -0.37989503 0.28528592 0.18674394 -0.25800174 -0.056617055 -0.05538947 -0.05024136
0.21527551 -0.12885015 0.021161245 -0.1754219 0.16791531 -0.0065698125 -0.37528414 -0.05400893
-0.35575923 -0.24512576 0.31254327 -0.25722778 0.43780676 0.23542784 0.36909926 0.119139634
-0.41264662 0.1056377 -0.029433575 -0.025015716 -0.31722057 0.17781188 -0.20163739 0.049323164
-0.14290263 0.13781826 0.14445305 0.07198896 0.07444247 0.14155976 -0.14454041 -0.33835912
0.047390208 -0.23433045 0.027244758 -0.10949838 -0.27281073 0.32624662 -0.18322349 -0.41734803
-0.0646356 -0.16567904 -0.08789411 0.09658363 -0.36948106 0.09501444 0.026216479 0.13999645
0.15212488 -0.16698065 -0.19697677 0.61627996 -0.31733644 0.19901851 0.46495873 -0.1721494
-0.42397165 -0.54226875 -0.015747437 -0.0011699806 -0.20370619 0.15681513 -0.07626716 0.0737276

weight_hh_l0 f4 [192, 64]
00000000: 7f2f e23d ab08 1cbc b6a7 c8bd 0eb7 6e3e
00000010: f4ff 343e 3dd4 5bbe df93 173d 079b 04bd
00000020: 99c6 7cbc ec0f 54be e267 b9be 4cd8 a8be
00000030: f847 b5bb b9b6 dc3b 43ff 1c3d e66e 17be
00000040: 4c35 543e babf 943d ed37 393d b098 50be
00000050: b56d ad3e b4c2 c9bd de95 bf3d d3e2 b63d
00000060: f571 dbbd 2c56 1cbe da4c b83c 2e01 96bd
00000070: 3965 82be 67ae bc3e 71cd fb3d 5daf 1dbe
00000080: ee7e 8a3c 6872 1dbc c9f2 81be 419d 323e
00000090: ec4d 0dbc 6509 19be 75b7 513d a379 6d3e
000000a0: bd20 033f 1817 913d 96d1 cc3d 760a 683e
000000b0: 41be ca3e c1cf 933c 6889 1c3e e83c bfbe
000000c0: f458 813e 652d 30bc 7567 d53d bcb3 afbd
000000d0: b323 b93c 5b2e 9f3e 30ca b7bd 65e8 c83d
000000e0: fd2e 9b3e d6cb 993d cf3b 6cbd bd20 b43e
000000f0: 1ea8 8c3e b0c9 9d3c 3de9 d2bd b212 d63e
00000100: cb49 d6bd 6f7a f73d a34f 473e 6086 e3ba
00000110: a0a2 6f3d d2c3 8cbd 1e5e 3abe bb12 b63e
00000120: 6480 9b3e e55f 773d 524e a03d b38c 03bf
00000130: eafe 78be 119b bcbb bd23 14bc 29e8 8cbe
00000140: add1 d33e ec31 bcbe c94f b83c 1063 8cbe
00000150: 9b9a 263d 1eac 033e c4be a1bd 8bff 0dbf
00000160: 6631 333e 51a8 96bd b0e1 babe 6c72 803e
00000170: 0330 02be dccd d0be 68ff 7abd 6be8 113e
00000180: 29d3 da3c 9b8a aebd f96d c5bd cb15 67be
00000190: 227f 67be 51b5 3b3d a6de 433e 3139 dc3d
000001a0: 7750 023e 44f7 bcbd 7188 e03b f239 7f3e
000001b0: c304 b93e 9384 f2bd eaa6 26be 58c4 b43d
000001c0: 3821 c4be dbfd b63b febf b73c d839 f13d
000001d0: e1ac 2ebe 9fb1 0a3d b3ed c8bd 89e2 bcbe
000001e0: 278a 16be 17be 68be 3e26 783c a373 4e3e
000001f0: f274 153e 93fc 983d cbad 503e 5a2a 1d3e
00000200: 0c23 893e 6abf 553e b4ed 8ebd cf2b 7d3e
00000210: 7ef3 813e a819 92be d647 5e3d 0f93 f93b
00000220: c891 83bc a602 92be 1858 18be a765 07bf
00000230: fce8 dc3c a371 c93d cab2 04bc 6556 ba3d
00000240: 505a f6bd 0a9d 123e ea90 05be 9bc0 63be
00000250: 0e12 2c3e 6ff2 2ebe f80a c9bd 521f 883e
00000260: d80f d9bc b030 193e 67df f03d dd22 5d3e
00000270: 67c1 e63d 776e 9e3e c8f6 893e 9be1 853e
00000280: 0b77 3b3e 5279 0d3e 4eb5 ab3e 9c51 08bd
00000290: a58b 243f cf19 9a3d 22a3 57bd 6a72 37bd
000002a0: e734 99bc 2832 2abf 2db7 a43e 4bb4 9b3d
000002b0: b9e5 81be dbdb ce3d 43d8 0d3e 2dd7 80be
000002c0: a82b 4e3e 32ad 96be 9a82 913d 4726 bcbc
000002d0: c06c 26be 174a b53e 605b babd ed9e f8bc
000002e0: 31ba 1e3f 2bff 65be 42a9 563e 622e 52be
000002f0: 1e07 eb3b 5eb7 ccbc 54ed c33a 2bbb 2bbe
00000300: 02aa 0b3e bef2 a0bd 8b1d 92be 3055 7bbe
00000310: 927b 9f3d 6559 99bd 82b1 443e f7df 21bd
00000320: adc9 12be 2c93 e9bd bbab 88bd 05de 113e
00000330: dde8 113e 7028 4a3d 67a5 0c3d cd39 c93e
00000340: 6d49 f2bd b8f5 9bbc 26e4 32bd 1a08 683e
00000350: 051c 47be fe77 833c 19fc 17be d67e 9abe
00000360: abd9 c03d ce07 c93d 8f3e b33e a28b 40be
00000370: 630c fd3d 7fd3 aabc 53c9 3b3e f036 8ebd
00000380: 19a8 bb3e fd7d a03e 17ab 943e 7334 3bbe
00000390: d71b f4bc 225a 023e 44e8 22be 886f 55bd
000003a0: ef88 01be 0bd9 40be 536f 6a3e 5990 0e3c
000003b0: bc55 e7bb f524 c63d b353 4a3d e4e7 62bd
000003c0: 9261 763e 3183 833d 526e 0abd ae40 d73e
000003d0: 0f5b a7bd 530e fc3d 2b07 22be 46e7 193e
000003e0: 59cc 133e 83e5 763e d949 003e 12a9 17bc
000003f0: 0634 1bbe 6df2 87bd 17b3 60be 0c08 f7bd
0.110442154 -0.009523551 -0.09797613 0.23312017 0.17675763 -0.21467681 0.037006255 -0.032374408
-0.015428209 -0.20709199 -0.3621207 -0.3297752 -0.005532261 0.0067356494 0.038329374 -0.14788398
0.20723456 0.072631314 0.04521935 -0.20370746 0.33872762 -0.0985159 0.09354757 0.08929982
-0.10715095 -0.15267247 0.022497583 -0.07324444 -0.25467852 0.36851808 0.12295044 -0.15398927
0.016906228 -0.009609796 -0.25380543 0.174428 -0.008624535 -0.1494499 0.05120035 0.23190932
0.5122183 0.07084483 0.10000913 0.2266024 0.39598277 0.0180434 0.15286791 -0.37351155
0.25263178 -0.01075301 0.104201235 -0.085792035 0.02260003 0.31090054 -0.08974111 0.09809951
0.30309287 0.07509582 -0.057674225 0.35181227 0.27472013 0.019261211 -0.10298393 0.41811138
-0.10463294 0.12083899 0.19463973 -0.0017358772 0.0585047 -0.06873287 -0.18199965 0.35561165
0.30371392 0.060394187 0.078274384 -0.51386565 -0.24315992 -0.00575579 -0.009041724 -0.27520874
0.41370907 -0.36756837 0.022498982 -0.2741933 0.040674787 0.12858626 -0.07897714 -0.5546805
0.17499313 -0.073563226 -0.3650031 0.25087297 -0.12713628 -0.40782058 -0.06127873 0.14248817
0.026712017 -0.08522531 -0.09640116 -0.22566907 -0.22607091 0.045827214 0.19127902 0.10753096
0.12726007 -0.0922685 0.0068522026 0.24924448 0.36136445 -0.11841693 -0.1627461 0.08826512
-0.38306594 0.005584461 0.022430416 0.11778611 -0.17058136 0.0338608 -0.098109625 -0.36891583
-0.14701138 -0.22728764 0.015145836 0.201613 0.14595392 0.0747005 0.20378797 0.15348187
0.2678455 0.208738 -0.06978932 0.24723743 0.25381082 -0.285352 0.054267727 0.0076164077
-0.016060725 -0.28517646 -0.14877355 -0.52889484 0.026966564 0.098361276 -0.008099267 0.0909851
-0.120289445 0.14317718 -0.13043562 -0.22241442 0.16803762 -0.17084669 -0.09816545 0.26586396
-0.026496813 0.14959979 0.117613606 0.2159533 0.11267357 0.30943653 0.26946092 0.26148686
0.1830713 0.13815811 0.33536762 -0.033280954 0.6427558 0.07524454 -0.05264581 -0.044786848
-0.018701984 -0.6648278 0.32171002 0.076027475 -0.25370577 0.10100528 0.13852029 -0.25164166
0.20133841 -0.29429013 0.071049884 -0.02296747 -0.16252422 0.3540809 -0.0909946 -0.03034922
0.62002856 -0.2246062 0.20963004 -0.20525506 0.0071724793 -0.02498978 0.0014948049 -0.16770618
0.13639072 -0.078587994 -0.28538164 -0.24544215 0.07787241 -0.07487754 0.19208339 -0.03952023
-0.14334746 -0.11405024 -0.0667338 0.1424485 0.14248987 0.04935497 0.034337427 0.3930191
-0.11830411 -0.019038066 -0.04367461 0.2265934 -0.19444282 0.016048428 -0.14842261 -0.30174893
0.09416517 0.09815942 0.35008666 -0.18803266 0.12355878 -0.020852802 0.18338518 -0.06944072
0.36651686 0.3134612 0.2903678 -0.18281727 -0.029798431 0.12729695 -0.15908915 -0.052108318
-0.12649892 -0.18832795 0.2289403 0.008701407 -0.007059781 0.09675018 0.049396228 -0.05539693
0.24060658 0.06421507 -0.033796616 0.42041534 -0.08171665 0.1230742 -0.15823047 0.1502963
0.14433421 0.2411099 0.1252817 -0.009256618 -0.15156564 -0.06638036 -0.21943317 -0.12062082

bias_ih_l0 f4 [192]
00000000: 7010 77bd b07c 823e 0790 d9bb 98ce f43c
00000010: 286f ed3d 8c67 e43d 6751 783e 2f15 be3d
00000020: ee26 633e 0bfe 143c 5a82 193e f953 ccbd
00000030: b9ec b33e 933f 163f 2b19 f23e c824 683d
00000040: 2dfb 263d 8320 753e ade1 bb3d b0aa a2bd
00000050: 9da4 383c 52b1 91bd 5b14 333b d6d9 a63d
00000060: 79f5 213e 9cd4 9c3d 6577 1b3e 6fb3 f93d
00000070: de28 a4bd 2a23 dc3c 85cc 4f3d e637 e63d
00000080: ec83 bb3d 9ca2 0d3e cbb6 4bbd dd2e 983d
00000090: 69c9 803d 9641 823e a24f 313e 56b9 be3b
000000a0: e0fa fd3d e494 2fbc a1cf 7bbd 686f 513e
000000b0: 4bb1 10be 3816 043d 6dd1 5ebd 5266 c43d
000000c0: b576 b03e 66fe 353e 7a5f 403d 670b c9bc
000000d0: fce8 5d3e 1971 423e ce12 2a3e 71c7 dabd
000000e0: d543 24be 6dad 06bd f354 303e 750c 0b3c
000000f0: a4b5 4fbd e96e e13e 7d9a 143e ff34 fd3d
00000100: c609 7ebe c2c2 c0bd ddda 86be b827 633d
00000110: 5ca0 a7be 5950 5a3c 4995 fdbe 7166 d4bd
00000120: 622a 2fbe cb27 2ebc f067 78be 2466 36bc
00000130: 827f 6fbe 5081 b8be 14f4 d0be 9092 183d
00000140: a619 663e 4f80 ebbe 7618 af3e dc41 16be
00000150: d154 0f3d ef66 843e 39e6 44be 873d 2cbe
00000160: 58c9 fa3d cbd1 f2bd cfb6 9a3d a230 32bd
00000170: 60b1 a5bd 80c7 c9bd b3a3 cbbd 21b2 6a3d
00000180: d64f d73c bee5 b6bd 62ca 48be ce0b 8bbe
00000190: 8bc1 efbc f8a2 42be ee3e 29bf 37da cfbd
000001a0: 4866 e73a 6274 97bd 3dd4 87bd dfc3 3dbe
000001b0: 21d4 3d3d 30a0 0ebd a0fe 40be a2a0 a0bd
000001c0: 386b adbe 5a35 dcbc bf46 58bd 3bcc 63bd
000001d0: df53 dabd 7029 64be 11c1 083d ae4a 4d3c
000001e0: 9c0b ce3d 5794 8c3c 1f45 133e 266f 1bbe
000001f0: 0b81 63be a9b0 97be a1b9 31be 2cc4 2ebe
00000200: 82ad c7bd 7e31 a53e ef43 a7bd 6d7f 133d
00000210: c185 41be 5850 80be 0833 a3bd 6c0b 0f3d
00000220: 2bd1 153e d60d 683e de3b cf3d 2504 fd3d
00000230: 0216 5fbe 2a0f c23e 2f22 8f3e 5ff9 1b3d
00000240: 8870 a53d a2ad 0fbe e64d 2bbd 0699 6dbd
00000250: e6c6 6fbe 1666 7a3d 960f d13d fce9 e9bd
00000260: 69ed 3abe 0d88 3f3d fa74 223e c65f c9bc
00000270: b9ee 33bd 14b0 17bd 6d92 353d a48c a9bc
00000280: ae97 0bbd cbba 2a3e 6609 2c3a e728 acbe
00000290: fde2 0a3d 9fb6 76bd caa8 663d 5d43 13be
000002a0: 8d14 573d 6de9 cdbc 952e 1a3d ca2a 8a3e
000002b0: 19ff 7b3d 6219 333c 04fd 353e aa4c bcbd
000002c0: b57f c9bc 626a 0c3e 125e 453d 7dc6 72be
000002d0: 62a8 31be 1169 2b3e 8aea d2bd 37ab 733d
000002e0: cbc7 3b3e 36e6 03be 93bb 893d 50ff 97be
000002f0: a5ad 253d 6c61 503e d5f4 843d ac8e aabc
-0.06031841 0.25485754 -0.006639484 0.029883668 0.11593467 0.111525625 0.24249803 0.09281384
0.22182819 0.009093772 0.14991131 -0.09976954 0.35141543 0.58690757 0.47284827 0.056675702
0.040766884 0.23938183 0.091739036 -0.07942712 0.011269716 -0.07113899 0.0027325365 0.08147018
0.15816297 0.076577395 0.15182264 0.12192427 -0.08015607 0.026872236 0.050732154 0.112411305
0.091560215 0.13831562 -0.04973487 0.074308135 0.06288416 0.25440663 0.17315534 0.0058204336
0.12401366 -0.010716651 -0.061477307 0.20452654 -0.14130132 0.032247752 -0.054398943 0.095898286
0.34465566 0.17772827 0.046966054 -0.02454157 0.21670908 0.18988456 0.16608736 -0.10682572
-0.16041501 -0.032880235 0.17219906 0.008486857 -0.050710335 0.4402993 0.14512058 0.12363624
-0.24808416 -0.09412147 -0.26338854 0.0554578 -0.32739532 0.01332482 -0.49527958 -0.10371102
-0.17106012 -0.010629605 -0.24258399 -0.011132751 -0.23388484 -0.36036158 -0.40811217 0.037249148
0.22470722 -0.4599633 0.3419835 -0.14673561 0.034992997 0.25859782 -0.19228448 -0.16820346
0.122454345 -0.11856421 0.07554399 -0.04350341 -0.08090472 -0.09852505 -0.099433325 0.057298783
0.026283186 -0.089305386 -0.19608453 -0.27157444 -0.029267093 -0.1900748 -0.6611165 -0.10149043
0.0017654384 -0.07395245 -0.06632278 -0.1853175 0.04634488 -0.034820735 -0.18847132 -0.07843138
-0.33870864 -0.026880909 -0.052801844 -0.05561469 -0.106605284 -0.22281432 0.033387247 0.012530012
0.10060808 0.017160578 0.14381836 -0.15179119 -0.22217195 -0.29626969 -0.17355968 -0.17067021
-0.09749891 0.32264322 -0.08167254 0.036010195 -0.1889868 -0.25061297 -0.07968718 0.034923002
0.14630572 0.22661528 0.10118841 0.12354306 -0.21785739 0.37902194 0.27955768 0.038079616
0.08078104 -0.1403108 -0.041822337 -0.058007263 -0.23415717 0.061132513 0.10208051 -0.11421582
-0.18254627 0.046760608 0.15864936 -0.024581801 -0.043928836 -0.037033156 0.044329096 -0.020696945
-0.0340802 0.16672818 0.000656268 -0.33624956 0.03390788 -0.060232755 0.056313314 -0.14381166
0.052509833 -0.02513572 0.03764208 0.2698577 0.061522577 0.010931345 0.17772299 -0.0919431
-0.024597028 0.13712457 0.048185416 -0.2370853 -0.17349389 0.16739298 -0.10298641 0.059489455
0.18337934 -0.12880787 0.0672523 -0.29686975 0.040448803 0.20349663 0.064920105 -0.020819984

bias_hh_l0 f4 [192]
00000000: e1cf f63d 8b69 673e 512f 943c 3836 583d
00000010: 9e12 083e c9c0 983e 17b8 093e 322c 893e
00000020: c419 c73d 905b 313d f78b 103e 1eec 84bd
00000030: d8a2 9f3e 2d66 cd3e d02c ae3e d794 333d
00000040: 7129 1abd b2e8 8d3e ed15 5ebd 19a5 913b
00000050: a028 b3bd 1056 99bc 6295 323e bcb4 213d
00000060: 5c0d a13e 12cc 8b3c 5bd2 26bd 6cc3 a0ba
00000070: 1a84 803d 5380 ca3d 23e7 55bd 38c0 133e
00000080: f273 c23d 6368 c63c 6f13 3a3d 6091 933a
00000090: 1c87 eb3d 23f5 f83d 6d42 483e 91a0 9bbc
000000a0: 812e 0a3e 89bc a33d d2e9 8d3c 04f3 2e3e
000000b0: 9f5a 14be 4b22 db3c 4ef3 0d3d b183 a93c
000000c0: 9047 853e 432e 803e 8bb9 f63d d247 933c
000000d0: bb86 aa3e 28a8 033e 88d9 1d3e 7e32 7c3d
000000e0: 7a03 debd 4161 02bd 64ae d63d c4c5 8ebc
000000f0: 1c9a b8bd 6930 e43e 5eb0 923e 6fe8 503e
00000100: 4e05 3abd d0e4 70be 3f71 9dbe 8862 8bbd
00000110: 318c 42be de2c dcbd d053 99be 6447 2fbe
00000120: db9b 9dbe d8ba b4bd 3227 c0bd 68b3 7f3d
00000130: f195 16be 7956 c2be 1014 f2be e6d2 06be
00000140: d435 033e 2612 08bf 0785 aa3e 8773 583d
00000150: 83b5 fcbd 5645 753e 18ce 88be 9910 56be
00000160: 0e21 c03c 650c 4bbe 6a65 6bbd b209 5bbe
00000170: 5018 febd 4599 8ebd d72a 07bd c889 253d
00000180: d69c 923d 488e 9dbb 6c75 40be 7a3e c9be
00000190: 9019 b03d 4879 f7bc 4a10 3cbf 31c3 ebbd
000001a0: 8e2c 523d 0bc2 20be 9891 613d 3fa8 ccbc
000001b0: 7066 9b3d b7b4 be3d e97b afbd 9427 7dbe
000001c0: 38c3 12bf 2aba 49bc dded a5bd 6a1c 89bd
000001d0: 4d28 81be b650 adbe 759b 76bd 7d6d 2d3c
000001e0: eb46 a1bd b3bc ffbc 7424 453e 6c97 0bbe
000001f0: 44a5 17be cba4 fbbe 4874 49be ddea 63be
00000200: c6d8 2d3c c609 a33e e20a 3b3e 6da4 d13d
00000210: 96b1 91be db57 a1be fb54 c83d c53c 853d
00000220: 24df c73e 343b bc3d 1c45 fc3d 1fae bbbe
00000230: 3a76 d9be 701a 123f a331 bd3e bc05 203e
00000240: 2f5b 483d c8fb ecbe 6c5c 293e 7dc5 073e
00000250: a526 9ebe f196 0e3e 14e5 803e bce7 82bd
00000260: 4158 7fbe 8874 af3e 56f6 843e b6ab 4d3e
00000270: ce8a 92bd c032 ad3d 7cce a73e 0b0d 863d
00000280: e648 4f3e 6077 763e 868a 263e 65bb a0be
00000290: bfc2 fa3d 5b7d a6be 7b13 ca3e 9d0c 34be
000002a0: ec9f 0c3f 5c90 14bd 4e9f 0d3e 65e4 333e
000002b0: 6edf d33d da7c c73d f42f 883e 3700 77be
000002c0: 9efb a6be aa5e fe3e f434 c2bd 23d3 87be
000002d0: 516a 19bf 862b b2bd 0a33 40be 8f09 d9bd
000002e0: 48c6 9fbc c0e6 b5be 5fe8 06be 832c b63b
000002f0: 712b 61be 42d5 de3e 6f92 533d be4c 92bd
0.120513685 0.22598855 0.018088968 0.052786082 0.13288352 0.29834583 0.13449131 0.2679153
0.09721711 0.04330021 0.14115892 -0.06490348 0.31178927 0.40117016 0.34018564 0.043843117
-0.037637178 0.27716595 -0.05422013 0.00444473 -0.08747983 -0.018717796 0.17439798 0.039479002
0.31455505 0.017065082 -0.040727954 -0.0012265272 0.062751964 0.09887757 -0.052222382 0.14428794
0.09494771 0.024219697 0.04542869 0.0011258535 0.115003794 0.12156131 0.1955659 -0.018997462
0.13494302 0.079949446 0.017323408 0.1708489 -0.14487694 0.02674975 0.03465586 0.020692678
0.2603116 0.25035295 0.12047108 0.017978583 0.33305916 0.12857115 0.15415013 0.06157159
-0.10840507 -0.03183103 0.10482481 -0.017428286 -0.09013769 0.44568184 0.28650182 0.20401166
-0.045415215 -0.23524785 -0.30750462 -0.06805903 -0.18998791 -0.10750745 -0.29946756 -0.17117077
-0.3078297 -0.088247 -0.09382476 0.062426955 -0.14705636 -0.37956598 -0.4728093 -0.13166389
0.12813503 -0.5315269 0.33304617 0.05284455 -0.12339308 0.23952231 -0.26719737 -0.20904769
0.023453262 -0.19828947 -0.057469763 -0.21390417 -0.12406981 -0.069628276 -0.03299984 0.0404146
0.0715882 -0.004808221 -0.18794793 -0.39305478 0.08598626 -0.030209199 -0.73462355 -0.11511839
0.051312022 -0.15699022 0.05507049 -0.02498257 0.07587898 0.09311812 -0.08568556 -0.24722129
-0.5732913 -0.012312451 -0.081020094 -0.06694873 -0.2522606 -0.3385064 -0.06020685 0.010585186
-0.07874855 -0.031217908 0.19252187 -0.13631982 -0.14809138 -0.49149165 -0.19673264 -0.22257562
0.010610765 0.31843394 0.1826587 0.1023644 -0.284558 -0.3151234 0.09781834 0.065057315
0.3903743 0.091909796 0.12317869 -0.3665628 -0.42473012 0.5707159 0.36951932 0.15627187
0.048915084 -0.46285844 0.16539162 0.1325893 -0.30888858 0.13924767 0.25174773 -0.06391856
-0.2493601 0.34268594 0.2596919 0.20085034 -0.07155381 0.084569454 0.32774723 0.065454565
0.20242652 0.24068975 0.1626378 -0.3139297 0.12244176 -0.32517514 0.39467987 -0.17582937
0.5493152 -0.036270484 0.13830301 0.17567594 0.1034535 0.097406104 0.26599085 -0.24121176
-0.32613844 0.49681598 -0.09482756 -0.26528272 -0.5992785 -0.08699708 -0.1876947 -0.10597526
-0.019503728 -0.3552761 -0.1317458 0.0055595054 -0.21989228 0.43522078 0.05165332 -0.07143544

weight_ih_l1 f4 [192, 64]
00000000: 3a16 203e b648 96be eae3 0d3e da22 5bbe
00000010: 276b 1c3e 562c bd3d 2fa1 613d a876 b4bd
00000020: fb0c 84bd 00f0 c03d 6b7f 96be 5e12 273e
00000030: bd27 fcbc 8839 5cbe 9677 333b b609 b03c
00000040: d301 1f3e 8a2d 1c3e caa2 5b3d 967d 17bb
00000050: 854a c53c 27ff 943e 1ebb 273d 9b38 233e
00000060: 0976 6ebe 7c2a 8fbe 010d 60bd 012b bcbc
00000070: 0f37 ed3b 2a50 92bd a491 323e c6af a83c
00000080: 3cb8 b23c db18 5b3e ebb3 16be 5991 fa3d
00000090: 83a2 c1bd 8bce 203e 7196 18be c69b 95bd
000000a0: f8e9 f3be 4ac5 e4bd 20ee c6bd 38ee 29be
000000b0: ced6 fe3d 7d7e b2bd 1518 96bd e9fb e63e
000000c0: 2acc 973e 6ed7 a8bd c753 213e d129 a43d
000000d0: 42b8 8a3e cf96 23be 5275 aa3d 1b81 e0bd
000000e0: 1600 8cbe 166c 92bc 7412 963e b65c 2fbe
000000f0: 0c02 27be 6fc5 95be 4e88 de3d 0a1d 873e
00000100: ae7a f13c d28a 12bc aaf3 f43e 7a75 743d
00000110: 7c75 52be a5b1 873e 15a4 bebe 7b07 223c
00000120: e65f ecbd 7cdc 133f e08f 2fbe 826d 3b3e
00000130: 77c2 dabc c7ec 1b3e 3192 0c3d b695 4a3c
00000140: 68b6 f33d 60a7 0dbd aad2 28bd 93ac 283b
00000150: ad4f 5f3d bf43 0ebe c81a 623e 291f c13e
00000160: 466c fabd 4d12 73bc 2898 84bd fd4b 05bc
00000170: 971e 5c3d 2795 c7bd ba8c 93bd 0500 50bd
00000180: c81f 57bd afb4 e53e 47e3 70be 2a30 ff3c
00000190: 6725 163e 3c2b 89bd 3385 253e 4614 83be
000001a0: 9fe7 55be 9dd8 8e3c db8b 26be 15b1 62be
000001b0: 3948 88be 23d2 bfbd d4b1 d73d 673b ab3e
000001c0: cd8c 2bbe f725 62bd e2e1 2dbe 61b2 2b3d
000001d0: 42cb 713d 9616 7bbe 78b5 793e f0fe f53e
000001e0: 37bf 913d e5c7 1d3d 0e57 c6be 9d9f 243e
000001f0: 969b 94be f08b 3e3d 30a1 163e 264e acbd
00000200: e6c0 0a3e bea8 e8bd 3ae9 20bd 8a34 d7bd
00000210: 94fe cfbb e902 223e c21d 233e 25b5 07be
00000220: d2b1 82bd 29b4 4d3d 7433 433d 727f 963d
00000230: cd93 d63d 68d2 e83c 5b12 293d 63f8 ab3e
00000240: fde2 42be 7806 ddbc 5bca 7b3d 250c e23d
00000250: dd17 53be 9854 6f3d 9e7d 8abe a63a 413e
00000260: cbdb ec3c b27c ca3d 413f a73e bf9f f2bc
00000270: 1bba 76be 88ae 8ebd c2f0 0a3e 7305 c63d
00000280: 635f 10bd 6ff6 f6bd d50f 02be ec84 903d
00000290: ea38 533e f5f0 453d c374 c5bd fd80 8d3e
000002a0: b536 333b 05a0 38be 178f 87bd 86fb c83e
000002b0: f82f 953d 7d5f 0fbe 3b75 23be bada d1bd
000002c0: c0f3 1fbd 4dbc 943e 2b7d 983d a626 543e
000002d0: 1230 b43d 65df 943c 64bc 99bd 562e 283e
000002e0: a2aa da3d 0c19 3f3e af27 21bd 5f3f 48bc
000002f0: c37d b4bd 78ee 233d 3c8a c03d c0e7 f9bd
00000300: 3c21 863d 27a8 3cbc 20cc bdbc 1718 413e
00000310: d035 bfbd 4384 783e 65b1 133e e092 a9bd
00000320: 89cb dd3c c257 d9bd e9e4 a13d e2f9 06bd
00000330: e0c4 acbc dda0 9e3d 1e46 273a a66b fd3c
00000340: a90c 39be a8c4 423d e588 f3be 44e2 173e
00000350: 8a36 25be 7667 00ba f131 b6be 101a cb3e
00000360: c6d0 a4bd 86a9 4d3e dd48 5fbe 7626 45be
00000370: 36c6 b9bd c38a 92be 2fd9 3dbe c8f5 e6bd
00000380: 7c0b 3cbe 8e90 443c 976f c13c 3536 95be
00000390: e5bd c0bd d8f2 9a3e c557 86bd 4b63 acbe
000003a0: 1e56 433b 88b3 6fbd 994a f7bc 8f3c dcbd
000003b0: 62a5 2fbe ed89 5abd d950 313e dd97 58be
000003c0: 7945 e13d 8dbb d93d 266d 483e ffa2 9c3c
000003d0: 791c 8bbc 0f89 f1ba 66bc 2f3e 8269 d43d
000003e0: 5e8d c4bd 18ba 4abe 5404 4cbe 910f 18be
000003f0: 2221 2a3d 895b 2bbe b007 513d b6b9 e83d
0.15633479 -0.2935235 0.13856474 -0.21400014 0.1527525 0.09236972 0.055085357 -0.088116944
-0.06447788 0.09420776 -0.29394087 0.163156 -0.030780667 -0.21506321 0.0027384511 0.021489006
0.1552804 0.15251747 0.053622045 -0.0023115627 0.024083385 0.29100916 0.040949933 0.15939562
-0.23287214 -0.279621 -0.0546999 -0.022969725 0.0072392295 -0.07144196 0.1743837 0.020591628
0.021816365 0.213962 -0.14717071 0.12234754 -0.09454825 0.1570379 -0.14901139 -0.07305102
-0.47639441 -0.111704424 -0.097133875 -0.1659478 0.124433145 -0.08715532 -0.07328812 0.45114067
0.29647952 -0.08244215 0.15754615 0.08015788 0.27093703 -0.15975498 0.08323158 -0.10962125
-0.27343816 -0.017873805 0.29310954 -0.1712521 -0.16309375 -0.29252192 0.10865842 0.26389343
0.029477444 -0.00894423 0.4784215 0.059682347 -0.20552629 0.2650272 -0.3723456 0.009889479
-0.11541729 0.5775831 -0.17144728 0.18303493 -0.026704056 0.15227042 0.034319106 0.012364795
0.119000256 -0.03458345 -0.04121653 0.0025737628 0.054519344 -0.1389303 0.22080529 0.37719086
-0.12227683 -0.014835906 -0.06474334 -0.008135793 0.05374011 -0.097452454 -0.07204576 -0.05078127
-0.052520543 0.44864413 -0.235242 0.031150896 0.14662705 -0.066976994 0.16164093 -0.25601405
-0.20889138 0.017437274 -0.16264288 -0.22137864 -0.26617602 -0.09366252 0.10531965 0.33443758
-0.1675293 -0.055211987 -0.16980699 0.041918162 0.059031732 -0.24520335 0.24385631 0.48046064
0.071165495 0.038520712 -0.38738292 0.16076513 -0.29024953 0.046520174 0.14709926 -0.08413343
0.13550147 -0.1136031 -0.039284922 -0.10508068 -0.0063474867 0.15821423 0.1592932 -0.13252695
-0.06381573 0.050220642 0.04765649 0.07348527 0.104774095 0.028420642 0.04127727 0.33587942
-0.19031902 -0.026980624 0.061472278 0.11037473 -0.20614572 0.058430284 -0.27048963 0.18870029
0.0289134 0.09887065 0.32665446 -0.029617188 -0.24094431 -0.06966883 0.13568404 0.09669008
-0.035247218 -0.12058722 -0.12701352 0.07056603 0.2062718 0.048325498 -0.09641411 0.27637473
0.002734584 -0.18029793 -0.06619089 0.39254397 0.0728454 -0.1400127 -0.15962689 -0.10246797
-0.039050817 0.29049912 0.07445749 0.20717868 0.08798231 0.018172929 -0.07506636 0.16423926
0.10677077 0.18661898 -0.039344486 -0.01222214 -0.0881305 0.040022343 0.09401366 -0.12202406
0.06549308 -0.0115147 -0.023168623 0.18856846 -0.09336436 0.24269204 0.1442314 -0.08279967
0.027074592 -0.106124416 0.07904989 -0.03295315 -0.021089971 0.07745526 0.00063809927 0.03093512
-0.18071236 0.047550827 -0.4756538 0.14832407 -0.16134086 -0.00048982294 -0.35584977 0.39668322
-0.08047633 0.200842 -0.21805139 -0.19252953 -0.09071009 -0.28621492 -0.1853988 -0.11277348
-0.18363756 0.011997355 0.02361278 -0.2914292 -0.094112195 0.302634 -0.065597095 -0.33669505
0.0029805969 -0.058520824 -0.030186938 -0.10753738 -0.17152932 -0.053354193 0.17315997 -0.21151681
0.10999579 0.106314756 0.19572887 0.019120691 -0.01698135 -0.0018427687 0.17161712 0.103716865
-0.09597276 -0.19797552 -0.19923526 -0.14849688 0.041535504 -0.16734137 0.051032722 0.113635466

weight_hh_l1 f4 [192, 64]
00000000: 5bae 353d 7545 193c e055 85be a49f 243e
00000010: 8b18 323e 4c7c 0bbd 1270 5f3d 0914 123d
00000020: db24 c83e 7024 313e b088 f63d c189 29be
00000030: ff4a 82bc 9e38 493e 5179 a4be 454e 043d
00000040: 9c68 86be ab12 bf3e 352e 88bd cf95 d83d
00000050: cd10 1c3e bc63 f63d 76ed 733e bbab c33d
00000060: 8032 17be 637c 183e c782 993e 445d 8fbd
00000070: 3818 583d a376 96be 05cd f33d 0328 623d
00000080: a33b 173d b16e c23e 1b88 3f3d 7e25 71bc
00000090: 4aa0 bb3e d144 ce3c bfc6 05be fc55 e93d
000000a0: 076a bf3d 71b4 e4bd a106 fb3d 9eb7 0dbe
000000b0: b068 bdbe 1db3 d83d dda8 a0bd 5700 763c
000000c0: 4233 133e 0165 f8bc 834f fdbd e6cd 2cbd
000000d0: e1a9 dbbd 45aa ba3d 1be8 e4bd 26b7 b03d
000000e0: f055 943e 7ef9 103d c5e6 60bd ba58 a33e
000000f0: a2a7 86bd 3af4 c2bd f802 603e ff0a 213d
00000100: 310c 60bd 2fb2 1f3e 88b6 9abe 8c91 2a3e
00000110: 30c4 be3e e075 313d 773e db3d e036 d6bc
00000120: a599 d13d efba e93d 85e7 6d3e 5e1f e73d
00000130: cab2 f7bc 0e7f d03d d8ab adbe 8e3d 4ebe
00000140: edbf ba3d 2308 333e 6bfe c0bd 2097 4d3e
00000150: cb17 1d3e 4e1d 023d 50cd d3bd 3f19 813e
00000160: c4e9 3dbe a0ca e3bc 1a66 9d3e a986 c83d
00000170: 5278 08be e840 79bd 46e4 643d 06f9 a6bd
00000180: 3146 da3d 80a2 893e 6f14 89bd 6213 5ebd
00000190: 99c8 a03e b058 ca3c d8d3 78bd aadc 2e3d
000001a0: e9c0 c03b 9508 38bd b00e 7e3d 6667 403e
000001b0: 3e28 64be 362a 16be d62c 70bc 8ec1 963c
000001c0: a619 fc3d 0680 f03b 73aa 58be c79d a53d
000001d0: 3b83 9abe 118a fc3d abd0 0dbd ae34 383f
000001e0: e362 dc3e d46f 443e c120 ae3d 267d b53d
000001f0: 8d96 7bbe ae31 c0be 57e7 9c3e 89ea acbd
00000200: 43b0 1abd 9f71 dd3d f79e dc3d a57e ac3d
00000210: 87f0 103e f911 203e 63ba ef3d ec07 28bd
00000220: a70d 443d eda9 a9bc e0b1 233e f0a9 4fbc
00000230: 1cca f1bd 892f 693d 6a56 15be ed6e 96bd
00000240: db0c 79bb cbb9 8f3e d276 afbd 81df ecbc
00000250: b167 5d3e 9981 87be 22fa bdbd fdbe ed3d
00000260: 171c 67bd f0cb 053e f808 8dbe ca4f e23d
00000270: 6d2c 87bd f8cc 213e 7b2b 28bd d24d 13be
00000280: b1c7 023d 8d65 3b3e a2c9 263e abb5 79bd
00000290: 562c 263d 1dee 1b3e 5d27 54be 81f2 213e
000002a0: a78e 6dbe 5c46 423c 6002 aa3d e0a1 c93e
000002b0: 4b21 ab3d c10d fdbd 12f3 2ebe 141a 8fbc
000002c0: 31d5 433e b124 4cbd 09ac 55bd aa4e f13c
000002d0: 18c2 fc3c 9f0e 533d 11ca 0a3e bb3b ab3e
000002e0: 1ef4 243e 9244 89bd 7e9e 313e 9ea2 013e
000002f0: c1eb 55be dd41 99bd 9fd2 21be 19fd 64bd
00000300: f59b 7ebe 5f08 d43c c6bb 7cbd 1c33 5d3e
00000310: 213a 573e e8fe 3d3e 5976 3d3c a72a ebbd
00000320: 33c4 5c3d 3292 76be 83be 703d 13f4 4d3e
00000330: 65e5 87be 5892 853e 00db 80be 746d d3bd
00000340: 1bb2 05be 7e62 523d 3c03 51be 3f89 623c
00000350: 1348 903e 9d55 b73d 9845 24be ec31 ce3d
00000360: 9b34 c7bd 61ac ebbd 1139 fdbd 8990 9abb
00000370: 08b8 2dbd ced6 b73e eeec d93d aabe 97bd
00000380: 04a2 fa3d 5099 cdbd 6866 a43c d1cb 14be
00000390: 28c1 eebd 510b e13d 3a63 6cbd 6701 433e
000003a0: f373 09be 735f 96be 10c6 453e ad44 5abe
000003b0: e0f3 4dbd 76aa fabd d8af 2ebe 5f07 943d
000003c0: 2694 423d 1c0c 453e 4aab 6bbe c003 a0bb
000003d0: 7807 79be e2ac 8a3c ccea 57bc a278 843e
000003e0: 8329 f1bd bc0a f43d a150 293d 3eef c13c
000003f0: 1d72 82be 947a 6cbe 18eb 6d3d 3fa6 3bbe
0.04435573 0.009354939 -0.2604208 0.16076523 0.17392175 -0.034054086 0.054550238 0.03566364
0.39090618 0.17299056 0.1203779 -0.16556455 -0.015904902 0.19650504 -0.32123807 0.032301206
-0.26251686 0.3731893 -0.06649438 0.10575449 0.15240784 0.120307416 0.23821053 0.09554239
-0.14765358 0.148912 0.29982588 -0.07000211 0.05275747 -0.29387388 0.11904339 0.05521394
0.03692211 0.37975076 0.04676066 -0.0147184115 0.36645728 0.025179299 -0.13064097 0.11393353
0.09346395 -0.11167229 0.12257124 -0.13839576 -0.36993933 0.10581038 -0.07844708 0.015014729
0.14375022 -0.0303216 -0.12368681 -0.042188548 -0.10725761 0.091145076 -0.11177083 0.08628683
0.28971815 0.035394184 -0.05490758 0.3190363 -0.06574942 -0.09519239 0.21876132 0.039317127
-0.054699127 0.15595315 -0.30217385 0.16657084 0.37259054 0.043325305 0.107052736 -0.026149213
0.102343835 0.11412608 0.23232849 0.1128528 -0.03023662 0.10180484 -0.3392017 -0.20140669
0.09118638 0.17483573 -0.094235264 0.20077181 0.15341108 0.03176623 -0.103418946 0.25214574
-0.18546206 -0.02780658 0.3074196 0.097913094 -0.13327149 -0.060852915 0.05588176 -0.08152966
0.10657919 0.2688179 -0.066933505 -0.054217704 0.31403044 0.024700493 -0.060748905 0.04269091
0.0058823717 -0.04493006 0.062025726 0.18789443 -0.22280976 -0.1466454 -0.014659127 0.018402841
0.123095796 0.0073394803 -0.21158771 0.08086734 -0.30178246 0.123310216 -0.03462283 0.7195538
0.43044195 0.19183284 0.08502341 0.08861761 -0.2456915 -0.37537903 0.30645248 -0.084431715
-0.037765753 0.10812687 0.10772508 0.08422593 0.14154254 0.15631856 0.11705472 -0.04102318
0.047864582 -0.02071091 0.15985823 -0.012674794 -0.118061274 0.0569301 -0.14583746 -0.07345376
-0.0038002047 0.28071436 -0.08567585 -0.028915169 0.21621586 -0.26466063 -0.09276225 0.11608694
-0.056423273 0.13066077 -0.27545905 0.11050375 -0.066002704 0.15800846 -0.04105709 -0.14385155
0.03192872 0.18300457 0.16287854 -0.060964268 0.040569626 0.15227552 -0.20718141 0.15815164
-0.23198949 0.011857595 0.08301234 0.39381313 0.083559595 -0.12356139 -0.17084911 -0.01746849
0.19124295 -0.04983968 -0.05216602 0.029456455 0.03085427 0.051527616 0.13553645 0.33444008
0.16108748 -0.06702532 0.17345616 0.1265969 -0.20890714 -0.074832655 -0.15803002 -0.055905435
-0.2486418 0.025882898 -0.061702512 0.21601528 0.21018268 0.1855427 0.011563861 -0.11482745
0.053898048 -0.24079207 0.058775436 0.20112638 -0.26542202 0.26088214 -0.25167084 -0.10323611
-0.13056223 0.05136346 -0.2041139 0.013826667 0.28179988 0.08951876 -0.16042173 0.100681156
-0.097268306 -0.11507488 -0.123644 -0.004716937 -0.042411834 0.3590607 0.10640894 -0.07409413
0.12237933 -0.10039008 0.020068362 -0.14530875 -0.116579354 0.109884866 -0.057711817 0.19043504
-0.13423137 -0.29369697 0.19313836 -0.2131526 -0.050281405 -0.12239544 -0.17059267 0.072279684
0.047504567 0.192429 -0.2301456 -0.0048832595 -0.24319255 0.01692814 -0.0131785385 0.25873286
-0.11775496 0.1191611 0.04133666 0.02367365 -0.25477687 -0.23093635 0.05808553 -0.18325137

bias_ih_l1 f4 [192]
00000000: 0bf7 b2bd 9fad ef3d 1e5b e9bd 603c 8c3c
00000010: a187 d4bd 79a0 993c 4148 7a3e 34ca 083e
00000020: 560f 5d3d 0681 06be 76f8 30bd e302 9bbc
00000030: 3070 103e 2405 53bd bf16 24be b5d4 433c
00000040: 7bea 753d 5773 25be 6c71 30bd 8680 433d
00000050: aebd bebc 6713 033b ed01 39bd b355 adbd
00000060: 1838 133e f27d debd e443 35be a5c8 8c3e
00000070: 37e2 05be b61c 0abd a551 2c3d 2179 5cbd
00000080: 2acd a93e f441 1a3d 02db 46bd f7a8 853e
00000090: 2b66 2ebe 1fe1 4c3e 6a9a b23e 335c 983e
000000a0: 975a aa3d 62f0 553e 8cda 063e e961 9bbd
000000b0: e3ea 5f3d 040a 383d 535e eebd 41a2 1a3e
000000c0: 5afc 063e 142e c23d b895 503e ecf0 843e
000000d0: 01df 33bd 422b 7a3e 2357 513d 8843 973d
000000e0: dd6b 3bbc 1edd 9e3d 919b ad3d 88be b9bd
000000f0: 1246 423d dac1 643d 5c5b f2bd 796e 71bd
00000100: 1aa4 83bd 32c2 8ebe 9add 443e e1b3 3cbe
00000110: 0606 75be 9d56 90bd b7c8 0bbe b9cb b8bd
00000120: b38a b9be e1be dc3d 78be 72be f7f9 ec3c
00000130: a06d 1a3c cad0 453e cb89 153b a9ce 16be
00000140: 667a 8ebe a3d1 87bb 5913 b43d 0642 71be
00000150: 7cb3 a2bd 0a9d babc 7231 5cbc a905 1bbe
00000160: ec1d 1ebe 8983 633d e715 83be 5db7 9abe
00000170: 1d63 13bc 5186 c43d 447f 97bb 5c94 d5bd
00000180: ece3 3bbf c968 74bc 0904 d4bd 8eee 91be
00000190: d839 d53d cb1d 40be fdc8 64be b428 81be
000001a0: 8293 723d e332 64be 312c 08bf a31a 25be
000001b0: 38ed 21be 85a8 8c3c 8e7a 7a3c de33 c2bb
000001c0: aa7a 15bd 2d2a 14be 6470 cdbd 2de8 243b
000001d0: 8a6f 1bbe 7a39 a63c 3e15 f2bd 992d 08be
000001e0: 04d2 083e 2e84 08be d3b7 6fbd 1b65 fbba
000001f0: 0324 94be beaf bdbe a7c7 0ebe 7618 f339
00000200: abce 2fbe 4925 35be 8035 c93d baaa 77bd
00000210: 4511 ccbd c1c7 19be 052a 0cbe f0f6 a4bc
00000220: d3cd 313d f32d a93d 82fa 87be f147 12be
00000230: 11ed 653d 2527 063d 5708 e8bd 4a3c f63d
00000240: 869b 623d d803 893e 44a4 19bd 0cc9 00be
00000250: c4d8 763d 85db 2fbe 3137 a43d 41d4 05bd
00000260: a476 1d3e 90b3 20bc 123f ffbd 3938 7abe
00000270: 01e8 633e 0886 0fbe 91cd 56be b689 243d
00000280: 4a71 bfbe 878d 8dbc 9b7d 513d 6327 1b3e
00000290: 23ca f4bd 9242 39be 31a8 683e 48d6 81be
000002a0: dcee e5bd 9c43 3f3e 8dd0 6dbe 3241 ec3b
000002b0: c300 283e 3853 be3c ad14 1f3e df0b 53be
000002c0: 3b44 19be 015b 3abd 007a 603d fa2f 22be
000002d0: 3c56 893d 7c90 aebd c54b fa3d b895 62bd
000002e0: b1c1 423c 5b6d acbe 5874 253e 5eed c9bc
000002f0: b0d1 0d3e a13b e1bc 28ca 0cbd 415e 2f3e
-0.08738526 0.117030375 -0.11394332 0.017118633 -0.10377432 0.018753277 0.24441625 0.13358384
0.053969704 -0.13135156 -0.0432057 -0.018922275 0.14105296 -0.051518574 -0.16024302 0.011952569
0.06003807 -0.1615728 -0.043076918 0.04772999 -0.023283806 0.0020000578 -0.045167852 -0.084636115
0.14376867 -0.10863866 -0.1770168 0.2749683 -0.13074575 -0.033718787 0.04207005 -0.053826455
0.3316434 0.037660554 -0.048548706 0.26105472 -0.17031161 0.20007752 0.34883434 0.29757842
0.0831806 0.2089248 0.13169307 -0.07587034 0.054667365 0.044931427 -0.11639085 0.15100957
0.13182202 0.09481445 0.20369613 0.2596506 -0.043913845 0.24430564 0.05110849 0.073859274
-0.011439291 0.077570185 0.084769376 -0.09069544 0.047430106 0.055848934 -0.11833832 -0.058943246
-0.06427784 -0.27882534 0.1922516 -0.18427993 -0.23928079 -0.0704777 -0.13650785 -0.09023232
-0.36238632 0.10778595 -0.2370547 0.028927786 0.009425551 0.19317928 0.0022817727 -0.14727272
-0.27827758 -0.0041448637 0.08792753 -0.23560342 -0.0794439 -0.02277996 -0.013439523 -0.15138878
-0.15441102 0.055545364 -0.25602648 -0.3021802 -0.008995798 0.09595931 -0.0046233255 -0.10428688
-0.73394656 -0.014917561 -0.10352332 -0.28502315 0.104114234 -0.18761365 -0.22342296 -0.25226367
0.059222706 -0.22285037 -0.5319243 -0.16123442 -0.15813148 0.0171702 0.015288008 -0.005926593
-0.036493935 -0.14469214 -0.100312024 0.0025162802 -0.15179268 0.020291079 -0.11820458 -0.13298644
0.13361365 -0.13331673 -0.058524918 -0.0019179912 -0.28933725 -0.37048143 -0.13943349 0.00046366797
-0.17168681 -0.17690004 0.098246574 -0.060465552 -0.099642314 -0.15017606 -0.13687904 -0.02013728
0.04340918 0.08260717 -0.2655831 -0.14285256 0.056134287 0.032752175 -0.11329716 0.12023218
0.0553241 0.26760745 -0.03751017 -0.12576693 0.060265318 -0.17173584 0.080183394 -0.032673124
0.15377289 -0.009808436 -0.124632016 -0.2443551 0.22256471 -0.14015973 -0.20976855 0.040170394
-0.3739112 -0.0172794 0.051145177 0.15151744 -0.11952617 -0.18091801 0.2272041 -0.25358796
-0.112271994 0.18678135 -0.23224087 0.0072099203 0.1640654 0.023233041 0.15535231 -0.20609997
-0.14967434 -0.045496944 0.05480385 -0.15838614 0.06705901 -0.08523652 0.12221483 -0.055318564
0.011887 -0.33677182 0.16157663 -0.024649318 0.1384952 -0.027494254 -0.03437248 0.17125799

bias_hh_l1 f4 [192]
00000000: a00a 313d c079 7c3e de06 edbd 0548 ee3d
00000010: d00e 01be c0a2 e7bd 1fa2 803e ea32 1d3c
00000020: 3c98 243d 1afd 763c a5d1 c3bd 0e76 2cbd
00000030: 9f89 563d 4038 6fbe 7612 50bd 721a e13d
00000040: 6784 453e 34d4 b1bd 6893 39bc d2b8 8d3d
00000050: 08cb 05be c746 923c fa8b b3bd c042 03bc
00000060: ad1f d53d d569 71bd 2a2d d6bd f31e 313e
00000070: 7fbd debd c189 133e 6bf9 2abc 621f 983d
00000080: 00a3 993e 7c78 3d3d 963c 67be b978 d23d
00000090: c0de 3cbe 1b38 333e 4b02 2f3e 7bc3 d13d
000000a0: bd32 373d d85e 213e 540e 8e3e 174d d0bd
000000b0: 1428 b2bc 250d 0abc 36f9 4fbd b163 6c3e
000000c0: 9ff0 ae3d 6a96 143e c114 db3d 5179 6b3e
000000d0: 98a4 46bd 1e92 e33d 5ae4 ef3c eaa6 0b3e
000000e0: e346 20bc 0767 2b3e 9d26 0a3e e82c 71bd
000000f0: 52fa aabd ef65 6b3e 2300 cabd 0a92 d93d
00000100: 52b3 ad3c 444c 8abe 7379 3a3e ee29 83bd
00000110: a63e a9bd 9c37 603d f8a9 7abe 2dba be3c
00000120: e32a a3be 7d1a a7bd 7e21 85be 2cf5 923c
00000130: 0e55 e63c 4734 f33d 55a3 bebb d5b6 28be
00000140: ceeb 8ebe aa74 ab3c 33f6 88bd 057a 9cbe
00000150: f60a a1bb 3a18 14be 2daa 2c3e 6a06 dabd
00000160: 4ad2 19be 8176 2f3a 8ea1 88be c052 89be
00000170: b2af 38bd 2216 323d 5d63 a73d 3d66 bc3c
00000180: 5a53 46bf e146 9bbd ba97 9a3d 507d bcbe
00000190: d3a8 2d3e 7e32 c4bd 2a6c 4fbd 0936 4bbe
000001a0: f2aa 723b c142 c4be f792 f1be a928 d7bd
000001b0: 6b9a 35be 3976 68bd 4dca c73c 2164 09bd
000001c0: 3784 25be bf50 12be 6152 9dbd 5c34 3cbe
000001d0: d4d4 43be f005 adbc 1ad7 a73b f314 8cbd
000001e0: 3ef7 a6bd 3302 34be 6b22 1e3d 9491 cdbd
000001f0: 80c2 cdbe c288 8dbe 83f5 20be 2b2e 34bd
00000200: 72d5 03be e9f8 e1be 7dcc fa3d c495 c3be
00000210: 3ae9 41be 6453 a13c 39ab 96be be95 923e
00000220: d71b 15be 4025 f23c 35ae 46be c358 b5bd
00000230: d8eb d6bc 857d 673d ca0f 96bd a55b 313e
00000240: e7f0 7ebe af74 383d 6b40 1f3e 4345 e4be
00000250: 7000 73bd dbc0 4a3a 18dd d13d 3635 3d3c
00000260: 8803 3b3e e0b2 393d 28bb 0bbe bcc2 55be
00000270: 6748 163d 8e0e 74be 2f0e 8ebd a895 26be
00000280: f0d8 d9be b56b 07be 692e c53c 2988 aa3e
00000290: ae8d b1bd 75bb 92be 05d4 8d3e 6875 94be
000002a0: d6a5 fa3d 52de 183f af37 cdbe 4491 033d
000002b0: 2adf 663d 52b4 2d3e e60c 4ebc 523b 8fbe
000002c0: ae9d 92be 92d5 81be 5c79 ca3d 2561 12be
000002d0: 7e9e 9abc 6860 5cbe 7e38 2cbd a80a 94be
000002e0: ce08 123d 5b57 dfbd a505 0b3e 7929 243e
000002f0: d9a5 d13e b141 f23e 7b9c 493d 01bc 8c3c
0.043223023 0.24655819 -0.115735754 0.116348304 -0.12603307 -0.11310339 0.2512369 0.009594658
0.040184245 0.015074993 -0.09561471 -0.042104773 0.05237734 -0.23361301 -0.050798856 0.10991372
0.19288789 -0.08683053 -0.011326648 0.06920017 -0.13065732 0.017856015 -0.08766933 -0.00801152
0.10406432 -0.05893882 -0.10457833 0.17296962 -0.10875987 0.14408018 -0.010435442 0.07427861
0.30007172 0.04625748 -0.22581705 0.10276932 -0.18444347 0.17501871 0.17090718 0.10242363
0.044726122 0.15758836 0.27745306 -0.10170954 -0.021747626 -0.008425985 -0.050774775 0.23084904
0.085419886 0.14510503 0.10697318 0.22995497 -0.048496813 0.11111854 0.029283691 0.13637891
-0.009782526 0.1673852 0.13491292 -0.058880717 -0.08348526 0.22988103 -0.09863307 0.10623558
0.02120367 -0.2701131 0.18210392 -0.06404482 -0.08263902 0.054740533 -0.244789 0.023282135
-0.31868657 -0.08159349 -0.26002115 0.017939173 0.02811673 0.118752055 -0.0058178105 -0.16475995
-0.2791428 0.020929653 -0.06687584 -0.30561844 -0.0049146367 -0.14462367 0.16861792 -0.10645755
-0.15021625 0.00066933787 -0.26685756 -0.26820946 -0.04508943 0.04347814 0.08173249 0.02299797
-0.77470934 -0.075818785 0.07548471 -0.36814356 0.16958933 -0.09579943 -0.050640263 -0.19844832
0.003702816 -0.3833218 -0.47182438 -0.10505802 -0.17734687 -0.05675337 0.024388457 -0.033542756
-0.16163717 -0.14288615 -0.07681728 -0.18379349 -0.19124156 -0.021120995 0.0051220777 -0.06839933
-0.081526265 -0.17578964 0.038607042 -0.100375324 -0.40187454 -0.276434 -0.15718655 -0.04398934
-0.12874392 -0.44135216 0.12246034 -0.382002 -0.18936625 0.019693084 -0.29427508 0.2862987
-0.14561401 0.029558778 -0.19402392 -0.088548206 -0.026235506 0.05651619 -0.0732723 0.17320116
-0.24896584 0.045033153 0.15551917 -0.44584092 -0.05932659 0.0007734426 0.102472484 0.011548331
0.18263066 0.045336604 -0.13645613 -0.20875067 0.036690142 -0.23833677 -0.06936299 -0.16268027
-0.42548323 -0.1322468 0.024069982 0.33307007 -0.086696014 -0.28658643 0.2770082 -0.28995824
0.12238662 0.59714234 -0.40081546 0.032120958 0.05636517 0.16963318 -0.012576317 -0.27974945
-0.28635925 -0.25358254 0.09886429 -0.1429487 -0.018874403 -0.21521151 -0.042046063 -0.2891438
0.035652928 -0.109053336 0.13576372 0.16031446 0.40946844 0.47315744 0.049221497 0.017179491
