TotalModel_tickets.pth (torch, 166774 bytes, 12 tensors)

weight f4 [13, 8]
00000000: 0454 8c3f 8dd2 2bbd 31b1 13be e7ca edbf
00000010: 7984 c03f 50dd 02bf a62f d53e c6bd 453f
00000020: 28e1 993f 445a 673e c232 5ebf 013f bebe
00000030: 7ef5 19c0 eb8a cebf 2016 96be 115f ee3f
00000040: 3613 c8be 7d14 fbbf bc83 103f 875d 6cbe
00000050: 5309 92bf 12a3 65bf 3a3a 003f b950 d4be
00000060: 3cfc 22be 43a3 f93d dd83 0fbf c37f 2140
00000070: f154 a6bf 9ceb a3be a0fa 0c40 ac98 85bf
00000080: 0fd2 0dbf 847c f03e e4c1 563e 5a07 cd3d
00000090: aa7b f83f b5f8 1d3f 0cfa cfbe cf49 803f
000000a0: 9296 0a40 5e89 dd3e ed3f 4c3f 801e f9bf
000000b0: 593c 8ebe 5de6 9d3f 11a8 d4be 8036 8abf
000000c0: f9ca 643f 17fc 20bf 8ee5 2cbf 4c8b 8f3f
000000d0: 0e59 c93d 7991 a0be e895 d4bf 4921 003f
000000e0: 8174 20c0 c765 39bf 0531 783f d827 453e
000000f0: ee4f f4be 91ac 12bc 11c7 cabf ef58 cebe
00000100: f7ac 28be 7126 fbbd 692b 643f 84f7 a2bf
00000110: e4c6 fcbf 02ce 8dbe ab28 453f 3b45 12c0
00000120: 33aa 2a3f 4e1c b03e fa66 a3bf a57d 043d
00000130: 4557 f73e 9a2b abbc 09bc 0a3f 5207 78bf
00000140: 6751 803f af10 17c0 c5bc 033f 6660 9e3f
00000150: 3da5 78bf 0256 cabe 8c43 0140 ec44 c8bf
00000160: 0bf1 88bf 36be 4c3f 573e 5b3f 26fd 353e
00000170: bda4 e73f 0975 933f ef49 d63f 528d 0640
00000180: 3f64 32be 5c76 473f 6763 85bf e6cc 433f
00000190: 3ce5 193f c0ad 853f 3333 b03f f5e9 08c0
1.096314 -0.041948844 -0.14423062 -1.8577546 1.5040427 -0.51118946 0.41637915 0.77242696
1.2021837 0.22593027 -0.867962 -0.37157443 -2.4056087 -1.6136144 -0.29313755 1.8622762
-0.39077157 -1.9615628 0.5645101 -0.23082553 -1.1409096 -0.8970195 0.50088847 -0.41467836
-0.15916532 0.12189343 -0.5606058 2.523423 -1.2994672 -0.32015693 2.202797 -1.0437217
-0.5539865 0.46969998 0.20972401 0.10011168 1.9412739 0.6170762 -0.40620458 1.0022525
2.16544 0.43268865 0.79785043 -1.9462433 -0.27780417 1.2335926 -0.41534474 -1.0797882
0.8937221 -0.6288466 -0.6753777 1.1214385 0.09831439 -0.31360987 -1.6608248 0.5005079
-2.5071108 -0.72420925 0.969498 0.1925348 -0.47717232 -0.008952276 -1.5842 -0.40302226
-0.16472231 -0.122631915 0.8912874 -1.2731786 -1.9748197 -0.27696234 0.7701518 -2.2854755
0.66665953 0.34396595 -1.2765801 0.032346386 0.4830877 -0.020894814 0.5419317 -0.9688617
1.0024842 -2.3603933 0.51459914 1.2373168 -0.97127134 -0.39518744 2.0197477 -1.5646033
-1.069856 0.7997774 0.85642 0.1777235 1.8097149 1.1520091 1.6741313 2.1023755
-0.17421053 0.7791498 -1.042096 0.76484525 0.6011541 1.0443649 1.3765625 -2.1392796

weight_ih_l0 f4 [192, 9]
00000000: 3e27 943d 27d3 15bf c192 353e c672 f03e
00000010: 725b 823c 5870 c23e 0847 9a3d 7322 ee3b
00000020: 247e 393f 23e1 333e 3fff c3be 3004 8abe
00000030: 9054 a23e 2624 ff3d b01f 6d3d f13b 81bd
00000040: 464f 153f 1764 5fbe 216d 273e 332b 1f3e
00000050: 8d9d df3d a5b5 ad3e dcf4 fabd fb86 493e
00000060: 829a 023e 4163 a33d 6457 d63e 96b0 fb3e
00000070: 0f59 57be 6436 453d f44e 8fbe 1ac4 523d
00000080: 0538 e53d 60b2 48be 2ab0 8cbe 9666 913e
00000090: fdf5 8f3e 4f20 f6be db8a 03be 4601 5c3e
000000a0: 6bde 8a3e e37c 0cbe 7b5b 74be 194b 213e
000000b0: ee58 81be 6ac7 61bd 0816 213e cec5 8bbc
000000c0: 3067 ac3e 23ce a6be 9993 c83e c409 e23e
000000d0: a7d7 b7be 901e dd3e 71b4 243f 15e7 e4bd
000000e0: f06c c9be c5bb 67bb 1a43 9f3e 91e4 8cbe
000000f0: 95c4 f8bc a39c 28be abd4 51be b757 81bd
00000100: 6770 173c d2fc fcbe 09b9 09bf 96ed 0e3f
00000110: 67e8 81be af23 b5be 445d 9dbd fea9 d4be
00000120: abf2 6ebe cfa3 37bd a065 97be fe57 393e
00000130: 20ce 43be 1dd3 80be 9b61 25be 6cd0 a13d
00000140: 68b2 d1be 65e3 56bd 1f8a 933e 5f44 563d
00000150: de70 853c 9ea0 77be 40ce 793c f458 803d
00000160: 60d6 a33d 8ea2 cc3d 0d74 8abe fd58 b9bd
00000170: 0da0 7abe 17ff 4f3e 6c68 38be 144f 72be
00000180: fba3 d3bd 65eb 473e a6b1 94be 07ab 09bf
00000190: 6448 643e b8e9 823e dfef b9be c34a 213e
000001a0: c619 bd3d 5be3 813d 6381 383e 8b6a 9fbe
000001b0: 3f13 07be 9e99 dc3e c43f fb3c 8bb4 84be
000001c0: e475 34be 73f6 b3be 24e1 95be 6919 89be
000001d0: 358d 163e a278 cb3d 7039 ae3e a67b bbbd
000001e0: cca3 7c3e a611 74bf 5a8c 91be c34e debe
000001f0: 2397 b63d 56d0 89bd cdab 3abe e92e a4bd
00000200: d83e b4be 7294 42be cced 803e 5bbf d8be
00000210: 1413 07bf 53ac c53e 4090 dfbe 7f06 ebbb
00000220: 4f00 49bf 4ec8 a83e e948 513e 3ce0 7c3e
00000230: 68bd 34bd 3d71 a03b 73af a83e f914 a93e
00000240: 8376 283e 1070 d43e 0206 8a3e 3314 93be
00000250: 40c5 96be aaa6 353e 5c08 b93d 899c 05be
00000260: d4eb b23e 63ef 1b3f 48a2 8b3c 558a a83e
00000270: e819 abbe 118f f83e ffc1 9d3e 013b 993e
00000280: 7543 7dbe 98b0 86be 2ed1 543e bbe9 29be
00000290: 66bb b0be f434 ecbd f126 b83e ccf5 c5bd
000002a0: 0cca a4bb 0d9a 013e d5a9 23bd 460c 36be
000002b0: d00d 99bd 0b1c 033e 9d0b f2bb b06a 813e
000002c0: aab4 df3c 749a 7b3e ea9a 073f 23eb c7be
000002d0: b613 a83d 9b0d 83be 2246 b7bd 5d3f 183e
000002e0: d03b aebd 8c70 153e 4934 81bd 80c6 193e
000002f0: 7e57 f83e 1cc1 61be 8b25 6ebe 68bc ccbd
00000300: 96b8 26be f5de b63e f0a6 78bc 25c8 8bbd
00000310: b2d7 adbd f47b 093f a367 3a3d 8af9 e13e
00000320: 3bb1 e6be b8f5 3bbe d0a5 2bbe a2e8 473d
00000330: 3ded 61be a5c5 96be 1311 203e 4aaa 89be
00000340: 59fc adbd 0afc 993d dbaa 0f3d da26 603d
00000350: 8757 233e 7990 a53e 5375 793e d9b7 8ebd
00000360: 5ce0 d33d 25f0 37be af73 2cbe 1a4e b23e
00000370: a498 033e 0eab 34be 3d66 b0be a606 e03e
00000380: e255 7e3e 6889 aebd cd68 c9be 2094 283e
00000390: 41a2 56be 0600 213e bfad a1be 3544 b5be
000003a0: 38da b63e 4798 0f3e 9652 0fbd c43a 9bbe
000003b0: 0ff6 8d3d bf15 cd3d 9abd 36be a06f a63d
000003c0: 3b12 3f3e e010 20bf 5e94 b23e cff0 773e
000003d0: 7c12 fcbd 3c6d e8bc f626 3b3d 3ecb 8a3e
000003e0: e324 13bd c17b eb3d 9499 703c d662 c7bd
000003f0: 1975 623e c006 36bf d37a 8b3e daac 863c
0.07234047 -0.5852532 0.17731763 0.46962565 0.015912745 0.37976336 0.075330794 0.0072672903
0.724581 0.17566352 -0.38280675 -0.2695632 0.3170514 0.12458067 0.057891548 -0.06310261
0.58324087 -0.21815525 0.16350223 0.15543823 0.10918722 0.33927646 -0.122537345 0.19680397
0.12754253 0.079779156 0.4186355 0.49158162 -0.21030067 0.048147574 -0.27989924 0.05145655
0.111923255 -0.19599295 -0.27478153 0.2839858 0.28117362 -0.48071525 -0.12845938 0.21484861
0.27122816 -0.13719516 -0.23863022 0.15751304 -0.2526316 -0.055121817 0.1573106 -0.017062094
0.33672476 -0.32579145 0.39175108 0.44148076 -0.35906717 0.4318738 0.6433783 -0.11176888
-0.39340925 -0.0035359722 0.31105882 -0.27518132 -0.030367175 -0.16466002 -0.20491283 -0.063155584
0.009243107 -0.49411637 -0.53797966 0.5583128 -0.2537262 -0.35378787 -0.07683805 -0.41535944
-0.23334758 -0.044833954 -0.2956972 0.18099973 -0.19121599 -0.25161067 -0.16150515 0.079010814
-0.40956426 -0.052462954 0.28816316 0.052311298 0.01628917 -0.24182364 0.015246928 0.062669665
0.07999873 0.09991942 -0.27041665 -0.09050176 -0.24475117 0.20312153 -0.18008584 -0.23662978
-0.10334011 0.1952339 -0.29041785 -0.5377659 0.2229324 0.25568938 -0.3631582 0.15751176
0.092334315 0.06342193 0.18018107 -0.31135973 -0.13190936 0.4308595 0.030670054 -0.25918993
-0.17623097 -0.35148963 -0.2927333 -0.267772 0.14702304 0.09935118 0.34028196 -0.091544434
0.24671859 -0.9533943 -0.28427392 -0.43419465 0.08915546 -0.0672919 -0.182296 -0.0801676
-0.35204196 -0.1900194 0.25181425 -0.42333493 -0.52763486 0.38608035 -0.43664742 -0.0071724053
-0.78516096 0.3296532 0.2043797 0.24694914 -0.044125944 0.0048963116 0.32946357 0.33023813
0.16451459 0.41491747 0.2695771 -0.28726348 -0.29447365 0.17739359 0.090347975 -0.13047995
0.34945548 0.6091215 0.017045155 0.3291804 -0.33418202 0.4854665 0.3081207 0.2992783
-0.24732764 -0.26306605 0.2078292 -0.16593067 -0.34517974 -0.115335375 0.3596721 -0.09666023
-0.0050289687 0.12656422 -0.039956886 -0.1777812 -0.07473338 0.12803666 -0.0073866383 0.2527671
0.027307827 0.24570638 0.52970755 -0.39046583 0.082068846 -0.25596318 -0.08948924 0.14867921
-0.08507502 0.14593714 -0.06308801 0.15017128 0.4850425 -0.22046322 -0.23256509 -0.09996873
-0.16281351 0.35716978 -0.01517652 -0.06825284 -0.08488406 0.5370476 0.045508992 0.44135696
-0.4505709 -0.18355453 -0.16762471 0.04880584 -0.22063155 -0.29447666 0.15631513 -0.26887733
-0.08495397 0.07518776 0.03507505 0.05472455 0.15951358 0.32336786 0.24361162 -0.0696866
0.103455275 -0.17962702 -0.16841005 0.34825212 0.12851197 -0.17643377 -0.34453002 0.43755072
0.24837449 -0.08522302 -0.3933777 0.16462755 -0.20960332 0.15722665 -0.3157787 -0.354036
0.35713363 0.14022933 -0.03499087 -0.30318272 0.069316976 0.10013913 -0.17845765 0.081267595
0.18659298 -0.6252575 0.3487882 0.24212955 -0.12308213 -0.0283724 0.045691453 0.27108186
-0.03592385 0.114982136 0.014685053 -0.09735648 0.22114982 -0.7110405 0.27242145 0.016439844

weight_hh_l0 f4 [192, 64]
00000000: 3bf9 a2bd b172 e9bd b2ff a53d 4623 18bd
00000010: 0105 17be 0d7d 6e3e 4a60 84bd fecb a1bb
00000020: f02f 6dbe 4fc2 893c c079 dabc a80e 6e3e
00000030: 21ca aabd 8b61 2dbd a9ab 94be 950a 05be
00000040: 38b3 df3c 67ed 133e e17e 51be 9cef a23d
00000050: ba3c 123c 32e0 3fbe a3e5 a8bd fc4b d8bd
00000060: 9501 263d 9776 46be 9fdf 383d 2389 7dbe
00000070: 59c7 a13e aa74 0a3e 51fc 093d 1672 25be
00000080: 4d9b 18be ed1d 38bc a190 0bbe c7f1 103e
00000090: 8a4b af3d 3abb cfbc ef81 353e 1c6a ffbc
000000a0: 7803 32be 6342 133e fc89 7fbd 57e4 7dbe
000000b0: edab a2bd 34ca 47be 4a77 aa3d 472c bd3e
000000c0: ce83 dd3c 429c 81be 6059 97bd 2c2a 093d
000000d0: d776 933d ad38 003c 95d4 51bd 98bc 8c3e
000000e0: 7afa 263e 1085 35be 183b a73d c7df a13e
000000f0: 2565 5bbe 044c e0be df7e 503e c833 383e
00000100: b8c4 a73c 021c 813c d2ab 15bd 31d3 ecbe
00000110: e17f c63d 7bc9 a7bc 9397 56be 0946 153e
00000120: 73b4 9e3e 352b bf3e 9575 9d3d d810 d0be
00000130: 2f78 09be 4d56 8d3b 8852 ee3d 4ee0 e33d
00000140: ecb8 83bd 4dc3 fabd 004b 38bd 71a4 eabd
00000150: b073 04be ea85 073e 2ef6 0b3e e021 f2be
00000160: 77de 7abd 1e73 fdbc c46c 893e df64 733e
00000170: d184 bdbe 8360 28be 5dff d33d 5adb 5b3e
00000180: 04dc 423e cf0a c2bd 4946 473e 3204 dfbe
00000190: ac77 00bf f181 4d3f 4cf9 043e d18d 4fbe
000001a0: 0cfe 443e be5c 4fbe f148 e33e 99cd 853d
000001b0: dd8b de3c 6c4d 19be 07bc 94be fa3e ddbe
000001c0: f0f3 383e bd8a 593e ec45 eb3e fa9b 93bd
000001d0: 7a79 d5be 3d9f 5c3d 4252 1ebe 3560 90be
000001e0: ad04 06bf 850d 5bbe 5ba4 7fbd 172c 3c3d
000001f0: 54d7 033e 7d51 6abe a33c bfbd f08b 623e
00000200: cf6a f83c 4e89 a2bd 16dc 0c3e 7f3e 1cbe
00000210: 0c89 85be dbe8 c93c d2c9 43bd 1c15 903e
00000220: 706c 713d 68bf 573d 4967 03be 46bf 1a3e
00000230: a394 ba3e f8da 20be 1071 31be ee06 8abe
00000240: 7d30 a6bd 7a32 ad3e e522 8abe e208 bb3d
00000250: 4ff0 51be 144e edbd 19d6 9ebe ef6b 003f
00000260: dc88 043e 8b34 22be afe8 95bc 9800 40be
00000270: 31ee c13e 5550 a93d 17bd 863e c639 173e
00000280: a5a8 a63d c38f 863e 7c1c 82bc 2d97 4a3e
00000290: dab2 2d3c 9e35 d53c 9066 a73c e8a7 673d
000002a0: 918b 833e 4423 9fbd deb9 3fbe e076 af3d
000002b0: 9d1f 03be 1b11 f2bd 6244 043d ebee de3d
000002c0: 229c cd3d 1ccf 033d 07ca 50be 56e8 0c3d
000002d0: f6ef 8a3d 5552 39be a119 cd3c d327 2b3d
000002e0: a39a 6c3d 4654 6cbe 8849 293d 9cd2 bf3c
000002f0: 2faf c93d 162f fabd 078c d23c a5aa 1bbe
00000300: 2ffb 2a3d ae93 c63d f4be 15be a761 443e
00000310: 2e5a 99bd 5192 c3bd 85c1 db3d 631b f03d
00000320: afb6 2e3e 32a9 e33e 954f a63e 45e2 5ebd
00000330: fa30 cdbb 9730 51be f5a7 013c 74d1 78be
00000340: 6b36 9bbd 6ffb e63d 1503 173e 720d 9e3d
00000350: 2878 7abd dafe 1bbc 059d 423e c188 133e
00000360: f62e febd 50c7 afbc f667 863e 6776 7bbd
00000370: 7fac 0c3e 4c0f e8bd 6a06 993e e3c2 823d
00000380: bc2c 23bd 564d 463e 5063 7f3e 48f9 743d
00000390: 8d67 05bd 2536 80be 6f12 aebb 2738 78be
000003a0: d44e a13d deb4 d13c 636a 503d 3cd9 70be
000003b0: c300 113e 9aa9 d53d 6482 913d 3cf9 8cbc
000003c0: 8e65 433e 2888 943e 34a2 98bd 050e 86be
000003d0: d9b0 6d3e 5a4c 9dbd edf7 ef3d c278 10be
000003e0: a113 9a3e b4ad c8be 9fa3 8a3c 130e e43d
000003f0: 0f68 68be 905b 8b3e cbaa c53d b177 d63d
-0.07957693 -0.11398829 0.08105411 -0.037143014 -0.14748003 0.2328989 -0.06463678 -0.004937648
-0.23162818 0.016816286 -0.026669383 0.23247778 -0.08339334 -0.042329352 -0.29037216 -0.12992318
0.027307138 0.1444603 -0.20458557 0.07955858 0.008925611 -0.18737867 -0.08246925 -0.10561368
0.040528852 -0.19381176 0.045135137 -0.24759345 0.31597403 0.13521066 0.033687893 -0.16156802
-0.14902993 -0.011237604 -0.1362939 0.1415473 0.0855933 -0.025357831 0.17725347 -0.031178527
-0.17384136 0.14380793 -0.06238745 -0.24794136 -0.079429485 -0.19510728 0.08323534 0.36947843
0.027040388 -0.25314528 -0.07390094 0.033487484 0.07200401 0.007826013 -0.051228125 0.27487636
0.16306487 -0.1772654 0.08165568 0.3161604 -0.21425302 -0.43807995 0.20360897 0.17988503
0.020479545 0.015760425 -0.036540814 -0.46254876 0.0969236 -0.020481816 -0.20956258 0.14577498
0.30997047 0.37337652 0.076884426 -0.4063785 -0.13424753 0.0043132664 0.11636835 0.11126767
-0.064317554 -0.12244282 -0.0449934 -0.11457146 -0.12934756 0.13234678 0.13668129 -0.4729147
-0.061247315 -0.030938681 0.26840794 0.23768948 -0.37015393 -0.16443066 0.10351441 0.21470395
0.19029242 -0.09474718 0.19460405 -0.43557888 -0.50182605 0.802764 0.12985724 -0.20268942
0.19237536 -0.20250222 0.44391587 0.06533355 0.027166301 -0.1497094 -0.29049703 -0.4321211
0.18061805 0.2124433 0.45951784 -0.072074845 -0.41694242 0.0538628 -0.15461066 -0.281984
-0.52350885 -0.21391876 -0.0624126 0.045940485 0.1287511 -0.22882648 -0.093377374 0.22123694
0.030324368 -0.07936345 0.13755831 -0.15258215 -0.2608112 0.024647167 -0.047799893 0.28141105
0.058941305 0.052672774 -0.12832369 0.15112028 0.36441526 -0.1570853 -0.17328286 -0.26958412
-0.08114717 0.33827573 -0.26979747 0.09132554 -0.20501827 -0.11587158 -0.3102272 0.50164694
0.12942833 -0.15840356 -0.018299429 -0.18750226 0.37877038 0.08267275 0.2631614 0.14768133
0.08137635 0.26281556 -0.015882723 0.19784231 0.010601724 0.026026543 0.020434648 0.056556612
0.25692418 -0.07770398 -0.18723246 0.085675955 -0.12805028 -0.11819669 0.032291777 0.10885414
0.100395456 0.032179937 -0.20389567 0.03440126 0.0678405 -0.18097813 0.025036635 0.041786026
0.05776466 -0.23079023 0.04132989 0.023415856 0.09847867 -0.12216012 0.025701536 -0.15201814
0.041743454 0.096961364 -0.14623624 0.19177876 -0.074879035 -0.09549392 0.1073027 0.117239736
0.17061876 0.44465023 0.3248259 -0.054415006 -0.006261942 -0.20428692 0.007913579 -0.2429865
-0.07578739 0.11278426 0.1474727 0.07717408 -0.061149746 -0.009521211 0.1900521 0.14407636
-0.12411301 -0.021457344 0.2625119 -0.061392214 0.13737677 -0.11331043 0.29887706 0.06384828
-0.039837584 0.19365439 0.24940228 0.059808046 -0.032569457 -0.2504131 -0.005312256 -0.2424017
0.078763634 0.02559894 0.05088271 -0.23520368 0.14160447 0.104327396 0.07104948 -0.017208688
0.19081709 0.2901013 -0.07452813 -0.2618257 0.23211993 -0.076805785 0.1171721 -0.14108565
0.300931 -0.39195025 0.016923724 0.11135497 -0.22695945 0.27218294 0.09651717 0.10472048

bias_ih_l0 f4 [192]
00000000: 344b 3bbe d22d 2f3e 49ae 2f3d dac4 463d
00000010: ebb9 3b3c 935b 903d 6589 8c3e a2e3 db3d
00000020: 07c1 b03d de33 983a 8de8 483e 3711 1e3e
00000030: 6d8e a7bd 0e8f cdbe 41c3 ae3c ab15 c53a
00000040: d3b4 52be 5dd6 ecbd 637b 093e 0a48 debd
00000050: e98b f5bd 1ff0 303c b632 893d e40d 1d3e
00000060: 8ca4 093d 1707 a9bc ae86 20bd 2b3f cd3d
00000070: ba73 e8bd e1cc fabd 37dc 653e 3b1b aa3d
00000080: 8148 d83d 1ce3 11be 7f91 9f3c 42d1 9e3c
00000090: e607 dfbd afc0 fe3c 61ba f3bd 9afe 63bc
000000a0: 23aa 0c3e df74 473d ce87 e83c 917d 3e3e
000000b0: b049 13bd 3bba 773e ab8e 4fbd f102 26bd
000000c0: e697 82bb 1578 c0bc ef53 40bd 85db b9bd
000000d0: 6ff8 083e 7232 493e f449 a73b 97b0 66bd
000000e0: d57a 4abd a8ad b2bc 755c efbd 7de4 dd3d
000000f0: 7998 823d 617b 0a3b b5f2 f3bc 0254 6b3e
00000100: ac8f 9f3e 1249 8abe 75f7 c1bd 08fc cdbd
00000110: 4666 b23d 3a7b 8d3d 68be ad3d bb8d 32be
00000120: 7439 803a c917 6c3d 14b0 a2be 09a2 cb3c
00000130: 6edb a53d 3a66 4abe 0a97 a2be cfd1 4b3e
00000140: bd32 95be 21eb 11be 4f3e 1e3e 9bcb b53c
00000150: d4c1 1d3d 5384 4cbe 123a f7bd 5e43 143d
00000160: 178e cebd fe23 44be b3d4 0ebd 877d 17be
00000170: 80ed 4ebd d422 30be 4d91 cabd e406 333e
00000180: 81ed d3bd 3c0d 1dbe 8850 e7bd b4fe 65bc
00000190: 31de 6d3d 3e22 14be 6877 4ebd 66ef c3bc
000001a0: 36db 003d 36fc 18be 3746 1abe d48a 3fbe
000001b0: aec4 b9bd e73d cd3d 89b3 283d 976e d1bd
000001c0: 9c73 debd edd5 0b3e 4d98 3f3d 6ce3 04be
000001d0: a112 93bc b426 e4bd 35e9 8bbd 3a6a 813d
000001e0: ee87 ddbd dead 273e b6a2 7abc c094 ac3d
000001f0: 7b7d cbbd c45b c83d fb23 1cbd f980 8abd
00000200: 209c dfbd 907d 6d3e 3030 b5be 1e14 a83e
00000210: 2d2e e4bd 6f0b cfbd f880 043e 1f70 55be
00000220: f4bf 4ebd 4e4e a4bd d62a 973e e3e8 90bd
00000230: 9aab 1dbe fdd6 6d3e aaa8 0cbd e3d9 1a3d
00000240: 0439 c43e 575f 983e 7e97 633e a24d bb3c
00000250: 0115 5c3d 3bde 593d fe23 7a3e 4eaf 243c
00000260: 99b3 883e f3a5 ff3d c401 6dbe 716b 8a3e
00000270: c0a6 e73d 4f34 90ba 56f4 46be 07ce 9bbe
00000280: 4e44 20be 05f2 c73d d051 c93d c20c 453d
00000290: 03e1 053a fe87 28be 97fa afbd 7259 8dbd
000002a0: 6f2f 7ebe 5a53 0d3d 2174 34be 3084 4f3e
000002b0: 4f51 a5be 9c9e a63e 3062 7dbd 47b4 033d
000002c0: 8d16 143e 28b4 2fbe 4c6c 19bd 24b0 80be
000002d0: f13d d8bd e0c0 3c3d 78cb 1e3e efca b4bd
000002e0: 8b65 843c 683c 32be 2859 8bbe fd43 e9bd
000002f0: d8d8 f8bd dcde 57be 3252 10be aec2 2dbe
-0.18290406 0.17107323 0.04289082 0.048527576 0.0114579005 0.070487164 0.27448574 0.10736777
0.08630567 0.0011612137 0.19619961 0.15436254 -0.081814624 -0.40148205 0.021333339 0.0015036365
-0.20576791 -0.11564324 0.13425975 -0.10853584 -0.11989576 0.010799437 0.066991255 0.1533733
0.03360419 -0.020633264 -0.03919094 0.10021814 -0.11350198 -0.12246109 0.22447287 0.08305975
0.10560704 -0.14246792 0.019478558 0.019386891 -0.108901784 0.031097738 -0.11900783 -0.013915682
0.13736777 0.04869544 0.02838507 0.18602587 -0.035958946 0.24192135 -0.05067317 -0.04053015
-0.003985393 -0.02349476 -0.046955045 -0.09075073 0.1337602 0.1964815 0.0051052514 -0.056320753
-0.049433548 -0.021811321 -0.11687557 0.10834596 0.06376738 0.0021130668 -0.029778818 0.22981265
0.311643 -0.27008873 -0.09471027 -0.10057837 0.08710913 0.06908269 0.08483583 -0.17436878
0.0009782747 0.05763987 -0.31774962 0.024857538 0.080984935 -0.19765559 -0.3175586 0.19904254
-0.29140273 -0.14249851 0.15453456 0.022191813 0.038514927 -0.19972353 -0.12071623 0.03619706
-0.10085695 -0.19154355 -0.034870815 -0.14793979 -0.050519466 -0.17200786 -0.09890995 0.17483097
-0.10348035 -0.1533708 -0.11294657 -0.014037777 0.058073226 -0.14466187 -0.050406843 -0.023917865
0.031459056 -0.14939961 -0.15065847 -0.18705302 -0.09070717 0.100215726 0.041186843 -0.102261715
-0.108618945 0.13655825 0.046776105 -0.1297738 -0.017953219 -0.111401945 -0.0683159 0.06319089
-0.10816942 0.16374919 -0.015297582 0.08426809 -0.09936043 0.09783128 -0.03812025 -0.06762881
-0.1091845 0.2319243 -0.35388327 0.32827848 -0.1114162 -0.10109603 0.12939823 -0.20843552
-0.05047603 -0.08022748 0.2952487 -0.070756696 -0.15397492 0.23226543 -0.034340538 0.03780545
0.3832475 0.2976024 0.22225758 0.022864167 0.05373097 0.05319045 0.24427792 0.0100515615
0.26699522 0.12482824 -0.23145205 0.27035096 0.11311102 -0.0011001917 -0.19429144 -0.30430624
-0.15651056 0.097629584 0.098300576 0.04810787 0.0005107077 -0.16458127 -0.08592718 -0.06901826
-0.24822782 0.03450332 -0.17622425 0.2026527 -0.32288596 0.32542884 -0.061861217 0.032154348
0.14461727 -0.17158568 -0.037456796 -0.25134385 -0.105586894 0.046082377 0.15507305 -0.08827769
0.0161617 -0.17405856 -0.27216458 -0.11389921 -0.12150735 -0.21081108 -0.14093855 -0.16968796

bias_hh_l0 f4 [192]
00000000: ae42 4bbe a179 563e aba3 33be fd28 ef3d
00000010: 164d 28be d5cd 49bd 0738 883e b3ab f33d
00000020: dcbe 9d3c 1111 b33d ff1d 7a3e bbb7 903b
00000030: cb09 5ebd 5548 84be 11fb 5c3e 9b58 82bd
00000040: ce4c e7bd ffc9 bdbd 08a9 763d 15a8 2bbc
00000050: bbd4 52be f7dd 7ebd aeb7 293e 9b5a 5a3e
00000060: 8d75 093e bbad c9bd 7c55 123e 336e 723e
00000070: 1a71 70bd 6f97 803c 665d 833e b740 8e3c
00000080: 86fd 5e3d 9060 f5bd 6336 45bd a2f5 d5bd
00000090: 328c debd 717f 963d 9598 37bd 96a1 1abe
000000a0: 90c0 583e 38ce 07be 87be babd 75a6 703d
000000b0: 89b5 0bbe 93df 4c3d 86bd b23d b41a 733d
000000c0: 08f2 52bd f10c bbbd 6459 c53d d94b b93d
000000d0: b87e fa3d 34cc 7a3e 8e53 32bd aeb2 f9bd
000000e0: ac90 25be 668f dcbc e59e ad3d 7182 41bc
000000f0: 238f f0bd acf7 aa3d c065 ab3d 2fe6 33bb
00000100: be44 f33d 0b6a 73be 2f4d 3abe 0690 8ebd
00000110: 77ca 80bd 2c0d 993d d467 323e 6280 14be
00000120: 2d7e 353d d973 213d fa59 8dbe c663 e1bc
00000130: edd4 e23d 2adb 9fbe 75c4 96be 86a1 003d
00000140: 5ae1 12be 6ed7 2ebe 48bb 82ba e810 343e
00000150: 3392 c63d c793 1ebe 14d7 773c fce9 12bd
00000160: 9aad 58be c453 63be c19f a7bd 9e3b 40be
00000170: b32d 153d 8b6c 83be a27f b1bd 7f08 f33d
00000180: 733e e5bd 7cea 273d c241 79bd dc6b b23d
00000190: d8a2 383d 66af 8fbe b615 943a 529a a23c
000001a0: ff7c 8cbd 2e98 6dbe 041a b6bd 5b6e 2cbe
000001b0: 53e0 47be 2dc3 263e 06d5 793d 983a 39bb
000001c0: d631 1bbe cbdf ab3d db5d 253e 84b1 fcbd
000001d0: a875 c03d af91 2ebe e9b4 adbd 1842 11be
000001e0: e14c 06bd 7d00 093e b919 273d 37ab 94bd
000001f0: 2a77 9a3d 32fd 763e cae9 0dbd 04ad 24be
00000200: e30b 363c 920d 123e 89bb 85be 5b74 4b3e
00000210: b2a4 1e3d 983e 173d 1055 273e a9c1 f5be
00000220: 15f4 66be 3eb6 1c3d 3096 893e 03fa f13d
00000230: 500b 2fbe 9f34 d6bd f619 79bb f908 313d
00000240: fa9c f33c d8aa 223e 4df9 973d 11b2 8abd
00000250: 3651 533d e9d6 0a3c 8367 8f3e dbb7 afbc
00000260: e61c 6d3e 9cfc ff3d 88bf a5be 897d 9f3e
00000270: d18b 353d 8daf 743e df26 33be 48a8 20be
00000280: 4488 31be 80ac fa3d f892 5cbc c1b0 4cbd
00000290: b8ad a3bc 83db 26bd 12e0 1ebe 619b 12be
000002a0: 01e7 c5be 66a8 08bc 49d0 9e3d 92b6 733e
000002b0: a5f2 49bd 2b25 6d3e f949 d43d 7d43 083e
000002c0: 4673 583e fd35 d4bd f503 223e 3eaf b3be
000002d0: a241 06be 5209 a63d 8ba8 4b3e 460f 4cbd
000002e0: c406 1f3e 46cf df3b bf8b 42be 6ff7 0ebe
000002f0: 8182 84be 0963 813c 1aae 30be 2b95 bcbd
-0.19849655 0.20944835 -0.17542903 0.1167774 -0.16435656 -0.049268562 0.26605245 0.118979834
0.019256048 0.087434895 0.24425505 0.0044164336 -0.054208558 -0.25836435 0.21580149 -0.063645564
-0.11293946 -0.09267043 0.060219795 -0.010477086 -0.20588963 -0.0622234 0.16573974 0.21323626
0.13423748 -0.098475896 0.14290422 0.2367485 -0.058701612 0.01569721 0.25657195 0.017364843
0.054440998 -0.119813085 -0.04814757 -0.10447241 -0.10866584 0.07348526 -0.044823248 -0.15100703
0.21167207 -0.1326226 -0.091183715 0.058752496 -0.13643469 0.050017904 0.08727555 0.059351638
-0.05150035 -0.09133328 0.096361905 0.0904767 0.12231201 0.2449196 -0.043536715 -0.121922836
-0.16168469 -0.026923846 0.08477572 -0.011810885 -0.11746051 0.08348021 0.08369017 -0.0027450433
0.11878346 -0.23770921 -0.18193506 -0.06961064 -0.06288617 0.074732155 0.1742242 -0.14502099
0.044309784 0.03941712 -0.2760771 -0.027513396 0.110757686 -0.31221896 -0.2944676 0.03140404
-0.14343777 -0.17074367 -0.0009974027 0.17584574 0.09695854 -0.1548606 0.015126962 -0.035867676
-0.21159974 -0.22199923 -0.081847675 -0.18772742 0.036420535 -0.2566875 -0.08666922 0.11866855
-0.11193552 0.040995106 -0.060853727 0.08711979 0.045077175 -0.28063506 0.0011297974 0.019848976
-0.068597786 -0.23202583 -0.08891681 -0.16838972 -0.19519167 0.16285391 0.06099417 -0.0028263684
-0.1515573 0.083922945 0.16149084 -0.12338546 0.09397441 -0.17047761 -0.084817715 -0.14185369
-0.03278816 0.13379093 0.040796015 -0.07259219 0.0754226 0.24120024 -0.034646787 -0.16081625
0.011111232 0.14262989 -0.2611964 0.19868605 0.038731284 0.03692493 0.16341043 -0.47999313
-0.22554047 0.038259737 0.26872396 0.11815264 -0.17094159 -0.104592554 -0.0038009859 0.043221448
0.029737938 0.15885484 0.07420597 -0.06772245 0.05159112 0.00847409 0.2800866 -0.021449974
0.23155555 0.12499353 -0.3237269 0.31150463 0.044322792 0.23895092 -0.17495297 -0.15689194
-0.17337137 0.12239933 -0.013462774 -0.049973253 -0.019980296 -0.040736686 -0.15515164 -0.14317085
-0.38652804 -0.008340931 0.07754571 0.23800114 -0.04930367 0.2315871 0.10365672 0.13306995
0.21137723 -0.1036186 0.15821822 -0.35094637 -0.13110974 0.081072465 0.19888513 -0.049819253
0.15529925 0.006830129 -0.18998621 -0.13961576 -0.25880817 0.015794294 -0.17253914 -0.09208139

weight_ih_l1 f4 [192, 64]
00000000: 51bc 86be abb6 b63e 0822 e6bd c4bf f3ba
00000010: 5a59 8c3e a56a adbe 0bde de3e 7c76 02be
00000020: 933a 313e 1325 b43b 44d0 293e 0f30 97be
00000030: 6c3a 04be aa05 973d 0bb9 673e ef95 d93e
00000040: d822 5e3c 6c74 b43d 2308 a33e 295a 9abe
00000050: c8ef 383d 8211 7f3e 8f3e 6d3e f521 5abe
00000060: 8e5f 233e dbc9 913e f773 12be 60be c73e
00000070: d320 15be 7562 acbd 282d bbbe 028d 92bc
00000080: b0ab dcbe 3ace a3bd dd6a b13e a32a 58be
00000090: f483 82be f337 193d 2dc9 8ebe 84dc a13d
000000a0: a144 a7be d36a f03c 0e8e a8bd b6ba b53e
000000b0: a3f1 6a3e 8568 093f 1d2a a3bd 9bea a03a
000000c0: 3e12 1f3e 0e98 383e 52b5 813e bae0 68be
000000d0: 21b2 513d 96e6 493e d746 383e 0523 68be
000000e0: 3d2e c6be c03c 28bd dfbb c7bd 1d1c 09bf
000000f0: 1b6f 073e d404 68bb 7ecc 15be 8117 283e
00000100: 2421 52be 4c7a b23e 8397 fbbe 2d37 323d
00000110: 54d8 213f 34c8 bfbe d90f e33d 0e33 3abe
00000120: 6b26 c23e 2ffe aabd a465 933e 49bd f3be
00000130: 47f5 82be f298 033e f538 013e 1c1c 953e
00000140: 0e37 523e 6435 9abe a696 07be f468 95be
00000150: c23d 9d3e e0f8 263f 2e80 983d 5ccf 04be
00000160: b4ba 8f3e 4434 873e a030 433e 92ec fa3d
00000170: 6b66 debe a202 85bf f9b5 15bd 1764 8c3e
00000180: 7cab 28be 92d7 62bf cf1c 703e 2cef dfbe
00000190: c0b4 6dbd 470b a83e dec6 06be 2d1c 833e
000001a0: a7b9 25be 0cae 64bf 6ea0 293f daa1 d73e
000001b0: 1db2 9bbe b0f0 743e 9c67 e3be 31dd 63bf
000001c0: d2a4 e9bc 591e 3e3e 4c17 f33e 9dc6 2d3e
000001d0: 51ec 953c 86eb 16be 7283 91be 1764 b2bd
000001e0: eece 16bf 1c2e b93c fdad 38be f1a9 f2be
000001f0: 1118 4b3e e3f8 a33e e995 e1bd 18b6 cdbe
00000200: 9b49 88bd 2130 673d 07c2 0ebf f684 b43e
00000210: 1f8b 8ebd d71c 913d 1ced 113e 1a27 20be
00000220: 9b2d 35bd a030 99be 1100 1ebc aeb2 d23c
00000230: e522 a33d 9da4 263f c0d5 463d f779 92bd
00000240: aba2 93bd a8bb 48bd c14d 913e d803 953d
00000250: c0b9 46bd 79fc 103e 416f 35be 181d 413e
00000260: a786 8f3e 6740 503e e24b 40bd 7176 30be
00000270: 149e b13d 791e b73d d7d7 e13d d30d d9bd
00000280: 435e 843d 884c ccbb 2ecb 073e caee 1ebe
00000290: 9561 8d3e 83c5 603e 9b98 eebe 4f9b 05be
000002a0: 4a6b 01bf f2dd 59bc b6d3 203d f7ba 413d
000002b0: b7f0 04bf ad48 cabc e935 803e 7cd6 30bc
000002c0: 3026 373d e044 3cbe 3a84 a03e e172 01be
000002d0: 2a6f d6be c52e 8cbd 9e38 ccbe 6926 8f3d
000002e0: 7745 f83e a213 5d3e c58e babe 75e5 96bd
000002f0: c4b9 fdbd 6cf3 b4bb af99 283d 4be2 ebbd
00000300: d4ed f0bd 41dc 173e 0199 c4bd bd65 393e
00000310: c807 43be f14f ba3d 3f6e c23e 52c8 32be
00000320: 759c 58bb a9ed 883e 9926 adbd 9a8e 5f3e
00000330: 8115 ae3d 1cb0 203d 7bd1 c6bd 0a45 87be
00000340: 111b 12be 0bfd 203e 7562 ce3e 2bac fa3e
00000350: 8dc1 64be 0828 4dbd 5f09 8fbe 1d49 743e
00000360: e60a 81bd 8d9c dfbd fc80 93be d4e7 5f3e
00000370: 77dc d8bd 216d 933d 201e 5ebe 6b28 a1be
00000380: 13c1 083e 69de 053b 036f 293e 29d4 713e
00000390: 7510 f53d 8e14 033e 72fd 403e e70b f5be
000003a0: ab95 d8be 5cc4 ef3d a84c f53c 1788 683e
000003b0: 1718 bfbd e804 f13d 49ae 473b 0e14 af3d
000003c0: 3738 c23e 1db6 c53c 89f7 6a3d 2dc4 debe
000003d0: 9551 e6be bcef bc3e 3a75 c23e 6af4 c0bd
000003e0: 492e 683e 74e9 97be 5992 203e eeb2 c8bc
000003f0: 9bf3 2cbe 330b 3bbe 5f3e 32be 7383 a43e
-0.2631555 0.3568624 -0.1123696 -0.0018596579 0.2741192 -0.33870426 0.4352878 -0.1274051
0.173075 0.0054975837 0.16583353 -0.29528853 -0.12912911 0.07374127 0.22629182 0.42497203
0.013558112 0.08811268 0.31842145 -0.30146912 0.04515055 0.24909022 0.23168395 -0.21302016
0.1595442 0.28474316 -0.1430205 0.39012432 -0.14563303 -0.08417217 -0.3655789 -0.017889503
-0.43099737 -0.07998319 0.34651843 -0.21110015 -0.25491297 0.037406873 -0.2788786 0.07903388
-0.32669547 0.029347813 -0.0823022 0.35494012 0.2294374 0.5367511 -0.07967017 0.0012276949
0.15534303 0.18026754 0.2533365 -0.22741976 0.051195268 0.19716868 0.17995773 -0.22669609
-0.38707152 -0.04107356 -0.097526304 -0.5355852 0.13225977 -0.0035403268 -0.14628789 0.16415216
-0.20520455 0.3485893 -0.49139032 0.04350965 0.63220716 -0.3745743 0.11087007 -0.18183538
0.37919936 -0.08349263 0.28788483 -0.4760535 -0.25577757 0.12851313 0.12619384 0.29123008
0.20528814 -0.3011886 -0.13241062 -0.29181635 0.3071118 0.65223503 0.07446323 -0.12969726
0.2807213 0.26407063 0.19061518 0.122521535 -0.43437514 -1.0391428 -0.036550496 0.27420112
-0.16471666 -0.88610184 0.2344849 -0.4373716 -0.058033705 0.32821104 -0.131618 0.25607434
-0.16184102 -0.89328074 0.6626042 0.4211567 -0.30409327 0.2391994 -0.44414985 -0.89009386
-0.028520975 0.18566264 0.47478712 0.16970296 0.018301161 -0.14738283 -0.28420597 -0.08710497
-0.589095 0.022604994 -0.18035121 -0.4739528 0.198334 0.32025823 -0.11014921 -0.4017799
-0.06654664 0.056442384 -0.5576481 0.3525769 -0.06960129 0.07085579 0.14250606 -0.15639916
-0.044232946 -0.2991991 -0.0096435705 0.025719967 0.0796564 0.6509493 0.04854369 -0.07152169
-0.07208761 -0.049007088 0.28379634 0.07276124 -0.04851699 0.1415881 -0.17718221 0.18858755
0.2803242 0.20337068 -0.046947367 -0.17232682 0.08672729 0.08941359 0.11027496 -0.1059834
0.064632915 -0.006234709 0.132611 -0.15520778 0.27613512 0.21950345 -0.46600804 -0.13047527
-0.50554335 -0.013297545 0.039264403 0.047297444 -0.519298 -0.024692858 0.2504113 -0.010793325
0.044714153 -0.18385649 0.3135088 -0.12641479 -0.41881686 -0.06844858 -0.39886945 0.06989748
0.48490497 0.2158952 -0.3643705 -0.07367984 -0.123889476 -0.005522182 0.04116219 -0.11517771
-0.11764112 0.14830114 -0.09599496 0.18105216 -0.19045937 0.09097279 0.37974736 -0.17459229
-0.003305224 0.2674382 -0.084546275 0.21831742 0.08500195 0.03923045 -0.09707924 -0.2641986
-0.14268138 0.15721528 0.40309492 0.4895948 -0.22339459 -0.050087005 -0.27936837 0.23856016
-0.06300907 -0.109185316 -0.28809345 0.21865779 -0.10588925 0.07198549 -0.2169118 -0.3147615
0.13354902 0.0020426756 0.16546254 0.23616089 0.119660296 0.1280081 0.18846682 -0.47860643
-0.42301688 0.117073745 0.02994378 0.22708164 -0.09330767 0.11768514 0.0030468872 0.08548747
0.37933514 0.02413469 0.057364974 -0.43509045 -0.44984117 0.36901653 0.37980062 -0.09421618
0.22673906 -0.29670298 0.15680827 -0.024499383 -0.16889803 -0.18265991 -0.17406605 0.32131538

weight_hh_l1 f4 [192, 64]
00000000: b0dc 91bd 788b 09be c6f3 623d a173 4bbd
00000010: c6d9 18be 3f53 023e 53b9 953d e21c 993e
00000020: f6e9 15bd 7a50 03be 598c 26bd bc1b 2b3e
00000030: 8b50 673e 3d08 e9bc 97dc d83d 0cb3 983d
00000040: 5f45 043e 958e 46be dc6b 543e 2e5c 533d
00000050: 21a6 bcba 1e82 3ebd 993f 07be b2b4 e13d
00000060: ecfd aabd 2e62 7d3d 1e92 ea3d ff2f 0fbe
00000070: f60b dfbd c266 d93d 51ee f13d d171 30bd
00000080: 3de1 67bd 4b4e 5ebe 0f31 793a 73fe 053d
00000090: 695c ba3c 286b a73e 3af1 a7bd dc0b dc3c
000000a0: 74d8 083d e391 d33d 31aa c5bd 95a7 b5bc
000000b0: a775 febd d4f3 3cbd fd60 983d f524 a93d
000000c0: 3ead a43d 7b81 13bd 076c 363d 69d9 173d
000000d0: df93 7e3e 4466 17be 7583 0a3d 1dc0 b2bd
000000e0: 3dc7 58bd 6450 82bd 8d5b e2bd e6c2 25bb
000000f0: 6176 17be 06f1 173d 8cf6 eebd 0f2f 933d
00000100: 1368 12be 904f 883e 4524 c53d 9c55 e2bd
00000110: 3737 b3bd 430d 083e b6a9 e03d 0779 6fba
00000120: 1e13 1dbe b4b2 713c 1546 b1bd 9839 8cbd
00000130: ed64 3b3d 0465 06bd 1e21 30be f8f5 1abe
00000140: 4723 f9bc 6259 3fbe e689 0e3e a4da ac3d
00000150: 88b4 10be ed66 1fbd 0808 9bbe 1bb1 a4bc
00000160: 094d b43e 7bbf cf3c ada5 9cbb 85fc b7bd
00000170: 13a6 c5bc 96d3 8d3d 1356 9abd dc6b 2e3e
00000180: ac34 393e ed9c d2bb 70df 8d3d 8772 d33d
00000190: e442 013d e79d 083e aab4 ad3c b927 633c
000001a0: ec9c 0d3d 6cc0 1c3e 2f9c 993c 3a84 fc3d
000001b0: 7d90 143e 08cc 8abd 840b ce3d 3504 30be
000001c0: 2eb2 543d 0c93 da3d 9618 3a3d c35e d9bd
000001d0: c086 fa3d b0fd d5be 0f1f 02bd 9afd c13e
000001e0: 90d4 44be 0443 d4bb 5f06 713e 61da 87bd
000001f0: d646 843d a44b 28be 2b66 4f3d 4aea 293e
00000200: e122 243c b7cf 063d 365c a5bd f2c3 903d
00000210: 62c6 bbbd 4926 cbbd 581c e3be bf87 5e3e
00000220: 41db 8d3c c546 133e 893e 88bd cad8 183c
00000230: 5d42 89bc 1b56 0abd 4ccc f23e 2739 e83c
00000240: f13d 733e 46eb 10bd ceaf 9c3d dc17 fb3b
00000250: c8a2 2d3e 0d49 103e 960a 46bd 85aa 2d3e
00000260: 8f84 a63c 192f 1f3c d02e 0d3e 2940 313e
00000270: 4626 903e c1ff df3d 49b3 12bd 3dac 46be
00000280: fa69 83be a27a 03be e83a 87bd 38e4 c33e
00000290: 5b59 1bbd c254 45bd 01da ebbd 6bd5 033d
000002a0: 1a08 1bbc 1aaa ccbd 4552 bcbd 5ac6 eb3d
000002b0: 9a82 77be fe65 0f3e c312 39be 63b9 32bd
000002c0: 5cfb 853d a9ef 8e3d 2c48 523e 34b7 543e
000002d0: 2e91 d7bd 168e 3abd ac1b 0ebe 8aa1 7a3d
000002e0: 7a81 563d 1229 b8bd d53f 3cbd 5df7 99bd
000002f0: 4fd8 11be e0ab b3bd 94c7 49bd 5408 3abe
00000300: a5cd 50bc 2da5 44be 40e5 383e 27a2 edbd
00000310: bb5b 9b3d 68fd 9cbe 7c81 bb3d 6f61 ebbd
00000320: 4105 e03d 115b 80be f37f abbd 5168 8dbb
00000330: 3c9f 34bd 0213 eb3b a29b 5cbd 5222 a6bd
00000340: 8905 1fbe d7e3 a6be cfe7 ad3d 5e18 9a3e
00000350: 57fa 31be 7579 9d3c eb91 b03c c3fc cf3d
00000360: d7a1 d73b 107e c33d a5d8 0a3e cc89 0f3e
00000370: 4d6a 2dbe 93a0 3c3e 38b8 c9bd a9d9 d3be
00000380: 22ab 82bd f491 c93c 3b66 c7bc 9022 7e3e
00000390: 6ac1 9ebd 4854 b1bd 2a96 16be d1bb 0e3e
000003a0: 9331 83be 909e 8b3d d9a6 2ebe aa41 543e
000003b0: 5cbf b3be c34f 983d 96c2 a8be 1aaa 2b3e
000003c0: 7337 313e fc7e a73d 9c14 b93e c9b1 c13d
000003d0: 80b9 86be 32b1 043d 2a01 b0be 67b8 c9bc
000003e0: 94c4 943e 9ae3 edbb 12f2 eebd 4aac 1d3b
000003f0: 21bb a73c f27b 4d3d 1d90 073e d624 f93d
-0.07122171 -0.1343211 0.05540826 -0.04967082 -0.14926824 0.12727068 0.073107384 0.29904848
-0.036600076 -0.12823668 -0.04066119 0.16709799 0.22589318 -0.028446311 0.10588949 0.074560255
0.12917088 -0.19390328 0.2074427 0.05160158 -0.0014392772 -0.04651081 -0.13207854 0.11020793
-0.08349213 0.06186121 0.11453651 -0.13983153 -0.10890953 0.106153026 0.11813033 -0.043077294
-0.05661129 -0.21709554 0.00095059065 0.032713365 0.022749143 0.3269894 -0.08200307 0.026861124
0.03340955 0.1033056 -0.09651602 -0.022174636 -0.12424784 -0.04613097 0.07440374 0.08259002
0.08040856 -0.036012154 0.044536617 0.037072573 0.24861096 -0.14785105 0.033816773 -0.08728049
-0.052924383 -0.063629895 -0.11052618 -0.002529317 -0.14791252 0.037095092 -0.11668119 0.0718671
-0.14297514 0.266232 0.096260585 -0.11051485 -0.08750766 0.13286309 0.1096987 -0.0009135161
-0.15339324 0.014752079 -0.08655945 -0.06846923 0.045750547 -0.03281118 -0.17200133 -0.15132892
-0.03041233 -0.1868644 0.13919792 0.0844014 -0.14131367 -0.038916517 -0.30279565 -0.020103982
0.35215023 0.02535986 -0.0047804923 -0.08983711 -0.024127042 0.069251224 -0.075359486 0.17033333
0.18086499 -0.0064273984 0.06927383 0.10324579 0.031557932 0.13341485 0.021204311 0.013864451
0.03457348 0.15307778 0.018751232 0.12329908 0.14508243 -0.06777197 0.1006079 -0.17189105
0.051927738 0.10672578 0.045433603 -0.106137775 0.12232733 -0.4179511 -0.0317679 0.37888795
-0.19221711 -0.0064777154 0.23537587 -0.06633449 0.064588234 -0.16435105 0.050634544 0.1659328
0.010018081 0.032912936 -0.080742285 0.070686236 -0.09168698 -0.09919412 -0.44357562 0.2173147
0.017316462 0.14382465 -0.06652553 0.00932903 -0.016755277 -0.033773523 0.4742149 0.028347565
0.23754098 -0.035380624 0.076507196 0.0076627564 0.16956627 0.14090367 -0.04834994 0.1695958
0.02032688 0.009715819 0.13787389 0.17309631 0.281542 0.10937453 -0.03581551 -0.19401641
-0.2566679 -0.1283975 -0.06603032 0.38260055 -0.037927013 -0.048176534 -0.1151619 0.032185953
-0.009462381 -0.09993382 -0.09195379 0.11512442 -0.24170914 0.1400375 -0.18073563 -0.04363383
0.065420836 0.06979305 0.20535344 0.20773011 -0.10525738 -0.04554566 -0.13877743 0.061189212
0.052369572 -0.089922085 -0.045959312 -0.07517884 -0.14242671 -0.08773017 -0.0492626 -0.1816724
-0.012744342 -0.19203635 0.18056202 -0.11603194 0.075858556 -0.30662084 0.091555566 -0.11493193
0.10938502 -0.25069478 -0.08374014 -0.004315414 -0.04409717 0.007173897 -0.05385936 -0.08112015
-0.15529455 -0.32595703 0.084914796 0.30096716 -0.17380653 0.019222954 0.021553954 0.10155632
0.006580572 0.09545529 0.13559206 0.14017409 -0.16935082 0.18420629 -0.0984959 -0.41377
-0.06380297 0.024605729 -0.02434074 0.24817872 -0.077517346 -0.086586535 -0.1470572 0.13938834
-0.2562376 0.06817353 -0.17055835 0.20728174 -0.35106933 0.07437088 -0.32960957 0.16764107
0.17306308 0.08178517 0.36148536 0.09457738 -0.263134 0.03239555 -0.34375888 -0.024624063
0.29056227 -0.0072597982 -0.11667265 0.002405899 0.020474972 0.05016703 0.13238569 0.12165229

bias_ih_l1 f4 [192]
00000000: 9234 f43e 98ad fc3e 0a1d 2a3e dbb6 8d3e
00000010: 9eae 613e 07ae 3e3e 00c6 423d 6e1f d4bc
00000020: 2fd2 3b3d a115 113d 351b 0c3d 6f51 223b
00000030: fc66 ab3d 0727 a23d e6ff a53b 8950 d7bd
00000040: 97f4 7c3d 3b6e b03c be06 153f cda1 933d
00000050: e613 263e a5fa d83d 11f7 8e3d 00d6 193f
00000060: b0f9 bfbc 1229 1cbe ec06 61bc f31a be3d
00000070: b0f2 173e f70c fa3d b6c3 173d f6e4 8f3d
00000080: 2817 07bd 4c63 383c 037e 183f 96b0 e83d
00000090: 5591 b63e 2fb1 933c 1ad4 d83d 15fa 59bb
000000a0: 1c00 f63e 3d7b 013d 832e 1a3f b4c8 15bd
000000b0: c7ae 303d a425 663e ae63 c43e 783c 12bd
000000c0: 0d00 21bd a6c7 a53c 7792 2cbe 7be2 7b3d
000000d0: e557 583e 1108 88bd 0d6c 413e 83e4 41bc
000000e0: 2b08 b13d 7a65 67bd b33b 89be 69cb e23e
000000f0: d8ed ca3e 7e68 fc3d 9a8a 87bd 5c87 a8bc
00000100: 274a 1abe b6a9 76bf 0e40 ebbd 3b6a 0abf
00000110: eba6 63be cc4f 883b f5d3 b6be b6b5 783e
00000120: 986e ddbe 0940 cbbc 7b3c 12bd 9ea2 223e
00000130: 74ec 67bd bc83 76be bc13 123e 89b6 8fbc
00000140: 1464 08be 75c3 b13d 5059 d8be 1c99 7bbe
00000150: bccd 2a3e ea84 4cbd 5467 233e 45f3 a1be
00000160: 41cf 273e 761f c03d 2d54 0d3d 9e24 ebbd
00000170: 1475 db3c cf5a b0bd 0e2c 92bc 1b4a 863d
00000180: e789 023e cdb5 8dbd 641c d0be a974 9fbe
00000190: f204 8ebe 411e b3bc a088 b03c 5c5d 303d
000001a0: 3f3a c5be 059f 2f3e 61aa 8cbe 2be8 f0bd
000001b0: 6e2e 9c3e 1d2d c3bc 39a4 5bbd 9532 d43d
000001c0: 7620 97bd 072e eebe 48be 723d 4bc1 09bf
000001d0: 1f28 143c cd6e 08be 1836 4dbd e1de 063e
000001e0: 6ebd e7bd d9b3 583c e520 13bd b9bd 39be
000001f0: fb35 b9be 3c05 0fbe 2c6f 3b3e 588c f83d
00000200: d75e c3be 6a40 fc3e f416 d03e a10c 15bf
00000210: 9a09 cdbe 1e38 0d3e c582 b83d ff7b 0c3e
00000220: c135 063f c1ee 723d 4c69 083e 3f83 193e
00000230: 96c4 db3d bbf5 8cbe 046a ca3d 4e9c 4bbe
00000240: f601 29be beb4 753e 7167 0c3f fc3f e4bd
00000250: 4489 ecbd ea71 ea3e fa76 cabd cdb7 013f
00000260: 9959 a7bc a87a 6d3e 0b18 a23d 0c51 1bbe
00000270: 7b5c e4bd 775a 823e dc1f d93c abba 1dbd
00000280: 068c 6c3c 45a3 02bd cef4 dcbe c92b 16bd
00000290: c7f3 0dbf 78cf cbbd 4b58 843d e31e 7e3e
000002a0: 947d e7be 6247 683e 0606 f0be 7679 a7bc
000002b0: aecf b2bd ce5a b83e ee1e 433e 9f75 a93c
000002c0: 49f3 363e 3570 e03e a762 b33d 6df0 853e
000002d0: 52b6 033e 84e5 3bbe 0c00 3b3e ebb7 b93c
000002e0: 95f2 f53c 6a7d 05be 5cc8 a6bc 4eaf d9be
000002f0: cedb c9be abd9 b9bd 217a df3d 4772 9e3b
0.47696358 0.49351192 0.1661264 0.2767857 0.22039267 0.18621074 0.04755211 -0.025893893
0.045854744 0.035421018 0.034205634 0.0024767776 0.08369252 0.079176 0.005065906 -0.10513408
0.061756697 0.021536937 0.5821341 0.072085954 0.16218528 0.10594682 0.06980718 0.60092163
-0.02343449 -0.15250042 -0.01373456 0.09282484 0.14838672 0.12209504 0.03705188 0.07026093
-0.032981068 0.011254143 0.5956728 0.11361806 0.35657755 0.018028824 0.1058733 -0.0033260633
0.48046958 0.03161167 0.6022722 -0.03656836 0.04313543 0.22475296 0.383573 -0.0357022
-0.03930669 0.020236801 -0.16852747 0.061495285 0.21127279 -0.066421635 0.18888874 -0.011834267
0.08644136 -0.05649326 -0.2680336 0.44295815 0.39634585 0.12324618 -0.06618233 -0.020572357
-0.1506735 -0.9635271 -0.11486827 -0.54068345 -0.22231643 0.004159903 -0.35708585 0.24288067
-0.4324844 -0.024810808 -0.03570221 0.15882346 -0.056621984 -0.2407369 0.1426534 -0.017543094
-0.13319427 0.086798586 -0.4225564 -0.24570125 0.16680044 -0.049931444 0.15957385 -0.31630912
0.16387655 0.09381001 0.034504104 -0.114815935 0.026789226 -0.0861107 -0.017843273 0.06557103
0.12747918 -0.06919441 -0.4064666 -0.31143692 -0.27738148 -0.021865012 0.021549523 0.043057784
-0.38521 0.17150505 -0.2747374 -0.117630325 0.30504173 -0.023825223 -0.05362341 0.1036121
-0.07379238 -0.4651949 0.059263498 -0.53810567 0.009042769 -0.13323517 -0.050100416 0.13170959
-0.11315428 0.013226473 -0.035920043 -0.1813878 -0.36173996 -0.1396684 0.18304127 0.121361434
-0.38158295 0.49267894 0.40642512 -0.58222395 -0.40046388 0.13790938 0.09009317 0.13719176
0.5242577 0.059309725 0.13321418 0.14991473 0.10730855 -0.27531227 0.09883502 -0.19883844
-0.16504654 0.23994729 0.5484534 -0.111450166 -0.11549619 0.45790035 -0.09885974 0.5067108
-0.020428466 0.23191321 0.07914742 -0.15167636 -0.11150452 0.25459644 0.02650445 -0.0385081
0.014437681 -0.031893987 -0.4315552 -0.03666285 -0.554501 -0.09951681 0.06462153 0.2481647
-0.45212996 0.2268348 -0.46879596 -0.02044366 -0.08731018 0.36006778 0.19054767 0.020685969
0.17866243 0.43835607 0.08759051 0.26159993 0.12862518 -0.18349272 0.18261737 0.022670707
0.030022899 -0.13036123 -0.02035921 -0.4251656 -0.3942551 -0.0907472 0.10911966 0.0048354003

bias_hh_l1 f4 [192]
00000000: e3a3 293f 7c97 fd3e 09b0 2d3d e960 193e
00000010: 1de5 543e 0d4b 2ebd a20a e73c cdb1 e4bd
00000020: 6d62 2fbe 241b aa3c df23 a63b 811c 293d
00000030: feb3 27bd 581a 333e aa1f a23c 5eb4 5dbe
00000040: da31 b4bd c3e4 cc3d 01bd f13e 5e23 86bd
00000050: 2b98 353e 5c01 1bbd f4ed 1cbe 445b fc3e
00000060: 7525 a93c 20d9 d1bb 0540 b0bd b7d1 1d3e
00000070: 03c9 be3d 5d75 b13d bffa 8e3d 1ba0 ea3d
00000080: 55d1 be3d d7e7 6c3d 277d 113f 2263 a33d
00000090: 6a37 983e b198 dfba 79e4 443e 4462 54bc
000000a0: ed76 2a3f de88 893d 6733 223f 941b 8b3d
000000b0: 6b0f a83d 1dca 4c3e 30e3 063f c407 68bd
000000c0: 0190 f3bb c012 15be 6888 07be 2c5f 03be
000000d0: 65ce d33e f774 91bb 8646 333e 9c21 143e
000000e0: 3525 4a3d eccf 96bc 4599 89bd 15e5 9b3e
000000f0: 4d76 d53e 1eee 103e 3eac 5dbd 9c5a 1d3d
00000100: 8812 86be 9d79 83bf 81b7 93be ecf9 07bf
00000110: a9b2 84be b1f9 d6bd 5d42 a7be a97c 583e
00000120: bd8c f6be 7709 e8bd 7130 283d 0b97 943d
00000130: 512a 53bd 7ef5 15be 8dcd de3d 6363 b2bd
00000140: 2ed9 4abe 8f5a 873c 345c 88be 100a 80be
00000150: bd0f 483e 7280 3cbe c6cc 3d3e 566c e1bd
00000160: 143b ad3d 4a21 b7bc 0472 883d 6366 82be
00000170: d378 d2bd 4220 a0be 15d4 80bb 5164 193d
00000180: eeb8 c03d 8b23 41be 722d ccbe 4c80 e4bd
00000190: cf8a 8fbe 7788 32be d963 45be a30d 20be
000001a0: 36ca 9abe f207 973e 48fa d5be 74a8 24be
000001b0: b774 5d3e cdb0 b43d d2fc 893d b632 4f3e
000001c0: ee12 013e 27fe eebe 0fd0 dd3c 5427 f8be
000001d0: e453 d8bd e74d 02be 789b 6abe 8489 4a3e
000001e0: f53c 88bd 833d 32bd 5cc3 973d d9b8 0dbe
000001f0: 9d85 14be 8a3c 38bd dec6 463e 381b cf3d
00000200: 72a7 03bf 2d5f dd3e 4ec2 803e fcc0 0ebf
00000210: a116 86be 1119 373d 6b4d 0c3e 2f0a 27be
00000220: 1b51 5b3e 38d2 b93d f658 5f3e 2ed2 053e
00000230: 394c 47bc 79cb adbe 2d2b d4bd bf59 1ebd
00000240: e3ff 5b3d 100c e63d 0ec4 1c3f dfb9 c03e
00000250: a8d4 e0bb e498 8c3e d241 91bd c1ff ee3e
00000260: 1ca0 783b 7621 f63d 1665 3d3e 1cf8 b1bd
00000270: 04f7 18be dfad b53d fad9 2bbe 5a65 82bd
00000280: 77f0 be3c 3997 58be 717c c9be 8eb6 443d
00000290: 3f54 1bbf 2cde debc e20b c1bc 2b0f 843e
000002a0: 5195 4ebf 6d94 293e 23e5 fdbe 66cb 70bb
000002b0: b161 a7bb d2da 913e 5c27 083e 3b87 cbbd
000002c0: 37fd dbbc a4dc 293e 1b3d 8e3e a37f 0b3e
000002d0: 439a 353e 96b0 dbbd a9c9 4f3e 1d29 7e3d
000002e0: 06f4 81bd cf31 23be 0670 11be d632 f6be
000002f0: bc8e 0fbf c507 7abd 9979 d43c c0a1 403e
0.66265696 0.49529636 0.04240421 0.14978375 0.20790525 -0.042552043 0.028203312 -0.11166725
-0.1712739 0.020764895 0.005070194 0.04128695 -0.04094314 0.17490518 0.01979049 -0.21650836
-0.08798571 0.1000457 0.4721451 -0.065497145 0.17733829 -0.037843093 -0.15325147 0.4928838
0.020647744 -0.006404057 -0.08605961 0.15412031 0.09315684 0.086649634 0.0698142 0.11456319
0.09317271 0.057838287 0.5683159 0.079778925 0.29729778 -0.0017059055 0.1922778 -0.0129628815
0.66587716 0.067155585 0.63359684 0.067923695 0.08206066 0.19998975 0.5269041 -0.05664803
-0.007432938 -0.14557934 -0.13235629 -0.12829274 0.41368404 -0.004438992 0.17507371 0.14465946
0.04935189 -0.018409692 -0.06718687 0.30448213 0.4169182 0.14153334 -0.05411934 0.03841649
-0.26186013 -1.0271488 -0.2885094 -0.53115726 -0.25917557 -0.104968436 -0.3266782 0.21141304
-0.4815425 -0.1132993 0.041061822 0.07255372 -0.051554028 -0.14644429 0.108790495 -0.08710363
-0.1980941 0.016522674 -0.26632845 -0.25007677 0.19537254 -0.18408373 0.18535146 -0.110069916
0.08458534 -0.02235474 0.06662372 -0.2546874 -0.10276952 -0.3127461 -0.003931532 0.037449185
0.094102725 -0.18861215 -0.39878422 -0.11157283 -0.2803559 -0.1743487 -0.1927637 -0.15630202
-0.302324 0.2949825 -0.41792512 -0.16079885 0.21626554 0.088227846 0.06737675 0.20234188
0.12604877 -0.46678278 0.02707675 -0.48467505 -0.10562876 -0.1272503 -0.22910869 0.1977902
-0.06652252 -0.043515693 0.07410309 -0.13840045 -0.14504094 -0.04497961 0.194118 0.101126134
-0.51427376 0.43236676 0.25148243 -0.5576322 -0.2618914 0.04470164 0.13701408 -0.16312478
0.21417658 0.09073299 0.2181128 0.13068458 -0.012164169 -0.339443 -0.103597976 -0.038659807
0.05371083 0.112327695 0.61236656 0.37641808 -0.006861288 0.27460396 -0.07092632 0.466795
0.003793723 0.12018101 0.18495592 -0.08689901 -0.14937979 0.08871054 -0.1678237 -0.063669875
0.023308022 -0.21151437 -0.39352754 0.04802566 -0.60675424 -0.02720555 -0.023565236 0.25792822
-0.8069659 0.16560526 -0.4958888 -0.0036742329 -0.0051080813 0.2848726 0.13296264 -0.099379025
-0.02685414 0.16588074 0.27780995 0.13622908 0.17734627 -0.107270405 0.20291771 0.062050927
-0.06345372 -0.15936969 -0.1420289 -0.4808566 -0.5607717 -0.061042566 0.025936889 0.18811703

weight f4 [1, 64]
00000000: 63b0 93be 4e2f 4b3e 3c2c a23e 1e73 6dbe
00000010: fd4e 4dbe 558f 603e 6969 77bd eeda 773e
00000020: 10ba 5f3e 029e 953e e467 193e 0ff2 28be
00000030: 75df 433e e2c8 63be c8d0 8b3e 8a14 5cbe
00000040: 0b4c c03e b23e 8b3e 21ae 803e f25f 313e
00000050: c485 613e 866f 8e3e 3a13 99be d7c4 553e
00000060: e22b 873e 2fe5 773e fd52 773e 4bf3 55be
00000070: 76fb 83be 5ecf 17be c879 9a3e 0cfe 523e
00000080: e3dc 7b3e cf46 77be 0dbf 3cbe b854 7abe
00000090: 8819 51be e1c3 cf3e e618 513e fb3d 703e
000000a0: 5364 24be abf0 5fbe ee75 75be 9f03 88be
000000b0: a069 4c3e 9962 6e3e b506 373e 118b 8ebe
000000c0: f982 913e 132b 723e 879f 4d3e 06ad 2d3e
000000d0: df9e 793e ef0f 4cbe a7df 8c3e f89b 7b3e
000000e0: 8408 79be 75e4 5fbe 4974 953e f529 91be
000000f0: 5316 94be ae3e a5be d81c 693e 1c8c a43e
-0.2884551 0.19842264 0.31674373 -0.23188445 -0.20049663 0.21929677 -0.06040326 0.24204609
0.21848321 0.29222113 0.14981037 -0.16498588 0.19128211 -0.222446 0.27307725 -0.2149221
0.37558016 0.2719627 0.2513285 0.17321756 0.22023684 0.2781946 -0.2989748 0.2087587
0.26400667 0.2420852 0.24152751 -0.2089359 -0.25777787 -0.14825198 0.30171037 0.20604724
0.2459598 -0.24148105 -0.18432255 -0.2444638 -0.20419896 0.4057913 0.20419654 0.23461144
-0.16053896 -0.21869151 -0.23970768 -0.26565263 0.19962168 0.232798 0.17873652 -0.27840474
0.28420237 0.23649244 0.20080386 0.16960534 0.24377011 -0.19927953 0.27514383 0.24571216
-0.24319655 -0.21864493 0.2919028 -0.28352323 -0.28923282 -0.32274383 0.2276491 0.32138145
