time_LossPrune/model1_Climate.pth (torch, 209614 bytes, 12 tensors)

weight f4 [125, 16]
00000000: 8624 e4be c26e 97bf 7f90 06bf a17c 4fbf
00000010: c852 2fbf bb83 813f 8259 0bbf 96e5 553f
00000020: 3f23 303f 98a4 5cbf 9a4a 613f f0bc e23c
00000030: 9cf4 993e 7ef6 6f3f dad6 95bf cc13 b93e
00000040: 8a14 9ebf 7c24 a1be c619 09bf 40e7 75bd
00000050: b32f 1cbe ec2f 37bf d8af 4e3e 164d c53c
00000060: 7cff 5c3f ba03 04bd f52e 63bf a460 2f3e
00000070: e624 013e c1e5 c1bf d0e5 aabe 84a7 fd3e
00000080: b7b9 a4bf d0f2 3940 ef19 d7bf 2096 4740
00000090: e08b 813f 00a2 75bf 14c4 4d3f 6c23 b03f
000000a0: b397 0f3f cb50 233d a3fb 9f3f 2e7e cbbe
000000b0: 6670 a1be 66c6 58bf 3a73 01bf 5b37 a93e
000000c0: d546 ac3f 1b9f febe 7a00 d43f 9ad1 a13f
000000d0: beb5 dfbf 5f58 05bf 42a9 41bf 635a 043f
000000e0: 0da0 a23d 2093 49bf 5f32 17c0 0ae1 9fbf
000000f0: 23c6 86bf fb42 c53f bf73 f23c 930e 863d
00000100: 460e 5ebf 8796 aabf bf3a d63e 2d7e 063f
00000110: 17df 953f f5a9 69bf 56b4 b1bd 9f1c 1dbf
00000120: 8084 a7bf a1f7 b4be 79c0 243d ff0c 6cbf
00000130: 4632 3d3f c0a3 2ebf c4f1 de3e 0c1a 7cbf
00000140: 517e 493f e03e 27bf 6947 3e3f 75cb df3f
00000150: 1fdd 963d 4a79 2ebf ec47 11be 91f2 ed3f
00000160: c97d c6bf f3f2 14bd be42 a73f 0318 ba3d
00000170: a8fe ac3c c648 1d3f 2ee8 37bf dbae 3c3e
00000180: 5fcd aabf 4f90 b9bf 1ad9 3bbf 615e 05c0
00000190: 3391 ab3e f0b2 0dc0 8f65 3e3f 804b c5bf
000001a0: 9a55 14bf 7b72 49bf 72b3 abbb 201e e13f
000001b0: cb0d 43bd bbbe 183e 8e0e 32bf 9531 3cbf
000001c0: ec4b 10c0 6e03 70bf ddba 033f 91ce a33f
000001d0: eabe c53f 6d39 bfbf f050 a83e ae92 34bf
000001e0: 9c86 10be 8182 b33f 4214 10bf 939c a93e
000001f0: 6017 9c3e d0e4 033f 49fb d3be c880 613f
00000200: 7250 1b3f 3cef e6be 08db 3dbf edb6 893e
00000210: 2b61 3a3f f97e 6e3f 7a60 073f 1b43 cbbe
00000220: 4115 c7be bc93 823f 46ae 2abf 9e9a 17bf
00000230: a258 7bbd e868 af3e 2039 8bbf 47a9 6abf
00000240: 3afa 13c0 cd56 83bf 6874 be3f 63b0 793e
00000250: bdf1 0abf 400d 833f ccfa 5a3f 0cb1 e93f
00000260: 54c8 013f 977e 0940 9831 53bf 8082 7dbf
00000270: 8f51 983e 328d 2c3e f50a 93bf 5b1a ad3e
00000280: f02c 913e 1576 2dbf bb18 123d 8038 b43e
00000290: e377 0940 bd18 c4bf 9898 93be 3267 d0be
000002a0: 663f 9abe 5c49 56be 9c57 5abf 02f1 50bd
000002b0: e9eb cd3f e1d8 cbbe f26e bbbe 5ff0 8c3f
000002c0: a797 6e3f 8168 9dbe c05c b7bf 3365 1c3d
000002d0: 4b0c b83e 6e57 8abe 3f8d e6bf 2a11 293f
000002e0: ed2b 783f 9f60 debe bffc 9ebe c2d8 803f
000002f0: 4ec8 58bf ad51 0340 bd07 e1bf 4708 95be
00000300: e868 bb3e c37d 83bf fc7e c93f daa2 f53e
00000310: fb64 3dbf 49a7 0cbf cb31 ae3f 6fa3 53bb
00000320: 56fb 413f 86f7 fcbe c6ac cfbe d1ef 1440
00000330: c0b8 e4bf 5609 0a40 72d4 12bf ea4b 50bf
00000340: d070 1b3e 7c82 46bf 6398 86be 224f 40bf
00000350: 2e20 f2be 81e2 3e3f c95e 68bf 4fef cbbf
00000360: 702a 983f 96f7 ddbe 9370 43bf 03d1 5a3c
00000370: 13ff 2dbf fb6e 8a3f 222d 6dbe 048e 16bf
00000380: f007 e03f c739 9fbf fed9 ec3e 238d 95be
00000390: 7509 99be 9832 2cbf 2863 273f 6859 2d3f
000003a0: 55d6 09c0 81c2 debe 2d31 f9be 9abf 703f
000003b0: b1fe 0240 4909 72be 3e78 3d3d 45c2 6c3f
000003c0: 91e6 4cbf 0721 133f 5234 c93f fe2e 33be
000003d0: 1818 dabb 43a8 39be bf1f 99bf 1f3c 1040
000003e0: 3d18 13bf 3a0d 763f c3cf 173f 9ecf 033f
000003f0: 42e3 043e 796e d93d e136 9f3f 9c20 f9bd
-0.44559115 -1.1830676 -0.52564234 -0.81049544 -0.6848569 1.0118326 -0.54433453 0.83553445
0.6880378 -0.8618865 0.8800446 0.027677983 0.30069435 0.9373549 -1.1706192 0.36147916
-1.2350018 -0.31473148 -0.5355495 -0.06003499 -0.15252571 -0.715575 0.20184267 0.024084609
0.8632734 -0.032230116 -0.88743526 0.17126709 0.12611732 -1.514824 -0.33378458 0.49541867
-1.2869176 2.905445 -1.6804789 3.118538 1.0120811 -0.9595032 0.80377316 1.376081
0.5609085 0.039871972 1.2498668 -0.39744705 -0.31531066 -0.8467773 -0.50566447 0.33050045
1.3459116 -0.49730763 1.6562645 1.264209 -1.7477338 -0.5208797 -0.7564889 0.5170042
0.079406835 -0.7874012 -2.3624494 -1.2490551 -1.0529217 1.5411066 0.029596208 0.065457486
-0.8674053 -1.3327187 0.41841695 0.5253628 1.1708707 -0.9127496 -0.086769745 -0.613718
-1.3087311 -0.35345176 0.04022262 -0.9220733 0.73904836 -0.6821861 0.43543828 -0.98477244
0.7870837 -0.65330315 0.74327713 1.7483965 0.07366394 -0.6815382 -0.14187592 1.858965
-1.5507137 -0.036364507 1.3067243 0.09086611 0.021117523 0.6143917 -0.71838653 0.18426077
-1.3343924 -1.4497164 -0.73378146 -2.0838854 0.33509216 -2.2140465 0.74373716 -1.5413666
-0.5794312 -0.7869031 -0.0052398974 1.7587318 -0.047620576 0.14916508 -0.6955346 -0.73513156
-2.254634 -0.93755233 0.51457006 1.2797414 1.5448887 -1.49394 0.3287425 -0.70536315
-0.1411385 1.4024202 -0.5628091 0.3312727 0.30486584 0.51521015 -0.41402653 0.8808713
0.60669625 -0.45104396 -0.7416234 0.26897374 0.72804517 0.93162495 0.52881587 -0.39699635
-0.38883403 1.0201335 -0.6667217 -0.592203 -0.061363824 0.34259725 -1.0876808 -0.91664547
-2.3121476 -1.0260864 1.4879274 0.24383692 -0.54275113 1.0238419 0.85538936 1.8257155
0.506963 2.1483514 -0.8249755 -0.9902725 0.29749724 0.16850737 -1.1487719 0.3380917
0.28354597 -0.67758304 0.035668116 0.35199356 2.1479423 -1.532005 -0.28827357 -0.40703732
-0.30126494 -0.20926422 -0.8528993 -0.051011093 1.6087619 -0.39813903 -0.36608082 1.1010855
0.93200153 -0.30743793 -1.432518 0.03818245 0.3594688 -0.2701983 -1.8011855 0.66041815
0.96942025 -0.4343309 -0.31052205 1.0066149 -0.8468064 2.05186 -1.7580487 -0.29107878
0.36603475 -1.0272754 1.5741878 0.47975808 -0.7398221 -0.54942757 1.3608946 -0.003229346
0.75774133 -0.49407595 -0.40561503 2.3271372 -1.7868881 2.1568198 -0.57355416 -0.81365836
0.15179753 -0.77542853 -0.26288137 -0.7512075 -0.47290176 0.7456437 -0.9076963 -1.5932406
1.1887951 -0.43352956 -0.7634365 0.013355496 -0.6796734 1.0815119 -0.23161748 -0.5881045
1.7502422 -1.2439507 0.46260065 -0.2920924 -0.29890028 -0.672647 0.65385675 0.6771455
-2.1537068 -0.4350777 -0.4867033 0.9404236 2.0467951 -0.23636355 0.04625725 0.9248393
-0.80039316 0.5747227 1.5719092 -0.17498395 -0.006655704 -0.18130593 -1.1962813 2.2536695
-0.5745886 0.9611393 0.59301394 0.51488674 0.12977317 0.10616774 1.2438623 -0.12164423

weight_ih_l0 f4 [192, 17]
00000000: 2626 dfbd 7e09 52bd 2b4f 66be f750 ce3d
00000010: c7a0 2bbe 6280 88bd 8726 19be e56b 173e
00000020: 3bbd e3bd 40e8 233e c0db 76be 88cf 3c3d
00000030: 2621 2fbd 588d 16bd e8ae 1bbd c6b5 043e
00000040: 401a 643d 4353 9dbd 6d1b 343d 7400 13be
00000050: 3242 8d3e d3d2 21be 41ad 4dbe a3eb f3bc
00000060: 65fc 293d 2f8d efbd daea c13d 8af1 49be
00000070: d8be 83bd d904 9bbb 0cab 313e 08b3 15be
00000080: f44a 263e 2861 77be a35f 313d 5c2e d7bc
00000090: d80c 4b3e dce6 283d 5a55 2abc 106f 7d3d
000000a0: 3b1b 9bbe 44c5 753b 93e5 cf3d 2f30 9bbb
000000b0: ec2a c3bd 448d 2c3a 392b 033d 9a24 2cbe
000000c0: e5f1 2c3e 1445 9ebd 024d 613d 79bd 973e
000000d0: 2ad3 1cbd a02a b8bd 1ef5 f53d 2c51 d43c
000000e0: 16d5 9bbd 5f23 c93b 8d44 a33d a84f 283e
000000f0: 6c58 143c 98a0 32be 8e97 d7bd 713b 45bd
00000100: 89f6 7abd 6e94 493e 3247 233d 0e99 07bb
00000110: 9dbb cf3d d107 3f3e a965 aebd e21b 03be
00000120: 1c52 33bd 7ee1 21bd 4673 a3be 36c7 053a
00000130: 6b8d 953d d208 153e b82e c3bd 00b4 993d
00000140: d9a7 4fbd b168 733d f8d7 cbbc 58fb 043e
00000150: 3414 b23c 5420 f43d e178 5f3e 602c 2fbb
00000160: b260 03be b809 bfbd 9df2 3dba 93af 04be
00000170: 9e67 cbbd 3188 f33d 8a13 c93d d3a4 d8bd
00000180: 7980 79be 702a 11bc 517d 3e3e 230c 353d
00000190: cb25 7ebc 579f 013e 317e 203e a9ad 59bd
000001a0: 1aa1 41be 57d1 04bd 673e 74be a4fe e9bd
000001b0: 747b 86be 1e38 793e b80b e2bd 262e 253e
000001c0: 0ce5 563d 4e4a 843d d18d 013e c004 13bd
000001d0: 0c62 133e c702 cf3c 2932 fdbd 5426 07be
000001e0: e57e 8a3d 7094 d1bd c058 e5bc b00a c8bd
000001f0: 96e5 673d 30d6 0b3e 557a 2e3d 83ed 4dbe
00000200: a05f 323d 25fb 79be 6699 95bd 6531 5d3d
00000210: 089c 7fbd b194 1c3e 6bf5 353c 0d21 8abd
00000220: 0308 3a3e 7796 613e d451 abbd c067 f53d
00000230: 4cf3 81be 858a d1bd fbfa 693c 40e5 e63c
00000240: afaf 42be d2d9 7d3e 0cfc 9dbc 1b59 993c
00000250: 6f15 c3bb 10ec b63d 3fcd 2abe 4418 ecbb
00000260: 629a 05be d23c ccbc 2712 353e 876d 90bd
00000270: 1471 ecbd 3ffd 8fbc b309 fcbd 74c3 f9bd
00000280: 74cc 693c 8be8 20bd 29ee 963d a0f0 3fbd
00000290: 7abf 5ebc ee3f b1bc 92ed 34bd eda6 8c3b
000002a0: 82f6 dbbc 8650 993d 38bc 8ebc 65ac 54bd
000002b0: c997 ba3b 0db0 113e 2172 563d 12e4 a0bd
000002c0: 441f e73d 58f3 a1bd 530a 7bbd a32d f3bd
000002d0: c642 973d 3b01 5ebd ade4 a0bd 11d9 0d3b
000002e0: 114f 543e eb2a c3bd 48fc 533d 47ff 903e
000002f0: a8f0 d13c 6e0b bdbd d905 ed3d 2599 ba3b
00000300: 23e6 b33c e97c 9cbd 4004 70bd d18c aabd
00000310: 21c3 ee3d 6cd8 97be e759 34be c45c b2bc
00000320: 1f6a 10bd d56a 37be 2c16 243e 5d7a 473d
00000330: 2800 ab3d faad 423d eeff 07be 57d9 7c3c
00000340: 855d 8e3d 32e3 0f3d de61 94be 8834 a3bd
00000350: 89ef 02be 29bd d33d 8440 233d d3f2 1abe
00000360: cf07 59be be7e 223d d5be 1dbe eb30 22bd
00000370: b5bd 82bb c445 643e b42b 273e 9acb 04be
00000380: 29d3 dcbd 2c7e 44bc 3e31 7f3d 1405 09bd
00000390: f01e ce3d 949b fa3d 9d7e 77bc ea4b 043e
000003a0: ead2 7abe 9e76 ac3c 3769 2cbe 9762 efbc
000003b0: bbab d9bd 8ef3 273e fcb8 40be 8f66 81bc
000003c0: 2951 193d f51e 043e f719 f6bd aeb0 103e
000003d0: 7e04 0c3e aaf5 f4bd 3609 39be 9079 5dbd
000003e0: cf52 26be c52a b1bd 831b 073d b1f1 cdbd
000003f0: 728f 803d c34e 89bd 9672 4c3e d00e e13d
-0.10895948 -0.051278584 -0.22491138 0.100740366 -0.1676055 -0.06665112 -0.14956103 0.14787252
-0.11120077 0.16006565 -0.24107265 0.046096355 -0.042756222 -0.03675589 -0.0380086 0.12959966
0.055689096 -0.076818965 0.043971468 -0.14355642 0.27589566 -0.1580308 -0.20085622 -0.029775446
0.041500468 -0.116968505 0.094686225 -0.19721046 -0.06432885 -0.0047308025 0.17350405 -0.14619076
0.1623953 -0.24158156 0.043304097 -0.026267223 0.19829118 0.04123579 -0.010396326 0.061873496
-0.30294213 0.0037501613 0.1015121 -0.0047359685 -0.09529671 0.00065823295 0.032023642 -0.16810837
0.1688915 -0.07728019 0.05500508 0.29636744 -0.03828732 -0.08992505 0.12009643 0.025917612
-0.07609002 0.0061382498 0.079720594 0.16436636 0.009054285 -0.17444074 -0.10526954 -0.04815239
-0.06127027 0.19685528 0.03986282 -0.0020690593 0.10143206 0.18655325 -0.08515484 -0.12803605
-0.043779477 -0.039521687 -0.31923884 0.0005103232 0.07302364 0.14554146 -0.09530395 0.075050354
-0.05069718 0.059426013 -0.024883255 0.12986505 0.02173815 0.119202286 0.21823455 -0.002672933
-0.12829855 -0.093280256 -0.000724593 -0.12957601 -0.09931873 0.11891211 0.0981818 -0.10578313
-0.24365415 -0.008860216 0.18602492 0.044201028 -0.01551194 0.1265844 0.15673138 -0.05314413
-0.18909112 -0.032426205 -0.2385193 -0.11425522 -0.26266062 0.24337813 -0.110373914 0.16130885
0.05246453 0.06459485 0.12651755 -0.0358932 0.1439287 0.025269879 -0.12363083 -0.13198215
0.067624845 -0.1023339 -0.02799642 -0.097676635 0.056615435 0.13655925 0.042597134 -0.20110135
0.043548226 -0.2441221 -0.07304649 0.054002184 -0.062404662 0.15291096 0.0111058755 -0.06744585
0.18167119 0.22030054 -0.08365217 0.11982679 -0.25380933 -0.10231499 0.01428103 0.028185487
-0.1901233 0.24790123 -0.019285224 0.018719247 -0.005953483 0.08931744 -0.16679858 -0.007205041
-0.13047174 -0.024931345 0.17682706 -0.07052141 -0.115450054 -0.017576812 -0.123065375 -0.12195483
0.014269937 -0.03928427 0.07369644 -0.046860337 -0.013595456 -0.02163693 -0.044171877 0.00429236
-0.026850943 0.07486062 -0.017423734 -0.05192222 0.0056943637 0.14227314 0.052354936 -0.07856001
0.1128526 -0.07907742 -0.061289143 -0.11873939 0.07385783 -0.054200392 -0.078561164 0.0021644274
0.20733286 -0.0952967 0.051754266 0.2831976 0.02562745 -0.09230696 0.11573381 0.005694526
0.021960324 -0.07641012 -0.058597803 -0.0832764 0.11658312 -0.29657304 -0.1761242 -0.02177275
-0.035257455 -0.17911847 0.16024083 0.04870068 0.08349639 0.0475292 -0.13281223 0.015432677
0.06951431 0.03512878 -0.28980917 -0.07969004 -0.12786688 0.10338814 0.03985645 -0.15131693
-0.21194385 0.039671652 -0.15404828 -0.039597433 -0.0039899 0.22292238 0.16325265 -0.12968293
-0.10782463 -0.011992972 0.06230282 -0.03345211 0.100644946 0.122367054 -0.015105871 0.12919584
-0.2449452 0.021052655 -0.16837011 -0.029221816 -0.10628458 0.16401502 -0.18820566 -0.015795974
0.037430916 0.12902434 -0.12016671 0.14129898 0.13673589 -0.11960919 -0.1806992 -0.05407101
-0.16242526 -0.08650736 0.03298522 -0.100558646 0.0627736 -0.06704476 0.19965586 0.109891534

weight_hh_l0 f4 [192, 64]
00000000: 0ebf acbd 3209 09bd 8254 afbc baaa b1bc
00000010: c9ed 1b3b 9ec2 59bd 2150 373e 493f e43d
00000020: 0fca 14bd dc85 54bd 7b6a 18bd 24f2 b0bd
00000030: 1776 e53d 5060 1e3e 0cf5 78bb b2cd b7bc
00000040: 633a 2bbe 0b40 e53d ae6b 4cbd 8dca d9bd
00000050: b39b ddbd b00c e6bd 1c54 723d 3dd1 f23d
00000060: f472 863d a10c 9b3c a52b 093e 73ed cbbd
00000070: 79b8 213d e6d3 173d a001 d33c 286f 05be
00000080: 05f8 90bc 0f6f 02be 972d d43c bd5c c8bc
00000090: ee06 44be 19bc c23d 1ea9 21be b597 bcbd
000000a0: e62c dabd 3832 0b3e e2d5 84bd bc4b febd
000000b0: 803f 733d 630d edbd 9c81 71bd 0c37 2b3e
000000c0: fe19 0f3b 9a39 633e 323d 07be 33f1 063b
000000d0: 6894 56bd bc65 ab3d ba8a 80bd 1927 ebbd
000000e0: 543d 84ba 53d7 733d 86e9 de3c cb78 a73d
000000f0: 6dba 78bd ebd3 d33d 158d 153e c7e0 8c3d
00000100: 0003 12be d4a1 953e 0167 87be 8791 9b3d
00000110: b358 5fbe fde8 3fbc 0dae 863d 2aa9 113e
00000120: 61ca 833e e467 1a3e c15f 0cbe 75fb 68bd
00000130: c12a 89be baa6 443e ad2d 22be 33b7 3cbc
00000140: fac1 a13d 381e a43e 7766 1bbe 9f1b d0bd
00000150: b56b a2be 9189 ed3d 5067 9b3d cf7a 8dbe
00000160: fa21 95bd 35ad 413e e9c7 91bd 543c 5d3d
00000170: 69a5 24bc d2f2 923b 2467 013d be1a f43d
00000180: dad7 0d3e b16b 9e3d 47cb 403e 061d 7bbe
00000190: 28a0 623d c1d7 2bbe e932 22bd 6983 84be
000001a0: 9c8b 393e f340 12be 963d 53be 1fc5 69be
000001b0: a996 943d aa25 68bd e2c7 45be 6036 063d
000001c0: 491e 213d b551 e13c 4eb7 a83c 29cc 4cbe
000001d0: 1477 94bd de24 acbd 00e3 d8bd b09d 89bd
000001e0: 1c71 c9bd 762b 97bd 2a8a 09be 1548 ec3d
000001f0: 7b52 3ebe 8b18 623e c7a6 a53e 27f0 e0bd
00000200: 3c54 24bd 6b7d a23c b844 9cbd cd88 17be
00000210: 08c8 0bbc ec51 87bd bc80 81bd 4df0 1cbe
00000220: ccf2 42bd 0ae2 083c 76f1 483e 8d49 933c
00000230: 6510 5cbd 25d1 27be b21a 8d3d 662d 54be
00000240: 2ab5 c7bd 3dff 43be ddbb 573d dde9 163e
00000250: c4db a43d ec7b b1bd a8b9 1abe 25ee 5d3d
00000260: ea8f 9fbd 8beb 2ebe 5d85 473e 079e 78be
00000270: 4a2b 383d 14c2 023e 5299 47bd 3006 003d
00000280: a89f 62be dd8e 8b3c c6a4 583d e59b 34bc
00000290: c480 573e 1afd eb3d 1e48 343e f208 56bd
000002a0: dcc7 fbbd 175e 3c3e ac79 e53d 64de fabd
000002b0: 2962 98be cdd9 f03d a69f bc3d 287a debd
000002c0: 6c70 84bd 7502 343e 2c08 32be 3a65 193e
000002d0: 7c7a 3dbd 16a9 c63d 33f1 0abe 5156 6a3d
000002e0: 1e82 7c3e 43e7 243e 7d1d 8d3d 3244 21be
000002f0: a255 5e3d 39e0 8ebe 308d 643e 3aad 3dbe
00000300: 04b9 b23c fd4f 03bd 4e12 d1bd 40a7 12be
00000310: bbea 693e affa 60bd 04db b5bc 51b0 2e3d
00000320: 27d2 843d 5a30 233c 8fb4 cc3d 86ad 823d
00000330: 8c5e f5bb 7339 e8bd 5f70 513e 4dd8 5f3d
00000340: dc48 4f3e 2e4c d8bd d279 5bbd 518a adbd
00000350: 6ef4 fd3a 0c48 1a3c 40cc 9a3d fec2 823d
00000360: b0b1 b53d f0a2 b73b 442d dabd bf46 d9bd
00000370: 36b7 203e e6df 2e3d b127 ea3d 9acd f1bd
00000380: 4a8f bf3d 3927 013d a974 82bb 181b 14be
00000390: 4c0c 683e fe1c 0bbe 37ca 3e3e 9e87 17be
000003a0: 9702 f93d 1174 c23c 734f b73d ea0e bd3c
000003b0: 33d7 983d 90c9 2c3e e7d6 423d 9a0e acbd
000003c0: 9ba0 91bd 1d73 32be 53e0 4ebd 0a37 05bd
000003d0: df76 ed3c 9552 adbd 1d5a aebc 08ff 67bd
000003e0: dc42 f3bd 954d 5e3d 7bb1 37bd 0774 78be
000003f0: eaec f33d f924 f8bd d345 cfbd 80b7 35be
-0.08434878 -0.033456035 -0.021402601 -0.021687854 0.0023792854 -0.053164117 0.1790166 0.11144883
-0.03632551 -0.05188547 -0.037210923 -0.08639935 0.112041645 0.15466428 -0.0037987856 -0.02243695
-0.16721492 0.11193856 -0.04990738 -0.106343366 -0.10820713 -0.11232889 0.059162244 0.11856315
0.06564894 0.01892692 0.13395555 -0.09957399 0.039482567 0.037067316 0.02575761 -0.13030684
-0.01769639 -0.12737678 0.025900645 -0.024458284 -0.19143268 0.09508533 -0.1578717 -0.09208623
-0.10653095 0.13593376 -0.064861074 -0.12416789 0.05938673 -0.11574819 -0.058961496 0.16720217
0.002183556 0.22189942 -0.13206938 0.0020590543 -0.052387625 0.08369014 -0.0627646 -0.11482067
-0.0010089078 0.05953152 0.027210962 0.08177336 -0.060724664 0.103431545 0.146046 0.068788104
-0.14258957 0.29225028 -0.26445773 0.075961165 -0.2181118 -0.011713264 0.06576166 0.14224687
0.2574034 0.15078694 -0.13708402 -0.056880433 -0.2679043 0.19204226 -0.15837736 -0.0115182875
0.07898326 0.32054305 -0.15175806 -0.10161518 -0.317228 0.11598504 0.07588065 -0.27632758
-0.07281871 0.1891373 -0.07118208 0.05401261 -0.0100492025 0.004484513 0.031592503 0.11919163
0.13851872 0.07735384 0.18827544 -0.2452279 0.05532852 -0.16781522 -0.039599333 -0.25881508
0.18119663 -0.14282589 -0.20628962 -0.22829102 0.07255299 -0.056676544 -0.1931453 0.0327667
0.039335523 0.027504781 0.020595219 -0.19999756 -0.07249275 -0.08405469 -0.10590172 -0.0671953
-0.09836027 -0.073813364 -0.13431612 0.11537186 -0.18586151 0.22079675 0.32353804 -0.109833054
-0.040119395 0.019835195 -0.076302946 -0.14798279 -0.008531578 -0.06607422 -0.06323382 -0.15326042
-0.04759483 0.008354673 0.1962336 0.017979408 -0.053726573 -0.16388376 0.06889857 -0.20720443
-0.09751351 -0.19140334 0.052669395 0.1473765 0.080497295 -0.08666214 -0.15109885 0.05418219
-0.07791121 -0.1708204 0.19484468 -0.24279033 0.04496316 0.12769347 -0.048730202 0.0312559
-0.22131217 0.017035896 0.052891515 -0.011023496 0.21045214 0.11522885 0.17605636 -0.052254625
-0.122939795 0.18395267 0.11204848 -0.12249449 -0.2976239 0.11760292 0.09210138 -0.10863143
-0.06466755 0.17579062 -0.1738593 0.14980021 -0.04625939 0.09700219 -0.13568573 0.057211224
0.24659011 0.16103844 0.0689039 -0.1574867 0.054280885 -0.27905443 0.22319484 -0.18523112
0.021816738 -0.032058705 -0.102085695 -0.14321613 0.22843449 -0.05492657 -0.022199161 0.042648617
0.06485396 0.009960258 0.09995376 0.06380753 -0.0074880775 -0.113390826 0.20453022 0.05464964
0.20242637 -0.10561405 -0.053582974 -0.084736474 0.0019375214 0.009416591 0.07558489 0.06384848
0.08871782 0.0056041405 -0.10653165 -0.10609197 0.1569489 0.042693995 0.11433352 -0.118067935
0.09353502 0.031531546 -0.003981192 -0.1446346 0.22660941 -0.13585278 0.18631826 -0.14797828
0.12158697 0.023736985 0.089507006 0.0230784 0.07462921 0.16873765 0.047568228 -0.084012225
-0.07110711 -0.17426725 -0.0505069 -0.032523192 0.028987346 -0.08463017 -0.021283204 -0.0566397
-0.11877987 0.054273207 -0.044846993 -0.24263011 0.11910422 -0.12116427 -0.1012074 -0.17745781

bias_ih_l0 f4 [192]
00000000: 97e4 06bd 1016 a03d 7f35 763e 264d 5a3e
00000010: b348 7c3e 90cd 833e f560 c23d ae00 b83d
00000020: 5a83 f03d 3a83 3d3d 807f c3bc 45de af3d
00000030: 70c8 043d ef92 023c 41a6 683d 82d1 273e
00000040: 608a 933d 3a75 9e3d 2ab8 9d3e 188a 2a3e
00000050: e15d 90bc 5759 e43d 9bee 9d3d 1e29 73bd
00000060: 559c 9bbc 8a9e 3d3e a954 4ebc f5f5 b8bd
00000070: 34e0 823e ed20 cc3d ea2e 5c3e e51c 343d
00000080: 2a04 36bc 3eaf 123e eefb 7a3d 6f54 5b3e
00000090: b5f2 2e3e bda9 05bd 5909 f13d 2ede 3a3e
000000a0: d4ee 3f3e f9a1 9e3e c688 86bd 3b14 843d
000000b0: 0ee5 c93d 81e1 c73d 1789 ebbd 44d2 873e
000000c0: ab30 a63d c7af 7c3e 9613 693d 0007 073e
000000d0: 873c cebc fdba b13e a030 363e 633a 023d
000000e0: a86b fd3d ae5c 223e 0c87 703e 144e b43d
000000f0: ec8a a1bc 3037 29bc 0be5 103e e6e0 2b3e
00000100: 85b7 2cbe 16cf 89be 4574 153e b0b8 483d
00000110: c3bf 8ebe 1f92 49bd c194 81be 08e0 28be
00000120: 5011 323d b03a 56bc 0604 0a3e a679 61be
00000130: 555c 5ebe 9a67 30bd 8148 f9bc 7329 9ebc
00000140: 3d8f ebbd 0ab9 fdbd 4ef0 7c3d 2f10 10bc
00000150: 7c72 7abe b953 b0bd f98a bcbd 6565 20bd
00000160: e0ba 99bb a74d 9c3d 7a9c f5bd 544b 2bbe
00000170: 57ff 04bd 2581 7abe 2e2b b1bd 7b6b 33be
00000180: 1951 aa3c 8f2f 77be c566 5dbe 1a54 ccbd
00000190: 6a6d 91bd c1c0 a1bc 72d0 91be 4fd8 6ebe
000001a0: f985 ca3d dab2 01be 1604 38be 27c6 d73d
000001b0: 73c8 153e 8be6 9bbe 7b0b bebd 5042 00bd
000001c0: 720d 823c 3052 0ebe 7473 1d3d 5d13 123d
000001d0: 106b 3abd 6738 16bd 9993 85bc e52a a4bd
000001e0: 8733 2e3d 5a9f 99be 6202 d8bb 5237 16be
000001f0: bd3f 19bd ad25 073e 71cd 7d3d 0e33 f3ba
00000200: 6f22 373e fd9f 4abd a4bf 25be 1b7d 94bd
00000210: 07a5 313d ad4a 84bd 2b62 b73d 27c7 8ebd
00000220: eb70 773d 77f9 a3bd 75cb b63d 7b0c 183b
00000230: e2c5 cc3d 330a a9bd eb86 57bd 6c11 1abe
00000240: 375d bd3c 330e 813d 3697 303c 75bc 18bd
00000250: 5886 8fbd 9647 2b3c 90eb a2bd 82b0 1b3c
00000260: 203a c23d 763b 7ebe c335 043e ecf7 8fbd
00000270: 0568 733d 8809 093e a195 ed3b b99b b1bd
00000280: 7671 a0bd 3e9e 31bd 884a a2bd 695e a53d
00000290: db33 e5bd 3198 b93d 78ed c13c afad f3bd
000002a0: 13aa dabd c3d4 853e f79d ccbd 9747 36be
000002b0: f9db 7c3c 3a42 9abc d668 483e 86da 1f3d
000002c0: 151d 81bc 92ca 683e 9886 3cbe 983f c93d
000002d0: 1cfa 68bd f2b8 0f3e 96b5 b93c b32a 8b3d
000002e0: 18f5 04be 7184 b53d 5184 02be b75d 18bc
000002f0: 3d08 e2bd 40f5 5c3d 15fa 80bd 7c5f fabc
-0.032932844 0.07816708 0.24043845 0.21318492 0.24637108 0.2574277 0.09491149 0.08984505
0.11743803 0.046267726 -0.023864508 0.085873164 0.032417715 0.007969602 0.056799177 0.16388515
0.07204127 0.07737203 0.3080457 0.16654241 -0.01762289 0.11149853 0.07711526 -0.059365384
-0.018995443 0.18517509 -0.012593427 -0.090312876 0.25561678 0.099672176 0.21502271 0.04397287
-0.011109391 0.14324662 0.061275415 0.21418928 0.17084773 -0.03263258 0.11769361 0.18248817
0.1874345 0.3098295 -0.06569056 0.06449171 0.09858142 0.09759808 -0.11500757 0.26527607
0.081147514 0.24676429 0.056903444 0.13186264 -0.025175346 0.34712973 0.17791986 0.031793963
0.123740494 0.15855667 0.23489016 0.08803955 -0.019719563 -0.010328099 0.14149873 0.1678501
-0.16866882 -0.26915807 0.14595135 0.049004257 -0.27880678 -0.049211618 -0.25308803 -0.16491711
0.04347354 -0.013075516 0.13478097 -0.22019061 -0.2171491 -0.043067552 -0.03043008 -0.019306874
-0.1150193 -0.12388809 0.06175261 -0.008792921 -0.24457735 -0.08609719 -0.092061944 -0.039159197
-0.0046914667 0.076319985 -0.11992736 -0.16727954 -0.032470074 -0.24463327 -0.08650814 -0.1752147
0.020790624 -0.24139236 -0.21621235 -0.099769786 -0.07100947 -0.019745233 -0.28479344 -0.23324703
0.098888345 -0.12665883 -0.17970309 0.105358414 0.14627247 -0.30449328 -0.092795335 -0.03131324
0.015875552 -0.1389854 0.038440183 0.035662998 -0.04551226 -0.036674883 -0.016305732 -0.08015994
0.04252961 -0.30004388 -0.006592081 -0.1466954 -0.0374143 0.13197966 0.061963502 -0.0018554644
0.17884229 -0.049468983 -0.16186386 -0.072504245 0.043370273 -0.06459556 0.08954271 -0.06971579
0.06041042 -0.08006566 0.08925525 0.0023200798 0.09998681 -0.082538985 -0.052618902 -0.15045708
0.023115737 0.063015364 0.010778239 -0.0372891 -0.07008046 0.010454079 -0.07955086 0.009502532
0.09483743 -0.2482737 0.12911133 -0.07029709 0.059425373 0.13382542 0.007250503 -0.0867228
-0.07834141 -0.043363802 -0.07924372 0.08074648 -0.11191531 0.09062231 0.023672804 -0.11898362
-0.1067697 0.26138887 -0.09991067 -0.17800747 0.015433305 -0.018830407 0.19571242 0.03902676
-0.015760938 0.22733524 -0.18410718 0.09826583 -0.056879148 0.14035395 0.022669595 0.067952536
-0.12984121 0.08863152 -0.12745787 -0.009299687 -0.110367276 0.053944826 -0.06297699 -0.030563109

bias_hh_l0 f4 [192]
00000000: 0d6b cc3d 9bb0 3dbd ae3f be3d c789 213e
00000010: 35b8 353e eb52 a93e c962 013e dadf 803d
00000020: 51a4 023e bc68 c73d f4ce 8b3d 4c7c 693e
00000030: 703e 7ebd 9262 d73c 0664 c3bc ac07 103e
00000040: 05ad ed3d 301a 1d3d f40c 5d3e af93 4e3d
00000050: b16b 013e b79d 17bd f32f 4a3e 30bd 86bd
00000060: 2ec2 0b3e fdf1 243e 13eb 263e e295 c43c
00000070: 1caf c63d 29b7 b3bc f96d 9a3e cb86 e33c
00000080: cdbb 0d3e 9200 9b3d 42b7 4b3e 45c2 343e
00000090: 14b2 85bc ec36 7d3d 5058 e13d 0fcc 2d3e
000000a0: dcaf 833e 8d74 1d3e 3bd0 ab3d 35b3 dd3b
000000b0: e77c ae3d 45e9 3c3e 9605 3c3c 4dce b13e
000000c0: b4c8 2d3e 9b5c 8b3e 8d8e 49bc 571f 523b
000000d0: 56b3 5f3d 33b9 723e 90c5 c83d 7655 c03d
000000e0: 5124 5b3c 3166 9a3d c0cb a23c e05f 4d3d
000000f0: 93f2 a9bd 6d2d 8fbc f08c 103e 940c 6f3e
00000100: 1ba6 6abd 700d 9bbd a967 dd3d 7771 6cbd
00000110: 4b86 06be 7718 8e3b 9be1 25be f0d9 253d
00000120: 9f79 5d3c 43bd 41bd 1817 9f3d d63d 0dbe
00000130: d0e4 5abe 136f 46bd 4ccf 19bd f27a 18be
00000140: 1ede 8b3d 4235 29be f8a6 043e 80ca 23be
00000150: de43 0cbe cda8 82bd 22bf a5bd 42c7 163d
00000160: 81f5 3cbe bccd 73bb ccb9 acbc c3fe ecbd
00000170: a6f4 ed3c 7f16 5ebe ad3a e1bd a3e5 e0bd
00000180: 8c48 d53d 4f74 b2bd 393b 7fbe 251d 75bd
00000190: 585e 1b3c db33 dfbc 6fd0 d4bd 7297 53be
000001a0: 594e fdbd 4496 d53b 7743 91be f51a cd3c
000001b0: 2a8d f63d fd04 06be 748c 2d3c d19d 6cbe
000001c0: c56b 273e 1a21 5d3d cf11 c93d 7da5 403c
000001d0: 8695 3dbc faf1 b93c a3df 2abe 1265 12bd
000001e0: ee3a fa3d a718 c0bd db48 193c 9f6e 79bd
000001f0: b100 d63b 5bb7 163e 0433 203d 9da5 1ebe
00000200: 1c4c a83d 1e42 b93b d27c f8bd a8c8 0ebd
00000210: 191e 233e 2533 96be 9c7f a63d f365 0f3c
00000220: e6aa 253e 2901 fb3d efb9 40be ebd1 153e
00000230: c832 0e3e d56c d6bb 8c44 a6bd 4858 f83b
00000240: c637 5bbd 896b 6fbd 176e b53d 0120 c33c
00000250: 772d 4bbd 1273 843d 3368 943c 13ef 173e
00000260: 6678 94bd 3615 c3bd 8511 023e 320a bcbb
00000270: 729a a6bd beb6 93bd d824 333d 3e44 acbd
00000280: 7fef 0cbd 1c15 f0bd 91f5 16be e466 033e
00000290: e659 2cbe ac91 58bd c98e d43d f4bf 1b3c
000002a0: 5225 94bd 14b7 663e b12c 0a3e f534 86bd
000002b0: b50e bd3d 8477 533d f56a 6ebd 2212 21bd
000002c0: 0406 13be 6759 863e 40ac 3dbe e9b2 d43d
000002d0: 6f96 263c 3acc a53e 2796 853d d5eb f23d
000002e0: 2d60 283b 07d2 aa3a 2521 e9bd 64b9 acbd
000002f0: 55ef 2dbe 0acb 7b3d a794 253e d373 333e
0.09981356 -0.046311002 0.0928949 0.15775214 0.1774605 0.33071074 0.1263534 0.06292696
0.12757994 0.09736773 0.068265826 0.22801322 -0.062071264 0.02629212 -0.023851406 0.14065427
0.116052665 0.038355052 0.21586972 0.05043381 0.12638737 -0.037015643 0.19744854 -0.065790534
0.13648292 0.16107936 0.16300611 0.023997251 0.09701368 -0.021937924 0.30162027 0.027774235
0.13841172 0.07568468 0.19894126 0.17652233 -0.016320266 0.061819956 0.110031724 0.16972373
0.25720108 0.15376492 0.08389326 0.006765748 0.08519917 0.1844836 0.011475941 0.34727708
0.16971093 0.2721909 -0.012302053 0.0032062137 0.054614387 0.2370346 0.09803307 0.093913004
0.013375358 0.07539023 0.019872546 0.05014026 -0.082982205 -0.017477715 0.14116263 0.23344642
-0.057287317 -0.075709224 0.10810787 -0.057725396 -0.13137166 0.0043364125 -0.16199343 0.040491045
0.013517766 -0.047299635 0.07768077 -0.1379312 -0.21376348 -0.048445772 -0.03755121 -0.1489065
0.06829475 -0.16524222 0.12954319 -0.15995216 -0.13697764 -0.063798524 -0.08093096 0.03681112
-0.18453027 -0.0037201485 -0.021084689 -0.115720294 0.029047322 -0.21688269 -0.1099752 -0.109813
0.10414228 -0.0871359 -0.24924935 -0.059842248 0.0094829425 -0.027246406 -0.10391318 -0.2066324
-0.12368459 0.006518157 -0.28371784 0.025037268 0.12038644 -0.1308784 0.010592569 -0.23107077
0.16349705 0.053986646 0.0981785 0.0117582055 -0.011571294 0.022698391 -0.16686873 -0.03574092
0.12218271 -0.09379702 0.009355749 -0.060896512 0.006530844 0.14718382 0.039111152 -0.15492864
0.08217642 0.0056536337 -0.121331826 -0.03485933 0.1592945 -0.29335895 0.08129808 0.008752334
0.16178474 0.12256081 -0.18820928 0.14630859 0.13886559 -0.0065437355 -0.08118543 0.0075788833
-0.053519987 -0.058452163 0.088588886 0.023818972 -0.049603906 0.064672604 0.018116092 0.14837293
-0.07249527 -0.0952553 0.12701996 -0.00573852 -0.08134927 -0.0721259 0.04373631 -0.08411454
-0.03440809 -0.11722776 -0.14742114 0.12832218 -0.16831169 -0.0528733 0.103787966 0.009506214
-0.07233681 0.22530776 0.13493611 -0.065530695 0.09231321 0.05162765 -0.05820747 -0.039323933
-0.14357764 0.26240084 -0.1852274 0.10385687 0.010167702 0.32382375 0.0652278 0.11861388
0.002569209 0.0013032564 -0.11383275 -0.08433798 -0.16985829 0.06147293 0.16169988 0.17524652

weight_ih_l1 f4 [192, 64]
00000000: 2d38 74bd 7dd8 c03d 1a37 a5bd 6fbe 94bd
00000010: 405d c4bd 3e46 49bd bbfb cfbb 33bd 6d3d
00000020: ea4a 0dbd e77f ee3d 81c8 453d b855 d5bc
00000030: a9c2 3fbc d63c 103e 47b2 7abe 9497 f63d
00000040: 0031 10be f39d 363e 55ec a1bb b91b f8bc
00000050: f861 d9bd 1dea 0b3e 8c19 fe3d 5c0a 93bd
00000060: 9984 b6ba df61 f9bc 98a4 64bd 155d 87bc
00000070: 3a0d 0ebb 0acf 653b fd7b 25be e743 0f3e
00000080: 91c7 d23d 5c0d 673c ad49 3fbc 1182 0e3d
00000090: a79e 943d fb47 9abd 38c6 efbd c012 3b3a
000000a0: ad33 7e3d 0df7 10bc 5038 30be 93e0 b5be
000000b0: d794 3a3d c317 17be d42d 33bd 7f05 163e
000000c0: 2851 033c 315a a4bd fa82 8d3e 7ae9 8abd
000000d0: d216 7cbe 6206 5fbd 2742 9b3c a267 b0bd
000000e0: 63d1 16bd da46 20bd 3426 363d 1370 4d3e
000000f0: f73c 20be 164c 0f3e 21ae 693e 90a4 b5bd
00000100: 255b 47be 8884 bf3d a908 ae3c 2b08 1c3d
00000110: 1b11 a23c 3082 d2bb 9e98 043e 9900 f0bc
00000120: e7bf 04be cc18 01bd 7d07 15bd c27f 0a3c
00000130: 9553 533d d41c 933c d700 7a3d fdb2 5e3d
00000140: 13f4 04be 67c3 363e cbef 9c3c aecf b53b
00000150: 980e 94bd 80b4 483d e926 ee3c d9d5 41be
00000160: d7f9 10be 632a 283e 70ae e33d 7395 5abc
00000170: faf4 dbbd 89eb 8e3d cc5b b4bd bd44 2f3e
00000180: 06f7 933d ff2a 453d 8194 ab3d d92e 413d
00000190: 016b 1abe 60aa 15be 7689 13bd 8a14 1ebd
000001a0: e043 d7bd 171b 1ebd b3b9 03be 7cf5 943b
000001b0: 299c e43c 7a36 30be 1d95 13bd 6085 dcbd
000001c0: 413f 733d a5b9 ccbd 0d46 983d 41e0 44be
000001d0: ab47 babd 0e53 52bc 6c03 a23d b500 3e3d
000001e0: 9920 2ebe 64a8 adbd 0a31 3d3c 8e7a 35bc
000001f0: e5eb a5bd aa76 093e c709 20be d09a a03c
00000200: 4418 663e 824f 42bd 7576 c6bd 3827 de3d
00000210: 4e4b a63d 413f 393d 1ff6 6cbe 3769 3e3d
00000220: 93a4 b93d df9e e83d d102 b83d be90 5d3d
00000230: 073a 763e 415a 2e3d 6fc6 da3d 87e8 0dbb
00000240: 0db3 4ebd ad17 06be 1c54 783d 6987 1dbd
00000250: b5fe 8e3c 46b3 c43d 0c4c f33d 0cc6 2a3e
00000260: b18e 6e3d cb34 c2bd 0ee3 e8bd 3d75 a53d
00000270: 6329 87bd cec4 673d 9102 3b3e 5ced 8ebe
00000280: fc67 bbbd 6acd 2bbe abfd 1abe c24f 063c
00000290: 72a9 453e fc7c d5bd 4f1f 7e3e 4da4 313e
000002a0: 371f 373d ada3 023d 7d4b 4b3d c12a 75bc
000002b0: 751d 723d e54d 623e f320 5bbd 22d3 f2bd
000002c0: f56a 02bd 7a61 9e3b c820 11be 0b99 bd3d
000002d0: d563 983e aa02 31bd 9b0d 01be 4dfc 18be
000002e0: 6469 c4bd 6919 fd3d b09e b23c cc7d 80be
000002f0: 64d5 99bd ea98 24bd 73e9 6d3d e4ea 17bd
00000300: aea1 b4bd b845 febd ea7e 7cbc 7c84 14be
00000310: a422 bd3a 8aae 52bd 4b33 733d 7711 123d
00000320: 512f f4bd 2e51 a83b bcb0 df3d 9f85 e23d
00000330: 9a27 b5bd 3873 563c e165 ac3d ac7d 30bd
00000340: b117 823d d8df 42be 4504 8c3d 4414 113e
00000350: b963 343c 1dbf 46be 5656 c53c 65f8 9f3d
00000360: 5f72 143e ab3f 8cbe de7f a73d 7536 c8bd
00000370: c525 3abe ae60 783e 5369 673d 5604 02bd
00000380: f4df 19be 0b55 c3bd 5373 c2bd be09 1e3e
00000390: dab8 f5bd 604f 053e 5613 c9bc 4ba8 0fbd
000003a0: 6808 27be dada 493c 791c 6abd b353 5b3d
000003b0: a925 05be 53b5 073e c07d 9d3d d63e d43c
000003c0: 0ab6 9f3b 79de 4ab9 c6a0 443d 82b0 1c3e
000003d0: bdd8 c5bc 3bef 7e3e 54cf d0bc b6ad 90bd
000003e0: 9790 11bd 0c9b db3d dbc0 b3bc 7c30 d0bd
000003f0: e2ef a63d 714b 15be 347d d3bc a8bd b1bd
-0.059623886 0.09416292 -0.080671504 -0.07262885 -0.095880985 -0.049139254 -0.0063471473 0.058041763
-0.03449527 0.11645489 0.04828692 -0.02604185 -0.011704125 0.14085707 -0.2448207 0.1204063
-0.14081192 0.1783369 -0.004941503 -0.030286657 -0.10614389 0.13663526 0.124072164 -0.0717971
-0.0013925015 -0.030442176 -0.05582103 -0.016523877 -0.0021675364 0.0035066032 -0.16160579 0.13990746
0.102919705 0.014102306 -0.0116752805 0.03479201 0.07256823 -0.075332604 -0.11707729 0.0007136278
0.062061 -0.008847964 -0.17208982 -0.355229 0.0455521 -0.14755158 -0.043744877 0.14650534
0.008014955 -0.08025015 0.2763899 -0.06782813 -0.2461808 -0.054449446 0.018952442 -0.086135164
-0.03682078 -0.03913007 0.044470027 0.20062284 -0.15648256 0.13993868 0.22820331 -0.088692784
-0.19468363 0.0935145 0.021244364 0.038093727 0.019783547 -0.006424211 0.12948844 -0.02929716
-0.1296383 -0.03151779 -0.036384095 0.008453311 0.051593382 0.017958082 0.061035957 0.054369915
-0.12983732 0.17847978 0.019157311 0.005548439 -0.07229346 0.049000263 0.029071288 -0.18929233
-0.14157806 0.16422419 0.11117256 -0.0133412955 -0.10740085 0.069785185 -0.08806571 0.17116065
0.0722485 0.048136707 0.08377934 0.047163818 -0.15079881 -0.14615774 -0.036019765 -0.038593806
-0.10510993 -0.038600054 -0.12863807 0.0045458656 0.027906494 -0.17208281 -0.036030877 -0.10767627
0.059386496 -0.099963464 0.07435236 -0.19226171 -0.09095701 -0.012837185 0.07910809 0.046387393
-0.17004623 -0.084793836 0.011547336 -0.011076583 -0.08101634 0.13424173 -0.1562873 0.01960507
0.22470194 -0.047439106 -0.09690563 0.10847324 0.08119832 0.04522634 -0.23140763 0.04648706
0.09064593 0.11358427 0.08984912 0.054093115 0.24045573 0.04256654 0.106823795 -0.002165349
-0.050463725 -0.13094969 0.060627088 -0.038459215 0.017455438 0.09604506 0.11879739 0.16677111
0.05824155 -0.09482726 -0.11371432 0.08079002 -0.06599691 0.056584172 0.18262698 -0.27915466
-0.09150693 -0.16777578 -0.15135829 0.008197727 0.1930292 -0.104242295 0.24816631 0.17347832
0.044707503 0.031894375 0.049632538 -0.014963807 0.059110124 0.22100027 -0.05349822 -0.11856677
-0.031840283 0.0048333975 -0.14172661 0.09257706 0.29763666 -0.04321543 -0.12602846 -0.14939995
-0.09590414 0.12358362 0.021804184 -0.25095975 -0.07511404 -0.040184893 0.058083963 -0.037089244
-0.088199005 -0.124156415 -0.015411118 -0.14503664 0.0014429879 -0.051435985 0.05937509 0.035661187
-0.119230874 0.0051366305 0.10922381 0.110606425 -0.08845444 0.013088994 0.08417869 -0.0430886
0.06352175 -0.19030702 0.06836752 0.14167887 0.011010104 -0.19408841 0.02408902 0.07811049
0.14496754 -0.27392325 0.081786856 -0.09776012 -0.1817847 0.2425563 0.05649693 -0.031742416
-0.15026838 -0.09537705 -0.094946526 0.15433404 -0.11998148 0.1301856 -0.024545353 -0.035072606
-0.163118 0.012320245 -0.05715606 0.05354662 -0.13002647 0.13252763 0.076900005 0.025908869
0.0048739957 -0.00019347099 0.048004888 0.15301707 -0.0241512 0.24895947 -0.025489487 -0.07064383
-0.035538282 0.10722932 -0.021942547 -0.10165498 0.08151223 -0.1457956 -0.025816537 -0.08678752

weight_hh_l1 f4 [192, 64]
00000000: cd07 18be a57b d43d 2be1 4bbc 6598 b83d
00000010: df48 ddbd 60b1 d33c e8ca 44bd 3c1b e03d
00000020: 9bdc b03b 1dcb afbd 11f9 64bd 7fad a7bd
00000030: 5d18 cc3d 454e 5ebd 3af7 18bd 5840 fc3d
00000040: 3ff9 d0bd b7f3 a33d a524 c13d 79f6 f33d
00000050: aef1 bdbd 36fe f6bc 91a0 f53d 393d 1a3e
00000060: 7cb3 7d3d b192 0a3c ad5b 85bd 2543 7dbd
00000070: 2d9a cdbd 6227 9bbc 8b29 9abd 87a4 6a3d
00000080: 5562 133e fa74 4dbd 3b68 74bc 9810 e7bd
00000090: 946d adbd 2017 94bd 5926 a83d 3b66 bc3d
000000a0: 54b0 47ba 225f 5dbd 5a81 b83d ddcd f53c
000000b0: 1352 d0bd a21a 113e 9f1c f63d 2765 963d
000000c0: d09f bbbd 2921 a9bd acc1 a53c 17d8 123d
000000d0: 01aa e53d 5e6c c2bd 52bb 13bc bf91 11be
000000e0: f571 803d c89f f63c 6a9b b4bd 371e a7bd
000000f0: 2710 353d 3bcf f73d 9c8f b2bd 8dc3 febd
00000100: 98dd 13be 7da0 a23d 13ee 47be 5f73 95bd
00000110: 881f 8c3d f0cf ae3d 0bfd c2bd a461 02bd
00000120: 41b9 14be 9b5f 04bd ecec 2e3d 5745 66bd
00000130: bf0d 2fbe 4830 35be 5ce2 5b3d 9be4 33bd
00000140: abd6 87bc e140 a33c 0221 953d 0db6 053e
00000150: c677 b93d 8167 08be d607 1d3e 9860 43bc
00000160: dc11 45bc 057b 2fbe d8e4 eebd 28e0 f33d
00000170: 1955 fa3d 6d1c 31be f7cc 813c 3d76 c8bd
00000180: 8275 b7bd 26bc 113c 716e c5bd e494 76bc
00000190: cade 73bd 3871 d4bd 290e 893d 2d92 89bd
000001a0: 6e17 dcbd 3e7f 9b3d 24aa b0bd 40bd 013e
000001b0: d09f 2a3d b43c b43c 2030 023e cdd4 63bd
000001c0: 0a5e e1bc 357e 853d eaf8 db3d 2292 debd
000001d0: 8b0b 623d f09e 83bd 2ec2 a63d 81d9 9fbd
000001e0: 3b6e 323e 2324 6b3c 0333 90bd 7f23 bbbd
000001f0: ef58 69be 0698 ee3d 0891 7c3c 5c1f cfbd
00000200: 3158 1c3e ac41 0bbd 48cc 4dbd 10c6 38bd
00000210: e64a a43c 4f96 f0bd 652f 56bd 4e56 613d
00000220: 5df8 81bd a4e4 55bd c5b2 f03c be27 d23d
00000230: e327 aebc 3cca d93d 1f97 08bd 1439 f43c
00000240: a726 9fbd 6de1 d43d 44f6 a43b f91b 0ebe
00000250: 5b96 a8bd c0b9 873d 8622 ce3d b760 c73d
00000260: 4bf5 65bd 899b 6d3c bdf1 ebbd 2bee 8e3d
00000270: ee6b b43d b8e9 d43c 672b 24be 0bd4 2c3d
00000280: 45c9 6cbd c051 2ebd 928a 94bd 2a68 0abd
00000290: 6082 ca3a d8c6 b4bc 412e 083c ecae 1b3e
000002a0: fed3 19be effd 593c 4fa0 8dbd 6d5d 773d
000002b0: 4fc0 d53c c339 0dbe 01e1 9bbd e3ec d63d
000002c0: abdd 793d 163f 9f3c d656 ad3d d166 f53d
000002d0: 4ac4 c8bd 6aac cdbb 3dbf 28bd 89da 91bc
000002e0: e6af debd 6dbf d2bc 5893 e8bd 596f ef3d
000002f0: 9be6 8a3c 22e6 96bd 4b11 61bd fe8d 333c
00000300: 60a6 bd3d b525 5dbe 68dc 993d ecaa 1bbd
00000310: 95f7 8ebd 1538 af3c 895a a63d 0672 96bc
00000320: 97df a13c 5f06 4f3d d617 c33d 4018 3f3c
00000330: 92f0 d63d e8cb ab3d f6ff cd3c 7b32 a13d
00000340: 563c 02be 842b 6a3c fbc6 f3bd 3905 323d
00000350: f182 04be 1b70 35bd ef40 2bbe 54c3 8d3d
00000360: c3dc 25be 955e 233d e7d2 c13d d3d7 17be
00000370: 2242 23bb bd27 853c 61af 773d 1206 c5bd
00000380: 40ac 373d 5a76 80bd 0503 8a3d 0e12 e13d
00000390: 8600 81bc 07b7 093b b983 a1bd f5d9 253d
000003a0: e3df 363b 1fce 55bd 0959 353d 4489 0f3c
000003b0: 891e 123d 6081 53bb bf5b 043d 6686 053e
000003c0: d9b6 e23d 907c adbd 8153 473e 46ba 29bd
000003d0: 9bec e1bd 210d a43d d97b 3b3b a64f 1c3e
000003e0: 9cd7 b3bd d538 adbd e86f 2c3d b8aa aa3d
000003f0: f7c3 d03d b026 953d 8bec c6bc 07c2 83bc
-0.14846726 0.10375146 -0.012443821 0.09013442 -0.10804915 0.025841415 -0.04804507 0.109426945
0.005397392 -0.08583663 -0.05590159 -0.08187389 0.099655844 -0.054273862 -0.03734515 0.1231696
-0.1020379 0.08005469 0.094308175 0.11912245 -0.09274612 -0.030150514 0.11993516 0.15062417
0.061938748 0.0084578255 -0.065116264 -0.061831612 -0.10039172 -0.018939678 -0.07527455 0.05728581
0.1439298 -0.050160386 -0.014917429 -0.11282462 -0.08468166 -0.07230973 0.08210439 0.091991864
-0.00076175225 -0.054045804 0.09009047 0.03000539 -0.101719044 0.14170316 0.12017178 0.07343512
-0.09161341 -0.08258278 0.020233952 0.03585061 0.11214066 -0.09493326 -0.009016829 -0.14215754
0.062717356 0.030105487 -0.088187054 -0.0816006 0.044204857 0.12100073 -0.087187976 -0.12439642
-0.1444 0.07940767 -0.19524412 -0.07297396 0.068419516 0.08535755 -0.0952092 -0.0318314
-0.14523794 -0.03231774 0.042706415 -0.05621847 -0.17095087 -0.17694199 0.05368267 -0.043919187
-0.016581854 0.019928398 0.07281686 0.13057728 0.09056048 -0.13320734 0.1533502 -0.011924885
-0.012028184 -0.17136772 -0.11664742 0.11907989 0.12223262 -0.17296 0.015844805 -0.09788177
-0.0895796 0.008894956 -0.09640206 -0.015050147 -0.05953864 -0.10373157 0.06692154 -0.06717334
-0.10746656 0.07592629 -0.08626202 0.1266985 0.041656315 0.022001602 0.1271367 -0.055622865
-0.027510662 0.06518213 0.10740836 -0.10867716 0.05518679 -0.06426799 0.081425056 -0.078051575
0.17424862 0.014351877 -0.0704098 -0.0913763 -0.22787832 0.1165009 0.0154154375 -0.10113403
0.15268017 -0.033998176 -0.050243646 -0.045110762 0.020055246 -0.11747419 -0.052291293 0.055013947
-0.063462 -0.05222 0.029382119 0.102614865 -0.021259254 0.10634276 -0.033347245 0.029812373
-0.07771044 0.10394559 0.00503424 -0.13877858 -0.08231803 0.06627226 0.100651786 0.09735244
-0.056142133 0.0145024145 -0.11520717 0.06979021 0.088096485 0.025990352 -0.16032182 0.042194407
-0.057809133 -0.04255843 -0.07252993 -0.033790745 0.0015450232 -0.022067472 0.008311809 0.15203446
-0.15022275 0.013305171 -0.06915342 0.060391832 0.026092676 -0.13791566 -0.076112755 0.10494401
0.061002415 0.019439261 0.08463828 0.11982501 -0.09803064 -0.006276657 -0.041198004 -0.017804401
-0.10873394 -0.025726045 -0.113562286 0.1169116 0.016955664 -0.07368113 -0.054948132 0.010959147
0.09260249 -0.21596415 0.07512742 -0.0380048 -0.06980816 0.021389047 0.08122737 -0.018364917
0.019759936 0.050543185 0.09526031 0.0116634965 0.10495104 0.083885014 0.025146466 0.078709565
-0.12718329 0.0142926015 -0.11903187 0.043462012 -0.12940575 -0.044296365 -0.16723989 0.069220215
-0.16197495 0.039885122 0.094640546 -0.14828424 -0.0024911244 0.0162543 0.06046999 -0.096202984
0.044842005 -0.06272574 0.06738857 0.10989772 -0.01574732 0.0021013634 -0.07886452 0.040491063
0.0027904443 -0.052198526 0.044274364 0.008760754 0.03567365 -0.0032273158 0.03231406 0.1303955
0.11070032 -0.08471024 0.19465448 -0.04143741 -0.11031457 0.08010317 0.0028607755 0.15264758
-0.087813586 -0.084581055 0.04209891 0.08333343 0.10193627 0.0728277 -0.024282714 -0.01608373

bias_ih_l1 f4 [192]
00000000: 22ec 843d 78e3 73bd 078d 663d 4998 df3d
00000010: 89dd b6bc ab83 b83b c134 773c a369 d3bb
00000020: 59c7 69bc 025a fe3d fe2e b23c 6920 81bb
00000030: 5cc1 2c3b 0d06 edbd 3f1e a13c 111a ab3d
00000040: 35c5 153d 5e12 b4bd 59fe a23c 3000 b23d
00000050: f42d 043e 4726 0c3d b18c 14be d9ff c83d
00000060: 5b89 c63d 8438 5a3d 5862 6f3d 504a 55bd
00000070: d13a 2a3e d9e2 f3bc f60d fbbd bb61 0d3c
00000080: 9ab1 013e faef a23d 5afc 9fbc 2bf5 233d
00000090: 6b0c ef3d 1ad4 0bbd 43ca 1b3e 7216 1c3d
000000a0: 8f4a 133e 1c44 af3d fa9e 333d 525f b13d
000000b0: 4065 643d 4dc3 aebd 32b4 013e 328e 733c
000000c0: ce1b b83d 4347 453d a735 2b3e a6fd 833d
000000d0: 4c38 e4bc f415 66bc c359 91bd c47a 09bd
000000e0: 2e51 c3bd a147 0fbd 6e00 dd3d dd4c d8bc
000000f0: 1c38 b33d 8fd2 273e 0eb6 b1bc f5b1 973c
00000100: 122a 32bc b038 f8bd d2de 75bd 9c34 62bc
00000110: a17b 253d b68f 41bd deb7 87bd 03a7 123e
00000120: 5cc8 9d3c 5961 85bc ec08 d43d 7fa1 36be
00000130: 9200 84bb dd23 683c c462 27bd 920e cbbd
00000140: 0bb2 b3bc ee39 aebd 54f1 a23a e3a9 cabd
00000150: eaa2 e93d 26a3 f5bc 0ffb 4c3d ea35 863d
00000160: 25d2 7ebc 70fe 373d ade3 9ebd b298 4fbd
00000170: f17f 8fbd 5a7e f4bc d087 b63d ee9c 6abd
00000180: e4c8 343c d688 f3bd 555f 963b 89bc 34bd
00000190: e845 12be 54b1 8cbd caa9 16be e695 d43d
000001a0: 1780 953c dd16 e0bc fd38 c6bc 8542 4ebd
000001b0: 7353 d93c 505c c8bd a60b 983d 52e8 063e
000001c0: 3e7f 9cbd 1633 a5bd d1bc 12be 46e4 29bd
000001d0: 987f 7dbd 6863 14be 226d acbc 1115 9dbd
000001e0: d0ea 933c a023 34be 9388 a83c 71ba 0fbe
000001f0: 3e6f 5e3d 91d2 7bbd b60c ed3c cac8 4dbe
00000200: 52ce ca3c 5e5f 59bd 915f eebc 9c0f 5ebd
00000210: a4be a43d aca2 0f3d bfaf b73d dc57 ba3d
00000220: 67f3 c2bc 6487 bf3d 780e eb3d 9515 053e
00000230: e510 303d 639b 973d 1560 88bd 83a7 1abd
00000240: bffe 87bd 54a9 e53c f041 ef39 bdc6 253d
00000250: 9fa7 12be d10d 7fbd d1c8 01bd 56f2 ecbc
00000260: e4af 2cbd 0ad5 1b3e 1e3e 13bd fa4e 843d
00000270: ac12 073e 170e c5bc 4673 ca3d dad9 973c
00000280: b12e d2bd 56c3 a5bc 1f34 e1bd def3 2ebc
00000290: 38ec e43c 2ab8 82bc 160c 30be a174 a3bc
000002a0: e75c 90bb dbac abbd c223 27ba c03a a13d
000002b0: 920f 033e 35dc 23be 8638 cebd 122f 1fbe
000002c0: 559b 0f3e 54ed a2bd 3e6d 0d3e ede5 8b3d
000002d0: 16e8 40be fd7f 98bc 6a6d 39bd 2718 ab3c
000002e0: 8c01 d13d 9338 383d 3d79 dabd 4204 f03d
000002f0: b6d7 e33c 543d 1dbd 6a5a fcbd 65af 40be
0.06490351 -0.059543103 0.056286838 0.10917718 -0.022322433 0.0056309304 0.015088261 -0.006451802
-0.01426872 0.124195114 0.021750923 -0.003940631 0.0026360368 -0.1157342 0.019667743 0.08354581
0.036565024 -0.08792566 0.019896673 0.08691442 0.12908155 0.03421619 -0.14506795 0.09814424
0.09694167 0.053276554 0.058443397 -0.052072823 0.16623999 -0.029771255 -0.12258522 0.008629258
0.12665406 0.07955928 -0.01952951 0.040028732 0.116722904 -0.034137823 0.15213875 0.038107343
0.1438391 0.08557913 0.043852784 0.08660759 0.055760622 -0.085333444 0.12666395 0.014865445
0.08989678 0.048163664 0.16719685 0.06444864 -0.027858876 -0.01404332 -0.07097199 -0.033564344
-0.09536968 -0.03498042 0.107910976 -0.026403839 0.087509364 0.16388915 -0.021693256 0.018517474
-0.010874288 -0.12120187 -0.06002695 -0.013806488 0.040401105 -0.047256194 -0.06626867 0.14321522
0.019260578 -0.01628177 0.10353264 -0.17835043 -0.0040283883 0.014168707 -0.040865675 -0.099148884
-0.021935483 -0.08507143 0.001243154 -0.098956846 0.114080265 -0.029985022 0.050044116 0.06553252
-0.015553032 0.044920385 -0.077582695 -0.05068273 -0.07006825 -0.029845405 0.08912623 -0.057278566
0.011034224 -0.11891334 0.004589001 -0.044125114 -0.1428448 -0.0686976 -0.14713207 0.10380153
0.018249555 -0.027354652 -0.024197096 -0.050356407 0.02652905 -0.09783232 0.07424097 0.1317456
-0.07641457 -0.080663845 -0.1432984 -0.041477464 -0.06188926 -0.14491045 -0.021048132 -0.07670034
0.018056303 -0.17591715 0.020572936 -0.14035966 0.054305308 -0.06148011 0.028936725 -0.20096126
0.024756584 -0.053069465 -0.029098304 -0.054214105 0.08044174 0.035067245 0.08969068 0.09098789
-0.023797704 0.093519956 0.11477369 0.12996514 0.042984862 0.074026845 -0.06658951 -0.037757408
-0.06640386 0.028034844 0.0004563476 0.040472735 -0.14321755 -0.062269036 -0.031685654 -0.028924149
-0.04215993 0.15217987 -0.03594791 0.06460376 0.13190717 -0.02405457 0.09885268 0.018536497
-0.10262812 -0.020234745 -0.109962694 -0.01067826 0.02794467 -0.015956957 -0.1719211 -0.019953074
-0.004405606 -0.08382579 -0.0006375873 0.07872534 0.12798908 -0.16001971 -0.10069375 -0.155453
0.14024098 -0.07955423 0.13811204 0.06830964 -0.18838534 -0.018615717 -0.04527036 0.02088554
0.10205373 0.04497583 -0.106676556 0.11719562 0.02781282 -0.038388565 -0.123219326 -0.18816908

bias_hh_l1 f4 [192]
00000000: 61bc b6bd 5202 a03d d793 51bd 1dcc d1bc
00000010: 92e6 23bb ec21 9a3d ae33 093e a5dc 573b
00000020: a60e 50be 318c 923d 7d2a 8a3d 5fbf f83d
00000030: d175 84bd 1b96 043e be31 9e3d 6eb5 133e
00000040: 2c63 ea3c f830 c53d 6683 4cbd 72c5 38bd
00000050: 14e7 1d3e 55f9 8e3a 122b 2fbe 4386 15bd
00000060: 384b 003e 0f93 d23d adf0 8cbd 7a88 17be
00000070: b0f4 d93d 26e2 06bd dd48 e1bc 3dbb 103c
00000080: 0316 213d 5060 613d 24d7 193d 2116 ddbd
00000090: f03a d93d 72a0 59bd 9618 b6bc 72bb 7d3d
000000a0: 4c31 a23d 350e 0cbe d8be 093e 3b3a 12bd
000000b0: 6dbf 193d 2249 41bd ff88 4a3e fae0 bdbd
000000c0: 8538 0fbe 1dde 0bbc bd74 b93d a6ca ae3d
000000d0: 8a0a 423d 310a 603c b0d6 563d 48b5 10bd
000000e0: d0ee 723d 82ac ef3d 80aa 4cbc 2956 573e
000000f0: 3727 4d3d b668 af3c df36 fcbd 9073 63bd
00000100: 1324 103d 28f7 47be bb6b fd3b ccbd 9dbd
00000110: a944 fbbd 06f4 b1bd 5ec6 853b bf59 77bc
00000120: b03b a73d 3c04 38bb b6d2 b3bc 394d c1bd
00000130: 1ea1 233d 9f76 dabd 6889 cc3d c713 963c
00000140: 02d0 8b3c 9286 adbd c7d5 413e e773 99bd
00000150: a75e b1bd cb81 cb3c f2da debd 858b 9e3d
00000160: 33b9 943d dd5c 653d cc1c 5abd d4fc 0abe
00000170: 20fd dfbd 5793 573d 8afc 033e fad3 eebd
00000180: 7a08 593d 026b a6bd 06f6 86bd 91a3 6abd
00000190: aae6 913c 4a21 29bd 6124 76bd 7ea8 9d3d
000001a0: 2e7f 5cbe a85f aabd 9585 0b3d 1aa0 dfbd
000001b0: fbc0 2bbe 66d7 3e3d bf49 5ebd f4e8 413e
000001c0: 9aae 8abd 6fd2 1f3d 1c66 c3bd c205 c1bd
000001d0: 4695 c8bc 5b5a 08be 515a b6bd a76e dcbd
000001e0: 7c90 3fbc 3768 993c effd 133d 5c7d 203d
000001f0: ce59 723d c4dd 35be e63d b93b e15c aabd
00000200: 7385 04be b8e5 393d 9157 653d 35a5 713d
00000210: ae90 613d 1a18 0c3e af23 093e 3f99 473b
00000220: 694b 01bc fc0b 0b3e 6d7e da3d f791 463e
00000230: 08fd df3d e727 03be db11 56bd af17 9dbd
00000240: 0697 673d e148 8ebd cbf1 7fbd 079e 1d3d
00000250: 0b39 05be ab92 acbd 48d7 f1bc 3669 b83d
00000260: 0417 01bd 89b3 313e f161 55be 53e0 02bd
00000270: 5a5d ea3d 4afa 26be c4aa 55bc e6a7 c33c
00000280: 5b9a 3fbe b2af 0a3c 519d c53d aa05 a5bd
00000290: 301f 67bc cb5d 81bd 8ac6 1bbe 6715 a9bc
000002a0: 9c25 8c3d 7c4c 56bb b373 febd 1784 07bd
000002b0: 64be c03d 397e 5d3c 26c4 0bbe 2290 1ebc
000002c0: 83b6 2e3b 1821 80bd 6f12 503e 4e37 3a3e
000002d0: 127e ddbb f519 343e 8919 323d 0f3d 013e
000002e0: 3fc3 4b3d 6e2f 26be f45b 78bd 8502 cabd
000002f0: b26b a3bd ae1f 0abe 6689 613d a266 e2bd
-0.08922649 0.078129426 -0.05116638 -0.025610024 -0.0025009257 0.07526001 0.1339862 0.003293791
-0.20318088 0.07155646 0.06746385 0.12145876 -0.06467784 0.12947886 0.07724331 0.14424679
0.028611742 0.09628481 -0.04993 -0.045110174 0.1542018 0.0010908047 -0.17106274 -0.036504995
0.12528694 0.102819555 -0.06881843 -0.14798155 0.106423736 -0.032930516 -0.027500564 0.008833704
0.039327633 0.05502349 0.03755869 -0.107952364 0.106069446 -0.05313153 -0.02222852 0.06194634
0.07919559 -0.13677295 0.13451707 -0.035700064 0.037536073 -0.047188886 0.19778822 -0.092714265
-0.13986404 -0.008536843 0.09055469 0.08534746 0.047373332 0.013674305 0.052450836 -0.035329133
0.05930978 0.11702825 -0.012491822 0.21028961 0.050086226 0.021412235 -0.12315153 -0.05553013
0.035190653 -0.19527876 0.0077337897 -0.077022165 -0.12268955 -0.08689122 0.004082485 -0.015097081
0.08165681 -0.0028078696 -0.02195106 -0.09438557 0.039948575 -0.106671564 0.09987146 0.018319977
0.01706696 -0.08472933 0.18929206 -0.0749281 -0.086606316 0.024842164 -0.10881604 0.07741455
0.072618864 0.055996764 -0.05325012 -0.13573009 -0.10936952 0.05263075 0.12889305 -0.11661525
0.0529866 -0.08125879 -0.06589894 -0.057284895 0.017810185 -0.041291513 -0.060093287 0.07698153
-0.2153289 -0.08319026 0.03406294 -0.10919209 -0.16772835 0.04659214 -0.05426955 0.18936521
-0.06771584 0.039019044 -0.0954096 -0.09424926 -0.024485242 -0.13315718 -0.08903945 -0.10763293
-0.011692163 0.018726451 0.03613084 0.039182052 0.059167676 -0.17760378 0.005653131 -0.083184965
-0.12941532 0.045385092 0.055991713 0.058995444 0.055069618 0.13681069 0.13392518 0.0030456332
-0.007891514 0.1357879 0.10668645 0.19391619 0.10936934 -0.1280819 -0.052263122 -0.07670533
0.05654051 -0.06947494 -0.06248645 0.038480785 -0.13010041 -0.08426412 -0.0295216 0.090044424
-0.03151609 0.17353643 -0.20838143 -0.031952213 0.11443587 -0.16306415 -0.013041202 0.023883771
-0.18711226 0.008464741 0.09649146 -0.08057721 -0.014106557 -0.06316718 -0.15212455 -0.020640088
0.06843111 -0.0032699397 -0.124244116 -0.033084955 0.09411314 0.013518863 -0.13649043 -0.009677919
0.0026659078 -0.06256312 0.20319532 0.1818516 -0.0067594135 0.17588027 0.043481383 0.12620948
0.049746748 -0.1622903 -0.06063457 -0.09863762 -0.079795256 -0.13488647 0.055062674 -0.11054732
