time_LossPrune/model3_Climate.pth (torch, 209742 bytes, 12 tensors)

weight f4 [125, 16]
0.9482056 0.699939 0.7278146 -1.2890737 1.305042 -0.20601514 -0.25162953 -2.2750893
-0.61629057 1.198638 -0.88905615 -1.3612572 0.23985387 -0.8748861 0.7228492 0.7819786
-0.45797464 -0.054536626 0.031629775 0.18441758 0.61382055 0.8637737 -0.96173155 0.46264726
0.05860315 -0.51008934 -0.076720156 -0.9822806 -0.11858015 -0.7557762 -2.0723844 -1.0056762
0.30971855 1.0606527 -0.6642926 0.6896784 1.6293544 -0.6533198 -0.19165955 -0.6838099
-0.09093387 -1.0342185 -0.11217827 0.5261664 0.8203132 0.16215754 1.5885333 0.43156174
0.47699854 -1.2352909 -0.019357968 0.1886438 0.15886681 0.16077368 2.3493938 -0.74862885
0.6684317 1.2779841 0.94467914 -0.3761715 1.070843 0.36136442 0.2818521 -1.1719327
-0.8416934 0.6059391 0.19903232 0.3595604 -0.22815642 0.336854 -0.098501496 -0.069887675
0.5699794 0.85080725 -1.9056638 -1.052222 0.026264125 0.4245299 -0.29524997 -0.21404925
0.00043799155 1.3136067 0.7645701 0.05174618 -0.062649384 -0.5110294 -0.72407883 0.111164704
-1.3037589 -1.3491702 -0.5717715 -0.099206835 0.36948654 0.44743884 -1.5298884 -0.97663534
0.298289 0.8415396 -0.39175647 0.15898779 -0.2678797 0.94605434 -1.2113155 0.9567159
0.7126805 0.5242921 -0.67119396 -0.12069615 1.1877979 -0.58064353 -1.1126796 -1.3057343
-0.7715159 -1.1137439 -1.2445669 -1.0624466 -0.7213323 -1.7150906 1.5754915 -0.46373788
-0.013862614 -1.3906583 -0.3034921 0.7132102 -1.3069081 0.39079058 -0.87405205 -0.43101573
-0.7805329 1.6040782 -0.39209852 0.51260585 0.42477298 -0.42820132 -1.2595686 2.3070724
1.5008583 -0.25500533 0.43901724 0.9583229 -0.98821867 -1.579003 1.1254641 -0.5985975
-1.2481053 0.34885126 1.2620267 0.92044616 -0.96973634 -0.3237775 -2.1742117 -0.08343923
-0.4897523 -1.4829502 0.5956085 -0.08005958 1.489607 -0.7658112 0.73961467 0.6857081
-0.5228361 1.5495594 -1.3103617 -0.3892908 0.7386984 -1.1195458 0.106294915 1.6591275
-0.018481897 1.6182678 -1.1515293 -1.6798818 -0.53880143 1.4739776 -0.0703445 1.5825979
0.88551193 2.1204646 0.3680447 1.1183145 0.3746603 -0.15324982 -1.0570233 -0.035260204
0.65818065 0.42836207 1.7703038 1.7645438 0.45210484 -1.4648627 -1.5673783 -2.5643673
-0.8712049 -0.4563146 -0.22190349 0.4127693 0.009011469 0.6908376 0.057314023 -0.008747999
-0.6410306 2.22636 -1.311345 0.73532337 2.159889 -0.33512235 -0.7543753 -0.94337356
0.6974962 0.786046 0.4456432 -1.7467805 -0.23258811 1.3602904 -0.52755374 -0.01818803
0.7960981 -0.23979971 0.7179449 1.0418689 0.5207928 -0.051978476 0.20203097 0.91758215
0.26148447 0.006982743 -0.22819406 -1.5530802 1.0766267 -0.33464128 1.2062906 -0.15654804
0.7094598 0.4826688 0.5126368 -0.27588555 0.363169 -0.12508735 -0.0982729 1.2423936
1.5529351 -1.0189154 -0.78089255 1.3706207 0.7260053 0.30143565 0.78503233 -0.36340266
-0.25545445 0.44157696 -0.04270907 -0.26514372 -0.41060638 0.81371677 -0.24869539 1.2441077
00000000: 9abd 723f 342f 333f 0f52 3a3f 5e00 a5bf
00000010: 9e0b a73f a2f5 52be 96d5 80be 109b 11c0
00000020: 38c5 1dbf f86c 993f 2f99 63bf ad3d aebf
00000030: 419c 753e 89f8 5fbf a50c 393f c02f 483f
00000040: a77b eabe cc61 5fbd 398e 013d f6d7 3c3e
00000050: 5823 1d3f 4620 5d3f 0a34 76bf 1ae0 ec3e
00000060: db09 703d 3795 02bf 751f 9dbd be76 7bbf
00000070: 26da f2bd 8d7a 41bf f2a1 04c0 ffb9 80bf
00000080: 6e93 9e3e 78c3 873f 140f 2abf c38e 303f
00000090: af8e d03f f73f 27bf 6742 44be 2a0e 2fbf
000000a0: 893b babd 4661 84bf b9bd e5bd d7b2 063f
000000b0: 0c00 523f a00c 263e 0f55 cb3f a9f5 dc3e
000000c0: 2739 f43e 031e 9ebf 9a94 9ebc d72b 413e
000000d0: fbad 223e dba1 243e 785c 1640 24a6 3fbf
000000e0: 571e 2b3f fc94 a33f 7ed6 713f 8d99 c0be
000000f0: 6211 893f c204 b93e eb4e 903e e401 96bf
00000100: 3879 57bf d31e 1b3f 21cf 4b3e 4d18 b83e
00000110: d6a1 69be 2178 ac3e 27bb c9bd 4521 8fbd
00000120: 2cea 113f 81ce 593f cbec f3bf 36af 86bf
00000130: dd27 d73c fc5b d93e 012b 97be ba2f 5bbe
00000140: 3ba2 e539 4424 a83f deba 433f cdf3 533d
00000150: 524e 80bd d3d2 02bf 3b5d 39bf 52aa e33d
00000160: 92e1 a6bf 9cb1 acbf 9e5f 12bf f42c cbbd
00000170: 572d bd3e b416 e53e 62d3 c3bf c604 7abf
00000180: 56b9 983e 246f 573f 4e94 c8be b2cd 223e
00000190: 8727 89be 9e30 723f 630c 9bbf 55eb 743f
000001a0: 3b72 363f 0238 063f 5ed3 2bbf 8b2f f7bd
000001b0: c309 983f 0ea5 14bf 496c 8ebf 4d22 a7bf
000001c0: 1182 45bf 298f 8ebf f84d 9fbf 40fe 87bf
000001d0: 3ca9 38bf 1788 dbbf b5a9 c93f 0d6f edbe
000001e0: 0420 63bc 1701 b2bf 5163 9bbe f294 363f
000001f0: c448 a7bf b415 c83e e0c1 5fbf 18ae dcbe
00000200: 01d1 47bf 6f52 cd3f 23c1 c8be 233a 033f
00000210: d87b d93e 343d dbbe 8b39 a1bf 13a7 1340
00000220: 201c c03f 0f90 82be dec6 e03e a654 753f
00000230: e6fb 7cbf c51c cabf 350f 903f b03d 19bf
00000240: eac1 9fbf a29c b23e 178a a13f 5ca2 6b3f
00000250: a440 78bf 2ac6 a5be 4926 0bc0 30e2 aabd
00000260: d0c0 fabe 50d1 bdbf cc79 183f 47f6 a3bd
00000270: 71ab be3f 340c 44bf 6357 3d3f 918a 2f3f
00000280: 96d8 05bf f657 c63f efb9 a7bf 2051 c7be
00000290: 571b 3d3f 474d 8fbf 26b1 d93d 4a5e d43f
000002a0: 5967 97bc 6623 cf3f 5065 93bf 5e06 d7bf
000002b0: e4ee 09bf 4cab bc3f c710 90bd 9192 ca3f
000002c0: e9b0 623f b1b5 0740 5b70 bc3e ee24 8f3f
000002d0: 7ad3 bf3e 85ed 1cbe 8a4c 87bf 016d 10bd
000002e0: 877e 283f 4652 db3e 5199 e23f 92dc e13f
000002f0: 497a e73e 9f80 bbbf da9f c8bf 981e 24c0
00000300: 4907 5fbf 11a2 e9be ab3a 63be 7f56 d33e
00000310: d7a4 133c bcda 303f 1cc2 6a3d c453 0fbc
00000320: 951a 24bf af7c 0e40 27da a7bf 273e 3c3f
00000330: 9f3b 0a40 2895 abbe bd1e 41bf ee80 71bf
00000340: 1c8f 323f 503a 493f 582b e43e 8196 dfbf
00000350: 942b 6ebe ff1d ae3f c30d 07bf 10ff 94bc
00000360: 16cd 4b3f 0e8e 75be 3dcb 373f f65b 853f
00000370: ad52 053f 62e7 54bd 35e1 4e3e aae6 6a3f
00000380: 4be1 853e 7ecf e43b b4ab 69be 55cb c6bf
00000390: e7ce 893f 1a56 abbe bb67 9a3f 214e 20be
000003a0: 289f 353f 5d20 f73e 2a3c 033f df40 8dbe
000003b0: 4af1 b93e e616 00be 4d43 c9bd c106 9f3f
000003c0: 94c6 c63f d26b 82bf 93e8 47bf 8070 af3f
000003d0: 7cdb 393f c655 9a3e e1f7 483f ea0f babe
000003e0: edca 82be 6016 e23e b5ef 2ebd ebc0 87be
000003f0: 003b d2be be4f 503f 01aa 7ebe ec3e 9f3f

weight_ih_l0 f4 [192, 17]
-0.06709198 -0.16195703 0.06842039 -0.105253085 0.099155135 -0.06513411 0.045651115 -0.16104648
0.05207864 0.17084107 -0.00756678 0.049586706 -0.23484275 0.014445555 0.18266584 -0.031933833
0.056306265 -0.02627375 -0.027710877 -0.09392217 -0.13428885 0.19556981 0.031464987 0.14760199
0.010748904 -0.015868854 -0.033216245 0.1023113 0.15533304 -0.12850915 -0.05907062 0.034845036
0.007844817 0.043199033 -0.11939696 -0.05656651 0.044287194 0.04938066 0.09331624 0.02006713
-0.12579547 -0.08432982 0.05944576 0.020799853 -0.15886708 -0.079624265 -0.11443116 0.074719176
0.09828801 0.17681871 -0.009731668 -0.11267092 -0.16374207 -0.04284885 -0.06314131 -0.045354992
-0.002085463 -0.08000292 -0.004134955 0.23120455 -0.028854543 0.18836856 0.098435216 0.115453795
0.15200727 0.0063407235 -0.12271167 -0.039927278 0.02038027 -0.1572637 -0.12328124 0.11826573
-0.043343842 -0.0043245596 -0.008934827 0.040022418 0.07218628 -0.07596381 0.13501099 0.016559329
0.13476498 0.07602637 -0.010821041 -0.08759154 -0.008613763 -0.039954495 -0.04665542 -0.00051957526
0.14399219 0.12074653 -0.03573848 0.033475418 0.09976383 0.011601402 -0.19237663 -0.054278586
-0.033981565 -0.19999364 0.08357985 -0.046821173 -0.09340806 -0.08555587 0.073877625 -0.032923233
-0.16523696 0.07787895 -0.0075244852 0.16866535 -0.0713266 0.011062174 -0.006909075 -0.07023826
-0.09392686 0.120628476 -0.03322444 0.0065912264 0.062956184 -0.06894432 0.062433828 -0.09120051
0.055817936 -0.14280759 0.12075449 -0.100485615 -0.10255922 0.02212813 0.0949775 0.051776
-0.0026904978 0.1462762 -0.047151137 0.15342285 -0.033306047 0.026053037 0.04126668 -0.1223573
0.0057148817 0.109524354 -0.115749195 0.05359332 -0.21648468 0.045026362 -0.0036667502 -0.09309334
0.16265401 -0.08092844 0.06717128 0.055212244 0.08011414 -0.117074825 0.02979581 0.2398162
0.07661905 0.11274045 -0.11629488 -0.077404894 -0.06841303 -0.049603775 -0.17139837 -0.07086093
0.031312913 0.0049041705 0.09774287 0.038927335 -0.11414604 -0.03670163 0.029438678 0.09205603
0.008039753 -0.020027809 0.1366812 -0.011058163 -0.09297213 0.078950964 -0.057196032 -0.0067313947
0.25270554 -0.12298632 0.1903443 0.11973706 0.09011012 0.035897814 -0.1476047 0.13119014
0.058823623 0.03536969 -0.034221765 0.16509166 -0.021745495 -0.14161815 -0.10772263 0.049858037
0.033876177 0.10783786 0.038862452 0.01910951 -0.23001584 0.013398967 0.17469916 -0.07051532
-0.11826285 0.072225586 0.08369175 0.017261906 -0.026575979 -0.041568313 0.024923883 0.12069707
-0.046075273 0.018098168 0.012622131 0.12127646 -0.07975307 -0.08831491 -0.069922745 0.1951377
-0.152481 0.20091286 0.029658515 0.0037773196 -0.10369764 0.052780174 -0.25633714 -0.19098255
-0.09646004 0.018322343 -0.045764666 -0.09721089 0.12834999 0.09584698 -0.06509128 -0.012633024
0.0022855527 -0.121637955 0.021143183 0.14558715 -0.10589428 0.009481701 -0.080138415 -0.22793277
-0.09754668 0.120043196 0.05624237 -0.0190091 0.032938458 -0.05228653 0.13558844 -0.20169471
-0.0852068 0.13179469 0.021754237 0.23128298 0.10300094 0.089541495 0.048623435 0.12719612
00000000: 8567 89bd 10d8 25be fd1f 8c3d ee8e d7bd
00000010: d911 cb3d 0865 85bd aafc 3a3d 5ee9 24be
00000020: 6950 553d f6f0 2e3e c0f2 f7bb 6e1b 4b3d
00000030: 9e7a 70be 0dad 6c3c c10c 3b3e 0dcd 02bd
00000040: 66a1 663d 0c3c d7bc ec01 e3bc 445a c0bd
00000050: 0483 09be 7443 483e 6ee1 003d fa24 173e
00000060: 2c1c 303c 66ff 81bc c20d 08bd 9688 d13d
00000070: a00f 1f3e e797 03be 09f4 71bd abb9 0e3d
00000080: 8c87 003c 78f1 303d 6586 f4bd 49b2 67bd
00000090: 7d66 353d 6043 4a3d 961c bf3d d263 a43c
000000a0: 87d0 00be 1db5 acbd 667d 733d 7464 aa3c
000000b0: 0dae 22be 0c12 a3bd e25a eabd 5e06 993d
000000c0: 394b c93d f70f 353e 9371 1fbc 03c0 e6bd
000000d0: 00ac 27be 4782 2fbd 3b50 81bd 28c6 39bd
000000e0: 43ac 08bb 92d8 a3bd 847e 87bb e3c0 6c3e
000000f0: 5d60 ecbc b0e3 403e 6798 c93d 0a73 ec3d
00000100: cba7 1b3e d8c5 cf3b 4250 fbbd c98a 23bd
00000110: 86f4 a63c bc09 21be e07a fcbd 4e35 f23d
00000120: 5089 31bd 09b5 8dbb 6163 12bc 8cee 233d
00000130: 66d6 933d ea92 9bbd 5240 0a3e 6ea7 873c
00000140: d5ff 093e b7b3 9b3d bc4a 31bc 3163 b3bd
00000150: be20 0dbc 53a7 23bd c119 3fbd 1b34 08ba
00000160: b072 133e f549 f73d 8362 12bd 851d 093d
00000170: fb50 cc3d cf13 3e3c 61fe 44be 3953 5ebd
00000180: 4130 0bbd 22cb 4cbe ea2b ab3d 8fc7 3fbd
00000190: ba4c bfbd ea37 afbd 274d 973d 83da 06bd
000001a0: e133 29be 007f 9f3d f58f f6bb 9cb6 2c3e
000001b0: ae13 92bd 1f3e 353c 8665 e2bb 14d9 8fbd
000001c0: ba5c c0bd 100c f73d 5a16 08bd 37fb d73b
000001d0: 2cef 803d ae32 8dbd 9dba 7f3d 55c7 babd
000001e0: 59a1 643d 273c 12be 214e f73d 67cb cdbd
000001f0: 910a d2bd 0d46 b53c 9083 c23d 1213 543d
00000200: 1053 30bb 6ec9 153e 8d21 41bd e11a 1d3e
00000210: ec6b 08bd 2e6d d53c 4007 293d 7796 fabd
00000220: e743 bb3b 4e4e e03d ea0d edbd ab84 5b3d
00000230: 29ae 5dbe 906d 383d dc4d 70bb b9a7 bebd
00000240: c68e 263e cfbd a5bd 1991 893d 3c26 623d
00000250: e212 a43d edc4 efbd 5816 f43c 6192 753e
00000260: 73ea 9c3d 77e4 e63d 032c eebd 7586 9ebd
00000270: 211c 8cbd 542d 4bbd 0e83 2fbe 891f 91bd
00000280: f841 003d 2ab3 a03b 6a2d c83d 4572 1f3d
00000290: 66c5 e9bd 7354 16bd 6229 f13c df87 bc3d
000002a0: 2bb9 033c 5c11 a4bc 28f6 0b3e 4c2d 35bc
000002b0: 2c68 bebd 0bb1 a13d 6346 6abd 0893 dcbb
000002c0: 9f62 813e 40e0 fbbd 9ee9 423e b438 f53d
000002d0: a88b b83d 9609 133d b025 17be b556 063e
000002e0: 0af1 703d cfdf 103d 1f2c 0cbd ca0d 293e
000002f0: 9c23 b2bc 5904 11be af9d dcbd f137 4c3d
00000300: bfc1 0a3d 19da dc3d 3c2e 1f3d 8c8b 9c3c
00000310: 4689 6bbe 5787 5b3c 56e4 323e 566a 90bd
00000320: cb33 f2bd 02eb 933d 9566 ab3d d768 8d3c
00000330: deb5 d9bc 8943 2abd 2c2d cc3c 0730 f73d
00000340: 6db9 3cbd 9c42 943c 0ecd 4e3c cb5f f83d
00000350: 9455 a3bd 73de b4bd a833 8fbd 2dd2 473e
00000360: fb23 1cbe 1abc 4d3e 6af6 f23c e88c 773b
00000370: 6e5f d4bd 0630 583d 9f3e 83be ee90 43be
00000380: d78c c5bd bd18 963c bb73 3bbd 8116 c7bd
00000390: 2e6e 033e 6c4b c43d 944e 85bd befa 4ebc
000003a0: 36c9 153b 521d f9bd 7834 ad3c cc14 153e
000003b0: 1adf d8bd 2359 1b3c 9c1f a4bd 3567 69be
000003c0: 8ec6 c7bd 35d9 f53d 665e 663d f9b8 9bbc
000003d0: 7aea 063d 672a 56bd b2d7 0a3e 0f89 4ebe
000003e0: e780 aebd 30f5 063e f135 b23c 72d5 6c3e
000003f0: 28f2 d23d 8861 b73d 5e29 473d b33f 023e

weight_hh_l0 f4 [192, 64]
-0.0850807 0.08152427 -0.10639152 0.12312965 -0.00903999 -0.05779851 0.035962485 -0.025776772
-0.07249036 0.06972583 0.044057902 -0.07344742 0.082256 0.0776438 0.09733961 -0.09668778
0.16424608 -0.053654466 0.07576891 -0.03901173 -0.07665678 0.026507417 -0.15029134 0.044515695
0.015991084 -0.061928507 -0.07408734 -0.05858104 0.039780196 0.108428136 0.012711171 -0.14764641
-0.049454954 0.034703854 -0.039367925 -0.06733381 0.10527364 -0.021270424 0.16508792 -0.100077845
-0.1495361 -0.19582352 -0.14776298 0.09514021 -0.034618616 -0.11651564 -0.072800085 -0.02165659
0.1711659 0.060509723 0.15463535 -0.067031525 -0.067846075 0.034790907 -0.03487903 0.07925416
0.05010522 0.007679566 0.03523362 0.055098124 -0.07417664 -0.12113787 -0.080624506 0.041058406
-0.06455218 -0.015051201 0.0067376215 0.2660683 0.036265478 -0.12983066 -0.07428601 -0.1434561
-0.05852444 0.146046 0.08926357 -0.16563489 -0.3469902 -0.037363816 -0.20098788 0.012472557
-0.09271981 0.03327912 -0.11050151 0.17046422 -0.13524279 -0.0426047 -0.049461488 -0.00818244
0.06818137 -0.002359484 0.095095724 -0.118882686 0.0015333113 -0.048956178 0.19759215 -0.036941234
-0.013950956 -0.23982334 -0.15424873 -0.00918426 0.17388044 -0.04219916 0.12025977 0.22593771
-0.1327968 -0.044228997 0.04215639 0.15504546 0.046600346 -0.027324159 -0.09882299 0.06094972
-0.044795427 0.009819607 0.041934896 0.0025488033 0.012690889 0.0067519387 0.040518485 0.24202329
-0.02140494 0.20824619 -0.17308132 -0.19922747 -0.116001874 -0.028612925 -0.1419332 0.15595281
0.02722584 0.1087207 -0.14472364 0.0108532645 -0.06718504 0.042923026 0.13199064 -0.1273721
-0.08143202 -0.059730865 0.020113174 -0.018567562 -0.084382065 0.009856222 -0.031599205 -0.3070251
0.08301012 0.1240266 -0.1464915 0.0029155598 -0.09300276 0.00942169 -0.053684723 -0.06169932
-0.06503765 0.0019572938 0.1640542 0.058390882 -0.102067225 -0.0011147383 0.031439483 -0.056710597
-0.07742797 -0.103130974 0.046003155 0.022812238 0.0828205 -0.07804513 0.014126171 -0.07822494
0.113971524 -0.01208353 0.10960891 -0.10238373 -0.04049485 -0.28442344 0.12238834 -0.038329624
-0.022435538 0.10112968 0.09854035 -0.15210927 -0.1715794 -0.03508203 0.08591495 -0.09208185
-0.12505327 0.14737742 0.06825216 0.008281371 -0.036352407 0.089753486 0.015362995 -0.045469902
-0.059006445 0.10044375 -0.0214779 0.07521881 0.2092006 0.06426541 -0.15436575 -0.03022796
0.07054626 0.09765366 0.10818579 -0.15740176 -0.16958547 -0.24493615 -0.29798123 -0.049965616
0.0810345 0.21126442 -0.10617791 0.22467801 -0.036497753 0.035133738 -0.09285985 0.088567466
0.02112049 0.020738067 -0.105741 -0.106001444 0.012032801 -0.09440264 0.2006422 -0.12411779
-0.11540758 -0.08680262 -0.16319928 -0.13180755 0.13873468 0.008564719 0.020496001 0.2286224
-0.07904289 -0.0745778 -0.13090868 0.019823251 0.14057083 -0.22347179 -0.16729549 0.14312497
0.0015304078 0.014887677 -0.024186168 -0.12493829 0.065746166 -0.20020302 -0.037340622 0.1096264
-0.10570997 -0.011143585 -0.07734637 -0.14321622 0.006989893 0.19377798 -0.01621151 0.04595517
00000000: ca3e aebd 32f6 a63d cce3 d9bd 662b fc3d
00000010: 771c 14bc 21be 6cbd 664d 133d cf29 d3bc
00000020: d375 94bd 6acc 8e3d 0f76 343d 9a6b 96bd
00000030: d575 a83d b603 9f3d fd59 c73d 3e04 c6bd
00000040: 2030 283e c9c4 5bbd bb2c 9b3d c4ca 1fbd
00000050: 3bfe 9cbd 1526 d93c f9e5 19be 1756 363d
00000060: bcff 823c bfa8 7dbd 1abb 97bd acf2 6fbd
00000070: 8ff0 223d 920f de3d 8442 503c 9f30 17be
00000080: 4791 4abd a125 0e3d 4340 21bd 4fe6 89bd
00000090: b599 d73d 503f aebc cf0c 293e 9df5 ccbd
000000a0: fe1f 19be f685 48be 2e4f 17be dfd8 c23d
000000b0: 40cc 0dbd c09f eebd 3618 95bd 2969 b1bc
000000c0: 1d46 2f3e 0bd9 773d bb58 1e3e d347 89bd
000000d0: e2f2 8abd e980 0e3d 50dd 0ebd 0150 a23d
000000e0: 223b 4d3d dea4 fb3b 2151 103d 92ae 613d
000000f0: ece9 97bd 2217 f8bd 761e a5bd dc2c 283d
00000100: ef33 84bd 5099 76bc 44c7 dc3b 1b3a 883e
00000110: 1c8b 143d 54f2 04be 4323 98bd 28e6 12be
00000120: 53b7 6fbd 158d 153e d2cf b63d 319c 29be
00000130: b3a8 b1be cd0a 19bd c4cf 4dbe b259 4c3c
00000140: e2e3 bdbd b04f 083d 9e4e e2bd 2c8e 2e3e
00000150: 167d 0abe 4482 2ebd 2198 4abd a40f 06bc
00000160: ada2 8b3d 93a1 1abb 8cc1 c23d c478 f3bd
00000170: 64f9 c83a 4686 48bd 9955 4a3e b14f 17bd
00000180: 8d92 64bc 4094 75be 61f3 1dbe 9479 16bc
00000190: b70d 323e 07d9 2cbd c14a f63d 375c 673e
000001a0: e2fb 07be 7729 35bd 2eac 2c3d 3dc4 1e3e
000001b0: 01e0 3e3d ead6 dfbc b563 cabd 6aa6 793d
000001c0: 697b 37bd 6be2 203c edc3 2b3d d309 273b
000001d0: 72ed 4f3c 5e3f dd3b b6f6 253d f4d4 773e
000001e0: 6a59 afbc 7d3e 553e 3b3c 31be 4902 4cbe
000001f0: 6492 edbd a765 eabc f056 11be 18b2 1f3e
00000200: ba08 df3c f5a8 de3d 6f32 14be e4d1 313c
00000210: 4f98 89bd 0ed0 2f3d 8e28 073e d56d 02be
00000220: d5c5 a6bd 5aa8 74bd 62c4 a43c 001b 98bc
00000230: 81d0 acbd fe7b 213c 2b6e 01bd 6532 9dbe
00000240: 3601 aa3d a801 fe3d de01 16be fa12 3f3b
00000250: 3b78 bebd 6f5d 1a3c 83e4 5bbd 6db8 7cbd
00000260: 7632 85bd f145 003b d3fd 273e 472b 6f3d
00000270: 9f08 d1bd 691c 92ba b0c6 003d 5f49 68bd
00000280: 8e92 9ebd 5536 d3bd ce6d 3c3d bbe0 ba3c
00000290: cb9d a93d 20d6 9fbd 7571 673c 6634 a0bd
000002a0: e769 e93d 00fa 45bc a37a e03d 90ae d1bd
000002b0: eedd 25bd f39f 91be bda6 fa3d 86ff 1cbd
000002c0: bcca b7bc 141d cf3d 86cf c93d 88c2 1bbe
000002d0: 83b2 2fbe 2db2 0fbd 2df4 af3d 6995 bcbd
000002e0: f70d 00be 1bea 163e cac7 8b3d 96ae 073c
000002f0: 43e6 14bd add0 b73d 12b5 7b3c a63e 3abd
00000300: beb0 71bd 74b5 cd3d 6cf2 afbc 520c 9a3d
00000310: af38 563e 959d 833d 0e12 1ebe a0a0 f7bc
00000320: 8f7a 903d a4fe c73d 8390 dd3d ed2d 21be
00000330: d0a7 2dbe 8bd0 7abe ff90 98be bfa8 4cbd
00000340: 6af5 a53d b355 583e ce73 d9bd fe11 663e
00000350: ab7e 15bd 65e8 0f3d 4e2d bebd dc62 b53d
00000360: e104 ad3c e1e2 a93c bd8e d8bd 4917 d9bd
00000370: 3a25 453c 2c56 c1bd 2675 4d3e 7831 febd
00000380: cf5a ecbd 92c5 b1bd b61d 27be 8ff8 06be
00000390: 7710 0e3e 0953 0c3c 3be7 a73c fe1b 6a3e
000003a0: 3de1 a1bd 3fbc 98bd ed0c 06be 5f64 a23c
000003b0: cdf1 0f3e cad5 64be 824f 2bbe 5a8f 123e
000003c0: f797 c83a 71eb 733c 1222 c6bc a5df ffbd
000003d0: eda5 863d 0502 4dbe 7bf2 18bd ce83 e03d
000003e0: 787e d8bd 9593 36bc c667 9ebd 46a7 12be
000003f0: 790b e53b bc6d 463e 00ce 84bc 7d3b 3c3d

bias_ih_l0 f4 [192]
0.08173601 0.010293139 0.07489594 0.015457387 -0.118011564 -0.018545605 0.053321727 -0.07571028
0.04636478 0.19740549 0.15890127 0.09291142 0.046944845 0.013266673 0.13769947 0.27159518
0.22260182 0.043652635 -0.04519337 0.089842625 0.17442639 0.08033111 0.15304795 -0.07662019
-0.031916536 0.06622666 0.21229696 -0.004782592 0.05925139 0.087540425 -0.12667558 0.0063003316
0.030165184 -0.05433882 -0.05103757 0.14150414 -0.022280786 0.08695298 0.13072611 -0.070131734
-0.022373056 0.07052355 0.1353649 0.051715154 -0.057026844 0.02922003 0.003643425 0.008076883
0.1047482 -0.039856102 0.18251698 -0.103783146 0.0051874644 -0.02764105 -0.034879 -0.034760304
0.12683323 -0.053504284 0.20319279 0.022334823 0.12835896 0.2604512 0.025215486 -0.055831023
-0.10195977 -0.03235173 -0.08469229 -0.1121996 -0.03509119 -0.057667278 -0.12455556 -0.08385219
-0.21387295 -0.25279406 -0.16280317 -0.22323094 -0.087395996 0.06812879 -0.10293278 -0.22999033
-0.20633106 -0.011322048 -0.07148284 -0.059475407 -0.10029864 -0.01274479 -0.009547434 -0.24008654
-0.09894228 -0.15305457 -0.16174063 -0.2335823 0.034597546 -0.17358287 -0.12069136 -0.22643317
-0.017954215 -0.16129297 -0.07299708 -0.04871652 0.019790422 -0.06035751 -0.18123856 -0.07292809
-0.2426257 -0.14693879 -0.11147831 -0.17799897 -0.11851384 -0.12695529 0.025917992 -0.04094116
-0.22803919 -0.1423041 -0.2628688 -0.12267031 -0.10488365 -0.020579064 -0.1291812 -0.0010763573
-0.07885528 -0.023962962 -0.09932439 0.062369157 -0.0765309 -0.17811018 -0.053534966 -0.06392336
-0.0026360014 -0.07916822 -0.010531722 0.13190147 -0.008741817 0.07676465 -0.05854164 0.012533275
-0.08311417 0.031400926 0.11949337 -0.16206087 0.029546387 -0.024311602 -0.07987936 -0.05260325
-0.013414997 0.12176117 0.029198 0.092974365 0.033801373 0.03659625 0.008346905 -0.023137664
0.005791481 0.065161675 0.017058212 -0.16297197 -0.007382031 0.023572097 -0.06590179 -0.16871302
-0.014129532 -0.09269469 -0.086717345 -0.026292844 -0.036915466 0.040610448 0.14002903 -0.0396763
-0.18394499 -0.086935975 0.01798197 0.12057602 0.07170251 -0.070558615 -0.09288108 0.114956595
-0.040475614 -0.00802105 0.068272375 -0.052660994 0.17216791 0.04378263 0.109623045 0.077979825
-0.0947616 0.029688435 -0.008598192 0.06628027 -0.13359056 0.15134536 -0.13472557 0.006565959
00000000: 3665 a73d 8ea4 283c 0b63 993d fb40 7d3c
00000010: 0cb0 f1bd f4ec 97bc e267 5a3d fe0d 9bbd
00000020: ffe8 3d3d aa24 4a3e 04b7 223e 5848 be3d
00000030: 3d49 403d 765c 593c 1701 0d3e 860e 8b3e
00000040: bbf1 633e 1bcd 323d af1c 39bd 69ff b73d
00000050: d59c 323e a384 a43d 9ab8 1c3e 0ceb 9cbd
00000060: eaba 02bd d8a1 873d 6064 593e 4ab7 9cbb
00000070: 96b1 723d 6548 b33d 3eb7 01be 0373 ce3b
00000080: fa1c f73c 6292 5ebd c50c 51bd 76e6 103e
00000090: 3286 b6bc 6714 b23d 11dd 053e 3aa1 8fbd
000000a0: b347 b7bc a76e 903d 199d 0a3e 45d3 533d
000000b0: fb94 69bd d85e ef3c 87c6 6e3b e754 043c
000000c0: 3986 d63d 2740 23bd bbe5 3a3e 428c d4bd
000000d0: 9bfb a93b 7c6f e2bc 48dd 0ebd d260 0ebd
000000e0: 92e0 013e 4f27 5bbd c511 503e 85f7 b63c
000000f0: 8870 033e dc59 853e b590 ce3c 12af 64bd
00000100: 49d0 d0bd 3f83 04bd 2773 adbd e7c8 e5bd
00000110: c8bb 0fbd 8634 6cbd fc16 ffbd b2ba abbd
00000120: 8301 5bbe 396e 81be e0b5 26be a796 64be
00000130: acfc b2bd 1b87 8b3d 6cce d2bd 9682 6bbe
00000140: 7348 53be 1c80 39bc 9865 92bd 7c9c 73bd
00000150: 6069 cdbd 86cf 50bc d76c 1cbc 3fd9 75be
00000160: 40a2 cabd 56ba 1cbe 569f 25be 3330 6fbe
00000170: 28b6 0d3d b5bf 31be 082d f7bd 19de 67be
00000180: b814 93bc fc29 25be 7e7f 95bd f98a 47bd
00000190: 861f a23c 7039 77bd 9a96 39be 535b 95bd
000001a0: df72 78be 1f77 16be bd4e e4bd 5d45 36be
000001b0: 62b7 f2bd 9100 02be f851 d43c ebb1 27bd
000001c0: 1b83 69be 2ab8 11be bd96 86be 923a fbbd
000001d0: 3dcd d6bd 6d95 a8bc 1448 04be 8f14 8dba
000001e0: e17e a1bd f94d c4bc 966a cbbd cd76 7f3d
000001f0: 3cbc 9cbd 8462 36be 7b47 5bbd 40ea 82bd
00000200: c4c0 2cbb f322 a2bd 3e8d 2cbc 2e11 073e
00000210: d739 0fbc c936 9d3d 5cc9 6fbd 5e58 4d3c
00000220: c337 aabd 429e 003d f1b8 f43d 49f3 25be
00000230: 440b f23c 2029 c7bc ca97 a3bd 8176 57bd
00000240: 93ca 5bbc ec5d f93d a530 ef3c 5869 be3d
00000250: 4f73 0a3d f3e5 153d 75c1 083c 338b bdbc
00000260: 77c6 bd3b 7c73 853d aabd 8b3c 20e2 26be
00000270: f7e4 f1bb 451a c13c 85f7 86bd 1bc3 2cbe
00000280: 8d7f 67bc b7d6 bdbd dd98 b1bd 1764 d7bc
00000290: ac34 17bd 2457 263d c563 0f3e 9e83 22bd
000002a0: 135c 3cbe 7d0b b2bd ed4e 933c 8ff0 f63d
000002b0: c4d8 923d 0981 90bd 7038 bebd 5d6e eb3d
000002c0: c2c9 25bd b96a 03bc 63d2 8b3d 0eb3 57bd
000002d0: c94c 303e 6a55 333d 0c82 e03d e3b3 9f3d
000002e0: 5f12 c2bd 2935 f33c 6edf 0cbc f3bd 873d
000002f0: f7cb 08be 47fa 1a3e 80f5 09be 4227 d73b

bias_hh_l0 f4 [192]
0.08298015 0.03644617 -0.051126063 -0.047403276 0.052184112 0.11497279 0.09826038 -0.071714796
0.012040165 0.053402394 0.044521168 0.104173906 -0.054596987 0.10804879 -0.080704324 0.25907126
0.094937 0.13198468 0.015657334 0.0897924 0.09972931 -0.10525304 0.056210786 0.12011724
0.11156857 0.017885942 0.025314879 -0.090212695 0.15715884 0.14745095 0.09328642 -0.039036125
-0.1147417 0.029594902 0.014082494 0.100009024 0.08800005 0.14909986 -0.0072668176 -0.08935485
-0.0026210719 -0.1063855 0.088668816 0.02097252 -0.010451774 0.17078549 0.20244415 0.19279626
0.06710104 -0.073296174 0.16297446 -0.099754594 0.013161158 -0.09819808 -0.059607774 0.038859427
0.021590149 -0.079788126 0.11291543 0.09115033 0.089086175 0.27732766 0.020320399 0.08373518
-0.07132771 0.05526472 -0.010629269 -0.01499776 0.009917542 -0.116719715 0.04640132 -0.051982936
-0.22146803 -0.14755677 -0.15044668 -0.07585078 -0.05149862 0.0300007 -0.19075836 -0.08010794
-0.2329606 -0.13993096 -0.010798264 0.018478114 -0.22484267 -0.20642419 -0.24215263 -0.25892225
0.05218768 -0.22620717 -0.035227727 0.0061016683 -0.07087241 -0.08743045 -0.036239147 -0.23470816
-0.004170794 0.02741185 -0.04480366 -0.1019998 -0.009596615 -0.046827454 -0.12742117 -0.12389094
-0.17959991 -0.106072016 -0.14174372 -0.10155172 -0.20373261 -0.08330946 0.011296879 -0.050162513
-0.1316702 -0.24330935 -0.2184506 -0.13418417 -0.09343882 -0.15126356 -0.23222071 -0.03830935
-0.11328593 -0.09276513 -0.12076391 0.072438516 -0.20996785 -0.057019748 -0.06686998 -0.058469765
0.10520003 0.0720664 -0.12787323 0.030586448 -0.03428504 -0.084961794 -0.022597095 0.025558444
-0.050421868 0.076188974 0.0755178 -0.20540476 0.02422774 -0.09551234 -0.044279564 0.10737348
-0.12581351 0.10504259 -0.11870154 0.09887721 -0.14469321 -0.06425097 -0.1513708 0.04166833
0.047212984 0.091747016 -0.09611397 -0.01866722 0.025593169 -0.060400125 -0.004837682 -0.05163684
0.044489883 -0.08915706 -0.18308336 0.021512048 0.16254547 0.02250244 0.023259358 0.023990944
-0.086601526 0.013631496 0.07991586 -0.040713824 0.010301174 0.023673024 -0.09560212 0.11825396
-0.008702332 0.033348158 0.1681484 -0.04383088 0.069036864 0.020270692 -0.029194944 0.11147007
-0.06378065 -0.013459575 -0.11444101 0.046078317 -0.0848082 0.18605529 -0.010913692 -0.03091913
00000000: 7ff1 a93d 9448 153d 9069 51bd f029 42bd
00000010: 02bf 553d db76 eb3d bd3c c93d 35df 92bd
00000020: 1d44 453c 78bc 5a3d d45b 363d 2159 d53d
00000030: 17a1 5fbd af48 dd3d 4f48 a5bd fda4 843e
00000040: 546e c23d fe26 073e cf43 803c 14e5 b73d
00000050: e13e cc3d e88e d7bd 483d 663d 0700 f63d
00000060: 107e e43d 8a85 923c 2661 cf3c 6fc1 b8bd
00000070: 3fee 203e 62fd 163e f30c bf3d 58e4 1fbd
00000080: b2fd eabd 0271 f23c 43ba 663c 88d1 cc3d
00000090: 5f39 b43d a2ad 183e 7c1e eebb adff b6bd
000000a0: 4ac6 2bbb a4e0 d9bd ff97 b53d 90ce ab3c
000000b0: eb3d 2bbc 64e2 2e3e 854d 4f3e 626c 453e
000000c0: 456c 893d 4e1c 96bd c7e2 263e 234c ccbd
000000d0: e6a1 573c 131c c9bd 4827 74bd 102b 1f3d
000000e0: d3dd b03c f567 a3bd 3440 e73d 06ad ba3d
000000f0: d072 b63d e4fd 8d3e f776 a63c 5a7d ab3d
00000100: 4314 92bd 425d 623d 6326 2ebc 2ab9 75bc
00000110: 307d 223c bf0a efbd 4f0f 3e3d 0fec 54bd
00000120: 84c8 62be 1f19 17be b20e 1abe a757 9bbd
00000130: 38f0 52bd 07c4 f53c 2956 43be a20f a4bd
00000140: 398d 6ebe 104a 0fbe 34eb 30bc 6a5f 973c
00000150: 283d 66be dd60 53be dcf6 77be 7591 84be
00000160: c0c2 553d daa2 67be f34a 10bd 81f0 c73b
00000170: 8e25 91bd bc0e b3bd 806f 14bd 5657 70be
00000180: 28ab 88bb d18e e03c 0b84 37bd 45e5 d0bd
00000190: 1f3b 1dbc 25ce 3fbd b27a 02be 88ba fdbd
000001a0: 0ae9 37be 493c d9bd 4425 11be 59fa cfbd
000001b0: 489f 50be 269e aabd 8b16 393c 3577 4dbd
000001c0: 8ed4 06be 1626 79be 84b1 5fbe 9367 09be
000001d0: da5c bfbd d6e4 1abe 44cb 6dbe 44ea 1cbd
000001e0: 7402 e8bd a5fb bdbd 1253 f7bd a55a 943d
000001f0: d001 57be 8a8d 69bd 21f3 88bd fe7d 6fbd
00000200: 1d73 d73d 8c97 933d 33f1 02be 6e90 fa3c
00000210: 786e 0cbd 7300 aebd 8b1d b9bc f15f d13c
00000220: 2987 4ebd f708 9c3d 14a9 9a3d a055 52be
00000230: 4179 c63c f99b c3bd 7d5e 35bd a1e6 db3d
00000240: 42d5 00be 9220 d73d cb19 f3bd 2280 ca3d
00000250: 752a 14be 0396 83bd f200 1bbe 69ac 2a3d
00000260: 6762 413d dce5 bb3d 67d7 c4bd ffeb 98bc
00000270: c4a8 d13c 1f66 77bd 6b85 9ebb 2781 53bd
00000280: 063b 363d fa97 b6bd 347a 3bbe 093a b03c
00000290: 5272 263e 0957 b83c 698a be3c a888 c43c
000002a0: 245c b1bd a356 5f3c edaa a33d 8ac3 26bd
000002b0: 41c6 283c eeed c13c 0bcb c3bd 222f f23d
000002c0: 3a94 0ebc 1498 083d 182f 2c3e 0288 33bd
000002d0: 3363 8d3d b90e a63c 3c2a efbc 6c4a e43d
000002e0: 6e9f 82bd 8d85 5cbc 0c60 eabd 9ebc 3c3d
000002f0: ecaf adbd 4785 3e3e 58cf 32bc 1e4a fdbc

weight_ih_l1 f4 [192, 64]
0.20386264 -0.10008346 0.14510544 0.064006686 -0.09190962 -0.26856792 -0.17658563 -0.13710667
-0.021769872 -0.3314356 -0.04818643 -0.07859967 -0.10505846 0.013864415 -0.039260443 0.14214732
0.0028917089 0.14503196 0.094290964 -0.06817807 0.0031790028 0.15338214 -0.08857545 -0.29542077
0.027996881 0.2687502 -0.29458407 0.055675827 -0.17693244 0.09379806 -0.030912533 -0.16552536
0.08151548 0.03876166 -0.1318433 -0.12121688 0.10517582 -0.24237657 0.08894395 -0.15599865
0.034876183 -0.42324778 -0.019032825 0.25672436 0.10503746 0.03641799 -0.01153084 0.08294899
0.052600283 0.07415681 0.23662601 0.14856188 0.018323727 0.059492208 0.13306095 0.1371959
-0.27996403 -0.0023059624 0.27374297 -0.11406373 -0.13702106 -0.109950356 -0.07296407 0.1618982
-0.20006715 0.0873493 -0.31971765 -0.11074609 0.06826655 0.06647276 0.013135265 -0.04733519
0.09714885 0.18942405 -0.17633526 0.034563117 0.13403255 -0.029325914 0.1343326 -0.2229638
0.286597 0.07204378 0.1379647 -0.033449456 -0.06513794 -0.36137733 0.06856677 0.15366022
-0.05472377 0.03146579 0.38075998 0.16336422 -0.08504255 0.043828715 0.048281383 -0.022836871
0.06469622 -0.076703705 0.040078416 0.085950315 0.061412808 0.13913147 -0.12164568 0.034034632
0.2902866 0.12379176 0.0370051 0.0077880635 -0.12407889 -0.38818285 0.08950665 -0.09054966
-0.031451583 -0.11041855 -0.2286887 0.016894024 -0.26078027 0.108711086 -0.0068278657 -0.03816136
0.1636975 0.0033790697 0.12928338 -0.0072439252 0.101366885 -0.2499941 -0.075813726 -0.33211645
-0.06100256 -0.00534761 -0.21247452 0.041327246 -0.06859204 0.124385945 -0.004031089 -0.026570762
0.07148318 0.04412634 -0.24977197 0.022715094 0.06818593 -0.09039976 -0.029572926 -0.29233226
0.21650869 0.059578225 0.0273662 -0.02111339 -0.035595313 -0.22410512 -0.01624076 0.14902566
-0.031964444 -0.033434223 0.23845828 0.009704864 -0.064580254 -0.03944297 -0.07403084 -0.04713124
-0.0013537947 -0.0812368 0.051689442 -0.033217587 -0.07362127 0.16877726 -0.025196312 -0.020116437
0.06202315 0.005140107 -0.11988307 -0.10610942 0.06809635 -0.20031431 0.013594782 -0.12040976
-0.055562194 0.07570154 -0.07161116 0.15107115 -0.14848207 0.080160946 -0.114485 -0.08372099
0.18030272 0.08966067 0.20115058 0.04029779 0.13291897 -0.013504332 0.14695938 -0.13156381
-0.2072367 0.03835241 -0.23499179 0.06922886 0.14865579 -0.11154915 -0.16683884 0.04614272
-0.015907355 0.13955688 -0.07325979 -0.11514113 -0.00080769893 -0.050801534 -0.18358108 -0.1314544
0.21531898 0.024735378 -0.04509994 -0.03741483 -0.015164379 -0.07074323 0.09277768 0.090483725
0.12759528 -0.13302228 0.09159255 0.05058447 0.22489572 -0.020656887 0.19174771 0.06074881
-0.014429784 -0.12860739 -0.037471607 -0.118891716 -0.08264686 0.06481134 0.0031161583 -0.003790945
0.09086925 0.003911301 -0.010117584 0.04661379 -0.11687043 -0.2993905 0.07720059 0.07533897
-0.20314252 -0.015850088 -0.12313524 0.025272647 -0.11248844 -0.03538483 -0.0675505 0.1735864
-0.04053467 -0.02219197 0.04749533 -0.02030635 -0.09456647 0.11127809 0.065442264 -0.040206917
00000000: 5ec1 503e 8ff8 ccbd 8596 143e f015 833d
00000010: 1c3b bcbd bc81 89be ddd2 34be b165 0cbe
00000020: bb56 b2bc edb1 a9be 225f 45bd ddf8 a0bd
00000030: e428 d7bd 9227 633c 8fcf 20bd 118f 113e
00000040: d382 3d3b 4283 143e 9f1b c13d f2a0 8bbd
00000050: d156 503b 3510 1d3e 0c67 b5bd 6441 97be
00000060: b759 e53c a099 893e b9d3 96be 560c 643d
00000070: c72d 35be 3319 c03d 483c fdbc 7b7f 29be
00000080: 97f1 a63d 8cc4 1e3d ee01 07be 8e40 f8bd
00000090: 6c66 d73d 9031 78be 3f28 b63d 1cbe 1fbe
000000a0: 54da 0e3d efb3 d8be baea 9bbc 6071 833e
000000b0: e11d d73d 082b 153d d9eb 3cbc 29e1 a93d
000000c0: 6573 573d 87df 973d 174e 723e 9b20 183e
000000d0: a41b 963c 1aae 733d 2141 083e 157d 0c3e
000000e0: 7257 8fbe a11f 17bb 0a28 8c3e 3f9a e9bd
000000f0: 404f 0cbe a72d e1bd 306e 95bd a4c8 253e
00000100: 67de 4cbe 31e4 b23d 08b2 a3be d9ce e2bd
00000110: 55cf 8b3d df22 883d 4b35 573c 8be2 41bd
00000120: faf5 c63d 61f8 413e 3b91 34be 0e92 0d3d
00000130: d43f 093e e63c f0bc 7c8e 093e 9f50 64be
00000140: d8bc 923e b08b 933d 9e46 0d3e 4c02 09bd
00000150: 0a67 85bd 7306 b9be bc6c 8c3d 1b59 1d3e
00000160: 0826 60bd 46e2 003d f9f2 c23e f348 273e
00000170: ca2a aebd bd85 333d b3c2 453d 6414 bbbc
00000180: 747f 843d d516 9dbd 4429 243d b806 b03d
00000190: ff8b 7b3d 7b78 0e3e 5f21 f9bd e667 0b3d
000001a0: 72a0 943e 8986 fd3d a992 173d 0333 ff3b
000001b0: 131d febd e7bf c6be 434f b73d 1a72 b9bd
000001c0: 60d3 00bd 1f23 e2bd 5f2d 6abe 5665 8a3c
000001d0: fe84 85be eba3 de3d 4abc dfbb 164f 1cbd
000001e0: 51a0 273e 6273 5d3b dd62 043e 735e edbb
000001f0: 7199 cf3d 74fe 7fbe 3a44 9bbd 2b0b aabe
00000200: d2dd 79bd 013b afbb ec92 59be c246 293d
00000210: fc79 8cbd 0fbe fe3d 3a17 84bb edaa d9bc
00000220: c665 923d d2bd 343d 39c4 7fbe 0115 ba3c
00000230: 11a5 8b3d 8223 b9bd ec42 f2bc 93ac 95be
00000240: 74b4 5d3e 4c08 743d 152f e03c fdf5 acbc
00000250: 64cc 11bd d07b 65be 580b 85bc 2f9a 183e
00000260: 26ed 02bd 53f2 08bd 682e 743e 2601 1f3c
00000270: a742 84bd f48e 21bd 7b9d 97bd b00c 41bd
00000280: d071 b1ba 7b5f a6bd 4fb8 533d 2a0f 08bd
00000290: c0c6 96bd f2d3 2c3e 7f68 cebc 3acb a4bc
000002a0: fd0b 7e3d 586e a83b 4185 f5bd e54f d9bd
000002b0: 1976 8b3d 321f 4dbe a6bc 5e3c 6499 f6bd
000002c0: 2f95 63bd 6909 9b3d dfa8 92bd 65b2 1a3e
000002d0: af0b 18be 6c2b a43d 1d77 eabd e975 abbd
000002e0: 47a1 383e 03a0 b73d 6bfa 4d3e 4c0f 253d
000002f0: e91b 083e 4641 5dbc 857c 163e aab8 06be
00000300: dc35 54be 6b17 1d3d b0a1 70be dcc7 8d3d
00000310: 3939 183e e173 e4bd cdd7 2abe 2600 3d3d
00000320: 2450 82bc 00e8 0e3e 3b09 96bd 1dcf ebbd
00000330: c2bb 53ba 4515 50bd aefc 3bbe fb9b 06be
00000340: 947c 5c3e d9a1 ca3c b7ba 38bd 4b40 19bd
00000350: 0474 78bc d4e1 90bd 3902 be3d 884f b93d
00000360: 56a8 023e fe36 08be e094 bb3d a931 4f3d
00000370: 104b 663e a238 a9bc 8359 443e bfd3 783d
00000380: e76a 6cbc a8b1 03be d47b 19bd 807d f3bd
00000390: c242 a9bd cfbb 843d 7638 4c3b 8171 78bb
000003a0: a819 ba3d 5f2a 803b 39c4 25bc 1aee 3e3d
000003b0: c459 efbd b649 99be 581b 9e3d 514b 9a3d
000003c0: 9804 50be 0bd8 81bc 542e fcbd 9508 cf3c
000003d0: 5760 e6bd afef 10bd eb57 8abd a2c0 313e
000003e0: af07 26bd efcb b5bc 778a 423d 8159 a6bc
000003f0: 11ac c1bd c4e5 e33d 9806 863d 02b0 24bd

weight_hh_l1 f4 [192, 64]
0.05681068 -0.038339827 0.1583904 -0.021804422 -0.05106878 -0.13772467 0.09096386 0.13761254
-0.081053376 0.056091685 0.24558152 0.13393696 0.08237192 0.113792054 0.12867856 0.09326908
0.11148475 -0.026660407 -0.08555698 -0.11751409 -0.01512649 -0.0077759954 0.13949755 -0.108034566
-0.05898758 -0.035173014 0.11032393 -0.04093901 0.14187638 -0.02286976 0.012659218 -0.096436314
0.029688409 -0.028504536 -0.002935104 -0.09035032 -0.004056438 0.054279108 -0.0110483095 -0.02756185
0.057960775 -0.12635994 -0.024137834 -0.15707828 0.068390235 -0.057999 -0.10278037 -0.0074989395
-0.12534696 -0.022426015 -0.07061584 0.033835024 -0.035558686 0.114425704 0.101322606 0.12083861
-0.07605192 0.0741074 -0.0866707 0.07566066 -0.0014804156 -0.07080472 -0.14137782 -0.09843972
-0.14475511 -0.031762328 0.18689044 0.02957505 0.08651145 0.14516197 0.02876551 0.07703586
0.06316777 -0.025848972 0.0033070578 0.27772936 0.06687324 0.14081445 0.04154499 0.050206106
-0.0121038 0.051296826 -0.06223169 0.06610684 0.026134182 -0.13847835 -0.06882289 -0.02957843
-0.008858268 0.08312069 0.16429418 0.03801763 -0.051359415 -0.1390778 0.06969854 -0.14671342
-0.07410877 -0.057015017 0.17578216 0.012160115 0.005428867 0.03251831 0.047967993 -0.20778377
0.2128283 -0.085352115 0.027133692 -0.051692866 0.10698232 0.023054205 0.03445464 -0.07584629
0.024774484 0.09620761 0.07525763 0.026231764 -0.020443603 0.12644438 0.0023743683 0.005457321
-0.041572593 0.028021289 -0.13874158 -0.15281224 -0.27486065 0.00458996 0.04584844 0.005743689
-0.09052423 0.0782833 0.23824452 0.12730601 0.12274684 0.035179455 0.02298002 -0.08045287
0.11693618 0.083938435 0.13597737 0.2668016 -0.091371514 0.21298757 0.069767855 0.0009906325
-0.021689454 -0.08164189 0.060254887 0.080136 0.028923921 -0.0066932924 0.054493763 0.03490811
-0.0411149 -0.11572784 0.27664423 -0.010896278 -0.07633772 0.041560613 -0.087255724 0.084172
-0.028181583 0.015575708 0.139245 -0.0093382355 0.06239449 -0.008340215 0.0035349715 -0.14880042
0.28902298 -0.05176697 -0.02395813 -0.18597499 0.24820629 0.1232149 -0.018448738 -0.025400497
0.120169766 0.10336511 -0.042182803 0.12784892 -0.045445256 -0.034657117 0.03351325 0.0016737327
-0.03234842 0.040603425 -0.10586737 0.09342737 -0.20628071 -0.021047736 0.06439465 0.029208284
0.005290145 -0.0025353597 0.049975887 0.011181728 0.04800916 0.059694014 -0.08596669 -0.090909004
0.24799159 -0.044014707 0.12059168 0.08790829 0.005610535 0.1154246 0.026763992 0.24496748
-0.14446245 -0.041495197 -0.051276855 0.16213581 -0.07704679 0.118032835 0.07398637 0.0016543962
-0.056791984 -0.18865144 0.16228135 0.104571305 0.040999196 0.09937577 -0.0043554916 0.12736778
-0.106066965 -0.14061292 -0.009580961 -0.042633798 0.07297748 0.11399323 0.048480716 -0.15308017
0.12667969 -0.12315348 0.0006256191 -0.073555596 -0.14268023 -0.051112372 0.016357392 0.0063176635
0.04395178 0.13501689 0.07017711 0.074816085 0.11818444 0.02355511 -0.13299488 -0.05093732
-0.11385915 0.021676134 0.04585552 0.014038077 0.0061370223 -0.02781102 -0.2254468 0.13879922
00000000: 51b2 683d 390a 1dbd 1831 223e 309f b2bc
00000010: 7f2d 51bd b207 0dbe 434b ba3d 4dea 0c3e
00000020: 50ff a5bd 65c0 653d b979 7b3e c526 093e
00000030: 9cb2 a83d cf0b e93d 50c4 033e dc03 bf3d
00000040: 1e52 e43d ed66 dabc 7f38 afbd 3aab f0bd
00000050: 19d5 77bc c7cd febb 72d8 0e3e 3a41 ddbd
00000060: f69c 71bd 9411 10bd 83f1 e13d aaaf 27bd
00000070: 0b48 113e 5d59 bbbc 9c68 4f3c 6780 c5bd
00000080: 1b35 f33c 5882 e9bc e05a 40bb 9709 b9bd
00000090: deeb 84bb c553 5e3d f803 35bc 64c9 e1bc
000000a0: 4768 6d3d 8064 01be b5bc c5bc 21d9 20be
000000b0: 2e10 8c3d 5c90 6dbd 847e d2bd aab9 f5bb
000000c0: f45a 00be c3b6 b7bc 0a9f 90bd 9896 0a3d
000000d0: fca5 11bd 0658 ea3d 3a82 cf3d 3c7a f73d
000000e0: 1cc1 9bbd 9fc5 973d 6880 b1bd faf3 9a3d
000000f0: 810a c2ba 1102 91bd 59c5 10be c49a c9bd
00000100: af3a 14be 3719 02bd 3560 3f3e 6047 f23c
00000110: ea2c b13d 57a5 143e a6a5 eb3c fac4 9d3d
00000120: 1b5e 813d 39c1 d3bc 39bb 583b 8b32 8e3e
00000130: d6f4 883d aa31 103e 142b 2a3d eba4 4d3d
00000140: 044f 46bc 9f1c 523d a8e6 7ebd 0663 873d
00000150: 5a17 d63c 45cd 0dbe 04f3 8cbd 774e f2bc
00000160: 4522 11bc 2e3b aa3d bc3c 283e 60b8 1b3d
00000170: 405e 52bd 696a 0ebe 1cbe 8e3d 0b3c 16be
00000180: 57c6 97bd 9488 69bd 3d00 343e 383b 473c
00000190: a3e4 b13b eb31 053d 167a 443d 45c5 54be
000001a0: a9ef 593e 17cd aebd 7a47 de3c e6bb 53bd
000001b0: 8c19 db3d 2cdc bc3c 4f20 0d3d 4d55 9bbd
000001c0: dcf3 ca3c 7f08 c53d ac20 9a3d ffe3 d63c
000001d0: 5879 a7bc a37a 013e 4a9b 1b3b 54d3 b23b
000001e0: 0648 2abd e78c e53c 4612 0ebe d07a 1cbe
000001f0: 89ba 8cbe 6067 963b 93cb 3b3d 8e35 bc3b
00000200: c464 b9bd ff52 a03d 5ff6 733e 825c 023e
00000210: b262 fb3d 5518 103d 9840 bc3c 79c4 a4bd
00000220: 3c7c ef3d eae7 ab3d a73d 0b3e 389a 883e
00000230: fd20 bbbd 6a19 5a3e 73e2 8e3d 1cd8 813a
00000240: 15ae b1bc dd33 a7bd d4cd 763d 581e a43d
00000250: dcf1 ec3c 6853 dbbb da34 5f3d cefb 0e3d
00000260: 1968 28bd b802 edbd 50a4 8d3e 4d86 32bc
00000270: f356 9cbd 763b 2a3d 21b3 b2bd 5f62 ac3d
00000280: 10dd e6bc 4131 7f3c 3e96 0e3e 66ff 18bc
00000290: 5d91 7f3d 66a5 08bc fbaa 673b 235f 18be
000002a0: d2fa 933e 9a09 54bd d743 c4bc 3a70 3ebe
000002b0: ca29 7e3e 1858 fc3d cf21 97bc b414 d0bc
000002c0: 911b f63d 16b1 d33d e0c7 2cbd d4ea 023e
000002d0: ce24 3abd 9ff4 0dbd 3145 093d 2661 db3a
000002e0: c77f 04bd c74f 263d fed0 d8bd d956 bf3d
000002f0: 403b 53be 4d6c acbc 58e1 833d 3646 ef3c
00000300: f458 ad3b 4728 26bb 84b3 4c3d 9133 373c
00000310: 41a5 443d b681 743d 4e0f b0bd 802e babd
00000320: 82f1 7d3e c448 34bd c5f8 f63d 4309 b43d
00000330: 94d8 b73b bc63 ec3d 2940 db3c c1d8 7a3e
00000340: f7ed 13be def6 29bd ae07 52bd ee06 263e
00000350: b5ca 9dbd 33bb f13d 2a86 973d 53d8 d83a
00000360: b69e 68bd d82d 41be 152d 263e 7b29 d63d
00000370: c6ee 273d 8685 cb3d 83b8 8ebb b36c 023e
00000380: a339 d9bd d5fc 0fbe 77f9 1cbc c7a0 2ebd
00000390: 3875 953d 4875 e93d b793 463d 0cc1 1cbe
000003a0: 52b8 013e e437 fcbd 9600 243a 51a4 96bd
000003b0: c41a 12be 355b 51bd f0ff 853c 6704 cf3b
000003c0: c806 343d de41 0a3e 04b9 8f3d 2d39 993d
000003d0: af0a f23d a5f6 c03c cf2f 08be a7a3 50bd
000003e0: fc2e e9bd 2692 b13c ffd2 3b3d f6ff 653c
000003f0: 1319 c93b f0d3 e3bc 87db 66be 6221 0e3e

bias_ih_l1 f4 [192]
0.10165598 -0.13054366 -0.100986354 0.056114588 0.0453832 0.028586674 -0.059395272 -0.036886893
0.05379247 0.060946595 0.05577288 0.17320555 -0.1096918 0.06739914 -0.063312486 -0.0038233995
-0.0005338656 0.0149511695 0.10078806 0.0939174 0.13491428 -0.024545224 0.08000909 -0.10677409
-0.025923496 0.09675515 0.06904283 0.14644316 0.036122605 0.002066511 -0.16685498 0.03262933
-0.06170965 -0.050632175 -0.11678476 -0.19300045 0.1674266 0.36099535 0.037993003 0.026026854
0.09693167 0.014026013 0.059582233 0.03678991 0.12841399 0.03825563 -0.057032187 0.011905988
0.024130957 0.1311646 -0.06376658 0.1321329 -0.03873958 0.23093419 -0.12289184 0.0044176006
-0.07158078 0.06547795 0.0125795575 -0.031553663 -0.13258345 -0.011458579 -0.11711909 0.048299655
-0.20716439 0.06125959 -0.10789474 -0.074219406 -0.20298754 -0.1919511 -0.21049803 -0.040580593
-0.14484428 -0.056423716 -0.0021437851 -0.17420213 -0.07922825 -0.09957898 -0.14297232 -0.0022329313
-0.16223755 -0.0031417112 -0.0019102267 -0.08434511 -0.21462508 0.0256389 -0.16767584 -0.1366064
-0.08025057 -0.127043 -0.099136904 -0.2575944 0.014418611 -0.20563644 -0.025379734 -0.06330739
-0.06017341 -0.13713884 -0.25455457 -0.12049889 -0.11097975 -0.125956 -0.02098329 -0.057985824
-0.16657479 -0.086119674 -0.16447604 -0.06298733 -0.13187633 0.055998266 -0.11896009 -0.0014310471
-0.24812302 -0.025321938 -0.19223967 -0.14889136 -0.055999897 -0.17920847 0.019972237 -0.17324632
-0.1450375 -0.07375884 -0.039644185 0.0064961878 -0.20776348 -0.17858122 -0.09437547 -0.17299025
-0.022537077 0.085525334 0.097720325 -0.04657519 0.11311159 -0.0950606 -0.18139768 -0.030503921
0.02398012 0.06559305 0.07970613 0.005728054 0.11761115 0.06792959 -0.0867603 -0.06277142
-0.013889469 0.0041919635 -0.033964727 -0.14111124 -0.18790372 0.12236018 0.09063759 -0.1602449
-0.0172154 0.05988885 -0.07761299 -0.21118975 0.11984761 0.18752016 0.05474371 -0.0075998856
0.11520093 -0.20627178 0.10572586 0.20058523 -0.14441188 0.3079414 0.12519625 -0.077980176
-0.051138364 0.047746465 -0.079056256 -0.05003922 0.02587281 0.014925062 0.18337186 0.06076751
-0.057574052 0.16149223 -0.101743355 -0.20642877 0.024954855 -0.110641375 0.027488928 0.05188034
0.067743674 -0.013765824 0.00083342 0.06296971 0.043516897 0.1015955 0.024353545 0.21804391
00000000: 0331 d03d 3dad 05be efd1 cebd 69d8 653d
00000010: bce3 393d 9a2e ea3c 7548 73bd b616 17bd
00000020: 7e55 5c3d 23a3 793d 1a72 643d cc5c 313e
00000030: 18a6 e0bd 8f08 8a3d faa9 81bd 0092 7abb
00000040: 1df3 0bba c0f5 743c f869 ce3d c457 c03d
00000050: f826 0a3e 1113 c9bc cedb a33d 60ac dabd
00000060: 835d d4bc 9027 c63d 5466 8d3d 32f5 153e
00000070: 4cf5 133d 4d6e 073b 08dc 2abe 55a6 053d
00000080: 42c3 7cbd af63 4fbd d92c efbd e9a1 45be
00000090: e171 2b3e 62d4 b83e 8d9e 1b3d 4536 d53c
000000a0: 1d84 c63d 5dcd 653c 800c 743d 04b1 163d
000000b0: f57e 033e efb1 1c3d 959a 69bd 5511 433c
000000c0: 49ae c53c 0350 063e 0d98 82bd d94d 073e
000000d0: 65ad 1ebd 037a 6c3e b8ae fbbd 85c1 903b
000000e0: f298 92bd 4e19 863d 7d1a 4e3c 6a3e 01bd
000000f0: f5c3 07be c4bc 3bbc 22dc efbd dcd5 453d
00000100: e722 54be 56eb 7a3d ebf7 dcbd 5800 98bd
00000110: f7db 4fbe d48e 44be cc8c 57be d637 26bd
00000120: 0f52 14be 8e1c 67bd bf7e 0cbb 0b62 32be
00000130: 6c42 a2bd 10f0 cbbd 5667 12be 5f56 12bb
00000140: 9a21 26be 2be5 4dbb 9260 faba 21bd acbd
00000150: adc6 5bbe ac08 d23c 37b3 2bbe 8ce2 0bbe
00000160: 695a a4bd 8f17 02be 4a08 cbbd 6ae3 83be
00000170: 0a3c 6c3c 5c92 52be 29e9 cfbc 4ea7 81bd
00000180: 6578 76bd 206e 0cbe fa54 82be 1fc8 f6bd
00000190: 5a49 e3bd 9cfa 00be 26e5 abbc 8b82 6dbd
000001a0: 9592 2abe 835f b0bd 686c 28be 80ff 80bd
000001b0: 970a 07be 705e 653d 59a1 f3bd f991 bbba
000001c0: f613 7ebe f46f cfbc 7ada 44be fa76 18be
000001d0: 2660 65bd 6d82 37be d19c a33c 7c67 31be
000001e0: b684 14be e00e 97bd f161 22bd f9dd d43b
000001f0: f3bf 54be ffdd 36be ed47 c1bd 5b24 31be
00000200: ad9f b8bc e827 af3d 9821 c83d a0c5 3ebd
00000210: 0da7 e73d 22af c2bd 50c0 39be 5ce3 f9bc
00000220: f571 c43c a655 863d f83c a33d 66b2 bb3b
00000230: 1dde f03d ab1e 8b3d 62af b1bd 4d8e 80bd
00000240: a890 63bc bd5c 893b 991e 0bbd 777f 10be
00000250: d569 40be f997 fa3d 33a0 b93d 3d17 24be
00000260: 4f07 8dbc 034e 753d 8ff3 9ebd 2042 58be
00000270: aa72 f53d 4905 403e f13a 603d 7608 f9bb
00000280: 77ee eb3d e938 53be cd86 d83d 3766 4d3e
00000290: b5e0 13be 7faa 9d3e 7233 003e 12b4 9fbd
000002a0: 7676 51bd cc91 433d 3fe8 a1bd edf5 4cbd
000002b0: 37f3 d33c 3f88 743c d5c5 3b3e 5ae7 783d
000002c0: c5d2 6bbd 385e 253e d25e d0bd 1062 53be
000002d0: 206e cc3c f297 e2bd 7630 e13c 7b80 543d
000002e0: 32bd 8a3d 0d8a 61bc df79 5a3a 43f6 803d
000002f0: c63e 323d 4d11 d03d 1681 c73c e746 5f3e

bias_hh_l1 f4 [192]
0.02913237 -0.1397345 -0.023384545 -0.0068859975 -0.08346111 0.010596115 0.10620517 -0.1300753
-0.06143796 0.012954107 -0.15155502 0.008106968 0.01820764 0.035111714 0.073623784 -0.00012756081
-0.0049137743 -0.014863549 0.038268417 -0.09081376 0.12034843 0.030185498 -0.0050365836 -0.097693875
0.08641831 0.14443763 -0.027897784 0.068267316 -0.060279522 -0.1575363 -0.01322928 0.0384338
-0.15830258 -0.06929684 0.06406635 0.014594231 0.11259537 0.21478342 -0.19163513 -0.13963234
0.035326794 -0.021977754 0.0056289984 0.15130071 0.043646 -0.113236144 0.1177673 0.10914598
0.041144498 -0.0001761467 0.14627883 0.10353687 -0.016822634 0.14105415 -0.115093365 0.17529586
0.008715669 0.07021004 0.046672806 0.10750814 -0.1169024 -0.07522339 0.026821688 -0.084596865
-0.20747432 -0.07774401 -0.080386944 -0.064842984 -0.17720799 -0.21571146 -0.19889003 -0.13804165
-0.033896238 -0.031706646 -0.08748501 -0.07713037 -0.18095043 -0.16883415 -0.014163196 0.022606554
-0.033666167 0.01335487 -0.03642985 -0.09570388 0.0060169217 0.03750269 -0.08990661 -0.12979598
-0.040406857 -0.15665224 -0.24530199 -0.1752679 -0.15329571 -0.107364215 -0.15846828 -0.10114216
-0.1194832 -0.114648305 -0.21657206 -0.19868174 -0.16772811 -0.12451347 0.047829587 -0.101781
-0.2063572 -0.11599137 0.05427765 -0.16697142 -0.15944539 0.030703753 -0.18161416 -0.04009864
-0.13393901 -0.035710294 -0.24669625 -0.041484613 -0.03229545 -0.070443295 0.014368827 -0.07988689
-0.13146746 -0.030429263 -0.034755826 -0.1666177 -0.25336626 -0.070249446 -0.051262904 -0.056456596
0.18925439 0.013442416 0.12611893 0.057332262 0.068618216 -0.16233307 -0.14334697 -0.043146625
-0.06688427 0.046482276 -0.005111444 0.032706983 -0.00095638674 0.03393315 0.045962367 0.1016094
-0.02213897 -0.035435643 -0.03494342 -0.095775396 -0.0635285 -0.054371502 0.067112714 -0.001392578
-0.16050385 -0.11511239 -0.09730369 -0.1917702 0.15807174 -0.03293043 0.039163727 0.14982587
0.07437322 0.04561377 0.11509956 0.026053922 -0.183288 0.31674322 -0.05681222 0.005244083
0.12904917 0.08582971 -0.012770462 -0.089123525 0.101411335 -0.046465624 0.14396788 0.13450046
-0.17870663 0.122560926 -0.15687841 -0.1525086 -0.1015854 -0.117909245 0.030985387 0.16818538
0.06727502 -0.0638469 0.13618058 0.042011395 -0.07071331 -0.03052169 -0.109953605 0.0784942
00000000: 02a7 ee3c 9016 0fbe f290 bfbc efa3 e1bb
00000010: a9ed aabd 549b 2d3c 1982 d93d 7632 05be
00000020: 5fa6 7bbd 763d 543c 3d31 1bbe 17d3 043c
00000030: 3028 953c 4dd1 0f3d 11c8 963d d8c1 05b9
00000040: ba03 a1bb 3e86 73bc 58bf 1c3d 91fc b9bd
00000050: 3d79 f63d 9447 f73c ed09 a5bb ba13 c8bd
00000060: 15fc b03d 75e7 133e e589 e4bc bccf 8b3d
00000070: a9e7 76bd 3251 21be 9fbf 58bc c36c 1d3d
00000080: 121a 22be 80eb 8dbd 3835 833d a41c 6f3c
00000090: 6798 e63d 2ff0 5b3e 003c 44be c8fb 0ebe
000000a0: d4b2 103d b10a b4bc 7673 b83b 93ee 1a3e
000000b0: 26c6 323d 5ae8 e7bd fb2f f13d ed87 df3d
000000c0: 2287 283d 05b4 38b9 1eca 153e 230b d43d
000000d0: 9fcf 89bc 8070 103e 12b6 ebbd c280 333e
000000e0: 2acc 0e3c 48ca 8f3d fc2b 3f3d 3a2d dc3d
000000f0: 876a efbd b80e 9abd 28b9 db3c 1f41 adbd
00000100: 2674 54be 4038 9fbd e9a1 a4bd 66cc 84bd
00000110: 0376 35be 77e3 5cbe d4a9 4bbe ca5a 0dbe
00000120: c8d6 0abd d4de 01bd 572b b3bd 87f6 9dbd
00000130: 124b 39be dce2 2cbe c00c 68bc 6131 b93c
00000140: 89e5 09bd 62ce 5a3c 7737 15bd 6500 c4bd
00000150: 9929 c53b 6c9c 193d f520 b8bd 3de9 04be
00000160: a981 25bd 7269 20be 7230 7bbe 6e79 33be
00000170: 8df9 1cbe c5e1 dbbd 8245 22be 9f23 cfbd
00000180: 9cb3 f4bd bbcc eabd 11c5 5dbe 3a73 4bbe
00000190: ebc0 2bbe eb00 ffbd f5e8 433d 8f72 d0bd
000001a0: 4d4f 53be e28c edbd 3e52 5e3d 8efa 2abe
000001b0: a745 23be 7086 fb3c 10f9 39be 793e 24bd
000001c0: 4f27 09be f544 12bd f19d 7cbe c5eb 29bd
000001d0: 3c48 04bd 9344 90bd 3b6b 6b3c bd9b a3bd
000001e0: 689f 06be ca46 f9bc 205c 0ebd d59d 2abe
000001f0: 39b9 81be f1de 8fbd 0df9 51bd 083f 67bd
00000200: e7cb 413e 943d 5c3c 5225 013e 3cd5 6a3d
00000210: b587 8c3d a43a 26be 8cc9 12be 84ba 30bd
00000220: 9ffa 88bd 3364 3e3d e67d a7bb c2f7 053d
00000230: 07b6 7aba 7dfd 0a3d 0943 3c3d 9718 d03d
00000240: c95c b5bc f724 11bd d520 0fbd e425 c4bd
00000250: 3b1b 82bd a7b4 5ebd 6472 893d 2a87 b6ba
00000260: 1f5b 24be 0bc0 ebbd 2847 c7bd 685f 44be
00000270: 8fdd 213e 0fe2 06bd 256a 203d f46b 193e
00000280: fd50 983d 81d5 3a3d 51b9 eb3d 096f d53c
00000290: d9af 3bbe 2b2c a23e eeb3 68bd 8ed6 ab3b
000002a0: 7725 043e 7dc7 af3d 333b 51bc 6586 b6bd
000002b0: bfb0 cf3d bd52 3ebd 516c 133e 7dba 093e
000002c0: dffe 36be 3901 fb3d bca4 20be 372b 1cbe
000002d0: 020c d0bd 677a f1bd 11d5 fd3c ca38 2c3e
000002e0: 7cc7 893d 2ac2 82bd ec72 0b3e 2414 2c3d
000002f0: 24d2 90bd a008 fabc 5b2f e1bd 91c1 a03d
