time_LossPrune/model2_Climate.pth (torch, 209742 bytes, 12 tensors)

weight f4 [125, 16]
0	0xbf0f207a	-0.5590893
1	0x3f87987f	1.0593413
2	0xbe613ff7	-0.21997057
3	0xbf2bbccd	-0.6708496
4	0xbf21966a	-0.6312014
5	0x3efba42e	0.49148697
6	0xc0019f74	-2.0253572
7	0x3fab453c	1.3380504
8	0xc00c5561	-2.192711
9	0xbe008437	-0.12550436
10	0xc014680c	-2.3188505
11	0x3f012477	0.50446266
12	0x3eb5d04e	0.35510486
13	0xbe3a7434	-0.1820839
14	0x3fafd810	1.3737812
15	0xbf1f821d	-0.6230791
16	0x3eda9e91	0.42699102
17	0xbf32fa6e	-0.69913375
18	0xbf4ca77f	-0.7994308
19	0x3eea9202	0.4581452
20	0x3d660b32	0.05616302
21	0x3f1dc178	0.61623335
22	0xbfaac6d7	-1.3341931
23	0x3ebe77c0	0.37200737
24	0xbdaabbc7	-0.08336597
25	0xbfad9037	-1.3559636
26	0x3f454d8e	0.77071464
27	0x3fb6c5a3	1.4279064
28	0x3f4a7e84	0.790993
29	0x3fcbbca4	1.5916944
30	0xbe9f7448	-0.31143403
31	0x3f122ae1	0.5709668
32	0xc00387be	-2.05516
33	0xbc9a2683	-0.018817192
34	0xbf9efa71	-1.2420179
35	0x3f9e88fa	1.2385552
36	0xbfa3465b	-1.2755846
37	0x3fc2fdc1	1.523369
38	0x400409cd	2.0630982
39	0x3f5ea77f	0.8697433
40	0x3f41028c	0.7539451
41	0x3f6cbe14	0.92477536
42	0x3f8682bb	1.0508646
43	0xbf1b9521	-0.6077443
44	0x3ef2fdfe	0.47459406
45	0xbf25bba4	-0.6473944
46	0x3f408476	0.7520212
47	0x3de8f51b	0.11374875
48	0x3f8d2398	1.1026487
49	0x3e3c5811	0.1839297
50	0x3f84855a	1.0353196
51	0xbe9766dc	-0.29570663
52	0xbf0a88a7	-0.54114765
53	0xbf382ca1	-0.719431
54	0xbfc7ad32	-1.559973
55	0x3f48647a	0.78278315
56	0x3f0c2814	0.54748654
57	0x3e53b19b	0.2067322
58	0x3fb224a0	1.3917427
59	0xc005169e	-2.0795054
60	0x3d00e095	0.031464178
61	0x3f4c0611	0.79696757
62	0x3fa8df92	1.3193228
63	0x3eee88ea	0.46588832
64	0x3fc7e663	1.5617183
65	0x3fb6e9fb	1.4290155
66	0x3b77c3ab	0.0037805836
67	0xbf6b0b5f	-0.91814226
68	0xbe234156	-0.15942892
69	0xbdd4769c	-0.103741854
70	0xbf6a74b6	-0.91584337
71	0xbfbf9dcd	-1.4970032
72	0x3f0f0ede	0.5588206
73	0x3faa3b5b	1.3299364
74	0xbf600c6b	-0.8751895
75	0x3f936c20	1.1517372
76	0x3d791935	0.060815055
77	0xbf92b251	-1.1460668
78	0xbd372131	-0.04470939
79	0x3ebd12f7	0.36928532
80	0x3fc73688	1.5563517
81	0x3f148ef4	0.5803063
82	0xbf250910	-0.64466953
83	0xbd408ca4	-0.047009125
84	0xbf0188a0	-0.505991
85	0xbc922135	-0.0178381
86	0xbfbe991a	-1.4890473
87	0xbe8f8a9c	-0.28035438
88	0x3f4b8ef0	0.7951498
89	0xbfd5ca9e	-1.6702459
90	0xbf97cbbd	-1.1859051
91	0xbf57a901	-0.84242254
92	0xbf047e8d	-0.517556
93	0xbf92df1b	-1.1474336
94	0xbe8b9979	-0.27265528
95	0x3e60387e	0.2189655
96	0x3f7d5ccd	0.9896973
97	0x3ea5f65d	0.32414523
98	0xc031d665	-2.7787106
99	0x3e8393fc	0.2569884
100	0x3e125850	0.14291501
101	0x3f9573c6	1.1675956
102	0x3f81cccc	1.0140624
103	0xbc80e078	-0.015732035
104	0xc0315600	-2.770874
105	0xbec55d84	-0.3854791
106	0x3fc8c7cd	1.5685974
107	0xbf6ec443	-0.9326822
108	0x3d3d137f	0.04616117
109	0xbd92a974	-0.07161227
110	0xbefc8199	-0.49317625
111	0xbe89d8e3	-0.26923284
112	0xbd972509	-0.07380111
113	0xbf35dd5b	-0.71040887
114	0x3e875d3f	0.2643833
115	0xbee39fa3	-0.4445773
116	0x3f9c7fe1	1.2226526
117	0x3f20778b	0.6268241
118	0x4005984c	2.0874205
119	0x3ee71fe6	0.45141524
120	0x3f92c61f	1.1466712
121	0x3f302232	0.6880218
122	0xbf43566f	-0.7630376
123	0xbf9be0ce	-1.217798
124	0x3f865624	1.0495038
125	0xbe68aac8	-0.22721398
126	0x3f86c3f1	1.0528547
127	0x3eed1d62	0.4631148
128	0x3f8a32ff	1.0796813
129	0x3d111ec5	0.035429735
130	0xbf8fd964	-1.1238217
131	0xbf55eef1	-0.8356772
132	0xbfde7312	-1.7378867
133	0x3fca1311	1.5787069
134	0x3f7e9fb8	0.9946246
135	0xbeea7ec7	-0.45799848
136	0x3de06b75	0.10957996
137	0xc011f896	-2.2807975
138	0x3eca8442	0.3955403
139	0xbe986ffa	-0.2977293
140	0x3f709cfd	0.93989545
141	0x3dd47d5b	0.10375472
142	0x3de2e1f7	0.110782556
143	0x3ed6186b	0.41815504
144	0x3ee092db	0.43862042
145	0x3fcf6d93	1.6205314
146	0x3fba4963	1.4553646
147	0x3ec2e3e3	0.3806449
148	0x3fb9b1bf	1.4507369
149	0xbf975b67	-1.1824769
150	0x3f91a7f5	1.1379381
151	0x4005c3d4	2.0900774
152	0x3e7d643f	0.24745272
153	0xbe84fe05	-0.25975052
154	0x3ecad1ea	0.39613277
155	0xbefefcc3	-0.49802217
156	0x3fc39f6f	1.528303
157	0x3f5ad748	0.85484743
158	0x3fd689be	1.6760786
159	0xbef18852	-0.47174317
160	0x3f75785a	0.95886767
161	0xbe3373cc	-0.17524642
162	0xbfc300a9	-1.5234576
163	0x3f0bbbbe	0.54583347
164	0xbfab2e26	-1.3373458
165	0x3eb1d4df	0.3473272
166	0xbf97308d	-1.1811692
167	0xbe5ff3c7	-0.21870337
168	0x3f8ce3ce	1.100702
169	0xbf03585e	-0.5130671
170	0x3f93c741	1.1545182
171	0x3f209bb2	0.6273757
172	0x3f405414	0.75128293
173	0x3e1315e8	0.14363825
174	0xbf9446a3	-1.1584057
175	0xbd7d8abb	-0.06189988
176	0x3f8529b0	1.0403347
177	0x3fd63dbb	1.6737589
178	0xbf216221	-0.6304036
179	0xbfc82ea4	-1.5639234
180	0xbfc50f09	-1.5395213
181	0xbd0e01cb	-0.03466968
182	0x4005366a	2.0814462
183	0x3f6a1131	0.9143248
184	0x3fd7b0a6	1.6850784
185	0xba2716d7	-0.0006373948
186	0x3f27597e	0.6537093
187	0xbe3cc082	-0.18432811
188	0x3f8e4c70	1.1117077
189	0x3e0aeec6	0.13567647
190	0x400e6548	2.2249317
191	0xbf9f09f4	-1.2424912
192	0x400eccfb	2.231261
193	0xbf5acaf8	-0.85465956
194	0x3f6b5dfe	0.91940296
195	0x3fb51e18	1.4149809
196	0xbf9fbf9a	-1.2480347
197	0xbf68edc9	-0.9098783
198	0xbecb2d0f	-0.39682814
199	0x3f8c2b54	1.0950723
200	0xbf00f843	-0.5037882
201	0xbe38e0f7	-0.18054567
202	0xbf4bd10a	-0.79615843
203	0xbf2adf8e	-0.6674737
204	0x3fc4c117	1.5371426
205	0xbf86f47e	-1.0543363
206	0x3f21de50	0.63229847
207	0x3f589592	0.84603226
208	0x3fb0e082	1.3818514
209	0x401834f5	2.3782322
210	0xbfc884f8	-1.5665579
211	0xbf117c8f	-0.56830686
212	0xbbe32487	-0.0069318446
213	0x3d9ff234	0.078098685
214	0x3ef95780	0.4869957
215	0xbee13361	-0.43984511
216	0x3f510055	0.8164113
217	0x3fba4672	1.4552748
218	0x3eb9ecad	0.36313382
219	0x3fc9a35d	1.575298
220	0x3f00c79d	0.50304586
221	0xbce3b4de	-0.027796205
222	0x3eb08ac6	0.34480876
223	0x3f75fade	0.9608592
224	0xbf186f55	-0.5954488
225	0xbf4b6a6c	-0.7945926
226	0xbdf96404	-0.121772796
227	0x3d68c2fd	0.05682658
228	0x3f3fc21c	0.7490556
229	0x3db6d204	0.08926776
230	0x3f369813	0.71325797
231	0x3e05e85d	0.13076921
232	0x3f7103c1	0.94146353
233	0x3f810ae7	1.0081452
234	0xbc8eb08e	-0.017418172
235	0xc0087bd1	-2.1325572
236	0x3f9ef6d0	1.2419071
237	0xbf78cbc5	-0.9718593
238	0x3ef051f4	0.46937525
239	0x3d2c1cdf	0.04201972
240	0xbfb69d46	-1.4266746
241	0x3e701603	0.23445897
242	0xbccf6483	-0.025316482
243	0x3f140af4	0.57829213
244	0x3f7aee2b	0.98019665
245	0x3f1ffec5	0.6249812
246	0xbfdf48a4	-1.7444043
247	0x3ebcaed1	0.36852124
248	0x3e71b7ef	0.23605321
249	0x3f8ce43b	1.100715
250	0x3f703ddd	0.93844396
251	0xbf9dbc83	-1.2323154
252	0xbba94f70	-0.0051669404
253	0x3cefbb1e	0.02926403
254	0xbf0d6535	-0.55232555
255	0xbea84cbe	-0.3287105

weight_ih_l0 f4 [192, 17]
0	0x3d8e443a	0.06946607
1	0x3e0359e1	0.12827255
2	0x3e6a8354	0.2290166
3	0x3d863c48	0.065544665
4	0xbcd09252	-0.025460396
5	0x3cf22b67	0.029561711
6	0xbd3e0d69	-0.046399508
7	0xbe07c4e6	-0.13258705
8	0x3a8310fc	0.0009999569
9	0xbd6e72fe	-0.058215134
10	0xbc971ed3	-0.018447315
11	0xbdcbf49c	-0.09958765
12	0xbd999d7b	-0.0750074
13	0xbd0552ec	-0.032549784
14	0xbe19e5ee	-0.15029117
15	0xbcb2c66b	-0.021823129
16	0x3dc314e9	0.09525473
17	0x3d1daa0c	0.038492247
18	0x3d1fa13b	0.03897212
19	0xbe2d9a9a	-0.16953507
20	0x3d4d62e8	0.050143152
21	0x3e0e4606	0.138939
22	0x3df3ec4d	0.11910305
23	0x3e3eb4b0	0.18623614
24	0x3e3497ba	0.17636004
25	0x3e43a302	0.19105151
26	0x3d92d4db	0.07169505
27	0x3e0e39d9	0.13889255
28	0x3deb86f8	0.115003526
29	0xbeae42ca	-0.3403533
30	0x3ca2b95a	0.019863773
31	0x3e0ab009	0.13543715
32	0xbd82fa55	-0.06395403
33	0x3ccc4a95	0.024937907
34	0x3c663d3a	0.0140526835
35	0x3e424d31	0.18974759
36	0xbe179b46	-0.14805326
37	0x3e23b657	0.15987526
38	0xbdc11f25	-0.094297685
39	0x3d92ba94	0.07164493
40	0x3e2d5e95	0.16930611
41	0xbe2ff9ba	-0.17185107
42	0x3e329a07	0.1744157
43	0xbdc39e9a	-0.09551735
44	0xbe1ce5d6	-0.1532205
45	0x3e0531fc	0.13007349
46	0xbe9356f4	-0.28777277
47	0xbe24064a	-0.16018024
48	0x3d97c4b3	0.07410564
49	0x3d1d8f73	0.038466882
50	0x3e473496	0.19453654
51	0x3e0181b2	0.12647131
52	0xbd908950	-0.0705744
53	0xbc7e074d	-0.01550467
54	0x3e14aea1	0.1451974
55	0xbe01fd16	-0.12694201
56	0x3d2aad51	0.041669194
57	0x3db2530e	0.08707248
58	0xbd02f190	-0.031968653
59	0xbe174c65	-0.14775236
60	0xbe3fb588	-0.18721592
61	0xbe9a1542	-0.30094343
62	0x3dc7c789	0.09754855
63	0x3cb1e967	0.02171774
64	0xbe4b28e5	-0.19839819
65	0xbe303909	-0.17209257
66	0x3cb73b40	0.02236712
67	0xbd2d711b	-0.042344194
68	0xbe3c7e17	-0.18407474
69	0x3d0e1e4b	0.03469686
70	0x3d1bc29d	0.038027395
71	0x3cc6c743	0.024264937
72	0x3ce89db8	0.028395519
73	0xbd5af560	-0.053456664
74	0x3de10fe7	0.10989361
75	0x3de93f0b	0.113889776
76	0x3d88e00d	0.06683359
77	0x3db92456	0.09040134
78	0x3d60ca8a	0.054880656
79	0xbe2db40f	-0.16963218
80	0xbe25b256	-0.16181311
81	0x3d32ded3	0.043669533
82	0x3d5efd31	0.05444068
83	0xbd9ddd34	-0.07708207
84	0xbd58bd80	-0.052915096
85	0x3ded871d	0.115980364
86	0xbd73b704	-0.05950071
87	0x3a6125c7	0.0008588698
88	0xbe1e59dc	-0.15463966
89	0xbe64b4e8	-0.22334635
90	0xbe371e60	-0.17882681
91	0xbdbd589e	-0.09245418
92	0xbc4f1991	-0.012640373
93	0xbe7e6178	-0.24841869
94	0xbda6d9e1	-0.08147026
95	0xbcdce0c5	-0.026962647
96	0x3ccf7be5	0.025327632
97	0xbe07a805	-0.13247688
98	0xbdc92233	-0.09820976
99	0xbe21f6a8	-0.15816748
100	0xbe2384b0	-0.15968585
101	0x3d5c78c6	0.053826116
102	0x3d809e3c	0.06280181
103	0xbe0d1df8	-0.13780963
104	0x3e1ce5f5	0.15322097
105	0x3d17800a	0.036987342
106	0x3da17839	0.07884259
107	0xbc5e2d6b	-0.013560633
108	0x3bdbb547	0.0067049596
109	0xbd00f865	-0.031486887
110	0x3dea2a3e	0.11433838
111	0x3e24d6bd	0.16097541
112	0xbdef531f	-0.11685776
113	0xbca68707	-0.020328058
114	0x3bcd5912	0.0062667215
115	0xbca6e4bd	-0.020372743
116	0x3d063e94	0.032774523
117	0xbe1d9626	-0.15389308
118	0x3e1f6bc5	0.15568455
119	0x3daa4792	0.08314432
120	0xbe017fd9	-0.12646426
121	0xbdc500b0	-0.09619272
122	0x3dfdd062	0.123932615
123	0x3e0b9bd5	0.13633664
124	0x3e8b6414	0.2722479
125	0xbec02965	-0.37531582
126	0x3d7e4b39	0.062083457
127	0x3d4638c9	0.048394
128	0xbe27901a	-0.16363564
129	0xbd0c954f	-0.03432208
130	0x3e16ccc3	0.14726548
131	0xbe4f0042	-0.20214942
132	0xbe04643c	-0.12928861
133	0x3d2a69da	0.041604854
134	0xbccbbbcc	-0.024869822
135	0xbcac58c2	-0.021038417
136	0x3d9f3b2e	0.077749595
137	0xbd3bb0ac	-0.045822784
138	0xbe60d8c2	-0.21957687
139	0x3e08b590	0.1335051
140	0x3e2c3cc8	0.16820061
141	0xbd234c7c	-0.039867863
142	0x3df26e18	0.11837405
143	0xbd87a273	-0.066227816
144	0xbd424347	-0.047427442
145	0xbe5ff507	-0.21870814
146	0xbe01c755	-0.12673695
147	0x3e044aa8	0.12919104
148	0xbe8c6c5c	-0.27426422
149	0x3e903506	0.28165454
150	0x3de99ee2	0.114072576
151	0x3d8aa111	0.06769002
152	0xbe87fecd	-0.26561585
153	0x3e5b95dc	0.21443886
154	0x3e41e60c	0.18935412
155	0x3c0c82a2	0.008576067
156	0x3d9f8ac5	0.0779014
157	0x3d0ea0c2	0.03482128
158	0x3e3e37a3	0.18575911
159	0xbd92c463	-0.07166364
160	0x3d414ac4	0.047190443
161	0x3e0d6081	0.13806345
162	0xbd0ce8b0	-0.034401596
163	0x3df69b62	0.12041356
164	0x3d59bc72	0.05315823
165	0x3d90e35d	0.07074616
166	0xbd307aba	-0.04308579
167	0xbcb1a1f7	-0.021683676
168	0xbe0cf704	-0.13766104
169	0x3cf438d6	0.029812258
170	0x3e645833	0.2229927
171	0x3e02cefa	0.12774268
172	0xbe20ace0	-0.15690947
173	0xbdac1173	-0.08401766
174	0x3d5da8db	0.05411611
175	0xbd0115e0	-0.031515002
176	0x3db6954c	0.08915195
177	0xbd72f472	-0.059315152
178	0xbe066a0d	-0.13126393
179	0xbbb4ce81	-0.0055177812
180	0xbcb3fafe	-0.021970268
181	0xbdbed940	-0.09318781
182	0xbdb8fec1	-0.090329655
183	0x3e33bc2b	0.17552249
184	0xbc05f6b2	-0.0081764925
185	0xbdd94374	-0.10608569
186	0xbdf7fb43	-0.12108471
187	0x3e42c58a	0.19020668
188	0x3de84f06	0.113431975
189	0xbd90edc6	-0.07076602
190	0xbdb0cead	-0.0863317
191	0x3ebb8a34	0.36628878
192	0xb9c2d97f	-0.0003716461
193	0x3dcef9c2	0.10106231
194	0x3e2f3913	0.17111616
195	0x3db79004	0.08963016
196	0x3e408c90	0.1880362
197	0xbd83b85d	-0.06431649
198	0xbe1552b9	-0.14582337
199	0xbdb5ac75	-0.08870784
200	0x3e8770c1	0.26453212
201	0xbe3cf6b0	-0.18453479
202	0xbe2a0023	-0.16601615
203	0xbe13ba72	-0.14426592
204	0xbe5c6f85	-0.21526916
205	0x3cfa270a	0.030536193
206	0x3dd62bd0	0.10457575
207	0x3df75dbf	0.120784275
208	0xbd89403c	-0.06701705
209	0xbb159c81	-0.002282888
210	0xbd152f2a	-0.036421932
211	0xbc0fc43f	-0.008774816
212	0xbca95f23	-0.020675248
213	0x3c77bfb3	0.015121388
214	0x3d8c7d3d	0.06859825
215	0x3ca73ea8	0.020415619
216	0xbdd9a201	-0.10626603
217	0xbd1bab96	-0.038005434
218	0xbdd97599	-0.10618133
219	0xbc1e7512	-0.009671466
220	0xbd7384d0	-0.05945283
221	0x3ccb3f48	0.024810448
222	0xbea2b336	-0.31777352
223	0xbd92c476	-0.07166378
224	0x3e3093ec	0.17243928
225	0x3e708679	0.23488797
226	0x3dc22a3a	0.0948071
227	0x3d5f28dc	0.054482326
228	0x3d1b74fa	0.037953354
229	0x3d0495fe	0.032369606
230	0xbe01fb42	-0.12693503
231	0x3da0a4fa	0.07843967
232	0xbe38f3fa	-0.1806182
233	0x3ab010a3	0.0013432693
234	0xbde4a6ca	-0.11164625
235	0xbdc63fea	-0.096801594
236	0xbe88a2f6	-0.2668683
237	0x3d085901	0.033288006
238	0x3e1fd973	0.15610294
239	0x3e3a3afb	0.18186562
240	0xbe8522b0	-0.26003027
241	0xbe0f460d	-0.13991566
242	0x3b892e1c	0.004186405
243	0x3e1af886	0.15133867
244	0xbdf778fa	-0.12083621
245	0xbd935f35	-0.07195894
246	0xbe42a8e7	-0.19009744
247	0xbdd4b593	-0.10386195
248	0x3db6bfb6	0.08923285
249	0xbd79c2eb	-0.060976904
250	0xbe39a022	-0.18127492
251	0x3e2ba3e7	0.16761743
252	0x3dbe3f09	0.09289367
253	0xbda985b4	-0.08277455
254	0xbdbdc97f	-0.09266948
255	0x3e292830	0.16519237

weight_hh_l0 f4 [192, 64]
0	0x3e0c5687	0.13704883
1	0xbd1b68e9	-0.037941847
2	0xbe81f8ea	-0.2538522
3	0x3d4dd5b8	0.050252646
4	0x3e2a57e6	0.16635093
5	0xbdd14cb9	-0.10219712
6	0xbe436ec7	-0.19085227
7	0xbe267997	-0.1625732
8	0x3e33ccc0	0.17558575
9	0xbd8513da	-0.06497927
10	0xbb5bd69d	-0.0033544668
11	0x3c6cb69c	0.014447834
12	0x3ea9a6e7	0.3313515
13	0x3e0472ff	0.12934493
14	0xbcd207dd	-0.025638515
15	0x3d849582	0.06473829
16	0x3e1f217f	0.15540121
17	0xbe189d55	-0.14903767
18	0xbca33b76	-0.019925814
19	0x3da7cf94	0.08193889
20	0xbe1ce0c6	-0.1532012
21	0x3de0fe35	0.10985986
22	0x3da4d00c	0.08047494
23	0xbe1b9182	-0.15192226
24	0x3dfa0c31	0.122093566
25	0xbc9ee1ed	-0.01939484
26	0x3d95ee74	0.07320872
27	0xbcc5ec44	-0.024160512
28	0xbe9eb056	-0.3099391
29	0xbdeed197	-0.1166107
30	0x3dd1f279	0.10251326
31	0xbd47ae24	-0.048750058
32	0x3db70ec8	0.08938366
33	0x3d5e7062	0.054306395
34	0xbd9add4f	-0.075617425
35	0x3dc99ee1	0.09844757
36	0xbddf1fc1	-0.108947285
37	0x3d8e155c	0.06937668
38	0x3e1668d6	0.14688429
39	0xbe000ecc	-0.12505645
40	0x3d224777	0.039618935
41	0x3ca9a4e6	0.020708513
42	0xbec98984	-0.3936273
43	0x3d9080b4	0.07055798
44	0xbda5cadb	-0.08095332
45	0xbda761cb	-0.081729494
46	0x3e10ef0a	0.14153686
47	0xbe199bda	-0.15000859
48	0xbe55d729	-0.20882858
49	0xbda27788	-0.07932955
50	0xbddc5f65	-0.107603826
51	0xbdc9ea40	-0.09859133
52	0xbdc766e3	-0.09736421
53	0xbd9a6a20	-0.07539773
54	0x3d9f16a8	0.07767993
55	0x3d726b0d	0.059184123
56	0x3cde041a	0.027101565
57	0xbd5f31c9	-0.05449084
58	0x3d94594d	0.07243595
59	0x3e05bffe	0.1306152
60	0xbe1e0cf5	-0.1543463
61	0x3afea81e	0.0019428765
62	0xbb2105c6	-0.0024570092
63	0xbc592980	-0.013254523
64	0x3d89cf2a	0.067289665
65	0xbce43cba	-0.027860988
66	0x3dc99b3d	0.098440625
67	0xbcf44a22	-0.029820506
68	0x3d888482	0.06665899
69	0x3dd76a43	0.10518315
70	0x3dceeaf6	0.10103409
71	0x3e0c4d00	0.13701248
72	0xbd60351b	-0.054738145
73	0x3d911289	0.070836134
74	0x3dedafab	0.11605772
75	0x3d7a1770	0.061057508
76	0xbe4588a7	-0.1929041
77	0xbe0cc255	-0.13746007
78	0x3db6abc5	0.08919481
79	0x3e0b24b8	0.13588226
80	0x3da23272	0.07919778
81	0xbda1ab9f	-0.07894062
82	0x3e7471a8	0.23871481
83	0x3df7b5d3	0.12095227
84	0x3d78745b	0.06065784
85	0x3dd874d8	0.10569161
86	0x3e015af7	0.12632357
87	0x3ba30c3f	0.004975825
88	0x3d5c8172	0.053834386
89	0xbc95ff08	-0.018310085
90	0x3e48f9bd	0.19626518
91	0xbbd5195d	-0.0065032677
92	0x3d9b2bd1	0.07576717
93	0xbe0a27d4	-0.13491756
94	0xbd03ebb3	-0.032207202
95	0x3d694423	0.056949746
96	0x3cf4ffc2	0.029907111
97	0x3e1abe20	0.1511159
98	0xbe099bb0	-0.13438296
99	0xbd6763ff	-0.056491848
100	0x3dbcc446	0.09217124
101	0xbd305084	-0.043045536
102	0xbd0b42fc	-0.03399943
103	0x3daace2b	0.08340105
104	0x3d92cf91	0.071684964
105	0x3d8c340f	0.06845867
106	0x3e30fe67	0.17284547
107	0x3c81f841	0.015865447
108	0x3d36e405	0.04465105
109	0x3e3e9ba0	0.18614054
110	0xbdfce428	-0.12348205
111	0x3d3b1bfa	0.045680977
112	0x3d8fe190	0.070254445
113	0x3d58c33f	0.052920576
114	0x3d553397	0.052051153
115	0xbd504cd3	-0.050854515
116	0xbe2c8b74	-0.16850072
117	0xbca25d58	-0.0198199
118	0x3d986b1b	0.07442304
119	0x3db90c58	0.090355575
120	0x3e27dae6	0.16392097
121	0x3d1caa8f	0.038248595
122	0x3e61ded5	0.2205766
123	0xbdc84132	-0.0977806
124	0x3d311c8f	0.043240126
125	0x3c73b8d7	0.014875612
126	0xbe5f6eed	-0.21819659
127	0x3dd21c42	0.10259296
128	0x3df1c4f2	0.118051425
129	0x3ca136ec	0.01967951
130	0xbdba5db1	-0.090999015
131	0x3de3ef07	0.11129575
132	0xbd8129ec	-0.06306824
133	0xbcf72132	-0.030167196
134	0xbd823f64	-0.06359747
135	0xbe32014c	-0.17383307
136	0xbd8fa418	-0.0701372
137	0xbe2e3603	-0.17012791
138	0xbaa6bd03	-0.0012721125
139	0xbd429522	-0.047505505
140	0x3e8e076b	0.27740034
141	0x3d3a1324	0.04542841
142	0xbc90b082	-0.01766229
143	0x3e06b88a	0.13156334
144	0x3e0a09cb	0.13480298
145	0xbd9ae71c	-0.07563612
146	0x3da93d06	0.082635924
147	0xbe012585	-0.12611969
148	0xbd8cc4a8	-0.06873447
149	0x3d4b750e	0.04967218
150	0x3e30808b	0.17236535
151	0xbdab410a	-0.083620146
152	0x3bea0b11	0.0071424325
153	0x3d0ef7a1	0.034904126
154	0x3d10755b	0.03526817
155	0xbd35aeca	-0.044356145
156	0xbd625cc7	-0.05526426
157	0xbd38089b	-0.04493008
158	0xbc218997	-0.009859464
159	0x3e0ee569	0.139547
160	0xbdf3d492	-0.11905779
161	0xbd72cddb	-0.05927835
162	0xbd7b159e	-0.061299913
163	0xbdd6ef8b	-0.10494908
164	0xbdaae0fb	-0.08343693
165	0xbc973a03	-0.01846028
166	0xbd2c9278	-0.04213187
167	0xbde74c45	-0.11293844
168	0x3dcedf5c	0.10101196
169	0xbd95f62d	-0.07322345
170	0xbe295595	-0.16536553
171	0x3db5d4de	0.08878492
172	0xbe469104	-0.19391257
173	0xbd3bbcee	-0.045834474
174	0x3e49cff1	0.1970823
175	0xbe1131e3	-0.14179187
176	0x3c61783a	0.013761574
177	0xbd431f7c	-0.047637448
178	0xbd9e4ece	-0.077298746
179	0xb9ac6371	-0.00032880486
180	0xbe00d63d	-0.12581725
181	0xbe6460c7	-0.22302543
182	0x3e15f87a	0.14645568
183	0x3d4aa6a9	0.049475346
184	0x3d9a8f3b	0.0754685
185	0x3db2e7bf	0.08735608
186	0xbe27be28	-0.16381133
187	0x3d453752	0.04814846
188	0xbd9172d8	-0.07101983
189	0xbdc4170f	-0.095747106
190	0x3d507abf	0.05089831
191	0x3e1a5aa1	0.15073635
192	0x3dae989a	0.085252
193	0x3c02c821	0.007982285
194	0x3da87e44	0.08227208
195	0x3d652055	0.055939037
196	0x3e42795b	0.18991606
197	0x3d6eff02	0.058348663
198	0xbdc3e996	-0.09566037
199	0x3d9d9efc	0.076963395
200	0x3ddd7897	0.10814016
201	0x3d4e4578	0.05035922
202	0x3e00467f	0.12526892
203	0x3df3404a	0.118774965
204	0xbdef8781	-0.11695767
205	0x3ddcb4cd	0.107766725
206	0x3ddacd80	0.10683727
207	0x3c01d5fe	0.007924555
208	0x3d999994	0.07499996
209	0xbda0b7db	-0.07847568
210	0xbd97dbec	-0.07414994
211	0xbe1748c1	-0.14773847
212	0x3e8e9f25	0.27855793
213	0x3d4bf728	0.049796253
214	0xbde9637d	-0.11395929
215	0x3dcb8c2f	0.09938847
216	0xbe0f2343	-0.13978295
217	0xbbf37f8e	-0.007430977
218	0xbd86eb17	-0.065878086
219	0xbda5ef6c	-0.08102307
220	0x3d18baa2	0.037287362
221	0xbd99a0cc	-0.07501373
222	0xbe13f201	-0.14447786
223	0xbdff8f8b	-0.124785505
224	0xbd0be490	-0.03415352
225	0xbc94980f	-0.018138913
226	0x3da9d0c6	0.082917735
227	0x3d10a402	0.03531266
228	0x3c2f5ff3	0.010704028
229	0x3e1ea0c5	0.15491016
230	0xbd8e5c9a	-0.06951256
231	0xbce36111	-0.027756246
232	0x3b13176d	0.0022444383
233	0xbc734267	-0.0148473745
234	0x3de9df5c	0.114195555
235	0x3ca3ab72	0.019979212
236	0x3da4b5fd	0.08042524
237	0x3e0d91c1	0.13825132
238	0xbdb62b0b	-0.088949285
239	0x3c483405	0.012219434
240	0x3d178a7a	0.036997296
241	0x3c809ad3	0.015698826
242	0x3e21b7c4	0.15792757
243	0xbd6ba8bf	-0.057533976
244	0x3d93de30	0.07220113
245	0xbd97f557	-0.07419842
246	0xbd559832	-0.052147098
247	0x3d0e1eda	0.03469739
248	0xbd673a6f	-0.05645221
249	0x3ddfdb71	0.10930527
250	0x3d55412f	0.052064117
251	0x3cca8d8a	0.024725694
252	0xbd25d8d4	-0.040489987
253	0x3d7a5a20	0.061121106
254	0x3dbd32ae	0.09238182
255	0xbcb23a28	-0.021756247

bias_ih_l0 f4 [192]
0	0x3dd3bec7	0.10339122
1	0x3e7565bd	0.23964591
2	0x3dfb01a1	0.1225617
3	0x3d0c3e0e	0.034238867
4	0x3d19f86d	0.037590433
5	0x3e0f166a	0.13973394
6	0xbce67fad	-0.028137052
7	0xbca07eef	-0.019591777
8	0x3e1bf6e1	0.15230896
9	0xbd0d8db5	-0.03455897
10	0x3ed0b25f	0.40761086
11	0xbd98e9ee	-0.074664935
12	0xbd5df743	-0.054190885
13	0xba9b7c88	-0.0011862675
14	0x3e609b57	0.21934257
15	0xbd6f6027	-0.058441307
16	0x3d8708f3	0.06593504
17	0x3dd5ab74	0.10433093
18	0xbc97bf2b	-0.018523773
19	0x3e119beb	0.14219634
20	0x3e05515d	0.13019319
21	0x3e249c4d	0.16075249
22	0xbcd13a0b	-0.025540372
23	0xbd11149c	-0.035420045
24	0x3d11adb3	0.035566043
25	0x3ef5eefd	0.48033896
26	0x3d78e3a7	0.06076398
27	0xbce83930	-0.028347582
28	0x3d9bf040	0.076141834
29	0xbd32cdaa	-0.043653168
30	0x3e190497	0.14943157
31	0x3e817b54	0.25289404
32	0x3e195f67	0.149778
33	0xbdec470c	-0.115369886
34	0xbd397971	-0.04528183
35	0x3df1c6b8	0.11805481
36	0xbd9ac7ec	-0.07557663
37	0x3ec503d3	0.3847948
38	0x3ed0f55e	0.408122
39	0x3e127f8c	0.14306468
40	0x3d3fe915	0.046853144
41	0x3e0abfeb	0.13549773
42	0x3bdf15fe	0.0068080416
43	0x3d8bcbbd	0.06825969
44	0x3e38d8a9	0.180514
45	0x3e3b1a1d	0.1827168
46	0xbc917148	-0.017754212
47	0x3cd351c5	0.025795827
48	0x3d46d6b4	0.0485446
49	0x3bc7327b	0.006079016
50	0x3e0bb15b	0.13641874
51	0x3d8325f4	0.06403723
52	0x3e5459a3	0.20737319
53	0x3ddaa69b	0.10676309
54	0x3d9c3d09	0.07628829
55	0xbc4e192e	-0.0125792455
56	0xbd79d3fc	-0.06099318
57	0xbdca7155	-0.098848976
58	0x3dbf5830	0.09342992
59	0x3dbf5317	0.0934202
60	0xbc9503f5	-0.018190363
61	0xbd7799a9	-0.060449276
62	0x3ca845f0	0.020541161
63	0xbd2522ea	-0.0403165
64	0xbda13fa7	-0.07873469
65	0xbe2fb91e	-0.1716046
66	0x3dd156c3	0.102216266
67	0xbe50234d	-0.20325966
68	0xbd41351b	-0.047169786
69	0xbe9b4cd9	-0.30332068
70	0xbed2b6f1	-0.41155198
71	0x3cc6f41a	0.024286319
72	0xbe1ea8b0	-0.15494037
73	0xbdfccf21	-0.12344194
74	0xbe5f974e	-0.21835062
75	0x3bdb4712	0.006691822
76	0xbc104a79	-0.008806818
77	0xbe13faa1	-0.14451076
78	0xbe936861	-0.28790572
79	0xbe124b43	-0.14286523
80	0xbba98f29	-0.0051745367
81	0xbd26448f	-0.040592726
82	0xbe1afc7e	-0.1513538
83	0xbdb500fd	-0.08838079
84	0xbd9f8ae9	-0.07790167
85	0xbda3d7cc	-0.08000144
86	0xbe6613b9	-0.22468461
87	0x3da2cb59	0.07948942
88	0xbe727996	-0.23679194
89	0xbe17c6df	-0.14821957
90	0x3ddff2d5	0.109349884
91	0xbe7047f6	-0.23464951
92	0x3db83aa2	0.08995558
93	0xbd1112f3	-0.035418462
94	0xbc9ebc12	-0.019376788
95	0xbdb101aa	-0.086428955
96	0xbd23aa4c	-0.03995733
97	0xbdb97cbb	-0.090569936
98	0xbd53bffa	-0.051696755
99	0xbe04ae46	-0.12957105
100	0xbe37dc18	-0.17955053
101	0xbcf7625f	-0.030198274
102	0xbe86755f	-0.26261422
103	0xbc99719d	-0.018730933
104	0x3bac8a2f	0.005265496
105	0xbe18d826	-0.14926204
106	0xbd7ebc3f	-0.062191244
107	0xbe5d410a	-0.21606842
108	0xbd483e73	-0.04888768
109	0xbe4a3b78	-0.19749248
110	0xbe0f5939	-0.1399888
111	0x3d4ea8a2	0.05045379
112	0xbe05f63c	-0.13082212
113	0xbe537208	-0.20648968
114	0xbcde1e1d	-0.027113969
115	0xbe0f1a9a	-0.13974991
116	0xbe8e2cd9	-0.2776859
117	0xbe108934	-0.14114839
118	0xbe37e167	-0.17957078
119	0x3dcd9c4f	0.10039579
120	0xbe184afc	-0.14872354
121	0xbb7fdf26	-0.003904292
122	0xbe77f906	-0.24216089
123	0xbe1c3aa4	-0.15256745
124	0xbe10042c	-0.14064091
125	0x3d65a8bd	0.056069124
126	0xbcf6aeda	-0.030112673
127	0xbe2811e8	-0.1641308
128	0xbd8e675a	-0.069533065
129	0x3e454522	0.19264653
130	0xbd2fabda	-0.0428885
131	0x3d583781	0.052787308
132	0xbe0cda9b	-0.13755266
133	0x3de43329	0.111425705
134	0xbe54aaf7	-0.20768343
135	0x3da72922	0.08162142
136	0xbdc01625	-0.09379224
137	0x3e10ccc5	0.14140613
138	0x3e95f4e8	0.2928841
139	0x3e2bebba	0.16789141
140	0xbce819f1	-0.028332682
141	0xbe37c1af	-0.17944978
142	0x3ead53f3	0.3385311
143	0x3d8c86dc	0.0686166
144	0x3dac0ac6	0.08400492
145	0x3d7eb2a8	0.0621821
146	0xbd68f128	-0.05687061
147	0x3d906151	0.07049812
148	0xbd0ef38e	-0.03490024
149	0x3d91d104	0.07119945
150	0x3c8e37ab	0.017360529
151	0xbe0860b1	-0.13318135
152	0x3dc62965	0.09675864
153	0x3e983d22	0.2973414
154	0xbdb88c60	-0.090111494
155	0xbc1df8dc	-0.009641852
156	0xbd94c133	-0.07263412
157	0xbde29519	-0.11063594
158	0xbdaa8127	-0.08325415
159	0x3e61c80b	0.22048967
160	0xbd878ef2	-0.066190615
161	0xbcc6e987	-0.024281276
162	0xbe03586d	-0.128267
163	0x3e19bcf0	0.1501348
164	0xbdc7b948	-0.097521365
165	0x3e63f870	0.2226274
166	0x3e77989c	0.2417931
167	0xbe02017d	-0.1269588
168	0xbda91364	-0.082556516
169	0xbc74cb74	-0.014941085
170	0x3d695fcf	0.056976136
171	0x3e0b8322	0.13624242
172	0xbdca3a70	-0.09874427
173	0x3e83ddbb	0.25755104
174	0xbc5a5d91	-0.013327972
175	0xbdb52b32	-0.088461295
176	0xbdce55f2	-0.100749865
177	0xbe330f03	-0.17486195
178	0xbd9087a3	-0.07057121
179	0x3d772250	0.060335457
180	0xbeeb29eb	-0.45930418
181	0x3c9f700a	0.019462604
182	0xbd551baa	-0.052028336
183	0x3b8245f3	0.0039756238
184	0x3e84536f	0.25844905
185	0xbcc8feb6	-0.024535518
186	0xbdccdd1c	-0.10003111
187	0xbcf6916e	-0.030098643
188	0x3d16b977	0.036797967
189	0x3de01f24	0.109434396
190	0x3e0145b1	0.12624241
191	0x3d81be06	0.06335072

bias_hh_l0 f4 [192]
0	0x3c4618fd	0.012090919
1	0x3d32b9e7	0.04363432
2	0x3da294f8	0.0793857
3	0x3e4632a9	0.19355263
4	0x3c7e981a	0.0155391935
5	0x3dd1aacf	0.10237657
6	0xbc363a3d	-0.0111222835
7	0xbc4a0d5b	-0.012332286
8	0x3e1d017b	0.15332596
9	0xbddf811f	-0.109133
10	0x3eb58523	0.35453138
11	0xbc8d3a15	-0.01723961
12	0x3e153ba3	0.14573531
13	0xbc955826	-0.018230509
14	0x3e3da2c2	0.18519118
15	0x3df264a8	0.11835605
16	0xbc8db244	-0.017296918
17	0x3da1e0c4	0.07904199
18	0xbd27dbb1	-0.040981
19	0x3e64759d	0.22310491
20	0x3c31f04d	0.010860515
21	0x3d82254d	0.06354771
22	0xbd0265f5	-0.031835515
23	0x3e24b4cf	0.16084598
24	0x3e3e8ed2	0.18609169
25	0x3ef4ce7f	0.47813794
26	0xbe00429d	-0.12525411
27	0xbe0e746a	-0.13911596
28	0xbd1971cf	-0.037462052
29	0xbb94a615	-0.0045364
30	0x3e688cd8	0.22709978
31	0x3e44bcbc	0.19212621
32	0xbcd02a2e	-0.025410738
33	0x3db13e0c	0.086544126
34	0x3d05ecdb	0.032696586
35	0xbd8ee0ac	-0.069764465
36	0xbd09b4eb	-0.033619802
37	0x3eb9e558	0.36307788
38	0x3e8a29e9	0.269851
39	0x3e4121e1	0.1886058
40	0x3cbc3b79	0.022977578
41	0x3e289ba7	0.16465627
42	0x3da02e63	0.078213476
43	0x3d8d2e99	0.068936534
44	0x3e45776b	0.19283836
45	0x3e99e050	0.3005395
46	0x3e120f09	0.14263548
47	0x3e38ca6e	0.18045971
48	0x3e2ee4ef	0.17079519
49	0x3d26c8f5	0.04071899
50	0x3e17edc5	0.14836796
51	0xbe025e09	-0.12731184
52	0x3e9b05f7	0.30277988
53	0x3da36e68	0.07980043
54	0x3e3b86b6	0.18313107
55	0xbcaccb03	-0.021092897
56	0x3da19cdd	0.078912474
57	0x3d09ce45	0.03364398
58	0x3c6dda30	0.014517352
59	0x3dc6a6a5	0.09699754
60	0xbcd3c9a8	-0.025852993
61	0x3c2c247a	0.010506744
62	0xbd2d17d0	-0.042259037
63	0xbc53355d	-0.012891141
64	0xbde9cde5	-0.114162244
65	0xbe3502cb	-0.17676847
66	0x3dabee7e	0.08395098
67	0xbe83a33a	-0.2571047
68	0x3cbfe74c	0.02342572
69	0xbe06065c	-0.13088363
70	0xbe9b277e	-0.30303568
71	0xbc30f043	-0.01079947
72	0xbdd99d84	-0.10625747
73	0xbde76426	-0.11298399
74	0xbcaa5b58	-0.02079551
75	0xbe1bd374	-0.15217382
76	0x3afce273	0.0019293561
77	0xbe35e90e	-0.17764685
78	0xbea990c0	-0.33118248
79	0xbe529167	-0.20563279
80	0xbdd8a342	-0.10578014
81	0x3c2f602d	0.010704082
82	0xbdf0593e	-0.117357716
83	0xbe68d659	-0.22738017
84	0xbe1dcb05	-0.15409477
85	0xbe088939	-0.13333596
86	0xbe6565f0	-0.22402167
87	0xbdaff5df	-0.08591818
88	0xbe0c40fc	-0.13696665
89	0xbe8adf27	-0.27123377
90	0x3c315a4e	0.010824753
91	0xbdde08ca	-0.1084152
92	0xbd364f8c	-0.044509456
93	0x3d567608	0.052358657
94	0xbdf4cce7	-0.119531445
95	0xbdb737a2	-0.08946158
96	0xbe2eb0ea	-0.17059675
97	0xbe117f86	-0.14208803
98	0x3d776952	0.060403176
99	0xbdc4fe03	-0.096187614
100	0xbe65b4c4	-0.22432238
101	0xbe135316	-0.14387164
102	0xbeb42ce4	-0.351905
103	0xbdc9b5bf	-0.098491184
104	0xbd13730f	-0.0359984
105	0xbe4b12dd	-0.19831415
106	0x3d91b9da	0.071155265
107	0xbe2539b7	-0.16135298
108	0x3c0dd7e0	0.008657426
109	0xbe514064	-0.2043472
110	0x3c38e657	0.011285386
111	0xbdf3843a	-0.118904546
112	0x3d811828	0.063034356
113	0xbe540d66	-0.20708236
114	0x3d28d6c9	0.04122046
115	0xbc6f64c8	-0.0146114305
116	0xbeb591ba	-0.35462743
117	0xbcd7b0c0	-0.026329398
118	0xbdd4c787	-0.10389619
119	0xbe058e79	-0.1304263
120	0xbeb0486f	-0.34430262
121	0xbd0e4958	-0.034737915
122	0xbe3d463e	-0.18483827
123	0xbe843d13	-0.25827846
124	0xbdbb7dff	-0.09154891
125	0x3c25de41	0.01012379
126	0xbdd71d08	-0.10503584
127	0xbda4eb36	-0.080526754
128	0x3dc225cd	0.09479866
129	0x3e6be914	0.23038131
130	0xbe12a1a8	-0.1431948
131	0x3e40b00f	0.18817161
132	0x3d2215a1	0.03957141
133	0x3de4025b	0.11133262
134	0xbcd657a6	-0.02616484
135	0x3bee8e21	0.0072801267
136	0xbd67c668	-0.0565857
137	0x3c65c141	0.014023126
138	0x3e81a8f1	0.25324205
139	0x3d32ed4c	0.043683335
140	0x3e67382e	0.22580025
141	0xbde7193a	-0.112841085
142	0x3e90ec7a	0.28305417
143	0x3e063289	0.13105215
144	0x3d8a6a80	0.067585945
145	0xbd6ee7b2	-0.05832643
146	0x3dd08593	0.10181727
147	0x3e8bacb9	0.27280214
148	0xbe932896	-0.28741902
149	0x3e383ac5	0.17991169
150	0x3e1378a6	0.14401492
151	0xbc44c40c	-0.012009632
152	0x3e2a27ce	0.16616747
153	0x3ec645f1	0.38725236
154	0xbca676d0	-0.020320326
155	0xbb2bc157	-0.0026207769
156	0xbd7d396f	-0.06182235
157	0xbe291cab	-0.16514842
158	0xbe0edc2f	-0.13951181
159	0x3ebacde0	0.36485195
160	0xbcaf0d31	-0.021368595
161	0x3d39ff1e	0.045409314
162	0xbe4d3e51	-0.20043303
163	0x3d25f939	0.04052088
164	0xbd5066d7	-0.050879326
165	0x3ec78e48	0.3897574
166	0x3e90b154	0.2826029
167	0xbda94bea	-0.082664326
168	0x3d4c2ce6	0.049847506
169	0x3b60d94b	0.0034309204
170	0xbcef34fb	-0.029200068
171	0x3df9e8d9	0.12202615
172	0x3d831311	0.06400121
173	0x3ed8ee2f	0.4236922
174	0x3db25491	0.08707536
175	0x3daf52d1	0.08560718
176	0xbdd27d04	-0.10277751
177	0x3d539af3	0.051661443
178	0xbe132eec	-0.14373368
179	0xbe02795f	-0.12741612
180	0xbea6af99	-0.32555845
181	0xbe8dcd95	-0.2769591
182	0xbdfddb48	-0.1239534
183	0xbddebb9b	-0.10875627
184	0x3e52e319	0.20594443
185	0xbcb270c6	-0.02178229
186	0x3c80c9d6	0.015721243
187	0xbe72d896	-0.23715433
188	0x3defd4e2	0.11710526
189	0x3bd54f46	0.0065096943
190	0x3dbe2804	0.09284976
191	0xbd5aecfc	-0.053448662

weight_ih_l1 f4 [192, 64]
0	0xbde8738b	-0.11350163
1	0x3dad5680	0.08463764
2	0xbd241cf0	-0.04006666
3	0xbde0c7b1	-0.10975588
4	0xbdd91966	-0.106005475
5	0x3d297eb7	0.04138061
6	0xbca0407c	-0.019561999
7	0xbd4e081f	-0.050300714
8	0xbc4a095a	-0.012331331
9	0xbe2cd5a2	-0.1687837
10	0xbcd040c4	-0.025421508
11	0x3e156215	0.14588197
12	0xbe467b7a	-0.1938304
13	0xbd49e4c5	-0.049290437
14	0x3d4dbdc0	0.050229788
15	0xbcf4f25e	-0.029900726
16	0x3dd61ffc	0.10455319
17	0x3d85698b	0.06514271
18	0x3afc0b10	0.0019229371
19	0x3b91b12d	0.00444617
20	0x3d8f5bf1	0.06999958
21	0xbdacfa0c	-0.0844613
22	0x3dbbcd37	0.09170001
23	0xbcb82f13	-0.022483384
24	0xbe2c3a3d	-0.16819091
25	0x3dc92650	0.09821761
26	0xbe2cfb81	-0.16892816
27	0x3e60b00e	0.2194216
28	0x3da14c23	0.0787585
29	0x3e576f55	0.21038564
30	0x3dfcd156	0.12344615
31	0xbde5be2a	-0.112179115
32	0xbea27585	-0.31730285
33	0x3dc80909	0.09767348
34	0x3d39a431	0.0453226
35	0x3c47af2f	0.012187763
36	0x3df2e19b	0.11859437
37	0xbc9a7066	-0.018852424
38	0xbe365b9a	-0.1780838
39	0xbe60884c	-0.21926993
40	0xbd14278d	-0.03617053
41	0xbd9d638e	-0.07685004
42	0x3e27247a	0.16322508
43	0x3df1dd32	0.11809768
44	0xbe67ab2d	-0.22623892
45	0xbe0e315e	-0.1388602
46	0xbdaa23fc	-0.08307645
47	0xbda47aaf	-0.080312125
48	0xbd1e0d75	-0.038587052
49	0x3d05db00	0.032679558
50	0xbd9db2f6	-0.0770015
51	0xbe0f63b3	-0.14002876
52	0x3e11d52a	0.14241472
53	0x3dba9988	0.09111315
54	0xbd740005	-0.05957033
55	0xbcf29458	-0.029611751
56	0xbd8cebb2	-0.06880893
57	0xbce1fb8c	-0.027585767
58	0x3da2d17c	0.07950112
59	0xbd200781	-0.039069656
60	0x3e0d86d0	0.13820958
61	0x3d584df6	0.052808724
62	0x3d88c709	0.06678588
63	0xbe0f5f31	-0.14001156
64	0x3c67709c	0.014125969
65	0xbc92713c	-0.01787626
66	0xbc17c494	-0.0092631765
67	0xbd204828	-0.039131314
68	0xbcce23ab	-0.025163492
69	0x3d26cfa7	0.040725376
70	0xbdaf589d	-0.085618235
71	0xbbd606aa	-0.006531556
72	0xbdf2a25b	-0.11847373
73	0x3c91a845	0.017780432
74	0x3cde74d0	0.02715531
75	0xbde815ed	-0.11332307
76	0xbd45885b	-0.04822574
77	0xbe3978f9	-0.18112554
78	0x3db22921	0.08699251
79	0x3cbb7498	0.022882745
80	0xbd08676b	-0.033301752
81	0x3d0e1313	0.03468616
82	0xbd8f2929	-0.069902726
83	0xbdc2197f	-0.09477519
84	0xbaf07b5e	-0.0018347313
85	0x3d95a148	0.073061526
86	0xbd53e217	-0.051729288
87	0xbdec35f4	-0.11533728
88	0x3e85a109	0.26099423
89	0x3ced0f05	0.028937826
90	0xbe295c93	-0.1653922
91	0xbd6af3a4	-0.05736126
92	0xbdd0b3fc	-0.10190579
93	0xbe466a54	-0.19376498
94	0xbb603a9c	-0.0034214621
95	0x3cbe1f1e	0.023208197
96	0xbe18d6f0	-0.14925742
97	0x3e505936	0.20346531
98	0xbe6d3580	-0.2316494
99	0x3df405ea	0.119151905
100	0xbc55d9e2	-0.013052436
101	0x3e5d65db	0.21620886
102	0x3e904a9b	0.2818192
103	0xbe628b3a	-0.22123423
104	0x3e7403b2	0.23829535
105	0xbd85ddc3	-0.06536438
106	0x3da21199	0.07913513
107	0xbde20138	-0.11035389
108	0x3c01da3b	0.007925565
109	0x3e1f9871	0.15585496
110	0xbdcb5191	-0.09927667
111	0xbbbb0aaf	-0.0057080607
112	0xbda79dbc	-0.08184382
113	0x3db3f1a2	0.08786322
114	0x3d3f0596	0.046636187
115	0x3e05a8ca	0.13052669
116	0xbe4c2068	-0.19934237
117	0xbe1b1dbe	-0.15148064
118	0xbe20c0b7	-0.15698515
119	0xbddc3af0	-0.10753429
120	0x3e35a18d	0.17737408
121	0xbe570862	-0.20999292
122	0xbe1ec60f	-0.15505241
123	0x3ac87b76	0.0015295583
124	0xbdec099e	-0.11525272
125	0x3e32c6a4	0.17458588
126	0x3e210591	0.1572478
127	0x3b8c7004	0.0042858142
128	0x3e6f22cb	0.23353116
129	0xbcf0daa2	-0.029401127
130	0xbd91f228	-0.07126266
131	0x3d929dcf	0.07159006
132	0xbe0d5f12	-0.13805798
133	0x3df10fd3	0.11770596
134	0xbd73f796	-0.05956229
135	0x3ded8fd7	0.11599701
136	0x3dba84fc	0.09107396
137	0x3d4f14e4	0.050557032
138	0x3d113bb8	0.035457343
139	0xbe5ff121	-0.21869327
140	0x3d302840	0.043007135
141	0xbdf83bab	-0.12120756
142	0x3d16f82b	0.036857765
143	0x3cd7b904	0.02633334
144	0xbdc329fc	-0.09529492
145	0x3eb496dc	0.35271347
146	0xbd43c8e3	-0.047799002
147	0xbe05a349	-0.1305057
148	0xbda090b3	-0.07840099
149	0xbdfd48b5	-0.123673834
150	0xbc9c056f	-0.01904556
151	0xbeac76cf	-0.33684394
152	0x3e9fe00f	0.3122563
153	0x3d90e6be	0.070752606
154	0x3d7b9601	0.06142235
155	0xbdaf7639	-0.08567471
156	0x3d005dca	0.031339444
157	0xbd76150e	-0.060078673
158	0xbe2156cb	-0.15755765
159	0x3d716b37	0.05894014
160	0xbd7572b5	-0.059923846
161	0xbce25bc6	-0.027631652
162	0x3d80cc36	0.0628895
163	0x3e1fc9d7	0.1560434
164	0xbca97f67	-0.020690633
165	0x3ded5dc1	0.11590148
166	0x3df1c7af	0.11805665
167	0xbe1f6fd4	-0.15570003
168	0x3e10ab74	0.14127904
169	0xbdeaaaa3	-0.114583276
170	0x3d949a91	0.07256044
171	0xbe90b0d3	-0.28259906
172	0xbd928fee	-0.07156359
173	0xbd97db71	-0.07414902
174	0xbe096c44	-0.13420206
175	0xbd02fe5d	-0.03198086
176	0x3dde210e	0.108461484
177	0xbd5bff7d	-0.05371045
178	0x3d336e52	0.04380638
179	0xbd8b658a	-0.068064764
180	0x3b313930	0.0027042143
181	0xbb3b048b	-0.0028536643
182	0xbe242412	-0.16029385
183	0xbde11edd	-0.10992215
184	0xbbf22d1a	-0.0073906304
185	0xbdac1e88	-0.08404261
186	0xbd9475e7	-0.072490506
187	0xbb91049d	-0.004425599
188	0xbe8793d0	-0.2647996
189	0x3da1514e	0.07876836
190	0xbd4033a8	-0.046924263
191	0x3e66c944	0.22537714
192	0xbdf4e341	-0.11957408
193	0xbd05b285	-0.032640953
194	0x3e13c692	0.14431217
195	0xbdcfa53b	-0.10138937
196	0x3d53c673	0.051702928
197	0x3c88e2d9	0.016709732
198	0xbd986e2b	-0.07442888
199	0x3c9dbec9	0.019256013
200	0x3d458dcb	0.048230927
201	0xbd334c94	-0.043774202
202	0x3cc5584b	0.024089953
203	0x3e5b67f4	0.21426374
204	0xbdc8b0a7	-0.09799319
205	0xbb808ccc	-0.0039230343
206	0xbdc1cc09	-0.09462745
207	0x3d235881	0.039879326
208	0xbd187397	-0.03721961
209	0xbef458ab	-0.47723898
210	0xbdfbf5ed	-0.12302766
211	0x3db6c915	0.08925072
212	0x3ebe2a73	0.3714176
213	0xbe14379f	-0.14474343
214	0x3d6c6677	0.057714906
215	0x3eab09b1	0.3340583
216	0xbee51611	-0.44743398
217	0xbbec289a	-0.0072069885
218	0x3d7e8497	0.062138166
219	0x3e7b9ec0	0.24572277
220	0x3e354189	0.17700781
221	0x3caa982f	0.02082452
222	0x3d92bf67	0.07165413
223	0xbe19254c	-0.14955634
224	0x3d230ed3	0.03980906
225	0xbcd92a84	-0.02650953
226	0x3da35706	0.07975583
227	0x3d984cf8	0.074365556
228	0xbccd784d	-0.025081778
229	0xbdf1d5a3	-0.11808326
230	0xbe20054a	-0.15627018
231	0x3c960765	0.018314073
232	0xbd90044b	-0.07032069
233	0x3df670bd	0.12033222
234	0xbd9719c9	-0.07377965
235	0x3eaebc80	0.3412819
236	0x3e5a0b06	0.21293268
237	0x3c7cb9d1	0.015425161
238	0x3e293071	0.16522385
239	0x3e24052b	0.16017596
240	0x3db4ae70	0.08822334
241	0x3d6391ea	0.055559076
242	0xbecb5f05	-0.39720932
243	0x3e28704f	0.16449092
244	0x3c9d49f6	0.019200306
245	0x3d22c33e	0.03973698
246	0xbcae8f65	-0.02130861
247	0x3cb8ea81	0.022572758
248	0x3c91f050	0.017814785
249	0x3c85ccef	0.016333072
250	0xbe797af4	-0.24363309
251	0x3dab8f71	0.08376969
252	0x3e8dd745	0.277033
253	0x3d524784	0.051337734
254	0x3cabf5b0	0.020991176
255	0xbe4c4087	-0.1994649

weight_hh_l1 f4 [192, 64]
0	0x3e2926c9	0.16518702
1	0xbde2da71	-0.11076821
2	0xbe6af979	-0.22946729
3	0x3e6e3276	0.23261437
4	0x3cf00997	0.029301448
5	0x3e5b29a1	0.21402599
6	0xbdfd210b	-0.12359818
7	0x3e17a8d1	0.14810492
8	0x3e2c7214	0.16840392
9	0x3e26684c	0.16250724
10	0xbdad53e3	-0.08463266
11	0xbe55b567	-0.20869981
12	0x3d963956	0.07335155
13	0x3d114af9	0.03547189
14	0x3d1b713a	0.03794978
15	0xbe12986e	-0.1431596
16	0x3df900a0	0.12158322
17	0xbe7a7211	-0.24457575
18	0xbe771625	-0.24129541
19	0xbcdd2939	-0.026997196
20	0xbe2e4ae8	-0.17020762
21	0xbdbf4e4e	-0.09341107
22	0x3d90b1b9	0.07065148
23	0xbcba4176	-0.022736292
24	0xbe2266a6	-0.1585947
25	0xbde76d8f	-0.113001935
26	0xbc18ddb1	-0.009330199
27	0xbd04c869	-0.03241769
28	0x3d570173	0.052491616
29	0x3cc48cf6	0.023992997
30	0xbe06dbfe	-0.13169858
31	0xbe1e3f20	-0.15453768
32	0xbd10c2d1	-0.03534204
33	0x3e22e567	0.15907823
34	0x3d09b0f1	0.03361601
35	0x3d7701a7	0.06030431
36	0x3c1e1246	0.009647911
37	0x3d3b6f74	0.045760587
38	0xbd92f4e7	-0.07175618
39	0xbe5fd4bf	-0.218585
40	0x3d8a17c2	0.06742813
41	0xbd55254a	-0.052037515
42	0xbbdd5cb9	-0.006755438
43	0xb7d999db	-2.594006e-05
44	0x3bcda900	0.00627625
45	0x3ddc3ddc	0.10753986
46	0x3d0b8cb7	0.034069743
47	0x3d5eb315	0.054370005
48	0xbdf69fbb	-0.12042185
49	0xbe4c77bd	-0.19967552
50	0x3d042aeb	0.032267492
51	0x3e0f66b4	0.14004022
52	0x3cafed56	0.021475475
53	0x3e7dad2c	0.24773091
54	0x3dcf725e	0.10129236
55	0xbe87aeaa	-0.26500446
56	0xbb2673d2	-0.0025398624
57	0xbe022756	-0.12710318
58	0xbe16f2c5	-0.14741047
59	0xbd574974	-0.052560285
60	0xbe1ccd30	-0.15312648
61	0x3e88adb2	0.2669502
62	0xbd77bb86	-0.06048157
63	0x3cc5c5b9	0.024142133
64	0x3d43bfb1	0.047790233
65	0x3ccee049	0.025253432
66	0x3e17a884	0.14810377
67	0x3d228121	0.03967393
68	0xbd97fac1	-0.074208744
69	0xbdca0c09	-0.09865577
70	0x3df8fe96	0.121579334
71	0xbd1171e3	-0.035509
72	0x3db3ff6a	0.08788951
73	0xbc18ab8d	-0.009318245
74	0xbcbfdc2a	-0.023420412
75	0xbbf6f910	-0.007537015
76	0x3d301825	0.042991776
77	0xba876f4d	-0.0010332853
78	0xbe385e86	-0.18004808
79	0xbe50c7a5	-0.20388658
80	0xbe3561a6	-0.17713031
81	0x3d892111	0.0669576
82	0x3dcfd313	0.10147681
83	0x3dbdef2d	0.09274135
84	0x3d5d7d20	0.054074407
85	0x3dcb2d7c	0.09920785
86	0xbc168139	-0.0091860825
87	0x3db3c85b	0.08778449
88	0xbd86f230	-0.06589162
89	0x3d818e3f	0.063259594
90	0x3d439ca3	0.047756802
91	0x3dc6b972	0.0970334
92	0xbb341779	-0.002747981
93	0x3d98c5de	0.07459615
94	0x3c41a7fe	0.011819838
95	0x3d1b0cd0	0.037854016
96	0x3e63a969	0.22232594
97	0xbb746333	-0.0037290573
98	0xbdc1a250	-0.09454787
99	0xbdb947af	-0.09046876
100	0x3cf527fb	0.02992629
101	0x3e3556ba	0.17708865
102	0x3e1ad582	0.1512051
103	0x3d4d418f	0.05011135
104	0xbd052742	-0.032508142
105	0xbbf733e2	-0.0075440267
106	0xbdc8c312	-0.09802832
107	0xbdfefa42	-0.12450077
108	0xbd26a66b	-0.040686052
109	0x3b57874a	0.0032887035
110	0x3daa7931	0.08323897
111	0x3cf90cce	0.030401614
112	0x3d3a14d7	0.04543003
113	0x3a98a750	0.0011646543
114	0xbc9c7c8f	-0.019102363
115	0x3d19f716	0.037589155
116	0xbd006c91	-0.031353537
117	0x3bd78e8d	0.0065782727
118	0xbdabba46	-0.08385138
119	0x3dc17233	0.0944561
120	0x3db49ba3	0.08818748
121	0x3d8efea5	0.06982163
122	0xbc9ff624	-0.019526549
123	0xbd05622f	-0.03256434
124	0x3d08c36c	0.033389494
125	0xbae1063e	-0.0017167998
126	0x3db54bd8	0.08852357
127	0x3dfad3f0	0.12247455
128	0x3d0cefa6	0.034408234
129	0xbd1e11c0	-0.038591146
130	0xbbe283c3	-0.00691268
131	0xbd2eaf12	-0.04264743
132	0xbd76fcfe	-0.060299866
133	0x3d87eab7	0.06636565
134	0x3ddc0641	0.1074338
135	0xbe168c22	-0.14701894
136	0xbd62346c	-0.055225775
137	0xbd109aae	-0.035303764
138	0xbc32bff6	-0.010910025
139	0xbdbc9a5b	-0.092091285
140	0x3dd4420d	0.10364161
141	0xbe1d6e51	-0.15374114
142	0x3caedb51	0.021344813
143	0xbd0db9fd	-0.0346012
144	0xbe6f6ba7	-0.2338091
145	0x3d520d84	0.05128242
146	0xbc387067	-0.011257268
147	0xbd979e9e	-0.07403301
148	0xbc1d4c22	-0.009600671
149	0x3e0bfd1a	0.1367077
150	0x3d548769	0.05188695
151	0x3e03e51e	0.1288037
152	0x3b884377	0.004158433
153	0x3e3eb2da	0.18622914
154	0xbda900b2	-0.08252086
155	0xbd91f62f	-0.07127034
156	0xbdc40407	-0.09571081
157	0xbe04602e	-0.12927315
158	0xbce6f086	-0.028190862
159	0x3b9f1fec	0.0048561003
160	0x3e2107cd	0.15725632
161	0xbd9c4539	-0.07630391
162	0xbe2ae6f1	-0.1668966
163	0xbe0a5e9b	-0.13512652
164	0xbd588e2c	-0.05286996
165	0x3db6c781	0.08924771
166	0x3e0f5225	0.1399618
167	0x3dfc67e2	0.123245016
168	0xbe171b3f	-0.14756487
169	0xbda79d4d	-0.081842996
170	0xbd8570bc	-0.06515643
171	0xbd921dbc	-0.07134578
172	0xbb9f16a4	-0.004854994
173	0xbca69720	-0.020335734
174	0x3e2d8cf7	0.16948305
175	0x3dbd632b	0.092474304
176	0xbda91d7b	-0.08257576
177	0x3d165247	0.03669956
178	0x3d5ee682	0.054419048
179	0xbcd05d33	-0.025435066
180	0x3ccfb6cd	0.02535572
181	0x3d944d74	0.072413355
182	0xbdf32a7f	-0.1187334
183	0x3d9fbb04	0.07799342
184	0xbdebb38a	-0.11508854
185	0x3dfd3e8a	0.12365444
186	0xbdcfde63	-0.10149839
187	0x3e17eeff	0.14837264
188	0xbd308a5d	-0.043100704
189	0xbe366fda	-0.17816105
190	0xbdca83de	-0.09888433
191	0xbda7f692	-0.082013264
192	0xbc95928d	-0.018258357
193	0xbe3dd680	-0.18538857
194	0x3d6029a4	0.05472721
195	0x3d8c90cd	0.06863556
196	0x3b26c293	0.0025445565
197	0xbd81d6e0	-0.06339812
198	0x3ceb30bb	0.02870976
199	0x3df1223c	0.11774108
200	0xbd94c46f	-0.07264029
201	0xbd83032c	-0.06397089
202	0x3d218333	0.039431762
203	0xbe73ac52	-0.23796204
204	0x3cef48ff	0.029209612
205	0xbd336471	-0.04379696
206	0x3c07fb96	0.008299729
207	0xbc1482d1	-0.009064392
208	0x3d6d5937	0.05794641
209	0xbbdb6109	-0.006694917
210	0xbe258167	-0.16162644
211	0xbd81270b	-0.06306275
212	0xbe397416	-0.1811069
213	0x3aa29be7	0.0012406082
214	0x3e06fb99	0.13181914
215	0xbe56564d	-0.20931359
216	0xbe27a416	-0.16371188
217	0x3d06f298	0.0329462
218	0x3db9f272	0.09079446
219	0xbe2021f1	-0.15637948
220	0xbe2289ce	-0.15872881
221	0xbd3999bf	-0.04531264
222	0xbb52889e	-0.0032124887
223	0xbdcbb57a	-0.09946723
224	0x3d0412c9	0.032244477
225	0x3d1d693b	0.038430434
226	0x3e38ceaf	0.18047594
227	0x3da38601	0.079845436
228	0xbddde634	-0.108349234
229	0x3d2ed1a5	0.0426804
230	0xbda6359a	-0.081156924
231	0xbdee0890	-0.11622727
232	0x3d34d55f	0.0441488
233	0xbd039754	-0.03212674
234	0xbda34c3d	-0.07973526
235	0x3d4a865a	0.049444534
236	0x3d33454e	0.043767266
237	0x3dfa157a	0.122111276
238	0xbc450289	-0.01202453
239	0x3d8dc580	0.06922436
240	0xbda61079	-0.08108611
241	0xbe2e4459	-0.1701826
242	0xbdeb6e56	-0.11495654
243	0x3e03c875	0.12869437
244	0xbca86170	-0.020554274
245	0x3c23edd0	0.010005429
246	0x3d9fea68	0.07808381
247	0xbd3fe887	-0.046852615
248	0x3db8e89f	0.09028744
249	0xbe4d985a	-0.20077649
250	0xbc5ee6b4	-0.013604809
251	0xbccf030d	-0.02527001
252	0x3c785073	0.015155899
253	0x3caaf358	0.020867988
254	0xbcadeec1	-0.02123201
255	0x3ddae217	0.106876545

bias_ih_l1 f4 [192]
0	0x3e34e280	0.17664528
1	0x3db4773b	0.08811804
2	0x3b1f8e2b	0.0024346213
3	0xbdb468e9	-0.088090725
4	0x3dfdd788	0.12394625
5	0x3df495b6	0.119426176
6	0x3dc001e0	0.09375358
7	0xbe38dba7	-0.1805254
8	0x3e9a495a	0.30134088
9	0x3a436b04	0.0007454606
10	0x3e2e0745	0.1699496
11	0x3db79379	0.08963675
12	0x3e4c742e	0.19966194
13	0xbdb2e34f	-0.08734762
14	0x3d058ced	0.0326051
15	0xbe33447d	-0.17506595
16	0x3b451f52	0.0030078483
17	0xbccaaf0f	-0.024741678
18	0x3c661c36	0.014044812
19	0xbd918b01	-0.07106591
20	0x3ea2e745	0.3181707
21	0x3edf7375	0.43642774
22	0x3df62024	0.12017849
23	0xbd0a78a7	-0.03380647
24	0x3c3d7661	0.011563868
25	0x3e5e75fe	0.21724698
26	0xbd92caf8	-0.071676195
27	0xbbb3678f	-0.0054749916
28	0xbdb4f9f0	-0.08836734
29	0xbd02fa0b	-0.03197674
30	0x3d43d46f	0.047810014
31	0x3d3fa906	0.046792053
32	0xbda00d0c	-0.078149885
33	0xbe316629	-0.17324127
34	0x3ee98721	0.45610908
35	0x3dd62729	0.10456688
36	0x3ce72a43	0.028218394
37	0xbd3ab5ed	-0.045583654
38	0x3e8c7e11	0.2743993
39	0x3dc28154	0.09497324
40	0x3ed90b05	0.4239122
41	0x3d9471c0	0.072482586
42	0x3e28ee26	0.16497096
43	0x3dbe569a	0.09293862
44	0x3d1f859d	0.038945783
45	0x3dc10a77	0.09425824
46	0x3e5e2b5d	0.2169623
47	0x3ee7736d	0.4520525
48	0x3c4180ea	0.011810521
49	0x3ddb70f7	0.10714906
50	0x3d145446	0.036213182
51	0x3eed3c8f	0.46335265
52	0x3eef0379	0.46682337
53	0xbd7754c3	-0.06038357
54	0x3d59d508	0.053181678
55	0xbd8bc679	-0.06824965
56	0x3da53026	0.08065824
57	0x3ebe4c01	0.3716736
58	0xbd87dc82	-0.066338554
59	0x3da432af	0.0801748
60	0xbd0fce3d	-0.035108794
61	0xbd05c669	-0.03265992
62	0x3e08bc6f	0.13353132
63	0xbab815a4	-0.0014044535
64	0xbe80faf1	-0.25191453
65	0xbdbe0aa8	-0.09279376
66	0xbd30d3f4	-0.043170884
67	0xbe378c5d	-0.17924638
68	0xbdb7282c	-0.08943209
69	0xbd6c404f	-0.057678517
70	0x3d194295	0.037417013
71	0xbd919302	-0.07108118
72	0xbe147a33	-0.1449974
73	0xbdd4cb0e	-0.10390292
74	0xbc95708e	-0.018242147
75	0xbe2a0949	-0.16605105
76	0xbe3585cf	-0.17726825
77	0xbdca0e0b	-0.0986596
78	0x3dadd949	0.084887095
79	0xbe1fc9be	-0.15604302
80	0x3df007b6	0.11720221
81	0xbe80cbe9	-0.2515557
82	0xbd87b16a	-0.06625636
83	0xbdbf001d	-0.093261935
84	0xbdce825b	-0.10083457
85	0xbea47c82	-0.32126242
86	0xbe2ee7a7	-0.17080556
87	0x3da312dd	0.07962582
88	0xbe356929	-0.17715897
89	0xbd6157ef	-0.0550155
90	0x3d5c2ac3	0.05375172
91	0xbe4efead	-0.20214339
92	0xbe575dd7	-0.21031891
93	0xbc1f0956	-0.009706816
94	0xbe6daa0b	-0.23209397
95	0xbd8b48d6	-0.06801002
96	0xbdb38fec	-0.08767685
97	0xbdd49286	-0.1037951
98	0xbeeae53b	-0.45878014
99	0xbe882939	-0.2659395
100	0x3d99b186	0.07504563
101	0xbd813847	-0.06309562
102	0xbe8a8731	-0.27056268
103	0xbbd8a3e8	-0.006611336
104	0xbe570bf2	-0.2100065
105	0xbdf437ea	-0.11924727
106	0xbd8619ba	-0.06547876
107	0x3c6a6552	0.014306383
108	0xbe2abd88	-0.16673863
109	0xbe23d01c	-0.15997356
110	0xbde2b1f5	-0.11069099
111	0xbe7b7f11	-0.2456019
112	0xbdacbc5b	-0.084343635
113	0xbc400070	-0.011718854
114	0xbe2308b8	-0.15921295
115	0xbea1b926	-0.3158657
116	0xbe937fd5	-0.28808466
117	0x3de38318	0.111089885
118	0xbd49f76b	-0.04930822
119	0x3c148762	0.009065481
120	0xbdf0a6b5	-0.11750547
121	0xbef60b66	-0.4805557
122	0x3c88d403	0.016702658
123	0xbbeec4e6	-0.0072866557
124	0xbe53a6d0	-0.20669103
125	0xbe2f1d59	-0.17101039
126	0xbd82caf4	-0.063863665
127	0xbd89f9e8	-0.06737119
128	0xbe516fb2	-0.20452765
129	0x3ea0f537	0.31437084
130	0xbcc5c524	-0.024141856
131	0xbe1942b0	-0.14966846
132	0xbecce9e6	-0.400222
133	0xbe73e482	-0.23817638
134	0xbccbf5b0	-0.024897426
135	0x3db72db3	0.08944263
136	0xbea445cf	-0.3208451
137	0xbe2a2bb6	-0.16618237
138	0x3dad988c	0.08476362
139	0xbdb1441f	-0.08655571
140	0xbe295c65	-0.16539152
141	0xbd2cccec	-0.042187616
142	0xbd926b91	-0.07149423
143	0x3dad622c	0.084659904
144	0xbde73e05	-0.11291126
145	0x3e2a1468	0.16609347
146	0x3e3a2f3c	0.18182081
147	0x3d65704f	0.05601531
148	0x3e719cec	0.23595017
149	0x3ece72e0	0.40322018
150	0x3c8e3dfa	0.017363537
151	0xbda2692b	-0.079302154
152	0x3e16b0a1	0.14715816
153	0x3e050636	0.1299065
154	0xbe86d432	-0.26333767
155	0xbc9fc12c	-0.019501291
156	0x3de6f169	0.11276514
157	0x3bf6cc88	0.0075317062
158	0x3e03632e	0.12830803
159	0x3de7d181	0.113192566
160	0x3d94a160	0.07257342
161	0x3d90c48e	0.0706874
162	0xbee60db8	-0.44932342
163	0xbe39f62a	-0.1816031
164	0xbc8e17ea	-0.017345387
165	0xbcf92d02	-0.03041697
166	0x3ec61119	0.3868492
167	0xbdbcf292	-0.09225954
168	0xbe68ad21	-0.22722293
169	0x3cc750aa	0.024330456
170	0xbdbeec06	-0.09322362
171	0xbc347a4b	-0.011015485
172	0xbddb5ef5	-0.10711471
173	0xbe50f48a	-0.20405784
174	0x3c515be6	0.012778258
175	0xbee075ea	-0.4383996
176	0x3d316fae	0.043319397
177	0x3cfe3c59	0.031034635
178	0x3bd02b59	0.0063528237
179	0xbf025bed	-0.5092152
180	0xbe9366ed	-0.28789464
181	0xbd8a4595	-0.06751553
182	0x3bea71e3	0.0071546896
183	0xbe1ae6cf	-0.15127109
184	0xbe0ca600	-0.13735199
185	0x3ed173ed	0.40908757
186	0x3d1999f6	0.037500344
187	0x3e4500aa	0.19238535
188	0x3e08b239	0.13349237
189	0xbdba01fd	-0.090824105
190	0x3e4f8bb0	0.2026813
191	0x3d9dea82	0.077107444
