time_LossPrune/model3_ticket.pth (torch, 209742 bytes, 12 tensors)

weight f4 [125, 16]
000000 4e 4f 3d 3f f6 49 3e 3f 6d c9 3c 3f b9 3d 82 bf
       0.73949134 0.74331605 0.7374485 -1.0175086
000010 05 73 8c 3f 35 b5 94 be ef 55 06 bf 75 f5 0f c0
       1.0972601 -0.290445 -0.52474874 -2.2493565
000020 a9 0f 0a bf f3 20 88 3f 1d db 61 bf ae ac b6 bf
       -0.53930146 1.0635055 -0.88224965 -1.4271448
000030 68 d4 4b 3e d8 6f 1a bf ef dc 55 3f 6b 6c 2b 3f
       0.19905245 -0.6032691 0.8354024 0.6696231
000040 26 33 48 bf 46 af ca bd 15 90 de 3d bf ef 3a 3e
       -0.78203046 -0.09896712 0.10867325 0.18255518
000050 8a 14 0b 3f 13 42 a3 3f cd 7f 9d bf 92 0c ec 3e
       0.54328215 1.2754539 -1.2304627 0.4610334
000060 2d 1d 28 3d cd 76 1f bf 68 85 b1 3c 63 92 ae bf
       0.04104345 -0.6229065 0.021670058 -1.3638424
000070 11 d5 91 be 96 4a 87 bf c9 fc 1a c0 36 cc ac bf
       -0.2848287 -1.0569637 -2.4216788 -1.349982
000080 39 50 bf 3e 19 68 80 3f 91 7a 5f bf 10 9e 60 3f
       0.37365893 1.0031768 -0.87296396 0.87741184
000090 35 f8 db 3f 8f b9 1d bf 01 12 67 be 55 dc 57 bf
       1.7185122 -0.61611265 -0.22565462 -0.84320575
0000a0 ab e8 20 be 48 bd 88 bf 22 fc 29 3e e9 d9 0e 3f
       -0.15713756 -1.0682764 0.16600087 0.55801255
0000b0 80 1e 42 3f dc ad 7e 3e f0 0c ee 3f 93 1c e5 3e
       0.7582779 0.2487101 1.8597698 0.44748363
0000c0 77 b4 09 3f 78 4c 9f bf 2f be f3 bd 9d 99 86 3e
       0.5379099 -1.2445211 -0.11901509 0.26289073
0000d0 97 58 90 3e 04 cd 84 3e cc e1 1d 40 89 4b 5f bf
       0.2819259 0.25937665 2.4669065 -0.8722463
0000e0 51 61 63 3f 7e 6b ae 3f 78 8b 93 3f 2b 51 93 be
       0.8882037 1.3626554 1.1526937 -0.28772864
0000f0 b3 f3 9a 3f a8 0b 75 3e ca 55 91 3e c8 c3 99 bf
       1.2105621 0.23930228 0.28385764 -1.2012873
000100 6b 58 39 bf ae 1b 39 3f bb 00 a1 3e 4f 63 c6 3e
       -0.7240054 0.7230786 0.3144587 0.3874764
000110 20 aa 37 be a7 77 fa 3e ce 88 90 bd 96 82 7d be
       -0.17935991 0.48919412 -0.070573434 -0.24756846
000120 a1 82 ef 3e 9f 8e 62 3f c9 04 e3 bf 23 e9 73 bf
       0.4677935 0.8849887 -1.7735835 -0.95277613
000130 83 2c fd bd f1 ef 01 3f ed 3f d1 be 75 bd 65 be
       -0.123620056 0.50756747 -0.40869084 -0.22435553
000140 06 93 80 3e e6 8b c6 3f 19 01 86 3f 5a 6c 3a be
       0.2511217 1.5511444 1.0469085 -0.18205395
000150 b2 86 3c 3d 39 87 a9 be cb 0a 86 bf 41 fb 52 3e
       0.046026893 -0.3311098 -1.0472044 0.20603658
000160 0b 21 de bf 6c 06 a8 bf 0b ff 9d be 94 2f 46 be
       -1.7353834 -1.312696 -0.30858645 -0.19354087
000170 76 b1 ac 3e a9 b8 76 3e 02 6f f3 bf cf 38 a3 bf
       0.33729142 0.2409388 -1.9018252 -1.2751712
000180 18 fb b8 3e 75 e2 6a 3f 26 1f 10 bf 1f b5 3f 3e
       0.3612907 0.91751796 -0.5629753 0.18721436
000190 28 05 ba 3c 4a 5e 39 3f 58 fe 8c bf 3f 67 62 3f
       0.022707537 0.724095 -1.101512 0.8843879
0001a0 cd 2d 65 3f 13 41 2a 3f bf bb 3b bf 41 a9 ca 3d
       0.8952301 0.66505545 -0.7333335 0.09895564
0001b0 37 cb b5 3f 25 56 f2 be 9b 6b 66 bf 82 66 a2 bf
       1.4202641 -0.47331348 -0.9000794 -1.2687533
0001c0 27 96 30 bf f4 4e a5 bf 1e 9d af bf 52 70 be bf
       -0.68979114 -1.291472 -1.3719823 -1.4878027
0001d0 40 9a 5c bf ce 74 df bf fe fb d5 3f 4d 91 04 bf
       -0.86172867 -1.7457521 1.6717527 -0.5178421
0001e0 27 a0 83 bc 65 7d c0 bf 0d b3 b0 be 50 ef 73 3f
       -0.016067578 -1.5038267 -0.34511605 0.95287037
0001f0 a9 29 bf bf 13 21 08 3f 7f 4d 67 bf 84 15 fd be
       -1.4934589 0.5317547 -0.90352625 -0.49430478
000200 65 bd 3c bf 82 0c c3 3f cf 86 dc be 69 e3 b3 3e
       -0.73726493 1.5238192 -0.430716 0.35134438
000210 7d 9a 00 3f bd aa ce be e7 19 98 bf 71 fb 0d 40
       0.5023573 -0.40364638 -1.1882905 2.2184718
000220 d8 7f d7 3f 93 05 a8 be a0 02 cc 3e 79 e0 8f 3f
       1.683589 -0.32816753 0.39845753 1.1240379
000230 c1 a1 8f bf 06 76 c9 bf b2 14 85 3f 68 e0 18 bf
       -1.1221238 -1.5739143 1.0396941 -0.59717417
000240 a0 e1 bb bf 4e 7a 98 3e 47 b7 86 3f 66 e8 4e 3f
       -1.467823 0.2978081 1.0524682 0.8082336
000250 e8 dd 8c bf 78 bd d4 be e4 0f 0c c0 c1 99 ac bd
       -1.100522 -0.41550803 -2.18847 -0.08427764
000260 c9 71 b2 be 66 ad b6 bf 56 da a6 3e a5 a8 84 3d
       -0.34852436 -1.4271667 0.32588452 0.06477479
000270 4d e8 c9 3f 63 e5 44 bf a4 78 59 3f 49 c3 40 3f
       1.5774018 -0.76912516 0.8494971 0.7529798
000280 76 3f f2 be e2 fa ef 3f 52 5a c2 bf cd 6e 92 be
       -0.47314042 1.8748438 -1.5183814 -0.2860016
000290 ee d1 6d 3f 82 24 a4 bf 58 02 cb 3d b8 3c d2 3f
       0.9289845 -1.2823641 0.099125564 1.642478
0002a0 d2 b2 46 3e 3d 34 dc 3f b4 f8 a2 bf 8e d8 c8 bf
       0.19404152 1.7203442 -1.2732148 -1.5691087
0002b0 2c 98 9a be d6 1d af 3f 25 b2 8d 3d 58 84 d1 3f
       -0.30194223 1.368098 0.06918744 1.6368513
0002c0 f9 0e 4f 3f a5 b2 10 40 d5 70 0b 3f 06 65 ad 3f
       0.8088222 2.2609036 0.54469043 1.3546455
0002d0 61 20 ae 3e b2 11 a1 bc f7 b9 ad bf a3 2a 03 be
       0.34009078 -0.019661758 -1.3572377 -0.12809233
0002e0 67 e2 0c 3f b5 be 12 3f bb da 06 40 4c ef c8 3f
       0.5503296 0.57322246 2.1071002 1.5698028
0002f0 94 7b ee 3e 0e c7 c4 bf 2c 3b ca bf bc aa 32 c0
       0.46578658 -1.5373247 -1.5799308 -2.7916708
000300 52 4e 81 bf e3 73 62 be 24 ee 7a be 27 99 06 3f
       -1.0102026 -0.2211452 -0.24504906 0.5257744
000310 bc a1 8e 3d 67 74 c7 3e fd fc 15 3e 71 9d 44 3d
       0.06964442 0.38955995 0.14647289 0.04800171
000320 28 66 2e bf 02 65 07 40 25 4c cf bf 1c c7 42 3f
       -0.6812463 2.11554 -1.6195112 0.76085067
000330 34 93 16 40 cc bf a1 bd 7e ae 15 bf 69 4a 57 bf
       2.3527346 -0.078979105 -0.5846938 -0.84097916
000340 c4 d9 18 3f 8d d0 40 3f 3e 8f b7 3e 34 4e df bf
       0.59707284 0.75318223 0.35851473 -1.7445741
000350 50 2f 86 be 16 05 a1 3f 47 0c 21 bf 6d 7e 17 3d
       -0.26207972 1.2579677 -0.6290936 0.036985803
000360 d0 fb 56 3f 0d 92 90 be ac 9b 1c 3f 07 4f 82 3f
       0.83977985 -0.28236428 0.61175036 1.0180367
000370 77 c3 05 3f dd 32 60 bc 27 fe a4 3e 15 e0 80 3f
       0.5225138 -0.013684002 0.32225153 1.0068384
000380 1f 18 42 3e b6 75 bc bd 11 5f 44 be 8c 5c b7 bf
       0.18954514 -0.09202139 -0.1917689 -1.4325118
000390 61 27 88 3f 9e ae 91 be 58 22 b0 3f a1 2b 83 be
       1.0637017 -0.28453535 1.3760481 -0.25619224
0003a0 fe c0 2e 3f f6 ec 0d 3f 12 ff 29 3f 3d e2 af be
       0.6826323 0.554397 0.6640483 -0.34352294
0003b0 34 0f 4c 3e ad ba f0 bd 92 de 40 be 04 53 93 3f
       0.19927675 -0.117543556 -0.18834904 1.1509709
0003c0 15 5c c8 3f 88 7f 5f bf 4a 24 35 bf c7 a9 a5 3f
       1.5653101 -0.8730397 -0.707585 1.2942437
0003d0 7e 95 42 3f 84 74 81 3e d1 fe 4a 3f f5 ba 8d be
       0.76009357 0.25284207 0.7929507 -0.276817
0003e0 39 a0 74 be 50 d6 ad 3e 6a a7 02 bd 49 2d 75 be
       -0.23889245 0.3395257 -0.03189794 -0.23943056
0003f0 3c 6d 8d be 58 33 51 3f 9b 26 65 be c2 d9 ad 3f
       -0.27622402 0.8171897 -0.22378008 1.358208

weight_ih_l0 f4 [192, 17]
000000 15 0f 4a bd 3b b8 81 bd 47 69 93 3e ad ae d9 3c
       -0.04933079 -0.06333967 0.28791258 0.02657255
000010 1e 5c 4c 3e 90 a3 13 3e c7 d9 e2 3d cd 47 37 be
       0.19957015 0.14417863 0.11076694 -0.17898484
000020 67 7b 0a 3d 0b d6 b4 3c cc e5 94 bd 99 c1 3d bd
       0.033809092 0.02207472 -0.07270393 -0.046327207
000030 94 4c 03 be 2f 78 af 3c 58 ed 92 3d 61 1f 70 3d
       -0.12822181 0.021419613 0.07174176 0.058623675
000040 9f 37 e1 3d 75 28 56 bc 79 cd db bc dd 4a b7 3d
       0.10996937 -0.013071169 -0.026831375 0.08949826
000050 0d c1 2f be 23 a2 0f 3e 3d 24 c7 3d 5b 1f e4 3c
       -0.17163487 0.14026694 0.09723709 0.027846983
000060 30 81 f7 bd bc a6 38 3e b0 71 21 3e 37 0a 73 3e
       -0.120851874 0.18032354 0.15766025 0.23734365
000070 54 5f fd bc 8d 57 de 3c ec e3 e5 bc 45 f1 01 be
       -0.030929245 0.027141357 -0.028062783 -0.12689693
000080 cc 51 02 3e 43 a8 9a 3c 6c c3 54 bb 0f d6 69 bb
       0.12726516 0.018879062 -0.0032465113 -0.0035680567
000090 ac 14 b0 bc a0 da e1 bd ac a1 2f 3e fb d1 f4 3d
       -0.021494232 -0.110280275 0.17151517 0.11954113
0000a0 78 59 34 be 10 04 42 3d 82 cb d9 bd 4c 92 38 3e
       -0.17612255 0.047367156 -0.10634519 0.18024558
0000b0 bf 65 00 be 47 6e bc 3c 90 a2 c7 bc a5 0d 48 3e
       -0.12538813 0.023001803 -0.024369508 0.19536455
0000c0 cb 54 c1 bc 85 8d 89 3d bd 08 95 be f8 ef 14 be
       -0.023600003 0.06716446 -0.2910823 -0.14544666
0000d0 32 75 47 3d ee 16 b9 3d 29 a7 ed bc c2 87 bb 3d
       0.04869575 0.090375766 -0.029010372 0.09156753
0000e0 dd 15 94 3d 76 b1 33 3d de f8 b2 3d a9 6b d5 3d
       0.072307326 0.04387041 0.08738874 0.10420925
0000f0 da 0b 95 3d dc 47 3c 3e c9 0b 37 3d 61 25 14 3e
       0.07277651 0.18386787 0.044688974 0.14467384
000100 8a 19 31 3e c2 3e 02 be 23 b3 75 3c d9 08 9a bc
       0.17294899 -0.12719253 0.014996323 -0.018803047
000110 75 0e b9 bc 74 59 c1 3d 71 d8 a7 bd af 6d f7 3c
       -0.022589901 0.0944089 -0.0819558 0.030203668
000120 16 92 b5 3d f9 c0 92 3d e9 d9 0e bd c1 fd a1 3d
       0.08865754 0.07165713 -0.034875784 0.07909728
000130 ca ea a4 bd 71 e6 99 bb 50 fa c9 3b 19 db 88 3d
       -0.08052595 -0.00469666 0.006163873 0.066824146
000140 77 2e 09 3e 11 d9 8f bc c6 cf 20 3e 94 4a 90 3d
       0.13396631 -0.01755956 0.1570426 0.07045475
000150 46 22 4a bd 26 c5 b0 3d f7 8b 07 be 0f 7c 15 be
       -0.049349092 0.08631353 -0.13236986 -0.14598106
000160 5c 1f 32 3e 9a 5b 9f be 9f ad 42 be 2c 25 92 bd
       0.17394775 -0.31124574 -0.19011544 -0.07135996
000170 ab 53 b9 bc 0d 4d 22 bb cf b2 9b be 3d 0e ae be
       -0.022622904 -0.0024765164 -0.30409858 -0.33995238
000180 21 a6 4d be 33 46 55 be d6 dc a8 bd 0d 29 bf bc
       -0.20082904 -0.2082756 -0.08245246 -0.023335004
000190 1a 35 a2 be 22 6c 19 be 76 f2 b6 3e cc 1d 13 3d
       -0.31681138 -0.14982656 0.35731858 0.03591709
0001a0 a6 b2 7b 3d 3a 7d ba bd d3 87 f0 3d 3c 5c 79 3e
       0.06144967 -0.09105916 0.117446564 0.24351591
0001b0 6c 4a f2 3d d3 34 ab bd 55 85 78 bd 33 01 95 3c
       0.11830601 -0.08359685 -0.06067403 0.018189048
0001c0 a3 3c c4 bc ec 9d 10 bc 02 f1 1e be 2f 6c 41 3e
       -0.023954695 -0.008826714 -0.15521625 0.18888925
0001d0 d2 54 8f bd 45 a8 cf bd 98 85 f3 bd fa b7 00 be
       -0.069986 -0.10139517 -0.11890715 -0.12570181
0001e0 4e e5 47 3e a5 9f 55 3e bf 53 52 3d 7c ca 08 3e
       0.19521067 0.20861681 0.051349398 0.13358492
0001f0 be dd 68 3d ff 4c 4a bc a9 ec 91 bd c3 c4 b1 bd
       0.056852095 -0.012347459 -0.071252175 -0.086801074
000200 7f 07 17 be 13 b2 55 be 6f 82 08 be ad 65 41 3e
       -0.14748953 -0.20868711 -0.13331006 0.18886442
000210 30 d8 ce bc 13 25 ef 3d ba 18 49 3d f2 7e 0b 3d
       -0.02524957 0.11676993 0.049095847 0.03405661
000220 36 ca 8b 3b ad ed 6d 3e 09 c0 e0 3d c1 1b 28 3e
       0.004266049 0.23235197 0.10974128 0.16416837
000230 f9 19 89 bd bf b5 00 3e 35 7f 26 3e 72 28 11 bd
       -0.06694407 0.1256933 0.16259463 -0.035438962
000240 51 1f d9 3c 3f 36 33 be 1b f5 c7 bd 36 82 db 3d
       0.02650419 -0.17501162 -0.09763547 0.10718195
000250 44 1b 4c 3c b5 46 c4 3d 7f 3a d4 bd b1 2a c0 3d
       0.0124576725 0.09583799 -0.1036272 0.09383143
000260 49 53 ca 3d 07 58 59 3e ba 66 80 bd 4c 06 2c 3d
       0.09879167 0.21224986 -0.062695935 0.041998193
000270 cc 43 78 bd a1 b0 23 3d fb 83 b5 3d f8 c2 f6 bd
       -0.06061153 0.03996337 0.08863064 -0.12048906
000280 87 e5 c9 3d da ec 8f bd 01 3c 64 3d bc 85 8b bd
       0.09858232 -0.07027598 0.055721287 -0.06812617
000290 26 2f 43 3c 3a 50 27 bb 08 15 a8 3d 24 0e db bc
       0.0119130965 -0.0025529996 0.082071364 -0.026740141
0002a0 df 9e 8d bd 1b f7 04 be 2a 95 02 3e a2 1b b1 3e
       -0.06915068 -0.12984888 0.12752214 0.34591395
0002b0 25 37 b0 bd ef 4c 84 3e c1 9e 87 bc 02 4b 58 bd
       -0.08604268 0.25839946 -0.016555192 -0.052805908
0002c0 86 29 b7 3d ed 29 03 bd 21 96 4b 3d 8c ff 97 3d
       0.08943467 -0.032022405 0.04970372 0.074217886
0002d0 c6 72 79 3e e3 d8 0b bc 0d f1 05 3d af 50 20 3e
       0.24360189 -0.008535597 0.032700587 0.15655778
0002e0 8d 37 94 3d 56 31 c3 bd 5c f3 18 be aa a9 60 3d
       0.07237158 -0.095308945 -0.14936584 0.054849304
0002f0 8f e4 88 3c 3b 33 97 3d d2 ef ed bc 46 07 06 bc
       0.016710548 0.07382818 -0.02904502 -0.008180445
000300 63 b9 a1 bd 2f 19 22 3d 34 05 46 bc 48 82 04 3b
       -0.07896688 0.0395748 -0.012086201 0.0020219255
000310 1f 85 59 be e5 9a 87 3d 87 52 13 3e 92 ba 2c bd
       -0.21242188 0.06621341 0.1438695 -0.042170115
000320 f3 38 c4 bd 65 2b e5 3c c3 88 73 be c2 2e 78 bd
       -0.09581175 0.027974794 -0.23782639 -0.060591467
000330 6a ba 8b 3e 95 82 32 3e 7f 43 04 3c 20 9f 41 3e
       0.2729066 0.17432626 0.008072733 0.18908358
000340 75 c9 64 3c e8 4a 75 3d 6a 3a 0d 3d b9 3d 1a bd
       0.013964047 0.05988589 0.034479536 -0.03765652
000350 33 f9 68 be 8a 0a 27 be 90 7f 16 be 48 c8 5c 3d
       -0.22751312 -0.16312614 -0.14697099 0.05390194
000360 bf 9f d9 3b d0 b3 28 3e 84 dd b9 bd 95 a6 13 3d
       0.0066413577 0.16474843 -0.09075454 0.036047537
000370 7f 5b 9a be 11 3a c9 3d b4 85 c9 3c d7 30 6b bd
       -0.3014793 0.098255284 0.024599887 -0.057419624
000380 8e 47 82 3d 56 55 f3 3b 47 a2 70 3d 3a a2 f9 3d
       0.06361304 0.0074259443 0.05874851 0.121891454
000390 7a 57 be 3c 0d ee f7 3d af ee 51 bd 28 e1 0e bd
       0.023235071 0.121059515 -0.051253017 -0.034882694
0003a0 35 64 cb bb bf 84 94 bd 60 2d b6 3d 1d bf 35 bd
       -0.006207014 -0.07251882 0.08895373 -0.044371713
0003b0 a8 cd 6e bd 64 ff 78 bd 7e 31 aa 3d 8e 49 16 3d
       -0.058301598 -0.060790434 0.08310221 0.03669124
0003c0 2e c7 20 3d 23 a4 13 3e 8d ca 20 3d 7e 75 2a bd
       0.039252453 0.14418082 0.039255667 -0.041615956
0003d0 a0 8b 00 be 5c a0 af bc d5 74 23 bd 3c b3 9a be
       -0.12553263 -0.02143877 -0.03990634 -0.3021487
0003e0 d0 ab 94 be 9b 46 e8 3d 44 8e 6d 3e 82 0a f7 3d
       -0.29037333 0.11341592 0.23198801 0.12062551
0003f0 de 72 2f 3e 42 47 b4 3d 0a ed a6 3c fe 02 57 3e
       0.17133662 0.08802654 0.0203767 0.20997235

weight_hh_l0 f4 [192, 64]
000000 a8 25 1f bd b6 25 b1 3d 07 de 91 bd 1b eb 69 3e
       -0.03885427 0.08649771 -0.071224265 0.22843592
000010 6e 8d cb 3d c3 2e 97 bd 76 d1 e4 bd 40 7f be bd
       0.09939085 -0.07381966 -0.11172764 -0.09301615
000020 ff c3 ed bd c3 85 3b 3e f9 40 10 3d 5a 06 e3 bd
       -0.11609649 0.18312745 0.035218213 -0.11085196
000030 da fb 47 bc 52 7f 07 3d 10 f4 ab 3d e7 92 e4 bb
       -0.012206042 0.033080406 0.083961606 -0.00697552
000040 82 ca 06 3e fc e8 aa bd 4f e6 32 3d 83 fe 2c bd
       0.13163188 -0.083452195 0.04367667 -0.04223491
000050 1f d7 32 be 91 d1 42 3d 96 c4 54 be 6b b2 b3 bd
       -0.17464875 0.04756314 -0.20778117 -0.08774265
000060 e7 d7 a8 bc 81 01 6d 3d 99 95 61 be 12 dd 22 be
       -0.020610763 0.057862762 -0.22029723 -0.15904644
000070 ca 42 0c 3e 61 01 d9 3d 18 e6 8e 3d ce 0d 45 be
       0.13697353 0.10595966 0.06977481 -0.19243547
000080 f7 3f 17 bd a0 7b af bc 93 d2 9c bb 80 1c 00 be
       -0.036926236 -0.021421254 -0.0047858446 -0.12510872
000090 25 19 64 3e 0b 4c ab bd 09 36 54 3e 8b d1 5f be
       0.22275217 -0.083641134 0.20723738 -0.21857278
0000a0 0f ec 86 be c9 f8 04 bd e3 ca 33 be da 56 82 3b
       -0.26351973 -0.032463823 -0.17557864 0.0039776387
0000b0 c9 a3 5a 3d b8 56 70 bc 90 8d c4 bd 4b e3 58 bd
       0.053378854 -0.014669113 -0.095973134 -0.05295114
0000c0 e5 74 0d 3d fb 26 f1 3d 28 d2 0a 3e 4e 09 9b bc
       0.034535307 0.11775013 0.13556731 -0.018925335
0000d0 42 d9 17 bd 81 c8 ea 3c ef b2 14 bc b6 33 37 3e
       -0.037072428 0.02866006 -0.009075864 0.1789082
0000e0 fd 50 77 bc 66 5e fb 3d 61 07 8d bb ee a5 3b bd
       -0.015094993 0.122738644 -0.004303858 -0.04581254
0000f0 f4 36 df bd 72 6b 1c be 50 33 db bd a3 77 d9 3d
       -0.10899153 -0.15275362 -0.107031465 0.10618522
000100 36 7f 6c bd 41 33 7d bd 9b 33 ea 3d 96 aa 33 3e
       -0.057738505 -0.061816458 0.11435624 0.17545542
000110 e9 fd af bd 7c c4 1a 3d 93 20 a8 bd 3c 7c 8d bd
       -0.085933514 0.03778504 -0.08209338 -0.069084615
000120 31 d9 80 bc 39 bb c7 3d 38 22 5b 3c 4a 56 40 be
       -0.015728565 0.09752507 0.013374858 -0.18782917
000130 e9 95 fc bd c1 b0 b1 3d 8b 7e ec bb f8 89 11 3e
       -0.123332806 0.08676291 -0.0072172335 0.14212787
000140 4f 3a 3d be 61 1a 11 be d7 0e 72 bd 7b 94 54 3e
       -0.18479274 -0.14170219 -0.059096184 0.20759766
000150 f1 a1 1a be 38 38 a2 bd 6b bc bc bb 6b 08 d7 3a
       -0.15100838 -0.07920879 -0.005759766 0.0016405707
000160 21 54 3c bd 21 71 00 3e 4d f6 86 3d 22 aa 64 bc
       -0.04597867 0.12543155 0.06589947 -0.013956578
000170 74 a8 22 3d 83 41 38 3d 08 fc 11 3e 9d 2f 88 3c
       0.03971143 0.04498435 0.14256299 0.016624266
000180 01 0d 3a 3e 8a 2d 52 be ae 2c b2 ba 6e 25 10 3d
       0.18169023 -0.20525184 -0.0013593638 0.035191946
000190 f8 0c 63 3e 3e ab 17 bd f9 51 a3 3d bc 4c c0 3c
       0.22172916 -0.037028544 0.079746194 0.02347409
0001a0 b2 4a a5 3c 0d 32 7a bc 74 25 54 3d d1 7f be 3d
       0.020177219 -0.015270722 0.05179353 0.09301723
0001b0 37 28 0a 3e af e4 ba 3d 2e f8 18 3d 61 c1 99 3d
       0.13491903 0.09125649 0.037346058 0.07507587
0001c0 15 42 25 3d f8 13 ef bc cd 32 05 3d 0e c7 94 3d
       0.040346224 -0.029184327 0.03251915 0.07264529
0001d0 25 49 f0 bc 77 d3 70 3e 77 0b 21 be d1 c1 05 3e
       -0.029331753 0.23518167 -0.1572703 0.13062216
0001e0 6c ef 3d 3d 4e 81 43 3e 54 52 ab bd f4 fa 6b be
       0.04637091 0.19092295 -0.08365312 -0.2304495
0001f0 d9 fb 5c bd fd c5 d7 bd 6b eb 47 be 64 c1 8e 3e
       -0.05395112 -0.1053581 -0.19523399 0.2788192
000200 6e fb 6a 3e 5f d6 88 3e 95 35 26 be a9 dc 36 3e
       0.22947475 0.26726052 -0.16231377 0.17857613
000210 9c 8c 20 3e f9 de 17 bd ee 98 98 3b 36 e2 7e be
       0.15678638 -0.037077878 0.0046569025 -0.2489098
000220 91 ac 59 be fb e1 70 3c c9 24 40 3e 38 b9 09 be
       -0.21257235 0.014702315 0.18764032 -0.13449562
000230 58 62 87 bd e4 e0 a6 bd 93 88 46 be bf fa 48 be
       -0.066105545 -0.08148363 -0.19388036 -0.19626902
000240 8f 44 02 3d 33 0a 94 3e f8 d7 6d be 91 17 3a 3e
       0.031803664 0.2891403 -0.23226917 0.18173052
000250 e4 b0 6b be ff ef 0a 3e 07 14 93 bd 0c 2f 6d be
       -0.23016697 0.13568114 -0.07181554 -0.23162478
000260 dd f3 df bd 1c 94 5d 3e ed fc 89 bd 18 ed 8e bd
       -0.10935185 0.2163853 -0.06737695 -0.06978816
000270 b1 11 1b 3e 3f ed 89 be b1 5c 32 3e c4 2f 7f be
       0.15143467 -0.26938817 0.17418171 -0.24920565
000280 b2 ab 7b bd 56 6e 92 be 70 0c ac bd d8 b5 70 be
       -0.06144304 -0.28599805 -0.0840081 -0.23506868
000290 3b 4e 7e 3e e8 65 21 be 4f ba cd 3d 8b d0 71 be
       0.2483453 -0.1576153 0.10045301 -0.23614709
0002a0 3e 92 04 bc fb 25 30 3d 7c 30 3d 3d 59 98 7a bc
       -0.0080915075 0.04300497 0.046188816 -0.015295112
0002b0 18 db 18 3e a4 83 30 be 33 9f 45 3d ab 53 7e 3e
       0.14927328 -0.17237717 0.048247527 0.24836604
0002c0 48 25 2f be 9f 83 48 3e 83 eb 69 3e 2d 66 95 be
       -0.17104065 0.1958146 0.22843747 -0.29179516
0002d0 47 3a f6 3c 7f 49 8f ba 03 64 39 3e 62 50 6a 3d
       0.030057086 -0.0010931938 0.18104558 0.057205565
0002e0 8b 86 b9 be 72 e0 48 bd a8 77 02 be 8d 52 46 be
       -0.3623546 -0.049042173 -0.12740958 -0.19367428
0002f0 09 3e 07 be aa c1 c9 3e 6f c1 a9 bd 2b 79 20 3d
       -0.13207258 0.39405566 -0.08288848 0.039178055
000300 5a 37 da bd fc d2 58 be 05 06 b3 bd b5 d7 5f be
       -0.10655089 -0.21174234 -0.087413825 -0.2185963
000310 50 7b 9a bd a2 b0 9e 3e 1a d9 10 3e 6d 6e ab 3e
       -0.07543051 0.30994135 0.14145318 0.33482686
000320 cf 0c b5 3e 2c b1 15 3e 25 cd da 3c c7 70 8c bc
       0.35361335 0.14618367 0.026709149 -0.01714362
000330 46 f0 a5 3d 26 74 9d bd e2 63 1b bd 9c d5 10 bc
       0.08102469 -0.07688169 -0.037937053 -0.008839991
000340 2a 42 83 3e e7 bb 70 3d a5 91 82 3d 4f 9c 90 3d
       0.25636417 0.058772948 0.06375436 0.070610635
000350 a9 80 c0 3e ab 40 21 be ac 71 87 3e fb 26 ba 3e
       0.3759816 -0.15747325 0.26453912 0.36357865
000360 c2 4c 1e be 06 cd 81 bd 60 11 4b 3e 05 2f f7 3d
       -0.15458968 -0.06337933 0.19830847 0.12069515
000370 5c 44 68 bd c8 32 d7 bc c2 26 68 bd e7 07 0d 3e
       -0.056705818 -0.026269332 -0.056677587 0.13772546
000380 0e b6 72 3e 9a 75 a2 3d 5c 43 82 bd 00 1c ee 3c
       0.23702261 0.07932587 -0.06360504 0.029066086
000390 7f db 19 bd f5 05 c8 3e fd df 10 be f4 7f 8d 3d
       -0.037562843 0.39067045 -0.14147945 0.06909171
0003a0 ff df 77 3e 71 a1 da bc f5 27 84 bd b0 18 86 3b
       0.24206541 -0.02668831 -0.06452934 0.0040922984
0003b0 a0 01 3c be c1 a9 94 be fa 1d 6b 3e f6 cd 66 bc
       -0.18359995 -0.29035762 0.22960654 -0.014087191
0003c0 dd 44 e9 3d 88 0d c4 be b8 05 f6 bd 3c 68 87 3d
       0.11390088 -0.38291574 -0.120128095 0.06611678
0003d0 f3 e1 0a be 05 11 6f 3c 8c 7c d3 bd 27 97 47 3b
       -0.13562755 0.01459146 -0.1032649 0.0030455084
0003e0 55 ec 12 3e 07 4b b2 be 63 4e 0b 3d 97 ab d4 3d
       0.14347966 -0.34822866 0.034010302 0.10384291
0003f0 18 f8 33 3e 2a 11 25 bc 77 17 a2 3d c8 ba 25 be
       0.17575109 -0.010074893 0.07914632 -0.16184533

bias_ih_l0 f4 [192]
000000 33 b3 58 3d 8f 71 2a bd 75 80 6a 3e c2 ec 8f bb
       0.052905273 -0.041612204 0.22900565 -0.0043922374
000010 2f ca c1 bd ef d7 9d bd 9c 69 6c 3e 69 64 39 bd
       -0.094623916 -0.07707202 0.23087162 -0.045261774
000020 be 58 36 bc c6 55 8b 3e 80 2e 42 bc 26 b0 93 bd
       -0.011129556 0.27213877 -0.011851907 -0.07211332
000030 5d e2 af 3d 60 d4 4c bd ab c8 de 3d 78 13 f5 3d
       0.08588097 -0.050007224 0.10878118 0.11966604
000040 be 3e 88 3e 3e 1e f9 bc 99 64 b0 bd c7 ef be 3d
       0.26610368 -0.030409928 -0.086129375 0.09323078
000050 50 b1 08 3e 00 c4 da 3d bf e7 a0 3d 6e 3f da bc
       0.1334889 0.10681915 0.07856702 -0.026641574
000060 20 cf 51 3d 26 46 fc 3d d0 ee d6 3d e5 8e 6d 3d
       0.05122292 0.12318067 0.104947686 0.057997603
000070 40 b2 7a bd ee 3d 6e 3d 4f b3 af bd 28 17 76 bd
       -0.06120515 0.05816453 -0.08579122 -0.060080677
000080 4c c5 0c 3e 73 06 d7 bd 39 87 13 be 9e c8 b3 3d
       0.13747138 -0.10499277 -0.14407052 0.08778499
000090 73 61 5c bd a5 85 3d 3d d9 8b 57 3d c6 46 ef bd
       -0.053803872 0.04627003 0.052623603 -0.11683421
0000a0 0d 8f 2a bd d7 e2 0c 3e 23 b5 0c 3e cf e4 85 bd
       -0.04164033 0.13758408 0.13740973 -0.065377824
0000b0 e3 57 7f bd df e1 3a 3e 3c 99 9e bd c9 02 0f be
       -0.062339675 0.18250225 -0.07744071 -0.13965906
0000c0 9a 9e 6a 3e 5d 44 90 3c 4f 14 2d 3e e8 e1 10 be
       0.22912064 0.017610723 0.16902278 -0.14148676
0000d0 5c 29 ba bd c5 4f d3 bc ac 1d 9d 3d 36 58 01 be
       -0.0908992 -0.025794873 0.07671675 -0.12631306
0000e0 af fc a5 3d 86 c1 26 3e be d9 fe 3d 22 c7 99 bd
       0.08104836 0.16284761 0.12443875 -0.07508685
0000f0 c3 65 27 bc 0b 55 05 3e 53 a6 9e 3d 5d 79 f9 3c
       -0.010217133 0.13020723 0.077465676 0.030453378
000100 84 18 5e be 9e 98 d0 bd 02 f7 1d be 65 de 01 bd
       -0.2168904 -0.101853594 -0.15426257 -0.031706233
000110 39 5e 38 3d c2 ae 43 bd 71 ec 28 be 34 07 07 3d
       0.045011733 -0.047774084 -0.16496445 0.032965854
000120 5c db 04 be e7 50 97 be 58 e0 2b bd 53 ac b5 bc
       -0.12974304 -0.2955391 -0.041961998 -0.022176897
000130 e1 ec 11 be bd 0b 8b 3d 6c 7c d8 bc 21 0c 13 be
       -0.14250518 0.06789348 -0.026426516 -0.14360096
000140 ea cb 0a be e4 64 31 3e 81 d8 89 bc 0f 38 5c 3d
       -0.1355435 0.17323643 -0.01682687 0.0537644
000150 ee ce 23 bb 19 f2 5c b8 d7 55 00 3e e0 8e ff bd
       -0.0024995166 -5.267756e-05 0.12532745 -0.12478423
000160 16 ad 57 be 2d e9 a7 bd 3b 9c 16 bd b5 86 05 be
       -0.21062121 -0.081987716 -0.036770087 -0.13039668
000170 c7 34 83 3d 27 91 a4 bd 08 8c a1 bd e2 0a 2c bd
       0.06406551 -0.08035498 -0.07888037 -0.042002566
000180 09 8a 79 bd 98 d2 c6 bd a2 b9 d8 bc 2c 9c d0 bd
       -0.060922656 -0.09708136 -0.026455704 -0.101860374
000190 7b a7 26 3e 1c 1d 03 3e 17 99 9f 3a 8f 74 b1 3c
       0.16274826 0.12804073 0.0012176362 0.021662025
0001a0 9e 27 14 be e3 05 91 bd ad 5d 3f be 33 1c 2b bd
       -0.14468238 -0.07081201 -0.18688078 -0.04177494
0001b0 a8 41 a3 bc d8 44 7b be 5e da 35 3c 9e bb e4 3d
       -0.019928768 -0.2453798 0.011099426 0.11168598
0001c0 38 a4 49 be 8a ca 2e 3c cb 3a e9 bd 86 9f d0 bd
       -0.1969155 0.010668406 -0.11388167 -0.10186677
0001d0 db 8a b5 3d 7c 73 cd bc 39 84 c3 bd a1 75 58 bd
       0.08864375 -0.025079481 -0.09546704 -0.052846555
0001e0 69 0d 28 be 2e 61 65 3b a0 e3 98 3d 73 91 a1 3d
       -0.16411366 0.003500055 0.07465291 0.0788907
0001f0 e3 58 6f 3d d1 70 92 bd b5 cb ea 3d e3 ea 56 3e
       0.05843438 -0.07150424 0.11464635 0.2098804
000200 33 e4 b3 bd 9a 31 b7 bd af 77 df bd dd 94 06 3d
       -0.0878376 -0.089450076 -0.109115 0.03285681
000210 8e 91 8d bd bf f5 cc 3d dc a5 a6 3d 37 de 09 3e
       -0.06912528 0.1000781 0.08137104 0.13463674
000220 46 41 3a 3c a8 ac 26 3e 2d 34 93 3d 6e 4b 7b bd
       0.011368101 0.162768 0.07187686 -0.061351232
000230 4a 19 85 3d 3b 2b 5f 3d 6b 79 e6 bd f5 b0 ff bd
       0.06498964 0.054484587 -0.112536274 -0.12484924
000240 25 f2 1b 3e 3c 75 d6 3d 4d 80 c9 3d 6b 50 51 3d
       0.1522909 0.104715794 0.098389246 0.051102083
000250 fc c9 4d 3e 68 a3 b4 bd e6 de 52 3e 20 9e 00 3e
       0.20096582 -0.0882023 0.20592842 0.1256032
000260 0c 4a e9 bd ab fb 03 3d 08 c5 13 3e 5e be 45 bd
       -0.113910764 0.03222243 0.1443063 -0.04827725
000270 74 0c be bc b4 d3 68 3c 6b 00 37 bd a5 c0 8d bd
       -0.023199297 0.01421063 -0.044678133 -0.0692151
000280 16 61 f6 3d a9 fd 8d bd 9b d2 0d bd 39 1b 71 bd
       0.120302364 -0.069331475 -0.034624677 -0.058863852
000290 f1 24 19 be 45 0a 46 3e 09 86 0f 3d d8 5d 6e bd
       -0.14955498 0.19339855 0.035039935 -0.058194965
0002a0 85 3a f7 bc d4 a8 28 bd 56 f0 3f 3d a3 1d 90 3d
       -0.030179271 -0.041176632 0.04686006 0.07036903
0002b0 e1 fc be bd a5 94 4f be 96 83 78 3d ea b1 e5 3d
       -0.093255766 -0.20271547 0.060672365 0.11215575
0002c0 c9 b2 cb bd 4d 24 15 be c4 30 81 3d 2d 9f 5f bd
       -0.0994621 -0.14564629 0.063081294 -0.05459516
0002d0 0c 56 17 3d 3a 26 0e 3e 31 9b 69 3d fc 1f 50 bc
       0.036947295 0.1388177 0.057032768 -0.012702938
0002e0 04 b3 0a be 75 bb 21 be 94 20 49 3d c3 5c 33 3e
       -0.13544852 -0.15794165 0.049103335 0.17515855
0002f0 dc b7 65 bd 8f 23 d0 3d 43 5b 02 bd 10 6c c8 bd
       -0.056083545 0.10163032 -0.031825315 -0.09786236

bias_hh_l0 f4 [192]
000000 c7 cb 5d 3d 95 48 7d bc 06 e9 d2 3d ea bb 89 bd
       0.054149415 -0.015459199 0.10298352 -0.06725295
000010 33 c5 9a 3d af 34 67 3d ee 36 8d 3e d6 06 29 bd
       0.07557144 0.056446727 0.2758097 -0.041266285
000020 36 2e 3a bd 0e 36 03 3e fa 42 01 be bc 3e 79 bd
       -0.045454226 0.12813589 -0.12623206 -0.060850844
000030 28 4b 80 bc ab 65 37 3d ff 81 e0 bd 4e 6d db 3d
       -0.015660837 0.044774693 -0.10962295 0.107142076
000040 b3 c2 0d 3e 6e 3f 6d 3d 60 15 cf bc 71 d5 be 3d
       0.13843803 0.05792182 -0.025278747 0.093180545
000050 28 d0 70 3d a6 4f a1 bd 99 ab 95 bc bb 2d 2e 3e
       0.058792263 -0.0787652 -0.0182703 0.17009632
000060 73 61 47 3e b8 45 99 3d 8f 01 a8 bd 25 ba e0 bc
       0.19470768 0.07484001 -0.08203422 -0.02743251
000070 41 55 16 3d 52 d1 f1 3d 35 64 09 3e e6 e4 d7 bd
       0.0367024 0.11807503 0.13417132 -0.10541706
000080 80 a7 f3 bb 10 84 ac bc b3 b0 a1 bd 6d 9a 3d 3d
       -0.007435739 -0.021059066 -0.07895031 0.04628985
000090 e3 54 67 3d 8f 09 de 3d 20 d6 ae bd 8f 52 0b be
       0.05647744 0.10841667 -0.08536935 -0.13605712
0000a0 f2 4e b3 bc 14 13 21 bd 0d c8 b9 3d df da c4 bd
       -0.02188823 -0.039324835 0.0907136 -0.09612059
0000b0 b4 24 81 bc 32 ec a5 3e 62 8b f8 3d 3d 91 38 3d
       -0.015764572 0.32406765 0.1213596 0.045060385
0000c0 9a 11 44 3e c4 ac 81 bc 58 11 19 3e e2 c1 0c be
       0.1914734 -0.015829451 0.14948022 -0.13745835
0000d0 d6 d4 a9 bd 22 54 c5 bd 5a f1 54 3d e2 d4 57 bd
       -0.08292548 -0.09635188 0.051987983 -0.052693255
0000e0 08 34 c6 bc 75 d7 0b 3e 42 ed 0b 3d f4 7f cd bb
       -0.024194732 0.13656409 0.034161814 -0.0062713567
0000f0 22 b6 4a bd 13 9d 16 3e e3 9f 94 3d 95 19 2e 3e
       -0.0494901 0.14708357 0.072570585 0.17001946
000100 7e ba 3e be 70 42 69 bc 4d 3f a4 bd 99 22 86 3d
       -0.18625829 -0.014237031 -0.08019886 0.06549568
000110 ad 5c b8 3d e6 c7 da bd b4 5d c4 3b 4a c8 84 3d
       0.090020515 -0.10682659 0.0059926156 0.064835146
000120 5e a2 0c be 8c de 42 be 75 87 f2 bc 59 35 00 3e
       -0.13733813 -0.19030207 -0.029605607 0.1252035
000130 3a 55 da bd 6d d6 f3 3c f2 fc e9 bd 27 cf cd 3b
       -0.10660787 0.029765332 -0.114251986 0.006280798
000140 a4 10 26 be 6c cb 36 3d 17 a4 33 3d 16 e1 06 3e
       -0.16217285 0.044627592 0.04385766 0.13171801
000150 bd 17 02 be 97 61 46 be 75 b4 db bd 30 11 13 be
       -0.12704368 -0.19373165 -0.10727779 -0.14362025
000160 12 ac 73 bd 72 dd 1e be ff ca b7 3d dd d1 df 3d
       -0.05949027 -0.15514162 0.08974265 0.109287
000170 96 97 29 bd a2 f9 bd 3b e2 92 b6 3b b8 ef 4d bd
       -0.04140433 0.005797581 0.005571709 -0.05027744
000180 3b 15 41 bd 23 a5 bb 3d 4c bf e3 3a 10 de 1e be
       -0.047139388 0.09162357 0.0017375736 -0.15514398
000190 e9 8f 08 3e ef f7 10 3e 68 6c 61 3d 79 08 f0 bc
       0.13336147 0.14157079 0.055035025 -0.029300915
0001a0 83 3b a7 bd 84 4f f5 bc 86 5b 5e be 75 04 0e 3d
       -0.08165648 -0.029945143 -0.21714601 0.03467222
0001b0 bd 57 d7 bd 4b 93 4e be 60 cc 66 bb fb d8 d1 3d
       -0.105147816 -0.20173375 -0.0035217032 0.10246464
0001c0 4a eb cd bd 80 02 b9 bd 25 43 8e bd 32 34 e8 bd
       -0.100546435 -0.0903368 -0.069464006 -0.113380805
0001d0 3b fb cc 3d a3 80 1f be 5a 45 4b be 94 7b b8 bd
       0.10008856 -0.15576415 -0.19850674 -0.09007946
0001e0 33 4f 4b be 0d bd 85 bd 43 f6 59 3d c5 30 b6 3d
       -0.19854431 -0.06530199 0.05321337 0.08896021
0001f0 d6 9a 99 bd 87 1a 4b 3d 4f 7c cf 3d 82 80 5c 3e
       -0.07500236 0.049585845 0.10131132 0.21533397
000200 dc e6 0f bc 4f 6e b0 3c 70 d0 51 be 75 0c 01 be
       -0.0087830685 0.021536974 -0.20489669 -0.12602408
000210 8b 0b ad bd e9 18 fe 3b 5c d7 c4 3d c5 58 3d 3e
       -0.08449467 0.0077544344 0.09611389 0.18490894
000220 5d f5 3f 3d 95 cb 52 3e df 39 52 bb 7a d9 cb bd
       0.046864856 0.20585473 -0.003207795 -0.0995359
000230 e5 71 d9 3c 39 cc a6 bc 9c 44 8b bc 84 b5 c0 3d
       0.026543567 -0.020361053 -0.017000489 0.09409621
000240 82 9a 9a 3c 39 66 08 3d 89 83 39 bd 38 92 be 3d
       0.018872503 0.033300612 -0.045291457 0.09305233
000250 6f e2 fe 3c 14 a6 93 be 8b 77 7e 3c 80 6c 44 3e
       0.031113831 -0.28837645 0.015531431 0.19182014
000260 a5 8e 87 bd 78 cc 35 3d a0 31 a8 3d 26 df d4 3d
       -0.06619004 0.04438445 0.0821259 0.10394125
000270 e3 ce 87 3c cb 8d 95 bd b4 d0 ec bb e6 5a 87 3d
       0.016578143 -0.073024355 -0.007227028 0.066091344
000280 74 2d 96 3e dd eb ce bd 73 9c 04 be 77 07 15 3a
       0.29331553 -0.10103581 -0.12950306 0.0005685011
000290 7c 42 ff 3c 73 bd 3d 3e 66 ec 79 bd 56 8a d8 bc
       0.031159632 0.185293 -0.061016463 -0.026433151
0002a0 7c ff 83 3d b0 05 bf 3d fc 46 30 3e 11 67 a5 bd
       0.06445214 0.09327257 0.17214578 -0.08076299
0002b0 17 fc 1b be b3 8b 99 bd a1 2e 66 3d 3a 1c 98 3d
       -0.15232883 -0.07497349 0.056196813 0.07427259
0002c0 56 0c 61 bd 7a 39 ab bd 85 38 1f 3e 98 e7 9b bb
       -0.054943405 -0.08360572 0.15548904 -0.0047578327
0002d0 33 9b 01 bd 46 2c 46 3e 59 75 19 be ff e3 d9 3d
       -0.03164215 0.19352826 -0.14986171 0.1063919
0002e0 95 1c a1 bd f1 88 0d be f1 1e a0 bd 26 b8 05 3e
       -0.0786678 -0.1382177 -0.078184016 0.13058528
0002f0 a4 ea b5 ba 5b de f6 3d cf 73 b7 3d 82 83 d3 bd
       -0.0013879132 0.1205413 0.089576356 -0.103278175

weight_ih_l1 f4 [192, 64]
000000 ac 6a 45 3e a0 85 b9 ba 54 25 1e 3e 43 0a ea 3d
       0.19278973 -0.0014154203 0.15443927 0.114277385
000010 e4 39 18 be 71 5b 64 be 1e c1 c1 ba 2a e9 8c be
       -0.14865834 -0.22300507 -0.0014782285 -0.2752164
000020 0c 71 82 bd b2 9e 08 bd 0a f6 a7 bc c6 68 24 be
       -0.06369218 -0.03335447 -0.020503063 -0.16055593
000030 86 0e 22 be 68 34 45 bd f3 fc a6 3d d1 2a ae 3c
       -0.15825853 -0.04814568 0.08153715 0.02126065
000040 9f ea ca 3c 30 a0 19 3d a9 00 4a bb 52 a7 6f bd
       0.02477008 0.037506282 -0.0030823147 -0.05850918
000050 bb 8c 3b bd 57 63 81 3e bb 98 a2 be 0d 96 08 be
       -0.045788508 0.25271103 -0.3175715 -0.1333849
000060 f2 67 16 3b 24 34 c9 3d ff 60 95 be b5 e1 74 bd
       0.002295014 0.09824398 -0.29175565 -0.059785563
000070 20 9c b6 3d a5 4c cc bc 35 3d ae 3d ce d7 4a be
       0.08916497 -0.02493889 0.08507768 -0.19808885
000080 59 b6 09 3d 8a b3 95 3c f4 c2 9e 3b 58 9b e3 bd
       0.033621166 0.018274087 0.0048450176 -0.11113614
000090 80 44 38 3e 17 c3 7f be b9 a4 61 3e 68 88 69 be
       0.1799488 -0.24976765 0.22035493 -0.22805941
0000a0 cd 18 0b bd bb 31 a6 3d 89 c5 e0 bb f1 13 3e bd
       -0.0339592 0.08114954 -0.0068594855 -0.046405736
0000b0 c8 c2 ac 3e 45 1b 1b bc ae bd c9 3d 08 e1 b9 3b
       0.33742356 -0.009466951 0.09850632 0.005672578
0000c0 0f 66 d2 bc 84 1c c5 3d f7 2a 89 3c 0e f1 fc 3d
       -0.025683431 0.096245795 0.01674412 0.12350665
0000d0 1c 82 aa bb 45 36 cb bb d9 ee 93 3d 12 00 60 3d
       -0.0052034985 -0.006201538 0.07223291 0.054687567
0000e0 d1 df f3 bd 2f 29 81 3e 3e 8c a2 3c 82 03 19 be
       -0.11907924 0.25226733 0.019842263 -0.14942744
0000f0 35 3b 53 be c4 27 bf 3b 96 7b 54 be 19 ee 18 3e
       -0.20628054 0.005833598 -0.2075027 0.14934577
000100 20 5f f1 bd 15 17 0e 3e cd e2 19 be 11 15 a0 bd
       -0.11785722 0.13875993 -0.15027924 -0.07816518
000110 5e ee ae 3d 41 5d 32 3e 1e 56 7a 3d ac 39 a1 bd
       0.08541559 0.17418386 0.061117284 -0.07872328
000120 9d 9e 38 3d 59 87 bf 3c f2 c7 8a bc 2e 93 2e bd
       0.04507314 0.023379968 -0.016941044 -0.04262083
000130 b9 2a e4 3d e5 51 3b bd fe 4c 13 3e 16 99 56 3e
       0.11140961 -0.045732398 0.14384839 0.20956835
000140 28 0b 01 3c df 26 f6 3d 2a fb 04 3e ba 1f a7 bd
       0.007876195 0.12019133 0.12986436 -0.08160348
000150 7f 3e 2f bd 0f 32 ca bd 59 fc b4 bb ae d7 89 3c
       -0.04278421 -0.09872829 -0.0055232462 0.016826477
000160 bf 6a 83 3d 15 bb 8d 3d 7c 02 47 3e 93 dd 47 3e
       0.064168446 0.06920449 0.19434541 0.19518118
000170 ae 0b cd bd 7f 27 38 3d 3a 93 a4 3d be c6 9c bd
       -0.10011993 0.04495954 0.08035894 -0.076550946
000180 d1 db e3 bc 14 96 7e 3d 81 79 95 3c 1b 59 22 3d
       -0.027814778 0.062154844 0.018246414 0.03963576
000190 82 8a 30 3e 33 a9 58 3d e4 8c ae bd 4d 40 5f 3d
       0.17240337 0.052895736 -0.085229665 0.05450468
0001a0 3c ad cf 3d 09 87 7c 3d 11 9f 78 bd 06 a8 81 bc
       0.10140464 0.061652217 -0.060698573 -0.01582719
0001b0 e9 63 bb bd ab 46 bb bd a6 70 c1 bc bc 5f 8b 3d
       -0.09149916 -0.09144338 -0.023613285 0.06805369
0001c0 a2 ac bd bd 00 18 2d be 32 bc 3b bd 35 36 04 3e
       -0.09261443 -0.16903687 -0.045833774 0.12911303
0001d0 f0 60 a3 bb 78 13 cc 3d e0 3a cb 3d 69 e0 84 bd
       -0.004985921 0.09964651 0.09923339 -0.06488115
0001e0 03 5c 84 bd ea 6f c6 3d 48 7d 64 bc 64 87 a1 3d
       -0.06462862 0.09689315 -0.013945885 0.07887152
0001f0 9c 66 43 3d b0 34 e5 bc e4 0f 67 be a2 2c 0b 3c
       0.047705278 -0.027979225 -0.22564656 0.008494528
000200 71 ca 07 3f 51 3b 2f 3d af 3c 06 bd e2 cf 97 3d
       0.53043276 0.042781178 -0.032772716 0.074126974
000210 ef ac 26 bd 16 79 37 be bf 66 41 3d 99 bb 84 bd
       -0.040692266 -0.17917284 0.047217127 -0.06481094
000220 7f 20 f2 3c 83 b2 0f be 1f 18 09 3d f7 f6 73 bd
       0.029556511 -0.1403294 0.03347027 -0.059561696
000230 20 1d 32 3e fe 11 d4 bd 8b 76 fb bd 1f d0 7b be
       0.17393923 -0.10354994 -0.1227847 -0.2459111
000240 ec 20 1f 3e f0 83 06 3e 64 b1 ae 3c 28 82 d0 3d
       0.15539902 0.13136268 0.02132482 0.10181075
000250 35 8f 85 3d 1f 36 46 3d 0d dd 8d bd 55 0a 40 3d
       0.06521455 0.048391458 -0.06926928 0.046884853
000260 e5 b1 dc bd eb bc 66 3a 3f df f2 3d 30 d7 80 3d
       -0.10776118 0.00088019547 0.11858987 0.06291044
000270 c8 dc d6 3d 56 d0 4f be 20 c9 d1 bc 96 ea c1 bd
       0.104913294 -0.20294318 -0.0256086 -0.09468572
000280 c2 7d a6 3b 41 89 94 be 10 4b d7 bd f0 37 b9 bd
       0.0050809095 -0.29010966 -0.10512364 -0.09043872
000290 a2 41 17 3b 9b 97 ed 3d 97 73 d5 3b db ca f0 bc
       0.0023079892 0.11601182 0.0065140235 -0.029393604
0002a0 fb b3 cb 3c ce 99 f6 bd c8 55 9c be 4b 4c 10 3d
       0.024866095 -0.12041055 -0.30534196 0.03522901
0002b0 ff d7 03 3e 2c 99 ee 3d f1 8f 70 3d 08 69 17 3c
       0.12875365 0.11650309 0.058731023 0.00924135
0002c0 95 ba 1e bd e7 5f 56 3d fb dd ab 3c ae 12 c0 bc
       -0.038752157 0.052337553 0.020979872 -0.023446407
0002d0 ee ee b1 3d 1f 52 3c be b3 95 7d bd 09 f0 20 be
       0.0868815 -0.18390702 -0.061910342 -0.15716566
0002e0 4a d0 e5 bd b2 39 56 3e d9 06 26 3d 71 7c 6f bd
       -0.112213686 0.20920447 0.040533874 -0.058468286
0002f0 8b b6 4e 3d cd 6e 5a 3e c8 9e 0b 3c 65 66 74 bd
       0.050467055 0.2133133 0.008521743 -0.059667964
000300 a1 b4 11 bd 50 15 f9 bd 0b 92 0e 3c 08 a8 da bd
       -0.03557265 -0.12162268 0.008701812 -0.10676581
000310 01 46 84 3c c1 f2 20 bd d5 89 81 bc b4 67 4b 3e
       0.016146662 -0.03929401 -0.015812794 0.19863778
000320 90 e0 0b 3e 88 eb 32 be 4e 10 e4 bd 23 3c 0b bc
       0.13659883 -0.1747266 -0.11135922 -0.008498224
000330 66 7f d5 3d da fc 65 3d 58 d1 27 be 80 f1 ee 3c
       0.1042469 0.05614934 -0.16388452 0.02916789
000340 f2 40 86 3d 26 a1 51 bd bb ef 6e bb c5 1e 8e bd
       0.06555356 -0.051179074 -0.0036458808 -0.069394626
000350 b2 24 09 3e 49 59 96 3d 5f 53 32 3e a4 b6 4f 3e
       0.13392904 0.073412485 0.17414616 0.20284516
000360 2e fa df bc ae db 0d be ab 81 58 3e 08 99 3e 3e
       -0.027340975 -0.13853332 0.21143214 0.18613064
000370 5c a4 33 3d 2d 99 e5 3d 4f 55 7c 3c 33 f7 1f 3e
       0.043857917 0.112108566 0.0154011985 0.15621643
000380 30 07 d0 3d 32 1a dc bb 74 a0 f5 3d a4 06 85 3c
       0.10157621 -0.00671699 0.11993495 0.016238518
000390 1f 87 3c be 35 e4 d8 3c 53 9a 79 bd db aa d6 ba
       -0.1841092 0.026476005 -0.06093819 -0.0016377823
0003a0 fe 36 48 3e 59 28 43 be 6b a1 af bc 95 64 e6 3d
       0.19552228 -0.1905836 -0.021439275 0.11249653
0003b0 46 08 57 be 52 23 db bb 74 89 76 3e 74 91 05 3d
       -0.2099925 -0.00668756 0.24075872 0.032609418
0003c0 d8 d7 9c 3d ec 61 e4 bd 68 8c 09 be b1 a1 90 3d
       0.076583564 -0.111514896 -0.13432467 0.0706209
0003d0 7e a7 1d bd 9c 9d 84 3a 22 c5 3d be 22 f8 55 bd
       -0.03848981 0.0010117772 -0.18532231 -0.05223859
0003e0 b0 c1 4b bd 98 69 41 be 0e 00 29 3e a9 12 a1 3d
       -0.04974526 -0.18887937 0.16503927 0.07864887
0003f0 1d e2 1f bc 24 0e 9a 3c 22 74 26 3e 58 a5 2b 3d
       -0.009758499 0.01880557 0.16255239 0.04190573

weight_hh_l1 f4 [192, 64]
000000 69 65 ab 3c 10 35 07 be 7c fc 0d 3e cf d2 b5 3c
       0.02092238 -0.13203835 0.13865846 0.022195248
000010 31 83 95 bd 12 8c 62 3d bf a0 d4 3d 7d e8 87 3d
       -0.073004134 0.055309363 0.103822224 0.066361405
000020 72 5c 8d bd 46 88 8c 3d 00 67 f1 3d 91 24 e8 3d
       -0.06902398 0.068619296 0.11787224 0.113350995
000030 2d 7a ad 3d c2 83 7a ba 8e be 71 3d 3a 41 23 bc
       0.08470569 -0.00095563766 0.059019618 -0.009964282
000040 da 37 0b 3e f6 74 32 3d fb 0a 0a bd bf 5e ad bd
       0.13595524 0.043568574 -0.033701878 -0.08465337
000050 9b bd 52 bd 7e 11 4f 3d ba 4c 8b bc 01 4a d8 bd
       -0.051450353 0.05055379 -0.01700436 -0.1056099
000060 70 e7 4f bd 82 41 4c 3e 17 29 4d 3d bd db ea bc
       -0.050757825 0.19946864 0.050088014 -0.028669233
000070 b5 fe ca 3d 5a d4 c7 bd 1e 59 06 bd 2a cf be bd
       0.09911863 -0.097573 -0.032799833 -0.09316857
000080 fd 16 af bc 3a 49 49 3c 9e c6 f8 bd c8 63 d3 3c
       -0.021373266 0.012285525 -0.12147258 0.025804415
000090 1d 62 d5 bd 04 89 26 3e b9 72 ab bc df 66 91 bd
       -0.10419104 0.16263205 -0.020928727 -0.07099699
0000a0 03 c2 36 bd ac a3 00 be 82 29 40 be c9 4b e2 bc
       -0.044618618 -0.12562436 -0.18765834 -0.027624028
0000b0 07 95 53 3d 19 32 09 be 40 c6 14 3d ec 59 99 3d
       0.051655795 -0.13398017 0.03632188 0.07487854
0000c0 31 33 44 be da 65 a4 3d 26 95 c8 3d f9 26 88 3c
       -0.19160153 0.08027239 0.09794073 0.016620146
0000d0 a1 f2 af 3d 42 0b ca 3d 53 e5 26 3d cf be 25 3e
       0.085912 0.098654285 0.040746044 0.16186069
0000e0 86 fc 20 bd 47 c0 a5 bd 6f 11 d9 bd e5 34 22 3e
       -0.039303325 -0.080933146 -0.10599028 0.1584049
0000f0 7f 2c b0 3d 8a 3f 5d be dd b2 9f ba c4 ff a0 bd
       0.08602237 -0.2160627 -0.0012184043 -0.078612834
000100 84 e8 0e be fe 82 5c bd db 61 b9 bb 7e 46 ba 3d
       -0.13955885 -0.05383586 -0.0056574172 0.090954766
000110 a6 0c c2 3d 49 88 36 3e eb a0 c8 bc e1 a7 da 3d
       0.09475069 0.17825426 -0.024490794 0.106765516
000120 33 e1 b8 3d f8 42 6c 3d 1c 9b 2d 3d d1 c5 a5 3d
       0.09027328 0.057681054 0.042384252 0.08094371
000130 85 40 bf 3d 59 2b 7d bd 7e 5f af 3d e7 76 35 3d
       0.09338478 -0.061808918 0.085631356 0.044302847
000140 22 37 d1 bc a5 fd 26 3e fb d9 36 bd 2e 6a 8a bd
       -0.025538985 0.16307695 -0.044641476 -0.067585334
000150 5d 43 ed 3c ac 92 3d be de e3 f8 bd 6d 2e 59 bd
       0.028962785 -0.18512982 -0.12152837 -0.05302279
000160 b1 8a 81 3d dc 49 49 3e e6 53 c2 bd 08 00 29 bc
       0.063252814 0.19657081 -0.094886586 -0.010314949
000170 ce 0f 21 bd ca da 17 be 49 55 20 3e 2f 82 e3 bd
       -0.039321713 -0.14829555 0.15657534 -0.11108815
000180 e2 b5 c7 bd 55 47 89 bd fc 20 20 3d c1 e0 ca 3b
       -0.09751488 -0.06703059 0.039093956 0.0061913435
000190 de c1 af bc 74 62 4e bc 2a a6 4e 3d 59 0d 5d bc
       -0.021454748 -0.012596715 0.050451435 -0.013491952
0001a0 e8 ca 83 3d 7e 88 52 3d 3d a8 0a 3c d2 89 6f 3d
       0.06435186 0.0513997 0.008462963 0.058481045
0001b0 a2 1b 88 bd 3e 75 2b 3d b0 f7 8d 3d 66 7c 08 be
       -0.066458955 0.041859858 0.06932008 -0.13328704
0001c0 26 f1 dc 3c c7 c3 5f 3d 76 00 11 3e b3 36 9c bd
       0.026970457 0.054630067 0.14160332 -0.076276205
0001d0 5b 78 62 3d 49 5d e6 3d fd 5e 5a bc ed a7 35 3d
       0.05529056 0.112482615 -0.013328311 0.0443496
0001e0 23 3d 38 bd 91 89 8b bc e0 2b f3 bd 2d 87 18 be
       -0.04498018 -0.01703337 -0.11873603 -0.14895315
0001f0 4b 85 ce bd a7 cf a3 bd b4 b7 30 3e b7 5f 4f 3d
       -0.10084017 -0.07998591 0.17257577 0.05062839
000200 5f 5c 8f bd c9 5f c6 3d 35 75 28 3e fc ac 3b 3e
       -0.0700004 0.09686238 0.16450961 0.18327707
000210 53 0f 18 3e 0a 5a a1 3b 09 db 21 bd 23 7f 84 be
       0.14849596 0.0049240636 -0.03951553 -0.25878248
000220 f8 cb 25 3e e0 30 a8 3d 2a ed ef 3d 1a 45 ac 3d
       0.16191089 0.08212447 0.11715157 0.084116176
000230 75 67 65 3d fb 84 4b 3e 11 ff e4 3c d0 13 d4 3d
       0.056006867 0.19874947 0.027953656 0.103553414
000240 63 48 5b bd 85 da 9f bc 07 ea 9e 3c 09 a9 38 bd
       -0.05353583 -0.019513378 0.019398702 -0.04508308
000250 a7 af cb bc 2f a0 2b 3d 23 a8 1c 3e d1 b4 95 bd
       -0.024864031 0.04190081 0.15298514 -0.073098786
000260 30 95 90 3b df 70 ad 3d 99 84 ad 3d e9 01 a2 bc
       0.004412316 0.08468794 0.084725566 -0.019776301
000270 18 3b a9 bd fa 64 73 3c d6 ac af bd d3 4c 4d 3e
       -0.08263224 0.014855618 -0.08577888 0.20048837
000280 37 d5 2e 3c 10 da 3a 3d dc 17 1d 3c b5 60 77 3d
       0.010670952 0.045618117 0.009588208 0.06039496
000290 ba 04 44 bc 8e 56 88 3d d0 a3 66 bb 5c 77 53 3e
       -0.0119640175 0.06657134 -0.0035192855 0.20651
0002a0 8c a2 76 3e 66 df 9e bd c7 e8 d9 bd 76 37 2a bd
       0.24085444 -0.077574536 -0.10640102 -0.041556798
0002b0 a7 0c 95 3e 66 16 0c 3e 4b 38 91 3c 91 e2 13 3e
       0.29111215 0.1368042 0.017727038 0.14441897
0002c0 9c c5 08 3e c5 5c a5 3d 8d fb c9 bc 65 7c aa 3d
       0.13356632 0.08074335 -0.024656082 0.083245076
0002d0 cb 6b ff 3c 72 27 71 3d 92 a2 0b 3d ed 19 00 3e
       0.03117933 0.05887551 0.034090586 0.1250989
0002e0 f1 b0 ec bc 32 a7 87 bc a2 4b 8d bd 5c 55 72 3e
       -0.028892966 -0.016559217 -0.068991914 0.23665375
0002f0 fe b1 c7 3c 44 dd e8 bd 6e fb d1 3c 5b 65 6d 3d
       0.024376865 -0.11370328 0.025632586 0.05795799
000300 6a ae a0 bd 9b b8 47 3e e6 9a 01 bd c3 da 29 3e
       -0.07845767 0.19504015 -0.031641863 0.16587357
000310 b9 a6 eb bc c8 f2 43 3e 4e 14 84 bd 48 f5 8a 3c
       -0.028766023 0.19135582 -0.06449185 0.016962662
000320 00 42 9d bc b7 9f ee 3d b0 06 99 bd d5 55 e3 bd
       -0.01919651 0.11651557 -0.07471979 -0.111003555
000330 04 f3 0b be 68 f3 68 3c ce 30 12 3e 45 1b 14 3d
       -0.13666922 0.014218189 0.1427643 0.03615882
000340 eb 70 6d bd 35 de d7 3d f1 d1 53 be 83 04 e0 bd
       -0.057969015 0.105404295 -0.20685555 -0.109383605
000350 c9 c3 0d bc 84 af 1a 3e ab a1 56 bd 54 c4 10 3e
       -0.008652636 0.15106016 -0.052400272 0.14137393
000360 de 79 b8 3d c7 2d b3 3d f8 72 1f 3d 88 6e 49 3e
       0.09007619 0.08748966 0.038928002 0.1967107
000370 ee 45 92 bd db c8 20 3d 49 bd 23 3e 49 67 5d 3d
       -0.07142244 0.03925405 0.15990175 0.05405358
000380 3e f2 7e be dd 2f 93 3a 1c aa b8 bd d2 b3 f8 bd
       -0.24897096 0.0011229474 -0.09016821 -0.12143673
000390 2a 03 61 3e bb f8 c3 3c 69 2f a8 bd bd 14 87 3d
       0.21973863 0.023922315 -0.08212168 0.065957524
0003a0 80 f2 ba bc 90 06 93 bd d7 a2 3d be d2 42 84 bd
       -0.022820711 -0.07178986 -0.1851915 -0.064580575
0003b0 1f 92 38 be b0 be 22 be 86 30 d7 bd ed 1f d6 bd
       -0.18024491 -0.15893054 -0.10507302 -0.10455308
0003c0 79 88 27 3e 35 35 06 3d a0 2c 80 3e c1 e6 2d bd
       0.16360654 0.032765586 0.25034046 -0.042456392
0003d0 ae 97 66 3e d5 02 20 3e 0b 3f d9 3c 66 f6 1f be
       0.22518799 0.1562608 0.026519319 -0.15621337
0003e0 f3 f7 08 bd 04 1b 08 be df 3a b7 bc 98 00 d0 bd
       -0.033439588 -0.13291556 -0.02236694 -0.10156363
0003f0 c6 04 30 3e 40 3b 5f be 4d e8 dd bc 6f 74 9a 3c
       0.17189321 -0.21799946 -0.027088309 0.018854348
