time_LossPrune/model2_Traffic.pth (torch, 169806 bytes, 12 tensors)

weight f4 [23, 8]
-0.9377339 1.3558444 -0.06949244 0.7608436 0.9669944 0.69413704 0.6932027 1.8021297
-0.7042647 0.32816026 -0.8853275 1.5226765 1.2005277 0.10361805 -0.8971473 0.13776143
0.6275369 -1.5746032 0.12332433 0.61249244 0.8196 -1.475902 2.1672049 1.1226765
0.5664563 -0.9916469 0.06736735 -0.7165201 0.8845092 0.6187494 0.2842056 0.40921915
1.2763077 -1.2665433 0.43029016 0.016305018 2.156503 -0.73544127 0.66627777 -0.27541345
-0.6887341 0.83468276 0.4453903 -1.0655615 -1.1207477 -0.08013457 0.46859732 1.838297
0.358554 0.79009485 -0.47838807 -0.12115724 -2.0596392 0.36238697 -0.06267792 -0.16804793
-0.18747398 -2.8727984 -0.64460003 0.3646963 1.5837849 -0.05638818 0.60989285 -1.0460893
0.9464555 2.1080992 -1.5970017 0.67307246 -0.07848035 -0.39498568 0.9760923 -1.1706065
-0.7013054 -0.091752075 -2.129798 -0.6443415 -0.18021938 1.3154283 -0.027367169 -0.81445974
0.20630766 -1.04401 1.5206337 0.30660847 -1.1852258 0.07746461 1.2161717 0.2207688
0.4547993 0.6908402 1.9605789 0.40266564 0.92312425 1.7412666 -1.0330019 2.1143641
-0.47701275 -1.713012 -0.74611634 0.20290525 2.3221526 1.8902295 -1.8067353 -0.4452483
-0.11061736 -1.548676 0.58974785 -0.7315355 0.7312978 0.27499172 0.5833817 0.3152345
0.8372924 1.3226426 2.5326002 0.90512145 -0.66218656 0.8984564 -0.20628618 -0.8073106
-1.6806154 -0.70352125 0.01356653 -1.2574735 -1.8266826 0.5358363 0.5201531 0.45007634
-1.7229825 -0.8874241 -1.0415514 1.1229416 -0.24109964 1.5916572 0.76017964 0.60518825
-0.29986998 0.68066573 -0.60310906 -0.0054201214 0.8879554 -2.1317172 0.018366706 0.66964
-1.2649686 2.6055722 -0.40644655 1.2255287 -0.8792484 1.4438014 0.039981138 1.3193578
-1.9831598 -1.1112856 0.13375087 0.07027804 -0.6033897 -0.381278 -0.17702359 -0.027618678
-1.0421047 -0.14884911 0.70559746 1.2322278 1.3612248 -0.8058779 -0.9923762 0.23461647
1.7895714 0.47026086 -0.6737784 0.77522635 -1.0412672 -0.87314683 -0.6815003 -0.6343003
0.3179689 -0.32367885 -0.7937413 -0.6118743 -0.23027094 -0.054307338 -0.6155878 -0.4953975
00000000: 540f 70bf 4f8c ad3f 0d52 8ebd a5c6 423f
00000010: f28c 773f f7b2 313f bb75 313f 30ac e63f
00000020: b14a 34bf 9f04 a83e d3a4 62bf 10e7 c23f
00000030: e4aa 993f b335 d43d 72ab 65bf 5511 0d3e
00000040: 42a6 203f 998c c9bf 7791 fc3d 4ecc 1c3f
00000050: 4ed1 513f 5bea bcbf 7cb3 0a40 ddb3 8f3f
00000060: 4803 113f 92dc 7dbf e5f7 893d dc6d 37bf
00000070: 326f 623f 5c66 1e3f 6583 913e 2c85 d13e
00000080: 0d5e a33f 171e a2bf fe4e dc3e 1a92 853c
00000090: 2504 0a40 e145 3cbf 2e91 2a3f fe02 8dbe
000000a0: e150 30bf c5ad 553f 330a e43e 5264 88bf
000000b0: a974 8fbf 981d a4bd fdeb ef3e 514d eb3f
000000c0: 6494 b73e a843 4a3f 48ef f4be 4921 f8bd
000000d0: 21d1 03c0 c98a b93e 485d 80bd c214 2cbe
000000e0: 2ef9 3fbe eedb 37c0 8204 25bf 79b9 ba3e
000000f0: 77b9 ca3f 4bf7 66bd f021 1c3f 41e6 85bf
00000100: e84a 723f 19eb 0640 8d6a ccbf 7a4e 2c3f
00000110: 4eba a0bd 903b cabe 2fe1 793f 6fd6 95bf
00000120: c088 33bf 83e8 bbbd 9c4e 08c0 91f3 24bf
00000130: 6e8b 38be f45f a83f 1d31 e0bc 6f80 50bf
00000140: 5142 533e 1fa2 85bf 20a4 c23f c9fb 9c3e
00000150: 7bb5 97bf c4a5 9e3d 84ab 9b3f 3711 623e
00000160: 74db e83e e7da 303f 40f4 fa3f 312a ce3e
00000170: df51 6c3f d3e1 de3f 6839 84bf be51 0740
00000180: 043b f4be fa43 dbbf 7b01 3fbf 65c6 4f3e
00000190: 269e 1440 0af3 f13f 1a43 e7bf 96f7 e3be
000001a0: 5b8b e2bd 043b c6bf b7f9 163f e945 3bbf
000001b0: 5536 3b3f b7cb 8c3e 8158 153f 6b66 a13e
000001c0: cb58 563f 5a4c a93f 1f16 2240 0ab6 673f
000001d0: 0f85 29bf 3d01 663f af3c 53be e8ab 4ebf
000001e0: 681e d7bf f819 34bf 2746 5e3c e4f4 a0bf
000001f0: bcd0 e9bf 912c 093f c128 053f 6870 e63e
00000200: b18a dcbf 3a2e 63bf 8e51 85bf 8dbc 8f3f
00000210: d3e2 76be 6cbb cb3f 229b 423f 9eed 1a3f
00000220: 8f88 99be 1c40 2e3f 5b65 1abf 469b b1bb
00000230: 0c51 633f 0e6e 08c0 c675 963c 876d 2b3f
00000240: 7eea a1bf b2c1 2640 c319 d0be 20de 9c3f
00000250: 6c16 61bf 7cce b83f 43c3 233d b7e0 a83f
00000260: 2ed8 fdbf 9b3e 8ebf fdf5 083e efed 8f3d
00000270: bf77 1abf df36 c3be ac45 35be 9140 e2bc
00000280: b063 85bf e76b 18be 09a2 343f a4b9 9d3f
00000290: 9d3c ae3f 044e 4ebf 5e0c 7ebf 4d3f 703e
000002a0: ad10 e53f 08c6 f03e be7c 2cbf 3c75 463f
000002b0: 3e48 85bf 8d86 5fbf ce76 2ebf 8161 22bf
000002c0: d2cc a23e 3cb9 a5be a132 4bbf cba3 1cbf
000002d0: 25cc 6bbe 5f71 5ebd 2997 1dbf bea4 fdbe

weight_ih_l0 f4 [192, 9]
-0.021680793 -0.42590132 -0.058368005 0.1640298 0.23055664 -0.08622861 0.29031464 -0.036477625
-0.05998597 0.057661798 -0.01397707 0.24848332 -0.18761568 0.26401788 0.104248695 0.35407814
-0.3276403 -0.10561461 0.21237946 -0.18021108 -0.10661287 -0.20312622 -0.15201753 0.049222782
0.1590396 -0.11073499 -0.017564343 0.06750694 0.2975798 0.082281455 0.054464348 0.31651545
0.05706158 -0.33837923 0.16150825 0.16968867 -0.008198129 0.15198354 0.038020957 0.15378682
-0.10732585 0.31957716 0.183813 -0.18369469 0.47484878 0.04219603 0.07156734 -0.11152709
0.07509694 -0.008325985 -0.0032949096 -0.2896469 0.1987691 0.26675212 0.36954552 -0.19822492
-0.12814876 -0.05849406 -0.083677806 -0.10631267 -0.022685373 0.08910788 -0.08905981 -0.012988175
-0.022843026 0.09904835 -0.13737628 0.16951549 0.20121436 0.35345995 0.074361116 0.20311011
-0.14300153 -0.029062452 -0.043535437 -0.043406434 0.14144759 0.032611545 -0.20990692 0.14274198
0.036430344 -0.10274515 -0.17972314 -0.13073991 -0.1295144 0.13091372 -0.02225542 -0.046407104
-0.043324124 -0.004094697 0.015055869 0.035121817 0.013931149 -0.07055596 -0.0651633 0.15340532
-0.10536745 -0.039068654 0.19314131 -0.036508057 0.08095791 -0.11849891 0.0023574086 0.06623623
-0.052763484 -0.02420878 0.15616776 -0.11542844 0.049750753 -0.2526896 -0.021799557 0.19986862
0.38967168 0.09403632 0.22697943 -0.20083427 0.15345567 -0.26019758 0.09071352 0.11932733
-0.11417866 -0.010649755 -0.047107667 0.17580418 -0.15060638 -0.059109543 -0.13297704 -0.31420308
-0.03742931 -0.18640071 0.2930403 -0.083654754 -0.22651447 0.359857 -0.16556625 -0.014394656
-0.18884364 0.115790196 -0.030587522 0.5465614 0.12970711 0.055328663 -0.10261513 0.11612257
-0.040203348 -0.038012136 0.16566744 0.07239611 0.10536703 -0.02890826 0.24892023 -0.19858056
0.31142753 0.020236013 0.15096264 -0.41375336 0.16805878 -0.17052849 0.34171525 -0.35745016
0.065821566 0.06675002 0.1917166 -0.07020715 0.08181399 0.07511951 0.21347363 -0.07902842
-0.27266973 0.018909857 -0.13275763 -0.24678718 0.1642545 0.28757417 0.08935555 0.08908812
0.23237053 0.06715343 -0.034945942 0.21656355 0.04872865 -0.22682707 -0.038287584 -0.13515453
0.17524795 0.05623057 0.014306456 0.10161727 -0.2852358 -0.21848404 0.2823996 -0.11513211
0.31535187 -0.053271856 0.017118108 0.15245256 -0.29780403 0.08740152 0.10840299 -0.08594793
0.09684475 -0.067017816 0.0089323055 0.12642938 0.043037847 0.11084882 0.055535924 0.31317008
0.052250747 0.13097362 0.23701105 -0.01677132 -0.03043319 0.1340919 -0.1275477 0.17918125
0.14706783 -0.201024 -0.13075712 -0.035660274 0.2029036 -0.080337524 -0.05794677 -0.16270329
-0.045402586 -0.17007154 0.18320386 0.030689238 -0.0021233214 -0.16972351 -0.02493945 -0.06698033
-0.048055418 0.1806084 -0.03591155 -0.105653666 -0.018967485 -0.22197671 0.08161672 0.087131195
-0.16760595 0.058690257 0.16987868 0.2077213 0.09381805 -0.0018467873 -0.06944898 0.13904968
0.08565024 -0.057154406 -0.03900032 -0.32347885 -0.047540292 0.12537912 0.13112855 0.14614442
00000000: eb9b b1bc bd0f dabe 4a13 6fbd 6ef7 273e
00000010: 0a17 6c3e a098 b0bd 1fa4 943e 9069 15bd
00000020: d9b3 75bd c72e 6c3d 1500 65bc 6972 7e3e
00000030: 531e 40be 5a2d 873e 5780 d53d bb49 b53e
00000040: 78c0 a7be 794c d8bd 007a 593e 4189 38be
00000050: d957 dabd 5200 50be 7caa 1bbe d49d 493d
00000060: 47db 223e 07c9 e2bd 19e3 8fbc 1441 8a3d
00000070: 615c 983e 2e83 a83d 0216 5f3d 500e a23e
00000080: 67b9 693d 0b40 adbe 6b62 253e dec2 2d3e
00000090: 7251 06bc 93a1 1b3e ddbb 1b3d 4b7a 1d3e
000000a0: a8cd dbbd 9e9f a33e 7a39 3c3e 761a 3cbe
000000b0: 611f f33e bfd5 2c3d e691 923d 5168 e4bd
000000c0: 6dcc 993d b669 08bc 69ef 57bb 994c 94be
000000d0: 208a 4b3e bc93 883e 1235 bd3e 79fb 4abe
000000e0: 6e39 03be 7897 6fbd 455f abbd 75ba d9bd
000000f0: add6 b9bc 317e b63d fd64 b6bd 5bcc 54bc
00000100: 4c21 bbbc dcd9 ca3d 5eac 0cbe 7895 2d3e
00000110: 230b 4e3e b4f8 b43e a44a 983d 19fc 4f3e
00000120: fe6e 12be 6114 eebc 3752 32bd f2ca 31bd
00000130: a3d7 103e af93 053d d7f1 56be f42a 123e
00000140: fc37 153d 0d6c d2bd 5809 38be afe0 05be
00000150: 6c9f 04be 3f0e 063e 0051 b6bc 6015 3ebd
00000160: a374 31bd cf2c 86bb e4ac 763c e5db 0f3d
00000170: 793f 643c a57f 90bd 5674 85bd 4916 1d3e
00000180: e4ca d7bd 7406 20bd d6c6 453e 7989 15bd
00000190: 43cd a53d 8eaf f2bd c17e 1a3b dca6 873d
000001a0: 861e 58bd 7e51 c6bc 71ea 1f3e bf65 ecbd
000001b0: 72c7 4b3d 8860 81be fc94 b2bc 5caa 4c3e
000001c0: 0c83 c73e 1d96 c03d 4c6d 683e 80a7 4dbe
000001d0: 7c23 1d3e 9e38 85be 03c8 b93d e361 f43d
000001e0: 80d6 e9bd 4f7c 2ebc f8f3 40bd 0306 343e
000001f0: 8f38 1abe d91c 72bd 222b 08be 3adf a0be
00000200: 7a4f 19bd d4df 3ebe 6109 963e 2f53 abbd
00000210: 69f3 67be 2d3f b83e 338a 29be 90d7 6bbc
00000220: 3a60 41be 6923 ed3d af92 fabc 73eb 0b3f
00000230: f1d1 043e 4fa0 623d e227 d2bd acd1 ed3d
00000240: 44ac 24bd 9db2 1bbd baa4 293e 6944 943d
00000250: abca d73d 04d1 ecbc f2e4 7e3e b458 4bbe
00000260: 6e73 9f3e ffc5 a53c f395 1a3e 7bd7 d3be
00000270: 9a17 2c3e 059f 2ebe 4df5 ae3e b503 b7be
00000280: 75cd 863d 3cb4 883d 5b51 443e c4c8 8fbd
00000290: 188e a73d 42d8 993d d598 5a3e a7d9 a1bd
000002a0: 5e9b 8bbe d8e8 9a3c 9ef1 07be c7b5 7cbe
000002b0: 5532 283e ec3c 933e 0b00 b73d d573 b63d
000002c0: 8af2 6d3e bd87 893d 7a23 0fbd d6c2 5d3e
000002d0: b197 473d 5b45 68be 71d3 1cbd f365 0abe
000002e0: 3374 333e 0752 663d a065 6a3c b71c d03d
000002f0: 6d0a 92be 48ba 5fbe ae96 903e 62ca ebbd
00000300: cd75 a13e 9733 5abd 463b 8c3c 861c 1c3e
00000310: c579 98be 91ff b23d 6302 de3d 7805 b0bd
00000320: 8a56 c63d a340 89bd ce58 123c b476 013e
00000330: 7448 303d b504 e33d a379 633d d457 a03e
00000340: e104 563d f31d 063e 06b3 723e 0264 89bc
00000350: 064f f9bc 634f 093e dd9b 02be 4a7b 373e
00000360: f398 163e 3cd9 4dbe 32e5 05be 8210 12bd
00000370: f6c5 4f3e 0088 a4bd 9859 6dbd b19b 26be
00000380: 10f8 39bd 3c27 2ebe cb99 3b3e ff67 fb3c
00000390: 6c27 0bbb 00cc 2dbe d14d ccbc fc2c 89bd
000003a0: c2d5 44bd 69f1 383e fd17 13bd f360 d8bd
000003b0: b361 9bbc dd4d 63be ab26 a73d d771 b23d
000003c0: e5a0 2bbe 3265 703d adf4 2d3e e4b4 543e
000003d0: ae23 c03d e60f f2ba 443b 8ebd 0a63 0e3e
000003e0: 6569 af3d bd1a 6abd cdbe 1fbd 059f a5be
000003f0: 9cb9 42bd 6263 003e 9046 063e e2a6 153e

weight_hh_l0 f4 [192, 64]
0.09477699 -0.111511625 -0.16238426 0.0008639004 0.19949889 0.10721121 0.19026327 0.057436507
0.082120374 -0.04333827 0.010136581 -0.06937563 0.10883227 -0.12324528 0.081459 0.3156085
-0.050641537 0.118460156 0.13287042 -0.065807715 0.1138409 0.2032264 -0.034061186 -0.11724282
0.11969324 -0.0090382155 0.020929407 -0.039361507 -0.083606794 0.06391951 -0.07013274 0.049531363
0.19990002 -0.048075505 0.022167776 0.11972301 0.047789965 -0.10528613 0.041914906 0.20500425
0.08918252 0.029235221 0.032194693 -0.07188086 -0.07163144 0.12178359 0.05896982 0.14098038
0.011638949 0.044302683 -0.109207235 -0.03647778 -0.016480312 0.088787206 -0.0989101 0.053807512
-0.005977606 0.092503086 0.17858942 0.21008776 -0.12709954 -0.029745901 0.11435775 0.026005134
0.05178767 -0.082658716 0.14756073 0.02188113 0.19581763 0.12038359 0.07812619 -0.026976604
0.02007659 -0.0016105789 0.1450111 -0.054318726 -0.010676781 -0.0180395 0.07331686 -0.15500742
0.015186393 0.058090575 -0.15480533 0.034487166 -0.02070884 0.13226861 0.07480209 0.011245386
-0.06330163 0.009905008 -0.04569586 -0.22078457 -0.15433502 -0.09645005 0.21715005 0.006827952
0.001120156 0.01643115 0.119106054 -0.15261301 0.029856134 -0.11569869 0.10506136 0.11576073
-0.114386745 -0.01988894 -0.078907624 -0.22435729 0.0462478 -0.22757666 -0.17404021 0.12537315
0.021469355 0.24385598 -0.09264413 -0.14569238 0.006699582 -0.119957775 -0.16473076 0.07071206
0.11031496 -0.08919027 -0.011948364 0.1598403 -0.37010124 -0.078313015 0.07331494 -0.14637418
0.097533055 -0.1261789 -0.14430256 -0.109892845 -0.2462849 0.024517614 -0.27390942 0.109722845
0.10007419 -0.055554383 0.054766595 0.16195351 -0.0952086 -0.024339039 -0.1832884 0.038148336
0.11162278 0.059890628 0.026216635 -0.09379423 0.008173114 -0.012519204 0.16466975 0.16788325
-0.13249147 -0.12983657 0.023551768 0.26160437 0.12732844 -0.016177278 0.040660057 0.014950082
0.06799505 -0.2566465 -0.31761292 0.05020207 -0.18976857 0.061848495 -0.0022348235 -0.08457564
0.10638882 0.08972268 -0.015794398 0.18052694 -0.18120727 -0.06779161 0.13551076 0.022410307
0.041163027 -0.01237513 0.049467802 0.0639014 -0.08545196 -0.076839544 0.08254444 0.146489
-0.057442833 -0.0728145 0.23318693 -0.10886357 0.007422024 0.04352622 -0.20435774 0.045018476
0.21487597 0.007201967 -0.10516081 0.10214128 0.12885219 -0.031017061 -0.1137075 0.031535037
-0.08122743 0.085743435 -0.024131255 0.10680387 -0.01672146 0.13465759 -0.07734997 -0.012262081
0.01181519 -0.039964616 0.13118777 0.076392986 -0.040995825 0.03821792 -0.03181641 0.15602338
-0.01573929 -0.16987115 0.09703315 0.20150517 0.13438645 -0.052568067 0.06303377 0.08589574
-0.007135066 -0.05129513 -0.23770954 -0.015423079 -0.37501213 -0.070377804 0.18483368 -0.113936044
0.04689327 -0.21653835 0.33402675 0.11634244 -0.046139732 -0.063032724 0.0070672845 -0.20560993
-0.049970444 -0.09976636 -0.116492644 0.1602191 -0.026539953 -0.013715572 0.058616072 -0.0010631763
0.046591274 -0.20303087 -0.04834732 0.1187286 0.03690953 0.11349025 -0.023187907 0.06476408
00000000: 701a c23d 3560 e4bd 0f48 26be 6077 623a
00000010: 7049 4c3e 8d91 db3d 60d4 423e 8b42 6b3d
00000020: ba2e a83d 7883 31bd e713 263c cf14 8ebd
00000030: 74e3 de3d 0568 fcbd fad3 a63d 7097 a13e
00000040: 806d 4fbd 3d9b f23d 2f0f 083e 32c6 86bd
00000050: 6b25 e93d 951a 503e be83 0bbd 011d f0bd
00000060: bb21 f53d 0615 14bc 2674 ab3c 8839 21bd
00000070: 0a3a abbd 3be8 823d c1a1 8fbd 66e1 4a3d
00000080: 97b2 4c3e d2ea 44bd 3299 b53c 5631 f53d
00000090: 69bf 433d 41a0 d7bd f7ae 2b3d a2ec 513e
000000a0: 53a5 b63d b47e ef3c 95de 033d 4636 93bd
000000b0: 81b3 92bd ad69 f93d 578a 713d 295d 103e
000000c0: 4ab1 3e3c bb76 353d 0ba8 dfbd ba69 15bd
000000d0: b801 87bc 11d6 b53d 6191 cabd 4465 5c3d
000000e0: cbdf c3bb 4272 bd3d 25e0 363e 3f21 573e
000000f0: 6226 02be adad f3bc 6534 ea3d b808 d53c
00000100: 4f1f 543d f948 a9bd 291a 173e 0e40 b33c
00000110: 6b84 483e ac8b f63d a000 a03d 0afe dcbc
00000120: a977 a43c 0f1a d3ba ca7d 143e 507d 5ebd
00000130: aaed 2ebc 93c7 93bc 2627 963d 44ba 1ebe
00000140: 59d0 783c 62f0 6d3d 4a85 1ebe 6a42 0d3d
00000150: 96a5 a9bc 6c71 073e d731 993d 913e 383c
00000160: 49a4 81bd 9d48 223c 952b 3bbd 5a15 62be
00000170: 000a 1ebe 9b87 c5bd 955c 5e3e 03bd df3b
00000180: 33d2 923a 9e9a 863c e0ed f33d 9646 1cbe
00000190: da94 f43c 6ff3 ecbd 692a d73d f613 ed3d
000001a0: 9943 eabd 21ee a2bc 529a a1bd ebbd 65be
000001b0: 556e 3d3d db09 69be 9937 32be d261 003e
000001c0: 80e0 af3c 62b5 793e 35bc bdbd 6230 15be
000001d0: 2b88 db3b 6cac f5bd 2eaf 28be 7cd1 903d
000001e0: cfec e13d 63a9 b6bd 12c3 43bc 2dad 233e
000001f0: e97d bdbe 9362 a0bd 2526 963d 1de3 15be
00000200: 69bf c73d 0b35 01be 0dc4 13be 800f e1bd
00000210: 1c32 7cbe 2ad9 c83c db3d 8cbe 5fb6 e03d
00000220: b2f3 cc3d fe8c 63bd f052 603d 24d7 253e
00000230: bafc c2bd aa62 c7bc f4af 3bbe 6e41 1c3d
00000240: 7c9a e43d e04f 753d 45c4 d63c 3017 c0bd
00000250: 86e8 053c 591d 4dbc 309f 283e 96e9 2b3e
00000260: d8ab 07be e1f3 04be a3ef c03c 02f1 853e
00000270: 6362 023e 3686 84bc 298b 263d 30f1 743c
00000280: fd40 8b3d 2c67 83be 299e a2be b0a0 4d3d
00000290: b152 42be d954 7d3d 1e76 12bb fe35 adbd
000002a0: 62e2 d93d 86c0 b73d 4163 81bc 0edc 383e
000002b0: 668e 39be 54d6 8abd 55c3 0a3e d295 b73c
000002c0: 909a 283d 0fc1 4abc c09e 4a3d bdde 823d
000002d0: 7001 afbd 0d5e 9dbd 0f0d a93d 3601 163e
000002e0: 2d49 6bbd c51f 95bd 8ec8 6e3e ddf3 debd
000002f0: 7334 f33b 8d48 323d 2843 51be 4b65 383d
00000300: 7208 5c3e 7afe eb3b 8d5e d7bd 732f d13d
00000310: d4f1 033e 7e17 febc 7adf e8bd e22a 013d
00000320: 915a a6bd 419a af3d e9ae c5bc fdbb da3d
00000330: 71fb 88bc aee3 093e a969 9ebd e5e6 48bc
00000340: 8094 413c f0b1 23bd 1656 063e ed73 9c3d
00000350: 3deb 27bd 658a 1c3d ed51 02bd 98c4 1f3e
00000360: afef 80bc b4f2 2dbe 51b9 c63d 5f57 4e3e
00000370: 9a9c 093e 9d51 57bd d917 813d 1bea af3d
00000380: 46cd e9bb d81a 52bd 216a 73be 15b1 7cbc
00000390: 9701 c0be 3d22 90bd 0a45 3d3e 4d57 e9bd
000003a0: 2813 403d 3bbc 5dbe 8e05 ab3e f244 ee3d
000003b0: 04fd 3cbd 4d17 81bd ae94 e73b 698b 52be
000003c0: cfad 4cbd 4e52 ccbd b293 eebd 7a10 243e
000003d0: 516a d9bc 47b7 60bc 6817 703d 475a 8bba
000003e0: 7ed6 3e3d 53e7 4fbe d707 46bd fb27 f33d
000003f0: 732e 173d 946d e83d 91f4 bdbc 08a3 843d

bias_ih_l0 f4 [192]
0.077453196 -0.042793863 0.12510031 -0.04018717 0.082045026 0.14797413 0.09666926 0.101714164
0.06403997 -0.097127065 0.10412698 0.081436306 0.0077976044 0.087153986 0.012937741 0.07946859
-0.07910513 0.1344147 -0.087729126 0.07891621 0.037882052 -0.06410583 0.13436903 0.04443654
-0.027845183 -0.033984452 0.039623696 -0.12272367 -0.071194455 -0.042043705 0.0732174 -0.12006514
0.11101958 0.099877566 0.09805189 0.011707762 0.1304163 0.08450047 -0.010515886 0.10254148
0.10368986 0.14575942 0.09849779 0.1861843 0.018893285 0.067839734 0.10993986 0.10608654
0.18614453 -0.044683058 0.103632495 0.049501464 0.062227953 -0.07109257 0.008758027 -0.009371382
0.13132295 0.060005218 0.24093635 -0.010449571 0.1668078 0.060842726 -0.07565871 -0.07882948
-0.17018606 -0.08959972 -0.021665381 -0.124095365 -0.25781378 -0.27969757 -0.18559481 -0.30377376
-0.11458888 -0.029276075 -0.092199564 0.12353603 0.07526235 -0.31629857 -0.07397776 -0.30237868
-0.076008976 -0.3919331 -0.14454378 -0.3678009 0.009652713 -0.32127583 0.003321721 -0.36290768
0.052953407 0.064601585 -0.11174316 -0.26781976 -0.41041216 -0.16438508 -0.3207188 0.18288998
-0.29437 -0.29493672 -0.20881417 -0.29918718 -0.40684327 -0.31420723 -0.20552343 -0.2755052
-0.105304435 -0.04496828 0.05503677 -0.3166493 -0.08961029 -0.14091727 -0.06441639 0.067718126
-0.3687381 -0.14677265 -0.28414154 -0.12651214 -0.14830793 -0.17497817 -0.0621467 0.08653535
-0.008417387 -0.26508078 -0.00065104984 -0.23027575 -0.3303487 -0.005742749 -0.24288842 -0.2074322
-0.08246983 -0.09095969 -0.17358388 -0.12151717 0.013216425 0.122077405 0.10352269 0.0086786775
-0.018258791 0.025337212 -0.034736883 0.11508204 -0.018037025 -0.079402484 0.010449926 0.09383212
-0.0020718032 -0.057222065 0.06150941 -0.23540018 -0.12428876 0.0022017502 0.18983151 0.03065115
-0.01608476 -0.026260778 -0.0046973005 -0.04645428 -0.033691194 -0.018790059 0.04333007 0.12925553
-0.07328185 -0.103783146 -0.12726778 0.13306183 0.083987296 -0.06466186 -0.002203603 0.04959494
-0.0014934394 -0.11965856 0.1609533 0.049826156 -0.03853274 0.06396163 0.109900914 0.08014607
0.051365297 -0.07784354 -0.18021221 0.014927619 0.112714045 0.10472407 0.05093732 -0.03307502
0.122845314 0.1853722 0.05689984 -0.05312598 0.03429617 -0.098036915 0.04880672 -0.110612504
00000000: c89f 9e3d 9e48 2fbd 4c1a 003e 4d9b 24bd
00000010: 3907 a83d 8886 173e 88fa c53d 844f d03d
00000020: 6327 833d 8eea c6bd 8740 d53d 14c8 a63d
00000030: 0c83 ff3b ca7d b23d d2f8 533c 6ec0 a23d
00000040: df01 a2bd 02a4 093e 54ab b3bd d29e a13d
00000050: 362a 1b3d eb49 83bd 0998 093e 1703 363d
00000060: 951b e4bc 4833 0bbd 754c 223d 8c56 fbbd
00000070: 66ce 91bd 0536 2cbd 01f3 953d b6e4 f5bd
00000080: 3c5e e33d 9c8c cc3d 6ecf c83d ead1 3f3c
00000090: da8b 053e 950e ad3d d34a 2cbc 4401 d23d
000000a0: 595b d43d f541 153e 36b9 c93d 19a7 3e3e
000000b0: 17c6 9a3c 8fef 8a3d 2628 e13d e643 d93d
000000c0: ac9c 3e3e 9505 37bd 463d d43d 0cc2 4a3d
000000d0: bde2 7e3d fb98 91bd d47d 0f3c 6d8a 19bc
000000e0: 8679 063e 08c8 753d 05b8 763e ad34 2bbc
000000f0: aacf 2a3e 3936 793d f4f2 9abd 5a71 a1bd
00000100: 4145 2ebe 0f80 b7bd 997b b1bc b625 febd
00000110: 2b00 84be 8534 8fbe 910c 3ebe 3c88 9bbe
00000120: 93ad eabd 61d4 efbc 20d3 bcbd 7500 fd3d
00000130: 2623 9a3d e3f1 a1be a781 97bd 61d1 9abe
00000140: 98aa 9bbd 75ab c8be 4903 14be 6650 bcbe
00000150: 6a26 1e3c 447e a4be 3bb1 593b 09cf b9be
00000160: ace5 583d d64d 843d 99d9 e4bd ac1f 89be
00000170: 8b21 d2be 9054 28be 4135 a4be 8347 3b3e
00000180: aab7 96be f201 97be 62d3 55be 102f 99be
00000190: c34d d0be c5df a0be bc74 52be 040f 8dbe
000001a0: daa9 d7bd a930 38bd 3c6e 613d db1f a2be
000001b0: 9a85 b7bd 9e4c 10be beec 83bd cdaf 8a3d
000001c0: 3ecb bcbe 924b 16be 007b 91be 668c 01be
000001d0: 09de 17be 7a2d 33be 8a8d 7ebd 7239 b13d
000001e0: 14e9 09bc abb8 87be 37ab 2aba 68cd 6bbe
000001f0: 7723 a9be ac2d bcbb beb7 78be 1b69 54be
00000200: f1e5 a8bd 1349 babd f9bf 31be fedd f8bd
00000210: b489 583c b803 fa3d b403 d43d 0331 0e3c
00000220: 7693 95bc fc8f cf3c 4348 0ebd 22b0 eb3d
00000230: 62c2 93bc c59d a2bd 2b36 2b3c 0e2b c03d
00000240: 17c7 07bb af61 6abd 4bf1 7b3d bf0c 71be
00000250: 1b8b febd 3d4b 103b 3163 423e 1f18 fb3c
00000260: 30c4 83bc d820 d7bc d0eb 99bb d846 3ebd
00000270: c7ff 09bd 9ced 99bc df7a 313d 905b 043e
00000280: cb14 96bd 428c d4bd 7c52 02be 5c41 083e
00000290: 8801 ac3d 706d 84bd 536a 10bb 1024 4b3d
000002a0: 83bf c3ba 8c0f f5bd f1d0 243e 8316 4c3d
000002b0: 82d4 1dbd 51fe 823d bb13 e13d 9f23 a43d
000002c0: 6b64 523d 6f6c 9fbd 8d89 38be f992 743c
000002d0: 9fd6 e63d 9379 d63d a7a3 503d ac79 07bd
000002e0: 5396 fb3d 36d2 3d3e ce0f 693d a19a 59bd
000002f0: 247a 0c3d 94c7 c8bd 8ee9 473d cf88 e2bd

bias_hh_l0 f4 [192]
0.23561382 0.06374245 0.00085134007 0.045440648 -0.05565351 0.07557864 -0.060441647 0.019784832
-0.022341786 0.057770837 0.18534367 0.031622283 0.014980895 0.19516084 0.02868529 -0.024435293
-0.05079067 0.07967797 0.039411306 0.02564407 0.039243862 0.07876416 -0.022025507 -0.02877852
-0.03648604 0.13750254 0.008727072 -0.09967089 0.1438152 0.03515066 -0.016280727 -0.057931814
0.103754595 -0.07928166 0.1814862 0.15972829 0.036087643 -0.12100237 0.10973751 0.083191186
0.19742875 -0.04948251 0.11991328 0.037375595 -0.0076569137 -0.066724494 -0.036641445 -0.08318351
0.24253562 0.14709787 0.032980196 0.0774495 -0.020224705 0.05089971 0.08623122 0.025915507
0.09295534 0.063214675 0.24169187 0.009515695 0.23835357 0.113328956 0.015762161 0.06756718
-0.117623 -0.07023965 -0.018723622 -0.35284436 -0.20292044 -0.3485396 -0.20784086 -0.16565561
-0.17100994 0.084019125 -0.004372714 0.008900716 0.06470187 -0.2591926 -0.059255257 -0.26007104
-0.11046934 -0.35104376 -0.24169937 -0.38883123 0.05963277 -0.45227355 0.054576766 -0.5333275
0.101935506 -0.08617786 0.058719967 -0.1450343 -0.31198007 -0.18534519 -0.19738424 0.16030343
-0.2914329 -0.28581253 -0.24735601 -0.40638602 -0.35573897 -0.13120043 -0.2586994 -0.28642774
-0.27503726 -0.004328343 -0.08611111 -0.4466337 -0.09064832 -0.102733955 -0.22523528 0.0053732493
-0.17630309 -0.15072647 -0.18454185 -0.21899153 -0.33973062 -0.1533764 -0.06423612 0.009865655
-0.24048647 -0.25031623 -0.01984549 -0.34511322 -0.3205988 0.15377896 -0.29732668 -0.080045044
0.08124406 -0.12785818 -0.20628594 -0.12742437 0.09578431 0.0914761 0.063295946 0.06801167
-0.014622459 -0.069489226 -0.070267886 0.075383775 -0.04717392 -0.27136585 -0.15294242 -0.034519814
-0.105199054 0.013266857 0.16973111 -0.077979684 -0.067840464 0.022012575 0.19291998 0.008355913
0.11469942 -0.10489556 -0.0518101 0.042194586 0.05916052 0.11249893 -0.11872508 0.059618894
-0.10329403 -0.112569734 -0.06831149 0.10434161 -0.021289857 0.055204455 0.024710508 0.22245
0.099965915 -0.09264186 0.027102925 0.16373357 0.009617571 -0.1866958 0.04236131 0.062411495
0.00894628 0.034027647 -0.27207083 0.052835856 0.104670435 0.13600704 0.006735624 -0.023832552
0.029928083 0.18675996 0.057593524 0.12872414 0.03979357 0.091067456 0.06566194 -0.04871327
00000000: c044 713e 678b 823d 772c 5f3a f91f 3a3d
00000010: eff4 63bd f9c8 9a3d a991 77bd cd13 a23c
00000020: 1f06 b7bc 1da1 6c3d bbca 3d3e 5e86 013d
00000030: 6e72 753c 3ed8 473e 6afd ea3c 862c c8bc
00000040: e109 50bd 342e a33d c06d 213d 8313 d23c
00000050: 2cbe 203d 1b4f a13d d66e b4bc eec0 ebbc
00000060: 6372 15bd 77cd 0c3e fefb 0e3c 4020 ccbd
00000070: 4b44 133e 23fa 0f3d 295f 85bc e949 6dbd
00000080: 4a7d d43d 6c5e a2bd 85d7 393e d08f 233e
00000090: a3d0 133d 17d0 f7bd 0fbe e03d 2460 aa3d
000000a0: c32a 4a3e 2cae 4abd 1895 f53d 2717 193d
000000b0: d9e6 fabb daa6 88bd 5715 16bd 1e5c aabd
000000c0: 425b 783e d3a0 163e 3e16 073d d89d 9e3d
000000d0: 48ae a5bc 377c 503d fe99 b03d c24c d43c
000000e0: 5f5f be3d b276 813d 137e 773e b8e7 1b3c
000000f0: f512 743e 0319 e83d a61f 813c a960 8a3d
00000100: 54e4 f0bd ced9 8fbd 4862 99bc 04a8 b4be
00000110: 60ca 4fbe c873 b2be 3cd4 54be a0a1 29be
00000120: 3b1d 2fbe 3812 ac3d fc48 8fbb 4fd4 113c
00000130: 6a82 843d e4b4 84be a4b5 72bd 0828 85be
00000140: c03d e2bd 02bc b3be 0a80 77be e314 c7be
00000150: 7e41 743d 6690 e7be e38b 5f3d 2788 08bf
00000160: 90c3 d03d 057e b0bd 5984 703d df83 14be
00000170: dabb 9fbe 21cb 3dbe 181f 4abe 9526 243e
00000180: b136 95be 0556 92be e54a 7dbe d411 d0be
00000190: 6b23 b6be 6859 06be 3f74 84be a8a6 92be
000001a0: afd1 8cbe c6d4 8dbb 065b b0bd 2cad e4be
000001b0: d4a5 b9bd 2e66 d2bd 14a4 66be 1512 b03b
000001c0: cc88 34be 0a58 1abe 8af8 3cbe 513f 60be
000001d0: 2cf1 adbe b40e 1dbe 3a8e 83bd 8ea3 213c
000001e0: 1642 76be 7329 80be 0293 a2bc aeb2 b0be
000001f0: 8725 a4be 3b78 1d3e 343b 98be a8ee a3bd
00000200: 4963 a63d 41ed 02be 9f3c 53be 897b 02be
00000210: 902a c43d d257 bb3d 4ea1 813d b449 8b3d
00000220: 0a93 6fbc 5e50 8ebd 9ce8 8fbd cf62 9a3d
00000230: 7139 41bd 77f0 8abe f09c 1cbe a664 0dbd
00000240: 9a72 d7bd 3b5d 593c fecd 2d3e d0b3 9fbd
00000250: f1ef 8abd b753 b43c d18c 453e 3de7 083c
00000260: 88e7 ea3d 7cd3 d6bd d436 54bd 3bd4 2c3d
00000270: 4d52 723d d765 e63d 2226 f3bd f132 743d
00000280: d28b d3bd f68a e6bd e5e6 8bbd 0eb1 d53d
00000290: 1168 aebc 111e 623d b16d ca3c efc9 633e
000002a0: eeba cc3d 04bb bdbd f406 de3c c6a9 273e
000002b0: 0493 1d3c 2f2d 3fbe 0e83 2d3d 32a3 7f3d
000002c0: 6b93 123c 9360 0b3d de4c 8bbe 696a 583d
000002d0: 745d d63d 6e45 0b3e 82b6 dc3b 7c3c c3bc
000002e0: bd2b f53c 013e 3f3e 30e7 6b3d 43d0 033e
000002f0: 95fe 223d 9381 ba3d c479 863d 9187 47bd

weight_ih_l1 f4 [192, 64]
-0.13137837 -0.0638073 -0.07523172 -0.16903955 -0.36663347 -0.10053567 -0.10725397 0.07347688
-0.2691422 0.0603672 -0.002658854 -0.08990035 -0.15996838 0.08368325 -0.22119972 -0.008930321
0.19438791 0.24311456 0.19533297 -0.15185285 0.084702596 -0.37893972 0.12244435 -0.17690054
-0.14768434 0.22261035 0.03581382 0.020159854 -0.09847825 -0.14274845 -0.1232267 0.06312188
-0.05422343 -0.02584005 -0.21428144 -0.058857836 -0.1504559 0.08942776 0.087337814 -0.2585689
-0.05069943 0.06075296 0.026453659 0.2745418 -0.13160025 0.09432216 -0.034834903 -0.15723187
-0.09026415 0.011196181 0.086259186 -0.15425415 0.023292644 0.11814044 0.100182205 0.012778899
0.08280434 -0.027376499 0.21932371 0.009725469 0.18488885 0.019567242 -0.09861765 0.20583759
-0.16609505 -0.09925332 -0.068706445 -0.14160366 -0.29547983 0.3385906 -0.10101289 -0.2573066
-0.03802915 -0.0767013 -0.16558902 0.30104396 -0.0022001637 0.10904484 -0.34253398 -0.12559545
0.104500234 0.09411256 0.07404281 -0.25846422 -0.062317826 -0.18196565 0.16099784 -0.22871879
0.19168401 -0.19360976 0.12049347 -0.12056615 0.033403214 -0.02345016 0.19741553 0.17547451
-0.15109509 -0.16654612 -0.34430984 -0.0017540591 -0.0030810365 -0.027683163 0.11552344 -0.14233084
0.07326168 -0.17532024 0.07555468 0.20924175 -0.14397562 0.03617173 0.39486265 -0.27641168
0.03377631 0.18715534 0.04284006 -0.007892169 -0.085605696 0.0028203698 0.23326892 0.07787731
0.0056396513 0.0327886 0.13153405 -0.12243949 0.210497 -0.11583605 -0.10750732 0.14501178
-0.12375473 0.008715917 -0.09647097 -0.14733358 -0.35998607 -0.010750203 -0.068805784 -0.12429861
-0.2763795 0.18032888 0.053050257 -0.014075044 -0.076737545 0.09837536 -0.25894552 0.06308863
0.20639004 0.24255407 0.12187024 -0.0060687056 0.047048893 -0.31242803 -0.067779996 -0.07951047
0.009503714 0.021653192 -0.060725722 -0.011168309 -0.0583761 -0.11626167 -0.08882713 -0.052340463
0.04311385 -0.019318061 -0.2061551 -0.12188114 -0.16205849 0.090281986 0.20333897 -0.24303669
-0.021700952 0.027354565 0.03799859 0.35518166 -0.14845097 -0.065436386 0.13938676 -0.18036306
-0.013879078 -0.043013252 0.1739252 0.07898055 0.08020356 0.16427551 0.1221243 -0.14529474
0.0034082676 0.050080765 0.105424665 0.07123795 0.17656648 0.14925867 -0.10741346 0.32607952
-0.026663518 0.0926723 -0.01773645 -0.10603115 0.085685275 -0.1139622 0.15233395 0.08958645
-0.15679492 0.1167055 0.034662917 0.17668359 -0.13286598 0.21690638 -0.21826841 -0.12512797
-0.010276776 0.13311194 -0.07442363 -0.06743628 0.062082153 -0.05460883 0.052884847 -0.22245881
-0.12057496 -0.13147044 0.058310986 -0.111234516 0.03347974 -0.009302766 0.012346654 0.12186261
-0.020432815 0.12337729 -0.13312662 0.09462754 0.036149364 -0.029004626 0.022183407 -0.023635289
0.13785672 0.021373278 -0.0042018243 0.11117546 0.0053223614 -0.06957624 0.17567407 0.019499004
-0.06855798 -0.13061775 -0.014601356 0.034241043 0.05810574 -0.041208282 0.15187663 0.09386738
0.0047818455 0.09973915 0.015143171 0.012153476 -0.10080386 0.013964817 -0.09680781 0.049844723
00000000: 0d88 06be 67ad 82bd 1713 9abd b418 2dbe
00000010: 62b7 bbbe a5e5 cdbd f8a7 dbbd 0c7b 963d
00000020: 02cd 89be 9943 773d 2b40 2ebb ad1d b8bd
00000030: c0ce 23be 2062 ab3d 2e82 62be 7b50 12bc
00000040: a00d 473e 06f3 783e 5e05 483e 507f 1bbe
00000050: 8e78 ad3d 6304 c2be 1ac4 fa3d 6a25 35be
00000060: 903a 17be f8f3 633e 83b1 123d 4726 a53c
00000070: f7ae c9bd a62c 12be 485e fcbd 0b46 813d
00000080: 6319 5ebd 83ae d3bc 986c 5bbe ea14 71bd
00000090: 1d11 1abe e725 b73d 2bde b23d 2563 84be
000000a0: 35aa 4fbd 19d8 783d 58b5 d83c be90 8c3e
000000b0: 37c2 06be fa2b c13d 0baf 0ebd 6401 21be
000000c0: 69dc b8bd 3070 373c a8a8 b03d cdf4 1dbe
000000d0: 37d0 be3c 9df3 f13d 542c cd3d 965e 513c
000000e0: 5295 a93d ae44 e0bc 6596 603e 9357 1f3c
000000f0: 8153 3d3e 7b4b a03c 0df8 c9bd 17c7 523e
00000100: d214 2abe 5345 cbbd f7b5 8cbd 8d00 11be
00000110: 2249 97be bf5b ad3e d9df cebd b1bd 83be
00000120: 74c4 1bbd 9215 9dbd 2b90 29be 6f22 9a3e
00000130: 9f30 10bb e752 df3d 9d60 afbe 189c 00be
00000140: 3804 d63d 16be c03d c2a3 973d 6c55 84be
00000150: fa40 7fbd 3455 3abe 9edc 243e 4235 6abe
00000160: d048 443e a341 46be 48c5 f63d 63eb f6bd
00000170: cfd1 083d 8d1a c0bc 4c27 4a3e 97af 333e
00000180: acb8 1abe 118b 2abe 6149 b0be 75e8 e5ba
00000190: 37eb 49bb cdc7 e2bc 8e97 ec3d 2dbf 11be
000001a0: 380a 963d 2687 33be 69bc 9a3d 7843 563e
000001b0: 586e 13be cf28 143d 702b ca3e d585 8dbe
000001c0: 0759 0a3d a6a5 3f3e 0f79 2f3d 284e 01bc
000001d0: 0a52 afbd f4d5 383b 0cde 6e3e 247e 9f3d
000001e0: d3cc b83b 574d 063d ddb0 063e 8ec1 fabd
000001f0: 878c 573e 733b edbd cc2c dcbd f87d 143e
00000200: 1f73 fdbd 35cd 0e3c 9292 c5bd 9dde 16be
00000210: 1850 b8be 9f21 30bc 0cea 8cbd 4590 febd
00000220: 9d81 8dbe 22a8 383e 3a4b 593d 039b 66bc
00000230: 9328 9dbd 0579 c93d 8294 84be 9d34 813d
00000240: e957 533e 1860 783e 1b97 f93d fedb c6bb
00000250: 57b6 403d 91f6 9fbe 3dd0 8abd 63d6 a2bd
00000260: 77b5 1b3c 0962 b13c 89bb 78bd 48fb 36bc
00000270: c71b 6fbd 991a eebd 00eb b5bd f462 56bd
00000280: 2698 303d e940 9ebc 531a 53be d29c f9bd
00000290: a9f2 25be c3e5 b83d 1738 503e 9cde 78be
000002a0: 32c6 b1bc ae16 e03c 69a4 1b3d 5fda b53e
000002b0: 8803 18be 8303 86bd 67bb 0e3e 18b1 38be
000002c0: 1365 63bc aa2e 30bd 7319 323e 8ec0 a13d
000002d0: c441 a43d d737 283e 4e1c fa3d 25c8 14be
000002e0: 3e5d 5f3b 7d21 4d3d e3e8 d73d 34e5 913d
000002f0: d8cd 343e 44d7 183e 97fb dbbd e5f3 a63e
00000300: 736d dabc faca bd3d 084c 91bc dc26 d9bd
00000310: c37b af3d 0465 e9bd 6efd 1b3e 1a79 b73d
00000320: d98e 20be 4b03 ef3d b4fa 0d3d 8bec 343e
00000330: 050e 08be b51c 5e3e c181 5fbe 8c21 00be
00000340: ec5f 28bc 7f4e 083e 6b6b 98bd 081c 8abd
00000350: db49 7e3d 82ad 5fbd c89d 583d 3ecc 63be
00000360: 01f0 f6bd 30a0 06be 80d7 6e3d ecce e3bd
00000370: 0d22 093d a16a 18bc 9f49 4a3c 1b93 f93d
00000380: b862 a7bc 3cad fc3d 5852 08be 15cc c13d
00000390: 5b11 143d 1c9b edbc fab9 b53c cb9e c1bc
000003a0: 502a 0d3e 0317 af3c 75af 89bb f6af e33d
000003b0: 3467 ae3b fd7d 8ebd e7e3 333e 60bc 9f3c
000003c0: 2068 8cbd a9c0 05be 873a 6fbc 5640 0c3d
000003d0: 4900 6e3d 04ca 28bd 8c85 1b3e 8a3d c03d
000003e0: 07b1 9c3b 0a44 cc3d 101b 783c 5f1f 473c
000003f0: 4172 cebd b0cc 643c 2c43 c6bd fb29 4c3d

weight_hh_l1 f4 [192, 64]
0.07242703 -0.046642177 -0.030120179 0.03842686 0.066481836 0.25368926 -0.013231074 -0.10081708
0.06945264 0.11265575 0.100834094 0.24069084 -0.04511758 0.15926212 -0.09534562 0.1475269
-0.07965838 0.01783684 -0.1345255 0.0021631643 0.10993435 -0.04738568 0.08558931 0.027911874
-0.025794625 0.07091627 -0.11455497 -0.09059294 0.08985479 0.22373484 0.12411703 -0.009333473
0.26221654 0.04470526 -0.15017237 0.16498728 -0.0062157726 -0.04065579 0.0014458413 -0.13807702
-0.052489564 0.12027297 0.1318529 -0.026757926 0.06888302 -0.16628623 0.06583959 0.06856855
0.24163383 -0.23673205 0.075112686 0.11693847 -0.08872413 0.029153228 -0.010929408 0.18533517
0.08106438 -0.20747186 0.20813592 0.052330125 -0.106995925 0.08874876 -0.042146895 0.11825138
0.13005961 -0.02407367 -0.16049097 -0.0067504905 0.043136712 -0.008530227 -0.19352768 -0.11243585
0.16624288 0.10946382 0.040090606 0.19997251 -0.0012235483 -0.0048564733 0.107341275 0.14156559
0.07479521 -0.030090595 -0.18262298 -0.0038109687 0.002867786 -0.017326316 0.13189788 -0.11104823
-0.07937031 0.11615014 0.07111668 0.081883915 0.023416542 0.20052655 0.008734967 -0.060090475
0.012585774 -0.16920021 -0.17519882 -0.0146055315 -0.22494398 0.10818626 0.17560077 0.054322135
-0.18156019 0.10105063 0.048255917 -0.16883996 0.14139752 -0.092942335 0.048678596 -0.024482075
0.14888333 -0.0975288 0.040975966 0.17678681 -0.09987715 0.0825185 -0.100604706 0.19113071
-0.095776096 -0.03432315 0.107610054 0.030962823 -0.023020841 0.12012631 -0.011598213 -0.11317743
0.123854555 -0.19092406 0.03338828 0.28993782 0.038514104 0.15866338 0.058689762 -0.009872644
0.078956634 -0.008487191 0.19622695 0.14960365 0.014672165 0.089886695 -0.08330266 0.083504535
0.04061909 0.025569633 0.011012106 -0.047371417 -0.10853246 -0.22668068 0.053631313 -0.06602651
-0.060013317 -0.0040699616 -0.0908242 0.101749085 0.07115288 0.05332721 0.14198244 -0.1979401
0.29431245 0.03589711 -0.15034612 0.16865101 -0.0072521595 0.071295746 0.0853876 -0.0069246995
-0.013928414 0.062154457 -0.02170313 -0.03708496 0.08241888 -0.15129378 0.16959704 0.016428394
0.16844028 -0.1905329 0.13416933 0.16516678 -0.14921057 -0.04770391 -0.034055766 -0.0054198657
-0.0987886 -0.07127953 0.089709915 0.1345681 -0.10584057 -0.023068907 0.015444641 0.20301196
-0.053991113 -0.09960131 -0.12217712 0.36985517 -0.07758804 0.082922645 -0.0760906 -0.10067743
-0.07693393 0.104674995 0.024551881 0.07706473 -0.045093615 0.116158724 0.071111456 -0.07750416
-0.09614024 0.13107625 0.0932292 -0.044849563 0.10545892 -0.2017124 -0.09691515 0.16400519
0.08334624 0.08991403 -0.06592925 -0.04356894 0.02225964 0.20134561 0.14852437 -0.09970789
0.30794555 0.086578555 -0.13186996 0.22332162 -0.051605962 0.10858204 0.095622934 0.13346589
-0.120160796 -0.01629814 -0.028719038 0.06766904 0.041108236 0.047737375 -0.04949254 0.09141315
-0.08533532 -0.09477303 -0.06350941 -0.072668955 -0.0046034586 0.13661866 -0.11388189 0.10231469
-0.09306311 -0.07124407 0.027973687 0.20804255 0.051939797 0.03469207 0.13785735 0.21357116
00000000: 9f54 943d de0b 3fbd 98be f6bc 7c65 1d3d
00000010: a127 883d 8fe3 813e 26c7 58bc 2f79 cebd
00000020: 303d 8e3d 0fb8 e63d 1b82 ce3d a977 763e
00000030: 36cd 38bd 9c15 233e 9044 c3bd 4b11 173e
00000040: ef23 a3bd 911e 923c 0dc1 09be e0c3 0d3b
00000050: 4325 e13d 7d17 42bd 7349 af3d 71a7 e43c
00000060: 404f d3bc 8d3c 913d cc9b eabd cb88 b9bd
00000070: ca05 b83d bf1a 653e 1231 fe3d 6ceb 18bc
00000080: 3f41 863e dd1c 373d c9c6 19be 6df2 283e
00000090: aead cbbb b086 26bd 6282 bd3a 1064 0dbe
000000a0: 4cff 56bd ad51 f63d 7204 073e 7033 dbbc
000000b0: 8a12 8d3d f046 2abe e8d6 863d ab6d 8c3d
000000c0: dc6e 773e e369 72be aed4 993d 707d ef3d
000000d0: ffb4 b5bd c0d2 ee3c 4211 33bc 81c8 3d3e
000000e0: 1505 a63d 8173 54be 9521 553e 1d58 563d
000000f0: ae20 dbbd e9c1 b53d 39a2 2cbd c82d f23d
00000100: 592e 053e 2536 c5bc bf57 24be 3833 ddbb
00000110: 1fb0 303d 5dc2 0bbc 1f2c 46be c444 e6bd
00000120: 933b 2a3e 912e e03d 0c36 243d 98c5 4c3e
00000130: 785f a0ba 0d23 9fbb bed5 db3d 92f6 103e
00000140: 3b2e 993d 8d80 f6bc 8501 3bbe 72c1 79bb
00000150: 77f1 3b3b ebef 8dbc 3d10 073e 416d e3bd
00000160: e78c a2bd 20e0 ed3d 9fa5 913d c1b2 a73d
00000170: 0cd4 bf3c d556 4d3e 1b1d 0f3c 6e21 76bd
00000180: 9034 4e3c d242 2dbe 5267 33be 0a4c 6fbc
00000190: b757 66be c290 dd3d b0d0 333e e380 5e3d
000001a0: eaea 39be a2f3 ce3d ffa7 453d 62e4 2cbe
000001b0: 83ca 103e 8d58 bebd 3563 473d a28e c8bc
000001c0: df74 183e 2ebd c7bd 6ad6 273d 9a07 353e
000001d0: 648c ccbd 76ff a83d d709 cebd c5b7 433e
000001e0: 4226 c4bd 6e96 0cbd a962 dc3d bfa5 fd3c
000001f0: 3496 bcbc c804 f63d 6e06 3ebc 92c9 e7bd
00000200: 75a7 fd3d 9981 43be 26c2 083d bb72 943e
00000210: f7c0 1d3d a778 223e ad64 703d dfc0 21bc
00000220: 04b4 a13d dc0d 0bbc b8ef 483e b331 193e
00000230: 8563 703c 8416 b83d 969a aabd 6d04 ab3d
00000240: 3460 263d 6877 d13c 1f6c 343c 8808 42bd
00000250: 4446 debd fb1e 68be 82ac 5b3d e838 87bd
00000260: 86d0 75bd 505d 85bb 0a02 babd d361 d03d
00000270: 9ab8 913d a26d 5a3d d863 113e cfb0 4abe
00000280: 1fb0 963e d908 133d 55f4 19be dab2 2c3e
00000290: 86a3 edbb 8103 923d b2df ae3d 97e8 e2bb
000002a0: 0134 64bc ac95 7e3d c3ca b1bc 66e6 17bd
000002b0: 3bcb a83d c2ec 1abe d9aa 2d3e d794 863c
000002c0: 9c7b 2c3e 0e1b 43be af63 093e 7b21 293e
000002d0: a8ca 18be 2d65 43bd 0f7e 0bbd 2199 b1bb
000002e0: ad51 cabd 01fb 91bd d5b9 b73d 38cc 093e
000002f0: f1c2 d8bd 01fb bcbc 850b 7d3c 5ee2 4f3e
00000300: c925 5dbd c6fb cbbd ff37 fabd a85d bd3e
00000310: 7ae6 9ebd 59d3 a93d 63d5 9bbd f82f cebd
00000320: 898f 9dbd d85f d63d 0721 c93c 1dd4 9d3d
00000330: 15b4 38bd a0e4 ed3d e2a2 913d 80ba 9ebd
00000340: 2de5 c4bd da38 063e f3ee be3d 2db4 37bd
00000350: d9fa d73d b28d 4ebe 737b c6bd faf0 273e
00000360: 6fb1 aa3d d924 b83d ea05 87bd 5875 32bd
00000370: d959 b63c 8b2d 4e3e c616 183e a633 ccbd
00000380: 0aab 9d3e 1950 b13d eb08 07be 6cae 643e
00000390: c660 53bd 4360 de3d f5d5 c33d 48ab 083e
000003a0: dd16 f6bd ad83 85bc 3044 ebbc 1196 8a3d
000003b0: 1c61 283d 4488 433d b1b8 4abd d136 bb3d
000003c0: 49c4 aebd 5d18 c2bd 3911 82bd 76d3 94bd
000003d0: 9cd8 96bb c3e5 0b3e e93a e9bd 5d8a d13d
000003e0: df97 bebd 69e8 91bd 1329 e53c 1b09 553e
000003f0: d3be 543d 4619 0e3d 7a2a 0d3e 66b2 5a3e

bias_ih_l1 f4 [192]
0.03248296 0.18207718 0.21447036 0.11202948 0.081463255 0.013943687 0.12259255 -0.029300578
0.020491742 -0.0497117 0.058696922 0.072094634 -0.003883673 0.17278922 -0.048818167 0.10338842
0.20517379 0.0113021275 0.30538708 0.007451373 -0.106829815 0.1597757 0.02266301 -0.03445309
-0.08150983 0.08431874 -0.13496962 -0.11922018 0.10139888 0.08296824 0.055247396 0.14890882
0.062092923 -0.063508786 0.13009393 -0.20235543 0.19314341 0.017810924 0.1489029 0.027348785
0.038242806 -0.109806314 0.09434557 0.1626642 0.13711634 0.0826546 0.014914315 0.12134492
0.13055408 0.17972317 -0.02823469 -0.015043091 -0.009628897 0.061264504 -0.0132759595 0.21074694
0.02769915 0.19072635 0.0023954269 0.012311175 0.0017342996 -0.044148386 0.20136093 -0.056799304
0.08855997 -0.24809065 0.12020039 -0.16135517 -0.14958356 0.005784767 -0.06951346 -0.20647815
-0.19613695 -0.040200327 -0.09254979 -0.011569267 -0.05263013 -0.009992244 -0.17790565 -0.31416672
-0.013581535 -0.16801018 0.094984405 -0.15132597 -0.14134553 -0.20580517 0.016389506 -0.114473686
0.09362819 -0.3498869 0.09319744 -0.21718182 -0.07126791 -0.111696705 -0.113314465 -0.18820056
-0.07470631 -0.03357203 -0.07873405 -0.06485756 -0.15943505 -0.3965809 0.03390673 -0.1347524
-0.15239595 -0.042557776 -0.08260618 -0.19179237 -0.088992424 -0.23087817 -0.14847068 -0.323059
-0.09451089 -0.029728068 -0.14606845 -0.19112368 -0.2329389 0.29382607 -0.24255012 -0.3123137
-0.07748404 0.09733402 -0.05665572 -0.0631348 -0.20599954 -0.19675905 -0.3940435 -0.037963632
0.088440545 -0.2556366 -0.0043777954 -0.04947022 -0.20886737 -0.15488262 -0.045251757 -0.26075464
0.25726324 0.09177315 0.10749098 0.11145325 -0.14133047 -0.0049277437 0.16691099 0.08697222
-0.20288013 -0.07044473 -0.053693734 -0.010952497 0.13232069 -0.024828022 -0.02543161 -0.0031629242
-0.047592197 0.19303398 -0.008011604 0.06141819 0.016637448 0.019815767 0.27124697 -0.268652
0.0153382635 0.09272132 0.039305422 -0.13445443 -0.076873854 0.17397445 0.059391297 -0.044442963
0.14213744 -0.00059270865 0.17816345 -0.20308791 0.18251318 -0.30260396 0.062327627 -0.22413598
-0.012025795 -0.052994348 -0.026052043 0.15158482 -0.14153172 -0.02367221 -0.30987012 0.28200477
-0.036749035 -0.14679322 -0.13277616 -0.018961439 -0.29501978 0.09185226 0.34787893 0.07562626
00000000: da0c 053d 7172 3a3e 1e9e 5b3e b66f e53d
00000010: 35d6 a63d 1074 643c ce11 fb3d c407 f0bc
00000020: 4cde a73c 7f9e 4bbd 2f6c 703d 5aa6 933d
00000030: 3985 7ebb a8ef 303e 8ff5 47bd 4fbd d33d
00000040: 1419 523e 8f2c 393c b25b 9c3e a62a f43b
00000050: 97c9 dabd 3e9c 233e c7a7 b93c af1e 0dbd
00000060: a0ee a6bd 4eaf ac3d 7a35 0abe b629 f4bd
00000070: 37aa cf3d 41eb a93d 184b 623d 8e7b 183e
00000080: 2655 7e3d e510 82bd 5837 053e 4336 4fbe
00000090: 63c7 453e 37e8 913c 007a 183e 8f0a e03c
000000a0: 7da4 1c3d 22e2 e0bd 4038 c13d 7291 263e
000000b0: 3a68 0c3e d146 a93d 2c5b 743c af83 f83d
000000c0: f8af 053e 5a09 383e 704c e7bc 4c77 76bc
000000d0: 85c2 1dbc 7df0 7a3d 6983 59bc 0cce 573e
000000e0: 54e9 e23c c54d 433e 98fc 1c3b d0b4 493c
000000f0: 7051 e33a f0d4 34bd 8f31 4e3e 63a6 68bd
00000100: ee5e b53d 7a0b 7ebe 9f2b f63d 4a3a 25be
00000110: 6f2c 19be 258e bd3b 135d 8ebd 026f 53be
00000120: 20d8 48be 19a9 24bd bf8a bdbd 068d 3dbc
00000130: b192 57bd 82b6 23bc e62c 36be 76da a0be
00000140: 1685 5ebc dc0a 2cbe 2f87 c23d 32f5 1abe
00000150: e2bc 10be 97be 52be 4943 863c 2e71 eabd
00000160: 23c0 bf3d 6024 b3be 4dde be3d e964 5ebe
00000170: e9f4 91bd 3ec1 e4bd 6a11 e8bd a6b7 40be
00000180: 9fff 98bd d382 09bd 513f a1bd 0ad4 84bd
00000190: f142 23be a70c cbbe c9e1 0a3d 88fc 09be
000001a0: af0d 1cbe 1051 2ebd 6e2d a9bd 3865 44be
000001b0: a941 b6bd 546b 6cbe b308 18be fd67 a5be
000001c0: ed8e c1bd 4788 f3bc f892 15be edb5 43be
000001d0: 8987 6ebe 5f70 963e 0f5f 78be 95e7 9fbe
000001e0: f4af 9ebd 0f57 c73d d40f 68bd d14c 81bd
000001f0: 8bf1 52be 347b 49be 12c0 c9be c17f 1bbd
00000200: 5120 b53d cde2 82be 9c73 8fbb 49a1 4abd
00000210: 54e1 55be 8d99 1ebe e859 39bd a281 85be
00000220: 02b8 833e 90f3 bb3d 3b24 dc3d 9a41 e43d
00000230: efb8 10be e978 a1bb b7ea 2a3e 7e1e b23d
00000240: cfbf 4fbe 5445 90bd f6ed 5bbd 1a72 33bc
00000250: 137f 073e 2364 cbbc f455 d0bc 1049 4fbb
00000260: 09f0 42bd b3aa 453e 1a43 03bc a491 7b3d
00000270: 424b 883c ad54 a23c e2e0 8a3e c18c 89be
00000280: 574d 7b3c ade4 bd3d b9fe 203d 6cae 09be
00000290: 0a70 9dbd 5c26 323e 4a44 733d d309 36bd
000002a0: 7a8c 113e 0160 1bba 7b70 363e 47f6 4fbe
000002b0: bce4 3a3e e8ee 9abe 414b 7f3d e783 65be
000002c0: d707 45bc 9a10 59bd 186b d5bc 0d39 1b3e
000002d0: b1ed 10be 39ec c1bc 4ca7 9ebe ee62 903e
000002e0: 2886 16bd f650 16be 79f6 07be 0555 9bbc
000002f0: d50c 97be 0a1d bc3d 301d b23e f1e1 9a3d

bias_hh_l1 f4 [192]
-0.05649514 0.12993205 0.15040849 0.13756578 0.14236654 -0.044120718 -0.019567331 0.061493356
0.14874318 -0.07622939 -0.0034927723 0.057125494 -0.07709504 0.016517116 -0.019227393 0.06938629
0.28770596 0.09823651 0.08758942 0.103561506 -0.1358428 0.19162762 0.20068651 0.073062256
0.07975964 0.04675128 0.092764825 -0.07038378 0.044257417 -0.009515888 0.017437464 0.06475312
0.025860969 -0.054544125 -0.04150443 -0.07907046 0.13866463 0.0863983 0.07867365 -0.03843318
-0.047033887 0.079130694 0.08924017 0.011184936 0.05337242 0.10063889 -0.032038577 0.11562576
0.12335058 0.18488395 0.05998084 -0.059125077 -0.04470866 0.07870051 0.09978848 0.23596263
0.04659868 0.047713164 0.1340125 0.13843116 0.10721279 0.13246387 0.06316328 -0.019515729
0.13030699 -0.31878132 -0.045832336 -0.17024623 -0.16551988 0.010715934 -0.06476927 -0.20292567
-0.24333733 0.052529775 -0.04655611 -0.025042318 0.018555416 -0.09785692 -0.16624245 -0.1391248
-0.120860614 -0.033588517 0.14318825 -0.006782407 -0.16311666 -0.08710152 -0.11014308 -0.14162505
-0.106647655 -0.36599034 0.09365168 -0.15364371 -0.028645802 0.11951456 -0.12952878 -0.24053355
0.015856076 -0.038331702 -0.0441256 -0.17187361 -0.14875463 -0.28759313 -0.14168479 -0.07113119
-0.22392462 -0.07524947 -0.052482028 -0.26404235 -0.23393211 -0.4319568 -0.10035382 -0.31118035
-0.12893604 -0.10256039 -0.16152583 -0.17792684 -0.22473742 0.24918702 -0.16088292 -0.27968615
0.013773301 0.014901946 0.11108495 -0.11424522 -0.041319106 -0.21762575 -0.38765302 0.028051794
0.15306501 -0.1540338 -0.04487743 -0.029715521 -0.18770382 -0.14610432 -0.15647118 -0.3419109
0.22923084 -0.068440035 0.14625387 0.18609343 -0.13053837 -0.05639476 0.14270623 0.4067701
-0.13258038 0.0280411 -0.050613668 -0.19027765 0.07918796 0.15827616 -0.076421596 0.020393105
-0.0060893595 0.21226758 0.09262903 0.12975925 0.16438438 0.09963654 0.31421876 -0.22142419
0.06804386 0.10375498 -0.011326892 0.07733144 -0.24595056 0.10748487 -0.082351804 -0.1163467
0.07980915 0.11860044 0.22971714 -0.2124242 0.06501928 -0.3759452 0.0033045071 -0.046641815
0.13181908 -0.18854252 -0.0064923475 0.1651773 -0.10147687 0.12326068 -0.0687202 0.3616012
0.19699927 -0.027995877 -0.13865249 -0.11601433 -0.17025363 0.31420338 0.10737199 0.048055775
00000000: 7367 67bd e80c 053e af04 1a3e 0bde 0c3e
00000010: 89c8 113e edb7 34bd ab4b a0bc 75e0 7b3d
00000020: 2250 183e 281e 9cbd ffe6 64bb 6cfc 693d
00000030: 01e4 9dbd e74e 873c c482 9dbc 661a 8e3d
00000040: 324e 933e 3930 c93d 1562 b33d 0e18 d43d
00000050: 601a 0bbe 083a 443e c480 4d3e aaa1 953d
00000060: 0659 a33d 457e 3f3d 7cfb bd3d 5f25 90bd
00000070: 4447 353d 87e8 1bbc 03d9 8e3c 499d 843d
00000080: 62da d33c a969 5fbd 8d00 2abd b1ef a1bd
00000090: 1afe 0d3e 98f1 b03d a71f a13d 1c6c 1dbd
000000a0: 9ba6 40bd 460f a23d 8dc3 b63d 0641 373c
000000b0: 0a9d 5a3d c31b ce3d e23a 03bd 33cd ec3d
000000c0: 3b9f fc3d 3852 3d3e 78ae 753d 232d 72bd
000000d0: 6e20 37bd bc2d a13d e75d cc3d 30a0 713e
000000e0: 42de 3e3d e16e 433d 933a 093e e6c0 0d3e
000000f0: 6192 db3d 9ca4 073e c05b 813d 73df 9fbc
00000100: 326f 053e 4e37 a3be b0ba 3bbd 0755 2ebe
00000110: 0b7e 29be e391 2f3c c0a5 84bd bfcb 4fbe
00000120: 6c2d 79be 7629 573d 9fb1 3ebd 8c25 cdbc
00000130: 8701 983c 3569 c8bd 763b 2abe bb76 0ebe
00000140: c585 f7bd 1d94 09bd f19f 123e f43e debb
00000150: 0e08 27be 4862 b2bd b292 e1bd 2806 11be
00000160: 166a dabd 1663 bbbe 74cc bf3d c754 1dbe
00000170: 9aaa eabc 0dc4 f43d 31a3 04be 6d4e 76be
00000180: 9ae4 813c b401 1dbd 0cbd 34bd a3ff 2fbe
00000190: 2253 18be 683f 93be d115 11be 3bad 91bd
000001a0: 7f4c 65be 651c 9abd 65f7 56bd 8f30 87be
000001b0: e68b 6fbe 7129 ddbe 4e86 cdbd 0853 9fbe
000001c0: cf07 04be 2f0b d2bd 0767 25be 7432 36be
000001d0: 9121 66be e22a 7f3e 7ebe 24be 0633 8fbe
000001e0: 69a9 613c 4b27 743c 8280 e33d 66f9 e9bd
000001f0: 393e 29bd 49d9 5ebe 757a c6be e0cc e53c
00000200: 13bd 1c3e 09bb 1dbe 65d1 37bd f76d f3bc
00000210: 6e35 40be 5f9c 15be fb39 20be f20e afbe
00000220: 7dbb 6a3e 4a2a 8cbd 93c3 153e 478f 3e3e
00000230: daab 05be 31fe 66bd 9521 123e 2c44 d03e
00000240: 27c3 07be 73b6 e53c 4750 4fbd 25d8 42be
00000250: 4c2d a23d 2513 223e ed82 9cbd 710f a73c
00000260: 4089 c7bb ac5c 593e 4ab4 bd3d 9cdf 043e
00000270: 6154 283e 3e0e cc3d 48e1 a03e 06bd 62be
00000280: 945a 8b3d 7e7d d43d 6e94 39bc f25f 9e3d
00000290: 77da 7bbe 0721 dc3d 10a8 a8bd 2e47 eebd
000002a0: fb72 a33d cae4 f23d f83a 6b3e bb85 59be
000002b0: d428 853d e47b c0be 6e90 583b 7d0b 3fbd
000002c0: 95fb 063e 4a11 41be c2bd d4bb 3d24 293e
000002d0: 1bd3 cfbd 1870 fc3d 2dbd 8cbd cb23 b93e
000002e0: 2dba 493e 9c57 e5bc ebfa 0dbe ec98 edbd
000002f0: f856 2ebe 44df a03e d9e5 db3d 22d6 443d

weight f4 [1, 64]
-0.52385783 -0.30420062 0.58137715 -0.23548727 -0.2603469 -0.5275899 -0.48327222 -0.36173317
0.3526722 -0.58010185 -0.5039868 0.2601025 -0.4373477 -0.49702555 0.520736 0.311803
-0.31841958 -0.4685531 0.57727027 -0.4898598 0.44199738 0.46603096 -0.37502024 -0.36542398
-0.27965984 0.29864824 0.52295816 0.3851394 0.38370222 -0.2386395 0.27720532 -0.44793478
-0.4381972 0.5090984 0.519635 -0.53249925 -0.22655518 0.3608132 -0.5349142 -0.25675762
0.36837828 0.36464965 0.33700207 -0.38156363 0.13115646 -0.27306417 0.37897712 -0.34958178
0.20021367 -0.18444256 -0.5191173 0.37709174 -0.26966757 -0.54902816 -0.35769123 0.3805453
0.49721283 0.5580208 -0.41264898 -0.30730844 -0.30203733 0.28408247 0.2616151 -0.60517716
00000000: 8c1b 06bf 2fc0 9bbe 22d5 143f 9323 71be
00000010: 304c 85be 2210 07bf 756f f7be 1735 b9be
00000020: 7391 b43e 8e81 14bf 4705 01bf 282c 853e
00000030: 0aec dfbe 227a febe f44e 053f a5a4 9f3e
00000040: e407 a3be 31e6 efbe fcc7 133f e7ce fabe
00000050: 7b4d e23e 9c9b ee3e a702 c0be da18 bbbe
00000060: 932f 8fbe 6ce8 983e 96e0 053f fe30 c53e
00000070: 9e74 c43e ea5d 74be dbed 8d3e b557 e5be
00000080: 625b e0be 4654 023f cd06 053f df51 08bf
00000090: 15fe 67be 82bc b83e 23f0 08bf bc75 83be
000000a0: 149c bc3e 5cb3 ba3e 898b ac3e 4f5c c3be
000000b0: e14d 063e 11cf 8bbe 4a09 c23e 62fc b2be
000000c0: d004 4d3e 83de 3cbe dfe4 04bf 2b12 c13e
000000d0: de11 8abe 1c8d 0cbf 4e23 b7be d5d6 c23e
000000e0: ae92 fe3e 73da 0e3f ba46 d3be 8857 9dbe
000000f0: a3a4 9abe 4273 913e 6af2 853e e4ec 1abf
