time_LossPrune/model1_Traffic.pth (torch, 169678 bytes, 12 tensors)

weight f4 [23, 8]
000000 7a b7 8d be e5 73 97 bf 1e 6b 1d bf 8a 3d 88 bf
       -0.27679044 -1.1832243 -0.6149157 -1.064378
000010 37 ce ee be 00 2a fc 3e 8a 3b 5d be 5c af 66 3f
       -0.46641704 0.49250793 -0.21604744 0.9011133
000020 0f 99 2d 3f a3 9a 92 bf 8b 8f 91 3f b8 b2 0b 3e
       0.67811674 -1.1453441 1.1371931 0.13642395
000030 82 f3 ed 3e c2 62 88 3e 41 f0 33 bf 76 60 a2 3e
       0.46474844 0.26637846 -0.70288473 0.3171422
000040 90 77 6f bf 4e d2 e8 be 47 93 d9 be 12 de 52 be
       -0.9354181 -0.4547295 -0.42495176 -0.20592526
000050 16 fc f0 3d a8 4f 8e bf 20 cb ea 3e 8e 0c db 3c
       0.117668316 -1.1118059 0.45858097 0.026739385
000060 42 7f 91 3f bb c9 1a be 29 61 96 bf eb eb dd 3e
       1.1366961 -0.15116017 -1.1748401 0.43344054
000070 aa 56 09 be ea 24 e6 bf b2 f0 c5 be ed 5a 19 3f
       -0.13411966 -1.7980015 -0.38660198 0.59904367
000080 96 fc b8 bf 30 ad 38 40 8b 95 df bf b1 b8 47 40
       -1.4452083 2.8855705 -1.7467512 3.1206477
000090 1d c9 4c 3f 89 28 80 bf d0 f2 4a 3f be c6 b7 3f
       0.79994375 -1.001237 0.7927675 1.4357526
0000a0 02 02 5d 3f 79 37 26 3e e3 7c 9a 3f c6 a6 18 bf
       0.8633119 0.16232099 1.2069362 -0.59629476
0000b0 6d 0e 87 be f9 71 89 bf cb e6 00 bf dc d7 7c 3e
       -0.26378193 -1.0737907 -0.5035216 0.24691719
0000c0 58 31 aa 3f 75 d0 bb be cd 52 c2 3f 81 f1 92 3f
       1.3296309 -0.36682478 1.5181519 1.1479951
0000d0 bc 9c e9 bf d9 4d 42 bf fc 33 52 bf 71 95 59 3f
       -1.8250957 -0.75900036 -0.8211057 0.84993654
0000e0 7a 3c f0 3d b9 44 4b bf 14 34 29 c0 f0 0b c7 bf
       0.11730285 -0.7940174 -2.6438036 -1.5550518
0000f0 6e 24 a2 bf 28 cc cc 3f 1d 76 b9 3d b6 53 88 3c
       -1.2667367 1.5999804 0.090557314 0.016641479
000100 45 be 1d bf 3d 39 9f bf 42 59 b3 3d 0f ab 49 3f
       -0.61618453 -1.2439343 0.08757259 0.7877664
000110 11 19 8c 3f 35 00 d7 be 40 6d 27 bf 31 69 e8 be
       1.094515 -0.41992345 -0.6540108 -0.45392755
000120 a2 10 b8 bf 89 f3 a6 be bc ef 34 bd 6f ee 9d bf
       -1.4380076 -0.32607678 -0.04417394 -1.2338389
000130 3e 88 75 3f 63 93 84 bf 51 3d 12 3f 59 44 8c bf
       0.95911014 -1.0357479 0.5712481 -1.0958358
000140 01 21 47 3f 87 50 f5 be 78 13 12 3f 19 88 da 3f
       0.77784735 -0.47913 0.57060957 1.7072784
000150 3e 61 4d 3e 8f 26 23 bf 85 f8 fd bd e5 62 ee 3f
       0.20056626 -0.6373071 -0.12400917 1.862393
000160 7f 60 f6 bf ab 0b 0e bd d7 13 a8 3f fe a5 c8 3d
       -1.9248198 -0.034679096 1.3131055 0.097972855
000170 3b 4c dc be fa 26 04 3f ac 51 42 bf 5b bf d3 3e
       -0.4302691 0.51621974 -0.7590587 0.4135693
000180 9d 4e bf bf 24 e2 a2 bf 51 c2 a9 bf 72 98 fc bf
       -1.4945866 -1.2725263 -1.3262426 -1.9734023
000190 fe af a1 3e b8 86 0d c0 9e 5e 99 3e 1a 36 9b bf
       0.31579584 -2.2113476 0.29955 -1.2125885
0001a0 49 22 16 bf b9 d2 86 bf b2 6f 56 3e e5 36 e2 3f
       -0.58646065 -1.0533057 0.20941046 1.7673002
0001b0 00 d5 80 bd aa cc 10 be a9 25 a2 be b3 6b 09 bf
       -0.062906265 -0.14140573 -0.31669357 -0.5367996
0001c0 3e 69 1d c0 33 ca 5e bf 07 48 12 3f e5 89 b0 3f
       -2.4595485 -0.8702728 0.57141155 1.3792082
0001d0 42 7b c9 3f ba 3a c5 bf b6 32 d9 3e a3 29 2f bf
       1.574074 -1.5408547 0.42421502 -0.6842291
0001e0 f9 08 dd bd e5 14 e3 3f 3f 97 0c bf 9c 59 f1 3e
       -0.10792727 1.7740752 -0.54918283 0.4713868
0001f0 b6 ff 29 3f ea 9a 48 3f 77 b9 f6 be 42 ca 71 3f
       0.6640581 0.7836138 -0.48188373 0.94449246
000200 90 3d 2e 3f 12 6a db be 4c bd 80 bf eb 47 22 3f
       0.68062687 -0.42854363 -1.0057769 0.6339099
000210 7f 51 22 3f 44 9f 4a 3f 10 95 e4 3e 4e d2 e3 be
       0.63405603 0.7914927 0.44644976 -0.44496387
000220 98 30 6c bf 00 69 d5 3f c7 6e a4 bf 30 e7 8a bf
       -0.9226165 1.6672668 -1.2846307 -1.0851803
000230 d5 b6 ff be 90 df 55 3f ca 96 db bf b5 52 4d bf
       -0.49944177 0.83544254 -1.7155392 -0.80204326
000240 a1 64 12 c0 fe 7d 61 bf 70 97 a1 3f 72 8c c2 bd
       -2.287392 -0.88082874 1.262434 -0.09499444
000250 3a a3 50 bf e6 6c 98 3f 98 28 4b 3f c0 dd ec 3f
       -0.81499064 1.1908233 0.79358816 1.8505173
000260 d9 fe cc 3e 96 c2 08 40 03 89 94 bf 8b 92 92 bf
       0.40038183 2.1368766 -1.1604313 -1.1450971
000270 17 8d 16 3f 46 b1 98 be a2 eb 91 bf d3 f9 2a 3f
       0.58809036 -0.2982275 -1.1400034 0.6678745
000280 f7 55 d9 3e 6e 26 02 bf 72 9c d8 bd 57 5b d4 bd
       0.42448398 -0.5083989 -0.105767146 -0.10368984
000290 ff d4 1d 40 b2 09 f9 bf 9a 9b 3a be 83 ad e6 be
       2.4661252 -1.9456084 -0.1822342 -0.45054254
0002a0 37 20 7e bd bb a3 21 bf be 89 b7 3d 3e db 17 3f
       -0.06204244 -0.6314046 0.08961819 0.5931891
0002b0 12 da c6 3f 2c f3 27 3f 17 c9 b5 bf 8d 3b 73 3f
       1.55353 0.65605426 -1.4201993 0.9501274
0002c0 e7 2c df 3e 36 07 98 3f 7a b5 8d bf c6 89 fb be
       0.43588945 1.1877201 -1.1071007 -0.4912855
0002d0 c5 31 aa bf 35 42 46 bf 25 0c 2b be 0e 10 0e 40
       -1.3296438 -0.77444774 -0.16703852 2.21973

weight_ih_l0 f4 [192, 9]
000000 9e a2 d4 bd 94 6b da bc 6c e6 3e 3d fa 09 85 be
       -0.10382579 -0.026662625 0.046606466 -0.25984174
000010 87 57 d2 bd e6 4c 8e bd 4f 86 b0 3d b5 36 59 bd
       -0.10270601 -0.06948261 0.08619367 -0.05303069
000020 65 be 05 bd 0c 79 c5 bd e5 2f c4 bd ec 08 48 3e
       -0.032652277 -0.096422285 -0.09579448 0.19534653
000030 59 31 e1 be 74 c5 98 3e 80 16 69 3e 90 19 15 3c
       -0.43982962 0.29838145 0.2276249 0.009100333
000040 1d 18 53 3d b5 4b 54 3d 7b 9e 82 bd 97 79 c3 3c
       0.051536668 0.051830012 -0.06377884 0.02386169
000050 a6 89 00 3c 16 18 90 bc a6 46 0d be 60 30 52 bd
       0.007845318 -0.01758961 -0.13796481 -0.051315665
000060 bf 23 80 3e cd 0e d1 bd 51 b7 6d bd 8c 58 c5 bd
       0.25027272 -0.10207901 -0.058036152 -0.096360296
000070 9c 0a ca 3d 20 6d f3 bd ea 10 6b be 34 50 84 be
       0.09865305 -0.11886048 -0.22955671 -0.2584244
000080 28 30 0f 3d 4b fe a6 3d 02 fc 89 3d b3 77 03 bd
       0.034958035 0.08153971 0.0673752 -0.032096576
000090 74 21 25 be 4e f2 2a 3e b9 54 1b be 14 45 95 bd
       -0.16126043 0.16693994 -0.15169038 -0.07288566
0000a0 b5 e4 9c bd 01 7f 41 3e 3a e8 1d 3e d8 17 8a be
       -0.0766081 0.18896104 0.15420619 -0.26971316
0000b0 85 57 b8 bd 06 2d d9 3c 1d 52 99 3d e0 e0 16 bd
       -0.09001068 0.026510727 0.07486365 -0.03683555
0000c0 21 92 a7 3d 31 15 77 bc 59 c5 31 be 0e ae 76 bd
       0.08182169 -0.015080736 -0.17360438 -0.060224585
0000d0 02 2d b6 be 1b 47 21 3e 21 5d 82 be 29 7c 43 3d
       -0.35581213 0.15749781 -0.25461677 0.04772583
0000e0 9d 40 b6 3e ef 3f d4 bc b6 88 01 3f e4 db 75 3e
       0.3559617 -0.025909392 0.5059923 0.24009663
0000f0 d8 09 85 bc 7f 50 05 3e 51 bd 8d 3e 5a f6 1a bc
       -0.016240045 0.13018988 0.276835 -0.009458149
000100 2e a5 74 3e c8 d3 aa bd 39 60 2b be 8a b1 11 bf
       0.23891136 -0.08341175 -0.16735925 -0.5691153
000110 d1 80 c4 be 3e 2e a4 3e 35 af 9e bd 7e bb 8d 3a
       -0.3837953 0.3206653 -0.07748262 0.0010813323
000120 0d b6 de 3c 38 d7 18 3e 70 d5 b7 3c d4 95 8a be
       0.027186418 0.1492585 0.022440642 -0.27067435
000130 3c f9 73 3a df 2b 2f 3e c1 63 35 3e d3 90 81 bd
       0.0009306853 0.17106579 0.17713834 -0.06326451
000140 3e b1 b3 bd ec a1 b4 be 68 5c b9 3e eb 3d 2e 3e
       -0.08774041 -0.35279787 0.36203313 0.17015807
000150 2e fe 6f 3d cf d2 41 be 1b 21 a8 3d 3d 42 25 3f
       0.058592014 -0.18928073 0.08209439 0.64554197
000160 37 2d 0a bf 84 f1 93 38 9f 6f be be 0d f0 0c 3d
       -0.5397524 7.054492e-05 -0.37194535 0.034408618
000170 33 16 af 3c 90 03 ad bd 1a f0 6d 3d 03 31 df 3c
       0.02137289 -0.08447945 0.058090307 0.02724505
000180 5b a0 2f 3e 2d da bf ba 95 71 da 3d 0c 85 b4 bc
       0.17151015 -0.0014637165 0.10666195 -0.022036098
000190 70 f0 04 be 5d 10 6b 3d d4 c5 1e be 4d f3 1f 3e
       -0.12982345 0.057388652 -0.15505153 0.15620156
0001a0 ec 34 7e bd f4 82 b0 3e 0b b0 eb be 63 58 16 3e
       -0.06206219 0.3447491 -0.46032748 0.14682154
0001b0 cb cd 94 be ff a0 62 be ab 7c 2a be 87 c1 33 be
       -0.29063258 -0.22131728 -0.1664912 -0.17554294
0001c0 0c 57 6d 3e 40 a3 90 bd 87 49 73 be ca 23 28 3e
       0.23177737 -0.070623875 -0.23758517 0.16419902
0001d0 d9 e3 f6 bd 05 4f e6 3d 07 f5 1c bd 47 e1 b5 38
       -0.12055177 0.112455405 -0.038319614 8.672714e-05
0001e0 82 a0 90 bd 01 90 f0 be 6b 8c 26 bd 95 8d 9b 3d
       -0.070618644 -0.46984866 -0.040661257 0.07595364
0001f0 ff 1b bf 3d 14 27 5e be 7c cf 82 bd 21 ba a4 bd
       0.09331512 -0.21694595 -0.06387231 -0.08043314
000200 01 16 87 be 12 d1 5f 3d b1 e1 f4 3b 14 e6 29 be
       -0.26383975 0.054642744 0.0074731936 -0.16591674
000210 6c 8b 8d 3e ef 36 b3 3c fc f8 6e 3d ce 85 e0 3d
       0.27645433 0.02187678 0.05834292 0.10963021
000220 3a a9 a1 be 7b d2 51 3e c2 c9 cd be 39 e6 99 bd
       -0.31574422 0.20490448 -0.40192991 -0.075146146
000230 89 03 1d 3e 8c 2d 58 bc 5e 0b aa bd ee 42 a8 be
       0.1533338 -0.013194453 -0.08302949 -0.32863563
000240 3d 49 d1 3d 5f 67 79 bd 7d ee bb bd 98 b3 5d 3d
       0.10219047 -0.060889598 -0.091763474 0.054126352
000250 a4 72 b8 bd 02 a3 96 bd 2c d7 fc 3d 57 f2 96 be
       -0.09006241 -0.0735531 0.12345728 -0.29481766
000260 c0 b9 10 3d e5 d3 8b 3d e7 5f 13 3c c9 c1 2f 3e
       0.035333395 0.06827525 0.008995033 0.17163767
000270 ee b6 bf bd b7 05 2e be 30 3f f2 bd 63 6f 04 3e
       -0.09361063 -0.16994368 -0.11828458 0.12933116
000280 db ba d7 3d c3 3b 5e 3e fc 37 36 be e1 c9 38 be
       0.10533687 0.21702485 -0.17794794 -0.1804576
000290 9c 5f 0b 3e 32 2f 49 3e 94 db 70 3d 4a 78 20 3e
       0.13610691 0.1964691 0.058803156 0.15670887
0002a0 b1 bb e4 3e 7e 0a d7 be b1 0c 1b 3e 79 23 74 3d
       0.44674447 -0.42000192 0.1514156 0.05960414
0002b0 26 8b 7a 3d 0b a4 c1 be 3e 7c 77 3d 04 0c 0c bd
       0.06116786 -0.37820467 0.06042122 -0.034191146
0002c0 d8 9e 89 bd ce c6 2d 3e d9 cc 98 3d 42 c0 ea 3d
       -0.0671975 0.16970369 0.074609466 0.114624515
0002d0 df 38 8b be fb e9 29 be ab a6 e8 bd 75 de 97 be
       -0.27191827 -0.16593163 -0.113599144 -0.2966191
0002e0 12 df 22 3e 1e 8e 4f 3b 0c 2d 99 3c 97 6f 9a bd
       0.15905407 0.0031670402 0.018698238 -0.07540815
0002f0 8e f1 38 be ce 34 25 3e 40 87 a0 be 00 47 13 3e
       -0.18060896 0.16133425 -0.31353188 0.14382553
000300 91 00 5b 3e 51 2b 13 be a2 54 7b 3e ad ec 8e 3e
       0.21386935 -0.14371993 0.24544004 0.27914944
000310 90 9d e9 be 46 6d fe 3d 5f 6d b0 3c 6e 0d e1 bd
       -0.45628023 0.12423186 0.021536527 -0.1098889
000320 e3 bb 2e 3e 83 d6 5a 3c a5 02 f4 be ce c3 0e bd
       0.1706386 0.013356808 -0.47658268 -0.034854703
000330 71 0f 43 bc f2 08 84 be bd e4 8a be 7b 26 e0 bd
       -0.011905537 -0.25788075 -0.27127638 -0.109448396
000340 f3 8f 18 be 7d f8 a5 3e 99 ac b1 3c 71 42 e4 be
       -0.14898662 0.32416144 0.021688746 -0.4458194
000350 55 59 47 be 41 32 f1 bd af 70 12 be 0e 68 ae 3d
       -0.19467671 -0.11777163 -0.14300798 0.085159406
000360 f1 35 67 bc b6 b1 1e 3e c9 d9 1e bd b0 7e 11 3e
       -0.014111982 0.15497479 -0.038781915 0.14208484
000370 cc 8c 14 3d b0 eb bc bd da 8f 5b 3e 8f 9c b3 bd
       0.036267087 -0.09224641 0.21441594 -0.087700956
000380 48 46 6b 3e e5 f2 a0 be 53 42 a0 bd d9 dc 6a 3e
       0.22976029 -0.31435314 -0.0782515 0.22935809
000390 a3 54 96 3e 96 a2 fd 3d e2 aa 92 3d 9b ad fc bd
       0.29361448 0.123845264 0.071614996 -0.123378
0003a0 0d a9 c0 be 2a 28 2a 3e 08 85 0c be bc af b9 bc
       -0.37628976 0.16616884 -0.13722622 -0.022666804
0003b0 5d 12 30 be cf 97 3b bd b7 3b 1a bd cc 78 36 ba
       -0.17194505 -0.045799073 -0.037654605 -0.0006960749
0003c0 3c 34 fe bc 93 a0 e7 bd 1f 6c cb bd 2c 79 a9 be
       -0.031030767 -0.11309924 -0.09932732 -0.3310026
0003d0 d7 f7 f8 3d a0 05 d6 3d 02 b3 cf be 81 f5 c9 be
       0.12156647 0.10450292 -0.4056626 -0.39445117
0003e0 dc 16 64 3d 79 a6 39 3d 47 c7 44 be a6 a1 9d bd
       0.055685863 0.045324776 -0.19216643 -0.076968476
0003f0 cb fc b6 3d 58 b3 01 3d 35 af 5d 3d b2 2e 56 be
       0.08934935 0.031665176 0.05412217 -0.2091625

weight_hh_l0 f4 [192, 64]
000000 18 6e a0 3b 6c df 01 bd 11 2a c4 3d 60 6e 61 3d
       0.0048959367 -0.031707212 0.09578336 0.055036902
000010 ad 26 16 3e 5b 2b e9 bc aa 7f 06 3d c1 42 9f bd
       0.14663191 -0.028463056 0.032836594 -0.07776404
000020 d4 92 7f 3b 0c a1 38 be 5b b5 3c be 25 1c 0c be
       0.0038997428 -0.18030185 -0.18428557 -0.13682611
000030 da e4 71 3d e9 ea 5d 3e 6a fd d3 bd 3f 15 c3 3c
       0.05905614 0.21671642 -0.10351069 0.023813842
000040 14 04 0c 3e fa 45 28 3e bd 1f 4e 3c cd 2e fe ba
       0.1367343 0.16432944 0.012580809 -0.001939261
000050 87 4d d3 3d 38 8c 8a bd fc 3b 21 be e1 e4 2b 3d
       0.103175215 -0.06765026 -0.15745538 0.041966323
000060 40 2d 22 bc 95 d7 34 3d 76 4f 8d be 8f 67 c9 3d
       -0.009898484 0.044150908 -0.27599686 0.09834205
000070 c9 c8 e4 bd 4f 0a b5 bd c1 bf 1a 3d a2 85 02 bd
       -0.11171109 -0.08839857 0.037780527 -0.031865723
000080 cc 83 10 3e 54 93 2a be b8 1e 0b 3e 66 61 1c 3e
       0.14112777 -0.16657764 0.13585937 0.1527153
000090 c7 b0 b4 3d 4b fc 98 3b da 02 2a be f0 10 88 be
       0.0882278 0.0046687475 -0.1660265 -0.26575422
0000a0 a4 25 e0 3d c8 7c 8c bd 33 47 4d 3c 28 77 ae bd
       0.109446794 -0.06859738 0.012529182 -0.08518821
0000b0 6a 4a 8b 3d 88 8f a2 bd 6c 30 d1 bd 0f 92 33 be
       0.06801303 -0.07937533 -0.10214314 -0.17536186
0000c0 bc 9d 3f bd eb 7a f9 bd aa 88 f9 bd d1 2d b3 3d
       -0.046781287 -0.12181648 -0.1218427 0.08748973
0000d0 eb 3b 41 be 77 89 52 3d 11 c0 72 bd 18 34 d0 3d
       -0.18870513 0.051400628 -0.0592652 0.10166186
0000e0 c8 2f f0 bd 3f aa 2c 3e d6 c5 2d 3d d1 e1 2f 3e
       -0.117278636 0.16861819 0.042425 0.17175986
0000f0 6f 0a 01 bd e5 ed a6 bd bd 36 e2 3d 1c bd 3c 3e
       -0.03150409 -0.081508435 0.11045597 0.18431515
000100 e5 83 24 be bd 55 7f be e0 02 7e bd c8 97 07 be
       -0.16065939 -0.2493505 -0.06201446 -0.13241494
000110 7f 41 ed 3d 19 35 04 3e b3 3d b8 3d 0e 16 b0 3c
       0.11584758 0.1291088 0.08996143 0.021494891
000120 4c cb 1f be 5c 19 9f 3c 77 96 b5 bd 1d a2 4f be
       -0.15604895 0.019421272 -0.088665895 -0.20276685
000130 01 6b 68 be c9 57 df bd f6 ab 18 bc 5b a0 66 3d
       -0.22697069 -0.109054156 -0.009318342 0.05630527
000140 d9 f3 0d be 08 d3 bb 3d 96 1c 54 bd 5f fd 32 3e
       -0.13862552 0.091711104 -0.051785074 0.17479466
000150 00 8d 01 3d c1 be d0 bd 32 6b a0 3c 91 e5 fb bd
       0.03162861 -0.101926334 0.019582365 -0.12299646
000160 29 17 26 3e 1f be 53 bb fc cd 81 3e 0f d8 d8 3c
       0.16219772 -0.0032309366 0.25352466 0.026470212
000170 09 51 33 bd 03 f3 13 be d8 ba 8e bd 6c 30 34 3d
       -0.043778453 -0.1444817 -0.06969231 0.04399149
000180 ea e1 14 3e d4 8c fc 3d 1d be 9d 3c a3 00 3c be
       0.14539304 0.12331548 0.019255692 -0.18359618
000190 04 f4 5d bd 39 2c 69 bc 0d ee 12 3d 6b e1 53 3d
       -0.05418779 -0.014231735 0.035871554 0.051728647
0001a0 c9 0e 4f 3d 45 ab 3e 3c 46 49 a7 3d d0 83 cc bd
       0.05055121 0.0116375135 0.08168273 -0.09986079
0001b0 d1 1e 56 bc 76 0e 0f 3e 19 71 c1 bc d0 13 d8 3d
       -0.013068871 0.1397036 -0.0236135 0.10550654
0001c0 75 76 37 be c9 78 24 3d e1 f5 04 be b8 bb b7 bd
       -0.17916282 0.040154252 -0.1298442 -0.089713514
0001d0 17 46 2d bd 56 30 e9 bd 72 7b 56 be 05 84 29 be
       -0.04230317 -0.113861725 -0.20945528 -0.16554268
0001e0 e2 62 33 3d 3b 13 99 3c 75 d7 c9 bb 4f dc 7f bd
       0.043795474 0.018685928 -0.0061597177 -0.062465962
0001f0 95 c0 5f bd 7a cd 8d bc 80 cb 06 3e a2 c8 99 bd
       -0.05462702 -0.017309893 0.13163567 -0.07508971
000200 0d e8 25 be f8 26 61 3e a8 d7 74 3e 4b 21 bb bd
       -0.16201802 0.21987522 0.23910391 -0.091372095
000210 35 6b 00 3e 82 32 11 bc a8 02 40 3d 65 7f c2 bc
       0.12540896 -0.00886214 0.046877533 -0.023742387
000220 63 f1 8a 3d 70 ff e9 3c 69 3b 19 bd 7d 36 a4 bd
       0.06784322 0.028564185 -0.037410174 -0.08018205
000230 c6 04 be bc a2 f6 1d 3e 75 fb 28 be 80 4c 33 bd
       -0.023195636 0.15426114 -0.16502173 -0.043774128
000240 b1 64 08 be 1f f1 24 3e 7c b3 40 be 52 f8 9a bc
       -0.1331966 0.16107605 -0.18818468 -0.018917236
000250 f1 f7 68 3d 08 4b bd 3d 5d ae f3 bd 9f 2d e9 3d
       0.05687708 0.09242827 -0.118984915 0.11385655
000260 94 07 85 be 8b 4b ab 3c cd c1 cd bd 77 1a 7d 3d
       -0.25982344 0.020910045 -0.1004673 0.061792817
000270 25 0b cd 3d 35 22 a7 bd 12 73 46 3e 73 32 fc 3c
       0.10011891 -0.08160821 0.19379833 0.030785775
000280 11 d3 95 be e4 66 0d be 23 92 9e bc e1 cc 78 3c
       -0.29262593 -0.13808781 -0.019356793 0.015185566
000290 18 d5 f8 bd 7f be 8e bc da 3b 1a be bb 9d f4 bd
       -0.121500194 -0.01742482 -0.15061894 -0.11944147
0002a0 e3 fa 6e be de 6d 4a be 08 ea 85 bd 4e fe 6b 3a
       -0.23337893 -0.19768474 -0.065387785 0.0009002433
0002b0 c9 fd 13 be dc e5 88 bc 9a 36 89 3d 38 03 74 be
       -0.1445228 -0.016711168 0.066998675 -0.23829353
0002c0 ea 85 33 be 4d 0b 8d be 37 d4 89 3b ac 4f 33 3e
       -0.17531553 -0.27547684 0.004206206 0.17510861
0002d0 2d 99 c8 bb 64 3f 37 3e 55 c0 0d 3d 12 58 96 3e
       -0.0061217756 0.17895275 0.03460725 0.29364067
0002e0 c4 fd 55 3e fe b3 c7 bc b0 fe 15 3e 99 f7 28 3d
       0.20897585 -0.02437782 0.14647937 0.041251753
0002f0 c0 5c d6 3d f0 a8 ae 3c b6 34 fb bd 74 a2 1b 3e
       0.104669094 0.02132079 -0.12265913 0.1519869
000300 02 e3 c8 3d a4 95 36 bd 0d 6a f4 3c 4c f9 d2 bc
       0.09808923 -0.044576302 0.029835725 -0.02575364
000310 d8 59 5d 3e 82 c9 96 3c 4e 87 be 3d 09 c2 65 be
       0.21616304 0.018406633 0.09303151 -0.224373
000320 de 07 54 3d d3 8f 38 3d b0 78 71 bd b1 8d 17 3d
       0.051765315 0.045059036 -0.058952987 0.03700036
000330 29 59 70 3d 7a aa 10 3e 34 6e 5c 3d c0 2a ac bd
       0.05867878 0.14127532 0.053816035 -0.084065914
000340 9b a0 23 3e f3 2d 56 3e ae 7e f5 bd e7 96 04 3d
       0.15979235 0.20915966 -0.11987053 0.032370474
000350 fa 31 66 bd 18 d9 07 be 81 d9 25 3e bc f1 9b bd
       -0.056200005 -0.13266408 0.16196252 -0.076144665
000360 14 ef 13 3d af ed 1a bc 84 02 80 be 83 bd 08 3e
       0.036116675 -0.009456082 -0.2500192 0.13353543
000370 c2 5f 1c 3d aa f7 2d bd 65 35 3a 3c e3 67 84 3e
       0.03817726 -0.04247252 0.011365269 0.2586051
000380 01 0f 78 3c 98 35 32 be ee b8 de 3d ae f5 a4 bc
       0.015140296 -0.17403257 0.10875116 -0.02013668
000390 04 f1 d5 bc 94 34 d2 3d 75 b4 a6 be fa 83 54 bc
       -0.026115902 0.10263935 -0.32559553 -0.012970919
0003a0 d4 f0 2f bd 95 a2 30 be 8b b6 4b 3e 10 20 a9 bc
       -0.04295428 -0.1724952 0.19893853 -0.020645171
0003b0 bf 2e 85 bd 3c bf 25 3d d0 ad 41 3d ed b0 1c 3d
       -0.06503057 0.04046558 0.0472849 0.038254667
0003c0 eb 6a 91 bb 30 d8 97 3c b5 93 63 3d 80 9b e1 bd
       -0.0044377944 0.018535703 0.055560786 -0.110159874
0003d0 5e ed 25 3e 3e 60 89 3d 2f 87 94 3d 50 e3 c7 bd
       0.1620383 0.0670781 0.07252347 -0.09760153
0003e0 14 f6 46 3e 80 c1 ce 3d c2 f1 bf bc 7c 0c 1a 3e
       0.19429809 0.10095501 -0.023430709 0.15043825
0003f0 8c 26 a0 ba 9b 7e d1 bd 23 bd 17 bd c7 ec 72 3d
       -0.0012218519 -0.10229226 -0.03704561 0.05930784

bias_ih_l0 f4 [192]
000000 ac 84 79 3e 97 74 f0 bd 9d 4c 71 bd 39 f3 87 bb
       0.24367017 -0.11740988 -0.058910955 -0.0041488674
000010 4e 65 a5 3d 79 83 86 3e 45 b2 85 3d 66 ac 21 3e
       0.08075963 0.2627218 0.06528143 0.15788421
000020 87 90 26 3e fb 16 f5 bd e3 1a fc bd 0d d3 16 3e
       0.1626607 -0.11967274 -0.12309816 0.14728947
000030 85 36 bf 3c 07 26 83 3d ec da 6c bc 93 82 49 3e
       0.023341427 0.064037375 -0.014456492 0.19678716
000040 c4 ff 00 3e 49 e7 a7 3d 0d ef 13 3e d6 b8 3b 3e
       0.12597567 0.08198411 0.1444666 0.18332228
000050 9e 47 93 bd 6c e0 df 3d 44 2d d5 3d b2 9e 08 3e
       -0.07191394 0.10931477 0.10409024 0.13341787
000060 f4 94 12 bd c3 39 81 3d 10 19 1a 3d 0e 99 24 3e
       -0.035786584 0.06309845 0.037621558 0.1607401
000070 ac 3d 13 3e c3 ae 4c bd 40 35 bb bc 08 8b 01 3e
       0.14378995 -0.049971353 -0.02285254 0.12650692
000080 11 95 eb 3c 72 42 d1 3d 9c c7 48 3c 56 2b 5a 3e
       0.028757604 0.102177516 0.012254622 0.21305594
000090 e9 f7 c8 3d 54 3c 15 bd d7 9b 1b 3e 6c a8 65 3d
       0.0981291 -0.036434487 0.15196167 0.056068823
0000a0 20 f3 9e bd c4 ff 2b 3d b6 0c f2 3c 84 33 6d 3d
       -0.07761216 0.041991964 0.029547077 0.057910457
0000b0 a0 e6 12 bd fc b4 e3 3d 21 38 10 be 8e a9 71 bd
       -0.035864472 0.111185044 -0.14083911 -0.05899959
0000c0 e3 5b c5 3c 60 17 39 3e 46 cc c8 3c e6 61 ca bc
       0.024091667 0.18075323 0.024511468 -0.024704885
0000d0 db 43 b0 3d 8a 53 e3 3d 0d 87 b7 3d e2 e0 62 3e
       0.086066924 0.11099918 0.08961306 0.22156098
0000e0 4b 3c 1b bb 5a 7b 53 3e d0 91 bc bd fb 5d 01 3d
       -0.002368706 0.20652524 -0.09207499 0.031583767
0000f0 67 83 ba 3e 40 ee 17 bd 9d 04 49 3e 9d 65 c5 bc
       0.36428377 -0.037092447 0.19630666 -0.024096305
000100 de 90 af be 0c a1 09 be 07 74 ae 3c 1a 90 09 be
       -0.34290212 -0.13440341 0.02129556 -0.13433877
000110 44 06 22 3e c8 4e c6 be 0c c2 4c be 80 88 ab be
       0.15822703 -0.3873198 -0.19995898 -0.3350258
000120 eb 61 e8 bd ac 70 45 3d 34 c7 c2 bd ee 6c 09 bf
       -0.11346801 0.048203155 -0.09510651 -0.5368184
000130 ce bf 33 be 57 e2 79 3e f5 70 0e be 2b a9 9e bc
       -0.17553636 0.24402748 -0.13910277 -0.019367775
000140 9e b2 cb be d0 9d 75 be a5 ea bc be 25 70 0b be
       -0.39784712 -0.23985982 -0.3689777 -0.13616998
000150 44 da 59 be 83 a7 9b be 9b ae 19 3e 57 21 cf bd
       -0.21274668 -0.3040124 0.15008013 -0.10113781
000160 76 57 65 3e 99 cf 11 be 69 6e 90 3e 51 d4 4e be
       0.22396645 -0.14239348 0.28209236 -0.2019818
000170 ac 18 3e be b1 2f c5 bd 39 67 3c 3e 81 7b 05 be
       -0.18564099 -0.09628237 0.18398751 -0.13035394
000180 e6 dd 1e bd 03 f4 cc be 84 2e 1d be 6c ba 5f be
       -0.038785838 -0.40029916 -0.15349776 -0.21848458
000190 44 67 88 be b5 4b 18 be 7e ae 4b 3d b8 c8 be bd
       -0.26641285 -0.1487263 0.049726956 -0.09315628
0001a0 2c e0 3b 3c 29 cb 96 be 7f 1e 52 be 3d 5f 90 bd
       0.011467021 -0.29451874 -0.20519446 -0.07049415
0001b0 78 c5 9b be bb a3 ae be f5 c4 11 be d9 7d f4 bc
       -0.30424094 -0.3410929 -0.1423529 -0.029845165
0001c0 e9 50 49 be 56 cd da be fe d7 1a be bb 84 2c be
       -0.19659771 -0.42734784 -0.15121457 -0.16847508
0001d0 5c 42 26 be cb a7 86 be bd c0 51 3e c8 40 9d be
       -0.16236252 -0.2629989 0.2048368 -0.30713487
0001e0 f1 da 6e be ba 84 e0 bd 69 98 2e be 94 11 a0 be
       -0.23325707 -0.109628156 -0.17050327 -0.3126341
0001f0 a4 04 92 be e4 91 4a be be 29 8a be cf 96 a1 3e
       -0.28519166 -0.19782215 -0.26984972 0.3156037
000200 39 35 55 3e 1c 58 55 bd 9b 7d 94 3d 6a 16 97 bd
       0.20821084 -0.05208598 0.0725052 -0.07377322
000210 3a 60 01 3d b6 52 a1 be 86 85 00 3e 96 b6 8e bd
       0.03158591 -0.31508416 0.12550935 -0.06968419
000220 0c ba 93 b9 48 ee 84 bd 02 53 48 bc cb f2 18 3e
       -0.0002817664 -0.06490761 -0.012226822 0.14936368
000230 ab da 68 3e 00 53 3f 3e 1e 66 99 bd cb 55 bf bd
       0.22739665 0.18684006 -0.074901804 -0.093425356
000240 b1 9f 7d 3e 5f 7a 8f 3e 4b 0a 14 bc 2e af 34 be
       0.24767949 0.2802305 -0.009035657 -0.17644951
000250 b9 8e 9d bc f4 2a f8 3d 93 a2 99 3d c0 a2 c8 3d
       -0.019233095 0.12117568 0.07501712 0.09796667
000260 5f dc 0d bd 38 60 ae 3b e1 e0 45 be e7 85 dc bd
       -0.03463399 0.0053215288 -0.19324066 -0.10767727
000270 a3 37 6c 3e 46 d1 14 3e a8 63 ab bb cf fd 34 bb
       0.23068099 0.14532956 -0.005230386 -0.0027617102
000280 cd dc 4b 3e 3e 4b 73 bd 40 ea 15 3d ad cc d8 bc
       0.19908448 -0.05939793 0.03660035 -0.026464785
000290 d8 5d 5a 3d 65 22 93 3b 59 59 a3 bd 46 d7 ff bc
       0.053312153 0.004490184 -0.07976026 -0.03123058
0002a0 fc e2 63 3d 4d a8 82 3d 3c da ac 3d ef 7f 13 be
       0.05563639 0.06379757 0.084400624 -0.14404272
0002b0 9b 3f 0e 3d d4 6c 2d be 58 ac 98 bd 9c 40 4c be
       0.034728628 -0.16936046 -0.07454747 -0.19946522
0002c0 ba a2 80 3d 82 36 4e be 61 bd 19 be 49 21 1c be
       0.06281038 -0.2013798 -0.15013649 -0.15247072
0002d0 29 b9 9e bd a1 11 3b 3e d3 ad 15 3e 98 2a 06 3e
       -0.0775016 0.18268444 0.1461709 0.13102186
0002e0 fd 58 a9 bc 32 8a cc 3d 8c dd 1b be 8b 3f e8 3c
       -0.020672316 0.09987296 -0.15221232 0.028350612
0002f0 6b 43 2b be 54 bf 2d bc ff 7f b1 bd 84 1d c6 3d
       -0.16724937 -0.010604698 -0.086669914 0.096735984

bias_hh_l0 f4 [192]
000000 10 59 3a 3e be 62 f8 bc a6 dd 17 be 61 c3 55 3e
       0.18198037 -0.030320521 -0.14830646 0.20875312
000010 72 2c 0a bd 0d fc 8a 3e 04 8e 27 bc 13 73 e8 3d
       -0.033733793 0.27145424 -0.01022673 0.11350074
000020 fe 7a 45 3d 75 fd c8 bd 22 29 06 bd 5f 47 81 3e
       0.048212998 -0.09813968 -0.03275407 0.25249764
000030 68 a1 f1 3c 09 5a 61 3d 55 2f e8 3d e5 30 1e 3e
       0.02949591 0.055017505 0.11337153 0.1544834
000040 6c b6 f7 3d 12 85 04 3e 92 2e 7c bc ae 70 84 3e
       0.12095341 0.12941387 -0.015391963 0.25867218
000050 f9 29 e0 3d 5c 20 cb 3d 8d 07 a7 3d 7a c8 05 bd
       0.10945506 0.099182814 0.08155737 -0.032661892
000060 46 20 a4 3c f7 83 17 3e 0c 87 56 bd 44 f7 0b bd
       0.02003492 0.14796434 -0.052374884 -0.034171358
000070 ef 32 f8 3d f6 5f 5f 3d e6 96 82 3d 22 72 64 3e
       0.1211909 0.054534875 0.06376438 0.22309163
000080 4e 44 d4 3d 0b 74 d1 3d 42 44 ea 3d 9a 4a 2c 3e
       0.103645906 0.102272116 0.114388004 0.16825333
000090 2e 12 1f 3e 11 0a 92 bb 9a 01 7e bd 94 c4 c3 bd
       0.15534279 -0.0044567664 -0.062013246 -0.09558979
0000a0 c0 13 57 3d 60 62 e0 3d 0c bf 37 3e d5 0e ae 3d
       0.05250907 0.109562635 0.17943972 0.08498923
0000b0 6b 00 16 3e 2e b8 b1 3d cb 95 7c bc 60 66 17 3e
       0.14648597 0.086777076 -0.015416573 0.14785147
0000c0 d9 0a ba 3c 5f 17 b4 3e ee 32 1c 3e 91 ca 9c 3d
       0.02271025 0.3517408 0.15253803 0.07655824
0000d0 b9 6e 4d 3e a2 fe 2c 3e 60 93 96 bd d2 0d 8a 3e
       0.20061769 0.1689401 -0.07352328 0.2696367
0000e0 5f c0 56 bd 73 bf 02 3e 7a 81 ea bd 6d 70 82 3d
       -0.052429553 0.12768345 -0.11450477 0.063691
0000f0 3f 4d b4 3e f8 d8 7e 3d 50 61 e9 3d e2 b2 7b 3b
       0.35215184 0.062218636 0.11395514 0.0038406183
000100 61 c1 8c be 14 38 7c be ac 65 f6 3d 31 30 1e be
       -0.27491286 -0.24630767 0.12031111 -0.15448071
000110 2c ee 20 3e ab 85 e3 be 56 63 86 be 9d 50 cd be
       0.15715855 -0.44437918 -0.26247662 -0.40100566
000120 9c 63 6c be 91 44 ec 3d 7d 84 fc bd c8 f5 14 bf
       -0.23084873 0.115365155 -0.12329958 -0.5818753
000130 7d d1 46 be 35 84 b4 3c b8 3b a0 be 5f c5 64 3d
       -0.19415851 0.022035697 -0.31295562 0.05585229
000140 43 fd d2 be d5 f3 6b be 62 10 8e be 65 84 54 be
       -0.41208848 -0.23042233 -0.27746874 -0.2075363
000150 42 bf 6f be 20 b2 83 be c9 41 2c 3d ef ce b9 bd
       -0.23412803 -0.25721836 0.042054925 -0.090726726
000160 a1 ec 6b 3d 83 75 1d be ec 73 e2 3d 33 dc 9a be
       0.057598714 -0.15376858 0.110572666 -0.30246124
000170 e4 67 d1 bd fc 95 60 be 1f a2 08 3e 36 b0 cc bd
       -0.10224894 -0.21932214 0.13343094 -0.09994547
000180 87 0b a5 bd dc 7d 5e be 35 93 8b be 7f 38 fd bd
       -0.08058839 -0.21727699 -0.27260748 -0.123642914
000190 a2 7c 67 be a8 e0 8d be 3a be e2 3d 6c 5c 69 bc
       -0.22606137 -0.27710462 0.11071439 -0.0142432265
0001a0 21 92 32 3c 8b 3d cc be 74 47 96 be d4 d9 fa 3c
       0.010899098 -0.39890704 -0.2935139 0.030621447
0001b0 68 29 c8 be 96 ae f9 be dd fd 30 be 5b d9 47 bc
       -0.3909409 -0.4876601 -0.17284341 -0.012197818
0001c0 65 b5 aa be 06 01 a1 be 69 3c 19 be e7 d9 d8 bd
       -0.33341518 -0.31446093 -0.14964451 -0.105884366
0001d0 9e 76 b5 be e5 94 b0 be 8a 00 a4 3d 58 58 98 be
       -0.3544206 -0.34488598 0.08007915 -0.297549
0001e0 6f 7b b4 be 63 e2 9d be cd 1c 8b 3c 4e 85 63 be
       -0.35250422 -0.30836782 0.016981507 -0.2221882
0001f0 1b b2 4e be ca 83 bc bd 2e 21 94 be 1a b4 95 3e
       -0.2018513 -0.09204824 -0.28931564 0.2923897
000200 79 53 4a 3e d4 1c 33 3c 0e 6b c3 3d 70 4f 8c bc
       0.19758405 0.010932166 0.095419034 -0.017127723
000210 4f 43 84 bc e3 23 b1 be 06 d7 40 bd a8 80 11 be
       -0.016145376 -0.34597692 -0.047080062 -0.14209235
000220 e5 d0 26 3c 9e 4a 85 3d e0 28 8f bd 34 f7 67 3e
       0.01018164 0.06508373 -0.06990218 0.22652894
000230 31 dc 8f 3e c3 2f bd bb 9c 02 0b be 4f d0 19 be
       0.2809768 -0.005773516 -0.13575214 -0.1502087
000240 c0 fa a2 3e d6 cc d5 3d b8 4c f7 bd f8 2d ed bd
       0.31831932 0.1043946 -0.1207518 -0.115810335
000250 c3 6b aa 3d 8a 3c a0 3c c9 f0 b9 3d f7 1b 9c bd
       0.08321335 0.019560117 0.09079129 -0.07622521
000260 29 42 07 be c7 39 2c be f3 91 34 be 15 26 b0 3a
       -0.13208832 -0.16818915 -0.176338 0.0013439084
000270 d0 bc ff 3d b0 4e 6e 3d a2 8f d0 3c 7d 2b 15 bd
       0.12487185 0.05818051 0.025459114 -0.036418427
000280 6b b6 1e 3d ed 72 da bb d9 21 2c 3e 23 ad 43 3e
       0.038748186 -0.0066665323 0.16809787 0.19109015
000290 30 f8 81 bd a7 38 e0 3d 4d 23 07 be 22 91 b9 bd
       -0.06346166 0.109483056 -0.1319706 -0.09060885
0002a0 2f 66 7e bd 2a 0d 0d 3e 34 a1 00 3e bc ed bc 3d
       -0.06210917 0.13774553 0.12561494 0.09225032
0002b0 d7 82 1b 3e db 00 1f be 89 87 b1 3c d2 84 ff bc
       0.1518663 -0.1552767 0.021671074 -0.031191263
0002c0 d4 4d 1f 3e 16 bd d4 bd 2d 19 b4 bd d8 a8 15 be
       0.15557033 -0.10387628 -0.087938644 -0.1461519
0002d0 4f 30 c4 bd 5f 24 93 bd fb 4e 92 3d 5b d2 1e 3e
       -0.09579527 -0.071846716 0.071439706 0.15509932
0002e0 cb 6f 4a bd 9f e7 aa bb 7e c4 a7 bb cd 2f 1b 3e
       -0.04942302 -0.0052155997 -0.0051198592 0.15154953
0002f0 28 94 9c be fc c9 41 bb 7b 36 34 be e9 c5 0b bc
       -0.30581784 -0.0029569855 -0.17598908 -0.008531072

weight_ih_l1 f4 [192, 64]
000000 a5 5b 64 3e 0e b4 46 be 41 d9 c8 ba f6 b3 97 be
       0.22300585 -0.19404623 -0.0015323536 -0.29629487
000010 53 fd b1 3d 9c d2 65 bd 53 a7 4c bd 75 3d 37 be
       0.08690896 -0.056109056 -0.04996426 -0.17894538
000020 b3 cb 02 be 1f 4b e6 bc 23 50 c5 bb cd 8f 02 be
       -0.12773018 -0.028111992 -0.006021516 -0.12750168
000030 4d 49 23 be e3 ee 28 3e f8 89 9e 3e c5 7c 96 bd
       -0.15945931 0.16497378 0.30964637 -0.07348017
000040 81 36 89 3e 2b e6 9b 3e 0e 69 8f be d6 fd 31 be
       0.26799396 0.30449042 -0.28009838 -0.17381987
000050 b8 3f 8a 3e 71 b8 35 3e fd 93 9f 3d 00 41 f5 be
       0.2700174 0.1774614 0.077918984 -0.47901154
000060 72 57 10 39 98 ee 4d be 0d 85 6d be 11 92 59 be
       0.00013765486 -0.20110548 -0.23195286 -0.21247126
000070 6e f3 12 be 18 25 9d 3e 8b c0 77 bc 2f 1c ab bd
       -0.14350674 0.30692363 -0.015121589 -0.08354985
000080 69 32 56 3e 04 71 d6 be 15 4e 99 3e 9a 64 f0 3d
       0.20917667 -0.418831 0.29942384 0.11737938
000090 6c e9 3c be 46 42 89 3e b6 c5 d1 bd a7 e7 6e 3d
       -0.18448418 0.26808375 -0.102427885 0.05832639
0000a0 d9 b6 66 3e ad da 08 3e f2 50 f3 3d 68 45 66 be
       0.22530688 0.13364668 0.118806735 -0.22487414
0000b0 3b d1 2f be 7b cb 25 bc e6 37 a1 3d 18 ba 95 be
       -0.17169659 -0.010119314 0.0787199 -0.2924354
0000c0 a7 4c 41 3d 35 4f 9b be 1e b7 64 b9 54 32 bc bd
       0.047192242 -0.30333868 -0.00021811991 -0.09189287
0000d0 14 db 84 bd 5a a3 a3 3c 0e 75 d5 bd c1 b7 82 3d
       -0.06487098 0.019975353 -0.10422717 0.063827045
0000e0 87 4e 2e 3e 3e 53 8c 3d 65 a4 86 3d 8c f2 3b bd
       0.17022143 0.06851815 0.065743245 -0.045885608
0000f0 d9 47 6e be 1f a5 bd bd 5c fe a8 bd a1 57 ff bc
       -0.23269595 -0.0926001 -0.0825164 -0.031169714
000100 b0 ee 83 bd a1 b4 8c 3e 62 87 59 3e e6 65 49 3d
       -0.064420104 0.2748156 0.2124305 0.049169444
000110 77 f4 4c 3e d4 c3 8c bd c6 4d 52 be 0a ca 8e 3c
       0.20015131 -0.06873289 -0.2053748 0.017430324
000120 42 a1 ea 3d 9d 9a b5 be 1b 9e 5d be 0e 64 1f 3e
       0.11456539 -0.35469523 -0.21642344 0.15565512
000130 00 88 d6 3d b8 01 51 3d da 14 cd bd a8 88 94 3e
       0.10475159 0.05102703 -0.10013743 0.2901051
000140 be d4 50 bd b6 8e 28 3e 8d 36 87 3e 71 47 bb 3b
       -0.050984137 0.1646069 0.26408806 0.0057153036
000150 54 1f 9f bb 82 b2 00 be b3 33 8f be 1d 6e 50 bd
       -0.0048560295 -0.12568095 -0.2796913 -0.050886262
000160 bb 16 38 be 8b 73 a5 bd f2 e8 e1 ba c6 b3 96 bb
       -0.17977421 -0.08078679 -0.0017235561 -0.0045990674
000170 89 a1 86 3e da 2b df 3d d2 b9 af 3e b9 8b a3 bd
       0.26295117 0.10897036 0.34321457 -0.07985634
000180 39 33 b5 bd 40 d6 87 bd 92 2e 95 3c 32 c5 42 3d
       -0.088476606 -0.06632662 0.018210683 0.04755134
000190 6f db 48 be 43 35 1b be 7e 9d e9 bc c2 9a 4f be
       -0.19614957 -0.15157036 -0.028517481 -0.20273879
0001a0 4a 1b a9 bd 08 f4 24 be 14 be 64 be 47 5c f4 3d
       -0.08257158 -0.16108716 -0.22338134 0.11931663
0001b0 d6 79 2f bd e8 85 83 be ba 80 b3 be 22 75 2a bd
       -0.0428408 -0.256881 -0.35059148 -0.041615613
0001c0 c3 e8 33 3c bd 0c 1f be 9a 84 99 3c 82 3f 3e 3e
       0.010980788 -0.15532203 0.018739987 0.18578914
0001d0 fb 4d e2 3d 41 15 14 3e 80 a9 8a 3e 1a d8 04 3e
       0.1105003 0.14461233 0.27082443 0.12973061
0001e0 23 65 34 bd c2 6e f5 bd 2e a5 47 3d 8c 0c 1e 3e
       -0.044041764 -0.11984016 0.048741512 0.15434474
0001f0 f0 bd 09 3d f0 d0 92 3e ce cd 39 bc 41 6e 46 3e
       0.033628404 0.28675032 -0.011340572 0.19377996
000200 ca 66 26 3d 53 e0 39 bc 62 f6 24 3e 37 35 23 bd
       0.04062537 -0.011344987 0.16109613 -0.03984567
000210 79 ca cc 3d de f0 61 3d c2 0c ef bb c5 6f a1 3d
       0.09999556 0.05516135 -0.007295222 0.078826465
000220 53 86 4b bb d5 ed 56 be 8c a8 eb bc 16 96 a3 3c
       -0.0031055405 -0.20989163 -0.028766893 0.019969027
000230 18 e2 11 3e b7 c6 63 3e ec d6 78 bd 82 0e 0b bd
       0.14246404 0.22243772 -0.06075184 -0.033949383
000240 db 6c 4f bb 13 16 47 3e 87 c9 93 bd 78 20 a5 3c
       -0.0031650576 0.19442014 -0.07216173 0.020157084
000250 75 82 d7 bd 81 9d 71 be 54 d2 09 be 1e a0 62 3d
       -0.105229296 -0.23595239 -0.1345914 0.05532848
000260 e9 46 1f be b4 cc 7a bd a4 96 6d be 6d 69 8f 3d
       -0.15554394 -0.061230376 -0.23201996 0.0700253
000270 c9 77 e3 3d 55 90 0d be 4e 86 de bc 04 36 ab bc
       0.111068316 -0.1382459 -0.02716365 -0.02089978
000280 1f a3 93 bd e7 84 ad 3c 93 0b 3f be 56 db f9 bc
       -0.07208847 0.021181537 -0.18656759 -0.030500095
000290 f4 24 ca 3e ff d7 f8 3d af 5b 01 be bf d5 04 bd
       0.39481318 0.12150573 -0.12632631 -0.032430407
0002a0 9d 56 eb bc 01 29 0a be 77 df 8f bd 83 3a 7c bc
       -0.028727824 -0.13492204 -0.070250444 -0.01539481
0002b0 21 59 dd bd f6 f5 d9 3d 72 66 49 be e4 e3 c4 3d
       -0.108080156 0.106426165 -0.19667986 0.09613779
0002c0 85 17 f9 bb 6c 07 35 3e bc 01 18 3e 75 c6 00 3e
       -0.0076016807 0.17678612 0.14844412 0.12575705
0002d0 ac 5a 88 3c 2d ad 44 bd 15 bc c6 3d 0a aa 15 bd
       0.016644798 -0.048016716 0.097038426 -0.036539115
0002e0 07 9c c4 bc 9a 31 ac bc 53 2f 20 bd 49 16 58 3e
       -0.02400018 -0.021019746 -0.039107632 0.21102251
0002f0 08 6d b2 bd 88 47 73 bd 70 48 10 be 71 9d 93 3d
       -0.08712202 -0.05939439 -0.14090133 0.07207764
000300 f4 22 ab 3d 99 56 9a 3d 97 56 b4 3d 17 8d bd 3c
       0.08356276 0.075360484 0.08805578 0.023138566
000310 5e 81 3b be 62 4c 3d 3d a0 f4 6b 3e e1 ae ca bc
       -0.18311068 0.046215422 0.23042536 -0.024741592
000320 46 b5 d2 3c d7 da 1e bd 09 60 df 3e 5d 13 55 3e
       0.025721204 -0.03878292 0.43627957 0.20808168
000330 3a f8 40 3e f5 07 ad 3e 6f cd 63 bd cc cc d3 3c
       0.18844691 0.33795133 -0.05561584 0.02585449
000340 b0 a4 e4 3d 62 8b 8f 3e 5a 92 8e be 4b ad d8 3d
       0.11164224 0.28036028 -0.27846032 0.10579928
000350 5a 76 7f 3d 0b 46 12 be d8 b1 36 be 41 95 8e bd
       0.06236873 -0.14284532 -0.1784128 -0.06962062
000360 f1 58 47 be 57 1b 04 be ee 3d 19 bd e3 03 c2 bd
       -0.19467522 -0.12901054 -0.037412576 -0.094733976
000370 67 0b 35 3e fb b8 e3 3d 37 74 d6 3c 98 56 83 3e
       0.17680131 0.111192666 0.026178462 0.25652003
000380 80 f8 9e bd c9 38 cb be 05 a9 90 bd 8b 0b 1e 3e
       -0.07762241 -0.3969176 -0.07063488 0.15434091
000390 5d c2 ef 3b d8 ec 7a 3e 32 aa 11 3e 0c 53 26 be
       0.007316871 0.24504411 0.1422508 -0.16242617
0003a0 23 c7 0b be 26 14 81 3c 24 17 cb 3d d6 fc fb bd
       -0.13650183 0.015756678 0.09916523 -0.12304084
0003b0 54 59 18 3e 9e b9 ac bd 58 ca 1b be de 8a fd 3b
       0.14877826 -0.08433841 -0.15213907 0.0077375015
0003c0 e2 e1 89 3e 77 98 1f be 7f bc 9a 3d 3d 07 d8 bd
       0.26930147 -0.15585504 0.07555484 -0.105482556
0003d0 80 8a e9 bd a8 15 7f bd 58 99 4a 3e 18 88 89 3e
       -0.1140337 -0.062276512 0.19785058 0.26861644
0003e0 71 14 70 3e b5 09 a7 bd 83 68 37 bd 0c ab 26 3e
       0.23445298 -0.08156148 -0.044777405 0.16276187
0003f0 5d 75 03 be 9d 03 a7 be 84 e3 9a be d5 3b fe 3d
       -0.1283774 -0.32619944 -0.30251706 0.12413756

weight_hh_l1 f4 [192, 64]
000000 57 e2 94 be d5 24 39 3e 8a 47 89 3e 2e c7 9d 3d
       -0.29078934 0.18080457 0.26812392 0.07704006
000010 00 e8 5e 3d 02 73 ce ba ed c9 be 3d cf af b8 3e
       0.05442047 -0.0015750828 0.09315858 0.3607163
000020 d6 6b b4 3b 63 df 8e be f8 40 e1 3d 23 54 2d be
       0.005506019 -0.27904806 0.1099872 -0.16926627
000030 97 5e 3e 3e 41 a1 61 bd cc 58 1c 3e e2 03 86 bc
       0.1859077 -0.055085424 0.15268248 -0.016359273
000040 32 cb 80 bd 1c a6 58 bd 9f 0d 3c 3e 4a 4b 59 3e
       -0.062887564 -0.05289279 0.18364571 0.21220127
000050 1a 83 77 3d a8 6a 04 3e 92 d5 a1 3d 41 0c 13 be
       0.060427763 0.12931311 0.079020634 -0.14360143
000060 d9 9a 82 3e 79 da 90 be 80 e6 33 3e 7c d4 e3 bd
       0.25508764 -0.2829168 0.17568398 -0.111245126
000070 12 ee b8 bd f4 c3 0b be 56 60 22 3e 73 36 f7 bc
       -0.09029783 -0.13648969 0.15857062 -0.03017733
000080 a0 cd 46 3e 77 ca 2c be 1f 99 3c 3e 70 e2 ad bd
       0.19414377 -0.16874109 0.18417786 -0.08490455
000090 82 57 de b9 fc 43 42 3e 3a 54 1e bc ed 89 b0 3d
       -0.00042408338 0.18971246 -0.009663636 0.08620057
0000a0 a1 a7 77 3c f6 cd c5 bd 7e 94 0e be d4 65 e7 ba
       0.015115649 -0.096584246 -0.13923833 -0.0017654249
0000b0 70 08 08 be 17 d9 c1 bc ab 12 a4 3e b3 82 86 3d
       -0.13284469 -0.023663087 0.32045493 0.06567898
0000c0 9b a2 c9 bd ed 95 86 bd 85 48 80 bd 4b 53 00 bd
       -0.09845468 -0.06571565 -0.06263832 -0.031329434
0000d0 40 07 0c 3e 3b ef 1e 3e a7 84 ea bd 8d d7 04 3e
       0.1367464 0.15520947 -0.11451083 0.12972851
0000e0 b6 6a de bd ae 70 1c bd 0c 41 a7 bd 97 45 32 bd
       -0.10860197 -0.038193397 -0.081667036 -0.043523397
0000f0 fa ba 45 3d 3c 64 78 3d 0c 74 c3 3e ba a8 52 be
       0.048274018 0.060642466 0.38174474 -0.20572177
000100 d3 6e f5 3d 06 e6 da bd 3c 4e 2b 3d 74 e2 39 be
       0.11984029 -0.10688405 0.041822657 -0.18152791
000110 b5 8d 58 3c d6 b2 03 be 5d 8b bf 3d 59 3e 8e 3d
       0.013217379 -0.12861189 0.09352753 0.069454856
000120 53 c6 4b bd b9 b2 26 3e 8b 7e 66 be 7e fd 8a 3a
       -0.049749684 0.16279115 -0.2250921 0.0010604111
000130 79 ce 9e ba b7 0d 0d be 06 dc 53 be 90 23 1b be
       -0.0012115977 -0.13774763 -0.20689401 -0.15150285
000140 43 4c 51 3d 24 a9 0d 3d 90 d9 37 3d 73 19 21 be
       0.05109812 0.034585133 0.04488522 -0.15732364
000150 26 eb ad 3e 8e d0 a6 bd c4 1a e7 3c 04 d5 7b 3d
       0.33968467 -0.081452474 0.028211005 0.061482444
000160 f5 13 05 3e f6 75 7f 3d 75 9f 90 3c 52 58 50 3d
       0.12995894 0.062368356 0.01765416 0.05086548
000170 b8 7f 5e 3e ae 7a 2d bd 28 af 31 bc 33 59 2a 3e
       0.21728408 -0.042353325 -0.010844983 0.1663559
000180 0e 7e 0d 3d c9 cd ce bc 83 19 22 be b2 78 12 3e
       0.034544043 -0.02524461 -0.15830044 0.14303854
000190 14 e1 fd 3d bd cb 15 3d 36 a7 e0 3e 47 fd d5 3d
       0.12396446 0.036571253 0.43877572 0.104486994
0001a0 12 e5 4e be 99 3f 97 3c 54 5a c0 3d 9e c0 e4 3e
       -0.20204571 0.018462943 0.09392229 0.44678205
0001b0 b0 33 50 3d cf 44 03 be 62 6c df bd a6 9e 89 3d
       0.050830543 -0.12819217 -0.10909344 0.06719713
0001c0 53 69 44 3c 4e 68 0d bc 91 43 89 bd 68 3f fb bc
       0.011988002 -0.008630825 -0.067023404 -0.030669883
0001d0 b4 3a 6e bd eb 2b d2 bd 57 6e 99 3d 39 41 52 bc
       -0.058161452 -0.10262283 0.07491749 -0.012832933
0001e0 c0 51 0c 3e 25 a7 cb bd ed 76 21 bc 04 ac de 3d
       0.1370306 -0.0994399 -0.009855014 0.10872653
0001f0 1e fb 82 be 28 68 41 be f5 fd 86 be 96 03 21 3e
       -0.25582212 -0.18887389 -0.2636563 0.15724024
000200 07 4f fe 3d df c4 eb bd 74 1b 5c bd ea 8c 96 bd
       0.12417417 -0.115121596 -0.05373712 -0.07351096
000210 4c b7 8e 3e ca 92 05 be 33 9f 71 be a8 51 9f bd
       0.2787422 -0.13044277 -0.23595886 -0.077792466
000220 d8 f0 e8 bd 54 dc ec 3d f7 5a 03 3e 96 13 ff 3c
       -0.11374062 0.11565462 0.12827669 0.031137269
000230 1f e7 ad 3d d5 06 02 be 57 9a dc bd f6 ae 3f 3e
       0.084913485 -0.12697919 -0.107716255 0.18719086
000240 95 90 42 3d 5d 3a 12 3e 3c 41 e6 3d ff 85 1a 3d
       0.047501165 0.14280076 0.11242911 0.037725445
000250 be 62 5b bd 5e c9 da 3d 32 45 4d bc 1f ad 5c bd
       -0.053560965 0.10682939 -0.0125287045 -0.05387604
000260 ec 55 08 be 4c 6f 5f bd a3 3c 9d 3c 01 ec 88 3e
       -0.13314027 -0.0545495 0.019193953 0.26742557
000270 94 35 c7 3d c7 3a 32 3d f2 6e 5e bb 93 fd ae 3d
       0.09727016 0.043513086 -0.003394064 0.08544459
000280 c0 af 34 bd f1 81 1c bd 1e 79 a5 bc 6b 1f 0d be
       -0.04411292 -0.03820986 -0.020199355 -0.13781516
000290 3c ac 59 bc 07 b2 08 be 4b ba 4c 3c 36 20 cd bb
       -0.013285693 -0.13349162 0.012495588 -0.0062599434
0002a0 32 fb f4 3c a1 87 ce bd 33 20 c5 3d a6 37 0b bc
       0.029904936 -0.10084463 0.09625282 -0.008497154
0002b0 4b f4 b6 3e c3 86 96 bd fd 44 89 bd 73 84 07 bd
       0.35733256 -0.073499225 -0.067026116 -0.033085298
0002c0 50 72 36 bc 9c 2e da bd b2 6b 35 3d 5b b2 c5 3d
       -0.011135653 -0.10653421 0.04429216 0.09653159
0002d0 0d 40 0b 3e be 82 b3 bd 3c 47 fe b9 b7 1d 27 3d
       0.13598652 -0.087651715 -0.0004849973 0.040799823
0002e0 52 62 1d be d7 37 67 be 98 da c9 bd af 82 0d be
       -0.15369537 -0.22579895 -0.098561466 -0.13819383
0002f0 46 6f dd 3b 3a 52 bc bd 9f c8 22 be c8 3b ce bd
       0.0067576496 -0.09195371 -0.15896843 -0.10069996
000300 1b 4f eb 3c e7 6f bd 3d 66 11 9e 3d dc 9a 83 bd
       0.028724244 0.09249859 0.07718162 -0.064260215
000310 14 83 96 3c 02 4b 0c be 17 58 16 3e 2b 23 f1 3d
       0.01837305 -0.13700488 0.14682041 0.11774286
000320 4b f5 b6 be b0 95 cf bd 60 35 a0 3d 79 c6 25 be
       -0.3573402 -0.101359725 0.078226805 -0.16188993
000330 ef b0 96 3d 04 58 0a bd 26 ba a2 3d 07 5e 96 3e
       0.07357966 -0.033775344 0.07945661 0.29368612
000340 b6 ec a6 bd 63 19 10 3d 6a 63 07 3e c3 8e 6e 3c
       -0.08150618 0.03518046 0.13221517 0.014560404
000350 78 9c 07 bd e5 1a cb 3b e9 c6 82 bd ec 57 e4 bd
       -0.033108205 0.0061982744 -0.06385595 -0.11149582
000360 8b f8 15 3e 9a 3d 20 3d 34 ea 47 3e 96 94 9f bc
       0.14645593 0.039121248 0.19522935 -0.019480031
000370 bd c5 cc bd 3f e6 07 bd 8f 73 6e 3c 97 92 5b 3d
       -0.09998653 -0.033178564 0.0145539185 0.053606596
000380 f6 4e e1 3d ed 71 7c be c6 be 25 3e 36 cf 3d be
       0.11001389 -0.24652834 0.16186056 -0.18536076
000390 89 d1 10 3a 78 7f b3 3d e3 bd b0 be 96 99 87 bc
       0.0005524387 0.08764547 -0.34519872 -0.016552728
0003a0 0e e5 f2 3d fe 01 4a be ad 19 05 be 65 24 2e be
       0.11860095 -0.19727322 -0.12998076 -0.17006071
0003b0 e2 18 02 3d 64 ab fd 3d 61 29 20 bc 53 a3 9a 3d
       0.03176201 0.12386206 -0.0097754905 0.07550683
0003c0 bb bf d3 3c 61 a0 0b be f7 78 5c bb f2 19 57 3d
       0.02584826 -0.13635398 -0.0033641437 0.052514978
0003d0 2c 62 35 3e 60 0a 56 3c 48 64 6c 3d a3 0a f0 bc
       0.17713231 0.013063997 0.057712823 -0.029301947
0003e0 e5 71 e6 bc 1e b1 a9 bd 0a 0d 17 bd cc bb 24 bd
       -0.028130481 -0.082857355 -0.03687767 -0.04021816
0003f0 1a 5d 03 3e ec 84 55 3e 0d 05 11 be 09 6a 07 3d
       0.12828484 0.20851487 -0.14162083 0.033060107

bias_ih_l1 f4 [192]
000000 25 b4 5b 3e 89 95 27 3e fc e2 c7 bd 57 c1 e5 3d
       0.21455438 0.16365637 -0.09760091 0.11218517
000010 b1 d0 2c 3e 6f 50 a7 bc 27 76 e9 3d ea 0c 16 3d
       0.16876484 -0.020424096 0.11399489 0.03663341
000020 36 77 3b 3a 7b 29 35 3e 34 95 ab bd 81 ec b4 bc
       0.00071512477 0.17691605 -0.083780676 -0.02208543
000030 9c 81 3b 3e 7d ac 26 3e cc 8f a7 3d 99 3f 88 bd
       0.18311161 0.16276737 0.08181724 -0.06652755
000040 2c cf a0 3d b7 4c ce 3d 53 17 2a bd cc 0e 8c 3d
       0.07852015 0.10073226 -0.04152615 0.0683876
000050 7a 85 5d bd cc 55 48 3d b7 f0 ff 3c 78 a8 68 3e
       -0.05408237 0.048909947 0.031242711 0.22720516
000060 d4 14 15 bd 25 cc 10 3e 21 4a 54 3d 03 18 08 3e
       -0.036396816 0.14140375 0.051828507 0.1329041
000070 d2 d1 15 3e e4 1e cc 3d 48 d5 ea bc 66 e4 8c bd
       0.14630821 0.099668294 -0.028666154 -0.06879501
000080 fd 63 fa 3d c2 eb 88 3d 81 b7 be 3c 84 01 89 3d
       0.122261025 0.06685592 0.02328086 0.06689742
000090 f6 ac f6 3c bd ff 1d 3b a4 ad a1 3d 33 37 1e bd
       0.030111771 0.002410873 0.078944474 -0.03862686
0000a0 d1 f6 30 bd bf f8 ce 3d 2c ff 14 be 12 5d e7 3c
       -0.043204132 0.10106038 -0.14550465 0.028242622
0000b0 cc 1b 0e 3c 92 35 07 3e d3 f3 6c 3b fa ef 31 3d
       0.0086736195 0.13204029 0.0036156073 0.04344175
0000c0 2b 7f 2d 3e c5 c1 13 3e 93 c4 97 3d 3b 9a ea 3d
       0.16943042 0.14429386 0.074105404 0.114551984
0000d0 ff 67 a4 bd 13 e1 35 3d bd 4f 1b 3e 91 11 31 bd
       -0.08027648 0.0444041 0.15167136 -0.043229643
0000e0 f3 bc 85 bd c3 04 c6 bc b6 6f fe 3d f9 2a 9a 3d
       -0.0653018 -0.024172192 0.12423651 0.07527728
0000f0 f4 2d 80 bd 3b 0a 29 3a 7b 74 fa bb 6a 9d d0 3d
       -0.06258765 0.0006448363 -0.00764328 0.10186274
000100 b9 b2 09 be c3 12 4a be 66 7d d7 be 7e fc d4 be
       -0.13447084 -0.1973372 -0.4208786 -0.41598886
000110 82 25 47 be 48 51 a8 be 5d 3b 6a be c2 dc 10 be
       -0.19447902 -0.32874513 -0.22874208 -0.14146712
000120 d1 8c 4f be a3 98 27 be a4 4b a1 bd 70 15 7a be
       -0.20268561 -0.1636682 -0.078757554 -0.2442224
000130 fd 32 b0 be b1 91 c1 be 5a b6 1a be 2c a5 67 be
       -0.344139 -0.37806466 -0.15108624 -0.22621602
000140 6c 79 92 be 08 51 91 be 94 e0 d8 be 7a 38 a4 be
       -0.28608263 -0.28382134 -0.4235884 -0.32074338
000150 73 99 af bd b5 4a 95 be 65 21 95 be 33 1d dd bb
       -0.0857419 -0.2915856 -0.2912704 -0.0067478656
000160 3b 37 0f be 8d 91 3c be 4f f3 05 be 57 43 2d be
       -0.13985913 -0.18414898 -0.13081096 -0.1692022
000170 aa c7 4b bd 62 61 84 bd 0e cb 19 be 40 c2 af bd
       -0.04975096 -0.06463887 -0.15018865 -0.08581972
000180 38 d2 14 be b6 2f cb bd ab de 86 be 69 30 e8 3d
       -0.14533317 -0.099212095 -0.26341757 0.113373585
000190 c2 d9 29 be f0 35 24 be 99 ba fe bd f1 ca 11 be
       -0.16586974 -0.160362 -0.124379344 -0.14237572
0001a0 15 3c c3 bd 49 1d 98 be fd 46 3d be 05 4b 31 bd
       -0.09532944 -0.29709843 -0.18484111 -0.043284435
0001b0 62 02 19 bd 30 71 de bc d7 84 0d 3c 19 5f 2d 3d
       -0.037355788 -0.027153581 0.0086376285 0.04232702
0001c0 f8 97 95 be da 19 0d be d4 d9 c1 3c 18 ab 20 be
       -0.29217505 -0.13779393 0.023663439 -0.15690267
0001d0 63 b8 7a be 0b 66 b0 bd dd 21 da bd 41 59 8e bd
       -0.244844 -0.08613213 -0.1065099 -0.069506176
0001e0 17 21 4e be 63 0d 36 bd 65 88 84 bd 42 98 37 bc
       -0.2012981 -0.04444636 -0.06471328 -0.011205735
0001f0 e0 b3 9b bc af 55 50 be ce 85 12 be f8 5e 96 be
       -0.01900667 -0.20345186 -0.14308855 -0.2936933
000200 c5 55 c3 bd bc c8 7f 3d cc e5 67 3e 31 ce 4e 3d
       -0.095378436 0.062447295 0.22646254 0.05048961
000210 7b 9e f0 bc 38 af 94 bd a5 88 69 3d ee b8 5e 3e
       -0.029372444 -0.07259983 0.05701508 0.21750233
000220 43 1d d4 bd af 3f b7 3c 5c 42 11 3d ca b2 01 be
       -0.10357144 0.022369234 0.035463676 -0.12665859
000230 d6 1e 43 3d 61 ca ac 3d 27 6a 5c 3e 6d 2b 53 3e
       0.04763683 0.08437038 0.21524869 0.20622034
000240 9a b1 c2 bd 02 94 2a bd c9 ad 98 3d 77 5c 5f 3e
       -0.09506531 -0.041645057 0.07455022 0.21812616
000250 03 46 94 bc 94 48 34 3d 9e b5 04 bd df dd e7 3d
       -0.01809979 0.04401453 -0.032399766 0.113216154
000260 db 44 24 3e 0b d2 ca bd a3 07 0d 3e fe c7 5f bd
       0.16041891 -0.09903344 0.13772444 -0.054634087
000270 d2 52 f5 3c 72 cf 70 3d 86 51 2c 3e ed 04 bf bd
       0.029946718 0.058791585 0.16827974 -0.093271114
000280 42 e5 02 3e da f6 50 bd fb 19 26 3e 88 dc d6 3d
       0.12782767 -0.051016666 0.16220848 0.10491282
000290 ca 22 6e 3d d4 05 d6 3d f1 97 98 bd b7 ad d1 bd
       0.058138646 0.104503304 -0.074508555 -0.102382116
0002a0 36 f4 92 bc 69 75 55 be 06 8f a6 bc 9b bc 99 3c
       -0.017938714 -0.2084557 -0.02033187 0.018766692
0002b0 49 d1 3a bd b3 12 6b 3e c0 18 cd bd e8 7d 81 3b
       -0.045609746 0.22956352 -0.10014486 0.003951777
0002c0 6a 8a 07 bd 6c 8d a2 bd 25 33 3a 3e 55 26 cf bc
       -0.033090986 -0.0793713 0.18183573 -0.025286833
0002d0 06 a0 05 3e 8a 65 87 3e db 4d 27 bd 38 ea 33 3e
       0.13049325 0.26444656 -0.040845733 0.17569816
0002e0 cb 2f 49 3e f7 01 93 bb 0d 33 8f bc a2 3b 19 3e
       0.19647138 -0.004486318 -0.017480398 0.14964154
0002f0 db 4c 38 3d 61 47 15 bd db c6 98 3d f9 e2 59 3d
       0.04499517 -0.036445025 0.07459804 0.053194974
