time_LossPrune/model3_Traffic.pth (torch, 169806 bytes, 12 tensors)

weight f4 [23, 8]
0	0xbf2a2564	-0.66463304
1	0x3fc26635	1.5187441
2	0x3f3797bb	0.717159
3	0x3f5dd25c	0.8664911
4	0x3fdca2e0	1.7237206
5	0x3f9c5079	1.2212058
6	0xbd71d943	-0.059045088
7	0xbf174742	-0.59093106
8	0xbf21bd68	-0.63179636
9	0x3e875680	0.26433182
10	0x3f7d5417	0.98956436
11	0xbd3874fa	-0.045033433
12	0x3f97f559	1.1871749
13	0xbef2eb83	-0.47445306
14	0xbba4f664	-0.005034255
15	0xbe661dca	-0.22472301
16	0x400e44ae	2.2229419
17	0xbe5c53d2	-0.2151635
18	0x3fb03e18	1.376895
19	0x3f149078	0.5803294
20	0x3f8d18cc	1.1023192
21	0x400d38ef	2.2066
22	0x3d6cf7b7	0.057853427
23	0xbf37f35f	-0.7185573
24	0x3f48ec45	0.7848552
25	0xbfa129cf	-1.2590884
26	0xbf01c3c1	-0.5068932
27	0xbf5f2c50	-0.8717699
28	0xbfafe4de	-1.374172
29	0xbf0aa810	-0.54162693
30	0xbf59a8ae	-0.8502301
31	0xbe702e2a	-0.2345511
32	0xbfc56425	-1.5421187
33	0xbff01328	-1.8755846
34	0xbf2585ed	-0.6465748
35	0x3eb8708c	0.36023366
36	0xbf8ff6f2	-1.1247237
37	0xbe7f9a72	-0.2496126
38	0x3f65e140	0.8979683
39	0xbe6a5af8	-0.22886264
40	0x3e3fdf80	0.18737602
41	0x3fb35a56	1.4011943
42	0xbed3cc13	-0.41366634
43	0x3f92105e	1.1411245
44	0x3f4a8af4	0.79118276
45	0xbf1457fe	-0.57946765
46	0xbab7f50f	-0.0014034825
47	0x3e11dac1	0.14243604
48	0xbe868738	-0.2627504
49	0xbe001286	-0.12507066
50	0x3fb4f666	1.4137695
51	0xbec66285	-0.3874704
52	0xbf7e276d	-0.9927891
53	0x3cc0c79d	0.023532683
54	0x3e3a5c9d	0.18199392
55	0x3ebacc50	0.36484003
56	0xbfe2e4f8	-1.7726126
57	0x3f1a57b5	0.6029008
58	0xc0158e87	-2.3368242
59	0x3dc92f22	0.09823443
60	0xbfa7718d	-1.3081528
61	0xbfce6298	-1.6123838
62	0xbfc06bba	-1.5032876
63	0x3fd67801	1.6755372
64	0xbf987629	-1.191106
65	0xbdab67c2	-0.083693996
66	0x3eb74778	0.35796714
67	0xbe7bddc0	-0.2459631
68	0x3f08a191	0.5337153
69	0xbd50af0f	-0.0509482
70	0x40053a4d	2.0816834
71	0x3f389f0c	0.72117686
72	0x3db8ca5e	0.090229735
73	0xbe173695	-0.14766915
74	0x3f417656	0.7557119
75	0xbe5cf6be	-0.215785
76	0xbf85d8c6	-1.0456779
77	0xbfb9e163	-1.4521908
78	0x40002f26	2.0028777
79	0xbf306fa4	-0.6892035
80	0xbf8f6d0e	-1.1205156
81	0xbef28a19	-0.47370985
82	0x3f8b3b4c	1.0877471
83	0x3f59cbaf	0.8507642
84	0x3f00be30	0.50290203
85	0x3f48b920	0.7840748
86	0x40195137	2.395582
87	0x3fdbbfe6	1.7167938
88	0x3f968a29	1.1760913
89	0xbe8f4792	-0.2798429
90	0x3f0068f0	0.5016012
91	0xbeb34c2c	-0.35019052
92	0x3e293bfc	0.16526788
93	0x3c2f5dfd	0.010703561
94	0xbf738f35	-0.9514039
95	0xbf2481cd	-0.6426056
96	0xbfcd2c63	-1.6029171
97	0xbfa1bc9c	-1.2635684
98	0x3e1a6ff2	0.15081766
99	0x3f7b4575	0.9815286
100	0x3f8facfc	1.1224666
101	0xbfc1c5d1	-1.5138494
102	0xbf51db20	-0.81974983
103	0xbf909e27	-1.1298264
104	0x3e6801b7	0.22656904
105	0xbe4e8762	-0.20168832
106	0x3e92f315	0.28701082
107	0x4002c542	2.0432897
108	0xbdf44445	-0.11927084
109	0x400c83b1	2.1955378
110	0xbf1601da	-0.58596575
111	0x40090fdc	2.141593
112	0x3f4c7acc	0.79874873
113	0x3f478f58	0.779531
114	0x3e3f67d3	0.1869195
115	0x3fa83d3a	1.3143685
116	0x3f00dda6	0.5033821
117	0xbfd3a585	-1.6534888
118	0xbe4858fd	-0.19565196
119	0x3ed81450	0.42202997
120	0xbf2b64ad	-0.66950494
121	0x3eaf79d7	0.34272644
122	0x3f8efbe7	1.1170624
123	0xbeb10700	-0.34575653
124	0x3e448804	0.19192511
125	0xbf9174c3	-1.1363758
126	0xbdb69f92	-0.08917154
127	0xbfeefa20	-1.8670082
128	0xbf2d8d93	-0.6779415
129	0x3f369f7d	0.7133711
130	0x3e509667	0.20369874
131	0xbf473a1b	-0.77823037
132	0x3ff0690b	1.8782057
133	0x3e0248ac	0.12723035
134	0xbf71578e	-0.9427422
135	0xbd709375	-0.058734376
136	0x40507c9b	3.2576053
137	0x3de1ef28	0.110319436
138	0x3eef1670	0.46696806
139	0xbf978812	-1.18384
140	0xbf60b27b	-0.8777234
141	0xbeabc4db	-0.33548626
142	0x3fba7b85	1.4568945
143	0xbf551c63	-0.8324644
144	0xbf480fb2	-0.7814895
145	0x3f72b621	0.94809157
146	0xbf805db3	-1.0028595
147	0xbe98fac7	-0.29878828
148	0xbf9d6d75	-1.2299029
149	0xbe5380ab	-0.20654552
150	0x3ee8446e	0.45364708
151	0xbf1ac0a4	-0.60450196
152	0x3e064eb1	0.13115956
153	0x3fa31496	1.2740657
154	0x3f4507fa	0.76965296
155	0xbfd009c8	-1.6252985
156	0x3fb29ae8	1.3953524
157	0x3fd4b1f7	1.661681
158	0x40159c73	2.337674
159	0x3f4b79eb	0.7948291
160	0x3fb0edc6	1.3822563
161	0x3e91d75d	0.28484622
162	0x3f393df9	0.7236019
163	0xbdfb64de	-0.12275098
164	0x3f0d91a3	0.5530035
165	0xbfb303cd	-1.3985535
166	0x3e44d3ff	0.19221495
167	0x3eb420b9	0.35181215
168	0xbfd75137	-1.682166
169	0x3ffadf14	1.9599328
170	0x3e865241	0.2623463
171	0xbf0cc52f	-0.5498838
172	0xc0051491	-2.0793803
173	0xbfb7ba1b	-1.435367
174	0xbf3e478b	-0.74327916
175	0xbfb2fc63	-1.3983272
176	0x3f1dfe77	0.6171641
177	0x3f43fb29	0.76555115
178	0x3f021d3b	0.5082585
179	0x3db6e1fe	0.08929823
180	0x3f2c5a8b	0.6732566
181	0xbeda5fe6	-0.4265129
182	0xbf83d9e8	-1.0300875
183	0x3db2f71b	0.08738538

weight_ih_l0 f4 [192, 9]
0	0x3c5077aa	0.012723843
1	0x3e239240	0.15973759
2	0x3e23b8d9	0.15988483
3	0xbd33d21b	-0.043901544
4	0x3e1c092b	0.15237872
5	0xbe752f3c	-0.239438
6	0x3b8f8e2d	0.0043809623
7	0xbeecfcd8	-0.46286654
8	0x3d478a01	0.048715595
9	0xbdb3cd82	-0.08779432
10	0xbcdceefb	-0.026969424
11	0x3eb5dad4	0.35518515
12	0xbd8e4289	-0.06946284
13	0xbe18e788	-0.14932072
14	0xbef9f605	-0.4882051
15	0xbe433abc	-0.19065374
16	0xbe292b7d	-0.16520496
17	0xbe72d2f3	-0.23713283
18	0xbc84e9e7	-0.016224815
19	0x3d942d2e	0.0723518
20	0x3e1e616a	0.15466848
21	0x3e9c7961	0.30561355
22	0xbebfe721	-0.37481025
23	0xbd862233	-0.06549492
24	0xbe250d99	-0.16118468
25	0x3e273936	0.16330418
26	0xbe0167f1	-0.12637307
27	0x3dc349cc	0.0953556
28	0xbdcfdf3b	-0.1015
29	0x3e0536c6	0.13009176
30	0x3c0935b7	0.008374623
31	0x3e1dc148	0.15405762
32	0xbce6e9af	-0.0281876
33	0x3e577ddf	0.2104411
34	0xbbadc60b	-0.0053031496
35	0xbeaba58a	-0.33524734
36	0x3eb8053e	0.359415
37	0xbe697c56	-0.22801337
38	0x3c8ece33	0.017432308
39	0xbe044163	-0.12915568
40	0xbd81f63c	-0.063457936
41	0x3e02fb72	0.12791231
42	0xbe7cd785	-0.24691589
43	0x3dd68787	0.104750685
44	0xbd122429	-0.035679016
45	0xbe0d944b	-0.138261
46	0x3e3b377a	0.18282881
47	0x3e146ede	0.14495417
48	0x3e1ced9d	0.15325017
49	0xbd463311	-0.048388544
50	0x3eb1efdf	0.3475332
51	0x3e36e148	0.17859375
52	0x3e8520e6	0.26001662
53	0x3d14484d	0.036201764
54	0x3d5e75d6	0.054311596
55	0x3db76232	0.08954276
56	0x3e5a6976	0.21329293
57	0xbd4ec917	-0.050484743
58	0xbe49b1d9	-0.1969675
59	0xbd5dcd3e	-0.054150812
60	0xbd48d27c	-0.04902886
61	0xbe86713d	-0.2625827
62	0x3d757695	0.05992754
63	0xbdca07ba	-0.09864755
64	0x3d23c83e	0.039985888
65	0x3e012c28	0.126145
66	0x3e030c11	0.12797572
67	0x3cd9db1f	0.026593743
68	0x3d9a0322	0.07520129
69	0xbe14bcf1	-0.145252
70	0xbe3d811d	-0.18506284
71	0xbdd57d02	-0.10424234
72	0x3e156f72	0.14593294
73	0x3c70dfda	0.014701808
74	0x3ddf6b0b	0.10909089
75	0x3e45fc03	0.19334416
76	0xbdb45fdb	-0.088073455
77	0x3f06d275	0.5266488
78	0x3efccca6	0.49374884
79	0x3ec2dcbd	0.38059035
80	0x3e5c9b12	0.2154353
81	0xbe81af32	-0.25328976
82	0xbbcef230	-0.006315492
83	0x3c9e31c6	0.019310843
84	0xbc3c7654	-0.011502821
85	0x3c047a93	0.008085865
86	0x3ec7e0e8	0.39038777
87	0x3d8e8cd1	0.06960452
88	0x3dc09158	0.09402722
89	0x3e17eb71	0.14835908
90	0xbe1a485a	-0.15066662
91	0xbd4772c0	-0.04869342
92	0x3d3bf846	0.04589107
93	0xbc93e071	-0.018051358
94	0xbd842d88	-0.06453997
95	0x3ebadad8	0.3649509
96	0xbb340c5f	-0.0027473194
97	0x3e9fbf5a	0.31200677
98	0xbc90843d	-0.017641181
99	0x3e921a82	0.2853585
100	0x3e1062aa	0.14100137
101	0xbb265e9a	-0.0025385977
102	0x3e3d2034	0.18469316
103	0xbdc27e95	-0.094968
104	0xbd573a33	-0.052545737
105	0x3e17acb1	0.1481197
106	0xbe572e04	-0.21013647
107	0xbe82cfb9	-0.25549105
108	0x3db3a212	0.08771147
109	0x3dded962	0.10881306
110	0xbdbf01b7	-0.09326499
111	0xbdb21236	-0.0869488
112	0x3b88e4b5	0.0041776546
113	0xbe24dade	-0.16099116
114	0xbdc1cfe3	-0.09463479
115	0x3e097abb	0.13425724
116	0x3cbe3bb0	0.02322182
117	0x3db0a010	0.086242795
118	0xbca1a7a3	-0.019733256
119	0x3c2563d6	0.0100946035
120	0x3d5dab4b	0.054118436
121	0x3c1226c5	0.008920376
122	0xbe24d3f2	-0.16096476
123	0xbc5a3c3d	-0.013320026
124	0xbe1b390e	-0.15158483
125	0x3e1335b3	0.14375953
126	0xbd792636	-0.060827456
127	0x3eab50e5	0.33460155
128	0xbe7e05e0	-0.24806929
129	0x3e163ac7	0.1467086
130	0x3e20d45c	0.15706009
131	0xbd64a28a	-0.05581907
132	0x3e35da62	0.17759088
133	0x3c605914	0.013693113
134	0xbe6bf7ef	-0.23043798
135	0xbc104f8a	-0.008808026
136	0x3ef251bb	0.4732798
137	0xbdb6d920	-0.08928132
138	0x3e9bf3f3	0.30459556
139	0xbdbe932f	-0.09305417
140	0x3d05f566	0.032704733
141	0x3e09bb8a	0.13450447
142	0x3e6b8da6	0.23003253
143	0x3cc2c769	0.023776727
144	0x3d887d29	0.066644974
145	0x3e5de260	0.21668386
146	0xbe67ee8b	-0.2264959
147	0x3e293428	0.16523802
148	0x3e95a884	0.2923013
149	0xbebe8681	-0.37211993
150	0xbe0fd6bb	-0.14046757
151	0xbe46506f	-0.1936662
152	0xbe7ac67e	-0.24489781
153	0x3e205d7b	0.1566066
154	0xbe189476	-0.14900383
155	0x3e2cc902	0.16873553
156	0xbed49b05	-0.4152452
157	0xbd61bd96	-0.055112444
158	0xbdeb4acc	-0.11488876
159	0x3d80356b	0.06260189
160	0xbe917fbc	-0.28417766
161	0x3e86d8d3	0.263373
162	0xbe02a8d9	-0.12759723
163	0x3e78b1ee	0.24286625
164	0x3ca2ebfa	0.019887913
165	0x3e064350	0.13111615
166	0x3e2c7b58	0.16843927
167	0x3e72a643	0.23696236
168	0xbe01c5c8	-0.12673104
169	0xbdd31b57	-0.10307949
170	0x3d6aebb1	0.05735368
171	0x3da886cb	0.08228835
172	0xbd2f044f	-0.04272872
173	0xbdbd0893	-0.09230151
174	0x3c0b1f1c	0.008491304
175	0xbe2870e4	-0.16449314
176	0xbe4590c0	-0.19293499
177	0x3d08e9d6	0.03342613
178	0x3e54f67f	0.20797156
179	0x3f0846d9	0.53233105
180	0xbdaf4ca9	-0.08559544
181	0x3d7667af	0.060157474
182	0x3e0e44b7	0.138934
183	0x3e87fb36	0.26558846
184	0x3eb2c9f3	0.349197
185	0x3eac5d8b	0.33665118
186	0x3d83372f	0.0640701
187	0x3daa3d9d	0.08312533
188	0xbe68919d	-0.22711797
189	0xbd977fba	-0.07397409
190	0x3d30aa85	0.04313137
191	0xbeaae3ed	-0.3337702
192	0x3d987bca	0.07445486
193	0x3e967330	0.29384756
194	0xbd6d2e24	-0.05790533
195	0x3e32d181	0.17462732
196	0xbc9d5d3f	-0.019209502
197	0x3d82395d	0.063585974
198	0xbd31959b	-0.043355566
199	0x3ed21418	0.41030955
200	0x3deab4c9	0.11460263
201	0x3e555b4b	0.20835607
202	0x3d5b924c	0.053606316
203	0x3dc4c8fe	0.09608649
204	0x3e9c4248	0.3051932
205	0xbe9d1b78	-0.3068502
206	0x3ebc261c	0.36747825
207	0x3e893b56	0.26803082
208	0xbd3a6115	-0.04550274
209	0xbde4c3e3	-0.11170175
210	0xbe2fd629	-0.1717154
211	0xbdc78517	-0.09742182
212	0xbe16a63a	-0.14711848
213	0xbc894895	-0.016758243
214	0xbe0677dc	-0.1313166
215	0x3dbf47ba	0.09339853
216	0xbdcf3bba	-0.10118814
217	0x3e98a3fe	0.29812616
218	0xbea54f3d	-0.32287017
219	0xbd7e1d7f	-0.06203985
220	0x3e114138	0.14185035
221	0x3d15a467	0.03653374
222	0x3e03a484	0.12855726
223	0x3d7198da	0.05898366
224	0x3de16fab	0.11007627
225	0xbd84eb61	-0.064902075
226	0xbe81d73b	-0.2535952
227	0x3e844aac	0.2583822
228	0xbdaec3ba	-0.08533426
229	0xbe1b66d6	-0.15175948
230	0xbe43270f	-0.19057868
231	0xbdf175c5	-0.11790041
232	0x3e294749	0.165311
233	0x3cb074a1	0.021539988
234	0xbe78ce0f	-0.24297355
235	0xbea763c8	-0.32693315
236	0x3c99fa8d	0.01879623
237	0xbf11654e	-0.56795204
238	0xbe3e1bc2	-0.18565276
239	0xbf1a6d0d	-0.6032265
240	0xbd422a3b	-0.047403555
241	0xbe08f583	-0.13374905
242	0x3e7474fe	0.23872754
243	0xbc8bfbe1	-0.017087879
244	0xbcdbb2ea	-0.026818711
245	0xbcaa4b63	-0.0207879
246	0x3d413289	0.047167335
247	0x3dc8baaa	0.09801228
248	0x3dd57a4c	0.10423717
249	0xbe511653	-0.20418672
250	0x3e1189a0	0.14212656
251	0xbe08dbdc	-0.1336512
252	0x3eb24449	0.34817722
253	0xbe9b532b	-0.3033689
254	0x3e590ced	0.21196337
255	0x3d9b5654	0.07584825

weight_hh_l0 f4 [192, 64]
0	0xbd435bf7	-0.047695126
1	0xbbfb0326	-0.0076602874
2	0xbcaa2d16	-0.020773452
3	0x3dd18664	0.10230711
4	0x3d54c51f	0.0519458
5	0x3e6ac414	0.2292636
6	0x3d3c3de5	0.045957465
7	0xbe015a68	-0.12632143
8	0x3e6222a4	0.22083527
9	0x3a081e9c	0.00051925494
10	0x3c938242	0.018006448
11	0x3dabd3cd	0.08390007
12	0x3dfc9ed0	0.123349786
13	0x3cd17e79	0.025573002
14	0x3d2a289f	0.041542646
15	0xbc76f55d	-0.015073148
16	0xbd92c342	-0.07166149
17	0xbedbfc54	-0.4296595
18	0x3dee118e	0.11624442
19	0xbddeb137	-0.10873645
20	0x3e1b038a	0.15138069
21	0xbd496a80	-0.049173832
22	0xbd34ae05	-0.04411127
23	0xbd86407a	-0.06555267
24	0xbde80bf8	-0.11330408
25	0x3e12d0eb	0.14337508
26	0xbda6a287	-0.081364684
27	0x3d29e487	0.041477706
28	0x3ef218e8	0.47284627
29	0xbe15165f	-0.14559315
30	0xbc37efbc	-0.011226591
31	0x3dc24b82	0.09487058
32	0xbd27e229	-0.040987168
33	0x3df2b72b	0.11851343
34	0x3aeaaf57	0.0017905039
35	0x3d80151d	0.06254027
36	0x3e335f0f	0.1751673
37	0x3bf34bf3	0.0074248253
38	0x3e69585e	0.22787616
39	0x3e3a631c	0.1820187
40	0xbdef7816	-0.116928264
41	0xbbe37f7b	-0.006942687
42	0xbc5bb8a4	-0.013410721
43	0xbcd93f8e	-0.026519563
44	0xbd95ad76	-0.07308476
45	0x3e1618c9	0.14657892
46	0x3d02621f	0.031831857
47	0xbe1b2481	-0.15150644
48	0x3dccb5f6	0.09995644
49	0xbe3207d2	-0.17385796
50	0xbdc09def	-0.094051234
51	0x3d5376cb	0.05162696
52	0xbd06c215	-0.032899935
53	0x3e36fb76	0.17869362
54	0x3dea69e3	0.114459775
55	0xbe6ef1e1	-0.23334457
56	0xbb3742be	-0.0027963365
57	0xbe4e7cbc	-0.2016477
58	0x3dc309c3	0.09523346
59	0xbe42962c	-0.19002599
60	0x3df37c52	0.118889466
61	0xbdddbea2	-0.10827376
62	0xbe3768d1	-0.17911078
63	0xbdf03917	-0.11729639
64	0xbddf1cb1	-0.10894144
65	0x3e15cb4a	0.1462833
66	0xbd08534e	-0.03328257
67	0x3cbf4e12	0.023352657
68	0xbd4a05c9	-0.049321923
69	0x3d8078f4	0.0627307
70	0x3e264349	0.16236605
71	0x3e15e6dc	0.14638847
72	0xbd90f482	-0.07077886
73	0x3e440c6e	0.19145367
74	0xbd9cd49a	-0.07657738
75	0x3d09e409	0.033664737
76	0x3ce2fcf1	0.027708502
77	0x3e3a6a2b	0.18204562
78	0x3dba3358	0.09091824
79	0x3d0bfc21	0.034175996
80	0xbe356649	-0.177148
81	0x3d3031af	0.043016132
82	0xbdad5c23	-0.08464839
83	0x3d8cf54f	0.068827264
84	0xbcdd98c0	-0.027050376
85	0x3dfbdbad	0.12297759
86	0xbe3447ee	-0.17605564
87	0x3c1581a9	0.009125152
88	0xbc34d64d	-0.011037421
89	0xbd3aa7c6	-0.045570157
90	0x3d492a97	0.049112882
91	0x3d8a7751	0.06761039
92	0x3d16814f	0.036744412
93	0x3b14a7a6	0.0022682934
94	0xbd187215	-0.037218172
95	0x3bfb577f	0.0076703425
96	0xbc0bbe52	-0.008529263
97	0x3d86f636	0.0658993
98	0xbdcc1aff	-0.099660866
99	0xbe649fd1	-0.2232659
100	0xbd987ab6	-0.0744528
101	0x3ddcf0e8	0.10788137
102	0x3e3a6522	0.18202642
103	0xbe3fcf34	-0.18731385
104	0xbcbb5de7	-0.022871925
105	0x3cb2c77f	0.021823643
106	0x3e27f140	0.16400623
107	0xbc90bf0d	-0.017669225
108	0xbdc79945	-0.09746031
109	0x3d727c86	0.059200786
110	0x3d61c5ac	0.055120155
111	0xbb50c3e0	-0.0031855032
112	0xbdef005a	-0.11669989
113	0xbd1233cd	-0.035693932
114	0xbdc3a32f	-0.09552609
115	0x3c919325	0.01777036
116	0x3e795310	0.24348092
117	0x3e0b8859	0.13626231
118	0x3d11e505	0.0356188
119	0x3d05075b	0.032477718
120	0x3e5861f4	0.21131116
121	0xbdf504e3	-0.11963823
122	0x3cf34a08	0.029698387
123	0xbcd1053f	-0.025515197
124	0xbd848f0d	-0.06472597
125	0xbdb2cd63	-0.08730581
126	0x3e086169	0.13318409
127	0x3dcf9a82	0.10136892
128	0xbdfa0e71	-0.12209786
129	0x3e237513	0.15962629
130	0xbe0a9970	-0.13535094
131	0xbd2bf6f9	-0.04198358
132	0xbd478926	-0.04871478
133	0xbe1e5bae	-0.1546466
134	0x3d649eb1	0.055815402
135	0xbda34c3b	-0.07973524
136	0xbd2906ab	-0.041266125
137	0xbd57ad99	-0.05265579
138	0x3e46d8be	0.19418618
139	0x3dacd5ff	0.08439254
140	0x3e8c3ebd	0.27391616
141	0xbd9f5fc7	-0.0778194
142	0x3d184348	0.03717354
143	0x3d955e92	0.072934285
144	0xbe1ad529	-0.15120377
145	0x3d309cc7	0.043118265
146	0x3d147092	0.036240168
147	0x3ce9d2e8	0.02854295
148	0xbe04576f	-0.12923978
149	0xbe0cc69f	-0.13747643
150	0x3d284aea	0.04108707
151	0xbd0f55d2	-0.034993954
152	0x3dc003d0	0.09375727
153	0xbdb42119	-0.087953754
154	0x3e0b1636	0.13582692
155	0x3dbcb378	0.092139184
156	0x3e168d49	0.14702334
157	0xbd8dacf5	-0.069177546
158	0xbd819212	-0.06326689
159	0x3d84669f	0.06464886
160	0x3dcec1f7	0.100955896
161	0xbe270c3e	-0.16313264
162	0xbc9daaad	-0.019246424
163	0x3d8e501c	0.069488734
164	0xbe4ff8c9	-0.20309748
165	0x3eccfd30	0.40036917
166	0x3d75e64b	0.060034078
167	0xbca5c4e5	-0.020235488
168	0x3b2ce292	0.0026380164
169	0xbc1684b7	-0.009186915
170	0xbd69fc6f	-0.057125505
171	0x3dda5517	0.10660761
172	0xbc9c8d79	-0.019110428
173	0x3dc9d0bb	0.09854265
174	0xbccefaf3	-0.025266146
175	0xbc9f496e	-0.019444194
176	0x3d87ae0e	0.06624995
177	0x3e3c8548	0.18410218
178	0xbd621f4f	-0.05520564
179	0x3e4029e9	0.18765987
180	0x3e35fb04	0.17771536
181	0x3e038120	0.12842226
182	0x3b26c6fa	0.002544819
183	0x3cedb3c6	0.029016387
184	0x3e9fb961	0.3119612
185	0x3d8bc0cc	0.068238825
186	0xbaa9eb14	-0.0012963735
187	0xbe396608	-0.18105328
188	0xbcfbfd15	-0.030760327
189	0xbad696bf	-0.001637183
190	0x3dc2a41c	0.09503958
191	0x3d68228d	0.056673575
192	0xbdd1a00a	-0.10235603
193	0x3d8c4c3b	0.06850477
194	0x3d402ef7	0.04691979
195	0x3dcd5a49	0.10026986
196	0x3d39da83	0.045374405
197	0x3e7864d0	0.24257207
198	0xbcdfcc69	-0.02731915
199	0x3d80594e	0.062670335
200	0x3db70225	0.08935956
201	0x3cb03574	0.021509863
202	0x3aac7f47	0.001316049
203	0x3d982be2	0.07430245
204	0x3cc72a30	0.024312109
205	0x3ca75a04	0.020428665
206	0x3e3451dc	0.17609352
207	0x3dad736d	0.08469281
208	0x3e5976bf	0.21236704
209	0x3df2d313	0.118566655
210	0x3e3ab171	0.18231751
211	0x3d9afe93	0.075680874
212	0xbe39ba74	-0.18137532
213	0x3ca864d4	0.020555891
214	0x3d29c5e1	0.041448478
215	0xbdc5c283	-0.09656241
216	0x3c5b76bc	0.013395008
217	0xbe0b2630	-0.13588786
218	0xbd193d5a	-0.037412025
219	0xbc8de624	-0.017321654
220	0x3d8709ee	0.06593691
221	0xbdd6db9c	-0.10491106
222	0x3e665d5a	0.22496548
223	0xbe21a664	-0.15786129
224	0xbdd86ee1	-0.105680235
225	0xbdc10b8d	-0.09426031
226	0xbd4511c5	-0.04811265
227	0x3e3393b7	0.17536817
228	0x3e50018e	0.20313093
229	0x3da344e3	0.079721235
230	0xbcd5c0ae	-0.026092853
231	0x3e15337d	0.14570422
232	0xbcf1196a	-0.029431064
233	0xbd886069	-0.06659014
234	0x3c888861	0.016666593
235	0x3d8df493	0.069314145
236	0x3e2bdb13	0.16782789
237	0xbc491cc0	-0.012274921
238	0x3d70339a	0.05864296
239	0xbd3bd087	-0.045853164
240	0x3e185013	0.14874296
241	0xbe9cde26	-0.30638236
242	0xbdacd3df	-0.08438849
243	0xbd8d34f6	-0.06894867
244	0xbdd3fb3c	-0.103506535
245	0x3dfeffd3	0.12451138
246	0xbd143072	-0.036179014
247	0xbe075438	-0.1321572
248	0x3cb32b31	0.021871181
249	0x3d819a15	0.06328217
250	0x3def415a	0.11682387
251	0xbe347bd8	-0.17625368
252	0x3d34fbe2	0.044185527
253	0x3abb49b1	0.001428893
254	0x3d1291d9	0.035783622
255	0xbe2df4fb	-0.16987984

bias_ih_l0 f4 [192]
0	0xbb8eabab	-0.0043539605
1	0xbd018302	-0.03161908
2	0xbc535962	-0.0128997285
3	0x3e011538	0.1260575
4	0x3e3d0300	0.18458176
5	0xbd657b79	-0.056025956
6	0xbc7b4bb5	-0.015337874
7	0xba5f7566	-0.00085242686
8	0xbde84c1b	-0.11342641
9	0x3dd5d129	0.10440285
10	0x3e32042e	0.17384407
11	0xbdbfcc60	-0.09365153
12	0xbdd957f8	-0.10612482
13	0x3dc28ec6	0.09499888
14	0x3e5cf795	0.2157882
15	0x3d734c8f	0.059399184
16	0xbdcddebf	-0.10052251
17	0x3d69105d	0.05690037
18	0xbd39ebe3	-0.045390975
19	0x3e0c5ca4	0.13707215
20	0xbd242f88	-0.04008439
21	0xbd4623a3	-0.04837383
22	0x3d174f10	0.036940634
23	0x3e84cf06	0.25939196
24	0x39863a36	0.00025601842
25	0xbd2d404f	-0.042297658
26	0xbd378b95	-0.04481085
27	0xbd580ff9	-0.052749608
28	0xbe65a9b7	-0.22428022
29	0x3e2051d8	0.15656221
30	0xbdff36e3	-0.12461641
31	0xba9619cf	-0.0011451783
32	0x3e8f6a85	0.28010955
33	0x3dc82282	0.09772207
34	0x3e1075bb	0.1410741
35	0x3d09acac	0.03361194
36	0x3db6e5ad	0.08930526
37	0x3db88797	0.09010237
38	0x3db4aad4	0.088216454
39	0x3d976acc	0.07393417
40	0xbe0bd0fc	-0.1365394
41	0x3d9fa2e9	0.077947445
42	0xbbd7b085	-0.006582322
43	0xbd213a1d	-0.03936206
44	0x3e086b44	0.13322169
45	0xbcc5c43c	-0.024141423
46	0xbc36dd19	-0.011161112
47	0xbd2f735a	-0.042834617
48	0xbc87c4cd	-0.016573334
49	0x3d0275e1	0.0318507
50	0x3c2076f7	0.009793988
51	0x3bab1399	0.005220842
52	0x3e3dd0f6	0.18536744
53	0x3d3f6e8f	0.046736296
54	0xbcedb0da	-0.029014993
55	0xbbd3ddba	-0.006465641
56	0x3e35d4ae	0.17756912
57	0x3e7cdd42	0.24693778
58	0x3d80c3a8	0.062873185
59	0x3d39acfc	0.045330986
60	0x3d2a0b17	0.041514482
61	0xbd091347	-0.03346565
62	0x3d56c08a	0.052429713
63	0xbde8b365	-0.11362342
64	0xbd701270	-0.058611333
65	0x3d22c80c	0.03974156
66	0xbe02ccc5	-0.12773426
67	0xbd61915d	-0.05507027
68	0xbe5d6f4f	-0.21624492
69	0xbb410d24	-0.0029457295
70	0xbe2c490e	-0.16824743
71	0x3d78083b	0.060554724
72	0xbe8dc948	-0.27692628
73	0xbe330bf6	-0.17485031
74	0x3eac6c35	0.33676305
75	0x3e72d6cd	0.23714752
76	0xbda4c841	-0.08046008
77	0x3d242bba	0.040080763
78	0xbd49e971	-0.049294893
79	0xbdef5e75	-0.11687938
80	0xbe303d05	-0.17210777
81	0xbe87a192	-0.26490456
82	0x3d8ef763	0.06980779
83	0x3cddd2d1	0.027078064
84	0x3c3e7f56	0.011627039
85	0xbd80b24c	-0.062840074
86	0xbc9177b5	-0.017757276
87	0xbe637d26	-0.22215709
88	0xbd3f15b7	-0.04665157
89	0xbdecd25f	-0.115635626
90	0xbe2fff5b	-0.17187254
91	0xbe9e6aeb	-0.30940947
92	0x3e0fe3ae	0.14051697
93	0xbcd31fdc	-0.025772028
94	0xbe2e9501	-0.17049028
95	0xbdbc729e	-0.09201549
96	0x3d1aa4d0	0.037754834
97	0xbe91e94a	-0.28498298
98	0xbe8090da	-0.25110513
99	0xbc60d8eb	-0.013723592
100	0xbe5cde65	-0.21569212
101	0xbe731a07	-0.23740397
102	0xbc4bab8e	-0.012431039
103	0xbec52402	-0.38504034
104	0xbe842a67	-0.258136
105	0xbd6e7999	-0.058221433
106	0xbeae7d50	-0.3407998
107	0x3e2a9884	0.16659743
108	0xbda5c748	-0.080946505
109	0xbe8c8d62	-0.27451617
110	0xbd23c8c3	-0.039986383
111	0xbdc176f2	-0.09446515
112	0x3e018f09	0.1265222
113	0xbddd7abd	-0.10814426
114	0x3d017596	0.03160628
115	0xbe7fc265	-0.249765
116	0xbed9790f	-0.42475173
117	0x3e85fb49	0.26168278
118	0xbcbcaf31	-0.023032757
119	0xbdf71107	-0.120637946
120	0xbdf89eea	-0.121396855
121	0xbe0eefe4	-0.13958699
122	0xbdc5c092	-0.096558705
123	0x3da55073	0.08071985
124	0xbdbb5523	-0.09147098
125	0xbdaa5143	-0.08316281
126	0xbe3f774f	-0.18697856
127	0xbd6ad732	-0.057334132
128	0xbdfdc93f	-0.123919
129	0xbca96a4d	-0.020680571
130	0x3cec53f9	0.028848635
131	0x3db056fb	0.0861034
132	0xbca80250	-0.020508915
133	0x3e05dd81	0.13072778
134	0x3c71b85d	0.014753428
135	0x3d104127	0.035218384
136	0x3d254ee0	0.040358424
137	0xbda28827	-0.07936125
138	0x3c98b128	0.018639162
139	0xbdec5175	-0.11538974
140	0xbca6aef1	-0.02034709
141	0xbcf5019b	-0.029907992
142	0x3e056df8	0.13030231
143	0xbd81b59c	-0.06333467
144	0xbdb2e63c	-0.0873532
145	0xbe393565	-0.18086775
146	0xbd13a9b5	-0.036050517
147	0xbde2e63d	-0.11079071
148	0xbdeeded0	-0.11663592
149	0x3c3658e3	0.011129591
150	0xbd5e2d36	-0.054242335
151	0x3da466c5	0.08027414
152	0x3d27f928	0.0410091
153	0x3ccad95c	0.024761848
154	0xbdaa349f	-0.08310818
155	0x3e09a433	0.13441543
156	0x3d605bb3	0.05477495
157	0xbe17f4fe	-0.14839551
158	0x3c1711c1	0.009220541
159	0x3dbe84ed	0.09302697
160	0x3db8854b	0.090097986
161	0x3c8e842d	0.01739701
162	0xbe29cd3f	-0.16582201
163	0x3cb53908	0.022121921
164	0xbd3e84a8	-0.04651323
165	0xbc06ea54	-0.008234579
166	0xbe06ecde	-0.13176295
167	0xbdd5110b	-0.10403641
168	0xbd4cfd04	-0.050045982
169	0x3d37e473	0.0448956
170	0x3dd0ef5f	0.102019064
171	0x3d639909	0.055565868
172	0x3e2c11d2	0.16803673
173	0x3da6a3e1	0.08136726
174	0xbd84f326	-0.064916894
175	0x3c7c0776	0.015382638
176	0xbdcf8b70	-0.101340175
177	0xbdab23b2	-0.08356418
178	0x3d2baaaa	0.041910805
179	0x3d3324aa	0.043736137
180	0x3e68217c	0.22669023
181	0x3c953bc2	0.018216971
182	0x3d72603d	0.05917381
183	0xbd9c3c94	-0.07628742
184	0xbbc9d5a9	-0.0061595035
185	0x3db47b0f	0.08812534
186	0x3d91e8f4	0.071245104
187	0x3dbc011e	0.091799006
188	0x3e08cd04	0.13359457
189	0x3b4a574a	0.0030874782
190	0xbde9bd65	-0.11413077
191	0xbcfffc51	-0.031248244

bias_hh_l0 f4 [192]
0	0x3db3e48c	0.08783826
1	0xbd7a088d	-0.06104331
2	0x3e183606	0.14864358
3	0x3ce36b34	0.02776108
4	0x3e956cfe	0.29184717
5	0xbdb4e44c	-0.08832607
6	0xbd9bbe89	-0.07604701
7	0x3cd10ccf	0.025518803
8	0x3dae1b77	0.08501332
9	0xbd022b09	-0.031779323
10	0x3cfd3193	0.030907428
11	0xbe09bfca	-0.13452068
12	0xbda02133	-0.07818832
13	0x3e068bcd	0.13139267
14	0x3de8fb5b	0.11376067
15	0xbc0bb27a	-0.008526439
16	0xbe101241	-0.14069463
17	0x3dd6048d	0.10450087
18	0x3e17ff04	0.14843374
19	0x3e77999a	0.24179688
20	0xbdb5165c	-0.08842155
21	0x3e0d4bfd	0.13798518
22	0xbd9c3879	-0.07627959
23	0x3e9685e5	0.29399028
24	0xbd0de973	-0.034646463
25	0x3e39fc95	0.18162759
26	0x3d2d5dbe	0.042325728
27	0xbda12889	-0.078690596
28	0xbe44a432	-0.1920326
29	0x3dea3308	0.11435515
30	0xbe4620a3	-0.19348387
31	0x3e2301db	0.15918677
32	0x3e84cf94	0.2593962
33	0x3dced602	0.100994125
34	0x3e5ae41e	0.21376082
35	0x3d128fa5	0.03578152
36	0x3e8d775d	0.2763013
37	0x3dbe5e19	0.092952915
38	0x3ca236e4	0.019801565
39	0xbc974240	-0.018464208
40	0xbe2c3c74	-0.16819936
41	0xbdba840a	-0.09107216
42	0x3df0aa51	0.11751235
43	0x3df34b06	0.11879544
44	0x3e337649	0.17525591
45	0x3d826b4d	0.06368122
46	0x3d0a4acb	0.033762734
47	0xbd67165f	-0.05641782
48	0xbd431f7b	-0.047637444
49	0x3d3ced4c	0.04612474
50	0x3d4e159e	0.050313585
51	0x3e2aa851	0.1666577
52	0x3e244721	0.16042759
53	0x3d80ba58	0.06285542
54	0x3e2c138b	0.1680433
55	0x3cfe5d14	0.031050242
56	0x3e090b6f	0.13383268
57	0x3d36e81a	0.044654943
58	0xbb24a9e1	-0.002512567
59	0x3df69f80	0.12042141
60	0xbd36232b	-0.044467133
61	0x3dd9a6ac	0.10627493
62	0x3d1b0bec	0.037853166
63	0xbe0fa6a6	-0.14028415
64	0xbe49e20e	-0.1971514
65	0x3d8949f6	0.0670356
66	0xbe6d30a1	-0.23163082
67	0xbdd5a97f	-0.104327194
68	0xbe9da991	-0.3079343
69	0x3d3576b0	0.044302642
70	0xbea90716	-0.3301322
71	0x3cc79afd	0.024365896
72	0xbe2dc4bd	-0.16969581
73	0xbcb1c322	-0.021699492
74	0x3e5c8125	0.2153364
75	0x3e826d22	0.25473887
76	0xbd959de6	-0.07305507
77	0x3be4c5dc	0.0069815945
78	0xbcac7036	-0.0210496
79	0xbe61f921	-0.22067691
80	0x3d40a138	0.04702875
81	0xbe989e5c	-0.2980832
82	0x3cff2884	0.031147249
83	0x3ccce1b4	0.025009967
84	0x3b9873c4	0.004652472
85	0x3c9dfb24	0.019284792
86	0xbd3f79e1	-0.046747092
87	0xbe00cd35	-0.1257828
88	0xbded00e3	-0.11572435
89	0x3d559baa	0.052150406
90	0xbd26a55a	-0.040685035
91	0xbe821e76	-0.25413865
92	0x3d2bc697	0.041937437
93	0xbdf7128e	-0.12064086
94	0xbddf0f1d	-0.108915545
95	0xbe332709	-0.1749536
96	0xbdf0e4ea	-0.11762412
97	0xbdf20410	-0.11817181
98	0xbeca038a	-0.39455825
99	0x3ccb2b41	0.024800899
100	0xbeb170fc	-0.34656513
101	0xbe969183	-0.29407892
102	0xbde203ab	-0.11035856
103	0xbe9b6df4	-0.30357325
104	0xbe02441f	-0.12721299
105	0x3d04705b	0.032333713
106	0xbee1a223	-0.44069013
107	0xbd349178	-0.044084042
108	0x3c114b5a	0.008868063
109	0xbe15bfca	-0.14623943
110	0x3d506449	0.05087689
111	0xbe340e65	-0.17583616
112	0x3dd7787c	0.105210274
113	0xbd16cc9e	-0.036816232
114	0xbda35c80	-0.07976627
115	0xbd3ae06b	-0.045624178
116	0xbeb4e63a	-0.353319
117	0x3d4f97a8	0.05068174
118	0xbc709824	-0.014684711
119	0xbd724205	-0.059144992
120	0xbdec64b1	-0.11542643
121	0xbe74d858	-0.23910654
122	0xbd363112	-0.04448039
123	0x3d118ff5	0.03553768
124	0xbd74d129	-0.059769783
125	0xbe04cffa	-0.12969962
126	0xbda3a503	-0.07990458
127	0x3d645969	0.05574933
128	0x3d302925	0.04300799
129	0x3dabde7d	0.08392046
130	0x3ddccbd8	0.107810676
131	0x3d39d49c	0.045368776
132	0xbd91e26b	-0.07123264
133	0xbdb05cb5	-0.086114325
134	0x3de9f4f9	0.11423678
135	0xbdfbac25	-0.12288693
136	0x3d307c9d	0.04308759
137	0xbd85fc54	-0.065422684
138	0x3d231c8a	0.03982214
139	0x3da03887	0.07823282
140	0xbd51917f	-0.051164147
141	0xbe25bfd4	-0.16186458
142	0x3e08db04	0.13364798
143	0xbd883d87	-0.066523604
144	0x3df2343e	0.11826371
145	0xbe4cad84	-0.19988066
146	0x3d07b737	0.03313371
147	0xbe46a2a9	-0.19397987
148	0x3db54388	0.08850771
149	0x3d74fa64	0.059809104
150	0x3e019961	0.12656166
151	0x3e255711	0.16146494
152	0x3dcefa2b	0.101063095
153	0x3c79ba8e	0.015242232
154	0xbcf692d1	-0.030099304
155	0xbd870d08	-0.065942824
156	0xbe1abfe8	-0.15112269
157	0xbe594819	-0.2121891
158	0xbdbaeece	-0.0912758
159	0x3ca7f04d	0.020500327
160	0xbb1c016a	-0.0023804554
161	0x3d12eded	0.035871435
162	0xbe67748a	-0.2260305
163	0xbd91d4d8	-0.07120675
164	0xbdf2745b	-0.11838599
165	0x3e10d4e5	0.14143713
166	0x3e0a36d5	0.1349748
167	0x3d809ef1	0.06280316
168	0xbcafb8fb	-0.02145051
169	0xbe03622b	-0.12830417
170	0x3d6d43f7	0.057926144
171	0xbcb6b9bf	-0.022305368
172	0x3c009570	0.007848129
173	0xbda88868	-0.082291424
174	0xbd963b94	-0.073355824
175	0x3ced596e	0.028973307
176	0x3d9f26cd	0.077710725
177	0xbe0444c5	-0.12916858
178	0x3e042575	0.12904914
179	0xbd06170d	-0.032736827
180	0x3d86388f	0.065537564
181	0xbdea6e98	-0.11446875
182	0xbddae0db	-0.10687419
183	0x3d29b6e9	0.041434202
184	0x3dba789e	0.09105037
185	0x3d47e66e	0.04880374
186	0x3e3a83fc	0.1821441
187	0x3d8cff08	0.06884581
188	0xbcb9b5f0	-0.022669762
189	0x3ded7fe5	0.115966596
190	0x3de87a56	0.11351459
191	0x3d7b1510	0.061299384

weight_ih_l1 f4 [192, 64]
0	0xbde0c5d5	-0.109752335
1	0xbe300f4d	-0.17193337
2	0x3d4df4aa	0.050282158
3	0xbc22fef5	-0.009948482
4	0x3d0498e4	0.03237237
5	0xbdd11c15	-0.10210434
6	0x3e44f9fb	0.19235985
7	0xba1c63ea	-0.0005965816
8	0xbd379ac2	-0.044825323
9	0xbe05112c	-0.12994832
10	0x3e0e8260	0.13916922
11	0x3c829ea7	0.015944792
12	0x3e51fd2e	0.20506737
13	0xbdb8c244	-0.09021428
14	0x3d5331fc	0.05156134
15	0xbdd080d6	-0.101808235
16	0x3c8edb33	0.017438507
17	0x3cc4a05f	0.024002252
18	0x3e380ed1	0.17974402
19	0x3d0bf8d6	0.034172855
20	0x3db404a0	0.08789945
21	0xbbcc85ca	-0.006241535
22	0x3df73466	0.12070541
23	0x3e53ea0b	0.20694749
24	0xbd309d5f	-0.04311883
25	0xbda28455	-0.079353966
26	0x3e069679	0.13143338
27	0xbbd4278e	-0.006474442
28	0xbd8960b0	-0.06707895
29	0x3d5616e6	0.05226793
30	0x3dfb508e	0.12271224
31	0xbe02a722	-0.12759069
32	0x3e15e303	0.1463738
33	0xbe6b1a0a	-0.22959152
34	0xbdac55e1	-0.084148176
35	0xbe5808f2	-0.21097162
36	0x3bc6e209	0.006069426
37	0xbd27761d	-0.040884126
38	0xbe41b496	-0.18916544
39	0x3dd31038	0.10305828
40	0xbdb49ccb	-0.088189684
41	0xbe071802	-0.13192752
42	0x3da1f166	0.07907371
43	0x3d063dc8	0.032773763
44	0xba2e7113	-0.00066544226
45	0xbe10326f	-0.14081739
46	0x3c3b89f2	0.011446463
47	0xbd61a0d4	-0.05508502
48	0x3e1182e3	0.14210086
49	0xbe061454	-0.13093692
50	0xbda6a18a	-0.0813628
51	0x3c2f7314	0.010708589
52	0xbc9c1720	-0.019053996
53	0x3df4301a	0.11923237
54	0x3bc494cb	0.005999183
55	0xbe1c4fb1	-0.15264775
56	0x3e1be8f4	0.15225583
57	0x3cf8588f	0.030315666
58	0x3e3a8302	0.18214038
59	0x3cee0367	0.029054357
60	0x3de2c758	0.11073178
61	0xbc4008cf	-0.01172085
62	0xbd4404ce	-0.047856145
63	0xbea5e76d	-0.32403126
64	0xbda7c67c	-0.08192155
65	0xbdbb4f57	-0.09145992
66	0x3d922f0f	0.07137882
67	0x3e1f644c	0.15565604
68	0xbdd84e9c	-0.105618685
69	0xbd2d7bcb	-0.042354386
70	0xbd798022	-0.060913213
71	0x3d401e66	0.04690399
72	0xbe537ec4	-0.20653826
73	0xbd80b564	-0.062845975
74	0x3ccd6792	0.0250738
75	0xbcf91e4e	-0.030409958
76	0xbe08735a	-0.13325253
77	0xbe10b2a9	-0.14130653
78	0x3d5cd4ee	0.053914003
79	0xbd3fc1f7	-0.04681584
80	0x3e4c3234	0.19941026
81	0x3dbfa7d8	0.093581855
82	0x3cd36b2c	0.02580794
83	0xbdfb88dd	-0.12281964
84	0xbd82f1f3	-0.063938044
85	0xbe9cc7ab	-0.30621085
86	0x3df3f29e	0.1191151
87	0x3d701bcd	0.058620263
88	0x3e0cc95d	0.13748689
89	0xbdb7b6cc	-0.089704126
90	0x3d178a50	0.03699714
91	0x3e6f1d51	0.23351027
92	0xbe4cd349	-0.20002474
93	0xbd991fe1	-0.074767835
94	0xbd16e388	-0.036838084
95	0xbe9edc40	-0.31027412
96	0x3e90df9a	0.28295594
97	0xbea93e7b	-0.3305548
98	0xbe35ae47	-0.17742263
99	0xbbf952ec	-0.007608762
100	0x3ddc4988	0.107562125
101	0x3da657a8	0.08122188
102	0x3d3c1fd4	0.04592879
103	0x3dcc242a	0.09967835
104	0xbde7a0f7	-0.113099985
105	0x3d0a56b2	0.033774085
106	0xbe857018	-0.26062083
107	0x3d5b5be3	0.053554427
108	0x3df534ad	0.11972938
109	0xbdb3d4f7	-0.08780854
110	0x3deb450e	0.114877805
111	0x3d4bf20b	0.049791377
112	0x3e27cdcc	0.16387099
113	0x3df5b53b	0.119974576
114	0x3e5a28aa	0.21304575
115	0x3d9b6a50	0.07588637
116	0x3db2f585	0.087382354
117	0x3d927eb3	0.07153072
118	0xbe1aebda	-0.15129033
119	0x3d52674e	0.05136805
120	0xbdf100bc	-0.11767718
121	0x3e4a5c77	0.19761835
122	0xbd19fa52	-0.03759224
123	0xbc05c964	-0.008165691
124	0x3df824ee	0.12116419
125	0xbe25c5e3	-0.16188769
126	0x3c48d33b	0.0122573925
127	0xbdff6aa9	-0.12471516
128	0x3dae15dd	0.08500264
129	0xbd54997a	-0.05190418
130	0x3d661613	0.056173395
131	0x3e485870	0.19564986
132	0xbdf244c0	-0.11829519
133	0x3e874134	0.26416934
134	0x3e6dc8cb	0.23221128
135	0xbd0654ef	-0.032795843
136	0xbdbf351c	-0.09336302
137	0xbd6f94ec	-0.058491632
138	0xbd083f3f	-0.03326344
139	0xbc7dda28	-0.015493907
140	0x3e861f48	0.2619574
141	0xbd58fd20	-0.052975774
142	0x3dee4cce	0.11635743
143	0xbce7fe09	-0.028319376
144	0xbc0ce03d	-0.008598384
145	0xbd853dfa	-0.06505962
146	0x3dd05ead	0.10174308
147	0xbd6e366b	-0.058157366
148	0x3db5521e	0.08853553
149	0x3dddec3b	0.10836073
150	0x3e4b3614	0.19844848
151	0x3e46399f	0.19357918
152	0x3e82a422	0.25515848
153	0xbd0b8481	-0.034061912
154	0x3dee8377	0.11646169
155	0x3e56e276	0.20984825
156	0xbcbc65ec	-0.022997819
157	0xbdbe7ef3	-0.093015574
158	0xbcfeebef	-0.031118361
159	0xbee99ff9	-0.45629862
160	0xbb641f4d	-0.0034808696
161	0xbe851378	-0.25991416
162	0xbdbb9e12	-0.09161009
163	0xbd050029	-0.032470856
164	0x3cc2fc38	0.023801908
165	0xbd3e1209	-0.04640392
166	0xbd994ab9	-0.07484955
167	0xbdcb3547	-0.09922271
168	0xbe97c3a6	-0.29641455
169	0xbe2d27cf	-0.16909717
170	0x3e184acd	0.14872284
171	0x3e29d221	0.16584064
172	0xbc2135b6	-0.009839466
173	0xbde1be03	-0.1102257
174	0x3d4b91c8	0.049699575
175	0x3bf448a2	0.0074549476
176	0xbd8b1f8d	-0.06793127
177	0xbdbee30d	-0.0932065
178	0x3e388da8	0.18022788
179	0xbe9bd01e	-0.30432218
180	0x3d8ac8c8	0.06776577
181	0xbd819e79	-0.063290544
182	0xbe517467	-0.2045456
183	0x3d10f846	0.035393022
184	0x3e1fa1ff	0.1558914
185	0x3cdba2f6	0.026811104
186	0x3d763a19	0.060114
187	0xbcf09c06	-0.029371273
188	0xbda70d43	-0.08156826
189	0xbdb6374d	-0.088972665
190	0x3cedf234	0.029046156
191	0xbd0b4e11	-0.034009997
192	0xbe82f276	-0.25575608
193	0xbdd39fd1	-0.10333217
194	0x3e8053e1	0.25063995
195	0x3dedec13	0.11617293
196	0xbd9d0ca2	-0.07668425
197	0xbd1e56be	-0.038656943
198	0xbd425a24	-0.047449246
199	0xbd14397d	-0.036187638
200	0x3bde1ed4	0.0067785773
201	0xbe38c551	-0.1804402
202	0xbbcf5a83	-0.0063279285
203	0x3e06a2b9	0.13148011
204	0xbced00ff	-0.028931139
205	0x3e44872c	0.19192189
206	0x3e40895e	0.18802401
207	0xbe6df3c8	-0.23237526
208	0x3ebb5e92	0.3659559
209	0x3e968ba6	0.29403418
210	0x3db32343	0.0874696
211	0x3ddeb82d	0.108749725
212	0xbdbe93e3	-0.09305551
213	0x3dcacf52	0.099028245
214	0x3e614dd1	0.22002341
215	0x3c07465c	0.008256521
216	0x3d63473e	0.055487864
217	0xbe1cb662	-0.15303949
218	0xbcdb1c60	-0.026746929
219	0xbc4cf252	-0.012508946
220	0x3d9f086f	0.077652805
221	0xbdf65deb	-0.12029632
222	0x3ec7988f	0.3898358
223	0x3dfbe658	0.12299794
224	0x3de27a85	0.11058525
225	0x3c14bcb0	0.00907819
226	0xbdd340fc	-0.10315129
227	0x3d04cb63	0.032420527
228	0x3ed72fbc	0.42028606
229	0xbe76c6eb	-0.24099319
230	0xbdebca2e	-0.11513172
231	0x3e843fa1	0.25829795
232	0x3d8e08fa	0.06935306
233	0xbddda332	-0.10822143
234	0x3d2b6791	0.041846815
235	0x3dfbbac4	0.12291482
236	0x3e4e48f7	0.20145021
237	0xbe84e42a	-0.25955325
238	0xbd2263ab	-0.039645832
239	0xbe4245ab	-0.18971889
240	0x3ea24427	0.3169262
241	0xbe9c82e2	-0.30568606
242	0xbd9668e5	-0.07344226
243	0xbe43cabf	-0.1912031
244	0xbe898a1f	-0.2686319
245	0xbe3f9cfe	-0.18712232
246	0x3cc1cadc	0.023656301
247	0xbe1d9560	-0.15389013
248	0xbe6a174c	-0.2286045
249	0x3d8baca9	0.06820042
250	0xbdbd1664	-0.09232786
251	0x3da5ca0f	0.0809518
252	0x3e2d184e	0.16903803
253	0xbd2e9d93	-0.042630743
254	0x3c03ba0a	0.008039961
255	0x3d42f632	0.04759807

weight_hh_l1 f4 [192, 64]
0	0xbddd6ac9	-0.10811383
1	0xbc4ff929	-0.012693682
2	0xbd124a05	-0.03571512
3	0xbb938476	-0.0045018746
4	0x3bf9d45c	0.007624192
5	0x3da61bb2	0.08110751
6	0x3d0176f3	0.03160758
7	0xbde5c1e9	-0.11218626
8	0xbc450848	-0.0120259
9	0x3d4d5f3c	0.05013965
10	0xbe7c15e5	-0.24617727
11	0x3deaefad	0.11471496
12	0x3dfa10cb	0.12210234
13	0xbd1d169b	-0.038351636
14	0x3dadb328	0.08481437
15	0x3e065899	0.13119735
16	0x3e5200aa	0.20508066
17	0xbd14376e	-0.036185674
18	0x3e150d30	0.14555812
19	0xbda2826e	-0.07935034
20	0xbe3bbd1a	-0.18333855
21	0x3d928b61	0.07155491
22	0xbde41b25	-0.1113799
23	0xbde5f797	-0.11228865
24	0xbe81e07e	-0.25366586
25	0x3e160e1c	0.1465382
26	0xbe2c270e	-0.16811773
27	0xbad79f5c	-0.0016450691
28	0xbd5f5a1f	-0.054529306
29	0x3d3f86b0	0.046759307
30	0x3e13dfbd	0.14440818
31	0xbe61dd99	-0.22057189
32	0xbdf42dc5	-0.11922792
33	0xbe0c195e	-0.13681552
34	0xbdbe13c7	-0.09281116
35	0x3df50cce	0.11965333
36	0xbd47406c	-0.04864542
37	0xbd4a0ac0	-0.04932666
38	0x3e06093e	0.13089463
39	0xbd7a844d	-0.061161328
40	0xbd7d7770	-0.061881483
41	0xbd923fb7	-0.07141059
42	0x3dccf206	0.100071
43	0x3d2b10cc	0.041764066
44	0x3c71ca60	0.014757723
45	0xbcb0b7b5	-0.021571973
46	0x3cc6220c	0.024186157
47	0x3d76688b	0.060158294
48	0x3ce574ac	0.028009735
49	0xbd91a22a	-0.071110085
50	0xbe2643d8	-0.16236818
51	0xbce25451	-0.027628096
52	0xbc9eab01	-0.01936865
53	0x3e028bdf	0.12748669
54	0x3e61c750	0.22048688
55	0x3d3a7782	0.045524128
56	0xba4bc14f	-0.00077726407
57	0x3cc035de	0.023463186
58	0xbdd9a40a	-0.10626991
59	0xbac3f2d2	-0.0014949685
60	0xbe11f3b6	-0.14253125
61	0x3d9bbb43	0.07604077
62	0x3d5da69a	0.05411396
63	0xbe47f48d	-0.19526882
64	0xbb0206bc	-0.001984044
65	0x3b7455b4	0.0037282528
66	0x3d2a8f32	0.041640468
67	0xbe25b29d	-0.16181417
68	0x3e0b45b5	0.1360081
69	0x3c9e6d3d	0.019339198
70	0x3d260ea8	0.04054132
71	0xbcd22e05	-0.02565671
72	0xbd600da3	-0.054700505
73	0x3c9f6e21	0.019461693
74	0xbdc5b54e	-0.09653722
75	0xbcfb0ed8	-0.030646726
76	0x3d127075	0.03575178
77	0xbec77102	-0.38953406
78	0xbd429475	-0.04750486
79	0xbc048b20	-0.008089811
80	0x3e917b9c	0.2841462
81	0x3caeb4d4	0.02132646
82	0x3cf3e18e	0.029770639
83	0xbd276153	-0.0408643
84	0xbe60e729	-0.2196318
85	0xbcd17295	-0.025567332
86	0xbde02b4c	-0.10945758
87	0xbd810b06	-0.06300931
88	0x3d1a3d73	0.03765626
89	0x3e9a970b	0.30193362
90	0x3d785803	0.06063081
91	0xbe3bd107	-0.18341456
92	0x3c7f6b32	0.015589522
93	0x3e04a0a5	0.12951906
94	0xbe2e6f6e	-0.17034695
95	0xbe574ea7	-0.21026097
96	0xbe48ed7e	-0.19621846
97	0xbd781687	-0.06056836
98	0xbdc38909	-0.09547622
99	0xbe39f1b8	-0.18158615
100	0xbde2b154	-0.11068979
101	0xbba6a935	-0.005086089
102	0x3d8d78b0	0.06907785
103	0x3d7b97a4	0.061423913
104	0xbdbdd36a	-0.0926884
105	0x3d3c411a	0.045960523
106	0xbc0f7de3	-0.008758041
107	0xbcf83308	-0.030297771
108	0x3ddeb2a2	0.10873915
109	0x3c666057	0.014061055
110	0x3bdb2b4c	0.006688511
111	0x3dc396b9	0.095502324
112	0x3d9bc3d7	0.07605713
113	0xbd454cfa	-0.048169114
114	0x3e4df3cc	0.20112532
115	0xbc3f5fec	-0.011680584
116	0xbd2d313e	-0.04228329
117	0x3dc2e594	0.09516445
118	0x3d319088	0.043350726
119	0xbdfff663	-0.124981664
120	0xbcf209ac	-0.029545628
121	0x3e30379d	0.17208715
122	0x3ce1cdf1	0.02756402
123	0x3d72b37e	0.05925321
124	0xbc8cff16	-0.017211478
125	0x3e86f4fb	0.2635878
126	0xbdf5567e	-0.11979388
127	0x3d325e72	0.0435471
128	0xbe3287f3	-0.17434673
129	0x3da64166	0.081179425
130	0xbe12244d	-0.1427166
131	0x3d9229ec	0.07136902
132	0x3cfe89a3	0.03107149
133	0x3e25534b	0.16145055
134	0xbdec84c0	-0.115487576
135	0xbe4d9060	-0.20074606
136	0x3ce056d5	0.027385155
137	0x3daad071	0.08340538
138	0xbe7448a8	-0.23855841
139	0xbe10eaa6	-0.14152011
140	0x3dc0a25e	0.09405969
141	0x3c6fedb4	0.014644075
142	0x3bd5d660	0.0065257996
143	0x3d176273	0.036959123
144	0x3db26262	0.08710171
145	0xbe3ecd89	-0.18633093
146	0x3de81e86	0.11333947
147	0xbe1a95cd	-0.15096207
148	0xbe60ac40	-0.21940708
149	0x3ddc978c	0.10771093
150	0xbd0d5e60	-0.03451383
151	0x3c754cef	0.014971956
152	0xbe1fa35a	-0.15589657
153	0xbc3185e1	-0.010835142
154	0x3e09af80	0.13445854
155	0xbdf46d9f	-0.11934971
156	0xbe123410	-0.14277673
157	0xbd3577a2	-0.044303544
158	0xbe3115c1	-0.17293455
159	0xbe696efc	-0.22796243
160	0x3de3e29a	0.11127205
161	0xbe2c693c	-0.16837019
162	0xbdee3c91	-0.11632646
163	0xbd7ce2a4	-0.06173958
164	0xbd84bf51	-0.06481803
165	0xbcac4b86	-0.021032106
166	0xbd44929f	-0.04799139
167	0xbcd943c6	-0.026521575
168	0xbd922109	-0.07135207
169	0xbc185f0e	-0.009300007
170	0x3e1b293f	0.15152453
171	0x3e36a2ec	0.17835587
172	0x3d848c1c	0.06472036
173	0x3dc96306	0.0983334
174	0xbc1b8f15	-0.009494563
175	0xbd901635	-0.07035486
176	0x3c124324	0.00892714
177	0xbd9cd1db	-0.07657214
178	0xbd9a6804	-0.07539371
179	0xbd9e9717	-0.07743662
180	0xbe0ad22b	-0.13556735
181	0x3dd350ad	0.10318122
182	0x3e4f4007	0.20239268
183	0x3e04ad0b	0.12956636
184	0x3d379932	0.044823833
185	0xbe10dd1f	-0.14146851
186	0xbe4f2f2d	-0.2023284
187	0x3e281484	0.16414076
188	0xbd364bf1	-0.044506017
189	0x3da139bc	0.0787234
190	0xbdba9b90	-0.091117024
191	0xbdc3085e	-0.0952308
192	0xbe0ee796	-0.1395553
193	0x3bb0b5f9	0.0053927866
194	0xbe2891f9	-0.16461934
195	0xbed17195	-0.4090697
196	0x3df7a822	0.12092616
197	0x3d0b1209	0.033952747
198	0x3c47c977	0.012194029
199	0xbcde4cf5	-0.027136305
200	0xbdfa3d1a	-0.122186854
201	0x3e71a21d	0.23596998
202	0xbb18d4f5	-0.0023320292
203	0xbd8ff476	-0.07029049
204	0x3c219efa	0.009864563
205	0xbe6353e7	-0.22199975
206	0xbe132b06	-0.14371881
207	0xbd216c66	-0.039410017
208	0xbc13f811	-0.009031312
209	0xbda50b64	-0.08058813
210	0x3e5541d8	0.20825899
211	0xbd81f0b1	-0.06344736
212	0x3e2d2150	0.16907239
213	0xbe0dbd5d	-0.13841768
214	0xbc3698d1	-0.011144833
215	0xbebaaed4	-0.36461508
216	0xbe2a0c8f	-0.16606353
217	0xbe734880	-0.23758125
218	0xbd942fb5	-0.07235662
219	0xbc739a56	-0.0148683395
220	0xbe5aa570	-0.21352172
221	0xbe702da4	-0.2345491
222	0x3db1e2bd	0.08685825
223	0xbd0ea494	-0.034824923
224	0xbc810dc0	-0.015753627
225	0xbe6cc0a6	-0.23120365
226	0x3e2aaff7	0.16668688
227	0xbd06fe07	-0.032957103
228	0xbd2d3f3e	-0.04229664
229	0xbe0c9f8e	-0.1373274
230	0x3d518294	0.05114992
231	0x3d4b744d	0.04967146
232	0xbe3e7ac7	-0.18601523
233	0x3dc9c81a	0.098526195
234	0x3e82ac63	0.25522146
235	0x3d1fe63c	0.039037928
236	0xbcb95b00	-0.0226264
237	0x3cb2b789	0.021816032
238	0x3d8acabd	0.067769505
239	0xbdfc63f8	-0.12323755
240	0xbe751cd0	-0.23936772
241	0xbd2b97db	-0.041892868
242	0xbe92ef26	-0.2869808
243	0xbe112991	-0.14176013
244	0xbde81979	-0.113329835
245	0x3d9dd97d	0.07707498
246	0x3dd91d37	0.106012754
247	0xbcd949fd	-0.026524538
248	0xbc46b24c	-0.01212747
249	0x3d4e8d45	0.050427694
250	0xbdef2824	-0.11677578
251	0xbd48a793	-0.048987936
252	0xbda661aa	-0.08124097
253	0xbe7de059	-0.24792613
254	0x3df354ed	0.11881433
255	0x3dfc05ec	0.12305817

bias_ih_l1 f4 [192]
0	0x3ce72e75	0.028220395
1	0x3d39dc24	0.045375958
2	0x3dcecb7a	0.10097404
3	0x3dc50caa	0.09621556
4	0x3e3bf1ba	0.1835393
5	0xbd2f8d3a	-0.042859294
6	0x3d6c2f25	0.057662148
7	0x3d8e0655	0.069348015
8	0x39cb1e96	0.00038741966
9	0xbd1793cb	-0.03700618
10	0xbcee9acb	-0.029126545
11	0x3e01ce49	0.12676348
12	0xbe09d6a6	-0.13460788
13	0x3d51e4dd	0.05124365
14	0xbd6f288a	-0.05838827
15	0x3d2426f0	0.040076196
16	0xbbc0229e	-0.0058635017
17	0x3cd05fc2	0.025436286
18	0xbc8a02ac	-0.016846977
19	0xba9731d4	-0.0011535236
20	0xbd258604	-0.04041101
21	0x3e16f53d	0.14741988
22	0xbda673a3	-0.08127525
23	0x3de299d3	0.11064496
24	0x3db82247	0.08990913
25	0xbaf9786e	-0.0019033083
26	0xbe1a0df7	-0.1504439
27	0xbdf12d3c	-0.11776206
28	0x3b804807	0.0039148363
29	0xbd870c28	-0.065941155
30	0x3e40acdc	0.1881594
31	0xbe11540a	-0.14192215
32	0xbd6ca33e	-0.057772867
33	0xbe3d468c	-0.18483943
34	0xbcac8e6b	-0.021064004
35	0xbdf901cc	-0.12158546
36	0x3e2754b5	0.16340907
37	0x3dc829a4	0.09773567
38	0x3e173a78	0.14768398
39	0xbda9d437	-0.0829243
40	0x3d7ee4ae	0.062229805
41	0xbd77d3aa	-0.060504593
42	0xbda6a520	-0.08136964
43	0xbda86442	-0.08222248
44	0xbd119ea9	-0.0355517
45	0xbc2bab20	-0.010477811
46	0xbbe5008d	-0.006988591
47	0x3dc1b108	0.09457594
48	0xbcdb2d87	-0.026755108
49	0x3e079344	0.13239771
50	0xbc3e79ad	-0.011625689
51	0xbd2b9682	-0.041891582
52	0xbca39482	-0.019968275
53	0xbc574aa0	-0.013140351
54	0x3e224876	0.15847954
55	0x3dd14bd4	0.10219541
56	0xbd6b0d47	-0.05738571
57	0xbd7a63ae	-0.06113022
58	0x3e280a92	0.16410282
59	0x3c7f18c9	0.015569874
60	0x3ddb0efe	0.10696219
61	0xbb307b3f	-0.002692893
62	0xbe428521	-0.18996097
63	0x3df32253	0.11871781
64	0xbedc0172	-0.42969853
65	0x3e51dbc3	0.20493989
66	0xbe8f281e	-0.27960294
67	0xbecb772d	-0.3973936
68	0xbe7c6a64	-0.2464996
69	0x3e2c345f	0.16816853
70	0xbd3bf3ac	-0.04588668
71	0x3d9e929c	0.07742807
72	0xbccb63fd	-0.024827952
73	0x3b39ad70	0.0028332137
74	0x3d0a55d0	0.033773243
75	0x3ea1c2e6	0.31594008
76	0xbe5facac	-0.21843213
77	0x3c89aef0	0.01680705
78	0x3e0a500a	0.13507095
79	0xbe917cef	-0.2841563
80	0xbe2fe984	-0.17178923
81	0xbd9493eb	-0.072547756
82	0xbe0ba317	-0.13636433
83	0xbeaf5506	-0.34244555
84	0x3e0c1d13	0.13682966
85	0xbdf8fc86	-0.1215754
86	0xbcfa4f13	-0.030555284
87	0xbd123a09	-0.035699878
88	0xbd6d78a3	-0.057976376
89	0x3d6a8025	0.057251114
90	0xbe5cfa14	-0.21579772
91	0x3d690606	0.05689051
92	0xbd80405c	-0.062622756
93	0xbdee882a	-0.11647065
94	0x3e809c6b	0.25119337
95	0x3d8a0ec8	0.067411005
96	0x3e21def8	0.15807712
97	0xbcc0058f	-0.02344015
98	0x3eacd721	0.3375788
99	0x3de0fa3f	0.10985231
100	0x3e5c7b10	0.2153132
101	0xbcf00b4e	-0.029302265
102	0xbe497ad7	-0.19675766
103	0x3e9e8d24	0.30967057
104	0x3d0b6354	0.034030274
105	0xbdb4c625	-0.088268556
106	0xbe726e35	-0.23674853
107	0x3c179e34	0.009254027
108	0x3e525e00	0.2054367
109	0x3c9b69c2	0.018971328
110	0x3d5be57b	0.053685647
111	0x3cfb483b	0.03067409
112	0x3ddea4c3	0.108712696
113	0xbd16c905	-0.0368128
114	0xbe124cd0	-0.14287114
115	0xbe22e0c3	-0.15906052
116	0xbde92ed2	-0.113858834
117	0xbe19863e	-0.14992616
118	0xbdc69d5e	-0.09697984
119	0xbc12a833	-0.008951235
120	0xbdd7193d	-0.10502861
121	0xbe51c13f	-0.20483874
122	0xbe97a7a6	-0.29620093
123	0xbe414336	-0.18873295
124	0xbe5613c5	-0.20905979
125	0x3d0af034	0.03392048
126	0xbd3a56f5	-0.045493085
127	0x3dd7f62b	0.10545
128	0xbe7f653c	-0.24940962
129	0xbd631341	-0.055438284
130	0xbd0e3128	-0.034714848
131	0xbe799037	-0.2437142
132	0x3e37e678	0.1795901
133	0xbdd845a3	-0.10560157
134	0xbc4601c7	-0.012085385
135	0xbb9d1802	-0.0047941217
136	0xbdcf9741	-0.10136271
137	0x3dd1d79e	0.10246204
138	0xbe731719	-0.2373928
139	0x3d9af346	0.07565932
140	0xbd84132c	-0.06448969
141	0xbd6f4619	-0.05841646
142	0xbdc6ad56	-0.0970103
143	0x3d1ae84f	0.037819203
144	0x3e7f32bc	0.24921697
145	0xbd2b2f51	-0.04179317
146	0xbc472fdd	-0.012157408
147	0xbde238b0	-0.110459685
148	0x3e37eb74	0.17960912
149	0xbca9221a	-0.020646144
150	0xbcebd179	-0.028786408
151	0xbe3851e3	-0.17999987
152	0xbe5f9227	-0.21833096
153	0xbdd6b918	-0.104845226
154	0xbde5e241	-0.11224795
155	0xbe16b5fb	-0.14717858
156	0xbe811d34	-0.25217593
157	0x3d0c90ee	0.034317903
158	0xbd9bd423	-0.07608821
159	0xbe1245d8	-0.14284456
160	0x3de97456	0.113991424
161	0xbd89ac3f	-0.067223065
162	0xbe308059	-0.17236461
163	0xbdacf6a8	-0.084454834
164	0x3d34e28b	0.04416136
165	0xbd644a06	-0.055734657
166	0x3e8b9e87	0.27269384
167	0xbb2eabfa	-0.00266528
168	0xbd18301a	-0.03715525
169	0x3e28433c	0.16431898
170	0x3ddb8958	0.107195556
171	0x3ddc7f5c	0.107664794
172	0xbde58566	-0.11207084
173	0x3d39fd8e	0.045407824
174	0xbe1fb9df	-0.15598248
175	0xbc4207dd	-0.011842695
176	0xbd6b43d4	-0.057437733
177	0xbcb4cfda	-0.022071768
178	0xbd93540c	-0.07193765
179	0xbe2c031f	-0.16798066
180	0xbd6b9b1c	-0.05752097
181	0x3e57b2f5	0.2106436
182	0x3e78a5c8	0.2428199
183	0xbdb491ea	-0.088168934
184	0x3c332694	0.010934491
185	0xbccbfceb	-0.024900874
186	0xbdd6df5a	-0.1049182
187	0xbdd3b079	-0.10336394
188	0xbdaa8398	-0.08325881
189	0xbc967e3b	-0.018370738
190	0x3d8fdba8	0.07024318
191	0x3ba010d6	0.0048848195
