action_LossPrune/model2_Traffic.pth (torch, 169806 bytes, 12 tensors)

weight f4 [23, 8]
0	0xbefd0626	-0.49418753
1	0x3fe7ace4	1.8099637
2	0xbeff22ef	-0.4983134
3	0x3f86650a	1.0499585
4	0x3faef37d	1.3668057
5	0x3f882f8e	1.0639513
6	0x3f1f921d	0.62332326
7	0x3fb3d4a2	1.4049265
8	0xbf2b9735	-0.670276
9	0x3f2c79f6	0.673736
10	0xbf4e8099	-0.80664974
11	0x3fd92575	1.6964556
12	0x3fdb070b	1.7111524
13	0x3eb402c9	0.35158375
14	0xbf920b18	-1.1409636
15	0x3de3ce98	0.11123389
16	0x3f4d3a90	0.80167484
17	0xc007f119	-2.1240904
18	0x3e8712e7	0.2638161
19	0x3f717be2	0.94329655
20	0x3f891b7f	1.0711516
21	0xbfbad5ce	-1.4596498
22	0x40033ff4	2.0507784
23	0x3fcb1378	1.5865316
24	0x3f828205	1.0195929
25	0xbf471d02	-0.7777864
26	0x3db5026f	0.08838355
27	0xbf763dba	-0.9618794
28	0x3f93c77e	1.1545255
29	0x3f3df5e9	0.74203354
30	0xbea0398f	-0.31293914
31	0x3f8b1503	1.0865787
32	0x3f9bf649	1.2184535
33	0xbf33656f	-0.7007665
34	0x3ef80737	0.48443004
35	0x3e71516f	0.2356622
36	0x40326e9c	2.788001
37	0xbe7f70cc	-0.24945372
38	0x3f967a09	1.1755992
39	0xbf1b8ebc	-0.6076467
40	0xbf8960fd	-1.0732723
41	0x3f6ce37b	0.9253461
42	0x3e7d0a32	0.2471092
43	0xbf458c63	-0.7716734
44	0xbf837627	-1.0270432
45	0xbe839d10	-0.25705767
46	0x3f4bd3a4	0.7961981
47	0x400af7c0	2.1713715
48	0x3f65523b	0.895786
49	0x3fa3953b	1.2779917
50	0xbec0e2a4	-0.37672913
51	0xbf23a68f	-0.63926023
52	0xbfc48e0e	-1.5355852
53	0x3fd7eb17	1.6868619
54	0x3ef7a613	0.48368892
55	0xbf58399a	-0.84462893
56	0xbed56ba4	-0.41683686
57	0xc04c3772	-3.190884
58	0xbf4abe51	-0.7919665
59	0x3ed99342	0.4249516
60	0x3f9cb974	1.2244096
61	0xbe2cfa25	-0.16892298
62	0x3f2d013c	0.6758001
63	0xbf90a297	-1.1299618
64	0x3f4cc68a	0.79990447
65	0x40017429	2.0227149
66	0xbfcadf6d	-1.5849434
67	0x3f3edf72	0.745597
68	0xbed9b423	-0.42520246
69	0xbf4c9740	-0.7991829
70	0x3f98a0fc	1.1924129
71	0xbf9c003e	-1.2187574
72	0xbf5af926	-0.8553642
73	0xbf1bfe11	-0.6093455
74	0xc00a3def	-2.1600301
75	0xbf1418ed	-0.57850534
76	0x3eb7514d	0.35804215
77	0x3feac211	1.8340474
78	0x3d08267d	0.03323983
79	0xbf7d6d56	-0.9899496
80	0x3ecb8aab	0.39754233
81	0xbeeb736f	-0.45986506
82	0x4012faf7	2.2965677
83	0xbe8edfdb	-0.27905163
84	0xbfc60fba	-1.5473549
85	0x3f41bac2	0.75675595
86	0x400b141b	2.1731021
87	0x3e62f7c3	0.22164826
88	0x3f2e3c31	0.68060595
89	0xbccfdb58	-0.025373146
90	0x400f6d3a	2.2410417
91	0x3e671549	0.22566713
92	0x3f10b8ec	0.5653217
93	0x3f28516b	0.65749234
94	0xbf29ec16	-0.66375864
95	0x401feedc	2.4989538
96	0xbef3d171	-0.4762073
97	0xbf2a0460	-0.66412926
98	0xbf909485	-1.1295325
99	0x3ed53333	0.41640624
100	0x403af739	2.9213393
101	0x3fb20a58	1.3909407
102	0xc00e4aab	-2.2233074
103	0xbf26a058	-0.65088415
104	0xbe21a1d2	-0.15784386
105	0xbfe1902f	-1.7622126
106	0x3fbb37d9	1.4626418
107	0xbfa05948	-1.2527246
108	0x3ed90484	0.42386258
109	0xbd54c2f8	-0.05194375
110	0x3cfb0216	0.030640643
111	0x3ed9646d	0.4245943
112	0x3ea1b82e	0.3158583
113	0x3fba16a2	1.4538157
114	0x401b9d32	2.4314694
115	0x3fc25d04	1.5184636
116	0xbe5d08e6	-0.21585426
117	0x3fc0a851	1.5051366
118	0xbe7112a4	-0.23542267
119	0xbf829d90	-1.0204334
120	0xbfebcf8d	-1.8422714
121	0xbf3596a1	-0.70932966
122	0xbca1b314	-0.019738711
123	0xbff8d41f	-1.9439734
124	0xc016c4a7	-2.3557527
125	0x3f2827a3	0.6568548
126	0x3f57c5f0	0.84286404
127	0x3ea612c2	0.32436186
128	0xc01e7c04	-2.4763193
129	0xbea4c1de	-0.3217916
130	0xbfde629d	-1.7373844
131	0x3fe8204f	1.813486
132	0xbec2bbbd	-0.38033858
133	0x3e8f3cba	0.27976018
134	0x3f3194c7	0.6936764
135	0x3f41a0a4	0.75635743
136	0xbfa2f8f6	-1.2732227
137	0x3fe0b601	1.7555543
138	0xbfa1fdfb	-1.2655634
139	0x3b7d572c	0.0038656695
140	0x3faf476d	1.3693672
141	0xc0063c52	-2.0974317
142	0xbcba77ae	-0.022762146
143	0x3f036855	0.51331073
144	0xbf95c851	-1.1701757
145	0x4037344e	2.8625674
146	0x3da35f89	0.07977206
147	0x3f7e4db9	0.99337345
148	0xbfa5e6e1	-1.2961084
149	0x3fbff007	1.4995126
150	0xbe23b261	-0.15986015
151	0x3fc0ac3e	1.5052564
152	0xc00f82c1	-2.2423556
153	0xbf994101	-1.1972963
154	0xbe199066	-0.1499649
155	0x3edbcb03	0.42928323
156	0xbef4dc24	-0.47824204
157	0xbf0cc403	-0.5498659
158	0x3da76238	0.081730306
159	0xbe865f40	-0.26244545
160	0xbf2e0d72	-0.67989266
161	0xbe49d484	-0.19709975
162	0x3f9d76e6	1.230191
163	0x3fbed2ce	1.4908082
164	0x3fcb4a86	1.5882118
165	0xbf66b3d6	-0.9011816
166	0xbfc082d4	-1.5039926
167	0x3f03c367	0.51470035
168	0x400f98c5	2.2436993
169	0x3e536255	0.2064298
170	0xbf44b41b	-0.7683732
171	0x3f48823a	0.7832371
172	0xbfa7476a	-1.3068669
173	0xbfaf2390	-1.3682728
174	0xbf3040a0	-0.6884861
175	0xbf279ea3	-0.65476435
176	0xbe5357dc	-0.20638984
177	0x3db34f0a	0.0875531
178	0xbdcb3a4c	-0.099232286
179	0xbf4bedf1	-0.79659945
180	0xbf564662	-0.83701146
181	0x3e6d8dc5	0.23198612
182	0xc0045283	-2.067536
183	0x3ed45c9a	0.414769

weight_ih_l0 f4 [192, 9]
0	0x3f118995	0.5685056
1	0xbc2a1f44	-0.010383431
2	0xbea6de93	-0.32591686
3	0x3dd8b072	0.10580529
4	0x3eb4e307	0.35329458
5	0x3ed9173f	0.42400548
6	0xbf0d4494	-0.55182767
7	0xbd8014d2	-0.06253971
8	0xbe6afe88	-0.22948658
9	0xbbde8210	-0.006790407
10	0xbdd059b1	-0.10173357
11	0x3e3fbf8e	0.18725416
12	0x3c44971d	0.011998919
13	0xbded7c27	-0.11595946
14	0xbf2525a4	-0.6451056
15	0xbe31e0ab	-0.1737086
16	0xbdbcdbdb	-0.092216216
17	0xbe1ad09a	-0.15118638
18	0x3e0edf7d	0.13952442
19	0xbe6a6170	-0.22888732
20	0x3e2c8fe5	0.16851766
21	0x3e22f8ed	0.1591527
22	0x3c5b7bef	0.013396247
23	0xbe283cbb	-0.16429417
24	0x3f06450e	0.5244912
25	0xbea553e8	-0.32290578
26	0x3e8bcd45	0.27305046
27	0x3c992532	0.018694494
28	0xbef36070	-0.47534513
29	0x3ee4e72e	0.44707626
30	0xbe96f8b8	-0.29486632
31	0x3c8b3f1a	0.016997863
32	0xbf056520	-0.5210743
33	0x3e312340	0.17298603
34	0x3e5fc730	0.21853328
35	0x3e87b1b2	0.26502758
36	0x3e891b41	0.26778606
37	0x3e7bcdf3	0.24590282
38	0xbe486402	-0.195694
39	0x3d062212	0.032747336
40	0xbe9c1d62	-0.30491167
41	0xbe09512f	-0.13409875
42	0x397a21f1	0.00023854502
43	0x3d295b9b	0.041347127
44	0x3d79dc89	0.061001334
45	0xbe232035	-0.15930255
46	0xbebd85c0	-0.37016106
47	0xbd52eb2b	-0.051493805
48	0xbd87c293	-0.06628909
49	0xbe29ea9b	-0.16593401
50	0x3e2597df	0.16171215
51	0xbd933874	-0.07188502
52	0x3ebe7733	0.37200317
53	0x3d2f2e10	0.042768538
54	0x3e2b06ad	0.16701765
55	0x3e3177d9	0.17330875
56	0x3da137e4	0.078719884
57	0xbf0614d7	-0.5237555
58	0xbcbf1b14	-0.023328342
59	0xbe2a9a96	-0.16660532
60	0x3e1220ae	0.14270279
61	0x3eaca02d	0.33715954
62	0xbde6a6a3	-0.11262252
63	0x3c33797e	0.010954259
64	0x3ea174ac	0.31534326
65	0x3e0fe5aa	0.14052454
66	0xbde6281f	-0.11238121
67	0xbe28e5c5	-0.164939
68	0xbeb74df4	-0.3580166
69	0x3ea3cbd0	0.31991434
70	0xbf01c2fc	-0.5068815
71	0xbd26fccf	-0.04076844
72	0x3ec71f0e	0.3889088
73	0x3f0d4ed0	0.55198383
74	0x3ea48366	0.321315
75	0xbc90ffb7	-0.01770006
76	0xbdca3848	-0.09874016
77	0xbf0436e8	-0.5164628
78	0x3c727e59	0.014800631
79	0x3df83baf	0.12120759
80	0x3d5045e2	0.050847895
81	0x3ebcf5ba	0.36906224
82	0xbe0c5964	-0.13705975
83	0xbcce4147	-0.025177611
84	0x3e2e789f	0.17038201
85	0x3e5791ad	0.21051665
86	0xbddd3053	-0.10800233
87	0x3c9db0f8	0.019249424
88	0x3e333974	0.17502385
89	0x3e3f1d19	0.18663444
90	0x3eb91c4d	0.36154404
91	0x3d32eb88	0.04368165
92	0x3e727569	0.23677601
93	0xbee07497	-0.4383895
94	0xbdb1cd9c	-0.08681795
95	0xbe96e22c	-0.2946943
96	0xbe253585	-0.16133697
97	0xbeb26bc7	-0.34847853
98	0x3db525c7	0.08845096
99	0x3dd30b09	0.10304839
100	0x3ee43042	0.44568068
101	0xbc467b68	-0.012114383
102	0x3e01c1d3	0.12671594
103	0x3e8be297	0.27321312
104	0x3c6e7e6a	0.014556507
105	0xbe0cd01c	-0.13751262
106	0x3e3f39ca	0.18674389
107	0xbeb2be35	-0.3491074
108	0x3e1c6588	0.15273106
109	0xbe8acc37	-0.2710893
110	0xbec70162	-0.38868243
111	0x3e4d025a	0.20020428
112	0x3d789fae	0.060699157
113	0x3efafc38	0.49020553
114	0x3f00f8e5	0.5037978
115	0x3e1240bc	0.14282507
116	0x3e9752b9	0.295553
117	0xbc17763d	-0.009244499
118	0x3e4e2cfd	0.20134349
119	0x3deed682	0.11662008
120	0xbe93d5ff	-0.28874204
121	0x3f1e3aca	0.61808455
122	0x3ed323ef	0.41238353
123	0xbd8359c9	-0.064136095
124	0x399296f6	0.00027959765
125	0x3dfd20ea	0.123597935
126	0x3e095843	0.13412575
127	0xbe4470e6	-0.19183692
128	0xbe253636	-0.16133961
129	0x3f1ea77c	0.6197431
130	0xbddfd26a	-0.10928805
131	0x3e082bc8	0.13297951
132	0x3d247275	0.040148217
133	0x3f150ef1	0.58225924
134	0xbea05592	-0.31315285
135	0xbd8d91c0	-0.06912565
136	0x3f0062db	0.5015084
137	0xbe9a5231	-0.30140832
138	0xbf183ed3	-0.5947086
139	0xbc8ff32e	-0.017572012
140	0xbe998e7b	-0.29991516
141	0xbe51aef4	-0.20476896
142	0x3eb11992	0.3458982
143	0x3cf60c69	0.030035214
144	0xbdc22d04	-0.09481242
145	0xbdd2330c	-0.10263643
146	0x3d4921ab	0.049104374
147	0x3e4b8722	0.19875768
148	0xbb97bc83	-0.0046306266
149	0xbe945ea2	-0.2897845
150	0xbecb45af	-0.39701602
151	0xbf0e1ac4	-0.5550959
152	0x3e58da93	0.2117713
153	0x3e906430	0.28201437
154	0x3e446250	0.19178128
155	0x3ebfea8d	0.37483636
156	0xbe9ce316	-0.30642003
157	0x3e91e78c	0.2849697
158	0x3dc5b501	0.096536644
159	0x3eb35195	0.3502318
160	0xbe1320c0	-0.14367962
161	0x3ebe36dd	0.37151232
162	0x3f17b141	0.59254843
163	0xbebe3361	-0.37148574
164	0x3dbeb724	0.09312275
165	0x3d8c4c29	0.06850464
166	0xbd15bef5	-0.036559064
167	0x3d6a523d	0.057207335
168	0x3e590a17	0.21195255
169	0x3e78f781	0.24313165
170	0xbe38f5a7	-0.18062459
171	0xbe8b11fb	-0.27162156
172	0xbd141eb5	-0.036162097
173	0x3eb3c2d0	0.35109568
174	0x3cdf8c9b	0.027288726
175	0x3d349547	0.044087674
176	0x3ec889a1	0.39167503
177	0x3d8084ed	0.062753536
178	0x3f007664	0.5018065
179	0xbe506b85	-0.20353515
180	0xba17aab5	-0.000578563
181	0x3d761123	0.060074937
182	0xbeb9203d	-0.36157408
183	0xbda5276c	-0.0806416
184	0x3e991383	0.298977
185	0x3ea7df16	0.3278739
186	0x3e0b5fcc	0.13610762
187	0x3e94c7f9	0.29058817
188	0xbf000f27	-0.5002312
189	0xbe5e9064	-0.21734768
190	0x3e4a353b	0.19746868
191	0xbcb85c64	-0.022504993
192	0x3e785e08	0.2425462
193	0xbd74570e	-0.059653334
194	0xbe7111b9	-0.23541917
195	0x3dfc843f	0.123299114
196	0x3ec91357	0.39272568
197	0xbe468707	-0.19387446
198	0x3dd42596	0.103587314
199	0xbe97045e	-0.2949552
200	0xbe09baa6	-0.13450107
201	0xbe835fd5	-0.25659052
202	0xbedcec75	-0.43149152
203	0x3e4b70f9	0.19867314
204	0xbb0a3ab5	-0.002109212
205	0xbdb8ed9b	-0.09029695
206	0x3f0fb931	0.56141955
207	0x3cb86805	0.022510538
208	0x3e982c08	0.29721093
209	0xbf255f3f	-0.6459846
210	0xbd010231	-0.03149623
211	0x3ea595d1	0.32340863
212	0x3f15c034	0.58496404
213	0xbe81927d	-0.25307074
214	0xbd0ccb3d	-0.03437351
215	0xbf020958	-0.5079551
216	0x3f2b3ef7	0.6689295
217	0xbe8ede6d	-0.27904072
218	0xbe34093a	-0.17581645
219	0x3e37d161	0.17950965
220	0xbd5d553f	-0.054036375
221	0xbe9c772b	-0.30559668
222	0x3c8b4cf5	0.01700447
223	0x3d036564	0.032079116
224	0x3ecdf701	0.40227512
225	0x3d95169d	0.07279704
226	0x3df39c11	0.11895002
227	0xbe45cf84	-0.19317442
228	0x3b89ed64	0.0042092074
229	0x3dee1cc1	0.11626578
230	0x3e9b1eac	0.30296838
231	0x3dac0e7d	0.08401201
232	0xbdda0de3	-0.1064718
233	0xbf1584c8	-0.58405733
234	0x3da407c5	0.080092944
235	0xbc7220bf	-0.014778315
236	0x3f24d9e5	0.6439498
237	0xbeb1c0fa	-0.34717542
238	0x3eb0e4d6	0.34549588
239	0xbe68041a	-0.22657815
240	0xbd9e38b4	-0.07725659
241	0xbc8e956b	-0.017405232
242	0x3d28d90e	0.041222624
243	0x3d5023d8	0.050815433
244	0xbe5818bd	-0.21103187
245	0x3e13d1f3	0.14435558
246	0xbe33261c	-0.17495006
247	0x3d6dd2d0	0.058062375
248	0xbeec50ca	-0.46155387
249	0xbd77e729	-0.060523186
250	0xbe1fc5e0	-0.15602827
251	0xbc922516	-0.01783995
252	0x3ea86ae1	0.32894042
253	0x3e37216f	0.17883848
254	0x3df07df8	0.11742777
255	0xbdf57003	-0.11984255

weight_hh_l0 f4 [192, 64]
0	0xbd0f4056	-0.034973465
1	0xbd5987f7	-0.05310818
2	0xbbac6e5b	-0.005262179
3	0xba843185	-0.0010085559
4	0xbdc0ebd4	-0.09419981
5	0xbcce128e	-0.025155332
6	0xbccf6beb	-0.025320014
7	0xbd7ab055	-0.06120332
8	0xbeaf10ac	-0.34192407
9	0xbebb4dbc	-0.36582744
10	0xbe5ea9b9	-0.21744432
11	0xbdc1a1de	-0.09454702
12	0xbc3db0f7	-0.011577836
13	0x3e92d855	0.28680673
14	0xbe3cd6c7	-0.18441306
15	0xbec27750	-0.37981653
16	0xbe8d6635	-0.2761704
17	0x3e5cb5e8	0.21553767
18	0x3d72679b	0.059180837
19	0x3d305ade	0.043055408
20	0x3db12e5d	0.08651421
21	0x3ccaff48	0.02477993
22	0xbe80ff2c	-0.2519468
23	0xbd99d41c	-0.0751116
24	0x3b58092e	0.0032964456
25	0xbd4cc3b7	-0.049991336
26	0x3d8eb86a	0.06968768
27	0x3e665bde	0.22495982
28	0xbe927b88	-0.28609872
29	0x3dc476a7	0.09592944
30	0xbe2e7ee2	-0.1704059
31	0xbd9baed5	-0.07601706
32	0xbea9ed54	-0.3318888
33	0xbdb1718f	-0.08664238
34	0xbe2c2ef8	-0.16814792
35	0x3e3d7b59	0.18504085
36	0x3d66d0bb	0.056351405
37	0x3e6e0a80	0.23246193
38	0x3e89af52	0.2689157
39	0x3d459d4f	0.048245724
40	0xbe3e285e	-0.18570086
41	0xbd37eec0	-0.044905424
42	0x3e63c42b	0.22242801
43	0xbe12fb8d	-0.14353772
44	0x3de051ee	0.10953127
45	0x3e7203fd	0.23634334
46	0x3ddff82a	0.109360054
47	0x3e4d0ea7	0.2002512
48	0x3e8b9d33	0.2726837
49	0xbc1436c0	-0.009046257
50	0xbd6f2218	-0.058382124
51	0xbe667f0f	-0.22509407
52	0xbc767f58	-0.01504501
53	0x3e105072	0.14093187
54	0xbd8befe0	-0.06832862
55	0xbe2da17b	-0.16956131
56	0xbdc2e733	-0.09516754
57	0xbdcce6bd	-0.10004947
58	0xbdcce700	-0.10004997
59	0x3e593610	0.2121203
60	0xbca26afc	-0.019826405
61	0x3d19832f	0.037478622
62	0xbe16105c	-0.14654678
63	0x3e9a4804	0.3013307
64	0x3cb595e4	0.0221662
65	0xbe4f7f34	-0.20263368
66	0x3e14af5d	0.14520021
67	0x3dabe662	0.083935514
68	0x3d80716f	0.06271636
69	0x3ee930d7	0.45545074
70	0xbdc91271	-0.098179705
71	0xbeab462b	-0.3345197
72	0xbd22fbc5	-0.039790887
73	0xbdaab1f0	-0.0833472
74	0xbc95392d	-0.01821574
75	0xbe20bc33	-0.15696792
76	0x3db745ae	0.08948837
77	0x3e06f437	0.13179098
78	0x3d068b44	0.032847658
79	0xbd1af75f	-0.037833568
80	0x3d0a9b2c	0.03383939
81	0x3e5eda80	0.21763039
82	0x3e094665	0.1340576
83	0x3d3d958a	0.04628519
84	0xbe28dd7d	-0.16490741
85	0x3dd7f84f	0.10545408
86	0x3d5950cc	0.05305557
87	0x3d7a51a6	0.061113022
88	0x3d701b96	0.058620058
89	0x3c8798de	0.016552385
90	0xbe531810	-0.20614648
91	0xbe5a6868	-0.2132889
92	0xbe813501	-0.2523575
93	0xbd39d657	-0.045370426
94	0x3d8c21fa	0.06842418
95	0x3e8451da	0.25843698
96	0x3e9938c3	0.29926118
97	0xbd956e64	-0.07296446
98	0x3e3c271a	0.18374291
99	0x3dfb5c74	0.122734934
100	0x3e36f697	0.17867504
101	0xbde7aed6	-0.11312644
102	0x3da5d895	0.0809795
103	0xbe88ccb3	-0.26718673
104	0xbe82364b	-0.25432047
105	0x3d790577	0.060796227
106	0x3bb7ed7a	0.005613026
107	0x3e44a0fb	0.19202034
108	0xbe2a299e	-0.16617438
109	0xbd9b1a40	-0.07573366
110	0xbd136a7d	-0.035990227
111	0x3cda7bd1	0.026670368
112	0xbda4a90a	-0.08040054
113	0x3e8e1536	0.27750558
114	0x3cc14a72	0.023595069
115	0xbbf31e36	-0.007419373
116	0x3e53d4b5	0.2068661
117	0x3dabb98a	0.08384998
118	0x3e584647	0.21120559
119	0x3dabb860	0.08384776
120	0xbe57ba70	-0.21067214
121	0x3e6be624	0.2303701
122	0xbdc3bec4	-0.0955787
123	0xbc23636b	-0.009972434
124	0xbc72e2a3	-0.014824542
125	0xbeb352e2	-0.35024172
126	0xbe845d1c	-0.25852287
127	0x3d89ca7e	0.067280754
128	0xbda9815b	-0.08276626
129	0xbe753e9f	-0.2394967
130	0xbee0d519	-0.4391258
131	0x3e610264	0.21973568
132	0xbdc6a2dd	-0.096990325
133	0x3dc552d6	0.0963494
134	0x3b810acc	0.0039380547
135	0x3eb84e0b	0.35997042
136	0x3df82986	0.12117295
137	0xbd0de59c	-0.0346428
138	0xbd19cc68	-0.037548453
139	0x3e80bfd7	0.25146362
140	0x3dabd1d7	0.08389633
141	0xbebe8c91	-0.3721662
142	0xbe4cdbcf	-0.20005725
143	0x3da087da	0.07838412
144	0x3e142497	0.14467083
145	0xbc0db283	-0.008648518
146	0x3b0572e6	0.0020362674
147	0xbd26bd05	-0.040707607
148	0x3dba2fcf	0.0909115
149	0x3eb65924	0.35614884
150	0x3e2b057a	0.16701308
151	0x3e022e19	0.12712897
152	0xbdac2297	-0.08405035
153	0xbe28ae04	-0.16472632
154	0xbd602e97	-0.05473193
155	0x3dd81bdd	0.105521895
156	0x3d31bd4c	0.04339342
157	0x3d84c106	0.06482129
158	0x3d8838f5	0.06651489
159	0x3f1d96ba	0.61558115
160	0xbd19f494	-0.037586764
161	0xbe3f74ea	-0.18696943
162	0xbdbd6af6	-0.09248917
163	0x3ed01f20	0.40648746
164	0xbc5d7d38	-0.013518624
165	0xbb80df59	-0.003932875
166	0xbd865845	-0.06559805
167	0x3e0b3c4a	0.13597217
168	0x3e84e451	0.25955442
169	0x3e8a3981	0.26996997
170	0xbd434043	-0.047668707
171	0x3e915e03	0.28392038
172	0xbda49f6f	-0.08038222
173	0xbe49099a	-0.19632569
174	0xbd860db2	-0.06545581
175	0x3e3b7e11	0.1830981
176	0xb9397829	-0.00017687738
177	0x3e395467	0.18098603
178	0xbe1719e9	-0.14755978
179	0x3d20cc37	0.039257254
180	0x3d9c5a40	0.07634401
181	0xbbeb7408	-0.007185463
182	0xbd925bfe	-0.07146452
183	0x3dfbceb4	0.12295285
184	0xbc457640	-0.012052119
185	0x3e30b6e8	0.17257273
186	0x3dcc609c	0.09979364
187	0x3de4e8a8	0.11177188
188	0xbe08eca1	-0.13371517
189	0x3e309fdf	0.17248486
190	0xbc4995c1	-0.0123037705
191	0xbe8a80f5	-0.2705151
192	0x3e9dc46f	0.3081393
193	0x3eaaad2a	0.3333524
194	0xbe85aef5	-0.26110044
195	0xbd095eb1	-0.03353757
196	0x3dfb63e6	0.122749135
197	0xbddacd3e	-0.10683678
198	0xbd88d31b	-0.0668089
199	0x3ca42782	0.02003837
200	0xbd3eb77d	-0.046561707
201	0x3d3bf4b5	0.045887668
202	0x3e3ce94d	0.18448372
203	0x3d1a2fca	0.03764323
204	0x3dc69804	0.096969634
205	0xbe8f69d9	-0.28010443
206	0xbe3d7ce0	-0.18504667
207	0xbe19998b	-0.14999978
208	0xbe3df8ca	-0.18551937
209	0xbe49461b	-0.1965565
210	0x3d60bb9e	0.054866426
211	0x3eabe728	0.33574796
212	0xbce2b619	-0.027674722
213	0x3d9c45d6	0.07630508
214	0x3d2601f6	0.040529214
215	0x3ea2ab81	0.31771472
216	0xbdd55adb	-0.1041772
217	0xbe3cd902	-0.18442157
218	0x3e2d70e8	0.16937602
219	0x3e18ef30	0.14934993
220	0x3e52ae74	0.20574361
221	0xbd734f8a	-0.059402026
222	0x3dbdedd5	0.092738785
223	0x3e38c98f	0.18045639
224	0xbd4e3db2	-0.050351806
225	0xbe6df32e	-0.23237297
226	0x3a9ca28f	0.0011950302
227	0x3d68b82f	0.056816276
228	0xbd4b45c7	-0.04962709
229	0xbd258d65	-0.040418047
230	0x3e0d33a5	0.13789232
231	0x3dcd5dd7	0.10027664
232	0xbdd53d56	-0.104120895
233	0xbe934730	-0.2876525
234	0x3eddec32	0.43344265
235	0xbd3aa218	-0.04556474
236	0x3e003698	0.12520826
237	0xbe0fdb96	-0.14048609
238	0xbed32c41	-0.412447
239	0x3d2cd4e2	0.04219521
240	0xbd81a6cb	-0.06330641
241	0xbe7fe7ee	-0.24990818
242	0x3bdfea7f	0.006833374
243	0x3dbc17e8	0.09184247
244	0x3d4f3465	0.050587077
245	0x3e3ac3aa	0.18238702
246	0x3e45a948	0.19302857
247	0xbda50bdc	-0.080589026
248	0xbe2f1b15	-0.17100175
249	0x3dfac342	0.12244274
250	0xbe843204	-0.2581941
251	0xbc4242ba	-0.011856729
252	0xbdae28dd	-0.08503888
253	0x3e9c3795	0.30511156
254	0xbcee424d	-0.029084349
255	0xbe722857	-0.23648201

bias_ih_l0 f4 [192]
0	0xbdda01e4	-0.10644892
1	0x3caff168	0.021477416
2	0x3ec430f0	0.38318586
3	0x3e07acb2	0.13249472
4	0x3e0b8411	0.13624598
5	0x3ea7a9e4	0.32746804
6	0x3e70f38c	0.23530406
7	0x3e13b467	0.14424287
8	0x3d93eca1	0.07222868
9	0x3cd586f1	0.026065322
10	0x3be9b705	0.0071324133
11	0x3de6c4d9	0.112680145
12	0x3da83d97	0.08214872
13	0x3dc306dc	0.09522793
14	0xbd7e5f4d	-0.062102605
15	0x3da9f3ed	0.08298478
16	0xbd34f544	-0.044179216
17	0x3e97c3bf	0.2964153
18	0xbd6a1b70	-0.057155073
19	0x3d85de40	0.065365314
20	0x3ddea444	0.10871175
21	0xbd35565e	-0.04427182
22	0x3dd5e4f1	0.10444058
23	0x3cf8db3e	0.03037798
24	0x3d7519d0	0.05983907
25	0x3d3ee3b0	0.04660386
26	0x3def83a3	0.116950296
27	0xbd644972	-0.055734105
28	0xbd8ae5ee	-0.06782137
29	0x3e113b1a	0.14182702
30	0x3e3892e6	0.18024787
31	0x3d85d6e1	0.065351255
32	0x3da3d905	0.080003776
33	0x3e162906	0.14664087
34	0x3b92aca2	0.004476146
35	0x3dbf29ed	0.093341686
36	0x3e2451bf	0.16046809
37	0x3e36430e	0.17799017
38	0xbd9f57bf	-0.07780408
39	0x3e05ad9f	0.13054512
40	0x3e3cfe26	0.18456325
41	0x3e3d9615	0.18514283
42	0x3e558bda	0.2085413
43	0x3e708266	0.23487243
44	0x3e248af7	0.16068636
45	0x3d92e56c	0.07172665
46	0x3e022f0f	0.12713264
47	0x3ddc68f3	0.10762205
48	0x3e43d584	0.19124418
49	0x3d17bf99	0.037047956
50	0x3dcff1e0	0.10153556
51	0x3e02f18d	0.12787457
52	0x3e7e4068	0.24829257
53	0x3d1ebc60	0.038753867
54	0x3d990f5f	0.07473635
55	0x3de3b810	0.111190915
56	0x3e537925	0.20651682
57	0x3e0bcbbd	0.13651939
58	0x3e24d8c3	0.16098313
59	0xbc3014d7	-0.010747156
60	0x3dfabb67	0.122427754
61	0x3dd6c850	0.10487425
62	0x3e00343c	0.12519926
63	0x3d8483c8	0.06470448
64	0xbe967948	-0.29389405
65	0xbe5ef12d	-0.21771689
66	0xbe1e274d	-0.1544468
67	0xbf1b49cf	-0.606595
68	0xbea98fc5	-0.331175
69	0xbf04d478	-0.518867
70	0xbea6a3b8	-0.32546782
71	0xbf296216	-0.6616529
72	0xbeac49a4	-0.33649933
73	0xbeb3a8dc	-0.35089767
74	0xbf185c15	-0.59515506
75	0xbe7c2e9d	-0.24627157
76	0xbeaf39fc	-0.34223926
77	0xbe98925e	-0.2979917
78	0xbf01038f	-0.50396055
79	0xbf2d48c6	-0.6768917
80	0xbe73ec64	-0.23820645
81	0xbe8d0114	-0.27539885
82	0xbd8b1cc5	-0.06792597
83	0xbec954c0	-0.39322472
84	0xbefe192b	-0.49628577
85	0xbe8aead2	-0.2713228
86	0xbee956f9	-0.45574167
87	0xbf19a701	-0.6002045
88	0xbec813a4	-0.39077485
89	0xbdffc23f	-0.124882214
90	0xbf146e8b	-0.57981175
91	0xbe94c9f0	-0.29060316
92	0xbf0fab2d	-0.5612057
93	0xbec0ca17	-0.37654182
94	0xbf20164a	-0.6253401
95	0xbe2eca14	-0.17069274
96	0xbf0c476c	-0.5479648
97	0xbea2f4a2	-0.31827265
98	0xbf3080fd	-0.6894682
99	0xbe373626	-0.1789175
100	0xbf08cd5e	-0.53438365
101	0xbe69e4dc	-0.22841209
102	0xbd973319	-0.07382793
103	0xbe8b817c	-0.27247226
104	0xbe779239	-0.24176873
105	0xbe6905b1	-0.22756077
106	0xbe9b6ee3	-0.30358037
107	0xbe80d606	-0.25163287
108	0xbf2690e4	-0.65064836
109	0xbea3d1c2	-0.3199597
110	0xbe7312b9	-0.23737611
111	0xbe5a788b	-0.21335046
112	0xbeeed150	-0.46644068
113	0xbec22db1	-0.37925485
114	0xbf0fc747	-0.5616345
115	0xbf11e7a3	-0.56994075
116	0xbe74d0d8	-0.23907793
117	0xbf0c82c6	-0.54887044
118	0xbf301de4	-0.6879561
119	0xbe76930d	-0.24079533
120	0xbe224e4c	-0.1585018
121	0xbedb03e6	-0.42776412
122	0xbe90db5c	-0.28292358
123	0xbf005b4a	-0.50139296
124	0xbf202216	-0.6255201
125	0xbf00df2f	-0.5034055
126	0xbf2aad27	-0.6667046
127	0xbf086aa0	-0.53287697
128	0xbe8f7675	-0.28020063
129	0xbd7b9e17	-0.061430063
130	0xbed63e1a	-0.41844255
131	0xbe24a14f	-0.1607716
132	0x3e21fac9	0.15818323
133	0x3e711836	0.23544392
134	0x3dd4b250	0.10385573
135	0xbca8f869	-0.020626264
136	0x3c867013	0.016410863
137	0x3c5fce98	0.013660096
138	0x3d803cfa	0.0626163
139	0x3d7a8ee7	0.06117144
140	0x3d10624b	0.03524999
141	0xbd44161e	-0.047872655
142	0x3ded5f60	0.11590457
143	0x3dc8d0fc	0.098054856
144	0x3dc4af34	0.0960373
145	0xbd68a273	-0.05679555
146	0x3d52e357	0.05148634
147	0xbe830681	-0.255909
148	0xbd32df74	-0.043670133
149	0x3e1cae04	0.15300757
150	0x3e713446	0.23555097
151	0xbd6a71b3	-0.05723734
152	0xbc800f08	-0.015632167
153	0x3c77e214	0.015129585
154	0xbdccb00a	-0.09994514
155	0xbdd4cf4c	-0.10391101
156	0x3c94b9f5	0.018155077
157	0xbb0fa697	-0.0021919364
158	0xbdbbf48c	-0.09177503
159	0x3e90bdd8	0.2826984
160	0xbbb8c759	-0.0056389985
161	0xbdd9a487	-0.10627084
162	0xbe93f8cc	-0.28900754
163	0x3ea4f4af	0.3221793
164	0x3e03d4d4	0.12874156
165	0x3dfea5e7	0.12433987
166	0x3de31ce6	0.11089496
167	0x3ce212bc	0.027596824
168	0xbd61e5c9	-0.05515078
169	0xbda3da88	-0.08000666
170	0x3bcdafd3	0.0062770634
171	0xbd5ea108	-0.05435279
172	0xbe0bb290	-0.13642335
173	0x3e4fffef	0.20312475
174	0x3e985972	0.2975574
175	0x3e744907	0.23855983
176	0x3ea997f1	0.33123735
177	0xbd9c5471	-0.076332934
178	0xbd63ab0c	-0.055583045
179	0xba58d78d	-0.00082718657
180	0x3e68e7de	0.227447
181	0x3d8888c8	0.06666714
182	0xbd3aacbf	-0.0455749
183	0x3d196788	0.03745225
184	0x3e2a75c5	0.16646488
185	0x3e7a803a	0.24462977
186	0x3da9183f	0.08256578
187	0xbde1eea1	-0.11031843
188	0xbbc310b5	-0.0059529194
189	0xbe2b3d37	-0.1672257
190	0xbd54e4de	-0.051976077
191	0xbddd5dd4	-0.10808912

bias_hh_l0 f4 [192]
0	0x3d53cf79	0.051711533
1	0x3e031619	0.12801398
2	0x3e84936c	0.25893724
3	0x3e5f5b64	0.21812207
4	0xbabe6684	-0.0014526402
5	0x3e8298c6	0.25507182
6	0x3da02396	0.078192875
7	0x3d7f3c4f	0.062313374
8	0xbc67e27d	-0.01415312
9	0x3e394e54	0.18096286
10	0x3db4efef	0.08834826
11	0x3d80bff5	0.06286613
12	0x3db6f3b1	0.08933199
13	0x3e501cc0	0.20323467
14	0xbd3ddeb9	-0.046354983
15	0xbcab5ebf	-0.020919202
16	0xbc81f68f	-0.015864639
17	0x3e777aca	0.24167934
18	0x3d8f5482	0.069985405
19	0x3c462358	0.012093388
20	0x3de16e40	0.11007357
21	0x3dc9ede6	0.09859829
22	0xbd54cdd1	-0.051954094
23	0xbd2f75e2	-0.04283703
24	0x3d51b534	0.0511982
25	0x3e5f5340	0.21809101
26	0x3db03cd4	0.08605352
27	0xbd05dd1c	-0.03268157
28	0x3e16b894	0.14718848
29	0x3e60472d	0.21902151
30	0x3db9db67	0.09075051
31	0x3e028b64	0.12748486
32	0x3d94f81e	0.07273887
33	0xbd053252	-0.032518692
34	0x3db40aa5	0.08791093
35	0x3e7727a1	0.24136211
36	0x3d877416	0.066139385
37	0xbce162dd	-0.027512962
38	0x3d2ddeed	0.042448927
39	0x3de3ba36	0.11119501
40	0x3e8e7db5	0.27830282
41	0xbc2576e7	-0.010099149
42	0x3e6b79c9	0.22995676
43	0x3db0423f	0.086063854
44	0x3e095afd	0.13413616
45	0xbd80b112	-0.062837735
46	0xbc9f5218	-0.019448325
47	0xbda7370d	-0.08164797
48	0x3e7d9415	0.2476352
49	0x3e6a5226	0.228829
50	0x3cfcff03	0.030883318
51	0x3e1f8ff7	0.15582262
52	0x3e29d1d7	0.16583954
53	0x3e249a9a	0.16074601
54	0x3e1bdcca	0.15220943
55	0x3e15fe54	0.146478
56	0x3e2c2f73	0.16814975
57	0x3e0f1513	0.13972883
58	0x3e259ed0	0.16173863
59	0x3c170711	0.009217993
60	0x3e46a11c	0.19397396
61	0x3e212309	0.15736021
62	0x3e5dd1b1	0.21662022
63	0x3e582acb	0.21110074
64	0xbe771f82	-0.24133113
65	0xbe4b1e12	-0.1983569
66	0xbe1b2421	-0.15150501
67	0xbf55d928	-0.8353448
68	0xbe8d74e0	-0.2762823
69	0xbf167418	-0.58770895
70	0xbeb20790	-0.34771395
71	0xbf060667	-0.5235352
72	0xbec92ce1	-0.39292052
73	0xbe734e0c	-0.23760241
74	0xbf01e053	-0.50732917
75	0xbeb8c8d5	-0.36090723
76	0xbeb4a22f	-0.35279986
77	0xbe76aadf	-0.2408862
78	0xbefa7d63	-0.48923787
79	0xbf22741c	-0.6345842
80	0xbe8b9af8	-0.2726667
81	0xbe7023a8	-0.23451102
82	0xbe290b35	-0.16508181
83	0xbed41943	-0.41425523
84	0xbee48239	-0.44630602
85	0xbecdfd00	-0.40232086
86	0xbecf18e9	-0.40448692
87	0xbf4547d6	-0.7706274
88	0xbeaeff7e	-0.341793
89	0xbe8d2388	-0.2756617
90	0xbed19603	-0.40934762
91	0xbe2bd8b1	-0.1678188
92	0xbeecf0e3	-0.46277532
93	0xbecb8557	-0.39750168
94	0xbf00836a	-0.5020052
95	0xbe45eafc	-0.1932792
96	0xbf0b86f2	-0.54502785
97	0xbe9e48b7	-0.30914852
98	0xbf3a5ee5	-0.7280105
99	0xbe927dd6	-0.2861163
100	0xbef7707c	-0.48328006
101	0xbd39fbc2	-0.04540611
102	0xbe020d7b	-0.12700455
103	0xbe911920	-0.2833948
104	0xbed2b07b	-0.4115027
105	0xbe3f682c	-0.18692082
106	0xbee3b36b	-0.44472823
107	0xbec3634e	-0.381617
108	0xbf26d4eb	-0.6516864
109	0xbe904506	-0.2817766
110	0xbecbe01f	-0.39819428
111	0xbe8d27fd	-0.2756957
112	0xbe8c4a8b	-0.27400622
113	0xbec433ed	-0.38320866
114	0xbeec9012	-0.46203667
115	0xbf299453	-0.6624195
116	0xbedc6aaf	-0.43050143
117	0xbf06fb1b	-0.52726907
118	0xbf30a6d3	-0.69004554
119	0xbea28aa6	-0.31746405
120	0xbec7f8a5	-0.39056888
121	0xbed374aa	-0.41299945
122	0xbe9aaf35	-0.30211797
123	0xbf1dc169	-0.61623245
124	0xbf1da31e	-0.6157702
125	0xbeb01182	-0.34388357
126	0xbf389cc4	-0.72114205
127	0xbecf9c81	-0.4054909
128	0x3e4b1b0d	0.19834538
129	0xbd916b48	-0.071005404
130	0xbeed8409	-0.46389797
131	0xbe06db17	-0.13169514
132	0x3e8a5081	0.27014545
133	0x3e3d9508	0.18513882
134	0x3e62903d	0.22125335
135	0x3dab7f9b	0.08373948
136	0x3e958b7b	0.29207978
137	0x3d89107d	0.06692598
138	0x3e1c4b6e	0.15263149
139	0x3e899ee5	0.2687904
140	0x3daca844	0.084305316
141	0xbe6540b9	-0.22387971
142	0xbcaed74e	-0.0213429
143	0x3ea25813	0.3170782
144	0xbd9eabf6	-0.07747643
145	0xbe232fc3	-0.15936188
146	0x3e7398aa	0.23788705
147	0x3e127abe	0.14304635
148	0x3e15d492	0.1463187
149	0x3e90ae90	0.2825818
150	0x3df00a07	0.117206626
151	0x3e511f73	0.20422153
152	0x3eb33cbc	0.35007274
153	0xbe121092	-0.14264134
154	0xbdf9198b	-0.12163075
155	0xbd4d0a26	-0.050058506
156	0x3e20dec0	0.15709972
157	0x3e1ee980	0.1551876
158	0xbe76ff33	-0.24120788
159	0x3e98688e	0.2976727
160	0x3e0296bb	0.12752812
161	0xbec2abfc	-0.3802184
162	0xbdb31004	-0.08743289
163	0x3e94d1da	0.29066354
164	0x3d6d6df9	0.057966206
165	0x3e955c05	0.29171768
166	0xbdb28384	-0.08716491
167	0x3e25e44b	0.16200368
168	0x3e06b82e	0.13156196
169	0x3e01d094	0.12677222
170	0xb9c37a5f	-0.00037284472
171	0x3e495c5d	0.1966414
172	0xbe40a955	-0.18814595
173	0xbe005902	-0.12533954
174	0x3e1a85bb	0.15090077
175	0xbdc15b8c	-0.09441289
176	0x3e550eaa	0.20806375
177	0x3e49a9c0	0.1969366
178	0x3cb91ca0	0.022596657
179	0x3e598688	0.21242726
180	0x3e3e0fc2	0.18560699
181	0x3ea55311	0.32289937
182	0xbe55f285	-0.20893295
183	0x3ddcce49	0.10781533
184	0x3e1abc3d	0.1511087
185	0x3e8d1996	0.27558583
186	0x3ea3e056	0.32007092
187	0xbd620f82	-0.05519057
188	0xbd785233	-0.060625266
189	0x3ea0ffb2	0.3144508
190	0x3ea5ce19	0.32383803
191	0xbd58298c	-0.052773997

weight_ih_l1 f4 [192, 64]
0	0xbefc4318	-0.49269938
1	0xbe903db6	-0.28172082
2	0xbcdb0cd2	-0.026739512
3	0xbe506214	-0.20349914
4	0xbe8742f3	-0.26418266
5	0x3d8ba0ac	0.06817755
6	0x3da95c2c	0.082695335
7	0xbec62897	-0.38702843
8	0xbe57f946	-0.21091184
9	0x3dd34468	0.10315782
10	0x3c139764	0.009008262
11	0xbe2c9952	-0.16855362
12	0x3d3152a1	0.04329169
13	0x3e694aa3	0.22782378
14	0xbe7b79ea	-0.24558225
15	0x3d349119	0.04408369
16	0x3c8d4d28	0.017248705
17	0x3e7e0c8a	0.24809471
18	0x3eac04e9	0.33597496
19	0xbd45d0c1	-0.048294786
20	0xbbbb9ae8	-0.0057252534
21	0x3d9a56ce	0.07536088
22	0xbd54743f	-0.051868673
23	0xbe8e3061	-0.27771285
24	0xbe001405	-0.12507637
25	0x3e869c12	0.26290947
26	0xbd74c478	-0.05975768
27	0x3d92ea71	0.071736224
28	0xbe3e7c28	-0.1860205
29	0xbd91e894	-0.07124439
30	0xbda46ed4	-0.08028951
31	0x3e311749	0.17294039
32	0x3db8090c	0.089861006
33	0xbdce2f6e	-0.1006764
34	0x3de5535e	0.11197542
35	0x3c85a009	0.016311662
36	0x3df9b8bd	0.12193439
37	0x3d42f69c	0.047598466
38	0xbe1e92b6	-0.15485653
39	0xbe1bf516	-0.15230212
40	0xbe8c0e40	-0.27354622
41	0x3d541c5c	0.051784858
42	0x3e2aabc4	0.16667086
43	0x3e4776e5	0.19478948
44	0xbe996e64	-0.29967034
45	0x3dcd6ab9	0.10030121
46	0xbd080d3e	-0.033215754
47	0x3e75ebb2	0.24015692
48	0xbe1ac28e	-0.15113279
49	0x3e4b9347	0.198804
50	0xbe2a9192	-0.16657093
51	0xbe0b7dee	-0.13622257
52	0x3e7877ba	0.24264422
53	0x3deea411	0.11652387
54	0x3dd62337	0.104559354
55	0xbe4055d6	-0.18782744
56	0x3e4fc577	0.2029017
57	0x3e4bf784	0.19918638
58	0xbde5436a	-0.11194499
59	0xbc55837f	-0.013031839
60	0xbcfb43c2	-0.030671958
61	0xbe4a96ae	-0.19784042
62	0xbdbd6815	-0.09248368
63	0xbd00095b	-0.031258922
64	0x3f0ccdee	0.55001724
65	0x3ecae445	0.3962728
66	0x3de75a5b	0.11296531
67	0xbe4b0075	-0.19824393
68	0x3e880370	0.26565123
69	0x3e3ce47e	0.18446538
70	0x3d94bcf7	0.07262605
71	0x3dcaba91	0.09898866
72	0x3e6ee8d0	0.23330998
73	0x3d487ce5	0.048947234
74	0x3dff6200	0.12469864
75	0x3ee2c9e9	0.4429467
76	0x3daddd51	0.084894784
77	0xbdca57cf	-0.098800294
78	0x3e8140a5	0.25244632
79	0x3e3d5a1a	0.18491402
80	0x3e402965	0.18765791
81	0xbef1a671	-0.47197297
82	0xbdcb4cbd	-0.09926746
83	0xbdff03e9	-0.12451918
84	0x3de09826	0.1096652
85	0xbdae8294	-0.085209996
86	0x3e94db09	0.2907336
87	0x3dc4f8db	0.09617778
88	0xbe72e19d	-0.23718877
89	0xbe97d72f	-0.2965636
90	0xbdfdb93a	-0.12388845
91	0xbe26bea6	-0.16283664
92	0x3e7e35f3	0.24825267
93	0x3b86259b	0.0040938384
94	0xbbcae66f	-0.0061920206
95	0x3d0c3882	0.034233578
96	0xbe484d5a	-0.19560757
97	0xbbe3cc7f	-0.006951868
98	0xbe8d40a9	-0.27588394
99	0x3de3cf50	0.11123526
100	0xbe6c7b9c	-0.23094028
101	0xbd8a0d7a	-0.06740852
102	0xbb5481eb	-0.003242607
103	0xbda2f221	-0.07956339
104	0x3e285a47	0.16440688
105	0xbd0896a4	-0.033346787
106	0x3e06da5d	0.13169236
107	0x3e615698	0.22005689
108	0x3e478a2e	0.19486305
109	0xbd857196	-0.065158054
110	0xbe95aa48	-0.29231477
111	0x3e132d73	0.14372806
112	0x3d78a12a	0.060700573
113	0xbe78c3a0	-0.24293375
114	0xbdb848ce	-0.089982614
115	0xbc8a1d7c	-0.016859762
116	0xbd3a4b93	-0.04548223
117	0xbd4e576c	-0.05037634
118	0xbeb550be	-0.35413164
119	0x3d9cb655	0.076519646
120	0x3e782df6	0.24236283
121	0xbcf84859	-0.030307936
122	0x3de15558	0.11002606
123	0x3ea0f409	0.31436184
124	0xbe9970d1	-0.29968885
125	0xbcb5b9ff	-0.022183416
126	0x3d168f3f	0.036757704
127	0xbdf7108c	-0.12063703
128	0xbeec5501	-0.46158603
129	0xbd8ab9df	-0.06773733
130	0xbd70656a	-0.058690466
131	0xbe0b5dfa	-0.13610068
132	0xbe77a0ec	-0.2418248
133	0xbebf641c	-0.37381065
134	0x3d0a4935	0.033761222
135	0xbe035745	-0.1282626
136	0x3def8b65	0.11696509
137	0x3ea60c8e	0.32431453
138	0xbd11d48d	-0.035603095
139	0xbe90d07b	-0.28284058
140	0x3cd883d2	0.026430044
141	0x3e719f5b	0.23595946
142	0x3caac333	0.020845031
143	0x3e5e9911	0.21738078
144	0x3e3ca802	0.18423465
145	0x3edcc155	0.4311625
146	0x3e774063	0.24145655
147	0x3b653514	0.0034974264
148	0x3e623c47	0.22093306
149	0x39bb4964	0.000357221
150	0xbd657ffd	-0.056030262
151	0xbdc0a99d	-0.09407351
152	0x3de4c9c4	0.11171296
153	0xbd0ab3d1	-0.033862893
154	0xbdfb5177	-0.122713976
155	0xbccc19ee	-0.024914708
156	0xbe96b0f8	-0.2943189
157	0xbd9423bf	-0.072333805
158	0xbe0ae564	-0.13564068
159	0x3dd5d441	0.10440875
160	0x3edcabae	0.4309973
161	0x3dc31b8b	0.09526738
162	0xbcca60aa	-0.024704296
163	0xbdc757d2	-0.09733547
164	0x3d1a0bb6	0.037608825
165	0x3ddf50e2	0.10904099
166	0x3e09b7f0	0.13449073
167	0xbd73f286	-0.05955746
168	0x3d211a66	0.039331816
169	0x3d318074	0.043335393
170	0xbd8366df	-0.064161055
171	0x3c71763c	0.014737662
172	0xbbd28865	-0.006424951
173	0x3dae95f0	0.08524692
174	0x3de4b7a5	0.1116784
175	0xbdb76993	-0.089556836
176	0x3c45c2b0	0.012070343
177	0xbe09a196	-0.13440546
178	0x3df3ad52	0.118982926
179	0x3d506aba	0.050883032
180	0x3d4e6ad7	0.05039486
181	0x3d9940d3	0.07483067
182	0x3e3bca6d	0.18338938
183	0xbea1efed	-0.3162836
184	0xbe79bb25	-0.24387796
185	0xbd087321	-0.03331292
186	0x3dbe9caf	0.09307229
187	0x3e9c2c7c	0.3050269
188	0x3e57d466	0.21077117
189	0xbd8e37be	-0.06944226
190	0xb9af2361	-0.0003340496
191	0x3e74ec0b	0.23918168
192	0x3d1e718a	0.038682498
193	0x3ebb40d6	0.36572903
194	0xbd842c97	-0.06453817
195	0xbeb11d30	-0.3459258
196	0x3cbe31ac	0.023217045
197	0x3e92078d	0.28521386
198	0xbdaef7c4	-0.08543351
199	0x3cd4554a	0.025919575
200	0xbdd92328	-0.10602409
201	0x3d642b5c	0.055705413
202	0x3e88e6da	0.26738626
203	0x3b33cc1c	0.002743489
204	0xbdc481e1	-0.09595085
205	0xbe095639	-0.13411798
206	0xbe05e36d	-0.13075037
207	0xbe62cbd3	-0.22148065
208	0xbe1883af	-0.14893983
209	0x3e3139bf	0.17307185
210	0xbd7eb37b	-0.062182885
211	0xbe02ca1f	-0.12772416
212	0xbdc4f7c1	-0.09617568
213	0x3e605bb8	0.21909988
214	0x3e85457e	0.2602958
215	0x3d74d08f	0.05976921
216	0xbe0a151f	-0.1348462
217	0x3b6c5afa	0.0036064968
218	0x3e372c9a	0.17888108
219	0x3da07294	0.07834354
220	0x3e3dbfaf	0.18530153
221	0x3e7433ed	0.23847933
222	0xbd22ec2b	-0.03977601
223	0x3dff6a05	0.124713935
224	0x3bed63e9	0.0072445762
225	0x3dd0f1fe	0.10202406
226	0xbd0ea371	-0.03482384
227	0x3e83c51a	0.25736314
228	0x3eb70a6e	0.35750145
229	0x3e32a0bf	0.17444132
230	0x3d83a46c	0.06427845
231	0x3d1d6589	0.03842691
232	0xbe900e0d	-0.2813572
233	0xbea1b50f	-0.3158345
234	0x3e71bb02	0.23606494
235	0x3d52ac68	0.05143395
236	0x3bfa1b55	0.0076326528
237	0xbe22d715	-0.1590236
238	0x3e324f1a	0.17412987
239	0xbd898c97	-0.067162685
240	0xbdb24343	-0.087042354
241	0xbc36cf4e	-0.011157824
242	0x3ce48086	0.027893316
243	0x3e5dcc02	0.21659854
244	0x3de2c334	0.11072388
245	0xbd189d64	-0.037259474
246	0x3e7fbb4f	0.24973796
247	0xbe011782	-0.12606624
248	0xbe0a4dfe	-0.13506314
249	0x3e84a98a	0.25910598
250	0xbe842cc7	-0.25815412
251	0xbeb721bb	-0.35767922
252	0x3b31bb28	0.002711961
253	0x3cbfc147	0.023407592
254	0xbe995c7b	-0.2995337
255	0x3e22c7aa	0.15896478

weight_hh_l1 f4 [192, 64]
0	0x3de6a764	0.11262396
1	0x3e9b88c4	0.3037778
2	0xbdc58d94	-0.096461445
3	0xbe4be408	-0.19911206
4	0x3bc3d84c	0.0059767123
5	0x3de3002d	0.11084018
6	0xbd5cc12f	-0.05389517
7	0xbb918460	-0.004440829
8	0x3df0eb51	0.11763633
9	0xbd9d026a	-0.07666476
10	0x3cbdd556	0.023173016
11	0xbabac3ef	-0.0014249067
12	0xbcb99423	-0.022653645
13	0x3be1a5d4	0.0068862233
14	0xbdb20f6e	-0.08694349
15	0xbcc4a08d	-0.024002338
16	0xbd49bcf1	-0.049252454
17	0x3d4ade75	0.049528558
18	0x3cd91107	0.026497377
19	0xbd5d9e4d	-0.054106046
20	0xbccc866d	-0.024966443
21	0x3e0d0218	0.1377033
22	0xbca89dd5	-0.020583073
23	0x3c9b8263	0.018983072
24	0x3d18dcc7	0.037319925
25	0x3d6e34fd	0.058156002
26	0xbd4d3d90	-0.05010754
27	0xbdcba704	-0.09943965
28	0x3dddad70	0.10824096
29	0x3e865e55	0.26243845
30	0x3d5b8b3c	0.05359958
31	0x3e173e1f	0.14769791
32	0x3e25d9ec	0.16196412
33	0x3d59871d	0.05310737
34	0x3d3905a9	0.045171414
35	0x3e0d95ed	0.13826723
36	0x3d9a4336	0.07532351
37	0xbda88a4a	-0.082295015
38	0x3e67d8d6	0.2264131
39	0x3d511d27	0.051053192
40	0x3bc04778	0.0058678947
41	0x3cf782d9	0.03021376
42	0x3e008bdb	0.1255335
43	0xbd210a21	-0.0393163
44	0x3d9807f7	0.07423394
45	0xbe7bb33d	-0.24580093
46	0x3d268999	0.040658567
47	0x3ea32239	0.31862047
48	0x3c2941f7	0.010330669
49	0xbd887125	-0.066622056
50	0xbdb0dd27	-0.086359315
51	0x3cb8736e	0.022515979
52	0xbd9cc9b5	-0.0765566
53	0x3dea21a0	0.11432195
54	0x3d6574b0	0.056019485
55	0x3e5ced1c	0.21574825
56	0x3e561e46	0.20909986
57	0xbc35e68a	-0.011102328
58	0xbde91100	-0.113801956
59	0xbd673a96	-0.056452356
60	0xbdc1160f	-0.094280355
61	0x3dc819c4	0.097705394
62	0x3c4fab28	0.012675084
63	0x3c6b2f8e	0.0143546
64	0xbdc85128	-0.09781104
65	0xbc93c4ab	-0.018038115
66	0x3bca609e	0.0061760684
67	0xbdf1b761	-0.11802555
68	0x3e858f5f	0.26085946
69	0xbbbcb246	-0.0057585565
70	0x3d12801d	0.03576671
71	0x3e41db84	0.18931395
72	0x3e4c48c6	0.19949636
73	0x3eb115d6	0.34586972
74	0xbe30edb9	-0.17278184
75	0x3d120877	0.035652604
76	0xbe34a966	-0.17642745
77	0x3de65484	0.11246589
78	0x3e2a4797	0.16628872
79	0x3ddf52b6	0.10904448
80	0xbd4afff3	-0.0495605
81	0xbdbe6e70	-0.09298408
82	0xbe3e5172	-0.18585756
83	0xbe1a3093	-0.15057592
84	0x3c9800bd	0.01855504
85	0x3e8562d7	0.2605197
86	0x3a544504	0.00080974423
87	0xbe21de5e	-0.15807483
88	0xbd057f82	-0.032592304
89	0xbb6b61e0	-0.0035916492
90	0x3e0dd79f	0.13851784
91	0x3e801e22	0.2502299
92	0x3c92c02b	0.017913898
93	0xbdb9c298	-0.09070319
94	0xbe30709b	-0.17230456
95	0x3e25a573	0.16176395
96	0x3d69223e	0.05691742
97	0x3ddca403	0.1077347
98	0xbe323d14	-0.17406112
99	0x3c643211	0.013927952
100	0xbd0ee3e3	-0.0348853
101	0xbdc722fd	-0.0972347
102	0xbdb026cb	-0.08601149
103	0x3cfb3270	0.030663699
104	0xbd9c6248	-0.07635933
105	0xbe37d921	-0.17953922
106	0xbd619873	-0.055077028
107	0x3cc9e6ce	0.024646189
108	0xbdf21eca	-0.11822279
109	0x3d9dc452	0.07703461
110	0x3e3c8bad	0.18412657
111	0x3e503786	0.2033368
112	0x3d9b3272	0.07577981
113	0xbe84c7ce	-0.2593369
114	0x3a61ea9e	0.00086180295
115	0xbcf4858b	-0.029848834
116	0xbe51e913	-0.20499067
117	0xbe96ac15	-0.29428163
118	0x3dc43a56	0.09581439
119	0x3e5b3c2c	0.21409672
120	0xbd036756	-0.03208097
121	0xbda54e89	-0.0807162
122	0xbe82f072	-0.2557407
123	0xbe12039c	-0.1425919
124	0x3e941e27	0.28929254
125	0xbd16d281	-0.036821846
126	0xbe830cf7	-0.2559583
127	0x3e03637c	0.12830919
128	0x3dcd6f54	0.10031
129	0xbe96d285	-0.2945749
130	0xbcd399df	-0.025830207
131	0x3f0a9bc5	0.54143935
132	0xbe64c35a	-0.22340146
133	0xbea3d2c0	-0.31996727
134	0x3e047269	0.12934269
135	0x3e152c8d	0.14567776
136	0x3d698a3e	0.057016604
137	0xbdaada3a	-0.08342405
138	0xbec2ab3d	-0.3802127
139	0x3cb63dff	0.022246359
140	0x3df25773	0.11833086
141	0xbda59902	-0.080858245
142	0xbd99d7c2	-0.07511856
143	0x3e022333	0.1270874
144	0xbdb4a1af	-0.08819901
145	0xbe034b43	-0.12821679
146	0x3e0fdd21	0.14049198
147	0xbe291ffc	-0.16516107
148	0xbe11f58e	-0.14253828
149	0xbe480d89	-0.19536413
150	0xbd091dd0	-0.033475697
151	0x3e020017	0.12695347
152	0xbd854418	-0.065071285
153	0xbd0e4bf3	-0.0347404
154	0x3cac94f6	0.021067124
155	0xbdd0b05d	-0.101898886
156	0x3e28a07c	0.1646747
157	0xbda0fae8	-0.078603566
158	0x3e7f2723	0.24917273
159	0xbde366fc	-0.11103627
160	0x3e780f71	0.2422464
161	0xbf0178a3	-0.505747
162	0xbc9da4f7	-0.0192437
163	0xbe345e2a	-0.17614046
164	0xbe66bc5b	-0.2253279
165	0x3ea8b0b1	0.32947305
166	0x3e9ed6f2	0.31023365
167	0x3e25b0bb	0.16180699
168	0xbcc7e851	-0.02440277
169	0x3e15b96f	0.14621519
170	0xbdb52bd0	-0.08846247
171	0x3e8a6eca	0.2703765
172	0xbe6c524c	-0.23078269
173	0xbe2b349e	-0.1671929
174	0x3e861718	0.26189494
175	0xbde7596c	-0.11296353
176	0xbc71e7ef	-0.01476477
177	0x3e5a9205	0.21344765
178	0xbe883e12	-0.26609856
179	0x3da5a826	0.080887124
180	0x3d6a487a	0.057198025
181	0xbd825add	-0.06364987
182	0x3d75d19f	0.060014363
183	0xbe1da377	-0.15394388
184	0xbd38235d	-0.0449556
185	0xbd857cca	-0.06517942
186	0xbdb3375c	-0.08750793
187	0xbe1aed94	-0.15129691
188	0x3d1e2d82	0.03861762
189	0xbb923837	-0.0044622677
190	0xbd6a2063	-0.057159793
191	0x3e09e2d7	0.13465439
192	0x3c1abf33	0.0094449995
193	0xbe3f4eef	-0.18682455
194	0xbe1ff553	-0.15620928
195	0x3dffca5c	0.12489769
196	0xbe8d27b5	-0.27569357
197	0xbeaaf165	-0.33387294
198	0xbdf18491	-0.11792863
199	0xbdabef7e	-0.08395289
200	0xbe352fa9	-0.17693962
201	0xbdda4d96	-0.106593296
202	0x3d92181d	0.071335055
203	0x3ce724d4	0.028215803
204	0xbe2df005	-0.16986091
205	0xbc0e618f	-0.008690252
206	0x3e0b3df1	0.13597848
207	0xbe01104a	-0.1260387
208	0x3d8e5232	0.06949271
209	0x3df3faf3	0.11913099
210	0x3e358aad	0.17728682
211	0x3e7c9f08	0.2467004
212	0x3eaa7cf6	0.33298463
213	0x3d88024d	0.06641064
214	0xbcbc63ec	-0.022996865
215	0xbc8cdbf9	-0.017194735
216	0x3e054dad	0.13017912
217	0x3e34a056	0.17639288
218	0xbe00e4ae	-0.12587234
219	0x3d531654	0.051534966
220	0xbd7ce58c	-0.06174235
221	0x3e2a8b69	0.16654743
222	0x3e81bd56	0.25339764
223	0xbd82f50b	-0.063943945
224	0x3f340713	0.70323294
225	0x3ecc4e5b	0.3990353
226	0xbe200836	-0.15628132
227	0x3d03db01	0.03219128
228	0x3dbc0de8	0.0918234
229	0xbd237140	-0.039902925
230	0x3ec96a4c	0.3933891
231	0x3d9484fc	0.07251927
232	0x3c3c4f17	0.011493466
233	0xbd8d7200	-0.069065094
234	0x3d058e5c	0.032606468
235	0x3d738c2a	0.059459843
236	0xbdc629c1	-0.09675933
237	0x3e2f499f	0.17117928
238	0x3dfabec1	0.12243415
239	0x3c1846e2	0.0092942435
240	0xbdb353b3	-0.08756199
241	0x3e949257	0.29017898
242	0xbebe41dc	-0.37159622
243	0xbd59bd75	-0.053159196
244	0xbe136934	-0.143956
245	0x3dd028de	0.10164045
246	0xbe25d383	-0.16193967
247	0xbd8f6ae2	-0.07002808
248	0xbd9b1567	-0.075724415
249	0xbdbd539a	-0.09244461
250	0xbc7cf63b	-0.015439565
251	0x3e73737d	0.23774524
252	0x3d8896a8	0.066693604
253	0x3e4153ae	0.18879578
254	0x3ebe54c8	0.37174058
255	0x3bb1fab9	0.0054315

bias_ih_l1 f4 [192]
0	0x3d9f39e6	0.07774715
1	0x3d44559e	0.047933213
2	0x3e486988	0.19571507
3	0x3d92629f	0.07147717
4	0x3cf67815	0.030086556
5	0x3de29218	0.110630214
6	0x3dd91ae9	0.10600836
7	0x3be25654	0.006907264
8	0xbdb4e9e0	-0.088336706
9	0xbd97608b	-0.07391461
10	0x3a7484b9	0.00093276385
11	0x3cbf716a	0.02336951
12	0xbd42bac8	-0.04754141
13	0x3dd67488	0.10471445
14	0xbd22df8f	-0.039763983
15	0x3d649cbd	0.05581354
16	0x3d949e55	0.07256762
17	0x3cad0df4	0.021124817
18	0x3dece858	0.115677536
19	0x3c17e669	0.009271243
20	0xbc9aad02	-0.018881325
21	0x3d2c7fb0	0.04211396
22	0xbd3a0d98	-0.04542312
23	0x3da16c4f	0.07881986
24	0xbd5d064d	-0.053961087
25	0xbcab7329	-0.020928936
26	0xbe0cd9df	-0.13754986
27	0xbd44fbf5	-0.048091847
28	0x3e453813	0.19259672
29	0x3e7790b6	0.24176297
30	0xbd17fead	-0.037108112
31	0x3e0b36c2	0.13595107
32	0x3e0437dc	0.12911934
33	0xbe1db7e7	-0.15402184
34	0x3e2705a3	0.16310744
35	0xbdc3f6db	-0.09568568
36	0x3dc881dd	0.097903945
37	0x3d846d17	0.0646612
38	0x3e3fff3d	0.1874971
39	0x3da65649	0.08121926
40	0x3cdcb9be	0.026944038
41	0xbd8becea	-0.06832297
42	0x3c89d163	0.016823476
43	0xbbcb4a4d	-0.0062039257
44	0x3e0c9192	0.13727406
45	0x3e10ad1a	0.14128533
46	0x3c8cbf46	0.01718105
47	0x3e556eea	0.20843092
48	0x3e379855	0.17929204
49	0x3d7adc99	0.061245535
50	0x3d0a15ca	0.033712186
51	0x3c247f6b	0.010040144
52	0x3c8836ad	0.016627634
53	0x3da3ba78	0.079945505
54	0x3d1fbce1	0.03899849
55	0x3e05a9eb	0.130531
56	0x3d9e2587	0.077220015
57	0x3e1c2177	0.15247141
58	0xbdcdfdda	-0.10058184
59	0xbd90952d	-0.07059703
60	0xbbb0c79d	-0.0053948895
61	0xbb7d8edf	-0.0038689894
62	0x3d872ff8	0.06600946
63	0x3b08d4b1	0.0020878727
64	0xbe9dfb15	-0.30855623
65	0xbec13860	-0.37738323
66	0xbe10335a	-0.14082089
67	0xbea1f140	-0.31629372
68	0xbd742de7	-0.05961409
69	0xbea8eed2	-0.32994705
70	0xbe9200df	-0.2851629
71	0xbdf672ab	-0.1203359
72	0xbd8d0139	-0.06884999
73	0x3d7683e7	0.060184386
74	0xbdc53be1	-0.096305616
75	0xbe767891	-0.2406943
76	0xbebf07a4	-0.37310517
77	0xbe8777bc	-0.26458538
78	0xbebae7c4	-0.36504948
79	0xbec5aed8	-0.38609958
80	0x3d9cf403	0.07663729
81	0xbecd7774	-0.40130198
82	0xbed82663	-0.42216787
83	0xbeb1baa9	-0.34712723
84	0xbe8fb7b3	-0.2806984
85	0xbe64f26a	-0.22358099
86	0xbe9ea3da	-0.30984384
87	0xbe2dc515	-0.16969712
88	0xbd60ecc5	-0.0549133
89	0xbea55752	-0.32293183
90	0xbe7d2024	-0.24719292
91	0xbe62cfe0	-0.2214961
92	0xbe87d822	-0.26532084
93	0xbeb11bdc	-0.34591568
94	0xbdb40789	-0.087905
95	0xbec1e567	-0.37870333
96	0xbd94f2c8	-0.07272869
97	0xbf18498b	-0.5948722
98	0xbe9d8f7b	-0.3077353
99	0xbe79d65c	-0.24398178
100	0xbeb38a02	-0.3506623
101	0xbf11a0cb	-0.56885976
102	0x3d0fe48d	0.035130072
103	0xbee52179	-0.447521
104	0xbeb49037	-0.35266277
105	0x3d4fda0c	0.050745055
106	0xbeda4eab	-0.42638144
107	0xbed4e801	-0.41583255
108	0xbde0d9ea	-0.10979064
109	0xbeb7539e	-0.35805982
110	0xbe96409c	-0.29346168
111	0xbdfffe52	-0.124996796
112	0xbeb3ac5a	-0.3509243
113	0xbd33088d	-0.043709327
114	0xbe88a256	-0.26686352
115	0xbea16ba4	-0.31527436
116	0xbedc0f1f	-0.42980286
117	0xbe542d12	-0.20720318
118	0xbef8fe78	-0.48631644
119	0xbe75fd1c	-0.24022335
120	0xbed2abc1	-0.41146663
121	0xbeaf10f3	-0.3419262
122	0x3cac262d	0.021014297
123	0xbe472429	-0.19447388
124	0xbeb99243	-0.362444
125	0xbeb019a8	-0.34394574
126	0xbeaf0efe	-0.34191126
127	0xbed4cda1	-0.41563132
128	0x3debc2e8	0.11511785
129	0xbe36a72a	-0.17837206
130	0x3dc6e70f	0.0971204
131	0x3e0ec6a1	0.13942958
132	0x3d1c4530	0.03815192
133	0xbe15f7b9	-0.1464528
134	0xbd4d1695	-0.050070364
135	0xbe64b8cb	-0.22336118
136	0x3e4ea75a	0.20181027
137	0x3dac57d5	0.0841519
138	0x3e84e5a7	0.2595646
139	0xbe42eebc	-0.19036382
140	0xbdc12d09	-0.09432418
141	0xbd813782	-0.063094154
142	0x3d424c13	0.04743583
143	0xbe09e4b7	-0.13466154
144	0x3c807bca	0.015684027
145	0xbd47867b	-0.048712235
146	0x3e92cfa8	0.28674054
147	0x3d5091b3	0.0509202
148	0x3e017d88	0.12645543
149	0xbe436890	-0.19082856
150	0xbc81dc5a	-0.015852142
151	0x3c35985e	0.01108369
152	0x3db7be71	0.08971871
153	0xbe3a444b	-0.18190114
154	0x3cc396a9	0.023875551
155	0x3dc87964	0.097887784
156	0x3e0335a4	0.12813431
157	0x3df9c18b	0.121951185
158	0xbcc8a1ed	-0.024491275
159	0xbd6af800	-0.057365417
160	0x3dd1062a	0.10206254
161	0x3d4421ce	0.0478838
162	0x3de4f631	0.1117977
163	0xbdc2a412	-0.0950395
164	0x3d375fad	0.044768978
165	0x3de55123	0.11197116
166	0x3e0ded5a	0.13860074
167	0x3ea1963b	0.3155993
168	0xbdc0b56f	-0.09409606
169	0xbe0480ee	-0.12939808
170	0x3e1c8cd5	0.15288098
171	0xbcfdb962	-0.030972186
172	0x3dcf9fbd	0.101378895
173	0xbe4a148e	-0.19734403
174	0xbd9c1e89	-0.076230116
175	0xbdd8cbad	-0.10585723
176	0xbe803e72	-0.25047642
177	0x3e255f06	0.1614953
178	0xbde3af79	-0.11117453
179	0x3da55c3b	0.08074232
180	0xbc712ea8	-0.014720596
181	0xbdd891de	-0.10574697
182	0xbe89490b	-0.2681354
183	0x3e35afd2	0.17742851
184	0xbd9e8639	-0.07740445
185	0xbe40d5dd	-0.18831582
186	0xbe6fa786	-0.23403749
187	0x3a9ecba1	0.001211513
188	0xbe163f53	-0.14672594
189	0x3d8a9e1e	0.0676844
190	0x3df53228	0.11972457
191	0x3decad4f	0.115564935
