action_LossPrune/model3_ticket.pth (torch, 209742 bytes, 12 tensors)

weight f4 [125, 16]
000000 01 12 2c 3f 43 ac 32 3f c1 84 31 3f fb 47 84 bf
       0.6721497 0.697941 0.6934319 -1.0334467
000010 64 7e 84 3f ff 7e 73 be 67 89 db be b5 18 0a c0
       1.0351071 -0.23778914 -0.42878267 -2.157758
000020 bb 09 da be 1e a2 92 3f 2a 44 67 bf 33 62 c2 bf
       -0.4258555 1.1455724 -0.90338385 -1.5186218
000030 a2 1e 88 3e ad 38 31 bf 58 eb 60 3f ec 66 37 3f
       0.2658587 -0.69227105 0.87859106 0.7164142
000040 a0 6b 52 bf 89 70 16 be 50 8a a9 bc 16 fa a5 3e
       -0.8219547 -0.14691366 -0.020695835 0.32417363
000050 6e 45 36 3f ce f2 9b 3f c5 99 a9 bf d6 7f da 3e
       0.7119969 1.2183473 -1.3250052 0.42675656
000060 1f bb 49 be 34 24 61 bf 4a 8d 0a be da ac a4 bf
       -0.19700287 -0.87945867 -0.1353046 -1.286525
000070 63 6c bf be af 43 8f bf c0 77 18 c0 db b6 a7 bf
       -0.3738738 -1.119253 -2.382309 -1.3102678
000080 ef 0c e4 3e a9 31 8a 3f be 39 7c bf 2e 1f 6d 3f
       0.44541118 1.0796405 -0.9852561 0.926257
000090 a7 a1 e4 3f 78 7b 38 bf 68 ce a9 be d3 2e 6c bf
       1.7861832 -0.720634 -0.33165288 -0.9225895
0000a0 63 01 40 be 15 9e 92 bf f8 d0 a3 3d 71 0f 1f 3f
       -0.18750529 -1.1454493 0.07998842 0.62132937
0000b0 2d 32 5e 3f 59 a9 20 3e 8a 17 e6 3f 0c 6d d0 3e
       0.8679531 0.15689601 1.7975934 0.40708196
0000c0 17 28 3c 3f ed d9 a5 bf 97 17 3a bd 57 65 53 3e
       0.7349867 -1.2957131 -0.045432653 0.20644127
0000d0 68 e8 34 3e b1 e0 b9 3e fc 93 24 40 92 90 5a bf
       0.17666781 0.36304238 2.5715322 -0.85376847
0000e0 b0 a6 7f 3f 96 1a c2 3f fd ea 9d 3f 77 cc 8d be
       0.9986372 1.5164363 1.2337338 -0.27695057
0000f0 fa e9 8f 3f d4 87 b7 3e 07 cb 49 3e 8a e8 93 bf
       1.1243279 0.35845816 0.19706355 -1.155534
000100 61 02 29 bf ff 84 59 3f 41 81 a0 3d 0b 72 16 3f
       -0.66019255 0.8496856 0.07837153 0.58767766
000110 34 f0 b6 3c cf ed 87 3e 2c 27 93 be cf 80 db be
       0.022331335 0.2654862 -0.28740823 -0.4287171
000120 c4 c4 44 3f b7 70 4f 3f 92 1a ff bf e7 b9 7e bf
       0.7686274 0.81031364 -1.9929984 -0.99502414
000130 91 3a 1b 3e 24 3b c8 3e 3a d7 81 be 8a de ab be
       0.1515906 0.3910762 -0.25359517 -0.3356822
000140 52 8f c4 3e 4e d8 db 3f f5 d6 74 3f 24 27 4d 3e
       0.38390595 1.7175386 0.956405 0.20034462
000150 5f b8 c3 3e e3 ed 64 be df 21 67 bf c8 b2 9c bd
       0.382266 -0.22356372 -0.9028606 -0.07651287
000160 29 47 d0 bf d2 a9 c5 bf 3a 27 38 bf 2f 3d 08 be
       -1.6271716 -1.544245 -0.71934855 -0.1330459
000170 07 f0 27 3f 5e 6a 93 3e 0e 17 d5 bf 05 5e 9f bf
       0.6560063 0.2879209 -1.6647661 -1.2450567
000180 55 55 15 3f 1b 3e 59 3f 4c c6 24 bf 5f 6d 58 3d
       0.5833333 0.8486039 -0.64365077 0.05283868
000190 66 28 2b be e3 68 69 3f df ec 91 bf da ff 48 3f
       -0.1671463 0.9117567 -1.1400412 0.785154
0001a0 fc eb 60 3f b6 25 2c 3f 1c d2 15 bf 8a 51 7e 3d
       0.87860084 0.6724504 -0.58523726 0.06208948
0001b0 be 20 b4 3f f5 1a da be e6 c1 81 bf 65 68 a0 bf
       1.4072492 -0.42598692 -1.0137298 -1.2531859
0001c0 5b 88 4e bf 7a 2c a5 bf 64 a5 a0 bf 5a da a6 bf
       -0.8067681 -1.2904198 -1.2550473 -1.3035386
0001d0 3c 1b 58 bf 24 49 e9 bf b7 03 e7 3f fa 3a b7 be
       -0.84416556 -1.8225446 1.8048009 -0.35787183
0001e0 8a ae ed bc 63 b9 9f bf b2 3a 23 be c2 31 8a 3f
       -0.02901389 -1.247845 -0.15940359 1.0796435
0001f0 2e 03 be bf 4c f4 96 3e 7d a5 84 bf 72 92 e3 be
       -1.484472 0.2948326 -1.0363003 -0.44447666
000200 ed 00 47 bf 0f 5f ad 3f 5d 49 cc be 72 72 34 3e
       -0.7773579 1.3544635 -0.39899722 0.17621782
000210 fe 2b 97 3e be b5 e0 be 1c 99 83 bf a1 ae 1e 40
       0.2952575 -0.43888658 -1.02811 2.4794085
000220 85 ed e4 3f a4 bf 6c bd 43 82 25 3f 3f b0 a0 3f
       1.7884985 -0.05779995 0.6465189 1.2553786
000230 e0 32 a6 bf 71 86 d3 bf 26 43 67 3f a1 95 35 bf
       -1.2984276 -1.6525403 0.90336835 -0.7093144
000240 f4 44 ba bf cf e8 d8 3d cb 2b 9d 3f 7d cd 37 3f
       -1.4552293 0.1059128 1.227899 0.71797925
000250 db 05 96 bf 25 bb 0b bf 77 06 03 c0 1b c4 69 3d
       -1.1720537 -0.54582435 -2.0472696 0.057071786
000260 4e 7a 7f be 99 6d 97 bf 4c bd 31 3f 11 2b 32 3e
       -0.24949 -1.1830322 0.6942947 0.17399241
000270 16 e0 b3 3f 8c d7 24 bf 7d f6 53 3f cd e5 3f 3f
       1.4052761 -0.643914 0.82797986 0.74960023
000280 a2 33 29 bf 5b 6a b1 3f 79 6e ae bf f4 3b 29 bf
       -0.6609441 1.3860582 -1.3627464 -0.66107106
000290 16 b0 08 3f 2f d7 c6 bf 24 fb 97 3e b8 41 ff 3f
       0.53393686 -1.5534419 0.29683793 1.9941931
0002a0 ee 5c 81 3e 25 1c ee 3f 84 0e 88 bf 9b 95 ae bf
       0.25266212 1.8602339 -1.062943 -1.3639406
0002b0 6a 13 35 bf 69 91 c9 3f 2c 16 37 be a4 1b c0 3f
       -0.7073275 1.5747501 -0.17879552 1.5008435
0002c0 df 6e 40 3f 64 53 0a 40 46 d1 91 3e 01 72 9a 3f
       0.75169176 2.1613398 0.28479975 1.2066041
0002d0 32 84 37 3e 9f ba 90 be ad ff 8d bf 3f f8 64 3d
       0.17921522 -0.2826738 -1.1093651 0.05590081
0002e0 0e 01 37 3f ae 36 eb 3e 93 df dd 3f b5 7e dd 3f
       0.71485984 0.45940155 1.7333854 1.7304293
0002f0 e8 c0 08 3f 30 01 a6 bf 9a e8 b0 bf e7 ea 25 c0
       0.5341935 -1.2969112 -1.3820984 -2.5924623
000300 cd 1f 8b bf c8 9b 1f bf 69 80 c4 bd c9 fd 89 3e
       -1.086908 -0.6234708 -0.09594805 0.26951435
000310 ef b2 59 be 39 3c af 3e 5e 59 90 3e 56 de 8f 3e
       -0.21259664 0.34225634 0.28193182 0.28099316
000320 dd 96 48 bf 1e 21 14 40 81 70 a1 bf 1e b3 57 3f
       -0.783552 2.3145213 -1.2612458 0.84257686
000330 e0 16 05 40 fd 2f f7 bd 81 ae 80 bf b8 a5 70 bf
       2.0795212 -0.120697 -1.0053254 -0.94002867
000340 c4 d9 18 3f 8d d0 40 3f 3e 8f b7 3e 34 4e df bf
       0.59707284 0.75318223 0.35851473 -1.7445741
000350 50 2f 86 be 16 05 a1 3f 47 0c 21 bf 6d 7e 17 3d
       -0.26207972 1.2579677 -0.6290936 0.036985803
000360 d0 fb 56 3f 0d 92 90 be ac 9b 1c 3f 07 4f 82 3f
       0.83977985 -0.28236428 0.61175036 1.0180367
000370 77 c3 05 3f dd 32 60 bc 27 fe a4 3e 15 e0 80 3f
       0.5225138 -0.013684002 0.32225153 1.0068384
000380 1f 18 42 3e b6 75 bc bd 11 5f 44 be 8c 5c b7 bf
       0.18954514 -0.09202139 -0.1917689 -1.4325118
000390 61 27 88 3f 9e ae 91 be 58 22 b0 3f a1 2b 83 be
       1.0637017 -0.28453535 1.3760481 -0.25619224
0003a0 fe c0 2e 3f f6 ec 0d 3f 12 ff 29 3f 3d e2 af be
       0.6826323 0.554397 0.6640483 -0.34352294
0003b0 34 0f 4c 3e ad ba f0 bd 92 de 40 be 04 53 93 3f
       0.19927675 -0.117543556 -0.18834904 1.1509709
0003c0 15 5c c8 3f 88 7f 5f bf 4a 24 35 bf c7 a9 a5 3f
       1.5653101 -0.8730397 -0.707585 1.2942437
0003d0 7e 95 42 3f 84 74 81 3e d1 fe 4a 3f f5 ba 8d be
       0.76009357 0.25284207 0.7929507 -0.276817
0003e0 39 a0 74 be 50 d6 ad 3e 6a a7 02 bd 49 2d 75 be
       -0.23889245 0.3395257 -0.03189794 -0.23943056
0003f0 3c 6d 8d be 58 33 51 3f 9b 26 65 be c2 d9 ad 3f
       -0.27622402 0.8171897 -0.22378008 1.358208

weight_ih_l0 f4 [192, 17]
000000 c2 0d c9 bd 07 39 78 bd 94 14 cd 3d 6b ad 5f 3d
       -0.09817077 -0.06060126 0.100136906 0.054608744
000010 70 76 32 3e f9 bb 15 3d 01 5f 89 3e 46 65 95 bd
       0.17427993 0.036556218 0.26830295 -0.07294707
000020 15 1c ab bd 82 a9 2f 3e 64 44 b7 bd 05 6f 26 3d
       -0.083549656 0.17154506 -0.08948591 0.04063322
000030 31 80 4b be 5b de 0b bd bb 9d a1 bc d7 de 54 3d
       -0.1987312 -0.0341476 -0.019728532 0.05197033
000040 5f 88 7c 3d a5 76 da 3c 81 a4 0b 3e 02 8a 85 bd
       0.06165349 0.026667902 0.13636972 -0.065204635
000050 2f a2 5f be 18 48 0b 3e 6f 21 15 3e eb b7 f7 bb
       -0.21839212 0.1360172 0.14563535 -0.0075597665
000060 53 42 a6 3d a3 f4 a3 bd 5d df 10 3e 43 dd 00 3e
       0.08118119 -0.08005645 0.14147706 0.12584405
000070 c1 63 e2 3d 3e cf cb ba 57 af 95 3c 76 da 89 3c
       0.11054183 -0.0015549434 0.018272085 0.016827803
000080 49 17 9c 3d e3 9a ae bd 13 03 06 be 2e aa 76 3e
       0.07621629 -0.08525636 -0.1308711 0.24088356
000090 fd ab ef 3b bf 87 0c 3e 75 7d f8 3d df 25 0b be
       0.007314204 0.13723658 0.12133304 -0.13588665
0000a0 78 9f 53 be 6f b7 2c 3d d8 f1 59 be d5 5e d6 bc
       -0.20666301 0.042167123 -0.21283662 -0.026168266
0000b0 53 a8 75 bc bc 7d 6b 3d bc 9d 34 3e 67 62 ae 3e
       -0.014993745 0.057492957 0.17638296 0.3405945
0000c0 0d f8 de 3d bc af 52 3e 0d 28 09 be 50 3e 57 be
       0.10887156 0.2057485 -0.13394184 -0.21019864
0000d0 80 11 53 be 1d cf b9 3d 00 93 cd 3d 22 b4 b4 3d
       -0.20612144 0.09072707 0.10037804 0.0882342
0000e0 65 47 92 bd 40 37 cf bd f4 5a cf bb c2 d3 07 3e
       -0.07142524 -0.1011796 -0.006327981 0.13264373
0000f0 03 e2 71 3d f1 50 f5 3d e2 c8 06 3d e5 17 67 3e
       0.059053432 0.11978329 0.03290642 0.22567709
000100 c8 45 47 3e 00 1b 47 be 0d 2d de 3b cc d6 aa 3d
       0.19460213 -0.19443893 0.006780273 0.083417505
000110 83 ae a1 bc db 86 2a 3e 9f 9d 63 be 26 f6 12 3e
       -0.019736534 0.16653006 -0.22228096 0.1435171
000120 95 17 01 3e a1 46 29 bc ba cf 7f 3d 77 63 43 3e
       0.12606652 -0.010331781 0.062453963 0.19080912
000130 57 b6 23 be e9 9c 20 3e 47 e7 4f 3e e8 98 8b 3d
       -0.15987526 0.15684856 0.20303069 0.06816274
000140 98 9e 4b 3e 62 2d ec 3d 4b f2 60 3e c5 5e 1d 3e
       0.19884717 0.115320936 0.21967427 0.15368183
000150 cf e9 c2 bc 60 44 b9 bd 72 6f f5 3c b1 b3 ba bc
       -0.02379313 -0.090462446 0.029960368 -0.022790762
000160 4b 6e 09 bd d2 a9 1b bd df bf 09 bd fe c3 1a be
       -0.03355245 -0.03800375 -0.03363025 -0.15113828
000170 6b b4 81 3d d7 02 0e be fc f2 07 3e 91 7e ae bb
       0.0633324 -0.13868271 0.13276285 -0.0053251465
000180 40 9e 89 bc 0a 80 c2 3c 07 fb a0 bc 0d 93 2f be
       -0.016799092 0.023742694 -0.01965095 -0.17145939
000190 db 30 c2 bd 44 3b 78 be 65 5d 13 3e 3c bf b6 bd
       -0.09481975 -0.24241358 0.14391096 -0.08923194
0001a0 d4 d0 e8 bb f9 d0 79 bd 8c bf 00 3d fe 6b 8f 3d
       -0.0071049724 -0.060990307 0.031432673 0.0700302
0001b0 9d a6 e0 bd df 51 9b bd 03 00 6a be 34 85 e3 bd
       -0.10969279 -0.07583975 -0.22851567 -0.11109391
0001c0 92 39 39 be 79 8a d6 bd 28 d4 92 3d c0 7e 1f 3e
       -0.18088368 -0.1047563 0.07169372 0.15575695
0001d0 a0 52 55 3d ef 2f 47 3e 81 8c 09 3e 94 e2 15 be
       0.05208075 0.19451879 0.13432504 -0.14637214
0001e0 2b 8e 98 3e 33 43 36 be 2e 5d 51 3e a9 06 b1 3c
       0.29795966 -0.17799072 0.20445701 0.021609621
0001f0 85 ba 83 bb d9 7a a3 3e d5 66 75 3e b5 0a 0a be
       -0.0040200376 0.31929663 0.23965009 -0.13480647
000200 d0 cb bd 3d b0 9b ec 3d 79 07 84 3d 40 05 0e be
       0.0926739 0.115531325 0.06446738 -0.1386919
000210 41 5c a4 bd 1a e5 eb 3d ba 4f 11 be 3b 0b ba bd
       -0.080254085 0.11518307 -0.1419057 -0.09084173
000220 b7 e6 01 3e 49 e7 73 3e 79 7b 77 3e 01 c5 3b 3e
       0.12685667 0.23818697 0.24168195 0.1833687
000230 79 5d a3 39 14 c5 50 3e d5 07 4c 3e b0 b9 03 be
       0.00031159425 0.2038768 0.19924863 -0.12863803
000240 26 22 07 3e f7 c3 5c be 20 d0 e7 bd db 33 d8 bc
       0.1319662 -0.2155913 -0.113189936 -0.026391914
000250 84 5a 49 bd 69 76 e7 3c 1f 50 0a be 4e 70 ad 3d
       -0.049158588 0.028254705 -0.13507126 0.08468686
000260 f8 af f3 3d 63 d9 10 3b c5 19 0a 3e cc 1e 00 be
       0.11898798 0.0022102229 0.13486393 -0.12511748
000270 c4 ed c7 bd 73 11 91 be 80 38 86 be ab 4d b7 be
       -0.09762147 -0.28333625 -0.2621498 -0.35801443
000280 db 13 49 3e 79 13 ed 3c db c1 21 3e f4 4e 46 3e
       0.1963648 0.02893995 0.15796606 0.19366056
000290 bb e2 7b 3b 14 4d bf 3e 3d ad fe 3d 27 e0 24 3e
       0.0038434702 0.37363493 0.12435386 0.16101132
0002a0 c6 9f 1a 3e 5d 42 3e bc 2c c0 d0 3d 4b ee 08 3e
       0.15100011 -0.011612502 0.10192904 0.13372152
0002b0 2f d9 c7 bd b8 06 0b bd e8 8a 4a bd ec 62 26 3e
       -0.09758221 -0.033941954 -0.049448878 0.16248673
0002c0 56 4b a0 3d 4f 6c 47 3a e9 cb 9b 3d e1 e0 74 3e
       0.07826869 0.0007607387 0.07607252 0.2391391
0002d0 5e 76 82 3d e1 c0 1f bd ff 6a 55 bd 3e 4e 90 3d
       0.06370233 -0.039002303 -0.052103993 0.070461735
0002e0 22 51 d8 3c 97 1a 84 bd 84 27 eb bd 57 0c 2c 3e
       0.026405875 -0.06450384 -0.114821464 0.16801582
0002f0 26 f1 50 3e a6 e8 ee 3d 27 cf ac bd 19 4d 81 3d
       0.20404491 0.11665468 -0.08437949 0.06313533
000300 18 da 27 3d a4 ac f7 3c a6 18 5e 3e a4 28 52 be
       0.040979475 0.030233689 0.2168909 -0.20523316
000310 26 78 0f be 68 3d 51 3e 13 1a b8 3d da c2 b0 bd
       -0.14010677 0.20433581 0.08989348 -0.08630915
000320 f5 20 24 3d cb 09 99 3e d0 d4 5a bd 24 2c 43 bc
       0.040070493 0.29890284 -0.05342561 -0.011912379
000330 9f ac fe 3d e4 11 0b be 2c b8 9e bd b3 35 2e 3d
       0.124352686 -0.13581043 -0.07749972 0.04253168
000340 e2 9f 88 be a9 e1 c7 bd b3 05 38 be 4d 64 01 3c
       -0.2668448 -0.09759838 -0.17970924 0.007897449
000350 76 a8 17 3e 00 c6 01 be 0f 4a 9d 3a 06 60 80 bd
       0.14810356 -0.12673187 0.0012000221 -0.06268315
000360 fb ab c4 bd 47 24 b9 bd e2 59 04 bd 6c 17 9c bd
       -0.09603115 -0.090401225 -0.03231228 -0.07621655
000370 4e 61 1c be 12 bb 41 3d b1 e9 06 3e e5 87 f9 bb
       -0.15271494 0.047297545 0.13175084 -0.007615077
000380 f0 1e c2 bd fe 96 6b 3d 73 73 37 3e 6b 8a e1 3d
       -0.09478557 0.057517044 0.17915134 0.11012729
000390 63 84 f6 3c c1 c5 f3 bd aa 65 4d be d2 10 f0 bd
       0.030092424 -0.11902953 -0.20058313 -0.11721958
0003a0 90 95 4f bc 97 dc 30 be dd 62 44 3e 58 32 1b 3d
       -0.012669936 -0.17271648 0.19178338 0.03788981
0003b0 44 c2 04 bd bc 0c 77 bd 04 95 0e bd 0b 59 84 bd
       -0.03241183 -0.06031488 -0.03481008 -0.06462296
0003c0 70 4a ab 3c 68 da cf bc a7 ca 70 3e c1 e5 fc 3b
       0.020909518 -0.025372699 0.23514806 0.0077178185
0003d0 04 2d d0 bd d2 53 1a bd 0d f0 21 bd 11 ab ec 3c
       -0.10164836 -0.037677594 -0.03953557 0.028890165
0003e0 28 ac a5 3c a7 92 10 bd f8 3e ff 3d a4 2c 9a 3e
       0.020223692 -0.03529611 0.12463182 0.30112183
0003f0 69 fd 43 3e 43 63 93 3e 9d 40 6d 3e e2 c2 82 3d
       0.19139637 0.28786668 0.2316918 0.06384827

weight_hh_l0 f4 [192, 64]
000000 4b bf 3e bc 07 29 dd 3d c2 77 7f 3c 3e a2 20 3e
       -0.0116422875 0.10798841 0.015592517 0.1568689
000010 07 3a 9c bd be ed 24 bd 2d f7 a4 bc c9 08 1f 3d
       -0.07628255 -0.04026579 -0.020137394 0.038826738
000020 81 b7 f2 bd 25 d7 0c 3d 4e fc 25 3d d1 49 98 bc
       -0.11851407 0.034384865 0.04052382 -0.018589886
000030 b7 67 ab 3d 7a 0c c4 3d 88 44 2f 3d 9f c2 2d bd
       0.083693914 0.09572692 0.042789966 -0.042421933
000040 c5 65 82 3d f3 c7 a5 bc f0 41 32 3d 92 09 2d bd
       0.06367067 -0.020236945 0.043519914 -0.042245455
000050 92 47 b5 bd ac 5c 91 3d 3f 2f 21 be 37 d5 c9 3c
       -0.088515416 0.07097754 -0.15740679 0.024637802
000060 b6 81 fd 3d ae 54 8b 3c 24 46 ef bd df 71 a0 bd
       0.12378256 0.017008152 -0.116833 -0.07834219
000070 71 e3 db 3d 13 4d 15 3e 43 97 27 bb 68 a6 fc bd
       0.107367404 0.14580183 -0.0025572337 -0.12336427
000080 14 64 88 bc 73 c9 15 3d 98 53 a3 bd ad 57 05 be
       -0.016649283 0.03656907 -0.079749286 -0.13021727
000090 6b aa af 3d 84 9d 2d 3b 77 6c 74 3e 6f b8 1c be
       0.085774265 0.0026491592 0.23869501 -0.15304731
0000a0 e8 71 3a be f5 ea 09 be 89 d6 4c be 9b fd b3 3c
       -0.18207514 -0.13468535 -0.20003714 0.021971514
0000b0 ea 65 05 bd f3 5e fe 3d 63 ac 33 bd 31 7b e2 bc
       -0.032567896 0.12420454 -0.043865573 -0.027646633
0000c0 b4 46 14 3e 5d bd d0 3d 9b 89 a8 bc 5a 42 5a bd
       0.14480096 0.10192368 -0.020573428 -0.053285934
0000d0 42 bf 1f bc 6f d7 68 3d 48 6c d3 3b 37 2e 12 3e
       -0.009750189 0.05684608 0.006452117 0.14275442
0000e0 c5 ad cc 3b b2 7a b7 bd aa 7a a7 bc b8 90 bc 3d
       0.006246301 -0.08958949 -0.020444233 0.092072904
0000f0 cf 9d 5b bd 6e 91 4b be 9b c1 1a 3d 3b b6 86 bd
       -0.053617295 -0.19879696 0.037782293 -0.065777265
000100 1b c5 3d 3d 65 7d 06 bd d8 3b 14 3e ef 64 de 3d
       0.046330553 -0.03283443 0.14475954 0.10859095
000110 02 8b c6 bc 44 ad 72 3d 5d 0f 09 bd 9a a5 bd bd
       -0.024236206 0.05924727 -0.033461917 -0.092601016
000120 22 24 09 bd ca 27 3e 3d 6e ba 92 3d e6 71 2f be
       -0.033481725 0.046424665 0.07164465 -0.17133293
000130 fa 2f be bd 1e d4 df 3c 08 5e 29 bd 53 2c a3 bc
       -0.092864946 0.027322825 -0.04134944 -0.019918596
000140 f7 98 16 be 74 39 ab bd 29 a2 27 be 37 e0 09 3e
       -0.14706789 -0.08360568 -0.16370453 0.13464437
000150 9f 84 1f be 1c d2 14 bd 3e 96 a6 bd a8 ce 6d bd
       -0.15577935 -0.03633319 -0.08134125 -0.05805841
000160 db bd d3 3c 2d 33 21 3d 00 91 43 3d 4a e7 1c b9
       0.025847366 0.039355446 0.047745705 -0.00014963481
000170 09 7b cb bd 1d 62 24 3e 49 d3 d4 3d af 02 2e 3c
       -0.099355765 0.16053052 0.10391862 0.010620757
000180 bb 02 7b 3d 5b f8 3b be cf 91 89 bd 46 59 6f 3d
       0.0612819 -0.18356459 -0.06717264 0.058434747
000190 db 18 e6 3d 97 56 9f bd 07 63 12 3e 73 08 82 3d
       0.112352096 -0.077801876 0.14295588 0.06349268
0001a0 1b fa db bd 30 6b fa bd 86 8f 3d 3c 03 53 2d 3e
       -0.10741063 -0.12227476 0.011569863 0.16926198
0001b0 a4 ff 97 3d 21 56 ea 3d 15 f2 b0 bd e2 0a 98 3c
       0.074218065 0.11442209 -0.086399235 0.018559877
0001c0 c1 08 69 3d 5e 52 90 bd 55 4d 8c 3d 78 93 90 3d
       0.056893114 -0.0704696 0.068506874 0.070593774
0001d0 2d db 7f 3d 22 a1 53 3d c8 3f 80 3d b7 29 1b 3e
       0.06246488 0.05166734 0.06262165 0.15152632
0001e0 fd 06 66 3c d2 c8 80 3d e9 fd 07 be d2 24 14 bd
       0.014039752 0.062883034 -0.13280453 -0.036167927
0001f0 9f f7 b5 bd d2 95 8e bd 5a cf 96 bd e9 75 b3 3d
       -0.088851206 -0.0696217 -0.07363768 0.08762724
000200 77 57 40 3d bf 55 66 3d 4c 73 af bd a7 0a 92 bd
       0.046958413 0.056234118 -0.08566913 -0.07130938
000210 b4 aa e2 bd bc 0b 01 be ca 2c 42 3e c3 6a 07 bd
       -0.11067715 -0.12602133 0.18962398 -0.0330608
000220 f5 16 29 bd a3 ae 29 bd 22 49 99 3b f4 55 16 3d
       -0.04128166 -0.041426312 0.0046779076 0.036703065
000230 83 b5 37 bd 6f 5a 94 3d a7 8b df bd c1 a8 7c 3b
       -0.044850837 0.07243811 -0.109153084 0.0038552734
000240 ec d0 0a bc 07 bd ce 3b cf c4 e9 bd 1c 30 2d bd
       -0.008472662 0.006309155 -0.114144914 -0.04228221
000250 57 79 4b bd 84 27 38 3d d1 5a 44 bc 21 95 d2 bd
       -0.049676266 0.04495956 -0.011984543 -0.1028235
000260 25 bc ba bd 76 40 92 bd 0a b3 12 3d 01 01 bd 3d
       -0.09117917 -0.07141201 0.035815276 0.09228707
000270 d8 55 09 be 51 0b 34 bc b2 cd d1 3d 33 8f 29 be
       -0.13411653 -0.010989026 0.102443114 -0.16558532
000280 97 98 81 bc 39 3f a6 bd bc 94 22 3e d6 03 34 3d
       -0.01581983 -0.081175275 0.1587705 0.04394897
000290 29 0d 90 3d 11 af 9b bb b6 f7 85 bd e3 97 55 bb
       0.0703376 -0.004751094 -0.06541388 -0.0032591752
0002a0 80 66 9e 3d b0 57 aa 3d 23 b5 11 3e ce 9f b9 bd
       0.07734394 0.08317506 0.14229254 -0.090636835
0002b0 99 5e ad bd 16 fa de bd a6 32 d2 3d 4e 18 e2 bd
       -0.08465309 -0.10887544 0.10263567 -0.11039792
0002c0 62 9e 20 bd 5c dc aa 3c 7c f6 27 bd 85 6a e4 bd
       -0.039213546 0.020857029 -0.04100655 -0.111531295
0002d0 c8 95 6a bd 3a d7 e4 bd 76 ed 8f 3d 29 73 3b be
       -0.05727175 -0.11173864 0.07027714 -0.18305649
0002e0 47 79 93 bd 7b 65 76 3e f5 b8 41 3d 47 c8 f3 3d
       -0.07200866 0.24062149 0.04729553 0.11903434
0002f0 ae 00 13 3d 70 94 d5 3d 74 b9 f8 bc 33 0f ac 3d
       0.03588932 0.10428703 -0.030361868 0.084013365
000300 07 16 34 bd 6e 7e b6 bb 67 e1 e2 3b c5 1b 3a be
       -0.04396632 -0.005569271 0.0069238427 -0.18174656
000310 f5 52 e4 3c 72 3d 02 be 68 a0 86 3c e6 a6 3a 3e
       0.027871588 -0.12718752 0.01643391 0.18227729
000320 57 4e 06 3e 1f 33 c0 3d 68 64 01 3d 67 c5 11 bd
       0.13115822 0.093847506 0.031589895 -0.03558865
000330 f6 69 1f 3a ca c4 c1 bd 80 81 06 3e 5e a1 95 bc
       0.0006081158 -0.09461363 0.13135338 -0.018265422
000340 34 26 e4 3c 72 f7 88 bd 0f 4f 96 bb d1 a1 de 3d
       0.027850248 -0.066878214 -0.0045870612 0.10870708
000350 8d e3 a0 3c 5d 91 9c 3d bf d5 b1 3d 02 a4 4f 3d
       0.019639755 0.07644913 0.08683347 0.05069352
000360 88 6e 60 bd d3 c4 7a be 4c b4 bb bd ee 2e 1f be
       -0.05479291 -0.24489145 -0.09165248 -0.15545246
000370 d5 50 83 be 5c 50 ba bd 17 74 1f 3e 39 9a 2d 3e
       -0.25647607 -0.090973586 0.15571629 0.16953363
000380 e8 41 c4 bd a8 37 09 3e 07 be 05 bd c5 0c 90 bd
       -0.09582883 0.13400137 -0.032651927 -0.070336856
000390 40 eb 59 be a4 cb 71 3d 98 42 a6 bd 6c 25 b0 bd
       -0.21281147 0.059032097 -0.081181705 -0.08600888
0003a0 47 00 9c bc f1 9d 56 bb 74 52 6d bc f7 bf bb bc
       -0.019043101 -0.003274795 -0.01448499 -0.022918684
0003b0 31 3e ce 3d 01 0d 1a be 7a 59 11 bd c2 41 ba 3c
       0.10070456 -0.15044023 -0.035485722 0.022736434
0003c0 9e ce 18 3d 01 a3 cf bc 7e 58 dd bd 03 a2 9c 3c
       0.03730642 -0.025346281 -0.10807894 0.019120222
0003d0 bb a5 e5 3c 71 6f 60 3d 7e 55 ff bd 95 67 f8 bb
       0.028033128 0.05479378 -0.12467478 -0.0075807073
0003e0 c3 67 29 be 1b 51 17 be 8d 12 96 3c 9f 89 df bc
       -0.16543488 -0.14777033 0.018319393 -0.027287303
0003f0 a0 9e ac 3d d3 bd 5c bc 7c ae 0d 3e c4 57 21 be
       0.08428693 -0.013472992 0.13836092 -0.15756136

bias_ih_l0 f4 [192]
000000 04 67 4f 3c 91 46 e7 3c 72 22 99 3b 18 37 f6 bc
       0.012658838 0.02823189 0.0046732957 -0.030055568
000010 05 62 3c be dd 34 f3 39 c7 0d c1 3d 67 48 1c be
       -0.18396766 0.00046387958 0.09426456 -0.15261994
000020 99 d8 25 bc 4e 62 aa 3d f4 c4 07 3e e7 1a 04 3d
       -0.010122442 0.083195314 0.13258725 0.03225222
000030 0f 8b c2 3d 7e 10 bc bc f5 81 51 3e 3a 9f e1 3d
       0.094991796 -0.022957083 0.20459731 0.11016698
000040 f6 aa 47 3e a2 e7 36 3d 99 11 76 bd 69 5e b1 3d
       0.1949881 0.044654496 -0.060075376 0.086605854
000050 75 16 c5 3d 87 98 d9 3d 72 88 f3 3d e1 c4 05 bd
       0.09623424 0.106247954 0.11891259 -0.03265846
000060 ed 76 2c bd 40 23 77 3e 63 89 11 3e 01 05 62 3d
       -0.042105604 0.2413454 0.14212565 0.055180553
000070 b4 7d cc 3c 08 20 76 3d bd dc ae bd 3f 64 03 38
       0.024962284 0.06008914 -0.08538196 3.1326195e-05
000080 10 0d c9 3d 11 a1 32 bd 71 8d 94 bd 44 b1 00 3e
       0.098169446 -0.043610636 -0.0725354 0.12567621
000090 ed fb 50 3d 1d 54 5a 3b 74 27 03 3e 6a 4b 2e bc
       0.051021505 0.0033314296 0.12808019 -0.010638097
0000a0 2a 0c b5 bc 7b a4 66 3d 29 5a d1 3d a7 32 12 3d
       -0.022100527 0.056309205 0.10222275 0.035692837
0000b0 73 d9 57 bd 35 58 11 3d e4 7b d9 bc bc 60 cf bc
       -0.05269761 0.03548451 -0.026548333 -0.025314681
0000c0 7f 5c 8c 3d 37 d4 72 bc 05 42 d6 3d 40 5e fb bd
       0.0685358 -0.014821104 0.10461811 -0.12273836
0000d0 b9 38 72 bd d5 2e 2c bc 05 73 23 3d d0 29 8a bd
       -0.059136126 -0.0105092125 0.039904613 -0.06746256
0000e0 4f c3 c4 3c 5d 44 33 3c ff 62 da 3d f4 1c fe 3c
       0.024018912 0.010941592 0.10663413 0.031019665
0000f0 a3 fb cb 3c b4 67 55 3e 3b 3d 53 3d f2 8a ca 3d
       0.024900263 0.20840341 0.051572066 0.09889783
000100 98 5b 80 be 7f 97 fb bd 25 97 5b be ae 5d 95 be
       -0.2506988 -0.12284755 -0.21444376 -0.29173034
000110 5a d9 de bd 77 53 4d be 5a f4 7a be c3 5b 13 be
       -0.108813 -0.2005137 -0.24507275 -0.14390473
000120 73 16 8c be df 0e 75 be c4 60 17 be 09 92 6d be
       -0.27360877 -0.23931454 -0.14783007 -0.23200239
000130 47 32 7d be 29 ae f1 bd 8a 92 69 be 34 51 8d be
       -0.2472621 -0.118007965 -0.22809806 -0.27601016
000140 43 c9 96 be 69 cd 2a be 36 84 38 be e5 45 28 bd
       -0.29450426 -0.1667992 -0.18019184 -0.04108228
000150 f3 36 05 3d 05 89 a7 bd cc 67 c3 bd e3 00 38 be
       0.032523107 -0.08180431 -0.09541282 -0.17969088
000160 cb 4a b8 be 6c 83 87 be d9 04 87 be d3 aa b2 be
       -0.35994563 -0.26467454 -0.26370886 -0.34895954
000170 aa 5c 27 3c 4b b8 a8 be f0 00 61 be d2 b8 85 be
       0.010214964 -0.32953104 -0.21973014 -0.2611757
000180 4f e8 af 3d 65 43 56 be 22 7d 84 bd 88 4c 3b be
       0.08589231 -0.20924146 -0.0646918 -0.18290913
000190 47 43 33 3d f8 42 f5 bd a5 5b 6c be 0d 77 38 be
       0.043765333 -0.11975664 -0.23081835 -0.18014164
0001a0 f7 e0 94 be 0a da de bd 69 f1 7b be 78 8c 06 be
       -0.29077885 -0.108814314 -0.2460381 -0.13139522
0001b0 97 fb d1 3c b5 e0 b0 be 84 f1 41 3b da 44 a8 3d
       0.025632663 -0.34546438 0.0029593417 0.082162574
0001c0 c3 e7 5e be 42 ae 8b be 24 d1 91 be 30 09 3a be
       -0.21768098 -0.27281386 -0.28479874 -0.18167567
0001d0 93 ae d9 bb a0 53 36 be ca 75 76 be 5b 1e 01 be
       -0.0066431253 -0.17805338 -0.2406837 -0.12609236
0001e0 18 e1 01 be f0 a1 3c be 68 ed e3 bd 44 1d b9 bd
       -0.12683523 -0.18421149 -0.11129266 -0.09038785
0001f0 27 99 f7 bd 2d 82 49 be 1a a1 57 bd e7 4a 37 be
       -0.12089758 -0.19678564 -0.052643873 -0.17899667
000200 ed 5e 76 3d 04 d3 54 bd dc ba 96 3d 7e 63 03 3e
       0.060149122 -0.051959053 0.07359859 0.12830922
000210 f3 8f 53 3c e9 44 3f 3e 04 94 cb bd d7 04 20 3c
       0.012912738 0.18678631 -0.09940341 0.009766779
000220 52 fb 8a bd e0 e6 9b 3c e3 25 e1 3b 96 4e f3 bd
       -0.06786217 0.019030988 0.0068709715 -0.118802235
000230 8f 0c 17 3e 30 73 3b bd 7e f1 fa bd 03 c1 e3 bd
       0.14750884 -0.04576415 -0.12253092 -0.111207984
000240 82 e6 0d bd f7 04 25 3e 7e 48 56 3c 23 44 95 3d
       -0.034643658 0.16115175 0.013078807 0.07288387
000250 f1 34 11 3e 4c f6 30 3d c3 07 34 3d 6c 08 04 3d
       0.14180352 0.043203637 0.043952715 0.032234594
000260 83 3a a3 3c 51 86 06 3e 79 e0 2a bd 3c ab 17 be
       0.019925361 0.13137175 -0.04171798 -0.14811414
000270 99 9b 40 3c 0c ae aa 3d 09 7e af bd 4b 20 52 be
       0.011755847 0.08333978 -0.08568961 -0.20520131
000280 d0 68 9d 3b 26 b5 07 be c5 16 62 bd 75 6b 60 bd
       0.0048037544 -0.13252696 -0.055197496 -0.05478998
000290 23 a5 8e bd 9e 83 ef 3c 20 8e f3 3d ba 19 ee bd
       -0.06965091 0.029237565 0.118923426 -0.11626001
0002a0 15 5b 07 be 4b 70 86 bd 72 bd 2e bd 40 d2 98 3d
       -0.13218339 -0.06564387 -0.042661138 0.07461977
0002b0 a1 c5 76 bc 90 ff c1 3b b9 cf 4a bc c7 84 2e 3d
       -0.015061767 0.005920358 -0.0123786265 0.042607095
0002c0 e2 52 58 3b 61 cb e5 bc 4f 15 d8 3c a3 94 21 bd
       0.0033008386 -0.02805108 0.026377348 -0.03944839
0002d0 31 4b 08 3e 02 1e 2c 3e 11 14 e4 3d f9 ba 97 3d
       0.13309933 0.16808322 0.1113664 0.07408709
0002e0 71 8c ca bd da dc 25 bd a5 9d d1 3b 2c 83 4a 3e
       -0.09890068 -0.040493824 0.0063969665 0.197766
0002f0 9e ac 8c bd a6 26 0e 3e 6a ac d5 bd c6 88 0c be
       -0.068688616 0.1388193 -0.10433276 -0.1372405

bias_hh_l0 f4 [192]
000000 5b c9 63 3c c4 c2 5e 3d be 85 f8 bd ce 4a be bd
       0.013902987 0.05438496 -0.12134884 -0.092916116
000010 b9 a4 61 bc a6 32 09 3e 65 8b 0e 3e 01 31 18 be
       -0.013772183 0.13398227 0.13920362 -0.14862444
000020 3a 0e 36 bd 86 11 79 bd 2e 27 95 3c 90 3c 32 3d
       -0.04444716 -0.060807727 0.018207159 0.04351479
000030 d5 a2 d6 bb d8 18 93 3d 55 36 62 bc 0b f9 c7 3d
       -0.006550173 0.07182473 -0.013806899 0.09764298
000040 9b e0 89 3d 98 2d 08 3e 9c 3f 4b 3a 13 44 b1 3d
       0.06732293 0.13298643 0.0007753314 0.08655562
000050 9f 6e b0 3c 10 7b a2 bd 86 d7 b4 3c 52 04 28 3e
       0.021537123 -0.079336286 0.022075426 0.16407898
000060 fe 9f cf 3d 0c a3 45 3e fd ba 37 bd f5 cd f7 bc
       0.10137938 0.19300479 -0.04485606 -0.030249575
000070 44 a3 fb 3d 5d c2 f5 3d 68 cf 09 3e c1 91 39 bd
       0.12287 0.119999625 0.13458025 -0.045305017
000080 f9 6f 3f bd c4 29 25 3d a4 fc f2 bb 07 67 ac 3d
       -0.046737645 0.040323034 -0.007415371 0.084180884
000090 91 2c 25 3e 6c 19 86 3d c9 68 22 bc 79 9f f4 bc
       0.16130282 0.065478176 -0.009912678 -0.029861199
0000a0 59 e9 19 bb e7 fc f6 bd 3d 70 63 3d 64 34 a2 3b
       -0.0023485033 -0.12059956 0.05552696 0.004950093
0000b0 68 9f c8 bb 92 4c 35 3e cc 62 30 3e fa 3a 23 3e
       -0.0061225183 0.1770499 0.17225188 0.15940467
0000c0 75 0a fd 3c b7 ad 45 bd 20 3c ae 3d 28 1e f3 bd
       0.030888775 -0.04826137 0.08507562 -0.11870986
0000d0 a6 8f 51 bd ee 05 a6 bd 6d a4 78 3c a7 c2 c9 3b
       -0.051162384 -0.081066 0.015175921 0.0061572376
0000e0 d0 58 a6 bd 5f 5d 7b bc c9 fe 85 3c 53 76 cc 3d
       -0.081224084 -0.015342086 0.016356843 0.09983506
0000f0 22 7b 6b bc c1 af 66 3e 68 30 3f 3d df 2f 74 3e
       -0.014372619 0.22527982 0.046677023 0.23846386
000100 32 59 61 be 87 4e 10 bd ed bf 0f be 5b 32 47 be
       -0.22006682 -0.03523114 -0.14038058 -0.19452803
000110 c8 ab 82 bd dc e5 84 be ee c9 97 bd a8 72 e5 bd
       -0.06380421 -0.2595662 -0.07411562 -0.112035096
000120 f4 f9 8f be aa 4b 09 be 9c b9 0a be 17 4e ad bd
       -0.28120387 -0.1340777 -0.13547367 -0.0846216
000130 fe 6f 58 be 1b e2 1f be c0 c0 a1 be a2 27 01 be
       -0.21136472 -0.15613596 -0.3159237 -0.12612775
000140 a2 6b a4 be b7 3f 97 be 4b c0 f4 bd 40 06 17 3d
       -0.32113367 -0.29540798 -0.119507395 0.036871195
000150 8c 75 bc bd 1f 0c 8d be ef f1 a7 be a7 4a 4b be
       -0.09202108 -0.2754831 -0.32801768 -0.19852696
000160 ae d3 55 be b8 f7 ac be 17 7d 0c be a7 cb df bd
       -0.2088153 -0.33782744 -0.13719593 -0.109275155
000170 13 15 c3 bd 55 38 79 be 60 86 0a be 6e f5 89 be
       -0.09525504 -0.24337895 -0.13527822 -0.2694506
000180 c5 22 cc 3d 3a 3c a8 bc 65 7f 15 bd 87 dc 71 be
       0.09967569 -0.02053653 -0.036498446 -0.23619281
000190 18 93 6b 3c 5c 8d d9 bd ba 3f 35 be a9 a6 6c be
       0.014378332 -0.10622665 -0.17700091 -0.23110451
0001a0 24 38 69 be 09 28 8b bd af 77 8d be 38 11 61 bd
       -0.22775322 -0.067947455 -0.27630374 -0.05494806
0001b0 fd 10 74 bd e5 87 9a be df 10 3f bc 30 62 95 3d
       -0.059586514 -0.30181804 -0.011661737 0.072941184
0001c0 84 72 f8 bd 4a 65 bf be 85 26 76 be 7f d3 45 be
       -0.12131217 -0.37381965 -0.24038132 -0.1931896
0001d0 16 58 9d 3b d7 12 9e be 76 fc af be cf 3e 27 be
       0.0048017604 -0.3087375 -0.343723 -0.16332553
0001e0 f1 22 25 be ef 8a 81 be f8 ea 07 be 08 7e a4 bd
       -0.1612661 -0.2530131 -0.13273227 -0.08031851
0001f0 25 38 82 be 0b 06 9b bd f3 1f 87 bd 48 b5 31 be
       -0.2543346 -0.07569512 -0.06597891 -0.1735431
000200 c3 ad 2c 3e 87 68 ca 3d 59 64 44 3d 4c 5b 9c 3c
       0.1686316 0.09883218 0.04794726 0.019086502
000210 d4 4a 59 3d 5e 05 65 3d 6f 26 9d bd 19 7c 64 ba
       0.053049877 0.05591332 -0.07673346 -0.0008716002
000220 0f f9 98 bd 29 ab 41 3c 32 30 f9 bc 90 1d 54 be
       -0.07469379 0.011820593 -0.03041849 -0.20714402
000230 e2 fb f7 3d 32 7b f0 bd 5c bf c7 bd 22 a4 4d 3d
       0.1210859 -0.11742248 -0.09753296 0.050205357
000240 f5 d3 23 be 74 97 2a 3e 5d bf 10 be 1f 1d cd 3d
       -0.15998824 0.16659337 -0.141355 0.1001532
000250 dc e6 a5 bd b5 65 f0 bc c3 d4 01 be 6f 58 87 3d
       -0.081006736 -0.029345373 -0.12678818 0.06608664
000260 da 61 ae 3d c5 31 03 3e 74 3a cc bd 25 63 98 bc
       0.085147575 0.12811954 -0.099720865 -0.018601963
000270 08 6c 6a 3d f5 00 35 3d 65 ff c0 bd a6 f0 d0 bc
       0.057231933 0.044190366 -0.09423713 -0.025505375
000280 43 dd 22 3c 00 8c 4c be 9f 1f 3c be 1c f9 0a be
       0.009940448 -0.19975281 -0.18371437 -0.1357159
000290 f0 53 f9 3d 26 c0 85 3b e6 5f cb 3c 37 61 b6 bd
       0.12174213 0.004081744 0.024826001 -0.08905261
0002a0 aa 94 92 bd cc 06 77 3d 2c 9e 59 3c 3d e1 35 bd
       -0.07157262 0.060309216 0.01328234 -0.044404257
0002b0 8f a5 66 bd 96 28 61 3e 63 5f af bc cd 2a 6a 3d
       -0.056310233 0.21988139 -0.021407789 0.057169724
0002c0 ed f6 16 3c fa 72 3e 3d 48 e6 58 3e ff 79 c0 bd
       0.009214145 0.04649637 0.21181595 -0.09398269
0002d0 3f 43 e5 3c 1d be 39 3e dc 22 67 3d 3b 43 2d 3e
       0.027986167 0.18138929 0.05642973 0.16920178
0002e0 e3 f0 bc bd 1a c8 d1 bd d4 36 1f be 82 f4 83 3e
       -0.09225633 -0.102432445 -0.15548259 0.25772482
0002f0 9c e0 34 bd 11 48 35 3e 05 51 d3 3c 8f ea 1e be
       -0.044159517 0.17703272 0.025795469 -0.15519165

weight_ih_l1 f4 [192, 64]
000000 af 87 37 3e 30 8b 32 bd 9a 12 ff 3d df b6 ec 3c
       0.17922853 -0.04358977 0.1245472 0.028895793
000010 05 67 bf bd 96 e8 65 be e9 8e 59 bd 2f 53 01 be
       -0.09345821 -0.22452006 -0.053114805 -0.12629388
000020 ad 6b ba 3c 9c 29 21 be 4b 00 3e 3d c3 a5 b6 bd
       0.022756422 -0.15738529 0.046387 -0.08918335
000030 db 99 92 be 19 87 66 bc 23 a6 15 3e 83 16 65 3c
       -0.28633007 -0.014070296 0.14614157 0.013982418
000040 ab c8 a0 3c c3 60 cd 3c aa b4 89 3d 35 10 40 bd
       0.019626936 0.025070554 0.06723912 -0.046890456
000050 c6 5d 2e bc 8e 29 1a 3e de 7e 03 be 4b a2 ab bd
       -0.0106424745 0.15054914 -0.12841365 -0.08380564
000060 9a 48 87 3d 4e 89 04 bd f6 4e f9 bd 75 a4 dc 3c
       0.066056445 -0.032357506 -0.12173264 0.026933888
000070 85 0f 02 3c 7f cd 8a bd 90 a4 9f 3d 02 2f 47 3d
       0.00793827 -0.067774765 0.0779506 0.048628815
000080 43 89 17 bd f7 c1 53 3d 67 5c b2 bd 41 fe 0d be
       -0.036996137 0.05169865 -0.087090306 -0.13866521
000090 98 e8 26 3d c2 f7 c2 bd c5 d0 a6 3d b4 54 97 3c
       0.040749162 -0.09519912 0.081452884 0.018473007
0000a0 8f 71 87 bc 75 99 27 bd ad 60 d6 3d d3 df 8d 3d
       -0.016533641 -0.040917832 0.10467658 0.06927457
0000b0 04 e9 09 3e 3b ed 1e bd 06 0c 56 bd 74 f7 a6 3d
       0.13467795 -0.03880046 -0.05225756 0.08152667
0000c0 73 56 b3 bd 71 c1 74 3d a4 9a 1e be a3 7b ae 3d
       -0.08756723 0.059754793 -0.15488678 0.085196756
0000d0 f0 f6 1c bd 6f a2 21 bc 9c 96 45 3e e1 4d a4 3c
       -0.038321435 -0.009865387 0.19295734 0.020056667
0000e0 3b 36 2d be 82 8b 3d 3d 35 65 91 3d 1f 9a 03 bc
       -0.16915219 0.046275623 0.07099382 -0.008032351
0000f0 0d 39 2e be d9 ff 6e bc 3f 9f 95 bd 10 eb 7b 3e
       -0.1701395 -0.014587366 -0.073057644 0.24601388
000100 12 1e 01 bd 18 fb 14 3e a4 ab ec bc 8c d2 c1 bd
       -0.031522818 0.1454891 -0.028890438 -0.09463987
000110 95 b6 71 3e 7d 9c 18 bd 82 72 5e bd 0e bf 3b be
       0.23604806 -0.037258614 -0.054308422 -0.183346
000120 86 ec 46 3b c6 67 83 bd 02 6c 26 3d ca 3b 0d bd
       0.0030353381 -0.064162776 0.040630348 -0.034480847
000130 0d 59 86 3d 09 3d bf bd 94 47 f9 3c ce 61 c3 3d
       0.06559954 -0.093378134 0.030429639 0.09540139
000140 12 cf 82 bd e2 18 ae 3d d0 80 0d 3d e1 51 0b 3d
       -0.06387152 0.0850084 0.034546673 0.034013633
000150 39 40 41 be 2f 48 ec bd 9b da 5a bd d0 52 1e be
       -0.18872155 -0.115372054 -0.053431135 -0.15461278
000160 1d 39 b2 bb b7 d6 d0 3d da 48 ab 3d cc 8f 02 3e
       -0.0054389373 0.101972036 0.08363505 0.12750167
000170 92 7e 4a bd 60 5f b2 3d 5f 7f 87 bd 3d 4a 00 be
       -0.049437113 0.087095976 -0.06616091 -0.1252832
000180 3a 63 ae 3c da 97 1c be fc 37 b7 3c 4f f4 15 3d
       0.02128755 -0.15292302 0.022365563 0.036609944
000190 e1 f7 06 3e a5 55 59 3c 2b 3b 5c bb ab 27 d5 3d
       0.13180496 0.013265048 -0.0033604603 0.10407957
0001a0 2a 94 be 3d 4c bc 9e bc f1 a8 1f bc 53 d7 18 3e
       0.09305604 -0.019376896 -0.009744869 0.1492589
0001b0 18 00 62 bc c9 9e e1 3c 10 59 fe 3d b6 e7 93 bc
       -0.013793968 0.027541535 0.12419331 -0.018054824
0001c0 94 03 bc bd c4 8f ee bb d1 e1 35 3c 52 ad e5 bd
       -0.0918037 -0.007280322 0.011101202 -0.11214699
0001d0 4f b1 0e 3c 99 f5 15 3d 6e 3c 97 3d bd 56 58 bd
       0.008709266 0.036611173 0.07384573 -0.052817095
0001e0 bb 9b 44 bd e0 98 e4 3d 1b 96 bc bd f4 07 e6 3c
       -0.04800008 0.11161971 -0.09208318 0.028079964
0001f0 b8 b1 dc 3c 7e 6a e1 3c e6 55 1d be ca ca 25 be
       0.026940212 0.0275166 -0.15364799 -0.16190639
000200 7b e9 fa 3d 26 33 49 3c 81 22 11 bd a2 2e 92 bc
       0.12251564 0.012280261 -0.035433296 -0.017844502
000210 d0 24 c6 bd 24 df 90 3e 44 61 9e 3d a0 95 42 be
       -0.0967499 0.28295243 0.07733396 -0.1900239
000220 d9 aa 7e 3d b5 a1 0f be 1e a2 f6 bd 91 01 3c bd
       0.06217465 -0.1402653 -0.1204264 -0.04589993
000230 0c 35 1c 3d 44 23 ee bd 55 3f 91 bd 18 55 b6 bd
       0.038136527 -0.1162782 -0.07092158 -0.08902949
000240 68 a7 bf 3d e6 bc e9 3d 76 50 e6 3c b1 8a 45 3d
       0.09358102 0.11412983 0.028114539 0.04822797
000250 7c 4c 92 bd e6 e2 4c bd f0 ae 2c be 7d 8d 09 bd
       -0.071434945 -0.050021075 -0.16863608 -0.0335822
000260 77 94 b6 bd 72 15 c8 bd 6d ad c6 3c 38 9b cd 3b
       -0.08915036 -0.09769715 0.024252618 0.006274607
000270 d6 28 e6 bd 95 b8 5f be 5c 87 ea 3b 45 3c 84 be
       -0.112382576 -0.21847756 0.0071572494 -0.25827232
000280 6f 04 f6 bd 66 77 8e bd 2c 1b 82 3b 29 13 41 bd
       -0.120125644 -0.06956367 0.0039705243 -0.047137413
000290 3e 1f 6c 3d 62 c7 1c 3e d6 c1 ae bd b7 19 a7 3d
       0.057646982 0.15310434 -0.08533065 0.081592016
0002a0 68 40 d9 bd 79 7d 84 bd 81 af ec bd d6 77 46 be
       -0.10607988 -0.064692445 -0.11556912 -0.19381651
0002b0 21 83 e9 3d e5 45 32 3d 03 01 cd bd 1b cd cb bd
       0.11401964 0.043523688 -0.100099586 -0.0995123
0002c0 34 76 59 bd b2 a8 7c 3d fa 2d e0 bc 46 67 89 bc
       -0.053091243 0.061684318 -0.027365673 -0.016772877
0002d0 fd 5a d6 3d d8 4e fe bd 6e 26 0e bd 7c 4c 5c be
       0.104665734 -0.12417382 -0.03470462 -0.21513551
0002e0 4a dc 39 3d 74 6c a2 3e 2d 0a 2c 3c 15 a5 86 3e
       0.0453761 0.31723368 0.010500473 0.26297823
0002f0 7f 0a d3 3d c5 ae 85 3e a9 66 12 bd 75 bf 54 3e
       0.10304736 0.261099 -0.035742436 0.2077616
000300 3a ef 6f 3b e9 f0 6b bd 13 6f 52 bd 3c 4d d5 3e
       0.0036611096 -0.057602797 -0.05137546 0.41660488
000310 aa 29 19 3e f6 77 d8 bb d7 c8 ad be b8 f4 42 bc
       0.149573 -0.0066060973 -0.3394229 -0.011899166
000320 14 75 bd bd 3f e2 ed bc 88 ea 35 bd f4 ed 1f be
       -0.092508465 -0.029038547 -0.04441312 -0.15618116
000330 ed dd ae 3d 4f c0 77 bd b7 b7 ab be ca bd af 3d
       0.08538423 -0.060486134 -0.335386 0.08581121
000340 91 19 f0 bc 27 6a 00 bd f7 ca f0 bd 98 8f c9 3b
       -0.029309066 -0.031351235 -0.117574625 0.006151151
000350 69 21 6d bd 66 7e dc 3d 13 bd 47 3d 8b f2 35 bd
       -0.05789319 0.10766296 0.0487643 -0.04442076
000360 e3 98 a2 bb 53 ca 0f 3e ef c7 74 3d f1 4e b2 bd
       -0.004962073 0.14042024 0.059760984 -0.08706463
000370 85 59 32 3e 06 74 c7 3e fd f0 10 3e 61 6f eb bb
       0.17416961 0.38955706 0.1415443 -0.0071849083
000380 01 6f 98 3e fc 70 cc 3d 70 2c 51 3d d4 85 14 be
       0.2977219 0.099824876 0.05106777 -0.14504176
000390 36 1c b9 bd da 39 fd bd fd b5 8d 3d 6c 62 bd 3c
       -0.09038584 -0.1236455 0.06919477 0.02311822
0003a0 9f f2 51 3d 14 8e 03 3e 3f e1 18 bd d1 1a 4e 3e
       0.051256772 0.12847167 -0.037324186 0.20127417
0003b0 f5 84 ad bd 1e 83 92 3c c1 b1 8c 3e bf ea 04 3e
       -0.08472625 0.017884787 0.27479365 0.12980174
0003c0 45 c6 55 bd 72 c1 b3 3c d8 df 10 be 4f 72 6b 3e
       -0.052191038 0.021942828 -0.1414789 0.22992824
0003d0 33 5b 21 3d ac 18 1e be 45 99 b5 bc d1 c1 88 3e
       0.039393615 -0.15439099 -0.022167811 0.2671037
0003e0 0e 70 3b be bc df 5c be 44 d6 35 3e 39 7d 29 be
       -0.18304464 -0.21569723 0.17757517 -0.16551675
0003f0 24 7b 33 be c2 02 2f 3e 48 b6 37 3e 11 f5 f0 bb
       -0.17527443 0.17090896 0.17940629 -0.007353433

weight_hh_l1 f4 [192, 64]
000000 3e 8f 92 3d 74 a3 94 bd aa 43 88 3d f1 a4 89 bd
       0.071562275 -0.07257739 0.06653531 -0.06720913
000010 dc 73 a7 bd f6 13 05 be 73 0f eb b7 c2 72 c6 3d
       -0.08176395 -0.12995896 -2.8021377e-05 0.09689857
000020 17 8f 15 be eb 00 af 3d 61 71 98 3d b8 e6 5a 3c
       -0.14605366 0.08545097 0.074435 0.013360672
000030 0f 18 e6 3d d0 81 a1 3c 71 56 5f 3e 50 96 1b bd
       0.112350576 0.01971522 0.21810319 -0.037985146
000040 06 ad 5e bc c6 ac f4 bd 3b 65 1a be 9f 8b 09 be
       -0.013591057 -0.119470164 -0.15077679 -0.13432167
000050 5d bb ac bc 4e a7 25 3d 6b 37 ec 3d 5a 33 05 be
       -0.021085436 0.040442757 0.11534008 -0.1300787
000060 8d de 32 3c 86 ca 04 3e dc 82 10 be 10 49 84 bd
       0.010917318 0.12967882 -0.14112419 -0.06459248
000070 00 8b 45 3e d4 3d 8f bd 68 eb e1 3d 79 a2 e5 bd
       0.19291306 -0.06994215 0.11031228 -0.1121263
000080 93 1b 14 3d 73 b0 82 bd 66 1e 2f be d9 33 a8 bd
       0.03615911 -0.06381311 -0.1710144 -0.08213014
000090 2c 04 01 be ea ea e2 3d ee 5b f5 bc 18 14 04 3e
       -0.12599248 0.110799626 -0.029951062 0.1289829
0000a0 db 4c 99 bd 85 50 bf bb ee 4a 8d 3c 28 6b ec bc
       -0.07485362 -0.005838456 0.017247643 -0.02885969
0000b0 4b ff 88 3c 47 0b 5d be d6 59 b7 bd 4f 59 75 3d
       0.016723296 -0.21586333 -0.08952682 0.059899624
0000c0 73 dd 69 bd 48 cf e4 bc 7c bb eb bc 89 67 5b 3d
       -0.057095956 -0.02793087 -0.028775923 0.053565536
0000d0 36 4c f6 3d d4 be 22 3e b5 3d a3 3d e9 64 80 3e
       0.12026255 0.15893108 0.07970754 0.25076988
0000e0 b8 06 62 bd a1 b5 00 3d 62 8e a3 bd 72 f8 2d 3e
       -0.05518219 0.031423215 -0.07986142 0.16989306
0000f0 d2 a9 15 3e 63 81 30 bd 28 65 9a bb e5 09 a8 bc
       0.14615563 -0.043092143 -0.004711766 -0.02051253
000100 5a 7b 12 be 5f a0 5b bd d8 c6 1c 3d 86 7b b4 3c
       -0.14304867 -0.05361974 0.03827557 0.022031557
000110 d7 68 0f 3e 05 91 32 3e 19 c0 50 bd 01 d2 ef 3d
       0.14004837 0.17438133 -0.05096445 0.11709977
000120 cc 24 11 3d 9c dd 20 3c ef 1f ff bc 12 ad 9d 3d
       0.035435483 0.009818461 -0.031143157 0.07699026
000130 02 b6 e2 3d f8 ef 9e bc 68 8f 17 3e c8 d6 56 3d
       0.110698715 -0.019401535 0.14800799 0.052450925
000140 35 f9 d2 bc 2a 62 6c 3c 89 3f 98 bd d2 f9 6f be
       -0.025753597 0.014427701 -0.07433993 -0.23435143
000150 26 1e 63 bc 2a 2d 08 be f5 e0 15 be 2b 59 0b be
       -0.013862168 -0.13298479 -0.14636596 -0.13608234
000160 8e b4 55 3c 57 63 f0 3d 6f 1f b7 3c 22 dd 4f 3e
       0.013043536 0.117376976 0.022353856 0.20299199
000170 76 03 17 be 9f 6f 1c be 3e 3a 7f 3d b0 55 ce bd
       -0.14747414 -0.15276955 0.062311403 -0.10074937
000180 e5 d1 74 bc 62 b1 d5 bd f7 b8 49 3e 9b f3 a0 3d
       -0.014942621 -0.10434224 0.19699465 0.07858964
000190 d9 bd 14 3e fa c4 e2 3d 4f 0c 56 3d d5 4e 48 3d
       0.14525546 0.110727265 0.052257832 0.048903305
0001a0 0d 9e 99 3d ed 04 ab 3b 69 80 0d 3d 18 68 05 3e
       0.07500849 0.005219093 0.03454629 0.1302799
0001b0 23 13 ae bc 11 11 92 bb 3d e8 bc 3d 1e 1d 72 3a
       -0.02124936 -0.004457601 0.092239834 0.0009235906
0001c0 b3 56 b7 3d 4e 3a d8 3d f9 81 83 3d 8b da ca bc
       0.089520834 0.10557996 0.06421275 -0.024762413
0001d0 ab 3a f9 3c 62 3d de 3d 8e a7 bc 3d 47 16 fb 3d
       0.030423483 0.108515516 0.09211646 0.122601084
0001e0 c1 4f 92 bc df 29 e1 bd f6 2f 04 be 69 4e fc bd
       -0.017860295 -0.109943144 -0.1290892 -0.12319643
0001f0 63 24 61 3d 68 3c ba 3d 40 77 20 3c a1 81 45 3d
       0.05496634 0.09093553 0.009794056 0.048219327
000200 94 e3 c1 bd d4 7e c7 3c f0 a6 03 3e cd b7 94 3d
       -0.09467235 0.024352469 0.1285665 0.0726162
000210 d7 38 79 3e be d8 37 3d 9b 7b d9 bc 2d d1 0b bd
       0.24338089 0.044884436 -0.026548197 -0.034135032
000220 4e 63 7a ba 56 f4 f5 3d 45 82 d7 3d a2 bf 0d 3d
       -0.0009551541 0.12009494 0.10522894 0.034606583
000230 56 7f ad bd b7 3f 46 3e 49 4f 04 3e 0f ce 4a bd
       -0.08471553 0.19360243 0.1292087 -0.04951292
000240 50 e8 b1 bd 3e fe 52 be ab cb 81 3d 38 db 8d bd
       -0.08686888 -0.20604798 0.06337675 -0.06926578
000250 f3 e5 24 3c 96 ee b1 3d 54 57 c4 3b 9f 32 b1 bc
       0.01006459 0.08688085 0.0059918556 -0.021630583
000260 3b db 06 bd d0 44 49 bc ba 8f 26 3d d6 5d 6a 3e
       -0.03292392 -0.012284473 0.040664412 0.22887358
000270 6f 62 2d be 5f 18 56 3d 38 ad 42 bc 91 a3 c3 3d
       -0.1693208 0.052269336 -0.011882119 0.09552682
000280 da a4 df bc ba 70 92 bd 6a 94 88 3d 10 16 78 3c
       -0.027300287 -0.07150407 0.06668933 0.015141979
000290 25 cf a1 3d a8 88 b1 3b 06 9c 82 3d ae 4a d6 3d
       0.07900838 0.005417902 0.06377415 0.10463463
0002a0 72 36 ca 3d 9a 96 b1 3d 0e 46 9e bd 54 58 1c 3b
       0.09873666 0.08671303 -0.077282056 0.0023856359
0002b0 b2 eb 0c 3e a2 f8 90 3d 8c 73 a4 3c ca f2 09 3d
       0.13761786 0.07078673 0.020074628 0.033678807
0002c0 d0 c8 1f 3e 23 05 d4 3d 85 a8 02 3d 14 a9 a9 3d
       0.15603948 0.10352542 0.031898994 0.08284202
0002d0 93 77 2f 3d 13 e9 38 bd 94 62 11 3d 46 22 18 3e
       0.042838644 -0.045144152 0.035494402 0.14856824
0002e0 d1 1b 35 bc d9 bb 19 bd b2 3a cf bd 19 1c ae 3d
       -0.011053995 -0.03753266 -0.10118617 0.08501453
0002f0 44 00 be 3d f8 db 1e 3d 9c 9b 91 bd 44 fe d2 3d
       0.092773944 0.038783997 -0.07109758 0.103024036
000300 fe 3d a1 bd 03 08 cb 3d 15 49 93 3d 8a 0e 99 bd
       -0.07873152 0.099136375 0.07191674 -0.07473476
000310 3e c8 7b 3d 98 15 77 bd 81 04 46 be 8d ab 93 bd
       0.061470263 -0.060323328 -0.19337656 -0.07210455
000320 4d e5 52 3d e8 9a 3b 3d 3a 89 52 3c 3d 1b 6f 3d
       0.05148821 0.045802027 0.0128501 0.058375586
000330 c2 b0 89 3c 5a 70 6e 3b 24 59 43 bd 82 38 4e 3d
       0.016807918 0.0036382885 -0.047692433 0.05034686
000340 72 b9 ad bd d9 54 0d 3d c6 ed 8a 3d fc f1 55 bc
       -0.084826365 0.034504745 0.06783633 -0.013058182
000350 78 b7 8e bd 45 40 0c 3e b1 cc 1e 3d ac 82 77 bc
       -0.06968588 0.13696392 0.038769428 -0.015106838
000360 5d 03 d6 3b a1 a1 b9 bc 93 89 0e 3e 38 c8 af 3e
       0.0065311627 -0.022660078 0.13919668 0.34332442
000370 07 36 ec bd 8d 8c 52 3d 05 26 bb 3c 45 f8 a4 3d
       -0.115337424 0.05140357 0.022845278 0.08055166
000380 91 31 04 be a6 4b 59 be 7a 30 3a be 3f 0d 1c bd
       -0.12909533 -0.21220264 -0.18182555 -0.03809857
000390 b3 6e 4c bc 6c ed bd 3d 91 38 04 bb 29 d3 a0 bd
       -0.012477565 0.092738 -0.0020175318 -0.078527756
0003a0 e2 53 90 3d eb c1 27 be bd 18 02 be a9 29 8a bd
       0.070472494 -0.16382568 -0.1270475 -0.06746227
0003b0 0c f9 72 bd 2c 14 8f bd 7a cc 1c 3d 83 4a 7e bc
       -0.05931954 -0.06986269 0.03828094 -0.015520695
0003c0 df fe 29 3d a3 97 3b 3e de 59 21 3e 4e f2 92 3c
       0.04150283 0.18319564 0.15756938 0.017937806
0003d0 cb c4 ec 3d 93 43 08 3d a0 31 a6 bd 3c 17 cb bd
       0.11560973 0.03326757 -0.08114934 -0.09916541
0003e0 cc b0 7c bd 3c f8 71 bd 73 e5 e7 3c fb c9 e7 bd
       -0.061692044 -0.059074625 0.028307652 -0.113178216
0003f0 73 9d a4 3d 24 89 a5 bd a2 22 2d be 9e 0b de 3d
       0.080378436 -0.08082798 -0.16907743 0.108420596
