action_LossPrune/model3_Traffic.pth (torch, 169806 bytes, 12 tensors)

weight f4 [23, 8]
000000 70 ed 84 bf 2d 16 f4 3e 43 88 40 3f 33 34 65 3f
       -1.038496 0.4767317 0.7520792 0.89532775
000010 3e 8f ca 3f 67 cd a3 3f 54 34 84 be db 04 02 bf
       1.5824964 1.2797059 -0.25821173 -0.5078866
000020 eb 96 19 bf 51 9e 25 be 1d bb d9 3f 8f a9 11 3f
       -0.5999591 -0.16173674 1.7010227 0.5689935
000030 22 bb e8 3f e3 21 27 bf 69 ea 27 bf 67 ef 09 bf
       1.8182108 -0.6528608 -0.65592057 -0.53880924
000040 86 b3 1a 40 cc d4 a8 be 33 1b b6 3f 3e ce d6 3d
       2.4172072 -0.3297485 1.422705 0.10488556
000050 9a bb 7f 3f ad f4 24 40 55 66 91 3e 15 ae 13 bf
       0.9989563 2.5774338 0.28398386 -0.57687503
000060 b7 51 b9 3f 52 3c 85 bf b0 64 47 3c 82 a8 37 bf
       1.4478062 -1.0409033 0.012170002 -0.717415
000070 8f 06 a8 bf e8 bf a8 be b0 3e 98 bf eb ef d4 be
       -1.3127002 -0.32958913 -1.1894131 -0.41589293
000080 ee 97 da bf 86 f4 0e c0 23 22 4a bf de 2e d2 3e
       -1.7077615 -2.2336745 -0.7895834 0.41051382
000090 bc 59 bc bf d8 d8 5c be d7 b0 a8 3f fc 27 32 be
       -1.4714885 -0.21567094 1.3178967 -0.17398065
0000a0 70 5d 2c 3f 82 7b be 3f b9 c3 3f bf 08 cd b2 3f
       0.67330074 1.4881442 -0.74908024 1.396882
0000b0 0c dc 54 3f a8 8e 02 bf da a5 1a be 87 94 5a be
       0.83148265 -0.50998926 -0.1510233 -0.21345721
0000c0 c1 0d 10 bf 45 ad 31 bf a9 80 0d 3f 0a 7b bc 3e
       -0.56270987 -0.69405013 0.55274445 0.3681262
0000d0 92 7e ef bf 33 da bb 3d 20 bf 0b 3f 40 c1 49 be
       -1.8710501 0.091724776 0.5458851 -0.19702625
0000e0 eb 2a f1 bf f9 23 42 3f 84 56 14 c0 b6 69 aa bd
       -1.8841223 0.7583614 -2.3177805 -0.08320944
0000f0 bf b6 7b bf f2 f7 e2 bf cd 6e a5 bf cd 06 f2 3f
       -0.98325723 -1.7731917 -1.2924439 1.8908325
000100 de ae 5f bf 22 74 85 3e 62 b9 44 3f 78 b2 a9 be
       -0.873762 0.26065165 0.7684537 -0.33143973
000110 7a b0 32 3f 2d ae 25 be 24 25 e3 3f aa ef 2e 3f
       0.6980053 -0.16179724 1.774571 0.6833445
000120 16 e5 a7 3d 70 0b 02 bf 68 4c 43 3f f8 f5 0a bf
       0.081979915 -0.507987 0.7628846 -0.5428157
000130 ff 7c 75 bf 3d 6a e8 bf 53 b6 09 40 ad c4 c4 be
       -0.95893854 -1.8157421 2.1517532 -0.38431302
000140 5f 70 50 bf 2f 5b 2d bf 56 e9 6b 3e e4 6e 9a 3f
       -0.81421465 -0.6771726 0.2303823 1.2065091
000150 e0 f9 e5 be 63 cc e5 3f a2 6b cf 3f 68 78 a3 3f
       -0.44917202 1.7952999 1.6204722 1.277112
000160 dc de d7 3f 2c 2d 9f be 47 98 c9 3f b5 a9 ba bc
       1.6864886 -0.3108915 1.5749596 -0.022786
000170 d2 6e cf 3e ce 64 1d be a4 f6 b5 bf 1c 3b 19 bf
       0.40514237 -0.15370485 -1.4215894 -0.5985582
000180 5e 80 cc bf f5 1d ba bf 8e 63 a7 3e a4 b8 96 3f
       -1.5976675 -1.4540392 0.32693142 1.1775098
000190 25 22 be 3f 83 0b ea bf 29 2d 94 bf 95 a6 7e bf
       1.485417 -1.8284763 -1.1576282 -0.99472934
0001a0 96 ac 1f be 51 d0 bb 3d e8 1d 45 3f 56 3b 13 40
       -0.1559318 0.091705926 0.7699876 2.3004966
0001b0 83 cb e8 3d dc be ee 3f 18 7c 29 bf cd de 11 40
       0.11366942 1.8651996 -0.6620498 2.2792237
0001c0 3e 55 31 3f 20 d9 e6 bd d3 23 aa be 33 d8 27 3f
       0.69270694 -0.11271882 -0.33230457 0.6556427
0001d0 03 e8 d8 be 96 c5 b7 bf bf 32 db 3e bf 4c 7b 3f
       -0.4236451 -1.4357173 0.42812154 0.9816398
0001e0 fa ca 4e bf 87 42 16 3f c1 35 2f 3f b8 2a 27 be
       -0.8077847 0.5869526 0.68441397 -0.1632489
0001f0 43 e6 66 bd 25 de 6a bf a6 39 80 3e db 45 fc bf
       -0.05637194 -0.91745216 0.25043982 -1.9708818
000200 4d 74 44 bf b8 bc e0 3e d5 1f 26 be 2c 33 88 bf
       -0.7673996 0.4389398 -0.1622308 -1.0640616
000210 ae 9f 17 40 fc d8 8d bd 2b f6 39 bf 3e cf 4b 3d
       2.369121 -0.06926152 -0.7264125 0.04975819
000220 d3 60 49 40 2f 0b 51 be 5f 07 32 3f 97 24 7e bf
       3.1465347 -0.20414422 0.695425 -0.9927458
000230 e4 11 cc 3e 75 40 98 bf 8b 4a 03 40 63 de 90 bf
       0.398574 -1.1894671 2.0514247 -1.1317867
000240 7d 69 2e bf bb 82 8e 3f 18 6c c7 bf 7a da a4 3e
       -0.6812971 1.1133646 -1.5579863 0.32197934
000250 13 8c e2 bf 81 85 6e 3e ce e4 16 3e 78 35 6d bf
       -1.7698997 0.23293115 0.1473572 -0.9265971
000260 a4 50 b9 bd 6d e4 ad 3f 02 7d 03 3f 99 2b de bf
       -0.09048584 1.3585335 0.5136262 -1.7357055
000270 68 6d a7 3f 0f 3b c7 3f 6c 8c 03 40 12 12 8b 3f
       1.3080263 1.5564898 2.0554457 1.086489
000280 e8 53 c7 3f cd 10 66 3f fa a1 76 3f 9a da a2 bd
       1.5572481 0.89869386 0.96340907 -0.07951851
000290 d9 42 ef 3e 54 11 ae bf 91 65 3b be 00 73 0f 3f
       0.46730688 -1.3599038 -0.18300463 0.5603485
0002a0 d5 87 c9 bf 14 99 f5 3f 64 3b 21 3f b4 f4 72 bf
       -1.5744578 1.9187341 0.6298125 -0.9490464
0002b0 15 a3 06 c0 fd 86 98 bf e4 6c 4f bf 56 ee 6e bf
       -2.1037037 -1.1916195 -0.8102553 -0.9333242
0002c0 1f 44 7d 3e ba 40 60 3f 8d fa 71 be b4 0c 44 3f
       0.24733017 0.87598765 -0.23630734 0.76581883
0002d0 55 2d 16 3e 37 24 13 bf 49 18 f3 bf d3 d8 64 be
       0.1466573 -0.57477134 -1.8991786 -0.22348337

weight_ih_l0 f4 [192, 9]
000000 c7 6e b9 bc 24 35 68 be 7b b7 8e bc 8e 71 4f be
       -0.02263583 -0.22676522 -0.017421475 -0.20258161
000010 4c 62 90 3e cf 9a af be 42 31 d2 be b7 41 b9 be
       0.28199995 -0.34297797 -0.41053206 -0.3618295
000020 25 4f ef 3d 28 44 94 bc 39 31 be 3e 80 35 1b 3d
       0.116850175 -0.018098906 0.3714693 0.03789282
000030 d1 d7 3d 3e ce 61 09 be 92 cd 0e bf 6e 81 c2 3d
       0.18539359 -0.13416216 -0.55782425 0.09497343
000040 3f 75 3a bd fd 63 c1 be 60 11 04 3d 32 ba 02 3e
       -0.04552197 -0.37771598 0.032243133 0.1276634
000050 d9 f2 2c 3e 05 10 bd 3e b6 28 df be 4d 65 69 3e
       0.16889514 0.36926284 -0.43585747 0.2279255
000060 0b 82 8d be dc a1 aa bd 35 7a dd 3c 12 05 8d 3d
       -0.27638277 -0.083316535 0.027035812 0.06885733
000070 4e d2 ae be d1 58 cf 3e e6 82 44 be 57 57 f5 3e
       -0.34144825 0.4049745 -0.19190559 0.47918198
000080 2a c5 eb 3d da 2d 33 3e ee 85 50 3e 68 3f 7c be
       0.115122154 0.1749796 0.2036359 -0.24633563
000090 bc 53 bf bb 37 04 0d bf 04 1a 31 bd ff 10 dc be
       -0.0058388393 -0.55084556 -0.0432377 -0.42981717
0000a0 12 22 d5 3e 5d bc 1a be 7e 86 b9 3c eb 29 18 be
       0.41627556 -0.15110917 0.022647139 -0.1485974
0000b0 52 3b 8e bd f9 07 fb 3d 90 34 48 3e b0 5a 77 bd
       -0.06944908 0.1225738 0.19551301 -0.06038922
0000c0 bd a9 fb bd 77 57 b7 bd 5d ac 53 be a1 1a c6 3d
       -0.122882344 -0.089522295 -0.2067122 0.09673048
0000d0 cb 33 ee 3e 68 e9 5e be ff 88 9e 3e 73 cb 56 3e
       0.4652389 -0.21768725 0.30963895 0.20976047
0000e0 5d 09 e0 3e 76 f3 99 3e 5f de 9e be bf 60 be 3e
       0.43757144 0.30068558 -0.3102903 0.37183186
0000f0 99 fc d7 3d 16 64 8c bd 55 95 db bd 19 e2 66 3d
       0.10546226 -0.068550274 -0.10721842 0.056367967
000100 4e 47 99 3e e7 31 0d 39 7d b2 b1 3e 54 13 39 be
       0.29937214 0.00013465398 0.34706488 -0.1807378
000110 d4 88 73 3e 28 40 6d be ee 8d 8d 3e 74 66 c5 bd
       0.23782665 -0.23169005 0.27647346 -0.09638682
000120 f1 a6 e1 3d db 8d 8e be 72 51 87 bd e0 7b cc be
       0.1101817 -0.27842602 -0.06607331 -0.3993826
000130 c6 d5 48 3d 1d 44 0c be eb 1d 74 be 3f b7 c9 3d
       0.049031995 -0.13697858 -0.23839538 0.098494045
000140 15 01 82 be 2b 14 1d bc d6 91 25 3e af bd ae 3d
       -0.2539145 -0.009587328 0.16168913 0.08532273
000150 ce 5a fa 3d 40 10 11 3e 79 91 2e 3e ae 2f ea 3e
       0.12224351 0.14166355 0.17047681 0.45739502
000160 45 0d 8b bd 23 e2 6e bd 51 bd 07 3d f4 b0 34 be
       -0.0678964 -0.05832113 0.03313953 -0.17645627
000170 f2 26 5b 3d 6b 77 92 be d9 8e 9c 3d 13 2a d7 3e
       0.053503938 -0.28606734 0.076444335 0.42024288
000180 61 e7 31 bb 6f b4 16 3f 6f 39 55 be 32 86 03 be
       -0.002714597 0.5886907 -0.2082269 -0.1284416
000190 73 ae 36 bd 5a 6e a5 3e 90 31 f1 3e 67 a7 e8 be
       -0.04459996 0.32310754 0.47108126 -0.45440218
0001a0 f9 ce b9 be af 7c 1c 3e 03 76 11 be 91 16 6c 3e
       -0.3629072 0.15281938 -0.14205174 0.23055483
0001b0 eb 5b 2c 3e 58 24 3c bd 32 c4 eb 3e de 32 fc 3d
       0.16831939 -0.045933098 0.46048123 0.1231439
0001c0 de ad 07 3d 62 28 38 3d 28 6d 99 3e 88 5c 92 3e
       0.033124797 0.044960387 0.29966092 0.2858622
0001d0 ad 00 5b 3e 3b d1 7a 3c 85 f6 a0 3e 08 46 20 bd
       0.21386977 0.0153086735 0.3143808 -0.039129287
0001e0 ce 25 fa 3d 10 14 d5 be 41 3b 0a bf 5e ae 3a bd
       0.12214242 -0.4161687 -0.53996664 -0.045576446
0001f0 47 a0 34 3e c4 5e 07 be 69 ab 4a 3e 60 1a 3c 3d
       0.17639266 -0.13219744 0.1979195 0.04592359
000200 7e e8 55 3d bb 28 4a 3d 06 3c 73 3e c2 3b 12 3c
       0.052223675 0.04935525 0.23753366 0.00892538
000210 80 c1 22 3e 16 68 68 bc 2a c7 11 3e df 5c 62 3e
       0.15894127 -0.014184972 0.14236131 0.2210574
000220 46 5f c2 3c 39 23 36 3e 39 83 4e be 45 3a 92 be
       0.02372707 0.17786874 -0.20167245 -0.2856008
000230 5e c6 85 be 89 61 ff be 74 76 a1 bc 33 3f 43 be
       -0.26127905 -0.498791 -0.019709803 -0.19067077
000240 19 41 1b 3f e1 25 0a 3e 02 de 2e be e4 b8 5d 3e
       0.60646206 0.13491012 -0.17076877 0.21652561
000250 4f 9f bf 3c b6 46 3d ba 9c e8 03 3e 84 cd 98 3e
       0.023391394 -0.00072203146 0.12881702 0.29844296
000260 89 f3 73 3e e9 4a b2 3d a8 61 31 bf 02 97 d6 3e
       0.2382337 0.08705694 -0.69289637 0.41912085
000270 c7 e0 97 be 3a 81 c2 3d a0 27 9e be be f4 ad be
       -0.2966368 0.09497304 -0.30889606 -0.33975786
000280 81 29 98 3c ae ca 16 3f 5b 37 89 3d a6 3b ce 3c
       0.018574478 0.58903015 0.06700011 0.025174927
000290 63 da a9 3e fd 45 c1 3e a9 3f 03 bf 83 47 05 3f
       0.33174428 0.3774871 -0.5126901 0.52062243
0002a0 3b 10 73 3e 7b 6a 5a 3d 52 f0 8b 3c 89 fd 8b 3e
       0.2373666 0.053324204 0.017082367 0.2734187
0002b0 90 27 9e 3d 77 e4 cd 3c 37 05 91 3e c8 f9 49 be
       0.0772239 0.025133355 0.2832429 -0.1972419
0002c0 0e a8 15 be 2a f1 71 3e 7f e0 4c 3d 77 35 ef 3e
       -0.14614889 0.23627153 0.050018784 0.46720478
0002d0 4c 9e 06 3e 98 6a 39 3d 8a c3 3a 3d 48 bc 1d 3f
       0.13146323 0.04526767 0.045596637 0.6161542
0002e0 a8 9e a3 be f4 58 8d bc 96 b0 f8 bd 51 1a 9c be
       -0.31956983 -0.01725433 -0.12143056 -0.30488828
0002f0 ea b0 b6 be f3 18 6a 3e 16 55 13 bd 1d 1a 8c be
       -0.3568185 0.2286108 -0.035969816 -0.27363673
000300 2c ce 23 be 7a a2 ee 3c f6 c9 95 be b4 db 36 3e
       -0.15996617 0.02913021 -0.29255646 0.17857248
000310 26 71 40 be f5 5a f3 bd 46 43 e8 3d a2 0f bd 3d
       -0.18793163 -0.11882583 0.113409564 0.09231497
000320 8c 46 ef 3d 10 76 ab be 22 15 bd 3e dc bb 17 be
       0.116833776 -0.33488512 0.36930186 -0.14817756
000330 d0 f8 b5 bd de a1 c6 bd 32 17 19 bd 4c 5a 8b 3d
       -0.08885348 -0.096988425 -0.037375636 0.06804332
000340 88 bc 47 bd 28 6b 45 be 3c 34 85 3e bc a1 d2 be
       -0.04876378 -0.19279158 0.26016414 -0.4113902
000350 05 e3 a7 be c7 a4 9c 3e ec 0f 9a bd 60 0f c7 3d
       -0.3279039 0.30594465 -0.07522568 0.097197294
000360 20 6a c2 3e 4d 34 f8 3e 90 3c 1d be 60 06 0a 3e
       0.37971592 0.48477402 -0.15355134 0.13478994
000370 27 88 cf be c5 60 6d 3e ec 8b 0a 3d 34 bb 32 3d
       -0.40533563 0.23181446 0.033824846 0.043635562
000380 81 f0 1a 3e f7 db d2 3d ea 80 ba 3d ba 3e 1e be
       0.15130807 0.10295861 0.0910662 -0.15453616
000390 33 d6 60 3d 27 b9 16 3f d2 aa 18 be 33 8f 7f 3e
       0.054891776 0.5887627 -0.14908913 0.2495697
0003a0 12 00 31 be 86 2f ac be 8e d4 72 be ea 56 55 be
       -0.17285183 -0.33630008 -0.23713896 -0.20833936
0003b0 a1 2e 83 be c2 d5 b4 be d3 12 2f 3d 59 5a 47 be
       -0.25621513 -0.35319334 0.04274256 -0.19468059
0003c0 bd 1b 5e be 3c 4b c7 bd 6b 65 01 3e cc dc 04 be
       -0.21690269 -0.09731147 0.12636344 -0.12974852
0003d0 38 f6 2b 3b 83 8d 08 bd e7 f5 86 be e4 61 4b be
       0.0026239287 -0.03333808 -0.26359484 -0.19861561
0003e0 5f 53 1a be 1d 95 a8 be 8f ae c0 3d 06 ed f8 bc
       -0.15070866 -0.32926264 0.094082944 -0.03038646
0003f0 14 bc 0c 3f 7e 5b e8 bc 9b 7b 51 3e a2 b2 9a bb
       0.54974484 -0.02836394 0.20457308 -0.0047210017

weight_hh_l0 f4 [192, 64]
000000 06 28 6a be 04 4e 1c 3e e9 ca 91 bc 24 cf c9 bd
       -0.2286683 0.15264136 -0.01779695 -0.09853962
000010 3e 4f 30 3e 84 4b 07 3e 44 e9 2e 3d a5 fc bc bd
       0.17217728 0.132124 0.04270293 -0.092278756
000020 86 23 87 bc e8 ed 8e 3c c9 47 17 be 63 e4 06 3e
       -0.016496431 0.017447427 -0.14773478 0.1317306
000030 78 7f 29 3a 7f 15 f4 bc 59 f4 2c bd 3f 6a d7 bd
       0.00064658327 -0.029795406 -0.042225216 -0.10518312
000040 8b 42 85 bd c1 e4 30 3d d3 e7 ab bd d5 20 17 be
       -0.06506833 0.043186907 -0.08393826 -0.14758618
000050 08 7b ef 3d 26 b5 58 3c bc 62 90 bd 6e 42 be bd
       0.11693388 0.013226783 -0.07050082 -0.09290014
000060 11 1d 4d be 70 5d 9b 3e 96 93 6b be 01 03 8e 3d
       -0.20030619 0.30344725 -0.23005518 0.06934167
000070 be 0e 5e 3e 3a 4c e1 bd f7 19 2e bd 35 bc 34 3d
       0.21685311 -0.11000867 -0.04250523 0.0441248
000080 18 4c 82 bd 62 ac d5 3c 6c 01 d5 3c 93 36 21 bc
       -0.0636217 0.026083175 0.026001655 -0.009839672
000090 ef cd 8b 3d 9c c3 72 bd 19 53 62 3e e1 b3 14 3e
       0.06826388 -0.05926858 0.22102012 0.14521743
0000a0 20 a3 23 be 06 80 53 3e 0b c3 36 be 6f c3 95 3d
       -0.15980196 0.20654306 -0.1784784 0.073126666
0000b0 ae 47 d4 3d ca 0c cd bd b3 ec 0c 3e 9a 78 04 be
       0.10365234 -0.10012205 0.13762169 -0.12936631
0000c0 f3 e2 84 3d b9 5b 9f bd 7c a9 7a bd 8d 0c e8 bb
       0.064886 -0.077811666 -0.06119679 -0.0070815743
0000d0 37 1b 8f 3d ad 3f 1b bd 85 23 ad 3d db 40 43 be
       0.06987613 -0.037902523 0.084540404 -0.19067709
0000e0 7b 3d 31 be 82 c3 26 be 4f e7 13 3e 94 e9 a6 bb
       -0.17308609 -0.16285518 0.14443706 -0.0050937627
0000f0 8e c5 7d 3e af 0a 0f bd 0c 2e c2 bd 06 1d 45 3e
       0.24782392 -0.034922298 -0.09481439 0.19249353
000100 51 13 d3 bd e9 e7 ee bd b8 22 58 3e 7b 7e cf 3d
       -0.10306419 -0.11665327 0.21106994 0.10131546
000110 26 66 69 3e ee 68 92 3d 3b c4 74 3e cd 40 36 bd
       0.22792873 0.0714892 0.23902981 -0.044495393
000120 f4 42 be 3d 97 09 19 3c 5b d8 48 be 1f 07 ee bb
       0.09290114 0.009340665 -0.19613783 -0.0072640325
000130 56 5c 34 3c 8e e8 6a 3c 3a b7 f6 3d 6f 6d 10 be
       0.011008343 0.014337672 0.120466664 -0.14104246
000140 2e c1 55 bd ab 73 93 bd 85 16 e5 bb 06 47 8a bd
       -0.052186184 -0.07199796 -0.00699121 -0.06751828
000150 99 c3 57 bc 8c fe 60 3e 4f 1e f6 bd 55 b4 0e bd
       -0.013169193 0.21972102 -0.120175 -0.034839947
000160 b6 68 a0 3d 63 d1 d4 3d 9b ba ac 3c 1c b0 b4 3d
       0.07832472 0.103915 0.021085074 0.08822653
000170 8d cc a9 3e 15 a5 8b bd f4 18 b7 3d e2 1e 5f 3e
       0.33163872 -0.06818596 0.08940306 0.21789125
000180 c3 9c bf 3d d4 fa 51 3e 01 e4 a1 bd 50 b7 14 be
       0.09356072 0.2050584 -0.079048164 -0.14523053
000190 b6 ed 86 3c ef ad c9 bd b5 f6 6f 3e 8e a1 70 bd
       0.016470771 -0.09847628 0.23433955 -0.05874782
0001a0 b8 14 c8 3d c3 e7 a5 bc 7d c2 fd 3d 3d e4 08 be
       0.09769577 -0.020252114 0.12390611 -0.13368316
0001b0 db 94 9d 3d 9e e9 2f 3e b7 82 a9 3c 69 a4 59 bd
       0.076944076 0.17178962 0.020692213 -0.05313531
0001c0 3d 62 2f 3d f2 a5 97 be f8 35 97 be cc bd 0e bd
       0.042818297 -0.29618794 -0.29533362 -0.034848973
0001d0 60 5e 62 3d 40 48 7a bd ba 8c 76 3b 6d 86 b6 bd
       0.055265784 -0.06110406 0.00376205 -0.089123584
0001e0 fa 48 94 3d 89 aa 28 bd 7e 54 58 be db a8 9e 3e
       0.07240482 -0.04117826 -0.21125981 0.30988201
0001f0 72 90 30 3d 6f 24 4b bd f0 9b 33 3e 1d 59 55 3e
       0.043106504 -0.049595293 0.17539954 0.20834775
000200 b8 4c 31 be 9c 95 53 3e 82 9f d3 bd fb 41 8b bd
       -0.17314422 0.2066254 -0.10333158 -0.06799694
000210 ce a2 9d 3e a2 50 56 3e b1 21 0d be ce c2 8c 3d
       0.30788273 0.20929196 -0.13782384 0.068730935
000220 7a 11 9b 3b a0 f0 a6 3c 6a 25 4f 3e 10 4b 21 be
       0.004732308 0.02037841 0.20229116 -0.1575129
000230 36 8d 92 3d 98 3b 8b bc b6 27 aa bc 82 4e 1b 3e
       0.0715584 -0.01699619 -0.020770889 0.15166667
000240 02 f1 86 be 2a 58 d6 bd cc 1e f2 bb 17 3e f4 3c
       -0.2635575 -0.10466035 -0.007388925 0.029814763
000250 9a 4b 4b 3e e7 86 5b 3d 20 05 06 3e 28 55 e6 be
       0.19853058 0.05359545 0.13087893 -0.44986844
000260 e9 cf 03 be f3 b7 a9 bd 21 a8 8a 3e 97 53 93 3d
       -0.1287228 -0.08287039 0.27081397 0.07193678
000270 ef f7 42 3e 85 cd 30 be d9 0e 5e 3e 79 2f b9 3d
       0.19039892 -0.172659 0.21685351 0.09042258
000280 25 69 92 3d 2a e0 dd 3c 24 07 1b 3d f6 21 99 3d
       0.07148961 0.027084429 0.037848607 0.07477181
000290 13 5b 3f bd c2 55 d7 bd a3 fb 40 3e 5b 06 93 3e
       -0.046717715 -0.10514404 0.18845992 0.28715786
0002a0 60 87 c1 3e d6 ec 45 3e 62 32 68 be 39 1e 5b 3d
       0.37798595 0.19328627 -0.2267547 0.05349562
0002b0 9e 35 9c 3e 82 f9 18 bd a7 5c 18 3e 17 8d 76 be
       0.30509657 -0.037347324 0.14879094 -0.24077259
0002c0 b7 12 d3 3d e5 9d c0 3d f4 96 5d be 79 b6 8f 3d
       0.10306304 0.09405116 -0.21639615 0.07017226
0002d0 01 57 aa be 99 ac 57 3e c3 f6 31 be f3 4a aa bc
       -0.33269504 0.21061935 -0.17379288 -0.020787692
0002e0 94 47 89 bd ba da 77 be 7b 79 46 bd 25 b5 e1 3d
       -0.067031056 -0.24204531 -0.048455697 0.11020879
0002f0 4d 67 bc bd ff 9f d5 3e 8f 5b ca bd 5a 48 40 3e
       -0.091993906 0.4172363 -0.09880745 0.187776
000300 9b 23 05 bd eb 7f 61 3e fc c0 26 3d 69 d6 50 bd
       -0.03250466 0.22021453 0.040711388 -0.050985727
000310 67 a7 6d 3e 9b 31 a4 3e c7 56 64 bd 27 36 61 3d
       0.2320839 0.32069096 -0.05574682 0.054983284
000320 7e 20 a2 bd ec 81 21 3c e3 83 82 bd a7 7f 88 3d
       -0.07916354 0.009857636 -0.06372812 0.06664973
000330 2c 7b 2d bc ff 89 83 3e 90 36 58 bc e8 fa 94 3d
       -0.0105884485 0.2569122 -0.013196602 0.07274419
000340 6e e5 7f ba 2e 55 1f bd ec d8 dd bd f4 80 13 3e
       -0.0009761666 -0.038899593 -0.1083239 0.1440466
000350 b3 04 a2 3d 59 eb 33 3e ee b9 30 be 8a 98 1e be
       0.079110526 0.17570247 -0.17258427 -0.15487877
000360 a8 ce 3b bc 1e fa 82 3b dd 6b f8 bd f4 a5 6f be
       -0.011462845 0.0039971014 -0.12129948 -0.2340315
000370 9f 4e 86 3c 5a a6 c3 3d 51 56 be 3d 53 68 a2 be
       0.016394911 0.095532134 0.09293807 -0.31720218
000380 51 ac 1a be 8a 50 b5 3c 76 46 dd bd c1 94 9e bb
       -0.15104796 0.02213313 -0.10804455 -0.00483951
000390 3d bb 77 3d 7b ac 8b bd e5 92 d9 3d 36 8c 28 3e
       0.0604813 -0.068200074 0.10623721 0.16459736
0003a0 0a a0 0f be 30 a3 00 3d 37 ba e0 bd 02 22 35 bd
       -0.14025894 0.031405628 -0.10973018 -0.044221886
0003b0 fc ec 13 bc 1c f6 1a bd 88 b3 8d bc 27 5f e6 bd
       -0.009028669 -0.037832364 -0.017297521 -0.112486176
0003c0 06 69 83 3c b1 a3 a1 be f6 b0 fc bd 50 c8 56 be
       0.01604129 -0.315702 -0.1233844 -0.2097485
0003d0 aa de a0 bd 29 b1 28 3d c4 b9 91 bd 3e 57 d3 bd
       -0.0785497 0.041184578 -0.0711551 -0.103193745
0003e0 e7 0c 5b be 38 70 82 3d d8 aa ed 3d 8c af 7e bc
       -0.2139164 0.0636906 0.116048515 -0.015544783
0003f0 98 ba 88 bc 72 61 1b 3d 16 6c 7c 3e 90 f5 48 3e
       -0.016690537 0.037934728 0.24650607 0.19624925

bias_ih_l0 f4 [192]
000000 a2 47 8c 3d d8 a1 02 3d a0 f6 9f bd 6f 51 d3 3d
       0.068496004 0.031892627 -0.07810712 0.103182666
000010 a0 e6 c2 3c b8 92 39 3d f9 11 f5 3c 36 9c 08 3c
       0.023791611 0.045305938 0.029915797 0.008338025
000020 e1 ec a4 bd 6e 63 3a 3e 8d fc d0 3d 0d 8b 8b 3d
       -0.080529936 0.18201992 0.1020442 0.06813631
000030 75 a7 47 3d 03 45 c0 3d eb 0b a1 3e 76 a3 23 3e
       0.048743684 0.09388163 0.31454405 0.15980324
000040 a8 b5 a5 bc b0 36 75 3d 7e 31 ea bb e8 ff 00 3b
       -0.020228222 0.059866607 -0.007147013 0.0019683782
000050 68 9f cf 3c 4f 84 25 bd 91 d0 44 3d 90 4b fc 3d
       0.025344566 -0.040409382 0.048050467 0.123191
000060 fd 43 6a 3d 55 a1 80 bd 12 7a bf 3a 09 56 af bb
       0.057193745 -0.06280772 0.0014608523 -0.0053508324
000070 17 8d dc bd a0 48 56 3d 56 cb c1 3c 16 e7 b9 bc
       -0.10769098 0.052315354 0.023656528 -0.022693198
000080 4f 88 23 3e fd 2c ca 3c b6 9e 07 3c 3a 31 8c bc
       0.15969966 0.024679655 0.008277586 -0.017113317
000090 b3 3d 32 bc 01 4b bd 3d c7 f3 eb 3d a1 41 81 3d
       -0.010878968 0.092428215 0.11521106 0.06311346
0000a0 d6 e5 8e bc 68 06 85 3e af 0b ec 3c 53 f9 9b bc
       -0.017443579 0.2598145 0.028814165 -0.019039785
0000b0 82 8b fe 3d b3 48 e5 3d 16 17 ab bd 0d 1a 65 3e
       0.12428953 0.11195507 -0.08354013 0.22373219
0000c0 cc 4e ad 3d 6a 71 a3 bc 39 4b 5a bc c6 99 30 bd
       0.08462295 -0.019951541 -0.013323599 -0.0431154
0000d0 a8 97 06 3e 7b 66 da 3a af 46 67 3c 49 5b d1 3d
       0.1314379 0.0016662622 0.014115973 0.102224894
0000e0 27 52 91 3e 62 0b 4a 3e 61 77 45 bb 0e ac da 3d
       0.2838299 0.19730905 -0.003013097 0.10677348
0000f0 9e 59 42 bb 17 f3 5e 3d da b4 b4 3c dd b0 66 3d
       -0.0029655467 0.054431047 0.022058893 0.056321014
000100 d1 ca 98 be 8a 97 ad be 0b d5 87 be 98 c0 55 be
       -0.29842237 -0.33904678 -0.26529726 -0.2087425
000110 0a 9a 0e bf 5d 18 ba be eb e6 87 bd b3 f6 df be
       -0.55703795 -0.36346713 -0.06635841 -0.43742904
000120 ce 40 9d bd ac f3 11 bf 47 2b 9d be de 0a 1c bf
       -0.07678376 -0.5701244 -0.3069708 -0.6095408
000130 b9 45 b4 be 58 97 c0 be ec 88 32 bf 68 a8 09 bf
       -0.35209444 -0.37615466 -0.69740176 -0.5377259
000140 81 b7 1a bf a2 9f f5 be 5a a9 fc be d5 ab 48 bd
       -0.60436255 -0.47973353 -0.49347955 -0.048991997
000150 22 4d e2 be a6 f2 ff be a8 bb 5e be 3c 51 81 be
       -0.44199473 -0.49989814 -0.21751273 -0.2525729
000160 26 ee 9e be 26 ab e0 be 4f 24 af be 42 d8 04 bf
       -0.31041068 -0.43880576 -0.3420739 -0.51892483
000170 d7 e7 bd be ed 98 8c be f1 6f b8 be 48 15 11 3d
       -0.37090942 -0.27460423 -0.36022905 0.035420686
000180 b5 27 e5 be 31 15 15 bf 49 fd ca be 62 01 9e be
       -0.44756857 -0.5823546 -0.39646366 -0.3086043
000190 22 13 9c be c3 3f 06 bf be 80 81 be 53 dc 50 bf
       -0.30483347 -0.5244104 -0.25293535 -0.8158619
0001a0 a0 81 11 bf 4f 98 86 be ef fb 34 be 25 53 95 bc
       -0.5683842 -0.26288077 -0.1767423 -0.018228123
0001b0 4a d7 ad be d4 d8 1e be 6f 5b 8f be 61 23 03 bf
       -0.33953315 -0.15512401 -0.27999446 -0.5122586
0001c0 c0 ad 8e be 68 98 58 be a0 62 87 be 2e d4 ba be
       -0.27866936 -0.21151888 -0.26442432 -0.36490005
0001d0 ea 72 60 be ee fb 82 be 18 31 d5 be 21 b4 87 be
       -0.21918836 -0.25582832 -0.41639018 -0.26504615
0001e0 bb 84 88 bd a1 66 e0 be 8e b4 22 be ac de 60 be
       -0.06665941 -0.438283 -0.15889189 -0.21959943
0001f0 e9 57 2c bf 24 94 8a be 41 76 b1 be d1 a3 1a bf
       -0.6732164 -0.27066147 -0.34660533 -0.60406214
000200 a4 bd 35 be 4d 70 f6 3c 83 c1 60 bd 41 48 c8 3d
       -0.17748123 0.030082846 -0.054872047 0.09779406
000210 a1 91 b7 bd 2a dd aa 3d 47 85 ab bd 84 13 09 bd
       -0.089633234 0.08342965 -0.0837503 -0.033465877
000220 db b8 9b 3e 27 0e 4c be d0 eb 4a bd 76 24 b4 bd
       0.3041447 -0.19927274 -0.049541295 -0.08796017
000230 fa 8d 8e 3c 50 14 a0 bb 7d 78 76 3e d8 72 27 be
       0.017401684 -0.004885234 0.240694 -0.16352403
000240 50 d2 d0 bd 3f 37 4e be 46 fe db 3d 85 ff 29 3d
       -0.10196364 -0.20138262 0.10741858 0.041503448
000250 13 85 5b be a4 f1 f2 3c 6c b0 a0 bd 8b 05 f6 3d
       -0.21437483 0.029656239 -0.0784615 0.12012776
000260 73 34 c0 bc 4e 8f 11 bd 5d c3 dc bd c5 ee 06 3e
       -0.02346251 -0.035537057 -0.1077945 0.13177021
000270 9e ce 5a bd c8 d8 d7 bc ba 7a 5e 3d ca be 20 3e
       -0.0534197 -0.026348487 0.05431626 0.1569778
000280 e8 cd 44 3d d8 7e 7a 3c 8d 9b 07 be ff 7b dd 3d
       0.04804793 0.015289031 -0.13242932 0.10814666
000290 d3 bd 45 bd c1 0d 30 bb 9e ca 2f be d0 80 33 be
       -0.048276734 -0.0026863667 -0.17167136 -0.17529607
0002a0 43 9b 28 be 50 54 02 bd 18 dc b6 3d 7e 31 18 3e
       -0.16465478 -0.031818688 0.08928698 0.1486263
0002b0 71 84 01 3e ad a8 03 3e 7f a8 5a 3d 17 52 55 be
       0.12648179 0.12857313 0.053383347 -0.20832096
0002c0 46 cf ca bd f1 d6 9a bd f1 42 4f bd 58 39 af bc
       -0.099028155 -0.07560528 -0.05060095 -0.021389648
0002d0 52 69 3a 3e de 2d c8 3d 87 74 3c 3e 7e 62 be bd
       0.18204239 0.097743735 0.18403827 -0.0929613
0002e0 8c 53 77 3d 9d ca ae 3d a9 6a ac bd 76 91 0e 3d
       0.06038241 0.08534739 -0.08418781 0.03480669
0002f0 a5 04 38 3c c9 6d 91 3d a0 a0 2f be 97 59 fd 3c
       0.011231576 0.07101018 -0.17151117 0.030926509

bias_hh_l0 f4 [192]
000000 81 8b 24 3e d9 c7 21 3b 88 e0 aa 3d 34 1e a0 3b
       0.16068842 0.002468577 0.08343607 0.004886413
000010 36 34 06 3e a2 16 55 3c b3 41 fc bc 4e 2b 0e 3d
       0.13105854 0.013005884 -0.030793047 0.034709267
000020 90 7a f1 3d 71 c0 3b 3d ab 7e 27 bd 7c 5f df 3c
       0.11790955 0.045837823 -0.040892284 0.02726721
000030 a4 0a 9d 3d e1 66 05 3e d8 9d 59 3e 4b 2a bc 3d
       0.07668045 0.13027526 0.21251619 0.09187754
000040 76 66 77 bd a7 17 dc 3d 7c 28 3f 3e ef 81 da 3d
       -0.06040045 0.10746699 0.18667787 0.10669314
000050 d7 5a bc bc ce 73 15 3e c1 77 85 bd 80 93 21 3e
       -0.022992535 0.14594957 -0.06516982 0.15778923
000060 3f 9c b6 3c e8 fb 24 3e 8e 72 b5 3d b6 2b 00 bd
       0.0222913 0.1611172 0.0885974 -0.031291686
000070 12 82 9a bd e4 9d 25 3c 5d 2e 39 bd 10 f1 0c 3e
       -0.0754434 0.010108445 -0.04521023 0.13763833
000080 73 52 0e 3e 28 fb e4 3c 90 d0 a5 3d 6d d6 74 bc
       0.1389864 0.027951792 0.08096421 -0.014943701
000090 f8 57 34 3e 84 21 c3 3d fe ac 3f 3d c3 e6 ef bc
       0.17611682 0.09527877 0.046795838 -0.02928484
0000a0 99 20 49 bd a1 f2 b9 3d 0a 94 1c 3e ce 74 0e 3e
       -0.049103353 0.09079481 0.15290847 0.13911745
0000b0 c7 50 2a 3e 92 92 4c 3e 06 2c 1e bd 44 31 57 3e
       0.16632377 0.19977787 -0.038616203 0.21014887
0000c0 73 60 5b 3d 97 09 ba bb 9d c9 de 3c 8c 52 f2 3d
       0.053558778 -0.0056774127 0.027195746 0.11832151
0000d0 a8 1b da 3d d7 b2 91 3c 1a 3e 58 3e 38 18 0f 3e
       0.10649806 0.017785473 0.2111744 0.13974082
0000e0 fb da 75 3e 8a f8 a2 bb b6 14 8c bd b0 3a 3a 3e
       0.24009316 -0.004973476 -0.06839888 0.1818645
0000f0 f0 29 b6 bd d6 d4 46 3e 6b 2e f5 3b 1e fa f2 3c
       -0.08894718 0.19417128 0.00748234 0.02966028
000100 70 b9 df be fd 9d 9f be 05 07 bd be 8f 18 84 be
       -0.43696165 -0.31175223 -0.36919418 -0.25799987
000110 01 13 26 bf 6c e7 a1 be d4 b8 69 be 05 7e f2 be
       -0.6487275 -0.31621873 -0.22824413 -0.4736177
000120 8c 69 f9 3c 94 7d d5 be 0c 57 db be 04 8a 17 bf
       0.030445836 -0.4169737 -0.4283985 -0.5919497
000130 21 7b b0 be b6 89 d1 be dc 4d 2b bf f1 3a 24 bf
       -0.3446894 -0.40925378 -0.6691568 -0.6415244
000140 39 3c c5 be 35 4e 03 bf 5b 3a 08 bf 62 24 51 bd
       -0.3852251 -0.5129121 -0.53214043 -0.051060088
000150 4c df e5 be 68 e6 d5 be 26 6b 7c be 6f f2 1f be
       -0.44896924 -0.4177735 -0.24650249 -0.15619825
000160 94 4b c2 be 20 c3 8a be 9b f2 57 be 03 64 ed be
       -0.37948287 -0.27101994 -0.2108864 -0.46365365
000170 d8 60 f0 be 7f 2b bd be 2c e9 98 be 10 a1 42 bd
       -0.46948886 -0.36947247 -0.29865396 -0.047516882
000180 c9 5a 1a bf 1d c2 d4 be f1 37 0a bf e4 47 8a be
       -0.6029478 -0.41554347 -0.5399161 -0.27007973
000190 de 14 df be 01 c2 14 bf 34 a4 b3 be 4e 01 3c bf
       -0.43570608 -0.58108526 -0.35086215 -0.7343949
0001a0 11 fb df be 3c 76 30 be d8 a2 8d be 79 67 6a be
       -0.43746236 -0.17232603 -0.27663302 -0.22891034
0001b0 5e b6 7f be 59 f0 db bc 9f ab 41 be 2d f8 17 bf
       -0.24971911 -0.026848005 -0.18913125 -0.5936306
0001c0 21 97 99 be 22 8e 0f be 7f 68 c0 be e6 9d 24 be
       -0.29998115 -0.14019063 -0.37579724 -0.16075858
0001d0 49 4d 17 be 52 04 ef be e7 ea d0 be 06 70 50 be
       -0.14775576 -0.46682984 -0.40804216 -0.20355234
0001e0 47 95 78 bd 63 ad 09 bf 23 c1 da bd 7f 91 87 be
       -0.060689237 -0.5378019 -0.10681369 -0.26478192
0001f0 4c 3a 24 bf cd 67 a2 be 0d 48 75 be 59 61 fb be
       -0.64151454 -0.3171982 -0.23953266 -0.49097708
000200 0c fb 5b be c4 0e 6c 3e e7 74 52 3e 2a 88 b6 3e
       -0.21482486 0.23052508 0.20552407 0.3565076
000210 eb a5 ce bd 21 04 19 be 24 a8 07 3e 14 0c 6d be
       -0.1009024 -0.14942981 0.13247734 -0.23149139
000220 1a f0 7a 3e fe c1 45 be a4 f1 49 3d 18 2e 71 3e
       0.24505654 -0.19312283 0.049302712 0.2355274
000230 89 83 3b 3d e9 cf 56 be fd b2 63 3e a5 4e 0d be
       0.04577974 -0.20977749 0.22236247 -0.13799532
000240 85 ff 78 3e 96 d5 4a be 7b fc 34 3e be d9 fc bd
       0.24316223 -0.19808039 0.17674439 -0.123462185
000250 c1 a0 96 3d 7f 32 bd 3c b1 10 05 3e 69 22 88 3e
       0.0735488 0.023095367 0.12994649 0.26588753
000260 4f 56 9a 3e 90 dd 82 3d 12 02 07 be 54 bd db 3d
       0.30143973 0.06389916 -0.13184384 0.10729471
000270 06 10 03 bd 88 f7 a0 bd 6c 8a 39 be 7d 2c 30 3e
       -0.031997703 -0.07859713 -0.1811921 0.17204471
000280 18 9c 35 bd 13 05 58 bd 28 55 87 be 37 0f 23 3d
       -0.044338316 -0.052739214 -0.26432157 0.039809432
000290 00 b3 43 be c2 d1 98 3e 80 cd c4 3d 94 5f e8 bd
       -0.19111252 0.29847533 0.096095085 -0.11346355
0002a0 5e 90 ce bd df 64 72 be 29 9c cd 3d c0 f6 f9 3c
       -0.100861296 -0.23671292 0.10039551 0.030513167
0002b0 58 10 21 bd ce d9 5f bd 6c f8 0b be dc f8 80 be
       -0.039322227 -0.054651074 -0.13668984 -0.25189865
0002c0 b6 1c 0f 3e cb c4 92 bd 8e 4f 10 be ce ec 17 3e
       0.13975796 -0.071664415 -0.14092848 0.14836428
0002d0 ff b0 9e 3d 3f ec 26 be e9 b4 72 3e 34 06 9c bd
       0.07748603 -0.16301058 0.23701824 -0.07618371
0002e0 7f d9 26 3e 74 c0 40 3e 2d 93 0e be 7b a9 90 3d
       0.16293906 0.18823415 -0.1392333 0.07063576
0002f0 52 77 3d 3d c6 8b 22 3e d3 e2 38 bd 2c c6 a6 3d
       0.04625637 0.15873632 -0.04513819 0.08143267

weight_ih_l1 f4 [192, 64]
000000 9e 36 58 bd 4d 14 19 be 16 8c 30 3e 7f 6f c6 bd
       -0.052786462 -0.1494915 0.17240939 -0.09689235
000010 a3 e2 c0 3d e5 1e f7 be ff a1 c5 bc 51 19 55 be
       0.094182275 -0.48265758 -0.024125097 -0.20810439
000020 12 8b 86 3e df 3b ee be 20 8f 14 3e 10 0b 85 3e
       0.26277977 -0.46530053 0.14507723 0.25985003
000030 00 25 88 3e 6d e9 ad be aa c7 86 3d 7b 67 e9 bd
       0.2659073 -0.33967152 0.06581052 -0.113966905
000040 43 fc 04 bc d9 17 eb bd b0 8d 8d 3e e9 7a 14 be
       -0.0081167845 -0.11479158 0.2764716 -0.14500012
000050 bf e3 1a be 2d 8e 8a bd be 24 96 3d ac a9 78 3e
       -0.1512594 -0.06765399 0.07331227 0.24283475
000060 36 e5 41 3e 8f dc 68 bd b3 de fb 3c 04 b0 7f be
       0.18935093 -0.056850966 0.03074584 -0.24969488
000070 a7 9c 2c be ac 51 bf bd 3a d6 f5 3c b2 9b 2c 3b
       -0.16856633 -0.093417495 0.030009378 0.0026337919
000080 d7 8d e7 3d 1f 77 b9 bd 87 44 d6 3c 57 1d ef 3c
       0.11306351 -0.09055924 0.026155723 0.029188795
000090 5d 26 7c 3d 65 71 d9 bd e6 c4 be bd 74 04 f1 bc
       0.061560024 -0.106173314 -0.09314899 -0.029421069
0000a0 2c a4 1f be 61 38 a7 bd 7c 5e 7b 3e 23 14 63 3d
       -0.1558997 -0.0816505 0.24547762 0.055439126
0000b0 7d 83 4c be fb 87 2e 3e 40 95 08 bd c6 10 55 be
       -0.19972034 0.1704406 -0.03334546 -0.2080718
0000c0 12 9f 24 3c 37 62 df 3d de 94 15 bd b6 ac 8e 3e
       0.010047691 0.10907405 -0.036518924 0.27866143
0000d0 88 38 96 3e 3a 63 06 3e 01 90 2d 3e 2e d0 c9 bd
       0.29340005 0.1312379 0.16949464 -0.0985416
0000e0 02 d1 bd 3e 89 fa 81 bb 3f 34 df bc 54 28 ab bd
       0.37073523 -0.0039666337 -0.027246593 -0.08357301
0000f0 06 69 60 3e 4d ff f6 bd 42 3d e9 bd 03 2c 51 be
       0.21915063 -0.120604135 -0.11388637 -0.20426945
000100 0b a3 b1 be f1 2e 74 be c1 8b ae 3d a7 e5 fe 3d
       -0.34694704 -0.23846032 0.0852275 0.124461465
000110 7b 33 95 3d 34 66 ec bc 4a 1e b8 3d be 1c 30 be
       0.0728521 -0.028857328 0.08990152 -0.17198464
000120 c2 2e 17 3e 27 e3 2b be 3f a0 7a bd 8f 93 ae bd
       0.1476393 -0.1678587 -0.06118798 -0.08524238
000130 53 86 a7 bd 41 c7 f2 3c 25 45 36 3d 7d c3 36 be
       -0.08179917 0.029636027 0.044499535 -0.1784801
000140 64 4f 93 3d d0 ec df 3d 63 f0 30 3e c3 f9 7b bd
       0.07192877 0.1093384 0.172792 -0.06151749
000150 16 65 1c be 82 a4 8e be 9c e1 5f 3d 84 83 99 be
       -0.15272936 -0.27859885 0.054658517 -0.2998315
000160 3b ee bc 3c e8 2a 4e be fc c5 93 bc 66 d2 c1 3e
       0.023062816 -0.20133555 -0.018038742 0.37855834
000170 ce 44 63 3e 38 d0 b3 be bd f1 74 be 98 b0 d6 bd
       0.22194216 -0.35119796 -0.23920341 -0.10482901
000180 41 e7 5c 3e f6 f9 fc 3d 49 e6 bf bd f9 9b a9 bd
       0.21572591 0.12352364 -0.09370095 -0.082817025
000190 53 19 65 3e d7 c4 ec bd 39 a0 c4 3d 2f 8b 80 3e
       0.22372942 -0.11560982 0.096008725 0.2510619
0001a0 cd fe 82 be ea c3 14 3e ed dd 84 be d4 fe 03 3d
       -0.25585023 0.1452786 -0.25950566 0.032225445
0001b0 e8 35 01 be f1 d4 df 3d e9 6b 1c bd 06 5d 2e be
       -0.1261822 0.10929287 -0.03818885 -0.17027673
0001c0 a3 b5 b5 3e e1 59 e7 bd 97 41 76 be e7 51 aa 3d
       0.3549014 -0.1129644 -0.24048458 0.08316403
0001d0 bb 22 35 bd 4f 28 82 bb e3 2f 27 3c 25 a6 75 be
       -0.044222575 -0.0039720903 0.010204288 -0.2398916
0001e0 14 ab 6b bd a9 68 60 3d 2e 28 a7 be 19 81 31 3e
       -0.0575362 0.05478731 -0.32647842 0.17334403
0001f0 61 4c 03 3f da d3 29 be 81 7b a3 be a9 5d 72 bd
       0.5128842 -0.16584721 -0.31930164 -0.059171353
000200 32 17 30 bd 8c 7d 75 be 55 3f a5 3e d9 4d f5 3d
       -0.04299087 -0.23973674 0.3227488 0.11977739
000210 60 08 52 be 74 fe 3d 3e 41 ce a0 bd 89 23 ed bd
       -0.20511007 0.18554097 -0.0785184 -0.115790434
000220 3d a1 27 3e b7 68 e1 3d 5a 5b fd bd 45 52 85 3e
       0.16370101 0.11006301 -0.123709396 0.2603933
000230 e6 c7 1f be a6 b0 75 3d 2a 1e 05 3e b7 63 8c 3c
       -0.15603599 0.05998292 0.12999788 0.017137391
000240 2f b3 63 3e a0 1a a6 bd de 4e 42 be 80 30 58 be
       0.22236322 -0.08110547 -0.18975398 -0.21112251
000250 9e a2 46 bd 92 e8 bf 3e d8 21 57 bd 81 0d c4 3e
       -0.048494928 0.37482125 -0.05252251 0.38291553
000260 36 f9 d1 3d 84 c3 e9 bd 26 b8 38 3d 47 fb 29 3e
       0.10252611 -0.11414245 0.045097493 0.16599761
000270 9a ef 0d bd 69 32 c0 bd be 4c c5 b9 6d 42 8e 3e
       -0.03465233 -0.09384615 -0.00037631945 0.27785054
000280 a4 f2 ce 3e bb f8 78 3d 80 c5 07 3e 28 3d 56 bd
       0.40419495 0.060784083 0.13258934 -0.052304417
000290 01 90 2c be f6 64 52 3e 80 b0 9b bd f9 ac 06 be
       -0.16851808 0.20546326 -0.07602024 -0.13151921
0002a0 ef 64 58 bd 56 cd 79 be 4b a6 7a 3e 58 b5 48 3e
       -0.052830633 -0.24394736 0.24477498 0.19600427
0002b0 53 68 6d bd 8d 78 fd bd 06 2c ca bd 0a c9 3c 3e
       -0.05796082 -0.12376509 -0.09871678 0.18436065
0002c0 17 34 e3 3a 59 5e 5c 3e 77 eb 88 bd 7b a3 6d be
       0.001733425 0.21520366 -0.06685536 -0.23206894
0002d0 d3 cd 54 3e 23 b2 35 be 5a ad 85 3d 68 8d 61 3e
       0.2078164 -0.17743735 0.06527205 0.22026598
0002e0 55 39 8d b9 31 06 e6 3d 8b a2 09 3d 23 c6 20 be
       -0.0002693633 0.1123165 0.03360228 -0.15700583
0002f0 0c 7b 67 be 97 9a 5f bd 55 9b 25 be 59 34 2d bd
       -0.22605532 -0.054590788 -0.16172536 -0.04228625
000300 ca ee 3c be 83 47 52 3d 36 e6 95 3d 8d 73 ed 3d
       -0.18450466 0.05133773 0.073193 0.11594305
000310 18 09 d5 3d 46 c4 bb 3d 15 14 bd bd 7a 05 e0 bb
       0.10402125 0.091682956 -0.09232346 -0.0068365904
000320 00 cf bb bc 71 01 1d 3d 0b 05 49 bd 82 13 1e 3e
       -0.022925854 0.038331453 -0.049077075 0.15437129
000330 03 a2 8e bd c6 f0 71 3e cd cc fc 3d da 54 d3 bd
       -0.06964495 0.23627004 0.1234375 -0.103189185
000340 9f c4 b1 3d a4 dd e4 3d 98 52 26 3e 7c 09 f5 3d
       0.086800806 0.11175087 0.16242445 0.119646996
000350 6c 72 98 bd 37 f7 4e 3e 66 fe 9b 3d d1 36 fc bd
       -0.07443699 0.20211492 0.07616882 -0.12315143
000360 d6 b1 b6 bd 66 54 96 3d 9a 26 33 be 6e d3 83 be
       -0.08920638 0.073403165 -0.17495194 -0.25747246
000370 f0 bd e5 bc c3 ba 5e bd 24 45 76 3d b8 8a 71 3e
       -0.02804467 -0.05437733 0.06012453 0.23588073
000380 6f 89 c5 3e 9f 58 3e 3e 17 92 10 be 3a cf 38 3c
       0.38581416 0.18588494 -0.14118229 0.011279875
000390 f8 d7 7d 3e f0 cd 3a be 5c e2 1e 3d e2 cc fd ba
       0.24789417 -0.18242621 0.038790092 -0.0019363428
0003a0 50 28 f8 3c a7 3a c3 bd df 60 5f 3d 8d bb 36 3e
       0.03029266 -0.095326714 0.054535743 0.17844982
0003b0 c0 2c 3c 3e ef fa 80 be 68 e5 8d 3d 4d eb fd bd
       0.18376446 -0.25191447 0.069285214 -0.12398396
0003c0 68 5e 3b bd 50 9b 90 be dd 1d aa bd d5 92 ce bc
       -0.04574433 -0.28243494 -0.08306477 -0.0252165
0003d0 4b b5 ad 3d 1d c6 90 be 32 b1 ec 3a ec cd f7 bd
       0.084818445 -0.28276148 0.0018058179 -0.12099823
0003e0 04 11 5e 3d 40 7c 73 3e 9e ee 46 be a1 5d 4e 3d
       0.054215446 0.23777866 -0.19426963 0.05038226
0003f0 5d 00 27 3d 24 9b 8c 3d e6 5d ef 3d bc 84 61 3e
       0.04077183 0.06865528 0.116878316 0.2202329

weight_hh_l1 f4 [192, 64]
000000 76 a0 a7 bd 92 97 cc bc bc 1a 0e be 35 48 3c 3e
       -0.08184902 -0.024974618 -0.13877386 0.1838692
000010 e2 f5 94 bc 6d 5b ad 3c 69 9c 85 be 7a d2 37 3e
       -0.018183652 0.02116176 -0.26095894 0.17951384
000020 ab 6d 8c 3e 62 3f c0 3d 1e fe 12 be 70 35 8f 3c
       0.2742742 0.09387089 -0.1435475 0.017481536
000030 b3 64 24 3d 1c ef 52 3e af 5c 8a 3b 91 55 8a be
       0.040135097 0.20599025 0.0042224745 -0.27018407
000040 86 5f 96 3d de c9 92 3e 51 02 aa bb 34 8b 8c bd
       0.073424384 0.28669637 -0.0051882644 -0.068624884
000050 45 41 2a bd ce 23 53 be 58 8d d7 bd de 66 84 be
       -0.041566152 -0.20619127 -0.10525006 -0.2585973
000060 0e 7b 5c bd b1 0b 9a 3d 4a 4a 17 bd 0d e4 bc 3e
       -0.05382829 0.07521761 -0.036936082 0.3689274
000070 3d 13 37 3e fc a7 8b 3c 48 83 6f 3d 15 62 d9 bc
       0.17878433 0.017047875 0.05847481 -0.026536027
000080 af ea 61 3d 2f c5 82 be 15 87 e8 bd 01 0e 4e 3d
       0.055155452 -0.25541064 -0.1135389 0.050306324
000090 f4 cf 16 3c 39 a4 39 3e e3 93 17 3e 66 8c fa bd
       0.009204853 0.18129052 0.14802508 -0.1223381
0000a0 fb c1 ec bc 95 bb 89 bd 21 a5 32 bd 56 5b 3d 3e
       -0.02890109 -0.067252316 -0.04361451 0.18491873
0000b0 a8 2e 03 3e ca 17 a6 3d 25 da 8c 3e 33 a1 cc 3d
       0.12810767 0.08110006 0.2751018 0.09991684
0000c0 37 ea 3b 3e ab 6f 6e 3d 07 a3 85 be 57 39 84 be
       0.18351065 0.058211964 -0.26100942 -0.25824997
0000d0 5a 10 eb bd f5 51 df 3d 16 7e 58 3e 6c 4a 1b be
       -0.11477728 0.10904304 0.21141848 -0.15165108
0000e0 5c 5f 6f bc ea 82 fd 3d 57 94 10 3e 0e 32 a1 3c
       -0.014610138 0.123784855 0.14119087 0.019677188
0000f0 af e9 44 3e 8e 1f 24 bd ad 07 ba bc 58 1b 9b be
       0.19229768 -0.040069155 -0.022708738 -0.302943
000100 b1 37 22 3d 40 b0 9a 3e 31 bf 37 3d dc f6 fe bd
       0.039603893 0.30212593 0.04486007 -0.124494284
000110 89 e9 48 3d db 7e 82 be e6 3a d2 3d 8b ab f2 bd
       0.04905084 -0.25487408 0.1026514 -0.118491255
000120 0b bd 33 3b b7 52 4b 3d 7b 4c 5e ba 39 68 ec 3e
       0.002742591 0.04963943 -0.00084800244 0.46173266
000130 fc d5 0f bd 8d 69 32 3c 02 1c a8 3c 1b a6 1b be
       -0.03511618 0.010889423 0.020521168 -0.15200083
000140 61 b5 d2 bb 8d ce a1 bc 5f 00 f6 b9 7b 2e 88 3e
       -0.0064303135 -0.019751811 -0.00046921053 0.26597962
000150 06 78 dd 3d 49 42 b6 3e e5 b1 20 3d 91 11 20 3e
       0.10813908 0.35597447 0.039232153 0.15631701
000160 8b 33 e0 3c ad 27 7e 3c 96 f8 5b be 47 4d 61 bd
       0.027368328 0.015512389 -0.21481547 -0.055005338
000170 5d c9 39 bc ec 2e 8a 3e 77 ff 06 bd f7 1c b3 bd
       -0.011339513 0.26988924 -0.032958474 -0.08745759
000180 bf 4f 68 be d5 ea a3 be 23 fd 03 bd b1 62 b3 bd
       -0.2268667 -0.320151 -0.03222383 -0.08759058
000190 b5 c2 a1 bd e4 0c 23 3e a9 fe f3 3c 74 a4 86 3d
       -0.078984655 0.15922886 0.029784517 0.06574336
0001a0 5a 3b 1f 3d 08 dd ae 3c 0b 83 55 3e 25 6f 38 be
       0.03887496 0.02134563 0.2085077 -0.18011148
0001b0 ef e7 5a 3e 8f b3 d4 bd a1 9b 11 be 61 f5 f3 bb
       0.21377538 -0.103858106 -0.14219524 -0.007445023
0001c0 67 ad aa bd 9c f9 50 3d 50 68 b5 3e b8 cc 87 bc
       -0.08333855 0.051019296 0.35431147 -0.01657711
0001d0 0e cf 0b 3e b3 1c cb 3e 27 54 0d be 4e 87 1f ba
       0.13653204 0.39670333 -0.13801633 -0.00060855306
0001e0 ef d4 0d be 19 b8 37 bc 64 5c 50 3e a5 26 a1 bc
       -0.13850759 -0.011213326 0.20347744 -0.019671747
0001f0 76 0b 02 bd 4f 96 63 bd 2e 09 a4 be ff 8e da 3d
       -0.03174921 -0.055563267 -0.32038254 0.106718056
000200 2a 11 10 be ad 38 51 3e 2e ab 13 3d c8 e8 df 3d
       -0.14069048 0.20431776 0.03605192 0.109330714
000210 18 53 89 3d 17 44 42 3d 5c 96 40 bb db 6f ea bd
       0.06705302 0.047428217 -0.0029386496 -0.11447116
000220 92 31 86 bc 45 99 d2 3d 67 ed fa bd 11 2f 47 be
       -0.016381059 0.1028314 -0.12252312 -0.19451548
000230 e7 22 31 3e 8f bf 7a be a5 0e fc 3d 48 25 96 3d
       0.1729847 -0.24487136 0.12307481 0.073313296
000240 d9 6d bf 3d 88 e3 97 bc d4 96 6e 3e c5 ce 7d bd
       0.09347124 -0.018541113 0.23299724 -0.06196477
000250 cd b6 5a 3d c4 d2 98 3d 81 2c 85 3d b8 76 c9 3d
       0.05339699 0.07462075 0.06502629 0.09837097
000260 f9 13 72 be 57 15 3a 3d d4 a5 db 3c 27 2d 33 be
       -0.23640431 0.045430508 0.026812471 -0.17497693
000270 ed 09 f0 bd 77 b8 3d bc 6a 36 a5 bd e6 19 2b bc
       -0.11720643 -0.011579624 -0.08067019 -0.010443186
000280 bf 51 fd bb 67 a0 06 be ec 72 64 bd 25 7d d4 bd
       -0.007730692 -0.13147126 -0.05577366 -0.10375432
000290 d5 84 96 3d a4 a1 6d bd 32 aa 20 bd 23 b9 3a be
       0.073495544 -0.05801548 -0.03922481 -0.18234687
0002a0 87 50 04 be 12 1e 3d 3d 3d 3d 93 bd 6c 67 80 3e
       -0.12921344 0.046171255 -0.07189415 0.25078905
0002b0 b9 57 01 3e e9 0d 8e 3d 08 0f 99 be 29 d5 0d be
       0.1263112 0.06936247 -0.2989428 -0.13850845
0002c0 7e c5 80 3d 29 dc ab 3c f5 f3 84 be e5 a5 42 3e
       0.06287669 0.020979004 -0.25967374 0.19008596
0002d0 84 58 90 bd 2c 43 d5 3d 6d 6a 34 3e 3c 2a 5a 3d
       -0.07048133 0.10413203 0.17618723 0.053262934
0002e0 13 a3 53 3c 52 b9 92 bd f7 6b dd bc e9 b6 e7 bd
       0.012917298 -0.07164253 -0.02702902 -0.11314184
0002f0 37 28 73 bd 5e d2 5b 3d 7e 3f f1 bd 3d 92 35 3d
       -0.059364524 0.05366742 -0.11779688 0.044328917
000300 ec 21 35 bd f3 78 04 be 58 60 13 bd 5c 35 17 be
       -0.044221804 -0.12936763 -0.035980552 -0.14766449
000310 ef cc a6 3d ba e1 d2 3d 45 4a cc be 60 9a c6 3c
       0.08144557 0.1029696 -0.39900413 0.024243534
000320 d7 46 04 3e 74 d5 49 3e 41 a8 d1 3d f3 60 f3 be
       0.12917648 0.19710332 0.1023717 -0.47534904
000330 11 be 83 bd e2 ff d7 bd 10 5b 53 be 73 9c 27 be
       -0.06432737 -0.10546853 -0.20640206 -0.16368274
000340 52 d8 94 bb a4 3c 37 3b 56 fb 02 be 09 8c 32 be
       -0.004542389 0.0027959729 -0.1279119 -0.17436232
000350 91 cd a2 be e7 1c ee bd 73 ce 92 bd 95 35 49 bc
       -0.3179746 -0.116266064 -0.07168283 -0.012280841
000360 43 23 48 be d8 92 8e 3e cf c4 a8 bd f2 4b 52 3e
       -0.19544701 0.27846408 -0.08240663 0.20536783
000370 8a 03 1d 3e 09 eb 5d be 45 1d 57 3d f4 0a 49 3e
       0.15333381 -0.2167169 0.052518148 0.19633085
000380 6a 45 07 3e 0f 5d e5 3c 70 18 23 be 3c 33 5e 3e
       0.13210073 0.027998475 -0.15927291 0.21699232
000390 65 db 12 be 4b 80 a3 bd dc aa b7 3d da f4 ae bd
       -0.14341505 -0.07983454 0.08968136 -0.085427955
0003a0 b3 ec b1 bd 1b 24 82 bc fc 06 01 3e 8c a2 73 be
       -0.08687725 -0.015886357 0.1260032 -0.23792475
0003b0 88 55 b4 3c 1a 4b df 3b 41 93 4c 3e eb 48 f9 3c
       0.02201344 0.0068143727 0.19978048 0.030430278
0003c0 29 62 bd bc 24 ab 35 bc 1d a9 64 3e 0c c2 54 be
       -0.023118095 -0.011088166 0.22330137 -0.20777148
0003d0 0e 29 42 be a8 5b 18 3d a4 54 7d bc e3 65 b4 bd
       -0.18960974 0.037196785 -0.015462074 -0.08808496
0003e0 4e 06 8f be e5 f8 8a bd ab 38 72 3e cd e5 2d bc
       -0.27934498 -0.06785754 0.2365443 -0.010613871
0003f0 bb 33 ba 3d 84 19 d4 bd 78 e2 aa 3e d3 9b d1 bb
       0.09091898 -0.10356429 0.33375907 -0.0063967495

bias_ih_l1 f4 [192]
000000 42 52 70 3d ab ab 22 bd 7c 80 26 3e 37 7b 41 3d
       0.058672197 -0.039714497 0.1625995 0.047236647
000010 6f 03 40 3e 47 3a b2 3c 74 77 5a 3e 41 b9 a9 3d
       0.1875131 0.021756304 0.2133463 0.082872875
000020 00 fd 03 3e c6 54 65 3d 3a 77 7a 3c b7 a2 33 3d
       0.1288948 0.05598905 0.015287215 0.04385635
000030 ad be 9a bc 98 d1 78 3d 9a b3 c3 bc 5d b0 89 bb
       -0.01888975 0.06074676 -0.023889352 -0.0042019323
000040 e1 0a 62 3c 33 29 e4 bd e5 fd 8b 3b 67 96 fd bc
       0.013796539 -0.111406706 0.00427221 -0.030955506
000050 69 35 a7 ba 44 8c 3e 3e e8 c7 97 3d b4 c8 a8 3d
       -0.0012757006 0.18608195 0.07411176 0.08241406
000060 9f 66 6f bd 0c 80 17 3d 66 07 29 be 3a 0a 9e bb
       -0.058447476 0.03698735 -0.16506729 -0.0048229964
000070 a8 0d b8 3c 4a 0b a7 bc e9 db 59 3c d5 df 84 bd
       0.02246745 -0.020391125 0.01329706 -0.06488005
000080 5d 88 93 3b ad 08 98 3d 88 59 d1 bc 5a e3 be bd
       0.0045023398 0.0742353 -0.025555387 -0.093207076
000090 13 c5 f2 3d 12 84 ef 3d ba d9 9f 3d 91 4c 92 bd
       0.11853995 0.11695112 0.078052 -0.0714351
0000a0 62 1a e8 3d c3 af a0 bd ce 16 ab 3d f9 99 42 3d
       0.11333157 -0.07846024 0.08353959 0.04751012
0000b0 2e 8f af 3c 41 7e c2 3a 29 16 58 3d 26 a5 db 3d
       0.021430578 0.0014838652 0.05275551 0.10724859
0000c0 d2 23 d0 3d 3a 93 d6 3d e3 b6 f5 3d 22 ee 04 3d
       0.10163082 0.104773 0.119977735 0.032453664
0000d0 5e 85 9a bd 4e 32 a0 bd 29 9f 09 3e d9 f9 10 3e
       -0.07544969 -0.07822095 0.13439621 0.1415781
0000e0 de 0c 82 3d ba 19 68 bd c6 fa ec 3d 6b 8b 93 3d
       0.063501105 -0.05666516 0.11571269 0.07204326
0000f0 5d d4 e0 3d 8b b5 cb bc 51 0f 01 be 78 22 09 3e
       0.10978005 -0.02486684 -0.12603499 0.13392055
000100 b7 91 b2 be d5 70 35 be 20 e3 31 be f5 42 6b be
       -0.34876797 -0.17718823 -0.17371798 -0.22974761
000110 43 1a 93 be 65 2e 4f be 8d cf c2 3d ef e2 87 be
       -0.28730974 -0.20232542 0.095122434 -0.26540324
000120 d9 83 5b be 5e e7 af be 06 e3 57 be 11 41 1c be
       -0.21437015 -0.34356207 -0.21082696 -0.15259196
000130 a4 f8 92 be 6e 32 59 be 9e aa 00 bf 5b c5 1c bf
       -0.28705323 -0.21210644 -0.5026034 -0.6123864
000140 eb 92 b0 be 62 f8 84 be 9e b6 af be 16 5e 66 be
       -0.3448709 -0.2597075 -0.34319013 -0.22496828
000150 7d 60 31 3d 39 cd 0a bf fa 4e b9 be 17 74 cd bd
       0.04330491 -0.54219395 -0.36193067 -0.10031908
000160 de b5 e5 bd a1 43 d3 bd 48 21 02 bf 7f 84 9b be
       -0.11216329 -0.103156336 -0.50832033 -0.30374524
000170 56 62 d1 bd d8 e2 15 bf 26 0e a8 be 6e f0 33 bd
       -0.10223834 -0.5854926 -0.32823294 -0.043930463
000180 fb cd b7 3d ee 3a 9c be 8f 7c ce be a4 36 5c be
       0.089748345 -0.3051371 -0.40329406 -0.21505219
000190 56 39 41 be 20 a3 09 bf 09 83 4b be 1f 70 94 bd
       -0.18869528 -0.53764534 -0.19874205 -0.07247948
0001a0 5a 26 64 be e4 49 a5 be 3f 7a a5 be c9 15 1e be
       -0.22280255 -0.32282937 -0.3231983 -0.15437998
0001b0 e5 cc 09 be a0 c2 62 be c3 d0 e5 bd c9 9a 2a be
       -0.13457067 -0.22144556 -0.11221459 -0.16660608
0001c0 28 cb d4 bd 34 31 de bd 14 05 d3 be dc 9b 9b be
       -0.103903115 -0.108492285 -0.41214812 -0.3039235
0001d0 ed 51 9a be a4 f0 8a be 28 74 f1 be 6b 13 21 be
       -0.3014063 -0.2713672 -0.47158933 -0.15730064
0001e0 c5 c0 f0 bd 4c b4 85 be 97 6c 8d bd 4c 83 d8 be
       -0.11755518 -0.26114118 -0.069054775 -0.42287672
0001f0 8c cf 06 bf 04 5f 8c be 4c 93 8b be a2 43 d8 be
       -0.5266044 -0.2741624 -0.27260816 -0.422391
000200 ee 8e 52 be 66 f5 76 bd 57 0b 0b 3e 51 53 d4 3c
       -0.20562336 -0.060292624 0.13578545 0.025918635
000210 2e 5c c4 3d 92 5c d1 bd 2d bc b1 bd 79 fa 81 bb
       0.095878944 -0.102227345 -0.0867847 -0.0039666262
000220 91 a8 d9 bd 09 27 97 3d d2 dc 7b be 3b 09 70 3e
       -0.106278546 0.07380492 -0.24595955 0.23441021
000230 89 11 ad bc 14 75 63 3c 36 51 60 be d0 af 97 bd
       -0.021126525 0.013882894 -0.2190598 -0.074065804
000240 33 c9 ed 3d ee 15 3c 3d ae a0 f1 bd 2a dc 6d bd
       0.11610641 0.04591935 -0.11798225 -0.058071293
000250 02 49 cd 3d e8 5d 9a 3d 96 ad ae bd 63 29 11 3d
       0.10023691 0.075374424 -0.08529203 0.03543986
000260 2b 38 c5 bd 0f aa 1f 3d 2e 4e 9d bd 12 68 df bd
       -0.09629854 0.03898054 -0.07680927 -0.10908522
000270 a3 dc 14 be 6f ad 0c 3d cb 94 a2 bc 50 85 e2 bd
       -0.14537291 0.034345087 -0.01984634 -0.110605836
000280 9e 31 35 3e 68 33 11 3e 83 3d 78 be 1f 17 09 be
       0.17694709 0.14179766 -0.24242215 -0.13387726
000290 5b 60 af 3d 6c 42 51 bc 60 e0 98 bc 5c 8a d0 3c
       0.085633 -0.012772184 -0.018661678 0.0254566
0002a0 eb 1a 84 3d f2 f6 ac 3d ac c3 2a 3d cc ea 53 3c
       0.06450447 0.084455386 0.041690513 0.012934398
0002b0 da d3 4c be 7d 6b e8 bc f1 e6 a7 be 61 69 25 bd
       -0.2000269 -0.028371567 -0.32793382 -0.0403837
0002c0 70 2d e7 bc 69 08 68 3e e0 21 0a 3c f9 39 4c be
       -0.028219908 0.22659458 0.008430928 -0.1994399
0002d0 c8 69 94 be 6c e0 bd 3d 36 90 a7 3d 55 b8 5d be
       -0.28986955 0.09271321 0.08181803 -0.21652348
0002e0 07 26 35 3e 74 c2 83 bb 46 9a 2b 3d 5d ca 9c bd
       0.17690288 -0.0040209834 0.041895173 -0.07655785
0002f0 e0 07 ef bd c7 03 b1 bd 5c 48 99 ba f9 6a 81 3d
       -0.11671424 -0.086432986 -0.0011694538 0.063192315
