action_LossPrune/model1_ticket.pth (torch, 209742 bytes, 12 tensors)

weight f4 [125, 16]
000000 b7 d2 07 bf e0 a2 90 bf dc 62 2c bf d1 54 44 bf
       -0.530559 -1.1299706 -0.6733835 -0.7669192
000010 5f ee 33 bf 8f 59 7d 3f cc 80 e5 be 80 87 64 3f
       -0.702856 0.9896478 -0.44824827 0.89269257
000020 83 98 32 3f 8b 57 4a bf 92 18 58 3f e7 8d bf 3d
       0.69763964 -0.7903983 0.8441249 0.093532376
000030 01 f7 c0 3e 5b 7d 7e 3f 40 20 7b bf b6 88 ab 3e
       0.3768845 0.9941003 -0.98096085 0.3350274
000040 3b db ae bf f0 9f bb be b2 86 40 bf e2 f7 86 be
       -1.3660654 -0.3664546 -0.7520553 -0.26360995
000050 3e 1e a9 be 82 d1 43 bf e5 13 56 3c ad 22 2d 3e
       -0.33030885 -0.7649156 0.013066267 0.16907759
000060 a1 d6 9a 3f d5 0d c9 bd e2 e7 8a bf 71 61 86 3d
       1.209675 -0.098170914 -1.0852015 0.06561554
000070 6a 61 89 3e ae 1c f7 bf 68 be a2 bd bc f8 15 3f
       0.26832134 -1.9305627 -0.07946473 0.58582664
000080 c4 66 ac bf 67 f3 41 40 fb bb ea bf e8 eb 50 40
       -1.3468862 3.030481 -1.8338617 3.2643986
000090 2c e3 86 3f a0 0c 89 bf f3 ca 72 3f c7 c9 b7 3f
       1.0538077 -1.0706978 0.94840926 1.4358453
0000a0 13 c7 52 3f e0 d0 42 3e 02 1e b5 3f ec b0 0a bf
       0.82335013 0.19024992 1.4149783 -0.5417621
0000b0 a3 e3 eb be da 3e 86 bf 45 0b 1a bf 4a 3a b1 3e
       -0.4607211 -1.0487931 -0.60173446 0.34614784
0000c0 1d f1 b8 3f 49 4a 11 bf 49 f9 dd 3f 5c 4b a4 3f
       1.4448582 -0.56753975 1.7341701 1.2835498
0000d0 5a 20 f6 bf 56 fc 09 bf 55 aa 54 bf ee 70 21 3f
       -1.9228623 -0.5390066 -0.83072406 0.6306294
0000e0 10 c8 82 3e 3b 40 6c bf 6c d2 22 c0 0f 64 9b bf
       0.2554326 -0.9228551 -2.5440931 -1.213991
0000f0 62 87 91 bf 33 07 cf 3f 5e ac 86 3e dd ee 25 3e
       -1.136944 1.6174072 0.2630338 0.162044
000100 b4 8f 5f bf 9b 31 89 bf ea 0e 74 3e ec 47 10 3f
       -0.8732865 -1.0718263 0.23833814 0.56359744
000110 81 b6 b7 3f 7f bc 86 bf 50 b4 00 be ef 88 01 bf
       1.4352571 -1.0526274 -0.12568784 -0.5059957
000120 17 4d b3 bf f1 3b 80 be 6e 41 ba 3c 08 9d 92 bf
       -1.4007901 -0.25045732 0.022736277 -1.1454172
000130 7a f7 0a 3f fb 4e 80 bf ea fc 97 3e d0 66 7e bf
       0.5428387 -1.0024103 0.29685146 -0.9937563
000140 ac fa 68 3f 8e 08 0a bf 0e 73 27 3f 96 26 f5 3f
       0.91007495 -0.53919303 0.65409935 1.91524
000150 58 a4 28 be e2 a8 22 bf 3e 98 b7 be 60 af 0c 40
       -0.16468942 -0.63538945 -0.3585834 2.198204
000160 6b 37 d2 bf e0 2f 72 be 4d 2c b6 3f 07 c6 b1 3d
       -1.6423162 -0.23651075 1.423227 0.08680349
000170 5f 5e 20 be b9 18 1f 3f 4e 51 02 bf c1 f3 92 bd
       -0.15661 0.621471 -0.5090531 -0.071753986
000180 4a 60 96 bf b8 b3 b4 bf 1c 86 2c bf 09 31 02 c0
       -1.1748135 -1.4117346 -0.67392135 -2.0342429
000190 e4 ef 82 3e e1 e9 11 c0 f2 09 3d 3f e6 da b4 bf
       0.25573647 -2.2798998 0.738433 -1.4129303
0001a0 b2 bf 61 bf a1 e3 8b bf 7e 99 9f bd e2 c6 ec 3f
       -0.8818313 -1.0928842 -0.07792948 1.8498194
0001b0 cc 12 13 be 02 39 9d 3e d7 41 47 bf be 1a 36 bf
       -0.14362639 0.30707556 -0.7783484 -0.71134555
0001c0 17 f9 1e c0 7c 77 a0 bf 50 b7 f2 3e 21 06 a0 3f
       -2.4839532 -1.2536464 0.4740548 1.250187
0001d0 9d bd cc 3f 8a cc c5 bf 90 44 06 3f ab 52 38 bf
       1.5995365 -1.5453045 0.5244837 -0.7200114
0001e0 d9 54 a8 bd 27 84 d2 3f c5 cf 19 bf 46 92 10 3f
       -0.082193084 1.644658 -0.60082656 0.56473196
0001f0 90 07 cb 3e 83 5e 44 3f 95 22 0b bf c7 c5 81 3f
       0.39654207 0.76706713 -0.54349643 1.0138482
000200 cd 0a dc 3e d7 97 c9 be c9 f7 68 bf be f6 dc 3e
       0.4297699 -0.39373657 -0.9100309 0.43157
000210 2d 40 62 3f 2b 03 79 3f 93 b3 37 3f d7 0a e4 be
       0.88379174 0.9727046 0.71758384 -0.4453952
000220 af a8 e3 be 9e f5 9d 3f a3 54 1e bf da e6 33 bf
       -0.44464633 1.2340581 -0.61847895 -0.70274127
000230 48 3b 35 be 14 df b8 3e 57 b9 7f bf fe 9a 6e bf
       -0.17698395 0.36107695 -0.9989218 -0.9320525
000240 63 c0 f5 bf 45 b7 92 bf 88 73 c1 3f 72 14 96 bd
       -1.9199337 -1.146218 1.5113382 -0.073281184
000250 62 07 30 bf c7 86 9c 3f d6 21 41 3f b8 9b bd 3f
       -0.68761265 1.2228631 0.75442255 1.4813147
000260 db d6 02 3e 27 d2 06 40 c6 8b ac bf 38 58 3e bf
       0.12777273 2.1065767 -1.3480155 -0.7435336
000270 b3 7b 29 3e 06 ec 5a 3e e8 17 a3 bf f1 1d 24 3f
       0.16551094 0.21379098 -1.2741671 0.64108187
000280 78 cc aa 3e db 09 24 bf 8d b6 77 bd 31 51 ec 3d
       0.33359122 -0.6407754 -0.06047683 0.115389235
000290 bf 09 21 40 70 eb b6 bf 9a 75 e3 bd 0d 37 30 bf
       2.5162199 -1.42906 -0.11106415 -0.68834
0002a0 db 2c bb be b2 6b 60 3e 8a b7 96 bf 4d 72 66 3c
       -0.3655766 0.21916083 -1.1774762 0.014065337
0002b0 b4 14 db 3f 17 23 65 be 91 ba f7 be 87 cf c7 3f
       1.7115693 -0.22376667 -0.48384526 1.5610207
0002c0 c6 01 a3 3f 90 cc 96 be 19 ac c3 bf 68 53 2f be
       1.2734916 -0.29452944 -1.5286895 -0.1712166
0002d0 ce 44 91 3e f4 04 c7 be 99 f1 ea bf f3 76 34 3f
       0.28372806 -0.38870966 -1.835498 0.70494
0002e0 ad 12 3c 3f c3 63 0c bf 02 cb 04 bf 52 84 81 3f
       0.73465997 -0.54839724 -0.51872265 1.0118506
0002f0 e6 00 4a bf 80 61 05 40 ab 79 f8 bf ef a4 37 be
       -0.7890762 2.084076 -1.941213 -0.17934011
000300 17 ec a1 3e 66 d2 41 bf fe d2 b0 3f b7 fc c7 3e
       0.31625435 -0.7571167 1.381439 0.39059994
000310 e8 27 86 be e2 17 de be 25 88 b8 3f ce 30 9f be
       -0.2620232 -0.43377596 1.4416548 -0.31091923
000320 4e d5 f0 3e 4e 62 36 be d6 af 15 bf f2 2a 08 40
       0.4703774 -0.17810938 -0.5847143 2.1276212
000330 36 c2 fe bf cb ca f8 3f 7f 7e 3c bf f5 71 26 bf
       -1.9903018 1.9436888 -0.7363052 -0.65017635
000340 c6 57 80 3e 4f 88 5b bf d7 31 80 be 53 24 42 bf
       0.25066966 -0.85754865 -0.25038025 -0.75836676
000350 f5 42 20 bf f7 7f 18 3f 3a 1f 43 bf b4 46 d4 bf
       -0.6260217 0.5957026 -0.7621952 -1.6584077
000360 52 e5 9f 3f 78 7e 15 bf c9 b0 53 bf c1 5c 70 3d
       1.2491858 -0.583961 -0.8269163 0.058682207
000370 a9 fb 01 bf 92 c7 8d 3f 04 f1 50 be d8 de 07 bf
       -0.5077463 1.1076529 -0.2040444 -0.5307441
000380 e5 a8 e5 3f 58 26 a0 bf 66 ef a7 3e 25 e6 c8 be
       1.7942168 -1.2511702 0.32799834 -0.39238086
000390 d4 29 c8 be da b1 42 bf 06 63 39 3f 66 49 3d 3f
       -0.39094412 -0.7605263 0.7241672 0.7394012
0003a0 ab d6 06 c0 2a 87 0e bf f8 3c 0c bf b0 4c 84 3f
       -2.1068523 -0.55674994 -0.5478053 1.0335903
0003b0 5b 85 0b 40 7c e4 52 be 1d d5 be 3d d0 40 6c 3f
       2.1800144 -0.20594972 0.09317992 0.92286396
0003c0 23 b9 2d bf ad a6 23 3f 48 1b bf 3f 3c 66 79 be
       -0.6786062 0.639262 1.49302 -0.24355406
0003d0 aa 4e 72 bd 4c f9 39 be 34 dd 9b bf 14 d5 0b 40
       -0.05915705 -0.18161505 -1.2176881 2.1848803
0003e0 98 37 32 bf 7f f3 50 3f bd 23 c4 3e 4d bc f4 3e
       -0.6961608 0.81621546 0.38308516 0.47799912
0003f0 ce 5c a8 3d cb 4b 2a bd d6 ec b2 3f 4b 35 98 bc
       0.08220826 -0.041576188 1.3978527 -0.0185801

weight_ih_l0 f4 [192, 17]
000000 0e cd 5f bd db a4 7f bd 88 ec c9 3d d6 a9 55 3e
       -0.054638915 -0.062413078 0.09859568 0.20865569
000010 37 e0 c6 3d 74 67 1b be 6a 69 a4 bd 6d e8 dc 3b
       0.09710734 -0.15176183 -0.08027919 0.0067415745
000020 70 01 bc 3d cc 8a 62 3e 7e af ca bd 42 23 28 bc
       0.09179962 0.2212326 -0.09896754 -0.010262312
000030 94 ad 3b be 8f 53 24 be 61 ae 34 be f1 8c 28 3e
       -0.18327934 -0.160475 -0.17644645 0.16460015
000040 2f 1c 57 3e 29 95 43 3c 72 39 62 3e 51 d7 81 bd
       0.21006845 0.011937418 0.22092226 -0.063398965
000050 da 92 7d 3e 7a 2c 25 be d2 35 34 3e ac b3 84 bd
       0.2476305 -0.16130248 0.17598656 -0.06479582
000060 6b 19 33 3e 16 cf 03 be b5 7d dd be d2 1c 9e be
       0.17490165 -0.12871966 -0.4325997 -0.30881363
000070 68 51 dd 3d 8e 9a 01 3e 8b 02 66 bc 65 e1 37 3e
       0.10806543 0.12656614 -0.014038692 0.17957075
000080 7c 90 23 bc c9 19 ac be e9 79 9a 3d e5 06 b5 be
       -0.009983178 -0.33613423 0.07542784 -0.35356823
000090 54 22 80 bc de 09 22 3d ac 6e 22 be f5 a9 8d 3e
       -0.015641369 0.03956019 -0.1586253 0.2766873
0000a0 7c be 9b be 4c e5 30 3e 22 ee 93 be 12 52 94 3d
       -0.30418766 0.1727497 -0.28892618 0.07242216
0000b0 b4 6b 87 3e 8e 98 2d be 6c a3 28 bd 50 b6 c2 bd
       0.26449358 -0.16952726 -0.041171476 -0.095074296
0000c0 42 64 09 3e 57 b2 35 be eb cc 21 3d 27 6e 52 3e
       0.13417152 -0.17743813 0.039502066 0.20549832
0000d0 da 84 8d bd 20 10 86 3c e8 85 b1 3b d6 15 28 3e
       -0.06910105 0.01636511 0.005417574 0.1641458
0000e0 b2 d1 a2 be 48 38 93 3e 01 71 36 bd e2 55 22 3e
       -0.3180061 0.28753877 -0.044541363 0.15853074
0000f0 9e 96 3d bd 22 fd ac bd 9d 01 26 3d b4 f0 69 be
       -0.046286218 -0.08446719 0.040528882 -0.22845727
000100 ad 2b 4a bd 88 ad 25 3d 9a e5 e7 3c eb 3f 80 be
       -0.04935806 0.040448695 0.028307725 -0.25048766
000110 60 4e 15 be ca 75 30 3d 16 f6 51 bd 8f db 43 be
       -0.14580679 0.043081082 -0.051260076 -0.19126724
000120 d2 fe 2f bc 1c 27 5f 3e 2f 25 84 be 40 78 3b be
       -0.010741906 0.21792263 -0.2580962 -0.1830759
000130 ec a4 34 3d 82 68 30 bc 48 51 86 bd 5b 75 04 bd
       0.044102594 -0.010767104 -0.06558472 -0.03233848
000140 ad e7 0b be 3a a3 af bd e8 8f b1 bd 67 1c 7c 3d
       -0.13662596 -0.08576055 -0.08670026 0.061550524
000150 ac 2f 3d be 8a a3 0f 3e bc 51 eb 3d 91 b4 5a 3e
       -0.18475217 0.14027229 0.11490199 0.21357943
000160 bc c2 2a be ea 0d b7 bd 71 8d b2 bd 36 c1 e4 3d
       -0.16675848 -0.08938201 -0.08718384 0.111696646
000170 b8 ed f1 bd c9 49 a9 3c 23 42 16 3d ac 2f 43 be
       -0.118129194 0.020665066 0.036684167 -0.19061154
000180 a4 0d b8 bd 4b de 28 be d3 d0 fc bd b3 c3 20 be
       -0.08986977 -0.16491048 -0.123445176 -0.15699653
000190 ac c0 8c bb 10 5d 66 bd 55 4f 72 3d b7 2f aa 3d
       -0.004295429 -0.056241095 0.05915769 0.08309882
0001a0 41 35 1a be 68 af a7 3d 47 1f 00 be fa 1c 56 be
       -0.15059377 0.08187753 -0.12511931 -0.20909491
0001b0 3d 69 b5 bd 1c 1f 0c bd ee e6 fb bc 9d 96 09 be
       -0.08857963 -0.034209356 -0.030749764 -0.1343636
0001c0 bc c0 9b 3d e5 14 37 3b 50 56 18 3e 63 9a 9a be
       0.076051205 0.0027936038 0.14876676 -0.30195913
0001d0 59 08 c2 3e 09 b8 3a be 6e dc 5a be cb a6 07 bc
       0.37896994 -0.18234266 -0.2137315 -0.008279513
0001e0 8d f6 52 3c 31 50 15 3e 24 48 08 be 4d 0e e8 3b
       0.012876165 0.14581372 -0.1330877 0.007081783
0001f0 09 fc 53 3e d8 78 9c 3d a0 97 f8 3d 09 31 7c be
       0.20701613 0.076402366 0.12138295 -0.2462808
000200 3e c7 cb 3e d6 b2 0e bd 02 d0 3b be b8 dd a9 3d
       0.39800447 -0.03483852 -0.18341067 0.082942426
000210 ea ba 03 be e1 13 4d 3d a9 5e a9 3d f9 e2 bf bd
       -0.12864271 0.050067786 0.08270008 -0.093694635
000220 39 3e ac 3e 75 19 08 3e 91 79 29 be 28 ec 08 3e
       0.33641222 0.13290961 -0.1655028 0.13371336
000230 db bc 5b be 3a fd 8f be 86 53 38 3e 02 03 f1 bc
       -0.21458761 -0.28122884 0.18000612 -0.02942038
000240 33 23 d4 3c a4 cc de 3d 7e 29 f2 bd d8 9f 76 3c
       0.02589569 0.10878876 -0.1182432 0.015052758
000250 43 1f 28 3e 02 ac 36 be 08 68 fc bc ab 8d 04 3d
       0.16418175 -0.17839053 -0.030811325 0.032361668
000260 43 5d 96 bd 30 9b b3 bd 5a 2d 4b 3e 20 a2 3c bc
       -0.07342007 -0.08769834 0.19841519 -0.011513263
000270 3d 25 0c be cf 29 74 3d 11 91 83 bc b5 04 3c be
       -0.1368608 0.059610184 -0.016060384 -0.1836117
000280 e9 a9 b1 bd de 80 79 be ff f0 6f 3e cd b1 e7 bd
       -0.08674986 -0.24365565 0.23431776 -0.1131321
000290 38 cc 91 bc ba 53 13 3e 4c b8 96 bd 9d 74 8f 3d
       -0.017797574 0.14387408 -0.073593706 0.07004664
0002a0 7e 04 a3 3d 12 85 b2 3d d0 a7 5e 3e 48 2b 8f bd
       0.07959841 0.087167874 0.21743703 -0.06990677
0002b0 7e 0a f6 3d 7a 81 a5 3d a0 f4 43 3e 65 c9 89 bc
       0.1201372 0.08081336 0.19136286 -0.016819665
0002c0 8b 9f 25 3d be 96 2f 3e 1b 02 6d bd 12 9b 3f ba
       0.040435355 0.17147347 -0.057863336 -0.0007309179
0002d0 63 5e 18 3e 53 09 e1 bd 79 d6 47 bd f3 e8 2a 3e
       0.14879756 -0.109881066 -0.04878852 0.16690426
0002e0 c5 6c 33 3c 82 d1 19 be 3a 77 af 3d d1 10 23 3e
       0.010951226 -0.15021327 0.085676625 0.15924384
0002f0 ae 28 98 3c 8a 50 f2 3d cb ec 02 3d 8d 49 40 bc
       0.018574085 0.11831768 0.031964105 -0.011736286
000300 c8 5c b5 3d 86 5b e5 bd 64 ea 0c be 17 46 ec 3d
       0.08855587 -0.11199097 -0.13761288 0.11536806
000310 05 cc 02 be e8 d9 9f be 36 cf 0f bd a8 ee 60 bc
       -0.1277314 -0.31220937 -0.03510972 -0.013728775
000320 1b da bb bd 22 f1 b2 39 49 eb a0 3d f0 1f 0a bd
       -0.0917246 0.00034130464 0.07857377 -0.033721864
000330 6e 8e 16 bd 00 0f 81 bd 53 43 6b be d7 90 4d 3d
       -0.036756925 -0.06301689 -0.22974901 0.05018696
000340 68 f2 02 3d 51 84 a7 bc 89 09 73 be e3 ef 07 be
       0.031969458 -0.020448836 -0.23734106 -0.13275103
000350 eb fe 9b bd 8f 88 e7 3d 09 46 a1 bb 96 4d 45 be
       -0.07616981 0.11305343 -0.004921679 -0.19267878
000360 75 f2 6e bd 30 2f 4a be 1b e4 58 bc c2 e4 9b bc
       -0.058336694 -0.19744563 -0.013237978 -0.019029979
000370 20 e0 ea bd dc b6 1c 3e 6e 6e 27 3d 93 36 ab bc
       -0.1146853 0.1530413 0.0408768 -0.020900046
000380 18 df bd bd aa cd 2b 3e ab 3f 1c 3d 4b a3 18 bd
       -0.092710674 0.16777673 0.038146656 -0.037265103
000390 7a 2a 62 3e 0e a3 15 3e 55 a7 a8 3d d9 01 21 3d
       0.22086516 0.14612982 0.08235041 0.039308403
0003a0 a1 2b e4 bd 2f f1 34 bd 20 af 08 bd 1c e5 ef bd
       -0.11141134 -0.044175323 -0.033370137 -0.11713621
0003b0 1d ab e8 3c 93 61 a9 3d 27 1a bc 3b c3 1a 9e bd
       0.028401906 0.08270564 0.0057404223 -0.07719948
0003c0 6b 69 23 3e 9d ba cc 3d 39 75 67 3d 26 53 7b 3d
       0.15958183 0.09996531 0.056508277 0.061358593
0003d0 5f 36 26 3c e7 f9 2a bd ec 91 0f be e3 8f 8f 3a
       0.010144799 -0.04174223 -0.14020509 0.0010952916
0003e0 a0 a8 ea bd 28 6b f5 bd 8c 4b f9 bc d9 b4 2c be
       -0.11457944 -0.11983329 -0.030431531 -0.16865863
0003f0 c8 42 14 bc e8 73 ad 3c 6a e1 dc 3c 31 84 a1 3d
       -0.009049125 0.021173432 0.026962955 0.07886542

weight_hh_l0 f4 [192, 64]
000000 84 9c 19 be 19 c8 5d bd 16 08 73 3d 1d b4 0d bd
       -0.15001112 -0.054145906 0.059333883 -0.034595598
000010 84 ca 45 3c 86 a9 30 bd 09 45 1b 3e 08 2a 1d 3d
       0.012072209 -0.04313042 0.15163054 0.038370162
000020 2c 8b ba bc 79 7d 84 bd b1 c0 10 be 12 56 a4 bd
       -0.02277144 -0.064692445 -0.14136006 -0.08024229
000030 09 44 05 3e ac df 78 bc 23 b1 b8 3d b8 99 24 3e
       0.13014235 -0.015190046 0.09018161 0.16074264
000040 10 63 1b be cc 2b b3 3d e6 22 d8 bd d6 27 b2 bd
       -0.15174508 0.08748588 -0.10553531 -0.08699004
000050 ae 61 b6 bd 87 49 8d bd 6b 46 47 3e 7b 23 01 3e
       -0.0890535 -0.0689879 0.19460456 0.12611191
000060 c4 83 03 3e 5f 97 b0 3d 0c 07 00 3d 57 6e 25 be
       0.12843233 0.08622622 0.03125672 -0.16155373
000070 63 43 8c 3d 28 be d4 bc cd b7 40 bc 08 1c d7 bb
       0.068487905 -0.02596958 -0.0117625715 -0.006564621
000080 33 f2 9d bd d9 1d 1f bd 56 10 b4 3d ea 1e 8c bd
       -0.077122115 -0.038846824 0.08792178 -0.06841834
000090 3e 98 2a bd 16 d5 f3 3d be be 36 be 7a 06 ca bd
       -0.041649096 0.11905877 -0.178462 -0.098645166
0000a0 a9 92 bb bd d0 b7 08 3e ff 2d 52 bd 7d e3 da bd
       -0.091588326 0.13351369 -0.051313397 -0.10687921
0000b0 24 a6 2e 3b 57 4f 96 bd 6a 53 22 be f2 49 80 3e
       0.002664932 -0.073393516 -0.15852132 0.25056416
0000c0 c7 a4 a2 bc 47 b9 b9 3d 92 07 b8 bd 72 9a fe bc
       -0.019853963 0.09068542 -0.08985819 -0.031079505
0000d0 e3 2d 33 bd 8c 1b 1f bd d7 91 87 bd 31 bc 46 be
       -0.043744933 -0.03884463 -0.066196136 -0.19407727
0000e0 d9 ca a6 3d e2 b5 a1 3d 66 d9 22 3e 73 0c c3 3d
       0.08144159 0.078960195 0.15903243 0.09523859
0000f0 86 b0 73 bc 4c fa b1 3d 32 45 89 3d a1 23 0a be
       -0.014873629 0.086903185 0.06702651 -0.13490154
000100 b9 ee 64 bd cf 8b c0 3d d7 96 c1 bd f3 1c 2b 3d
       -0.055891726 0.094016664 -0.094525985 0.041775655
000110 cc 68 99 bd 05 72 71 3c c8 e8 5c be 6c a6 ea bc
       -0.074906915 0.014736657 -0.21573174 -0.02864381
000120 ea 22 0e 3e 7b 42 ee bc be 0e 9b 3c f1 3a 47 bd
       0.13880506 -0.029084435 0.018927928 -0.048640195
000130 4b a2 05 be 50 9c 0e 3e 74 57 e7 3c ca a8 7b be
       -0.13050191 0.13926816 0.028239943 -0.24576107
000140 8e aa ac 3d 4b 28 11 3a cb 64 b3 bd 69 b6 8f bd
       0.08430968 0.0005537315 -0.08759459 -0.07017214
000150 bf 38 3a be eb 04 0d bd f7 a2 95 bd 3c 76 75 be
       -0.1818571 -0.03442852 -0.07306474 -0.23970884
000160 32 14 39 3e c4 f2 c7 3d 89 75 65 3c 02 47 b6 3d
       0.1807411 0.09763101 0.014005073 0.089002624
000170 71 0d 8c bd 65 0e 34 3d 0b ff 27 3e c6 9b a2 3d
       -0.06838501 0.04395904 0.16405885 0.07939868
000180 d4 df 0c 3e 02 90 f7 3d 85 59 17 3e e5 c6 67 be
       0.13757259 0.12088014 0.14780243 -0.22634466
000190 99 7f 9d bd dd be 87 bc d5 e7 d1 3c e1 c6 ea bc
       -0.07690353 -0.016570503 0.025623241 -0.028659286
0001a0 14 c7 dc 3d e2 02 4f be 28 a0 ce 3d 0a 64 db 3d
       0.10780159 -0.20215943 0.10089141 0.1071244
0001b0 b7 3e 46 3e c0 64 8c 3b ca 1d 23 3d 16 3a c4 bd
       0.19359861 0.0042844713 0.03982333 -0.095813915
0001c0 dd f8 4b be 34 35 09 3d 2d 2f db bd 3b fb 9e bd
       -0.19919153 0.033498004 -0.107023574 -0.07762762
0001d0 2d 02 dd 3c 63 d6 4f 3c 5b b4 a8 3c 73 ab 43 3e
       0.026978577 0.012685391 0.020593813 0.19108371
0001e0 81 f2 a1 3c 1d 6a 60 be 61 38 bf bd b5 d6 92 3d
       0.019768955 -0.21915479 -0.09336925 0.07169858
0001f0 f1 a8 99 3d a0 54 21 3e 8f c1 f9 3d 54 d0 07 bd
       0.07502926 0.15754938 0.121951215 -0.03315766
000200 d6 38 68 bd f0 75 7f 3d 61 d2 77 bd 67 4f 4b bd
       -0.056694828 0.062368333 -0.060503367 -0.04963627
000210 22 a1 6d 3d 04 a6 4b 3d 58 f4 0d bd 45 b0 2c 3e
       0.058014996 0.04971887 -0.034656852 0.16864116
000220 51 30 ba 3c 26 28 22 be 7a 4e 8c 3d be 7b bc bd
       0.022728117 -0.15835628 0.06850906 -0.092032894
000230 8b b7 13 be 3c 78 8d 3d ff bb 60 bc ec 98 b1 bd
       -0.14425485 0.069076985 -0.013716697 -0.08671746
000240 c3 d6 c3 3d 2b 7d 7e be 55 c1 05 3d 26 e4 18 3e
       0.09562447 -0.24852435 0.03265508 0.14930782
000250 3f fd ae 3d c9 39 97 bd 31 30 56 be 0e d8 8e 3a
       0.085443966 -0.073840685 -0.20916821 0.001089813
000260 c6 0c 66 bd 9f 02 0e be 73 dd 36 3e db 74 dc bd
       -0.056164525 -0.13868187 0.17857914 -0.10764476
000270 84 f8 bc 3b 68 d5 d7 3d 9a a7 de bc 26 ff 2a 3c
       0.00576693 0.10538751 -0.027179528 0.010436809
000280 70 2e a6 bd 12 11 22 3d 87 b8 ee 3d c9 06 58 bd
       -0.08114326 0.03956706 0.116562895 -0.052740846
000290 48 f6 5a 3e ee 33 63 bd cf a1 91 3d 36 d9 0f be
       0.21383011 -0.055469446 0.07110941 -0.14047703
0002a0 5c 81 08 be 2a 52 49 3a bf b4 d6 3d b2 8d aa bc
       -0.13330597 0.0007679785 0.10483693 -0.020819519
0002b0 58 c3 b1 bd 2c 87 df 3d 74 fe dd 3c f4 26 57 3d
       -0.08679837 0.10914454 0.027098872 0.052527383
0002c0 f5 e9 f7 bd c1 d5 3b bc 90 03 04 bc 5e 56 34 3d
       -0.12105171 -0.011464537 -0.00805749 0.04402768
0002d0 2b ca 1f be 29 45 a8 bc 5e d7 d3 bd 6e fc 09 be
       -0.15604465 -0.02054079 -0.103438124 -0.134752
0002e0 9e 20 83 3b b7 92 29 3e 40 1a 1b be ab 50 e0 bd
       0.004001691 0.16559874 -0.15146732 -0.10952886
0002f0 63 30 9e 3d e4 6a 22 be 10 4d 63 3b 0d ed 40 bd
       0.07724073 -0.15861088 0.0034683384 -0.04710107
000300 68 4c 88 bd 89 60 9f 3d bb 6f 56 be 2c b1 95 bd
       -0.06655198 0.077820845 -0.2094106 -0.073091835
000310 76 f5 f3 3d bd 24 98 bd 11 fc b2 3d f6 72 4d 3e
       0.11912052 -0.07428882 0.08739484 0.20063385
000320 31 0c 55 3e d9 fe 12 3d 0a 9c b3 3c 14 ce 07 be
       0.20805432 0.035887573 0.021924991 -0.13262206
000330 0f 7d d3 bd d0 ed 61 bc 46 6f e8 3b 19 33 a8 3d
       -0.103265874 -0.013789609 0.007093343 0.08212871
000340 4d 9c f4 3c 8e fa 7c bd 04 6c 9c bc a5 e9 a6 bd
       0.029859686 -0.061762385 -0.019094475 -0.08150033
000350 0e 71 97 bd 7b 25 0f 3d 0c 50 d3 3d 04 bf 7c bd
       -0.0739461 0.034947854 0.10318002 -0.061705604
000360 b3 2b 4a 3d 61 5c d1 bd 34 06 14 be 56 fb 90 bc
       0.04935808 -0.10222698 -0.14455491 -0.017697971
000370 73 e3 b3 3d 1d fb 87 bd 54 90 29 be c3 21 c5 bd
       0.08783617 -0.06639693 -0.16558963 -0.0962558
000380 d7 d3 95 3d 8d 57 b3 3d 29 53 7a 3e c1 78 1d be
       0.07315796 0.08756933 0.24445786 -0.15378095
000390 e7 a5 64 3d 0b 2a a5 be 9f a6 c5 bc 43 89 1f be
       0.05582228 -0.3225864 -0.024127303 -0.15579705
0003a0 b3 3d d0 3d 29 2e de 3d 8c 23 63 3e 48 0b bb bd
       0.10168018 0.10848648 0.22181529 -0.09133011
0003b0 34 9e a3 3d d4 09 8a bc ed d1 0c bd 74 a4 e9 3d
       0.07989159 -0.01685039 -0.03437989 0.1140832
0003c0 59 f0 a5 bd 83 c6 21 be be 09 78 3c 3f 74 b8 bd
       -0.08102483 -0.15798382 0.0151390415 -0.09006547
0003d0 00 53 e4 bd 40 73 e0 bd c4 73 85 bd 5a 24 d2 bd
       -0.111486435 -0.10959482 -0.06516221 -0.1026084
0003e0 92 75 3c be 41 05 fe bd 5d 50 8b bd b9 fd b3 bc
       -0.18404225 -0.12403346 -0.068024375 -0.02197157
0003f0 63 8f eb bc 22 de ff bd fd bf 09 be e4 00 83 bd
       -0.028754896 -0.1249354 -0.13452144 -0.06396654

bias_ih_l0 f4 [192]
000000 b1 ba dd bd f7 71 71 3d c7 db 67 3e 10 fb ea 3d
       -0.10826624 0.058946576 0.22642432 0.114736676
000010 e2 2a 31 3e 0c 2c 44 3c 01 ad 35 3d 66 56 b2 3d
       0.17301515 0.011973392 0.044354443 0.087078854
000020 44 bc 1a 3e 00 ee b8 bc 3b 49 94 3d 81 a4 07 bd
       0.1511088 -0.022574425 0.0724053 -0.033115868
000030 38 03 d8 3d c4 69 d1 3c e6 f8 c9 3d 04 7b 0f 3c
       0.10547489 0.025563128 0.09861927 0.008757357
000040 d0 a7 ac bd f7 39 de 3d 5f f7 1a 3e e9 43 01 3e
       -0.08430445 0.108509 0.15133427 0.12623562
000050 47 98 2d bd f8 b2 43 3e b4 17 f3 bc 8b ca 7e bd
       -0.04238155 0.1911124 -0.029674388 -0.06220488
000060 7d 96 5e bd 74 b8 0f 3d 4d 31 04 be 81 df 17 be
       -0.054342736 0.035088018 -0.12909432 -0.14831354
000070 33 8e f1 3d a7 0b 28 3e d4 49 d9 bd 3b 08 aa 3d
       0.117947005 0.16410695 -0.10609785 0.08302351
000080 1c 15 70 bd 19 3f f7 3d a1 b1 0d bd 91 06 99 3d
       -0.05861388 0.12072582 -0.03459323 0.074719556
000090 63 5a 0d 3e d6 46 35 3c d3 c4 82 bc 6e 51 08 3e
       0.13804011 0.011064252 -0.015962994 0.13312313
0000a0 81 bd a6 b9 a6 d9 36 3d 8c 92 76 bd 96 4a 8f bc
       -0.0003180318 0.04464116 -0.06019835 -0.01749162
0000b0 93 3d 99 3d c6 6b 17 bd 34 a7 5a bd 63 f0 a8 3c
       0.074824475 -0.036968015 -0.053382114 0.020622438
0000c0 ad 79 91 bc 13 f7 9c bd 17 1f 71 3d 4f 1d 0f 3e
       -0.017758215 -0.07664313 0.05886754 0.13976024
0000d0 ee bf fe 3c e7 3e 07 3e 66 59 6c bd e3 24 dc bc
       0.031097379 0.13207589 -0.057702444 -0.026873058
0000e0 29 d6 b8 3d 2e 12 15 3e 44 0f 01 3e 23 0b 9a bd
       0.09025223 0.14557716 0.1260348 -0.075216554
0000f0 37 de 77 3c 9f d5 1f bd ff fe 7f 3d ac 0b 88 3d
       0.015128664 -0.039022084 0.062499043 0.06642851
000100 54 53 89 be bf 64 76 be 12 b5 80 bd 76 0d 0c be
       -0.26821387 -0.24061869 -0.062845364 -0.1367701
000110 4a e1 57 be 92 c9 ff bd 1c 73 21 be a9 59 90 be
       -0.21082035 -0.12489618 -0.15766567 -0.28193405
000120 ba 09 b1 bd 1f 43 50 be 96 00 42 be 1f 43 20 be
       -0.08644433 -0.20338105 -0.18945536 -0.15650605
000130 39 4c 82 be 8a 4a 32 bd d6 33 0d 3c 6c 24 95 bd
       -0.25448778 -0.043528117 0.008618316 -0.072823375
000140 67 f4 5c be 84 dc 3e be 85 9a aa bd 96 e4 71 bd
       -0.21577607 -0.18638808 -0.083302535 -0.059055887
000150 ec 12 fc bd 23 b1 e2 bd 1e 27 93 be d4 77 58 be
       -0.123082966 -0.110689424 -0.28740782 -0.21139461
000160 e7 67 b1 bd e9 71 94 bd d0 c1 8d be 65 0a 02 be
       -0.08662396 -0.07248289 -0.2768693 -0.12699278
000170 27 20 49 be 06 a9 63 be 4c 3c af bd bf a3 28 be
       -0.19641171 -0.22232446 -0.085564226 -0.16468714
000180 46 fc 92 be 61 88 21 be a0 d9 17 be fa 6f ab be
       -0.28708094 -0.1577468 -0.14829111 -0.3348387
000190 19 1a d3 bd 46 41 6b be 12 fe 58 be 46 83 04 be
       -0.10307712 -0.22974119 -0.2119067 -0.12940702
0001a0 c8 80 35 3c a3 a6 77 be 7e b1 4b bd 6a 42 b2 bd
       0.011078067 -0.2418466 -0.049729817 -0.08704074
0001b0 64 77 37 bc bd fe 56 be b8 81 6c be 99 e7 8e bd
       -0.011197899 -0.20995612 -0.23096359 -0.069777675
0001c0 83 2b 5a be ac e8 95 be 86 29 93 bd 38 2f c9 bc
       -0.21305661 -0.29279077 -0.07185654 -0.024558648
0001d0 c1 51 8f be a4 cd ee bd 4e cb 9a be 42 ff 38 be
       -0.2799206 -0.116603166 -0.30233234 -0.18066123
0001e0 20 1c 05 be ad a9 4d be bd d9 6f bc 13 8e 9d bd
       -0.1299901 -0.20084257 -0.014639315 -0.07693114
0001f0 7a b4 3a be b7 97 d0 3d 22 15 f4 bd 8d 7b e5 bd
       -0.18232909 0.10185187 -0.11918093 -0.11205206
000200 e5 bc e6 3d 8d e9 17 bc d7 14 8e be 79 f7 99 bd
       0.112664975 -0.009271991 -0.27750275 -0.07517905
000210 69 b1 9c 3c f8 b1 a3 3d d6 35 25 3e 32 d4 4f bc
       0.019127565 0.07992929 0.16133818 -0.012684869
000220 73 a8 a4 bc 66 ed dd bd f4 a3 45 3d c0 0d a2 bb
       -0.020099854 -0.10836296 0.04825206 -0.004945487
000230 76 66 46 3d fc f3 06 3b 86 86 c8 bd f4 1c 27 be
       0.048437558 0.0020592203 -0.09791283 -0.16319638
000240 1d 75 c1 3d 3b 7b a8 3d 49 c8 b4 bd 3b cb 17 bd
       0.09446166 0.08226629 -0.08827264 -0.03705905
000250 bc 92 dc bc c5 c3 ea bb 89 8b c6 3d 90 56 0b be
       -0.026925437 -0.007164451 0.09694583 -0.1360724
000260 7c bc 8a 3d 66 1b c3 bd 69 fe 41 3d 02 a5 4b ba
       0.06774232 -0.0952671 0.047361765 -0.00077684235
000270 07 c4 50 3d 1e 35 31 3e 73 e6 49 bd a5 26 13 be
       0.050968196 0.17305419 -0.04929204 -0.1437021
000280 a1 c1 21 be ef 47 85 bd 84 81 17 be c8 f2 fe 3c
       -0.1579652 -0.06507861 -0.147955 0.031121626
000290 d6 da de bc 41 ac a1 3c 7c 5a 3a bd 65 7b cc bd
       -0.027203958 0.019735457 -0.04549645 -0.09984473
0002a0 e9 03 00 be b5 f5 2d 3c ee 28 0d be 86 05 d3 bc
       -0.12501492 0.010617663 -0.13785145 -0.02575947
0002b0 f3 ef 1f be e1 75 16 3d 85 f8 99 3d 8e e4 47 3e
       -0.15618877 0.03673351 0.075181045 0.1952078
0002c0 e2 83 cb 3d 02 7b 73 bd 35 54 b7 bd 9b c9 a7 3d
       0.09937264 -0.05944348 -0.08951608 0.0819275
0002d0 66 e4 3b be 97 14 7d 3d 5f 4b 83 3d ec 73 dd 3b
       -0.18348846 0.061787214 0.0641086 0.0067582037
0002e0 d2 c3 db bd ad 85 7c 3d 36 1b d3 bc 45 9b f6 3c
       -0.10730709 0.06165092 -0.025769811 0.030103335
0002f0 0c 85 4b bd fb 31 33 3d 22 20 f8 bd ab f6 18 be
       -0.04968743 0.043748837 -0.12115504 -0.14937846

bias_hh_l0 f4 [192]
000000 77 8a c8 3c 75 35 86 bd 3b 8c a1 3d 63 e8 72 3d
       0.024480088 -0.06553165 0.07888075 0.059303652
000010 b6 34 d5 3d f6 9a ae 3d 11 3b 9b 3d 2e 6b 76 3d
       0.104104444 0.0852565 0.075796254 0.06016081
000020 f2 1e 25 3e 48 ae e9 3c 0a 7c 28 3e 30 48 df 3d
       0.16125086 0.028525487 0.16453567 0.109024405
000030 4c fe 33 3c 52 c1 33 3d 14 33 93 3c aa 22 6d bc
       0.010985922 0.043885536 0.017968692 -0.014473597
000040 35 0a 25 bd cc 51 8e 3d 90 50 72 3d d7 eb 25 3c
       -0.040292937 0.06949195 0.05915886 0.010127029
000050 cd 22 d0 3d 78 7b 2e 3d 72 ab b9 3d f3 8d 8c bd
       0.10162888 0.042598218 0.09065904 -0.06863012
000060 44 20 cf 3d 04 19 34 3c 95 7c 3e 3d 70 47 0b bd
       0.10113576 0.010992292 0.04650553 -0.034003675
000070 c8 86 26 bd 58 11 2e 3d ae be 9f bc 84 db 88 3d
       -0.04065588 0.04249701 -0.019500103 0.06682494
000080 95 2d ba 3d ae c2 59 3d b5 17 d3 3d 97 c4 17 3d
       0.09090725 0.053164177 0.10307256 0.037052717
000090 48 3a 49 bd 2e 19 d8 3d f5 88 c1 bc ba 7e f6 3d
       -0.049127847 0.10551678 -0.023624877 0.1203589
0000a0 4f 3b 8e 3d 02 32 e4 bd b9 0f b7 3d 9e 0b 9a bd
       0.06944906 -0.11142351 0.08938546 -0.07521747
0000b0 ce aa 7b 3d 08 76 4c 3d 2d b6 95 3d 21 2c d2 3d
       0.06144219 0.04991725 0.07310138 0.10262323
0000c0 77 02 91 3d 53 c8 51 bd 56 60 29 bc 62 ed 35 3c
       0.07080548 -0.051216435 -0.01033791 0.01110396
0000d0 ce 18 e3 3d 3f 10 b4 3c 28 e4 0c be 1c 5e 10 3d
       0.110887155 0.021980403 -0.1375891 0.035246
0000e0 42 c3 a4 bc 7d a2 7f 3d 96 3c b6 bd 31 a9 e7 bd
       -0.020112637 0.06241082 -0.088982746 -0.113115676
0000f0 ec 27 45 bd 8d 1e 3d bd 8f 9e 7e 3d 8a 31 07 3e
       -0.048133776 -0.046171714 0.062162932 0.13202491
000100 9f 98 20 be 6c 35 41 bd f9 35 ce bd ed 57 79 be
       -0.1568322 -0.047170088 -0.10068888 -0.24349947
000110 07 d0 81 bd e3 1e 92 bd 60 56 88 bd b8 b9 9c bd
       -0.06338506 -0.071347974 -0.066571 -0.076526105
000120 38 63 ee bd ca 4e 73 be 08 79 7c be a1 0e 98 bd
       -0.11640018 -0.23760524 -0.24655545 -0.07424665
000130 7d 90 80 be 32 52 48 bd 00 3e c4 3a fa 47 4f be
       -0.25110236 -0.048906513 0.0014972091 -0.202423
000140 a4 f6 04 bd 51 35 69 be 38 26 7e bc a5 42 57 be
       -0.032461777 -0.22774245 -0.015512042 -0.21021517
000150 82 af 7d bc 4a 06 b5 bd 29 74 8d be c0 ac 0a be
       -0.015483739 -0.0883909 -0.27627686 -0.13542461
000160 cf 6d 88 be f6 2e 1c be 72 4c 36 be eb 7c 9a bd
       -0.26646277 -0.15252289 -0.17802599 -0.075433575
000170 ac 21 0a be 5c 3e 47 be c0 4b df bd 4e 56 cb bd
       -0.13489407 -0.19457382 -0.1090312 -0.09928571
000180 4e 9e 50 be d7 bd 64 bb 1b ae 39 be 9d fe 96 be
       -0.20372888 -0.0034903192 -0.18132822 -0.2949113
000190 54 03 b9 bc a6 ef 72 be 7e 2c fe bc d3 84 d2 bd
       -0.022584595 -0.23724231 -0.031027075 -0.102792405
0001a0 14 92 58 be 52 8e de bd 35 6f 1d be f0 60 2b be
       -0.21149474 -0.10866989 -0.15374453 -0.16736197
0001b0 6e e5 17 bd 32 db 14 bd 3a a3 02 be 97 00 8a be
       -0.037084036 -0.036341853 -0.12757578 -0.26953575
0001c0 ef 02 86 bd 02 6e cc bd 17 8c 46 bc 98 81 46 bd
       -0.06543528 -0.0998192 -0.012118361 -0.048463434
0001d0 2e e2 7b be f3 69 6a bd db e1 e7 be 2e 83 0b be
       -0.24598 -0.057229947 -0.45289502 -0.1362426
0001e0 0f 2e 4e bd 8c 15 b1 3b 8e 83 ab 3a a3 49 11 3c
       -0.050336894 0.00540418 0.0013085471 0.008867654
0001f0 95 b4 0d be 17 bb ef 3d 24 71 11 be 88 be 87 be
       -0.13838418 0.117056064 -0.14203316 -0.2651255
000200 d6 08 02 3d 4a 47 fe bd c2 7e 63 be 29 27 97 bd
       0.031746708 -0.12415941 -0.22216323 -0.07380516
000210 09 f2 11 3e b4 7f 0c be bc 5f 38 3e ad ef e7 3d
       0.14252485 -0.1372059 0.1800527 0.113250114
000220 ca 1a 8b bd a7 bd 5f 3d 52 1d 30 be 3c a0 fb 3d
       -0.06792219 0.054624226 -0.17198685 0.12286422
000230 5b 32 bf 3d bc 17 c3 3d 22 c1 e5 bd 51 1d d3 3b
       0.093357764 0.09526011 -0.11218478 0.006442704
000240 5b e1 44 3d 89 c2 e0 bd db 73 e2 3c 0c 73 12 3d
       0.04806648 -0.10974605 0.027643135 0.03575425
000250 48 c3 20 3c 60 af 00 bd 2e 61 44 3e 4e ea a7 3d
       0.009812184 -0.03141725 0.19177696 0.08198987
000260 e1 30 19 be 36 11 73 3d a3 44 1e 3e f6 54 89 3b
       -0.14960052 0.059342586 0.1545587 0.0041910363
000270 7d 94 1a be 8d ab 0b 3d 77 3e 4d 3a f6 43 18 be
       -0.15095706 0.03409915 0.00078294374 -0.14869675
000280 67 8d e2 bd 16 f0 0c be 25 43 41 be 19 b1 1c 3e
       -0.110621266 -0.1376346 -0.1887327 0.15301932
000290 64 a0 c8 bd 1f 5c c5 bd 0a 67 5d 3d d7 e9 f6 3c
       -0.09796217 -0.09636711 0.054053344 0.0301408
0002a0 f5 cf ca bd db 7c a1 3c 20 e4 a8 bd 57 0c c8 3d
       -0.09902946 0.019712856 -0.082466364 0.09767979
0002b0 bc 68 49 bd 16 b2 02 3e 67 13 30 be b1 12 c4 3d
       -0.049172148 0.12763247 -0.17194901 0.095738776
0002c0 9f f2 36 bd 84 ed d9 bd de 9c 5a bd a0 49 83 3d
       -0.044664975 -0.10641006 -0.053372256 0.06410527
0002d0 69 33 bc bd bd 92 65 3e 8d be 39 3e d5 34 ad 3d
       -0.09189493 0.22419257 0.18139096 0.084573425
0002e0 a0 85 c3 bd 28 f4 6c 3e f7 93 68 bd 9e 72 a2 bd
       -0.09546971 0.23140013 -0.056781735 -0.07932018
0002f0 e8 43 ec bd 52 48 ed 3c e5 71 8c bc 1d 14 1a bd
       -0.115363896 0.02896515 -0.017144153 -0.037616838

weight_ih_l1 f4 [192, 64]
000000 40 a0 eb bd a2 47 94 bd a1 3f 26 be 3e 58 a4 be
       -0.11505175 -0.072402254 -0.1623521 -0.32098573
000010 47 e8 fc 3d d0 8d 98 be f4 41 0d be 6b a6 b5 bd
       0.12348991 -0.29795694 -0.1379469 -0.08869632
000020 7a 55 24 be d0 e0 96 bd a7 b4 84 bd 0d b6 01 bd
       -0.16048232 -0.07367098 -0.06479769 -0.031667758
000030 30 28 4b 3d b3 7b ba 3c f8 fd 47 bd b9 e6 91 3d
       0.049598873 0.022764063 -0.048826188 0.07124085
000040 a1 a8 c3 3d 33 e8 88 bd 66 24 4c 3e e3 0b 21 3e
       0.09553648 -0.066849135 0.1993576 0.1572719
000050 7e 43 34 3e d9 50 f4 bc fb e0 80 3e 69 60 3e 3d
       0.17603871 -0.029823707 0.25171646 0.046478663
000060 93 d5 07 3e e9 d5 98 bd 06 90 45 bd 2a 94 89 be
       0.13265066 -0.07462675 -0.048233055 -0.26870853
000070 c0 29 26 be 2a d5 60 3e 72 d8 19 3e 46 51 21 3a
       -0.16226864 0.21956316 0.15023974 0.0006153773
000080 da 15 90 3c 1b f3 bb bd ea 67 88 be ec b0 97 3d
       0.017588545 -0.09177228 -0.2664178 0.07406792
000090 f0 e2 db 3d d3 cd cb bd b9 ba 62 bd c3 6b ed 3d
       0.10736644 -0.09951367 -0.055353854 0.115928195
0000a0 17 89 2c be 6b ad 12 3e ec 1d b8 3c 3f af ba bd
       -0.1684917 0.14323966 0.022475205 -0.09115457
0000b0 f4 22 90 bd 57 fe bc 3d ea b2 ed bd 35 6e 12 3e
       -0.07037917 0.09228199 -0.11606391 0.14299853
0000c0 aa 00 f5 3d df a5 23 be 8e 06 85 bb 43 7f 04 3e
       0.11963017 -0.15981244 -0.0040596193 0.12939171
0000d0 cb c2 47 bd 12 0b 86 bc 17 19 cb 3e c2 f1 ac bd
       -0.048769753 -0.0163627 0.3966758 -0.08444549
0000e0 72 13 8d 3c 27 b7 bd 3d da 6e 90 3d 32 80 28 3d
       0.017221186 0.09263449 0.07052393 0.04113788
0000f0 fd 70 de bd 0e 1d 2a 3d cc f1 12 3e 15 55 71 be
       -0.108613946 0.041531615 0.1435005 -0.23567612
000100 ea 94 36 be 86 7e 28 3e d1 32 a8 3d 07 94 1f bd
       -0.17830244 0.16454515 0.082128175 -0.03895953
000110 85 dc 14 3e cc 30 6c bd 63 f5 4a 3d f8 d1 43 be
       0.14537247 -0.057663724 0.049550425 -0.19123065
000120 9c bc 9f be 3c 4b 7b 3d ba 9f 52 3e a9 89 a4 3d
       -0.31198585 0.061351046 0.20568743 0.08034069
000130 7a 9e b1 3d 8c 35 25 be 56 18 cd 3d 11 5c 66 3c
       0.08672805 -0.16133708 0.10014407 0.014060036
000140 83 44 e1 bb d2 96 c6 3d 40 ab 89 3d 3e 26 eb 3d
       -0.0068746223 0.096967354 0.067221165 0.114819035
000150 63 8e 33 bd a3 39 87 3d 37 ea 45 be 29 3a ed 3c
       -0.043836962 0.0660279 -0.19327627 0.028958397
000160 71 56 58 bd 5f ec 89 3e 52 ff c8 3e dd 1c 21 3d
       -0.052816812 0.2693815 0.39257294 0.039334167
000170 50 6c e1 bd d4 31 6a 3d e2 25 f0 3d 5a 95 0a 3d
       -0.11006987 0.057176426 0.117259756 0.03383384
000180 50 25 51 3b f9 45 49 bd 2e 04 02 bd 0e 56 ae bd
       0.003191311 -0.049138997 -0.031742267 -0.085125074
000190 66 35 97 3c 66 4d 96 3c 79 a4 67 3e 17 6c d9 3d
       0.01845808 0.018347453 0.22621335 0.106163196
0001a0 9f 4b f7 bd 26 53 bd 3d bd 94 aa 3d 6e 20 90 be
       -0.120749705 0.09244375 0.08329151 -0.28149742
0001b0 e9 90 4b bd fd 7a 34 3d a7 25 bf bc ba 3a 9c be
       -0.049698744 0.044062603 -0.023333384 -0.30513555
0001c0 e6 3c ab 3d 9c 31 25 bd f1 ed 41 bc 70 f9 48 be
       0.08361225 -0.040330514 -0.011836515 -0.19626403
0001d0 2b 67 3e 3d cc 42 03 3e 49 7b d9 3b 08 5a 64 3e
       0.046485107 0.1281845 0.006637011 0.22299969
0001e0 e3 c0 ab 3d 92 49 04 be dc 2a fe 3d a5 0f 80 3b
       0.083863996 -0.1291869 0.124105185 0.003908115
0001f0 74 42 95 3d 40 3d ac 3d 46 46 eb bd 13 40 44 be
       0.072880656 0.0841012 -0.11488013 -0.19165067
000200 05 bb 63 3e 73 96 84 bd ea fd 63 3e f9 e0 12 3e
       0.22239311 -0.064740084 0.2226483 0.14343633
000210 ef 96 8f 3c 57 87 ac 3d cf af de bd 4e 6c ff 3d
       0.017528025 0.084242515 -0.108733766 0.12471829
000220 8a af 96 3d 90 d3 a0 bd 6f 82 a3 3e a6 72 83 bd
       0.073577 -0.07852852 0.3193545 -0.06418352
000230 c4 3f 01 3e c8 f6 02 3e 6f 82 b0 bd 34 07 00 3e
       0.12621981 0.12789452 -0.08618628 0.12502748
000240 32 52 a8 bd 41 63 86 3c 3f 74 b4 3d 03 d9 7c be
       -0.082188025 0.01640475 0.08811235 -0.24692158
000250 a3 69 70 bc 8c 9d 2c 3d 50 e7 94 bd 37 d7 50 3e
       -0.014673623 0.042142436 -0.07270682 0.20394598
000260 11 2a 9b bd 83 60 5d bd 95 c5 a1 bd e1 13 34 3c
       -0.07576383 -0.05404712 -0.07899014 0.010991068
000270 a7 fa 00 be 61 9e 97 bb c5 c7 48 3d 53 ae 34 be
       -0.12595616 -0.0046270345 0.04901864 -0.17644624
000280 40 fa 83 bd ea b6 2a bd da d8 7e bc 14 95 94 3c
       -0.06444216 -0.041678347 -0.015554631 0.018137492
000290 a6 f6 48 3d f3 bc 8e bd c8 b6 3c 3e 47 50 19 3e
       0.049063347 -0.06969633 0.184291 0.1497203
0002a0 5b da 49 3d c0 16 93 bb 43 8a 5e be 79 1f 18 bd
       0.049280506 -0.004488796 -0.2173243 -0.03713939
0002b0 5f e4 68 3e 4f a6 f7 bd 86 b5 01 bd 54 30 38 be
       0.22743367 -0.12092268 -0.031667255 -0.17987186
0002c0 09 c2 2f be a7 89 4a bd 43 83 5b 3b 84 4e 72 3d
       -0.17163862 -0.04944768 0.0033494986 0.05915691
0002d0 59 11 71 3d 20 5f df bd d2 15 06 be c0 cd 4f bd
       0.058854435 -0.109068155 -0.13094261 -0.050733328
0002e0 79 44 40 be df f0 87 3d ec 4e bc bc c8 4a e5 bd
       -0.1877612 0.066377394 -0.022986852 -0.11195904
0002f0 ca 23 bc bc 85 50 7f bd 1f 4b a8 bc cb 10 d5 3d
       -0.022966284 -0.06233265 -0.020543633 0.10403594
000300 db 39 28 be 63 de be bd c3 98 e9 bd 3d 94 0e be
       -0.1642832 -0.09319761 -0.1140609 -0.13923736
000310 73 32 b5 3c 47 7f 8a bc 48 0b 20 3e 67 62 fe 3d
       0.022118783 -0.016906394 0.15629303 0.124211125
000320 2a c7 97 be fc e1 5e ba c4 40 ee 3d 0f e7 10 3e
       -0.29644138 -0.0008502302 0.11633447 0.14150642
000330 de 91 87 bc 6b 42 ea 3d e6 ad 20 3c 14 6f 5e bc
       -0.016549047 0.114384495 0.009807086 -0.013576288
000340 b9 3f 41 3e 1b 0f f0 bd db 2e 50 3d 69 b8 e2 3c
       0.18871965 -0.11721631 0.050825935 0.027675824
000350 22 91 82 3c 89 ac 11 be 8b 06 b6 3d a8 e5 d2 3d
       0.015938345 -0.14225973 0.08887967 0.1029771
000360 f0 51 7e 3d c8 1f 86 bd bc 79 29 3e 8e 53 4d 3d
       0.06208986 -0.065490305 0.16550344 0.050128512
000370 57 18 37 be bc bf 25 3e 70 02 25 3e 30 84 bf bd
       -0.17880379 0.16186422 0.16114211 -0.09351385
000380 d1 27 1b be 70 ad fc bd 6e 5d 78 be 5e d7 1c 3e
       -0.15151908 -0.12337768 -0.2425439 0.15316531
000390 73 a5 d8 bd e9 10 ea bc bf ba b6 3c ff ea e6 bc
       -0.10578432 -0.028572517 0.022305844 -0.028188227
0003a0 76 9a 51 be 33 76 8f bd 11 b9 49 be 50 bd fe 3c
       -0.20469078 -0.070049666 -0.19699503 0.03109613
0003b0 44 22 f3 bd 71 69 18 3e 25 1c 87 bd 09 82 90 bc
       -0.1187177 0.14883973 -0.06597165 -0.01764013
0003c0 55 e9 c4 3d a1 b1 76 3c a7 9b d1 3c de 28 ee 3d
       0.09614817 0.0150569985 0.025586916 0.116288885
0003d0 04 8b 02 be f3 ee 35 3e bd 3d 4a bd dd 53 21 be
       -0.12748343 0.17766933 -0.049375284 -0.15754648
0003e0 1b e9 1d be af fd ed 3d 00 47 af bd da 17 0c be
       -0.15420954 0.11620652 -0.08558464 -0.13680974
0003f0 6f 45 f4 3d c0 e3 51 bd cd 91 c7 bd 2c ba d1 bd
       0.11927306 -0.05124259 -0.09744606 -0.102405876

weight_hh_l1 f4 [192, 64]
000000 4b 87 85 bc 23 73 23 3d 22 32 a7 b9 18 c5 99 3d
       -0.016299864 0.039904725 -0.00031890074 0.07508296
000010 c4 ce 35 be 62 e8 b3 3d b2 64 cc 3c a9 f2 d9 3c
       -0.17754656 0.08784558 0.024950359 0.026604967
000020 1c ef 31 3e be 6c 4a bd ca a9 89 bd 2a 1e 37 3c
       0.17376369 -0.04942011 -0.06721838 0.011176625
000030 cf 35 ef 3d 9a 3b 85 3c ef af 9d bc ca aa e8 3d
       0.11680185 0.016263772 -0.01924893 0.113607004
000040 0d 74 a1 bd d7 ae 50 3c d3 85 25 3e 4c c6 f3 3d
       -0.07883463 0.012736998 0.16164331 0.119030565
000050 33 90 a7 bd be c8 05 be 78 66 e3 3d 12 2f 1d 3e
       -0.08181801 -0.13064858 0.11103529 0.15349987
000060 e2 af 72 bc d9 7a ad 3c 14 73 59 3d 26 7b 8a bd
       -0.014812442 0.021176742 0.053088263 -0.0676177
000070 d0 c9 8e bd 17 1a bb 3a 91 4b 89 bd 0b 0e b0 3d
       -0.069720864 0.0014274743 -0.06703866 0.085964285
000080 48 db 88 3d 06 52 d2 bd 14 cb ed 3d 28 49 fe bd
       0.066824496 -0.10269551 0.11611 -0.12416297
000090 2e f7 05 be 1d 58 68 be c2 c3 56 3d fd 59 99 3d
       -0.13082573 -0.22689863 0.052432783 0.07487867
0000a0 13 21 0e bc 8b 29 c7 bd a9 e5 c5 3d e1 25 a8 3d
       -0.008674878 -0.097247206 0.09662945 0.0821035
0000b0 09 83 b0 bd eb 74 5c bd ee 16 d8 3d 83 15 ae 3c
       -0.08618743 -0.05382244 0.105512485 0.021250492
0000c0 89 b3 d9 bd c5 f7 c9 bd 8b ac 58 3d fe ce 99 3d
       -0.10629947 -0.098617114 0.052898925 0.07510184
0000d0 65 7c 32 bd 6f b9 5c bd d6 52 a6 bd 1b 36 d2 bd
       -0.043575663 -0.05388778 -0.081212685 -0.10264226
0000e0 cf 53 e5 3d d1 de 8e bc f8 3e 1a bd a1 a1 8f bd
       0.11197626 -0.017440232 -0.037657708 -0.0701325
0000f0 08 a1 a8 3d b0 3c bd 3d 82 e5 05 bd 61 86 9a bd
       0.08233839 0.09240091 -0.03268958 -0.07545162
000100 1b 0a d2 bd 0e 2d 51 3c 7e f1 03 be d4 06 09 be
       -0.10255834 0.0127670895 -0.1288509 -0.13381511
000110 51 3a 82 3d dd b7 03 3e 6f cb 85 bd ac ea ae be
       0.06358779 0.12863107 -0.065329425 -0.34163415
000120 10 e7 22 bd 82 a0 a3 3d 7b a4 78 3d 11 f6 1e bc
       -0.03977114 0.07989599 0.060703736 -0.0097022215
000130 8a 06 b8 bd 23 38 a0 bd df 67 33 bd 41 9f 3e bc
       -0.08985622 -0.07823207 -0.04380023 -0.011634649
000140 5d e2 81 3c 79 29 8d bd b1 5d e6 3d 7e 52 ba 3d
       0.015855009 -0.06892676 0.11248339 0.090977654
000150 f1 29 99 3c e2 04 08 be b7 08 b7 3d 8c c4 e0 bd
       0.018696757 -0.13283113 0.08937209 -0.10974988
000160 14 36 c1 bd 69 8c 72 be a2 5b 6d bc f2 09 45 3d
       -0.09434143 -0.23686375 -0.014487179 0.048105188
000170 de 0f c5 3d 4e 8a 8c 3c 66 56 8a bd 32 f9 8f be
       0.09622167 0.017155793 -0.067547604 -0.28119808
000180 ec f3 29 be 2e 59 9d bd 6e eb 1f bd 9c 85 c6 3d
       -0.16596955 -0.07683025 -0.039042883 0.09693453
000190 16 1f 07 be d3 06 38 be 8b 19 2f 3e da 18 98 38
       -0.13195452 -0.17971353 0.17099588 7.252554e-05
0001a0 a1 ab 0b be 74 43 68 3d 6f e0 85 bd 6f 5d 1b 3e
       -0.1363969 0.056704953 -0.06536948 0.15172361
0001b0 cc 78 ba 3d c3 c5 49 be 2a 88 b8 3b 66 a5 10 bd
       0.091050714 -0.19704346 0.0056314664 -0.035313986
0001c0 05 7f 21 bc 88 a6 a1 3c 2a e8 21 3e a7 c9 9f 3d
       -0.009856944 0.019732729 0.1581122 0.07802134
0001d0 ab 4a 40 3d fd b1 27 3d 2b 14 4a 3d de 41 11 3d
       0.04694621 0.040941227 0.04933564 0.035463206
0001e0 4f e0 de 3d 59 cb 19 bc 9e 7f 99 bc 7f 70 4a bd
       0.10882627 -0.009386861 -0.01873761 -0.04942369
0001f0 3d 6f 1a bd 8e 98 bf 3d 2a 29 66 3c c5 20 03 be
       -0.03770374 0.09355269 0.0140479 -0.1280547
000200 bd 70 54 bd ea 41 94 bb 92 ae c5 3d 1d 39 1d bd
       -0.051865328 -0.004524459 0.09652437 -0.038384546
000210 82 e9 c7 bc d3 d5 55 be 90 51 80 bd a3 83 aa 3d
       -0.024403337 -0.20882349 -0.06265557 0.08325889
000220 f6 eb d4 bd 62 35 57 bd 64 72 e8 3d c1 7a 18 3d
       -0.103965685 -0.052541144 0.11349943 0.037226442
000230 ad 77 13 bd f8 36 30 3e b1 1b 32 bd 66 f5 9c 3d
       -0.036002804 0.17208469 -0.04348344 0.076639935
000240 ae 1d 21 be 12 b7 8d 3d 66 74 16 3c cf 04 20 be
       -0.15733978 0.069196835 0.009183025 -0.15626834
000250 6f 7c 21 bd f5 e4 7e 3d a6 d6 2f 3e ea a7 c9 3b
       -0.03942531 0.06223007 0.17171726 0.00615405
000260 55 b8 f2 bd 01 1b 37 3d 4d 8d e0 bc 7d 46 c9 3d
       -0.11851565 0.044703487 -0.027411127 0.09827898
000270 f9 08 e9 bd 2a 23 2d 3e 90 79 9f bd 83 4d c0 3d
       -0.113786645 0.16907945 -0.07786858 0.09389784
000280 a2 64 ab bd 75 7d 70 3d de 3d 4b bd d9 de ad bc
       -0.083688036 0.058713395 -0.049619548 -0.021224426
000290 86 8a a2 3d 35 ee 13 3e f5 02 f5 bd f3 79 51 3c
       0.079365775 0.14446338 -0.11963455 0.012785423
0002a0 09 67 57 be 6a f2 ac 3d 7a cf ac bd 32 1e ea 3d
       -0.21035399 0.08444674 -0.084380105 0.114315405
0002b0 53 33 ea 3d 1b d4 45 3e a7 45 e8 3d a6 43 bd 3d
       0.114355706 0.19319193 0.1134141 0.092414185
0002c0 49 f3 bb bc 8d a6 52 3d b6 54 27 3e 3b 90 24 bd
       -0.022943156 0.051428366 0.16340908 -0.04017661
0002d0 e9 c9 97 bd 30 a6 fb 3d 8b ed fc bc 50 c1 9e 3d
       -0.07411558 0.12287557 -0.030874988 0.07751715
0002e0 7e d5 dd bd c3 99 83 bd 9c f8 89 3c ed d3 34 3e
       -0.10831736 -0.06425812 0.016842179 0.17658968
0002f0 e0 b6 0f 3d 8e 6d 18 be 00 d7 98 bd f5 0e 4d bd
       0.035086513 -0.14885542 -0.07462883 -0.050063092
000300 07 97 66 3c e8 80 85 bd cc 68 81 3d 0e fc b0 bd
       0.014074094 -0.065187275 0.063188165 -0.086418256
000310 f5 6c e7 bd 20 bb af bd 72 3b 61 3d ee 69 e3 3c
       -0.11300079 -0.08580613 0.054988332 0.027760472
000320 69 4c 1b bd 8d 83 a0 3d 5f aa d5 3d 85 41 23 bd
       -0.037914667 0.07837591 0.10432886 -0.039857406
000330 d3 5b 13 3e 9b c4 12 3e 2b fd cf 3c fd 80 3c 3e
       0.14390497 0.14332812 0.025389275 0.1840858
000340 c7 cd 27 be af 7d 29 3c 06 3e e9 bd 58 06 a4 bd
       -0.16387092 0.010344907 -0.11388783 -0.080090225
000350 e4 30 36 be 96 f4 d5 bc f4 2f 42 bc 5e 96 27 3d
       -0.17792088 -0.026117604 -0.011852253 0.040914886
000360 1c ec d1 bd ec 8c 2b 3d 87 ff 21 3d fe d7 08 be
       -0.102501124 0.04188244 0.03955033 -0.13363644
000370 bf 79 0f be 9d 36 9a 3d ff 2a 1e 3e c3 8c a6 bc
       -0.14011286 0.07529948 0.15446089 -0.020330792
000380 ec 53 f5 3d ed 2b 0a 3d 1e da 54 3d 0c d2 e9 3d
       0.119788975 0.033733297 0.051965825 0.114170164
000390 b0 bb df bd 38 3e dd 3c 7a 76 09 be 21 3d 49 bc
       -0.109244704 0.027007207 -0.13424101 -0.012282641
0003a0 f7 f3 ea bd 4e 84 f9 3d 59 b2 f5 3d 33 59 f9 3c
       -0.11472314 0.12183438 0.11996908 0.030438041
0003b0 58 d3 d7 3d 47 d5 4a bd 4f ee 1d 3e 30 1f d8 3d
       0.105383575 -0.049519803 0.15422939 0.105528235
0003c0 f7 47 aa 3d fd e9 30 be 5c 4c 3c 3e 36 84 5b bd
       0.083145075 -0.1727676 0.18388504 -0.053592883
0003d0 11 85 96 bc c9 d6 1e 3e 28 d0 b0 3d fb e8 10 3e
       -0.018373998 0.15511622 0.08633453 0.14151375
0003e0 d3 6a f8 bd f3 2a 24 bd d1 f3 c4 3b a7 ab 1c 3e
       -0.1212975 -0.040080022 0.0060105105 0.15299855
0003f0 b5 ec aa 3c 9b 4d 14 3d 18 20 85 3c 0a ab f5 3c
       0.020864824 0.036206823 0.016250655 0.029988784
