action_LossPrune/model3_Climate.pth (torch, 209742 bytes, 12 tensors)

weight f4 [125, 16]
0.9559232 0.9611222 0.8369504 -0.9861262 1.2622188 -0.27605197 -0.08596158 -2.072663
-0.57475513 1.2426503 -1.30202 -1.5437934 0.4196217 -0.7414389 0.8523884 0.62528896
-0.31569934 0.23827134 0.28504893 0.43684965 0.9951844 0.6578066 -0.653627 0.77333975
0.30118117 -0.8274622 -0.24672674 -0.52318865 -0.034465984 -0.6197522 -2.4726243 -1.2058021
0.48364887 1.2603676 -0.5289967 0.7710868 1.8014368 -0.85372335 -0.14875 -0.40539125
0.23071814 -1.2957858 0.21187578 0.36490965 0.2903234 -0.18397672 1.4294716 -0.021864558
0.86505145 -0.8196532 0.40499762 0.32022497 0.5563155 -0.14419828 2.8513443 -0.35969666
1.0567757 1.0966033 0.98802733 -0.3628508 0.835619 0.15984271 0.11897914 -1.5078446
-0.57723796 0.9304127 0.60159737 0.30767617 -0.26720905 0.2073249 0.10574141 0.15065864
0.84676874 0.95880985 -1.7586672 -1.2375275 -0.6114046 0.096078426 -0.39101157 -0.585622
0.011996983 1.3714483 0.9519932 -0.3502193 -0.018934201 -0.612995 -0.7341235 0.45631602
-1.2168465 -1.4365649 -0.23335963 0.056211486 0.13365954 0.34231195 -1.6639436 -1.1604509
0.6273549 1.1517195 -0.17254585 0.31488618 0.01911201 0.765223 -1.0862334 1.1408612
0.78013176 0.478933 -0.9475968 0.06439533 1.1575283 -0.6042303 -1.3167255 -1.289771
-0.45530874 -0.90118843 -1.2853503 -0.8816559 -0.6674567 -1.6145306 1.645282 -0.44245768
0.036826033 -1.5839154 -0.48414955 1.0882533 -1.4223882 0.46856526 -1.1192151 -0.68503755
-0.76064295 1.5068772 -0.49456608 0.37329865 0.61336225 -0.23932971 -1.2877626 2.0864527
1.7639918 -0.38271672 0.5847396 1.3457803 -0.94904554 -1.5181495 0.77968705 -0.5888263
-1.042521 0.57655406 1.3843412 1.1025724 -0.7302206 -0.41491327 -2.0602927 0.02854891
-0.39883783 -1.5202984 0.31534988 -0.05259748 1.4951366 -0.8060685 0.55853754 0.5261491
-0.46599218 1.6933584 -1.2179334 -0.4681536 0.60863763 -1.2360418 0.15374067 1.9683176
0.30677855 1.6295525 -1.4143392 -1.6857259 -0.66605043 1.4065081 -0.35672247 1.4581418
0.6005616 2.081684 0.28808466 1.1840898 0.2922708 -0.2690648 -1.1823571 0.025709458
0.7577779 0.4728411 1.8568071 1.5848467 0.39643893 -1.2039247 -1.4796621 -2.6951816
-1.1207641 -0.5669859 -0.33595145 0.21154062 -0.5427508 1.1096243 -0.21484601 -0.100883074
-0.67077506 2.6006641 -1.7389054 0.49592483 2.4610317 -0.5121615 -1.1055601 -1.1833246
0.7694702 0.94833946 0.3697557 -1.5977831 -0.10325703 1.1523263 -0.62856454 0.15065311
0.8294469 -0.44086134 0.5905509 1.1441598 0.543455 0.18424246 0.31807992 0.63625205
0.35224468 0.03358816 -0.216585 -1.3117403 1.2057699 -0.32478026 1.3418247 -0.19412099
0.7122761 0.34466156 0.6219832 -0.26406434 0.12018199 0.077032685 -0.2435205 0.7532423
1.5720986 -0.5306175 -0.2865272 1.1570641 0.73603135 -0.13178371 1.1305171 0.13233203
0.071167044 0.568369 -0.056596264 -0.66326916 -0.6215534 0.5207223 -0.049381506 1.1806673
00000000: 62b7 743f 1b0c 763f 6242 563f c472 7cbf
00000010: 6390 a13f af56 8dbe a00c b0bd 83a6 04c0
00000020: 2723 13bf 2a0f 9f3f 97a8 a6bf 069b c5bf
00000030: a8d8 d63e f1ce 3dbf 2036 5a3f f012 203f
00000040: 58a3 a1be 67fd 733e eff1 913e c2aa df3e
00000050: 68c4 7e3f 0366 283f 1954 27bf 98f9 453f
00000060: 6b34 9a3e 90d4 53bf efa5 7cbe b1ef 05bf
00000070: 342c 0dbd 15a8 1ebf 7a3f 1ec0 b957 9abf
00000080: d3a0 f73e ba53 a13f 546c 07bf f265 453f
00000090: 7b95 e63f 9d8d 5abf ec51 18be 718f cfbe
000000a0: 6041 6c3e 4fdc a5bf f7f5 583e 70d5 ba3e
000000b0: 45a5 943e 6564 3cbe edf8 b63f 4d1d b3bc
000000c0: 0374 5d3f cbd4 51bf d95b cf3e 87f4 a33e
000000d0: b16a 0e3f b7a8 13be 6d7c 3640 292a b8be
000000e0: 6d44 873f 7f5d 8c3f 5cef 7c3f 94c7 b9be
000000f0: 20eb 553f cfad 233e 56ab f33d 0d01 c1bf
00000100: dec5 13bf 872f 6e3f 4902 1a3f bb87 9d3e
00000110: a0cf 88be fb4c 543e f48e d83d 4246 1a3e
00000120: d6c5 583f 9074 753f 021c e1bf 4d67 9ebf
00000130: 0385 1cbf c4c4 c43d ab32 c8be 53eb 15bf
00000140: fe8e 443c 9e8b af3f d4b5 733f f24f b3be
00000150: e61b 9bbc 3eed 1cbf 85ef 3bbf 41a2 e93e
00000160: a0c1 9bbf 5ce1 b7bf d4f5 6ebe 043e 663d
00000170: 0cde 083e 8343 af3e 1bfc d4bf a889 94bf
00000180: 559a 203f 8b6b 933f dcaf 30be c338 a13e
00000190: ca90 9c3c a8e5 433f b209 8bbf bd07 923f
000001a0: b7b6 473f b536 f53e b495 72bf b3e1 833d
000001b0: e329 943f d6ae 1abf 768a a8bf 3717 a5bf
000001c0: 3a1e e9be 49b4 66bf 5c86 a4bf 33b4 61bf
000001d0: 71de 2abf f0a8 cebf 9a98 d23f d089 e2be
000001e0: e5d6 163d bdbd cabf 73e2 f7be e24b 8b3f
000001f0: d110 b6bf c9e7 ef3e 7142 8fbf 9f5e 2fbf
00000200: 7fb9 42bf 5ae1 c03f c437 fdbe 0021 bf3e
00000210: 4f05 1d3f d912 75be 68d5 a4bf 7188 0540
00000220: 7cca e13f 72f3 c3be 7fb1 153f 8742 ac3f
00000230: a6f4 72bf b952 c2bf 9299 473f 52bd 16bf
00000240: 5471 85bf 0c99 133f 1832 b13f 1821 8d3f
00000250: bdef 3abf 836f d4be d6db 03c0 67df e93c
00000260: 7934 ccbe 2399 c2bf 8a75 a13e 7570 57bd
00000270: a360 bf3f 815a 4ebf 51fc 0e3f b5b1 063f
00000280: 8796 eebe f8bf d83f 3ee5 9bbf d4b1 efbe
00000290: adcf 1b3f 9e36 9ebf 326e 1d3e d5f1 fb3f
000002a0: 1412 9d3e 2d95 d03f 1109 b5bf dec5 d7bf
000002b0: 4882 2abf 7508 b43f 54a4 b6be 64a4 ba3f
000002c0: 68be 193f 503a 0540 d57f 933e 4190 973f
000002d0: 85a4 953e ddc2 89be 7a57 97bf a49c d23c
000002e0: bcfd 413f 3b18 f23e dbab ed3f 42dc ca3f
000002f0: 0bfa ca3e 341a 9abf 9165 bdbf db7d 2cc0
00000300: 3375 8fbf fd25 11bf d401 acbe 1b9e 583e
00000310: b7f1 0abf 2b08 8e3f 9800 5cbe c99b cebd
00000320: eab7 2bbf 4871 2640 7494 debf dce9 fd3e
00000330: 8b81 1d40 041d 03bf fe82 8dbf 2e77 97bf
00000340: 00fc 443f 60c6 723f 9e50 bd3e 2884 ccbf
00000350: 6c78 d3bd 6e7f 933f 9be9 20bf cf44 1a3e
00000360: a256 543f 94b8 e1be 582e 173f d473 923f
00000370: de1f 0b3f 0eaa 3c3e 5fdb a23e 6ae1 223f
00000380: 6a59 b43e bd93 093d 75c8 5dbe 1be7 a7bf
00000390: ab56 9a3f 9949 a6be e9c0 ab3f a7c7 46be
000003a0: ba57 363f 7b77 b03e 4a3a 1f3f 7133 87be
000003b0: fa21 f63d 50c3 9d3d 705d 79be 7dd4 403f
000003c0: 873a c93f 8cd6 07bf b1b3 92be ad1a 943f
000003d0: 8d6c 3c3f 4ff2 06be c9b4 903f 0c82 073e
000003e0: 07c0 913d a180 113f 7cd1 67bd 02cc 29bf
000003f0: 201e 1fbf 0f4e 053f 4344 4abd 1b20 973f

weight_ih_l0 f4 [192, 17]
-0.16017833 -0.06847961 0.24905369 0.1395328 0.05810916 0.21123868 0.18771586 0.21215886
-0.04815137 0.09162745 -0.026912462 0.14446044 -0.062093873 -0.097166084 0.003131342 0.040236026
0.22369404 0.1267719 -0.1651893 0.13397981 0.08357246 0.117275134 0.2700594 0.16912015
0.035784375 0.16204074 -0.024393579 0.045644373 0.059406217 -0.15537067 0.04225393 -0.18508282
-0.07145957 0.24925135 -0.17587382 -0.1270712 -0.009343911 0.1332237 0.23549275 0.21448815
-0.05954226 -0.08735887 0.09458393 0.14649007 0.077301316 -0.09072507 -0.10295219 0.17745212
-0.11424824 0.16104107 -0.050384726 -0.13352488 -0.13465813 -0.09492412 -0.23062395 -0.08903118
0.04161038 0.0020511653 -0.17346586 0.037190005 0.14461765 0.25936788 -0.05704104 0.1745417
-0.030139059 -0.05472856 -0.076770976 -0.13732664 0.041061148 0.046919074 0.070113525 0.43487063
0.01896864 0.115227744 0.10289717 0.20496467 0.36888936 0.064999335 0.020899292 -0.055944942
0.07579224 -0.016118277 -0.04497038 -0.13686725 -0.07315764 0.17381218 0.08554031 0.19859034
0.1914669 -0.15519182 0.049140368 0.04362331 0.041528057 0.27332646 -0.1648996 0.16158569
-0.019943358 -0.19177969 0.18745154 -0.15447104 -0.13041984 -0.24899827 0.16109724 -0.24287868
-0.27736148 0.10145974 0.030666837 0.2010874 -0.17545412 0.08484433 -0.22331086 -0.029437702
-0.026515525 0.0909668 -0.17617431 -0.085001186 -0.21236496 0.21286207 0.28512993 -0.22877522
-0.07001588 0.10278165 0.07674362 -0.011982168 -0.009637418 0.092217185 0.13996926 -0.18369424
0.14161144 -0.02195717 -0.05506582 -0.052924663 0.028054336 -0.0633321 -0.18926153 -0.08379792
0.065446585 0.0134716965 0.086397015 0.3461536 -0.07922212 0.1630629 -0.24550392 0.13422279
0.13849775 0.010179776 0.035525188 0.066378795 -0.041091546 -0.23611282 -0.22240634 0.21407269
0.40196916 0.08823143 -0.09225437 0.025996642 0.15644962 -0.17028214 -0.38257006 -0.3437013
0.12069556 -0.0036240125 0.112772636 0.022899115 -0.17450535 0.12599377 -0.18831076 -0.11809442
-0.051566973 -0.0018513529 0.07606468 -0.023605503 -0.3433512 -0.099914275 -0.19563456 -0.13475423
0.131421 -0.17055114 0.16367498 0.09841901 -0.09356255 -0.09378044 0.2244191 0.0037701174
0.07781538 -0.3062514 0.044935077 0.100328885 0.14103577 0.07597062 -0.008748915 -0.17055802
0.10111579 -0.1831513 0.24408506 -0.098229066 -0.029252304 0.19591096 -0.011509327 -0.2266352
-0.044025984 0.035858303 -0.13645755 0.20916168 -0.017804716 -0.24357624 -0.39125946 -0.13518344
-0.16978279 0.11614596 0.023829892 -0.20601828 -0.12888412 0.059872746 -0.08805558 -0.07443596
0.012313049 -0.060474392 -0.0032052775 -0.1409625 -0.13215621 0.03772759 -0.22448966 -0.012888919
-0.13639097 -0.22914174 0.13750981 -0.36427486 0.2995161 0.11303965 0.026372133 -0.00854566
0.17012607 0.14717828 -0.09906618 0.21643744 -0.001879574 0.0999712 0.011284886 -0.32033744
-0.2185692 0.07770431 -0.15287046 -0.1650048 -0.012596358 -0.31644464 0.14735562 -0.051036738
-0.14425291 0.09814554 -0.14660788 -0.061362423 0.2381622 0.2523209 0.050456483 0.119050935
00000000: ca05 24be 0a3f 8cbd ee07 7f3e b0e1 0e3e
00000010: df03 6e3d f44e 583e 9638 403e 2c40 593e
00000020: 5f3a 45bd 2ca7 bb3d 8677 dcbc 70ed 133e
00000030: 2556 7ebd 03ff c6bd 3337 4d3b 88ce 243d
00000040: 0d10 653e 7ed0 013e 6227 29be 0132 093e
00000050: 0a28 ab3d f22d f03d 3a45 8a3e d52d 2d3e
00000060: a392 123d 02ee 253e 0bd5 c7bc 98f5 3a3d
00000070: ef53 733d 7d19 1fbe 7512 2d3d 5a86 3dbe
00000080: 6559 92bd bf3b 7f3e 4418 34be f41e 02be
00000090: 3417 19bc cb6b 083e 0325 713e c8a2 5b3e
000000a0: 96e2 73bd 35e9 b2bd 38b5 c13d 7e01 163e
000000b0: 2750 9e3d 11ce b9bd 99d8 d2bd 02b6 353e
000000c0: fbfa e9bd f3e7 243e 3760 4ebd bfba 08be
000000d0: d2e3 09be 9467 c2bd af28 6cbe fb55 b6bd
000000e0: a56f 2a3d d86c 063b 09a1 31be 8c54 183d
000000f0: a616 143e decb 843e dea3 69bd 0fbb 323e
00000100: 30e6 f6bc 0e2b 60bd 1a3a 9dbd 5b9f 0cbe
00000110: bc2f 283d 372e 403d ae97 8f3d 5da7 de3e
00000120: 1f64 9b3c 86fc eb3d c0bb d23d 42e2 513e
00000130: 11df bc3e 5f1e 853d fe34 ab3c 8626 65bd
00000140: f638 9b3d 7a0a 84bc dc32 38bd ee26 0cbe
00000150: acd3 95bd d2fb 313e c22f af3d 445b 4b3e
00000160: e60f 443e 9bea 1ebe 6947 493d 5bae 323d
00000170: 5319 2a3d 72f1 8b3e 71db 28be b876 253e
00000180: 4160 a3bc e561 44be 4cf3 3f3e a82d 1ebe
00000190: c78c 05be 67f9 7ebe adf6 243e 30b5 78be
000001a0: 5302 8ebe 20ca cf3d 0539 fb3c dbe9 4d3e
000001b0: 3faa 33be ddc2 ad3d 9aab 64be 5627 f1bc
000001c0: 1637 d9bc cd4c ba3d 0a67 34be 1a15 aebd
000001d0: 3376 59be 84f8 593e 8dfc 913e 0d44 6abe
000001e0: 7c64 8fbd 307f d23d c22b 9d3d db50 44bc
000001f0: 43e6 1dbc 5ddc bc3d 1a54 0f3e 581a 3cbe
00000200: 9702 113e 86df b3bc b38c 61bd 88c7 58bd
00000210: 35d2 e53c 43b4 81bd c6cd 41be 3e9e abbd
00000220: dc08 863d 64b8 5c3c ebf0 b03d 0b3b b13e
00000230: 353f a2bd f6f9 263e 6165 7bbe b371 093e
00000240: 5bd2 0d3e 13c9 263c dc82 113d 9bf1 873d
00000250: 9c4f 28bd 8fc7 71be 7dbe 63be df35 5b3e
00000260: e7ce cd3e aeb2 b43d dcef bcbd e9f6 d43c
00000270: 5434 203e 715e 2ebe 39e0 c3be 9ef9 afbe
00000280: 3c2f f73d d780 6dbb 57f5 e63d ed96 bb3c
00000290: 88b1 32be 8304 013e 89d4 40be 7ddb f1bd
000002a0: e437 53bd 18a9 f2ba cdc7 9b3d 5460 c1bc
000002b0: bacb afbe db9f ccbd 6d54 48be 03fd 09be
000002c0: 3a93 063e f5a4 2ebe 6a9a 273e e88f c93d
000002d0: b99d bfbd f60f c0bd 1fce 653e 1314 773b
000002e0: ac5d 9f3d fccc 9cbe d80d 383d 3b79 cd3d
000002f0: ae6b 103e 7c96 9b3d 9c57 0fbc c3a6 2ebe
00000300: cc15 cf3d 048c 3bbe 6ff1 793e 522c c9bd
00000310: 87a2 efbc e29c 483e 9e91 3cbc 0f13 68be
00000320: 9754 34bd 28e0 123d 87bb 0bbe 7b2e 563e
00000330: 32db 91bc 0d6c 79be 2953 c8be 876d 0abe
00000340: 8adb 2dbe efdd ed3d e836 c33c 75f6 52be
00000350: 33fa 03be 203d 753d 7c56 b4bd e171 98bd
00000360: acbc 493c ffb3 77bd a20f 52bb 7958 10be
00000370: f553 07be 3f88 1a3d 9ee0 65be 0b2c 53bc
00000380: 13aa 0bbe 22a4 6abe 5fcf 0c3e 3c82 babe
00000390: 2d5a 993e 5581 e73d 5f0a d83c 1903 0cbc
000003a0: 8735 2e3e e7b5 163e 36e3 cabd c7a1 5d3e
000003b0: 0a5c f6ba b3bd cc3d 3ee4 383c 4503 a4be
000003c0: 9bd0 5fbe 7023 9f3d 138a 1cbe 05f7 28be
000003d0: f460 4ebc 0805 a2be 64e4 163e e60b 51bd
000003e0: 09b7 13be 8700 c93d 6020 16be 2a57 7bbd
000003f0: cbe0 733e 3430 813e 75ab 4e3d fad0 f33d

weight_hh_l0 f4 [192, 64]
-0.12947764 0.058672808 -0.11560171 0.10414348 0.027999245 0.07096386 0.050414607 0.055136766
0.039718237 0.18744639 0.024866825 -0.08398473 -0.016728705 -0.03191149 0.096076354 -0.12845242
0.11591374 -0.106637605 0.0728611 -0.04723413 -0.017947104 0.010454764 -0.038015213 0.029161511
-0.027674988 -0.105356276 -0.099687934 0.038858525 0.11344132 0.05108894 0.03294 -0.064331666
0.006163273 0.092018984 -0.08798603 -0.042509023 -0.021439182 0.058177855 0.16034082 0.03129526
-0.1128177 -0.120255716 0.0060335714 0.10761315 -0.14487587 0.057158522 -0.08450094 -0.052387066
0.01791912 -0.054425575 -0.015103068 -0.056706414 -0.06094292 0.121651806 -0.110849425 0.0017324672
0.12986845 -0.020982392 -0.08906571 0.36935365 -0.005115367 -0.09322981 -0.063401185 0.05544921
-0.11744328 -0.16497414 0.102557905 0.14102042 -0.06630265 -0.009155534 -0.015531715 -0.01893178
0.15700348 0.15869483 -0.028530098 -0.15431127 -0.0839379 0.15914169 -0.005323612 -0.009026336
-0.12083566 -0.177492 -0.014744626 0.023653438 -0.054467205 -0.1043634 -0.0059604365 0.096888304
0.028494464 -0.061924085 0.07815905 -0.14668421 -0.006706647 0.13587925 0.06955397 0.06593178
-0.0043349713 -0.05890735 -0.13297154 0.025817765 0.15752876 -0.045652166 0.04307023 0.11703676
-0.070148766 -0.031564496 0.14993978 0.1082792 0.026149372 -0.10136101 0.1125228 -0.122750685
0.11328392 -0.115043 0.0017739206 0.1304541 0.11369109 0.13591433 -0.04791339 -0.01977416
0.0022382082 0.015242551 -0.0928974 0.021480165 -0.054893345 -0.14662471 -0.092703216 0.11433251
0.06113602 0.11433477 -0.33237034 -0.01704567 -0.023120679 0.14900012 0.19755523 -0.04060205
0.0037736471 -0.04684329 0.030217092 -0.017092071 -0.14927126 -0.03817428 -0.03465409 -0.074053854
-0.02364616 0.10455113 -0.13456763 -0.019350177 -0.058278713 0.08872925 0.014106644 -0.11006651
-0.13027236 0.18169557 0.033633407 0.101605944 -0.13412839 -0.013035095 0.06600861 0.047416586
-0.041123003 -0.062022306 0.055153795 0.037067838 0.017697742 0.019350134 0.003304085 -0.05260489
0.08277578 0.0305006 0.23131004 -0.25264424 -0.14801227 -0.22839396 -0.0051605226 -0.15413664
-0.09082196 -0.07343236 0.027991029 -0.1026654 -0.084005944 -0.017008685 -0.011645784 -0.034049243
-0.027318468 0.11753293 -0.10563532 0.10257637 -0.059291083 0.08905468 -0.07791124 0.060019843
-0.046454065 -0.07337269 -0.06647723 -0.0661307 0.08907116 0.21853477 -0.072925165 0.13091458
0.21665564 0.14468046 -0.0055284896 -0.13477948 0.04639674 -0.07077192 -0.15670353 -0.06599404
0.04756881 0.14260617 -0.015927458 0.102847606 0.050795224 -0.015304543 0.0016717364 0.1644294
-0.13278592 -0.061313353 -0.13120264 -0.008549768 -0.12002247 -0.17743813 0.11123261 -0.009269883
-0.010133827 0.02850702 -0.055157214 0.14201789 0.011942039 0.027007757 -0.096233696 0.1414077
0.016473148 0.04112441 0.029900763 0.011864642 0.04860891 -0.14620775 -0.10956027 -0.002341646
-0.04002652 -0.16577917 -0.066914 -0.0013492507 0.049829654 -0.009008742 -0.099735886 -0.043642905
-0.100050785 -0.07448793 -0.054141603 0.08344879 -0.03202684 0.21344784 -0.042483747 0.03716243
00000000: c995 04be e652 703d 97c0 ecbd 2d49 d53d
00000010: ac5e e53c 8055 913d 8c7f 4e3d 17d7 613d
00000020: 97af 223d f2f1 3f3e 83b5 cb3c 3000 acbd
00000030: a30a 89bc 9fb5 02bd aec3 c43d 0889 03be
00000040: 2f64 ed3d d164 dabd 3338 953d 9378 41bd
00000050: ce05 93bc 754a 2b3c d7b5 1bbd 1fe4 ee3c
00000060: a8b6 e2bc 08c5 d7bd 3029 ccbd 1e2a 1f3d
00000070: ec53 e83d a342 513d 18ec 063d 52c0 83bd
00000080: 48f5 c93b 7374 bc3d 0532 b4bd f11d 2ebd
00000090: 39a1 afbc e74b 6e3d 6230 243e 752f 003d
000000a0: f70c e7bd a148 f6bd 44b5 c53b 4864 dc3d
000000b0: 575a 14be 0e1f 6a3d d40e adbd d293 56bd
000000c0: 1ecb 923c 5aed 5ebd dc72 77bc fc44 68bd
000000d0: 499f 79bd 9524 f93d 0605 e3bd f413 e33a
000000e0: 3cfc 043e 44e3 abbc 1568 b6bd ec1b bd3e
000000f0: cf9e a7bb 45ef bebd 7bd8 81bd b61e 633d
00000100: 1a86 f0bd fbee 28be e109 d23d a867 103e
00000110: afc9 87bd 1801 16bc bc78 7ebc d216 9bbc
00000120: 85c5 203e e680 223e f4b7 e9bc c603 1ebe
00000130: a2e7 abbd 0af6 223e b271 aebb 32e3 13bc
00000140: b078 f7bd 76c0 35be 7293 71bc dbc4 c13c
00000150: 0119 5fbd 7abc d5bd c44f c3bb 606d c63d
00000160: 396d e93c 1ca4 7dbd da11 a03d 6334 16be
00000170: 6fc3 dbbb ee23 0b3e 5072 8e3d 3e07 873d
00000180: 600c 8ebb d548 71bd b129 08be c77f d33c
00000190: 384f 213e c4fd 3abd 696a 303d f8b0 ef3d
000001a0: 28aa 8fbd c649 01bd d089 193e 7cc1 dd3d
000001b0: 3537 d63c 5c96 cfbd 5b72 e63d b664 fbbd
000001c0: 6601 e83d aa9b ebbd e682 e83a c295 053e
000001d0: e0d6 e83d 202d 0b3e d540 44bd 6bfd a1bc
000001e0: e7ae 123b e5bb 793c fe40 bebd 2cf7 af3c
000001f0: d8d7 60bd ca24 16be 2fdb bdbd 2a27 ea3d
00000200: c369 7a3d 5928 ea3d 722c aabe 5ca3 8bbc
00000210: 9467 bdbc 7d93 183e eb4b 4a3e 564e 26bd
00000220: 4b4f 773b c0de 3fbd d689 f73c ac04 8cbc
00000230: 91da 18be a25c 1cbd 72f1 0dbd 8ca9 97bd
00000240: 97b5 c1bc e71e d63d 19cc 09be 4384 9ebc
00000250: a9b5 6ebd aeb7 b53d 8e1f 673c 8d6a e1bd
00000260: 1e66 05be 670e 3a3e 2fc3 093d c716 d03d
00000270: f458 09be 2791 55bc 862f 873d e537 423d
00000280: 9870 28bd 1a0b 7ebd f2e8 613d 72d4 173d
00000290: dbfa 903c 2c84 9e3c 5989 583b 3a78 57bd
000002a0: 5986 a93d 65dc f93c 8adc 6c3e 965a 81be
000002b0: 8790 17be 1be0 69be 9a19 a9bb ffd5 1dbe
000002c0: dd00 babd b563 96bd 714d e53c 3d42 d2bd
000002d0: 4f0b acbd cc55 8bbc f5cd 3ebc 3877 0bbd
000002e0: fbca dfbc 1bb5 f03d 5557 d8bd 8f13 d23d
000002f0: 35db 72bd 4d62 b63d ee8f 9fbd 5ed7 753d
00000300: 9e46 3ebd 6c44 96bd 3725 88bd 886f 87bd
00000310: f16a b63d 94c7 5f3e ca59 95bd 790e 063e
00000320: fada 5d3e 1d27 143e 5528 b5bb a203 0abe
00000330: 820a 3e3d def0 90bd e476 20be e227 87bd
00000340: 83d7 423d 5a07 123e 4d7a 82bc c4a1 d23d
00000350: a70e 503d e8bf 7abc 2a1e db3a 2e60 283e
00000360: 08f9 07be b623 7bbd fc59 06be 5314 0cbc
00000370: 57ce f5bd 57b2 35be eccd e33d b5e0 17bc
00000380: 5a08 26bc 8e87 e93c 88ec 61bd 236d 113e
00000390: 8ba8 433c 5f3f dd3c 2c16 c5bd 2ecd 103e
000003a0: b2f2 863c 1272 283d 72f2 f43c ea63 423c
000003b0: 231a 473d 7cb7 15be 2361 e0bd 4d76 19bb
000003c0: d9f2 23bd 04c2 29be 350a 89bd 57d9 b0ba
000003d0: 2e1a 4c3d 6799 13bc 5442 ccbd e7c2 32bd
000003e0: 6de7 ccbd 218d 98bd 96c3 5dbd 33e7 aa3d
000003f0: 932e 03bd 1292 5a3e 7003 2ebd a237 183d

bias_ih_l0 f4 [192]
-0.037548322 0.032188915 0.048289344 0.046688657 -0.111876026 0.0011703396 0.013339633 -0.12383576
0.022933435 0.07603929 0.11425954 -0.02135797 0.0059412625 0.029572176 0.1291524 0.049983907
0.108523645 -0.04426511 -0.020528853 0.092174105 0.11360099 0.05561787 0.08857829 -0.03506844
-0.083757386 0.06999734 0.15102212 0.013607471 0.052023392 0.047093987 0.0034796377 0.029721944
0.07171143 0.021803634 -0.08510784 0.07293019 -0.070786 -0.031811245 0.19906624 -0.07798053
0.04620156 0.10591312 0.08931536 -0.05004404 -0.11285407 -0.0046426705 -0.06170007 -0.08317249
0.072983 -0.14420606 0.061304845 -0.09356739 -0.10106826 0.01598737 0.062027603 -0.015335282
0.041094497 -0.08012545 0.086037464 0.06367925 0.11758266 0.10649921 0.08620119 -0.1711663
-0.26452228 -0.12343572 -0.1855996 -0.22753496 -0.13877274 -0.6131296 -0.17225987 -0.15666352
-0.46610838 -0.33257344 -0.28385124 -0.26961923 -0.2917371 -0.13416925 -0.4070862 -0.20654508
-0.49812335 0.20750627 -0.68989885 -0.10817776 -0.19216065 -0.5032367 -0.2512663 -0.2560667
-0.4751175 -0.14069213 -0.19370548 -0.20129383 0.20544645 -0.531103 -0.2939523 -0.35703823
-0.54210377 -0.17742921 -0.22506061 -0.4746134 -0.12064776 -0.10120514 -0.22530515 -0.18190023
-0.25844404 -0.2040585 -0.34523457 -0.45071572 -0.30547965 -0.27501115 -0.09845942 -0.3438223
-0.28363654 -0.2630905 -0.35223922 -0.256469 -0.19532059 -0.28808555 -0.23128729 -0.33964047
-0.38542175 -0.28037477 -0.115525916 -0.074146405 -0.33319682 -0.61770415 -0.31777865 -0.0049598133
0.0029987236 -0.14125246 0.039932963 0.04369038 -0.07603528 0.09417682 -0.06513206 0.050372124
-0.05226466 0.022062957 -0.009944173 -0.08798081 0.0920916 0.09776929 -0.08431347 0.06739234
-0.038700245 0.039052267 0.033112597 0.031075822 -0.010559823 0.008867847 0.044601772 0.09088869
0.016082494 0.16071737 -0.11655634 -0.107505985 -0.05486175 0.03517717 0.095074095 0.0044253482
0.10230102 -0.20343761 0.06487997 -0.029210007 -0.13067637 0.0012417025 0.15311152 -0.14875965
-0.24116428 -0.12119535 -0.060893767 0.02546055 0.05625807 -0.039330255 0.013153621 0.07876065
0.07063916 -0.08740625 -0.00920738 -0.035819855 0.13018085 0.14766917 0.10780061 0.16396017
-0.07870796 0.02110739 0.11604457 0.0072522494 -0.07785775 0.12920427 -0.046149693 -0.09768762
00000000: 45cc 19bd 86d8 033d 0ccb 453d 9b3c 3f3d
00000010: 421f e5bd 1566 993a 7a8e 5a3c 9a9d fdbd
00000020: e6de bb3c 7dba 9b3d e800 ea3d e9f6 aebc
00000030: ecae c23b 5941 f23c 8740 043e edbb 4c3d
00000040: a541 de3d 554f 35bd 202c a8bc c7c5 bc3d
00000050: a3a7 e83d 90cf 633d 8968 b53d eda3 0fbd
00000060: fe88 abbd c45a 8f3d 8ba5 1a3e dff1 5e3c
00000070: 7b16 553d a0e5 403d a20a 643b 6f7b f33c
00000080: 71dd 923d 899d b23c 054d aebd 6c5c 953d
00000090: 40f8 90bd 824c 02bd 05d8 4b3e 42b4 9fbd
000000a0: d93d 3d3d fae8 d83d f9ea b63d fbfa 4cbd
000000b0: 0920 e7bd 8b21 98bb 36b9 7cbd 5756 aabd
000000c0: 1c78 953d c1aa 13be ca1a 7b3d 43a0 bfbd
000000d0: e0fc cebd f2f7 823c a810 7e3d d640 7bbc
000000e0: b452 283d d018 a4bd 6934 b03d 446a 823d
000000f0: 2dcf f03d 421c da3d 408a b03d 3846 2fbe
00000100: 776f 87be decb fcbd d20d 3ebe edfe 68be
00000110: 711a 0ebe 10f6 1cbf e464 30be 676c 20be
00000120: c2a5 eebe 1147 aabe f354 91be 880b 8abe
00000130: 915e 95be aa63 09be 9a6d d0be 8e80 53be
00000140: 060a ffbe 867c 543e 369d 30bf 4d8c ddbd
00000150: c3c5 44be 1fd4 00bf faa5 80be 2d1b 83be
00000160: 9a42 f3be 9911 10be bb5a 46be f81f 4ebe
00000170: 8e60 523e 5ef6 07bf ea80 96be b7cd b6be
00000180: 50c7 0abf 01b0 35be 4a76 66be 8700 f3be
00000190: 2c16 f7bd a444 cfbd 65b6 66be 0e44 3abe
000001a0: c752 84be b6f4 50be 96c2 b0be 36c4 e6be
000001b0: d467 9cbe 43ce 8cbe 18a5 c9bd 7a09 b0be
000001c0: cf38 91be ccb3 86be b358 b4be e84f 83be
000001d0: 1f02 48be f37f 93be 93d6 6cbe 5be5 adbe
000001e0: 0056 c5be 488d 8fbe da98 ecbd 12da 97bd
000001f0: c698 aabe dc21 1ebf e2b3 a2be ee85 a2bb
00000200: 3c86 443b 7ca4 10be bf90 233d aff4 323d
00000210: 63b8 9bbd c7df c03d f563 85bd 0053 4e3d
00000220: 7813 56bd 60bd b43c e2ec 22bc 482f b4bd
00000230: 859a bc3d 443b c83d 8aac acbd ff04 8a3d
00000240: 2684 1ebd 45f5 1f3d 13a1 073d b992 fe3c
00000250: 1c03 2dbc 724a 113c 59b0 363d d923 ba3d
00000260: 6fbf 833c 1893 243e 17b5 eebd 192c dcbd
00000270: b7b6 60bd f015 103d 35b6 c23d 8302 913b
00000280: 3283 d13d f351 50be cadf 843d d349 efbc
00000290: 07d0 05be 9fc0 a23a 44c9 1c3e 7354 18be
000002a0: c5f3 76be 4535 f8bd be6b 79bd a592 d03c
000002b0: dd6e 663d c318 21bd 4982 573c 434d a13d
000002c0: 44ab 903d 0c02 b3bd 8dda 16bc d7b7 12bd
000002d0: 214e 053e 9636 173e 91c6 dc3d 2de5 273e
000002e0: a431 a1bd 68e9 ac3c c7a8 ed3d 47a4 ed3b
000002f0: e273 9fbd 204e 043e 7607 3dbd 7210 c8bd

bias_hh_l0 f4 [192]
-0.036304165 0.058341995 -0.077732794 -0.016171893 0.058319643 0.13468872 0.0582785 -0.11984014
-0.011391312 -0.06796373 -0.00012080515 -0.010095451 -0.09560037 0.12435409 -0.089251675 0.037459925
-0.019141756 0.044066712 0.040321846 0.09212387 0.03890392 -0.12996668 -0.0082589835 0.1616691
0.059727654 0.021656685 -0.035959758 -0.071822725 0.14993079 0.10700452 0.22344193 -0.015614455
-0.07319547 0.105737545 -0.019987928 0.031434815 0.039495196 0.030335505 0.061072953 -0.09720361
0.065953515 -0.07099562 0.04261961 -0.08078701 -0.06627896 0.13692299 0.13710022 0.101546936
0.0353358 -0.1776463 0.0417624 -0.089538835 -0.09309457 -0.05456933 0.037298944 0.058284607
-0.064148575 -0.10640914 -0.0042396644 0.13249467 0.07830988 0.123375684 0.08130613 -0.03160068
-0.23389044 -0.035819277 -0.11153607 -0.13033307 -0.09376375 -0.67218214 -0.0013027464 -0.12479424
-0.47370338 -0.22733602 -0.2714949 -0.122238524 -0.2558393 -0.1722974 -0.4949119 -0.056663383
-0.5247517 0.07889753 -0.62921435 -0.03022443 -0.31670433 -0.69691604 -0.48387128 -0.27490288
-0.3239872 -0.21384501 -0.06719274 0.03838974 0.099976376 -0.44495055 -0.20950016 -0.3653132
-0.5283203 0.011275745 -0.19686727 -0.5278973 -0.15003473 -0.087675095 -0.17148775 -0.23286316
-0.19541833 -0.16319162 -0.37550002 -0.3742682 -0.39069858 -0.23136494 -0.11308043 -0.35304368
-0.18726787 -0.36409578 -0.30782157 -0.26798275 -0.18387577 -0.41876972 -0.334327 -0.37687367
-0.41985247 -0.34917673 -0.13696523 -0.064077064 -0.46663383 -0.4966138 -0.33111364 0.00049375935
0.002979459 -0.015900644 -0.17550714 -0.14098705 -0.24220157 -0.31856132 -0.04651146 0.17497818
0.058139216 0.13225149 -0.008298463 -0.036958482 0.058733713 0.10271171 -0.09417461 0.20663173
-0.32091787 0.033944868 -0.17784552 0.2556672 -0.1632065 -0.111323856 -0.08281217 0.22255617
-0.00066277303 0.054157484 -0.29424962 0.09860875 -0.030473152 -0.16394219 0.08547256 0.17395464
-0.20636226 -0.20800073 0.06652769 0.18379317 0.017753005 -0.10654414 0.005171713 -0.2760923
-0.13642603 0.0111532025 0.050971735 -0.09743261 -0.04251437 0.024828807 0.0536319 0.048163783
0.072122924 -0.066882305 -0.051165827 -0.03513605 -0.018851269 0.20728295 -0.07848737 0.3019333
-0.09018603 -0.08829129 0.11702231 -0.11683607 -0.02529938 0.101700574 0.010100381 -0.12836379
00000000: adb3 14bd 04f8 6e3d 5f32 9fbd eb7a 84bc
00000010: 94e0 6e3d d7eb 093e 70b5 6e3d bf6e f5bd
00000020: a0a2 3abc 9130 8bbd c558 fdb8 6467 25bc
00000030: 20ca c3bd 5bad fe3d 95c9 b6bd 946f 193d
00000040: 2ccf 9cbc 4c7f 343d 8528 253d 71ab bc3d
00000050: b859 1f3d fc15 05be b050 07bc 968c 253e
00000060: fca4 743d 5c69 b13c 8a4a 13bd cb17 93bd
00000070: 7587 193e 3025 db3d f6cd 643e c5d3 7fbc
00000080: 82e7 95bd ed8c d83d b9bd a3bc cbc1 003d
00000090: b7c5 213d 2a82 f83c a227 7a3d b012 c7bd
000000a0: a312 873d 2766 91bd e691 2e3d a973 a5bd
000000b0: 43bd 87bd 8a35 0c3e 0064 0c3e d7f7 cf3d
000000c0: 46bc 103d e9e8 35be 0d0f 2b3d 2360 b7bd
000000d0: 5ea8 bebd 1784 5fbd c7c6 183d d7bb 6e3d
000000e0: 5460 83bd 09ed d9bd e2ec 8abb afac 073e
000000f0: ee60 a03d 64ac fc3d d483 a63d b76f 01bd
00000100: fa80 6fbe 3cb7 12bd 066d e4bd 0876 05be
00000110: 3507 c0bd 2114 2cbf eac0 aaba 1f94 ffbd
00000120: 4089 f2be c6ca 68be 6101 8bbe 3158 fabd
00000130: 5efd 82be bb6e 30be 1865 fdbe dd17 68bd
00000140: 2156 06bf 0795 a13d 3114 21bf 3999 f7bc
00000150: 1227 a2be 1769 32bf fabd f7be 12c0 8cbe
00000160: a6e1 a5be 30fa 5abe 599c 89bd 8f3e 1d3d
00000170: 6ac0 cc3d 8fd0 e3be 3687 56be 550a bbbe
00000180: 0040 07bf e7bd 383c 9397 49be 4724 07bf
00000190: b4a2 19be 008f b3bd 7c9a 2fbe ae73 6ebe
000001a0: be1b 48be b41b 27be 8a41 c0be 15a0 bfbe
000001b0: a509 c8be eeea 6cbe b696 e7bd 24c2 b4be
000001c0: 26c3 3fbe c36a babe ca9a 9dbe 0935 89be
000001d0: ee49 3cbe fc68 d6be e92c abbe 96f5 c0be
000001e0: e7f6 d6be 4bc7 b2be 9d40 0cbe d63a 83bd
000001f0: a1ea eebe 2a44 febe ba87 a9be a16f 013a
00000200: 0743 433b 1142 82bc 25b8 33be e95e 10be
00000210: b003 78be 781a a3be cd82 3ebd 7b2d 333e
00000220: 6323 6e3d ef6c 073e 47f6 07bc c761 17bd
00000230: c392 703d 845a d23d 9ede c0bd 4597 533e
00000240: 594f a4be c609 0b3d 231d 36be d0e6 823e
00000250: 9b1f 27be c3fd e3bd 6d99 a9bd c4e5 633e
00000260: f2bd 2dba 3dd4 5d3d e3a7 96be 62f3 c93d
00000270: d5a2 f9bc 76e0 27be 3d0c af3d 2a21 323e
00000280: a150 53be 25fe 54be ab3f 883d 4734 3c3e
00000290: c06e 913c d033 dabd 7977 a93b f85b 8dbe
000002a0: 44b3 0bbe ecbb 363c bdc7 503d c08a c7bd
000002b0: 8c23 2ebd c865 cb3c 20ad 5b3d 6347 453d
000002c0: 2fb5 933d 97f9 88bd 4293 51bd d2ea 0fbd
000002d0: fa6d 9abc fb41 543e fcbd a0bd 0097 9a3e
000002e0: 74b3 b8bd 10d2 b4bd 65a9 ef3d c047 efbd
000002f0: a540 cfbc 6448 d03d 127c 253c cc71 03be

weight_ih_l1 f4 [192, 64]
0.10060165 -0.116615705 0.15478672 0.16108927 0.019941457 -0.08291465 -0.15659028 -0.15668851
0.093753316 -0.11674328 0.0386047 -0.15660264 -0.20255935 -0.022205539 -0.2757133 -0.17106986
0.036236882 0.059494503 0.07629306 -0.044060502 0.05359666 0.1570968 -0.10589889 0.06627541
0.08779774 0.044503767 -0.13455357 0.07842081 0.21865544 -0.007518945 -0.035043217 -0.06456964
0.088472754 -0.0066361283 -0.11448431 -0.19213226 0.06373951 -0.14327677 0.071029946 0.13998768
-0.015389643 -0.08726503 0.16469511 0.031441968 0.103853926 0.042442523 0.16135868 0.024547314
0.121166915 -0.0051518143 -0.023401339 0.08300187 -0.0118035115 0.016757015 0.018255837 -0.003998947
-0.16005173 0.0072619068 0.013147465 0.18557313 -0.09091978 -0.1966531 -0.088547096 0.1329969
-0.04939912 0.062697716 -0.17445165 0.0012060469 0.08186768 0.16594061 -0.00954555 0.013194536
0.045864604 0.01635619 0.034512464 0.12533146 -0.1566141 -0.112160005 0.043999236 0.066699505
-0.028820831 0.08295187 0.03094054 -0.041957896 -0.100841746 -0.09024173 0.0035632886 -0.056316253
0.026519787 0.06264622 0.12222341 0.014629062 0.14726113 -0.07325491 -0.011747099 -0.30969724
0.075381815 -0.03512882 -0.057922795 -0.060417302 0.06265225 0.1163035 -0.016829513 0.21275152
0.05810843 0.080287464 0.16604443 -0.01096825 -0.05192261 -0.09338257 0.028190484 -0.17520423
-0.25623882 -0.20532846 -0.10221876 -0.058915384 -0.014165532 -0.06844822 0.16142121 -0.2970854
-0.062425308 0.08648426 -0.28562918 0.1946437 0.047196228 0.12601502 -0.24203432 -0.0815394
0.15529603 -0.032655947 0.08052074 0.19272742 0.09434824 0.1869216 -0.057102494 0.009790341
-0.098804064 0.02532311 -0.055831008 -0.06943181 0.040792786 -0.25423074 -0.031725507 -0.24292387
0.069082946 0.013535974 -0.042952117 0.009912811 -0.014560266 -0.073428646 -0.11193432 0.080539286
-0.102091976 -0.11429253 0.057835024 -0.18949786 0.017967941 0.104305334 -0.19067764 -0.051415544
-0.014746331 -0.089733526 -0.23857753 0.187281 -0.09289672 0.07682174 0.021064226 0.26283616
-0.14028625 0.07533116 -0.081725955 -0.18475278 0.1825185 0.069256395 0.037254244 -0.3483512
0.021476649 0.25150567 0.0134873865 0.19381817 0.16761854 0.0010450068 0.0630268 -0.3398369
0.1009397 0.17932488 -0.10416746 0.33543685 0.10417209 0.010819948 0.037954517 0.075824015
0.08155718 -0.01854687 0.02494002 -0.09826923 -0.04468346 -0.3131054 -0.12199612 -0.1035135
0.03910047 -0.10181078 -0.051797677 0.0936303 0.14108534 0.20145674 -0.13844173 0.5136022
0.029293124 0.19928426 -0.07840358 -0.080541536 -0.11323605 0.19596888 -0.003850711 0.0063982783
0.313557 -0.24906765 0.06512223 -0.01669566 -0.028754015 -0.1285015 0.27918825 -0.13944525
-0.03686845 0.00017040584 0.20234938 -0.08327277 -0.25990993 -0.054389287 0.078530826 -0.18583162
0.050055727 -0.2733611 -0.043973263 0.028122788 0.014086608 0.042096794 0.15087484 0.09733612
-0.055757884 0.23786895 -0.03550046 -0.01634053 0.16484642 -0.11376336 -0.08009913 0.09318984
-0.24320379 0.057180773 0.3346791 0.0062088985 0.04273359 0.1447771 0.19564943 0.023807764
00000000: 3d08 ce3d 37d4 eebd 6980 1e3e 96f4 243e
00000010: 445c a33c 28cf a9bd 3459 20be f472 20be
00000020: bd01 c03d 1a17 efbd f61f 1e3d 715c 20be
00000030: b86b 4fbe 64e8 b5bc 4b2a 8dbe f02c 2fbe
00000040: 206d 143d 82b0 733d 893f 9c3d c978 34bd
00000050: 2c88 5b3d fcdd 203e 84e1 d8bd 67bb 873d
00000060: 4dcf b33d 9549 363d 69c8 09be 179b a03d
00000070: 36e7 5f3e 7b61 f6bb 7a89 0fbd 163d 84bd
00000080: 3431 b53d e173 d9bb c076 eabd 52be 44be
00000090: dc89 823d 25b7 12be 2678 913d ee58 0f3e
000000a0: d724 7cbc 02b8 b2bd d6a5 283e 4bc9 003d
000000b0: 5eb1 d43d 36d8 2d3d 363b 253e 7317 c93c
000000c0: 5c26 f83d 8dd0 a8bb 2ab4 bfbc e2fc a93d
000000d0: 8463 41bc 0246 893c 448d 953c 9909 83bb
000000e0: 9ae4 23be 4af5 ed3b 7768 573c e206 3e3e
000000f0: 2634 babd 6e5f 49be 2e58 b5bd 5730 083e
00000100: bb56 4abd a967 803d 74a3 32be 3814 9e3a
00000110: 3eaa a73d 56ec 293e f064 1cbc e52d 583c
00000120: 86dc 3b3d 6bfd 853c f15c 0d3d e456 003e
00000130: 725f 20be 25b4 e5bd 8b38 343d c099 883d
00000140: aa19 ecbc ace2 a93d 0477 fd3c 0bdc 2bbd
00000150: 1e86 cebd a8d0 b8bd 1086 693b dfab 66bd
00000160: 0640 d93c a94c 803d 4450 fa3d bcae 6f3c
00000170: 9fcb 163e ac06 96bd e876 40bc a390 9ebe
00000180: c861 9a3d 3de3 0fbd 7440 6dbd 2278 77bd
00000190: d34f 803d 8830 ee3d 0cde 89bc 89db 593e
000001a0: 1b03 6e3d c16d a43d 8d07 2a3e 2db4 33bc
000001b0: cdac 54bd 5c3f bfbd bbef e63c bd68 33be
000001c0: bc31 83be a041 52be 1258 d1bd 4251 71bd
000001d0: 8c16 68bc 952e 8cbd 9a4b 253e 941b 98be
000001e0: aeb1 7fbd a91e b13d fd3d 92be ae50 473e
000001f0: d550 413d 150a 013e d8d7 77be 21fe a6bd
00000200: ec05 1f3e 3ec2 05bd 0fe8 a43d 565a 453e
00000210: a639 c13d 6068 3f3e 4ee4 69bd ab67 203c
00000220: c959 cabd 6972 cf3c 0eaf 64bd 4432 8ebd
00000230: 5616 273d 882a 82be 9bf2 01bd 09c1 78be
00000240: 5c7b 8d3d fdc5 5d3c 8fee 2fbd 5869 223c
00000250: 2f8e 6ebc c261 96bd d23d e5bd c8f1 a43d
00000260: 9915 d1bd 3412 eabd 6be4 6c3d ba0b 42be
00000270: 8131 933c 099e d53d 0041 43be 1b99 52bd
00000280: 989a 71bc 36c6 b7bd ab4d 74be 97c6 3f3e
00000290: a340 bebd b754 9d3d e28e ac3c 7692 863e
000002a0: 33a7 0fbe 3947 9a3d f05f a7bd d52f 3dbe
000002b0: 21e6 3a3e 4cd6 8d3d e897 183d 175b b2be
000002c0: ccef af3c 5ac5 803e 33fa 5c3c 4578 463e
000002d0: 32a4 2b3e 9cf8 883a 3214 813d 1aff adbe
000002e0: 79b9 ce3d f1a0 373e c055 d5bd 61be ab3e
000002f0: 2d58 d53d 2746 313c 3276 1b3d 9f49 9b3d
00000300: 7307 a73d 9bef 97bc 034f cc3c 6141 c9bd
00000310: 0106 37bd 5a4f a0be 1ad9 f9bd e3fe d3bd
00000320: d027 203d 2c82 d0bd cd29 54bd 3ec1 bf3d
00000330: ad78 103e ad4a 4e3e abc3 0dbe 6f7b 033f
00000340: 22f8 ef3c 2c11 4c3e 0e92 a0bd f6f2 a4bd
00000350: 4de8 e7bd 11ac 483e 365c 7cbb a6a8 d13b
00000360: 8b8a a03e 970b 7fbe ce5e 853d 56c5 88bc
00000370: 8a8d ebbc e695 03be c3f1 8e3e bcca 0ebe
00000380: 5f03 17bd f8ae 3239 ad34 4f3e ea8a aabd
00000390: ea12 85be 4dc7 5ebd c5d4 a03d a54a 3ebe
000003a0: 3c07 4d3d fcf5 8bbe 4f1d 34bd c361 e63c
000003b0: 84cb 663c b06d 2c3d ef7e 1a3e 2958 c73d
000003c0: 6162 64bd eb93 733e ee68 11bd 93dc 85bc
000003d0: 80cd 283e c4fc e8bd 030b a4bd 51da be3d
000003e0: 6a0a 79be 6336 6a3d 0f5b ab3e 0474 cb3b
000003f0: 6b09 2f3d 7340 143e 5358 483e 8008 c33c

weight_hh_l1 f4 [192, 64]
0.0040616565 -0.14452305 0.13529715 -0.04355583 -0.28581968 -0.1068823 -0.007574682 0.001894037
-0.2079269 0.005910135 0.15744258 -0.106028646 0.14775921 -0.054024637 0.13494077 -0.063136294
-0.057052743 -0.06789927 -0.19284584 -0.16450557 0.15781534 0.057459064 0.17478983 -0.031562004
-0.0967712 0.21182609 -0.050898653 -0.06090159 0.3118776 -0.005592521 0.0929196 -0.17008573
-0.18348056 -0.072021514 -0.14488822 -0.15922023 -0.08860341 0.18530828 -0.07893461 0.18411095
0.054304577 -0.035121195 -0.05944942 -7.7410325e-05 0.07289189 0.1016505 -0.03894979 -0.0044008335
-0.124997385 0.09326195 0.007403089 -0.0017418097 0.07807818 0.15421157 0.101455286 0.16935489
-0.12134238 0.1353373 -0.16163944 0.02952182 0.11329781 -0.1939115 -0.034943312 -0.056716375
-0.047067102 -0.06992484 0.18557486 -0.13059299 0.095572785 0.08276362 0.1609313 -0.1025538
0.03540418 -0.008584159 0.04204027 0.040970333 0.075554945 0.0009648081 0.108672775 0.035976607
0.09590348 -0.21355358 -0.12952061 -0.054249294 -0.07892905 -0.12960209 -0.02596268 -0.05776066
0.00972529 0.0810402 -0.03268889 -0.025326593 -0.072767116 -0.11627597 0.09829437 -0.15967727
0.01105317 -0.023747474 0.048476446 0.109634966 -0.05157438 0.12762478 0.068906195 0.02459304
0.039417848 0.016796306 0.054096263 -0.007447398 0.054500315 -0.015103372 -0.0070156367 -0.15904967
-0.009379907 0.35524288 0.030601684 0.084555954 0.07627689 0.17382981 -0.04517567 0.007096263
0.01750673 0.027431004 -0.24202159 -0.15072143 -0.08702445 0.025909841 0.024453772 0.022302607
-0.075269945 0.06665388 0.0032413844 0.31000423 0.0728523 0.077331856 0.012645036 0.06574123
0.07675483 0.102889195 0.040647205 0.030412326 -0.0536109 0.038117778 0.15089528 -0.009382334
0.056607403 -0.110402 0.056086738 -0.027067082 0.03416816 0.057575107 0.05211051 0.009479978
-0.073785745 -0.10666245 0.03256154 0.017303672 -0.043795235 0.059953827 -0.20384423 0.05897673
-0.048299193 0.08111758 -0.023735443 0.054703988 -0.025513135 0.08018029 -0.028311113 0.14243267
0.07092115 -0.098332785 -0.0066774655 -0.05021879 0.114246085 0.005754107 0.07167187 -0.0633501
0.08062362 0.21863031 -0.05633111 -0.01171736 0.0732283 -0.14387926 -0.0021116193 0.010422078
-0.088148154 0.043266404 -0.021183867 0.1462073 0.100693375 0.0016011604 0.034969915 0.065632746
-0.023638764 0.18525483 -0.084637456 0.16467452 0.12936088 0.22829047 -0.06102727 -0.107976876
0.15375626 0.08056599 0.16207086 0.06679558 -0.07990564 0.15084134 0.079253696 0.13706969
-0.10018485 -0.1532041 0.01037314 0.08136354 -0.23539086 0.1354412 0.031482413 -0.021495907
0.013286756 -0.116806634 0.1321213 0.11697235 -0.023984445 0.011967176 -0.062496696 0.18072015
0.011510882 -0.03740947 -0.030017622 -0.1192584 -0.12223079 0.14416127 0.016562043 -0.09504867
0.16140136 -0.22259001 -0.070900045 -0.03184234 -0.1714413 -0.11968214 0.06342801 -0.19225436
0.09826764 0.13445377 0.073287524 0.07309642 0.15030183 -0.0024907102 -0.1147184 -0.07408336
-0.18690506 -0.044202566 0.12382003 -0.015082164 0.028377132 -0.02382002 -0.12678823 0.10250078
00000000: a517 853b dafd 13be 568b 0a3e 9967 32bd
00000010: f556 92be 1be5 dabd 0a35 f8bb 5641 f83a
00000020: caea 54be cea9 c13b a138 213e 8c25 d9bd
00000030: 314e 173e f048 5dbd ea2d 0a3e 9a4d 81bd
00000040: 23b0 69bd c60e 8bbd 6179 45be 2674 28be
00000050: 589a 213e 325a 6b3d 1bfc 323e 2947 01bd
00000060: fb2f c6bd f0e8 583e 1b7b 50bd f273 79bd
00000070: 6cae 9f3e 7741 b7bb a24c be3d f42a 2ebe
00000080: 54e2 3bbe 0480 93bd 945d 14be a10a 23be
00000090: b475 b5bd 74c1 3d3e 78a8 a1bd 9587 3c3e
000000a0: 7a6e 5e3d 3edb 0fbd 3c81 73bd 5a57 a2b8
000000b0: 5848 953d 232e d03d d189 1fbd de34 90bb
000000c0: a1fe ffbd 1f00 bf3d 9d95 f23b 6f4d e4ba
000000d0: 74e7 9f3d a3e9 1d3e cac7 cf3d 5e6b 2d3e
000000e0: 5b82 f8bd dc95 0a3e cf84 25be bed7 f13c
000000f0: af08 e83d bc90 46be b820 0fbd 6e4f 68bd
00000100: 6fc9 40bd c134 8fbd 5607 3e3e 2bba 05be
00000110: aabb c33d f97f a93d 2dcb 243e ba07 d2bd
00000120: f903 113d 93a4 0cbc 6b32 2c3d 82d0 273d
00000130: 8dbc 9a3d 2deb 7c3a d58f de3d 355c 133d
00000140: 0b69 c43d caad 5abe 0da1 04be 8234 5ebd
00000150: 8ea5 a1bd 69b6 04be b0af d4bc 7196 6cbd
00000160: d356 1f3c 68f8 a53d c9e4 05bd b779 cfbc
00000170: ed06 95bd 1922 eebd 8f4e c93d 7082 23be
00000180: 5b18 353c 108a c2bc 3d8f 463d 4c88 e03d
00000190: a83f 53bd 12b0 023e b11e 8d3d 5877 c93c
000001a0: 9c74 213d 6898 893c 0b94 5d3d 4d09 f4bb
000001b0: b93b 5f3d 2274 77bc 6de3 e5bb ebdd 22be
000001c0: 2eae 19bc 65e2 b53e 62b0 fa3c ac2b ad3d
000001d0: 0f37 9c3d 7100 323e 200a 39bd c587 e83b
000001e0: 466a 8f3c fcb6 e03c 82d4 77be b856 1abe
000001f0: e039 b2bd e040 d43c 4753 c83c f5b3 b63c
00000200: 2127 9abd d481 883d 686d 543b e0b8 9e3e
00000210: 9633 953d 2a60 9e3d 202d 4f3c 57a3 863d
00000220: a331 9d3d 92b7 d23d af7d 263d 4523 f93c
00000230: 1a97 5bbd 6321 1c3d 4b84 1a3e 5cb8 19bc
00000240: 2add 673d 721a e2bd 35bb 653d c9bb ddbc
00000250: eaf3 0b3d e0d3 6b3d d571 553d e951 1b3c
00000260: fb1c 97bd d871 dabd 405f 053d 6ec0 8d3c
00000270: a262 33bd 2592 753d 8bbc 50be 9591 713d
00000280: 60d5 45bd f920 a63d d570 c2bc 4a11 603d
00000290: ec00 d1bc 9035 a43d b5ec e7bc dfd9 113e
000002a0: 1c3f 913d b362 c9bd a4ce dabb 38b2 4dbd
000002b0: daf9 e93d f38c bc3b b4c8 923d b2bd 81bd
000002c0: ff1d a53d a0e0 5f3e 73bb 66bd 2bfa 3fbc
000002d0: b8f8 953d 1655 13be 1863 0abb 5dc1 2a3c
000002e0: 0587 b4bd 1d38 313d ca89 adbc 5eb7 153e
000002f0: 5438 ce3d 07de d13a 9d3c 0f3d 766a 863d
00000300: 15a6 c1bc 71b3 3d3e 6756 adbd 70a0 283e
00000310: 2e77 043e fac4 693e bbf7 79bd fb22 ddbd
00000320: 4872 1d3e c8ff a43d e7f5 253e 1fcc 883d
00000330: 91a5 a3bd 2776 1a3e c34f a23d ff5b 0c3e
00000340: b72d cdbd 89e1 1cbe 1af4 293c eda1 a63d
00000350: 4d0a 71be 19b1 0a3e b4f3 003d 2f18 b0bc
00000360: b2b0 593c 5138 efbd ce4a 073e 338f ef3d
00000370: 077b c4bc f911 443c 89fc 7fbd b40e 393e
00000380: 2398 3c3c ac3a 19bd 84e7 f5bc bf3d f4bd
00000390: 2354 fabd 039f 133e 1fad 873c e1a8 c2bd
000003a0: 6646 253e a3ee 63be 0b34 91bd 1d6d 02bd
000003b0: 4f8e 2fbe e91b f5bd 8be6 813d 54de 44be
000003c0: 8b40 c93d 40ae 093e c517 963d 93b3 953d
000003d0: b9e8 193e 2f3b 23bb 7bf1 eabd 04b9 97bd
000003e0: 0a64 3fbe c00d 35bd 5b95 fd3d 2e1b 77bc
000003f0: 2977 e83c 3422 c3bc c6d4 01be eeeb d13d

bias_ih_l1 f4 [192]
0.0359462 -0.076375335 -0.100307815 0.067530826 0.13300812 -0.090806894 -0.09548786 0.09152227
0.14575878 0.11694496 0.15737066 0.047930434 -0.10895775 0.11743667 -0.036176153 -0.009597226
-0.0066785333 -0.07172594 0.10816654 0.10862444 0.107019246 -0.060050122 0.08971206 -0.05492847
-0.03998897 -0.011401239 0.06666353 -0.033530354 0.030560743 0.0421906 -0.054542143 -0.017741239
0.01652761 0.035879303 -0.11152532 -0.09657802 0.07192301 0.032537144 0.122083545 0.046521317
0.052289214 0.08742827 0.09981565 -0.06514204 0.048692346 0.10522766 -0.14454566 -0.013205557
-0.01912471 0.04081441 -0.046911724 -0.052779 -0.040822204 0.11910145 -0.108511105 -0.03822234
-0.121146455 0.05453388 -0.04940067 -0.07437066 -0.092065394 0.03420384 -0.10639734 0.069556884
-0.4207077 -0.42284742 -0.43640223 -0.1879867 -0.22739252 -0.23163857 -0.24333493 -0.16431417
-0.2259844 -0.3200966 -0.21641727 -0.085596114 -0.27440825 -0.09717186 -0.28058866 -0.11492286
-0.3710265 -0.40483308 -0.22437605 -0.10644965 -0.26418892 -0.25893965 -0.44994152 -0.18925841
-0.21556897 -0.34548518 -0.19465716 -0.0639353 -0.033580877 -0.16838832 -0.19723657 -0.16684298
-0.25699544 -0.37101766 -0.60543656 -0.19286202 -0.38425854 -0.3453801 -0.11990396 -0.23349117
-0.4176844 -0.1274893 -0.4015023 -0.053705107 -0.2729542 -0.33831218 -0.2317321 -0.19471157
-0.2644745 -0.10120233 -0.3689115 -0.44973174 -0.051004995 -0.26089075 -0.3216724 -0.43424684
-0.58260375 -0.19890694 -0.0351922 -0.30548844 -0.49616948 -0.11125922 -0.14289713 -0.32158047
-0.1452029 0.13312332 0.11927845 -0.053374875 0.09360141 0.124540426 0.05023048 -0.12250743
-0.03277236 0.07232593 0.06638788 0.04045819 0.1271098 0.1112332 0.0152478665 -0.080436684
0.07970327 0.09291082 -0.11959183 -0.10514555 -0.18243927 0.12702908 0.14295906 0.03139288
0.035140008 0.13018334 -0.19022098 -0.061551947 0.021754375 0.041757762 0.14303792 -0.059515595
0.0009831995 -0.060866848 0.12735257 0.07803195 -0.04430277 -0.030663794 0.088417806 -0.04853474
0.018304909 0.014576661 0.0411584 -0.069535635 0.059466526 -0.10350239 0.09968947 -0.0072429203
0.044520643 0.0028496291 0.13937762 0.02045762 0.02641222 0.037262727 0.028570982 -0.0128148515
0.019355046 0.015070808 -0.057598174 -0.021840755 0.04398969 -0.043575175 0.008327894 0.19168232
00000000: 533c 133d ac6a 9cbd 2f6e cdbd 9a4d 8a3d
00000010: 4833 083e f7f8 b9bd 248f c3bd 0770 bb3d
00000020: ca41 153e d780 ef3d c625 213e b452 443d
00000030: 3e25 dfbd a382 f03d 722d 14bd af3d 1dbc
00000040: 99d7 dabb 0de5 92bd 6b86 dd3d 7e76 de3d
00000050: e82c db3d 1ef7 75bd f5ba b73d adfc 60bd
00000060: 79cb 23bd 43cc 3abc e486 883d 2057 09bd
00000070: 865a fa3c 0dd0 2c3d 9567 5fbd 1356 91bc
00000080: e964 873c 2df6 123d 6367 e4bd b2ca c5bd
00000090: 5f4c 933d ab45 053d f006 fa3d 238d 3e3d
000000a0: 372d 563d 980d b33d 266c cc3d 3169 85bd
000000b0: a071 473d 9981 d73d c703 14be 1f5c 58bc
000000c0: 6cab 9cbc 032d 273d 8226 40bd cb2e 58bd
000000d0: 2f35 27bd 76eb f33d 123b debd 078f 1cbd
000000e0: a21b f8bd eb5e 5f3d 5b58 4abd a54f 98bd
000000f0: c88c bcbd 5319 0c3d d9e6 d9bd d773 8e3d
00000100: 0067 d7be 757f d8be 1d70 dfbe 967f 40be
00000110: 96d9 68be a932 6dbe cb2c 79be f941 28be
00000120: 7468 67be b4e3 a3be 7d9c 5dbe 044d afbd
00000130: 3d7f 8cbe 0a02 c7bd 51a9 8fbe ad5c ebbd
00000140: 2ff7 bdbe 4846 cfbe d6c2 65be 4602 dabd
00000150: c543 87be bd93 84be bc5e e6be f5cc 41be
00000160: 1dbe 5cbe 6fe3 b0be 3554 47be 83f0 82bd
00000170: 1a8c 09bd fd6d 2cbe 62f8 49be e3d8 2abe
00000180: e894 83be 07f6 bdbe e4fd 1abf 9f7d 45be
00000190: 89bd c4be a9d5 b0be 3590 f5bd 4f18 6fbe
000001a0: bbda d5be 8e8c 02be b691 cdbe e3f9 5bbd
000001b0: a7c0 8bbe 4137 adbe 2e4b 6dbe 7862 47be
000001c0: 3469 87be 2b43 cfbd f8e1 bcbe 3d43 e6be
000001d0: 9dea 50bd 7993 85be 3fb2 a4be 9a55 debe
000001e0: 8525 15bf 43ae 4bbe b225 10bd fb68 9cbe
000001f0: ed09 febe e0db e3bd a053 12be 32a6 a4be
00000200: 12b0 14be 7b51 083e 4348 f43d 9d9f 5abd
00000210: 19b2 bf3d 0d0f ff3d 7abe 4d3d 2de5 fabd
00000220: 4f3c 06bd 9e1f 943d 5ef6 873d 7db7 253d
00000230: 1229 023e 3bce e33d 30d2 793c fdbb a4bd
00000240: 783b a33d 0748 be3d 90ec f4bd 8d56 d7bd
00000250: 5cd1 3abe e913 023e dc63 123e d295 003d
00000260: f8ee 0f3d c84e 053e 4ac9 42be e51d 7cbd
00000270: 3b36 b23c 300a 2b3d 8878 123e a0c6 73bd
00000280: b3de 803a 844f 79bd b668 023e 37cf 9f3d
00000290: d276 35bd a332 fbbc 6514 b53d 5dcc 46bd
000002a0: 2df4 953c f3d2 6e3c b695 283d b368 8ebd
000002b0: 2c93 733d 10f9 d3bd fe29 cc3d 0556 edbb
000002c0: 475b 363d d8c0 3a3b 02b9 0e3e bd96 a73c
000002d0: 715e d83c cda0 183d b10d ea3c 62f5 51bc
000002e0: 798e 9e3c 8deb 763c 10ec 6bbd 62eb b2bc
000002f0: 882e 343d e27b 32bd b871 083c 5f48 443e

bias_hh_l1 f4 [192]
-0.03657754 -0.08556587 -0.022706036 0.004530044 0.0041638543 -0.108797476 0.0701124 -0.0016658172
0.030528355 0.068952546 -0.04995739 -0.11716815 0.018941784 0.085149206 0.1007601 -0.0059013474
-0.011058487 -0.10154083 0.04564698 -0.07610673 0.092453316 -0.0053194812 0.0046663056 -0.045848303
0.07235283 0.036281317 -0.03027728 -0.11170618 -0.06584146 -0.1174119 0.09908386 -0.011936817
-0.0800655 0.017214697 0.069325894 0.11101708 0.017091898 -0.113674976 -0.1075445 -0.1191377
-0.009315588 0.05142445 0.045862667 0.049368735 -0.0360756 -0.046264287 0.030253986 0.08403425
-0.0021111644 -0.09052634 0.16313428 -0.081375115 -0.01890523 0.029221572 -0.10071238 0.1326563
-0.04085004 0.059265964 -0.015307446 0.064690836 -0.076384194 -0.029560927 0.037543338 -0.06333964
-0.42101762 -0.56185025 -0.4088942 -0.17861025 -0.20161298 -0.255399 -0.23172686 -0.26177496
-0.115036525 -0.29537973 -0.30175844 0.011475987 -0.3761304 -0.16642682 -0.1517805 -0.0900833
-0.24245465 -0.3883363 -0.25889573 -0.11780834 -0.04354721 -0.24707618 -0.37217245 -0.182448
-0.17572524 -0.37509403 -0.34082183 0.01839069 -0.20129532 -0.07011578 -0.33032477 -0.20467776
-0.31630483 -0.3485269 -0.56745374 -0.2710448 -0.4410067 -0.34393752 -0.051091194 -0.27728644
-0.4574668 -0.15736116 -0.18274821 -0.15768912 -0.3005233 -0.36360654 -0.29438666 -0.23337908
-0.15028977 -0.111590765 -0.42336792 -0.34232464 -0.027300691 -0.15212557 -0.3272758 -0.34088793
-0.5690337 -0.15557775 -0.030303856 -0.47860274 -0.54177296 -0.0029281727 -0.09978495 -0.20504704
0.004570392 0.15584064 0.22090805 0.09982807 0.19699313 -0.029357044 0.015671981 -0.027152449
-0.23113988 0.073910184 -0.19721897 0.03401327 -0.06258976 0.04265601 0.1191977 0.066782236
0.2200255 0.063007325 -0.014690632 -0.025320005 -0.1438298 -0.06439203 0.26689848 0.20990662
-0.11088305 0.027083086 -0.2466907 -0.037206113 -0.043461397 -0.1298043 0.050050817 0.05252613
-0.1007761 0.2781914 -0.00958516 -0.20281717 -0.07495424 0.09527775 -0.1561395 0.07874331
0.16138259 0.16782051 0.05993006 -0.13106786 0.19801089 -0.3030593 0.2665394 0.03071533
-0.09736528 -0.2128456 0.19795065 -0.05432327 -0.04883121 0.08341889 0.17180635 0.19785503
0.091128685 -0.12454359 0.2587293 -0.13831995 0.15637116 -0.1880513 -0.15069878 0.028543552
00000000: 55d2 15bd 293d afbd 0202 babc c370 943b
00000010: f170 883b 36d1 debd 1797 8f3d 8d57 daba
00000020: 9a16 fa3c fe36 8d3d 1fa0 4cbd dbf5 efbd
00000030: cd2b 9b3c b562 ae3d 505b ce3d 1760 c1bb
00000040: a82e 35bc a4f4 cfbd 54f8 3a3d d8dd 9bbd
00000050: 2a58 bd3d 0b4f aebb cfe7 983b 6ecb 3bbd
00000060: b82d 943d b89b 143d 0f08 f8bc 36c6 e4bd
00000070: e3d7 86bd a675 f0bd 7bec ca3d a492 43bc
00000080: 62f9 a3bd d605 8d3c bcfa 8d3d ec5c e33d
00000090: 4f04 8c3c 6dce e8bd 4a40 dcbd 77fe f3bd
000000a0: 68a0 18bc 72a2 523d 7eda 3b3d df36 4a3d
000000b0: 02c4 13bd 9f7f 3dbd 35d7 f73c 261a ac3d
000000c0: 765b 0abb e065 b9bd ac0c 273e ffa7 a6bd
000000d0: 24df 9abc 1462 ef3c 4b42 cebd 0ed7 073e
000000e0: 5f52 27bd dec0 723d 15cc 7abc a17c 843d
000000f0: 516f 9cbd c229 f2bc 0bc7 193d 37b8 81bd
00000100: 9f8f d7be 6bd5 0fbf 955a d1be 9be5 36be
00000110: a273 4ebe a8c3 82be ce49 6dbe 5e07 86be
00000120: 4598 ebbd 033c 97be 1580 9abe c705 3c3c
00000130: 2a94 c0be cb6b 2abe 596c 1bbe 987d b8bd
00000140: 0846 78be 04d4 c6be fb8d 84be 8045 f1bd
00000150: 8f5e 32bd 8a01 7dbe 638d bebe a6d3 3abe
00000160: 51f1 33be 530c c0be 3380 aebe 13a8 963c
00000170: 5c20 4ebe dd98 8fbd 5420 a9be 0c97 51be
00000180: b5f2 a1be 1e72 b2be a644 11bf 62c6 8abe
00000190: a1cb e1be 9418 b0be 0045 51bd 7df8 8dbe
000001a0: 1739 eabe 4923 21be 5922 3bbe 4279 21be
000001b0: 31de 99be a32a babe d9b9 96be edfa 6ebe
000001c0: 90e5 19be b389 e4bd aec3 d8be 2d45 afbe
000001d0: b3a5 dfbc cec6 1bbe b290 a7be dd88 aebe
000001e0: 31ac 11bf c64f 1fbe cb3f f8bc 6b0b f5be
000001f0: a2b1 0abf 96e6 3fbb 0d5c ccbd daf7 51be
00000200: 3ac3 953b b094 1f3e b835 623e a972 cc3d
00000210: 91b8 493e 2f7e f0bc 8762 803c d06e debc
00000220: efaf 6cbe 395e 973d c5f3 49be 8051 0b3d
00000230: 0f2f 80bd 11b8 2e3d ec1d f43d 20c5 883d
00000240: 5d4e 613e fc09 813d fab0 70bc e66b cfbc
00000250: 1e48 13be f8df 83bd eba6 883e c3f1 563e
00000260: a716 e3bd 59dd dd3c 7d9c 7cbe 7065 18bd
00000270: 9404 32bd 6beb 04be 1602 4d3d a425 573d
00000280: b363 cebd 1a6f 8e3e 130b 1dbc 4eaf 4fbe
00000290: 9c81 99bd fb20 c33d 08e3 1fbe 2c44 a13d
000002a0: 7a41 253e 24d9 2b3e 3979 753d a736 06be
000002b0: 5ec3 4a3e 972a 9bbe da77 883e b79e fb3c
000002c0: 7367 c7bd 32f4 59be 93b3 4a3e 1482 5ebd
000002d0: 3c03 48bd 86d7 aa3d 01ee 2f3e 829a 4a3e
000002e0: ada1 ba3d b610 ffbd 2b78 843e bfa3 0dbe
000002f0: c31f 203e 8590 40be c850 1abe 2bd4 e93c
