action_LossPrune/model2_ticket.pth (torch, 209742 bytes, 12 tensors)

weight f4 [125, 16]
-0.4956358 0.91753876 -0.2549689 -0.5294968 -0.7021208 0.56303567 -1.9439391 1.365767
-2.2265759 -0.025035061 -2.1883278 0.41336688 0.3009195 -0.08074515 1.4215564 -0.58386314
0.5099118 -0.815589 -0.9802033 0.36191252 0.32708958 0.5666411 -1.3078996 0.4500723
-0.32170334 -1.6164025 0.8291162 1.68619 1.0114511 1.5332716 -0.48261744 0.3436052
-1.9163309 0.019560052 -1.4725816 1.6652347 -1.2601565 1.5465883 2.4216714 1.0435596
0.585261 1.1118883 1.3094512 -0.7356725 0.6465087 -0.91904867 0.9628564 -0.037694916
1.2666569 0.27910942 1.0393852 -0.2624971 -0.6450937 -0.93613815 -1.4438295 0.79755706
0.51949054 0.08926277 1.6178025 -2.4404159 0.1379391 0.6902983 1.5343143 0.3502373
1.3167953 1.6273309 -0.28024265 -0.7750632 -0.26406664 0.026766587 -0.8655949 -1.6335583
0.60525423 1.4414834 -0.76612705 1.1936774 0.25313342 -1.4546393 0.12784065 0.37527433
2.0606935 0.8958496 -0.90474963 -0.34261197 -0.6085285 -0.26529852 -1.9687221 -0.5358978
0.49097273 -1.8041433 -1.0202147 -1.0283725 -0.8641443 -1.3926914 -0.29867294 0.21329775
1.2553316 0.3774743 -2.9973836 0.18630153 0.06591507 1.3286605 0.7546688 -0.26843515
-2.9329016 -0.24733874 1.5565722 -0.95938706 0.02415394 -0.27864727 -0.359203 -0.47441432
-0.33859202 -0.9160746 0.60879654 -0.60664064 1.0451206 0.73145187 2.183885 0.3302557
1.2656635 0.50435024 -1.0321596 -1.2725012 0.9410302 0.0074878824 1.1789099 0.43590128
1.0125705 0.26552135 -1.1572701 -0.9958087 -1.7324442 1.4847606 0.9862478 -0.3671124
0.17654176 -2.2661645 0.433637 -0.45787957 1.0377002 -0.013880086 0.08524868 0.6094291
0.30758741 1.4151634 1.636591 0.5591968 1.3926917 -0.96059656 1.040422 1.9875785
0.2611057 0.08544591 0.31019458 -0.7354616 1.759767 1.0652676 1.7391165 -0.4195127
0.6172409 -0.043742433 -1.3579857 0.5896575 -0.995005 0.2766264 -1.0011319 -0.05458178
1.2679486 -0.14353392 0.84989834 0.74954975 0.9912692 0.022821339 -0.91120374 0.41273394
1.2887526 1.787152 -0.43365178 -2.055185 -1.6192958 -0.17552167 1.5973438 0.7768308
1.5933434 -0.0018834762 0.6627745 -0.26100618 0.68984836 0.09645966 2.3355691 -1.0893111
1.864683 -0.64647025 0.9994559 1.5800192 -1.0757335 -0.8679637 -0.108139195 1.3378285
-0.31360596 -0.11340709 -1.0838602 -0.41381234 1.5494975 -1.0771071 0.5728132 1.0131944
1.2895051 2.3741214 -1.6170055 -0.5981259 -0.09323779 0.1187117 0.61036146 -0.40864974
0.8693833 1.5535712 0.34279284 1.4933796 0.6119526 -0.00039979 0.17695671 0.8822917
-0.49379185 -0.92574745 -0.13649236 0.057208993 0.7984783 -0.009724633 0.8236 -0.002916607
0.8068121 0.80608934 -0.03489983 -2.2354906 1.2437317 -1.0043051 0.27046552 -0.13462807
-1.4979441 0.32306063 -0.013005472 0.5105717 0.9129062 0.6893786 -1.6203167 0.43454129
0.2846915 1.1352521 0.96334237 -1.2293842 -0.08910705 -0.067481086 -0.50014275 -0.21259215
00000000: fac3 fdbe d2e3 6a3f 498b 82be 1a8d 07bf
00000010: 30be 33bf 1b23 103f ffd2 f8bf 74d1 ae3f
00000020: 3880 0ec0 5416 cdbc 900d 0cc0 d3a4 d33e
00000030: 1f12 9a3e b75d a5bd 8ff5 b53f 0e78 15bf
00000040: 9489 023f 71ca 50bf 9aee 7abf 994c b93e
00000050: 4978 a73e 640f 113f 4169 a7bf e06f e63e
00000060: 4db6 a4be 47e6 cebf f640 543f 13d5 d73f
00000070: 3b77 813f 3e42 c43f a219 f7be 05ed af3e
00000080: 554a f5bf 673c a03c 8e7d bcbf 6926 d53f
00000090: cf4c a1bf 9bf6 c53f aafc 1a40 5c93 853f
000000a0: aad3 153f 5b52 8e3f 199c a73f 0855 3cbf
000000b0: 9881 253f c646 6bbf c27d 763f fc65 1abd
000000c0: d021 a23f 6ee7 8e3e 930a 853f 0566 86be
000000d0: dc24 25bf c0a6 6fbf 68cf b8bf b32c 4c3f
000000e0: 55fd 043f 66cf b63d 2714 cf3f c62f 1cc0
000000f0: e83f 0d3e 64b7 303f 6964 c43f 4e52 b33e
00000100: c08c a83f 614c d03f f77b 8fbe 8b6a 46bf
00000110: be33 87be 9a45 db3c a197 5dbf 7018 d1bf
00000120: f1f1 1a3f 8782 b83f e720 44bf 6cca 983f
00000130: b49a 813e 9f31 babf a9e8 023e f523 c03e
00000140: 67e2 0340 6656 653f ac9d 67bf d66a afbe
00000150: 86c8 1bbf 35d5 87be 16ff fbbf 9930 09bf
00000160: c760 fb3e 2bee e6bf 6596 82bf b6a1 83bf
00000170: 9038 5dbf b643 b2bf a9eb 98be ba6a 5a3e
00000180: b5ae a03f 5044 c13e 22d5 3fc0 d4c5 3e3e
00000190: 7bfe 863d 8c11 aa3f f931 413f 5570 89be
000001a0: a9b4 3bc0 5e46 7dbe c23d c73f 649a 75bf
000001b0: 7cde c53c dbaa 8ebe 75e9 b7be 6fe6 f2be
000001c0: ef5b adbe dd83 6abf 17da 1b3f cd4c 1bbf
000001d0: 83c6 853f 6e40 3b3f c6c4 0b40 4617 a93e
000001e0: 4301 a23f 191d 013f ce1d 84bf 52e1 a2bf
000001f0: 5be7 703f e95c f53b 85e6 963f 742e df3e
00000200: e99b 813f 6af2 873e 6d21 94bf 52ed 7ebf
00000210: bbc0 ddbf a30c be3f bc7a 7c3f 28f6 bbbe
00000220: 5dc7 343e d708 11c0 ab05 de3e 316f eabe
00000230: 5cd3 843f 4d69 63bc dc96 ae3d 8c03 1c3f
00000240: 197c 9d3e 1324 b53f d07b d13f 8627 0f3f
00000250: b943 b23f a8e9 75bf 8c2c 853f f968 fe3f
00000260: a5af 853e 44fe ae3d d3d1 9e3e 3647 3cbf
00000270: 0c40 e13f b05a 883f 5f9b de3f 5eca d6be
00000280: 8003 1e3f 442b 33bd 7ad2 adbf cbf3 163f
00000290: a6b8 7ebf faa1 8d3e 1725 80bf 2591 5fbd
000002a0: 244c a23f 8efa 12be f092 593f 7ee2 3f3f
000002b0: d1c3 7d3f d1f3 ba3c a644 69bf dd51 d33e
000002c0: d8f5 a43f 66c1 e43f 9b07 debe 2788 03c0
000002d0: 1645 cfbf f4bb 33be c375 cc3f 62de 463f
000002e0: adf2 cb3f f9de f6ba 97ab 293f 9aa2 85be
000002f0: e799 303f a48c c53d f779 1540 8c6e 8bbf
00000300: efad ee3f 137f 25bf 58dc 7f3f 123e ca3f
00000310: a3b1 89bf de32 5ebf 1578 ddbd f73d ab3f
00000320: f690 a0be fa41 e8bd eebb 8abf 36df d3be
00000330: ef55 c63f a5de 89bf e3a3 123f 5bb0 813f
00000340: 810e a53f 9bf1 1740 09fa cebf c71e 19bf
00000350: 74f3 bebd 1f1f f33d a640 1c3f 8a3a d1be
00000360: e78f 5e3f 6cdb c63f 8b82 af3e 1027 bf3f
00000370: eda8 1c3f e89a d1b9 2434 353e dedd 613f
00000380: 49d2 fcbe c9fd 6cbf a7c4 0bbe fa53 6a3d
00000390: 1369 4c3f 1154 1fbc 73d7 523f 8c24 3fbb
000003a0: 3d8b 4e3f df5b 4e3f 20f3 0ebd 4712 0fc0
000003b0: 9a32 9f3f 128d 80bf 757a 8a3e f1db 09be
000003c0: a2bc bfbf 3468 a53e e714 55bc d4b4 023f
000003d0: 39b4 693f 1e7b 303f 8a66 cfbf 327c de3e
000003e0: 16c3 913e f14f 913f 9b9d 763f 765c 9dbf
000003f0: c27d b6bd 8633 8abd 5b09 00bf c2b1 59be

weight_ih_l0 f4 [192, 17]
-0.0037530863 0.12396877 0.2062499 -0.06922896 0.09833233 -0.21234244 -0.059684172 -0.042466424
-0.024702894 -0.04763565 -0.09929938 -0.017539691 0.16707008 0.14727162 -0.11194338 -0.014781259
-0.035356045 -0.1691202 -0.14997824 -0.3753248 0.10095166 0.22759183 0.17621438 0.25880024
0.24713881 0.19915049 0.012219557 0.1409122 0.15898304 0.120989494 0.100172445 0.22230192
-0.21763767 0.29718298 0.04135506 0.050404716 -0.28780064 0.06634458 0.047230747 0.06477725
0.14790827 0.07064566 0.23533611 -0.0154777365 0.0073985658 0.24883866 -0.18499234 0.04159158
0.24140121 0.08269269 0.11522535 0.07599702 -0.060020834 0.18780991 0.13375226 0.09199442
-0.05598361 -0.026669301 0.1460375 0.058156 0.027463537 0.18918514 0.11572961 -0.12719904
-0.19697927 -0.17860259 0.10417197 -0.00675483 -0.18931498 0.091813624 0.20940503 0.10907978
0.09635772 -0.053643137 0.062945485 -0.19227913 0.09031899 0.0957178 -0.017323341 -0.10287759
-0.053313777 0.0756558 -0.07581954 -0.094510704 -0.07137417 0.14864093 0.03581346 0.18313158
-0.09394883 0.10450258 -0.18230073 -0.08459178 -0.1719069 -0.118798874 0.002654507 -0.11005494
0.08889679 0.067683816 -0.121995494 -0.00445758 -0.08228792 -0.004307196 0.01543484 -0.34458917
-0.09266165 0.019687673 0.24310808 -0.03199909 0.32159913 0.28849378 0.0049450253 0.054880384
0.091598235 -0.0197133 0.16311425 0.04567655 0.09946808 -0.12132784 0.25052628 0.095686026
-0.08015723 -0.14048934 0.15193258 0.19555469 0.31119776 -0.10925525 -0.15874444 0.21953672
-0.07291817 0.089073606 0.20063695 0.09427616 0.010487882 0.19709733 0.061898302 0.04434671
-0.033546958 -0.09977243 0.061371166 -0.14698601 0.21709268 -0.26385847 0.17284966 -0.24247083
-0.014077953 -0.1718798 -0.11133767 0.23093414 -0.055594634 0.01960763 0.1377019 -0.12553965
0.022293823 0.21568 0.08931274 0.08601405 0.107571736 -0.074553005 0.082163006 -0.15099911
-0.07845604 -0.007785256 -0.038001195 -0.031015227 -0.17084807 0.22547767 0.060776394 0.12802096
-0.085178666 -0.13546306 -0.058559876 0.114961356 0.08564855 -0.014822687 0.12377661 0.000521429
0.11419015 0.05032802 -0.036472972 -0.026272837 -0.039595947 -0.09803463 0.04045248 0.12758286
0.028080495 -0.0110969115 -0.06329498 -0.13962671 0.05472428 0.14413084 0.013859491 0.1055307
-0.16697012 0.09021719 0.12864673 0.009058239 0.24860154 -0.0015136183 -0.050742634 -0.14401256
0.12529117 -0.24703515 -0.04775333 0.015837539 -0.28676578 0.1335019 0.21605046 0.1013778
-0.08566217 0.058034033 -0.17261066 0.022331662 0.05050627 0.0052292803 -0.020357005 0.08821524
-0.18709582 -0.051492896 0.036853008 -0.0251698 -0.1791466 0.09263652 0.07247105 0.045689356
-0.105770946 0.022646477 -0.018237038 0.053037163 -0.16369133 -0.039372835 0.016244171 -0.11292999
-0.01841539 0.102827765 0.16777687 -0.09326348 -0.005056689 0.06786195 -0.19593722 0.08289287
-0.17450301 -0.009819451 -0.052768253 0.121964276 -0.033659395 0.08641244 -0.05462659 -0.050982364
-0.010249777 -0.05712464 -0.15856513 0.050646164 0.17896737 0.016838487 0.23191163 0.06780529
00000000: 57f6 75bb 57e3 fd3d 2c33 533e eac7 8dbd
00000010: 7662 c93d 4c70 59be 6477 74bd 46f1 2dbd
00000020: b95d cabc 991d 43bd 795d cbbd 66af 8fbc
00000030: 6b14 2b3e 5fce 163e 9242 e5bd 182d 72bc
00000040: 80d1 10bd d92d 2dbe e593 19be 922a c0be
00000050: bebf ce3d d50d 693e 8b71 343e 7781 843e
00000060: f511 7d3e 1bee 4b3e 8934 483c 4a4b 103e
00000070: 73cc 223e 57c9 f73d 3627 cd3d 1da3 633e
00000080: 69dc 5ebe 5e28 983e ec63 293d 2d75 4e3d
00000090: 9b5a 93be abdf 873d 0775 413d efa9 843d
000000a0: 4475 173e acae 903d f3fb 703e 5596 7dbc
000000b0: ab6f f23b 90cf 7e3e a26e 3dbe ef5b 2a3d
000000c0: e131 773e c95a a93d 45fb eb3d 53a4 9b3d
000000d0: 68d8 75bd 3e51 403e 5af6 083e 9267 bc3d
000000e0: 124f 65bd 9479 dabc db8a 153e fc34 6e3d
000000f0: 36fb e03c c0b9 413e a503 ed3d 7740 02be
00000100: efb4 49be 99e3 36be 1d58 d53d 9f57 ddbb
00000110: c9db 41be c808 bc3d 466e 563e 3865 df3d
00000120: 3257 c53d e8b8 5bbd 90e9 803d d2e4 44be
00000130: 2af9 b83d b207 c43d aee9 8dbc 7cb1 d2bd
00000140: 8c5f 5abd 6ef1 9a3d 4647 9bbd d48e c1bd
00000150: 9f2c 92bd 5435 183e 22b1 123d d886 3b3e
00000160: 3f68 c0bd 7305 d63d 0bad 3abe 753e adbd
00000170: 5d08 30be d34c f3bd 3df7 2d3b 7c64 e1bd
00000180: 850f b63d d09d 8a3d c6d8 f9bd e410 92bb
00000190: 9286 a8bd 6123 8dbb 69e2 7c3c fe6d b0be
000001a0: 64c5 bdbd 0b48 a13c 53f1 783e 7a11 03bd
000001b0: a4a8 a43e 75b5 933e e109 a23b 41ca 603d
000001c0: db97 bb3d c97d a1bc 6c07 273e 5617 3b3d
000001d0: ecb5 cb3d bb7a f8bd fb44 803e 09f7 c33d
000001e0: 7929 a4bd 70dc 0fbe 3794 1b3e 7d3f 483e
000001f0: 5055 9f3e 37c1 dfbd e78d 22be 3cce 603e
00000200: 1f56 95bd 396c b63d c673 4d3e dc13 c13d
00000210: 5ed5 2b3c e2d3 493e 1389 7d3d e5a4 353d
00000220: 8968 09bd 7d55 ccbd 5560 7b3d 8083 16be
00000230: 8b4d 5e3e 7518 87be 80ff 303e 464a 78be
00000240: 37a7 66bc 4201 30be 0105 e4bd 007a 6c3e
00000250: 33b7 63bd 2ea0 a03c ba01 0d3e 778d 00be
00000260: 89a1 b63c 38db 5c3e 99e9 b63d 2228 b03d
00000270: 924e dc3d 3faf 98bd 1445 a83d 839f 1abe
00000280: 8fad a0bd 761b ffbb 24a7 1bbd a513 febc
00000290: ccf2 2ebe 9ee3 663e abf0 783d ed17 033e
000002a0: 2772 aebd d4b6 0abe 7bdc 6fbd dc70 eb3d
000002b0: 8268 af3d dbda 72bc 977e fd3d 82b0 083a
000002c0: 86dc e93d c124 4e3d af64 15bd 223a d7bc
000002d0: 5c2f 22bd 61c6 c8bd 80b1 253d 15a5 023e
000002e0: 1109 e63c d2cf 35bc cca0 81bd 4efa 0ebe
000002f0: 9126 603d 0997 133e eb12 633c 7b20 d83d
00000300: 37fa 2abe cac3 b83d f8bb 033e 0269 143c
00000310: 6791 7e3e 9a64 c6ba 82d7 4fbd 0778 13be
00000320: 544c 003e c8f6 7cbe ff98 43bd babd 813c
00000330: f7d2 92be b9b4 083e 553c 5d3e 2a9f cf3d
00000340: a66f afbd 18b5 6d3d d9c0 30be e4f0 b63c
00000350: aadf 4e3d 625a ab3b bcc3 a6bc 31aa b43d
00000360: 0c96 3fbe 37ea 52bd 2ef3 163d e530 cebc
00000370: 3572 37be 37b8 bd3d b46b 943d c324 3b3d
00000380: 709e d8bd 1b85 b93c d765 95bc 7f3d 593d
00000390: b39e 27be 6945 21bd 7f12 853c d747 e7bd
000003a0: dfdb 96bc 5d97 d23d b3cd 2b3e ec00 bfbd
000003b0: 95b2 a5bb 35fb 8a3d c4a3 48be bdc3 a93d
000003c0: ebb0 32be c3e1 20bc 8623 58bd 68c8 f93d
000003d0: 6fde 09bd 01f9 b03d 22c0 5fbd e2d2 50bd
000003e0: aeee 27bc 87fb 69bd e65e 22be 5a72 4f3d
000003f0: 3943 373e def0 893c 3e7a 6d3e 80dd 8a3d

weight_hh_l0 f4 [192, 64]
0.10684254 -0.16632387 -0.115736894 0.011392866 0.123612106 -0.14157046 0.032514047 -0.11410258
0.14007299 -0.004653633 0.07078966 0.068865135 0.07618819 0.16335443 -0.079514146 0.057982028
0.07560901 -0.121281676 -0.104140654 0.057018038 -0.027860112 0.1603783 -0.069904566 0.025023075
0.039469026 -0.048798196 0.20655878 0.0064847614 -0.080510095 -0.10222543 -0.04740075 -0.08226523
-0.02969955 0.06531958 -0.1696277 0.20060647 -0.058650088 0.13053107 0.16909157 -0.090259895
0.046774454 0.06933394 -0.110983774 0.06995828 -0.11017594 0.019822985 -0.033369742 0.043828152
-0.046557553 -0.20485263 0.07879949 0.0747865 -0.033896063 0.081701055 -0.0063337423 0.0915675
0.005723204 -0.073682375 0.067583375 0.08223833 -0.06117381 0.00781034 -0.05947865 -0.061473016
0.14982668 -0.14370304 -0.0215782 -0.16214128 0.10536587 0.075110205 0.10720991 0.1034486
-0.06293813 0.078376606 0.1323566 0.115073636 -0.07605322 -0.069900244 0.038431793 0.037035078
-0.024482477 -0.009362895 0.16848078 0.10995761 -0.07799384 0.09082 0.1854434 -0.088069156
0.11645011 -0.033923168 0.10094238 0.011741825 0.00078495493 -0.05868284 -0.10796455 -0.018993862
-0.080843784 0.06679854 -0.063500606 -0.07895037 0.022914872 -0.114703245 -0.027150176 -0.097412966
0.07253098 -0.03360274 0.096134774 -0.013923972 -0.07952621 0.1404069 -0.14320995 0.043573678
-0.08193395 -0.06962656 0.035769626 -0.01585137 -0.08403346 -0.08124469 0.050392132 0.01650667
0.074108906 0.06319109 0.12139463 -0.056179043 0.034972936 -0.035726737 -0.09751944 0.05377882
0.11372266 0.0016241961 0.019515563 0.11553926 -0.06547195 0.024631836 -0.05010432 -0.0152515
-0.22098579 -0.007601078 0.123685494 0.047496945 -0.049071115 -0.026221048 0.036393277 0.17348054
-0.032775555 -0.1007301 0.17937224 -0.04122785 -0.023211602 -0.01655225 0.010969547 0.20559521
-0.15892954 0.067549005 0.2281857 0.025119256 0.19942097 -0.06389796 -0.04822876 0.17016563
-0.0718115 0.016433109 -0.15457071 -0.02750607 -0.13761204 0.014052713 -0.045192152 -0.06019184
-0.011095864 -0.09554146 0.092879504 0.21441726 -0.13372152 0.02903328 0.0155986985 0.0042323777
0.22086243 -0.03771842 0.10119075 0.11768276 -0.12236776 -0.043347754 0.19662216 0.06392815
0.108230904 -0.011970616 -0.14031897 -0.010636607 0.07078504 -0.020265592 0.114261575 0.048594184
0.038050544 0.017415166 0.053647157 -0.124627106 0.094488695 -0.025137596 -0.055200603 -0.112211645
0.026436081 -0.012586942 0.052994896 0.036674038 -0.03121215 0.17433456 -0.10445598 -0.0069933394
0.04842861 -0.022627437 -0.18963349 -0.2839205 0.17132612 0.19338027 0.024500785 -0.074937865
0.05900293 -0.07906254 -0.09677083 -0.013981247 -0.02968918 -0.0029955697 -0.165307 -0.1880244
-0.020457832 -0.18595092 0.1181558 0.33594495 0.092053026 0.021999415 0.12110368 -0.1667711
0.13566776 0.042805165 -0.056162063 -0.07721664 0.015847502 0.029681988 -0.007512558 -0.0512079
-0.05297197 -0.055934723 0.1746214 0.22828545 0.1584975 -0.17139061 -0.20002823 0.0977092
-0.044011023 0.2414606 0.011110833 0.15809722 -0.18086612 0.023808565 0.03756132 0.1031371
00000000: 43d0 da3d ce50 2abe 7707 edbd 25a9 3a3c
00000010: 5828 fd3d d9f7 10be 732d 053d 9dae e9bd
00000020: 4b6f 0f3e 817d 98bb 2bfa 903d 2a09 8d3d
00000030: 8e08 9c3d 6246 273e 50d8 a2bd 907e 6d3d
00000040: e6d8 9a3d 8762 f8bd b247 d5bd bf8b 693d
00000050: e43a e4bc 363a 243e 202a 8fbd 31fd cc3c
00000060: 46aa 213d 9ee0 47bd 2584 533e 1f7e d43b
00000070: 7ae2 a4bd 915b d1bd 4a27 42bd ac7a a8bd
00000080: 784c f3bc 46c6 853d e2b2 2dbe c86b 4d3e
00000090: 133b 70bd f0a9 053e 5726 2d3e 2eda b8bd
000000a0: 9296 3f3d f4fe 8d3d 764b e3bd 4946 8f3d
000000b0: eca3 e1bd d063 a23c b6ae 08bd 2685 333d
000000c0: 22b3 3ebd e3c4 51be a161 a13d aa29 993d
000000d0: 99d6 0abd e252 a73d 488b cfbb be87 bb3d
000000e0: b789 bb3b c9e6 96bd 2769 8a3d 926c a83d
000000f0: 6491 7abd e1ed ff3b e39f 73bd 21cb 7bbd
00000100: 2a6c 193e e426 13be c4c4 b0bc 5d08 26be
00000110: 10ca d73d 61d3 993d df90 db3d dcdc d33d
00000120: b5e5 80bd ea83 a03d 7d88 073e baab eb3d
00000130: cac1 9bbd dc27 8fbd a86a 1d3d 18b2 173d
00000140: 7a8f c8bc d466 19bc 3a86 2c3e 7531 e13d
00000150: 3cbb 9fbd d6ff b93d e0e4 3d3e 9a5d b4bd
00000160: 657d ee3d 05f3 0abd e1ba ce3d c960 403c
00000170: 6fc5 4d3a 6b5d 70bd 851c ddbd 0499 9bbc
00000180: 6d91 a5bd accd 883d 9b0c 82bd bbb0 a1bd
00000190: f8b7 bb3c 89e9 eabd 0c6a debc 7380 c7bd
000001a0: 1f8b 943d 07a3 09bd 4fe2 c43d 5f21 64bc
000001b0: a3de a2bd d4c6 0f3e a1a5 12be 507a 323d
000001c0: fdcc a7bd 5f98 8ebd 2c83 123d bbda 81bc
000001d0: bc19 acbd 9e63 a6bd fb67 4e3d ff38 873c
000001e0: 69c6 973d 556a 813d bf9d f83d ff1b 66bd
000001f0: c83f 0f3d 3356 12bd 46b8 c7bd 2e47 5c3d
00000200: 6de7 e83d fae2 d43a 1adf 9f3c d99f ec3d
00000210: 2816 86bd b4c8 c93c 303a 4dbd 6de1 79bc
00000220: 194a 62be 7712 f9bb d24e fd3d 288c 423d
00000230: cbfe 48bd 86cd d6bc 1e11 153d e2a4 313e
00000240: a93f 06bd 954b cebd 5bad 373e 89de 28bd
00000250: 4226 bebc 9698 87bc 9db9 333c 8d87 523e
00000260: 6dbe 22be 2257 8a3d 83a9 693e e6c6 cd3c
00000270: 0335 4c3e efdc 82bd 858b 45bd e63f 2e3e
00000280: e811 93bd ba9e 863c c947 1ebe 6954 e1bc
00000290: 2cea 0cbe 5a3d 663c 681b 39bd b88b 76bd
000002a0: 6dcb 35bc 3eab c3bd 9c37 be3d 3390 5b3e
000002b0: 4bee 08be 34d7 ed3c af91 7f3c c2af 8a3b
000002c0: c329 623e a17e 1abd 193d cf3d a903 f13d
000002d0: f39b fabd 6a8d 31bd 5257 493e c3ec 823d
000002e0: 2aa8 dd3d 6720 44bc c7af 0fbe 2a45 2ebc
000002f0: bff7 903d 0704 a6bc f901 ea3d b20a 473d
00000300: e3da 1b3d 40aa 8e3c 1fbd 5b3d 7f3c ffbd
00000310: 4a83 c13d 5ced cdbc 071a 62bd 38cf e5bd
00000320: 7b90 d83c 7639 4ebc 2d11 593d 8437 163d
00000330: 9fb0 ffbc c284 323e 04ed d5bd 6228 e5bb
00000340: 145d 463d 2d5d b9bc 482f 42be 075e 91be
00000350: 1d70 2f3e 7a05 463e dfb5 c83c 0679 99bd
00000360: 0ead 713d 8aeb a1bd c92f c6bd 9a11 65bc
00000370: b936 f3bc 5251 44bb 3d46 29be 7889 40be
00000380: 2f97 a7bc eb69 3ebe abfb f13d fa00 ac3e
00000390: 4c86 bc3d 1e38 b43c 3505 f83d 0bc6 2abe
000003a0: 7dec 0a3e 7854 2f3d 310a 66bd c223 9ebd
000003b0: 9fd2 813c a427 f33c e72b f6bb 60bf 51bd
000003c0: 23f9 58bd cf1b 65bd f4cf 323e a9c3 693e
000003d0: 2b4d 223e 0581 2fbe 33d4 4cbe c31b c83d
000003e0: e744 34bd 7341 773e 360a 363c 3de4 213e
000003f0: f834 39be 2e0a c33c e6d9 193d 8b39 d33d

bias_ih_l0 f4 [192]
0.09961949 0.07464603 0.120608166 -0.048141085 0.051774863 0.043988787 -0.12632425 0.029504519
0.20127404 -0.012479876 0.14741117 -0.07805617 -0.09618985 0.11069356 0.10707212 -0.12117713
0.045826722 0.015712237 -0.01702065 0.1406742 0.052816305 0.06999766 -0.10400906 -0.028944513
-0.027279828 0.16943656 0.1985013 -0.0009285256 0.07004924 -0.103356585 0.011774269 0.13702928
0.11191958 -0.08196034 -0.08941425 -0.0008030066 -0.10885876 0.06715489 0.07988001 0.08327863
-0.08895036 -0.006050456 -0.003657918 0.055604834 0.21552363 0.046929874 -0.12556136 -0.07496539
-0.024024557 0.14631137 0.05446882 0.19141178 -0.04267468 0.027171176 0.03470079 -0.017353019
-0.08653148 -0.05852663 0.041289616 0.07964134 -0.06448534 0.05974712 -0.027711436 -0.014483189
-0.18034083 -0.16371807 -0.012374707 -0.22762743 -0.09502583 -0.2192377 -0.24368644 -0.11501157
-0.31177595 -0.12694214 -0.20118105 -0.0828261 -0.09204741 -0.018619666 -0.06842125 -0.24308135
-0.14756742 -0.06291735 -0.21276209 0.07995241 -0.12076629 0.13629043 -0.14044213 0.11948685
-0.32811925 -0.05191993 -0.12741667 -0.28885815 -0.06213967 -0.069741435 -0.08482733 -0.045370936
-0.09006203 -0.10025387 -0.117674306 -0.048192956 -0.15185602 0.009606564 -0.03090034 -0.09633813
-0.016860701 -0.011833958 -0.19341496 -0.12774262 -0.13024406 -0.23565081 -0.2193979 -0.053309936
-0.2226931 -0.2065875 -0.11442576 -0.10893534 -0.04048015 -0.1527197 -0.015341979 -0.069074
-0.02125336 0.13242947 -0.2641792 -0.14526549 -0.26014462 -0.07094095 -0.040935647 -0.2564386
-0.033105195 0.04580811 0.088552795 0.002878674 -0.2005494 0.02716541 -0.05841299 0.04031419
-0.035699755 0.042584658 0.10157732 0.11545232 -0.0902363 -0.14510758 0.08028734 -0.118412495
0.07274576 0.011962587 -0.08738435 -0.012673758 0.06539486 -0.069244206 -0.15871486 0.0030937977
-0.15707695 -0.036783475 -0.22741315 -0.08013507 0.07891057 0.0827457 -0.11184554 0.10327787
-0.08168473 -0.0059567997 -0.01425744 0.21686383 -0.00036254292 -0.028479155 -0.0074619837 0.014427436
-0.10552274 0.075494684 0.12825625 0.11128663 -0.00028154347 -0.13461372 -0.09085918 -0.0041881674
-0.06920407 -0.0009467396 0.025509782 0.12312147 -0.10890625 0.16493952 0.022711525 -0.083247334
0.094842896 0.018831223 -0.16661027 -0.00063921517 -0.041625112 0.13829143 0.09166476 0.24059282
00000000: 4e05 cc3d 05e0 983d 6a01 f73d 962f 45bd
00000010: e111 543d 962d 343d 255b 01be 76b3 f13c
00000020: c81a 4e3e 6578 4cbc f4f2 163e eadb 9fbd
00000030: 2fff c4bd 4eb3 e23d a148 db3d b72b f8bd
00000040: cdb4 3b3d f3b6 803c e46e 8bbc e60c 103e
00000050: e955 583d ef5a 8f3d b402 d5bd 0b1d edbc
00000060: f279 dfbc c780 2d3e ed43 4b3e 4c68 73ba
00000070: fa75 8f3d 9eac d3bd dde8 403c 6751 0c3e
00000080: 1836 e53d d3da a7bd d11e b7bd dc80 52ba
00000090: 57f1 debd 8188 893d 2198 a33d fd8d aa3d
000000a0: 9b2b b6bd e742 c6bb aeb9 6fbb e5c1 633d
000000b0: 3ab2 5c3e 8a39 403d 2893 00be 7487 99bd
000000c0: 26cf c4bc a6d2 153e b31a 5f3d 7301 443e
000000d0: a5cb 2ebd 1696 de3c 6a22 0e3d eb27 8ebc
000000e0: 6b37 b1bd 9fb9 6fbd 4d1f 293d 001b a33d
000000f0: e410 84bd 65b9 743d 1803 e3bc e64a 6dbc
00000100: 44ab 38be b6a5 27be 48bf 4abc 2a17 69be
00000110: e79c c2bd d97f 60be f088 79be 308b ebbd
00000120: 19a1 9fbe 1ffd 01be 6802 4ebe bba0 a9bd
00000130: 5a83 bcbd 4588 98bc 7120 8cbd 51ea 78be
00000140: ea1b 17be d0da 80bd 4ede 59be 17be a33d
00000150: 5154 f7bd b88f 0b3e 10d0 0fbe 86b5 f43d
00000160: 3fff a7be fea9 54bd 8479 02be 37e5 93be
00000170: 2b86 7ebd 99d4 8ebd f4b9 adbd e0d6 39bd
00000180: 7172 b8bd e751 cdbd 3aff f0bd fa65 45bd
00000190: 2580 1bbe da64 1d3c b622 fdbc ed4c c5bd
000001a0: 741f 8abc 38e3 41bc 920e 46be f6ce 02be
000001b0: b35e 05be 724e 71be d8a9 60be 855b 5abd
000001c0: a909 64be ac8b 53be 0e58 eabd 7e19 dfbd
000001d0: 84ce 25bd 8e62 1cbe ed5c 7bbc ab76 8dbd
000001e0: 871b aebc 979b 073e 7f42 87be 7ac0 14be
000001f0: ad31 85be 7d49 91bd 23ac 27bd ec4b 83be
00000200: 5099 07bd 49a1 3b3d 2b5b b53d 23a8 3c3b
00000210: d25c 4dbe fe89 de3c 7642 6fbd 7e20 253d
00000220: e839 12bd 406d 2e3d c507 d03d 4472 ec3d
00000230: cfcd b8bd 1597 14be b06d a43d 4082 f2bd
00000240: bbfb 943d bafe 433c 91f6 b2bd 98a5 4fbc
00000250: beed 853d e8cf 8dbd 2686 22be 50c1 4a3b
00000260: c8d8 20be 45aa 16bd fede 68be db1d a4bd
00000270: dd9b a13d 9476 a93d 460f e5bd 5983 d33d
00000280: 534a a7bd 4231 c3bb 0a98 69bc 8d11 5e3e
00000290: b013 beb9 1e4d e9bc a883 f4bb 0d61 6c3c
000002a0: 4e1c d8bd f59c 9a3d 9b55 033e 3fea e33d
000002b0: 209c 93b9 2ed8 09be 6114 babd e53c 89bb
000002c0: ddba 8dbd 9e2e 78ba e4f9 d03c 1c27 fc3d
000002d0: 3d0a dfbd e8e5 283e 850d ba3c 947d aabd
000002e0: fe3c c23d f043 9a3c e29b 2abe 0191 27ba
000002f0: 187f 2abd 459c 0d3e bcba bb3d f75d 763e

bias_hh_l0 f4 [192]
0.008319207 -0.1213659 0.077432305 0.111172386 0.029723665 0.0066313846 -0.10930933 0.036764015
0.20229104 -0.08705401 0.0943318 -0.020630961 0.10373633 0.0936492 0.07292092 0.05562022
-0.03740529 -0.009576713 -0.039477844 0.2215826 -0.06651629 -0.027207004 -0.110304266 0.16732198
0.12324539 0.16723545 0.012483063 -0.11169717 -0.043555044 -0.064239636 0.08944293 0.076261245
-0.063269064 0.11995349 -0.011435819 -0.18862249 -0.066901736 0.04543799 -0.05839089 0.12882
-0.1128257 0.023108035 0.067747444 0.056281704 0.22784786 0.16475235 0.034828473 0.079698674
0.098226346 0.18095136 0.06641792 6.299456e-05 0.052732583 0.00020839326 0.14154333 -0.025866708
0.0533743 0.073966436 -0.03762289 0.08321859 -0.07214795 0.13070336 -0.09051186 0.012942191
-0.21576855 -0.16888203 -0.030639987 -0.2814724 -0.024430178 -0.04680174 -0.13517027 -0.15009709
-0.26309285 -0.116484314 -0.0036257687 -0.24169172 -0.08131123 -0.051755622 -0.111697905 -0.30584937
-0.24817331 -0.011620548 -0.17876552 -0.059046768 -0.19695948 0.08295599 -0.13977922 -0.04592089
-0.2282941 -0.17493403 -0.22594137 -0.1626246 -0.19660467 0.018035866 -0.18498147 -0.04840361
-0.22070041 -0.15177166 -0.0055740005 -0.014809402 -0.19662787 -0.10406707 -0.120191 -0.17609806
-0.05812475 -0.060886346 -0.060068123 -0.07302703 -0.07269893 -0.24250552 -0.06812402 -0.22266833
-0.028836315 -0.20718017 -0.046091393 0.016203227 -0.117421634 -0.037900776 0.06033229 -0.2998968
-0.21683227 0.10159592 -0.20685662 -0.2509768 -0.21105246 -0.1168862 -0.115858614 -0.17283484
0.15913986 -0.008822061 -0.022514256 0.14553995 -0.04923803 0.033425983 0.18338604 -0.017972507
-0.07515144 -0.05952246 0.0583867 0.10757221 0.103939384 -0.08347153 0.018619211 -0.01112455
-0.07941774 -0.14846043 0.14025992 0.13964233 -0.12434975 0.008472561 0.020449366 0.13338266
-0.03206267 0.061090026 -0.20761585 0.040484153 0.10178514 0.05026239 -0.19017172 0.13633715
-0.063087545 0.06373429 -0.112022385 0.01426995 -0.028930971 0.12746154 0.019811803 0.046704113
-0.03665268 0.06494289 0.230496 0.14368448 0.1106455 0.036149845 -0.024176216 0.18347229
0.073496155 0.1832046 -0.098285966 -0.018041776 0.05598179 -0.04594014 -0.0751427 -0.15617037
0.042303875 0.06645808 -0.045857307 -0.13365921 0.048232686 0.10764894 0.0970644 0.04654559
00000000: 484d 083c af8e f8bd d494 9e3d 59ae e33d
00000010: 0b7f f33c 164c d93b 92dd dfbd dd95 163d
00000020: 6225 4f3e 5f49 b2bd 0831 c13d 4302 a9bc
00000030: b773 d43d 27cb bf3d 9057 953d 07d2 633d
00000040: 4a36 19bd a5e7 1cbc 85b3 21bd 8de6 623e
00000050: b139 88bd 39e1 debc 34e7 e1bd 7456 2b3e
00000060: 1468 fc3d c53f 2b3e c385 4c3c 7cc1 e4bd
00000070: c666 32bd 1290 83bd db2d b73d db2e 9c3d
00000080: 3693 81bd 2daa f53d 4d5d 3bbc 4126 41be
00000090: c703 89bd 301d 3a3d 492b 6fbd 64e9 033e
000000a0: 2911 e7bd 104d bd3c 2cbf 8a3d a587 663d
000000b0: f350 693e d7b4 283e 4da8 0e3d 0f39 a33d
000000c0: e52a c93d 504b 393e 1e06 883d f21b 8438
000000d0: 1ffe 573d 2484 5a39 bcf0 103e 6be6 d3bc
000000e0: 039f 5a3d b77b 973d 761a 1abd 826e aa3d
000000f0: 4ec2 93bd 1ad7 053e 485e b9bd 7c0b 543c
00000100: 6ef2 5cbe 69ef 2cbe b600 fbbc 271d 90be
00000110: cc21 c8bc 2eb3 3fbd 136a 0abe 0db3 19be
00000120: 1bb4 86be 548f eebd 4e9e 6dbb 097e 77be
00000130: 8186 a6bd b4fd 53bd dfc1 e4bd 4a98 9cbe
00000140: 2521 7ebe 1c64 3ebc 4f0e 37be 06db 71bd
00000150: bfaf 49be d5e4 a93d 4922 0fbe 8b17 3cbd
00000160: eec5 69be e821 33be 2d5d 67be 1087 26be
00000170: bc52 49be f4bf 933c c86b 3dbe dd42 46bd
00000180: 4aff 61be 086a 1bbe 1ba6 b6bb 22a3 72bc
00000190: d158 49be 1e21 d5bd b326 f6bd 0d53 34be
000001a0: 3814 6ebd f663 79bd fe09 76bd 328f 95bd
000001b0: 2de3 94bd 5e53 78be 9b84 8bbd 2b03 64be
000001c0: 233a ecbc 0a27 54be 54ca 3cbd a1bc 843c
000001d0: c17a f0bd d83d 1bbd fe1e 773d 138c 99be
000001e0: 4709 5ebe 8611 d03d 39d2 53be 0880 80be
000001f0: 231e 58be 0862 efbd 4847 edbd 9efb 30be
00000200: 8ff5 223e 688a 10bc d16f b8bc 6d08 153e
00000210: d1ad 49bd afe9 083d 8dc9 3b3e 143b 93bc
00000220: 00e9 99bd d3cd 73bd e426 6f3d d24e dc3d
00000230: 2cde d43d 1ff3 aabd 5187 983c bf43 36bc
00000240: c5a5 a2bd 0306 18be 4ca0 0f3e 66fe 0e3e
00000250: 15ab febd 7fd0 0a3c 6e85 a73c 7795 083e
00000260: 2554 03bd 8939 7a3d 4099 54be b6d2 253d
00000270: ba74 d03d f0df 4d3d 60bc 42be f79b 0b3e
00000280: 0b34 81bd 2087 823d fe6b e5bd 82cc 693c
00000290: a500 edbc 4785 023e 5d4c a23c d04c 3f3d
000002a0: 1f21 16bd c700 853d 2507 6c3e 0622 133e
000002b0: 1c9a e23d dc11 143d 330d c6bc 29e0 3b3e
000002c0: 2785 963d fd99 3b3e 274a c9bd 59cc 93bc
000002d0: 294d 653d ba2b 3cbd 6ae4 99bd 20eb 1fbe
000002e0: d446 2d3d 2d1b 883d dfd4 3bbd f6dd 08be
000002f0: a38f 453d 0c77 dc3d b3c9 c63d 97a6 3e3d

weight_ih_l1 f4 [192, 64]
0.13871796 0.35600272 0.052764848 0.12906295 -0.2559699 0.06175655 -0.12643239 -0.041038163
0.04810408 0.037447274 0.0065732785 0.15286984 -0.2617675 -0.16277096 0.2495812 0.08210205
0.03472236 -0.1749401 0.14670318 0.15309173 -0.07709871 0.09111741 -0.026789704 -0.057202056
-0.09579364 0.12356254 -0.1192743 -0.0124444645 0.18027614 0.09294742 -0.025476616 0.041036393
0.06585006 0.4293546 -0.13238882 0.07061114 -0.28060433 0.18568859 -0.10377731 0.012354909
-0.26105118 0.23436056 0.2639256 0.08056991 -0.07651275 -0.15649116 -0.023860114 0.25520346
0.2059953 0.111047834 -0.1275379 -0.046660215 -0.39777374 0.16756117 -0.07813524 -0.14007005
0.13692684 -0.15054576 0.00012786407 -0.16569188 -0.006203572 0.36039153 0.011829492 0.051953297
0.03579099 -0.07982886 0.16028783 -0.030026406 -0.009880994 0.05807486 -0.10289606 -0.09208574
-0.23818903 0.04116119 -0.056937523 0.0024367694 -0.17355232 -0.12702759 -0.058462765 0.13062808
-0.1464078 -0.08405176 -0.01612541 -0.060995672 0.07092627 -0.012599143 -0.026370125 -0.026520794
0.061682526 -0.050576285 -0.0418192 0.03060815 0.045151874 -0.18263099 0.17696476 -0.064269215
-0.14586519 0.12552233 -0.13587388 0.23364198 -0.10086185 0.11180134 0.2931008 -0.012789815
0.059732642 -0.118430585 0.09737949 -0.035860006 0.008776615 0.010287964 -0.14514643 0.089031115
0.015890403 -0.01696993 0.051935572 0.29165015 -0.09286437 0.06580502 0.00853753 -0.045107666
0.1744579 -0.1538709 -0.10844185 0.025063952 0.07308352 0.15757895 0.16010436 -0.13170324
0.09937026 0.25809237 -0.0012794251 0.058947146 0.087396376 0.15822019 -0.26171353 0.05632399
-0.083296746 0.041746713 -0.11359728 -0.24186365 -0.054188937 -0.07367517 0.11708266 0.1381603
-0.23239975 0.20698465 0.052455533 -0.032040816 0.208464 -0.1516409 0.2966547 -0.055249702
-0.09813227 0.090882346 0.026398612 0.18735683 0.0024025328 -0.032003168 0.015148427 0.051699273
0.0063771443 -0.08534605 0.092222214 0.0138182 0.16342734 -0.023157652 0.08714996 -0.123852305
0.11908657 -0.34809154 -0.103841916 -0.05728698 -0.10723821 -0.050141964 -0.329244 -0.070682414
-0.23519462 -0.094827555 -0.08026935 -0.16633037 -0.03973642 0.083204016 -0.10506469 -0.027235268
-0.038826156 -0.07396294 -0.03560553 0.014342721 0.08034845 -0.06360781 -0.058042187 -0.010575566
0.29220608 0.052309968 0.15298708 -0.02784755 0.0109778615 0.051832963 -0.0154348165 0.064110585
0.08526764 0.022196908 0.13221717 0.14489876 -0.13194963 -0.11333148 0.053747963 0.05190935
0.048870258 -0.1480661 -0.063555844 0.122619465 0.12077553 -0.15913449 -0.00022587183 0.07456398
-0.17304516 0.026263928 0.030899087 0.11093588 0.21322806 -0.08447688 -0.19912197 0.035391737
0.07406663 0.26825222 -0.031865645 0.095256574 -0.11504995 0.0010222287 0.004250469 0.15713555
-0.061682567 0.014832578 -0.10980715 -0.0068234853 0.084507495 0.08819657 0.031075826 0.06508914
0.038406264 0.20555115 -0.20606609 0.2685358 -0.092770465 -0.00033216167 0.024587085 0.0005886983
0.11569372 -0.054153167 -0.2464982 -0.23637813 0.029365446 0.094496176 0.13639793 -0.030965285
00000000: 150c 0e3e fd45 b63e f41f 583d 1429 043e
00000010: 7d0e 83be 70f4 7c3d 7e77 01be a217 28bd
00000020: c908 453d 5062 193d a864 d73b e989 1c3e
00000030: 6406 86be 6ead 26be 3792 7f3e 1f25 a83d
00000040: 0939 0e3d 7f23 33be 5c39 163e 14c4 1c3e
00000050: eee5 9dbd c49b ba3d 1576 dbbc b44c 6abd
00000060: 752f c4bd 5b0e fd3d 1646 f4bd dee3 4bbc
00000070: 4f9a 383e 385b be3d 56b4 d0bc c715 283d
00000080: 65dc 863d 5ed4 db3e ef90 07be 939c 903d
00000090: 5fab 8fbe 2625 3e3e 3389 d4bd 3f6c 4a3c
000000a0: 80a8 85be 37fc 6f3e 4221 873e d601 a53d
000000b0: b7b2 9cbd 383f 20be 4976 c3bc 07aa 823e
000000c0: 6ff0 523e 0c6d e33d 4c99 02be c81e 3fbd
000000d0: 00a9 cbbe 2895 2b3e 5e05 a0bd 866e 0fbe
000000e0: 8d36 0c3e ab28 1abe 4013 0639 22ab 29be
000000f0: 5547 cbbb 3d85 b83e 7cd0 413c fbcc 543d
00000100: 9399 123d 507d a3bd 7e22 243e f0f9 f5bc
00000110: e5e3 21bc e8df 6d3d 2bbb d2bd 7397 bcbd
00000120: d3e7 73be a398 283d 5237 69bd 35b2 1f3b
00000130: b3b7 31be 8513 02be a776 6fbd 5ec3 053e
00000140: edeb 15be 5423 acbd 7019 84bc 99d6 79bd
00000150: cb41 913d a36c 4ebc 2906 d8bc 2342 d9bc
00000160: d1a6 7c3d 1429 4fbd 9c4a 2bbd f1bd fa3c
00000170: 2cf1 383d 9e03 3bbe 4036 353e 949f 83bd
00000180: af5d 15be ed88 003e 8622 0bbe d83f 6f3e
00000190: a890 cebd 1af8 e43d 4f11 963e 5f8c 51bc
000001a0: 37aa 743d bc8b f2bd e66e c73d f1e1 12bd
000001b0: cbcb 0f3c d98e 283c 44a1 14be f255 b63d
000001c0: 972c 823c 8604 8bbc 65ba 543d 2b53 953e
000001d0: ad2f bebd c8c4 863d ffe0 0b3c d1c2 38bd
000001e0: 17a5 323e 5590 1dbe c316 debd eb52 cd3c
000001f0: d0ac 953d 605c 213e 66f2 233e 37dd 06be
00000200: a382 cb3d af24 843e 62b2 a7ba 9072 713d
00000210: dffc b23d 7904 223e 51ff 85be fcb3 663d
00000220: 7c97 aabd 9afe 2a3d b1a5 e8bd 1bab 77be
00000230: 38f5 5dbd 02e3 96bd 09c9 ef3d e579 0d3e
00000240: 33fa 6dbe c9f3 533e 9ddb 563d 3b3d 03bd
00000250: 9677 553e c147 1bbe 20e3 973e 834d 62bd
00000260: 92f9 c8bd 8620 ba3d e741 d83c 78da 3f3e
00000270: d073 1d3b c115 03bd 1c31 783c 9ec2 533d
00000280: 5df7 d03b e9c9 aebd 00df bc3d bb65 623c
00000290: 7f59 273e 1eb5 bdbc ae7b b23d 47a6 fdbd
000002a0: a9e3 f33d 0e39 b2be 12ab d4bd c1a5 6abd
000002b0: b59f dbbd a961 4dbd ab92 a8be f1c1 90bd
000002c0: dcd6 70be f334 c2bd 4264 a4bd 8252 2abe
000002d0: a8c2 22bd de66 aa3d 282c d7bd 7f1c dfbc
000002e0: 2d08 1fbd e279 97bd 1bd7 11bd bbfd 6a3c
000002f0: ba8d a43d d044 82bd a5bd 6dbd 2445 2dbc
00000300: 099c 953e fa42 563d a5a8 1c3e 8c20 e4bc
00000310: 7ddc 333c cd4e 543d 50e2 7cbc 694c 833d
00000320: cda0 ae3d 4ad6 b53c f063 073e 5760 143e
00000330: ce1d 07be 561a e8bd d326 5c3d e69e 543d
00000340: 2e2c 483d a49e 17be 9129 82bd ea1f fb3d
00000350: 2959 f73d 27f4 22be 02d8 6cb9 00b5 983d
00000360: c032 31be 7327 d73c 1520 fd3c 5a32 e33d
00000370: 7558 5a3e 3702 adbd a1e6 4bbe edf6 103d
00000380: 3fb0 973d 5b58 893e 8d85 02bd e115 c33d
00000390: 4f9f ebbd 4efc 853a 8547 8b3b 24e8 203e
000003a0: dca6 7cbd 5704 733c 92e2 e0bd 8b97 dfbb
000003b0: 4412 ad3d 67a0 b43d bb92 fe3c 744d 853d
000003c0: e34f 1d3d 007c 523e fd02 53be 867d 893e
000003d0: 71fe bdbd fc25 aeb9 db6a c93c e052 1a3a
000003e0: d4f0 ec3d b6cf 5dbd 066a 7cbe 1c0d 72be
000003f0: ce8f f03c 3687 c13d e6ab 0b3e e9aa fdbc

weight_hh_l1 f4 [192, 64]
0.03296257 0.13403586 -0.15298022 0.06856544 -0.050904006 0.15173922 -0.010854037 0.12602055
-0.07091166 0.23196624 0.030437017 0.012199509 0.059989054 -0.08298016 -0.13353178 -0.07677062
0.096086204 0.014862354 -0.07627148 0.036771763 -0.019118808 -0.20552032 0.027564839 0.19782774
-0.04315162 -0.07408422 -0.031016685 0.035361547 0.20755036 -0.05726996 0.068650626 -0.02211182
-0.08881124 0.052744508 -0.05424545 -0.05780032 0.09611725 -0.057301328 0.10046343 -0.0016177406
-0.04358506 0.13511062 -0.03917915 -0.06767151 -0.0654808 -0.09803173 0.08347918 -0.04590244
-0.040406547 -0.081649356 0.070006125 0.034933988 -0.11141923 0.085218035 0.11691811 -0.05142861
-0.12472177 -0.059361838 -0.34012106 0.037050597 -0.068076685 0.11011676 0.0142482845 -0.1165994
0.05428594 0.02522651 0.10232266 0.07996604 -0.1418927 -0.07297994 0.13039239 0.055811994
0.04206945 -0.056665674 -0.123007216 0.09059413 0.13845535 0.089721784 -0.037407253 -0.18364683
-0.025020348 0.040936507 0.07894662 -0.033479124 0.1423554 0.08087401 0.086297646 0.020925986
-0.054034 -0.07818418 -0.010056338 0.05280235 0.019210476 -0.09006772 0.02284384 0.030995822
0.107113086 0.02331456 -0.010831717 -0.103958726 -0.0073685762 0.11351607 0.087028705 0.028063752
0.03170156 0.034301206 -0.043993793 -0.05073266 -0.15786313 0.095170386 -0.08286116 -0.029776983
0.047568608 -0.043973874 0.013266027 -0.0207411 0.0014260841 -0.07502696 0.016638082 -0.06616651
0.11073702 0.072229356 0.052861817 -0.0025267224 -0.052561626 0.0019750115 0.11680348 0.18123412
0.058392935 0.033416107 0.017529828 0.014721477 0.011490559 0.19187641 0.073928654 0.05734357
-0.107134946 0.03369591 -0.016474461 -0.07979818 0.19862793 -0.121143386 -0.04315158 -0.002795563
-0.05896108 -0.010874632 -0.06456319 -0.12977618 -0.117401354 -0.007267036 0.102793716 0.008104963
-0.00168194 0.13096534 -0.13366382 -0.11241107 -0.09564649 -0.12711462 0.1601893 -0.00848833
0.100857064 -0.049314003 -0.10373315 -0.07766247 -0.13740358 -0.119836 0.07878743 0.13950561
-0.17736702 -0.11383665 -0.14255571 0.02672105 0.0460814 -0.14051013 0.07044872 0.10668456
-0.062436327 -0.051991902 0.032399334 -0.01742176 0.0852342 0.12090212 0.058195062 0.044145
-0.15001066 0.09741895 -0.09711561 0.101492934 -0.018138299 -0.12585615 -0.097509116 -0.023615388
-0.19600411 0.04100752 0.20141241 -0.061142668 -0.05694012 -0.1851143 0.0845057 0.08936339
-0.054594915 -0.08507736 0.09852692 -0.042242352 -0.024447637 -0.07401353 -0.100133345 -0.02732304
0.012502616 0.21544322 -0.0005122004 -0.00933128 -0.07050353 0.015846038 0.07404512 0.029012576
-0.06662997 0.0989731 0.09796161 -0.12545492 -0.11279389 -0.13599776 0.18327585 -0.014505848
0.01608736 -0.03938944 0.105285324 0.041350335 0.010123922 0.20579335 -0.15259558 0.065083236
-0.0032157213 0.27380264 -0.03842441 0.03853377 -0.02290643 0.002266719 0.031738944 -0.017097581
0.0060263285 -0.029684495 0.041170314 0.038907785 -0.05894157 -0.05923172 0.049911004 -0.080018915
0.046080917 -0.117929325 0.12510224 0.088877425 0.03009203 -0.080205716 0.06906278 0.031234352
00000000: c303 073d b240 093e d9a6 1cbe 0a6c 8c3d
00000010: b880 50bd 8761 1b3e 21d5 31bc 880b 013e
00000020: 223a 91bd 8f88 6d3e 0d57 f93c 73e0 473c
00000030: 15b7 753d 81f1 a9bd 8ebc 08be ea39 9dbd
00000040: d8c8 c43d 3b81 733c 3934 9cbd fd9d 163d
00000050: 0c9f 9cbc eb73 52be a8cf e13c 5b93 4a3e
00000060: c1bf 30bd 78b9 97bd b416 febc 45d7 103d
00000070: 1588 543e e893 6abd b398 8c3d d923 b5bc
00000080: abe2 b5bd a00a 583d 7a30 5ebd 07c0 6cbd
00000090: 1fd9 c43d ccb4 6abd c5bf cd3d 5e0a d4ba
000000a0: 3f86 32bd 705a 0a3e 517a 20bd 5c97 8abd
000000b0: cc1a 86bd dcc4 c8bd 22f7 aa3d 3204 3cbd
000000c0: 5681 25bd c737 a7bd 5f5f 8f3d f116 0f3d
000000d0: c42f e4bd cb86 ae3d c372 ef3d cea6 52bd
000000e0: 216e ffbd 6625 73bd 5924 aebe 5ec2 173d
000000f0: ca6b 8bbd e584 e13d a371 693c abcb eebd
00000100: ef5a 5e3d d3a7 ce3c 8b8e d13d 3cc5 a33d
00000110: 524c 11be 8276 95bd 9585 053e 1e9b 643d
00000120: 0451 2c3d 441a 68bd 35eb fbbd 6a89 b93d
00000130: 3dc7 0d3e 0ec0 b73d 5938 19bd ea0d 3cbe
00000140: 79f7 ccbc 0aad 273d c4ae a13d 6821 09bd
00000150: 9dc5 113e 46a1 a53d d2bc b03d f96c ab3c
00000160: c152 5dbd 071f a0bd 57c3 24bc 4747 583d
00000170: 4a5f 9d3c 6d75 b8bd 0123 bb3c f3ea fd3c
00000180: 1b5e db3d 2dfe be3c 8477 31bc 50e8 d4bd
00000190: 1974 f1bb 1d7b e83d 1b3c b23d f4e5 e53c
000001a0: 7fd9 013d 6c7f 0c3d d632 34bd 0dcd 4fbd
000001b0: dfa6 21be b1e8 c23d 1db3 a9bd dcee f3bc
000001c0: 4dd7 423d f31d 34bd c059 593c 3de9 a9bc
000001d0: 71eb ba3a bca7 99bd 964c 883c 4f82 87bd
000001e0: 17ca e23d fcec 933d a285 583d 5e97 25bb
000001f0: dc4a 57bd 326f 013b aa36 ef3d 7095 393e
00000200: 6e2d 6f3d 54df 083d b79a 8f3c 5a32 713c
00000210: e642 3c3c 407b 443e e867 973d 17e1 6a3d
00000220: 9169 dbbd b904 0a3d 73f5 86bc 3a6d a3bd
00000230: 1f65 4b3e 061a f8bd b6bf 30bd c435 37bb
00000240: 2c81 71bd 832b 32bc b539 84bd 0ce4 04be
00000250: 1f70 f0bd 5120 eebb 8385 d23d aeca 043c
00000260: 8b74 dcba c71b 063e 2bdf 08be c637 e6bd
00000270: 4fe2 c3bd 562a 02be aa08 243e a312 0bbc
00000280: 268e ce3d 7bfd 49bd 0c72 d4bd 800d 9fbd
00000290: 86b3 0cbe 946c f5bd 4e5b a13d 8fda 0e3e
000002a0: b39f 35be 3123 e9bd 20fa 11be 1ae6 da3c
000002b0: dabf 3c3d e3e1 0fbe 6b47 903d 6f7d da3d
000002c0: 3cbd 7fbd 76f5 54bd 2ab5 043d 14b8 8ebc
000002d0: 458f ae3d 889b f73d f25d 6e3d 63d1 343d
000002e0: 659c 19be 9683 c73d 8de4 c6bd 87db cf3d
000002f0: c596 94bc 6fe0 00be dcb2 c7bd 0f75 c1bc
00000300: 4db5 48be 80f7 273d 0e3f 4e3e bc70 7abd
00000310: 0b3a 69bd 9a8e 3dbe 5311 ad3d 2704 b73d
00000320: eb9e 5fbd 0a3d aebd 7bc8 c93d 5106 2dbd
00000330: 6946 c8bc 6894 97bd b612 cdbd 91d4 dfbc
00000340: c6d7 4c3c 269d 5c3e 3045 06ba 3ae2 18bc
00000350: 2864 90bd 8dcf 813c f8a4 973d c8ab ed3c
00000360: 4b75 88bd 69b2 ca3d 19a0 c83d 4177 00be
00000370: 7c00 e7bd ff42 0bbe aaac 3b3e f0a9 6dbc
00000380: a4c9 833c d256 21bd d59f d73d f85e 293d
00000390: cede 253c 7ebb 523e 0442 1cbe 5c4a 853d
000003a0: dabe 52bb dc2f 8c3e ea62 1dbd 96d5 1d3d
000003b0: 44a6 bbbc 3c8d 143b b200 023d 3a10 8cbc
000003c0: 8278 c53b e62c f3bc 34a2 283d c55d 1f3d
000003d0: b76c 71bd f69c 72bd 7b6f 4c3d f5e0 a3bd
000003e0: 58bf 3c3d ee84 f1bd cd1a 003e 5e05 b63d
000003f0: 9083 f63c e542 a4bd c970 8d3d 2fdf ff3c

bias_ih_l1 f4 [192]
0.15476596 -0.043096494 0.018038917 -0.028407564 -0.122875996 0.008453699 0.108912244 -0.140372
0.05334617 0.0017410077 0.061474532 0.07905071 -0.018918365 -0.06825206 -0.10532069 0.033963416
0.050780322 -0.0122965975 -0.046357002 -0.082298554 0.15781178 0.03685338 0.15297902 0.018406995
-0.07816142 0.042198252 0.0714704 0.09550732 0.016083596 0.020274606 -0.0029980494 0.105795555
-0.093896836 0.012290543 0.10981186 0.04533467 0.024662346 -0.011985003 -0.0341607 0.12062625
0.021079864 0.03838793 0.21714897 0.085744284 0.08490294 0.07317072 0.046035863 0.12415009
-0.098048516 0.17298709 0.044508122 0.14071843 0.053118996 -0.020058988 0.017293511 -0.06212485
0.06718288 0.0945725 -0.055431332 0.14804226 -0.030161059 -0.0029145018 0.091447346 -0.04185328
-0.12565844 -0.10405887 -0.1671927 -0.056802593 -0.1413997 -0.27591017 -0.019684957 -0.22584863
0.019151686 -0.13398555 0.07744155 -0.07735676 -0.21393527 -0.07706671 -0.09757074 -0.06371263
-0.114861265 -0.25405863 -0.12377064 -0.10158115 -0.067438714 -0.3118948 -0.1623719 0.04568761
-0.1414983 -0.07248132 -0.049110338 -0.32373714 -0.29079634 0.027271988 -0.36460802 -0.17822519
-0.033825707 -0.14088981 -0.18117377 -0.07575743 -0.013039224 -0.17795557 -0.40595877 -0.09232186
-0.20740405 -0.17102672 -0.26391125 -0.07885233 -0.3625799 -0.1785653 -0.36057448 -0.16334248
-0.2596931 -0.11960454 0.03934398 -0.31696826 -0.27109164 0.03949696 -0.1290435 -0.14214891
-0.15933752 -0.14492394 -0.23057152 -0.030448824 -0.30476972 -0.33427283 0.019787807 -0.20775099
-0.15839112 0.053425588 -0.0033676561 -0.038480073 -0.11156925 -0.07255874 0.0018056456 0.12440303
0.02947106 0.044435788 -0.059787504 -0.11023488 -0.0698802 0.12248626 -0.16560104 -0.027605746
-0.053626902 0.057806842 0.13719042 0.029771082 -0.021793304 -0.016692344 0.09730855 -0.06610181
0.025491279 0.07976292 -0.15756941 -0.2034196 -0.0113734575 0.010234411 0.15845945 0.097058296
0.10360616 0.0797822 -0.063949 0.035257954 -0.06777912 -0.03399424 0.09515591 -0.11850642
0.08222488 -0.005092427 -0.07358556 0.043775853 -0.0668444 -0.09380664 0.07698403 -0.11276256
-0.062318474 0.0013347458 -0.10224634 -0.21212344 0.09411398 -0.14655913 0.079077825 -0.17096442
-0.05993969 0.06339905 0.103457615 0.02299332 0.08549774 -0.17681873 0.08676246 0.22834295
00000000: f87a 1e3e f385 30bd 5ac6 933c fbb6 e8bc
00000010: 69a6 fbbd 6281 0a3c 620d df3d adbd 0fbe
00000020: 8381 5a3d 8632 e43a b8cc 7b3d 57e5 a13d
00000030: b0fa 9abc bcc7 8bbd 60b2 d7bd 391d 0b3d
00000040: 07ff 4f3d ab77 49bc d7e0 3dbd 258c a8bd
00000050: 6999 213e 92f3 163d 88a6 1c3e 44ca 963c
00000060: 1813 a0bd 13d8 2c3d 135f 923d 5799 c33d
00000070: bfc1 833c ee16 a63c ec7a 44bb 57ab d83d
00000080: fc4c c0bd 465e 493c 0ae5 e03d d9b0 393d
00000090: b008 ca3c bf5c 44bc 17ec 0bbd e50a f73d
000000a0: aeaf ac3c a93c 1d3d 4d5c 5e3e b39a af3d
000000b0: 98e1 ad3d 88da 953d 1a90 3c3d 6742 fe3d
000000c0: a9cd c8bd 8723 313e 264e 363d 7e18 103e
000000d0: 4e93 593d bf52 a4bc 1fab 8d3c a076 7ebd
000000e0: 2e97 893d 3aaf c13d f70b 63bd 6498 173e
000000f0: 5314 f7bc 3a01 3fbb bf48 bb3d 586e 2bbd
00000100: 9bac 00be d11c d5bd 9034 2bbe d6a9 68bd
00000110: 15cb 10be 1944 8dbe 5942 a1bc dd44 67be
00000120: ffe3 9c3c 8233 09be ad99 9e3d 396d 9ebd
00000130: d911 5bbe 27d5 9dbd 2bd3 c7bd c47b 82bd
00000140: 623c ebbd f913 82be 767b fdbd c709 d0bd
00000150: 4f1d 8abd adb0 9fbe d244 26be ee22 3b3d
00000160: eee4 10be 1671 94bd ec27 49bd e0c0 a5be
00000170: 42e3 94be 8169 df3c e7ad babe aa80 36be
00000180: d38c 0abd 6b45 10be 9e85 39be b626 9bbd
00000190: 78a2 55bc fc39 36be d4d9 cfbe 3e13 bdbd
000001a0: ba61 54be a121 2fbe 601f 87be 557d a1bd
000001b0: 13a4 b9be d2d9 36be 389d b8be 4043 27be
000001c0: 7ef6 84be 3af3 f4bd 2727 213d aa49 a2be
000001d0: 86cc 8abe 90c7 213d fb23 04be 7c8f 11be
000001e0: 6029 23be f166 14be f11a 6cbe d06f f9bc
000001f0: c70a 9cbe cf25 abbe 0a1a a23c adbc 54be
00000200: 4831 22be cad4 5a3d e5b3 5cbb 489d 1dbd
00000210: 6b7e e4bd ad99 94bd 6aab ec3a 04c7 fe3d
00000220: 4b6d f13c 4d02 363d bee3 74bd d3c2 e1bd
00000230: 5a1d 8fbd 14da fa3d 5293 29be 7225 e2bc
00000240: e2a7 5bbd dec6 6c3d a57b 0c3e 7ce2 f33c
00000250: df87 b2bc 62be 88bc b449 c73d 6360 87bd
00000260: 16d3 d03c be5a a33d e059 21be 3a4d 50be
00000270: bd57 3abc 3bae 273c 3243 223e 80c6 c63d
00000280: 772f d43d da64 a33d b1f7 82bd a56a 103d
00000290: c7cf 8abd 8b3d 0bbd 1ae1 c23d 7eb3 f2bd
000002a0: 8565 a83d 60de a6bb 07b4 96bd 4f4e 333d
000002b0: b7e5 88bd b21d c0bd cea9 9d3d 0ff0 e6bd
000002c0: a841 7fbd a3f2 ae3a 8766 d1bd e336 59be
000002d0: d5be c03d 9913 16be 8ef3 a13d 4c11 2fbe
000002e0: 5283 75bd 5cd7 813d 96e1 d33d 7d5c bc3c
000002f0: 7019 af3d f80f 35be 84b0 b13d bcd2 693e

bias_hh_l1 f4 [192]
0.06518312 0.1830351 0.014248322 0.011710006 -0.051492274 0.1382886 -0.06800364 0.0358776
0.05957078 0.14819115 0.05182533 -0.05774668 -0.053892784 0.09730553 -0.13692866 0.26328918
-0.05084846 0.15871412 0.089737885 0.118500516 0.16221558 -0.054145124 -0.04929513 -0.024981499
-0.10157164 0.11252678 0.14861603 -0.042654138 0.05600352 0.06874113 0.1045709 0.14063537
-0.026888872 0.1311924 0.0774214 0.096035086 -0.06834138 0.10525616 -0.04622505 0.11188232
-0.10880989 -0.0320397 0.15148719 -0.005025335 0.046184447 0.09549457 -0.015769886 0.15049532
0.05690376 0.08898596 -0.096599616 0.07190235 0.08232963 0.17530213 -0.112793 0.035669908
-0.0766757 -0.058823906 -0.042992644 0.22630633 -0.04917198 0.062041003 0.012034321 0.016062897
-0.02075589 -0.18264519 -0.2509281 0.022318281 -0.31277266 -0.17852427 -0.13238408 -0.051775295
-0.17783955 -0.24381374 0.024647854 -0.0044900947 -0.20295931 -0.09439646 -0.2968858 -0.095023505
-0.27849412 -0.21906205 -0.036147464 0.010780654 -0.114497 -0.26631644 0.035829946 0.06450384
-0.018749787 0.080633864 -0.099210426 -0.19643906 -0.18764596 0.051547688 -0.26737744 -0.102323376
-0.057155475 -0.1417642 -0.16458933 -0.106323294 -0.04567811 -0.020007687 -0.44762275 -0.07447262
-0.170999 -0.10559047 -0.097334504 -0.06125309 -0.2851144 -0.05642444 -0.36104178 -0.076418296
-0.26190507 -0.16995461 0.027403891 -0.33089352 -0.29442993 -0.017868115 -0.017366135 -0.25934383
-0.23501813 -0.10520653 -0.27928331 -0.024951153 -0.14012927 -0.109660216 0.030761257 -0.18587139
-0.1542047 -0.056506746 -0.10767416 0.010485249 -0.09387289 -0.036901932 0.08172817 -0.09031628
-0.15538281 0.027542561 -0.03794929 0.06224821 0.033228986 0.15466298 0.08349604 -0.14475271
0.002711852 0.113831505 0.17363214 -0.07136533 0.1745987 0.05368876 0.1049022 0.11823821
0.03971806 -0.1439047 -0.02778728 -0.24883583 -0.13867404 -0.089076765 -0.036946174 0.024497105
-0.03449303 0.06916418 0.03193223 0.018193204 0.027201587 0.1270035 0.036440536 -0.013245934
-0.04440143 -0.023271201 -0.012295873 0.0029414839 0.056546163 -0.02147053 0.044304498 -0.015281346
-0.084318586 -0.14917931 0.06787486 -0.08547036 -0.014786512 -0.1628942 0.008252053 -0.11211385
0.09914987 -0.08124702 0.12875701 -0.08821439 0.09613642 -0.05375025 -0.00791401 0.07923916
00000000: ba7e 853d 8e6d 3b3e cb71 693c 53db 3f3c
00000010: 90e9 52bd 879b 0d3e 7e45 8bbd 64f4 123d
00000020: 7d00 743d 6cbf 173e cc46 543d c887 6cbd
00000030: aebe 5cbd 1f48 c73d 0737 0cbe d7cd 863e
00000040: 7a46 50bd f485 223e 7fc8 b73d 66b0 f23d
00000050: d71b 263e 47c7 5dbd b1e9 49bd 00a6 ccbc
00000060: cb04 d0bd 7174 e63d cd2e 183e 1bb6 2ebd
00000070: f263 653d 26c8 8c3d 4529 d63d b802 103e
00000080: 0d46 dcbc 4d57 063e 1c8f 9e3d 0bae c43d
00000090: 91f6 8bbd 8b90 d73d 7a56 3dbd 8f22 e53d
000000a0: b8d7 debd 0f3c 03bd 751f 1b3e 91ab a4bb
000000b0: e72b 3d3d a892 c33d d92f 81bc 721b 1a3e
000000c0: eb13 693d 453e b63d 05d6 c5bd 8a41 933d
000000d0: 709c a83d 6782 333e 0400 e7bd 9c1a 123d
000000e0: 2608 9dbd 56f1 70bd 0e19 30bd d9bc 673e
000000f0: 8f68 49bd b51e 7e3d 9a2b 453c 5696 833c
00000100: 4208 aabc 5707 3bbe a679 80be d4d4 b63c
00000110: bd23 a0be 11cf 36be b18f 07be 5512 54bd
00000120: 921b 36be 4faa 79be 4cea c93c a521 93bb
00000130: 91d4 4fbe ee52 c1bd 6a01 98be af9b c2bd
00000140: c896 8ebe cd51 60be 5d0f 14bd 57a1 303c
00000150: 677d eabd a15a 88be 6cc2 123d 971a 843d
00000160: 2799 99bc 5e23 a53d d62e cbbd 5227 49be
00000170: 4326 40be ab23 533d b2e5 88be eb8e d1bd
00000180: dc1b 6abd a22a 11be 1b8a 28be 07c0 d9bd
00000190: f818 3bbd 29e7 a3bc cf2e e5be 1a85 98bd
000001a0: 5d1a 2fbe d13f d8bd 5057 c7bd 85e4 7abd
000001b0: 84fa 91be 501d 67bd 78da b8be 3281 9cbd
000001c0: 6c18 86be 9508 2ebe 207e e03c e06a a9be
000001d0: 85bf 96be 2760 92bc 6d43 8ebc b7c8 84be
000001e0: 98a8 70be 8576 d7bd 39fe 8ebe 5c66 ccbc
000001f0: 0c7e 0fbe 8995 e0bd 08ff fb3c 1255 3ebe
00000200: d6e7 1dbe 9e73 67bd 4584 dcbd 52ca 2b3c
00000210: 6e40 c0bd 7b26 17bd 1961 a73d bef7 b8bd
00000220: ac1c 1fbe f0a0 e13c b770 1bbd fbf7 7e3d
00000230: 1e1b 083d f95f 1e3e f9ff aa3d 0e3a 14be
00000240: 54b9 313b 7e20 e93d a0cc 313e fc27 92bd
00000250: 00ca 323e bfe8 5b3d f7d6 d63d e026 f23d
00000260: 68af 223d c15b 13be 26a2 e3bc d2ce 7ebe
00000270: 9100 0ebe e16d b6bd df54 17bd 27ae c83c
00000280: 9048 0dbd f3a5 8d3d 5fcb 023d ea09 953c
00000290: ddd5 de3c 350d 023e ac42 153d 7905 59bc
000002a0: 46de 35bd 3fa3 bebc a174 49bc e9c5 403b
000002b0: f39c 673d f7e2 afbc a278 353d 9c5e 7abc
000002c0: 39af acbd 76c2 18be f901 8b3d 160b afbd
000002d0: 2043 72bc bdcd 26be 9e33 073c f29b e5bd
000002e0: 160f cb3d d664 a6bd e1d8 033e bfa9 b4bd
000002f0: 2ce3 c43d 3929 5cbd c4a9 01bc 2448 a23d
