action_LossPrune/model1_Traffic.pth (torch, 169678 bytes, 12 tensors)

weight f4 [23, 8]
000000 3c 44 f1 be 05 52 a1 bf c9 27 08 bf 96 d1 b9 bf
       -0.4712237 -1.2603155 -0.5318571 -1.4517086
000010 74 19 58 bf 5d 33 a6 3f b2 56 76 be 2a 60 ef 3e
       -0.8441384 1.2984425 -0.24056509 0.46753055
000020 14 29 a3 3f 4f 0e 6e bf 39 9f 81 3f e7 72 ae be
       1.2746911 -0.92990583 1.0126716 -0.3407204
000030 69 83 de 3d 04 0b b6 3f 93 69 93 bf 06 64 af bd
       0.10864908 1.4222112 -1.1516594 -0.08564
000040 43 c5 74 bf b2 91 7a bf 84 18 2e bf 18 f4 b9 be
       -0.956135 -0.97878563 -0.6800616 -0.3631904
000050 c1 9f db be b8 ba a6 bf 6b 2a 01 be 5f 21 b6 3e
       -0.4289532 -1.3025732 -0.12613837 0.35572335
000060 a6 fd 9a 3f 71 ca 75 be fb 40 9d bf c2 04 72 3e
       1.2108657 -0.24003007 -1.2285455 0.23634627
000070 1f e5 14 be 90 30 f8 bf 10 4b 49 bf 2f f9 3f 3f
       -0.14540528 -1.938982 -0.7863016 0.749896
000080 95 93 b7 bf 1d a6 51 40 52 6a f8 bf 6a b7 48 40
       -1.4341913 3.2757638 -1.9407446 3.1361947
000090 d0 e2 93 3f c0 30 95 bf 22 07 7a 3f 5a 56 87 3f
       1.1553593 -1.1655502 0.97667134 1.0573227
0000a0 c8 59 22 3f a5 fa fc 3e 2b ad b0 3f 2e 1b 1a bf
       0.63418245 0.49409977 1.3802847 -0.6019772
0000b0 92 cc 70 be 1f 80 81 bf 2c 67 a8 be 63 d8 e1 3e
       -0.23515537 -1.0117224 -0.32891214 0.44110402
0000c0 cc ec 84 3f 09 06 24 bf 39 3b f2 3f b8 92 01 40
       1.0384765 -0.6407171 1.8924323 2.02458
0000d0 04 66 f6 bf 99 0b 85 bf 61 ef df be 02 0e 42 3f
       -1.9249883 -1.0394164 -0.4373732 0.75802624
0000e0 ac 6f 82 be 4e 39 fa be 96 11 35 c0 82 51 7c bf
       -0.25475824 -0.48871845 -2.8291984 -0.9856187
0000f0 82 39 4f bf b3 7c d6 3f 6b a9 47 3e 84 53 8c 3c
       -0.80947125 1.6756805 0.19498222 0.017129667
000100 0f 3d 96 bf 2b 68 53 bf 05 30 94 3e 21 29 4a 3e
       -1.1737384 -0.8258082 0.28942886 0.19742252
000110 23 3b d9 3f 7b f7 c9 be f3 2c 03 bf 37 3a 4c bf
       1.6971172 -0.39446625 -0.5124046 -0.7977633
000120 d4 19 ef bf d6 f0 96 3d 10 41 b7 be 8e 07 6a bf
       -1.8679757 0.073701546 -0.35791826 -0.9141778
000130 06 28 5e 3f 67 87 a4 bf e7 9d 48 3f 57 3d 87 bf
       0.8677982 -1.2853822 0.7836594 -1.0565594
000140 71 f5 13 3f c7 ed e7 bc 55 39 73 3f 15 16 00 40
       0.5779639 -0.028311623 0.95009357 2.0013478
000150 e2 e7 ad 3d f1 62 c6 be 1e e7 b4 3e b8 b7 12 40
       0.08491494 -0.3874736 0.35332578 2.2924633
000160 fc fd 6f bf 3a 5d 50 bf 73 6d a3 3f 7a 36 85 3e
       -0.93746924 -0.8139225 1.2767776 0.26018125
000170 ef 97 7a be d5 78 f4 bd 8c a4 cd bf 12 a8 81 bd
       -0.2447202 -0.119371094 -1.6065841 -0.06330885
000180 44 29 21 bf 6f b9 c3 bf 69 24 99 be c8 eb 34 c0
       -0.6295359 -1.5290965 -0.2991059 -2.826891
000190 93 5b dd bd 9a 41 db bf 76 4a 31 3f fe 99 05 c0
       -0.10808482 -1.7129395 0.69254243 -2.087524
0001a0 be 85 9b be 40 b3 9b bf 5a 04 20 bd 76 51 0f 40
       -0.30375475 -1.2164078 -0.03906665 2.239347
0001b0 13 74 49 be 94 47 be 3c f1 07 62 bf 51 e7 34 bf
       -0.19673185 0.02322749 -0.8829337 -0.7066546
0001c0 1e 2c 2e c0 be 23 5e bf dc 2d 35 3f dc a3 e7 3f
       -2.7214427 -0.8677329 0.707731 1.8096881
0001d0 dd 6a d5 3f d5 bc ba bf d1 81 1e 3f e7 b0 e1 be
       1.6673237 -1.4588877 0.61916834 -0.44080278
0001e0 14 fd d6 bd f0 01 d5 3f 70 cc 8c be 06 2c 36 3f
       -0.104974896 1.6641216 -0.27499723 0.71160924
0001f0 10 01 71 3e 3b 0a 5f 3f 0a 7a 7e be 40 8a a4 3f
       0.23535562 0.87124985 -0.24851242 1.285469
000200 be ca 6b 3f d7 80 7f be 5d 33 33 bf 22 c0 e1 bd
       0.92106235 -0.24951492 -0.7000025 -0.110229746
000210 e6 b8 81 3f 1a f8 c1 3f 03 06 88 3e 64 2a 63 bf
       1.0134552 1.515384 0.26567087 -0.8873656
000220 71 d1 28 3d 66 c3 c5 3f 7b 3a e7 3c e0 99 8d bf
       0.041215364 1.5450256 0.028226128 -1.1062584
000230 64 71 21 bf a3 a6 6c 3f d3 15 10 bf 77 ea b2 bf
       -0.63063645 0.9244177 -0.562833 -1.3977803
000240 12 8c 1d c0 b5 98 56 bf 8b ea b1 3f ef 8e 6d bd
       -2.4616742 -0.8382676 1.3899702 -0.05799764
000250 56 79 42 bf 2b e6 9a 3f 4c 2c 7f 3f 91 51 ff 3f
       -0.75966394 1.2101492 0.99676967 1.9946767
000260 28 ce 35 3c 3a 5a 09 40 2f d8 b9 bf 88 84 96 bf
       0.011096515 2.146132 -1.4519099 -1.1759195
000270 6e 6a 3e 3f 4a ed f0 3d 34 87 c0 bf d9 ec 91 3e
       0.7438115 0.11764009 -1.5041261 0.28501013
000280 55 5c 66 3f 21 2a 5f bf 4e 5d 7e 3b 6f 47 e8 3e
       0.8998464 -0.8717366 0.0038812938 0.45367
000290 04 fe 28 40 42 70 07 c0 00 f2 c6 be b6 8f d1 be
       2.640504 -2.1162267 -0.38856506 -0.40929955
0002a0 a0 45 c4 be 08 77 5f bf 55 9d 01 be b3 47 55 3f
       -0.3833437 -0.87291 -0.12657674 0.8331253
0002b0 50 08 cc 3f f8 44 f4 3e a8 f5 bd bf ae 64 99 3f
       1.5940037 0.4770887 -1.4840593 1.198385
0002c0 1e b0 5b 3f 41 4e 9a 3f 46 ec 97 bf ea 0d 6a bd
       0.8581561 1.2055131 -1.186898 -0.057142176
0002d0 3d 67 b7 bf 9c 7d 0b bf b5 55 0f bf 49 86 2f 40
       -1.4328381 -0.5448854 -0.55990154 2.742571

weight_ih_l0 f4 [192, 9]
000000 1f 33 68 bd 24 e5 2f be ba d5 3d 3b 07 1a 91 be
       -0.056689378 -0.17177254 0.0028966502 -0.2834017
000010 a1 e2 42 3e 86 75 c5 3d 8c ce 2b 3e 88 cf e3 3c
       0.19031765 0.096415564 0.1677801 0.02780892
000020 4e 5b ee bd 02 cb 09 3e 5b 54 f3 3d 53 ce 22 be
       -0.11638509 0.13456348 0.11881324 -0.15899019
000030 1f 9e be be 0d c8 2d be d9 80 39 be cd 0f b7 3e
       -0.37230012 -0.16970845 -0.18115558 0.35754243
000040 fa 1c 95 be b1 10 f8 bd aa d0 ce 3e 2c 1e 0b be
       -0.2912367 -0.12112559 0.40393573 -0.13585728
000050 77 33 a5 be 41 bf b4 3d 54 1a 64 3c 8a 3b 12 bd
       -0.32265827 0.08825541 0.013922293 -0.035701312
000060 80 3f a6 3d 9d 58 0b 3d 51 e5 47 be 69 3b 03 bd
       0.081175804 0.034020055 -0.19521071 -0.03203908
000070 51 f8 7f be 02 a2 8a 3e f5 dc 22 3d be fa 1c be
       -0.24997069 0.27076727 0.039761502 -0.15330026
000080 07 06 09 bd 04 a2 65 3e 8d f5 41 3e 8c 50 60 ba
       -0.033453014 0.22425085 0.18941326 -0.00085569243
000090 d7 1d ca bc e4 59 15 be a0 27 70 3e b6 2e 87 be
       -0.024672432 -0.14585072 0.23452616 -0.26402825
0000a0 21 48 09 3e c8 43 83 be db d1 85 3d 46 a5 0c 3e
       0.13406421 -0.2563765 0.065341674 0.13734922
0000b0 b3 85 d0 3c 4a 35 6f be 64 7e 27 be 8c 59 69 be
       0.025454378 -0.23360172 -0.16356808 -0.22788066
0000c0 ff e0 ce be 07 17 d3 3c e9 77 7d bc 59 d1 de bd
       -0.40406033 0.025767816 -0.015470483 -0.10879774
0000d0 4d 77 74 3e c7 ed 50 bd 89 ad 42 3e 86 9f 3b be
       0.23873635 -0.051008012 0.19011511 -0.18322572
0000e0 9a 4d b8 3e 9a 2f 0e bd e9 37 d2 bd 96 36 62 bd
       0.35996705 -0.034713365 -0.1026457 -0.05522784
0000f0 0d 0a 90 3b aa ea 0a 3e f4 11 c7 bd db 9c fd bd
       0.0043957294 0.1356608 -0.09720221 -0.123834334
000100 76 fe ef bd 49 38 81 3d 92 31 65 3e a9 04 67 be
       -0.117184564 0.06309564 0.22382191 -0.22560371
000110 46 0a ea 3e 36 96 a3 bc dd 56 2c 3f 2c 3a 02 bf
       0.45710963 -0.019969087 0.6732004 -0.50870013
000120 63 59 46 3f ff de 8a 3e 55 06 c8 bd a7 4b 54 3e
       0.77480143 0.27123258 -0.09766833 0.20731984
000130 c5 49 4b bd 30 5c d6 bd c8 3d 26 be 7b 91 93 3e
       -0.0496309 -0.10466802 -0.16234505 0.2882193
000140 a3 dd f9 3d f7 b0 59 be 5d 67 f4 3d 79 c9 2b be
       0.12200477 -0.21258913 0.119337775 -0.16776074
000150 51 0c 85 be c1 a0 62 be 05 a8 80 3e 12 0f 82 3d
       -0.2598596 -0.22131635 0.2512819 0.06350531
000160 2f 25 c7 be b7 31 ad bd 84 bf 31 be 37 3b d1 3d
       -0.38895556 -0.08456748 -0.17358214 0.102163725
000170 99 fa 18 3e 41 1c 23 3e 71 ad 88 3e 5f e3 ac bd
       0.14939345 0.15928747 0.26694825 -0.08441805
000180 69 e8 af 3e b7 fe d8 3d 1d de 63 bd cc 08 45 be
       0.34357002 0.10595458 -0.055631746 -0.19241637
000190 04 86 f7 bd 38 83 2b be 46 f6 25 be 7b 2b 50 3e
       -0.12086108 -0.16749275 -0.16207227 0.20329086
0001a0 ed 68 dd bd d2 75 29 3d 73 3e 0d bf 70 7e 7d 3e
       -0.10811029 0.041372128 -0.55173415 0.24755263
0001b0 ca 3e 4d 3e 5e 3f 4b 3c c1 07 85 3e 81 e8 07 bd
       0.20043483 0.012405245 0.25982478 -0.033180717
0001c0 42 f8 2b 3e ec 9a d1 3d 69 9e 71 be 6f de e0 3d
       0.16793922 0.10234627 -0.23595585 0.10979926
0001d0 e1 f5 77 3d 45 5d 6f be 13 52 86 be af b9 5e be
       0.060537223 -0.23375423 -0.26234493 -0.2175052
0001e0 cd 97 3b 3e 41 4f 12 be ea af 42 be 14 5a 45 3e
       0.18319626 -0.14288045 -0.19012418 0.19272643
0001f0 95 13 1d bd 08 a7 e3 be f6 03 4c be fe f6 0d be
       -0.038348753 -0.44463372 -0.19923386 -0.13863751
000200 6f a4 3e bc 79 f2 48 3e 87 8b 4b 3d 7f 40 8e 3e
       -0.011635884 0.19623746 0.04969361 0.27783582
000210 5e 07 a4 3e dc ae e0 3e 0d 8b 9b be 86 42 d4 3c
       0.3203687 0.43883407 -0.30379525 0.025910627
000220 c8 2f 8d 3d 86 5e f0 3c ff 89 ee be 8e fe b8 be
       0.06893879 0.029341947 -0.46589658 -0.3613171
000230 b2 ab 27 be 95 28 8c 3e 95 2e 88 be be ed 46 bc
       -0.1637409 0.27374712 -0.2659804 -0.012141643
000240 42 15 7d 3e 58 32 26 be 2b f5 da bd e7 5a ad 3e
       0.2471514 -0.16230142 -0.10691293 0.33858415
000250 49 a9 80 bd 6e ff dc 3d 7f 13 a9 3c 59 ef 0f be
       -0.062822886 0.10790907 0.02063918 -0.14056148
000260 75 ab e2 be 65 fa d4 3c 05 33 e2 3e cb 47 a8 3e
       -0.44271436 0.025998304 0.4417955 0.32867274
000270 1d 0c 89 bd 19 f3 03 bf 45 8c 44 be 0d 69 07 3d
       -0.066917636 -0.5154281 -0.19194134 0.03305917
000280 50 b2 84 3e f7 52 0e bb 5b 3d 1b 3c a9 b8 c3 3c
       0.25917292 -0.0021716931 0.0094750775 0.023891764
000290 9f ac 2d 3e 70 80 d8 3d 78 07 c1 be e9 97 e9 3e
       0.16960381 0.105713725 -0.3770101 0.4562371
0002a0 7a 79 40 be 7c 2e 1b 3e d1 67 f8 be 0d a3 11 bc
       -0.1879634 0.15154451 -0.48516706 -0.008888972
0002b0 07 ba 1c be 0a 71 8a 3e 8b 4b 82 be e0 ae 19 bf
       -0.15305339 0.27039367 -0.2544826 -0.60032463
0002c0 ce bf 25 3e 7d 55 6f be 61 71 07 3f f3 26 47 3e
       0.16186449 -0.23372455 0.5290738 0.19448452
0002d0 fb 9b 90 bd 19 cc 54 be b8 50 48 bd 79 89 f6 be
       -0.07061001 -0.20780982 -0.048905104 -0.48151758
0002e0 ce 28 0c 3e fc 8e 8a 3e 30 2b 0a 3e b7 61 ec 3d
       0.13687441 0.27062213 0.13493037 0.11542075
0002f0 63 06 be be 13 65 c4 3d 10 7d d2 be 40 72 80 be
       -0.37114248 0.09589591 -0.4111104 -0.25087166
000300 61 ba c9 3e dd 5f 3b 3e 91 0f 3c 3e d0 04 7e be
       0.39400008 0.18298288 0.18365313 -0.24806523
000310 14 70 82 be 78 f0 45 3e 09 66 85 3d 93 c7 fd ba
       -0.25476134 0.19330013 0.06513602 -0.0019361846
000320 09 d5 46 be d5 db 5b 3e 5f 84 88 3e a4 53 ec bc
       -0.19417204 0.21470578 0.2666349 -0.028848477
000330 bf 3f 07 be 71 2b 08 be a1 24 cd 3e ed b5 2b bd
       -0.13207911 -0.13297822 0.40067008 -0.041921545
000340 aa 68 4c be 65 6a 95 3d 7c 49 5c 3d 27 cc af 3d
       -0.19961801 0.07295684 0.053781018 0.08583861
000350 69 c6 f5 bd be 8b 84 be 4f 11 9b be df e8 8c 3e
       -0.12000734 -0.25887865 -0.30286643 0.27521417
000360 4d 9e a7 3c cc 71 d1 bd 02 28 57 3e c3 34 89 3d
       0.020461226 -0.10226783 0.21011356 0.066995166
000370 eb a2 3e bd 08 f7 68 be 10 a5 82 3e 51 8b ba 3e
       -0.04654209 -0.22750485 0.25516558 0.36434415
000380 57 eb a3 bd 62 c8 c1 bd ae 35 94 3e fb 70 99 3b
       -0.08003872 -0.09462048 0.28947204 0.004682658
000390 89 03 23 3d bd eb 98 3e 80 ab 95 3d ed 72 de be
       0.039798293 0.29867354 0.07308102 -0.43447056
0003a0 c1 bc a9 bd 43 25 89 3b a2 7b 72 3e b7 f5 19 3e
       -0.08287955 0.00418535 0.23679975 0.15035139
0003b0 0a 6e 39 3d 1d 9b b6 be a4 15 1f bc 5d c9 f2 be
       0.045270957 -0.35665217 -0.009709749 -0.47419253
0003c0 4e 18 8f be 18 5a c1 3e 47 9a af 3e c0 b3 86 be
       -0.2794823 0.3776405 0.34297392 -0.26309013
0003d0 0c ac f2 bd e6 ed c6 3e ac 97 99 be f8 e0 de 3e
       -0.118492216 0.38853377 -0.2999853 0.43531013
0003e0 aa 16 a8 3e 0a 33 12 be e2 6e 60 3e 7a 74 b2 3e
       0.3282979 -0.14277282 0.21917298 0.3485449
0003f0 e9 1e 61 bd 4b 9e 2a bf 42 1f 42 3e 82 49 54 3e
       -0.05496112 -0.66647786 0.18957236 0.20731166

weight_hh_l0 f4 [192, 64]
000000 ac 25 eb 3d 2f 21 0a 3d 8f 5c 76 3e 00 7b 2a 3d
       0.11481795 0.033723053 0.24058746 0.04162121
000010 46 05 9f bd 9d 94 ff bd 8f 86 b0 3d 38 ce 32 3d
       -0.07764678 -0.124795176 0.08619415 0.043653697
000020 c6 8c 38 be 0c a6 76 3d 0f af d7 3d 70 0c a8 3c
       -0.18022451 0.06021695 0.10531437 0.020513743
000030 24 28 f7 bd fe a8 2c bd d6 de 5a 3e 5c c0 15 3e
       -0.12068203 -0.04215335 0.21374068 0.1462416
000040 a0 1b fb 3d 44 58 1f be 3c 78 a0 bd 03 26 f2 bd
       0.122611284 -0.15561014 -0.07835433 -0.118236564
000050 ed 57 f1 3d 8e 0b 15 3c c1 be 43 bc b3 d5 69 be
       0.11784349 0.009096993 -0.011947335 -0.22835426
000060 d1 02 cb 3d 5e 22 97 3c 1c 6d 5e 3d 4d b8 8d 3d
       0.099126466 0.018449005 0.054303274 0.06919918
000070 33 09 17 3d f2 3b 57 be a6 73 b3 3d fc 57 6f 3d
       0.036874007 -0.21018961 0.087622926 0.058433518
000080 3f 3d f3 3c d7 85 a8 be f6 b6 1c 3d d8 23 b2 3e
       0.02969229 -0.32914612 0.038260423 0.34792972
000090 74 aa 06 3e 57 1d 86 3e 8a c4 10 3e 32 79 80 bd
       0.1315096 0.2619426 0.14137474 -0.06273116
0000a0 d3 3b a1 3e ca b7 54 be c4 f8 78 be 91 e7 be bb
       0.31490955 -0.20773235 -0.24313647 -0.0058259447
0000b0 63 43 9b bd cf 31 08 be bf 39 71 3d 1d 79 4c bd
       -0.07581212 -0.1330025 0.05889296 -0.04992019
0000c0 c7 da 83 3d 14 78 2c 3e ca 39 36 be 63 00 98 3c
       0.06438213 0.16842681 -0.17795482 0.018554872
0000d0 24 00 56 be 21 f4 d5 3d f4 21 14 be 4e 5b b4 bd
       -0.20898491 0.104469545 -0.14466077 -0.088064775
0000e0 0c 56 ad 3d 8f de 3e 3e f9 47 ac bd 55 dd 13 bd
       0.08463678 0.18639587 -0.08412165 -0.03609975
0000f0 60 86 a7 bd f0 47 ac be 6b 53 fb 3c 51 9c 53 3e
       -0.08179927 -0.33648634 0.030679425 0.20665099
000100 dc af 29 be fc b7 ed bd 0d 3f 87 3e b5 59 03 be
       -0.16570991 -0.11607358 0.2641529 -0.1282719
000110 16 4e a6 3d 71 94 62 3d dd 1d dc 3d b7 b9 05 3d
       0.081203625 0.055317346 0.107478835 0.032647815
000120 f5 99 9a 3d e9 7a c1 bd 8e 23 a6 bd 28 ea 63 3e
       0.07548896 -0.094472714 -0.0811225 0.22257292
000130 a0 af a5 3b 1d 2e ac 3c ae 74 9d be bd 03 83 3e
       0.0050563365 0.021018082 -0.30753082 0.2558879
000140 1e 28 67 3d ec 87 e4 bd 86 12 8b bd 91 89 16 3e
       0.056434743 -0.111587375 -0.067906424 0.14700915
000150 49 6f 1c 3e da e7 1d 3d f1 47 05 3e 0b b2 db bd
       0.15276827 0.03855119 0.13015725 -0.107273184
000160 a5 76 48 3e bb ff 31 be 3a 92 7c 3e 2a 1a f8 3b
       0.1957651 -0.1738271 0.24665156 0.0075714784
000170 9f df 82 3e 6f ee 5e bd 37 3e b3 3d 18 e9 8f 3e
       0.25561234 -0.054426607 0.08752101 0.28107524
000180 14 70 98 3e 1b 65 30 3d 39 b1 99 bd 1b 2e b4 bd
       0.2977301 0.04306517 -0.07504506 -0.087978564
000190 83 fc 40 bd 99 39 37 3d fc f7 56 be fb 78 a6 3d
       -0.047115814 0.044732664 -0.20993036 0.08128544
0001a0 47 22 b2 3d 76 9f 02 bd eb f7 4e be f2 0f 39 be
       0.08697944 -0.031890355 -0.2021176 -0.18072489
0001b0 ee 7c 03 3e 3a b8 12 be 6c a1 89 bd 08 9c d6 3c
       0.12840626 -0.1432809 -0.06720242 0.026197448
0001c0 c3 6a 82 bd 3c 5f 9c 38 70 78 16 bd e4 f5 40 bc
       -0.063680194 7.4563985e-05 -0.036735952 -0.011777375
0001d0 44 a0 70 be 68 0d 02 3e ca 26 ea bd c9 32 db 3d
       -0.23498636 0.12700427 -0.1143318 0.10703046
0001e0 fc 7b 76 3e 1f 39 6b 3c b9 52 09 3d 3f 75 69 3e
       0.24070734 0.01435688 0.033526156 0.22798632
0001f0 6f 92 b1 3d 2a ac 48 bd 19 50 97 3c 3a c2 84 3e
       0.08670508 -0.048992313 0.01847081 0.25929433
000200 81 7d 0b bb 80 ce 31 bd 57 25 53 3c 69 64 82 bd
       -0.0021284523 -0.043409824 0.0128873205 -0.06366808
000210 ad be 6d bd 70 40 23 be a8 0c eb 3c 34 62 6a bd
       -0.05804317 -0.1594255 0.028692558 -0.05722256
000220 53 92 28 be a7 5b 3c 3e ab 76 d7 3d 50 5b 74 bd
       -0.16462068 0.18394338 0.10520681 -0.059657395
000230 a7 d8 d1 bd 91 90 35 3e 56 c6 b0 3d bb 92 cc 3c
       -0.10246401 0.17730929 0.086315796 0.02497231
000240 de 22 6c bc 42 d4 75 3d e4 44 08 be 2d 34 13 be
       -0.01441261 0.060016878 -0.1330753 -0.14375372
000250 15 82 b7 bd 35 7a 05 be fe f5 0e 3e 4d 88 99 3d
       -0.08960358 -0.130349 0.13961026 0.074967004
000260 d2 db 00 be e9 55 97 3d a8 41 2d be 8f e9 19 3e
       -0.12583855 0.07389433 -0.16919577 0.15030502
000270 da ab d0 bd c4 13 bb bd 0d 34 22 3e 0d 0c 35 3e
       -0.10189028 -0.09134629 0.15840168 0.17680378
000280 65 82 27 bd 14 69 d5 bd ef cd 13 3e 73 b7 8c 3d
       -0.04089584 -0.10420433 0.14434026 0.06870928
000290 43 86 26 be e6 05 51 3d 6e db 92 bd 20 cc 30 bd
       -0.16262154 0.051031016 -0.07170759 -0.04316342
0002a0 a3 13 fc bc b4 46 84 3c c7 03 6d 3d b5 ca 7c 3e
       -0.030771082 0.016146995 0.05786493 0.24686702
0002b0 b2 a9 31 3d 8d 25 0a bd f5 d1 55 3e ac a5 f8 bd
       0.043374725 -0.033727217 0.20880874 -0.121409744
0002c0 fd 0a 85 3d cd f9 b5 bc d1 74 6c be 7c 6f aa bd
       0.064962365 -0.02221384 -0.23091437 -0.08322045
0002d0 49 3d a0 be 75 48 f1 3c 83 98 0b be be 85 1b bd
       -0.31296757 0.029453496 -0.13632397 -0.037969343
0002e0 9c 06 11 3e fe e3 be 3d 05 8b ec 3d b2 93 58 bb
       0.14162678 0.0932083 0.11549953 -0.0033047018
0002f0 5f 09 91 3d cd 00 df 3c 1b eb 47 be f5 e1 03 bd
       0.070818655 0.027222062 -0.1952328 -0.03219791
000300 56 b3 7c 3e 86 44 ee bc dc c0 1b bd 6f c7 ad bc
       0.24677786 -0.029085409 -0.038025722 -0.021213261
000310 a1 82 76 3d aa 82 c6 3d 3d 51 b2 3d d3 2d 53 3d
       0.06018317 0.09692891 0.08706901 0.051557373
000320 64 7e 4d 3e 02 ed 9c bd 6b 81 66 be 92 69 96 3e
       0.20067745 -0.07662393 -0.22510307 0.2937742
000330 6d bc 15 3e a9 c5 57 3e e0 13 ac bd d4 0e db 3c
       0.1462266 0.21071495 -0.08402228 0.026740469
000340 5b d8 19 3e 75 17 6e bd 3f e9 72 3d f7 f4 5a 3e
       0.1502394 -0.05812784 0.059304472 0.21382509
000350 ff ba ad be 8f a2 66 be 3e 5b 5e 3e fc a0 fc 3d
       -0.3393173 -0.22522949 0.21714494 0.12335393
000360 f3 01 a5 3c d2 52 78 3e b3 2c 93 3d d3 5b 01 3e
       0.020142531 0.24250343 0.0718626 0.12632684
000370 69 d6 ef bc e6 d4 4d be cc c5 1c bd ab b1 15 3e
       -0.029277043 -0.20100746 -0.03827457 0.14618556
000380 ad 58 f9 3d e5 aa fc 3d f1 22 9c 3d 99 ee dd bd
       0.12175117 0.12337283 0.07623852 -0.108365245
000390 95 2d c9 3c 88 69 9f 3d 4c 85 6c bd b5 38 19 be
       0.024557868 0.077838 -0.05774431 -0.14963038
0003a0 61 a3 ae bd 72 cf 7b be 1b b6 12 be 0f 71 c4 3c
       -0.08527256 -0.24590853 -0.1432728 0.023979692
0003b0 a2 d6 e9 3e 81 b8 85 3d 0f c2 3d 3d 09 ef 30 be
       0.45671564 0.06529332 0.046327647 -0.17278685
0003c0 38 b4 e6 3d a7 96 24 3e b4 2b 4d 3d 7a 41 53 3d
       0.11264843 0.16073094 0.050090507 0.051576115
0003d0 ed 25 8f bb e0 89 13 bd 54 40 ea 3d b0 90 2e be
       -0.004368535 -0.03602016 0.11438051 -0.17047381
0003e0 f3 9b 1c 3e 46 a2 6f 3d fc 7d 38 be 3a ea 15 bd
       0.15293865 0.058504365 -0.18016809 -0.03660033
0003f0 9b 94 20 3e 92 66 14 be 16 de a2 bd 8f 32 6e 3e
       0.15681688 -0.14492252 -0.07952516 0.23261474

bias_ih_l0 f4 [192]
000000 6c 2b 20 3e 91 42 80 bd 54 31 eb 3c e5 ce 84 3d
       0.15641564 -0.062626965 0.028710045 0.064847745
000010 a4 55 b6 3d b3 9e b3 3d aa 63 8e 3d 27 3b ca 3d
       0.089030534 0.08770504 0.06952603 0.09874564
000020 71 49 66 3d db c3 a0 3d c8 23 42 bd cb 99 d8 3c
       0.056222383 0.078498565 -0.047397405 0.026440522
000030 64 fa 89 bd 93 3b 32 3e 1a 92 6b bd bc aa 04 3d
       -0.06737211 0.17405538 -0.05751238 0.032389387
000040 4a 28 30 3e 78 ce bd bc 56 7d d5 3d 55 c5 c9 3d
       0.17202869 -0.023169741 0.104242966 0.09852091
000050 7f b2 56 bd 90 5a a5 bc b3 2c 4a 3e 08 41 b2 3d
       -0.05241632 -0.020184785 0.19743614 0.0870381
000060 40 90 0a bc e7 55 10 bd 6d c9 4a 3d f8 42 b7 3d
       -0.008457243 -0.035238173 0.0495085 0.0894832
000070 b7 7c 19 3e 26 fd 11 3d f6 10 7e bd 5f cd e6 3d
       0.14988981 0.03564181 -0.062027894 0.1126964
000080 1d 5c 00 3d 6e d9 e4 3d 37 c5 10 bc 39 76 86 3d
       0.031337846 0.11174284 -0.008836082 0.06565518
000090 a2 c6 82 3d e5 bc 5a bd 55 65 57 3e 29 a1 49 3d
       0.063855425 -0.0534028 0.21034749 0.04922596
0000a0 e6 0c e0 bc 39 59 9f bd e9 d4 7a bd b0 f1 9e 3d
       -0.0273499 -0.0778069 -0.061238203 0.07760942
0000b0 a2 6a 22 bd 4f 12 c0 3d c1 0b a5 bd 11 e4 17 be
       -0.039652474 0.09378492 -0.080588825 -0.14833094
0000c0 c8 c7 5a bd 5f 6f db 3c 66 fe 89 3b a6 99 47 bd
       -0.053413182 0.026786504 0.004211235 -0.048730515
0000d0 7c 7b 5f bc 2d c0 a6 3d f5 ec 96 3d 1f 52 be 3d
       -0.013640281 0.08142123 0.07369415 0.09293007
0000e0 db e7 de 3d 8e a0 4d 3e d0 2b 99 bd 20 57 68 3d
       0.10884067 0.20080778 -0.0747906 0.056723714
0000f0 72 5f 03 3e 44 58 98 bd 22 01 d6 3d 4c f8 08 be
       0.12829378 -0.0743871 0.10449435 -0.13375968
000100 da d9 e5 bd 6c 76 bf be 97 fa 01 bf 95 f6 b4 be
       -0.112231925 -0.37395036 -0.50772995 -0.35344377
000110 a6 26 02 bf 0e 77 ca be c9 82 98 be 56 c0 0f bf
       -0.5084022 -0.39543957 -0.2978728 -0.56152856
000120 90 96 39 bf 9f f2 8a be 49 f3 c0 be 1f 26 11 bf
       -0.72495365 -0.2713823 -0.37685612 -0.56698793
000130 ad 30 0b bf 92 53 81 bc d8 9d 92 be 1f 92 20 bf
       -0.5437115 -0.01578692 -0.2863605 -0.62722963
000140 bf 66 b3 be 29 18 3a bf 2b ee 0b bf 43 15 b5 be
       -0.35039327 -0.72693115 -0.5466029 -0.35367784
000150 7f 9b c2 be bc 1e 88 be 8b ad 4f be 5e 94 da bc
       -0.3800926 -0.26585948 -0.20281045 -0.026682075
000160 20 0c 01 bf 85 d5 1b bf e9 56 00 bf 35 66 cc be
       -0.50409126 -0.6087268 -0.50132614 -0.39921728
000170 e4 1b ae be bd b3 cd be 65 67 0d bf 88 86 e4 be
       -0.34005654 -0.40176192 -0.5523589 -0.4463389
000180 2c c6 8a be 3c a6 26 bf 97 92 c1 be c5 56 53 be
       -0.27104318 -0.65097404 -0.37807152 -0.20638569
000190 1c 59 bd be 79 74 ae be 7f 2e 95 be 25 04 b3 be
       -0.36982048 -0.34073237 -0.29137036 -0.349641
0001a0 51 fc cc be 7b bc 2c be a6 35 cb be 00 53 2b be
       -0.40036252 -0.16868775 -0.39689368 -0.1673088
0001b0 3a 80 b6 be 88 af 4d be c8 0d 56 bf 07 40 97 bd
       -0.35644704 -0.20086491 -0.8361478 -0.07385259
0001c0 32 20 51 be db 10 ff be 27 0e ad be ac 22 ba bd
       -0.20422438 -0.49817547 -0.3379986 -0.090886444
0001d0 aa 3c d4 be a0 75 00 be cd a8 ae be 17 a2 f1 be
       -0.41452533 -0.1254487 -0.3411316 -0.47193977
0001e0 fb b6 ec be a9 b2 e0 bd 28 92 37 bf a3 a1 47 bf
       -0.46233353 -0.10971577 -0.7170739 -0.77981013
0001f0 9f 31 02 bf 5c 25 df be ca e2 08 bf 0b 19 db be
       -0.50856966 -0.4358319 -0.5347105 -0.42792544
000200 24 75 29 3d fe 78 18 be 71 b3 7a 3d 97 93 54 be
       0.04137148 -0.14889905 0.061206285 -0.20759426
000210 87 21 f9 3d 63 56 74 be c7 e2 49 3e 91 90 cc bc
       0.12164598 -0.23861079 0.19715415 -0.024971278
000220 bc 98 20 3e a5 24 5f 3d c2 ff ae bd 31 8e ba 3d
       0.15683264 0.054478306 -0.08544876 0.09109152
000230 3c 19 07 3e 3d 23 0d 3e 80 bf 6c bd 2f 82 8a bd
       0.1319322 0.13782974 -0.057799816 -0.06763112
000240 4e 04 1d 3e 2b da 13 3e 15 5e 77 3b 00 67 ef bd
       0.15333673 0.14438693 0.0037745286 -0.116895676
000250 4a 13 1a 3d 26 89 d5 3d cf f4 29 3e 5a c1 87 3d
       0.03761605 0.104265496 0.16597293 0.06628676
000260 c4 49 5d 3d 0e c5 e0 bc 4a 69 c1 bd 81 50 42 be
       0.054025427 -0.027437713 -0.094439104 -0.18976022
000270 79 e8 12 3d 96 83 00 3e 03 9e 81 bc 67 77 18 3e
       0.035866234 0.12550196 -0.015822416 0.14889298
000280 f8 f1 1f 3e 40 2a 9f bc 99 a7 2a 3b 27 7a 49 bd
       0.15619648 -0.019429326 0.0026039837 -0.04918876
000290 af 7f 65 bd 2a b4 3d bd 32 f7 0d bd 7c 6c 83 3c
       -0.05602997 -0.046314396 -0.034659572 0.01604294
0002a0 ae 9a 2a 3e 2d fd 80 bd 14 6d d3 3d 17 dd 85 bd
       0.16660568 -0.062982894 0.103235394 -0.0653631
0002b0 2b 59 87 3d 5c 63 0f be bd be 87 3c e0 07 3e be
       0.06608804 -0.14002746 0.016570443 -0.18557692
0002c0 47 58 9c 3d 2b a6 86 bd f1 ac 66 be 8b b0 2f be
       0.07634025 -0.06574663 -0.2252691 -0.1715719
0002d0 f1 32 1b bd 5d 96 94 3d a8 e2 e6 3d 4c 4b b6 ba
       -0.03789038 0.07255242 0.112737 -0.0013907938
0002e0 bc 79 0c 3d 89 2c 30 3e cf 48 e7 bd e7 07 3e bc
       0.034295782 0.17204489 -0.11293184 -0.011598564
0002f0 12 98 7d bc a5 c5 b4 3d e4 a5 78 bd b9 c7 4d 3e
       -0.015478151 0.0882676 -0.06070508 0.2009572

bias_hh_l0 f4 [192]
000000 56 ff c1 3d 77 65 c8 3c 65 91 78 bd 31 35 8e 3e
       0.094725296 0.024462445 -0.060685534 0.27774957
000010 0b 98 d0 bc 02 81 c5 3d f2 04 c4 bb e0 ab 5e 3d
       -0.025463125 0.09643747 -0.005982035 0.05436313
000020 c3 7d 6e bd 80 dd cc 3d c8 e8 2f 3d df ce 06 3e
       -0.058225404 0.10003185 0.042946607 0.13164853
000030 5a bf 7a bd 0d ff 28 3e b3 01 90 3d 04 6f 22 bc
       -0.061217643 0.16503544 0.07031574 -0.0099141635
000040 b2 03 2b 3e 24 bd c6 3c cf cc 63 bd 4a 0b 32 3e
       0.16700628 0.024260111 -0.055615243 0.17387119
000050 3d 0c 04 3e c6 5a f8 bc e7 19 33 3e da e0 a1 bd
       0.12895294 -0.030316722 0.1749035 -0.07904215
000060 dd 00 42 3d f8 46 4b 3d ac d6 25 bd bd ea d7 bd
       0.047364105 0.049628228 -0.04048793 -0.1054282
000070 7e 58 02 3e fc 82 0f 3e 34 6f c9 3c c9 4d 56 3e
       0.1272907 0.1401481 0.024589159 0.2092811
000080 24 8d d9 3d 08 0b e5 3d cd 12 bf 3d a7 d2 aa 3c
       0.106226236 0.11183745 0.09329758 0.0208524
000090 2e f3 f7 3d 5b 83 af bc 30 be 6d bb 32 c8 d1 bd
       0.1210693 -0.02142494 -0.003627669 -0.10243262
0000a0 b0 79 d2 3d 2b b8 27 bc 1f 90 b5 3d b8 66 d6 3d
       0.10277116 -0.01023678 0.088653795 0.10468811
0000b0 5a 1f 12 3e 73 15 8e 3d b3 a3 37 3d cf b2 6f 3d
       0.14269772 0.06937685 0.04483385 0.058520135
0000c0 46 70 60 bd 35 85 4a 3e 52 69 07 3e 77 2c 57 3d
       -0.054794572 0.19777377 0.1322377 0.05253264
0000d0 22 aa ce 3d d8 b4 0e 3e 63 2d b7 bd 7e 63 10 3e
       0.10091044 0.13936174 -0.08944204 0.14100453
0000e0 da c2 70 3d 1e c9 f9 3d 71 1b c7 bd e1 ec b5 3d
       0.058779575 0.12196563 -0.09722031 0.08883072
0000f0 56 e6 ed 3d 59 2d cc 3c 88 64 b5 3c b9 b9 d8 bd
       0.11616199 0.024923967 0.022142664 -0.10582299
000100 92 38 35 bd d5 c1 f8 be 10 43 d1 be a6 46 bf be
       -0.044243403 -0.48585382 -0.40871477 -0.37358588
000110 ae 6c 02 bf ef ad e7 be 1b 85 b8 be 67 a4 20 bf
       -0.5094708 -0.45249888 -0.3603905 -0.6275086
000120 40 a3 57 bf 22 1f 51 be ad 62 cf be fc ae 1c bf
       -0.84233475 -0.20422032 -0.4050497 -0.61204505
000130 20 f5 0f bf 44 7c 73 be fd a0 eb be 87 50 0d bf
       -0.56233406 -0.23777872 -0.46021262 -0.55201
000140 65 b1 ba be ac ad 37 bf 21 02 e9 be 67 9f d9 be
       -0.36463466 -0.7174938 -0.45509437 -0.42504427
000150 ff 8d cd be c7 52 60 be c4 25 9f be a6 4a 85 bc
       -0.40147397 -0.21906577 -0.310835 -0.016270947
000160 31 a3 2b bf 02 bf 1e bf 92 3f 2c bf 58 d8 ff be
       -0.67045885 -0.62010205 -0.672845 -0.49969745
000170 88 69 83 be 4f 59 06 bf a5 58 1a bf d6 f4 d4 be
       -0.2566645 -0.52480024 -0.6029151 -0.41593045
000180 4c 2d a0 be 52 97 ef be 8c 8e fe be f9 70 e4 bd
       -0.3128456 -0.46795136 -0.4971813 -0.1115436
000190 2e b0 a8 be 52 2f f0 be a0 e9 6b be dc 9c 8a be
       -0.32946914 -0.46911103 -0.2303834 -0.270728
0001a0 c1 46 cd be 8c d0 8b be e4 6d f8 be 2c 90 87 bd
       -0.40093043 -0.27307546 -0.4852134 -0.066192955
0001b0 20 e4 e2 be 74 e2 b1 be 07 dc 5d bf 71 37 66 bd
       -0.4431467 -0.34743083 -0.8666386 -0.056205217
0001c0 f1 9c ae be 7f 44 c5 be 5e 40 ac be a0 cc e7 bc
       -0.34104112 -0.3852882 -0.33642858 -0.028295815
0001d0 f8 48 1b bf 9a 4f 54 be fb 88 ee be b0 b9 ec be
       -0.60658216 -0.2073349 -0.46588883 -0.46235418
0001e0 5d e2 14 bf 04 ee 9d be 17 93 07 bf 20 7a 30 bf
       -0.581579 -0.30845654 -0.52958816 -0.6893635
0001f0 bc b7 d9 be 5f fd a8 be 77 de 0d bf bf fb e6 be
       -0.4252299 -0.33005807 -0.5541758 -0.45113942
000200 d0 bf 38 3d 50 92 07 bd 1c 2f 8e 3c 36 4b 94 be
       0.0451048 -0.03309852 0.017356448 -0.2896363
000210 22 8c 46 3c 9e 01 75 be 3b 67 ed 3c 4a 2b 5e be
       0.012118371 -0.23926398 0.028979888 -0.21696201
000220 06 47 a5 bd 48 48 8a 3e 7f 06 3e be aa a5 6c 3e
       -0.08070187 0.2700827 -0.18557166 0.23110071
000230 40 ec 97 3d ad 6a 29 bc a7 41 37 be 8c 04 7a bd
       0.07418108 -0.010340375 -0.17896138 -0.061039492
000240 ad 91 29 3e ca 9e c1 bd f4 b5 57 be af 2e 08 be
       0.16559477 -0.09454115 -0.21065503 -0.13299058
000250 2d 64 7e 3e 1a 56 7e bd 36 e4 68 3e 3c 97 fa bd
       0.24842902 -0.06209383 0.22743306 -0.12235877
000260 6a 16 e4 3c bd 07 a2 bd 00 20 4d 3d 02 5e 17 3d
       0.02784272 -0.07911632 0.050079346 0.036954887
000270 9a e2 06 bc 07 80 e5 ba 72 52 8f 3d 2a bb 0c 3e
       -0.008232737 -0.0017509469 0.06998147 0.13743272
000280 fc 8d 92 3d f3 e9 5a 3c 90 d5 f0 3d e9 99 5f 3e
       0.071559876 0.013361442 0.11759484 0.21836056
000290 2d 1d 21 be 36 df 37 3e 02 55 bd bd 9a 5b 85 be
       -0.15733786 0.17956242 -0.092447296 -0.2604645
0002a0 15 03 ea 3d d0 cc 5d 3d 9c d6 8c 3e bf 5f 0f 3e
       0.11426369 0.054150403 0.27507484 0.14001368
0002b0 17 31 31 3e 1b 08 52 be ed d5 75 3e 55 42 e3 bc
       0.17303883 -0.20510904 0.24007387 -0.02774159
0002c0 99 fd 58 3e 74 36 05 3e 5e 58 97 be 40 c1 a4 be
       0.2119049 0.13009053 -0.29559606 -0.32178688
0002d0 9e d6 ff bd f8 10 79 bd da c1 f9 bc b2 49 66 bd
       -0.12492107 -0.0608072 -0.030487943 -0.056222625
0002e0 25 35 1e 3e 88 a8 8d 3d 19 8c 20 3c ff 4e 07 be
       0.1544996 0.069169104 0.009799027 -0.13213728
0002f0 51 53 58 bd cd ae 2f 3e 88 06 0c be 95 fb ce 3d
       -0.05281383 0.17156525 -0.13674366 0.10106579

weight_ih_l1 f4 [192, 64]
000000 a6 da 1b 3e 31 73 bc be 85 ab 05 bd 8f e4 69 be
       0.15220127 -0.36806634 -0.032634277 -0.22841094
000010 dd 7a 64 3e 3d bd f7 3c a9 df ad 3d 3a 48 32 3d
       0.22312494 0.030241603 0.084899254 0.043525912
000020 49 b7 57 be 53 7a 59 3d 34 ac 5e be 20 a6 ec bd
       -0.21066011 0.053095173 -0.21745378 -0.11555123
000030 00 a4 2a be f0 2c 21 be ae 57 ad 3e 3c b3 b6 bc
       -0.16664124 -0.15739799 0.33855957 -0.022302262
000040 7a 3e 50 3e 1d 73 32 be a6 5d 67 bd c0 82 da bd
       0.20336333 -0.17426725 -0.056485794 -0.1066947
000050 87 ce 93 3e d3 3f 64 3e 98 76 cd 3c c7 1f 22 be
       0.28868505 0.22289972 0.025080964 -0.15832435
000060 2d 25 7a bd be fb 8b be 2c 0d 3e be 4f 6b 92 be
       -0.06107061 -0.27340502 -0.18559712 -0.28597495
000070 d0 a0 30 be de 85 85 bd 68 25 3d bd b3 a6 e8 3d
       -0.17248845 -0.06519674 -0.04617825 0.1135992
000080 89 e8 66 3e 23 6e 2d bd c1 99 dc 3d 39 c2 03 3e
       0.22549643 -0.042341363 0.10771514 0.12867059
000090 05 00 3c be 00 4f 81 3b 48 c6 d4 3d 72 e6 64 3e
       -0.18359382 0.003946185 0.10389382 0.22353533
0000a0 4f f7 18 bd e2 2b 3d 3e 3b c1 20 be 0f a3 b3 bd
       -0.037345227 0.18473771 -0.15698712 -0.08771335
0000b0 45 5c e3 bd 0b 31 16 3e 03 54 c8 3e e7 5a 61 be
       -0.111015834 0.14667146 0.39126596 -0.22007333
0000c0 ee aa a8 bd 7c 8c 03 be 5a af 82 be 42 23 01 3d
       -0.08235727 -0.1284656 -0.25524408 0.031527765
0000d0 60 71 94 3e 09 8e bf 3d 66 82 db be 3f f0 ad 3b
       0.28992748 0.09353263 -0.42872924 0.0053081806
0000e0 47 da 6a 3d a2 89 ac bc 05 22 b3 3e 7a 5a 90 bd
       0.05733707 -0.021061722 0.34986892 -0.07048507
0000f0 a9 d5 07 3e 63 c0 a8 bd 03 24 e7 be cb bf 79 bd
       0.13265099 -0.0823982 -0.45144662 -0.060973924
000100 19 8c 62 bd 51 ce b9 be ee 13 5f 3e b0 9f e7 bd
       -0.05530939 -0.3629022 0.21784946 -0.11309755
000110 56 64 5d 3d a2 54 85 bd d0 e7 d4 3e 0b fd 92 3e
       0.054050766 -0.06510283 0.4158311 0.2870868
000120 3d da 66 be 6a 9f 1e 3d 46 be d6 3c c0 62 5f 3e
       -0.22544189 0.038726248 0.026213776 0.21815014
000130 cb 0e 9a 3e e5 c4 c0 bd 4c a2 b0 3e 0a 00 a3 3e
       0.3008941 -0.09412555 0.34498823 0.31835967
000140 ac e4 31 be d2 9b 2f bd 66 b9 a8 3e b0 0a 78 3e
       -0.17372388 -0.04287321 0.32953948 0.24222827
000150 6e 10 62 be 31 34 62 bc 0c 4d 01 be 40 d9 9a bd
       -0.2207658 -0.013806389 -0.12627047 -0.075609684
000160 a8 1a 66 3e a6 37 ff bd 81 5e 49 3e bb 45 3c be
       0.22471106 -0.12461786 0.19664957 -0.18385975
000170 d3 40 65 3e 94 e1 b1 bd c4 1c e0 3c 89 60 a2 3d
       0.2238801 -0.08685604 0.027357467 0.07928569
000180 60 7b a7 3e 11 b5 0e 3e 6b 61 b0 bd 4a d2 8e 3d
       0.32711315 0.13936259 -0.08612331 0.06973703
000190 f6 41 5a be 15 13 4d 3d 85 70 01 3e b3 b5 b8 bd
       -0.21314225 0.050067026 0.12640579 -0.090190314
0001a0 ac bc 8b ba 1d 3e f3 bd c5 8e 53 be e0 ba b8 3e
       -0.0010661087 -0.118770815 -0.20659931 0.36080074
0001b0 03 a6 03 3f 36 40 6b bd 0f 30 38 3e 9a 34 dc bd
       0.5142519 -0.057434283 0.17987083 -0.107522205
0001c0 f9 ff cc 3d fc b6 85 bd 7e ef 96 be 7d 44 04 3e
       0.100097604 -0.06529042 -0.29479593 0.12916751
0001d0 ed 3e c9 bd df 07 3c bc 20 04 38 3c b8 8d 2b bd
       -0.09826455 -0.011476486 0.011231452 -0.0418832
0001e0 e5 b8 48 3e 4e bf 6f 3d 74 07 25 be b6 4c 73 3d
       0.19601782 0.05853205 -0.16116124 0.05939933
0001f0 86 06 91 3c 71 6d 97 bc 11 55 7a bd 76 d3 0e 3e
       0.017703306 -0.018484803 -0.061116282 0.13947853
000200 d1 63 38 bd cd 6b 66 be 65 fb ad be b1 29 32 bc
       -0.045017067 -0.2250206 -0.3398086 -0.010874198
000210 8b 0d d5 be e0 76 35 bb 22 21 b0 3d 9f f0 1e be
       -0.41611895 -0.0027689263 0.086000696 -0.15521477
000220 2f 2f 33 be af ce 40 be df ea 91 3c c9 40 88 be
       -0.17498468 -0.18828844 0.01781219 -0.26611927
000230 23 92 74 3e ef a5 94 be 60 3e 8c bd 69 48 e4 be
       0.23883872 -0.29032847 -0.068478346 -0.44586495
000240 e9 23 1b be af cd a4 bc 65 2f 26 bd 53 7a 0f 3e
       -0.15150417 -0.020117609 -0.040572543 0.14011507
000250 f7 4e 7f 3e 71 74 ed be 3c f1 89 bd 37 37 6a be
       0.24932466 -0.463779 -0.06735465 -0.22872625
000260 bf fd 2a 3e 15 0c c3 bd fc b2 00 3e d2 d4 5a be
       0.16698359 -0.09523789 0.12568277 -0.21370247
000270 b2 fb a6 3e f6 0c ee bc 04 86 e4 bd eb 9c 88 be
       0.32613903 -0.029058915 -0.11158374 -0.2668222
000280 a4 45 09 bd 5c 50 f6 3d c4 50 8b be 7b 10 ab be
       -0.03351368 0.12027046 -0.27210057 -0.3341101
000290 23 75 94 3d 7f f1 60 3e 89 23 62 3c e5 9d 27 bd
       0.072489046 0.21967123 0.013802418 -0.040922064
0002a0 72 35 e7 3d 14 51 b7 bc 38 48 63 be 8f a7 04 bf
       0.11289491 -0.022377528 -0.22195518 -0.51818174
0002b0 b5 73 8b 3e d1 72 8e be 30 c9 7d bc 2d bf 05 3e
       0.27236715 -0.27821973 -0.015489861 0.13061209
0002c0 6c 01 05 bd 4d 6a 48 3d 40 3d 1e 3e d2 d0 9c 3e
       -0.03247206 0.0489295 0.15453053 0.30628067
0002d0 1d 3a 80 bd 7d 2c 08 3e 35 1a 0d be 51 5f 2f bd
       -0.06261084 0.13298221 -0.13779528 -0.04281551
0002e0 27 df 9c bd 43 84 96 3d ac da 87 be 70 53 19 be
       -0.076597504 0.07349446 -0.2653402 -0.14973235
0002f0 ef d6 17 3c d3 e5 2f be d0 15 73 bb af 51 a6 bd
       0.009267553 -0.17177515 -0.0037091859 -0.08121049
000300 4b 31 2d be ff 9e 09 3e 7b 34 9b be c6 85 ea bc
       -0.16913335 0.13439558 -0.30313477 -0.028628241
000310 11 e8 d1 be dd a8 5e bd 80 cd 78 3e 49 dd 58 b8
       -0.40997365 -0.05436026 0.24297142 -5.17045e-05
000320 97 39 8f 3e 55 e1 ec bd fd 13 8e 3e 9c ab b0 bd
       0.27973625 -0.11566416 0.27749625 -0.08626482
000330 48 8b 20 be b3 3f 55 be 6e 22 8c bd a4 dd 94 bd
       -0.15678132 -0.2082508 -0.068425044 -0.07268837
000340 52 e5 40 3e 78 90 8a 3e 8b 09 f5 bd 43 97 71 bc
       0.18837479 0.27063346 -0.11964711 -0.014745536
000350 f4 5c b1 3e d7 d0 79 be 74 a2 14 be d2 26 9d be
       0.3464123 -0.24396072 -0.14515096 -0.3069368
000360 7d 83 ff 3d 75 72 80 be 2f 42 72 3e 00 ed 17 be
       0.12476251 -0.25087324 0.2365806 -0.14836502
000370 4c 36 f1 3d 5c ce 73 3e b7 7b 5c 3c 9b 8b 19 3d
       0.117779344 0.23809189 0.01345723 0.037486654
000380 e3 93 ef 3d 8e d9 19 be 96 3d 43 3e 18 70 2c be
       0.11698129 -0.15024397 0.19066462 -0.16839635
000390 e1 14 c5 be 2a 01 7a 3e 8a 35 59 3e 14 12 5d be
       -0.38492492 0.24414507 0.2121183 -0.21588928
0003a0 8d 13 fd bc 9a a7 f9 bd 72 17 9c 3e 55 bc 88 be
       -0.030893112 -0.121901706 0.30486637 -0.26706186
0003b0 90 11 d3 be 53 bd 9d bd 4b 29 8f be e2 58 8b 3d
       -0.41224337 -0.07702126 -0.27961192 0.068040624
0003c0 4b 99 88 bd d8 b2 71 ba a7 76 92 3e 5f cb 18 be
       -0.06669863 -0.000922007 0.2860615 -0.1492133
0003d0 d4 e0 1a 3d 4f 5e 45 bd 02 35 28 3d b5 a3 33 bc
       0.03781207 -0.048185643 0.041066177 -0.010964324
0003e0 9e 1a d9 3d 76 8c 92 bc 61 85 13 bd 1b 3e 74 be
       0.1060078 -0.017889243 -0.036015872 -0.23851816
0003f0 ac ea 18 be c1 88 9a bc bc c1 f2 3d 18 08 1f 3d
       -0.1493327 -0.018864037 0.11853358 0.03882608

weight_hh_l1 f4 [192, 64]
000000 a8 82 a8 be 5d 19 3f be 82 9e 95 3e ff 8d 82 3d
       -0.32912183 -0.18662019 0.29222494 0.0637474
000010 89 da ae 3d 6f 24 39 bd c7 f1 34 3e 75 29 1d 3e
       0.08537776 -0.04520076 0.17670356 0.15347846
000020 38 3d 5e 3d 82 17 07 bd 44 7a 4a 3e 1a 83 87 bc
       0.0542576 -0.032981403 0.19773203 -0.016542006
000030 a3 1d 2e 3e 97 c0 fa 3c 76 97 25 3d fd 9c 50 be
       0.17003493 0.030609412 0.040427648 -0.20372386
000040 09 5c 8d 3d eb 31 cb 3d 7a 55 3b 3d 2f bd b5 3c
       0.0690232 0.099216305 0.045735814 0.022184936
000050 88 e2 94 bd e0 e6 45 3c 5c fb f1 3d 8e 48 ff bc
       -0.0726977 0.012078971 0.11815521 -0.031162526
000060 f1 b7 ec 3d 0c 3c 4b 3d 4c 7c e9 3d ae 5c 83 3e
       0.115585215 0.049617812 0.11400661 0.25656646
000070 05 3b 8d bb f3 e8 0c bd ba 1b 3d 3d 03 64 2f 3d
       -0.004310014 -0.034401845 0.04616902 0.042819988
000080 b8 a5 a2 3c b3 e1 1b bd 4a d3 55 be 5f f1 89 bd
       0.019854411 -0.03805704 -0.20881382 -0.06735491
000090 3b f5 45 3d bc 27 de 3c 76 0e 60 bd c0 97 72 3d
       0.048329573 0.027118556 -0.05470129 0.05922675
0000a0 aa 65 2e 3d 96 14 5c be 90 e4 cd 3d be 4e 93 bd
       0.042577423 -0.21492228 0.100533605 -0.07192753
0000b0 5d 48 19 3e a2 1e 29 3e 9f 53 25 be fb d7 cd 3b
       0.1496901 0.16515592 -0.1614518 0.0062818504
0000c0 71 b0 82 bd 78 3e 11 3d c9 06 40 be 84 ec ad 3e
       -0.0638131 0.035459965 -0.18752588 0.3396951
0000d0 ab 26 f9 bd 6d d6 ac 3e 74 78 ae 3e 29 68 21 3d
       -0.121655785 0.33757344 0.34076273 0.039405975
0000e0 25 aa 59 3d 24 ab bd 3d 27 e5 97 bd fd 2b e8 bc
       0.053140778 0.09261158 -0.07416754 -0.028341288
0000f0 e4 cc f0 3d 77 a6 b6 bd b4 09 37 3e 26 ef c4 3d
       0.1175783 -0.089184694 0.17874795 0.096159264
000100 3e b8 b6 bd da 29 63 bd 86 b6 00 3e 87 6b cb bc
       -0.0892186 -0.055459835 0.12569627 -0.024831546
000110 20 3e 0a 3d ee cf 21 be 86 3d 92 bc 14 54 20 bd
       0.033750653 -0.15801975 -0.017851602 -0.039142683
000120 84 c0 9b bd b1 02 e1 3c b3 58 9e 3d 10 33 18 be
       -0.07605079 0.027467104 0.07731762 -0.14863229
000130 6b f7 c7 bd 93 c7 26 be 92 5f 13 be 65 a4 a4 bd
       -0.09763988 -0.16287069 -0.14391926 -0.08039168
000140 67 19 8e 3d aa 97 a3 3d c6 10 18 3d 60 d1 2c be
       0.06938439 0.07987912 0.03712537 -0.16876745
000150 ca b4 d2 bd db 2c 43 3d 71 3a 8d 3d 2c 2f 32 bc
       -0.10288389 0.0476502 0.068959124 -0.010875504
000160 4c 5e f7 3c 3a 53 b6 3d 63 78 14 bd 88 65 b7 3d
       0.030196331 0.08902593 -0.036247622 0.089549124
000170 ac b8 da 3c 14 7d 44 3d b7 06 ee 3d d0 ec 19 be
       0.026699387 0.047970846 0.116223745 -0.15031743
000180 57 eb e8 3b 2e d3 b0 3c b9 6a 07 bd d2 ac 1b be
       0.007108133 0.021585073 -0.033060763 -0.15202644
000190 a0 4f f3 3d 4f a4 e9 3c 8f a4 18 3d d4 43 9d bd
       0.11880422 0.028520731 0.03726631 -0.07678953
0001a0 d0 94 c4 bd eb af 84 bc 88 fa 08 be c3 69 47 3d
       -0.09598696 -0.016197165 -0.1337682 0.048684847
0001b0 7e 6d 81 3d 48 14 ae 3d b7 df 4e 3d 0c 42 87 3e
       0.06319712 0.08499962 0.05050632 0.26417577
0001c0 88 f4 01 3e ab 96 ba 3d f6 40 97 3c 06 e7 9e 3a
       0.12690938 0.09110769 0.018463593 0.0012123294
0001d0 f4 ee 8b 3b 2c 37 31 3b 26 20 ab 3d f4 d5 e4 bc
       0.004270429 0.0027040942 0.08355741 -0.027934052
0001e0 ce c7 d8 3d 1e 3a d5 bd 43 ed a1 3d 0c ba 73 3d
       0.10584985 -0.104114756 0.07906582 0.0595036
0001f0 e8 b6 df bd b9 04 b2 bc 5a a8 cd bd 39 3e 12 3d
       -0.109235585 -0.021730768 -0.10041876 0.03570387
000200 2f 27 e1 3c f4 65 b3 3d 1c 35 0f 3c a9 4a ce bd
       0.027484505 0.087596804 0.00874069 -0.10072834
000210 96 e4 8b 3e d8 12 91 bd 07 d3 a5 3c e2 d6 18 be
       0.27322835 -0.07083672 0.020242227 -0.14925721
000220 ae 4a 13 be 33 cc 22 be 6e 02 4c bd 77 7b 70 3d
       -0.14383957 -0.15898208 -0.049807005 0.058711495
000230 2a 7e a9 3d d2 2f 5b bd a7 9c b2 bd 6a 86 94 3d
       0.08276017 -0.053512402 -0.08721285 0.072522
000240 70 0b 3a 3e 86 17 b2 bb 29 af 3b 3d a2 59 4a 3d
       0.18168426 -0.005434933 0.045821343 0.049401887
000250 b9 32 a5 bc 7f e7 46 3e 05 44 89 bd 47 09 57 bc
       -0.020165788 0.19424246 -0.06702427 -0.0131247705
000260 a0 fe 2b bc c7 a3 9a 3c 0b 15 c8 3d 67 db 4d 3e
       -0.010497719 0.018876923 0.09769639 0.20103227
000270 56 19 0b 3e 03 ce ec bd 9b bc c8 bd 8d 4b c4 3d
       0.13583884 -0.11562731 -0.09801599 0.09584723
000280 9f 7f 3e bd 4d 02 bb bd 04 89 f4 bd c3 89 c7 bc
       -0.046508428 -0.09131298 -0.11940196 -0.024357682
000290 64 af f8 3d 69 16 88 3c a9 33 0b 3d cf 1c 11 be
       0.12142828 0.016612248 0.033984814 -0.14171146
0002a0 7a 71 67 be 23 f5 7e be 19 ae 1c 3b 9c 59 c1 3d
       -0.22601882 -0.248982 0.0023907481 0.0944092
0002b0 f9 6d 85 3c 74 0d f3 3d 75 f8 2c 3e 5c 74 47 be
       0.01628779 0.118678 0.16891654 -0.19477981
0002c0 a3 4a f9 bd 45 a5 7e be 3d dd 75 bc 2f dd 8d bd
       -0.12172439 -0.24867733 -0.015006361 -0.06926953
0002d0 46 64 07 be 3d da b1 bd d1 4c 04 3e 5f bd 0e 3e
       -0.13221845 -0.08684204 0.12919928 0.13939427
0002e0 2e 5b e6 bd 69 24 64 be d1 81 a4 be 8c 5f c6 3d
       -0.1124786 -0.22279514 -0.32130292 0.09686193
0002f0 f1 9c de bc e3 d5 4a 3d 1a 3c 64 be 98 12 47 be
       -0.027174445 0.049520385 -0.22288552 -0.19440687
000300 af c3 81 bd 1f 32 be bc 59 10 9f 3d 76 7a 9d 3e
       -0.06336152 -0.023217259 0.0776679 0.30757493
000310 d7 dc cf bd 58 5d 08 be 29 25 17 3e 8d 89 01 3b
       -0.10149544 -0.13316858 0.14760269 0.0019765825
000320 d0 22 28 be ec 9b f4 bd ca a4 15 be 26 de de 3d
       -0.1641953 -0.11943802 -0.14613643 0.10882215
000330 3d eb 43 3e 7d bc 9a 3c fd ac 0c be 41 01 ca 3d
       0.19132705 0.018888706 -0.13737865 0.098635204
000340 6d 90 88 3e 1a ce e6 bd ff 36 6a 3e e7 f0 6d be
       0.26672688 -0.112697795 0.22872542 -0.23236428
000350 87 56 19 be 36 08 84 3e 07 f4 d4 3d 62 6f 1d be
       -0.14974414 0.25787514 0.10398107 -0.1537452
000360 16 ad 25 3e 71 a2 43 bc 7e ea 04 3e be 44 27 be
       0.16179308 -0.0119405845 0.12980077 -0.16334817
000370 0a 3c 49 3c 43 51 50 3e c5 1e ca bd 66 06 63 3d
       0.012282381 0.20343499 -0.0986915 0.055426024
000380 97 b4 30 bd 87 d5 84 be ea 4d ec 3e e3 ea 9b bd
       -0.043140974 -0.25944158 0.46153194 -0.076131605
000390 6a 65 44 be 4a 83 27 3d 2a 4a 21 be 04 4d 01 3c
       -0.19179311 0.04089669 -0.15750948 0.007891897
0003a0 3d 04 6d 3e e3 48 55 bd 68 37 f0 be fd d3 7f 3d
       0.23146148 -0.052071463 -0.46917272 0.062458027
0003b0 fb c4 5a 3c 1c 97 66 bd de 88 d7 bc d0 63 42 bd
       0.013352628 -0.056296453 -0.02631038 -0.04745847
0003c0 4d 78 07 3e cf 41 aa bc 5a 0a 52 3c 4f f8 f8 3d
       0.13229485 -0.020783333 0.012819851 0.12156736
0003d0 a8 63 ad 3d 90 ec c4 bd 6f cd 1b 3e fb a9 fa bc
       0.084662735 -0.09615433 0.15215085 -0.030598631
0003e0 39 b3 5d bd 9c 13 1e 3e 58 1a 2a be cd 6e 81 be
       -0.054126 0.15437168 -0.16611612 -0.25279847
0003f0 22 1e c4 bc 9f 9a 2f 3e 42 21 35 bd cd 6d b2 3d
       -0.02394015 0.17148827 -0.04422117 0.08712349

bias_ih_l1 f4 [192]
000000 02 6f ee 3d fe 35 40 3e 14 c7 31 be fb 2a 71 3d
       0.11642267 0.18770596 -0.17361099 0.05887888
000010 e3 38 3d 3e 45 08 ae bd ad 7b 24 3e 58 84 8d 3d
       0.18478732 -0.08497671 0.16062804 0.06910008
000020 87 c5 66 bd bf 5c b3 3d ed ff 7e bd 64 ab c7 bd
       -0.05634072 0.08757924 -0.06225579 -0.09749487
000030 7b af b7 3d 0e b6 7f 3e fb b7 cc bb e8 27 82 bd
       0.08969017 0.24971792 -0.006247518 -0.06355268
000040 cf 7e 09 3d 54 41 1e 3e cb 6b d6 bd b4 3a d1 3c
       0.0335682 0.15454608 -0.104697786 0.025540687
000050 fa 6d f1 3d fa fe ac bc 95 15 e9 bd 79 1d e6 3d
       0.117885545 -0.021117676 -0.113810696 0.1123609
000060 3d 31 86 bd d7 82 0d 3e 09 22 11 bd 7d 44 92 3d
       -0.0655236 0.13819443 -0.03543285 0.07141969
000070 d3 c6 fd 3d d0 28 44 bd e7 75 3f 3c 9f 93 83 bd
       0.12391438 -0.047890484 0.011685825 -0.06424641
000080 c5 37 54 3d 59 04 58 bc a7 e2 f8 bc fd 80 ab bc
       0.051811 -0.01318463 -0.030381514 -0.02093553
000090 bb c1 6c 3d b5 be 1e bd 7b 5a c6 3d d1 c8 9d bd
       0.057801943 -0.03875609 0.096852265 -0.07704318
0000a0 e9 d9 49 3d d5 00 81 3d 28 ff 3b bd 32 c2 0e bd
       0.04928008 0.06298987 -0.045897633 -0.034853168
0000b0 96 41 17 bd 2e a2 8f 3d 9b 52 00 bd 5e b3 1f 3d
       -0.036927782 0.07013355 -0.03132878 0.038989417
0000c0 de 25 10 3e 6a bb ee 3c a5 38 97 3d 14 2b 5d 3d
       0.14076945 0.0291421 0.07383851 0.05399616
0000d0 09 c8 d0 bd b4 01 f4 3c e7 ed fc 3d d1 08 f5 3d
       -0.10194404 0.029785968 0.12350064 0.11964572
0000e0 05 28 85 bd f6 f1 5c 3d c3 e6 13 3d 1a c8 21 3d
       -0.06501774 0.05394169 0.036108743 0.039497472
0000f0 9c 58 0e bc 57 64 78 bd 1a 10 04 3d 62 66 09 3e
       -0.008688118 -0.060642567 0.03224192 0.13417962
000100 f1 c6 99 be 23 15 d6 bd 99 77 e5 be 18 5b 91 be
       -0.30034593 -0.1045325 -0.44817808 -0.28389812
000110 60 fa 51 be 16 43 b6 be 20 6e 97 be 85 a9 50 be
       -0.20505667 -0.35598058 -0.29576206 -0.20377167
000120 8b b6 69 be 10 00 0c be 77 78 6d be 4a bd 15 bf
       -0.22823541 -0.13671899 -0.23190485 -0.5849196
000130 4f be 07 bf 0a 63 de bd f5 02 6e bd 57 af 30 bf
       -0.5302476 -0.10858734 -0.05810829 -0.6901755
000140 80 49 8f be 06 63 dd be ef 6a b3 be 13 fd 58 be
       -0.27985764 -0.4323961 -0.3504252 -0.2119029
000150 4a a0 c6 be 7b 8d 93 be d1 81 f3 be ec f9 2f 3c
       -0.38794166 -0.2881888 -0.4755998 0.010740738
000160 43 79 5f be ab f1 8b be a8 d5 c1 bd 39 99 f7 be
       -0.21823601 -0.27332816 -0.0946458 -0.48359087
000170 2c df 85 be 71 ac b9 be 0d 33 81 be c4 15 a3 be
       -0.2614683 -0.36264375 -0.2523426 -0.31852543
000180 d1 b9 4f bd 30 40 57 be 9a 62 ee be de 49 3d be
       -0.050714318 -0.2102058 -0.46559602 -0.1848521
000190 c4 0d 8b be 70 aa bb be 84 20 64 be 77 92 46 be
       -0.2715894 -0.3665347 -0.22278029 -0.1939181
0001a0 89 70 35 be 87 93 2d bf ed 61 99 be 6c 52 7d be
       -0.1771871 -0.67803234 -0.29957524 -0.24738473
0001b0 c5 fd 3d bd b3 1a 45 be b7 e3 b9 bc 62 7e 16 bf
       -0.04638459 -0.19248466 -0.02269159 -0.58786595
0001c0 e0 ac b1 bd 4b 8b d3 bd b0 89 b7 be a7 d7 91 bd
       -0.086755514 -0.103293024 -0.35847235 -0.071212105
0001d0 ed 27 ab be 66 f2 c0 be 3d 43 9a be 13 e9 80 be
       -0.33428898 -0.37684935 -0.30129424 -0.25177822
0001e0 56 c7 ab be 88 1a 01 be 3c 18 52 be cf ae b2 bd
       -0.3355052 -0.12607777 -0.20517057 -0.08724748
0001f0 7f bd cb be 74 fa 8d be 47 df af be ec d9 92 be
       -0.39793012 -0.27730143 -0.34350035 -0.28681886
000200 3c 26 90 3c c3 61 08 bd 10 6d 16 3e 4a 5e 44 3d
       0.017596357 -0.033296358 0.14690042 0.047941484
000210 49 00 67 3d 9a 35 bc 3c f7 70 9d bd f9 92 61 3e
       0.056396756 0.022974778 -0.07687562 0.22028722
000220 5f 6d 03 bd e9 2d 92 3d 25 a9 1c 3e d6 9c 25 bc
       -0.032086726 0.07137663 0.15298899 -0.010108193
000230 3a bb b6 bd 93 d4 2d be ba 7e 40 3d 28 68 08 3d
       -0.089224294 -0.16975622 0.046995856 0.033302456
000240 3d ae 08 3a 08 0e e0 3d aa 3a 5f 3d 69 26 11 3e
       0.0005213952 0.10940176 0.054499306 0.14174809
000250 40 45 4a 3d 2e 59 ca bd 5a c7 c0 bd 61 c5 01 3e
       0.04938245 -0.09880291 -0.09413023 0.1267295
000260 dc f3 79 3d f3 e2 57 bd 89 61 0b 3d fc 80 97 bd
       0.061023578 -0.05270667 0.034028564 -0.07397649
000270 62 47 a3 bd 74 da 0b 3e 0a 60 e0 3d 1f bf bb 3b
       -0.079725996 0.13657552 0.10955818 0.0057295705
000280 9c d9 5e 3d 13 25 3f 3d 39 28 61 3e 91 d1 19 3e
       0.054406747 0.046666216 0.21988 0.1502135
000290 89 5e b6 3d 1b 13 1b 3e 80 17 d4 3d 75 5a f2 bc
       0.0890475 0.15144007 0.10356045 -0.029584149
0002a0 b4 df 2f be b5 7e 8d bd 0c e9 d9 3d b4 ec 47 3c
       -0.1717518 -0.06908933 0.10640153 0.0122024305
0002b0 d6 44 2f 3d ec f4 70 3d a1 76 f7 bd b1 55 85 bd
       0.042790256 0.058827326 -0.120831735 -0.06510485
0002c0 ad db b0 3d 39 c5 81 3d c6 d6 86 3d 6a d3 bc 3b
       0.0863565 0.06336445 0.065839335 0.005762507
0002d0 1f fe af 3d c0 aa 1a 3e b6 e7 9c 3d 0a 92 f8 bd
       0.085933916 0.15104198 0.07661383 -0.1213723
0002e0 53 f7 4f 3e 1f be 24 be 78 57 01 3e 6c 35 62 3e
       0.2030919 -0.1608815 0.12631023 0.22090691
0002f0 60 ef 21 bd 71 2b 25 be 25 fd 97 bd dd 81 75 3d
       -0.039534926 -0.16129853 -0.0742133 0.0599383
