action_LossPrune/model1_Climate.pth (torch, 209614 bytes, 12 tensors)

weight f4 [125, 16]
00000000: 5220 5dbf 2fe7 b3bf c8fd debe 49ab 26bf
00000010: 5921 23bf 8cd4 8d3f a43d 21bf b75f 903f
00000020: 2a70 f93e ebe9 30bf f585 473f 5501 e2be
00000030: b469 a73e 0298 5c3f fc78 27bf d695 ce3d
00000040: aabe e7bf 9cea c6be b905 b0be b9ce c2bb
00000050: 1268 5d3e 0545 39bf a51c 853e 7dfe af3e
00000060: c9b3 983e c36b 243f c128 1fbf ab46 fabe
00000070: a863 ecbd 6180 9bbf cfc1 c2be 1849 373e
00000080: 9653 d5bf 1c22 0840 53ce afbf 416e 3740
00000090: 296e 9d3f f614 3bbf a9e4 583f fbb3 e13f
000000a0: 141d 013f 7e81 823e fd18 803f ee00 54bf
000000b0: 687a 0dbf cafa 63bf 166b 023d 19b0 edbd
000000c0: 6fb5 683f c650 4cbf 7f06 0340 2180 8f3f
000000d0: df09 c6bf cbcd 95be 9f7d 39bf c8dc 383f
000000e0: f0c7 a0be a787 d1be 0791 1fc0 d1c2 d7bf
000000f0: 7f5a 97bf 4cf1 d23f f0d4 153e 669c 8ebe
00000100: 6bd4 55bf 82e1 afbf 2e09 1d3c cb83 133f
00000110: 74a2 cd3f 81e2 6fbf ccc2 3abe f591 d4be
00000120: af5a b6bf 9305 69be aac3 adbe b4c6 a8bf
00000130: b5bb f83e b7f7 3cbf 482c 3e3e 6ec3 8ebf
00000140: 4669 cf3e eacc 2fbf 8350 193f 6fa9 e63f
00000150: 462e 703d 3fd9 07bf e3b1 e6bc eb89 b83f
00000160: 20a7 cdbf c646 133e 5136 b43f b888 a83d
00000170: 24d0 223e db51 2a3f 6a51 7abf 2f3c edbc
00000180: 5d45 e6bf 595c c3bf 8bab e1be 8f6c 11c0
00000190: 5b73 ea3e 07f1 08c0 4f67 023f 71dc 9dbf
000001a0: cd01 77bf a0b5 0bbf 1d3c 9e3e dc92 e03f
000001b0: 6af2 2cbe 20ad 933e 0777 f4be 6250 58bf
000001c0: 6ad6 1ec0 cccf 89bf e401 d83e 000e ae3f
000001d0: f133 a53f 47c7 d0bf 7a12 243f ba5f 14bf
000001e0: e243 50bd 3133 a53f 5a6d 22bd a666 b83e
000001f0: 13ce 9b3e 7973 803f 2f64 f2be af44 6a3f
00000200: 9c9a 043f 472b 8abe 6a84 4bbf 42eb 9b3e
00000210: 4ad6 1e3f da2c 743f da23 513f 09eb 00bf
00000220: 64a9 0fbf 25c2 a93f a7fe 28bf 6df5 3ebf
00000230: e0fe ab3d 8c83 d33e c554 77bf 700a 56bf
00000240: 1589 0dc0 b846 85bf fc2c aa3f 7d06 693e
00000250: 66fc 16bf b542 913f f03a 2f3f 5daa d03f
00000260: 74fc 063f 6c02 f13f 4193 81bf e850 2bbf
00000270: ca9b 633e 8a87 b2bd 5158 91bf ac14 af3e
00000280: 815e 31be d596 67bf 1bf5 393e 772a 29bd
00000290: 332d 1a40 5054 9ebf 5e05 08be 989d 61be
000002a0: 95e7 0bbf 1821 c33a 8d91 2bbf cc94 0abf
000002b0: 7db9 9e3f 8372 693d 405a 94bd ce74 813f
000002c0: 45d7 193f 79e9 cebe 31a6 9bbf 0532 c8be
000002d0: 2bbc 683e 541f b1be 8a3e 08c0 5990 fa3e
000002e0: 4a61 e83e 6875 8cbe 014a eebe bd04 4c3f
000002f0: acf0 41bf 1770 f13f b7fd cfbf 4642 d3be
00000300: f285 593f 3be9 24bf 31aa a63f b8e0 033f
00000310: ade5 61bf 6aa1 36bf f1fb c13f 5188 ccbd
00000320: 45a3 883f 8906 67bf db44 d0be b330 0f40
00000330: 4357 04c0 a1a1 1f40 e963 0ebf 7297 98be
00000340: 8e2f 9cbc e9e9 7ebf 8da6 d9bc 8f2a 57bf
00000350: d445 08bf 4dc5 323f d778 55bf 59c1 c8bf
00000360: 425c 7f3f 6772 bfbe a566 2ebf dbae b3bc
00000370: e270 0dbf 931a 8e3f b8fa 2b3d 1c79 0ebf
00000380: 9bb9 af3f 6c45 e7bf 00c9 153f 898f f4be
00000390: 737d e0bd 8ded ddbe c5af 023f 5477 6b3f
000003a0: 7830 0bc0 0265 ffbe d05b 1cbf 58c3 4e3f
000003b0: 05af ea3f 6b96 04be 38b2 f13e 78cb fd3e
000003c0: ada5 3cbf 75c3 033f e34f a63f b998 dcbe
000003d0: 3ae2 2ebd a930 ce3c 3b64 43bf 8042 0940
000003e0: ee01 4cbf edd4 553f 0edc 2a3e 07d3 733e
000003f0: 562e 67bb 8b85 2c3d 09e4 8a3f 6ffd 8fbd
-0.8637744 -1.4054927 -0.43552995 -0.6510511 -0.6372276 1.1080489 -0.6298468 1.127921
0.48718387 -0.6910693 0.7793878 -0.4414164 0.32697833 0.86169446 -0.6541898 0.10087173
-1.8105061 -0.38850868 -0.34379366 -0.0059450534 0.21621731 -0.7237094 0.25998417 0.34373847
0.29824665 0.6422693 -0.6217156 -0.4888204 -0.115424454 -1.2148553 -0.3803849 0.17898977
-1.6666133 2.1270819 -1.373484 2.8661044 1.2299243 -0.7307886 0.8472391 1.7633051
0.50434995 0.2548942 1.0007626 -0.8281392 -0.552649 -0.8905455 0.031840406 -0.116058536
0.90901846 -0.7981075 2.0472715 1.1210977 -1.5471762 -0.2925857 -0.7245731 0.72211885
-0.3140254 -0.40923807 -2.4932268 -1.6856328 -1.1824492 1.6479888 0.1463201 -0.27853698
-0.8352725 -1.3740695 0.009584708 0.57622975 1.6065202 -0.9370499 -0.18238372 -0.41517606
-1.4246424 -0.22756033 -0.33938342 -1.3185639 0.4858071 -0.7381548 0.1857158 -1.115339
0.40510005 -0.6867205 0.59888476 1.8020457 0.05863788 -0.53065866 -0.028160995 1.4417089
-1.6066628 0.14382467 1.4079076 0.08229202 0.15899712 0.6653115 -0.9778048 -0.028959362
-1.7989918 -1.5262557 -0.4407619 -2.272251 0.45791134 -2.1397111 0.50938886 -1.2332898
-0.9648712 -0.5457401 0.30905238 1.7544818 -0.16889349 0.2884302 -0.4774706 -0.84497654
-2.4818368 -1.076654 0.42188942 1.3598022 1.2906476 -1.6310815 0.64090693 -0.5795857
-0.050845988 1.2906247 -0.039655067 0.36015815 0.3043066 1.003524 -0.4734206 0.9151105
0.51798415 -0.26986143 -0.7949892 0.30452925 0.6204573 0.9538094 0.8169533 -0.50358635
-0.56117845 1.3262373 -0.6601357 -0.7459324 0.08398223 0.413113 -0.96613723 -0.83609676
-2.2114918 -1.0412207 1.3294978 0.22756381 -0.5897888 1.1348482 0.68449306 1.6301991
0.5272896 1.8828864 -1.0123063 -0.6692033 0.22227398 -0.08717258 -1.1355077 0.3419546
-0.17321207 -0.90464526 0.18159907 -0.041300263 2.4090087 -1.236948 -0.13283297 -0.22032773
-0.5465024 0.0014887182 -0.6701897 -0.54133296 1.2400357 0.056993973 -0.07243776 1.0113771
0.600941 -0.404125 -1.2160093 -0.39100662 0.2272803 -0.34594214 -2.128817 0.48938254
0.45386726 -0.27433324 -0.46540835 0.7969473 -0.7575786 1.8862332 -1.6249303 -0.412615
0.8497001 -0.6441838 1.3020688 0.5151477 -0.8824108 -0.7134005 1.5155011 -0.09986938
1.0674826 -0.90244347 -0.40677533 2.2373474 -2.067826 2.49424 -0.556212 -0.29803044
-0.019065645 -0.9957567 -0.026568675 -0.84049314 -0.5323155 0.6983231 -0.8338751 -1.5684005
0.9975015 -0.3739197 -0.68125373 -0.021933964 -0.5525037 1.110186 0.04198715 -0.5565355
1.3728517 -1.8068061 0.58509827 -0.4776576 -0.109614275 -0.433453 0.51049453 0.91978955
-2.1748333 -0.4988175 -0.61077595 0.8076682 1.8334662 -0.12948005 0.47206283 0.49569297
-0.736903 0.5147012 1.299313 -0.43085268 -0.042696215 0.025169687 -0.76324815 2.1446838
-0.79690444 0.83528024 0.16685507 0.2381097 -0.003527542 0.042119544 1.0850841 -0.070307605

weight_ih_l0 f4 [192, 17]
00000000: ad12 fbbb 0105 b4be 8fc1 56bd 5c5c fb3d
00000010: 26e0 29bb c0c1 0c3d 11a8 99bd 9224 803c
00000020: ddd5 dfbd e82f 983d cbac 3dbe b3d2 fa3e
00000030: cc95 3e3a 51f2 a5bd b262 13bc 281d 383e
00000040: 0826 2abd ad63 2dbd 60d0 e43d 3050 b83b
00000050: 230c bfbc 663d 82be e517 e5bd 162b 1ebd
00000060: d1df 523e ca3e 433e 715d f73d d7f3 b9be
00000070: ebbc 15be 06dc f83d 0f00 a03e 90ca 8b3d
00000080: 50cf 68bd 28ba 853e 08d3 c13d a105 913d
00000090: aa73 583e e19f b6bd 59f1 243e c92e 04be
000000a0: 4ab8 c8be 3d41 15bd 2929 6ebd 3e4c cbbc
000000b0: b902 24be e88c df3d 6a71 42be 4bd1 debc
000000c0: 9c14 653e 3d45 f5bd da12 de3d f47f e33d
000000d0: 6f65 30be a92c 62be ac41 fabb 3afe 373c
000000e0: 442b 5cbe 4e98 9fbe 4d25 c13e 2769 31be
000000f0: 07a5 393d e891 abbe c47a 03bd bca8 5cbd
00000100: 111a 43bd 61a4 9c3d 1885 29be 6921 71bd
00000110: 33a6 d8bd a951 dcbd 079c dfbc 62ba 093e
00000120: d135 d4bd caa0 3cbd c117 cabe 2333 343e
00000130: cd87 85bd 04c0 6a3d 02d1 3c3d 2558 ecbd
00000140: b207 a6be 880c ed3a 1c2c 0dbd c1a3 1d3e
00000150: bd99 69bd 2095 3ebe 32ac 2c3e eeba 623e
00000160: 63fd 1e3e cfdd 63be 31ec aabd b6e8 273d
00000170: e753 633c fd6e 96be 1e93 b33d f406 053e
00000180: c8d0 b9be 917a 07be fd25 713e 04aa 9cbe
00000190: f626 313e 993b 2f3e 94ac ef3d fbaa 98be
000001a0: 6c7b 4dbe ddbb 4abc 6c9d b9be 0407 fc3d
000001b0: 69d7 90bd d59c 523d d32d 083e 6003 22bd
000001c0: 2b23 033e f9e9 89bc b620 993e 07c4 b3be
000001d0: f0d2 973e a7f9 46bd bc18 9cbe 231f e53c
000001e0: 6526 b13c 029f a63d 7c4f f83d bc02 9bbd
000001f0: 4a5e f03e cf7a 503e bde8 84bc 17f6 d33d
00000200: e379 32bd f3ff 4d3e 7527 68bd 778d 553e
00000210: a939 ccbd 12f0 b43d 1a1d 0e3e 5a9a 81bd
00000220: 6fb9 773e 0022 433d c394 e5bc 097b 4c3e
00000230: 20cd 28bd c017 11be 94cf 2d3e 743d d3bd
00000240: d461 13bc 6b62 823e 1b54 3e3b 3ac4 6b3d
00000250: 4e38 e93d 4dcf 87bd 7878 a33d 66f8 463e
00000260: e7f9 123e e8f0 7e3d 00d3 473e a9d2 adbd
00000270: d897 7abd 642b 1ebe 56c2 d7bd 200b 93be
00000280: df37 47bd ce7c 9abc 6696 353d b7cc 3fbe
00000290: 80a9 383d 2fae 8a3e 126a 5dbd ff0d 573e
000002a0: a38e 58be 1f7c 5bbd e910 ec3d 14c9 debc
000002b0: 6fa0 c9bb 8f9c d13e c756 ea3d 6560 73bd
000002c0: 2095 8c3e dbda d7bd c1d7 76be 8db7 dbbc
000002d0: ad27 a43d 79d1 b6bd 76ff abbd d367 743d
000002e0: 8a13 003e ed6b bfbd 78c0 09bd fbc7 453e
000002f0: eefd e2bd f6a7 e0bd f47f 7d3c 91ca 2dbe
00000300: f5f9 05be ce8a 0f3e a9ae ef3e dd92 b4bd
00000310: 5845 20be b1b0 eebb 4cb3 3dbe 6e1c 063e
00000320: 5594 203c b8c7 e43b 7de7 a5bd 5994 02be
00000330: b9a3 333e 320e 08bc 38de 3b3e d5d5 f7bd
00000340: c4ae 463e 7d13 3e3e 705e 6abe 4967 89bd
00000350: 57e1 673e 7f4d 5e3d 7eb0 353e 4c1e 123d
00000360: b3db 17be 0594 15bd 98e3 4cbe e629 1dbe
00000370: 0462 80bd 6c2a dc3d 7899 d73b 8151 31be
00000380: 9c07 22be cd48 d93a 7333 5d3e a7c2 59be
00000390: b406 bb3d 163a df3e db1e 083d ca2c 4a3d
000003a0: d2e7 a8bc eb99 0e3e 72b2 d5bd 8e39 003d
000003b0: ffcc b0bd caf1 033e 3790 8a3c 85d6 90bc
000003c0: 30ba 8d3d efa3 1c3e c7c6 613e 0386 963e
000003d0: 49d1 a23e cb9e 27be 3425 3bbe 80b0 943d
000003e0: 9271 d5bc c7bf 24be 9b9d 713d 01b6 46be
000003f0: 31f7 14be 7157 56be e522 4abd 9acb 92bd
-0.0076621384 -0.35160068 -0.052430686 0.122734755 -0.0025920956 0.034364462 -0.07502759 0.015642438
-0.10929463 0.074310124 -0.18522947 0.48988876 0.0007270246 -0.08102859 -0.008995699 0.17979872
-0.041540176 -0.042331386 0.11172557 0.0056247935 -0.023321217 -0.25437468 -0.11186198 -0.03861531
0.20593192 0.19066921 0.120783694 -0.36318848 -0.14622848 0.12151341 0.31250045 0.06825745
-0.056838334 0.26118588 0.09464079 0.07081152 0.21137872 -0.08917213 0.16107692 -0.12908472
-0.392031 -0.03643917 -0.058144722 -0.024816629 -0.16016664 0.109155476 -0.18988577 -0.027199408
0.22371143 -0.11976097 0.108434394 0.111083895 -0.17226194 -0.22087349 -0.007637223 0.011230046
-0.2150088 -0.31170887 0.3772377 -0.17325269 0.045323398 -0.33509755 -0.0320995 -0.053871855
-0.04763228 0.0764854 -0.16554677 -0.058869753 -0.10578575 -0.10757763 -0.02729608 0.13450006
-0.10361827 -0.046051778 -0.39471248 0.17597632 -0.065200426 0.057312027 0.046097763 -0.1154025
-0.32427746 0.00180854 -0.034465894 0.15394498 -0.057031382 -0.18611574 0.16862562 0.2214162
0.15526347 -0.22252582 -0.08345831 0.040993415 0.013874984 -0.29381552 0.08768295 0.12990934
-0.362921 -0.13230349 0.23549648 -0.30598462 0.17300019 0.17112578 0.117028385 -0.29817948
-0.20066613 -0.012373892 -0.36252916 0.123060256 -0.07072336 0.051419098 0.1329873 -0.039554
0.12806384 -0.0168352 0.2990777 -0.35110494 0.2965312 -0.04857793 -0.3048762 0.027968949
0.021624753 0.08135797 0.121245354 -0.07568881 0.46946937 0.20359348 -0.01622426 0.10349672
-0.04357327 0.20117168 -0.056678254 0.20854746 -0.09971935 0.08834852 0.13878289 -0.06328268
0.24191831 0.047639847 -0.028025037 0.19968809 -0.041211247 -0.14169216 0.16973716 -0.10314456
-0.008995492 0.25465712 0.002904183 0.057560183 0.113876924 -0.06631336 0.07981962 0.19430694
0.14353143 0.062241465 0.19514084 -0.08487446 -0.061179966 -0.1544624 -0.105351135 -0.28719425
-0.048637267 -0.01885834 0.044332884 -0.18730436 0.045083523 0.27086017 -0.054056235 0.21001433
-0.21148162 -0.053585168 0.11526663 -0.02719549 -0.0061531584 0.40939757 0.11442333 -0.0594181
0.27457523 -0.1053979 -0.24105741 -0.026820922 0.0801538 -0.089266725 -0.08398335 0.059669327
0.12507454 -0.09346757 -0.033630818 0.19314568 -0.110835895 -0.10969536 0.015472401 -0.16971804
-0.13083632 0.14017794 0.46812943 -0.088170744 -0.15651453 -0.007284247 -0.18525428 0.13096783
0.00980099 0.006981816 -0.081007935 -0.12751903 0.17542924 -0.008304166 0.18346488 -0.12101332
0.19402605 0.18562122 -0.22887588 -0.06709153 0.22644554 0.054273125 0.17743108 0.035673425
-0.14829902 -0.036518116 -0.20008695 -0.15348014 -0.06268695 0.10750279 0.006579574 -0.17316248
-0.15823215 0.0016577482 0.21601658 -0.2126566 0.09132138 0.43599004 0.03323255 0.04935912
-0.020618353 0.13925903 -0.10434426 0.03130489 -0.0863285 0.12885204 0.01691447 -0.017680416
0.06920278 0.1529691 0.22048484 0.29399118 0.31800297 -0.16369168 -0.1827591 0.07260227
-0.026055131 -0.16088782 0.058988195 -0.19405366 -0.14547421 -0.20931794 -0.049349684 -0.0716774

weight_hh_l0 f4 [192, 64]
00000000: 2a66 a2bd e0ab b0bd 25c7 22bd 335e 85bd
00000010: 3a8b 5cbd 7c7a 57bb 471c 4a3e c1a8 9f3c
00000020: 3d9f 33bb 5f1e f3bd 166f 213e a0bc e43c
00000030: 0643 d53c 06e5 8bbb 7154 6a3d 5b47 ae3c
00000040: b82a 56bc 80d3 bf3d 7e93 b5bd 647d 89bd
00000050: 9c18 c7bd 5360 48be 3493 403d e0f2 4e3e
00000060: efae f23d 3c8a 853d 4111 713e 1876 dabd
00000070: e6ab f73c 3c68 173d fce3 fbbd f260 07bd
00000080: 7312 7cbd cd3b 1ebd 9c14 8b3d 301a d53c
00000090: 4042 23be 1707 8c3d 43b5 01be b159 2ebd
000000a0: ec84 e6bd 9261 5e3e 7286 04be 70be acbd
000000b0: 7ad5 d5bc 3b02 e1bd 58b6 ffbb a41b 2f3d
000000c0: 8d62 21be 6a7c 493e b476 4ebd 300e 87be
000000d0: e5e5 e5bd 4bbb cd3d 8ef1 13bd 515c 1ebd
000000e0: e55f 793b 1979 b83d 934a 0a3e d272 893d
000000f0: 62d8 96bc 6298 e93b 5881 023e 700c bb3d
00000100: 82ec 1d3c d02e 04be c6a7 b03d 461a cabd
00000110: abaa 653c f308 f5bd bf17 06be f466 023e
00000120: 9d2a 813b b5b6 57bd fd45 90bd 2185 2fbe
00000130: 4674 263c 77ca 0b3e c2dd 5fbd 6d5b 0cbe
00000140: 6f19 503d d44e 0b3d 54d2 3a3e 5b32 253e
00000150: f0f9 c63d 8e93 62be 1c31 b7bd a1d0 adbd
00000160: 1835 3d3e 769b 283c bdbb d9bc b783 1fbe
00000170: deb5 7fbe dc64 713e 4315 593e f429 193c
00000180: be12 4e3d 52b8 4cbd 2c4b a6bd 390f 79ba
00000190: 2248 e0bd f4e6 30bd 0161 413e e3bc 1dbe
000001a0: e17e a2bd 0f95 ffbd e680 d13d 39d5 f93d
000001b0: c853 c23d 48d0 ef3d 4b97 a73c 8481 093d
000001c0: 433e 32be 75cd e63d 803b 6cbe 6d72 72bd
000001d0: c0a9 033e b671 433d 5543 4c3d b5f4 25bd
000001e0: f8e0 25be 37ab ecbc 7ba2 983d 4e63 303d
000001f0: fb9d af3d 1b9b 1f3d a50d 52bd 1942 29be
00000200: 9304 383d 6433 843d f640 cb3d 54bf 7cbd
00000210: e021 64bc b572 b73d 66bc 5cbe 85bf 67bc
00000220: 583c 243d 0f50 4dbe 9b59 5d3e 06bc a6bc
00000230: 8d81 98bd bbfd 4dbc a30a 123d 82a1 bfbd
00000240: 63b8 2cbd 6c8f 53be a372 443c 0a0a 623d
00000250: fe8e a93d 45f2 943b d3e9 4fbd e114 df3d
00000260: 7153 8a3d 27f4 753b c498 473d 8352 2cbe
00000270: d4ed 1a3d 8139 b53c 55a6 953d 2499 803d
00000280: 579c 97bd e2e7 15bd f67b 973c c294 47bc
00000290: c5a9 9b3e 9f60 463c 6a04 f9bc d6c4 b3bd
000002a0: bd30 2fbe ff1f 6c3e 9af4 593e 608f 88bd
000002b0: ed52 40be 3c44 4a3e faa4 773e 273e 6b3e
000002c0: 85ea 033e 2452 873d 985d 67bd 0ca4 a53d
000002d0: 0b04 dabd de06 1dbe b7b5 9c3d b164 b83d
000002e0: 36f9 11bd 5596 e13c 97c9 e0bd edcc 75be
000002f0: 4df8 29ba 54f1 5abe b329 023e 52e4 afbc
00000300: 696a b3bd 2ae0 c73d 455c 7abd 3b50 84bd
00000310: dafa 5b3e c963 67bd 7aaa 793d 83c0 f43c
00000320: 0345 823e 8071 173e 4d33 ea3d 8d6d 0cbe
00000330: 4884 01be a688 d43d 8996 a13d 2bda 8ebd
00000340: 6db0 913d 257e 47bd 2d77 97bd 36f6 5bbe
00000350: 6a0e 5b3c 5ffb 063d 9dbd 283d da87 623e
00000360: 6caf 573d d8f9 5bbe 6e10 1bbb c4ca d43b
00000370: 246c 693e 5a4e 2c3b 5147 25be 7d42 30be
00000380: 1b2d 713d b72c 943e 34cc fe3d b6a8 81be
00000390: 4222 533e 086a 23bd e2cd 2cbd d0e4 b6bc
000003a0: 540a 383e 65c5 94bd e5b4 283e d6e2 9cbc
000003b0: e22b 4f3e ce25 85bd 4a6c 7b3e cdfb b53d
000003c0: bf04 0ebe 384b 3cbd 9c04 cc3d 3013 64be
000003d0: e9c4 22be fad9 5abe 4733 bdbd 55b4 e8bd
000003e0: 3912 febd 6b11 0bbe f907 a83c 3359 2bbc
000003f0: 5cc6 283d a6bb 02be ffee eebd 8edc 76bd
-0.079296425 -0.086265326 -0.0397407 -0.06512108 -0.053843714 -0.0032879403 0.1973735 0.019489648
-0.0027408146 -0.11871027 0.15765032 0.027921975 0.026032936 -0.004269245 0.057209436 0.02127426
-0.013071708 0.09366512 -0.088660225 -0.067133695 -0.09721491 -0.19567995 0.047015384 0.20209837
0.11849772 0.06520507 0.23541738 -0.10667056 0.030233335 0.03696464 -0.12299344 -0.03305144
-0.061541032 -0.03863125 0.0679104 0.026013464 -0.15943241 0.0683729 -0.12666802 -0.042566005
-0.112558216 0.21716908 -0.12941912 -0.084347606 -0.02610277 -0.109867536 -0.0078037195 0.04275097
-0.1576025 0.19676366 -0.050406173 -0.26378012 -0.112254895 0.10045489 -0.036119036 -0.03866226
0.0038051542 0.090074725 0.1350501 0.06711353 -0.018413726 0.007128761 0.12744653 0.09133232
0.009638907 -0.12908483 0.0862575 -0.098682925 0.014017741 -0.119645976 -0.13094996 0.12734586
0.0039418475 -0.052664477 -0.07044599 -0.17140628 0.010159558 0.13651453 -0.054654844 -0.13706751
0.050805505 0.034010723 0.18244296 0.1613249 0.097156405 -0.221266 -0.08944914 -0.084870584
0.18477285 0.010290971 -0.026578778 -0.15577589 -0.2497172 0.23573631 0.21199517 0.009348381
0.050310843 -0.04998047 -0.08119807 -0.00095008645 -0.10951258 -0.043189004 0.1888466 -0.15404086
-0.079343565 -0.124796025 0.102296636 0.12198872 0.09488636 0.11709648 0.020457884 0.03357078
-0.17406563 0.112696566 -0.23069572 -0.059191156 0.12857723 0.047715865 0.0498689 -0.040516574
-0.161991 -0.028890235 0.07452866 0.043063454 0.08575054 0.03896628 -0.051282544 -0.1652912
0.044926237 0.064551145 0.099245 -0.061705902 -0.013924092 0.089574255 -0.21556243 -0.014144783
0.04009661 -0.20050071 0.21616213 -0.020353328 -0.07446585 -0.012572701 0.035654675 -0.09356977
-0.042168032 -0.2066018 0.011990222 0.055185355 0.08279227 0.0045454823 -0.0507601 0.10892654
0.067541964 0.003752956 0.048729673 -0.1682835 0.037824467 0.022122147 0.07307116 0.06279209
-0.07402866 -0.036598094 0.018491726 -0.012181463 0.3040296 0.012107997 -0.030397613 -0.08777778
-0.17108436 0.2305908 0.21284714 -0.066679716 -0.18781634 0.19752592 0.24184027 0.22972928
0.12882431 0.06607464 -0.056485742 0.0808793 -0.106453024 -0.15334651 0.07651847 0.0900358
-0.035638057 0.027537504 -0.1097595 -0.24003954 -0.0006483838 -0.21381122 0.1271122 -0.021471176
-0.087605305 0.09759553 -0.06112315 -0.06460615 0.21482411 -0.056491647 0.060953595 0.029876953
0.25443277 0.1478939 0.11435566 -0.13713665 -0.12648118 0.10377626 0.078900404 -0.06975206
0.07113729 -0.048704285 -0.07395778 -0.21480641 0.013370136 0.03295457 0.041196454 0.22122136
0.05265753 -0.21482027 -0.0023660916 0.006493898 0.22795159 0.0026291818 -0.16140486 -0.17212863
0.058880907 0.28940365 0.124412924 -0.2532403 0.20618537 -0.03989604 -0.042188533 -0.022325903
0.1797269 -0.072642125 0.16475256 -0.019151133 0.20231584 -0.06501351 0.24553028 0.08885918
-0.13868998 -0.04597017 0.09961817 -0.22272944 -0.15895428 -0.21372214 -0.09238296 -0.113625206
-0.124058194 -0.13580863 0.020511614 -0.0104582785 0.041204795 -0.12766895 -0.11666679 -0.06026893

bias_ih_l0 f4 [192]
00000000: e840 6ebc a576 183e 7a72 063e 0eee 7a3d
00000010: 3e19 053e 6ec9 c73c e962 c43c 49c3 013e
00000020: ea87 a23d 6fdb 66bd 62e3 cc3c 1b17 4bbc
00000030: 3319 43bd 6975 22bd 9786 373e 94fe 3e3d
00000040: ee2f 15bd 4a61 553d a2e7 023e 97e8 e63d
00000050: 38d0 adba e61b 5b3e b78d 16be 46ad 13bd
00000060: b606 0abd 7807 193c 9cb6 05bd e453 10be
00000070: ee2a 043d f9ab cb3d 1e29 07be cb9b 5d3d
00000080: 16b7 c3bd 4ec2 f53c 2a58 93bc 29b0 553e
00000090: 3d5b 153e 6921 eabc 1ef7 a1b9 03d3 853e
000000a0: d9f1 d8bd c67f afbd 1ba7 1dbd 6945 dabc
000000b0: ecef 58bd b1a3 15bd 30c2 51bd 60fb 5bbd
000000c0: ba4a 8abd ff64 0abe 2e6c 333e a8e3 ea3d
000000d0: 4958 af3c 4591 ba3d 546d 13bd ae33 b0bd
000000e0: b553 723d e69e 033e dca2 423e 7965 a6bd
000000f0: 012f b1bd aa93 89bd c163 6f3d d189 2b3d
00000100: 3324 03bf f146 3dbe 90a1 f5bb fa68 d0bd
00000110: 6db3 e9be 8bc4 efbe 66b7 c5be a690 dabe
00000120: 1a84 b5be 41e3 fabe 9be9 e5be e748 37be
00000130: e3d4 90be 7a71 babe 482d 08be 0279 0cbf
00000140: e137 f2be 96c7 b3be fb84 84be d2d5 4abe
00000150: d2d6 91be 7f5e 99be dd00 29bf 9177 2dbf
00000160: d6d4 71be 905c b3be 34e6 e4be 3e6f e7be
00000170: 1025 5abe be14 cbbe 72c4 4dbe d141 60be
00000180: 14b5 c4be cf92 13bf 38d5 73be 0c5a 2abf
00000190: bb3c 82be 329a c1be 44d6 b4be 8001 55be
000001a0: 522c babe 2e5c d8be 62e8 82be d2db 36be
000001b0: b279 07be b502 a8be fbbb 06bf e410 96be
000001c0: 949f 85be 10d9 4cbe 63fc 12be e8f5 aa3c
000001d0: 4972 82be c5b9 b9bd e736 83be cda0 6ebe
000001e0: bbad babe 16be 81be cfdc 9abe 0c5e b9be
000001f0: 3aee f6be 02c7 d13c 8b0b 67be bd58 15be
00000200: 9c26 2d3d 13dd d33c 7603 07bd 58aa 48be
00000210: 88e3 f43a dd7b 863d 2a78 e23d b25d 863d
00000220: d534 f0b9 6b6e ecbd 9652 1b3d dcbb d4bd
00000230: 0840 863e 7776 c3bd 84aa 68be 7035 163c
00000240: cfd6 bc3c b39e 133e 46c2 0cbe f0e3 083e
00000250: 0c78 61bd 1af6 1abd 46ef 6fbc ac0d 13be
00000260: f407 cb3d 6a91 b8bd 7f56 043e 0100 d13d
00000270: a207 1c3e f7e5 063d 48d6 81bc 384b 01be
00000280: fccf eabd 5d30 413c 1ca8 a7bd f0d7 c03e
00000290: f573 32bd 12b6 983c 9f49 e4bb a692 58be
000002a0: c921 6fbe 2742 1dba ecdd f6bd ec97 22bd
000002b0: e20c 0fbe a448 cebc f8b8 d1bd f0b8 f63c
000002c0: 8e1e f4bc 0fb9 25bd d15f 8ebe 33ef 353e
000002d0: 74eb 42be ff8a 9bbc 41d9 813c 0be0 8d3d
000002e0: dbc4 b13b 65e2 1f3e f5f9 47bc c400 243d
000002f0: eee8 b6bb 4aa0 87bd ed74 40be 6258 bebd
-0.014541842 0.1488901 0.13129607 0.061262183 0.1299791 0.024388041 0.023972945 0.12672152
0.0793608 -0.056361612 0.025010768 -0.0123956455 -0.047631454 -0.039662752 0.17922436 0.046629503
-0.036422662 0.052094735 0.12783673 0.11274832 -0.0013260907 0.21397361 -0.14702497 -0.03605392
-0.033697806 0.00934016 -0.032644853 -0.14094502 0.032267503 0.099449106 -0.13199279 0.054103654
-0.09556405 0.029999878 -0.017986376 0.20867981 0.14585586 -0.028580384 -0.0003089243 0.26137552
-0.10593004 -0.08569293 -0.038489442 -0.026644425 -0.052963182 -0.03653306 -0.051210582 -0.053706527
-0.06752534 -0.1351509 0.17521736 0.11469203 0.021404402 0.09109739 -0.035992935 -0.08603607
0.05916186 0.12853584 0.19007438 -0.08124823 -0.086515434 -0.06717618 0.058444742 0.04187948
-0.5122711 -0.18484093 -0.0074960664 -0.10176273 -0.45644704 -0.46829638 -0.38616484 -0.42688483
-0.35452348 -0.49001506 -0.4490479 -0.17898904 -0.2828742 -0.364147 -0.13298523 -0.54872143
-0.47308257 -0.3511321 -0.25882706 -0.19808128 -0.28484207 -0.29954907 -0.6601694 -0.6776057
-0.23616347 -0.35031557 -0.4470688 -0.4520206 -0.213032 -0.39664263 -0.20094469 -0.21900107
-0.38419402 -0.5764589 -0.23811805 -0.6654365 -0.2543696 -0.37812954 -0.35319722 -0.20801353
-0.3636194 -0.42257828 -0.2556792 -0.17857292 -0.13230017 -0.32814565 -0.52630585 -0.29309762
-0.2609831 -0.20004678 -0.1435409 0.02086921 -0.25477818 -0.09068636 -0.25627825 -0.23303528
-0.3646067 -0.25340337 -0.3024659 -0.36204565 -0.48228627 0.02560759 -0.22562997 -0.14584632
0.04227315 0.025862252 -0.032962285 -0.19596231 0.0018683532 0.06566594 0.11058076 0.0656084
-0.0004581573 -0.11544498 0.037920557 -0.10387394 0.26220727 -0.0954408 -0.22721297 0.009168014
0.023051647 0.14416008 -0.13745984 0.13368201 -0.055046126 -0.037832357 -0.01464445 -0.14360684
0.09913626 -0.090121105 0.1292362 0.10205079 0.15237287 0.032934155 -0.015849248 -0.1262635
-0.11465451 0.011791316 -0.08186361 0.37664747 -0.043567616 0.018641505 -0.006966784 -0.21149692
-0.23352732 -0.0005998932 -0.12054047 -0.039695665 -0.13969758 -0.025181122 -0.10240358 0.030117482
-0.029799726 -0.04045969 -0.27807477 0.17767029 -0.1903513 -0.018987177 0.015850665 0.069274984
0.0054250783 0.15613706 -0.0122055905 0.040039793 -0.0055819666 -0.066223696 -0.18794604 -0.092942014

bias_hh_l0 f4 [192]
00000000: 4015 f23d c7fb c73c 4119 85bc 5700 bf3b
00000010: 1e23 7a3d c107 c83d c2fa 623d ac65 cc3d
00000020: 384d b73d 4569 acbb b8e7 ef3d bbdb 043e
00000030: ff87 11be 9dd1 aebc f0e0 c93d f9ad bf3c
00000040: 9aac f83b fc43 563c 2f11 123d 7934 5cbb
00000050: d61b 123e a30f 863d 6ea8 dabc a8fe 2dbd
00000060: 3868 f93d eac0 71bc ca62 123e 2c31 dabc
00000070: 1b5e 01be f68a b5bc 74f0 39bd 4642 1b3d
00000080: 0502 5d3d 7ada 19bd 6d1a f53d f61d 2f3e
00000090: 1537 29bd 09e8 863d dd97 02bc dd93 7e3e
000000a0: 831f 14bd 468f 77be 6c85 e33d 5dca acbd
000000b0: 17e0 87bd 363e 4e3d 9e28 9a3d 75c9 e73c
000000c0: 3058 ac3c e7b6 e0bd be1c d93d 31ca 64bc
000000d0: d23e cf3d 0fa2 9bbc 4852 edbd 54ed c3bc
000000e0: 5bba 51bd 28d5 393d eb55 ccbc 9903 f4bd
000000f0: 645f 19be 2138 98bd 5403 6e3d 521c dc3d
00000100: 6641 cdbe 5806 0d3c f8b5 39bd ea7e 55be
00000110: c036 9ebe eb59 d4be 6913 97be ceca 62be
00000120: 76da c4be 8c34 06bf df92 01bf 091a c6bd
00000130: 2619 8fbe 7332 bdbe 1278 0fbe 76a6 2dbf
00000140: 9c5c 94be edf3 c8be 109f 43be a7cf b2be
00000150: 457f 35be bff3 8dbe 6527 26bf cb04 1abf
00000160: 51fe d4be 9257 dcbe ab4a b2be 4209 cdbe
00000170: b126 1bbe 74df bcbe 2ecc 65be 3149 1dbe
00000180: ff07 9abe e12a d8be d7d4 8abe 5d21 20bf
00000190: b80c 32be 6171 c5be 0e74 30be 95c0 39be
000001a0: c210 16bf 6a2c 94be e029 b8be cd8d 84be
000001b0: 95fb 21be 503d 1ebe bd88 d8be 9057 fcbe
000001c0: 502a e8bd 78d3 e7bb 9da0 abbd 7ff0 46bb
000001d0: 3223 62be 0442 00bd 854d d0be af24 41be
000001e0: 70e5 91be a027 41bd 7eb2 92be 1f70 8dbe
000001f0: 3f6e e0be 4c2a 273d 2472 7ebe f90b 99be
00000200: 7000 94bd 6fe0 50bc a015 90bc 24e1 37be
00000210: e4c6 e73b 0eed 01be 84fe 4d3e 550f 5a3e
00000220: 1695 96bd ccee 8c3d e2f9 86be 5a4f 46bd
00000230: 81e3 4b3e 9017 863d 5d66 cfbe 042c ac3e
00000240: f040 9abd 7306 a5bd 1e3a df3d 3ae4 423e
00000250: 1a87 72bd de1e 69bd baa7 cbbc a590 fb3b
00000260: 3313 17bd bb1a 503e b4df 9c3e e765 493e
00000270: 11e3 c3bd 7c07 7abe c179 d8bd 944f 89bd
00000280: 5347 01be 0e7e 95bc 5a07 fabc 958c 1c3f
00000290: 3f32 51be 1e93 40be 3a24 353d 18f6 9abd
000002a0: 1c8a 29be 9d81 80bc ec6e e53b fbec 943d
000002b0: 83e1 c43c 047b c93c 5f03 a6be c251 e7bc
000002c0: 4362 10be fe24 e73b 5bc5 12bf e337 b43d
000002d0: bb4f 27be fb75 9a3d 4dc3 ac3c 996a 8d3d
000002e0: 5671 083d 22c8 1f3e 6bba e03d c48d 063b
000002f0: 79a6 95bd b31f 31bb 6c3b 133c b01f f03d
0.11820459 0.024412049 -0.016247394 0.005828898 0.061068647 0.09767104 0.055414923 0.0998033
0.08950275 -0.0052615725 0.11714119 0.12974446 -0.14212035 -0.021340186 0.098573565 0.023398386
0.007588935 0.013077732 0.03566092 -0.0033600612 0.14268431 0.06545951 -0.026691642 -0.042479187
0.12178081 -0.014755467 0.14295498 -0.026634775 -0.12633555 -0.022160988 -0.04539533 0.037905
0.053957004 -0.03756187 0.11967931 0.17101273 -0.041312296 0.06587226 -0.007970777 0.24861093
-0.036162864 -0.24175748 0.111094326 -0.08437035 -0.066345386 0.050352298 0.07527278 0.028294304
0.021038145 -0.10972386 0.10601185 -0.013964222 0.10119404 -0.018998174 -0.115879595 -0.023916878
-0.051203113 0.045369297 -0.024943313 -0.11914749 -0.14977795 -0.07432581 0.058108643 0.10747589
-0.40088958 0.0086074695 -0.045339555 -0.20849195 -0.30901146 -0.41474852 -0.29506996 -0.22147676
-0.38447922 -0.5242393 -0.5061473 -0.096729346 -0.27948874 -0.36952552 -0.14010647 -0.67832124
-0.28976905 -0.392486 -0.19103646 -0.3492405 -0.1772433 -0.27725026 -0.6490386 -0.60163563
-0.41600278 -0.4303556 -0.34822592 -0.40046126 -0.15151478 -0.3688923 -0.2244117 -0.15359952
-0.30084226 -0.42220214 -0.2711551 -0.6255091 -0.17387664 -0.38563064 -0.17231771 -0.1813987
-0.5861932 -0.28940135 -0.35969448 -0.25889435 -0.15818627 -0.15453076 -0.42291823 -0.49285555
-0.113361955 -0.0070747696 -0.08380244 -0.003035575 -0.22083738 -0.031312957 -0.40684143 -0.1886165
-0.2849536 -0.04715693 -0.28651804 -0.27624604 -0.4383411 0.04081182 -0.24848229 -0.29891947
-0.07226646 -0.012748822 -0.017588437 -0.17956978 0.00707327 -0.12688085 0.20116621 0.21294911
-0.07352655 0.068814844 -0.2636252 -0.04841552 0.19911005 0.06547463 -0.40507784 0.3362733
-0.07531917 -0.08057871 0.10899757 0.19032374 -0.059210874 -0.056914203 -0.024860252 0.007677155
-0.036883544 0.20322697 0.30639422 0.19667779 -0.09564794 -0.24416918 -0.10570098 -0.067046314
-0.12624864 -0.018248584 -0.030521084 0.6115201 -0.20429324 -0.18806121 0.044224 -0.0756647
-0.16556591 -0.015686804 0.0070017483 0.07271763 0.024033314 0.024594791 -0.32424447 -0.028237227
-0.14099984 0.0070539704 -0.5733239 0.08799722 -0.16339009 0.07542034 0.02108922 0.069050975
0.03331121 0.15603688 0.109730564 0.0020531276 -0.07307143 -0.002702695 0.008986335 0.11724794

weight_ih_l1 f4 [192, 64]
00000000: 4c16 9b3d b649 253c 5b71 d83b 2a4b b0bd
00000010: c1d8 8a3d e7f3 65be 574f 07be f823 a33d
00000020: e5d6 dfbc 6b73 c7bd 5b18 01be a8ee d63d
00000030: 9926 c8bd 210f 983d 854c 1cbd a8ab ae3d
00000040: 6cf3 aa3d 880b 0f3c afef ac3d de93 84bc
00000050: bcdc a03d 1c3a 183c b1a0 26bc 057f 76be
00000060: c3ed b53d 81d0 55bd acf1 91bc ccfb 27bd
00000070: 76d1 2ebc 13dc 023e 546d fdbd 2c5b 7f3d
00000080: 4306 503e 106e bebd ab91 b1be a09d 113d
00000090: 50fb bc3e 0483 223d 39fe 8a3c 6c46 d63d
000000a0: 9cc7 2cbe d56a 6c3c 9f92 acbd cfca bf3c
000000b0: d1a1 453e 3256 e63e a49d 40be 8fd4 65be
000000c0: 3706 963d 239a eabd be49 0d3e 8e4c cb3d
000000d0: df1e 193e ce29 52be 2bf6 903e c97e 62be
000000e0: 8c43 063e 9627 6c3e da6f d7bb c98e 413e
000000f0: d067 9c3d 92b2 bb3d 9542 d63e be15 76be
00000100: 7e1c 0cbd db20 803d 3c42 4b3d 6944 8f3c
00000110: 46d8 463e 7dac 70bd 31f3 35bd 9477 dabd
00000120: f427 d5bd a2ce 91bd bd5b 623d 470d 8e3e
00000130: 9f53 07be bf84 e8bd 5280 a7bd 1500 4b3c
00000140: 8639 963e 620f 173e 075c 3ebd dc3e 8c3d
00000150: de7f c3ba 48d2 d83d 3950 2f3e 172d 39be
00000160: d6e9 333c 59b9 823d 27d2 f93c ad13 8abe
00000170: af3f 44be f326 0a3d 9787 50be 2405 0a3e
00000180: f2d4 8f3d 61c2 98be 9003 81bd fb7a f43c
00000190: c928 e4bc caf4 7d3e a1df a13d c59d e83d
000001a0: c426 aabd 1e5f 643e c8b2 1d3d 3539 22bd
000001b0: 74cb b53d 9a02 d1bd b733 9b3c 865c 72be
000001c0: b164 613c 81fc f5bc 34f9 963d 27b1 93be
000001d0: 405e 633d aa7c 26be 5db8 bb3d 4377 26be
000001e0: 04d7 6b3d 5475 97bd 542c cbbc b0f7 b93c
000001f0: a8d3 47be 075a f73c 08b8 603d 9288 1cbe
00000200: 273f 9b3e 6f04 883d 957d 193d e598 0a3e
00000210: 8342 b93d c0a2 f43d 2156 25be f5d2 453c
00000220: 8e0c 393e 6fdb 52be a2fc 8e3e 2daa 66bd
00000230: 322c 823e c2ae 5dbd 8d19 1fbc 80f9 d33b
00000240: e19c 02bd 42b8 e43d fd7c 9dba 9cf4 adbd
00000250: ab60 103e 77cd 313e 99af 1a3c dc3b 733e
00000260: f410 c43d da99 65be fd52 bbbd 29c0 ef3d
00000270: b2f5 62be d4f8 6a3d 53e0 bc3c eb37 23be
00000280: 384e ddbc 408c 84be ef3a f0bc 18e2 353d
00000290: b9e5 5b3e 286c 10bd c852 c9bc 35bb 9b3d
000002a0: 6642 a7bc 27aa 5f3e 6cbf 423e 74ce 113e
000002b0: af0e 08bd 1897 1abe c69c 963d 8f2b 063d
000002c0: 22e5 00bd f144 72bd 7357 14be 7856 403e
000002d0: 4f2a 373e e601 a1bc c0e1 ed3d 5030 d23d
000002e0: 96d6 e7bd e99c 0ebd 8199 8a3d b034 99bd
000002f0: bed8 55be 8e1e cfbd a223 f0bd 7c2d 03bd
00000300: 89f5 19be ffc3 503e 7803 9b3a c3e7 6d3d
00000310: 8cec af3c 2276 8d3d 1d15 9c3d 1d72 783e
00000320: 388e fabb cd89 df3e f802 41be d98c 193b
00000330: 4b8a 1cbe a95e ac3d 61fe 613d d0da a73c
00000340: dcac 99bc 63d9 9e3d 4099 6bbd 38d4 8fbd
00000350: a8d9 81bd 681b 95bd 82bc 1b3e 52ff 343e
00000360: a519 1dbd 6e0a 11bd 2445 9cbd de16 25bd
00000370: e20c 08bd 21ae de3d dca2 bcbe 61f3 2b3d
00000380: 4212 8f3c ef50 09bd 1b90 393e 1a93 bc3c
00000390: 5536 dfbd a325 ee3d 751f 1ebe 3a15 09bd
000003a0: 0f34 4abe c825 45be ada2 bbbe 3f46 993d
000003b0: b11b 5c3e aa6e 213e 38a2 8abe 4b55 09be
000003c0: 6eab 9b3d 7d29 1ebd 145c 1f3e b5b9 f33d
000003d0: 62ba 69be 2ef5 ebbd d128 99bb a885 46be
000003e0: b2f8 86be 2704 2abc 06f4 3fbd 89b7 8a3c
000003f0: 2317 573e 0484 66bc e920 283d 2b0b b5bd
0.07572612 0.010088375 0.00660531 -0.086080864 0.06779624 -0.22456323 -0.1321386 0.07965845
-0.02732415 -0.09738811 -0.12606947 0.10494739 -0.09772987 0.074247606 -0.038158912 0.085288346
0.0834721 0.008730777 0.084441535 -0.01618379 0.07854602 0.009291198 -0.010170148 -0.24071892
0.0888324 -0.052200798 -0.017815433 -0.041011617 -0.010670057 0.12779264 -0.12374368 0.062342808
0.20314889 -0.092983365 -0.34681448 0.035550714 0.36910486 0.039675727 0.016966926 0.10462651
-0.1687302 0.014429768 -0.08426403 0.023412136 0.1930001 0.44987637 -0.18810135 -0.22444366
0.07325404 -0.114551805 0.13797662 0.09926711 0.14953183 -0.2052376 0.2831281 -0.22118677
0.13111705 0.23061976 -0.006574613 0.18902124 0.07636988 0.09164919 0.41847673 -0.24031731
-0.03420686 0.06256267 0.049623713 0.017488675 0.1941844 -0.058758248 -0.04442138 -0.10667339
-0.10408011 -0.0711949 0.05526327 0.27744505 -0.13215493 -0.11353444 -0.08178772 0.012390156
0.29340762 0.14751962 -0.046474483 0.06847927 -0.0014915427 0.10586983 0.17120446 -0.18083607
0.010981044 0.063830085 0.030495716 -0.26968136 -0.19164918 0.03372855 -0.20364223 0.13478523
0.07023038 -0.298358 -0.062995076 0.029843798 -0.02785148 0.24800411 0.07903982 0.11358217
-0.08308175 0.2230191 0.038500577 -0.039605338 0.08876696 -0.10205574 0.018945558 -0.23668107
0.013756917 -0.03002763 0.073717505 -0.28846094 0.055509806 -0.16258493 0.09166024 -0.16256432
0.0575781 -0.073954254 -0.02480141 0.022701114 -0.19514334 0.030194296 0.054863006 -0.15286472
0.3032162 0.06641471 0.03747328 0.13534887 0.09045889 0.119451046 -0.16146137 0.012074222
0.18071195 -0.2059152 0.2792712 -0.056314636 0.25424343 -0.05412174 -0.009710682 0.0064689517
-0.031887893 0.11167957 -0.0012015399 -0.08493921 0.14099376 0.17363535 0.00944128 0.23753303
0.09573546 -0.22421971 -0.09146688 0.117065735 -0.22164038 0.057366207 0.023056185 -0.159393
-0.027014837 -0.25888252 -0.029324977 0.044405073 0.21474351 -0.035259396 -0.024575606 0.07604066
-0.020417403 0.21842252 0.19018334 0.14238912 -0.03321713 -0.150967 0.07354121 0.032756384
-0.031468518 -0.05914778 -0.14486484 0.18782985 0.17887233 -0.019654226 0.11615324 0.10263121
-0.11320226 -0.03481761 0.0676756 -0.074807525 -0.20883462 -0.1011325 -0.117255464 -0.0320258
-0.1503507 0.20387267 0.0011826595 0.058082353 0.021475099 0.06907298 0.076212145 0.24262281
-0.0076463483 0.4365982 -0.18848789 0.00234299 -0.1528713 0.084164925 0.055174235 0.02049008
-0.018759184 0.07756307 -0.057519197 -0.070228994 -0.06340343 -0.07280618 0.15208629 0.17675522
-0.038354535 -0.035410337 -0.07630375 -0.04030501 -0.03321541 0.10873056 -0.36843002 0.04198015
0.01746476 -0.03352445 0.18121378 0.023019362 -0.10899035 0.116282724 -0.15441687 -0.03346751
-0.19746421 -0.19252694 -0.3664755 0.074841015 0.21494938 0.15764871 -0.27076888 -0.13411443
0.07601057 -0.038613785 0.15562469 0.11900655 -0.22825006 -0.11521374 -0.004674055 -0.19386923
-0.26361614 -0.010376967 -0.04686358 0.01693322 0.2100492 -0.014069561 0.04104701 -0.08840021

weight_hh_l1 f4 [192, 64]
00000000: cea5 f2bd ab86 bb3d 9b55 143b c76d 063e
00000010: 81bf 01be b262 3c3c 7372 27bd 6c35 09bd
00000020: f606 a23d 7fc4 94bd 725c fdbd 4c6a abbd
00000030: de82 d73c 7d61 833d 4c47 a9bd 5913 fb3d
00000040: a1c1 d5bd 9482 303c c84d cabc 4d4f 9c3d
00000050: 7a31 02bd 5879 513d 78e5 49bc c3dc 8a3e
00000060: c516 0a3d 410a bd3d e0ca 3c3d dc15 0dbd
00000070: e782 dbbd 3af0 633d 38e6 86bd f082 abbd
00000080: 8e40 583e 2889 a5bc b4e9 0abd 0ed5 07be
00000090: 9845 38bd dae5 f6bd b934 bcbd 37ed 3c3e
000000a0: ab5b 44bc 3e1b 0fbe 1c86 4c3d dc71 8cbd
000000b0: add5 72bc 5b42 af3d 089b bf3d 1677 803e
000000c0: cb64 bdbc 2148 913d b544 52bd 1daa 943d
000000d0: dce4 cb3d 4b06 a5bd 9dcd e43d ee2e 12be
000000e0: 74fa af3c b9fe 403d 30ef e8bd e6eb 0b3c
000000f0: 4c2f ad3d c55c b23d 189e 69bd 800c 1bbe
00000100: c53e 9bbd 52b1 bf3e 488a d1bd 8605 2cbe
00000110: 01b4 af3e ef74 6a3d f4f5 aebd ac57 84bd
00000120: fabc 0ebe 21cf 61be 518b 88bd 9dbd 213d
00000130: b763 513c f989 d3bd 7a08 373c 5e37 c4bc
00000140: 015a 803d 2477 c2bd 925b e5bd 7bf5 913e
00000150: 32d4 e63c 9ab4 06be b958 ba3b 544d 72bd
00000160: 7d7c 4dbd c44d e6bd c41f 30bc d74d 283d
00000170: 41a7 fe3d 20e2 2abd 01c6 c4bc 2d7b 2cbe
00000180: a7ca 00be 3fa6 27be 4f46 d3bb 7ab8 2c3d
00000190: 3b77 60bd fcf3 8bbd 8dff 8bbe 4fb2 283e
000001a0: 6b13 2bbc 5d5c 153e 912a 73bd a48a 153e
000001b0: 0a39 03bc 9c84 fabd 8231 8b3e c029 733d
000001c0: 18c1 12be e2df e83d 911d 1d3b f862 3f3d
000001d0: e586 b0bc c240 8f3a c027 753e eb16 0fbe
000001e0: 2748 fb3d 39b9 be3d 39ff 03be 7773 bdbc
000001f0: 0b95 f7bd 1925 fe3d 731b 39bc 64e1 6ebd
00000200: 0ce7 f13c 998d c1bd a617 72bc c49f 82bd
00000210: 6233 303b c2f3 b3bd 40d5 84bd bfb1 adbd
00000220: ed1b 11be 61dc 67be b940 183e 1c48 1d3e
00000230: e1c9 56be f607 b03d ab58 d1bd 7830 d13c
00000240: b03c 00bd ddbf c93d 3e66 0ebd e786 0dbe
00000250: afab de3d f021 753d aa62 1a3e bf5f 243e
00000260: e1d6 68be 8100 ed3c 4157 b1bd 84a6 e53d
00000270: 611a 353d 58c5 5fbd b038 a63c 51c5 bf3c
00000280: 4116 3cbd 6c5d 12bd b855 90bd aa7b 473d
00000290: ef9d 413e 5dcc 803d 3d3d 0cbd 9dff 3e3e
000002a0: 9945 72be 6aee 963b 1217 e8bd 7149 373d
000002b0: 4e23 703d fd1d 92be f591 b03d 6b4b 1f3e
000002c0: fd7c 4d3e b473 3e3d e707 d73d aab7 db3d
000002d0: 0e4c 93bd c616 e53d 29fc fe3c 8818 9ebd
000002e0: bdbd a6bd aab3 0dbd 7d31 efbd c1e8 8e3d
000002f0: a567 193e 5ba5 03be e85e a2bd f3d1 a4bc
00000300: 2043 7f3b 33ba 4abe d897 36bd 1116 69bb
00000310: ccbf 35bc f0be ffbc 833d b33e e009 83bd
00000320: 5c1d 2ebe c0c3 05bc f39a b63d fb6b 54be
00000330: 09eb fa3d 85be 84bd ac2a 96bd bb70 55bd
00000340: c2b9 4bbe 4724 a03d a48e c0be c2ee 31be
00000350: f31b ecbd 0374 883d 9fd2 34be f5c9 853d
00000360: 3e21 0dbe de6c e63c 4c3f 8b3d c513 a6be
00000370: 2324 52bd 9821 79bd 053b 5f3e f523 05be
00000380: 7531 fc3d 641f 75bc 3c2c 2bbd 8697 833e
00000390: 1790 b13d ed17 a73d 52c4 09be 5bc2 01bc
000003a0: 13c4 ad3d 3ffd 883d caef 04be 68a6 063b
000003b0: 529c 983c c7e8 87be 5de0 d73d c093 933e
000003c0: 2bcf ff3d 6040 78bd 9d91 2f3e dc6b 54bd
000003d0: 12a8 1bbc bce4 383e bafc 513e 837c 973d
000003e0: 2aed fabd bc40 8bbd 91c5 d5bc d851 c8bd
000003f0: cec8 823e e169 5f3e a91f 23be b183 a1bd
-0.11848031 0.09156545 0.0022634033 0.13127814 -0.12670709 0.01149814 -0.04088063 -0.033498213
0.07911484 -0.07264041 -0.12371148 -0.08369884 0.02630752 0.06415079 -0.08265552 0.1225955
-0.104373224 0.01077332 -0.024695292 0.07632313 -0.031785466 0.051141113 -0.012322776 0.27121553
0.03371312 0.092304714 0.046091914 -0.034444675 -0.10718327 0.05564902 -0.065868795 -0.08374584
0.21118376 -0.020207003 -0.033914283 -0.13264868 -0.044988245 -0.120555595 -0.091897435 0.18449865
-0.011984746 -0.13975236 0.049932584 -0.068576545 -0.014821452 0.08557578 0.09355742 0.25090855
-0.02311935 0.070938356 -0.051335055 0.07259009 0.09955761 -0.08057841 0.1117203 -0.14275715
0.02148173 0.047117922 -0.113737464 0.008540129 0.08456287 0.08709101 -0.057035536 -0.15141487
-0.07580332 0.37439972 -0.10231453 -0.16798982 0.3431702 0.057240423 -0.085430056 -0.064620346
-0.13939276 -0.2205167 -0.066671975 0.03948747 0.0127801215 -0.103290506 0.011171455 -0.023952182
0.06267167 -0.094953805 -0.11199106 0.285076 0.028177354 -0.13154832 0.005686846 -0.059155777
-0.05016755 -0.11245301 -0.010749761 0.04108986 0.12434245 -0.041719556 -0.024020197 -0.16843863
-0.12577306 -0.16372012 -0.0064475904 0.042168118 -0.054801207 -0.06833646 -0.27343407 0.1647427
-0.010441641 0.14586015 -0.059366766 0.14603668 -0.008009205 -0.122323245 0.2718621 0.059365988
-0.14331472 0.11370827 0.0023973922 0.046725243 -0.021548698 0.0010929334 0.23940945 -0.13973586
0.12269621 0.09312672 -0.12890328 -0.023126347 -0.120889746 0.124094196 -0.011298048 -0.058320418
0.029529117 -0.09450836 -0.014776146 -0.06378129 0.0026886095 -0.087867275 -0.06485987 -0.08481168
-0.14170809 -0.22642662 0.1486844 0.15359539 -0.20975448 0.085952684 -0.1022199 0.025535807
-0.031307876 0.09851048 -0.034765474 -0.13820992 0.1087259 0.05984682 0.150767 0.16052149
-0.2273822 0.028930904 -0.086592205 0.11213401 0.04421461 -0.05463156 0.020290703 0.023409517
-0.04591966 -0.035733625 -0.070475996 0.04870192 0.18907903 0.06288979 -0.03423809 0.18652196
-0.23659362 0.004606058 -0.11332525 0.044747774 0.05862742 -0.28538504 0.08621589 0.15556113
0.2006721 0.04649706 0.10499554 0.107283905 -0.07192241 0.11185984 0.031126099 -0.07719523
-0.081416585 -0.03459517 -0.11679361 0.06977988 0.14980944 -0.12856047 -0.07928258 -0.020119643
0.0038949922 -0.19797592 -0.044578403 -0.003556613 -0.011093091 -0.031218976 0.35007867 -0.06398368
-0.17003387 -0.008164346 0.08916273 -0.20744316 0.12251861 -0.06481651 -0.07332358 -0.05210946
-0.1989508 0.07819419 -0.37608826 -0.17376235 -0.115287684 0.066627525 -0.1765847 0.06532661
-0.13782212 0.028128084 0.06799182 -0.32436958 -0.051303994 -0.060823053 0.21799858 -0.13001998
0.12314121 -0.014961097 -0.041790232 0.2570154 0.08670061 0.0815886 -0.13453797 -0.007919873
0.08484664 0.06688928 -0.12982097 0.0020545963 0.018629227 -0.26544783 0.10540841 0.28823662
0.12490686 -0.060608268 0.17145391 -0.051860675 -0.00950052 0.18056005 0.20506564 0.073967956
-0.12252267 -0.067994565 -0.026095184 -0.097812355 0.25543827 0.21817733 -0.15930046 -0.07886446

bias_ih_l1 f4 [192]
00000000: 7f2e 103d 105f ddbc 89d0 463d 4fde b93b
00000010: aba8 833c beb2 d6bc 411e 4abe 7fbe 723c
00000020: d029 903d b5e1 203e 5b36 073e c289 bebd
00000030: 0009 803b 2f5f 07be 09f5 0bbd 1f7e 853c
00000040: 2e7a af3d 747e 25be 83b9 87bc ed65 24b9
00000050: 662d aa3d 214d 963d 75c1 08be 33c3 403d
00000060: f1a0 cc3d d74d 9a3c f1f2 ad3d 0cb2 413d
00000070: c9a8 e03d 16b7 ccba d589 23be 672e b6bc
00000080: 0315 0e3e 11c6 d03d 5084 3bbc 1f00 273d
00000090: ce73 0d3b d388 1cbe 18b2 b23d 9b11 c03d
000000a0: ecfe 983d 672b 103e 4d95 a2bc 83d4 893d
000000b0: ba37 c33d 6aae e0bc e333 d3bc 27e8 063b
000000c0: b86f e73d 287c 9abc 5a31 ed3b c66e d13d
000000d0: 34fb f23c 87b1 b7bd ee4b e8bd 7584 92bc
000000e0: 41fe abbd 7bae afbd 2f57 b13d 2eb3 1cbe
000000f0: d75e b03d 26d8 993d 30a6 de3d 8719 01bd
00000100: a4c7 a0be 2c90 01bf 0a4b 74be b3ef ebbe
00000110: 7760 87be 6769 56be d62b a9be c1b2 4dbd
00000120: a8e8 bbbe 4566 9dbe 241c 8ebe 6cc6 02bf
00000130: 2b41 13be f129 9fbe 1480 d1be d534 ddbe
00000140: 1165 35be 8f01 d2be d7bd a0be be14 4ebe
00000150: d01c 21bc f2b7 1abf 28c5 103d 9661 82be
00000160: 8c1c 8cbe 5345 8fbe fb3e 92be 6335 98be
00000170: be78 3abe 604d a9be 4c80 30be 82c9 39be
00000180: 3a66 9abe 9fa3 97be 9288 5fbe d572 55be
00000190: 1cfb 71be ac27 41be 55bd 39be 4ffe 70be
000001a0: 3e67 4f3c 0252 24be f101 9fbe cebd 8ebe
000001b0: 2e21 dabd d05f 4abd d0a4 8bbe 4f15 01be
000001c0: 4cb5 64be 1302 ddbe 0bcd dbbd 7fa8 72be
000001d0: d4f3 18be 7420 e1be 0a57 ddbe cbbf 75be
000001e0: 1eda 12bf 7432 2dbe 2786 15be 940f e0be
000001f0: 9a2d cfbe 53ee 96be 2f60 b3be 7d19 bcbe
00000200: cf3c 3ebd fdbd 8f3c 0b52 773d b228 25bd
00000210: d2f3 c03d 5e13 26bd 492c b93d 7303 8c3c
00000220: e9f2 c33d 01f8 ed3c 99c3 933e 9418 983d
00000230: 44ba 9d3c 4902 f03d 83c1 30be 552d 1dbd
00000240: 0d62 a0bb b0d3 a03d a8b5 213e ab38 91bd
00000250: 11d5 c6bd 0da9 5bbe 1fd1 79bd 6511 a0bd
00000260: 7734 923c a790 803e 91de 08be 4631 db3d
00000270: eee6 063d 9232 a63c 1c91 033e d773 c13c
00000280: 8cfa a5bd bcc1 823d b126 96bd 2e4a 983d
00000290: 6e25 8e3c c4b1 6b3d 7ac9 8fbc 907f 1b3c
000002a0: df37 7fbd 1fbe 94bb 9baf 8b3d 4a55 8dbc
000002b0: ca40 ef3d 6c66 abbd d3fa 83bd d560 07be
000002c0: 1ed0 7c3e b870 3bbe 8977 f53d 527c a53d
000002d0: 25c2 89bd 1421 82be d1b8 0abd 92ff fbbb
000002e0: 37fa 293e 4691 ac3d 1712 83bd ceec 103e
000002f0: fa2e c13c 2eec 833d f932 c23c f5dc 753d
0.035200592 -0.027022868 0.04853872 0.005672253 0.016071638 -0.026208278 -0.19738103 0.014815926
0.07039225 0.157111 0.13204329 -0.09303619 0.003907323 -0.13219903 -0.03416923 0.01629549
0.08568226 -0.1616152 -0.016567951 -0.00015678229 0.0830944 0.0733893 -0.13355048 0.047061156
0.09991635 0.018835945 0.08493603 0.04728894 0.10969693 -0.0015618529 -0.15970547 -0.022238923
0.13875203 0.10194028 -0.01144512 0.0407716 0.0021583918 -0.1528657 0.08725375 0.09378358
0.074704975 0.14079057 -0.019846583 0.067299865 0.095321134 -0.027426917 -0.025781577 0.002058515
0.113006055 -0.01885803 0.007238549 0.102262065 0.029660799 -0.089694075 -0.113426074 -0.017885426
-0.083981045 -0.085782014 0.08659207 -0.15302727 0.08611839 0.0751193 0.108715415 -0.031518485
-0.31402314 -0.50610614 -0.2385675 -0.46081313 -0.26440784 -0.20938645 -0.33041257 -0.0502193
-0.3670094 -0.30742088 -0.27755845 -0.5108402 -0.14380328 -0.31086686 -0.40918028 -0.4320437
-0.17714335 -0.41016814 -0.31394836 -0.201251 -0.00983353 -0.6043693 0.035344273 -0.25465077
-0.2736553 -0.27982578 -0.28563675 -0.2972823 -0.18210122 -0.33066845 -0.17236441 -0.18143275
-0.30156118 -0.2961702 -0.21829441 -0.20844586 -0.23630947 -0.1886279 -0.1813863 -0.23534511
0.012658892 -0.16046908 -0.3105617 -0.27879184 -0.1065086 -0.04940778 -0.2727418 -0.12605785
-0.22334784 -0.43165645 -0.10732468 -0.23697089 -0.14936763 -0.43970072 -0.43230468 -0.23998944
-0.5736407 -0.16913778 -0.14601956 -0.43761885 -0.4046448 -0.29478702 -0.3503432 -0.36738196
-0.04644471 0.017546648 0.060380977 -0.040322013 0.09421505 -0.040545814 0.0904165 0.017091488
0.09567816 0.029048922 0.28860167 0.07426563 0.019253857 0.11719186 -0.17261319 -0.03837331
-0.004894501 0.07852876 0.15791953 -0.07090887 -0.09708608 -0.21451207 -0.06099045 -0.07815818
0.017847283 0.2511036 -0.13366152 0.107027575 0.032935075 0.020287786 0.12848324 0.023614807
-0.08104429 0.06384608 -0.073315986 0.07436024 0.017351832 0.057542577 -0.017552126 0.0094908625
-0.062309142 -0.0045392658 0.068206035 -0.017252583 0.116822794 -0.08369145 -0.06444325 -0.13220532
0.24688765 -0.18304718 0.1198569 0.08080353 -0.06726483 -0.25415862 -0.03386766 -0.0076903785
0.16599356 0.08426146 -0.06399935 0.14152834 0.02358197 0.06441532 0.023705946 0.060025174

bias_hh_l1 f4 [192]
00000000: 4191 f3bd 329c e23d 1e50 71bd b836 04be
00000010: a904 133d 0dda 313d f1bb a0bd 5735 c93c
00000020: beba f2bd 84f5 d53d ae05 363e 4a8f 043d
00000030: 45db 81bd 9073 e73d f5be bf3c 39b0 9d3d
00000040: 5d30 9f3d c919 b93c a6ef b0bd 845a 07be
00000050: af9f dd3d ceeb 243d d85f 23be 7261 b3bd
00000060: 0e57 033e 3e0a 8c3d 6f5d 2dbd e325 47bd
00000070: ec4e 4c3d 9bb3 9abb 2b58 84bd ab81 b4bc
00000080: 93a3 523d 4c86 9e3d 43f4 3a3d 9e90 dbbd
00000090: 132f 0bbc e6fb 2fbe 9468 b2bd 2ae4 f03d
000000a0: 83d9 243c da09 a7bd fa08 913d b04f 61bd
000000b0: dde4 9d3d 3699 2f3c 80b9 393d 811b d8bd
000000c0: 471d efbd 71be 9abd a823 8ebd 9a3b fc3d
000000d0: 41d2 d63d ceda 7dbd cbc9 233c 80f9 a0bc
000000e0: 82ca 903d b9a1 873d 007d 0abd 1459 ab3d
000000f0: 7374 473d b8f2 89bd edce ed3b e032 d8bd
00000100: c531 89be d786 14bf ede7 2ebe b926 06bf
00000110: 19e1 dabe 73ff 7ebe d426 85be 3e89 55be
00000120: 3ef6 9bbe 3780 96be 8b5b cebe 7f8f dabe
00000130: 9c71 ccbd d308 ddbe 6d71 89be f00f a1be
00000140: cb74 0dbe b7d4 d1be cfeb 00be bf79 35be
00000150: 8492 57be caae 0cbf cff5 fcbd 5998 78be
00000160: 38ef 3dbe 7e99 89be aac9 85be b9c0 c3be
00000170: 4ab7 62be 5326 7ebe b3c7 07be 528c 76be
00000180: 67eb 84be 345c 84be 44db 93be 97ec 62be
00000190: bef0 9abd 4d17 25be 5339 c1bd 6d3a 86be
000001a0: d038 62be 057f 5dbe a82d 81be 8bdd acbe
000001b0: f1fd 99be 1a98 c23d ec70 cdbe 5629 8cbd
000001c0: f6cc 5bbe ffba 9fbe b172 73bd 2f59 94be
000001d0: 264d e5bd ee1b dbbe 5f13 00bf 4ab6 8abe
000001e0: a977 1abf 5bf0 d03c c697 05be b922 84be
000001f0: 46b0 ccbe 0763 d2be fb4b bfbe 9098 7fbe
00000200: 9f06 54bc 5bbf 593e d5e0 463e 4391 30ba
00000210: c095 8c3d 2352 f93c e579 173d 8b32 4abe
00000220: 9925 923d 6001 613e 4186 a73e 3f63 323e
00000230: 8780 613e ef0c 29be e2c5 83bc 78d5 383c
00000240: 2e85 99bd 614f 1cbe b1b8 c5bc 387d d5bc
00000250: 6b54 91be 4081 6abe ae44 ccbc f41a 3cbd
00000260: a6c4 413e bfd3 003e de2a 63be dacf 1e3d
00000270: de0a ecbd 1cbe 08be 8384 50bc 5ac9 e53d
00000280: 3525 cdbe f9e7 303e ad31 383e cb9f 01be
00000290: c166 17be 4745 bf3d 1c3e 0a3d 974e 4fbe
000002a0: c12a e4bd 6b98 303e 3022 d83d 3d62 a13d
000002b0: 8716 21bc 558c aa3d 4c6a 8dbd 15fa f9bd
000002c0: f4e7 5dbd f398 16be 7d88 b03d 9ec8 7a3e
000002d0: 27d0 27bd d216 adbc 6e50 903c 7e69 883e
000002e0: 94b1 4a3e 6870 b1bd 5b1a 0f3e 3bdf b43d
000002f0: 8e04 1cbe 8316 17bd 51a2 433e 2ed6 353e
-0.11892939 0.11064948 -0.058914296 -0.12911499 0.035893116 0.04342084 -0.07848347 0.024561567
-0.118520245 0.10447219 0.17775604 0.032363214 -0.063406505 0.11301339 0.023406485 0.076996274
0.077728964 0.022595303 -0.08639459 -0.13218123 0.10821473 0.040263943 -0.1595453 -0.087588206
0.12826177 0.06837891 -0.042325433 -0.048620116 0.049879953 -0.0047211177 -0.06462129 -0.022034487
0.051425528 0.07740459 0.045643102 -0.10720943 -0.00849511 -0.17185935 -0.08711353 0.11762269
0.010061624 -0.08156176 0.0708179 -0.055007637 0.07709668 0.010717681 0.045342922 -0.10552121
-0.11675506 -0.07555855 -0.06940395 0.123160556 0.104893215 -0.061976247 0.009996842 -0.01965022
0.07069875 0.06622643 -0.033810616 0.083666 0.04869504 -0.06735748 0.0072573335 -0.10556579
-0.26795784 -0.5801825 -0.1708066 -0.52402836 -0.4274986 -0.24902134 -0.26006186 -0.20853135
-0.30461305 -0.29394695 -0.40304217 -0.42687604 -0.09982607 -0.43170795 -0.2684435 -0.31457472
-0.13814084 -0.409826 -0.12589954 -0.17722224 -0.21051985 -0.54954207 -0.12351572 -0.24276866
-0.18548286 -0.26874918 -0.2613042 -0.38232973 -0.22140232 -0.24819307 -0.13259773 -0.24076965
-0.25960848 -0.25851595 -0.28878224 -0.22160564 -0.07565449 -0.1612217 -0.09434762 -0.2621645
-0.22091985 -0.21630485 -0.25230145 -0.33762774 -0.30076554 0.09501667 -0.40125215 -0.06843822
-0.21464905 -0.31197354 -0.05943555 -0.28974292 -0.111963555 -0.42794746 -0.5002956 -0.270922
-0.60338837 0.025505235 -0.13046178 -0.2580774 -0.39978236 -0.41091177 -0.37362656 -0.24960542
-0.012941032 0.21264403 0.19421704 -0.0006735513 0.068645 0.030434674 0.036981482 -0.19745843
0.071360774 0.21973181 0.32719615 0.17420672 0.22021686 -0.1650884 -0.016085569 0.011281364
-0.07496105 -0.15264656 -0.02413592 -0.026060686 -0.28384718 -0.22900867 -0.024935093 -0.045924142
0.18922672 0.12580775 -0.22184321 0.03877244 -0.1152551 -0.13353771 -0.012726906 0.112200454
-0.4006745 0.1727599 0.179877 -0.12658612 -0.14785291 0.093393855 0.03375064 -0.20244823
-0.11140967 0.17245643 0.10553396 0.078800656 -0.009832031 0.083275475 -0.0690504 -0.122059025
-0.054176286 -0.14706783 0.08619783 0.24490592 -0.040969994 -0.021129046 0.017616477 0.26642984
0.19794303 -0.08664018 0.13974898 0.0883164 -0.15236112 -0.036886703 0.19104888 0.17757484
