action_LossPrune/model2_Climate.pth (torch, 209742 bytes, 12 tensors)

weight f4 [125, 16]
00000000: 6c93 87be cb91 5f3f 00e8 04bf 9a90 1fbf
00000010: 6eab 2bbf 27ca f23e 7eb3 fcbf 34e5 9f3f
00000020: b7d1 14c0 a972 c33d 3701 01c0 0b98 593e
00000030: 1716 523e 6da6 c33c 173b c03f 41a6 01bf
00000040: fc8e 073e fde8 d2be cc1c a4bf 132b e73e
00000050: 3ea4 9d3e f743 863e 9688 a3bf e9e0 d83e
00000060: 78dd 15bf 248e 8bbf f64b 813f c5f1 e33f
00000070: 3670 3d3f 5484 8a3f 777e d9bd 0563 2a3f
00000080: 161a adbf b414 bebc 8e14 dbbf 515e 823f
00000090: 1701 91bf 00af c43f 4861 d43f d667 313f
000000a0: 344a fc3d 1396 543f 0901 c03f 308e 64bf
000000b0: 381b cb3e 2605 78bf e1bc ad3f 15c3 b53e
000000c0: 6e95 9b3f 1702 d73e 6469 ce3e 830e b9be
000000d0: 199a fcbe b57e 9ebf c16c 9fbf 1f34 463f
000000e0: 3c08 183e 320b c33e 0a5e 0240 260e 03c0
000000f0: 582d afbe 050f d03e 6334 e93f e7e6 3b3f
00000100: 6da3 da3f 9974 ac3f aebf babe 2534 86bf
00000110: 4879 91be 61ad 76be ff80 8bbf 0e48 f6bf
00000120: c899 ec3e 4d31 a73f 7159 82bf cb9a 913f
00000130: 1b72 6b3e 59cd a9bf 500a 413e 7ed5 9a3e
00000140: 8608 c03f a51b 2e3f f222 75bf 46d8 aa3c
00000150: 6d11 dcbe 1e2d b3be 54ad d5bf c562 febe
00000160: 09d3 c83e 097e b7bf a1ad 6abf eb1a 5cbf
00000170: f9a5 52bf 0d72 b1bf 475f 2ebe 3ce6 023f
00000180: dc19 8f3f 064d 293e af01 35c0 e32e 153e
00000190: f5d4 563e 9842 9c3f a778 3f3f a2f8 87be
000001a0: c59b 37c0 4270 94be b81b c53f 65ee 50bf
000001b0: d4ef 463e c884 13be a93a b5be 3cb0 d9be
000001c0: e87c e6be ad6e 46be 2cc7 943e 3032 53bf
000001d0: d6d0 3b3f 4cf5 0d3f e2a7 ce3f b7eb c03e
000001e0: c542 733f 37ae f13e 190d 29bf 6a61 8fbf
000001f0: 352b 2b3f 9618 05bf b671 ba3f d57c 283f
00000200: bc79 533f beb0 073f 217f 9ebf ac94 75bf
00000210: 670e c7bf 2a96 bc3f 5298 8b3f da4b 1fbe
00000220: f2af 20be bdd5 05c0 ddec 253f ed1c b1bd
00000230: e6ef 1d3f d786 74be 1422 b23d aa98 fc3e
00000240: a263 aa3e 87aa cf3f ebfc a63f b7e0 e13d
00000250: 4f07 ba3f 6895 87bf 8dda 463f 8a38 fb3f
00000260: 500a ebbd 8fc8 14be 2308 353f 2234 08bf
00000270: 3a1b b73f 46de 633f 1970 ea3f f956 0fbe
00000280: 8998 783f 09a4 3b3e 6dbe f3bf 362c f13e
00000290: 3eba 91bf 12a0 703a 98be b1bf 7c07 a0be
000002a0: 98b9 473f 3284 7dbe 405a a23f 6001 6c3f
000002b0: b9e4 cd3e 3943 83be 934c 64bf 13d5 113e
000002c0: 387c 4e3f a023 0340 231d 11bf 4b5e e4bf
000002d0: ae73 dbbf d07a 2a3d aa4d f53f 0de8 6d3f
000002e0: 77cb d13f c3de 9c3e d030 2b3f 6986 23bc
000002f0: 620e 4f3f 70b2 f8bc b5ba 0f40 b392 94bf
00000300: 652b f33f b2de 1bbf 8edf 743f beab c33f
00000310: 43af bfbf 1ae2 47bf 69f3 32bf 5c93 893f
00000320: f7b2 d9be b4cf 1cbe 1980 8ebf 07d5 5bbf
00000330: 2f33 f73f a4cc 91bf 44a0 f13e 718b 803f
00000340: db6a 9b3f c968 2040 c87a c9bf 9cc9 21bf
00000350: 6b50 65be d607 1ebd 8903 363f fecf ccbe
00000360: 5b00 723f 43c0 ba3f f2f4 993e 55dd da3f
00000370: bc55 1b3f 5b47 0dbd d5d0 e43d a4e8 223f
00000380: ee62 04bf 5a45 10bf daec 0bbf cb11 d0be
00000390: 0e72 543f 5048 5e3d 9bb7 043f bf90 a63d
000003a0: 3770 cb3e ddbf 243f 2ab2 d73e 05fb 11c0
000003b0: 363e 7f3f dc76 b2bf 59c0 463f d822 cf3d
000003c0: b000 9fbf 3065 a53e 6766 8fbe ae9d ca3e
000003d0: da43 343f f928 fc3e 50f3 edbf 2130 443e
000003e0: e0ed 693e 567c 853f b574 553f b6cf a8bf
000003f0: 1149 ddbd 900e 55be b143 a2be 2326 b33c
-0.2647966 0.8733184 -0.51916504 -0.6233002 -0.67058456 0.47419855 -1.9742277 1.2491822
-2.3253 0.09543354 -2.0156991 0.21249406 0.20516239 0.023883069 1.5018033 -0.5064431
0.13238138 -0.4119338 -1.2821288 0.4515005 0.3078937 0.26223728 -1.2776058 0.42359093
-0.5854106 -1.0902753 1.0101306 1.7808157 0.73999345 1.0821633 -0.106198244 0.6655734
-1.3523586 -0.023203231 -1.7115648 1.0185033 -1.1328458 1.5365906 1.6592188 0.69299066
0.123188406 0.83041495 1.5000316 -0.8927946 0.39669204 -0.96882856 1.3573266 0.35500398
1.2154977 0.41993782 0.40314782 -0.36143884 -0.49336317 -1.2382418 -1.2455064 0.7742328
0.14846891 0.3809448 2.0369897 -2.0477386 -0.34214282 0.4063646 1.8219112 0.73399204
1.7081124 1.3473083 -0.36474365 -1.0484663 -0.28412843 -0.24089576 -1.0898741 -1.9240739
0.46211076 1.306192 -1.0183545 1.1375364 0.22992747 -1.3265792 0.1885159 0.30241007
1.5002601 0.6801093 -0.9575645 0.02085508 -0.42982045 -0.3499536 -1.669352 -0.4968473
0.39223507 -1.4335338 -0.91671187 -0.85978574 -0.82284504 -1.386293 -0.17028533 0.5113256
1.1179767 0.16533288 -2.8282278 0.14568667 0.20979674 1.2207823 0.74793476 -0.2655688
-2.8688824 -0.28991896 1.5399084 -0.8161376 0.19427425 -0.14406121 -0.35396317 -0.4251727
-0.4501717 -0.19378157 0.29058206 -0.82498455 0.73365533 0.5545242 1.6144984 0.37679836
0.9502376 0.47203228 -0.6603561 -1.1201603 0.66862804 -0.5199064 1.4565952 0.6581548
0.82607627 0.5300406 -1.2382547 -0.9592998 -1.555127 1.4733326 1.090586 -0.15556279
-0.15692118 -2.0911705 0.6481455 -0.08648095 0.6169418 -0.23879562 0.08697906 0.49335223
0.3327914 1.6223916 1.3045934 0.11029189 1.453348 -1.059247 0.7767723 1.9626629
-0.11476576 -0.14529632 0.7071554 -0.5320455 1.4305184 0.8901104 1.831546 -0.13998021
0.9710775 0.18324293 -1.9042488 0.47104043 -1.1384962 0.0009179126 -1.388629 -0.3125571
0.7801757 -0.2475746 1.2683792 0.921896 0.40213564 -0.25637224 -0.89179343 0.14241438
0.8065829 2.0490494 -0.56685084 -1.7841276 -1.7144678 0.04162103 1.9164326 0.92932206
1.6390218 0.30638704 0.66871357 -0.009980776 0.8088132 -0.030358523 2.2457707 -1.1607269
1.8997618 -0.6088668 0.9565362 1.5286787 -1.4975361 -0.7807938 -0.69902664 1.0748096
-0.42519352 -0.15313607 -1.1132842 -0.8587193 1.9312495 -1.1390576 0.47192585 1.0042554
1.2141985 2.5063956 -1.5740595 -0.63198256 -0.22393958 -0.03858169 0.71099144 -0.40002435
0.9453179 1.4589924 0.3006969 1.7098795 0.60677695 -0.034491878 0.11172644 0.6363623
-0.51713455 -0.5635582 -0.5465828 -0.40638575 0.82986534 0.05426818 0.5184266 0.08133077
0.3973405 0.6435526 0.42128116 -2.280946 0.997043 -1.3942523 0.7763725 0.10114068
-1.2422085 0.32303762 -0.28007814 0.39573425 0.70416033 0.4925001 -1.8589878 0.19158985
0.22844648 1.0428569 0.83381206 -1.3188388 -0.10804952 -0.20806336 -0.3169227 0.021868771

weight_ih_l0 f4 [192, 17]
00000000: a684 253e b222 b2bd 03ba e13d d8cf 81bd
00000010: 767a adbc 4b65 7bbe 57cc 1a3c fbf3 9737
00000020: 82c6 d4bd ba3f 0e3e 0d00 fabd c51d a6be
00000030: 5c18 f3bd 6845 433e 8ad0 473c fb53 133e
00000040: d281 c83c 06fa 09bd 1cd8 893e 0a56 fcbe
00000050: cdb7 36be 940a d93d 9cd6 443e d8ed d63c
00000060: 5dde 2abd 157e a0be 76cf 9b3d 45ab e8bc
00000070: 428a a23b d434 bbbe da55 abbd 758e 1fbe
00000080: 46ba 133e 4374 a1bd b25e f83d 1b8a d43d
00000090: ced4 2fbe a39d 2bbe 0aa1 b73d 118f 9f3d
000000a0: 2e28 443e de62 09bd 34ac 953c 6852 fbbb
000000b0: d6b5 17bd c9d5 223d e1f8 66bd 472f 933b
000000c0: 2ada 903e 5261 9d3e 048f 97bd 27aa e23d
000000d0: ca66 87be 9953 323a 0821 3c3d 9eda 343e
000000e0: 2f2d 643e a363 8b3d c7e8 b63d 34fe 4fbd
000000f0: dd5a 0fbd 5187 133e e2c3 873e 43ca 11bc
00000100: 1c9e 9fbe c297 863d da61 2b3e 7149 b33d
00000110: bedc e5bc 6c99 39be a078 9e3e 7f31 603e
00000120: ccf5 ac3e 5455 a23b 1a9d 90bc b56e 43be
00000130: f566 973e 9146 42be 4884 aaba 7682 5c3d
00000140: 96d3 cfbd c8ef 78bd 142f 38be e13f 8bbe
00000150: 002b 3bbe 876d 483e a2e9 bd3b ca00 d5bd
00000160: bf62 87bc 36ef 9e3d 7d1d 7ebe d30c 2d3e
00000170: a628 47be 3eef 4bbe 5872 8c3b 86e5 09be
00000180: 2a38 0a3e a8b7 cfbe 0f0c 58bd c7ba a63e
00000190: 9c60 d33c b5d4 0cbe 1a30 a03c 9c05 88be
000001a0: 0427 a63e 5dfa 043e 801c 933e 42ad bebd
000001b0: f6d0 013e 5dad 1b3e de4a 7f3e 3cef 7bbe
000001c0: a8e2 153e 2fde 953e 0340 3ebd 1067 94be
000001d0: 2401 0e3d ae1e 8bbe 522b 8dbd eae8 593c
000001e0: 9177 21be a60b 02be 49bc cebd fc99 563e
000001f0: 1072 b73d 8cd1 8dbe 5370 9fbe bed9 243d
00000200: f00f 90be d502 2a3d 9889 633b 5b74 183e
00000210: cd6e f2bd 54fa 343e 8427 9e3e fb70 0cbd
00000220: 0291 393d 7b8d c8be abe4 91bd e95c 0f3e
00000230: 12a6 bc3d c9dc e9bd 8d13 8f3d 9c72 a6bd
00000240: 0b41 0abe 4a9f edbd 92db 0b3e a50d 083e
00000250: a3b5 c1be 5c93 c5bd 7ece c83d 5322 babe
00000260: 2691 373e 46a0 103e bdbd 0f3d e410 2f3e
00000270: 1966 1fbe 118c 82bc dd84 c9bb b578 abbe
00000280: 9640 5bbd 4bfd b63d c6be 03be 2893 673d
00000290: 1f86 e6bc 5705 fbbc fea5 f5bc 452b 94be
000002a0: c00c 3d3d 7c9a 3bbe 1ca7 233d d0e7 fe3d
000002b0: 8f73 ac3c 2003 c4bd 6a37 a83e 5549 8bbe
000002c0: d7bf 6bbe 37ea 1b3e 8f40 1b3e 3af1 d7bc
000002d0: 984a 263d 2a6e 40be d47d c83d 941e 9e3e
000002e0: 0652 873e 0e3b 273e 2548 89bd f4ac ca3b
000002f0: 3d4c 90be 884d 8ebd cf3a cd3d 14ab 4abd
00000300: 58c7 9cbb 6a9a 923c 5135 3fbe 3e9b 063d
00000310: b9cc 953e 719c a3be 1b4f 44bb 1fc5 6fbe
00000320: 45e4 3d3d 837b 003e d9a4 abbe 4a42 60be
00000330: 5c0b ffbd cebd 2abc 9f8a 793e bab3 e63d
00000340: ce00 ef3b 1249 3f3d d423 003e 2245 453e
00000350: a938 513d d74e 3c3e ef9c 7e3e f790 083d
00000360: 4aa8 bc3d 275f 973e 8b7b c7be 1e3d a6bb
00000370: 3773 bc3b 184c 2a3e a7a9 09bd b9cd c6bc
00000380: 01d9 13be ae97 303e 8266 f63c 85f0 1cbd
00000390: 6ce0 d13d 7f19 513e 6a18 173e 252f 0d3d
000003a0: b581 d0bd 9acd 26be c4cd 383e d219 a03d
000003b0: 3dd3 3d3e 7480 7e3c 8895 a8bd 05c3 173c
000003c0: 2a6c 763d b990 fabc b040 01bd 63a0 54bc
000003d0: 04a3 19be 7206 a93e ebe6 f2bd 3d40 893e
000003e0: ef5d 273d b438 ecbd 22d8 e8bd fc51 60bd
000003f0: 5b90 3b3e 3112 bbbd a586 7d3e 938d 553e
0.16163883 -0.08698024 0.11021807 -0.06338471 -0.021176558 -0.24550359 0.0094481325 1.8114215e-05
-0.10389425 0.13891497 -0.12207041 -0.32444587 -0.118698806 0.19069445 0.012195716 0.14387505
0.024475966 -0.033685707 0.2692269 -0.49284393 -0.17843552 0.10597721 0.19222492 0.02623646
-0.04171597 -0.31346193 0.076079294 -0.02840198 0.0049603293 -0.36563742 -0.08365984 -0.15581687
0.14426526 -0.07883503 0.12127437 0.10377904 -0.17171022 -0.16759352 0.08966263 0.077909596
0.19155952 -0.033541553 0.01827059 -0.0076697357 -0.037038647 0.039754663 -0.056389693 0.00449172
0.28291446 0.30738312 -0.07400325 0.1106761 -0.2644561 0.0006802618 0.04592994 0.17661521
0.22282861 0.068061136 0.089311175 -0.050779536 -0.034998763 0.14407088 0.26516634 -0.008898321
-0.31175315 0.06571914 0.16736546 0.08754242 -0.02805936 -0.18124932 0.30951405 0.21893881
0.33781278 0.0049540196 -0.017653037 -0.190852 0.29570737 -0.18972231 -0.0013009394 0.053835355
-0.10147779 -0.06077555 -0.17986709 -0.27197173 -0.18278122 0.19573031 0.0057956735 -0.10400541
-0.016526578 0.077604696 -0.24815936 0.16899423 -0.194491 -0.19915482 0.004286092 -0.13466462
0.13497987 -0.40569806 -0.052745875 0.32564375 0.025802903 -0.13753016 0.019554187 -0.2656678
0.32451642 0.12986131 0.2873268 -0.0931039 0.12677369 0.15202852 0.24930903 -0.2460298
0.14637244 0.29271075 -0.046447765 -0.2898488 0.034669057 -0.27171844 -0.06893028 0.01330016
-0.15768267 -0.12699756 -0.10094506 0.20957178 0.089573026 -0.27698934 -0.31140384 0.040246718
-0.2813716 0.041506607 0.0034719463 0.14888136 -0.1183754 0.17673618 0.30889523 -0.034287434
0.045304306 -0.3917044 -0.07123693 0.14000286 0.09211363 -0.114190646 0.06986151 -0.08127329
-0.13501374 -0.116026476 0.13657978 0.13286455 -0.3783389 -0.09647247 0.0980501 -0.36354312
0.17926463 0.1412364 0.035093058 0.17096287 -0.15566291 -0.01593593 -0.0061498717 -0.3349053
-0.05352839 0.089350305 -0.12865743 0.056536824 -0.028140126 -0.030642195 -0.029986378 -0.28939262
0.046154737 -0.1832065 0.03995429 0.124465585 0.021051196 -0.095709085 0.32854778 -0.27204385
-0.230224 0.15226065 0.15161346 -0.026360143 0.040598482 -0.18792024 0.09789625 0.30882704
0.26429766 0.16331121 -0.067032136 0.0061851684 -0.28183165 -0.06948382 0.100209825 -0.04947956
-0.004784506 0.017895896 -0.18672682 0.032862894 0.29257753 -0.31955293 -0.0029954377 -0.2341504
0.046360273 0.12547116 -0.33524206 -0.21900287 -0.124533385 -0.0104212295 0.24369286 0.11264749
0.007293797 0.046700545 0.12513667 0.19264653 0.051079426 0.1838945 0.24864553 0.033341374
0.09211786 0.29564783 -0.38961443 -0.0050732037 0.0057510394 0.1663059 -0.03360906 -0.024268018
-0.14438249 0.17245361 0.030078176 -0.038315315 0.10247883 0.20419882 0.14755407 0.03446879
-0.1018099 -0.16289368 0.18047243 0.07817425 0.18537612 0.015533555 -0.08231646 0.009262805
0.060161747 -0.030586587 -0.03155583 -0.012977692 -0.15003592 0.3301273 -0.1186045 0.26806822
0.040861066 -0.11534253 -0.11369349 -0.054765686 0.18316786 -0.09134329 0.24758394 0.20854788

weight_hh_l0 f4 [192, 64]
00000000: aee6 f13d 888e c1bd 17d4 5dbe 21f4 86bc
00000010: fcc7 853d 00b3 ed3c 10cf 22be 7a1e 29be
00000020: bf8f 06bd 8f68 0a3e 6d0a 18bd b6e6 4f3e
00000030: 10ee a63d 8691 623e 374d cfbd 2003 aabc
00000040: 88c6 943d 5552 89be a9de 12be 3472 983e
00000050: d21c 323c 4e0f 6c3c 5d27 213e 1e3a ec3d
00000060: 3927 79be 6ba3 a8bd 9cca 5f3e 3988 0d3e
00000070: 533a 02be fc8e 0abd aba7 1a3e 59bd 2fbe
00000080: 168c 9d3d 3ec1 8bbd 5cbc c738 a33d 793c
00000090: c1c5 823c 8c0c ccbd bbf7 4d3b 1b25 11be
000000a0: 3f36 153c c591 a1bd caa4 ecbd 32a0 833d
000000b0: 2ec7 5dbe 773b 13be dd89 c7be f0dc 77bd
000000c0: 99f1 66bd 9055 693c 9c99 ce3d 39cf 6bbd
000000d0: a935 b8bc 0247 6e3b 7d30 fabb be04 f43d
000000e0: d52a bcbd 9fb5 c53c 5e09 b5bc 78cc 3f3e
000000f0: 07a8 3e3e f176 383e 66c2 7cbe cfc8 1fbe
00000100: 2b52 eb3d c7da 1cbe 4031 a43d 405e abbd
00000110: 352c 973d 091b b23d df96 323d d01e 473d
00000120: 6c33 c5bd 24e8 e03d 8af5 d93d bac1 db3d
00000130: 9234 b4bc a074 0ebc 1808 663d 987f df3c
00000140: 5bde 7c3c c0b0 fbbd 0358 1d3d 9424 2e3e
00000150: 0d87 d5bd 7657 8dbc 02cd 9d3d add7 8d3b
00000160: de7f 29bd 89f1 8abc 28fc db3d 4311 1b3e
00000170: 8ebc 8ebc 20c8 bfbc 14c0 0fbd d6ea 373d
00000180: 3d89 f93c bcdf 803d a27c 3ebe 0497 0fbe
00000190: 9b00 913d b506 8fbe 6ac6 c3bd a2bf e5bd
000001a0: 47b4 b1bd 17f8 59bc 1be0 513d 0989 073d
000001b0: 1f1f 6cbe 2e6f 963d c313 58be 7351 dd3d
000001c0: 3c4d c4bd e457 b53c b175 1f3c b719 e63d
000001d0: 08a3 10be 6f52 1c3c 43eb 2b3b 0552 e9bc
000001e0: 7908 c83d 03b2 b33d e0fc 1b3e 8224 34be
000001f0: 7816 b43c de2a bcbd 257e 04be 3969 bd3d
00000200: 8c98 b03c 03a5 61bd b0b8 66bd 6345 d93d
00000210: d2f9 e23d 396a 5abb ba7f 3c3e c2f5 7bbe
00000220: 3a03 84bd 5a14 c8bd d33e 02be 739b e4bc
00000230: 3862 dc3d 5777 cd3d 8186 b8bd 479f c33d
00000240: 5d06 6a3e e9fa df3c 3f50 7b3c 3b13 acbd
00000250: 867b 12be 2cca 81bc 0d79 2f3e 3d71 c03d
00000260: 36c2 06be 4ff6 d33c f7eb f93d acb5 1f3d
00000270: 88d3 bc3d 26f4 afbc f585 c6bc 5582 e63d
00000280: a95a 37bb 5105 6ebd dbbb 60bc f45e 60be
00000290: eb18 ef3c a6f6 91bd 71b7 fdbd 4db3 cebd
000002a0: 87f8 1abd 9614 d5bd 8775 28bc 7e21 0ebd
000002b0: b838 a4bb 0fd2 b6bd d0ad a53d 315d c2bd
000002c0: cd97 013d 569d 273e dd79 233e ad85 843d
000002d0: c18f 30bd 1e0b 6dbe e0c8 4f3e 9781 943d
000002e0: 857f 283a c6ce 753e 8059 2cbe 3742 253e
000002f0: 7521 973c 34f1 65bd 6e6f 4abd 660a 0d3e
00000300: d494 173e 2a83 7cbd a564 003d fc0c 74bd
00000310: 408e dd3d 8aad d23c 24f9 b3bd 83a1 17bc
00000320: 58b8 3b3e 5181 dfbd 74d9 dd3d 394a 263a
00000330: 7212 b0bc b439 dc3d 6391 fa3c 8d15 1fbe
00000340: 9da4 9e3d cbb5 48be 8346 a1bd 5392 d03d
00000350: 1f70 be3d 1830 a8bd ef48 67bd 87aa 50bb
00000360: 9c91 13be 733c 0f3d f191 d5bd b93a a6bd
00000370: 90d5 c53c 1e45 adbc a634 d2bd 618e 0bbe
00000380: 549f f53d 0d65 52bd 6086 0e3e 156d 4dbd
00000390: e0fc 4cbd 4a3f 313e 8e09 69bd c7f8 08be
000003a0: 80b4 e13d 8359 7a3d f6a6 02be 290f 68bc
000003b0: 1ddd 53bd 9e5f a03d c5c2 78bd 212e 23be
000003c0: b43a afbb 8612 023b cf6c 1b3e c460 e1bd
000003d0: f9bb 263e b537 1dbe 4bf4 a3bd 22f8 863d
000003e0: fdc1 21be 3972 193e 45b4 d8bd 8072 f5bb
000003f0: 7d67 2c3b beb3 3f3e c41b 9fbc abcd 7c3d
0.11811577 -0.09451014 -0.21662937 -0.016473832 0.065322846 0.029016018 -0.158993 -0.16515532
-0.03285193 0.13516448 -0.037119318 0.20302853 0.081508756 0.22125825 -0.101221494 -0.020753443
0.07264429 -0.26820627 -0.1434275 0.2977463 0.010871129 0.014407946 0.15737672 0.115345225
-0.24331369 -0.082342945 0.21854633 0.13821496 -0.12717561 -0.033827767 0.15103023 -0.17162074
0.07692735 -0.068239674 9.524144e-05 0.015212449 0.015963437 -0.099633306 0.0031428176 -0.14174311
0.009107172 -0.078891315 -0.115548685 0.06427039 -0.21658012 -0.14378153 -0.3897237 -0.060513437
-0.05638275 0.014241591 0.100878924 -0.05757067 -0.022486525 0.0036358242 -0.007635175 0.11914967
-0.09187857 0.024134455 -0.022099193 0.18730342 0.18618785 0.18014123 -0.24683532 -0.15603946
0.11490282 -0.15317832 0.08017206 -0.08367586 0.07381479 0.08696563 0.043600913 0.04861337
-0.096289486 0.10981777 0.10642536 0.1073031 -0.021997724 -0.008694798 0.056160063 0.027282521
0.015433873 -0.12289572 0.038414013 0.17006141 -0.104261495 -0.017253619 0.07705118 0.004328689
-0.04138171 -0.016960876 0.10741454 0.15143304 -0.017423894 -0.023410857 -0.03509529 0.04490169
0.030460948 0.06292674 -0.18602231 -0.14022452 0.070801936 -0.27934805 -0.09559329 -0.11218192
-0.08676963 -0.013303778 0.051239114 0.03308967 -0.23058747 0.073454246 -0.21101288 0.10806551
-0.09585044 0.022136636 0.00973265 0.112353735 -0.14124691 0.009541138 0.0026232756 -0.028481493
0.09767241 0.087741874 0.15233183 -0.17592052 0.02198337 -0.09187864 -0.12938745 0.09248585
0.021557115 -0.055089008 -0.056328475 0.106089376 0.11082806 -0.0033327474 0.18408099 -0.24605468
-0.06445928 -0.09769507 -0.12719278 -0.027906155 0.10760921 0.10032528 -0.090100296 0.09551864
0.2285399 0.027341323 0.015338956 -0.084021054 -0.14304933 -0.015843473 0.17136021 0.093965985
-0.13160023 0.025874285 0.1220321 0.038991615 0.09220034 -0.021478724 -0.024233798 0.112553276
-0.0027977622 -0.05811054 -0.013716663 -0.21911222 0.029186687 -0.071271226 -0.12388504 -0.10092793
-0.03783467 -0.10404317 -0.010281927 -0.03469991 -0.005011644 -0.08926784 0.08089793 -0.09490431
0.03163891 0.16368613 0.15964456 0.06470809 -0.043105844 -0.23148772 0.20291471 0.0725128
0.00064276933 0.24004659 -0.16831017 0.1613854 0.01844857 -0.056138232 -0.049422674 0.13773498
0.14802867 -0.061648525 0.031345982 -0.059582695 0.10818148 0.025717515 -0.08787754 -0.009254816
0.1833204 -0.10913337 0.108324915 0.00063434575 -0.02149317 0.107531935 0.030586904 -0.15535565
0.07746241 -0.19600599 -0.07874777 0.10184159 0.09298729 -0.08212298 -0.05646604 -0.0031839923
-0.14411014 0.03496976 -0.10428227 -0.08116669 0.024149686 -0.021151122 -0.10263948 -0.13628532
0.1199328 -0.0513659 0.13918447 -0.050152857 -0.050045848 0.17309299 -0.056893878 -0.13376151
0.11020756 0.06112052 -0.12759003 -0.014163771 -0.051724542 0.078307375 -0.06073262 -0.15935566
-0.005347574 0.0019847467 0.15178226 -0.11004785 0.16282643 -0.15353282 -0.080055796 0.06590296
-0.15796657 0.14984979 -0.10581259 -0.007490456 0.00263068 0.1872091 -0.01942242 0.061719578

bias_ih_l0 f4 [192]
00000000: c5d3 813d dae8 f13d cc26 b33d a1a7 80bd
00000010: b35a 263d e9c8 233e b76c babd 22fd fdbc
00000020: 91b2 0f3e 9c4b 123d 52c9 013e 847c 25be
00000030: 94f3 b5bd e9d0 413d e4f8 f13d af2f 41be
00000040: 9fe8 263d 5030 563d f3c8 313d e26d 103d
00000050: 7561 933d d19f f53b a1e2 a4bd c497 84bd
00000060: 3eba 7cbc 539e 953c f240 db3d 9e35 573d
00000070: 8e90 5a3d 80b0 c1bd 352d 733d 9407 9d3e
00000080: f0b4 143e 869e 83bd 378b 0cbc 118b 873d
00000090: fa91 babd 686b bc3d 5332 e43d db04 883d
000000a0: 7283 283d f839 563d 3417 77bd 61fe 483d
000000b0: 3192 a83d 858d e4ba 0739 49bd 0aeb 85bd
000000c0: 8e61 f3ba 95e7 08bd 7d16 e53d 3469 d63d
000000d0: 0b0c a4ba ef5e 68bc beb4 933a cac3 953b
000000e0: 739a a9bb fc2a c9bd 35fe e83d f045 313e
000000f0: a58b 4bbd 8b77 533c 0e2f 943d 321c 5abd
00000100: 9c74 d7be 0d4a 8ebe 2d57 fa3c 579d 89be
00000110: ac1a 94be b885 06be ac80 83be 00d7 89be
00000120: f997 9dbe 09a6 44be dec5 bbbe ef07 8abe
00000130: b549 c2bc 2d41 22be e161 aabe 1f57 b2be
00000140: a5df 44bd 7ff5 18be ff56 b0be b0a4 583e
00000150: 3993 0dbe 4598 54be 02b5 93be f84e 66bd
00000160: 18ee d2be 2bc0 e2be 5469 c0be df91 97be
00000170: 9c70 b2bd a168 38be e735 bcbd 645f 3e3c
00000180: 9fd7 ecbe 3f2c 82be 13c7 07bf 78f9 12bf
00000190: be9e 1ebe 0242 80bd 95db c1be 3899 04be
000001a0: fb0d b73c a522 27be d994 a4be 3ea1 7abe
000001b0: 67ef f8be c666 73be f385 57be e691 9bbe
000001c0: 101f f9be 3efd d7be 2f88 8dbe de3f 85be
000001d0: d607 57be d817 17bf 01a5 5fbe 9ddc 8d3d
000001e0: 9789 39be c37b 00be 3c23 5ebe 4f63 dfbd
000001f0: 8209 8abe 6a04 abbe b302 a4be a37d a1be
00000200: be96 19bd 946f 973d ea44 18be 63e4 5c3c
00000210: 7bec 96bd 66df 4ebd bd2f 94bd fced 3d3c
00000220: 86e0 74bd 5bec e73a 9731 913d 3ed6 f43c
00000230: 2a29 c7bd 6e8d 06be 01a7 df3d b063 113d
00000240: 7e57 9e3d 44cb 323e 43ac fbbd 50a1 e5bd
00000250: 45c6 f93d dbde 95bc 47c6 19be eee8 8fbd
00000260: d9a6 763d 180b e8bd 848e 45be 5954 1fbd
00000270: 3ada 92bd 7f09 c23c 7b99 20be 9d66 893e
00000280: 20d3 39be cdf8 54be af40 ccbd 4708 1e3e
00000290: 4785 753d e780 b0bd 413c ae3d ec0f 51bd
000002a0: 71a0 bb3a e756 afbd 7a08 023e 094a 833d
000002b0: 47fb ebbd 0793 833d a54b 9bbd 6d7d bcbd
000002c0: b886 b2bd 35ca e4bd ca6f 233d fab7 3b3d
000002d0: 0e31 13be be78 463e ccc2 8e3d 0c38 1fbd
000002e0: 633a 023e 3dbb 2abc 6f0f 31be 756a 9bbd
000002f0: 1461 5bbc f73b f3bb b9a8 9d3e 61ae 003e
0.0633922 0.11811991 0.08747634 -0.06281973 0.04061384 0.1599461 -0.09102767 -0.031004492
0.14032961 0.035716638 0.12674454 -0.1616078 -0.088843495 0.047318373 0.1181505 -0.18865846
0.04074919 0.05229217 0.04340453 0.035261042 0.07196323 0.0074958582 -0.080510385 -0.064742595
-0.015425263 0.018263971 0.10705747 0.052541368 0.053360514 -0.09457493 0.059369285 0.30669844
0.14522147 -0.0642672 -0.008578113 0.06618322 -0.09109874 0.092001736 0.11142411 0.06641551
0.04114098 0.052301377 -0.060324863 0.04907072 0.08231009 -0.0017437196 -0.04912665 -0.06538971
-0.0018568502 -0.03342398 0.1118593 0.10469285 -0.0012515796 -0.01418279 0.0011269075 0.004570459
-0.0051758825 -0.09822652 0.11376611 0.17311835 -0.049693722 0.012906919 0.072355375 -0.053249545
-0.42081153 -0.2779087 0.030559147 -0.26877853 -0.289266 -0.13136947 -0.25684106 -0.26921844
-0.30780008 -0.19203962 -0.36674398 -0.26959178 -0.023716787 -0.15845175 -0.332778 -0.34832093
-0.048064847 -0.149374 -0.34441373 0.21156573 -0.13825692 -0.20761211 -0.28849036 -0.056227654
-0.41197276 -0.44287238 -0.3758036 -0.29603478 -0.08712885 -0.18008663 -0.091899686 0.011619423
-0.46258256 -0.25424382 -0.5303814 -0.5741191 -0.15490243 -0.0626259 -0.3786284 -0.12949073
0.022345534 -0.1632181 -0.32144812 -0.24475572 -0.4862015 -0.23769674 -0.21047191 -0.3038475
-0.4865651 -0.42185396 -0.27642962 -0.2602529 -0.20999083 -0.5902076 -0.21840288 0.06926844
-0.18118893 -0.12547211 -0.21693128 -0.109076135 -0.2696038 -0.33401805 -0.3203331 -0.31541166
-0.037497275 0.07394329 -0.14870039 0.013482186 -0.07369324 -0.050506018 -0.07235668 0.011592384
-0.059784435 0.0017694341 0.07089537 0.029887315 -0.09724648 -0.13139889 0.10920525 0.03549546
0.077315316 0.17460352 -0.12288716 -0.112124085 0.1219602 -0.018294742 -0.15017043 -0.0702685
0.060217712 -0.11330241 -0.19292647 -0.0388988 -0.0717053 0.023686169 -0.15683548 0.268361
-0.18146944 -0.20798035 -0.09973275 0.15432845 0.059941556 -0.08618336 0.08507586 -0.051040575
0.0014314783 -0.08561497 0.12698546 0.064106055 -0.11522537 0.064245276 -0.075827874 -0.092036106
-0.08717102 -0.111713804 0.039901532 0.04582975 -0.14374182 0.19381997 0.06970748 -0.03887181
0.12717585 -0.010420618 -0.17291044 -0.075886644 -0.013389844 -0.00742292 0.30792788 0.1256652

bias_hh_l0 f4 [192]
00000000: fd9f e4bc 0386 9fbd 6274 353d 859e c53d
00000010: b710 983c d90f fb3d 0894 97bd dd84 c2bc
00000020: 29bd 103e 2629 1fbd a4dd 963d 875d d5bd
00000030: 597f e33d 5d01 f83c e307 ac3d d253 42bc
00000040: 7602 2ebd d735 dd3c 8899 ab3c 26ea ed3d
00000050: 8a06 42bd 32b9 b7bd 1fc7 b1bd 49ae 063e
00000060: a457 0a3e 5b96 833c 0db6 a1bd d67f 6ebd
00000070: 0dc2 76bd c727 63bd ac53 0c3e 54d5 7b3e
00000080: 097e f5bc 3ff3 0c3e c521 8e3d 511c f9bd
00000090: f148 49bd 88f1 8f3d b6ed dbbc 8549 e53d
000000a0: 7270 8d3c 5bd4 a63d 378b 353c 20c4 4b3d
000000b0: a7cf c13d b5ba ed3d dedd e33d 6bd5 b63d
000000c0: 0891 f63d 5465 9f3a 508f fd3d cd78 b1bd
000000d0: bcd4 c03d 3e88 28bd 431f dd3d 8b35 81bb
000000e0: a0f6 093e ca5a 0c3d 80c2 0e3d b3ef 343e
000000f0: 6fee 6abd 6fc0 ab3d 0c8d 1c3c f18c d3bc
00000100: 2798 e9be e7ee 90be 656c 493c ed2e a5be
00000110: 1beb 5fbe 1635 283d 44e2 17be bdcd 9bbe
00000120: fbaa 84be 96f0 39be e63f 2dbe be5e dbbe
00000130: 89ac 54bc 7d2f 44be 3f8a c0be 337a d2be
00000140: 2d3d 18be c8dc c8bd 08ef 9ebe a49d 943d
00000150: c498 5bbe d99a 85be 215e 93be 75f4 62be
00000160: dfd1 9fbe efdd 10bf 33db f2be 69e0 2dbe
00000170: ade9 62be ad0c bdbd caa9 44be 87af 0c3c
00000180: 4cdd 17bf d48c 9cbe 0f29 d6be 9b6d 0abf
00000190: 6e77 4cbe c287 34be 0b93 efbe df45 56be
000001a0: b2fa 9abc 7d5d 59be 869d 40be ea99 42be
000001b0: e178 dbbe b16b 7abe c779 72bd 0248 f2be
000001c0: dadd 95be ed4a d8be da16 55be 5b5b 0abe
000001d0: cbe8 92be 3366 f3be 6127 12be 646e 25be
000001e0: abe7 c0be 9a0e 20be 7170 23be 34f1 5bbe
000001f0: decd 61be 9c8a c2be f95e cabe 375f 6dbe
00000200: 44be 093e f0d2 ef3d dfc7 1bbe c606 183e
00000210: 6273 223e 1171 77bd 807d 5f3e 5015 253d
00000220: d15a 54bd 0108 61be f917 b33d 2f5d a43c
00000230: 3342 463e c102 e1bd 7222 d03d 3b11 e73d
00000240: b90f 063d eb9b d33d 7c2f d83d 8c7c cb3c
00000250: cd41 57bd 602a 663d 7bc4 b1bd 3184 a5bc
00000260: e82c 5a3e 0732 4ebd ba38 8dbe 9fa9 363d
00000270: 39f6 5fbe dc05 65bd 0540 a1be f341 983e
00000280: 6bff 3ebe cddd 3fbe f599 08be fa08 29bd
00000290: efb0 ceba 6478 823e ec3f 4b3e 11d2 f8bc
000002a0: 8ea6 6e3e 2344 dcbd ba0a dc3b 4bdf 193e
000002b0: bacf 60bd 7d83 083e f53c 253e 4b03 ed3d
000002c0: 5f4a f7bd 6b1c 813d 773f 95be ba8e f6bc
000002d0: 16d5 873d 58a5 e2bd 74ce 85bc 5f1b cdbd
000002e0: c155 b33d 98d6 963d dcd8 1ebc e004 b9be
000002f0: 8a3e 37bd ae04 14be 9742 e13e 948f 52bd
-0.02790832 -0.077892326 0.044300444 0.09649376 0.018562658 0.12258882 -0.074012816 -0.023744995
0.14134659 -0.0388576 0.07366493 -0.104182296 0.11108274 0.030274088 0.08399942 -0.011860805
-0.042482816 0.027003212 0.020947233 0.11616926 -0.047369517 -0.0897087 -0.086805575 0.13152422
0.13509995 0.016062906 -0.078960516 -0.058227383 -0.060243655 -0.055457857 0.13703793 0.24593097
-0.029967325 0.13764666 0.06940035 -0.12163604 -0.049141828 0.0702849 -0.026846748 0.11195663
0.017265532 0.08145972 0.011080555 0.049747586 0.09463435 0.11607877 0.11126302 0.08927425
0.12039381 0.0012160935 0.1238085 -0.08665619 0.09415576 -0.041145556 0.10796978 -0.0039431504
0.13472986 0.03426627 0.03485346 0.17669563 -0.057356294 0.08386313 0.009555113 -0.025824042
-0.45623896 -0.28307268 0.01229391 -0.32262364 -0.2186703 0.04106625 -0.14832407 -0.30430403
-0.25911698 -0.18158183 -0.16918907 -0.4284572 -0.012980589 -0.1915874 -0.37605473 -0.41108856
-0.14867087 -0.09807736 -0.3104174 0.0725663 -0.21444994 -0.26094702 -0.28782752 -0.22163565
-0.31214806 -0.56588644 -0.4743286 -0.16980137 -0.22159453 -0.09230933 -0.19205394 0.008586771
-0.5932205 -0.30576193 -0.418282 -0.54073495 -0.19967434 -0.17629912 -0.46791872 -0.20925091
-0.018918369 -0.21227069 -0.1881009 -0.19004026 -0.4286566 -0.24455144 -0.059198167 -0.47320563
-0.29270822 -0.42244664 -0.20809498 -0.13511412 -0.28693232 -0.4753891 -0.14272834 -0.16155392
-0.3767675 -0.1563057 -0.15960862 -0.2147873 -0.22051188 -0.37996376 -0.39525583 -0.23180853
0.13451487 0.11710155 -0.15212964 0.14846334 0.15864328 -0.060410563 0.21825218 0.04030353
-0.05184442 -0.2197571 0.08744807 0.020063965 0.1936119 -0.109868534 0.1016282 0.11282583
0.032729838 0.10332473 0.10555932 0.024839662 -0.052552987 0.056192756 -0.08680054 -0.020204635
0.21306193 -0.05034068 -0.2758234 0.044595357 -0.2187127 -0.05591379 -0.31494156 0.29737815
-0.18652122 -0.18736954 -0.1333998 -0.041268326 -0.0015769283 0.25482476 0.19848603 -0.030373605
0.23305723 -0.107551835 0.006715146 0.15026586 -0.054885603 0.13331409 0.16136535 0.11572894
-0.12074732 0.063042484 -0.29149982 -0.030097354 0.0663244 -0.11066693 -0.016333796 -0.10014986
0.08756591 0.07365149 -0.009695258 -0.36136532 -0.044737376 -0.1445491 0.43996117 -0.051406458

weight_ih_l1 f4 [192, 64]
00000000: 14cf 943d 1653 103f 55a0 9abb 122c 3fbe
00000010: 3d0b 3dbd 4ff8 3e3d 71f0 293d dd0a ffbb
00000020: 9491 623e 33a4 033e 0065 15bd 3c7e 043d
00000030: 6368 11be 09ce 03be 5311 a93d 959b 403d
00000040: 0cd9 013e 1a64 523d 97db 063e 62ad 923e
00000050: 380f e4bd b9c3 c8bc ed77 b13e 2464 18be
00000060: 32fb 0a3e cf06 cbbc 507d 6d3e 61b4 dd3d
00000070: d753 e83c 7014 37be 2d5c 033e 3d4d 9cbc
00000080: 950a 20be 8994 193e ce1e 17bd 4c3c b23d
00000090: fc80 c5bd 071f dc3e f8e4 28be 36a7 33be
000000a0: 38cf 34be be9d 0d3d b73f 193d 207e a43c
000000b0: 122f f93d 1b49 7e3c 20cc 813e 6837 cdbd
000000c0: aeff 8f3d e167 703d 30b5 ed3c 9cb7 24be
000000d0: 742c d13d 95ee a7bd 9774 38be 1bc0 6dbc
000000e0: bbf8 db3c f3cb 9fbe 08d4 f93d 8961 153e
000000f0: f43b 8f3d 6acc 873d 4432 61bd 0f4d 4abe
00000100: 18aa 083e 30f2 7bbe ce8c ab3e 677a c6bd
00000110: c36c 813c f2fd 95bd 0f0d 17be d23f 01bd
00000120: 7d4f 0cbe 0fc1 233d c88a f6bd 0d76 f4bd
00000130: d7b2 b6bd 2cb4 53be 40f9 3a3d 89af 673d
00000140: 9d32 89bd f73e 30be 9dab 0dbe b861 d83c
00000150: f731 803d a475 333e f7c1 58bc 99bb edbc
00000160: 2cb1 083e ed7c 00bd 7347 36bc 5c48 cc3a
00000170: 49b2 993b e0a5 03bd 4659 073d fa2e 98bd
00000180: 81ac 39bd dc7d 5a3e 715c f7bd 7c91 e83c
00000190: 6596 4bbd 1dac 8c3e d252 293e c2bf b1bd
000001a0: 3355 453e 7b7a 94bc 0615 d93c 4621 6e3d
000001b0: 2d9e b93d d7ea e73d 1b16 35be 7ba6 953a
000001c0: a10c afbd 140e 8c3b 51a4 1d3e a793 eb3c
000001d0: 3dd6 4ebe 60da bcbd 9b2e 5dbe a279 6b3c
000001e0: f6d4 803d 28b1 67bd 1706 4b3d 54e0 2d3e
000001f0: d1ac 31be f023 033e e418 493e 95d9 243e
00000200: b1af d23e 991e 523d f042 583e b4ed 99bd
00000210: 1481 dbbd 1f83 3d3e 860b e8bd 9f61 42bd
00000220: ae9e a5bd 007a aa3e d971 3f3e 91f9 283e
00000230: 6740 22be bf97 a8be 4ab2 593d 9bf1 583e
00000240: ace5 edbc 808c 3bbd ccbf 3b3c 15ca 923e
00000250: d4b9 3e3d b629 d2bc dcb7 c33e e03e 803d
00000260: 4dc8 0bbb 9afb ac3b 383c b73e fe70 7f3e
00000270: 9b58 99bd bb9d 7cbe ffbd eabd eb78 933d
00000280: f7a5 0a3e 6d7d 7a3c 6c9e 92bd 3087 173f
00000290: 0152 ddbd fe56 6f3e a393 c2bc 7f9e 19be
000002a0: 0cb8 39be 8212 45bd 9f2e 82bd 8be8 f73b
000002b0: 35e8 5e3e bf11 933e e382 0bbe a8af 83bd
000002c0: b4f6 123e 0bd4 36bd 9580 fb3d decd 4dbd
000002d0: eb0f 36be b150 17be 4b9b a5be 133c 4a3e
000002e0: 85e2 273d 3c32 2bbe bfae 89bd 25ec 923d
000002f0: 0ec4 8c3e 1871 d73c 213c 26bd 718b d53c
00000300: a1c4 0e3e 4cd2 dc3c 571f 853d c47a 58be
00000310: fa4e 90bd 7c29 503e 2605 68be 5c84 a1bd
00000320: d14c 85bd 6898 a93d 1d52 5c3d 74c2 483e
00000330: e87d 213e aa39 ebbc 01eb f1bc e281 15be
00000340: e031 883d 51ac 2abe e859 28be cb44 513e
00000350: 69f0 46bd 2544 9abe 8cce 3a3e 8318 823d
00000360: cdd5 0bbe 2696 a43c 6a00 883e 6220 363e
00000370: 9dc3 f7bb 0620 ed3d 8918 93bc f470 45bd
00000380: 50d0 173e 170a 03be 9c7b 803e 0e7d b3bd
00000390: 1db5 26be 76f2 a2be 49e1 79be 18c9 3bbd
000003a0: 1eb4 303e 556e 4bbe bf15 81be 013f 39bd
000003b0: dfa7 363d 6c07 e8bd 7731 8cbd a368 e43c
000003c0: b780 60be bf36 883e efc8 21be bf69 a9bd
000003d0: f6de 83bc fa0d 3dbe 0e61 17bc f816 643d
000003e0: 8731 01bd f6aa 233e 1848 5cbe c21a 3a3e
000003f0: 11dd f33d 626a e03d 2c93 c53c 81b5 073e
0.072660595 0.5637678 -0.00471882 -0.18669155 -0.046153296 0.046623524 0.04148907 -0.0077832774
0.22125846 0.12855606 -0.036473274 0.03234695 -0.14199977 -0.12871565 0.082552575 0.047023375
0.12680453 0.051364996 0.13169704 0.28647906 -0.11135715 -0.02450739 0.3466181 -0.1488195
0.13572386 -0.02478352 0.23192334 0.1082542 0.02836029 -0.1787889 0.12828131 -0.019079799
-0.15629037 0.14998068 -0.036894612 0.08702907 -0.096437424 0.42992422 -0.16493595 -0.17544255
-0.17657173 0.034574263 0.03741428 0.020079672 0.12167181 0.015520359 0.25351048 -0.100203335
0.07031189 0.058692817 0.029017061 -0.16085666 0.10213557 -0.08199803 -0.18013225 -0.014511134
0.026852002 -0.31210288 0.12198645 0.14587988 0.06993857 0.06630786 -0.054979578 -0.19755958
0.13346136 -0.24604106 0.33505863 -0.09691315 0.015798932 -0.07323827 -0.14751075 -0.031555004
-0.13702197 0.039979037 -0.12038189 -0.11936579 -0.0892083 -0.20674199 0.04564786 0.056563888
-0.06699107 -0.17211519 -0.13834997 0.026413783 0.0625953 0.17525345 -0.013229839 -0.029020118
0.13348836 -0.03136914 -0.011125433 0.001558553 0.0046904427 -0.032140613 0.033044122 -0.07430835
-0.04533053 0.21337074 -0.12078179 0.028389685 -0.049703974 0.27475062 0.165355 -0.08679153
0.19270782 -0.01812481 0.026499283 0.0581372 0.09063373 0.11324089 -0.17684214 0.0011417413
-0.08547331 0.004274139 0.15394713 0.02875693 -0.20198913 -0.09221339 -0.2159981 0.014372261
0.06290619 -0.056565434 0.049566355 0.16980106 -0.1735108 0.12806678 0.19638401 0.16098626
0.41149667 0.05129871 0.21119285 -0.075160414 -0.10717979 0.1850705 -0.11330323 -0.04745638
-0.080869064 0.33296204 0.18695773 0.16501452 -0.1584488 -0.32928273 0.053148545 0.21185915
-0.02904018 -0.045788288 0.011459302 0.286698 0.04656394 -0.025654655 0.3822621 0.062619925
-0.0021329105 0.0052790167 0.3578813 0.24945447 -0.07487603 -0.24669544 -0.1146202 0.07200798
0.13539873 0.015288693 -0.07159123 0.59190655 -0.10806657 0.23373029 -0.02375204 -0.15001868
-0.18136615 -0.048113354 -0.063565485 0.007565563 0.21768267 0.28724477 -0.13624148 -0.06429988
0.14351922 -0.044635814 0.122803845 -0.05024516 -0.1777951 -0.14776875 -0.32345042 0.19749479
0.04098751 -0.16718382 -0.06722783 0.07173947 0.27493328 0.026299044 -0.040584687 0.026067467
0.13942195 0.026955746 0.06500118 -0.21140581 -0.070463136 0.20328325 -0.22658214 -0.07886574
-0.06508792 0.08281022 0.053789247 0.19605428 0.15770686 -0.02871402 -0.029531004 -0.14600328
0.06650138 -0.16667296 -0.16440547 0.20436399 -0.048569117 -0.30130115 0.18242854 0.063523315
-0.13655777 0.020091128 0.26562816 0.1778579 -0.0075611607 0.115783736 -0.017956035 -0.048203424
0.14825559 -0.12796818 0.25094306 -0.08764087 -0.16280027 -0.31825608 -0.24402346 -0.045846075
0.17256209 -0.19866307 -0.25211903 -0.0452261 0.044593688 -0.113295406 -0.06845372 0.027881926
-0.21924101 0.26604268 -0.15799306 -0.082721226 -0.016097527 -0.18462363 -0.009239448 0.055685967
-0.031541374 0.15983185 -0.21511877 0.1817427 0.119073994 0.10957791 0.024118029 0.13252832

weight_hh_l1 f4 [192, 64]
00000000: 39ad 1f3d cf63 41bc 94d8 afbd 4e97 813c
00000010: 3571 78bd 0240 0c3e d5a2 16bc 3f43 953c
00000020: abca 073e 48cc 143e 1194 943d b623 7f3d
00000030: 6438 83bd 2de3 70bd 3f18 66bd 3ffe 95bd
00000040: ebce db3d 3f81 1abe 5288 a0bd 73ff e23d
00000050: a5f3 5f3d 0f55 37bd da15 46be 8097 153e
00000060: 7dd6 91bc 5810 13bc 301d 36be ca4d aa3d
00000070: 6856 db3d fc85 eb3c 4554 b5bd 7858 80bd
00000080: e5f7 22be dacf 0abd e143 81bd 0c22 b83d
00000090: e0aa 2e3e 5236 2cbe 1fb8 f13d fa58 3cbe
000000a0: 3a54 8fbd 6ab7 c03d 501a 65bc a2be 83bd
000000b0: dddf 94bd 5ded 8fbd c62e 933c 8ac0 cdbd
000000c0: 810d 733b d429 953c a7f0 0d3c 0792 883d
000000d0: c898 cb3c 7c1e 423e 2ecd 333d 8ae8 89bc
000000e0: 6a36 94bb a79c c9bb 0ba3 3c3c 07a2 de3c
000000f0: 7ce3 0cbe 5dd6 643d 283f 9b3d ddba 243d
00000100: ec92 813c 64b9 0dbe 06d4 c83d 1b58 043e
00000110: 9b39 a8bd 9322 37be dd65 ee3d 7849 2b3d
00000120: 0d33 0f3e b29f f2bb 0ec5 57bd f21f 683e
00000130: 8417 cfba 16b8 03be d1c5 efbd 2a78 c6bd
00000140: 2e8c b6bd 7f0e 0e3d 4360 3d3d b3b4 0fbd
00000150: 32bf 013d 1ee1 3b3e 6a79 02be a342 a13c
00000160: 7817 46be 2a0a 93bc 29d4 16bc 842a d13d
00000170: c41c 8e3d 437d 313e b596 a43d e8bd c93c
00000180: 3251 b83d 5358 3cbc 895e fdbd 3288 73bd
00000190: f91c c73d 4576 0d3d 7047 9b3d 7ff4 173e
000001a0: f687 46bd c5f3 91bd 8b72 7e3d 1f4b 89bd
000001b0: beee 37be 2f53 ca3d 33a1 c43c 94ed c9ba
000001c0: 3488 353d c4ad b7bd 7567 b2bd d6d8 6d3d
000001d0: 1cbf ebbc e3c1 b6bd e592 12bd 0947 9d3d
000001e0: e49e 83bd dd49 d93c d179 233e f66f 2cbd
000001f0: cba0 8ebd b8bc 313d d280 af3d 3619 3c3e
00000200: c7c7 b63d 194d 99bd 945c 703b e5bd 74bd
00000210: 9bcc c8bd 8628 983d cb67 213d b1ad d13c
00000220: 13f1 c7bd e2d6 71bb 4b0f 45bd a8c0 953c
00000230: 0d85 e33d 2c54 1ebd 1188 663e ca54 fa3c
00000240: 086c 893c d716 42bb 58e3 3bbc cf28 0cbe
00000250: 22a7 8fbd 95d5 073e e554 4f3d 9ec8 493d
00000260: 4b5e f1bd 4fa8 a4bc cbd5 94bd e800 b03c
00000270: 8ad2 04bd c649 fbbb 8446 3abd be14 2ebd
00000280: 37d0 c7bc 35f3 8abd f058 f8bd be6b 25be
00000290: ec8c 5ebe 2c70 cebd 5c0a ad3c 3a7d 03bd
000002a0: 39e6 ffbd c35f b5bd 7522 edbd db98 293d
000002b0: e140 753c 685b 6a3c 33a0 5ebd 658d 053e
000002c0: 41ee a9ba 6eb4 40bd a953 e73c 33f8 11be
000002d0: 58ec 913d d66e 113e 87df 06bd 132c 9e3d
000002e0: 3bda 68bd 8084 0f3d 3d50 19be cea9 ca3d
000002f0: 4774 da3d d8af 8fbd 2635 f7bd b65e c6bd
00000300: ae4d d7bd f05c 1fbe ede4 e13d 5815 9c3d
00000310: 3087 a3bd e72e 38be 70d4 2a3d 5264 a43d
00000320: a982 1abe 8d1f e5bd 6dc8 6d3d 3dbb 11bc
00000330: d8bf 11bc 632f debd c871 193d 4980 573d
00000340: ea81 c33c 8564 9c3d bf6b 00be 2922 403d
00000350: da32 1cbe 6e8c 5a3d 4267 bb3a 67a0 0b3e
00000360: b8c9 d6bd 4195 5a3e fc87 0dbc a318 43be
00000370: 714f a7bd 97f3 d2bd c89b 913d f18c 053d
00000380: 9748 a6bd b44a 0fbe c926 bc3d 01d0 9c3d
00000390: 3484 713d a732 383e 5598 b13d 8859 bc3c
000003a0: e051 18be cd98 29be 9e7c d5bd 619c 65bb
000003b0: 2080 8abd c250 e33d c397 553e 407c 3c3c
000003c0: d580 d9ba 934f e0bd 7a27 c9bb e8ca 403e
000003d0: 8ce9 e2bd 318b ebbd a55e ad3d 6cf5 10be
000003e0: 5c38 99bc 8f15 a6bd 0769 a63d 0f44 90bd
000003f0: bc16 2f3d 2249 febc 5f39 7d3d 7cbf 4c3e
0.038983557 -0.011803581 -0.08586231 0.015819218 -0.060654838 0.13696292 -0.009194096 0.018220542
0.13260905 0.14531052 0.07254804 0.062289916 -0.0640724 -0.0588104 -0.056175467 -0.07323884
0.10732826 -0.15088366 -0.07838501 0.11083879 0.054675717 -0.044758853 -0.19344273 0.14608574
-0.017802471 -0.008976065 -0.17784572 0.08315618 0.1070984 0.028750412 -0.08853964 -0.06266874
-0.15914877 -0.03388963 -0.06311775 0.08990869 0.17057371 -0.16817597 0.118026964 -0.18393317
-0.06998487 0.094099835 -0.013983324 -0.06432845 -0.07269261 -0.07027695 0.01796664 -0.100464895
0.0037086906 0.018208422 0.008663333 0.066684775 0.024853125 0.18956941 0.043896846 -0.016834516
-0.004523088 -0.0061527076 0.011513482 0.02717687 -0.13758653 0.055868495 0.075804055 0.04021727
0.015817128 -0.13840252 0.09806065 0.12924235 -0.08214112 -0.17884283 0.11640523 0.041818112
0.13984318 -0.007404291 -0.05267816 0.22668436 -0.0015799855 -0.12863192 -0.11707652 -0.09690888
-0.08913456 0.034681793 0.04623438 -0.035084438 0.03167648 0.18347594 -0.12741628 0.019685095
-0.1934489 -0.017949183 -0.009205856 0.10213187 0.0693908 0.1733294 0.080365576 0.024626687
0.08999862 -0.0114956675 -0.12371547 -0.059456058 0.09722323 0.03453662 0.07581985 0.14839362
-0.048469506 -0.071265735 0.062120955 -0.06703781 -0.17962167 0.09879147 0.024002647 -0.0015405887
0.044319347 -0.0896869 -0.08711139 0.05806812 -0.028777651 -0.089237 -0.03578462 0.076795645
-0.0642679 0.026524479 0.15964438 -0.04209896 -0.069642626 0.043392867 0.085694924 0.18368992
0.08924823 -0.07485408 0.0036676275 -0.05975141 -0.098046504 0.07429604 0.039405625 0.025595518
-0.09762778 -0.0036901762 -0.048110288 0.018280342 0.11109362 -0.03865449 0.22512843 0.030558009
0.016775146 -0.0029615664 -0.011467777 -0.13687442 -0.070143 0.13265069 0.05061807 0.04926359
-0.11785563 -0.020099787 -0.0726734 0.021484807 -0.03242735 -0.0076687066 -0.045477405 -0.04250025
-0.024391277 -0.06784669 -0.121263385 -0.16154382 -0.21733445 -0.10079989 0.021123104 -0.032101847
-0.12495083 -0.08856156 -0.11578838 0.04140554 0.014969082 0.0143040195 -0.054351997 0.13042219
-0.0012964682 -0.04704707 0.028238134 -0.14254837 0.07125157 0.14202437 -0.032928016 0.0772325
-0.056848746 0.03503847 -0.14972015 0.09895669 0.106667094 -0.070159614 -0.12070684 -0.096860334
-0.10512863 -0.15562797 0.11029992 0.076212585 -0.07984769 -0.17986642 0.041706502 0.08026947
-0.15088905 -0.111876585 0.05805247 -0.008894739 -0.008895837 -0.10848882 0.037462026 0.052612577
0.023865659 0.0763636 -0.12541102 0.046907578 -0.15253773 0.05335658 0.0014297741 0.13635407
-0.104876935 0.21345998 -0.008638378 -0.19052367 -0.08169449 -0.10300367 0.07109791 0.032605115
-0.08119314 -0.1399334 0.09187085 0.07656861 0.05896397 0.17988072 0.08671633 0.02299191
-0.14874983 -0.16562195 -0.104241595 -0.0035035836 -0.06762719 0.11099388 0.20858674 0.011504233
-0.0016594181 -0.109526776 -0.006138739 0.18827403 -0.11079702 -0.11501158 0.08465318 -0.14156121
-0.018703632 -0.08109581 0.08125501 -0.07044231 0.04274629 -0.031040732 0.06182229 0.1999492

bias_ih_l1 f4 [192]
00000000: 39c3 d23d 56c6 d8bd 25a7 8a3c 9f55 b3bd
00000010: f22a db3c 8d71 0fbb 9594 203e 8913 cabd
00000020: bcdb e43c 62c1 98bb e2cb 863d ba2f 973d
00000030: 2682 063e 65e1 e0bd c842 433c b90b 00be
00000040: fc5e d8bc ad01 f6bc d83c 84bd 3ecb 9fbd
00000050: 2150 283e e074 113d 4721 f63d d23f fdbc
00000060: 1a9c 86bd 2947 733c f771 b7bd 876d 2e3d
00000070: 2616 51bc 0554 83bd f8d6 9db9 00d7 0d3b
00000080: 6acc ccbd 1a72 4fbd 4e63 df3d 0552 27bd
00000090: 2f5e 4c3c 2226 a0bd 60ec 013d 5b5c a83d
000000a0: bae4 573d f298 e73d 7147 063e c560 663e
000000b0: 278b ab3d 2d0f c6bb 527c 5f3c 6b11 e63d
000000c0: 00d9 0fbd 93c5 a93d d3d3 cabc bc85 543d
000000d0: 4948 d43d 9190 f2bd e156 803d da61 37bd
000000e0: 559f ba3d bdce 353d 5b6d bebd c427 96bc
000000f0: 647c 26bd 03da 823c d349 673d 7f4a 9fbc
00000100: 34b4 a6be d1fa 87be 43f4 82be 0d52 40be
00000110: e76c 70be 7ee0 ba3b ce78 aebe ce11 c0bd
00000120: 0031 9f3c bf0d 22be 3d39 8bbd 6ec4 a3be
00000130: 4b76 29bf 8971 30be 95d3 87bc d5ff 90be
00000140: 0468 00be 6830 92be c85f a9be 4741 47be
00000150: 7fbc 95be edba 56be 4c97 e3bd d01a 13be
00000160: 6228 bdbe 0809 4ebe f8d9 98bd 1d0c 93be
00000170: aebe c1be c125 a2bd dcd7 51be 1f11 26be
00000180: 68c2 b0be 22de 81be afcd 75be fa4f 08bf
00000190: 72de 13be 3d65 6cbe 2257 c3be 635b 7dbe
000001a0: 59f6 95be d8b2 b2be dddd e4bd 090f debe
000001b0: 780a debe 7635 6cbe 3f6d adbe 8ff6 ddbd
000001c0: af2b d3be 103f 25be cc48 0dbe 41b4 cdbe
000001d0: d903 86be 655d 2bbd 061a 95be efe4 36be
000001e0: 520c 8fbc 1ff0 adbe b24e 69be fc4d afbd
000001f0: 1e03 86be ec2f 76be 58d4 92be 873e 92be
00000200: 91e2 22be 1033 a13d 3e1f 9bbd 795a 11be
00000210: da6c 0bbe 0272 ddbd 5454 f53d 3469 8ebc
00000220: c55e e93d 7866 45bc 085e 39bd b50f 13be
00000230: 5f48 4abe 7612 2a3e 7eb5 f6bd f75a 123e
00000240: 8c97 b0bd 32c7 c93d fb37 ee3c 1e65 223c
00000250: 9da2 00bd bbf2 c63d 7572 8d3d 9113 c7bd
00000260: 3762 533d 7260 023d c00c f8bd 1f38 b7bd
00000270: e876 c1bd ed6e 123d 1ee2 cf3d e915 883d
00000280: 3b0f c73d 1746 d33c cd70 48be 50a9 343d
00000290: 2176 8fbd dd07 bdbc f819 213d b1d8 f3bd
000002a0: 82be c83d d4c9 2dbd e17d 34bd 38c3 26be
000002b0: 4455 bbbb 1ab4 abba 289b 00be 5b1f 2cbe
000002c0: d692 71bd ecba 1b3e aa58 1cbe 8f90 3fbe
000002d0: c4a8 5c3d 8b87 02be 5c05 f43d 9edd 0bbe
000002e0: f2b4 babd 898a 133e d7f4 563d 4621 063d
000002f0: 1984 bfbb 1415 3dbb 65e4 923d fe65 ba3d
0.10291142 -0.105847046 0.016925404 -0.08756565 0.026753876 -0.002188775 0.1568168 -0.09867007
0.027936809 -0.004661725 0.06581856 0.0738215 0.13135585 -0.109804906 0.011917777 -0.12504472
-0.02641248 -0.030030096 -0.064569175 -0.07802437 0.16436817 0.03551185 0.12018066 -0.030914221
-0.06572743 0.014848509 -0.08957284 0.042584922 -0.012761628 -0.0641251 -0.00030105538 0.0021643043
-0.099999264 -0.050645925 0.10907613 -0.040849704 0.012473627 -0.07819773 0.031719565 0.082207404
0.052708365 0.11308469 0.1311319 0.22497852 0.083761506 -0.0060442896 0.01364048 0.11233791
-0.035119057 0.082896374 -0.024759209 0.05188535 0.1036535 -0.1184398 0.06266571 -0.044771053
0.091124214 0.044386614 -0.09298202 -0.018329509 -0.040645972 0.015973097 0.05646689 -0.019444702
-0.3255936 -0.26558545 -0.25576982 -0.187813 -0.23479043 0.005703031 -0.34076542 -0.09378396
0.019432545 -0.15825556 -0.06798027 -0.319858 -0.66196126 -0.1723081 -0.016580382 -0.28320184
-0.12539679 -0.28552556 -0.33080888 -0.19458495 -0.29245374 -0.20969744 -0.11112842 -0.14365697
-0.36944872 -0.20120633 -0.07463449 -0.2872018 -0.3784079 -0.07917357 -0.204925 -0.16217469
-0.3452332 -0.25364786 -0.24004243 -0.53247035 -0.14440325 -0.23085494 -0.38152415 -0.24741893
-0.2928951 -0.34902072 -0.111751296 -0.43370846 -0.43367362 -0.23067269 -0.3387241 -0.10838043
-0.41244265 -0.16137338 -0.13797301 -0.40176585 -0.2617481 -0.041837115 -0.29121417 -0.17860769
-0.01746193 -0.3397226 -0.22783926 -0.08559796 -0.26174253 -0.24041718 -0.2867763 -0.2856333
-0.1590674 0.078710675 -0.07574318 -0.14194669 -0.13615742 -0.10812761 0.11978975 -0.01738415
0.11395029 -0.012048356 -0.04525569 -0.1436146 -0.1975417 0.16608605 -0.12046336 0.14292513
-0.08622655 0.098524466 0.029079428 0.0099118035 -0.03140508 0.09714266 0.069065966 -0.09720529
0.051607337 0.03183026 -0.12111807 -0.08946251 -0.09446508 0.03575032 0.1015055 0.06644804
0.09719702 0.025790257 -0.1957428 0.04410678 -0.07004953 -0.023075039 0.039331406 -0.11906565
0.098019615 -0.042428806 -0.04406536 -0.16285408 -0.0057169516 -0.0013099939 -0.12559187 -0.16808836
-0.058977924 0.15208024 -0.15268198 -0.18707488 0.053871885 -0.12747018 0.11915085 -0.13658759
-0.09116544 0.14408316 0.05247959 0.032746576 -0.0058446047 -0.0028851675 0.07172469 0.09101485

bias_hh_l1 f4 [192]
00000000: f360 5a3c de57 f63d 5f33 573c 0959 42bd
00000010: 66fc c83d bdb5 023e b8a6 a4bc ede1 9e3d
00000020: b4ec 0b3d f830 113e e311 663d 88f9 80bd
00000030: 9863 c53d df5c 643d 6d4d a1bc 3d91 d53d
00000040: 3c1d 03be 3d5d 103e 127c 923d 3571 fb3d
00000050: 93d2 2c3e 0446 63bd 8720 a8bd 1a2c 98bd
00000060: d98d b6bd 4871 ae3d 119b 4bbc 8bbd c3bd
00000070: 217b de3c 4c46 80bc 5eaf db3d 8091 173d
00000080: e621 07bd e0c9 8b3d 640d 9d3d 2665 213c
00000090: fbec a4bd f0eb 1f3d e403 a13c 0674 963d
000000a0: 3611 9ebd 4bb9 2e3d 4015 863d 0d6e 093e
000000b0: ee7e 383d b35c 853c 0749 45bd 0c03 0e3e
000000c0: 386b f53d ddcc 90ba f8d8 29be 33b2 8abc
000000d0: 910d 083e df88 9d3d de13 8abd 532f 593d
000000e0: eeff 57bd 8b40 dfbd e4f3 a4bd 2f7e 753d
000000f0: cf5a 74bd ddbd a53d d3f9 bbbc 4a94 1d3d
00000100: e4fc 61be 3837 b0be aed3 adbe f399 debd
00000110: a0f4 cfbe 8520 d33d 7d2c e8be c56e a43d
00000120: f2d1 35be 4942 89be 7058 f7bd 61eb 7cbe
00000130: f6a6 26bf 5c30 42be c313 5dbe c707 a1be
00000140: c2fb 93be 4e45 80be e605 79be 7d64 a8bd
00000150: 75d4 adbe db0e 28be 7e53 b23d 9eac ffbd
00000160: 259f 7cbe 70fb 44bd cc74 ffbd c5bd 23be
00000170: 94ee 8cbe 99dc 60bd f38e dcbd 0eb0 b0bd
00000180: 4bb4 bcbe bc50 82be 26d2 64be 2023 10bf
00000190: 8a4a 35be 2750 95bd 18ac d8be 4214 6bbe
000001a0: ab52 83be 0532 91be a690 603d 4a0c d5be
000001b0: ec60 b6be 0146 debd 7faa adbe b6c4 afbc
000001c0: 9b4d d4be 12ce 58be d582 19be 7cd5 d4be
000001d0: d3f6 91be 7c2a cbbd 94d8 37be 7873 97be
000001e0: b1c1 bebd 4c9a 99be 2a98 8dbe a60b a4bd
000001f0: b8dd c6bd ef77 81bc 0436 8dbe c80a 87be
00000200: bfb6 2dbe 75b4 f4bd b265 7dbe 3efe b2bd
00000210: 6168 bfbd 04f9 01bd be75 813e 05fb e9bd
00000220: ca5b 99bd 5bd2 e8bc 5e90 973d cca8 383e
00000230: 27fb bcbe 138b fa3d 28e0 76bd 728f 243e
00000240: 6363 103e 51d2 3f3e 5978 f63a 6819 a2ba
00000250: 1a9c e13d 5216 2b3e e3cd 05bd 6bdc d83d
00000260: 3790 82bd 8a31 6dbd f2da 3cbd cd29 20be
00000270: a140 6cbe a2c6 2b3d cca5 703e 6722 f2bc
00000280: ad02 68bd 600b 8b3d abf8 b0bd 6624 d5bd
00000290: d841 053e 4f72 c23d a29a 033e 60e1 7f3d
000002a0: 9e94 2bbd f065 71be de1a c83d 921b efbe
000002b0: 0650 063e aa3e cf3d 94d3 d3bd 0200 3bbe
000002c0: 22e0 febc 1636 7abd e727 043d e053 60be
000002d0: 79b7 c8bd 9880 40bd 620e e03b fbea 953d
000002e0: dbb3 603d 540d d8bd ffd8 4a3e af2c 2a3d
000002f0: 4b47 81be adba 0a3e 1992 d43d 6ec7 d6bd
0.013328779 0.12028478 0.013134806 -0.04744819 0.09813766 0.1276464 -0.020099029 0.07757936
0.034161285 0.14178836 0.0561694 -0.06297594 0.096381366 0.05575263 -0.01969024 0.10428093
-0.12804121 0.14098068 0.07152571 0.12277452 0.16877203 -0.055486694 -0.08209329 -0.07430287
-0.08913774 0.085177004 -0.012427107 -0.09557637 0.027158322 -0.01565852 0.10726808 0.037003994
-0.032991312 0.06825614 0.0766857 0.009850776 -0.08053013 0.039043367 0.019655176 0.073463485
-0.077181265 0.042657178 0.06547022 0.13420887 0.045042925 0.016279554 -0.048165347 0.1386835
0.11983341 -0.0011047382 -0.16586673 -0.016930675 0.13286425 0.07692122 -0.067420706 0.053023648
-0.052734308 -0.109009825 -0.08054331 0.05993479 -0.059656914 0.08092854 -0.022946274 0.038471498
-0.22069126 -0.3441713 -0.3395056 -0.10869207 -0.40616322 0.10308937 -0.45346442 0.0802894
-0.17755869 -0.26808384 -0.12077415 -0.24699165 -0.6509851 -0.1896376 -0.2158957 -0.31451246
-0.28903013 -0.25052875 -0.24318656 -0.082222916 -0.33951154 -0.16411917 0.08707331 -0.12484096
-0.24670084 -0.048091352 -0.12473449 -0.1599036 -0.2752577 -0.05489788 -0.10769453 -0.0862733
-0.36856303 -0.2545222 -0.2234579 -0.56303596 -0.17704216 -0.072906785 -0.42318797 -0.22956946
-0.25649008 -0.28358474 0.054825447 -0.41610938 -0.3562082 -0.10853196 -0.3391914 -0.021456104
-0.41465458 -0.2117236 -0.14991315 -0.41569126 -0.28508624 -0.099202126 -0.17953712 -0.29580283
-0.093142875 -0.30000532 -0.27655154 -0.08010034 -0.09710258 -0.01580426 -0.27580273 -0.26375413
-0.16964243 -0.11948482 -0.24745825 -0.08739899 -0.093460806 -0.03173162 0.25285143 -0.11424831
-0.074882105 -0.028420618 0.07400583 0.18033141 -0.36910364 0.122335576 -0.060272366 0.16070345
0.14100413 0.18732573 0.0018804177 -0.0012367191 0.11016102 0.16707733 -0.032667052 0.105889164
-0.06375163 -0.057908572 -0.04610724 -0.15640946 -0.23071529 0.041937478 0.23500746 -0.02955742
-0.056643177 0.06789279 -0.0864118 -0.10407333 0.13013399 0.09494459 0.12851956 0.062470794
-0.04188978 -0.23574042 0.097707495 -0.46700722 0.13116464 0.10119374 -0.1034309 -0.18261722
-0.031112734 -0.061086737 0.032264616 -0.21906996 -0.0980062 -0.046997637 0.006837652 0.073202096
0.054859024 -0.10549417 0.1980934 0.04154652 -0.25249705 0.13547774 0.103794284 -0.10487257
