action_LossPrune/TotalModel_Climate.pth (torch, 209654 bytes, 12 tensors)

weight f4 [125, 16]
0	0xbf81bfd8	-1.0136671
1	0x3b8782ea	0.004135479
2	0x3f448a6c	0.76773715
3	0xbfb54af9	-1.4163505
4	0x3f9475b8	1.1598425
5	0x3f994287	1.1973428
6	0x3f1cecea	0.61299
7	0xbd1ec2d8	-0.038760036
8	0xbee68555	-0.450236
9	0x3f35baf7	0.7098841
10	0xbfd7912c	-1.6841178
11	0x3f8d4170	1.1035595
12	0x3e47885c	0.1948561
13	0xbf33a06a	-0.7016665
14	0x40233499	2.5500853
15	0x3fa97473	1.3238662
16	0x3e9e2623	0.3088847
17	0x3f2244db	0.63386315
18	0x3f8573de	1.0425985
19	0x3fd77ec6	1.6835563
20	0x3f950ffc	1.1645503
21	0x3fd095de	1.6295736
22	0xc011de80	-2.2792053
23	0x3eb64450	0.35598993
24	0xbf8e6ac2	-1.112633
25	0xbf4720c0	-0.7778435
26	0x3e97723d	0.29579344
27	0x3dd5c94c	0.10438785
28	0xbe1c05ba	-0.1523656
29	0x3fa9d526	1.3268173
30	0x3f9ba9f4	1.216124
31	0x3f75e9fa	0.96060145
32	0x3fc615e2	1.5475428
33	0x401f2826	2.4868255
34	0xbf37b2c6	-0.7175716
35	0x3f97d226	1.1861007
36	0x3f4bcba3	0.796076
37	0x3fba758c	1.4567122
38	0x3fad8dc5	1.355889
39	0x3f9ddcda	1.2333024
40	0x3fcd318f	1.6030749
41	0xbf24b4d3	-0.64338416
42	0xbf2b99c0	-0.6703148
43	0xbf6706f2	-0.9024497
44	0xbf0624db	-0.52399987
45	0xbe6c8ec9	-0.23101343
46	0x3fae746e	1.3629282
47	0xbec1ed1b	-0.3787621
48	0xbe484df8	-0.19560993
49	0xbf254807	-0.6456303
50	0x3ef17a27	0.47163507
51	0xbd72280d	-0.059120227
52	0xbf0ceb5f	-0.5504665
53	0xbe4bca63	-0.19901423
54	0x3efb5558	0.4908855
55	0x3db0ced5	0.086332
56	0x3ddff30d	0.1093503
57	0x402870a4	2.631875
58	0x3f155eb6	0.5834764
59	0x3ec46973	0.383617
60	0x3fa2d539	1.272132
61	0x3ef86452	0.48514038
62	0x402cf078	2.702177
63	0xbeeb5bad	-0.4596838
64	0x3f03c400	0.5147095
65	0x40272cc1	2.6121066
66	0x3f595dc6	0.8490871
67	0xbf8d9dbd	-1.1063763
68	0x3f5d3278	0.86405134
69	0x40306f00	2.756775
70	0xbfa5dadd	-1.2957417
71	0x3e87e9dc	0.26545608
72	0xbe5a4a3d	-0.21317382
73	0xbfa2f2be	-1.2730329
74	0xbe913bde	-0.28365988
75	0x3e891bca	0.26779014
76	0x4012adc3	2.2918556
77	0xbfab6f74	-1.3393388
78	0xbf7364cc	-0.9507568
79	0x3e4082fa	0.18799964
80	0xbe35deef	-0.17760824
81	0x3fb89a0c	1.4422011
82	0xbf412bda	-0.7545754
83	0x3f60880d	0.87707597
84	0x3f9541e8	1.1660738
85	0x40089422	2.1340413
86	0xbfe0e663	-1.7570308
87	0x3e976118	0.29566264
88	0x3e1d09d3	0.15335779
89	0xbf8dc501	-1.1075746
90	0x3f2b8a54	0.67007947
91	0xbd29754e	-0.041371636
92	0xbf83f921	-1.0310403
93	0xbebc5e70	-0.367908
94	0x3fc28a21	1.5198404
95	0xbe284439	-0.16432275
96	0x4017fc8d	2.3747895
97	0x3f12dd3a	0.57368815
98	0x3e49828d	0.19678707
99	0xbec5b54c	-0.3861488
100	0xbee70343	-0.45119676
101	0x3f345c82	0.70453656
102	0xbde72de0	-0.11288047
103	0xbf920742	-1.1408465
104	0x3d84e60e	0.06489192
105	0xbe98de0f	-0.29856917
106	0x3f93a224	1.1533856
107	0x3cbc5985	0.022991905
108	0x3e0f052c	0.13966817
109	0x3faeaf10	1.3647175
110	0x3f74bef0	0.9560385
111	0x3f1ca623	0.61191005
112	0x3f950bf1	1.1644269
113	0x3f10d5a2	0.5657598
114	0xbcd16022	-0.025558535
115	0x3cfcb791	0.03084925
116	0x3e47fd01	0.19530107
117	0x3fbefacf	1.4920291
118	0x3e4def0e	0.20110723
119	0x3fd9b814	1.7009301
120	0xbf5ed12f	-0.8703794
121	0xbfcafb11	-1.5857869
122	0x3fb1df87	1.389634
123	0xbf02c539	-0.5108219
124	0xbe1df144	-0.15424067
125	0x3d8ff23b	0.07028624
126	0x3f609b0c	0.8773658
127	0x4009f2e6	2.1554503
128	0x3ef75520	0.48307133
129	0xbe958b12	-0.29207665
130	0x3e886265	0.2663757
131	0x3d5bd7ec	0.053672716
132	0xbed4e735	-0.41582647
133	0x3ed110e5	0.40833202
134	0xbf553f24	-0.8329947
135	0xbffce1ce	-1.975641
136	0xbfb6ea89	-1.4290324
137	0xbe8b7c1a	-0.2724312
138	0x3ee93b76	0.45553178
139	0x3f15579c	0.58336806
140	0x3eba3880	0.3637123
141	0x3fbebe3e	1.4901807
142	0x3f1235fa	0.5711361
143	0x3f39a1c6	0.7251247
144	0x3e24cb21	0.16093113
145	0x4018d4e0	2.3879929
146	0x3cc47091	0.023979457
147	0x3e64092c	0.22269124
148	0x4000a13c	2.009841
149	0xbfa43155	-1.2827555
150	0x3fa45f14	1.2841516
151	0x3e90fe7c	0.28319156
152	0x3d8c054e	0.06836949
153	0x3f8ba778	1.0910482
154	0x3f893da0	1.0721931
155	0xbde93afb	-0.11388203
156	0xbedfce9e	-0.43712324
157	0x3ea1dccb	0.31613764
158	0x3f1a2543	0.60213107
159	0x3f66e336	0.90190446
160	0xbf625c06	-0.88421667
161	0xbf0e0ed6	-0.5549139
162	0xbecabbf6	-0.39596528
163	0xbf8e90aa	-1.1137898
164	0x3fec163c	1.8444285
165	0x402b96e8	2.6810856
166	0xbe9da105	-0.3078691
167	0xbf5beb55	-0.85905963
168	0xbf42447d	-0.75885755
169	0xbef0f0e0	-0.47058773
170	0x3dea5270	0.11441505
171	0x3fa749dd	1.3069416
172	0x3ec56366	0.38552397
173	0xbf58718b	-0.8454825
174	0x3ca6dccc	0.020368956
175	0x3f801568	1.0006533
176	0xbf83008c	-1.0234542
177	0xbebbf645	-0.36711326
178	0x3f6f461b	0.9346635
179	0x3f0c97ea	0.549193
180	0x3f8a1e52	1.0790503
181	0x3f6cbd35	0.92476207
182	0xbf282a5c	-0.65689635
183	0x3e54e172	0.20789126
184	0xbf1754cc	-0.59113765
185	0xbe85d078	-0.26135612
186	0x3ee51421	0.4474192
187	0x3e6a29ee	0.22867557
188	0xbd2aa5dc	-0.041662082
189	0x3e91cebb	0.28478035
190	0x3edb3722	0.428155
191	0xbeaf8e1f	-0.34288117
192	0xbe60a231	-0.21936871
193	0xbfb6e9ad	-1.4290062
194	0xbf5bfee2	-0.85935795
195	0xbf1a1bb4	-0.6019852
196	0xbdded037	-0.108795576
197	0x3f916ce6	1.1361358
198	0xbfaa620e	-1.3311174
199	0xbf78d662	-0.9720212
200	0xbe3df9cd	-0.18552323
201	0xc02d2d8f	-2.7059057
202	0xbfb1daa7	-1.3894852
203	0x3ef2ca61	0.47420028
204	0x401f5d0f	2.4900548
205	0xbd7c76bc	-0.06163667
206	0x3f47fc27	0.7811913
207	0x3f5e8be2	0.86932194
208	0x3f1282ca	0.5723082
209	0x3f2b312e	0.6687192
210	0xbf404d6f	-0.75118154
211	0xbea58eac	-0.32335413
212	0x3f800464	1.000134
213	0xbee07345	-0.43837944
214	0xbf719db3	-0.94381255
215	0x3e361dfc	0.17784876
216	0xbf8be2ef	-1.092863
217	0x3f2c9625	0.674166
218	0x3d8e3bc0	0.0694499
219	0x3cb7ecd9	0.022451805
220	0xbfa6fdd9	-1.3046218
221	0x3e0e8bc8	0.1392051
222	0x3feb4919	1.8381683
223	0xbf98155b	-1.1881517
224	0xbf2e6fc2	-0.6813928
225	0x401109d9	2.266226
226	0x3e9c2a20	0.3050089
227	0xbe2245b6	-0.15846905
228	0x3fae20b3	1.3603729
229	0x3ec5ddee	0.3864588
230	0xbdeb1378	-0.11478323
231	0x3f5308de	0.82435405
232	0xbf8e4e71	-1.1117688
233	0xbe4f2600	-0.2022934
234	0x3f12e5ca	0.5738188
235	0x3fad418a	1.3535626
236	0x3f9c34f6	1.2203662
237	0x3f92f241	1.148018
238	0xbf7321f7	-0.949737
239	0xbef4310a	-0.47693664
240	0x3f8555ac	1.041677
241	0xbe221012	-0.15826443
242	0x3ec6c549	0.38822392
243	0xc00f3e43	-2.2381752
244	0x3f995aa0	1.1980782
245	0x3e5f2cc3	0.21794419
246	0xbe88f6fa	-0.26750928
247	0x3f1cda0a	0.612702
248	0x3eb072ca	0.34462577
249	0x402f13ca	2.7355828
250	0x3f4882eb	0.78324765
251	0x3f699d7f	0.91255945
252	0x3ee03d12	0.43796593
253	0xbf8b9aca	-1.0906613
254	0xbeb1aa78	-0.3470037
255	0xbfe32171	-1.774458

weight_ih_l0 f4 [192, 17]
0	0x3dd03900	0.10167122
1	0xbd337d5d	-0.043820728
2	0xbe1bd8ea	-0.15219465
3	0x3d218e37	0.039442267
4	0xbe84a56b	-0.25907454
5	0x3deceecf	0.115689866
6	0xbe62f9f6	-0.22165665
7	0xbeb49301	-0.35268405
8	0xbd40db8a	-0.04708437
9	0x3e818c9e	0.25302595
10	0xbea9fb82	-0.33199698
11	0x3eb1e9d9	0.34748724
12	0xbb8a6af5	-0.004224176
13	0x3dfc46f2	0.12318219
14	0x3e91b044	0.28454792
15	0x3e8a7084	0.27038968
16	0xbd831e35	-0.06402246
17	0xbdee8a4f	-0.11647474
18	0xbec884c0	-0.3916378
19	0xbe8c68c8	-0.27423692
20	0x3ee9058d	0.45512047
21	0x3bc5be8c	0.006034678
22	0x3dbed6b4	0.09318295
23	0xbe4500d8	-0.19238603
24	0x3e5234d6	0.20527968
25	0x3e000327	0.12501203
26	0x3d9d5727	0.076826386
27	0xbf4abdce	-0.7919587
28	0xbec06e30	-0.37584066
29	0xbe418371	-0.18897797
30	0x3bdd73c1	0.0067581837
31	0xbd321a12	-0.043481894
32	0xbf2a921a	-0.66629183
33	0xbc5c5cb4	-0.0134498365
34	0xbe06e99d	-0.13175054
35	0xbe98dc50	-0.29855585
36	0xbed40d79	-0.4141653
37	0x3ea84a97	0.32869408
38	0xbdd9e8b1	-0.106400855
39	0x3f08d193	0.53444785
40	0xbead76fa	-0.33879834
41	0x3e8d29bb	0.275709
42	0x3da80e4d	0.08205853
43	0xbd18d95d	-0.03731667
44	0xbe760b57	-0.24027763
45	0xbf523e48	-0.82126284
46	0xbe9eac66	-0.30990905
47	0x3e5c0601	0.21486665
48	0xbf0b9340	-0.5452156
49	0x3c46f1bf	0.012142598
50	0xbf0ed4a4	-0.55793214
51	0x3e90eaca	0.2830413
52	0xbec1294a	-0.37726814
53	0xbe681b52	-0.22666672
54	0xbd07a1d9	-0.033113334
55	0xbe7ab69b	-0.24483721
56	0x3e6f168e	0.23348448
57	0xbe90e639	-0.28300646
58	0x3e928074	0.28613627
59	0x3dec3888	0.1153422
60	0x3e40aed4	0.18816692
61	0xbe81ca0d	-0.25349465
62	0xbe9e74b4	-0.30948412
63	0x3df0c59b	0.1175644
64	0x3d83176b	0.06400951
65	0xbb2acd2a	-0.0026062229
66	0xbc748b29	-0.0149257565
67	0xbe6d1bc1	-0.23155119
68	0xbc8ca049	-0.017166274
69	0x3b5e4787	0.0033917145
70	0xbd87774c	-0.06614551
71	0x3e999ac3	0.30000886
72	0x3dfb1f80	0.122618675
73	0xbea99d60	-0.3312788
74	0xbc0dec33	-0.008662271
75	0x3e8781eb	0.26466307
76	0xbed91252	-0.4239679
77	0xbeaa49bb	-0.33259377
78	0x3e9a5dc0	0.3014965
79	0xbe3f257f	-0.18666647
80	0x3f3698d3	0.7132694
81	0x3e4c6dae	0.19963714
82	0xbe5e4ca1	-0.21708919
83	0xbe3ed024	-0.18634087
84	0xbf005ec5	-0.50144607
85	0xbf1675c8	-0.5877347
86	0x3d747a3f	0.059686895
87	0xbed30755	-0.4121653
88	0x3e164c28	0.14677489
89	0x3d8867eb	0.06660446
90	0x3e9aee0e	0.30259746
91	0x3c9c86a1	0.019107165
92	0xbe5109e1	-0.20413925
93	0xbc73b30e	-0.014874233
94	0xbec074cb	-0.37589106
95	0x3dc98669	0.0984009
96	0xbdcd894a	-0.100359514
97	0xbcfd30d5	-0.030907074
98	0xbe7a146d	-0.24421854
99	0x3d792587	0.060826804
100	0x3de25c8e	0.1105281
101	0xbe9cc674	-0.30620158
102	0x3ddb4430	0.10706365
103	0x3dd7aa24	0.105304986
104	0xbdeb6b9c	-0.11495134
105	0xbb5d45d0	-0.0033763535
106	0x3efd188a	0.49432784
107	0x3d21c27d	0.03949212
108	0xbe882167	-0.26587984
109	0xbef45f72	-0.4772907
110	0x3e65bd08	0.22435391
111	0x3e5c7a3c	0.21531004
112	0x3e1b961d	0.15193982
113	0x3dd547e1	0.104141004
114	0xbe2088aa	-0.15677133
115	0x3e2d110d	0.16901036
116	0xbdfa287a	-0.122147515
117	0xbc53bde8	-0.012923695
118	0x3eacf480	0.3378029
119	0x3cc05971	0.023480149
120	0xbda6babe	-0.08141087
121	0xbdf6f40b	-0.12058266
122	0x3e44a6f7	0.19204317
123	0xbd9825ca	-0.07429083
124	0x3ef65743	0.4811345
125	0xbc2cb285	-0.010540609
126	0xbea1cfb9	-0.31603792
127	0xbe55a2ee	-0.20862934
128	0x3cbe9aed	0.023267234
129	0xbb6b1e9b	-0.0035876397
130	0x3e5f9da8	0.21837485
131	0xbe1068c5	-0.14102466
132	0xbe5c4ed4	-0.21514446
133	0x3e04fd3f	0.1298723
134	0xbdc9e506	-0.09858136
135	0x3dd56cb4	0.10421124
136	0x3e0f8533	0.14015655
137	0x3d25352d	0.040333916
138	0x3e6d43d3	0.23170404
139	0xbeb78d72	-0.35850102
140	0xba956db8	-0.0011400497
141	0xbef290bf	-0.47376058
142	0x3ecc6771	0.3992267
143	0x3d910a4f	0.07082044
144	0xbe427d69	-0.18993153
145	0x3e5cfde8	0.21581233
146	0x3ea95127	0.33069727
147	0x3d63d9fa	0.0556278
148	0x3e495e8f	0.19664977
149	0x3d64b9ea	0.055841364
150	0xbe819910	-0.2531209
151	0x3e7e003f	0.24804781
152	0xbe12b6a0	-0.14327478
153	0x3dbc1dc1	0.091853626
154	0x3d194fbb	0.037429553
155	0x3eaf6cec	0.34262788
156	0xbcc357c4	-0.02384556
157	0x3e508edc	0.20366997
158	0x3df32c5d	0.11873696
159	0x3d22f8ec	0.03978817
160	0xbe962ced	-0.2933115
161	0xbe262d2a	-0.16228166
162	0xbd4ceee3	-0.050032508
163	0xbdd9e5b7	-0.10639518
164	0xbf31cf01	-0.6945649
165	0x3e48a398	0.19593656
166	0x3c040706	0.008058315
167	0xbe91c568	-0.28470922
168	0xbecc8b86	-0.39950198
169	0x3def846e	0.11695181
170	0xbd94f8a0	-0.07273984
171	0xbf434150	-0.76271534
172	0xbe150053	-0.14550905
173	0x3e35cb75	0.17753394
174	0xbeb0fe5f	-0.3456907
175	0x3e6cee3f	0.23137759
176	0xbe44b4fd	-0.19209667
177	0x3ebe55b2	0.37174755
178	0x3e4a9e4a	0.19786945
179	0xbe109cf7	-0.14122377
180	0x3d3ef0d0	0.046616375
181	0xbe8622cf	-0.26198432
182	0xbe7ab1a1	-0.24481823
183	0xbdc1428c	-0.09436521
184	0xbe70fc8c	-0.23533839
185	0xbe3cfebf	-0.18456553
186	0xbee9ec7d	-0.4568824
187	0x3d80702b	0.06271394
188	0x3ea41b18	0.3205192
189	0x3e10e904	0.14151388
190	0xbe81b392	-0.25332314
191	0xbdf213c9	-0.1182018
192	0xbe7b404c	-0.24536246
193	0x3eb39e18	0.35081553
194	0xbe4f53b7	-0.20246778
195	0xbe421d7e	-0.18956563
196	0xbdacd9c2	-0.084399715
197	0x3e51ca21	0.20487262
198	0xbdc4cec5	-0.09609751
199	0x3e82c866	0.25543517
200	0xbe73d06c	-0.23809975
201	0x3ebf1f2e	0.37328476
202	0x3d84439f	0.0645821
203	0xbc864d33	-0.016394233
204	0x3e576e38	0.21038139
205	0xbcc068b8	-0.023487434
206	0x3d75e591	0.060033385
207	0x3dd73711	0.1050855
208	0xbd2fb4bf	-0.042896982
209	0x3ee7f444	0.45303547
210	0xbdd11e22	-0.102108255
211	0x3e9619bb	0.29316506
212	0xbd552b35	-0.05204316
213	0x3e8e2f0c	0.2777027
214	0x3e8ed8ec	0.27899873
215	0x3e8a2cba	0.2698725
216	0x3eb99396	0.36245412
217	0xbe801d9c	-0.2502259
218	0x3d0a0c84	0.033703342
219	0x3e160cd2	0.14653328
220	0xbefc52a9	-0.49281815
221	0xbdad708e	-0.08468734
222	0xbcbda870	-0.023151606
223	0xbe79920c	-0.24372119
224	0x3d57e5ea	0.052709498
225	0xbe139c73	-0.1441515
226	0x3e56530a	0.20930114
227	0xbeaca227	-0.33717462
228	0x3e112a49	0.14176287
229	0x3f6a5b39	0.91545445
230	0x3d873463	0.06601789
231	0xbe7720ec	-0.24133652
232	0xbeadd48f	-0.33951232
233	0x3e3c6f79	0.18401898
234	0x3e1d1556	0.1534017
235	0x3ed36eec	0.41295564
236	0x3d810ec9	0.06301648
237	0xbcfdbd47	-0.030974044
238	0xbe97c3f5	-0.2964169
239	0x3dd2cb2d	0.10292659
240	0xbda42f5a	-0.08016844
241	0xbed32228	-0.41236997
242	0x3e24fd5b	0.16112272
243	0xbda01d32	-0.078180686
244	0xbe41cc74	-0.18925649
245	0xbdc8d1fe	-0.09805678
246	0x3e535c1b	0.20640604
247	0x3dba7353	0.091040276
248	0x3d93cdd1	0.07216991
249	0x3e7b2859	0.2452711
250	0xbe17b63f	-0.14815615
251	0xbcf0089a	-0.029300977
252	0x3eac21b6	0.3361947
253	0xbe893aa0	-0.2680254
254	0x3e86cdad	0.26328793
255	0xbaf0b8f8	-0.0018365672

weight_hh_l0 f4 [192, 64]
0	0x3de22bc6	0.11043505
1	0x3dbceeee	0.0922526
2	0xbe99a7b7	-0.3001077
3	0x3e756d25	0.23967417
4	0xbedf3731	-0.43596795
5	0x3c15407c	0.009109613
6	0x3db21c99	0.08696861
7	0xbea18412	-0.31546074
8	0xbea404b8	-0.3203485
9	0xbdbe7d80	-0.09301281
10	0x3db9f421	0.09079767
11	0x3e471a99	0.1944374
12	0xbddd2dab	-0.10799726
13	0x3b72a1f6	0.0037022806
14	0xbe954c62	-0.29159838
15	0xbdfc1bf7	-0.12310021
16	0xbd0bc712	-0.034125395
17	0xbde43727	-0.11143332
18	0xbe7ee3d5	-0.24891599
19	0x3d9d20d3	0.07672276
20	0x3e4fec68	0.20305026
21	0x3d85f8f5	0.065416254
22	0x3e8cc986	0.274975
23	0xbdf3b339	-0.118994184
24	0x3e858bbe	0.26083177
25	0x3e4e2b3c	0.2013368
26	0x3b6c9ba2	0.0036103507
27	0xbeaf4343	-0.34231004
28	0x3f1b708f	0.60718626
29	0x3ddcca36	0.10780756
30	0x3e12f725	0.1435209
31	0x3e8b82bb	0.27248177
32	0xbbf94fcd	-0.00760839
33	0xbd5e7672	-0.054312177
34	0x3ead478b	0.33843645
35	0x3e295c20	0.16539049
36	0x3dac7732	0.08421172
37	0xbd0c401e	-0.034240834
38	0x3dc195f3	0.09452429
39	0xbe0e3901	-0.13888933
40	0x3dcc1cce	0.099664316
41	0x3db28865	0.087174214
42	0x3ec3c67c	0.3823737
43	0x3e3f6565	0.18691023
44	0xbd27dcf9	-0.04098222
45	0x3e4698fc	0.19394296
46	0x3e254c8b	0.1614248
47	0xbe862c98	-0.26205897
48	0x3d228c55	0.039684612
49	0xbded5cc7	-0.115899615
50	0xbec38200	-0.3818512
51	0xbdf17275	-0.11789409
52	0x3d0b9c62	0.034084685
53	0xbe804f2c	-0.25060403
54	0xbe19d993	-0.15024404
55	0x3c97ac93	0.018514907
56	0xbe411dc7	-0.18859015
57	0xbef0fb56	-0.47066754
58	0x3d1502a3	0.036379468
59	0x3e77032e	0.24122307
60	0xbceace77	-0.028662903
61	0x3c48337a	0.012219304
62	0x3e933e32	0.2875839
63	0xbdf2811c	-0.11841032
64	0x3eacf1f9	0.3377836
65	0xbccf10b5	-0.025276521
66	0xbe2f7e48	-0.17138016
67	0xbe8667da	-0.26251107
68	0x3e996eca	0.29967338
69	0x3d1835fb	0.037160855
70	0x3d8fd790	0.07023537
71	0xbf06cd77	-0.52657264
72	0xbd6df71d	-0.058096994
73	0x3e071559	0.13191737
74	0xbef30f2a	-0.47472507
75	0x3e40c26f	0.1882417
76	0xbe299c17	-0.1656345
77	0xbe9c9d6b	-0.3058885
78	0x3e0494bb	0.12947361
79	0xbe97fc9e	-0.2968492
80	0x3ee727d5	0.45147577
81	0xbebcba38	-0.36860824
82	0x3c834e51	0.016028555
83	0xbe25a6aa	-0.16176859
84	0x3e97d667	0.29655764
85	0xbdd8f9e0	-0.10594535
86	0x3f06f802	0.5272218
87	0x3e67ffbe	0.22656152
88	0xbe5ba1d1	-0.21448447
89	0xbe62b12a	-0.22137895
90	0x3e6b4a0e	0.22977468
91	0xbe88c279	-0.2671087
92	0x3e926ff2	0.28601032
93	0xbea97911	-0.3310018
94	0x3d93daca	0.07219465
95	0x3ea5779c	0.32317817
96	0x3dae24ab	0.085030876
97	0x3ef46d46	0.4773962
98	0xbd9a3100	-0.07528877
99	0x3e7f7a6a	0.24949041
100	0xbd96829f	-0.07349133
101	0xbd05721b	-0.032579523
102	0x3deebbe6	0.116569325
103	0xbe5a77a4	-0.21334702
104	0xbde23652	-0.11045517
105	0x3d157d20	0.03649628
106	0x3e971d96	0.2951476
107	0x3dbcb98f	0.0921508
108	0xbd9b4500	-0.0758152
109	0xbdf60e0b	-0.12014397
110	0xbed1bb22	-0.40963084
111	0xbcd55642	-0.026042107
112	0x3c22c30c	0.009934198
113	0x3e132b6f	0.14372037
114	0x3e81456d	0.2524828
115	0xbe8d58b5	-0.2760674
116	0x3e0f5c3a	0.14000025
117	0xbe7d6672	-0.24746111
118	0xbe208556	-0.15675864
119	0xbda17626	-0.07883863
120	0x3c4a5902	0.012350323
121	0xbea40245	-0.32032982
122	0xbd905b58	-0.070486724
123	0x3e767b1c	0.240704
124	0xbe6f14ef	-0.2334783
125	0xbd5dd628	-0.054159313
126	0x3e0b600f	0.13610862
127	0x3e80239e	0.25027174
128	0xbe0b6e22	-0.13616231
129	0xbd9d5ddc	-0.07683918
130	0xbe809c6a	-0.25119334
131	0xbe9881ab	-0.2978643
132	0xbeb2a7de	-0.34893698
133	0x3e68f041	0.227479
134	0x3d302953	0.04300816
135	0xbe7a5a2d	-0.24448462
136	0xbd0a0250	-0.03369361
137	0xbc179d03	-0.009253743
138	0xbdfeb7b8	-0.12437385
139	0x3dcf5205	0.10123066
140	0xbd6dbfb1	-0.05804414
141	0x3bc46ba5	0.0059942775
142	0xbe6342d3	-0.2219346
143	0xbe68af3e	-0.227231
144	0x3e0a7717	0.13521992
145	0xbe4850c8	-0.19562066
146	0x3d7fc68a	0.0624452
147	0xbe26ee41	-0.16301824
148	0xbe1171cd	-0.14203568
149	0x3e204a81	0.15653421
150	0x3e8e7ad7	0.27828094
151	0xbdb859a4	-0.090014726
152	0xbbbaa38e	-0.005695767
153	0x3e067593	0.13130789
154	0xbe396bc0	-0.1810751
155	0xbca38260	-0.019959629
156	0x3e977b3b	0.29586205
157	0x3d0801b4	0.03320475
158	0x3e4c9629	0.19979157
159	0x3e396e3c	0.18108457
160	0x3e8e743c	0.27823055
161	0x3e127e0f	0.143059
162	0xbdea8112	-0.114503995
163	0xbe1dbb6a	-0.15403524
164	0x3e92287b	0.2854651
165	0xbc1d7f36	-0.009612849
166	0xbe57f32c	-0.21088856
167	0x3c9367b1	0.01799378
168	0x3c9a939c	0.018869214
169	0xbe8d7476	-0.27627915
170	0x3e251321	0.16120578
171	0x3e940b36	0.28914803
172	0xbed706d4	-0.41997397
173	0x3e51d7ea	0.20492521
174	0x3dd13aa2	0.102162614
175	0xbde1e04c	-0.11029109
176	0xbcfdef54	-0.03099791
177	0xbd8ecd94	-0.06972805
178	0xbe0da444	-0.13832194
179	0x3cd010e0	0.025398672
180	0xbde42a41	-0.11140872
181	0xbebdf663	-0.3710204
182	0x3e6e392c	0.23263997
183	0x3db2c736	0.08729403
184	0xbd195347	-0.037432935
185	0x3dd8f4a4	0.105935365
186	0x3e59b310	0.21259713
187	0xbe2c462a	-0.1682364
188	0x3d83975c	0.06425354
189	0xbd63a1ee	-0.05557435
190	0x3e4e4d0b	0.20146577
191	0x3e50191a	0.20322075
192	0x3e9eeccd	0.3104004
193	0xbd2daf21	-0.042403344
194	0xbf115017	-0.5676283
195	0xbe705929	-0.23471512
196	0x3e512df7	0.2042769
197	0x3e5dfdc3	0.21678834
198	0x3e70dbfe	0.2352142
199	0x3cf98c1b	0.030462315
200	0x3e03f497	0.12886272
201	0x3e2c69ce	0.16837236
202	0x3dfe0e34	0.12405053
203	0x3e1e686a	0.15469518
204	0xbe99d17e	-0.30042642
205	0xbe542a2f	-0.20719217
206	0xbd887d4e	-0.06664525
207	0x3d2bba8e	0.04192596
208	0x3e06f25c	0.1317839
209	0x3d965c1b	0.073417865
210	0x3e920a35	0.28523412
211	0xbec266f8	-0.37969184
212	0x3e2f118c	0.17096537
213	0x3e0645af	0.1311252
214	0x3dfd88ec	0.123796314
215	0xbec25f34	-0.3796326
216	0xbdb42a0a	-0.08797081
217	0xbbddce88	-0.006769005
218	0xbddbfcea	-0.10741599
219	0xbee90357	-0.4551036
220	0x3c608be2	0.013705226
221	0xbcecbad9	-0.02889769
222	0x3ecee309	0.4040759
223	0xbd238a00	-0.03992653
224	0xbdb26536	-0.08710711
225	0xbc8b1f55	-0.016982714
226	0x3e6905f9	0.22756185
227	0x3e1cf8b1	0.15329243
228	0xbe648c3e	-0.22319123
229	0x3e805b2f	0.25069568
230	0x3da87440	0.08225298
231	0x3dc7efcd	0.09762535
232	0xbe19cb8c	-0.15019053
233	0xbea91e83	-0.3303109
234	0x3dedf8ea	0.11619742
235	0x3deeef33	0.116667174
236	0xbe31ee2e	-0.17376015
237	0xbe90c622	-0.28276163
238	0x3ebc9873	0.3683506
239	0xbe971eec	-0.2951578
240	0xbdeb25bf	-0.11481809
241	0x3d6a9660	0.057272315
242	0x3eaaf9f9	0.3339384
243	0xbe770718	-0.241238
244	0xbe1b9cef	-0.15196584
245	0xbe3409b7	-0.17581831
246	0xbea3adde	-0.31968588
247	0xbdfda6b3	-0.12385311
248	0xbf026df4	-0.50949025
249	0xbed766e7	-0.42070696
250	0x3ee1807c	0.44043338
251	0x3ed2a912	0.41144615
252	0x3e06df64	0.13171154
253	0x3d48e303	0.04904462
254	0x3e930e2e	0.28721756
255	0x3e46cf69	0.19415058

bias_ih_l0 f4 [192]
0	0xbe00c187	-0.12573825
1	0xbd574776	-0.052558385
2	0xbe2f4f0d	-0.17119999
3	0xbe1941f6	-0.14966568
4	0x3e6c8afd	0.23099895
5	0xbe1c8653	-0.15285616
6	0x3dd83318	0.1055662
7	0x3dc44356	0.09583156
8	0xbd73209f	-0.05935728
9	0x3e32f8a0	0.17477655
10	0xbe57b618	-0.21065557
11	0x3e15aeda	0.14617482
12	0x3d9ad271	0.0755967
13	0x3dd2933b	0.10281988
14	0x3c824b52	0.015905056
15	0x3c7e86bb	0.015535052
16	0x3b38bf73	0.0028190285
17	0xbca99272	-0.020699713
18	0xbc6002d7	-0.013672552
19	0xbc20366f	-0.009778603
20	0xbb3b5ee9	-0.0028590506
21	0x3df5ba57	0.11998432
22	0xbcbd4b6f	-0.023107259
23	0xbcca1cd8	-0.024671957
24	0x3e04e7be	0.12979028
25	0x3d7a059c	0.061040506
26	0xbdab4803	-0.083633445
27	0xbdc4e6ad	-0.096143104
28	0xbd6ba0bd	-0.05752634
29	0x3d8ee148	0.06976563
30	0x3e0b50c6	0.13605031
31	0xbc6867bc	-0.014184888
32	0xbe0b3653	-0.13594942
33	0xbcfd0edf	-0.03089088
34	0x3d366bac	0.044536278
35	0x3e7160d0	0.23572087
36	0x3e8f1a3e	0.2794971
37	0x3ce9b684	0.028529413
38	0xbd76e8c0	-0.06028056
39	0x3de5839f	0.11206745
40	0x3e1713b4	0.1475361
41	0x3db7cc9b	0.08974572
42	0x3c706c4a	0.014674256
43	0x3d4d40fe	0.05011081
44	0x3dbd4a01	0.09242631
45	0x3dd76f3d	0.10519264
46	0xbd9c4f76	-0.076323435
47	0xbe811b06	-0.2521593
48	0xbd6c9051	-0.05775482
49	0xbb81e18a	-0.003963654
50	0xbdcda4e9	-0.1004122
51	0xbda80fd5	-0.08206145
52	0x3e49453a	0.19655314
53	0xbd384a1a	-0.044992544
54	0xbe1f352a	-0.15547624
55	0xbddec5af	-0.10877549
56	0xbe169b3d	-0.14707656
57	0x3d7159ee	0.058923654
58	0x3d4a5dfc	0.049406037
59	0xbd91cff3	-0.07119741
60	0xbcc209cb	-0.02368631
61	0x3e0502db	0.1298937
62	0x3e089388	0.13337529
63	0xbc89ae4e	-0.016806748
64	0xbe070e74	-0.13189107
65	0xbeeb84c9	-0.45999745
66	0xbe8d4d0e	-0.2759785
67	0xbec75c2f	-0.38937518
68	0xbece8065	-0.40332332
69	0xbf01bd2f	-0.50679296
70	0xbef9da72	-0.48799473
71	0x3d32b43c	0.043628916
72	0xbe9fa0e2	-0.3117743
73	0xbf7a49dd	-0.97768956
74	0xbf6d716c	-0.92751193
75	0xbe8dbde2	-0.27683932
76	0xbe4b13d0	-0.19831777
77	0xbeafa8cb	-0.34308466
78	0xbf16d174	-0.5891335
79	0xbe60492b	-0.21902911
80	0xbf2e44a0	-0.68073463
81	0xbe9e7f60	-0.30956554
82	0xbe548952	-0.20755509
83	0xbe292d6b	-0.16521232
84	0xbe81e50d	-0.25370064
85	0xbf65dfce	-0.89794624
86	0xbf3f2b39	-0.7467533
87	0xbed97385	-0.42470947
88	0xbed40b7a	-0.41415006
89	0xbf28c2ea	-0.65922415
90	0xbe9f64d0	-0.311316
91	0xbed12f26	-0.40856284
92	0x3eb8efa1	0.36120322
93	0xbe2fda1d	-0.17173047
94	0xbe69ac14	-0.22819549
95	0xbe78dcaa	-0.24302927
96	0xbe7c5273	-0.24640827
97	0xbe955deb	-0.29173216
98	0xbeac005b	-0.3359402
99	0xbe708604	-0.23488623
100	0xbebadb3e	-0.36495394
101	0xbf15c763	-0.58507365
102	0xbccfd7f3	-0.025371527
103	0xbf637f48	-0.8886609
104	0xbf3eb4db	-0.74494714
105	0xbe020708	-0.12697995
106	0xbebfe4d6	-0.37479275
107	0xbf1d391d	-0.6141527
108	0xbebdc267	-0.3706238
109	0x3dde7a41	0.10863162
110	0xbec284b9	-0.37991884
111	0xbeea85e0	-0.45805264
112	0xbceef331	-0.029168697
113	0xbec889f8	-0.39167762
114	0xbee05c26	-0.43820304
115	0xbf173628	-0.5906701
116	0xbf647b0a	-0.8925024
117	0xbe244f4c	-0.16045874
118	0xbef9de01	-0.48802188
119	0xbeb576b8	-0.35442138
120	0xbf26c9c8	-0.65151644
121	0xbe348a03	-0.17630772
122	0xbf072036	-0.52783525
123	0xbe7ce016	-0.24694857
124	0x3ca388d0	0.019962698
125	0xbec0873f	-0.37603185
126	0xbee920d5	-0.4553286
127	0xbf608654	-0.8770497
128	0xbdfb9d59	-0.12285871
129	0x3e8e976b	0.27849898
130	0xbd3cd3d3	-0.04610045
131	0x3e2186e1	0.15774108
132	0x3e4a977d	0.1978435
133	0x3e111539	0.14168252
134	0xbdf70392	-0.12061228
135	0x3dffa774	0.12483111
136	0x3deb7896	0.11497609
137	0xbf1b04d5	-0.6055425
138	0xbe492b15	-0.1964534
139	0xbef077de	-0.4696645
140	0x3e6187b5	0.22024424
141	0xbcd177fb	-0.025569906
142	0x3e6aab3a	0.2291688
143	0x3d1e9242	0.0387137
144	0xbe792d64	-0.24333721
145	0xbd5e4ea9	-0.054274235
146	0x3d678a94	0.056528643
147	0xbded1d05	-0.11577801
148	0x3e3458e2	0.17612031
149	0xbef66493	-0.48123607
150	0xbe33ca3b	-0.17557614
151	0x3da7d335	0.081945814
152	0xbe4138e6	-0.18869361
153	0x3e7839e5	0.24240835
154	0xbe0534f3	-0.1300848
155	0xbe08b2cc	-0.13349456
156	0x3dfa2190	0.12213433
157	0x3d299eb4	0.041411117
158	0xbd0214c6	-0.031758092
159	0x3e2c5645	0.16829784
160	0xbde16adb	-0.11006709
161	0xbec5a304	-0.38600934
162	0xbe03e17b	-0.12878983
163	0xbdd8d3be	-0.105872616
164	0x3eb16f52	0.34655243
165	0x3d227ac5	0.039667863
166	0x3ef1a221	0.47194007
167	0xbe836eb6	-0.25670403
168	0x3e12fd78	0.14354503
169	0x3da442ea	0.08020575
170	0xbe40611b	-0.18787043
171	0xbe6bfadf	-0.23044918
172	0x3dd9ebc7	0.10640674
173	0x3e4a38ff	0.19748305
174	0xbddfed50	-0.10933936
175	0xbd56f90f	-0.052483615
176	0xbe339780	-0.17538261
177	0xbe76a7d1	-0.24087454
178	0xbe921897	-0.28534386
179	0x3e503422	0.20332387
180	0x3eaa9818	0.33319163
181	0xbd07b463	-0.033131015
182	0x3d271bc3	0.04079796
183	0xbd1b2af4	-0.03788276
184	0x3cf8fbac	0.030393444
185	0x3cb57ac8	0.022153273
186	0x3d6e8b78	0.058238477
187	0x3e41682f	0.18887399
188	0xbe8fd2ec	-0.28090608
189	0xbe2d264f	-0.16909145
190	0xbea30c63	-0.31845388
191	0xbd9ebb1b	-0.07750531

bias_hh_l0 f4 [192]
0	0xbe1ad6e6	-0.1512104
1	0x3c0a5876	0.008443942
2	0xbe42fd07	-0.19041835
3	0xbe8aa54c	-0.27079237
4	0x3ea45a7e	0.3210029
5	0xbddb1826	-0.10697965
6	0x3de5c3bf	0.11218976
7	0x3e5613c5	0.20905979
8	0x3d823716	0.06358163
9	0x3e6672ff	0.22504805
10	0xbead2e09	-0.33824185
11	0x3eaf87e1	0.34283355
12	0x3d838823	0.064224504
13	0xbcd47058	-0.025932476
14	0x3db189c6	0.08668856
15	0xbcdf4a83	-0.02725721
16	0x3d56c714	0.05243595
17	0xbd6cb38f	-0.057788428
18	0xbd01d68d	-0.031698752
19	0xbe374e97	-0.17901073
20	0xbd089f11	-0.033354823
21	0xbc22a8db	-0.009927954
22	0xbd49a78f	-0.049232062
23	0x3d45d0a3	0.048294675
24	0x3d3c27a6	0.04593625
25	0xbdb180bf	-0.086671345
26	0x3c910de9	0.017706828
27	0xbe404ab5	-0.18778498
28	0xbd51ff3d	-0.051268805
29	0xbd8b1d62	-0.06792714
30	0xbbe886ac	-0.0070961323
31	0xbcd5532f	-0.026040642
32	0xbdfaed72	-0.1225232
33	0xbba85c3e	-0.0051379493
34	0x3d96ec2d	0.07369266
35	0x3e035ce7	0.12828408
36	0x3e9d6ce3	0.30747136
37	0xbd042c8b	-0.032269042
38	0xbd1d1efe	-0.038359635
39	0x3e082a6c	0.13297433
40	0x3e199367	0.14997636
41	0xbda842f5	-0.08215896
42	0x3dd47e2a	0.103756264
43	0x3d781d93	0.06057508
44	0x3e335123	0.1751142
45	0x3e48d756	0.19613394
46	0xbe51e1d1	-0.20496298
47	0xbd591dfd	-0.053007115
48	0x3d0beb00	0.03415966
49	0xbd16ebf3	-0.036846112
50	0xbd50da32	-0.050989337
51	0xbc0bbb8a	-0.0085285995
52	0x3dfda141	0.12384272
53	0x3d9e8406	0.07740025
54	0xbd420ead	-0.047377277
55	0x3deeefcd	0.11666832
56	0xbe17471d	-0.14773221
57	0xbdbc97de	-0.09208654
58	0xbddd7c74	-0.10814753
59	0xbd0a70a8	-0.033798844
60	0xbe303e74	-0.17211324
61	0x3df661cf	0.12030374
62	0x3c52bb5a	0.012862051
63	0xbda99551	-0.08280433
64	0xbdfd02da	-0.123540595
65	0xbee050ee	-0.43811744
66	0xbd8fceac	-0.070218414
67	0xbee68d5d	-0.45029727
68	0xbea701ba	-0.32618505
69	0xbe935072	-0.28772312
70	0xbf269d36	-0.65083635
71	0x3e057300	0.1303215
72	0xbec7b610	-0.3900609
73	0xbf6f2e7c	-0.93430305
74	0xbf82171c	-1.0163302
75	0xbea0836b	-0.31350264
76	0xbed8e34a	-0.42360908
77	0xbecd1ce8	-0.40061116
78	0xbf406e95	-0.75168735
79	0xbe9e8994	-0.3096434
80	0xbf550f78	-0.8322673
81	0xbddd9855	-0.10820071
82	0xbeaa8fe9	-0.3331292
83	0xbea250c8	-0.31702256
84	0xbe954c90	-0.29159975
85	0xbf630d4b	-0.8869216
86	0xbf3cb449	-0.73712593
87	0xbec94f01	-0.39318088
88	0xbf15f574	-0.58577657
89	0xbf372641	-0.71542746
90	0xbef01d32	-0.46897274
91	0xbe8b451d	-0.27201167
92	0x3e0e4dfb	0.13896935
93	0xbe1ee6d4	-0.15517741
94	0xbe723e73	-0.23656635
95	0xbe814603	-0.25248727
96	0xbe237ae0	-0.15964842
97	0xbe516b63	-0.20451121
98	0xbf0211e4	-0.5080855
99	0xbe753678	-0.2394656
100	0xbe547fbd	-0.20751853
101	0xbf0b638c	-0.5444877
102	0xbc3eef9d	-0.011653808
103	0xbf68102e	-0.9064969
104	0xbf3b9534	-0.7327454
105	0xbdfb5a0f	-0.12273037
106	0xbe8717f3	-0.2638546
107	0xbf1644cd	-0.5869873
108	0xbe3e3229	-0.18573822
109	0xbd6fe7bd	-0.058570612
110	0xbefae436	-0.49002236
111	0xbeaa6c0c	-0.33285558
112	0x3c921dc4	0.017836459
113	0xbee7fb95	-0.4530913
114	0xbec551ed	-0.38539067
115	0xbf15e02c	-0.58545184
116	0xbf667022	-0.9001485
117	0xbeaa4064	-0.3325225
118	0xbef0b8b0	-0.47015905
119	0xbf1163fe	-0.567932
120	0xbf0fc4e1	-0.5615979
121	0xbdf505d4	-0.11964002
122	0xbf19eb3b	-0.6012456
123	0xbe740834	-0.23831254
124	0x3d81fd4d	0.063471414
125	0xbec7a03e	-0.38989443
126	0xbead709e	-0.33874983
127	0xbf444895	-0.7667325
128	0xbe1945cd	-0.14968033
129	0x3f041caa	0.5160624
130	0xbd97df44	-0.074156314
131	0xbdd0042a	-0.10157044
132	0x3f194e85	0.59885436
133	0x3eac0c48	0.3360312
134	0xbed9d489	-0.42544964
135	0x3eecd9e0	0.46259975
136	0x3e5bdf42	0.21471885
137	0xbf4c0e93	-0.7970974
138	0x3e069476	0.13142571
139	0xbf29e334	-0.6636231
140	0x3e17fc32	0.14842299
141	0xbe93af5d	-0.2884473
142	0x3e00f450	0.12593198
143	0xbe661582	-0.22469142
144	0xbebc3d88	-0.36765695
145	0x3de98093	0.11401477
146	0xbe244866	-0.16043243
147	0x3d9b663f	0.07587861
148	0x3ea13c73	0.31491432
149	0xbed63b68	-0.41842198
150	0xbc9d4887	-0.019199623
151	0x3ded42b1	0.11584986
152	0xbd9c351f	-0.076273195
153	0x3e2a73cb	0.16645734
154	0x3e4aa13e	0.19788072
155	0x3e109881	0.14120676
156	0x3e550e22	0.20806172
157	0x3dc5d81c	0.0966036
158	0xbe717423	-0.23579459
159	0x3e8aaacf	0.27083442
160	0xbd03d445	-0.032184858
161	0x3da0d00f	0.07852184
162	0xbd166ba0	-0.036723733
163	0x3c2989ad	0.010347766
164	0x3f71db9d	0.9447573
165	0xbd0c1bd4	-0.034206226
166	0x3e9ae898	0.3025558
167	0xbf3d273d	-0.73888
168	0x3ebea037	0.3723161
169	0x3e6d6abb	0.23185246
170	0xbe6c303b	-0.23065273
171	0xbefa8068	-0.4892609
172	0x3eea8b66	0.45809478
173	0x3ea3fab0	0.32027197
174	0x3e1a4348	0.15064728
175	0xbd1e016a	-0.038575567
176	0xbe961527	-0.29313013
177	0xbf0d4949	-0.5518995
178	0x3d545524	0.05183901
179	0x3ec5e9b7	0.38654873
180	0x3f56a047	0.83838314
181	0x3e2e928b	0.17048089
182	0xbe28a177	-0.16467844
183	0xbe099fb9	-0.13439836
184	0x3e0bfab1	0.1366985
185	0x3e99eb92	0.30062538
186	0xbd0f3884	-0.034966007
187	0xbe46d991	-0.19418932
188	0xbe5638ef	-0.20920156
189	0x3e17cb17	0.14823566
190	0xbe9bb8f0	-0.30414534
191	0x3eb7b0eb	0.35877165

weight_ih_l1 f4 [192, 64]
0	0xbee6bc98	-0.4506576
1	0x3e1125b0	0.14174533
2	0x3e55acdd	0.20866723
3	0xbe840938	-0.25788283
4	0x3db65a53	0.08903947
5	0xbe2f4c3c	-0.17118925
6	0xbe6cb981	-0.23117639
7	0x3e8e5296	0.27797383
8	0xbf0039c8	-0.5008817
9	0xbd95031b	-0.07275983
10	0xbe12f6ae	-0.14351913
11	0xbd94fc8b	-0.07274731
12	0x3db2e89d	0.08735774
13	0xbe0b3c8c	-0.13597316
14	0x3ee4afb5	0.44665304
15	0x3f34e054	0.706548
16	0xbe62bb16	-0.2214168
17	0x3f02e34c	0.5112808
18	0x3e8b64c7	0.27225325
19	0xbc9c58e6	-0.019085359
20	0x3e151f80	0.14562798
21	0xbd926018	-0.07147235
22	0xbdbfc32e	-0.093633994
23	0xbc429770	-0.011876926
24	0xbec0640d	-0.37576333
25	0x3eab1039	0.33410814
26	0xbd3b460e	-0.045721106
27	0x3e4f5f5c	0.2025122
28	0xbd368702	-0.044562347
29	0xbe065e4a	-0.13121906
30	0xbe9974d4	-0.29971945
31	0x3e75d9b6	0.24008831
32	0x3d304cb9	0.04304192
33	0x3d4b5649	0.049642835
34	0xbeed6eb3	-0.4637352
35	0x3dcaf563	0.09910085
36	0xbed7f985	-0.42182556
37	0xbe21e9ee	-0.15811893
38	0xbdd8787b	-0.10569855
39	0x3da39629	0.07987625
40	0x3e43241f	0.19056748
41	0x3ec2e103	0.38062295
42	0x3dfc1d34	0.123102576
43	0xbe022e9c	-0.12713093
44	0xbd51928a	-0.05116514
45	0xbd8ca7bf	-0.068679325
46	0x3c43824c	0.011932921
47	0x3eabd96f	0.33564326
48	0xbe161616	-0.14656863
49	0x3dd64f75	0.10464374
50	0x3e5050c0	0.20343304
51	0x3e25ba90	0.16184449
52	0x3e3df284	0.18549544
53	0x3d765f5a	0.060149528
54	0x3daa6999	0.083209224
55	0xbe9b82b4	-0.30373156
56	0x3ee24086	0.44189852
57	0x3e884060	0.26611614
58	0xbe225b9c	-0.15855259
59	0xbe5a1b5e	-0.21299502
60	0xbe671d57	-0.22569786
61	0x3ef5349f	0.4789171
62	0xbe3fe51f	-0.18739747
63	0x3c56694f	0.013086631
64	0xbe84d780	-0.25945663
65	0x3db29d9b	0.08721467
66	0x3e90d047	0.28283903
67	0xbe7a5617	-0.24446903
68	0xbe0e992f	-0.13925622
69	0x3ca1e7c9	0.019763844
70	0xbe84916f	-0.25892207
71	0x3e6ca1ee	0.23108646
72	0x3e4f8ae4	0.20267826
73	0x3e41223f	0.1886072
74	0xbde62026	-0.112366006
75	0xbe6139b0	-0.21994662
76	0x3e186016	0.14880404
77	0xbdc8919b	-0.09793397
78	0x3ec850c8	0.3912413
79	0x3c52e6e7	0.012872434
80	0x3eb4aaaa	0.35286456
81	0x3def0d82	0.11672498
82	0x3eef1d90	0.46702242
83	0x3d4ae9f4	0.04953952
84	0x3e885154	0.26624548
85	0xbcc4f36f	-0.02404186
86	0x3cf2e17d	0.029648537
87	0xbe8de136	-0.27710885
88	0xbc97fb35	-0.018552402
89	0x3d0be053	0.03414948
90	0xbf117c1a	-0.5682999
91	0x3ca66329	0.020310955
92	0x3de75b49	0.11296708
93	0xbdf8088d	-0.12111006
94	0x3e506c12	0.20353726
95	0xbb8eb881	-0.0043554907
96	0x3e86d874	0.26337016
97	0x3ec6b46e	0.38809532
98	0x3e255127	0.16144238
99	0xbde308e4	-0.1108568
100	0xbe7b08c0	-0.24515057
101	0xbe81bb70	-0.25338316
102	0x3db6cecc	0.08926162
103	0x3d99d17f	0.07510661
104	0x3d9222f7	0.07135575
105	0xbe2dab58	-0.16959894
106	0xbead500f	-0.33850142
107	0x3e9e1e74	0.3088261
108	0x3eb88c98	0.36044765
109	0xbe98c4b7	-0.29837582
110	0xbe53fe9c	-0.20702595
111	0xbd1b748a	-0.037952937
112	0xbeccf930	-0.40033865
113	0xbd89c024	-0.06726101
114	0xbda07943	-0.07835629
115	0x3c62204b	0.013801645
116	0x3b321355	0.0027172167
117	0x3ea203b5	0.31643453
118	0xbe5ebe14	-0.21752197
119	0x3c8366e6	0.016040277
120	0x3e2919cc	0.16513747
121	0xbe750108	-0.23926175
122	0x3b91113c	0.0044271033
123	0x3e8dafcc	0.27673185
124	0x3dea01c0	0.11426115
125	0xbe53b710	-0.20675302
126	0xbeaf433c	-0.34230983
127	0xbe47d12b	-0.19513385
128	0xbd95b644	-0.07310155
129	0x3e90bf02	0.28270727
130	0xbec99c54	-0.3937708
131	0x3daf3977	0.085558824
132	0xbe2bed79	-0.16789807
133	0xbdd01b60	-0.10161471
134	0x3e0eea0c	0.1395647
135	0xbdffa58b	-0.12482747
136	0xbe84ecbc	-0.25961864
137	0xbe34eef6	-0.17669281
138	0x3bb5f785	0.0055531883
139	0xbe0c1b82	-0.13682368
140	0xbd5f784f	-0.054558095
141	0xbea9f3c5	-0.33193794
142	0x3d8f2d10	0.06991017
143	0xbe3fe4d3	-0.18739633
144	0x3ee03616	0.43791264
145	0xbe207682	-0.15670207
146	0x3f027c7c	0.509712
147	0xbef4cec7	-0.4781401
148	0xbe1b7444	-0.1518107
149	0x3d80f7fb	0.062972985
150	0x3dcb340b	0.09922036
151	0xbe1b28fc	-0.15152353
152	0xbe971d34	-0.29514468
153	0xbe2dd131	-0.16974331
154	0xbe900cd1	-0.28134778
155	0xbe465217	-0.19367252
156	0x3e5b2b39	0.21403207
157	0x3e292a15	0.1651996
158	0x3d31d43c	0.043415293
159	0x3daa82f4	0.083257586
160	0x3e9d6a8b	0.30745348
161	0xbe59251a	-0.2120556
162	0x3e51d399	0.20490874
163	0x3c0ce77d	0.008600113
164	0xbdd89eb3	-0.105771445
165	0xbcaa39ba	-0.02077948
166	0x3e44c7ec	0.19216889
167	0xbe0c81d3	-0.13721399
168	0xbb4ffb94	-0.0031735646
169	0x3c957d70	0.01824829
170	0x3e4e8b7e	0.201704
171	0x3e9378bd	0.28803053
172	0xbe6c08ea	-0.23050275
173	0x3eafbe3b	0.34324822
174	0xbe85011c	-0.2597741
175	0x3dfe935a	0.12430449
176	0x3e4e1358	0.20124567
177	0xbede2af1	-0.43392137
178	0xbd985484	-0.07437995
179	0xbc5c9bdf	-0.013464897
180	0x3deb7d76	0.11498539
181	0xbd957835	-0.07298318
182	0x3ce9266c	0.028460704
183	0xbe4d55e3	-0.20052294
184	0xbe379c1d	-0.17930646
185	0x3d23a921	0.039956216
186	0x3e032251	0.1280606
187	0xbdeb9712	-0.11503424
188	0xbd264443	-0.040592443
189	0xbdc4fa4d	-0.096180536
190	0x3f3171e8	0.6931443
191	0xbe8b76dd	-0.27239123
192	0x3ecbd721	0.39812568
193	0x3e1eb127	0.15497266
194	0xbe8a6880	-0.27032852
195	0xbd350873	-0.04419751
196	0x3e02b83f	0.12765597
197	0x3c66b029	0.014080086
198	0x3efb9c00	0.49142456
199	0xbe775caa	-0.24156442
200	0x3e4dbd6d	0.20091791
201	0xbd8e451d	-0.06946776
202	0x3e9fc90d	0.31208077
203	0xbe3853cc	-0.18000716
204	0x3d736bf4	0.059429124
205	0xbe108740	-0.14114094
206	0x3d0a88f4	0.033822015
207	0xbe6ce4b2	-0.23134115
208	0x3ef8f29a	0.4862259
209	0xbdcb628c	-0.09930906
210	0xbe12d903	-0.14340596
211	0x3e635244	0.2219935
212	0x3df51625	0.11967114
213	0x3ecc14f8	0.39859748
214	0x3e4ed568	0.20198596
215	0x3e6a7641	0.22896673
216	0x3ca77de3	0.02044577
217	0x3e456e44	0.19280344
218	0xbdeea8ed	-0.11653314
219	0x3eb5edd6	0.35533017
220	0xbeaa01ba	-0.33204442
221	0x3e266740	0.16250324
222	0x3eb974af	0.36221835
223	0x3adb7584	0.0016743396
224	0x3e73cd7e	0.23808858
225	0x3de4e198	0.11175841
226	0x3ec4f6e6	0.3846962
227	0xbd8f8b5d	-0.07009003
228	0x3e3b3e76	0.18285546
229	0x3e86555e	0.26237005
230	0xbe0cd3da	-0.1375269
231	0x3eb1e461	0.34744552
232	0xbdcc6dcb	-0.09981879
233	0xbdc9bf03	-0.09850886
234	0x3f1f1871	0.6214667
235	0x3e1e9d4b	0.1548969
236	0xbef0c0e8	-0.47022176
237	0xbebe6256	-0.371844
238	0xbe5f3750	-0.21798444
239	0x3cfe3581	0.031031372
240	0x3f193229	0.59842163
241	0xbec820dd	-0.39087573
242	0xbdc8a404	-0.097969085
243	0x3e8ef5a8	0.27921796
244	0x3e69f790	0.22848344
245	0xbe6e6962	-0.23282388
246	0x3e9a5de2	0.30149752
247	0xbd94ae25	-0.07259778
248	0xbbe31c51	-0.006930866
249	0xbec31b8b	-0.3810695
250	0x3ebc2b57	0.36751816
251	0xbe229e67	-0.15880738
252	0xbe4c1b55	-0.19932301
253	0xbe007dd8	-0.12548006
254	0x3ed2424b	0.41066203
255	0xbe1bb437	-0.15205465

weight_hh_l1 f4 [192, 64]
0	0xbe019080	-0.12652779
1	0xbda583e7	-0.08081799
2	0xbdaa533d	-0.08316658
3	0xbe07eff9	-0.13275136
4	0xbe31bb58	-0.17356622
5	0x3bf1cd84	0.0073792357
6	0xbe0e505e	-0.13897845
7	0x3cab7604	0.020930298
8	0xbdc2aff8	-0.095062196
9	0x3d89e69a	0.06733437
10	0x3e13627b	0.14393036
11	0x3e12e8ee	0.14346668
12	0x3de681d2	0.1125523
13	0xbe92a7e0	-0.28643703
14	0xbe20cb19	-0.15702476
15	0xbd442639	-0.047888014
16	0xbe8db7ac	-0.27679193
17	0x3ea72f9b	0.32653508
18	0xbe276e38	-0.16350639
19	0xbdfcece1	-0.123498686
20	0xbd4b7678	-0.049673527
21	0x3c7a6673	0.015283215
22	0x3e53ad4f	0.2067158
23	0x3ed21ec2	0.4103909
24	0x3dcc6a5c	0.09981224
25	0x3da6c75a	0.08143492
26	0xbc4a95bf	-0.012364804
27	0x3c9d6582	0.019213442
28	0xbdff9c99	-0.124810405
29	0xbbccde2e	-0.006252072
30	0x3d5cdea5	0.053923268
31	0x3dd368d3	0.10322728
32	0x3d11ee43	0.035627615
33	0x3cb7a7da	0.022418905
34	0xbcc118dc	-0.023571424
35	0xbe4422d0	-0.19153905
36	0xbca658c2	-0.020305995
37	0x3d80756b	0.06272396
38	0xbf0effae	-0.55858886
39	0x3e26816e	0.16260311
40	0xbe21cf39	-0.15801705
41	0x3e84e1ab	0.2595342
42	0x3da3dc86	0.08001046
43	0x3ed21c6a	0.41037303
44	0xbd117160	-0.035508513
45	0xbcf821c9	-0.030289548
46	0xbe7821bb	-0.24231617
47	0xbec81b5c	-0.39083374
48	0xbe2f8bde	-0.17143199
49	0xbe2ac315	-0.1667598
50	0x3e0afb79	0.13572492
51	0xbce02e1a	-0.027365733
52	0xbe1883fd	-0.148941
53	0xbdd288e1	-0.10280014
54	0x3d86dded	0.06585298
55	0xbee2b920	-0.44281864
56	0xbed87737	-0.42278454
57	0xbe7cba3e	-0.24680421
58	0x3e3cfe43	0.18456368
59	0x3eb56ff0	0.35436964
60	0x3e1e8842	0.15481666
61	0xbe51a3b1	-0.204726
62	0xbf0f9946	-0.5609325
63	0x3e26c24f	0.1628506
64	0x3ec7ef50	0.39049768
65	0xbdc7be6d	-0.09753118
66	0xbd03f878	-0.03221938
67	0x3df091a9	0.117465325
68	0xbe27b1f9	-0.16376485
69	0x3e477d90	0.19481492
70	0xbd306207	-0.043062236
71	0x3c4b38a7	0.012403644
72	0x3d84fbf5	0.064933695
73	0xbdd0b45a	-0.10190649
74	0x3d12ad18	0.035809606
75	0xbe038417	-0.12843357
76	0x3e12c883	0.14334302
77	0x3e58732e	0.21137688
78	0x3d8b98f3	0.06816282
79	0xbe1b04cf	-0.15138553
80	0xbcbf727d	-0.023370022
81	0xbe789277	-0.24274622
82	0x3d26f3f6	0.040760003
83	0x3cd1bedc	0.025603704
84	0xbe81315e	-0.25232977
85	0x3d60e779	0.05490825
86	0x3d568894	0.052376345
87	0xbb0e9d78	-0.002176134
88	0xbe87b21d	-0.26503077
89	0xbeb13e5b	-0.34617886
90	0xbbc20024	-0.005920427
91	0x3d3f2d00	0.046673775
92	0xbc997da0	-0.01873666
93	0xbe4f2e50	-0.2023251
94	0x3e835e1c	0.25657737
95	0x3b46ab2c	0.0030314429
96	0xbe1a2f3d	-0.15057082
97	0xbde9a037	-0.11407512
98	0xbe5bfea9	-0.21483864
99	0xbcf6ba86	-0.030118238
100	0xbe8f7565	-0.28019252
101	0xbe2aff3f	-0.16698931
102	0xbe16145f	-0.14656208
103	0xbe491c85	-0.19639786
104	0xbe6c0db6	-0.23052105
105	0xbe12f052	-0.14349487
106	0x3eb1e694	0.3474623
107	0x3e40c80d	0.18826313
108	0x3ec01a79	0.37520197
109	0xbb37bf55	-0.0028037627
110	0xbddfd076	-0.10928433
111	0x3c83e6d5	0.01610128
112	0x3db723ca	0.08942373
113	0xbc1173ec	-0.008877736
114	0xbe7c26a7	-0.2462412
115	0x3ce7cd25	0.028296063
116	0xbd33829d	-0.043825734
117	0x3e3a6bcf	0.18205188
118	0x3e195538	0.14973915
119	0x3c7cd758	0.015432201
120	0xbe1e79f6	-0.15476212
121	0x3e99473c	0.2993716
122	0x3defc8ea	0.11708243
123	0x3df0bbf4	0.11754599
124	0x3db626d8	0.088941276
125	0xbd57a26c	-0.052645132
126	0x3db3e785	0.08784393
127	0xbe32c9d9	-0.17459811
128	0x3cd23413	0.025659597
129	0xbe116d72	-0.14201906
130	0x3e8c075a	0.2734936
131	0xbcfc03f2	-0.0307636
132	0xbdabcca5	-0.08388642
133	0x3e370d22	0.17876104
134	0xbd9fd437	-0.07804149
135	0xbe539ff9	-0.20666493
136	0x3dc566da	0.09638758
137	0x3dbfa5fe	0.09357832
138	0x3dd0a6ae	0.101880416
139	0x3e1136fd	0.14181133
140	0x3cbf10c7	0.02332343
141	0xbe3516bb	-0.17684452
142	0xbd92d56a	-0.07169612
143	0x3e1944d1	0.14967658
144	0xbe4f3236	-0.20233998
145	0xbda21896	-0.07914846
146	0x3d9f6d89	0.07784564
147	0xbdf7e4e9	-0.12104208
148	0x3e3f6aec	0.18693131
149	0xbe53ec90	-0.2069571
150	0x3e077289	0.13227285
151	0x3e00ee49	0.12590899
152	0x3c959ce9	0.018263297
153	0x3b306391	0.0026914815
154	0xbe5ca233	-0.21546249
155	0xbe98ed4f	-0.29868552
156	0x3e9970db	0.29968914
157	0x3e75764c	0.23970908
158	0xbd61e416	-0.05514916
159	0xbe5099f9	-0.20371236
160	0xbebc37a2	-0.36761194
161	0xbd4c4af7	-0.04987618
162	0xbd2355f3	-0.03987689
163	0x3dd2d776	0.10295002
164	0xbdd23957	-0.10264843
165	0xbb1bf6bd	-0.002379819
166	0x3df5bd12	0.11998953
167	0xbdbf69e1	-0.09346367
168	0xbe25f9bc	-0.16208547
169	0x3e51953c	0.20467085
170	0x3d541968	0.05178204
171	0xbe0ed607	-0.13948832
172	0x3e8476dd	0.25871935
173	0xbda1dd05	-0.07903484
174	0x3e6abc42	0.22923377
175	0xbdadbc80	-0.08483219
176	0xbe30cb71	-0.17265107
177	0xbde236b2	-0.110455886
178	0x3d3520c2	0.044220693
179	0xbccba2f3	-0.024857974
180	0x3d46d722	0.04854501
181	0xbdda33d5	-0.106544174
182	0x3da4e0ab	0.080506645
183	0x3e4450be	0.19171426
184	0x3db4086c	0.08790669
185	0x3d653874	0.05596204
186	0xbdafbfb3	-0.085814856
187	0xbea729f6	-0.326492
188	0xbe455d95	-0.1927398
189	0x3dad0056	0.0844733
190	0x3e3df235	0.18549426
191	0x3de9a44d	0.11408291
192	0x3e5aca9d	0.21366353
193	0xbeaa72ed	-0.33290806
194	0xbe7cf95c	-0.24704498
195	0xbe735ad6	-0.2376512
196	0x3d32b7f1	0.04363245
197	0xbe7a9db4	-0.24474221
198	0x3d7ce219	0.06173906
199	0x3e419965	0.18906172
200	0x3f032fbd	0.5124472
201	0x3cee11d6	0.02906124
202	0x3eb8bf98	0.36083674
203	0xbd8a24c2	-0.06745292
204	0x3d7ac462	0.06122244
205	0x3cd4737d	0.025933975
206	0x3e4750a8	0.19464362
207	0xbe34aa09	-0.17642988
208	0xbb1e6c20	-0.0024173334
209	0x3e06f0fa	0.13177863
210	0x3e566130	0.20935512
211	0xbe4b8b08	-0.19877255
212	0x3e72d167	0.23712693
213	0x3d158b65	0.03650989
214	0xbe090943	-0.1338244
215	0xbdeac033	-0.1146244
216	0xbe2f1118	-0.17096364
217	0x3da5d15b	0.08096572
218	0xbd7398a2	-0.059471734
219	0x3da993d4	0.08280149
220	0x3e5dae20	0.21648455
221	0x3e915e58	0.2839229
222	0xbdcd3a6a	-0.10020907
223	0xbd18b7e3	-0.037284743
224	0xbe4e3312	-0.2013667
225	0x3d83701e	0.06417869
226	0xbb5ef41e	-0.0034020017
227	0x3c150d7f	0.009097456
228	0x3e044e36	0.1292046
229	0xbeb7ef54	-0.3592478
230	0xbddfc1ed	-0.1092566
231	0xbe383b4b	-0.17991368
232	0x3ea32c2d	0.3186964
233	0x3d99f9c6	0.075183436
234	0x3ec04910	0.37555742
235	0xbdeba5e3	-0.1150625
236	0xbb962dff	-0.00458312
237	0xbe06b072	-0.13153246
238	0xbdb7763d	-0.08958099
239	0xbd1d9a3b	-0.038477164
240	0xbdd8824e	-0.10571729
241	0x3e07e6c5	0.13271625
242	0x3c304f19	0.010761046
243	0x3e35eddb	0.17766516
244	0xbe388405	-0.18019111
245	0x3b96d638	0.0046031736
246	0xbe3b16b8	-0.18270385
247	0xbd83300f	-0.06405651
248	0x3c3e691e	0.011621742
249	0xbdd0015e	-0.10156511
250	0x3e4ddb23	0.20103125
251	0x3e509442	0.20369056
252	0xbe3153c3	-0.17317109
253	0x3cfd3e9c	0.030913644
254	0x3e41ba5c	0.18918747
255	0x3ebaab2f	0.36458728

bias_ih_l1 f4 [192]
0	0x3e875c8a	0.2643779
1	0x3a81c509	0.000990064
2	0xbd81162d	-0.06303058
3	0xbde4affe	-0.1116638
4	0x3ba83c1d	0.005134119
5	0xbdbb18a5	-0.0913556
6	0x3db24740	0.08704996
7	0xbe849277	-0.25892994
8	0xbceb0718	-0.028689906
9	0x3d68eb99	0.05686531
10	0xbce4e39e	-0.027940568
11	0xbdf7324d	-0.12070141
12	0x3ccfb20d	0.025353456
13	0x3d27ed25	0.040997643
14	0x3e234fd8	0.15948427
15	0x3e21313d	0.15741439
16	0xbe0e1d94	-0.1387847
17	0xbd3c024d	-0.04590063
18	0xbd3a485e	-0.04547917
19	0x3ca7c0a7	0.020477606
20	0xbd39ac39	-0.04533026
21	0x3d778a3d	0.06043457
22	0x3e04e4aa	0.12977853
23	0xba802094	-0.0009775334
24	0xbdd79c80	-0.10527897
25	0xbaf8ee59	-0.0018991932
26	0xbdc66189	-0.09686572
27	0x3e42c8d3	0.19021921
28	0xbdbe3279	-0.09286971
29	0x3d62cb5e	0.055369727
30	0x3dfef54a	0.12449129
31	0x3ea44e36	0.3209092
32	0x3d831157	0.06399792
33	0xbdf73922	-0.12071444
34	0xbe6035b5	-0.21895488
35	0xbcff25b4	-0.031145908
36	0x39e46869	0.0004356534
37	0xbe2e1d88	-0.17003453
38	0x3dfcd4df	0.123452894
39	0x3d98b14b	0.07455691
40	0x3d524202	0.05133248
41	0xbda83ce6	-0.082147405
42	0x3ce2667b	0.027636757
43	0x3e0cb42d	0.13740607
44	0x3de08152	0.10962166
45	0xbdfc52e8	-0.123205006
46	0xbb9a70a1	-0.0047131334
47	0xbe554054	-0.2082532
48	0xbdb96d46	-0.090540454
49	0xbe3fbc57	-0.1872419
50	0x3df361bb	0.11883875
51	0xbe9c52cd	-0.30531922
52	0x3dc93397	0.09824293
53	0xbdcfb839	-0.101425596
54	0x3d7a4931	0.061104957
55	0xbe7e467f	-0.2483158
56	0x3d9d45f5	0.07679359
57	0x3d5dbbf7	0.054134335
58	0x3e7080aa	0.23486581
59	0xbd7aec19	-0.061260317
60	0x3e16fd8b	0.14745156
61	0x3d34964c	0.044088647
62	0xbd9b863a	-0.07593961
63	0x3d7e4803	0.062080394
64	0xbec72621	-0.38896278
65	0xbe01520e	-0.12628958
66	0xbe68054e	-0.22658274
67	0xbebd6c06	-0.36996478
68	0xbf19003e	-0.59765995
69	0xbe94253a	-0.28934652
70	0xbe669160	-0.22516394
71	0xbf0a459a	-0.54012454
72	0xbe44ef0f	-0.19231819
73	0xbf24bfce	-0.6435517
74	0xbf395c5a	-0.7240654
75	0xbf0864ef	-0.5327901
76	0xbf0cf7a1	-0.5506535
77	0xbee929cc	-0.455397
78	0x3dfc1bc3	0.12309983
79	0xbf07bd37	-0.53023094
80	0xbf1bb0b3	-0.60816497
81	0xbe9ce6a2	-0.3064471
82	0xbe9cbdb2	-0.30613476
83	0xbf0b3f0e	-0.5439309
84	0xbeccc40a	-0.39993316
85	0x3afc8c5a	0.0019267902
86	0xbea655de	-0.32487386
87	0xbe8ec08c	-0.27881277
88	0xbf1e1352	-0.6174823
89	0xbdfa8d70	-0.12234008
90	0xbea53fdc	-0.32275283
91	0xbeb83c65	-0.35983577
92	0xbe849d00	-0.25901031
93	0xbe3f150f	-0.18660377
94	0xbe5a39cc	-0.2131111
95	0xbf1b4456	-0.6065115
96	0xbe9c69c6	-0.3054945
97	0xbe2879e4	-0.16452748
98	0xbeccd958	-0.4000957
99	0xbec90e6e	-0.3926882
100	0xbf0137ab	-0.5047557
101	0xbf26c566	-0.65144956
102	0xbe9b724d	-0.30360642
103	0xbf0b6cb1	-0.54462725
104	0xbdd8da12	-0.105884686
105	0xbf05fdc6	-0.5234035
106	0xbef0455f	-0.46927926
107	0xbee0440e	-0.43801922
108	0x3c8ebc97	0.017423911
109	0xbebe1903	-0.37128457
110	0xbee3d856	-0.4450099
111	0xbe92cdc9	-0.28672627
112	0xbe625ba1	-0.22105266
113	0xbea956b2	-0.33073956
114	0xbebc2f68	-0.36754918
115	0xbf35f53f	-0.7107734
116	0xbeabec8e	-0.33578914
117	0xbe780a9b	-0.24222796
118	0xbebe1987	-0.3712885
119	0xbeac4eb4	-0.33653796
120	0xbe8c492f	-0.27399585
121	0xbf314d12	-0.69258225
122	0xbee4b427	-0.44668695
123	0xbec195cd	-0.378096
124	0xbe10ff7a	-0.14159957
125	0xbec0f3e5	-0.37686077
126	0xbf003b27	-0.5009026
127	0xbea55eae	-0.32298797
128	0xbea837a7	-0.3285496
129	0x3e46753a	0.19380656
130	0xbe220fcc	-0.15826339
131	0x3eb90d3e	0.36142915
132	0xbe550271	-0.20801713
133	0x3c5f07a9	0.013612666
134	0xbadc1b7f	-0.0016792862
135	0x3ea60a47	0.32429716
136	0xbe7ad5a3	-0.24495558
137	0xbc1e6eaf	-0.009669944
138	0xbdf6b3e4	-0.1204603
139	0xbdc092d1	-0.09403003
140	0xbd84919b	-0.064730845
141	0xbe427da3	-0.18993239
142	0x3e475316	0.19465289
143	0xbec897e1	-0.39178374
144	0xbdd3eb9d	-0.10347674
145	0x3e5fb5cf	0.21846698
146	0x3ebecdbe	0.37266344
147	0xbbe86505	-0.0070921206
148	0xbe9d2777	-0.30694172
149	0xbdc7b207	-0.09750753
150	0x3d823985	0.06358627
151	0x3e0d017e	0.137701
152	0xbd74d5aa	-0.05977408
153	0x3e438711	0.19094492
154	0xbcf40cb3	-0.029791212
155	0x3ec1e851	0.37872556
156	0xbe689dfe	-0.22716519
157	0x3d5be0ac	0.05368106
158	0xbe0e8f62	-0.13921884
159	0x3e902d65	0.28159633
160	0xbddc7c15	-0.10765854
161	0x3df4379f	0.119246714
162	0x3d998b43	0.07497265
163	0xbe8219a5	-0.2541019
164	0x3d9cd890	0.076584935
165	0x3df5bd9c	0.11999056
166	0xbdad86b9	-0.08472962
167	0x3e31f846	0.17379865
168	0xbe8b90c7	-0.27258894
169	0x3cc2f660	0.023799121
170	0x3e13d0a6	0.14435062
171	0x3e686f74	0.22698766
172	0x3e119266	0.14216003
173	0x3dd3edfc	0.10348126
174	0x3b02c323	0.0019952736
175	0xbeaaa80c	-0.33331335
176	0x3c932e3a	0.017966378
177	0xbc2405cf	-0.0100111505
178	0x3e56ea17	0.20987736
179	0xbd883719	-0.06651134
180	0x3e0de599	0.13857116
181	0xbd67471b	-0.056464296
182	0x3bca6d6c	0.006177595
183	0xbe2627ad	-0.16226073
184	0xbd81b3d5	-0.06333128
185	0xbe915fba	-0.28393346
186	0xbdc8156e	-0.097697124
187	0xbdbbd23a	-0.09170957
188	0x3d50f5d9	0.05101571
189	0xbdc6d24c	-0.0970808
190	0x3cb9f112	0.02269796
191	0xbd7a8bd0	-0.06116849
