action_LossPrune/TotalModel_Traffic.pth (torch, 169718 bytes, 12 tensors)

weight f4 [23, 8]
000000 ce af 88 bf 04 f5 8a be da 07 ec 3f 5c ba 4f bc
       -1.0678651 -0.27140057 1.8439896 -0.012678709
000010 2d 67 9e 3e ac 2d 9b 3f f5 b6 95 3f 2e 11 9c be
       0.30938092 1.2123313 1.1696459 -0.30481857
000020 6c 74 92 bd 40 d5 ce be 01 9c 20 40 72 6d 62 3f
       -0.07151112 -0.40397072 2.5095217 0.8844825
000030 16 52 21 3c 30 9b a1 bf 23 64 9c 3e 44 f3 aa be
       0.009846231 -1.2625484 0.30545148 -0.33388722
000040 03 2b e6 3f 24 46 87 3f 73 53 a8 3f 8b 6b f8 be
       1.7981876 1.056828 1.3150467 -0.4851955
000050 a6 6c ed be 91 5a ed 3e 78 df 05 c0 52 95 c9 3e
       -0.46371955 0.4635816 -2.0917645 0.39371735
000060 81 e3 61 3f dc 61 42 40 27 7d cf bf f2 c5 a6 bf
       0.8823777 3.0372229 -1.6210068 -1.3029158
000070 03 d6 ef 3e 4c 14 9c bf d6 42 9f be 50 02 a6 be
       0.46842965 -1.2193694 -0.3110568 -0.3242364
000080 f9 a9 05 c0 cb 22 99 3f 44 a1 5a bf 1a cd 21 3f
       -2.0884993 1.1963743 -0.8540232 0.63203585
000090 55 56 6f 3d 1b ef 8f bf 63 c3 19 40 62 c4 70 3f
       0.058431942 -1.1244844 2.4025505 0.94049656
0000a0 f1 08 1f 3f 6d 60 8e 3e 71 9d e3 be d2 47 2c be
       0.6212302 0.27807942 -0.44456056 -0.16824272
0000b0 54 e8 a6 3d e0 f7 f5 bd 52 dd 01 be 43 3a 1f 40
       0.08149782 -0.12010169 -0.12682083 2.487931
0000c0 7b 36 f1 bc 99 36 bf 3f 69 62 8c bf 4d d2 30 3f
       -0.029444924 1.4938537 -1.0967532 0.69070894
0000d0 66 12 8e bf 5d 11 74 bf 04 5d 70 3f a1 ef 94 3e
       -1.1099365 -0.95338994 0.9389193 0.29089072
0000e0 87 0a 02 3f df ad 0a bf 07 13 25 3d 3c df 32 40
       0.50797313 -0.54171556 0.04030135 2.7948751
0000f0 f4 d7 0e 40 41 1f eb 3e 93 3e 10 be 81 ec 04 40
       2.2319307 0.45922282 -0.1408637 2.076935
000100 c7 76 0a bd 5f 5c f7 bf db c1 16 bf f5 27 07 3e
       -0.03380468 -1.9325064 -0.5888955 0.13198836
000110 71 f0 a4 bf ab 4e db 3f a2 be ae bf 71 e8 21 40
       -1.2885877 1.7133383 -1.3651927 2.529812
000120 4d 6e ed bf 35 d2 82 3e 21 f4 24 3f 2d c5 14 3f
       -1.8549286 0.25551 0.6443501 0.58113366
000130 10 b1 e8 be c0 8e 1c 3e 76 09 f6 bf 2f fd 27 3f
       -0.45447588 0.1528883 -1.9221637 0.656207
000140 6e ae ec be 27 44 e5 3e f5 53 b1 bf e0 f2 3c bf
       -0.4622683 0.4477856 -1.3853747 -0.738081
000150 f7 18 c3 bf a6 8d 99 3f 23 ac 00 3f 8a e3 56 be
       -1.5241994 1.1996353 0.5026266 -0.20985237
000160 8f 36 b8 bc c8 43 84 3f 51 9e 09 40 33 ae 30 bf
       -0.022486953 1.0333185 2.1502879 -0.69015807
000170 c7 55 b0 3f 35 a6 e6 3e fa a8 d0 bf b6 6d 11 c0
       1.3776177 0.4504868 -1.6301568 -2.2723212
000180 74 45 8e bf 3a c9 b0 bf a1 e1 c4 3d 54 f7 1b 3f
       -1.1114945 -1.381141 0.09613348 0.6092427
000190 6c 94 18 c0 bf 39 1e 3f b6 ef 95 3e ae ac 53 bf
       -2.384059 0.61806864 0.29284447 -0.82685363
0001a0 8f 69 52 3f f4 e0 b2 be 07 51 36 3f 4f ea 83 bf
       0.8219232 -0.3493725 0.7121739 -1.030588
0001b0 29 c9 9d be 7f e3 98 3f d1 5f 2a 40 48 81 a7 bd
       -0.30817536 1.1944426 2.6620982 -0.08178955
0001c0 94 5d b2 3d aa a6 e6 3f 5a ad cd 3e b2 ca c6 3f
       0.08709255 1.8019612 0.4017132 1.5530608
0001d0 df 4f 88 bf 99 5e ac 3f 2f 76 e0 3e 84 66 d0 bf
       -1.0649375 1.3466369 0.43840167 -1.6281285
0001e0 13 b7 00 3f fa 03 c9 3f bc da e8 bf 1d 0d 99 3f
       0.5027935 1.5704339 -1.8191752 1.1957127
0001f0 92 07 02 c0 3a 45 4b 3f 5d 99 12 c0 a8 6b 60 3c
       -2.031712 0.79402506 -2.2906106 0.013697542
000200 31 93 8b 3e 50 7e 1b bf 88 5b 59 3f 61 36 02 40
       0.27260736 -0.6073961 0.8490529 2.034569
000210 0c 71 9f 3f 36 9c 21 3f 0d 74 e0 bf 4c aa 02 c0
       1.2456374 0.63128984 -1.7535416 -2.041644
000220 d7 41 0b 3f d7 fa 05 c0 9f 1f b3 be 4f fc ad 3f
       0.5439734 -2.093435 -0.34985062 1.3592623
000230 62 63 94 bf 2d 6e 43 bf ee c0 15 bf 13 8b fb bf
       -1.1592829 -0.7633999 -0.5849751 -1.9651817
000240 3f 48 32 3f 35 aa a9 3e d3 cd 2b c0 ec ca 67 3f
       0.6964149 0.3313767 -2.6844375 0.9054401
000250 c3 2b 75 3e 6e 16 06 3f 3a cb eb 3e 7a e1 73 3f
       0.23942475 0.52377975 0.46053487 0.95265925
000260 cf 5f 68 bf d1 fc fa bf 63 0e eb 3e c3 6c 90 bf
       -0.9077119 -1.9608403 0.45909414 -1.1283191
000270 d5 cb b0 3f b2 1c 81 bf 44 0f 37 c0 e4 20 b1 3e
       1.3812205 -1.0086882 -2.8603067 0.34595406
000280 31 ea 2b 3f c7 1b b5 bf 67 bf d4 be 84 76 9c bf
       0.6715422 -1.4149102 -0.41552278 -1.2223668
000290 cb bc b5 3f a7 b2 00 c0 6f a1 9d 3f ee 31 2b 3f
       1.419824 -2.010904 1.2314891 0.6687306
0002a0 65 44 c5 3f 41 a3 13 3f eb d5 35 be 0d 27 9f 3f
       1.5411497 0.5767098 -0.17757384 1.2433792
0002b0 df 47 88 3e 21 8f a4 bf 17 f0 1a 3d 63 7b 5f be
       0.26617333 -1.285618 0.037826624 -0.21824412
0002c0 10 c1 20 c0 03 11 81 40 48 2a a4 3f 8a 27 52 bf
       -2.5117836 4.0333266 1.2825403 -0.8209158
0002d0 24 83 15 c0 f1 8f cf bd 0a 3d d2 3e 0c 58 14 be
       -2.3361292 -0.101348765 0.41062194 -0.14486712

weight_ih_l0 f4 [192, 9]
000000 57 4d 20 be 12 51 c3 3e 6a 9f e3 be f8 f7 c8 3c
       -0.15654503 0.3814779 -0.4445756 0.024532303
000010 9f 3d 72 be 63 a3 29 bf 57 03 54 3e 9c 2c c3 be
       -0.23656319 -0.66264933 0.20704399 -0.38119972
000020 31 34 16 3f de 52 b2 3f cd 1c ff bc 1f bf 95 3e
       0.5867339 1.3931539 -0.031141663 0.29247376
000030 cc b1 06 bf 24 5a b8 3d e1 7f 0e 3f fa 7e 51 be
       -0.52615047 0.09001568 0.5566388 -0.20458594
000040 be 18 71 be f9 c8 62 bd 28 19 86 3e ec 72 6a 3e
       -0.23544595 -0.055367444 0.26191068 0.22895402
000050 5d ff c7 bd 1e 43 5a 3b b7 6d be 3c b5 4e d3 3d
       -0.097655036 0.0033304165 0.023245675 0.103177465
000060 eb 99 97 be 7b 97 bd be d4 09 6b bf 78 a4 52 3d
       -0.29609618 -0.37029633 -0.9181187 0.05142638
000070 49 4f 19 be 99 fd c5 3e 39 ef 91 be d6 96 d8 3e
       -0.14971651 0.38670042 -0.28502825 0.4230258
000080 94 e9 03 3b 0f 8a 85 be d0 32 b4 3e d7 b2 39 3f
       0.0020128237 -0.26081893 0.35195017 0.7253851
000090 7d ac dd 3c 8b f1 16 3f bd 65 32 be 05 e1 f0 be
       0.027059788 0.58962315 -0.17421623 -0.47046676
0000a0 78 2c 00 bf 37 4d 0f 3e ee 49 cf bc 69 35 9a be
       -0.50067854 0.13994299 -0.025303807 -0.30118874
0000b0 1b b3 bd 3e 98 11 64 3d af 9f 9c be f4 1b ce be
       0.3705071 0.05568084 -0.3059058 -0.40255702
0000c0 8c 44 cb 3e 56 5f 9a 3e b5 29 f5 3e 2f 4c 0a 3e
       0.39700735 0.3015086 0.47883382 0.13505624
0000d0 50 86 1b bf 45 b1 82 3e 30 d6 bb 3d 3a 10 69 3f
       -0.6075182 0.2552587 0.091717124 0.91040385
0000e0 22 51 1e 3e 3f 67 03 bf 77 3b f0 3b a7 e0 81 be
       0.15460637 -0.51329416 0.0073313075 -0.2536671
0000f0 9d d6 dc be 98 2e 1f bf 18 ba 01 be 41 ea 09 3b
       -0.43132487 -0.6218047 -0.12668645 0.0021044167
000100 82 b1 3a 3f 93 63 46 3f 96 e0 9b be 0d 7d 7a be
       0.72927105 0.7749569 -0.30444783 -0.24461766
000110 f9 60 9d be a4 70 07 be 85 8e 83 be a1 34 10 be
       -0.30738047 -0.13226563 -0.2569467 -0.14082576
000120 8f d3 90 3d 8a 29 3d 3e 9c ca 99 be 69 4b 8f bd
       0.070716016 0.18472877 -0.3003739 -0.06996805
000130 60 4a b4 3d b3 3f f8 be 36 4c 4a 3f 88 bb f8 3d
       0.088032484 -0.484861 0.7902254 0.12145144
000140 ab 73 11 3f 75 0e 98 3e fb b8 fd 3d 05 96 69 be
       0.5681712 0.2969853 0.12388798 -0.22811134
000150 7c a2 31 3e 51 85 c9 be 70 61 67 bc 50 07 37 3e
       0.17347139 -0.39359525 -0.014122352 0.17873883
000160 80 3b 7b 3e 95 ad 58 3f f0 07 1b 3c 3a c5 68 be
       0.24534416 0.84639865 0.009462342 -0.22731486
000170 02 f1 12 bf f9 20 21 3f 49 34 80 bf 0b de 80 3e
       -0.57399 0.6294094 -1.0015956 0.25169405
000180 e5 e8 04 3d 7f bb b4 be 81 41 00 3e e9 62 c1 3d
       0.032448668 -0.35299298 0.12524988 0.09442694
000190 45 bc 08 bf 20 d2 aa 3e f5 4c a5 3c 2f f0 ba 3e
       -0.53412277 0.33363438 0.020178298 0.3651137
0001a0 81 0e 6d bb 85 a0 f6 3d 0a d9 cd be f3 02 4a bd
       -0.0036171975 0.120423354 -0.4020465 -0.04931922
0001b0 69 84 9b 3d 87 ac 9d be e6 ab 51 bf 67 14 a2 3e
       0.075936146 -0.3079569 -0.8190292 0.3165619
0001c0 33 2e 19 bf c4 8b c0 3b 18 fe c1 3e 87 80 78 3f
       -0.5983612 0.0058760364 0.3788917 0.9707112
0001d0 ad 1d f6 bc ff 63 31 3d 9b 0b 0e 3e 3f 9a bc 3e
       -0.030043447 0.043308254 0.13871615 0.3683643
0001e0 40 3a 05 3e 49 23 e7 3d 2d a8 8e bd 6a c3 1f 3c
       0.13010502 0.11286027 -0.06965671 0.00975118
0001f0 4d a2 56 be 41 1a 0c bd 7f 2e 5f 3e da 41 6c 3e
       -0.2096035 -0.034204725 0.2179508 0.23071995
000200 70 6b 9c bd c4 b7 4d be b7 5f 47 3f 70 5d 1a 3e
       -0.076376796 -0.20089632 0.77880424 0.15074706
000210 01 c3 0a 3e 8d b6 a4 3c 59 5b a4 be af 01 70 be
       0.1355095 0.020106578 -0.32100943 -0.23438142
000220 c2 98 c4 3e 44 8b a5 3e e0 59 d5 3c 29 ba 03 3f
       0.38397795 0.32332814 0.026043832 0.5145593
000230 51 d3 9c be 10 83 a9 be 25 31 9b bd 68 2e 40 be
       -0.30629972 -0.33107805 -0.07577733 -0.18767703
000240 76 28 53 3e 59 01 14 bf e5 66 06 bf 03 6b c2 be
       0.20620903 -0.57814556 -0.52500755 -0.37972268
000250 94 a8 a8 3d 55 3d d3 3e b5 51 75 3e 13 27 66 be
       0.08235279 0.4125773 0.2395695 -0.22475843
000260 dd 82 ea 3e 5d d6 4b 3e c0 77 07 3f e7 c6 66 be
       0.45802966 0.19905992 0.529171 -0.22536813
000270 42 40 16 bf ad d4 d8 bd 7e 6d c4 3e 33 fa a2 be
       -0.586918 -0.1058744 0.38364786 -0.31831512
000280 2c 20 0d be f5 86 95 bd 7c 88 2d be d3 0a 34 be
       -0.13781804 -0.07301132 -0.16946596 -0.17582254
000290 d8 cb e0 3e 78 c6 8e 3d a9 fa 3a bf 34 34 bf 3e
       0.4390552 0.06971449 -0.7303873 0.37344515
0002a0 b0 7e c8 be cb 55 86 3e fd a6 da bd ff 15 77 3e
       -0.39159155 0.2623733 -0.10676382 0.24129485
0002b0 0d 5c 08 bf 3d ab c4 be 79 a2 f9 3d e2 4d fc 3e
       -0.5326546 -0.38411894 0.12189192 0.4927817
0002c0 1c 4c a2 3e 3d 7d 2c 3e f5 f1 3f 3e 0d 9c 47 3e
       0.31698692 0.1684465 0.18744643 0.19493122
0002d0 44 ce b2 bd 04 a3 3a 3a 3a 27 a8 3d 8d 43 5a be
       -0.08730748 0.0007119628 0.08210607 -0.21314831
0002e0 76 bf af be e2 18 05 bf 47 d4 99 3e 61 3c 9c be
       -0.3432576 -0.51991093 0.30044767 -0.30514815
0002f0 00 91 d4 3e ab cf 7a 3f 3a b9 27 bd cb e7 40 3e
       0.41516876 0.97973126 -0.04094813 0.18838422
000300 9d d8 ad be e4 2d 46 be 1d 79 0a be 8e 1c 3a 3d
       -0.33954325 -0.19353443 -0.13522764 0.045437388
000310 10 55 5c 3e cb 6a 2b 3e e2 4f be 3c 4c 9d 75 bd
       0.21516824 0.16739957 0.02323145 -0.059964463
000320 79 7d 17 bf 2f 1f e3 be 15 37 26 3f 95 72 c5 bc
       -0.5917583 -0.4435973 0.649278 -0.024102489
000330 80 86 5e be 1e e0 a9 3e bb f5 6c bd 70 95 1e 3c
       -0.21730995 0.331788 -0.057851534 0.009679183
000340 91 d4 20 be 85 a6 72 be 32 59 bb 3d b8 e8 64 3e
       -0.15706088 -0.23696335 0.09147872 0.223544
000350 46 0c 29 be 31 46 a8 3e 90 0d de 3e ba 71 23 3f
       -0.16508588 0.32866052 0.43369722 0.6384541
000360 29 98 d8 3d fa 2c 1c be 98 df de 3e 40 72 af be
       0.10575897 -0.15251532 0.43529963 -0.34266853
000370 d6 cf 8e 3f ae 02 08 3f 73 ef 9d be 3a 38 25 3f
       1.1157176 0.5312909 -0.30846748 0.6453892
000380 7f 7a 1b 3d 31 09 50 bc b5 e3 0d 3e ce a8 d9 3d
       0.03795862 -0.012697504 0.13856395 0.106279
000390 af 20 f9 3e b1 61 df bb f6 07 b7 be cd ec 56 3e
       0.48657748 -0.0068170656 -0.3574826 0.2098877
0003a0 ba 55 2d bf 29 46 7d 3c df 21 55 3b be 1c 1a 3d
       -0.67708933 0.015458622 0.003252141 0.037625067
0003b0 f2 14 2f 3e 4c 84 f4 be f0 bf bc 3d bc 1e 56 3e
       0.17097834 -0.47757185 0.09216297 0.20910162
0003c0 6f 7c 4b be a9 ca 90 3e d1 e8 79 3d 37 14 2b 3b
       -0.19871686 0.28279617 0.061013047 0.0026104578
0003d0 51 ce 48 3e 84 5d 89 be dc 5e 8c 3d 8a 12 95 3e
       0.19609953 -0.2682916 0.068540305 0.29115707
0003e0 64 dd b7 3e 69 79 05 3e 82 92 e0 3d be 4f 16 3e
       0.35911095 0.13034596 0.10965444 0.14678857
0003f0 14 ec 76 be 55 3e 91 be 8c 58 e1 bd 51 a3 d7 3d
       -0.24113494 -0.28367868 -0.11003217 0.10529197

weight_hh_l0 f4 [192, 64]
000000 61 70 e0 bd 40 e2 5a be 72 0d de bd d6 92 21 3d
       -0.109589346 -0.2137537 -0.10842408 0.039446674
000010 4e 2f 42 bf 76 8d eb be ca bb 40 bd 70 4d ab 3e
       -0.7585343 -0.46006364 -0.04705409 0.33457518
000020 cb 53 c5 be b1 f3 c8 3d 1b 0a 51 bd 6a f2 5e be
       -0.3854049 0.098121054 -0.051035028 -0.21772161
000030 67 df ad 3e e8 74 96 3d 54 4a 69 3e fe 65 bc be
       0.33959505 0.07346517 0.2278226 -0.36796564
000040 0c a0 08 b9 45 c0 b8 3e a3 1e ad 3d 73 94 b3 3d
       -0.00013029593 0.3608419 0.08453109 0.08768549
000050 f3 61 0a 3f df 9f 49 3d e8 dc 85 3e e7 7a db 3c
       0.5405571 0.04922473 0.261451 0.026792003
000060 7f e4 16 3e fb 79 37 3c 6c b1 13 be 57 ad a7 be
       0.14735602 0.011198516 -0.1442315 -0.32749435
000070 a4 3a 2a be b6 46 23 3d 1a 88 d5 3d eb 02 71 3e
       -0.16623932 0.039862357 0.1042635 0.2353627
000080 fd 2d 80 3c 26 65 82 be 7a 39 a2 be 88 e7 0e 3d
       0.015646929 -0.25467795 -0.31684476 0.034888774
000090 76 88 84 3d d5 fb 21 3e ea 0a 81 3d 1e f9 01 3e
       0.0647134 0.15818723 0.0630091 0.12692687
0000a0 f4 9c f1 3d b6 e8 d5 3d 2d a7 c5 bc 7c 69 23 3e
       0.117975146 0.10444777 -0.024127567 0.15958208
0000b0 0c 18 fc 3d ab 80 c6 3d 48 9f 69 be cc 58 4c be
       0.12309274 0.0969251 -0.22814667 -0.19955748
0000c0 bb b9 96 be e9 8a e6 bd fd 25 03 bd e8 4f a2 be
       -0.29438576 -0.11256964 -0.03201865 -0.3170159
0000d0 f0 0c b2 bd db d4 1e 3d f1 6b 19 bc ec bf ec bd
       -0.08693874 0.038777214 -0.009364114 -0.11560044
0000e0 ef 68 28 3e d1 4e 76 ba 5f 42 7b 3d 20 1b c8 bd
       0.16446279 -0.00093959 0.061342593 -0.09770799
0000f0 a7 14 cb bd 63 6a d8 3e f8 50 14 3e 03 b5 61 3e
       -0.099160485 0.42268667 0.14484012 0.22041707
000100 0f 1b 88 be 21 3a 7f bd 41 d6 10 3e ef 0d c3 be
       -0.26583144 -0.062311295 0.14144231 -0.38096568
000110 a1 0e f6 bd 37 d6 95 3d 40 fe 8e bc 42 48 85 be
       -0.12014509 0.07316249 -0.01745522 -0.2603169
000120 25 28 93 3e 94 8e 72 3d 4f 73 3d be c8 fa 31 bd
       0.28741565 0.059218004 -0.18501018 -0.043452054
000130 23 87 87 3d 16 33 5d 3e 65 e1 b2 be fd 97 37 3e
       0.06617572 0.21601519 -0.34937587 0.17929073
000140 ba 70 10 bd 02 f0 da bd e9 4d 96 be 4d 09 b5 be
       -0.035263754 -0.10690309 -0.29356316 -0.35358658
000150 bc fc 41 bc 91 24 cf be b9 1d a0 be c0 26 6b bd
       -0.011840042 -0.40457585 -0.31272677 -0.05741
000160 9c f3 49 be 5d ef 5d bd b0 01 7f bd 63 3c 26 3d
       -0.19721836 -0.054183353 -0.06225747 0.040584933
000170 3c d5 f3 be ac cd 14 be d7 f8 1b be 23 bd 20 bd
       -0.47623622 -0.14531583 -0.15231644 -0.039242875
000180 6f 81 4e be 97 d2 b1 bd 10 51 96 3d ba e7 08 be
       -0.20166562 -0.08682745 0.0733968 -0.13369647
000190 58 c6 eb 3e 98 07 46 bd 0a 9d d7 bd 53 de 18 3e
       0.46049762 -0.048347086 -0.10528 0.1492856
0001a0 40 78 bb 3e fc 9d 65 bd 33 3a 96 3d d6 00 b9 3a
       0.3661518 -0.05605887 0.07335319 0.0014114629
0001b0 8e cc c9 3c 77 61 9a 3c 0a 46 ff 3d 5a c0 d5 bd
       0.024633672 0.018845303 0.12464531 -0.10437079
0001c0 8f 4b dc 3d 6d d5 0b 3f 0b d6 d1 3d ee 31 ee 3d
       0.10756599 0.54622537 0.102459036 0.11630617
0001d0 cf f7 4d 3d 2d 86 a2 be 17 a9 8f 3d 55 29 c8 be
       0.050285157 -0.31742993 0.07014673 -0.39094034
0001e0 ee a0 57 be 30 af 81 bc 62 1c 30 be a5 0c 4a bd
       -0.21057484 -0.015830606 -0.17198327 -0.049328465
0001f0 b7 fe 29 3e b6 e6 1f bf 29 c2 48 3c 45 13 f7 be
       0.16601072 -0.6246141 0.012253323 -0.4825689
000200 6e e8 a3 be 68 f7 24 3e 1d 6a b8 be 6f 73 83 be
       -0.32013267 0.16110003 -0.36018458 -0.25674006
000210 1e b8 c4 be 66 62 f4 3c 4e bf 97 be 3b b7 ab be
       -0.3842172 0.029832076 -0.2963814 -0.3353823
000220 c9 bd 0b 3e 17 15 20 3f 36 ae 26 3e cc 6a 99 be
       0.13646616 0.6253218 0.16277394 -0.29964292
000230 f2 3f 41 be 35 ce 9b 3e c0 a9 1c bd 5a 61 f7 3e
       -0.1887205 0.3043076 -0.038247824 0.4831646
000240 0e 76 13 3e c1 6d af be 44 28 9c 3e 9b 5f 18 be
       0.14400503 -0.34263423 0.3049947 -0.1488022
000250 ab dc 1d be fc 89 af 3e 5a 88 94 3d de 1a b8 be
       -0.1541621 0.3428496 0.072525695 -0.35957998
000260 60 c7 e1 3e 42 14 20 3e 0f 00 49 3e 8d 07 18 3e
       0.44097424 0.15632728 0.19628929 0.1484663
000270 b1 e1 33 3f 83 c2 10 3c 6b 8e 13 be 9d 02 c5 be
       0.7026625 0.008835438 -0.14409797 -0.38478556
000280 b0 ee ff 3d b8 ff 06 3f 99 75 8d bd ad 4a fc bd
       0.12496698 0.52733946 -0.069071956 -0.12318931
000290 fc d4 ee 3c 2d 6c 8f 3e 0c 70 bb bb f1 2c a9 be
       0.029154293 0.2801222 -0.005720144 -0.330421
0002a0 7b 2b 52 be 47 5f 14 3d 80 f9 90 be 4e 68 e1 bd
       -0.20524399 0.036223676 -0.28315353 -0.11006223
0002b0 74 e2 ac 3c a8 5f 74 bd 21 9c 7d 3d 55 25 06 3b
       0.021104075 -0.059661537 0.061916474 0.002046903
0002c0 90 9a a7 bd bf 7b b9 bc bd 33 80 be 09 39 71 3c
       -0.08183777 -0.022642015 -0.25039473 0.014723071
0002d0 6a 96 07 3d 46 64 a2 3b f6 6c 5f 3e 82 cd 23 3e
       0.03310243 0.004955801 0.21818909 0.15996364
0002e0 60 6b 38 3e e9 23 9c 3e 77 0d 0a 3e 72 75 3d be
       0.1800971 0.30496147 0.13481699 -0.18501833
0002f0 25 a9 97 be e0 fd 12 bd 91 00 18 be 41 c7 55 be
       -0.29621235 -0.035886645 -0.14843966 -0.2087679
000300 0c 34 89 3d 6c 29 80 3e 46 fd 9b be bf 92 47 be
       0.0669938 0.25031602 -0.3046667 -0.19489573
000310 c0 25 fc be b2 e3 a8 3e 33 10 23 be a3 80 82 be
       -0.4924755 0.32986218 -0.15924148 -0.25488767
000320 54 ba 57 bc 2d d9 ad 3e 20 2e 61 3e 06 f9 04 3e
       -0.013166983 0.33954754 0.21990252 0.1298562
000330 b3 69 2a be b8 95 4f 3e 5e 2d dc be cf 27 83 3e
       -0.16641884 0.20271957 -0.43003362 0.2561631
000340 db 1c 17 3e 6d 58 bf bd 85 5b d1 3e ef 97 a8 be
       0.14757101 -0.09343038 0.40890136 -0.32928416
000350 76 a1 e3 3e 6e ea 79 3e 9f ee 28 3c d5 2c d3 3b
       0.44459122 0.24405834 0.010310798 0.0064445534
000360 64 c0 69 bd 77 c8 a0 3e 78 2d 32 be d2 56 ad be
       -0.057068244 0.31402943 -0.17400157 -0.338553
000370 1b ce 9f bd 69 ad 9b 3e 49 16 d8 3e 8e 5a 29 bd
       -0.078029834 0.3040574 0.42204502 -0.041346125
000380 a2 20 d7 bc 2c 7b b6 3d e8 1e bb 3d 54 8f 96 3e
       -0.026260678 0.08910212 0.09136754 0.29406226
000390 7a 34 ad bd 2a 8b 98 be 64 04 6c 3d 0c 9d cf be
       -0.08457275 -0.29793674 0.057621375 -0.40549505
0003a0 e1 f3 03 3e 90 b3 91 be 1b 64 80 3e 74 1b a7 bd
       0.12886001 -0.28457308 0.25076374 -0.08159533
0003b0 9c 18 d4 3e bc 94 b6 3c 22 88 90 bd ff 19 f3 3d
       0.41425025 0.022287719 -0.07057215 0.11870193
0003c0 92 c3 c4 3d 2c c8 2d be 10 f5 9e bc ad ab b6 bd
       0.096076146 -0.16970891 -0.019403964 -0.08919463
0003d0 0d 38 95 3d 6f 09 b0 be fe 1e 9c 3e 86 47 c1 be
       0.072860815 -0.34382197 0.30492395 -0.3774988
0003e0 cc 0b c0 bd e0 fb bb bd 12 f5 4f 3e 5f f4 5b 3d
       -0.0937725 -0.09178901 0.2030833 0.053699847
0003f0 77 be b7 3e fa 60 97 bd 25 a4 3e be 4e 44 b1 bd
       0.358875 -0.07391544 -0.18617304 -0.08655606

bias_ih_l0 f4 [192]
000000 68 98 07 3e 2e 5f 7e be 49 2a 7a 3d 01 5d 32 3e
       0.13241732 -0.24840996 0.061075483 0.1741829
000010 53 9f 9f 3d f1 e6 1b be a5 48 2b 3c f1 db cb 3e
       0.077940606 -0.15224816 0.0104543315 0.3981624
000020 e7 cd c5 bd a2 49 65 3e 5f 19 8c 3e ce b7 03 3e
       -0.096584134 0.2239137 0.27363107 0.12863085
000030 04 90 5a 3e e8 3b 53 be 1a 94 37 3e dd bb 50 3d
       0.21344 -0.20628321 0.1792759 0.05096041
000040 2e 79 07 3e c1 2f 8c be 6a 7c 56 3d ba 3e cb 3b
       0.1322982 -0.27380183 0.052364744 0.006202546
000050 9d 94 f0 3d f0 66 b7 3c 6d 0b 3b 3e 30 17 5c 3e
       0.11747096 0.022387952 0.18266077 0.2149322
000060 c9 81 53 bd c9 40 9a 3e 82 f8 c4 3d 4e f5 93 bd
       -0.051637445 0.30127552 0.096177116 -0.072245225
000070 db 95 a2 3e c5 b9 d2 3d f6 72 b8 3d 48 64 c9 3e
       0.31754956 0.10289339 0.09006302 0.3933432
000080 18 b4 37 3d 70 62 8d 3d da fc 3e bc 23 21 3c 3e
       0.044849485 0.06903541 -0.011656964 0.18372016
000090 15 b6 39 3d 75 11 71 3e 15 db 58 bd b9 c1 92 bd
       0.045339663 0.23541816 -0.052943308 -0.07165856
0000a0 de 8f 06 bd 30 e8 44 3e 79 ed 9b bb 75 ca 74 3e
       -0.032852046 0.19229198 -0.0047585336 0.23905356
0000b0 4c 32 f2 3c 8c 56 36 be e4 5a 64 3d 88 15 40 3e
       0.029564999 -0.17806453 0.055750743 0.18758214
0000c0 aa 60 6f 3d 7b 99 0c 3e e8 f8 bf bc bd 55 61 bd
       0.058441795 0.13730423 -0.023434117 -0.055013407
0000d0 91 c4 86 3d 23 69 bc bd 94 2d 34 3e 99 ec 03 be
       0.06580461 -0.09199741 0.17595512 -0.12883224
0000e0 d4 f2 22 be 4f 52 ba bb 4e 1b 50 3e 3d 18 18 be
       -0.15912944 -0.0056860815 0.20322916 -0.14852996
0000f0 b2 10 8b bd 1c ce 80 3e 0e 37 0c 3e 97 78 d0 3d
       -0.06790294 0.2515725 0.13692877 0.10179251
000100 4d b3 5b bf 70 0a 2e bf a8 47 d4 be 19 27 29 bf
       -0.85820466 -0.67984676 -0.4146092 -0.66075283
000110 19 32 89 bf 93 20 d0 be eb 6f 67 be e9 0b 29 bf
       -1.0718414 -0.40649852 -0.22601287 -0.660338
000120 de 08 2e bc 3e b2 b2 be 5b 36 09 bf 60 6c 67 bf
       -0.010622231 -0.34901613 -0.53598565 -0.9039974
000130 5c 87 68 bf e4 b1 50 be ee d7 14 bf 30 29 13 bf
       -0.9083154 -0.2038036 -0.5814198 -0.5748472
000140 9b fa 3c bf 52 66 45 bf b4 8c 65 bf cf 8b 38 be
       -0.73819894 -0.77109253 -0.8966782 -0.18022083
000150 07 51 bd be 9b cf 1c bf a2 ca 0b bf 84 a2 80 bf
       -0.3697588 -0.6125428 -0.5460607 -1.0049596
000160 c5 64 00 bf ec f5 0b bf 00 75 11 3e 89 4d a6 be
       -0.5015376 -0.5467212 0.14204788 -0.3248103
000170 99 07 b9 be 5d 58 d7 be 22 87 3c bf 40 a2 41 3e
       -0.3613861 -0.42059603 -0.73643696 0.1890955
000180 0c 62 f0 be 58 b8 d0 be 0d fd 13 bf 05 c2 0b 3e
       -0.46949804 -0.40765643 -0.57808 0.13648231
000190 2c 73 87 bf a3 75 76 be 12 35 2a bf c4 95 33 bf
       -1.0582023 -0.24068312 -0.6648723 -0.701504
0001a0 3a 35 42 bf 88 83 2a bf d0 63 c2 be 15 d7 1f bf
       -0.7586247 -0.6660695 -0.37966776 -0.62437564
0001b0 ca 1c fb be 46 32 b3 be 50 bf 1f bf 75 2d 1d be
       -0.49045402 -0.34999293 -0.62401295 -0.15349372
0001c0 cd 0b d5 be cf 52 f0 be 22 f5 ee be de 2a 8f bf
       -0.41610566 -0.46938178 -0.46671396 -1.1184957
0001d0 40 2c 03 bf 9f ab d6 be 04 7c 3d bf fb 23 79 bf
       -0.51239395 -0.41927812 -0.7401736 -0.97320527
0001e0 5a a4 f3 be 2f 1c 95 be 50 a2 60 bf 4a 6d 23 bf
       -0.47586328 -0.29123065 -0.8774767 -0.63838637
0001f0 6d 09 32 bf e8 29 34 bf c0 72 4c bf 16 b7 0a be
       -0.6954563 -0.70376444 -0.79862595 -0.13546404
000200 4b 79 0c 3e c4 37 cc 3e db 7f 21 3e f5 4f 2b 3e
       0.13718145 0.39886296 0.15771429 0.1672972
000210 c9 10 22 3e 96 0d 37 3d ba ed 86 be 5b 1a de 3d
       0.15826716 0.04469069 -0.26353246 0.10844871
000220 13 e1 ba 3d 1a 64 da bc 5d 4a b4 3d e2 18 d5 bd
       0.09124961 -0.02665906 0.08803246 -0.10405137
000230 1a a5 93 3e db 03 9b bd 1c 60 50 be 88 af a0 bc
       0.288369 -0.07569095 -0.20349163 -0.01961495
000240 c8 6d 23 3e 34 0a d3 bd 21 4a de 3e 41 d1 6b 3e
       0.15959847 -0.103046805 0.4341593 0.23029043
000250 e8 ea a3 be db 56 51 3e 36 c9 60 be 0e 8e 2e 3d
       -0.32015157 0.20443289 -0.21951756 0.042615943
000260 09 0b 1b be b2 d2 97 be a6 e8 85 3e ae a8 d4 be
       -0.15140928 -0.29652935 0.2615406 -0.41534942
000270 fb 60 6d bd fe a2 27 3d 6e 7a 94 3e 66 60 44 3e
       -0.057953816 0.040926926 0.28999656 0.19177398
000280 94 ec 06 3e d2 c4 20 be 7e c2 1e be c3 d0 f4 3e
       0.13176185 -0.15700081 -0.1550388 0.47815523
000290 9a cc f3 bd 4b f1 c9 3d e4 8f c5 3c 70 49 7b 3e
       -0.11904259 0.09860476 0.024116464 0.24539733
0002a0 6d 9e a7 3b 14 1c bd 3d ae e7 52 be d3 06 a2 3d
       0.0051153214 0.09233871 -0.20596191 0.07911458
0002b0 c0 ea 51 be 07 13 78 be 5c d4 d2 3d e8 84 01 be
       -0.20499706 -0.24226008 0.102944106 -0.12648356
0002c0 99 e7 a0 3e 32 f3 53 be 03 58 09 3e fc b3 8a bc
       0.31426695 -0.2069824 0.1341248 -0.016931526
0002d0 95 17 3a 3d f2 5c d8 bc b1 4c 59 3e d2 47 8a bd
       0.045432646 -0.026411507 0.21220662 -0.0675198
0002e0 22 52 53 3d b2 ad da 3c aa 50 5c 3e 77 26 db 3c
       0.051592 0.026694153 0.21515146 0.02675174
0002f0 70 76 2c bb 66 72 d9 3e 1d 7d 69 3e 01 58 8e bd
       -0.0026315711 0.42470092 0.22801633 -0.06950379

bias_hh_l0 f4 [192]
000000 66 e8 df 3d ee 51 ab be bb b2 40 3e 37 d9 20 3b
       0.10932998 -0.33460945 0.1881818 0.0024543533
000010 97 e9 00 3e 87 92 37 bd 0d 85 af bd aa e9 a9 3e
       0.12589107 -0.044817474 -0.08570299 0.33186084
000020 c2 23 6c 3d 91 8b 4c 3e 8a 49 2f 3e 94 f4 cf 3d
       0.05765129 0.19975115 0.17117897 0.101540715
000030 dc 85 3d 3e ac 1b 49 be 9e 3f 35 3e d7 40 10 3e
       0.18508095 -0.19639462 0.1770005 0.14087234
000040 a6 3c 80 3e 83 cb d8 bd 05 39 2f 3e b4 c2 f0 3d
       0.2504627 -0.10585692 0.17111595 0.11755887
000050 ca 05 a3 3d 6b 46 04 be 28 68 2d 3d f2 ad 5c 3e
       0.079600886 -0.12917487 0.04233566 0.2155073
000060 8b ac 06 bd cc 41 0f 3e f7 08 d1 3d 7c 8d db bd
       -0.032879394 0.13989943 0.10206788 -0.107203454
000070 8f 83 c1 3d c1 d5 92 3e 8e 03 a7 3d e3 9b cd 3e
       0.09448921 0.28678706 0.08154975 0.40157995
000080 9d 78 32 3e 97 1e 31 3e 8c ae 83 bc d5 68 2b bd
       0.17428823 0.17296825 -0.016074441 -0.041848022
000090 ca 4f 01 3e 6c a9 e9 3d 69 9c 41 bd c6 65 11 be
       0.12628093 0.11409268 -0.047268305 -0.1419898
0000a0 e5 be 49 3c d9 90 92 3d a0 67 91 3d 4d 5c 5b 3e
       0.012313579 0.07156534 0.07099843 0.21421929
0000b0 59 81 08 3e d9 14 f0 bd 4e a9 b0 bd 9c b0 17 3d
       0.13330592 -0.117227264 -0.08626042 0.037033662
0000c0 43 82 a8 bc 1d 1a 04 3e 3b 20 1d 3e f6 cc 09 be
       -0.020569926 0.12900586 0.15344326 -0.13457093
0000d0 07 67 97 bc 87 5d 94 be 3e 30 ed 3d 4f 0c ac 3d
       -0.018481744 -0.28977606 0.11581467 0.08400785
0000e0 1a ef 9f 3d 0d 6b fe bd 0f 8c ae 3e b2 a3 f6 bd
       0.07809277 -0.12422762 0.3409123 -0.12042941
0000f0 ce 53 fa bc 22 95 17 3e 4f 15 c7 3d 4b 3d e5 3d
       -0.03055754 0.14802983 0.09720861 0.11193331
000100 9b 7d 66 bf 31 3a 17 bf 7d c1 e0 be 52 29 4e bf
       -0.9003541 -0.5907317 -0.4389762 -0.805318
000110 df e6 7b bf 0f 84 c9 be c8 18 8b be 4c 6b 46 bf
       -0.98399156 -0.39358565 -0.27167344 -0.7750747
000120 32 b5 2c be 74 d0 64 be 18 45 db be 7e 1c 69 bf
       -0.16865996 -0.22345144 -0.42826152 -0.910591
000130 8d a5 4c bf 78 fb c1 bd e8 57 0e bf 4e 27 22 bf
       -0.7994011 -0.09471792 -0.55602884 -0.63341224
000140 90 0a 5c bf 4e 61 53 bf 9f 0b 6a bf d7 21 b4 be
       -0.8595362 -0.8257035 -0.9142398 -0.35182068
000150 00 3c e7 be c0 ad 1a bf 81 b4 da be 41 06 90 bf
       -0.45162964 -0.6042137 -0.4271584 -1.1251909
000160 1f a2 d1 be 9c c9 46 bf f1 ff 31 3e e5 a6 b9 be
       -0.40944 -0.7765138 0.1738279 -0.36260143
000170 99 9f c6 be 6d 4c 13 bf 87 53 3c bf 7d c7 e1 3d
       -0.38793638 -0.5753849 -0.7356495 0.110243775
000180 0b 58 c6 be 21 fa 9c be f5 67 0d bf 6f 64 36 3e
       -0.38739046 -0.30659583 -0.5523675 0.1781175
000190 56 77 7e bf e7 5a d7 be be 44 f7 be de a7 27 bf
       -0.9940084 -0.4206154 -0.48294634 -0.6549052
0001a0 9b fc 69 bf cb f9 35 bf 5a 43 c9 be 53 a1 12 bf
       -0.9140107 -0.7108428 -0.39309198 -0.5727741
0001b0 5d cd c1 be 1f e3 cd be c5 2f 3f bf 78 86 8a be
       -0.37851992 -0.40212342 -0.74682266 -0.27055717
0001c0 a4 45 06 bf 04 ef d4 be 19 b1 c4 be 01 9f 6f bf
       -0.52450013 -0.41588604 -0.38416365 -0.93601996
0001d0 18 83 e1 be 94 8c 97 be 15 d8 4b bf 9a ad 52 bf
       -0.4404533 -0.2959944 -0.7962659 -0.82296145
0001e0 3b ce eb be 47 6d ff be 1f 79 59 bf 13 f0 58 bf
       -0.4605578 -0.4988806 -0.8495044 -0.84741324
0001f0 fc d6 58 bf e0 2a 33 bf 7d 25 55 bf da 21 36 be
       -0.8470304 -0.699873 -0.8326033 -0.17786351
000200 a2 60 17 3e d6 6b ae be 30 fe eb 3d 2f 40 98 3c
       0.14782956 -0.34066647 0.11523092 0.018585293
000210 42 f8 32 be 96 b9 8c 3e 8d 22 92 3d 0b 92 65 3e
       -0.17477515 0.2748534 0.07135496 0.22418992
000220 a0 82 99 3d 8c 89 44 be e3 fb 08 3f 40 f1 36 3e
       0.07495618 -0.19193095 0.5350935 0.17865467
000230 c5 c7 a3 3e 70 72 fa bd 4b 3c 9a 3e 39 d4 2a 3e
       0.3198835 -0.122288585 0.30124125 0.16682519
000240 cf 63 d5 3e 5d 51 3d bc e6 87 08 3f d4 5b dc 3e
       0.4167771 -0.011555043 0.53332365 0.4303881
000250 f0 69 ed bd 89 45 d2 3e 3c f2 24 be ea 04 8b be
       -0.115924716 0.41068676 -0.1610803 -0.27152187
000260 c8 22 45 be e6 5d ae be f5 0e 98 3e 0f ee 70 3e
       -0.19251549 -0.34056014 0.2969891 0.23528312
000270 63 9a 50 bd 5d cb 0f bf 1c ca 3c 3e f7 ce 1c 3e
       -0.050928485 -0.5616968 0.18436474 0.15313326
000280 56 32 9b 3e d5 b8 0f be a1 ae 27 bf a4 00 15 3f
       0.3031184 -0.14035352 -0.6550084 0.582041
000290 ce 28 6f be 32 d2 9d 3e 71 97 09 be 97 ad 82 bd
       -0.2335541 0.3082443 -0.13436677 -0.06380766
0002a0 98 e0 3c bc eb d7 a4 bd 6d 87 bd be 95 6c cf 3e
       -0.011528157 -0.080489956 -0.37017384 0.4051253
0002b0 9c 2a 68 be ce 79 9e 3d b4 9a 02 be 06 d4 c6 bc
       -0.22672504 0.07738076 -0.12754327 -0.024271023
0002c0 e3 e8 85 3e d2 00 9c be 84 5e 16 bf e8 b8 1e b8
       0.2615424 -0.30469376 -0.5873797 -3.7842343e-05
0002d0 e4 7d 5f 3c 9c d0 48 3e 97 84 18 3f ca 7d 03 3c
       0.0136408545 0.19610828 0.59577316 0.008025596
0002e0 dc dc 48 be 03 e3 5a 3d a1 57 f5 bc b5 15 d4 3d
       -0.19615501 0.05343915 -0.029949011 0.10355703
0002f0 3f ed 24 bc e5 eb 00 3f ca d4 34 3e 58 01 22 3e
       -0.0100663295 0.50359946 0.17659298 0.15820825

weight_ih_l1 f4 [192, 64]
000000 e2 b0 09 3e 8e e4 c1 bd f4 cd 34 3e 4a 66 8d 3e
       0.13446382 -0.094674215 0.1765669 0.27617103
000010 10 84 5b 3d 60 5a c1 3e b6 77 ce 3d 7a e0 2f 3e
       0.05359274 0.37764263 0.10081427 0.17175475
000020 dc 34 d4 be 21 bb 3e 3e 00 e4 ae be a7 5a d1 bc
       -0.41446579 0.18626072 -0.34158325 -0.025555922
000030 02 ba 12 3e 6b 93 93 3e 09 b9 8b 3e 00 7d b9 bd
       0.14328769 0.28823408 0.27289608 -0.09057045
000040 83 f2 82 3e 0a 4f af be b6 0c a1 bc 10 ba d6 bd
       0.25575647 -0.3423999 -0.019659381 -0.10484707
000050 27 d4 a9 bd d0 eb 1d 3e 28 24 86 3d d3 2c 82 be
       -0.08292418 0.15421987 0.06549865 -0.25424823
000060 d6 db 8a 3c af 95 af be 19 86 0d 3e 1e 93 b9 be
       0.01695053 -0.34293887 0.13820685 -0.36245054
000070 fc 82 b9 be 31 bd 74 bd 9c c0 06 bf 8d 00 0d be
       -0.36232746 -0.05975074 -0.5263765 -0.13769741
000080 b1 30 c3 be 20 04 19 bd 10 07 89 3d 20 e3 89 be
       -0.38123086 -0.03735745 0.066908 -0.26931095
000090 26 ef d2 be 56 f1 89 3e a7 25 26 3f 06 ae 5b be
       -0.4119808 0.26941937 0.649012 -0.21453103
0000a0 ad f4 0e be 06 87 af bc 59 08 e5 3d 6e e2 90 3d
       -0.13960524 -0.021426689 0.11183233 0.07074438
0000b0 f5 6a 0c 3d a1 d4 bb bd f0 4b 73 3e 1d d5 b7 3e
       0.03428169 -0.09171415 0.23759437 0.3590478
0000c0 c5 bf d0 3e 94 bb 54 bb 2a a0 d8 3c 06 63 b4 3e
       0.4077131 -0.0032460438 0.02644356 0.352318
0000d0 39 34 1d be f4 bb c5 bd a7 1d 5c 3d de b9 a4 be
       -0.15351953 -0.0965499 0.053739216 -0.32173055
0000e0 6e 2d ad bc e7 bb 8f be 9c 6f 15 be 32 73 fe bd
       -0.021139827 -0.28073046 -0.14593357 -0.124243155
0000f0 fd e9 8b bb 91 45 92 be 67 e4 df bc 40 03 e9 bd
       -0.004269837 -0.285687 -0.02733059 -0.11377573
000100 4d 02 5f 3d b4 66 c8 3c 9b 7d 98 bd ad 24 4d 3f
       0.054445554 0.024463035 -0.07445832 0.8013409
000110 15 5b 2f be d4 e4 1b bc ba 2a 08 bd fc 66 14 be
       -0.17124589 -0.009515006 -0.033243872 -0.1449241
000120 61 b2 87 bd ee 54 90 bd 4c 1c 13 bd ed 4d 42 3e
       -0.0662582 -0.07047449 -0.035915658 0.18975039
000130 26 42 13 bd 6b ba ef 3d 92 f7 b8 bc 6f 98 3b 3d
       -0.035951756 0.11705478 -0.022578988 0.04579967
000140 13 04 bd be b3 de bd be 97 4e 23 3e 6f 48 ce 3d
       -0.3691717 -0.3708397 0.15947948 0.10072409
000150 f5 b0 b9 3e 7a 7b ac be d4 0f 1e bd 6e 9d c9 bc
       0.3626782 -0.33687955 -0.038589314 -0.024611201
000160 22 46 bc 3b 13 00 2e be 76 4c 18 be 1c 4f 1e 3b
       0.005745665 -0.16992216 -0.14872918 0.002415604
000170 69 f2 d8 bd 56 f5 5f 3e 35 2d 02 3e 8e a4 39 3d
       -0.10593111 0.21870932 0.12712558 0.045322947
000180 09 2a 8a 3e fc f6 6e 3c 32 81 91 bc d8 a5 22 bf
       0.26985195 0.014585253 -0.0177618 -0.6353431
000190 e9 84 22 be d1 f4 de bc e4 39 d8 3d 52 12 95 be
       -0.15871014 -0.027216347 0.10557917 -0.2911554
0001a0 bf 02 64 be a3 7c 6d 3d e3 34 9d 3e f6 50 80 3e
       -0.22266673 0.05798019 0.30704412 0.25061768
0001b0 e3 f5 b6 be a7 45 0b be 86 ad 39 3f 32 48 ae be
       -0.35734472 -0.13600789 0.725304 -0.34039456
0001c0 4d e1 88 3d 93 46 70 3e a1 8e 22 3d f6 43 85 3e
       0.06683598 0.23464422 0.039686803 0.26028413
0001d0 ba f2 35 be e3 02 ba bd fc 17 70 3c a7 7b 8b 3e
       -0.17768374 -0.09082582 0.014654156 0.27242777
0001e0 10 ce f9 bd f5 ca 9b bd 35 62 7d be 66 00 c6 bc
       -0.121975064 -0.0760707 -0.24744494 -0.024170112
0001f0 81 0e 90 be c7 96 10 bd 85 8f 20 be 08 2f 3c be
       -0.28136066 -0.035300042 -0.15679748 -0.18377316
000200 19 e6 d8 39 71 61 91 be de e4 07 3d ad 71 13 3e
       0.00041370167 -0.28394654 0.03317725 0.14398833
000210 9c bb 40 bd 8c 92 00 bd 39 cf 61 bd 69 0d cf be
       -0.04705392 -0.031389758 -0.055129264 -0.4043992
000220 22 2b 56 be 3e 22 cb 3d 99 03 00 bf ec d1 38 bd
       -0.20914891 0.099186406 -0.5000549 -0.045122072
000230 e3 a0 fb be 05 e1 32 bd 38 aa e2 3d 8f 5f 04 bd
       -0.49146184 -0.043671627 0.11067623 -0.032317694
000240 53 c7 f4 bc 5e b2 45 bd ea 8b 82 3e 17 3e a2 bc
       -0.029880201 -0.048265807 0.2549737 -0.019804997
000250 44 ed ab 3e 87 80 1f 3e 79 fa 99 3e 89 96 23 bf
       0.33579457 0.15576373 0.30073908 -0.63901573
000260 ce b8 f5 3e 02 a0 95 be 17 fb a6 3d 8e 62 84 bc
       0.47992557 -0.2922364 0.0815336 -0.016160276
000270 7d e8 64 be a2 24 1a 3d c9 97 3b be 75 d6 19 3e
       -0.22354312 0.037632592 -0.1831962 0.15023215
000280 26 0e 56 be 6a 28 ec 3e 93 c9 47 bd b0 83 eb 3e
       -0.20903835 0.46124583 -0.04877622 0.45998907
000290 18 88 87 be 0c 36 09 3f 94 15 49 3e 3b 35 f0 bd
       -0.2647102 0.53598094 0.19637138 -0.11728903
0002a0 eb 7f e4 be 85 e0 51 3e fc fd 12 bd 07 9a 87 3e
       -0.44628844 0.20495804 -0.03588675 0.264847
0002b0 d6 35 66 be d2 e8 93 3e 3f 4a 4a 3e 98 0e 94 3e
       -0.22481474 0.28888565 0.19754885 0.28917384
0002c0 7f 5c 80 be 66 3b e2 3d 59 61 8c bd a0 4a b7 3d
       -0.2507057 0.110464856 -0.06854505 0.089497805
0002d0 64 bc 93 be 4d 1d cf 3d dd 30 62 be 1d ef 6b 3d
       -0.28854668 0.101130106 -0.22088952 0.057601083
0002e0 bf 10 ff be 6b b0 4c be 18 57 2c be 7d 14 1b 3e
       -0.49817464 -0.19989173 -0.16830099 0.15144534
0002f0 7b 0c bf be 0c fb d1 3e cb b3 63 3d 16 bf 3d 3e
       -0.3731421 0.41011846 0.055591386 0.18529925
000300 a5 3a 66 be 37 d3 4b b9 13 ed 2c be 77 57 e3 3e
       -0.22483309 -0.00019438272 -0.16887312 0.44402668
000310 00 b4 28 3e ad d5 0c bf ec 49 c2 3d d3 40 83 3e
       0.16474915 -0.55013543 0.09486756 0.25635394
000320 79 db ea bc 7f b5 25 bd e8 89 85 be 12 de e4 be
       -0.028669106 -0.04045629 -0.26081777 -0.44700676
000330 88 2a 0f bd 80 b4 c7 3d 6a 9d 87 bc 47 01 51 be
       -0.03495267 0.097512245 -0.016554553 -0.20410644
000340 b7 d5 dd be 8f bf 73 be 33 39 19 3e c4 f7 56 3d
       -0.43327114 -0.23803543 0.14963226 0.05248238
000350 a4 9e a3 3c 70 08 b7 3d c0 b6 45 3e 5e f0 f8 bd
       0.019973107 0.08937156 0.19307995 -0.121552214
000360 83 63 2e 3e b6 b8 0f bf 13 18 e9 3d 9b 96 9f bd
       0.17030148 -0.5614122 0.11381545 -0.077923976
000370 d3 75 54 3e 66 4a 27 3c 36 89 5c bd b0 9e 2c bf
       0.20748071 0.010210609 -0.053841792 -0.6742964
000380 3b 5e d5 bd 9c 7b 1a be 19 7a d5 bd ca 55 0e bf
       -0.10418364 -0.15086216 -0.10423679 -0.55599654
000390 c4 eb af 3c ce a4 7a be 82 57 e0 3c b1 fb 82 3e
       0.021474726 -0.2447693 0.027385477 0.2558265
0003a0 69 2d bf be e3 3f 37 3e ab 2c e4 3d 15 cd e8 3e
       -0.37339333 0.17895465 0.11141332 0.45468965
0003b0 12 f6 f0 3d 27 8a 07 3e c5 01 bb 3d 38 66 d6 3e
       0.11765684 0.13236295 0.09131197 0.41874862
0003c0 21 af b7 bd 04 77 d3 3e e4 09 5f be 60 e7 20 3d
       -0.0896895 0.4130174 -0.21781117 0.039283156
0003d0 0b 96 c2 be 7b 0e a6 3e 3a e8 ec 3d 1b 70 09 3f
       -0.380051 0.32432923 0.11567731 0.53686684
0003e0 01 4b d7 bd 59 33 39 be e0 b5 de bc b8 82 49 3e
       -0.10512353 -0.18085994 -0.027186334 0.19678771
0003f0 4b 44 a1 be 7f 47 1e 3e bf 5f f7 3e 41 2d 7a be
       -0.31497416 0.15456961 0.48315236 -0.24431325

weight_hh_l1 f4 [192, 64]
000000 74 5a 3d be 41 36 51 bd 70 85 68 be 96 51 38 3e
       -0.18491536 -0.05107713 -0.22707152 0.17999873
000010 6d bf 78 3e 52 2f 34 3f 33 39 28 be 51 da 97 bd
       0.24291773 0.70384705 -0.1642807 -0.074146874
000020 eb 95 29 3e 3c e3 4b bd 53 93 4c be 30 4a 90 bc
       0.16561095 -0.049777254 -0.19978075 -0.0176135
000030 76 ed 8a bd 0d 74 28 be f7 29 dc bd 36 9d d7 3d
       -0.06783573 -0.1645052 -0.10750192 0.105280325
000040 79 74 92 3e 74 f8 39 be 59 0b a4 3d 5c a2 65 bc
       0.28604487 -0.18161184 0.08009977 -0.01401576
000050 b3 bd 02 3d 19 e6 84 3e 27 89 29 bd 1c e5 fc 3d
       0.031919193 0.259568 -0.041390564 0.12348387
000060 1d 64 8e bc 88 0c 10 3e ee a8 22 be e2 e7 66 3d
       -0.017381722 0.1406728 -0.15884754 0.056373484
000070 f9 05 f4 3c dd 3e d5 3d ad 04 8a 3d 65 31 a3 3d
       0.029788004 0.10412381 0.06739173 0.07968406
000080 9f 78 32 be 0e af 04 be dd 18 11 be 56 82 e9 3d
       -0.17428826 -0.12957403 -0.14169641 0.11401813
000090 0b 76 f4 3e ec 92 44 3e 69 e9 42 3e 36 66 d1 bc
       0.4774631 0.19196671 0.19034351 -0.025561433
0000a0 8f 9d ae 3d dc 7d b4 3c 62 80 48 3e 05 8d 24 3e
       0.08526146 0.02203267 0.19580224 0.1606942
0000b0 a2 dc 9c be 31 91 ec 3d 7a 65 19 3d 77 18 d6 3e
       -0.3063708 0.115511306 0.03745029 0.4181554
0000c0 25 09 0f be 47 24 16 be 67 d6 1f bd f7 b8 bc bd
       -0.13968332 -0.14662276 -0.03902283 -0.09214967
0000d0 26 71 79 be 0d cf d8 3e 3f 22 56 3e 57 96 30 be
       -0.24359569 0.42345467 0.20911501 -0.1724485
0000e0 c6 4e 4e 3d 83 78 43 be a8 66 29 be 28 57 e7 3e
       0.050368093 -0.1908894 -0.16543067 0.45183682
0000f0 f7 96 d3 be 16 bb 4e 3d fa 38 ee 3d b2 56 78 3d
       -0.41326115 0.050471388 0.11631961 0.060629554
000100 7f 9c dd 3e 80 ff 69 3c 0a 7e 0f be b0 96 ef bd
       0.4328346 0.014282107 -0.14012924 -0.11698663
000110 b1 14 7c 3d 7a 35 09 bc d4 37 4b bd 36 b8 10 be
       0.06154317 -0.008374566 -0.04961379 -0.14132771
000120 98 84 15 3d 56 7b 1d 3e e1 e4 da bc ee 11 96 be
       0.036503404 0.1537908 -0.026720466 -0.29310554
000130 da c9 57 3e 4f 78 32 bc ab a9 ab be 52 f0 9a 3e
       0.21073094 -0.010892942 -0.33527884 0.30261475
000140 74 dc 82 3e 6c ed 40 3e fd 25 ad 3d ca 94 37 bd
       0.25558817 0.1884057 0.08454511 -0.04481963
000150 fb 94 e6 be fb bf 87 bd 66 f0 e9 3d 39 07 67 be
       -0.45035538 -0.06628414 0.114228055 -0.22561349
000160 7d 77 a9 be ab 43 6e be d6 16 3f 3e 2c 9a 82 bd
       -0.33098975 -0.23268001 0.18661055 -0.06377062
000170 ef e6 7e be 86 8e 04 bf 7f 9e 75 bb d3 ba c3 bd
       -0.24892782 -0.51779974 -0.0037478504 -0.09557118
000180 e3 be 86 3d f3 73 82 bd a2 2e 9d bc 53 eb c2 3d
       0.065793775 -0.06369772 -0.019187275 0.09517541
000190 fd b1 d8 bc 21 d1 41 3d e8 a8 13 3e 8d d9 0c 3f
       -0.026452059 0.04731858 0.14419901 0.55019456
0001a0 3b d5 03 bf ac fd 7a 3e f7 ab dc be 4e 60 25 3e
       -0.5149724 0.2451083 -0.4309995 0.16150019
0001b0 c3 d3 3f 3e b2 79 f5 3c 38 51 56 3d bf 02 6d 3e
       0.18733124 0.029965255 0.05232355 0.23145579
0001c0 14 fe 9f bb 2b 1b db be c7 79 0e bd 55 ca 93 be
       -0.0048825834 -0.42794165 -0.034784105 -0.28865305
0001d0 6d 93 c9 bc e3 7c a7 3c 73 20 e8 3e ed 4c a7 3e
       -0.02460643 0.020445293 0.45337257 0.32675877
0001e0 5d de 55 3e 91 8d 7e 3e bd 60 a5 3d d2 1c 07 bc
       0.20885606 0.24858691 0.08075092 -0.008246617
0001f0 61 95 5d be 3d b3 ea 3d a3 be 8c 3e a0 da 43 3d
       -0.21639015 0.11459968 0.27489194 0.04781592
000200 5c f1 71 3d 48 04 ec be 4a 50 5d be 69 64 31 be
       0.05906807 -0.46097016 -0.21612659 -0.1732346
000210 f5 61 4b bd c0 02 bb 3e 4e b4 a2 3d 87 ad ef 3d
       -0.049653966 0.36525536 0.07944547 0.117030196
000220 29 31 8c bd e9 13 3d 3e ee 8f 70 3e ff a0 41 3e
       -0.06845314 0.18464626 0.23492405 0.18909071
000230 49 9e ea 3e 07 a4 a7 bd fd a8 25 3e a0 0b e4 3e
       0.45823887 -0.081855826 0.16177745 0.4454012
000240 19 4d db bd 01 76 af 3d ee b5 da be 33 0b 2c be
       -0.107080646 0.08567429 -0.42716926 -0.16801147
000250 69 d9 e0 be bb 59 ff 3b 4b b0 9b 3d e8 eb a9 be
       -0.4391587 0.007792679 0.076019846 -0.33187795
000260 dd de 8b 3e 33 d0 34 3e 52 c9 36 3d 0d 06 20 be
       0.2731847 0.17657547 0.044625588 -0.15627308
000270 ab 7a d1 3c e8 4e 7d be 3a 22 16 be 78 ab 01 3e
       0.025571188 -0.24737132 -0.14661494 0.12663066
000280 c7 54 3f 3e 60 7d 15 3b b9 d3 90 bd 30 49 6d 3e
       0.18684684 0.0022810325 -0.07071633 0.2317245
000290 37 c2 d8 3e cc 35 40 be 3c a6 d5 3e 44 11 32 3e
       0.42335674 -0.18770522 0.4172839 0.17389399
0002a0 89 79 7d 3d d8 0a 17 3e 36 81 24 bd 3c 77 c8 3e
       0.061883483 0.1475023 -0.040162288 0.3915347
0002b0 8c 55 22 bd 08 2d 92 3e a3 3f 7c bd 4d 93 93 bd
       -0.039632365 0.2854998 -0.061584126 -0.0720583
0002c0 93 40 4a be f0 46 3f be 92 86 4a be fb b0 32 bd
       -0.19751196 -0.18679404 -0.19777897 -0.043625813
0002d0 27 d2 48 3e 8e 88 48 be cb c4 50 3e 8f 04 44 bd
       0.19611417 -0.19583341 0.2038757 -0.04785591
0002e0 63 ab 26 be 13 7d 86 be 3c ff 3b bd 5f 5c ba bd
       -0.16276316 -0.262673 -0.045897707 -0.0909965
0002f0 25 e7 ce be 7c ff 53 3e 37 79 dc 3d 64 87 47 3d
       -0.40410724 0.20702928 0.107653074 0.048713103
000300 b2 f1 89 be 38 7c 9a be 1f 19 ec be 55 c7 e2 be
       -0.2694221 -0.30172896 -0.46112916 -0.44292703
000310 b4 39 c4 bd d7 48 20 be 4c 3a 5e be 59 41 83 be
       -0.095813185 -0.15652786 -0.21701926 -0.25635794
000320 df f9 1f 3d e5 55 cf be 3a 09 97 3d 08 c6 fc be
       0.039056655 -0.4049522 0.07374807 -0.49369836
000330 49 40 2e be ce f3 e5 3c 5c c5 c7 bd 6e 91 96 be
       -0.1701671 0.028070357 -0.0975444 -0.2940783
000340 cc f8 bf bd 18 3d 65 be 04 7e 80 bd 11 57 85 3e
       -0.09373626 -0.22386587 -0.062740356 0.2604299
000350 15 b2 9f 3e c0 6a ca bd c3 82 91 3d 23 5d 6a 3e
       0.31190553 -0.09883642 0.07105019 0.22887091
000360 29 59 c6 3e 18 b4 46 3d 12 8c 00 3e 16 ef b0 bd
       0.387399 0.048511595 0.12553433 -0.08639352
000370 3d 51 90 bd c9 d6 83 3d f0 44 bd 3c 23 d5 7d bd
       -0.07046745 0.064374514 0.023104161 -0.06197084
000380 a5 3f 82 3d 86 6d 6b be 93 b9 01 be 6e 00 5d 3e
       0.063597955 -0.22990999 -0.12668447 0.21582195
000390 58 94 55 be b9 72 06 3f 09 66 4d 3c 3a 68 2d be
       -0.2085737 0.525188 0.012536534 -0.1693429
0003a0 9f b1 aa be 39 92 13 3e 51 e3 82 3e 06 15 5e bf
       -0.3333864 0.14411248 0.25564054 -0.8675083
0003b0 79 fb cf 3d d8 57 cd 3d 22 7c 1a be 28 08 97 3d
       0.101553865 0.100265205 -0.15086415 0.073746026
0003c0 ec da 47 be f5 f3 65 3e 26 21 e5 be bc 0f 0a 3e
       -0.19517106 0.22456343 -0.44751853 0.13482565
0003d0 12 d9 86 3c 23 be ba be 2c 1f e1 bd ea dc 15 3d
       0.016460929 -0.36473188 -0.10992274 0.036587633
0003e0 36 b9 cd be 2b 6c 7a 3e 5d 61 56 bc 05 9c 5f bd
       -0.40180367 0.24455325 -0.013084737 -0.05459215
0003f0 81 7a 75 3e b8 49 04 bf 25 73 a3 3e 28 84 81 3e
       0.23972513 -0.51674986 0.31923786 0.2529614

bias_ih_l1 f4 [192]
000000 96 71 10 3e bd b3 19 3e a8 8c 22 3e ba 4a f6 bd
       0.1410583 0.15009971 0.15873969 -0.12025972
000010 3b 4a 16 3c 94 c5 0d be 93 97 84 3d c8 e6 11 3e
       0.009172971 -0.13844901 0.06474223 0.14248192
000020 e4 4f 4d 3b 36 1b 0a 3e 51 a9 4e bd 79 cf 35 3e
       0.0031328136 0.13486943 -0.05045444 0.17754926
000030 37 09 81 3d f8 db 93 3d 76 14 45 3c da 24 db 3d
       0.06300586 0.0721969 0.012028804 0.10700388
000040 64 53 cd 3d ca 34 51 3e 9f e5 46 3d bb 3c 9e 3e
       0.10025671 0.20430294 0.048558827 0.3090571
000050 eb d9 19 3e 41 cb 80 3c 3a 22 42 bc aa 29 30 3e
       0.15024535 0.015721919 -0.011848981 0.17203394
000060 79 80 18 be 30 7d 8c 3c 59 d6 4a 3d c1 3d 32 3e
       -0.14892758 0.017149538 0.049520824 0.1740637
000070 03 c8 9f bb 48 df 79 bd 5e 0d b3 3d 4e 23 b8 3d
       -0.004876138 -0.061003953 0.08742784 0.08991109
000080 db e7 7b 3e 1d 81 14 3d f5 6e 2b 3d 71 f4 13 be
       0.24600165 0.036255945 0.041853864 -0.14448716
000090 5d 20 bc 3d 02 a9 41 bb 64 1f 97 bb 41 d7 a2 3c
       0.0918586 -0.00295502 -0.0046118964 0.019878032
0000a0 5a 5f 26 bd 0d 61 47 3e 46 ba 81 bd 04 8d 9c bd
       -0.040618278 0.19470616 -0.06334357 -0.07644084
0000b0 9f 09 84 bd 10 52 41 3d 78 c9 de bb 1e a7 2e 3e
       -0.064471476 0.0471974 -0.0067989193 0.17055938
0000c0 a3 b7 9f 3e 55 ee c4 3c 19 e8 4c 3d 3f 9e 4a 3d
       0.3119479 0.024039427 0.050026033 0.04946732
0000d0 4b 17 72 bd 7f bd 07 be f0 c6 2b 3d 51 b0 75 3d
       -0.059104245 -0.13255881 0.04193777 0.0599826
0000e0 bb 0d e1 bd 05 09 76 3e df 19 a4 3b d3 d9 84 3d
       -0.10988947 0.24026878 0.005007967 0.06486859
0000f0 44 cb d5 bd d8 a2 fb 3d f2 1a af bb 41 57 36 3e
       -0.104391605 0.12286919 -0.0053437883 0.17806722
000100 4f d7 bb be 41 87 9c 3c f4 f7 cd be e8 8d d4 be
       -0.36687705 0.019107463 -0.40228236 -0.41514516
000110 51 50 a1 3d cc 71 03 bd fa 76 71 be 13 d0 e3 be
       0.07876647 -0.032090947 -0.23580542 -0.44494686
000120 1a ab f4 be 0d c1 db be b8 0d 64 bd 4d 47 cd bc
       -0.4778679 -0.42920724 -0.055677146 -0.025058413
000130 bb 3d 42 3d 67 48 ad bd a8 44 cb bd 34 d4 ad be
       0.047422152 -0.08461075 -0.099252045 -0.3395096
000140 58 59 09 bf bd c0 d0 be 9c b8 bb be 6a 5c 21 bf
       -0.5365195 -0.40772048 -0.36664283 -0.6303164
000150 2f 10 21 be dd 2f 8f be 22 61 a2 be 20 91 ad be
       -0.1572883 -0.27966204 -0.3171473 -0.33899784
000160 3f 7c 87 be ee b7 53 be 65 aa 12 bf ec d6 b9 be
       -0.2646198 -0.20675632 -0.5729125 -0.36296785
000170 56 ff b4 bc 4d ae 87 be 5a c1 81 be 94 a9 12 be
       -0.02209441 -0.26500168 -0.25342828 -0.14322501
000180 a0 92 83 bd 20 5e fa be ac 43 2b bf 27 d6 0d bf
       -0.06424451 -0.48899937 -0.66900134 -0.55404896
000190 a2 e4 1d bf 1b 2c b3 be c5 99 f9 bd 37 ea b4 be
       -0.6167699 -0.34994587 -0.12187532 -0.35334942
0001a0 0b 0b ac be 1f fa b6 be 58 51 62 3e 4e 85 55 be
       -0.33602175 -0.35737702 0.22101343 -0.20851633
0001b0 2c 01 34 3e 83 1b 1a be 0c 23 f8 be 1f cf 1d be
       0.17578572 -0.15049557 -0.4846424 -0.15411042
0001c0 11 00 d4 be 49 81 0c be 9e 22 f8 be cd fe 08 bf
       -0.414063 -0.13721193 -0.4846391 -0.53513795
0001d0 11 25 dd be 46 17 08 be b0 23 f3 be cb 61 1f bf
       -0.43192342 -0.13290128 -0.47488165 -0.62258595
0001e0 b0 fa 2e bd da e8 e2 be 0d 31 81 be 81 5f b0 3e
       -0.042719543 -0.44318277 -0.25232735 0.34447864
0001f0 d3 44 80 be 9a a7 eb be 58 3e ce be 01 31 01 be
       -0.2505251 -0.46026307 -0.4028194 -0.1261635
000200 0c 71 c1 3b 76 52 05 be d3 e4 2a 3e 24 74 64 be
       0.005903369 -0.13019738 0.16688852 -0.22309929
000210 19 b0 1f 3d 2d 75 b1 3d 68 e8 13 be ea cb b9 3e
       0.0389863 0.08664928 -0.14444125 0.36288387
000220 16 96 9b bd 24 31 70 3d 19 b6 94 be 45 d2 07 be
       -0.07596986 0.058640614 -0.2904518 -0.13263805
000230 31 f7 0a 3e 73 4a d9 3d a9 85 92 3e df 00 56 3e
       0.13570859 0.10609903 0.286176 0.2089877
000240 d1 32 b6 3e 1f b4 80 be 36 6e 3f 3d 91 cc c2 3e
       0.35585645 -0.2513742 0.046735965 0.38046697
000250 c1 ba a3 3e 7d bb 2b be 1c ec 31 3d d8 97 ce be
       0.3197842 -0.1677074 0.043438062 -0.40350223
000260 6e a9 98 3c 98 ef 0b be ee 01 b8 3b ce c6 8c 3d
       0.018635478 -0.13665617 0.0056154644 0.068738565
000270 c1 71 f9 3d e5 cf 00 be be 45 d0 3d 99 aa fd bd
       0.121799 -0.12579305 0.10169552 -0.123860545
000280 98 02 82 3c 83 d3 48 3e 87 ac 64 bd a3 c4 0b be
       0.015870377 0.19611935 -0.055828597 -0.1364923
000290 87 90 ba be c6 81 a0 3e 08 69 5f 3a e6 ad ae 3d
       -0.3643839 0.3134901 0.0008522426 0.08529262
0002a0 06 dc e1 3d 39 bc 95 be b4 a7 e2 3d 26 0d a1 be
       0.11028294 -0.29245165 0.11067143 -0.31455344
0002b0 3e 15 70 3d 96 93 8b 3e 13 02 8a be 2a cd 7f 3d
       0.058614008 0.27261037 -0.26954708 0.06245152
0002c0 08 37 eb be 72 6a 93 3c 9f b0 d8 bd d1 da 15 3e
       -0.45940423 0.017995093 -0.10580563 0.14634253
0002d0 51 24 c6 bc fa 33 03 3d db 51 f2 3c dc 9f 2f bc
       -0.024187239 0.03203199 0.029580047 -0.010719266
0002e0 27 19 e6 be 9a 10 81 3d 02 9d 7a be 2e 25 bb bd
       -0.44941065 0.063019946 -0.24473956 -0.09137951
0002f0 14 1d 00 bb 69 ad 8f bd 40 00 99 be 3d e5 db 3d
       -0.0019548582 -0.07015497 -0.29883003 0.10737083
