action_LossPrune_ClassifyFixed/model3_traffic.pth (torch, 169806 bytes, 12 tensors)

weight f4 [23, 8]
000000 db ca 68 bf a5 97 35 3f 68 42 b2 3f 99 13 3f 3f
       -0.9093453 0.70934516 1.3926516 0.7463928
000010 a6 62 dc 3f 96 e3 8b 3f 24 92 f5 3d 02 2c f6 be
       1.7217605 1.0928829 0.11990765 -0.4808045
000020 d8 bc 0c bf e6 dd b0 bc 97 e0 c1 3f 55 33 bd 3e
       -0.5497565 -0.021590184 1.5146664 0.36953226
000030 ca b5 c8 3f 37 fe 16 bf 0b b2 02 bf eb 84 54 be
       1.5680478 -0.5898165 -0.5105292 -0.20753829
000040 14 d3 1d 40 35 f3 83 bd 54 16 b6 3f c3 62 2c 3e
       2.4660082 -0.064428724 1.4225564 0.1683455
000050 35 31 93 3f ce 2f 29 40 4b 45 1b 3e 30 ec 33 bf
       1.1499392 2.6435428 0.15163152 -0.7028227
000060 a0 95 b9 3f 29 34 9a bf 55 50 68 bd 0c 71 36 bf
       1.4498787 -1.2047168 -0.056717236 -0.71266246
000070 e5 20 98 bf 25 99 92 be 3e 5d 85 bf d4 04 0e bf
       -1.1885039 -0.28632465 -1.041908 -0.5547612
000080 98 15 df bf d0 ee 1c c0 37 1c 29 bf 36 1e a5 3e
       -1.7428465 -2.452076 -0.6605868 0.32249612
000090 9c c2 a2 bf c5 5e a8 be 50 11 9a 3f e7 b3 22 ba
       -1.271564 -0.32884803 1.2036533 -0.0006206617
0000a0 f6 94 36 3f 3e 7c b2 3f 3d b8 15 bf 82 fe bc 3f
       0.71321046 1.3944166 -0.5848425 1.476517
0000b0 d8 c3 79 3f bf d1 0b bf d6 2b 4f bd fc 5b 3a be
       0.9756446 -0.5461692 -0.050578915 -0.18199152
0000c0 71 e4 52 bf 78 fd 0f bf 82 2b 8d 3f 0d 26 52 3e
       -0.82379824 -0.5624614 1.1028903 0.20522328
0000d0 eb 6a cc bf 43 97 a8 3e 06 b7 52 3f 91 e1 b3 3e
       -1.5970129 0.32927904 0.8231052 0.3513303
0000e0 d1 b8 00 c0 b5 92 50 3f 91 5e 14 c0 10 67 95 be
       -2.0112803 0.8147386 -2.3182719 -0.29180193
0000f0 65 46 78 bf b1 97 d8 bf 37 e1 a0 bf e5 07 05 40
       -0.96982414 -1.6921293 -1.256873 2.0786068
000100 7a b8 8a bf 21 5a c6 3e 72 9d dd 3e d9 dd cf be
       -1.0837548 0.38740638 0.43284184 -0.40598944
000110 16 a6 1e 3f 36 b1 a7 bd eb 0d fa 3f 10 5c 5c 3f
       0.6197218 -0.08188097 1.9535497 0.86077976
000120 d7 bc 74 bd 22 dd fa be 86 fd 5f 3f 78 ad 34 bf
       -0.059750404 -0.48996836 0.8749622 -0.7057719
000130 b1 ba 52 bf ae bc ea bf ab 46 02 40 d0 74 b8 be
       -0.8231612 -1.833883 2.0355632 -0.3602662
000140 7d 03 4c bf 58 6e 2c bf 46 50 10 3f 3e 74 92 3f
       -0.7969282 -0.6735587 0.5637249 1.1441724
000150 e5 2a 05 bc 78 92 e4 3f bf 9b 08 40 15 b8 90 3f
       -0.008127903 1.7857199 2.134506 1.1306177
000160 8c ca eb 3f 52 2b 5f bf b6 4a 23 3f fc d1 43 3e
       1.8421187 -0.87175477 0.63785875 0.19123071
000170 c2 eb b8 3e ad 5c 8e 3e 41 2a b7 bf d3 d4 8e be
       0.3611737 0.2780508 -1.430977 -0.27896747
000180 73 1a b5 bf 10 0e 74 bf c4 aa 11 3f 8b c4 40 3f
       -1.4148697 -0.9533396 0.5690119 0.752999
000190 cc dc 00 40 ed fc c4 bf d6 ba 7f bf 88 b5 aa bf
       2.0134764 -1.5389687 -0.99894464 -1.3336649
0001a0 aa 8f 1c 3e 0a ca 84 bd 5e 91 20 3f e7 f9 04 40
       0.15289178 -0.064838484 0.6272181 2.0777528
0001b0 81 af a3 bd a4 74 f2 3f 53 31 4c bf d3 5a 18 40
       -0.07992459 1.8941846 -0.7976276 2.3805435
0001c0 a8 54 e8 3e c0 13 3d bd 2b 9d 93 bd f2 38 66 3f
       0.45377088 -0.046161413 -0.07207712 0.8993064
0001d0 a5 bc 3a be 0e be a0 bf 72 9c 47 3f 97 c2 62 3f
       -0.18236025 -1.2558 0.7797309 0.8857817
0001e0 9c cb 78 bf d1 cf 0d 3f b8 e4 28 3f b3 a9 33 be
       -0.97185683 0.5539523 0.65974 -0.17545204
0001f0 06 29 22 be 37 24 50 bf 39 ca 9a 3e 47 00 0c c0
       -0.15835962 -0.8130526 0.3023241 -2.187517
000200 bc 2f 50 bf 43 b8 bf 3e 94 d9 99 3e 1a 70 bb bf
       -0.81322837 0.37445268 0.3004881 -1.4643586
000210 2b bf 0e 40 b2 3f 66 be b6 6c 3b bf 8c c7 9d bd
       2.230418 -0.22485235 -0.73212755 -0.07704076
000220 08 fb 47 40 82 e5 8e 3e a7 0d 53 3f 99 08 c1 bf
       3.1246967 0.27909476 0.82442707 -1.5080749
000230 c1 b1 ae 3c 32 84 72 bf b9 e7 ff 3f a8 f9 a9 bf
       0.021324994 -0.94732964 1.9992591 -1.3279314
000240 06 d6 05 bf d2 ba 5e 3f 1a 0e c1 bf b4 d4 f0 3d
       -0.522797 0.87003815 -1.5082428 0.1175932
000250 17 b5 e5 bf 44 72 53 3e 0d 7b a0 3d 64 0f 47 bf
       -1.7945889 0.20649058 0.0783597 -0.7775786
000260 cb 77 0b be 07 8d ac 3f 27 90 f4 3e 65 d6 d4 bf
       -0.13619916 1.3480538 0.4776623 -1.6627928
000270 bb d8 b2 3f 89 03 be 3f 56 4f 00 40 ea 3c 98 3f
       1.3972391 1.4844829 2.0048423 1.189359
000280 f6 fb db 3f 0a d0 64 3f cc 2e 82 3f 0f 2e ed 3c
       1.7186267 0.8937994 1.0170531 0.028952627
000290 fd 96 92 3e ca 4c a6 bf b3 f8 92 be 32 61 37 3f
       0.2863082 -1.2992184 -0.28705367 0.71632683
0002a0 3c 1d c5 bf fe ad f5 3f e8 02 2b 3f 5f c0 74 bf
       -1.5399547 1.9193723 0.6680131 -0.95606035
0002b0 d0 64 05 c0 a2 5d c0 bf 33 8c 89 bf d3 5b 8f bf
       -2.084278 -1.5028574 -1.074591 -1.1199898
0002c0 c1 66 f5 bb 8d c9 6d 3f c0 6c 45 bf a8 42 8b 3e
       -0.007489056 0.9288567 -0.77119064 0.27199292
0002d0 ef be e3 3d 08 a1 05 bf c9 14 d2 bf 59 23 14 be
       0.11120402 -0.5219884 -1.6412593 -0.14466609

weight_ih_l0 f4 [192, 9]
000000 cf 6d df 3c ed 62 a0 be ed 58 95 be c8 76 65 3d
       0.02727404 -0.31325474 -0.29169407 0.05602148
000010 44 a6 e7 bd 47 09 a2 be 73 8f 09 bf ae 65 8a be
       -0.113110095 -0.31647703 -0.5373451 -0.270307
000020 ce 8a 1c bd 13 79 2b be bf 86 6c bc 7c d7 2a 3d
       -0.038218312 -0.16745405 -0.014436423 0.04170941
000030 37 4e 14 3e 19 98 0b bf b6 da fd be 4b 8d 28 be
       0.14482962 -0.5452896 -0.49580926 -0.16460149
000040 9b 21 e9 3d 20 10 e5 be 81 85 e4 3e a9 b8 ac 3e
       0.11383363 -0.44738865 0.44633105 0.33734635
000050 f5 d5 59 3d 02 58 de 3e 7f c2 58 be 1a c8 bd 3e
       0.05318256 0.4342652 -0.21167944 0.37066728
000060 c0 a0 a8 bd bc dd 85 bd 8a 23 cc bc ab ac 98 bd
       -0.08233786 -0.06536433 -0.02491929 -0.07454809
000070 65 5d 77 bd 00 d1 a1 3e e0 2d 24 3e 4b 02 b3 3e
       -0.060391802 0.31604767 0.16033125 0.34962687
000080 ba e0 36 3e b0 99 ea 3d 68 fe b4 3e a5 bc c0 be
       0.17859164 0.11455095 0.35350347 -0.37643924
000090 f6 9d cf bd d9 63 87 be 58 c3 8b bd de 91 96 be
       -0.101375505 -0.26443365 -0.06824368 -0.29408163
0000a0 9f 29 74 3e 66 e0 e5 3d f3 07 9f bd 0c 19 4b 3e
       0.23844002 0.11224441 -0.07765188 0.19833773
0000b0 af f9 01 3e 62 72 e0 3e c4 d5 dd 3e a7 ea e5 3e
       0.12692903 0.43837267 0.43327153 0.44905588
0000c0 ac af 62 be f1 a4 94 3e bb 29 39 3e b3 7e 83 3e
       -0.22137326 0.2903209 0.18082325 0.256826
0000d0 57 95 18 3e e8 ab 67 3c 6a fd 99 3c 28 04 fe 3c
       0.14900719 0.014140107 0.018797595 0.031007841
0000e0 e2 5f c9 3e 05 fb c8 bc 33 7f c4 be 3a 90 41 3e
       0.39330965 -0.024533758 -0.38378295 0.18902674
0000f0 8a 3f 97 bd 4d 5c 31 be 9e fb d5 bd 75 82 96 3d
       -0.07385166 -0.17320366 -0.10448383 0.073491015
000100 ce 32 08 be 3f 64 d6 bd 78 65 14 3d 23 87 2c bd
       -0.1330063 -0.10468339 0.03622958 -0.042121064
000110 14 af 65 be 86 16 dd bd 9c 5e 04 3e c7 b0 48 be
       -0.22430068 -0.10795312 0.12926716 -0.19598685
000120 c8 7c 24 3e 0d bf 1b 3d 18 4f a5 3d bb fb 22 3e
       0.16063225 0.038023997 0.080717266 0.1591634
000130 1a b7 c6 3d 9e 28 1b 3d 3b 41 6f bc a5 6e ae bd
       0.097028926 0.037880532 -0.0146029545 -0.085171975
000140 48 e8 9d 3d a2 aa 41 be a2 a8 4c bd 39 93 c4 3d
       0.0771032 -0.18912748 -0.04996551 0.09598393
000150 7e 8f a5 bd 96 fc cb bd f1 8d 5e 3e a2 e0 47 3e
       -0.080840096 -0.09960286 0.21733834 0.19519284
000160 5e d1 f2 bd 74 db 14 be 75 40 13 be 6d f0 38 be
       -0.1185634 -0.1453684 -0.14380057 -0.18060465
000170 af 34 b3 3d e1 01 02 be 20 f8 8d 3d 96 a0 6d 3e
       0.08750283 -0.12696029 0.06932092 0.2320579
000180 23 29 7f be 0c 84 9d 3e 6c 7e a1 3d 2c be d7 bc
       -0.24918036 0.30764806 0.07885441 -0.026335798
000190 56 20 26 3e 6a 13 52 3e 23 a3 82 bc 5a 70 5a 3d
       0.16223273 0.20515218 -0.01594693 0.053329803
0001a0 e3 85 0a be df 41 8d 3e 15 5c f6 be 54 4c 92 3e
       -0.13527636 0.27589318 -0.48117128 0.2857386
0001b0 4f aa 39 3e 27 3d 2c bb 73 e5 51 3d 2a 80 38 ba
       0.18131374 -0.0026281567 0.05124421 -0.0007038141
0001c0 75 55 45 3d 7d d4 41 3e d3 a4 be 3d c2 5d 78 3e
       0.0481772 0.18928714 0.093087815 0.24254516
0001d0 ba 30 83 be d5 ac c1 bc 64 5c 9a 3e 86 cc 6f 3d
       -0.25623113 -0.023641983 0.30148613 0.058544658
0001e0 2b 7a 64 3e 4f f2 a2 be ea ab fc be 8a 6f 13 3e
       0.22312228 -0.31825492 -0.4934991 0.14398018
0001f0 e4 f1 7d 3e ff aa 51 3d 14 a8 1a 3d ec d4 03 bb
       0.24799305 0.051188465 0.037757948 -0.0020115925
000200 7d d1 7e be 9d a8 39 3d 61 64 17 3f 49 87 e0 3c
       -0.24884601 0.045326818 0.5913754 0.027408259
000210 e1 08 da bc d1 23 41 3d ff 83 e2 bd 7e e1 96 bd
       -0.026615562 0.047153298 -0.110603325 -0.07367228
000220 b3 eb 3b 3e 7b 6d 51 bc 1f 6d 9b be dd 65 b3 3d
       0.18351631 -0.01278245 -0.3035669 0.08759663
000230 09 ac 86 be 13 f1 84 3b e1 7a dd bd 7a f6 96 3b
       -0.26303127 0.0040570586 -0.10814453 0.004607019
000240 06 29 0f 3f 4e 70 9c 3d 92 99 1d be 1a 2f 99 bd
       0.5592197 0.07638608 -0.15390614 -0.07479687
000250 8b 76 2e 3e f7 32 b4 3c 87 da fd bd 9d 63 4c 3d
       0.17037408 0.021996958 -0.123951964 0.049899686
000260 59 8d 27 3e e7 11 b2 3d f2 09 91 bd a9 fb 36 3e
       0.16362514 0.08694821 -0.07081975 0.17869438
000270 f4 22 0d bf 53 b5 88 bd b8 57 1b be 82 40 1c 3d
       -0.5513146 -0.0667521 -0.15170181 0.038147457
000280 c4 43 5f be bc d2 22 3d 14 87 d4 3e 91 fd 23 be
       -0.21803194 0.039751753 0.41509306 -0.16014697
000290 aa c9 fa 3d 74 94 50 bd 9d 63 c6 be fa 4c 44 3e
       0.122454956 -0.050922826 -0.38747874 0.19169989
0002a0 d1 f3 24 3d 8d 37 b1 3e 12 d6 6a 3d 4d c8 8c 3d
       0.040271584 0.34612694 0.05733306 0.06874142
0002b0 01 5a d4 be fa 09 48 bd 71 01 a7 3e 44 7f 46 be
       -0.41474918 -0.04883764 0.32618287 -0.19384485
0002c0 26 3f 07 bf 44 d2 92 3e 5d 2a 28 3e 42 88 57 3d
       -0.5283073 0.28676045 0.1642241 0.05262018
0002d0 29 26 d4 3d b3 af 23 be 93 d7 eb 3e 69 08 0d 3f
       0.10358841 -0.15984993 0.46062908 0.5509096
0002e0 c2 7f b0 be 9a 16 96 3e d0 64 8e 3d 1b 33 4f be
       -0.3447247 0.2931412 0.06952822 -0.20234339
0002f0 b5 17 66 be 22 56 07 bd fd 88 7d bc 99 ad ba be
       -0.22469981 -0.033041127 -0.015474555 -0.3646057
000300 48 d7 a5 3d d8 4f fb 3c f9 e0 b2 3c c1 cd a6 3e
       0.08097702 0.03067772 0.021835791 0.32578853
000310 d7 16 75 3e 51 09 1d 3e a9 97 ed bc 73 69 c0 bd
       0.23934494 0.15335585 -0.029002981 -0.09395113
000320 8e 81 1b 3e c1 09 35 3d c7 29 91 3e cc f5 c3 3d
       0.1518614 0.044198755 0.28352186 0.095683664
000330 d2 48 0a be b3 22 11 bd b2 ed 45 3e 78 a6 27 3e
       -0.13504341 -0.035433482 0.19328955 0.16372097
000340 eb 0f 2e 3e b3 ff 9f be 61 f2 36 bc 3f d6 50 be
       0.1699826 -0.3124977 -0.011166186 -0.20394228
000350 2a 40 16 bd cc ba 53 3e 5f 5f 89 bb 87 6d 6c bc
       -0.036682285 0.20676726 -0.0041922773 -0.01443041
000360 75 35 04 3e ed 55 21 3f 17 9a c3 bd 7e 2f 43 3e
       0.12911017 0.6302174 -0.09550875 0.19061086
000370 7b 6d df be eb b6 b0 3d 98 9b 16 3e 79 1d 5f 3d
       -0.43638214 0.08628639 0.14707792 0.054471467
000380 96 12 9a bd 0e 07 88 3d 39 d6 88 3a 92 a9 b9 bc
       -0.07523076 0.066419706 0.001043982 -0.022663865
000390 eb 9c 97 3d 84 f4 5a 3e 70 a9 af bd 8f 01 d6 3e
       0.074029766 0.21382338 -0.085772395 0.41798064
0003a0 ee 5f 44 bd ef c2 51 be c8 0a 7c be 83 2c b1 3d
       -0.04794305 -0.20484518 -0.24613488 0.08651068
0003b0 a8 86 50 be ca 9a 19 bd 93 8f 6b bd e9 cc 66 be
       -0.20363867 -0.037501134 -0.05750997 -0.22539105
0003c0 c5 10 1b 3e e0 60 9c be c8 04 33 be 01 67 be bb
       0.15143116 -0.3054266 -0.17482293 -0.005810619
0003d0 fd ce 51 3e 2b b1 84 be e8 e5 02 bf 41 2d c2 3e
       0.20489116 -0.25916418 -0.5113206 0.3792515
0003e0 9c 02 75 3e bc 17 98 bc 16 10 0c bf 42 b1 b6 3e
       0.23926777 -0.018566005 -0.54712045 0.35682112
0003f0 ea d4 26 3d f0 e7 c9 be 59 1b 98 3e be f6 91 bd
       0.040730394 -0.39434767 0.29708365 -0.071271405

weight_hh_l0 f4 [192, 64]
000000 7c 3c 38 be 53 04 1e 3d 2f 5f 05 be 22 2d 68 bd
       -0.17991823 0.038578343 -0.13024591 -0.056683667
000010 20 ba f8 3c f5 96 6d 3e 4d 1a 8f 3d c1 c2 9a bc
       0.030362189 0.23202117 0.06987438 -0.018891694
000020 c4 08 24 bc 46 2a 57 3e 87 d9 05 3e d3 f3 2e be
       -0.0100118555 0.2101222 0.13071261 -0.17085199
000030 b7 54 31 3e b6 7f 44 bd ce a7 9e bc 78 ed 1a 3b
       0.17317472 -0.047973357 -0.019367125 0.0023640078
000040 cc 33 21 be b3 ff b9 bd a2 33 2d 3e e4 bf 74 be
       -0.15742415 -0.09081974 0.16914228 -0.23901325
000050 df 41 05 3e 4a d5 36 be e3 33 f4 bc ec be 01 bd
       0.13013409 -0.17854801 -0.029809898 -0.031676218
000060 93 96 1e be c6 81 46 3d 8a cb 01 be 86 c7 1c 3e
       -0.15487127 0.048463605 -0.126753 0.15310487
000070 b1 64 31 3e af 9d 49 ba 51 a8 b1 bb dd 97 81 bd
       0.17323567 -0.0007691038 -0.005421676 -0.06327794
000080 46 5d ef bd 1b bf a9 3d 11 f7 f7 3c 08 a2 32 3c
       -0.11687712 0.082884036 0.030269178 0.010902889
000090 06 20 7a 3c e8 3a 11 3d e1 3c e1 3d 54 80 e5 bc
       0.015266424 0.035456568 0.1099794 -0.028015293
0000a0 98 f4 a5 3d 96 29 69 bd d1 62 e7 bd 15 24 90 be
       0.08103293 -0.056924425 -0.112981446 -0.28152528
0000b0 d2 bb 20 3d 2b 48 fd bc 6d b9 0a bd cd 22 67 3c
       0.03924162 -0.030918201 -0.033868242 0.014107418
0000c0 e5 c3 a6 bd 8e 93 aa bd 4f 84 40 3b 03 62 c5 3d
       -0.08142833 -0.08328925 0.0029375737 0.09637835
0000d0 2e 3e a4 3d 0d e5 a6 3d a2 8a 45 3e 4e 37 9e bd
       0.08019672 0.08149157 0.19291165 -0.07725392
0000e0 8c a4 81 bc 62 da 66 be 2e 8b 68 3e 65 31 64 be
       -0.015825532 -0.22544244 0.22709343 -0.22284468
0000f0 ee 5f f3 3d b1 46 fb 3c 97 81 59 be 40 2d 7e be
       0.118835315 0.030673357 -0.21240841 -0.24821949
000100 96 59 9d bd ec 8d 69 be d1 e2 e2 3d c6 31 0a 3e
       -0.07683103 -0.22808045 0.11078418 0.1349555
000110 88 96 22 be 9c a5 cc 3d ea 13 24 3d 53 d2 0a 3c
       -0.15877736 0.09992525 0.040058054 0.008472997
000120 a3 25 50 bc 9e fb 60 3d e7 03 66 3d 46 7b 17 be
       -0.012704286 0.05492746 0.056156065 -0.14793119
000130 5e 45 5d 3d 34 bd 65 3e bf d0 30 3e 48 39 cd bc
       0.05402123 0.22435457 0.1726713 -0.025051728
000140 9b 55 dc bd 37 34 c2 3d 65 58 cd 3d fe 26 a4 3b
       -0.107585154 0.094826154 0.100266255 0.005009531
000150 65 67 00 be a3 ef c4 3d c1 74 b7 bd 8e f0 34 be
       -0.12539442 0.096160196 -0.08957816 -0.1766989
000160 0e 75 cc bd 4e a8 bc 3d 7d e6 84 3c 70 42 0a 3e
       -0.09983264 0.09211789 0.016223187 0.13501906
000170 96 0c 61 bc cf fe 60 be 28 bf 25 3d 47 9f 03 bc
       -0.013735911 -0.21972202 0.040465504 -0.00803358
000180 24 72 91 bc 84 f3 3d 3d 27 5a 5e bd 2a 30 5a bd
       -0.017754622 0.046374813 -0.054285195 -0.05326859
000190 12 56 d1 3d 61 22 6f be f3 50 09 3e 8e a9 c9 bd
       0.10221495 -0.23352958 0.13409786 -0.09846793
0001a0 59 e1 ce bd ea 72 31 3c 59 8b 0f be 89 a0 48 be
       -0.101015754 0.01083062 -0.14018 -0.1959249
0001b0 55 1f 25 3c 3b 04 d2 bd 6a ad 68 bb 24 84 01 3e
       0.010078271 -0.10254713 -0.0035503753 0.12648064
0001c0 95 15 5a bd e8 c4 b0 be a5 55 40 3b 1e 53 d0 be
       -0.05324324 -0.34525228 0.0029347923 -0.40688413
0001d0 1f 26 b7 bd 58 db ba 3d d7 6b a0 bd 14 b2 c9 3d
       -0.08942818 0.09123868 -0.07833069 0.09848419
0001e0 24 58 8b bd 0d 35 5e 3b 5f e9 59 3d 98 59 cc 3e
       -0.06803921 0.0033906132 0.053201076 0.39912105
0001f0 61 72 b5 bb eb b4 13 3d aa 0d 34 3e b8 a1 8a 3d
       -0.0055373167 0.03606121 0.17583337 0.06769127
000200 e7 17 0a be d7 df 9e bc 81 ab 58 be 9d 66 ac 3d
       -0.1348568 -0.019393845 -0.21159174 0.084180094
000210 13 41 e1 3d f2 6b 02 3e 08 84 38 bc 09 6f a2 3c
       0.1099874 0.1273649 -0.011261947 0.019828336
000220 1c ce 19 3d 73 31 a9 3c 3d 7a ab 3e 1c 63 0c bd
       0.037550077 0.020653462 0.33491698 -0.034274206
000230 85 34 8b 3d fb 76 35 bb 22 a8 92 3c 2e 6c ef 3d
       0.06797127 -0.0027689326 0.017902438 0.116905555
000240 91 a7 79 be a3 82 43 be c9 5e 83 bd 49 d2 c1 3d
       -0.24380328 -0.19092803 -0.06414563 0.09463937
000250 95 51 7a 3e 5b 8c 06 bd 5f be 55 3d c4 43 3e 3c
       0.24445184 -0.032848697 0.052183505 0.011612836
000260 2d 54 3b be 3b 7d 48 bd b2 e7 24 3e 58 6e fc bd
       -0.1829383 -0.048947554 0.1610401 -0.12325734
000270 10 ea e1 3c 48 2b 6b be e7 e5 e1 bd 78 cb 0f 3e
       0.02757743 -0.22965729 -0.110301785 0.14042461
000280 5a fd d1 be 0f 94 05 be 5b 80 b0 3b 7a 12 b9 3d
       -0.41013604 -0.13044761 0.005386395 0.09036727
000290 69 c0 de bd 55 f9 a3 3d 57 e3 1f 3e 05 98 95 3e
       -0.10876543 0.08006541 0.15614067 0.29217544
0002a0 ec ed 48 3d 8d 64 4d 3e 4e 28 a0 be be 08 d9 3c
       0.049055025 0.20057888 -0.3128075 0.026493426
0002b0 cf e7 33 3e 18 b6 ea bd 87 f8 60 bc e7 a9 a2 3d
       0.17568897 -0.11460513 -0.013731129 0.079425626
0002c0 2f a5 0b be 2c 23 73 3c 1b e3 ad be 2d 9c 61 3c
       -0.13637231 0.014839929 -0.3396233 0.013770145
0002d0 af db 49 be 5b e4 8e 3d 4d 0a 7a bd 28 47 67 3d
       -0.19712709 0.06977149 -0.06104498 0.056464344
0002e0 e4 6c 35 3e 56 6e c6 3a 4d 22 f0 3d a1 0a 6c be
       0.1771732 0.0015139084 0.11725292 -0.2305093
0002f0 9a fd a9 bd e6 ba 79 3e 56 31 1a 3e 64 a3 54 3e
       -0.08300324 0.24387702 0.15057883 0.20765454
000300 49 ab a9 3d ad a0 80 3e fe e6 9b bb 90 c3 21 bd
       0.08284623 0.25122586 -0.004757761 -0.039493144
000310 05 71 99 3e 0b 04 32 3e dd 4d f3 3c ed be 04 3e
       0.2996904 0.17384355 0.029700214 0.12963457
000320 fd ac 35 3e de 15 aa 3d 5d 7e ce bd 23 48 95 bc
       0.17741771 0.08304952 -0.10082696 -0.018222874
000330 98 17 98 3b 27 0a ee 3d d0 dc 85 bd 06 35 12 3e
       0.0046414845 0.1162303 -0.06536257 0.1427804
000340 d1 df 9c bc 61 ba 77 bd 2f af 8c 3c c0 58 af 3e
       -0.019149693 -0.06048048 0.017173378 0.34247398
000350 40 d1 3d 3d 19 e2 87 3e 75 46 33 be 74 b1 b1 bd
       0.046342134 0.26539686 -0.17507346 -0.086764246
000360 22 81 bc bc 65 26 97 bd 51 c3 e3 bc 4e c8 27 be
       -0.023010794 -0.0738037 -0.027803095 -0.16385004
000370 9c 8b ca ba e9 42 72 3e 01 9c 13 3e ab e9 ef bc
       -0.0015452984 0.23658337 0.1441498 -0.029286226
000380 b9 9a c4 be 7b 32 94 3e 48 37 60 bd 41 33 41 3c
       -0.38399294 0.28944764 -0.05474022 0.011792005
000390 df c9 10 bc 64 44 a2 3d 0d 0b fd 3d f2 72 b0 bc
       -0.008837192 0.07923201 0.123556234 -0.021539185
0003a0 be de e6 bc d3 53 d9 3d 67 03 00 3e 3d dd e9 bd
       -0.028182384 0.10611691 0.12501298 -0.11419151
0003b0 53 7b 85 3e 2f 1e b6 bc 6a 34 e9 3d 12 80 da be
       0.2607065 -0.02223119 0.1138695 -0.42675835
0003c0 2e 1a 5c bd 0b c4 96 be 03 01 78 be e1 48 69 bd
       -0.053735904 -0.29446444 -0.24219136 -0.05695427
0003d0 de 75 0b 3d 7d e3 10 be 36 b4 47 bd 01 b8 70 3c
       0.034047954 -0.1414928 -0.048755847 0.014692307
0003e0 8b ff d4 bd 16 ad be 3d ff eb cc 3d 42 0e 87 bd
       -0.104003035 0.09310357 0.1000595 -0.06594516
0003f0 73 28 d5 bd 5e 9b 19 3d d4 bb a8 3d 3a 2d 56 3e
       -0.10408106 0.037501685 0.0823895 0.2091569

bias_ih_l0 f4 [192]
000000 cb ec 2f 3d fd 8b 47 3c e1 7b 77 bd 3a 6d 1b 3e
       0.042950433 0.012179372 -0.060420875 0.15178385
000010 61 ea 84 3d 8f d0 81 3b 9a e9 08 3e 8a 3f ac 3c
       0.06490017 0.0039616297 0.13370362 0.021026392
000020 43 1e cb bc ef 7c 41 3d 3d 24 2a 3e da 41 e1 3d
       -0.024794703 0.047238287 0.16615386 0.10998888
000030 fd cd 07 3d d0 f1 f2 3d 55 d8 69 3e 56 58 cc 3d
       0.03315543 0.11862528 0.2283643 0.09977786
000040 0f 04 bf bd 3a d4 0d 3e 70 fa 0f 3d 4e f8 02 3d
       -0.09326946 0.1385049 0.035150945 0.031975083
000050 09 db 30 3c 50 aa 6c bd 1d 8f 33 3e 91 03 5e 3e
       0.01079441 -0.05777961 0.17535062 0.21681048
000060 b6 9d b7 3d 67 81 cb 3b 79 0c b5 bd 66 9b c5 bd
       0.08965628 0.0062104943 -0.088402696 -0.096487805
000070 d5 d0 c8 bd 0c f7 da 3d c1 f0 4b bc 8e 3c be 3d
       -0.098054565 0.10691652 -0.012447537 0.09288894
000080 82 94 84 3c 15 b4 84 3d 11 62 c5 3d e6 07 67 bd
       0.016184095 0.064796604 0.09637845 -0.056404017
000090 86 0c 09 3d 65 f0 5e 3e 3d 45 11 3e 97 3f cf 3d
       0.03345921 0.2177139 0.14186569 0.10119551
0000a0 fb af e6 3d f1 ed 42 3e cb b1 21 3c d4 28 e5 bc
       0.11264034 0.1903608 0.009869049 -0.02797357
0000b0 14 ad c2 3d ba 2d 3e bc 1a c0 c2 3c e1 e1 fa 3d
       0.09505668 -0.011607582 0.023773242 0.12250114
0000c0 1a 37 73 3d c2 ea 7a 3d 0b b2 60 3c 42 54 f5 3a
       0.05937872 0.06125904 0.013714324 0.0018717127
0000d0 4a 8c 11 bd ed 0f ba bb 80 1b a9 bd 6f f5 91 bc
       -0.03553418 -0.005678168 -0.08257198 -0.017817227
0000e0 ee 95 93 3e c7 f6 62 3e 23 ef 4b 3d eb 1e 12 3e
       0.28825325 0.2216445 0.049788605 0.14269607
0000f0 0c f5 18 bd 8a 27 16 3e a8 82 8e 3b 01 28 2f be
       -0.03734307 0.1466352 0.0043490715 -0.17105104
000100 47 fa c3 be 38 20 9d be 6a 28 93 be e1 a8 ba be
       -0.38276884 -0.30688643 -0.2874177 -0.3645697
000110 4e e3 ae be c0 40 fb be 32 4a 18 be 18 84 39 bd
       -0.34157795 -0.49072838 -0.14872053 -0.04529199
000120 45 2e 58 be 98 2a b9 bd 0d 30 76 3c 36 79 27 bf
       -0.211114 -0.09041327 0.015026105 -0.6541933
000130 6c 96 17 be 75 16 b6 be 2a 11 b5 be 96 32 94 be
       -0.14803475 -0.35564008 -0.35364658 -0.28944844
000140 2b 11 06 bf ed 76 9f be 77 d6 bc be 65 a0 33 be
       -0.52369946 -0.3114542 -0.36882374 -0.17541654
000150 33 08 25 bf 6f 58 45 be 76 bf 89 be d1 f6 8c be
       -0.64465636 -0.19272016 -0.26903886 -0.27532056
000160 df 9f 8a be 10 36 d1 be 89 2d c6 be e1 2f 01 bf
       -0.27075097 -0.4086156 -0.38706616 -0.5046368
000170 92 5c e0 be 11 92 8b be ff bf c8 be 5a c8 1a be
       -0.43820626 -0.27259877 -0.3920898 -0.1511549
000180 6a 8c 88 be a2 ca aa be ed 80 f2 be df 8f 26 3e
       -0.26669627 -0.33357722 -0.47363988 0.1626582
000190 01 48 1c bf 7a 93 16 bf b7 dd df bd 0d 78 cf be
       -0.6104737 -0.5881878 -0.109309606 -0.4052128
0001a0 c7 f7 ce be 6c 25 49 be 20 90 8d be ca ec aa 3d
       -0.40423414 -0.19643182 -0.2764902 0.08345945
0001b0 e4 0c ce be a4 7f 16 be 19 b7 e5 be b3 3c 43 bf
       -0.4024421 -0.14697129 -0.44866255 -0.76264495
0001c0 66 7c 6a be db 23 ff be d8 1c 02 bf 08 8a ce be
       -0.22899017 -0.49832043 -0.5082526 -0.40339684
0001d0 05 84 a6 be 32 a6 93 be d0 a8 bb bd ea 21 66 be
       -0.32522598 -0.28837734 -0.09163058 -0.22473875
0001e0 5e aa 94 be 96 dc 6d be 93 90 11 bf 62 fc 4a be
       -0.2903623 -0.23228678 -0.5686123 -0.19822839
0001f0 0a 67 44 bf 78 54 4f be b2 be d5 be 0a 44 74 be
       -0.76719725 -0.20247066 -0.4174705 -0.2385408
000200 db 7d 31 be 73 03 8b bd e0 2f a9 bd c0 1e 20 3e
       -0.17333166 -0.06787767 -0.082610846 0.1563673
000210 62 f4 c0 bd 8d 10 6f 3e 55 0b 1f 3e b2 8a 21 bc
       -0.09421612 0.23346157 0.15531667 -0.009859728
000220 cb 2f 32 3e bd 17 e5 bd c9 ec e6 3c 8b 79 35 be
       0.17401044 -0.11186168 0.02818908 -0.17722146
000230 69 25 78 3d b5 4b ab bd 65 04 30 3e 33 d5 22 be
       0.060582552 -0.08364049 0.17189176 -0.15901642
000240 fe 79 e5 bd f2 5a 6c be 0a 81 ad 3d a2 fe 8e bd
       -0.11204909 -0.23081568 0.08471878 -0.06982161
000250 b0 fc 37 be e1 8c e4 3b 58 87 5e bd 45 4f 7c 3e
       -0.17967486 0.006974802 -0.054328293 0.24639614
000260 c5 20 14 3e 82 9e 75 be 17 66 e8 bd a1 a1 59 3e
       0.14465626 -0.23986247 -0.11347597 0.21253063
000270 d3 51 e5 3d 49 30 11 be 5e 2a 0e 3e 74 c7 14 3e
       0.11197247 -0.14178576 0.1388335 0.1452921
000280 f7 9f 2c 3d 40 c4 0c 3e 9b 33 86 be a5 15 b8 3d
       0.042144742 0.13746738 -0.26211247 0.08988503
000290 3b a2 03 bc b2 74 b0 3d c6 43 48 be 97 42 96 be
       -0.008034284 0.08616008 -0.19557104 -0.2934768
0002a0 1b 31 4c be 78 3d bd bc 18 72 22 3e c5 37 a2 3c
       -0.19940607 -0.0231006 0.15863836 0.019801984
0002b0 29 33 91 3e 56 65 28 3e b8 78 07 be 46 81 17 be
       0.28359345 0.16444907 -0.13229644 -0.14795408
0002c0 c8 c4 28 bd 60 62 52 be 67 45 5e 3b 8b 51 f3 3d
       -0.04120329 -0.2054534 0.0033915879 0.118807875
0002d0 d7 cc 5e 3e a1 08 bb 3c ca 6f 1c 3e 2a ae ba bd
       0.21757828 0.022831263 0.15277019 -0.091152504
0002e0 f2 da 83 3d a5 d5 06 3e 30 5e 94 3c 1d dc 01 3e
       0.06438245 0.13167436 0.018111318 0.12681623
0002f0 41 77 f0 3d 04 64 c7 3d e2 44 d1 bd 68 5e 80 be
       0.11741496 0.09735873 -0.102182165 -0.25072026

bias_hh_l0 f4 [192]
000000 e7 62 0a 3e 05 45 8d bc 13 19 cf 3d c9 15 5b 3d
       0.13514291 -0.017244825 0.101122044 0.053487573
000010 7f 4c 30 3e 2b 26 e8 bc 27 7e 95 3d e7 23 42 3d
       0.17216681 -0.028338512 0.07299452 0.04739752
000020 ff cf 31 3e 3e 28 b6 bd ed 31 be 3c 91 8e 8d 3d
       0.173645 -0.08894394 0.023217166 0.06911958
000030 c7 3b 7a 3d 4e bd 1e 3e 6e 5e 01 3e 9e 77 02 3d
       0.061092164 0.15501902 0.12633678 0.031852357
000040 f4 a4 08 be 5d 92 3e 3e 88 78 6a 3e d6 fa 0b 3e
       -0.13344175 0.1861052 0.22897542 0.13669905
000050 7d c6 19 bd 37 aa 03 3e e8 7b 7e 3d a7 b8 80 3e
       -0.03754281 0.128579 0.062129885 0.2514088
000060 a7 45 60 3d ab a8 6b 3e 2c fb a5 ba df bb fa bd
       0.054753926 0.2301356 -0.0012663356 -0.12242865
000070 c7 c5 86 bd 97 86 84 3d 30 88 a6 bd 1e a6 81 3e
       -0.06580692 0.064709835 -0.081314445 0.2532205
000080 c1 6a 94 bb 99 67 8b 3d 76 1f 2d 3e e2 24 5e bd
       -0.0045293276 0.06806869 0.16906533 -0.054234393
000090 f2 be 61 3e a6 db 61 3e 3c 6d 96 3d cb 22 10 3c
       0.22045496 0.22056445 0.073450536 0.008797358
0000a0 11 d9 a5 3d 49 d4 ae 3c c3 2d 09 3e 04 4f 05 3e
       0.08098043 0.02134146 0.13396363 0.13018423
0000b0 87 61 0c 3e cf 16 9c 3d 03 b1 8c 3d 5a 10 df 3d
       0.13709079 0.07621538 0.068697 0.10891791
0000c0 d5 f3 e7 3c 31 b1 9a 3d 16 24 5e 3d 44 3a 27 3e
       0.02831451 0.07553328 0.054233633 0.1633082
0000d0 83 b3 77 bd b0 10 2b 3c 3f 78 ea 3d 26 5f a1 3c
       -0.06047393 0.01044099 0.11448716 0.01969869
0000e0 67 62 7a 3e 3f 9c 9e 3c aa 8a 7f bc 85 03 5f 3e
       0.244516 0.019361613 -0.015597025 0.21778686
0000f0 a2 91 fc bd cf 9f 92 3e f8 90 27 bc fa 74 4a be
       -0.12332465 0.2863755 -0.010227434 -0.19771186
000100 75 74 05 bf aa 26 8f be 6d 5a c8 be 0d e1 d3 be
       -0.52130824 -0.27959186 -0.3913149 -0.41382638
000110 41 d5 dd be b4 0f e3 be 95 07 9f be 64 df a6 bd
       -0.43326762 -0.44347918 -0.31060472 -0.08148077
000120 52 c1 d4 bd 9e 7c 80 3d 1d e9 d9 bd 52 f8 22 bf
       -0.103884354 0.06273769 -0.10640166 -0.63660157
000130 41 01 10 be d0 08 c7 be ff 9a a6 be 8a 57 c9 be
       -0.14062978 -0.3887391 -0.32540128 -0.393246
000140 9c ef 9b be bc 73 b0 be c5 a1 d0 be 87 be 35 be
       -0.30456245 -0.34463298 -0.4074842 -0.17748462
000150 4a d1 26 bf 9f 7f e2 bd 39 97 98 be bc 3d 37 be
       -0.651631 -0.11059498 -0.29802874 -0.17894644
000160 47 fd ad be f1 9b 76 be 92 02 83 be 68 13 e6 be
       -0.33982298 -0.24082924 -0.25587898 -0.4493668
000170 d0 6a 09 bf b7 24 bc be 37 39 a9 be 03 b6 6f be
       -0.5367861 -0.3674676 -0.33051464 -0.23409276
000180 55 1a d8 be 7d c4 2a be 9f f9 1d bf ec 02 4e 3e
       -0.4220759 -0.16676517 -0.61709017 0.20118302
000190 e6 c8 3d bf ba 15 25 bf d2 35 54 be 06 c2 a5 be
       -0.7413467 -0.6448628 -0.20723656 -0.3237459
0001a0 8d ef 8b be e0 d5 d8 bd 06 b5 c0 be 89 46 02 be
       -0.273312 -0.105876684 -0.3763811 -0.1272222
0001b0 b6 10 a0 be 26 27 99 bc 73 31 b7 be 65 11 58 bf
       -0.3126275 -0.018695425 -0.35779914 -0.8440154
0001c0 94 27 80 be bc 9e da be d0 9f 1e bf a3 09 4c be
       -0.25030196 -0.4269923 -0.61962605 -0.19925551
0001d0 31 f1 81 be 70 ae ff be 06 90 aa bd e1 29 27 be
       -0.25379327 -0.49937773 -0.083282515 -0.1632457
0001e0 c4 9b 91 be 82 e2 a9 be 88 3b 04 bf b0 40 79 be
       -0.28439152 -0.33180624 -0.5165334 -0.24341083
0001f0 71 49 3c bf 97 fb 7e be 4e ec 9e be ad 77 00 be
       -0.7354956 -0.24900661 -0.3103966 -0.12545653
000200 f8 0a f3 bd bd cc f7 3d b0 c7 0d 3e c7 a2 bc 3e
       -0.118673265 0.120995976 0.13845706 0.3684294
000210 e3 48 62 be a9 99 5b bd 15 fe c0 3e 4e d1 1b be
       -0.22098117 -0.05361334 0.3769385 -0.15216562
000220 de c7 23 3e 1b 3f d3 bd ae 89 8a 3d dd a2 4b 3d
       0.15994212 -0.10314771 0.067645416 0.049715865
000230 04 90 b9 3d 52 8c 7b be 33 3e 45 3e 7a fc 1f be
       0.09060672 -0.24565247 0.19262008 -0.15623656
000240 7d 3f 36 3e 9c dd 77 be 6e 53 55 3e 79 be 0a be
       0.17797656 -0.24205631 0.20832607 -0.13549222
000250 44 d5 bc 3d 20 ff 00 3d 0b cd 04 3e 56 70 a4 3e
       0.09220365 0.031493306 0.12968843 0.32116956
000260 97 02 a3 3e 78 dc 3e be 72 77 ec bd d3 1d 7a 3d
       0.31837913 -0.1863879 -0.1154622 0.0610636
000270 ff f2 3b be d5 e0 1f be f0 b5 09 3c 19 ea 9b 3d
       -0.18354414 -0.1561311 0.008405194 0.0761301
000280 e4 3e e4 bd 45 45 0f 3e c2 14 c1 be 26 f9 b0 bc
       -0.11144808 0.13991268 -0.3771115 -0.021603178
000290 b4 d4 94 bb b9 49 49 3e 57 d7 0b 3d f9 04 4c be
       -0.0045419578 0.19657029 0.03414091 -0.19923772
0002a0 f3 2f 41 be 5b 1d 55 be ac 07 36 3e 2f 01 be bc
       -0.18865947 -0.2081198 0.17776364 -0.023193924
0002b0 6d ca 5a 3d c5 75 f8 3c b4 f5 ba bd 44 77 c7 bd
       0.053415705 0.030329594 -0.091288954 -0.09739545
0002c0 1c ae 20 3e 4a 57 96 be 0d d8 42 3e 2e a7 8e 3c
       0.15691417 -0.2936347 0.1902773 0.017413702
0002d0 5f eb 47 bd 6f cd 0f be c6 66 fd 3b d0 d9 c4 3c
       -0.04880845 -0.1404321 0.007733199 0.024029642
0002e0 c6 03 3a 3e 30 9a 05 3e aa 79 98 bd 30 a7 0d 3e
       0.18165502 0.13047099 -0.074450806 0.13833308
0002f0 09 f6 62 3d 06 06 84 3e 36 ef 57 3e ec 26 d9 3c
       0.05541042 0.25785846 0.21087345 0.026507817

weight_ih_l1 f4 [192, 64]
000000 7d bb 0f be 48 d5 75 be ec aa 71 bd bd fa ce 3c
       -0.14036365 -0.24007142 -0.059000894 0.025266046
000010 07 b2 ad bd 88 dd ce bd d3 fc a5 bc 68 18 45 3d
       -0.08481222 -0.101008475 -0.020262158 0.04811898
000020 87 cf 40 3e 0c 35 10 be 8b 7e 2f 3d b5 6c 51 be
       0.18829165 -0.14082736 0.04284529 -0.20451625
000030 f1 ce 6f 3d cd 35 62 be c0 8a a7 3d 4a 6f 8f bd
       0.058546964 -0.22090836 0.08180761 -0.070036486
000040 68 54 e0 3d 0e 0d 8c 3d 67 f3 8d 3d a2 6c 3e 3d
       0.10953599 0.068384275 0.06931191 0.04649032
000050 dc f6 bf bd fe ee 9b 3b 4f 66 b1 bd 85 0e 83 3e
       -0.093732566 0.0047587147 -0.08662092 0.25597015
000060 52 f1 d8 bb 9e 77 95 3d 7a 82 e7 3b 5f f2 11 be
       -0.0066205645 0.07298206 0.0070651146 -0.14252613
000070 e9 bb 43 be cd 06 89 3e e1 1f 8e 3e 5c de c4 bc
       -0.19114651 0.26763 0.27758697 -0.02403181
000080 ee c5 19 3d 57 81 ae 3b cf 18 19 3e 29 ab 3c be
       0.037542276 0.005325477 0.1495087 -0.18424667
000090 57 82 e4 3c 19 ed 66 3d f4 0e 2a bd 49 33 5b bd
       0.027894182 0.056378458 -0.041518167 -0.053515706
0000a0 4a f9 14 3d df ac 5c bd a9 18 de 3d 63 57 9f be
       0.036370553 -0.0538758 0.10844547 -0.31121358
0000b0 cd 93 be 3c 15 ad e0 bd cf ef 1c 3d 2d ca b9 be
       0.023263836 -0.10970513 0.038314637 -0.3628706
0000c0 e3 b1 b3 bd c5 1f fa bd 39 51 69 be 82 df 3b 3d
       -0.087741636 -0.12213091 -0.2278489 0.04586745
0000d0 35 22 0a be 0d 98 c3 3e a7 1e 4e 3e 9b 79 21 bd
       -0.13489611 0.38201943 0.2012888 -0.039422613
0000e0 e7 3a 85 3d b5 4f 78 bc c3 ea e9 3e 0c a9 51 be
       0.06505375 -0.015155722 0.4568692 -0.20474643
0000f0 23 3b 22 3e d3 dc 46 3d 57 d1 36 be 57 26 2c be
       0.15842871 0.048550438 -0.17853294 -0.168115
000100 2f 81 4e bd 09 f9 40 be 2b 64 03 be 11 e2 59 3e
       -0.050416168 -0.18845 -0.1283118 0.21277644
000110 99 c1 75 3c f4 f8 4e 3d 6b 0a fb bd b1 04 41 bd
       0.014999771 0.05053039 -0.122578464 -0.047123615
000120 66 5b b4 3d 35 d7 6e 3c 5c 6d 84 3d 24 aa 09 3e
       0.08806495 0.014577677 0.06466171 0.1344381
000130 3c 67 32 3c 50 93 d9 3d 53 f8 ed bd 6a b2 08 bc
       0.010888871 0.10623801 -0.1161963 -0.0083433185
000140 2a be 05 3e b3 9e 35 be 01 55 73 bd 98 7b 4b be
       0.13060823 -0.1773632 -0.059407238 -0.19871366
000150 4b 32 fb bd 6f e8 98 bd 94 19 e0 3d 68 1a 9b bd
       -0.12265452 -0.07466208 0.10942379 -0.07573396
000160 12 04 46 3c ae 10 c8 3d 5b 80 7b bd e3 83 2c 3e
       0.012085931 0.097688064 -0.061401706 0.16847186
000170 4d 83 c2 bd e2 87 82 bd 9b 34 a2 bb be 4e b5 3d
       -0.094977 -0.06373574 -0.0049501187 0.088529095
000180 20 12 fe 3d b1 81 12 3e bc 90 07 b8 4b 9e 88 3d
       0.12405801 0.14307286 -3.2321303e-05 0.06670817
000190 96 85 46 3e 88 ba 99 3d dc e6 95 bd 25 49 b1 bc
       0.19386896 0.07506281 -0.073194236 -0.021641323
0001a0 0e db 72 be 4d 1a 9a 3b 09 c7 06 3d 17 52 df 3d
       -0.23716375 0.0047028423 0.03290466 0.10904329
0001b0 84 63 ce 3d 8b d6 a7 3e f1 47 70 3d d0 88 b8 ba
       0.10077575 0.3278087 0.05866236 -0.0014078859
0001c0 65 1c bb 3d 98 d6 41 3d 19 c1 ff bd b9 56 af 3d
       0.09136275 0.047323793 -0.12488002 0.08561463
0001d0 34 33 e9 3c d6 43 03 be f1 dd f9 bb de 53 7b bd
       0.028466798 -0.12818846 -0.0076253344 -0.06135928
0001e0 aa 45 a9 bc 1b 42 30 3e a7 b1 11 be 33 34 ed 3c
       -0.020663101 0.17212717 -0.14227925 0.028955555
0001f0 0a 1b 43 3e da a8 ca bd 75 e7 1f be 43 36 03 bd
       0.19053283 -0.09895487 -0.15615638 -0.03203417
000200 39 7c 21 3e f8 9d a0 bd b3 b7 1c 3e c9 3f 57 3d
       0.15770043 -0.0784263 0.1530445 0.052551065
000210 e7 0f aa bd a2 94 0e be 1d 6e 21 be 90 ad 84 bd
       -0.083038144 -0.13923886 -0.15764661 -0.06478417
000220 0a 33 0a 3e 97 6c 83 bd 86 8f d2 bd 4e 9d b1 3e
       0.13496032 -0.06417196 -0.10281281 0.34690326
000230 81 38 6a 3c ed f4 bd be f6 73 93 3e 48 e0 c3 bb
       0.014295698 -0.37100926 0.2879941 -0.005977664
000240 af b0 8f bd 67 fd 26 be c2 dc 86 bc 31 9f c4 be
       -0.070161216 -0.16307603 -0.016462687 -0.38402703
000250 e8 b7 27 be 89 97 d4 3d 99 04 5d 3e 0c 99 42 3e
       -0.16378748 0.103804655 0.21583785 0.19003695
000260 e4 78 6b 3d da 0b cd 3d 06 1a 01 3d c8 f4 9c 3d
       0.057488337 0.10012026 0.03151896 0.07663876
000270 f2 a0 d8 bd 59 ac ee bd 0c 3d 24 3c 06 34 be 3e
       -0.10577573 -0.116539665 0.01002432 0.37149066
000280 85 c3 91 3d 21 40 e2 bc 34 01 8c 3e f3 16 45 3d
       0.071173705 -0.02761847 0.27344668 0.04811759
000290 e6 5b 0c 3d d5 7e b0 bb 41 10 7f bc 31 70 22 bd
       0.03426733 -0.0053862133 -0.01556784 -0.039657775
0002a0 04 0e de bd 29 0a 0f be 39 c4 47 3e 05 46 af 3c
       -0.10842517 -0.1396872 0.19508447 0.021395693
0002b0 c0 4d 0a 3e b0 f2 d1 bd 71 fd 62 3e db dd 05 3e
       0.13506222 -0.10251367 0.22166993 0.13072912
0002c0 1c 48 98 bd fa ed 97 3c ef 0b 46 3e ee cd b4 3d
       -0.07435629 0.018546093 0.1934049 0.088283405
0002d0 ca 6d 56 3e e5 61 69 be 79 27 60 be b6 76 8a 3e
       0.20940319 -0.2279125 -0.21890058 0.27043694
0002e0 1d 90 11 3e d9 00 13 3d fd ae ba 3d e0 7e 84 bd
       0.14215131 0.03588948 0.091154076 -0.06469512
0002f0 72 60 cd bd e6 25 83 3e 7c a6 62 3d 3a cc a1 3d
       -0.10028161 0.25614852 0.055334553 0.07900281
000300 11 5b 84 bd 1d de 82 be bd b7 33 bd 71 bd d7 bd
       -0.06462682 -0.25560084 -0.0438764 -0.1053418
000310 3d c6 c0 be 21 34 6c be 8c 05 46 be 4d 51 0f be
       -0.37651244 -0.2306676 -0.19338053 -0.13995858
000320 6a d6 54 3d 38 e5 42 3b 0e cb 7c 3d 96 05 01 3d
       0.051962294 0.0029738676 0.061717086 0.031499468
000330 54 ed 64 bd bf 28 94 3e 1e 3e 82 3e 6a c0 73 bd
       -0.055890396 0.28937337 0.25438017 -0.059509672
000340 e0 a1 02 3e 53 40 6f be 7a 14 28 be a3 1f ad 3d
       0.12757063 -0.23364381 -0.16414061 0.084533
000350 4a fd da be 7f 30 b7 3e eb ec 8e 3e 29 93 cc bd
       -0.4277137 0.35779187 0.2791513 -0.09989006
000360 d9 0c 82 3e 69 4d 02 3e 9d 81 03 3e f2 26 fa bd
       0.25400427 0.12724842 0.12842412 -0.122144595
000370 81 c2 ec bd 69 da 2e 3d c8 bf d5 3e 47 8d 76 3e
       -0.11560536 0.04268876 0.4174788 0.2407733
000380 f6 7c 95 bd 35 ad 3b 3e a7 34 ac 3d a4 74 54 39
       -0.07299225 0.18327792 0.0840848 0.00020261348
000390 e2 01 c8 bd f8 4d eb 3b ea 0f 91 bc 4b 6a 57 bc
       -0.09765984 0.0071809255 -0.017707784 -0.013147901
0003a0 c5 0d 53 3e 5c f5 d2 bc 11 c8 a7 bd 1f e9 3d bc
       0.20610721 -0.025751762 -0.081924565 -0.011591225
0003b0 3d 83 ce 3e eb a3 27 be 67 a9 a4 be 30 9b 9f bd
       0.40334502 -0.16371123 -0.32160494 -0.077932715
0003c0 d7 20 ee be 52 fd ae be 00 ea f1 bd 59 d6 58 be
       -0.4650943 -0.34177643 -0.1181221 -0.21175517
0003d0 b1 dd ba be 86 bd 19 bc 6d 6f 8d 3e 7d 3b cd 3c
       -0.36497262 -0.009383565 0.27624074 0.02505278
0003e0 d7 f6 08 be 36 dc cc 3c 5a 01 94 3e 09 11 98 3d
       -0.13375412 0.025007349 0.2890728 0.07425124
0003f0 80 92 a6 3c 18 18 43 3e 8a b1 8d be ed 76 ba bc
       0.020333529 0.1905216 -0.27674514 -0.022761786

weight_hh_l1 f4 [192, 64]
000000 37 33 27 bd 00 88 c1 3c 87 e8 09 3e d2 1d 24 3e
       -0.040820327 0.02362442 0.13467608 0.16027
000010 96 04 ce bd d9 96 78 3d 1a b4 81 3e 69 fd fd bc
       -0.100594684 0.060690735 0.2533272 -0.031004624
000020 b5 01 85 3d 4a 80 1f 3e a1 fb 04 be 18 44 a2 3d
       0.06494466 0.15576282 -0.12986614 0.07923144
000030 b0 76 21 3d 98 72 a2 3b a5 6b 47 3e 92 8c 8a 3d
       0.03941983 0.0049575083 0.19474657 0.06765093
000040 25 38 f6 3d c9 e0 4a 3d 3a c6 12 3e 00 1b bf 3c
       0.120224275 0.049530778 0.1433343 0.023328304
000050 bc e9 d6 bc ad 0c c4 bd 54 80 cd bd b9 c1 b6 bd
       -0.0262345 -0.0957273 -0.10034242 -0.089236684
000060 f3 c3 c6 bd 79 fa 84 3d 15 e9 d3 3c 8b ff a2 3c
       -0.09705343 0.06493086 0.025867978 0.019897243
000070 b0 56 bd 3d 59 c7 c2 3b ea 4c c0 3d 4e 9e c2 bd
       0.0924505 0.0059441742 0.0938967 -0.095028505
000080 98 6d d9 bc 40 06 5b be 5c f0 65 be 50 ae 6b 3e
       -0.026541516 -0.21389103 -0.22454971 0.23015714
000090 cd 02 f6 bd ca e2 e5 bd 05 19 c6 3c 5a b4 3d bc
       -0.12012253 -0.11224897 0.024181852 -0.011578644
0000a0 e7 f5 0c 3d 38 83 e0 bd d9 8c 73 bc 80 b7 c0 bd
       0.0344142 -0.10962528 -0.014865124 -0.0941
0000b0 dd 02 62 3e a6 be 5f bd 84 2f ac 3d 1e f8 d1 3d
       0.22071405 -0.054625176 0.084075004 0.10252403
0000c0 4f 4b f6 3d 90 66 73 3d 6f d8 a1 bc cb 32 8c bd
       0.12026083 0.059423983 -0.019756524 -0.068456255
0000d0 27 8c 9f bd a0 4b a8 3d 71 e4 f7 3d 4b 03 26 3d
       -0.07790404 0.08217549 0.121041186 0.040530484
0000e0 80 2f 95 3d 09 00 5a 3d a0 52 27 bd 21 01 db 3b
       0.072844505 0.05322269 -0.04085028 0.006683484
0000f0 57 81 1e bd 40 09 df 3c 54 b5 78 bd b2 6e ef bd
       -0.038697567 0.02722609 -0.060719803 -0.11691035
000100 d5 3e b0 3d 1c f1 39 bc 74 9d 14 3d 53 80 1f 3e
       0.08605734 -0.011348989 0.03628297 0.15576296
000110 5b e9 15 3d 34 c5 1f be eb 85 09 3e e9 23 38 bd
       0.0365995 -0.15602571 0.13429992 -0.04495612
000120 26 4e 12 3d c7 98 09 3e cf 3a 96 3d 71 b6 5a 3e
       0.03571906 0.13437186 0.073354356 0.21358658
000130 99 53 ea bd 08 7b e3 bd 52 f3 a3 bd 72 3a ff bd
       -0.11441726 -0.11107451 -0.08005394 -0.124623194
000140 c3 c4 fc bd 1a 3f 7a 3c ee 48 e5 3e 6b 2e 64 3d
       -0.12342217 0.015273834 0.44782203 0.05570833
000150 e3 78 a4 be 08 b4 3b 3d 07 72 82 be 86 45 55 3d
       -0.3212348 0.045825988 -0.2547762 0.052068256
000160 39 f5 c1 3d 43 5e 16 be ba 59 2a be 65 2a 8b be
       0.09470601 -0.14684395 -0.1663579 -0.27180782
000170 7b 6b cd bd 4f 7e 1a 3e de 60 19 be db 35 41 be
       -0.10030266 0.15087245 -0.14978358 -0.188682
000180 40 81 b8 be a1 df 49 3d 2e 89 02 bd fe 5b 9d bd
       -0.3603611 0.049285535 -0.031869106 -0.07683562
000190 28 30 98 bd b3 77 be 3d 7e bc 62 be 03 06 19 be
       -0.0743106 0.093001746 -0.22142217 -0.149437
0001a0 ca 32 ea 3b 81 e8 db 3d be 32 0c bd 54 e5 64 3d
       0.007147168 0.10737706 -0.03422808 0.055882767
0001b0 3f cc 0d 3d df 8b 9c bc 88 1f 4b bd e2 71 38 bc
       0.034618612 -0.019109664 -0.049590617 -0.0112576205
0001c0 4d 19 f5 bd 0c 93 80 be 9c 25 32 3e d4 dc 01 bd
       -0.11967716 -0.25112188 0.1739716 -0.03170474
0001d0 77 e1 b8 3c e9 cc 51 3e df f8 aa bb 1b 1a 35 3d
       0.022568448 0.20488323 -0.005217656 0.04421435
0001e0 ea ab a0 be 09 43 60 3d 8f 25 ef bc c3 24 6d be
       -0.3138116 0.05475143 -0.029192714 -0.23158555
0001f0 42 6a 99 bc 15 5b 84 3e 3d 43 8e 3d 9b c6 7d 3d
       -0.018727425 0.2585074 0.069464184 0.061956983
000200 9e d8 ea bd e2 b5 13 3e 95 0e 5d bd 8a e6 9b 3d
       -0.11467098 0.14424852 -0.053968985 0.07612331
000210 fc 20 1d bd 7c 2d 01 3e 0f 71 6a bc 01 01 bc bd
       -0.038361534 0.12615007 -0.014309182 -0.09179879
000220 9e 01 43 3e aa af 07 bc dc 0d aa bd c0 85 7c bd
       0.19043586 -0.008281628 -0.08303425 -0.06165099
000230 00 6d be 3d 8e 9b 0c bd 52 f1 bc be be 2a b1 bd
       0.09298134 -0.034328036 -0.36902863 -0.086507306
000240 fe dd 56 3c d2 08 00 3e 86 c6 0c 3e 83 36 d8 bd
       0.0131144505 0.12503365 0.13747606 -0.10557272
000250 57 78 cf bd 6b 20 3e 3d 9a b4 9e 3e d1 7c 55 3d
       -0.10130375 0.046417635 0.30997163 0.052120987
000260 a1 fa fa bd f5 1a 4f be d9 d1 40 3e 1a bd ff 3d
       -0.12254835 -0.20225127 0.1883005 0.1248724
000270 27 fe 92 be 4d c0 b5 bc ab 24 a3 be c5 2b a6 3d
       -0.28709528 -0.022186423 -0.31863913 0.08113817
000280 c6 68 bb 3e 68 fd 84 bd 83 0a 94 bc 13 62 36 3d
       0.36603373 -0.06493646 -0.018071419 0.044527125
000290 6f 6b 79 3e bd ed 26 3e d0 30 60 3d 17 1f fd bd
       0.24357389 0.16301627 0.05473405 -0.123594455
0002a0 21 65 8f bc db f1 13 bd c3 55 e3 3d bf 82 0a 3e
       -0.017504277 -0.036119323 0.11100342 0.13526438
0002b0 f7 d0 04 3c 39 28 d9 3e 5b a3 fb bc c5 6e 14 be
       0.008106462 0.424135 -0.030717542 -0.1449538
0002c0 28 d5 4d be b7 82 46 3e 41 79 ad be 43 70 19 3d
       -0.20100844 0.19385801 -0.33881572 0.037460577
0002d0 e1 d7 38 be bb de c1 3b ef c0 e0 3d 48 f2 e6 3c
       -0.18051101 0.005916444 0.10974299 0.0281917
0002e0 90 9f c1 3d 19 e6 d2 bd 1d 37 23 be a7 97 4e 3e
       0.09454262 -0.10297794 -0.15938993 0.20175038
0002f0 86 5c ab bd e6 13 93 3c 1b a4 10 be 49 44 aa 3d
       -0.08367257 0.017953824 -0.14125101 0.083138056
000300 89 68 81 bd d7 99 6b 38 12 36 64 be 93 3d cd 3c
       -0.063187666 5.617164e-05 -0.22286251 0.025053775
000310 70 01 c1 3c fc c2 03 bb e0 e7 6e bd b6 b8 15 be
       0.023560256 -0.0020105233 -0.058326602 -0.14621243
000320 c1 11 2b be 44 03 af 3d 77 c6 36 3e 12 96 00 be
       -0.16705991 0.08545545 0.17849146 -0.12557247
000330 10 d8 8e 3d e8 b6 cf 3d 8c 3f 06 be 0a 40 3a be
       0.069748044 0.101423085 -0.13110179 -0.18188491
000340 76 b0 a0 bc 08 a5 56 3e 30 9f 3b 3d 15 e7 4e 3c
       -0.019615393 0.20961392 0.04580611 0.012628336
000350 f7 9c 08 3d 28 2f 64 bd fe 53 ee 3d be f6 6c bc
       0.03335282 -0.055709034 0.11637114 -0.014463125
000360 ec 01 1b bd c5 63 71 be aa d7 3b 3e 9c 69 22 bd
       -0.03784363 -0.23573215 0.18343988 -0.0396515
000370 be 20 a1 3d 6b a7 53 bd 88 6e 2f be 14 cc 26 3d
       0.07867573 -0.051673334 -0.17132008 0.040721968
000380 7e ec bf 3d e8 79 60 3c b8 83 3f be ac 80 0f bc
       0.09371279 0.01370094 -0.1870259 -0.008758705
000390 66 34 e7 bd 71 3a e0 bd 46 58 44 bd d4 6a 10 3e
       -0.11289291 -0.10948647 -0.047935747 0.14103252
0003a0 50 05 df 3d 67 20 9f bd 21 c5 6c 3d e8 77 86 3c
       0.10889685 -0.07769852 0.057805184 0.016414598
0003b0 77 fe fe bc 25 f5 c5 3d bc 55 26 3c 84 63 1b 3e
       -0.031127198 0.09665898 0.010152277 0.15174681
0003c0 a1 1e c3 be 0b 87 94 bd 7a 5c 3b 3d b3 1b 36 be
       -0.38109306 -0.0725232 0.04574249 -0.17784004
0003d0 24 70 6f 3d f4 1d f7 bc 26 84 a7 3c 9d be 2a 3e
       0.058456555 -0.03016565 0.020448755 0.16674276
0003e0 aa 3b 23 39 a5 72 89 bd fc c8 cc bc d1 35 56 bd
       0.00015567118 -0.0671132 -0.02499818 -0.052297417
0003f0 f6 ab 17 3c 15 a9 88 3c 68 5e 07 3e df 1a 10 3e
       0.009257307 0.016682187 0.13219607 0.1407275

bias_ih_l1 f4 [192]
000000 15 e8 a5 3d 6d 4a 28 bd 8f 1b df 3d b6 3a 32 bd
       0.08100907 -0.041086603 0.10893928 -0.043513022
000010 79 59 80 3e 89 29 a9 bd b0 ac 21 3e a6 94 5a 3c
       0.25068262 -0.08259875 0.15788531 0.013341105
000020 2b 86 c3 3d 69 bb 07 bb 54 5c 06 3b c8 d2 e2 3d
       0.09547075 -0.002071107 0.002050181 0.110753596
000030 2e 1b a2 bb 90 ae 06 3d 33 58 45 bd e2 ee b5 3b
       -0.0049470877 0.03288132 -0.048179816 0.0055521587
000040 31 1f dd bb 60 dd a6 bc f8 fa 06 3e 91 e0 dd 3d
       -0.006748103 -0.020369232 0.13181674 0.10833848
000050 1d 62 bd bd 36 13 35 3e 52 d8 b0 3b 04 c2 3c 3e
       -0.09247229 0.1768311 0.005396881 0.18433386
000060 3b d7 bb 3c 4d ed 26 3e d7 2a 18 be 17 73 96 bd
       0.022929778 0.1630146 -0.14860092 -0.073461704
000070 72 83 53 3d ed b8 0b 3d 92 e9 c3 3c 0e 2a 19 bd
       0.051639028 0.034111906 0.023915086 -0.037393622
000080 a4 65 87 bd ef 6b 25 bd ff a6 c3 bd 4b 95 2c be
       -0.06611183 -0.040386137 -0.09553336 -0.16853826
000090 0c 79 ac 3d 99 be 22 3d 6a 46 16 3e 1c 8e 02 be
       0.08421525 0.03973255 0.14675298 -0.12749523
0000a0 bb 14 1c 3e fe 4a 77 3c f9 c0 1d bd e6 09 0a 3d
       0.15242283 0.015093563 -0.03851411 0.033700846
0000b0 bc 27 67 bd 66 4f 04 3d 4f 79 a8 3d a2 a2 a8 3d
       -0.056434378 0.032302283 0.08226263 0.08234145
0000c0 30 c5 93 bc 1a 05 65 3e b0 60 9f 3d 0f f5 8f 3d
       -0.018038362 0.22365227 0.077821136 0.07029163
0000d0 e4 98 2e bd fb 92 c1 3d a6 ae 47 3e a4 cd de 3d
       -0.042626277 0.094518624 0.19500217 0.108790666
0000e0 3c b4 a0 3d b5 63 67 bb 26 30 33 3e c7 b6 6d 3d
       0.07846877 -0.0035307233 0.17498836 0.05803564
0000f0 92 34 02 3e b5 9e 9a bc 23 e6 d4 bd 89 a8 e9 3d
       0.12715366 -0.018874506 -0.103954576 0.11409099
000100 42 4e c0 be 5b 51 e7 be 69 4f f6 bd 05 50 31 be
       -0.37559706 -0.45179257 -0.12026865 -0.17315681
000110 d7 70 fe be 4c 64 b9 be 92 f7 41 bd 1f e3 75 bd
       -0.49695465 -0.36209333 -0.047355242 -0.060031053
000120 27 a1 a8 be 8a da 03 bf c7 60 07 be 9f 5d 57 be
       -0.3293545 -0.5150534 -0.13220511 -0.21031807
000130 0e 61 9f be 64 51 18 be 12 f3 a8 be db c6 8d be
       -0.31128734 -0.14874798 -0.32997948 -0.27690777
000140 8f 4f 97 be 3a 83 c6 bd 7d 12 ed bd f5 6c 96 be
       -0.29552886 -0.09692998 -0.11575792 -0.29380003
000150 c4 49 97 bd 66 81 15 bf d6 d9 67 be 16 c2 44 be
       -0.073871166 -0.5840057 -0.22641692 -0.19214663
000160 7c 94 7e bd b1 61 c0 bd 99 da 43 be 4c a9 cc bd
       -0.062153324 -0.09393633 -0.19126357 -0.09993228
000170 ed b0 04 3d 25 c6 d5 be 3a c3 fd be 47 a0 0c bd
       0.032395292 -0.41752735 -0.4956301 -0.03433254
000180 08 83 83 3c 47 52 77 be 18 a5 2f bf 05 26 02 bf
       0.016053692 -0.2415248 -0.6861129 -0.50839263
000190 4e 50 8c be 2a 80 a7 be a9 1a 74 be 6a 44 c0 bd
       -0.27405018 -0.3271497 -0.23838295 -0.09388049
0001a0 0c 0c b9 bd 77 3a c2 be 8f d1 fe be c6 13 53 be
       -0.09035501 -0.3793523 -0.49769256 -0.20613012
0001b0 a8 f9 87 be 14 0c dc be 0b 53 87 be 1d 39 26 bf
       -0.2655766 -0.42977965 -0.26430544 -0.649309
0001c0 10 2e 89 be cc fa d5 3d 65 5a d4 be ea f1 87 be
       -0.26792955 0.10448226 -0.41475216 -0.26551753
0001d0 00 82 ad be 35 69 ae be 01 38 96 be 18 4e 53 be
       -0.33888245 -0.34064642 -0.29339603 -0.20635259
0001e0 9b d9 cc bc 2b 53 59 be 21 0e 97 be 49 c3 93 be
       -0.025006106 -0.21223132 -0.29502967 -0.28859928
0001f0 93 83 36 bf bf 1b 32 bf 43 c6 b9 be d5 ed b3 be
       -0.71294516 -0.6957359 -0.36284074 -0.3514239
000200 6f d8 5d be c2 7e 06 be 75 81 8e ba 59 17 c2 bd
       -0.21664594 -0.13134292 -0.0010872321 -0.094771095
000210 1f f1 04 3e 3c d8 34 be 1e 8b dc 3d 58 5e 0d bd
       0.12982605 -0.17660612 0.10768722 -0.0345138
000220 d4 8d 14 be 1d 2e 89 3e db 54 4d be 7b 28 4e 3e
       -0.14507228 0.26792994 -0.20051901 0.2013263
000230 40 2f e3 3d c8 28 c5 3c 82 8a fa bd 7a ee b6 3d
       0.110929966 0.024067298 -0.122334495 0.089322045
000240 60 65 11 3e 37 00 e6 bc 83 9b 7e bd 3d 82 22 be
       0.14198828 -0.028076274 -0.062160026 -0.15869994
000250 6d 96 a8 3c 94 20 94 3c 49 f7 bf bd 25 ca 51 be
       0.020579541 0.01808194 -0.09373338 -0.20487268
000260 f5 93 3e be d0 73 25 be 1e 3f e7 bd e0 61 c1 bd
       -0.18611129 -0.1615746 -0.112913355 -0.09442496
000270 f8 bf 16 be b9 2f 78 bd 79 fe 3d 3e 2a cb 02 be
       -0.14721668 -0.060592387 0.18554105 -0.12772813
000280 9d ca 96 3d 71 d9 2a bd 7f d6 7e bd 5d d9 93 be
       0.07362864 -0.041711275 -0.06221628 -0.28876773
000290 99 84 75 3e 23 c1 8a 3d ad e4 9c 3d a8 06 0f bd
       0.23976363 0.06775119 0.07660804 -0.034918457
0002a0 f5 91 29 bc b2 ae 79 bd 11 b9 27 3e 7b 91 02 3e
       -0.01034974 -0.060957618 0.16379191 0.12750809
0002b0 e8 b0 15 be eb 99 9a 3c 74 a2 6f be 61 25 d3 bd
       -0.14618266 0.018872222 -0.23401815 -0.10309864
0002c0 a9 ef 48 be dc e2 30 3d e8 0f 93 3c 62 f5 3a be
       -0.19622673 0.0431851 0.01795192 -0.18257669
0002d0 0c e9 04 be c8 a9 44 3e 2e da 02 3e b4 9d 82 bd
       -0.12979525 0.19205391 0.12778541 -0.06377736
0002e0 57 8f 35 3c f9 10 8c 3d f9 79 45 bd 89 cc df bd
       0.011081538 0.06839175 -0.048212025 -0.10927684
0002f0 c5 7a 10 be 59 5d 47 be 40 a0 e1 3c 16 b0 ef 3d
       -0.14109333 -0.19469203 0.027542233 0.117035076
