action_LossPrune_ClassifyFixed/TotalModel_ticket.pth (torch, 166892 bytes, 12 tensors)

weight f4 [13, 8]
0.5494534 2.316148 -1.6981215 1.8822614 0.6937383 -0.6579572 -0.5462416 -0.7001417
0.39895386 -0.89169264 -1.4273905 -1.2048763 -1.2844108 -0.9487677 0.7033701 1.0978829
0.8656857 2.2392313 0.1788915 0.50942844 -0.7608136 -0.73489124 0.7810825 0.39134476
-0.59259385 -1.1024108 1.508801 0.42273852 -1.2809014 1.5305272 0.38734686 -0.14970782
0.28077504 1.1885915 0.029575834 -1.5607128 -0.5432057 0.48522472 -2.1198075 -0.31602472
1.8127068 1.3132626 -2.2118316 -0.06352274 0.1867055 0.34080055 0.08599029 -0.95595753
1.5209762 0.089978196 -0.22244929 2.1172073 1.0405304 -0.010623455 -1.3589857 -0.5453935
-0.75425434 -0.35658923 -0.13912405 0.81537616 3.0032904 -0.2547489 -0.47025213 -0.07492398
2.226028 -1.7356585 0.58868116 -1.2019601 1.1994061 -0.2986553 1.9738038 -0.872096
-0.13096754 -0.22858307 1.6822847 0.33977178 -0.998217 -0.22668457 -2.0889351 -0.27541366
0.3601224 -0.47124353 0.19636156 0.83158404 1.4681821 1.9429464 0.73877555 0.83941644
-1.4325176 -1.8793166 -0.9337157 -0.7282405 -1.4188536 -0.47938046 -0.37613362 -0.19095324
-1.3447552 1.8962097 -1.2039512 -0.85201997 -0.02377157 2.4551342 1.2372615 0.6271724
00000000: faa8 0c3f c53b 1440 0c5c d9bf f1ed f03f
00000010: d598 313f e26f 28bf 7dd6 0bbf 7d3c 33bf
00000020: ae43 cc3e f845 64bf bbb4 b6bf 6339 9abf
00000030: 9367 a4bf 71e2 72bf 1010 343f 6d87 8c3f
00000040: 949d 5d3f 914f 0f40 552f 373e e769 023f
00000050: aec4 42bf d521 3cbf 06f5 473f 575e c83e
00000060: 3bb4 17bf cc1b 8dbf 6420 c13f 2f71 d83e
00000070: 94f4 a3bf 51e8 c33f 5452 c63e 024d 19be
00000080: bfc1 8f3e c423 983f 0549 f23c 70c5 c7bf
00000090: 870f 0bbf 606f f83e edaa 07c0 fecd a1be
000000a0: c706 e83f fd18 a83f a68e 0dc0 3618 82bd
000000b0: ba2f 3f3e 697d ae3e ad1b b03d a2b9 74bf
000000c0: 59af c23f 7d46 b83d bfc9 63be 5380 0740
000000d0: 1a30 853f 000e 2ebc 3ef3 adbf e99e 0bbf
000000e0: d016 41bf dd92 b6be 8976 0ebe 7ebc 503f
000000f0: e935 4040 736e 82be e3c4 f0be be71 99bd
00000100: 3e77 0e40 0f2a debf cfb3 163f d4d9 99bf
00000110: 2486 993f 59e9 98be 9aa5 fc3f af41 5fbf
00000120: 5b1c 06be ae11 6abe 1b55 d73f 91f6 ad3e
00000130: 268b 7fbf 0020 68be 1db1 05c0 0503 8dbe
00000140: f761 b83e d546 f1be 0113 493e b1e2 543f
00000150: 64ed bb3f 78b2 f83f 6520 3d3f ffe3 563f
00000160: bd5c b7bf 728d f0bf fe07 6fbf f86d 3abf
00000170: ff9c b5bf 5b71 f5be 9694 c0be 3f89 43be
00000180: f020 acbf 00b7 f23f 131b 9abf fb1d 5abf
00000190: 98bc c2bc eb20 1d40 965e 9e3f 5f8e 203f

weight_ih_l0 f4 [192, 9]
-0.24594761 0.20835984 -0.123057514 0.24743856 0.17845213 0.38912493 0.28433412 -0.22844219
-0.11014456 -0.45533112 0.57815635 0.23385043 0.28041005 0.21928407 0.49983904 -0.6915526
-0.33021593 -0.22364317 -0.053931355 0.132738 0.28341976 -0.1917859 -0.10501929 0.11649756
0.12535556 0.015785519 -0.3234325 -1.2856112 -0.18953979 0.09171694 0.054431263 0.030618383
0.100315265 -0.040435705 -0.17006093 -0.18947856 -0.084452756 0.3035357 0.26746392 -0.25346056
0.3351143 0.6429815 -0.11196132 0.123650104 -0.049232416 0.14156203 -0.03546338 0.049404554
0.11284666 0.0875547 0.06579907 -0.20892651 0.31033784 0.11198328 0.01928165 -0.36829895
-0.24465935 0.08562022 -0.24113621 -0.10933086 -0.009435453 0.08413623 0.32619563 -0.0845442
-0.29512143 0.18921058 0.042810705 0.19417602 0.1583829 0.3133777 -0.010202233 0.23648626
-1.2441323 -0.200807 -0.18272802 0.049778778 0.0017524256 0.00030200937 0.25616568 -0.17719445
-0.060359526 0.032176305 0.12807819 0.34434238 -0.14320056 -0.25345248 -0.3838543 0.13413587
0.13676411 0.6555346 -0.12678044 -0.2124541 0.052754376 -0.41327098 -0.2528585 -0.23982675
0.10361038 0.1931677 0.42024887 -0.018771475 -0.31635556 -0.58896744 0.118221976 0.044591863
-0.31329077 -0.36744833 -0.31507808 0.08201659 0.5297818 -0.32622382 -0.2490792 -0.43614915
-0.22882892 0.09372383 0.53132904 -0.014773568 0.014881733 -0.091441706 0.3191519 0.12705289
-0.032596167 0.13824008 0.26320586 -0.15105726 -0.16719194 -0.27976793 -0.17297862 -0.47501743
-0.2645176 -0.012601708 -0.16811243 0.2829817 0.50386554 -0.2094206 -0.5715319 0.50745285
0.033629484 -0.593447 0.04006322 -0.22260381 -0.33984903 -0.25520447 0.15781005 0.14043407
-0.53249305 -0.29615462 -0.099941075 0.25431636 0.15982032 0.3224714 -0.073723175 -0.04388785
-0.08585225 0.3889582 -0.23114894 -0.51406854 0.0052065314 -0.1876993 -0.22337522 0.59195864
0.2470627 0.2852678 0.09333539 0.040675826 -0.11944924 -0.09695907 0.016145568 0.20855959
0.002385064 0.16703027 -0.054459836 -0.27817503 0.12576838 0.49476945 -0.1860001 -0.012540685
-0.39726424 -0.25945014 -0.14911436 0.1881351 0.29339677 -0.5505999 -0.15186459 0.26944828
0.084196985 -0.33709294 0.10721311 0.42028978 -0.024849769 0.41094846 0.14905307 -0.060121067
-0.30849236 -0.28269747 -0.12067023 0.037998505 0.32333344 0.38575184 -0.23012806 -0.13381793
0.25338876 -0.47813696 -0.3537698 -0.035850536 -0.1830601 0.22816342 -0.048106026 -0.28994012
-0.037932012 0.038906172 -0.054463185 0.07115713 0.07114429 0.2646309 0.0760662 0.049387433
0.110331394 -0.060684048 -0.31165043 -0.1271399 -0.055679373 -0.31777167 -0.101573385 0.653728
0.17087321 0.050787356 0.05706443 0.0055282474 0.056727484 -0.37093428 -0.20070499 0.08020351
0.6991323 0.26605812 0.69590586 -0.19791786 0.02542384 0.19680592 0.07605318 0.062867366
0.31126153 0.047955543 -0.09882947 -0.9601182 -0.15622793 -0.2832839 -0.0487547 -0.15520458
-0.20725785 0.16192617 -0.09848916 -0.043634925 -0.1497767 0.23794281 -0.07837661 -0.37442592
00000000: b1d9 7bbe 485c 553e 9405 fcbd 8960 7d3e
00000010: 28bc 363e 623b c73e 3e94 913e c0ec 69be
00000020: 7993 e1bd 2921 e9be 0e02 143f 7d76 6f3e
00000030: e891 8f3e 018c 603e e7ea ff3e 9709 31bf
00000040: 1012 a9be b702 65be 20e7 5cbd 78ec 073e
00000050: 651c 913e 8663 44be 5a14 d7bd 4696 ee3d
00000060: 355d 003e a250 813c f298 a5be e88e a4bf
00000070: b816 42be 17d6 bb3d 51f3 5e3d 67d3 fa3c
00000080: 1772 cd3d e99f 25bd 7424 2ebe ab06 42be
00000090: 91f5 acbd 0869 9b3e 08f1 883e 95c5 81be
000000a0: 1a94 ab3e 709a 243f fa4b e5bd 443c fd3d
000000b0: eea7 49bd a3f5 103e 0d42 11bd 6e5c 4a3d
000000c0: 261c e73d e14f b33d aac1 863d d5f0 55be
000000d0: 9ae4 9e3e 7d57 e53d 8df4 9d3c ae91 bcbe
000000e0: fb87 7abe a759 af3d 69ec 76be dce8 dfbd
000000f0: 2997 1abc 9e4f ac3d 1d03 a73e 8225 adbd
00000100: 281a 97be 6bc0 413e 475a 2f3d 14d6 463e
00000110: 202f 223e 0b73 a03e 4427 27bc 7429 723e
00000120: ba3f 9fbf 5aa0 4dbe 0e1d 3bbe d5e4 4b3d
00000130: a5b1 e53a 0357 9e39 2628 833e 7672 35be
00000140: 8d3b 77bd 4dcb 033d ee26 033e a54d b03e
00000150: 2ba3 12be 86c4 81be 8d88 c4be ea5a 093e
00000160: e40b 0c3e 1ed1 273f bbd2 01be 918d 59be
00000170: f914 583d 4198 d3be ab76 81be 2595 75be
00000180: ae31 d43d c1cd 453e dc2a d73e a3c6 99bc
00000190: 5bf9 a1be 92c6 16bf 5d1e f23d f5a5 363d
000001a0: a667 a0be 3022 bcbe ea51 a1be 50f8 a73d
000001b0: c89f 073f cf06 a7be 9e0e 7fbe f14e dfbe
000001c0: 2152 6abe 48f2 bf3d 2e05 083f d60c 72bc
000001d0: 83d2 733c ca45 bbbd e167 a33e 271a 023e
000001e0: 8f83 05bd cf8e 0d3e ebc2 863e c1ae 1abe
000001f0: 5d34 2bbe be3d 8fbe 4f21 31be 7c35 f3be
00000200: da6e 87be 6577 4ebc aa25 2cbe fae2 903e
00000210: 55fd 003f 5b72 56be ea4f 12bf 6ee8 013f
00000220: 12bf 093d 25ec 17bf 5519 243d 41f2 63be
00000230: b100 aebe 29aa 82be f598 213e f3cd 0f3e
00000240: 7751 08bf 94a1 97be e8ad ccbd c135 823e
00000250: f0a7 233e f91a a53e 2dfc 96bd bfc3 33bd
00000260: 4ed3 afbd 8725 c73e 4fb2 6cbe ff99 03bf
00000270: 8d9b aa3b 3f34 40be 79bc 64be 9a8a 173f
00000280: 01fe 7c3e 9f0e 923e a026 bf3d b29b 263d
00000290: cea1 f4bd 7a92 c6bd b643 843c a590 553e
000002a0: bc4e 1c3b fc09 2b3e 4711 5fbd f56c 8ebe
000002b0: 6dc9 003e 6c52 fd3e cf76 3ebe 7277 4dbc
000002c0: 3866 cbbe a6d6 84be 6fb1 18be 7da6 403e
000002d0: 1a38 963e 1df4 0cbf 6482 1bbe 20f5 893e
000002e0: 786f ac3d 7297 acbe 8c92 db3d 3930 d73e
000002f0: be91 cbbc d667 d23e 5ea1 183e 8241 76bd
00000300: b6f2 9dbe b9bd 90be f421 f7bd 52a4 1b3d
00000310: f68b a53e 4481 c53e b1a6 6bbe 9107 09be
00000320: 2cbc 813e 5ece f4be 5121 b5be 03d8 12bd
00000330: 1b74 3bbe aca3 693e d30a 45bd 0873 94be
00000340: 995e 1bbd 145c 1f3d ca14 5fbd d4ba 913d
00000350: 19b4 913d b47d 873e 99c8 9b3d 7a4a 4a3d
00000360: 6df5 e13d d68f 78bd a590 9fbe f630 02be
00000370: 0e10 64bd f8b2 a2be b505 d0bd b85a 273f
00000380: 63f9 2e3e 6706 503d 64bc 693d 4d26 b53b
00000390: 145b 683d 19eb bdbe 9c85 4dbe bd41 a43d
000003a0: 56fa 323f c538 883e e326 323f fbaa 4abe
000003b0: a845 d03c 7e87 493e c5c1 9b3d 9bc0 803d
000003c0: ac5d 9f3e 086d 443d 1b67 cabd 4eca 75bf
000003d0: 37fa 1fbe 960a 91be 02b3 47bd f3ed 1ebe
000003e0: 673b 54be f9cf 253e afb4 c9bd 89ba 32bd
000003f0: 105f 19be 48a7 733e eb83 a0bd c1b4 bfbe

weight_hh_l0 f4 [192, 64]
0.57143635 0.11362927 -0.0052156746 -0.16167769 0.220497 0.0709802 0.15444465 0.0051742024
-0.08205459 -0.027411934 0.23239271 0.3047748 -0.08594521 -0.25449497 -0.0699568 0.11201883
-0.029097827 0.3804206 -0.29601645 0.050523568 -0.050073083 0.02980993 -0.20778896 0.12628867
-0.33970237 0.073848836 0.19246738 -0.050603073 -0.110519014 -0.14039972 -0.062796436 0.39955753
0.25113675 0.067825854 -0.39643896 0.027826605 0.103569254 -0.09689601 -0.2264461 -0.16443276
-0.53410965 -0.1037137 0.1321774 -0.13792293 -0.18704234 0.038762424 -0.0018714434 0.47518295
-0.030475847 -0.17845516 -0.069106385 -0.084580064 -0.1556011 0.048847534 0.028703293 0.1866943
0.08786624 0.20051087 0.0958882 0.09470642 0.20640297 0.33797595 -0.18171272 -0.22231738
0.042394035 -0.2752846 0.11480117 -0.06663622 0.07217208 0.31642538 -0.121319756 -0.08910599
-0.025777051 -0.007500013 0.026520357 0.08144609 0.24242114 0.032327916 -0.2538511 0.06411875
-0.19213055 0.28348783 0.1679466 -0.18763845 0.17513429 0.14027067 0.043421358 -0.042936746
-0.3684594 -0.038316857 -0.18300405 0.01251578 0.103789255 -0.11614854 -0.005246464 -0.021471472
0.2339363 -0.029353913 0.095247075 0.17189735 0.11245605 0.16439058 0.2503441 -0.035835188
0.20548266 -0.29424065 -0.0033616612 -0.20950045 -0.119085066 0.08301599 -0.3472437 0.23762083
-0.089187354 -0.04007706 -0.042054333 -0.21387725 0.020406026 0.39300653 0.11831011 0.3333372
-0.20567213 -0.1981817 -0.033674266 -0.19903778 -0.11927867 -0.3802792 -0.05489798 -0.46830678
-0.13330522 -0.2266505 0.19212417 -0.11809698 -0.16465774 -0.18852249 0.117747836 0.25572926
-0.3314191 0.016398786 0.01211147 -0.29365537 -0.037333965 0.21985759 0.31868982 0.058048606
0.032070477 0.16063541 -0.2121143 -0.32340616 -0.014930091 0.0034795552 -0.17490034 -0.22391053
-0.3060129 0.12799996 0.012302923 -0.08184789 0.105539374 -0.48747844 0.14376634 0.12394904
-0.17805842 -0.24783777 -0.10299073 -0.012314483 -0.2604231 0.14726527 0.018016206 -0.008914633
-0.5589456 -0.38492596 -0.2801756 0.03711603 0.189907 0.028598206 -0.35723898 0.5229178
-0.19405891 -0.34227902 0.31225458 -0.187995 -0.13929115 0.2983297 0.14025077 -0.4085857
-0.100202225 0.09120536 -0.14731976 0.044210047 -0.10806827 -0.09981697 0.29514524 -0.30135563
0.077325106 -0.0048348634 -0.05479485 -0.021229463 -0.0046739364 0.035116646 -0.0060906233 -0.027827635
0.06464707 -0.12283349 0.1567126 -0.08046935 -0.094307646 -0.25246608 0.027981311 -0.12005387
0.15025663 0.022135144 0.037103277 -0.102243125 -0.054336496 -0.0831527 0.08119394 -0.05693398
-0.009182346 -0.033163764 -0.103034645 -0.07610957 0.16258137 0.27839273 0.0072396584 0.08762708
0.013520315 -0.06965659 -0.08255389 0.0065497784 0.18246101 0.04053041 -0.057268966 0.1021154
0.009694981 0.09539313 -0.023901697 -0.13834225 -0.100203596 -0.09096281 -0.070387475 0.065605514
-0.0822823 0.13581423 0.048451208 -0.069299944 0.07617651 0.1548419 0.1486499 0.1140203
-0.09785086 -0.11745372 -0.08582964 -0.05443257 0.00040777092 -0.0013183582 0.027962843 -0.05554902
00000000: a749 123f 76b6 e83d 40e8 aabb d68e 25be
00000010: f7c9 613e 115e 913d bd26 1e3e 5b8c a93b
00000020: 3d0c a8bd fe8e e0bc 5bf8 6d3e 710b 9c3e
00000030: 0b04 b0bd 2a4d 82be 8345 8fbd 216a e53d
00000040: 915e eebc 7dc6 c23e 788f 97be cdf1 4e3d
00000050: 6f19 4dbd f433 f43c a1c6 54be d151 013e
00000060: 78ed adbe 0f3e 973d 2b16 453e 2b45 4fbd
00000070: cb57 e2bd f2c4 0fbe 6b9b 80bd ce92 cc3e
00000080: ff94 803e 48e8 8a3d 0cfa cabe 9ff4 e33c
00000090: 1e1c d43d 6a71 c6bd 7de1 67be 1061 28be
000000a0: 69bb 08bf d967 d4bd 8359 073e ab3b 0dbe
000000b0: 0788 3fbe 59c5 1e3d 384b f5ba 2e4b f33e
000000c0: 7ca8 f9bc f3bc 36be a687 8dbd 5038 adbd
000000d0: e555 1fbe 5a14 483d 2b23 eb3c ca2c 3f3e
000000e0: 37f3 b33d b952 4d3e 0861 c43d 71f5 c13d
000000f0: 4d5b 533e 2f0b ad3e e612 3abe 2ba7 63be
00000100: 5ea5 2d3d 1af2 8cbe e01c eb3d 9278 88bd
00000110: f5ce 933d 8202 a23e 7e76 f8bd 347d b6bd
00000120: 652a d3bc abc2 f5bb 3841 d93c 35cd a63d
00000130: 3f3d 783e 476a 043d c5f8 81be b150 833d
00000140: dfbd 44be 5125 913e 32fa 2b3e 4b24 40be
00000150: 6756 333e 1da3 0f3e 98da 313d 71de 2fbd
00000160: b6a6 bcbe 23f2 1cbd 6a65 3bbe fc0e 4d3c
00000170: 768f d43d 49df edbd 88ea abbb f1e4 afbc
00000180: ff8c 6f3e 9e77 f0bc e610 c33d dc05 303e
00000190: 5c4f e63d 0156 283e 1a2d 803e ebc7 12bd
000001a0: 0c6a 523e b6a6 96be 514f 5cbb 4987 56be
000001b0: dfe2 f3bd 4a04 aa3d edc9 b1be e052 733e
000001c0: dca7 b6bd d827 24bd 2a41 2cbd a302 5bbe
000001d0: 8a2a a73c 2738 c93e 924c f23d 2cab aa3e
000001e0: b79b 52be 25f0 4abe 07ee 09bd 8fd0 4bbe
000001f0: 6048 f4bd f5b3 c2be b4dc 60bd e8c5 efbe
00000200: 2a81 08be 1217 68be 33bc 443e d4dc f1bd
00000210: 0a9c 28be 0a0c 41be c725 f13d f2ee 823e
00000220: c4af a9be bf56 863c 306f 463c ff59 96be
00000230: 80eb 18bd 5922 613e 502b a33e 60c4 6d3d
00000240: 555c 033d 9c7d 243e 7e34 59be 7e95 a5be
00000250: 579d 74bc 4009 643b 1319 33be cd48 65be
00000260: b9ad 9cbe 6c12 033e 3392 493c de9f a7bd
00000270: 0725 d83d c696 f9be 7c37 133e ffd8 fd3d
00000280: f254 36be 2fc9 7dbe ceec d2bd afc2 49bc
00000290: 2d56 85be b5cc 163e b996 933c ae0e 12bc
000002a0: 0f17 0fbf 0415 c5be 2d73 8fbe fa06 183d
000002b0: fb76 423e c946 ea3c 07e8 b6be f1dd 053f
000002c0: 61b7 46be 323f afbe d5df 9f3e c381 40be
000002d0: 57a2 0ebe acbe 983e e69d 0f3e 2532 d1be
000002e0: d336 cdbd e0c9 ba3d feda 16be 9815 353d
000002f0: e652 ddbd d76c ccbd 471d 973e 494b 9abe
00000300: a05c 9e3d c66d 9ebb 9170 60bd 69e9 adbc
00000310: d227 99bb 79d6 0f3d da93 c7bb c8f6 e3bc
00000320: af65 843d 2090 fbbd 4579 203e 1dcd a4bd
00000330: 5e24 c1bd 3c43 81be 1039 e53c cede f5bd
00000340: e0dc 193e c354 b53c 9bf9 173d d864 d1bd
00000350: f28f 5ebd f64b aabd 0249 a63d 9b33 69bd
00000360: 8d71 16bc bad6 07bd d403 d3bd 56df 9bbd
00000370: bb7b 263e 7e89 8e3e a83a ed3b d475 b33d
00000380: 5084 5d3c 1da8 8ebd 0412 a9bd 869f d63b
00000390: 0fd7 3a3e 3703 263d dd92 6abd e121 d13d
000003a0: b3d7 1e3c 795d c33d 7ecd c3bc 97a9 0dbe
000003b0: 8b37 cdbd b64a babd 4f27 90bd 2f5c 863d
000003c0: 9f83 a8bd e312 0b3e c674 463d 21ed 8dbd
000003d0: 6e02 9c3d e08e 1e3e ae37 183e 7a83 e93d
000003e0: 0866 c8bd 938b f0bd 73c7 afbd b0f4 5ebd
000003f0: 16ca d539 c3cc acba 5512 e53c 5f87 63bd

bias_ih_l0 f4 [192]
0.026014157 0.12550718 0.03615082 0.14342847 0.016246485 0.041467637 0.19102795 -0.05799963
0.13097812 0.080912195 -0.0883068 0.13901745 0.26415697 0.05394968 0.10925153 -0.00470118
0.07838808 0.110613205 0.22724928 0.18682747 0.085288584 0.1837313 -0.0021282732 0.060389955
0.07530729 0.08080033 -0.10365886 -0.05606354 -0.013641213 0.21196948 0.0012623336 -0.0992283
0.3219555 -0.10751762 0.27854535 0.24214217 -0.086988 -0.0092209615 0.042703282 0.15433691
-0.028368317 -0.017796796 -0.08970545 -0.10765873 -0.21686892 -0.1589575 0.09307755 -0.039925963
0.17747922 -0.023249518 0.3538466 -0.025459241 -0.21517597 -0.13042265 -0.05196561 0.053916294
0.062129267 0.12715551 0.19274977 -0.06982436 0.14746064 0.0023749887 0.12233929 -0.106758915
-0.54534554 -0.32783687 0.040844254 -1.0799553 -0.5526648 -0.20463999 -0.16953763 0.06395331
-0.691564 -0.054490294 -0.50909686 0.23589906 0.048445202 -0.07069976 -0.04885106 -0.03181491
0.081481196 0.05364457 -0.13077772 -0.28144887 0.012874902 -0.2305449 -0.15848228 -0.08547244
-0.43682197 -0.095956445 -0.07716671 -0.12513007 -0.18680793 -0.14820535 -0.10714503 -0.5617221
0.14083388 -0.01877272 0.04198995 -0.17237867 -0.44784454 0.004307609 0.02148622 -0.015685292
-0.12404171 -0.45917258 -0.3098243 -0.20248951 -0.23595792 -0.19421794 -0.35100138 -0.059733924
0.2697332 -0.2680204 -0.25732803 -0.118434995 -0.3630724 -0.16080366 0.055153646 -0.21903619
-0.19193058 0.29681912 0.04620028 -0.061502017 -0.10381788 -0.1794198 -0.023437979 -0.07053603
0.2690461 -0.10279564 0.07452687 -0.3763825 0.081280224 -0.10214406 -0.1230394 -0.26003933
-0.31082448 0.011549606 -0.27898982 -0.10621511 0.056967095 0.019432487 -0.00030768875 -0.47407144
0.053422228 -0.1293537 -0.20351592 -0.124931775 -0.18318644 -0.22833893 0.02591108 0.14981414
-0.2949815 -0.4229184 -0.042507604 -0.09302602 0.2127201 0.09354576 -0.23475206 0.31969315
0.20172194 -0.013536738 0.29397023 -0.22468191 -0.29109055 -0.29599983 -0.017724518 0.044911735
-0.0788125 -0.1451114 -0.14183782 -0.2343701 -0.2209274 0.21685335 -0.10409513 0.19069812
0.09780132 -0.15850203 0.26855257 0.19491872 -0.383065 0.35100588 0.22851229 0.065065935
-0.076582946 -0.059031453 -0.12591462 0.25039718 0.11219983 0.005414633 0.20881352 -0.035593163
00000000: a41b d53c f484 003e e212 143d eade 123e
00000010: 5917 853c f8d9 293d d59c 433e 0591 6dbd
00000020: 211f 063e 4bb5 a53d 32da b4bd 975a 0e3e
00000030: 953f 873e 57fa 5c3d 44bf df3d 5b0c 9abb
00000040: ee89 a03d 2d89 e23d 09b4 683e b34f 3f3e
00000050: c8ab ae3d 0f24 3c3e 807a 0bbb 755b 773d
00000060: b53a 9a3d a57a a53d 194b d4bd e2a2 65bd
00000070: 657f 5fbc 870e 593e e374 a53a 3538 cbbd
00000080: 5ad7 a43e 3332 dcbd 7f9d 8e3e 1ef4 773e
00000090: c426 b2bd 8413 17bc a3e9 2e3d 7f0a 1e3e
000000a0: ac64 e8bc 96ca 91bc 7eb7 b7bd 2e7c dcbd
000000b0: e312 5ebe c1c5 22be 719f be3d 6889 23bd
000000c0: 1dbd 353e c675 bebc 622b b53e e68f d0bc
000000d0: 1757 5cbe 848d 05be e4d9 54bd 55d7 5c3d
000000e0: 427b 7e3d 0e35 023e 3260 453e 1300 8fbd
000000f0: ecff 163e b3a5 1b3b 068d fa3d 6ba4 dabd
00000100: c49b 0bbf 3cda a7be 4e4c 273d fa3b 8abf
00000110: 717b 0dbf 258d 51be 469b 2dbe f4f9 823d
00000120: 570a 31bf 3731 5fbd 2c54 02bf 868f 713e
00000130: 7a6e 463d 09cb 90bd 0d18 48bd 5a50 02bd
00000140: 9ddf a63d 69ba 5b3d 98ea 05be 111a 90be
00000150: 41f1 523c f613 6cbe 2e49 22be 2d0c afbd
00000160: 21a7 dfbe d084 c4bd 9409 9ebd 1922 00be
00000170: 944a 3fbe 25c3 17be da6e dbbd 05cd 0fbf
00000180: c236 103e 3fc9 99bc a7fd 2b3d 0984 30be
00000190: e14b e5be d826 8d3b df03 b03c 717e 80bc
000001a0: 9409 febd ab18 ebbe 4aa1 9ebe 6959 4fbe
000001b0: f49e 71be 11e1 46be 74b6 b3be 8fab 74bd
000001c0: 781a 8a3e f839 89be 80c0 83be 0c8e f2bd
000001d0: a0e4 b9be b7a9 24be cae8 613d 064b 60be
000001e0: 7389 44be adf8 973e 813c 3d3d 8ae9 7bbd
000001f0: 789e d4bd d3b9 37be 0101 c0bc 3275 90bd
00000200: 69c0 893e 8586 d2bd 8ba1 983d 35b5 c0be
00000210: 3f76 a63d e830 d1bd 15fc fbbd e023 85be
00000220: 6324 9fbe 8f3a 3d3c c1d7 8ebe 4f87 d9bd
00000230: 5456 693d e130 9f3c 4951 a1b9 7eb9 f2be
00000240: 44d1 5a3d 4c75 04be 7a66 50be 3bdc ffbd
00000250: 3a95 3bbe aed1 69be 7943 d43c e168 193e
00000260: d107 97be c388 d8be 741c 2ebd 6d84 bebd
00000270: 4cd3 593e eb94 bf3d d862 70be d2ae a33e
00000280: 3290 4e3e 32c9 5dbc 4483 963e 0413 66be
00000290: d209 95be 4a8d 97be 0233 91bc 5ef5 373d
000002a0: 7368 a1bd 1598 14be ef3d 11be b7fe 6fbe
000002b0: cb3a 62be ce0e 5e3e d42f d5bd 5e46 433e
000002c0: 0f4c c83d 5b4e 22be b97f 893e c698 473e
000002d0: 1821 c4be 0bb7 b33e 20ff 693e 4a41 853d
000002e0: 85d7 9cbd f7ca 71bd c3ef 00be 0f34 803e
000002f0: 06c9 e53d 3c6d b13b 36d3 553e 23ca 11bd

bias_hh_l0 f4 [192]
-0.018093407 -0.06895303 -0.033383362 -0.024842188 0.040534362 0.11423312 0.09759678 0.019025773
0.028720733 0.08388209 -0.019977475 0.04336469 0.17871584 -0.13996585 0.1429926 -0.0748917
0.055822242 0.10981944 0.07422101 0.089718804 0.20025524 0.117742546 -0.038172882 0.17984541
-0.10883384 0.024073856 -0.038035415 -0.0447517 -0.01455896 0.1870414 -0.086930335 -0.0741278
0.23338592 -0.0684245 0.27650043 0.067337304 -0.010968127 -0.116246104 0.04210391 -0.006474636
0.035794843 0.097447015 -0.020590067 -0.10702214 -0.15908353 -0.1500537 -0.016971739 0.004758648
0.11358415 0.069758505 0.25247887 0.055520106 -0.15001458 -0.0010584416 0.023139218 0.25103396
0.020294283 0.27292216 0.13783108 -0.10330996 0.08673052 0.10343417 0.1548394 -0.07526599
-0.35465536 -0.38774642 -0.0378032 -0.86138755 -0.5443249 -0.10175399 0.0027739417 -0.005477619
-0.58858967 -0.04340963 -0.41411826 0.2350775 0.09863836 -0.07515304 -0.13887447 -0.081839286
0.036823746 -0.093552545 -0.27622736 -0.14526454 -0.14055242 -0.18329008 0.023799729 -0.06883743
-0.398239 -0.21385682 -0.082748115 -0.22554554 -0.19714649 -0.15731753 -0.08683788 -0.6246611
0.091398664 -0.13604112 -0.08467442 -0.29414177 -0.37642223 -0.21059808 -0.21371044 -0.035780277
-0.09093541 -0.34026983 -0.30786225 -0.071276665 -0.3095155 -0.18485574 -0.27311885 -0.2847976
0.17989314 -0.3596489 -0.23991773 -0.13717452 -0.30988505 -0.10518716 -0.038231734 -0.29134503
-0.17327501 0.2999969 -0.11115042 0.053438015 -0.09561429 -0.27353087 0.10545265 -0.16580679
0.013614519 -0.0100458 0.10450333 -0.38453117 -0.033783387 0.06344547 0.07618139 0.0004142821
-0.45723233 0.10288101 -0.15992115 -0.15415595 0.011527613 0.1014222 0.20207065 -0.074846566
-0.029737273 -0.055367146 0.10665818 -0.2283979 -0.2171996 -0.0133010885 0.066659614 -0.11244222
-0.12505127 -0.10259639 -0.0013953594 -0.27593422 0.02703319 -0.048356712 -0.13477668 -0.03084151
0.3825849 0.08325978 0.3173156 -0.34857666 0.029157711 -0.12785527 -0.06597027 -0.0816544
0.18048127 0.10808279 -0.011186875 -0.27355772 -0.036193702 -0.23605014 -0.031969994 -0.09151883
0.065885164 -0.20660613 0.32223174 0.21115333 0.023154365 0.065389946 -0.025838109 -0.025137644
0.45122418 0.12423043 0.2247532 0.16235527 0.2564228 0.012392468 0.20170684 0.18544935
00000000: a038 94bc 3f37 8dbd febc 08bd d881 cbbc
00000010: 5c07 263d 0ef3 e93d d2e0 c73d f0db 9b3c
00000020: be47 eb3c 60ca ab3d cda7 a3bc 2c9f 313d
00000030: 4901 373e 3553 0fbe a76c 123e d260 99bd
00000040: dda5 643d 04e9 e03d 2f01 983d 7ebe b73d
00000050: b60f 4d3e 0123 f13d 2b5b 1cbd 6529 383e
00000060: 47e4 debd 8936 c53c 06cb 1bbd 8f4d 37bd
00000070: b488 6ebc c887 3f3e 8808 b2bd 51d0 97bd
00000080: b8fc 6e3e 2522 8cbd 7791 8d3e 24e8 893d
00000090: a9b3 33bc 7012 eebd 2675 2c3d 2f29 d4bb
000000a0: 9d9d 123d 4d92 c73d 80ac a8bc 6c2e dbbd
000000b0: cbe6 22be ada7 19be 5108 8bbc 6fee 9b3b
000000c0: cf9e e83d 8cdd 8e3d e944 813e 0d69 633d
000000d0: 6c9d 19be 68bb 8aba 758e bd3c 8687 803e
000000e0: 3240 a63c 74bc 8b3e 9723 0d3e 2c94 d3bd
000000f0: c59f b13d 4bd5 d33d 388e 1e3e 0e25 9abd
00000100: 6395 b5be b386 c6be 87d7 1abd e583 5cbf
00000110: e058 0bbf 6564 d0bd 05cb 353b 997d b3bb
00000120: d0ad 16bf 4cce 31bd 4f07 d4be 28b8 703e
00000130: e902 ca3d d6e9 99bd 1c35 0ebe 5b9b a7bd
00000140: 7fd4 163d 7a98 bfbd ac6d 8dbe 3ac0 14be
00000150: f9ec 0fbe 65b0 3bbe a6f7 c23c a3fa 8cbd
00000160: fbe5 cbbe 48fd 5abe d877 a9bd 69f5 66be
00000170: c5e0 49be d917 21be 0fd8 b1bd cae9 1fbf
00000180: 392f bb3d 5d4e 0bbe c869 adbd c099 96be
00000190: 6aba c0be 06a7 57be e9d6 5abe 578e 12bd
000001a0: 583c babd d937 aebe 1fa0 9dbe 80f9 91bd
000001b0: d178 9ebe d34a 3dbe 3cd6 8bbe fed0 91be
000001c0: e835 383e e723 b8be feac 75be 7a77 0cbe
000001d0: 41a9 9ebe 5e6c d7bd e198 1cbd 2d2b 95be
000001e0: 016f 31be 3299 993e d5a2 e3bd d2e1 5a3d
000001f0: 6dd1 c3bd 3d0c 8cbe 8ff7 d73d 41c9 29be
00000200: 6e0f 5f3c 2497 24bc d805 d63d 45e1 c4be
00000210: 7360 0abd b3ef 813d fd04 9c3d 0134 d939
00000220: 5b1a eabe 47b3 d23d 5fc2 23be 0fdb 1dbe
00000230: 50de 3c3c 71b6 cf3d 9ceb 4e3e 2849 99bd
00000240: 959b f3bc a9c8 62bd 9b6f da3d 24e1 69be
00000250: 9269 5ebe cfec 59bc d684 883d 1b48 e6bd
00000260: 710d 00be 0e1e d2bd 7ee4 b6ba 4047 8dbe
00000270: b574 dd3c b011 46bd e602 0abe 56a7 fcbc
00000280: 2be2 c33e 1b84 aa3d 3177 a23e a478 b2be
00000290: 27dc ee3c 7eec 02be 6c1b 87bd 6c3a a7bd
000002a0: 15d0 383e 835a dd3d 2849 37bc c20f 8cbe
000002b0: d93f 14bd 21b7 71be f8f2 02bd 396e bbbd
000002c0: cdee 863d 8f90 53be 8ffb a43e 9438 583e
000002d0: 39ae bd3c 2aeb 853d 71aa d3bc 76ed cdbc
000002e0: db06 e73e 866c fe3d b425 663e 7640 263e
000002f0: d949 833e c709 4b3c 3d8c 4e3e 6fe6 3d3e

weight_ih_l1 f4 [192, 64]
0.028512897 -0.22628734 0.19938618 0.107259095 -0.07048549 0.18090515 0.023144316 -0.27186504
0.04887717 0.15604797 -0.16965537 -0.016769823 -0.07386613 0.15819784 0.11965031 0.16813761
0.13041003 0.07017711 -0.001854975 -0.19208579 0.102933906 0.0759984 -0.017217664 0.17456296
-0.113957606 -0.050740726 -0.049862705 -0.24955931 -0.077306576 0.19988106 -0.19989759 -0.16527414
0.2495533 0.31809112 -0.14705522 -0.29941577 0.11320622 -0.30061403 0.16362466 0.06721832
-0.03526428 0.07965347 -0.04654885 0.0030740448 -0.09306282 0.016809938 -0.38126376 -0.20434682
0.085366875 0.05590931 -0.06587576 0.40791962 0.052924838 0.14972039 0.010320297 0.21419542
-0.10315129 0.16931123 -0.03520928 -0.069530465 -0.062208116 -0.2077792 -0.06909483 0.45386246
-0.3348348 -0.35279953 0.021421384 -0.062196877 -0.32519937 0.2300106 -0.010820324 -0.097084306
0.17204511 -0.07923074 0.11178894 -0.21542917 0.057556592 0.12202837 -0.00042235598 0.22345695
-0.0051591475 0.0017246869 0.019023735 0.18764357 0.36382 0.010277138 0.07398005 0.11688462
-0.4757608 -0.050932653 0.25298667 -0.26266438 0.034778565 -0.3228649 -0.10395568 0.16421486
0.1086718 -0.19395748 -0.67257184 0.28799596 0.2674787 -0.16658345 0.11665737 0.24929114
-0.07733593 0.07736337 -0.19478986 0.04385132 -0.014895074 -0.06998706 -0.21738099 0.14474171
-0.5280225 -0.1502187 0.25831127 -0.056267668 0.115398176 -0.12046611 0.14233536 -0.21536483
0.08741045 0.07200512 0.18118039 -0.19599481 -0.009690897 0.0049114856 0.09726644 -0.17340611
0.102070585 0.0309768 -0.054680567 0.08740034 0.13145666 -0.0030840684 0.038225345 0.036848687
0.20933414 -0.19430277 0.16488893 -0.089090526 0.07999901 0.01574432 -0.19800864 0.19695957
-0.36033309 -0.37206718 -0.06607226 0.04794239 0.024614103 -0.09091051 0.0027953265 -0.024716148
0.046459354 0.29134467 0.11444676 -0.33664155 -0.008684743 -0.26278326 -0.121727444 0.015016134
0.106334046 0.12136666 -0.2568596 0.022757435 -0.052601747 0.030042931 -0.33812827 -0.3198411
-0.09312997 -0.037774425 -0.13793449 -0.2387787 -0.022168156 -0.31143036 0.16632235 -0.01379011
-0.042574264 -0.40081346 0.07893523 0.12190567 -0.12670368 -0.020629674 0.030305846 0.13319969
0.09601997 0.006733684 -0.15153511 -0.046594135 0.122077435 0.4689563 -0.18571661 0.3412171
0.26045182 -0.1541541 -0.034473136 -0.2225698 0.1183935 0.32873717 -0.029543463 -0.24797495
-0.41325873 -0.098648384 -0.02410688 0.16276398 -0.22801827 0.20634912 -0.43384072 -0.09088377
0.07724717 -0.26206654 -0.10768343 -0.22147973 -0.06705589 -0.10031374 0.16147369 0.1059445
0.1810144 -0.049633164 -0.07623166 -0.084202126 0.0977134 0.102894865 -0.16533068 0.21607023
0.04847702 -0.3102367 0.21167797 -0.12910375 -0.020008182 0.06042981 0.16170354 0.40285248
-0.5083178 -0.09945331 -0.2686254 0.07331665 -0.49696812 0.05686845 -0.43609425 -0.060873922
0.25957915 -0.051598463 -0.02420452 0.0478625 -0.23356633 0.1655334 0.19844759 -0.11038467
-0.019658402 -0.0084663965 -0.25010064 0.24678335 0.19915064 -0.06274629 0.11440308 -0.16218436
00000000: e193 e93c deb7 67be e42b 4c3e a8aa db3d
00000010: b25a 90bd 333f 393e 2699 bd3c e531 8bbe
00000020: 6d33 483d 0acb 1f3e 23ba 2dbe de60 89bc
00000030: 2047 97bd 9dfe 213e 390b f53d 442c 2c3e
00000040: 358a 053e 04b9 8f3d a222 f3ba 23b2 44be
00000050: 03cf d23d 0da5 9b3d 0f0c 8dbc a2c0 323e
00000060: 9b62 e9bd 82d5 4fbd d63c 4cbd 7a8c 7fbe
00000070: e952 9ebd 9fad 4c3e f4b1 4cbe a03d 29be
00000080: e68a 7f3e d7dc a23e a595 16be 064d 99be
00000090: aad8 e73d 15ea 99be 398d 273e c2a9 893d
000000a0: 4771 10bd 5c21 a33d 02aa 3ebd ea75 493b
000000b0: b897 bebd ffb4 893c 0135 c3be 4b40 51be
000000c0: d4d4 ae3d 2901 653d dfe9 86bd d7da d03e
000000d0: b7c7 583d 4d50 193e 7716 293c 0b56 5b3e
000000e0: fc40 d3bd ec5f 2d3e 9b37 10bd fd65 8ebd
000000f0: f0cd 7ebd 12c4 54be 9781 8dbd a960 e83e
00000100: 786f abbe 24a2 b4be e67b af3c 27c2 7ebd
00000110: 8880 a6be e687 6b3e ba47 31bc 23d4 c6bd
00000120: 982c 303e ba43 a2bd 9af1 e43d 7799 5cbe
00000130: 76c0 6b3d 03ea f93d a96f ddb9 e6d1 643e
00000140: 110e a9bb e40e e23a aad7 9b3c a325 403e
00000150: 9d46 ba3e 7161 283c da82 973d 3461 ef3d
00000160: eb96 f3be c29e 50bd 7887 813e f27b 86be
00000170: f873 0e3d 8c4e a5be b7e6 d4bd f127 283e
00000180: 528f de3d ca9c 46be ab2d 2cbf 3574 933e
00000190: f8f2 883e da94 2abe 0fea ee3d 2d46 7f3e
000001a0: 4d62 9ebd b070 9e3d fe76 47be 719d 333d
000001b0: 780a 74bc 6055 8fbd 1f99 5ebe 2c37 143e
000001c0: 7c2c 07bf eed2 19be 6041 843e ed78 66bd
000001d0: e155 ec3d f0b6 f6bd 5cc0 113e 9988 5cbe
000001e0: 4004 b33d 6c77 933d 5a87 393e ddb2 48be
000001f0: 91c6 1ebc 87f0 a03b a133 c73d 5f91 31be
00000200: 620a d13d 0fc3 fd3c bbf8 5fbd f3fe b23d
00000210: 939c 063e 151e 4abb 2e92 1c3d a6ee 163d
00000220: b05b 563e 4ef7 46be a5d8 283e 1875 b6bd
00000230: 85d6 a33d 3bfa 803c c7c2 4abe c5af 493e
00000240: 947d b8be 977f bebe e550 87bd 3d5f 443d
00000250: 84a3 c93c 4a2f babd cc31 373b 8579 cabc
00000260: 2a4c 3e3d 212b 953e 1063 ea3d 485c acbe
00000270: 744a 0ebc 878b 86be 3d4c f9bd 3b06 763c
00000280: aac5 d93d 158f f83d 1a83 83be cd6d ba3c
00000290: ee74 57bd 981c f63c 261f adbe 36c2 a3be
000002a0: edba bebd 5bb9 1abd b33e 0dbe 6782 74be
000002b0: fe99 b5bc cd73 9fbe 6850 2a3e eaef 61bc
000002c0: 5a62 2ebd 6c37 cdbe cba8 a13d aea9 f93d
000002d0: 9cbe 01be 90ff a8bc f743 f83c 8065 083e
000002e0: 1ea6 c43d 3ca6 dc3b 052c 1bbe 7ed9 3ebd
000002f0: bc03 fa3d 0a1b f03e 7f2c 3ebe 02b4 ae3e
00000300: f159 853e 93da 1dbe b433 0dbd 56e9 63be
00000310: 4b78 f23d 3d50 a83e 2205 f2bc 25ed 7dbe
00000320: a696 d3be 2a08 cabd cb7b c5bc 9aab 263e
00000330: 9f7d 69be 2f4d 533e 5f20 debe 4521 babd
00000340: c433 9e3d 962d 86be 2189 dcbd 95cb 62be
00000350: 9954 89bd 4a71 cdbd 5c59 253e 6ef9 d83d
00000360: d75b 393e 254c 4bbd 581f 9cbd 2a72 acbd
00000370: f71d c83d 8bba d23d 724c 29be 8441 5d3e
00000380: d78f 463d 58d7 9ebe 1cc2 583e c633 04be
00000390: 33e8 a3bc 4085 773d 9d95 253e ae42 ce3e
000003a0: 1e21 02bf 2dae cbbd 4589 89be 0a27 963d
000003b0: 9b72 febe e4ee 683d bf47 dfbe ef56 79bd
000003c0: 8fe7 843e e958 53bd 8f48 c6bc 780b 443d
000003d0: 032c 6fbe 9681 293e d835 4b3e 5c11 e2bd
000003e0: a80a a1bc a4b6 0abc 310d 80be c6b4 7c3e
000003f0: 25ee 4b3e 2081 80bd 294c ea3d a813 26be

weight_hh_l1 f4 [192, 64]
-0.051702846 -0.08102931 0.045928895 -0.14077707 -0.083981395 0.2425372 0.12471878 -0.0040739095
0.094168946 0.047628988 -0.15916862 0.023701208 0.017779972 0.004931014 -0.08332535 -0.030648936
0.17011943 0.055892706 -0.48410764 0.21254216 -0.07292739 -0.29179838 -0.021604896 -0.10378322
0.19045736 0.13969499 -0.13248107 -0.057957623 0.016285326 0.23648606 0.21514358 -0.25717974
0.20187962 -0.24505925 0.2089763 0.006868254 -0.30284277 0.48800498 0.07280015 0.08433489
-0.016035918 -0.22038932 -0.0066786087 -0.14947805 -0.25662768 -0.011907011 0.073977135 -0.011973134
0.0056292973 0.015829027 -0.21349473 -0.449781 -0.5352319 -0.20379227 -0.08560639 -0.10884082
-0.14896354 -0.096317425 0.006434597 0.099572904 0.27061248 0.09462243 0.072699256 0.1602892
0.020157347 -0.066152394 0.18010792 -0.033729907 0.022585828 0.14176561 0.0062110396 -0.08996404
-0.2610178 0.016321264 -0.22548604 0.19654672 0.1448236 -0.08304817 -0.05184387 0.2893745
0.018193852 0.09586739 0.038477503 0.14569993 -0.1130342 -0.048111144 -0.17907542 0.13933513
0.16222179 0.040611956 0.013185471 -0.02845823 -0.45566046 0.32979202 -0.11339373 0.060368698
-0.18309088 -0.18259138 0.08529568 -0.079677805 -0.16519599 0.13657282 -0.10204563 0.25253263
-0.117430024 -0.15056849 -0.14376579 -0.030267524 -0.28933665 0.13676605 0.21178149 0.106686264
-0.16625407 0.20054618 -0.110570185 -0.10863115 0.18122114 0.21513304 0.03943741 0.07745946
-0.10398862 0.46875167 -0.10118119 -0.0900463 -0.03076683 0.042499132 0.03634343 -0.031682294
-0.12663768 -0.083790064 -0.12093162 -0.008475339 -0.23752557 0.13865584 -0.08303597 0.09887089
0.09001194 -0.16747433 -0.021912746 -0.17197405 0.106071405 0.33291703 0.08989974 -0.047558192
0.48420745 -0.14409721 -0.12121473 -0.12730126 -0.24889432 -0.2172478 0.15320328 0.021738764
0.08719395 0.098917864 -0.16160382 0.3874351 -0.0050234334 0.14157373 0.36106005 -0.2297166
0.13283157 -0.112820484 -0.09832125 -0.031277735 -0.26359195 0.16349782 0.039562427 0.18143117
-0.0076077078 -0.5804644 0.024717484 -0.2754987 -0.29124886 -0.04292902 -0.3884836 0.07152146
0.36481452 0.24330822 -0.030143956 -0.17231146 -0.28554052 0.2833058 0.019788142 -0.814393
0.16438721 -0.09763951 0.018794328 0.091798015 0.16951843 0.19098023 0.162239 0.22230439
-0.09523791 0.0030456535 -0.10560301 -0.1087187 -0.08237602 -0.06196879 0.22155587 0.15464558
0.07350612 0.08398516 0.1129035 -0.17883049 0.21065277 0.15320231 -0.13250573 -0.12493092
-0.27885377 0.093427636 -0.26267084 -0.057704274 0.0029533084 -0.15995142 0.23661633 0.051840734
-0.30457932 -0.03068968 -0.23197083 0.039517842 0.14975588 -0.016840681 0.18446867 0.27985403
-0.11702503 0.25203484 -0.12321443 -0.022405468 -0.15302801 -0.036200654 -0.12989005 -0.15230556
-0.06291469 -0.11254636 0.039717786 -0.24330838 -0.12962075 0.2880206 -0.24256338 0.09366751
0.35190743 -0.07695053 0.117693655 -0.07422955 -0.0063741407 0.32872528 -0.13264246 -0.15524995
0.022043413 0.038443502 -0.13165118 0.27323145 0.076606296 -0.10506711 -0.3232693 0.018279258
00000000: 5dc6 53bd b2f2 a5bd f01f 3c3d dd27 10be
00000010: 70fe abbd ac5b 783e 8f6c ff3d 6e7e 85bb
00000020: a6db c03d 9d16 433d 19fd 22be 0929 c23c
00000030: 4ea7 913c 5894 a13b 7ba6 aabd 7a13 fbbc
00000040: ca33 2e3e c0ef 643d f5dc f7be a7a4 593e
00000050: f55a 95bd 9966 95be c0fc b0bc 4c8c d4bd
00000060: 4107 433e 340c 0f3e 1ea9 07be f964 6dbd
00000070: ce68 853c 6729 723e 994e 5c3e 10ad 83be
00000080: 88b9 4e3e d0f0 7abe e2fd 553e 170f e13b
00000090: 350e 9bbe cadb f93e 3f18 953d c5b7 ac3d
000000a0: c25d 83bc bdad 61be 3bd8 dabb c610 19be
000000b0: b464 83be a015 43bc 5381 973d f72a 44bc
000000c0: f875 b83b e0ab 813c 5d9e 5abe b249 e6be
000000d0: f504 09bf ecae 50be 6752 afbd f0e7 debd
000000e0: e689 18be 1242 c5bd 50d9 d23b e1ec cb3d
000000f0: b88d 8a3e 68c9 c13d 59e3 943d da22 243e
00000100: 0521 a53c e87a 87bd 366e 383e 5f28 0abd
00000110: ea05 b93c 012b 113e fa85 cb3b 113f b8bd
00000120: 20a4 85be 2cb4 853c d0e5 66be 8b43 493e
00000130: a34c 143e 2915 aabd 3d5a 54bd e528 943e
00000140: 460b 953c 1f56 c43d 969a 1d3d 5d32 153e
00000150: 7a7e e7bd 3110 45bd 8c5f 37be dead 0e3e
00000160: 781d 263e b958 263d e007 583c 3c21 e9bc
00000170: 544c e9be 80da a83e f93a e8bd 2b45 773d
00000180: 2d7c 3bbe 3cf9 3abe 80af ae3d 1e2e a3bd
00000190: 2329 29be bfd9 0b3e 4dfd d0bd f54b 813e
000001a0: 277f f0bd a02e 1abe 5737 13be 99f3 f7bc
000001b0: ef23 94be 660c 0c3e 3fdd 583e 547e da3d
000001c0: 823e 2abe fa5b 4d3e 9f72 e2bd 027a debd
000001d0: 0992 393e d64b 5c3e 1f89 213d 11a3 9e3d
000001e0: fcf7 d4bd 3800 f03e 1538 cfbd 326a b8bd
000001f0: b80a fcbc 9213 2e3d d9dc 143d 4bc5 01bd
00000200: 4fad 01be 209a abbd ffaa f7bd 26dc 0abc
00000210: e739 73be ccfb 0d3e c30e aabd d27c ca3d
00000220: 2e58 b83d 647e 2bbe 5c82 b3bc f719 30be
00000230: f73b d93d 1a74 aa3e 5b1d b83d 61cc 42bd
00000240: 0aea f73e 388e 13be 6e3f f8bd 435b 02be
00000250: 27de 7ebe 3576 5ebe 52e1 1c3e 7e15 b23c
00000260: be92 b23d 7395 ca3d 797b 25be e55d c63e
00000270: 9d9b a4bb b4f8 103e dddc b83e d43a 6bbe
00000280: 0005 083e 6d0e e7bd a75c c9bd 151d 00bd
00000290: 86f5 86be f96b 273e 360c 223d 18c9 393e
000002a0: 144a f9bb 5199 14bf 527c ca3c 2a0e 8dbe
000002b0: 921e 95be 57d6 2fbd 53e7 c6be d879 923d
000002c0: f8c8 ba3e ca25 793e 75f0 f6bc 6a72 30be
000002d0: 5e32 92be 750d 913e be1a a23c 0f7c 50bf
000002e0: 1f55 283e 39f7 c7bd 90f6 993c 9900 bc3d
000002f0: 3d96 2d3e 5290 433e fb21 263e c3a3 633e
00000300: 180c c3bd 9699 473b 6446 d8bd e9a7 debd
00000310: c2b4 a8bd fcd2 7dbd 8bdf 623e 695b 1e3e
00000320: 608a 963d 6900 ac3d f339 e73d 571f 37be
00000330: 5cb5 573e 11e1 1c3e 95af 07be c8db ffbd
00000340: ecc5 8ebe fd56 bf3d cb7c 86be 515b 6cbd
00000350: 4b8c 413b 4eca 23be 8d4b 723e f356 543d
00000360: d2f1 9bbe ec68 fbbc c389 6dbe 76dd 213d
00000370: 9b59 193e 78f5 89bc 5be5 3c3e 0749 8f3e
00000380: d2aa efbd b60a 813e d957 fcbd ac8b b7bc
00000390: 60b3 1cbe 2347 14bd e601 05be fdf5 1bbe
000003a0: 6bd9 80bd b57e e6bd 1eaf 223d d525 79be
000003b0: 4dbb 04be 7077 933e 8962 78be c0d4 bf3d
000003c0: 362d b43e 3d98 9dbd 5f09 f13d aa05 98bd
000003d0: 2bde d0bb ae4e a83e 6dd3 07be d8f9 1ebe
000003e0: 6394 b43c ef76 1d3d 91cf 06be fee4 8b3e
000003f0: c3e3 9c3d 6d2d d7bd 8e83 a5be 62be 953c

bias_ih_l1 f4 [192]
0.0797526 0.09067329 0.17208134 0.088420875 0.20310435 0.035685558 -0.013919025 0.29740772
0.07856586 0.18078622 -0.13755944 -5.089083e-05 0.0985479 0.021185318 0.08806129 0.28302473
-0.07740897 0.08086834 -0.10430722 0.12900071 -0.0121934395 0.1560199 0.13595788 0.20100258
0.084281154 -0.011435701 0.08248216 0.004108039 -0.030286297 -0.13493954 0.19990641 0.24885114
0.11239622 -0.06679599 0.16600534 0.07769795 0.005903495 -0.074052714 0.08812061 -0.051306583
0.10624466 -0.09029858 0.136625 -0.003102087 -0.09474151 -0.008609048 -0.0124806985 0.0596322
-0.006436483 0.09391368 0.11815753 0.14516912 -0.1326514 -0.10309454 0.14580068 -0.10707923
0.09994038 0.08029888 0.044074383 0.24636316 0.034907173 0.07835168 -0.04012668 0.0091479765
0.061768986 -0.2717645 -0.14711116 -0.20075113 -0.312854 -0.30917457 -0.2953623 -0.04069313
-0.30579305 -0.3073103 -0.23085442 -0.05691086 -0.3516365 -0.32017916 -0.43747953 -0.13631256
-0.12741277 -0.15063517 -0.28596503 -0.40989834 -0.15017156 -0.17479964 0.10759583 -0.14290455
-0.31443095 -0.1568443 -0.032942224 -0.17859954 0.14123055 -0.066567935 -0.11964502 -0.04540297
0.22250976 -0.007968511 -0.18148579 -0.15691724 -0.13154325 -0.17649306 -0.107766666 0.1769377
-0.22343974 -0.1674472 -0.26778108 -0.092052735 -0.26718354 -0.081134774 -0.17780748 0.09770285
-0.3317035 -0.12955996 -0.0025285156 -0.19460785 0.024671359 -0.052437335 -0.14217603 0.010614784
-0.15592766 -0.4085875 -0.0880839 -0.22814018 -0.33871865 -0.083608806 -0.22383635 -0.21140167
-0.16809444 -0.10506535 0.037545316 0.00022222335 -0.25574547 -0.22093838 -0.040058278 0.10225345
0.17476012 0.049604785 -0.39918464 -0.038034264 -0.0024738584 -0.24017882 0.025133988 0.1578417
0.03445807 -0.04057427 -0.020914523 0.13981155 -0.20218173 0.04189272 -0.0588016 -0.070598446
0.0852658 0.13616373 0.17669699 0.12261586 -0.1988822 -0.008559729 0.14082566 -0.086388305
0.035727788 -0.048362717 0.25586691 0.08074919 -0.07665319 0.033594154 0.2357961 -0.22718099
-0.045437474 -0.15343171 0.0004478862 -0.11647804 -0.09547137 0.06974269 0.12889232 -0.037732426
0.045387574 0.13542078 -0.2856756 0.121275604 -0.04108844 0.027664742 -0.06646062 0.02040303
-0.14353305 -0.23919925 0.038592834 0.19390848 0.08951378 -0.0042906827 0.088965304 0.23487791
00000000: 5555 a33d ebb2 b93d 1736 303e 0116 b53d
00000010: 96fa 4f3e 052b 123d 9f0c 64bc d345 983e
00000020: 23e7 a03d 0620 393e 62dc 0cbe 9d73 55b8
00000030: 7bd3 c93d d58c ad3c 7a59 b43d 9ee8 903e
00000040: 9888 9ebd 4d9e a53d 069f d5bd c318 043e
00000050: fec6 47bc aec3 1f3e 8b38 0b3e 9fd3 4d3e
00000060: 999b ac3d ce5c 3bbc 68ec a83d bb9c 863b
00000070: f81a f8bc 972d 0abe 44b4 4c3e d5d2 7e3e
00000080: fd2f e63d 56cc 88bd 4efd 293e 1a20 9f3d
00000090: 1b72 c13b f3a8 97bd 9478 b43d da26 52bd
000000a0: cd96 d93d 76ee b8bd 6de7 0b3e 624c 4bbb
000000b0: d607 c2bd f70c 0dbc d87b 4cbc e540 743d
000000c0: 22e9 d2bb d155 c03d 93fc f13d 37a7 143e
000000d0: c5d5 07be 3b23 d3bd c64c 153e 5b4c dbbd
000000e0: 8bad cc3d bd73 a43d 5787 343d a046 7c3e
000000f0: d3fa 0e3d d876 a03d e05b 24bd 65e1 153c
00000100: 7a01 7d3d b724 8bbe 4fa4 16be b491 4dbe
00000110: 662e a0be 214c 9ebe ba39 97be d7ad 26bd
00000120: e890 9cbe c757 9dbe 1a65 6cbe 5d1b 69bd
00000130: b309 b4be 86ee a3be 51fd dfbe 8595 0bbe
00000140: 7e78 02be 1b40 1abe 026a 92be 32de d1be
00000150: 93c6 19be adfe 32be 345b dc3d 9255 12be
00000160: 18fd a0be cb9b 20be 6dee 06bd cce2 36be
00000170: be9e 103e c554 88bd 7308 f5bd 77f8 39bd
00000180: 99d9 633e 5c8e 02bc 69d7 39be eaae 20be
00000190: 46b3 06be 99ba 34be c5b4 dcbd 282f 353e
000001a0: 63cd 64be 4777 2bbe 9a1a 89be 2586 bcbd
000001b0: 48cc 88be fd29 a6bd 2a13 36be 6f18 c83d
000001c0: 0bd5 a9be 5eab 04be 74b5 25bb 4847 47be
000001d0: 971b ca3c 88c8 56bd 9896 11be a2e9 2d3c
000001e0: 80ab 1fbe 6132 d1be 5565 b4bd 949d 69be
000001f0: 886c adbe 183b abbd 5b35 65be ae79 58be
00000200: f320 2cbe 812c d7bd 1ec9 193d a004 6939
00000210: 12f1 82be ac3d 62be 2614 24bd 426a d13d
00000220: 51f4 323e 632e 4b3d ee61 ccbe d1c9 1bbd
00000230: 7520 22bb 70f1 75be cbe5 cd3c 41a1 213e
00000240: e823 0d3d 3531 26bd ef54 abbc c22a 0f3e
00000250: ba08 4fbe b397 2b3d f2d9 70bd eb95 90bd
00000260: d69f ae3d 816e 0b3e 0ef0 343e 061e fb3d
00000270: c7a7 4bbe 1b3e 0cbc 9a34 103e 5aec b0bd
00000280: 4d57 123d fc17 46bd fd00 833e d55f a53d
00000290: 59fc 9cbd 069a 093d 8874 713e 22a2 68be
000002a0: a51c 3abd 341d 1dbe 45d2 ea39 0a8c eebd
000002b0: 7e86 c3bd 41d5 8e3d 59fc 033e 518d 1abd
000002c0: 52e8 393d bfab 0a3e 1244 92be 585f f83d
000002d0: 5a4c 28bd 2ba1 e23c 811c 88bd 4124 a73c
000002e0: 54fa 12be a6f0 74be 8513 1e3d f28f 463e
000002f0: 0053 b73d db98 8cbb 7133 b63d d683 703e

bias_hh_l1 f4 [192]
0.12680744 -0.044004276 0.019730004 0.07912758 0.14458701 -0.0112566985 -0.02973195 0.40128043
0.10607953 0.13208422 0.029139671 -0.013846184 0.05466424 0.025103696 0.05431446 0.21424071
0.041168563 0.07715675 0.019905213 0.19470097 0.0912165 0.118742555 0.0915497 -0.008322189
-0.021693 -0.10069483 0.088679016 0.0547645 0.006641129 0.030211817 0.14748834 0.25560147
0.12492933 -0.06813877 0.02243098 -0.0590024 0.005657527 -0.08213953 0.07487501 -0.11045263
-0.044973508 -0.012715672 0.05439322 0.07438907 -0.003681838 0.09294112 0.03511902 0.09391068
-0.005238547 0.023149379 -0.028501503 0.14762084 -0.11357154 0.053015128 0.12008944 0.10305607
0.06152678 0.10995238 0.0082914615 0.09550336 0.015654499 -0.08275625 0.15337056 0.017514544
-0.117647715 -0.099751756 -0.20986694 -0.26628387 -0.3501517 -0.31842265 -0.2764564 -0.12886469
-0.17502204 -0.38115788 -0.26199475 -0.13815317 -0.36828873 -0.2830826 -0.4401792 -0.17803274
-0.21488123 -0.13666035 -0.21054983 -0.38641426 -0.19580339 -0.15621653 0.005410796 -0.24228339
-0.3187168 0.031164367 -0.06300204 -0.16023926 0.020620698 -0.013632827 -0.18646574 -0.22885954
0.16240071 0.1401413 -0.14737837 -0.10636876 -0.26942888 -0.2484897 -0.14927351 0.2107583
-0.18652563 -0.31605044 -0.2142559 -0.08726684 -0.25064996 0.024910085 -0.2799755 -0.11445307
-0.2858344 -0.13679147 0.029298527 -0.25575256 0.011555218 -0.0785387 -0.21900295 0.014488198
-0.3201959 -0.31652966 -0.2338112 -0.14388761 -0.20262648 0.10257541 -0.24853054 -0.20111649
-0.09976877 -0.18261175 -0.06159676 -0.33209172 -0.16401827 0.22717239 -0.33968592 0.30959982
0.23662075 0.23833561 -0.09069748 0.056734007 0.13314071 -0.27128062 0.07899066 0.0754929
0.16496417 -0.052011292 -0.052025817 0.10027687 -0.22609909 -0.01274608 0.09837923 -0.12674713
0.23473772 0.26810807 -0.064819254 0.2056825 0.02441262 0.039864313 0.08350436 -0.24118744
-0.123347506 -0.26823226 0.60475296 0.06817942 -0.09202053 0.1706529 0.1957268 -0.19881834
-0.077949226 -0.039993163 0.070011884 -0.28031626 -0.05434274 0.110405035 -0.2856328 0.110131025
0.051849503 0.16049 -0.15535249 -0.34165657 -0.1011983 0.096640944 0.14896324 -0.101030596
-0.036562108 -0.26761806 0.16800566 0.20697474 -0.047739886 0.25997198 0.23594983 -0.03425115
00000000: cfd9 013e d43d 34bd d1a0 a13c a40d a23d
00000010: 9e0e 143e 046e 38bc 6b90 f3bc a174 cd3e
00000020: 3a40 d93d 1641 073e 52b6 ee3c 1bdb 62bc
00000030: 9ce7 5f3d 44a6 cd3c d778 5e3d eb61 5b3e
00000040: 5ea0 283d 5c04 9e3d 4210 a33c b15f 473e
00000050: b7cf ba3d 4c2f f33d 697e bb3d ca59 08bc
00000060: 85b5 b1bc 1739 cebd 589d b53d be50 603d
00000070: d49d d93b c67e f73c 2f07 173e 32de 823e
00000080: f3da ff3d 578c 8bbd 2dc1 b73c 80ac 71bd
00000090: c762 b93b c538 a8bd 1258 993d fd34 e2bd
000000a0: 2436 38bd 6555 50bc 6dcb 5e3d 4c59 983d
000000b0: fe4a 71bb ea57 be3d f6d8 0f3d 3e54 c03d
000000c0: 1ea8 abbb c4a3 bd3c fc7b e9bc eb29 173e
000000d0: 3298 e8bd 6426 593d 74f1 f53d 100f d33d
000000e0: 8103 7c3d b72e e13d e9d8 073c 4497 c33d
000000f0: dd3d 803c 1c7c a9bd 2c0d 1d3e a97a 8f3c
00000100: 49f1 f0bd a64a ccbd 5ce7 56be 5c56 88be
00000110: 1547 b3be 4b08 a3be b18b 8dbe 1bf5 03be
00000120: fa38 33be 2027 c3be 2d24 86be 0678 0dbe
00000130: 5790 bcbe 34f0 90be 2b5f e1be 374e 36be
00000140: d309 5cbe b1f0 0bbe 609a 57be 17d8 c5be
00000150: af80 48be 3af7 1fbe 0c4d b13b 2319 78be
00000160: d92e a3be 6a4c ff3c 3707 81bd c315 24be
00000170: bdec a83c 395c 5fbc e0f0 3ebe 285a 6abe
00000180: 5f4c 263e 3381 0f3e 5bea 16be ddd7 d9bd
00000190: 95f2 89be 1574 7ebe 28db 18be 06d1 573e
000001a0: 9300 3fbe 5dd1 a1be e665 5bbe f5b8 b2bd
000001b0: 3155 80be 3c10 cc3c f358 8fbe 5f66 eabd
000001c0: e358 92be 1013 0cbe 7703 f03c 00f2 82be
000001d0: 1952 3d3c e6d8 a0bd 4f42 60be e85f 6d3c
000001e0: b8f0 a3be 2d10 a2be 346c 6fbe 4657 13be
000001f0: 517d 4fbe 0e13 d23d ca7e 7ebe 7bf1 4dbe
00000200: 9253 ccbd 93fe 3abe e24c 7cbd ed07 aabe
00000210: 68f4 27be e19f 683e 50eb adbe de83 9e3e
00000220: b64c 723e 400e 743e 9abf b9bd eb61 683d
00000230: 0a56 083e 4be5 8abe dbc5 a13d 069c 9a3d
00000240: 5eec 283e cb09 55bd 0619 55bd f65d cd3d
00000250: 8586 67be efd4 50bc 0d7b c93d 00ca 01be
00000260: 165f 703e 7645 893e f5bf 84bd 6f9e 523e
00000270: fafc c73c c348 233d 5504 ab3d d7f9 76be
00000280: 9e9d fcbd bd55 89be 17d1 1a3f a7a1 8b3d
00000290: 4275 bcbd a2bf 2e3e 9b6c 483e 0997 4bbe
000002a0: d8a3 9fbd dfcf 23bd 6462 8f3d 9d85 8fbe
000002b0: 7e96 5ebd 091c e23d 763e 92be 608c e13d
000002c0: 2560 543d 7e57 243e b914 1fbe 9ced aebe
000002d0: 0e41 cfbd b0eb c53d d289 183e 21e9 cebd
000002e0: 26c2 15bd 3c05 89be ad09 2c3e 30f1 533e
000002f0: e68a 43bd 0c1b 853e d59c 713e ef4a 0cbd

weight f4 [1, 64]
-0.048817664 0.11230755 0.04022637 0.11536044 0.07937616 0.050342396 -0.114319 -0.07003531
0.004443094 0.088672936 -0.05361873 -0.016636297 -0.10554215 -0.10151474 0.12181789 -0.01377444
0.0695329 0.08396827 -0.12419048 0.050297067 0.110691056 -0.010723308 0.074457616 -0.054752782
0.12002988 -0.080072746 -0.05745375 -0.119697094 -0.035957053 -0.01709932 0.092947885 -0.032809198
0.09575492 -0.09333895 -0.10027145 -0.016423285 -0.023680463 0.03778386 0.034148946 -0.07480158
-0.06318475 0.08538325 -0.112200096 -0.0032134354 0.11016142 -0.12411368 0.03293349 0.018220544
-0.053593352 0.060939655 -0.03872335 0.00011052191 0.112581104 -0.07940112 0.092649326 0.058039963
-0.085891634 0.016860113 -0.034953162 0.09234531 0.015718088 0.04672654 0.11584732 -0.10208003
00000000: 08f5 47bd 8001 e63d 68c4 243d 1842 ec3d
00000010: f88f a23d d433 4e3d 1420 eabd ac6e 8fbd
00000020: 6097 913b 289a b53d 509f 5bbd d848 88bc
00000030: 7c26 d8bd f6e6 cfbd a87b f93d 30ae 61bc
00000040: 4467 8e3d 8ef7 ab3d 9457 febd 4c04 4e3d
00000050: feb1 e23d d0b0 2fbc 3c7d 983d 7444 60bd
00000060: 3ad2 f53d 2efd a3bd a054 6bbd c023 f5bd
00000070: b447 13bd e013 8cbc 765b be3d f062 06bd
00000080: 281b c43d 7e28 bfbd 1e5b cdbd 208a 86bc
00000090: 88fd c1bc 40c3 1a3d c4df 0b3d 9231 99bd
000000a0: 0267 81bd 6add ae3d 2ac9 e5bd 8098 52bb
000000b0: 509c e13d 502f febd 44e5 063d 4043 953c
000000c0: b484 5bbd dc9b 793d 609c 1ebd 00c8 e738
000000d0: ec90 e63d 0e9d a2bd eebe bd3d 50bb 6d3d
000000e0: f4e7 afbd 381e 8a3c 0c2b 0fbd 8a1f bd3d
000000f0: 38c3 803c 5464 3f3d 5c41 ed3d 560f d1bd
